mujoco/gail/save_model/ckpt_716.pth.tar (torch, 144879 bytes, 16 tensors)

fc1.weight f4 [100, 11]
-0.036814455 -0.21781126 0.11048447 -0.14255868 0.12407248 0.10432083 -0.26969436 0.16954035
0.17638445 0.22201946 -0.009635776 0.2751908 -0.090734 0.017931009 -0.30281278 0.10739079
0.08952611 -0.030633373 0.066048555 0.12762907 0.15065305 0.1488435 0.17888476 -0.07415196
-0.28993705 0.052095443 0.11811985 -0.2115949 -0.07422412 0.23370124 -0.06484235 -0.037584223
0.118818685 0.21850929 -0.16465339 0.061278977 0.19088009 0.09629713 0.18797076 -0.30075976
-0.043954033 -0.24105833 0.25390154 -0.30522883 0.083164245 0.25550324 0.2081942 -0.28005263
-0.06455849 0.10489459 -0.2236077 -0.025477234 0.24830706 0.06680791 0.09887852 0.25974178
-0.04733519 -0.013683973 0.12272765 0.412455 0.13187426 0.093032815 -0.13775243 0.012365422
-0.055992 -0.016178843 0.25443846 -0.23301184 0.28881645 -0.24627101 -0.017999234 -0.22585851
0.27684245 -0.056664474 -0.041984353 -0.20679392 -0.15731338 0.005137869 0.35721424 -0.2005489
-0.16000715 0.2557159 0.17025223 0.18658604 0.0022981178 -0.27907437 0.22333385 0.27080503
-0.078984566 0.0776752 -0.27374282 -0.2631843 0.20704381 0.23783605 0.10992626 -0.1698598
0.32389182 -0.26555556 0.20412394 -0.036749072 0.22273864 -0.0765432 0.08483537 0.2572136
-0.20862705 0.15607363 0.35037717 0.21393475 0.2143564 -0.03795159 -0.2403412 -0.081452206
0.07252446 -0.24706025 -0.122787856 0.25278592 -0.09119994 0.2443965 0.107637435 0.23615324
-0.058999598 -0.21534778 -0.041074004 0.019843645 0.023887467 0.28998113 0.33398086 -0.07777606
-0.06651328 -0.06078935 -0.19795796 0.2610585 -0.025135549 0.2279385 -0.16853094 0.15735304
0.14915116 -0.13917512 0.037079018 -0.0767218 0.23837957 0.023144355 0.10156939 0.0738238
0.09772985 -0.22355318 0.18514335 -0.09252043 -0.06813012 0.036337536 0.28067085 0.33502346
-0.13795984 0.02631913 -0.26450554 -0.071672566 0.19649792 0.25712356 -0.011473858 -0.0038996502
0.2863837 0.29311532 -0.0074427347 0.10864434 0.16306788 -0.08960258 -0.110865 0.04347664
0.15598159 0.25315842 0.10589742 -0.11062703 -0.032889932 0.2183738 0.15077491 -0.09552806
0.1331137 -0.2927535 0.07487914 0.18533407 0.12837714 0.30761623 -0.26979706 0.32958373
0.27416405 0.23847288 0.2159602 0.036472227 -0.29321373 0.05242785 -0.22729889 -0.00073165045
-0.2829355 0.1583649 0.06556593 -0.09675516 -0.22826056 -0.17779048 0.24649091 0.30809373
0.19651438 -0.105055936 -0.0857659 0.19177899 -0.03303539 0.0063436637 -0.21062508 -0.24376209
0.2149612 -0.06764943 0.30305707 -0.2833835 0.09455381 0.1974001 -0.3139365 -0.22044207
-0.24370201 -0.13218555 0.12175413 -0.26682946 -0.18984023 -0.2437801 -0.048751272 0.23275906
-0.05487689 0.028483355 -0.09070426 -0.030499257 0.015724601 -0.13357778 -0.21616195 0.19871925
0.047623355 0.091558844 0.13859572 0.33100054 -0.23484264 -0.064792566 0.0694588 -0.12885788
0.24859768 -0.06795093 0.024843305 -0.21549635 0.1837444 0.20225225 0.27085808 0.26733553
-0.13067573 -0.062392097 -0.08939366 0.13661477 -0.28456813 0.14266753 0.12389997 -0.017749904
00000000: c1ca 16bd ea09 5fbe af45 e23d e7fa 11be
00000010: b619 fe3d 29a6 d53d 6115 8abe fc9b 2d3e
00000020: 209e 343e 1259 633e 60df 1dbc cfe5 8c3e
00000030: bfd2 b9bd 0de4 923c 470a 9bbe b4ef db3d
00000040: 7759 b73d d7f2 fabc 7744 873d 32b1 023e
00000050: cb44 1a3e 6e6a 183e 912d 373e fcdc 97bd
00000060: a172 94be 0862 553d d2e8 f13d 55ac 58be
00000070: d102 98bd 614f 6f3e 11cc 84bd eaf1 19bd
00000080: 3657 f33d e6c0 5f3e e69a 28be aaff 7a3d
00000090: 1276 433e 6e37 c53d 687b 403e 2ffd 99be
000000a0: 2509 34bd ffd7 76be 62ff 813e f446 9cbe
000000b0: 0452 aa3d 52d1 823e dc30 553e 0f63 8fbe
000000c0: 3e37 84bd fad2 d63d 6bf9 64be a2b5 d0bc
000000d0: 3544 7e3e 96d2 883d d280 ca3d e0fc 843e
000000e0: 8be2 41bd be32 60bc a258 fb3d 4d2d d33e
000000f0: 0c0a 073e fd87 be3d f90e 0dbe 5798 4a3c
00000100: de57 65bd 7e89 84bc c245 823e a89a 6ebe
00000110: c0df 933e 782e 7cbe 2173 93bc 7447 67be
00000120: 4bbe 8d3e 0219 68bd c9f7 2bbd c9c1 53be
00000130: c216 21be 925b a83b c9e4 b63e b15c 4dbe
00000140: ead8 23be 32ed 823e 9a56 2e3e 6910 3f3e
00000150: 059c 163b d6e2 8ebe a1b1 643e f5a6 8a3e
00000160: a9c2 a1bd 2d14 9f3d 0528 8cbe 18c0 86be
00000170: 4b03 543e 4b8b 733e 0521 e13d baef 2dbe
00000180: 26d5 a53e e6f6 87be de05 513e 3286 16bd
00000190: 9915 643e aec2 9cbd 2bbe ad3d 80b1 833e
000001a0: 54a2 55be c4d1 1f3e a364 b33e b611 5b3e
000001b0: 3e80 5b3e 2073 1bbd 011c 76be 6ad0 a6bd
000001c0: b487 943d 5dfd 7cbe 3378 fbbd 286d 813e
000001d0: 09c7 babd 1343 7a3e 0471 dc3d 28d2 713e
000001e0: 90a9 71bd 2184 5cbe 373d 28bd 248f a23c
000001f0: a6af c33c 6878 943e 8aff aa3e 0e49 9fbd
00000200: 1d38 88bd 41fe 78bd 7eb5 4abe 76a9 853e
00000210: 11e9 cdbc b668 693e 6093 2cbe 2821 213e
00000220: 15bb 183e ec83 0ebe 2be0 173d 5220 9dbd
00000230: c619 743e 3b99 bd3c 9d03 d03d ef30 973d
00000240: 9626 c83d 20eb 64be 3896 3d3e 5a7b bdbd
00000250: ce87 8bbd abd6 143d 17b4 8f3e 3288 ab3e
00000260: 5845 0dbe 379b d73c 456d 87be 11c9 92bd
00000270: c036 493e b3a5 833e d9fc 3bbc 4691 7fbb
00000280: e2a0 923e 3613 963e 2fe2 f3bb ec80 de3d
00000290: 44fb 263e 8f81 b7bd 300d e3bd 9014 323d
000002a0: a3b9 1f3e fb9d 813e bfe0 d83d 6d90 e2bd
000002b0: 98b7 06bd 629d 5f3e bd64 1a3e 37a4 c3bd
000002c0: f54e 083e c9e3 95be 3c5a 993d 37c8 3d3e
000002d0: 4c75 033e e07f 9d3e d722 8abe 33bf a83e
000002e0: 3b5f 8c3e 3c32 743e ac24 5d3e e763 153d
000002f0: 1c20 96be 96be 563d 0ac1 68be 3bcc 3fba
00000300: ecdc 90be 692a 223e 6e47 863d 9227 c6bd
00000310: 23bd 69be b50e 36be 1d68 7c3e 76be 9d3e
00000320: 113b 493e 9127 d7bd 08a6 afbd b661 443e
00000330: 1e50 07bd 82de cf3b 1aae 57be c59c 79be
00000340: ca1e 5c3e c98b 8abd 4c2a 9b3e a417 91be
00000350: 6ea5 c13d 4023 4a3e 49bc a0be 91bb 61be
00000360: 058d 79be a65b 07be 3b5a f93d df9d 88be
00000370: 7a65 42be 7ea1 79be 6aaf 47bd 6458 6e3e
00000380: 97c6 60bd ed55 e93c 28c3 b9bd 94d9 f9bc
00000390: e1d0 803c 9dc8 08be 8f59 5dbe 0f7d 4b3e
000003a0: b510 433d 3483 bb3d 09ec 0d3e e778 a93e
000003b0: 977a 70be f7b1 84bd 6a40 8e3d 52f3 03be
000003c0: 6490 7e3e db29 8bbd 3084 cb3c 13ab 5cbe
000003d0: 7e27 3c3e 371b 4f3e e9ad 8a3e 34e0 883e
000003e0: dccf 05be db8e 7fbd 0614 b7bd bee4 0b3e
000003f0: eab2 91be 7017 123e 44bf fd3d 3f68 91bc

fc1.bias f4 [100]
-0.17973648 -0.29998416 -0.09731267 0.10979075 0.0724743 -0.10651932 -0.09117718 0.011221627
-0.014180116 -0.3209473 0.065628976 0.13765442 -0.15436612 0.1650605 0.16968109 -0.27878174
0.20944235 0.2505306 -0.1450664 0.09001175 0.030947644 -0.29014537 0.11303757 -0.20972387
0.029589819 0.14206217 -0.22776803 -0.18207267 0.26126754 0.15185617 -0.20152241 0.05890128
0.20559198 0.24119306 -0.3583385 0.08758898 0.15876856 0.10206147 -0.18775655 0.14151935
0.18739928 0.24854068 0.005847128 -0.29798505 0.07517761 0.04057716 -0.23486644 -0.2674654
0.14326221 0.33772993 0.13020985 0.28087956 -0.27553695 -0.18931492 0.035112012 0.18625002
-0.053604495 0.258051 0.25536302 0.24280487 -0.1694911 0.2790918 0.26996928 0.09667709
-0.12125723 -0.27055758 -0.0028121066 -0.062110335 -0.040211856 0.03232453 0.3388706 -0.098407984
0.19126788 0.043225165 -0.27600136 -0.25982767 0.1818945 0.18494983 0.23186761 0.3254379
-0.31463513 -0.25069857 0.16804655 0.18399926 0.33372763 -0.30679366 -0.13008818 0.24841715
0.25802937 -0.07077824 0.3033503 0.22100428 0.00403373 0.24219143 -0.20767795 0.23756701
0.29206422 -0.012797403 0.18041521 0.23877838
00000000: d70c 38be 8697 99be dd4b c7bd f9d9 e03d
00000010: 686d 943d cd26 dabd 1abb babd eada 373c
00000020: b853 68bc 3453 a4be 7c68 863d 48f5 0c3e
00000030: 2712 1ebe 9f05 293e e1c0 2d3e 7bbc 8ebe
00000040: 0e78 563e 8c45 803e 498c 14be 1558 b83d
00000050: ea85 fd3c ef8d 94be 3e80 e73d dbc1 56be
00000060: 5966 f23c bf78 113e 063c 69be 4271 3abe
00000070: dcc4 853e 2f80 1b3e e45b 4ebe 7842 713d
00000080: b486 523e 50fb 763e 2578 b7be da61 b33d
00000090: 3a94 223e 9b05 d13d 4143 40be 73ea 103e
000000a0: 99e5 3f3e 7381 7e3e 4499 bf3b 7f91 98be
000000b0: b8f6 993d 3c34 263d d480 70be 3af1 88be
000000c0: 54b3 123e f0ea ac3e bb55 053e 72cf 8f3e
000000d0: 2e13 8dbe c5db 41be 9dd1 0f3d 53b8 3e3e
000000e0: 6390 5bbd 431f 843e f1be 823e d7a1 783e
000000f0: 138f 2dbe 1fe5 8e3e 6a39 8a3e a3fe c53d
00000100: b655 f8bd 8686 8abe 524b 38bb 6867 7ebd
00000110: 30b5 24bd ba66 043d 7380 ad3e 208a c9bd
00000120: badb 433e df0c 313d 0d50 8dbe 2208 85be
00000130: 8d42 3a3e 7d63 3d3e b46e 6d3e cc9f a63e
00000140: db17 a1be 905b 80be 6514 2c3e 4d6a 3c3e
00000150: 59de aa3e 0f14 9dbe d635 05be 1161 7e3e
00000160: 6d1c 843e 2ff4 90bd bb50 9b3e f24e 623e
00000170: 612d 843b 0801 783e 87a9 54be c444 733e
00000180: 7189 953e 33ac 51bc c4be 383e 5282 743e

fc2.weight f4 [100, 100]
0.02103336 -0.005390501 -0.01969671 0.06703782 0.015815688 -0.032249596 -0.03212336 0.0037664066
-0.027589977 -0.1177326 0.0607427 -0.016504062 -0.02367242 0.12394228 0.1267697 0.1106636
0.009375853 -0.047070708 -0.08752671 0.060611423 0.01963406 0.06771619 0.04206086 0.031015819
-0.028027842 0.0011726214 -0.061010078 -0.08377818 -0.09489559 -0.02176021 -0.018878082 -0.014224751
0.115886115 -0.06854897 0.11411731 0.072985515 -0.14112239 0.094397105 0.05643595 -0.036068864
0.107461974 0.008061537 0.10528328 0.067623205 0.11410748 0.09810817 -0.05603848 -0.053074155
-0.074764475 -0.048105013 -0.002253593 -0.124880046 0.07385145 0.024308072 -0.06092329 -0.0339344
-0.001859322 0.110707164 0.0011862133 -0.006551833 0.014140083 -0.05709809 0.08875349 0.0004018322
0.039113563 0.090576306 0.10770162 0.021379968 0.06274787 -0.06457299 -0.06362773 -0.055585053
0.050673656 0.037527602 0.12604687 -0.08826743 -0.10318977 0.11314997 0.036290817 0.0118237715
0.038504113 0.019657955 -0.00565946 0.07551599 0.058247417 0.02663244 0.11944644 0.014120614
-0.10958697 0.0747366 -0.033178627 -0.041231856 -0.08767962 -0.089700066 -0.0077505996 0.028690604
0.03939276 -0.0952165 0.027740113 0.045790665 -0.071686506 -0.07919426 0.06991991 0.10233244
-0.03343316 0.015207915 0.09186686 0.11349927 0.0069814147 0.027908398 0.1232881 -0.05501239
-0.08036055 0.019181322 0.08466767 0.07166161 0.100457445 0.044423904 0.015222431 -0.09720056
-0.0605209 0.07330856 0.15740848 0.0017370712 -0.01263109 0.026085304 -0.019219823 -0.041636415
0.019455 0.13214555 -0.1240992 -0.06961423 -0.02115585 0.008365057 0.04071666 -0.055501286
-0.06270608 0.06657039 0.08526779 0.012280205 -0.014147859 -0.059131008 -0.07810333 0.089844376
-0.058347765 -0.095867105 0.038225748 -0.07595366 -0.032691732 0.088973254 0.05623321 -0.04492215
0.067804724 -0.060088325 0.09020404 0.09071608 0.043580633 -0.015309466 -0.013317787 0.012916319
-0.019999435 -0.031696554 0.014297048 0.14006063 -0.06293522 -0.08395269 -0.06505376 0.028157357
0.11609145 0.1403931 0.06695646 -0.040544074 -0.011185552 -0.025909118 -0.036527492 -0.06343285
0.03743673 -0.10796083 0.03856324 0.110942505 -0.0035156547 -0.079113 -0.093154155 -0.08113543
0.06671233 0.069182 0.056721292 -0.0329667 -0.058046073 0.09346379 0.04398003 -0.010821493
-0.048742313 0.043165382 -0.08063294 0.06693985 -0.10280738 -0.01435116 -0.0052614924 -0.045356493
0.106524445 -0.041647747 0.08629838 0.025671083 -0.0059420327 -0.06077268 0.023515185 -0.07248512
-0.041755393 0.064230986 -0.043157727 0.08956211 -0.013727505 0.09464144 0.103099614 -0.08474764
0.07489882 0.023918405 -0.043675285 0.059677385 0.11965964 -0.11872166 0.08609091 0.015092228
0.005505948 -0.0011548134 -0.092548415 -0.00025888588 -0.025620852 0.05683305 -0.081514984 0.08395266
0.050129145 -0.05101301 0.008180352 0.04264359 -0.10080464 -0.05268002 -0.0784115 -0.017879652
0.057574738 -0.07320127 0.023343284 0.10893868 0.06955941 0.013188836 0.07368154 -0.07464286
-0.047347397 -0.069827676 0.051547408 -0.085185826 0.050942305 -0.02025277 -0.092382185 -0.0574356
00000000: 274e ac3c cda2 b0bb ff5a a1bc 204b 893d
00000010: e78f 813c 2718 04bd c993 03bd d1d5 763b
00000020: 6004 e2bc ca1d f1bd 56cd 783d 8733 87bc
00000030: aaec c1bc 73d5 fd3d ebcf 013e 99a3 e23d
00000040: 2e9d 193c 37cd 40bd 3441 b3bd af43 783d
00000050: 9cd7 a03c c9ae 8a3d 0248 2c3d e314 fe3c
00000060: a59a e5bc a5b2 993a b4e5 79bd e593 abbd
00000070: 9e58 c2bd 7842 b2bc 35a6 9abc ee0e 69bc
00000080: b355 ed3d 6763 8cbd 56b6 e93d 6e79 953d
00000090: 6382 10be 4553 c13d 6229 673d f2bc 13bd
000000a0: 0615 dc3d 8914 043c c39e d73d 097e 8a3d
000000b0: 2fb1 e93d f0ec c83d 9b88 65bd 4964 59bd
000000c0: 1e1e 99bd c309 45bd 04b1 13bb 1cc1 ffbd
000000d0: 6e3f 973d b921 c73c b38a 79bd ccfe 0abd
000000e0: 7eb4 f3ba 70ba e23d b77a 9b3a c2b0 d6bb
000000f0: cfab 673c b0df 69bd 64c4 b53d 01ad d239
00000100: 8b35 203d 1280 b93d ab92 dc3d 0b25 af3c
00000110: f581 803d d83e 84bd 414f 82bd 27ad 63bd
00000120: 2e8f 4f3d 8bb6 193d 6e12 013e 8ec5 b4bd
00000130: 2855 d3bd 2cbb e73d aea5 143d 7eb8 413c
00000140: 7db6 1d3d b809 a13c fe72 b9bb 21a8 9a3d
00000150: d894 6e3d 462c da3c 56a0 f43d 265a 673c
00000160: 226f e0bd 810f 993d 50e6 07bd bce2 28bd
00000170: 5f91 b3bd abb4 b7bd bef8 fdbb 8f08 eb3c
00000180: 4d5a 213d de00 c3bd 3c3f e33c fe8e 3b3d
00000190: 60d0 92bd 9a30 a2bd 2b32 8f3d ac93 d13d
000001a0: 36f1 08bd 9e2a 793c b124 bc3d 4e72 e83d
000001b0: 5ac4 e43b 27a0 e43c 797e fc3d ac54 61bd
000001c0: 1294 a4bd 2622 9d3c 3e66 ad3d 52c3 923d
000001d0: a2bc cd3d d7f5 353d 8167 793c 1611 c7bd
000001e0: c3e4 77bd cc22 963d b02f 213e 70ae e33a
000001f0: a2f2 4ebc d9b0 d53c e472 9dbc f28a 2abd
00000200: 1860 9f3c 2a51 073e b927 febd e891 8ebd
00000210: 084f adbc 980d 093c 83c6 263d 5155 63bd
00000220: 0c6c 80bd 0e56 883d e1a0 ae3d ea32 493c
00000230: 6ccc 67bc 5b33 72bd a4f4 9fbd 5400 b83d
00000240: 11fe 6ebd f955 c4bd 9a92 1c3d 988d 9bbd
00000250: c4e7 05bd 9c37 b63d cb54 663d 4a00 38bd
00000260: 34dd 8a3d 2d1f 76bd e5bc b83d 5ac9 b93d
00000270: 9b81 323d 8ed4 7abc d932 5abc f89e 533c
00000280: dbd5 a3bc 3fd4 01bd 2a3e 6a3c 0e6c 0f3e
00000290: 2ee4 80bd 63ef abbd e83a 85bd 42aa e63c
000002a0: 5bc1 ed3d 35c3 0f3e 7820 893d 8b11 26bd
000002b0: 9b43 37bc 5c3f d4bc da9d 15bd 15e9 81bd
000002c0: 4257 193d 911a ddbd 7df4 1d3d d335 e33d
000002d0: e666 66bb ff05 a2bd 9bc7 bebd 552a a6bd
000002e0: 79a0 883d 4baf 8d3d 9654 683d 1708 07bd
000002f0: b8c1 6dbd f269 bf3d 6724 343d a24c 31bc
00000300: 05a6 47bd 2fce 303d e222 a5bd c317 893d
00000310: ad8c d2bd 2121 6bbc 9968 acbb bbc7 39bd
00000320: 7d29 da3d d496 2abd 34bd b03d 2a4c d23c
00000330: 62b5 c2bb c6ec 78bd eba2 c03c 1473 94bd
00000340: b407 2bbd 898b 833d 28c6 30bd 576c b73d
00000350: 54e9 60bc 5fd3 c13d e425 d33d 2c90 adbd
00000360: 8d64 993d 88f0 c33c dbe4 32bd 4670 743d
00000370: 1d10 f53d 5724 f3bd 6e50 b03d 6445 773c
00000380: 3d6b b43b 1c5d 97ba 068a bdbd 13bb 87b9
00000390: d2e2 d1bc c6c9 683d 54f1 a6bd 5fef ab3d
000003a0: 3854 4d3d 05f3 50bd e206 063c 0cab 2e3d
000003b0: aa72 cebd 01c7 57bd 3596 a0bd 5978 92bc
000003c0: 7dd3 6b3d 8cea 95bd 6a3a bf3c 3e1b df3d
000003d0: 2a75 8e3d fd15 583c 59e6 963d 5bde 98bd
000003e0: 58ef 41bd d001 8fbd 6023 533d e875 aebd
000003f0: e1a8 503d 23e9 a5bc df32 bdbd 9741 6bbd

fc2.bias f4 [100]
-0.06786016 0.051334787 -0.05858186 -0.07376836 0.02407855 0.015372209 0.1781207 0.009550276
0.031653717 -0.20364454 0.0128944125 0.1302016 -0.045600343 -0.044573538 -0.032161143 -0.04282342
-0.14240341 0.10913742 -0.06948224 0.07771639 0.056282975 0.023573004 0.018350374 0.008509586
-0.02358925 0.07606044 -0.048300106 0.046896175 -0.08346445 0.078158714 0.030690186 0.06298322
-0.043083467 0.022635633 0.06420419 0.07347376 0.049264133 -0.117446855 -0.07119612 -0.04399568
-0.005869666 0.07916884 0.0119333835 0.008082922 0.05097559 -0.041882426 -0.07387742 -0.08563096
0.009612612 0.036370765 0.04417308 -0.07760993 0.10587798 -0.12609033 0.03790384 0.05977604
-0.050651774 0.01848098 -0.03337183 -0.014414531 -0.06412366 0.039298862 -0.06787414 0.010840918
-0.049907885 -0.014728124 0.013167376 -0.025352828 -0.072736435 0.012507368 0.05071716 -0.014810527
0.030064678 0.10328365 -0.07148404 0.08081908 -0.02502261 0.025867207 -0.0693533 -0.06207065
0.009812311 -0.113016844 -0.0018516695 -0.04024951 0.081662424 0.027251175 0.00512444 -0.04766472
0.08920646 0.1355144 0.024559367 -0.03728757 0.017293788 -0.012970549 -0.08517488 0.07038493
0.17456235 0.101472296 -0.024993382 -0.07208116
00000000: 44fa 8abd 6d44 523d 88f3 6fbd de13 97bd
00000010: 6140 c53c b8db 7b3c 4665 363e c378 1c3c
00000020: 54a7 013d 3288 50be 1643 533c 9153 053e
00000030: 6dc7 3abd be92 36bd 67bb 03bd 9c67 2fbd
00000040: 33d2 11be 7183 df3d b44c 8ebd c529 9f3d
00000050: fa88 663d 2c1c c13c 8653 963c ca6b 0b3c
00000060: 3e3e c1bc 93c5 9b3d 55d6 45bd 3416 403d
00000070: 69ef aabd ad11 a03d fc69 fb3c 59fd 803d
00000080: 4a78 30bd 5d6e b93c 7d7d 833d 6979 963d
00000090: 30c9 493d fa87 f0bd 45cf 91bd d034 34bd
000000a0: 5456 c0bb 4623 a23d 3d84 433c 3b6e 043c
000000b0: c8cb 503d e88c 2bbd 0b4d 97bd 495f afbd
000000c0: 387e 1d3c 83f9 143d d5ee 343d f4f1 9ebd
000000d0: 8ed6 d83d d31d 01be 0f41 1b3d b9d7 743d
000000e0: 3c78 4fbd 6d65 973c e6b0 08bd ed2a 6cbc
000000f0: 4453 83bd d8f7 203d 9901 8bbd 1b9e 313c
00000100: 366c 4cbd 3b4e 71bc fabb 573c bcb0 cfbc
00000110: d7f6 94bd b4eb 4c3c ccbc 4f3d daa7 72bc
00000120: 334a f63c 6186 d33d 3966 92bd 7984 a53d
00000130: 37fc ccbc 77e7 d33c 1a09 8ebd cb3d 7ebd
00000140: d1c3 203c 6075 e7bd b8b3 f2ba acdc 24bd
00000150: a13e a73d db3d df3c ebea a73b 153c 43bd
00000160: e0b1 b63d 49c4 0a3e ba30 c93c daba 18bd
00000170: b4ab 8d3c 6d82 54bc 2b70 aebd f925 903d
00000180: 79c0 323e b5d0 cf3d ecbe ccbc 4a9f 93bd

fc3.weight f4 [3, 100]
-0.0014408836 0.010122001 -0.0039895168 -0.015831718 0.022483457 0.044970907 0.029841721 -0.054838125
0.0165271 -0.082723774 0.016636357 0.016348837 -0.00537904 0.004213131 0.0030352813 0.024331402
-0.02618295 0.059761044 -0.0032848988 0.012084022 0.010790288 -0.0079038 -0.007297631 -0.008176958
0.0056854305 0.011311584 -0.009302724 -0.002955681 -0.018832367 -0.047921363 -0.07543336 -0.059892215
0.047624834 0.010947352 -0.00042386726 0.021655971 0.016349494 -0.056356415 0.010970483 0.0032530623
-0.0023866387 0.077152245 -0.01907534 -0.037510864 0.013489006 0.01194427 -0.099872835 -0.0068560624
-0.04020184 -0.0020100467 -0.011865388 0.012854207 0.016760442 -0.025470203 -0.0050961887 0.02318424
0.079723775 -0.008678067 -0.013197681 0.0074375933 0.019486964 0.04222976 -0.04297567 0.031426005
0.00494356 0.006328968 0.027625358 -0.02025367 0.002380761 0.014759938 0.007581977 -0.0003972965
-0.011756583 0.05407972 0.07315887 0.05969614 0.029717892 -0.014852144 -0.040851615 -0.018761072
-0.008345202 -0.0069512324 0.01751736 0.048710655 0.028432405 -0.054571122 0.014721958 3.9421237e-05
-0.010888962 -0.011064513 0.02464524 0.008742027 0.026780544 0.041126363 -0.026163489 0.04577232
0.03319062 0.011458869 0.020088788 0.038250778 0.055671096 -0.016319508 0.05320947 -0.014265212
0.0058095427 -0.009331355 -0.030395972 0.0036531796 -0.037827957 -0.08989966 0.03290318 0.020868527
-0.006000888 -0.052726552 -0.029054008 -0.016192995 0.024279965 0.025498763 0.014101072 0.061910212
0.009437083 0.039742086 -0.037405398 0.019553414 -0.013598699 -0.029783987 -0.024937218 0.001182261
-0.057066556 0.051017985 0.043933768 0.029748041 0.025318066 0.016823154 -0.028566673 0.0053635067
-0.043163534 -0.033623815 -0.030039145 -0.006979892 0.025561722 -0.04871762 -0.04609953 0.030880215
0.0031934301 -0.0013425039 -0.078991756 -0.00018406278 0.01569511 0.03518775 -0.050883345 0.03811979
0.060269494 -0.008001179 0.04488857 -0.00518675 0.0013621192 -0.06475776 -0.0043852604 0.017008483
0.02925849 -0.027367035 -0.06446433 0.0020892737 0.007429835 0.038765498 -0.044466596 0.0029058147
0.013961683 0.009531136 0.010883012 -0.008244323 0.025174351 0.049565673 -0.044842575 -0.0669848
0.06588015 -0.008814759 0.044899024 0.024985353 -0.007599852 0.0010738216 -0.014715411 -0.017826447
-0.0526525 0.00683212 -0.016898911 -0.04672465 0.04612714 -0.022845263 -0.0528699 0.026797188
-0.020645218 -0.0056251953 0.03009927 -0.004611415 0.080109835 -0.04298982 -0.018651415 0.08373665
-0.0026781312 -0.015399026 0.025986683 -0.019638967 -0.01979511 -0.036859125 -0.08384716 -0.037831247
0.051262777 -0.021169612 0.05731725 -0.02780913 -0.016435359 -0.04567059 0.019008378 0.0014258822
0.048546296 -0.019637508 0.04568929 -0.010202217 0.052440334 0.073244475 -0.043325227 -0.05499828
0.017790442 -0.007496678 -0.01459376 0.003108063 0.010611836 -0.023002284 -0.03268392 -0.1344935
-0.0023483825 0.091458336 -0.05904596 -0.048511166 -0.06856436 -0.045008667 -0.017188411 -0.02973422
0.0027545807 0.017540807 -0.015517128 0.044844262 0.0048231934 -0.025829932 0.009824313 0.039110605
0.043811146 -0.008518009 0.039216813 0.0712251 0.023015207 0.040685747 0.03600807 -0.006112875
00000000: 08dc bcba c0d6 253c 7eba 82bb 85b1 81bc
00000010: 3a2f b83c 6a33 383d a076 f43c f19d 60bd
00000020: d763 873c 156b a9bd f848 883c ffed 853c
00000030: a842 b0bb 4e0e 8a3b 92eb 463b a652 c73c
00000040: a07d d6bc ffc7 743d 7547 57bb 10fc 453c
00000050: c0c9 303c f17e 01bc f720 efbb a6f8 05bc
00000060: d94c ba3b 3954 393c 746a 18bc 19b4 41bb
00000070: 5646 9abc 3149 44bd ce7c 9abd 8a51 75bd
00000080: 4212 433d 865c 333c 803a deb9 dd67 b13c
00000090: 60ef 853c fcd5 66bd 8abd 333c 5431 553b
000000a0: 2769 1cbb ff01 9e3d e343 9cbc fea4 19bd
000000b0: fe00 5d3c e6b1 433c 218a ccbd d2a8 e0bb
000000c0: afaa 24bd fdba 03bb 0b67 42bc 749a 523c
000000d0: 324d 893c e3a6 d0bc eefd a6bb e0ec bd3c
000000e0: 3846 a33d 732e 0ebc 163b 58bc 0eb7 f33b
000000f0: 20a3 9f3c 1df9 2c3d 4207 30bd 8eb8 003d
00000100: 96fd a13b 3b63 cf3b 934e e23c 06eb a5bc
00000110: 8b06 1c3b abd3 713c 3c72 f83b 3c4c d0b9
00000120: af9e 40bc b282 5d3d 51d4 953d f183 743d
00000130: f072 f33c 6856 73bc 0654 27bd d2b0 99bc
00000140: 50ba 08bc 2ac7 e3bb 9180 8f3c d384 473d
00000150: 13eb e83c f885 5fbd 5e34 713c 3b58 2538
00000160: 9e67 32bc ee47 35bc d0e4 c93c b83a 0f3c
00000170: df62 db3c 1e74 283d d054 d6bc c27b 3b3d
00000180: e3f2 073d fbbd 3b3c 3e91 a43c d9ac 1c3d
00000190: 6007 643d 7db0 85bc 2cf2 593d a3b8 69bc
000001a0: fa5d be3b 8ae2 18bc f900 f9bc 2f6a 6f3b
000001b0: 7df1 1abd 501d b8bd 7cc5 063d 79f4 aa3c
000001c0: 19a3 c4bb ccf7 57bd ac02 eebc 2ca7 84bc
000001d0: c7e6 c63c c8e2 d03c 2f08 673c 9095 7d3d
000001e0: ff9d 1a3c 99c8 223d 6736 19bd 7b2e a03c
000001f0: 14cd 5ebc 8cfd f3bc 2349 ccbc 19f6 9a3a
00000200: 9fbe 69bd 3cf8 503d e5f3 333d 2ab2 f33c
00000210: d567 cf3c b6d0 893c a804 eabc 5bc0 af3b
00000220: 3fcc 30bd 20b9 09bd a714 f6bc 94b7 e4bb
00000230: d166 d13c 218c 47bd dcd2 3cbd 81f8 fc3c
00000240: de48 513b f5f6 afba 6ec6 a1bd fa00 41b9
00000250: 0893 803c 0821 103d 0e6b 50bd 7f23 1c3d
00000260: 25dd 763d 6117 03bc 14dd 373d 9df5 a9bb
00000270: 2389 b23a b79f 84bd 3bb2 8fbb 6055 8b3c
00000280: 80af ef3c d530 e0bc e005 84bd 32ec 083b
00000290: f975 f33b 92c8 1e3d 9b22 36bd 7b6f 3e3b
000002a0: 8bbf 643c 7b28 1c3c a94e 323c 3213 07bc
000002b0: 713a ce3c 6005 4b3d d9ac 37bd 542f 89bd
000002c0: 2cec 863d c76b 10bc 0ae8 373d 15ae cc3c
000002d0: 2e08 f9bb 79bf 8c3a e818 71bc c508 92bc
000002e0: 26aa 57bd fadf df3b 966f 8abc 5962 3fbd
000002f0: d0ef 3c3d fd25 bbbc 1c8e 58bd c785 db3c
00000300: 2920 a9bc 8f53 b8bb bf92 f63c 5a1b 97bb
00000310: a010 a43d 1816 30bd daca 98bc 1f7e ab3d
00000320: 9683 2fbb 324c 7cbc 06e2 d43c e6e1 a0bc
00000330: 5b29 a2bc 98f9 16bd 0fb8 abbd f0f4 1abd
00000340: ebf8 513d e56b adbc 7ec5 6a3d f9cf e3bc
00000350: 72a3 86bc 1611 3bbd 75b7 9b3c abe4 ba3a
00000360: 7bd8 463d d7de a0bc b124 3b3d 3327 27bc
00000370: adcb 563d 3301 963d cb75 31bd e045 61bd
00000380: 43bd 913c b1a6 f5bb aa1a 6fbc a5b0 4b3b
00000390: 44dd 2d3c 496f bcbc 93df 05bd aab8 09be
000003a0: 52e7 19bb 824e bb3d 2dda 71bd a5b3 46bd
000003b0: 796b 8cbd 025b 38bd b6ce 8cbc 2e95 f3bc
000003c0: 3286 343b bdb1 8f3c 8d3b 7ebc 9eae 373d
000003d0: e10b 9e3b 4b99 d3bc 28f6 203c 7132 203d
000003e0: 5173 333d 1f8f 0bbc cfa1 203d 77de 913d
000003f0: 638a bc3c 19a6 263d 337d 133d 834e c8bb

fc3.bias f4 [3]
0.022755003 0.002025573 -0.012426287
00000000: b368 ba3c 7abf 043b a097 4bbc

fc1.weight f4 [100, 11]
-0.20221828 0.15214007 0.1421769 -0.13041303 -0.014865876 0.047848724 0.043340266 0.064557485
0.14063026 0.12290715 0.033220377 -0.029115723 -0.12374723 0.13620031 -0.008548139 -0.01772739
-0.11823521 -0.18943612 -0.0006665583 -0.090500966 0.06631711 0.13066237 -0.055330552 -0.052544355
-0.121966444 -0.06388302 0.13267858 0.11870089 -0.14238015 0.23561056 -0.037253145 0.071982525
0.12132949 0.051163744 -0.21522285 0.1009125 -0.051326774 -0.02774591 -0.021168392 0.12101141
0.24172129 -0.19345267 0.03910347 -0.039556403 -0.21173444 0.03352244 0.09047631 -0.26803666
-0.09484118 0.077096775 0.054413397 0.12411559 0.0060256207 -0.02434866 -0.06856831 -0.24129114
0.15672214 0.13359402 -0.061450787 -0.21782635 0.10822481 -0.031528816 0.082728274 0.20455253
-0.015575306 0.0070199734 -0.2895271 0.11825076 0.1359899 0.019164233 -0.11173848 -0.045800697
0.14284201 -0.11751905 0.024783835 0.09192385 -0.016171755 0.155283 0.19576532 -0.07017099
-0.22394547 -0.08784962 -0.0065346994 -0.11097261 -0.18863678 0.26207584 -0.2276334 0.15348178
-0.289434 -0.049487907 -0.27395213 0.16666098 0.14762859 -0.19299103 0.06576087 0.2511418
-0.26970974 -0.13168481 0.12678868 -0.060939807 0.18057282 -0.07429122 -0.10053927 0.23286608
0.17660114 0.2290155 0.21399751 -0.21162778 -0.13316323 0.0952448 -0.116102085 -0.1826672
0.01941414 0.17452435 0.12619144 0.09679225 -0.019288635 -0.07576328 -0.097883135 0.17600943
-0.0018003035 0.02469286 -0.03038382 0.23016618 0.1349068 0.2951178 0.14937437 -0.06295261
-0.09338316 0.21287072 0.24056967 -0.20794939 0.11199318 0.11817365 0.33930293 0.16192353
-0.050378233 -0.0831069 0.08369008 -0.109939106 0.1792113 -0.0100034755 0.036716383 0.17945825
-0.012385206 0.027877843 0.079206094 0.09487052 0.2456969 0.115279555 0.119999826 0.16194396
0.07890066 0.21786389 0.00602128 -0.1843951 0.26592958 0.14016238 -0.027191725 -0.08386386
-0.20223953 -0.16070312 -0.099935114 -0.07983899 0.092667006 0.07291288 -0.21242522 0.14913644
-0.12617527 -0.19564235 -0.055986997 0.17107669 0.17541674 -0.20557141 -0.10388773 0.04976353
-0.22015658 -0.07180096 0.23936453 -0.25620165 -0.1285697 -0.10366686 -0.14047787 -0.119624436
-0.19341694 0.08761041 0.124898374 0.23246789 0.07794054 -0.19885877 -0.011109116 -0.03475473
0.11184381 0.14067283 -0.18002892 -0.009501665 0.11990118 -0.14901091 -0.1215153 -0.2232984
-0.011486014 0.033105075 0.15086327 -0.06915554 -0.21494117 0.14006795 0.11897067 0.043923255
0.07788413 0.15039678 -0.2525832 -0.10737859 0.08740348 0.28705007 -0.013765484 0.11970113
-0.16287234 -0.002272396 0.17126305 0.20314305 -0.16261485 -0.18173921 -0.063558355 0.19796997
-0.08882905 0.2032229 0.10715541 -0.021118322 0.054994885 -0.052696966 -0.20576122 0.110962264
-0.08339027 -0.03894695 0.2593993 0.1769084 -0.2063569 -0.0077659613 -0.028916871 -0.047516864
-0.099565886 -0.010590501 -0.073271245 0.011875419 -0.084206164 -0.009265804 -0.0045638173 -0.035377275
-0.08880396 0.033360533 0.052156985 0.034970175 -0.1059333 0.24083216 -0.24286513 -0.04915475
00000000: 4f12 4fbe 9bca 1b3e d296 113e fe8a 05be
00000010: 0190 73bc 06fd 433d 9085 313d b736 843d
00000020: 6101 103e beb6 fb3d 1712 083d 1984 eebc
00000030: 306f fdbd 1878 0b3e 7e0d 0cbc 0839 91bc
00000040: 4d25 f2bd 8bfb 41be f8bb 2eba 9258 b9bd
00000050: 44d1 873d 5bcc 053e 4aa2 62bd c038 57bd
00000060: 8bc9 f9bd 1ad5 82bd e5dc 073e 7419 f33d
00000070: 1acc 11be e543 713e c196 18bd 936b 933d
00000080: 987b f83d 1391 513d 6163 5cbe 36ab ce3d
00000090: 063c 52bd 644b e3bc 5669 adbc d5d4 f73d
000000a0: c985 773e 7518 46be f62a 203d e505 22bd
000000b0: ead0 58be d34e 093d a54b b93d 1a3c 89be
000000c0: 183c c2bd eae4 9d3d 95e0 5e3d 5030 fe3d
000000d0: 9272 c53b d776 c7bc 8b6d 8cbd 0615 77be
000000e0: c57b 203e dfcc 083e d2b3 7bbd df0d 5fbe
000000f0: f8a4 dd3d 5c24 01bd 716d a93d 3876 513e
00000100: 912f 7fbc ce07 e63b e53c 94be 742d f23d
00000110: f040 0b3e 4ffe 9c3c 25d7 e4bd 8399 3bbd
00000120: 2d45 123e d4ad f0bd 7807 cb3c 9242 bc3d
00000130: a17a 84bc 8202 1f3e b476 483e cfb5 8fbd
00000140: f651 65be 80ea b3bd 0821 d6bb 9c45 e3bd
00000150: 002a 41be ce2e 863e bb18 69be 542a 1d3e
00000160: b130 94be d5b3 4abd 7443 8cbe 2da9 2a3e
00000170: f32b 173e 719f 45be a3ad 863d a895 803e
00000180: 6517 8abe 62d8 06be e4d4 013e 059c 79bd
00000190: 15e8 383e ff25 98bd 88e7 cdbd 7274 6e3e
000001a0: eed6 343e 0a83 6a3e 2a22 5b3e f4b4 58be
000001b0: f15b 08be b50f c33d eec6 edbd 1c0d 3bbe
000001c0: 670a 9f3c 83b6 323e 5438 013e 043b c63d
000001d0: 3303 9ebc c729 9bbd f476 c8bd d13b 343e
000001e0: 29f8 ebba ae48 ca3c 7de7 f8bc afb0 6b3e
000001f0: 0225 0a3e ae19 973e 98f5 183e 4ced 80bd
00000200: ac3f bfbd c8fa 593e e557 763e aff0 54be
00000210: ae5c e53d 0705 f23d 1db9 ad3e 48cf 253e
00000220: 6859 4ebd f333 aabd b465 ab3d c127 e1bd
00000230: 2b83 373e 9ee5 23bc eb63 163d e7c3 373e
00000240: 52eb 4abc 1360 e43c ce36 a23d 7a4b c23d
00000250: f897 7b3e b017 ec3d 78c2 f53d a3d4 253e
00000260: ab96 a13d b617 5f3e 284e c53b 12d2 3cbe
00000270: ec27 883e ba86 0f3e 2ec1 debc d1c0 abbd
00000280: e117 4fbe 5c8f 24be c8aa ccbd a082 a3bd
00000290: 33c8 bd3d 5953 953d ff85 59be 39b7 183e
000002a0: 1734 01be 7856 48be 9f52 65bd ba2e 2f3e
000002b0: 72a0 333e 5081 52be 17c3 d4bd d8d4 4b3d
000002c0: ba70 61be 620c 93bd fa1b 753e dd2c 83be
000002d0: c7a7 03be 4a4f d4bd 6ed9 0fbe a8fd f4bd
000002e0: 170f 46be 166d b33d b8ca ff3d 100c 6e3e
000002f0: 4a9f 9f3d a2a1 4bbe 0203 36bc fa5a 0ebd
00000300: 5e0e e53d 8a0c 103e 8059 38be dfac 1bbc
00000310: c08e f53d 5196 18be 03dd f8bd 56a8 64be
00000320: d62f 3cbc 3099 073d e77b 1a3e 6ba1 8dbd
00000330: 8a19 5cbe f96d 0f3e e5a6 f33d dfe8 333d
00000340: b781 9f3d 9d01 1a3e 9652 81be 4ee9 dbbd
00000350: 9900 b33d 3af8 923e a088 61bc de25 f53d
00000360: 02c8 26be 7bec 14bb 955f 2f3e bb04 503e
00000370: 8284 26be d819 3abe e22a 82bd a4b8 4a3e
00000380: 01ec b5bd aa19 503e 4c74 db3d 5500 adbc
00000390: 5142 613d c6d8 57bd 12b3 52be 2f40 e33d
000003a0: 85c8 aabd d686 1fbd fccf 843e 7a27 353e
000003b0: 394f 53be 9b79 febb 13e3 ecbc 0ba1 42bd
000003c0: 33e9 cbbd c883 2dbc 3c0f 96bd 1e91 423c
000003d0: 4874 acbd 99cf 17bc 138c 95bb c3e7 10bd
000003e0: dade b5bd 0ea5 083d 90a2 553d e33c 0f3d
000003f0: 8ff3 d8bd b59c 763e a3b1 78be 7e56 49bd

fc1.bias f4 [100]
0.5263435 -0.44474033 0.42079344 -0.2781246 -0.24168319 0.44227389 -0.41676295 -0.3468288
-0.47960216 -0.48374742 0.3353958 0.19912268 0.23550288 -0.40858343 0.4015318 -0.17593026
-0.48746404 -0.4030768 -0.500766 -0.32078797 0.38354278 -0.15763484 0.43477726 -0.24081433
0.44755718 0.2528406 -0.23849383 -0.05519303 0.32457507 0.46174756 -0.2804132 -0.49285418
0.29867896 -0.1610524 -0.44886252 0.34342062 -0.37186158 0.39411718 0.3141681 0.19098012
0.27408347 -0.36283907 0.47296312 -0.1601231 -0.10001327 -0.347115 -0.5122553 -0.45410353
-0.40927762 0.39011312 0.47914213 -0.4741671 0.22336383 0.12172312 -0.28189462 -0.2374238
0.23216161 0.068176314 -0.46842653 -0.3252538 0.21958521 0.28645077 -0.30176368 -0.1896439
0.04944877 -0.4505129 0.25823903 -0.45346594 0.24498947 0.44261178 0.30486122 0.49673355
-0.19700983 -0.3436266 -0.2321082 -0.40393493 -0.4194079 -0.2616317 0.26239568 -0.33750984
-0.40305752 -0.36040038 -0.40198967 0.29354483 -0.40256575 -0.24225743 -0.4785355 -0.48027185
-0.466571 -0.15329973 0.23791203 0.36793324 0.40158716 -0.21527462 -0.4396381 0.30104157
0.44749278 -0.303785 -0.4248625 -0.32344204
00000000: 73be 063f 01b5 e3be 3d72 d73e 5966 8ebe
00000010: cc7b 77be b971 e23e f461 d5be 8b93 b1be
00000020: 6a8e f5be bead f7be 00b9 ab3e d1e6 4b3e
00000030: ab27 713e d931 d1be 9395 cd3e 1027 34be
00000040: e394 f9be 1560 cebe 3332 00bf 523e a4be
00000050: b85f c43e 076b 21be 209b de3e 0898 76be
00000060: 3726 e53e 5374 813e ba37 74be 1612 62bd
00000070: b42e a63e 2d6a ec3e 5292 8fbe 6257 fcbe
00000080: 73ec 983e ecea 24be 4fd1 e5be d4d4 af3e
00000090: a464 bebe bac9 c93e a4da a03e 4b90 433e
000000a0: ab54 8c3e 0bc6 b9be 3928 f23e 4ff7 23be
000000b0: c2d3 ccbd 0fb9 b1be 2a23 03bf 4280 e8be
000000c0: d68c d1be e8bc c73e 1e52 f53e 08c6 f2be
000000d0: 7db9 643e f949 f93d 7e54 90be 3a1f 73be
000000e0: c6bb 6d3e 06a0 8b3d 9ad5 efbe ab87 a6be
000000f0: f2da 603e ada9 923e c580 9abe 0332 42be
00000100: cb8a 4a3d a0a9 e6be e837 843e b02c e8be
00000110: 85de 7a3e 039e e23e c516 9c3e dc53 fe3e
00000120: f2bc 49be d3ef afbe c6ad 6dbe 8fd0 cebe
00000130: a2bc d6be 97f4 85be ba58 863e 17ce acbe
00000140: 8e5d cebe 6686 b8be 97d1 cdbe 824b 963e
00000150: 191d cebe 5512 78be 9b02 f5be 31e6 f5be
00000160: 65e2 eebe 9bfa 1cbe 369f 733e bf61 bc3e
00000170: d59c cd3e f370 5cbe 3f18 e1be 1f22 9a3e
00000180: c61d e53e b589 9bbe 9487 d9be 329a a5be

fc2.weight f4 [100, 100]
0.11585909 -0.14528671 0.013605117 -0.043283183 -0.07554233 0.07789705 -0.050551053 -0.17243941
-0.15945153 -0.18153404 0.13299583 0.05577752 0.11832008 -0.069923826 0.11906379 -0.012531937
-0.15578432 -0.025093459 -0.06905271 -0.049504563 0.11659901 0.03612254 0.105423145 -0.015810683
0.056718297 0.10565639 -0.023937842 -0.042674646 0.13566081 0.11929498 -0.058424287 -0.19712967
0.059041973 -0.03561464 -0.16523422 0.07429491 -0.1082351 0.011886397 0.15226264 0.115482084
0.10188833 -0.054300923 0.11779093 0.02157622 -0.047672443 -0.105171636 -0.13663688 -0.13456845
-0.06469523 0.11762303 0.121612504 -0.07887456 0.09858798 0.06555244 -0.00018749271 0.0063327323
0.09749211 -0.0059956484 -0.10583946 -0.08771938 0.051639173 0.1308098 -0.09126994 -0.0655114
-0.011545024 -0.15953319 0.14875974 -0.14430718 0.033614825 0.15508392 0.11755171 0.04379719
-0.09612321 -0.082034886 -0.04986489 -0.04976087 -0.11825739 -0.14443626 0.12675916 -0.1266768
-0.15002123 -0.12365839 -0.06552453 0.09690867 -0.09285751 -0.0050823293 -0.12110736 -0.087596625
-0.17131619 -0.00836709 0.098334774 0.12401856 0.110332444 -0.09057811 -0.12272235 0.09950404
0.10196607 -0.045936715 -0.094227396 -0.1313602 0.038492076 0.029688848 0.0435596 -0.033494454
-0.064877465 -0.0038178258 -0.010380829 -0.22855009 -0.03492205 -0.09176472 0.1946433 0.1730377
0.04736107 -0.10856376 0.2387332 -0.013931631 -0.012041374 -0.17649552 0.015532409 0.017691871
-0.016932765 0.04200349 0.045506902 -0.10569787 0.1770486 0.13325897 0.1275679 -0.14272577
0.13267475 0.12931392 0.029910816 -0.18218479 0.0494699 -0.09343194 -0.37528503 0.025921475
-0.120005235 0.116915524 0.0062822336 0.14326 0.16386776 -0.21294048 0.26832476 0.13615502
-0.068048045 -0.19867107 -0.092596844 -0.07238217 0.0035015375 0.07420396 0.030879725 -0.05581665
0.08587979 0.08300169 -0.17742005 0.027404731 0.034618642 0.10533721 -0.3789252 0.053599574
0.17903031 0.13432243 0.10362818 0.15047911 -0.035712525 -0.03927459 0.08813915 0.06861521
0.18562794 0.020118738 0.031501353 -0.040035024 -0.11627927 -0.31658274 -0.10945734 0.015807217
0.06749964 -0.046766385 0.012675117 -0.12650496 -0.14371105 -0.1142898 -0.1422172 -0.008032597
-0.09696833 -0.010735195 -0.009232494 -0.052062422 -0.20353465 0.0877987 0.17627986 0.007446181
0.09651296 -0.043394525 -0.27608994 0.00055968197 0.0042161914 -0.11898264 -0.09488324 0.053210407
0.09982356 -0.11004651 0.1264861 -0.075708225 -0.043604642 0.15756358 -0.07029002 -0.13542855
-0.15491813 -0.1495061 0.064394996 0.039913192 0.06594658 -0.16392422 0.095030144 -0.03779788
-0.14964478 -0.13025555 -0.17777678 -0.08411547 0.18388565 -0.042324338 0.1970077 -0.026781963
0.11869473 0.06912205 -0.09025547 -0.023032093 0.075814106 0.10674654 -0.0462428 -0.12582521
0.048178315 -0.005839532 -0.12944719 0.1230138 -0.11982181 0.072040305 0.11054591 0.06616229
0.10281889 -0.13544132 0.04639756 -0.035171494 0.036406107 -0.09211639 -0.12569754 -0.1252202
-0.10441568 0.09706826 0.1515512 -0.15362875 0.018858606 0.030639768 -0.058120184 -0.054641385
00000000: 8847 ed3d 0ac6 14be ffe7 5e3c b549 31bd
00000010: f0b5 9abd 7d88 9f3d 9f0e 4fbd f593 30be
00000020: 4347 23be 0fe4 39be 0f30 083e f876 643d
00000030: cc51 f23d 3934 8fbd b7d7 f33d c152 4dbc
00000040: ed85 1fbe cc90 cdbc 826b 8dbd 4cc5 4abd
00000050: 76cb ee3d 3af5 133d 17e8 d73d 6885 81bc
00000060: 7251 683d 6162 d83d 4b19 c4bc 9ccb 2ebd
00000070: abea 0a3e ed50 f43d 4e4e 6fbd 5cdc 49be
00000080: ffd5 713d a8e0 11bd 2933 29be ee27 983d
00000090: 5daa ddbd 2abf 423c bdea 1b3e df81 ec3d
000000a0: d4aa d03d a56a 5ebd 5f3c f13d 9dc0 b03c
000000b0: 2e44 43bd 3a64 d7bd 8aea 0bbe 50cc 09be
000000c0: ef7e 84bd 58e4 f03d fa0f f93d fc88 a1bd
000000d0: 7fe8 c93d 5c40 863d b199 44b9 cf82 cf3b
000000e0: f2a9 c73d 2577 c4bb 5cc2 d8bd 38a6 b3bd
000000f0: 9983 533d 01f3 053e bceb babd d72a 86bd
00000100: 5727 3dbc ab5c 23be 7954 183e 43c5 13be
00000110: b3af 093d 52ce 1e3e f3be f03d af64 333d
00000120: 3fdc c4bd e801 a8bd 203f 4cbd 0ed2 4bbd
00000130: ee30 f2bd 19e7 13be 27cd 013e 90b7 01be
00000140: 2a9f 19be 9c40 fdbd ba31 86bd 0e78 c63d
00000150: 142c bebd ab89 a6bb 2307 f8bd dc65 b3bd
00000160: 836d 2fbe 1e16 09bc be63 c93d 71fd fd3d
00000170: faf5 e13d 0481 b9bd db55 fbbd c6c8 cb3d
00000180: 96d3 d03d 2328 3cbd 4bfa c0bd 4a83 06be
00000190: dea9 1d3d 0736 f33c 8d6b 323d 7b31 09bd
000001a0: 7ade 84bd 7d34 7abb 5a14 2abc 0909 6abe
000001b0: 6c0a 0fbd 24ef bbbd 9350 473e cb30 313e
000001c0: aefd 413d ad56 debd 7a76 743e 7f41 64bc
000001d0: 2f49 45bc 3ebb 34be a57b 7e3c 8bee 903c
000001e0: 95b6 8abc da0b 2c3d 7265 3a3d 2078 d8bd
000001f0: 3a4c 353e 0a75 083e 29a1 023e b426 12be
00000200: e4db 073e de6a 043e 8707 f53c a68e 3abe
00000210: f3a0 4a3d 3f59 bfbd 5c25 c0be 4659 d43c
00000220: 4ec5 f5bd 6871 ef3d 32db cd3b c0b2 123e
00000230: f3cc 273e 120d 5abe dd61 893e 396c 0b3e
00000240: c65c 8bbd 6e70 4bbe 6aa3 bdbd 1a3d 94bd
00000250: 0d7a 653b 3ff8 973d 7af7 fc3c 00a0 64bd
00000260: bee1 af3d cafc a93d 9aad 35be e37f e03c
00000270: 47cc 0d3d 09bb d73d 7c02 c2be 3a8b 5b3d
00000280: b953 373e d28b 093e 033b d43d 3217 1a3e
00000290: 4c47 12bd 64de 20bd 4c82 b43d 2286 8c3d
000002a0: 4015 3e3e 0dd0 a43c 9007 013d c4fb 23bd
000002b0: d323 eebd 2217 a2be 2b2b e0bd 237e 813c
000002c0: 403d 8a3d 1c8e 3fbd 4bab 4f3c 848a 01be
000002d0: fd28 13be c510 eabd 63a1 11be 279b 03bc
000002e0: 5597 c6bd ace2 2fbc e343 17bc 683f 55bd
000002f0: 636b 50be cecf b33d b582 343e 18ff f33b
00000300: 96a8 c53d 75be 31bd a95b 8dbe 9fb7 123a
00000310: fa27 8a3b 2cad f3bd 2552 c2bd 28f3 593d
00000320: 4b70 cc3d 1160 e1bd 9285 013e ea0c 9bbd
00000330: c89a 32bd 5958 213e 37f4 8fbd c8ad 0abe
00000340: dca2 1ebe 2118 19be 86e1 833d 047c 233d
00000350: 000f 873d c0db 27be 2a9f c23d f3d1 1abd
00000360: 7b3c 19be b661 05be 1e0b 36be bb44 acbd
00000370: 854c 3c3e 495c 2dbd 63bc 493e d965 dbbc
00000380: 3916 f33d dd8f 8d3d dcd7 b8bd cdad bcbc
00000390: 6d44 9b3d ee9d da3d 1769 3dbd 53d8 00be
000003a0: a056 453d 8b59 bfbb ce8d 04be a9ee fb3d
000003b0: 2365 f5bd de89 933d e565 e23d 1880 873d
000003c0: b692 d23d 21b1 0abe 5e0b 3e3d fc0f 10bd
000003d0: 921e 153d 85a7 bcbd dbb6 00be b939 00be
000003e0: e3d7 d5bd b9cb c63d 3d30 1b3e db50 1dbe
000003f0: 5d7d 9a3c 4000 fb3c 6e0f 6ebd a5cf 5fbd

fc2.bias f4 [100]
0.1908134 0.047761504 0.19448504 0.22705618 0.22123253 0.09376089 0.26814163 -0.08157828
0.11813815 -0.22701561 0.07499301 0.13884242 0.19513936 -0.09309207 0.1437893 -0.20527454
0.20411949 -0.14615136 -0.11233116 0.21274252 0.11219092 -0.1840811 0.2570295 -0.2192983
-0.25965732 -0.23848817 0.08085265 0.2234176 0.150225 -0.24841918 0.14569615 -0.20448092
0.11861308 0.21230279 -0.061008155 0.10451259 -0.26134405 0.16969763 -0.17339626 0.21012735
-0.16909717 0.024670865 -0.24305573 -0.15103363 0.11172848 0.14405078 0.16896455 -0.14703767
0.27142537 0.19623257 0.17206521 -0.13407192 -0.12596622 -0.19532292 0.23862466 0.23429291
0.27230018 -0.26056802 0.24440816 -0.16330552 0.21063879 -0.06760416 0.2088705 0.22045891
0.22871459 -0.2670284 -0.13581075 0.093168415 -0.25760916 -0.18369138 0.172635 -0.16538215
0.20336959 -0.20937824 -0.12788633 0.21573079 -0.26157573 -0.17151992 0.122057214 -0.14299253
-0.022462228 -0.14339809 -0.08612845 0.010766079 -0.23829797 0.1675612 -0.16349271 -0.05043886
0.22341543 -0.13455117 -0.14826667 -0.12464946 -0.19315708 0.20077786 -0.106241696 0.17925847
-0.22615808 -0.24019916 0.2369269 -0.18570063
00000000: 9764 433e 91a1 433d 1627 473e 6a81 683e
00000010: c88a 623e b605 c03d dc49 893e 8312 a7bd
00000020: 6af2 f13d c876 68be ef95 993d b52c 0e3e
00000030: 9dd2 473e 0ea7 bebd 813d 133e 7d33 52be
00000040: b304 513e b4a8 15be e10d e6bd 2dd9 593e
00000050: 5ac4 e53d c27f 3cbe 5f99 833e bc8f 60be
00000060: cef1 84be 3e36 74be 1396 a53d 95c7 643e
00000070: 95d4 193e 9961 7ebe 5f31 153e 7263 51be
00000080: 6aeb f23d e765 593e b0e3 79bd b20a d63d
00000090: e3ce 85be 37c5 2d3e ca8e 31be a02b 573e
000000a0: cf27 2dbe 8e1a ca3c 9ae3 78be 8fa8 1abe
000000b0: e7d1 e43d 0c82 133e 0b05 2d3e 0b91 16be
000000c0: 44f8 8a3e 31f1 483e dd31 303e 264a 09be
000000d0: 4afd 00be bb02 48be 065a 743e 7bea 6f3e
000000e0: ee6a 8b3e 2c69 85be 2246 7a3e 9039 27be
000000f0: b2b1 573e 0d74 8abd 26e2 553e fbbf 613e
00000100: 2834 6a3e f2b7 88be f911 0bbe 15cf be3d
00000110: 59e5 83be 9819 3cbe 3bc7 303e f059 29be
00000120: 1e40 503e 4067 56be a2f4 02be 88e8 5c3e
00000130: 41ed 85be eba2 2fbe 22f9 f93d a26c 12be
00000140: b502 b8bc f3d6 12be 1d64 b0bd 3564 303c
00000150: 6204 74be 2a95 2b3e a26a 27be fa98 4ebd
00000160: 04c7 643e c8c7 09be 38d3 17be 3748 ffbd
00000170: f8ca 45be b698 4d3e 3f95 d9bd 888f 373e
00000180: fc95 67be c5f6 75be f79c 723e 4e28 3ebe

fc3.weight f4 [1, 100]
0.39135677 0.4090344 0.39392042 0.40434036 0.40602085 0.39729324 0.395232 -0.4009646
0.39940974 -0.3985026 0.38462654 0.4054355 0.3971906 -0.38684404 0.4042609 -0.39804482
0.39997026 -0.40059903 -0.4029828 0.39088964 0.40313116 -0.3957393 0.403628 -0.39620402
-0.3920094 -0.3847257 0.38328192 0.40514562 0.4067151 -0.40428963 0.38938805 -0.39396647
0.40246415 0.39385003 -0.39947706 0.40219486 -0.41394597 0.39973012 -0.39821383 0.40199992
-0.39373896 -0.3923702 -0.3999763 -0.40626678 0.39832014 0.40862155 0.3927319 -0.3955848
0.39546308 0.4044366 0.40544027 -0.39959735 -0.39870998 -0.40302572 0.39985386 0.4022834
0.4021363 -0.38377884 0.40029573 -0.39173165 0.3999777 -0.40092006 0.39389318 0.3976432
0.40049943 -0.40372354 -0.39744946 0.40512344 -0.389244 -0.3838781 0.40667275 -0.39316404
0.3993002 -0.40389374 -0.4051103 0.39618912 -0.40021652 -0.40893224 0.40373683 -0.4063625
-0.3813592 -0.37376678 -0.39385164 -0.40203875 -0.39671287 0.4001401 -0.38949615 -0.3836908
0.39471677 -0.40808976 -0.38714963 -0.3839325 -0.4024681 0.41101086 -0.40310618 0.405397
-0.40291512 -0.4145442 0.37814474 -0.39531183
00000000: ea5f c83e f56c d13e f0af c93e b305 cf3e
00000010: f7e1 cf3e 056a cb3e d95b ca3e 3b4b cdbe
00000020: 6f7f cc3e 8808 ccbe c5ed c43e 3e95 cf3e
00000030: 915c cb3e 6c10 c6be 49fb ce3e 88cc cbbe
00000040: e7c8 cc3e 511b cdbe c353 cebe b022 c83e
00000050: 3567 ce3e 579e cabe 54a8 ce3e 41db cabe
00000060: 75b5 c8be c4fa c4be 873d c43e 3f6f cf3e
00000070: f63c d03e 0dff cebe df5d c73e f9b5 c9be
00000080: c80f ce3e b6a6 c93e 4288 ccbe 7cec cd3e
00000090: baf0 d3be 6da9 cc3e afe2 cbbe efd2 cd3e
000000a0: 2798 c9be bfe4 c8be b2c9 ccbe 3302 d0be
000000b0: 9ef0 cb3e d836 d13e 2814 c93e 178a cabe
000000c0: 237a ca3e 5012 cf3e de95 cf3e 0698 ccbe
000000d0: b723 ccbe 6359 cebe a5b9 cc3e 17f8 cd3e
000000e0: cfe4 cd3e a97e c4be 90f3 cc3e 0d91 c8be
000000f0: e1c9 cc3e 6545 cdbe 5eac c93e e497 cb3e
00000100: 430e cd3e dab4 cebe 7f7e cbbe 576c cf3e
00000110: fd4a c7be ac8b c4be 6937 d03e cc4c c9be
00000120: 1371 cc3e 29cb cebe 9e6a cfbe 4dd9 ca3e
00000130: 2ee9 ccbe 915f d1be 98b6 ce3e bf0e d0be
00000140: 8341 c3be 5c5e bfbe eca6 c9be 06d8 cdbe
00000150: f31d cbbe 2adf cc3e 0a6c c7be 1f73 c4be
00000160: 5118 ca3e 24f1 d0be 7a38 c6be cd92 c4be
00000170: 4c10 cebe 0470 d23e ef63 cebe 3290 cf3e
00000180: e44a cebe 233f d4be 309c c13e 5066 cabe

fc1.weight f4 [100, 14]
0.20178306 0.16689736 0.14000748 0.24196048 0.1325263 0.16132 -0.1411615 -0.1869404
0.059313755 -0.07057817 0.12918691 0.19410297 -0.12566826 0.26249003 -0.15613328 -0.06988294
0.049885646 0.1202505 0.10033792 -0.26579422 0.17045958 0.27172655 -0.10716065 -0.08343223
-0.1614935 0.015684793 -0.2338034 -0.10383104 0.021357672 0.0077928365 -0.19849007 0.0006204289
-0.23432335 0.06134452 0.13410965 0.17582189 0.2140864 0.04262053 0.115395494 0.27298838
-0.16973826 0.08681441 -0.036690805 -0.21847738 -0.20049328 0.14190497 -0.055170216 0.10258293
0.1926841 0.22167578 -0.22164215 0.17298481 0.22463512 -0.22598371 -0.22318181 0.17112178
-0.27365667 -0.07567057 0.08366996 -0.075809754 0.017106386 -0.15857135 -0.1587525 0.039095815
0.19636416 -0.081154846 0.13668068 -0.19349864 -0.28748092 -0.10944402 0.06115963 0.18949005
0.059766173 0.18932068 0.18791723 -0.23436671 0.11954678 0.23745032 -0.033387285 -0.10841543
-0.050251164 0.20556742 -0.22752875 -0.065432444 0.08257079 0.19007331 0.17136477 0.25044027
-0.091122024 -0.22422741 0.21772148 -0.045902696 0.08987825 0.10757148 0.15630172 -0.14741734
0.03432112 -0.20142822 -0.029375685 0.11467297 0.13203375 0.18147449 -0.26503205 -0.19752453
-0.14983013 -0.14821683 0.22040153 0.1509339 -0.028140005 0.034847498 -0.042453147 -0.074408524
0.2279465 -0.19888555 -0.05826921 0.00018026275 -0.12755942 0.09056462 -0.05006512 0.07240422
-0.1491937 0.12742749 -0.04580351 0.14543131 0.28133994 0.27351913 0.26432642 -0.031195262
0.15463278 -0.12908536 0.21824487 0.22651917 -0.17372912 0.191348 0.0056654424 -0.19523738
-0.13958287 0.1928328 -0.044395816 0.18344668 -0.08729211 0.24965608 -0.078406274 0.12796593
-0.21230802 0.23548867 0.2763733 -0.17649502 0.23773779 0.08198371 0.19103777 -0.07096844
0.1568394 -0.018166877 -0.009070076 -0.15828307 -0.2297375 -0.020743018 -0.120064065 0.18585838
-0.2487652 -0.13782804 -0.06121428 0.10740628 0.19273971 -0.07066561 -0.25093687 -0.042136535
-0.09567513 0.28804132 -0.04217915 0.22931644 -0.022474179 0.2636877 0.23098625 0.110108525
-0.06465997 -0.113825165 -0.19493733 -0.20309357 0.22238141 -0.16870578 -0.2462924 -0.16657017
-0.039034728 0.17796591 -0.07066603 -0.17269418 -0.25982767 0.09655839 -0.13338642 0.21766724
0.11957036 -0.1928078 -0.17943597 -0.036005702 -0.06444891 0.26813778 -0.24105875 0.053464122
-0.19774102 -0.14830427 -0.099310026 0.03195081 -0.0048524756 -0.04535518 0.18638496 0.28698823
-0.18677364 0.20808582 -0.15962186 0.08675307 0.004508964 0.044672705 -0.053592812 -0.13445182
0.01675435 -0.2302785 -0.019112233 0.07515889 0.0055118804 -0.10220332 0.21321978 0.077080734
-0.030484522 0.04195339 0.08621683 -0.16081338 -0.046993524 0.03457836 -0.16786723 -0.1861206
-0.103360854 0.18396288 0.059151772 0.18937081 -0.064452805 -0.020112006 0.011753096 0.26362446
-0.2724574 0.13804613 -0.17906846 -0.09039733 0.12144341 -0.021890868 0.25116184 -0.05356737
-0.008162833 -0.22786172 -0.2513158 0.0912931 0.23826228 -0.13808562 -0.1826182 -0.055192936
00000000: 38a0 4e3e 24e7 2a3e 1f5e 0f3e 7dc4 773e
00000010: f9b4 073e 1231 253e a48c 10be 4e6d 3fbe
00000020: fbf2 723d 4a8b 90bd 9349 043e eec2 463e
00000030: 2eaf 00be 1865 863e 67e1 1fbe c91e 8fbd
00000040: e454 4c3d e545 f63d f87d cd3d 2e16 88be
00000050: f58c 2e3e be1f 8b3e 0b77 dbbd 84de aabd
00000060: 8d5e 25be 657d 803c 296a 6fbe 5ea5 d4bd
00000070: 49f6 ae3c 0d5b ff3b fb40 4bbe 47a4 223a
00000080: 76f2 6fbe 6444 7b3d 0a54 093e a70a 343e
00000090: 7739 5b3e dd92 2e3d 7954 ec3d 22c5 8b3e
000000a0: decf 2dbe c1cb b13d 1949 16bd 89b8 5fbe
000000b0: 1c4e 4dbe 894f 113e 2afa 61bd 0017 d23d
000000c0: fb4e 453e fafe 623e 29f6 62be ee22 313e
000000d0: c006 663e 4668 67be c689 64be 8c3a 2f3e
000000e0: ba1c 8cbe 2cf9 9abd 285b ab3d 2542 9bbd
000000f0: b122 8c3c 8760 22be 0490 22be ef22 203d
00000100: b013 493e 8334 a6bd 05f6 0b3e 8224 46be
00000110: b330 93be 3024 e0bd 8582 7a3d ae09 423e
00000120: 60cd 743d 48dd 413e 606d 403e d4fd 6fbe
00000130: f1d4 f43d 2d26 733e 1bc1 08bd e908 debd
00000140: 2ad4 4dbd 4480 523e 4cfd 68be 7201 86bd
00000150: e01a a93d 94a2 423e 3f7a 2f3e b539 803e
00000160: 2f9e babd df9b 65be 61f2 5e3e 7704 3cbd
00000170: 1712 b83d 704e dc3d 8f0d 203e 92f4 16be
00000180: 4d94 0c3d 3343 4ebe 47a5 f0bc a9d9 ea3d
00000190: db33 073e 73d4 393e 48b2 87be df43 4abe
000001a0: 126d 19be 27c6 17be f0b0 613e 6b8e 1a3e
000001b0: de85 e6bc 40bc 0e3d 5ae3 2dbd 7f63 98bd
000001c0: cf6a 693e a7a8 4bbe b2ab 6ebd ea04 3d39
000001d0: f09e 02be f279 b93d 1511 4dbd aa48 943d
000001e0: 3cc6 18be 5a7c 023e 769c 3bbd f2eb 143e
000001f0: ca0b 903e b30a 8c3e cb55 873e 358d ffbc
00000200: 0e58 1e3e f42e 04be 957b 5f3e a4f4 673e
00000210: 0ce6 31be bbf0 433e 2da5 b93b 4fec 47be
00000220: d0ee 0ebe f675 453e 63d8 35bd 72d9 3b3e
00000230: 35c6 b2bd d8a5 7f3e 7893 a0bd 8009 033e
00000240: 4667 59be f123 713e cd80 8d3e 1cbb 34be
00000250: 8971 733e 13e7 a73d 689f 433e e757 91bd
00000260: 829a 203e b4d2 94bc a89a 14bc f514 22be
00000270: 4f40 6bbe 43ed a9bc 26e4 f5bd a951 3e3e
00000280: 4ebc 7ebe cb22 0dbe d3bb 7abd d3f7 db3d
00000290: 8f5d 453e 22b9 90bd cc7a 80be 5c97 2cbd
000002a0: 53f1 c3bd 277a 933e 0bc4 2cbd eed1 6a3e
000002b0: c51b b8bc 1302 873e a987 6c3e 9480 e13d
000002c0: 726c 84bd 2b1d e9bd a79d 47be c3f7 4fbe
000002d0: f4b7 633e 35c1 2cbe 1334 7cbe 5f91 2abe
000002e0: e1e2 1fbd b23c 363e 5ab9 90bd bed6 30be
000002f0: 2208 85be 68c0 c53d 7396 08be 29e4 5e3e
00000300: 4ee1 f43d 686f 45be 10be 37be b77a 13bd
00000310: cafd 83bd 5b49 893e 1bd8 76be 32fd 5a3d
00000320: 9f7c 4abe 13dd 17be 0e63 cbbd dade 023d
00000330: 8401 9fbb 5ac6 39bd b3db 3e3e 1ff0 923e
00000340: 9741 3fbe 7314 553e ea73 23be 98ab b13d
00000350: eebf 933b bafa 363d 2384 5bbd bdad 09be
00000360: 6b40 893c 21ce 6bbe 4291 9cbc e7ec 993d
00000370: 019d b43b f94f d1bd 4956 5a3e 81dc 9d3d
00000380: adba f9bc 51d7 2b3d 7392 b03d 43ac 24be
00000390: 487c 40bd 0aa2 0d3d 63e5 2bbe 6696 3ebe
000003a0: dbae d3bd c460 3c3e 2149 723d 6cea 413e
000003b0: d5ff 83bd efc1 a4bc 0f90 403c c9f9 863e
000003c0: 897f 8bbe f75b 0d3e b95d 37be 3c22 b9bd
000003d0: 53b7 f83d 7a54 b3bc 4998 803e 7569 5bbd
000003e0: 67bd 05bc 9554 69be 77ac 80be e0f7 ba3d
000003f0: 07fb 733e 5166 0dbe 4400 3bbe fd11 62bd
