mujoco/gail/save_model/ckpt_824.pth.tar (torch, 144879 bytes, 16 tensors)

fc1.weight f4 [100, 11]
0	0xbd2e9bdf	-0.04262912
1	0xbe778425	-0.24171503
2	0x3e0d6e66	0.13811645
3	0xbd8e3b3f	-0.06944894
4	0x3dd98807	0.10621648
5	0x3ddd3baa	0.10802396
6	0xbe7e1b22	-0.24815038
7	0x3e63df4d	0.22253151
8	0x3e43fe2f	0.19139932
9	0x3e8a2e10	0.26988268
10	0x3d1c3b0a	0.03814224
11	0x3ec0b5c2	0.3763867
12	0xbdf805b0	-0.1211046
13	0xbca81646	-0.020518433
14	0xbe5e56b1	-0.21712758
15	0x3e2d6f64	0.16937023
16	0x3d326cff	0.043560978
17	0xbb19b424	-0.002345332
18	0x3dc88d7f	0.09792613
19	0x3e18f67b	0.14937775
20	0x3e3a7299	0.18207778
21	0x3ea20ee2	0.3165198
22	0x3e615015	0.22003205
23	0xbde40805	-0.11134342
24	0xbe7ef1a0	-0.2489686
25	0x3e03ea54	0.12882358
26	0x3e183f7e	0.1486797
27	0xbe53b63e	-0.20674989
28	0xbc1929e4	-0.009348366
29	0x3ea72828	0.32647824
30	0x3ce3a8d7	0.02779047
31	0x3c73a40f	0.014870658
32	0x3e192640	0.14955997
33	0x3e5a4182	0.21314052
34	0xbe32aa87	-0.17447864
35	0xbc5eede1	-0.013606519
36	0x3e2b519b	0.16730349
37	0x3d94f66e	0.07273565
38	0x3e66e9d2	0.22550133
39	0xbeac6997	-0.3367431
40	0xbdb6f563	-0.089335226
41	0xbeaf780e	-0.34271282
42	0x3e909805	0.28240982
43	0xbea254fb	-0.3170546
44	0x3d9abe82	0.07555868
45	0x3e93340e	0.28750652
46	0x3e6fb5f3	0.23409252
47	0xbeb24eb6	-0.34825677
48	0xbd383da9	-0.04498068
49	0x3e1b4e66	0.15166625
50	0xbe4f72e9	-0.20258678
51	0xbcfba182	-0.030716661
52	0x3e776920	0.24161196
53	0x3d9d1afe	0.07671164
54	0x3d9cd824	0.07658413
55	0x3e9b5b2b	0.30342993
56	0xbd9a517c	-0.07535073
57	0xbd8546f9	-0.065076776
58	0x3e088dbc	0.13335317
59	0x3ed25318	0.4107902
60	0x3e129ca7	0.1431757
61	0x3dd3314c	0.10312137
62	0xbe187050	-0.14886594
63	0xbb211213	-0.0024577423
64	0xbd7d3c69	-0.06182519
65	0x3d9438ed	0.0723742
66	0x3e8bfe75	0.27342573
67	0xbe84fa68	-0.25972295
68	0x3e9c2bd3	0.30502185
69	0xbe721e31	-0.2364433
70	0xbcac7ff9	-0.021057116
71	0xbe6bef0b	-0.23040406
72	0x3ea15c9d	0.3151597
73	0xbc893859	-0.016750501
74	0xbd4d2f67	-0.050094035
75	0xbe1440db	-0.14477865
76	0xbddc2540	-0.107492924
77	0x3d138022	0.03601087
78	0x3eb0e9f7	0.345535
79	0xbe9583a9	-0.2920201
80	0xbe367b9e	-0.17820594
81	0x3e76837d	0.24073596
82	0x3e3f8f1d	0.18706937
83	0x3e2b7ed4	0.167476
84	0xbd0d8b62	-0.034556754
85	0xbe996277	-0.29957935
86	0x3e52ac0a	0.2057344
87	0x3e665b17	0.22495686
88	0xbe11e3d6	-0.14247069
89	0x3e3506cb	0.17678373
90	0xbe830c09	-0.2559512
91	0xbe8f080f	-0.27935836
92	0x3e6d0f6d	0.23150416
93	0x3e6fa952	0.23404434
94	0x3de69847	0.11259513
95	0xbe2b1704	-0.16707999
96	0x3eb96755	0.3621165
97	0xbe858f2d	-0.26085797
98	0x3dfa57d7	0.12223785
99	0xbdc8abcc	-0.09798393
100	0x3e58cd1e	0.21171996
101	0xbdace92a	-0.0844291
102	0x3cee69c7	0.029103173
103	0x3e9875ef	0.29777476
104	0xbe0dc63c	-0.13845152
105	0x3e1e314b	0.15448491
106	0x3eb324af	0.34988925
107	0x3e64e6f9	0.22353734
108	0x3e3c2b6c	0.18375939
109	0xbdfdeffe	-0.123992905
110	0xbe87c4e5	-0.26517406
111	0xbd54298d	-0.05179744
112	0x3d70c3c4	0.058780447
113	0xbec0f14c	-0.37684095
114	0xbe30d13d	-0.17267318
115	0x3e62a96c	0.22134942
116	0xbd88785d	-0.066635825
117	0x3e3efb14	0.18650466
118	0x3da06052	0.07830872
119	0x3e74dbea	0.23912016
120	0xbdbea150	-0.09308112
121	0xbe918ee5	-0.28429332
122	0xbd6ee5fc	-0.0583248
123	0xbb3018a0	-0.0026870146
124	0xbd2f3b69	-0.042781267
125	0x3e6e54af	0.23274492
126	0x3e9f3cdf	0.31101128
127	0xbe035c9d	-0.12828298
128	0xbdb85ab7	-0.090016775
129	0xbd8150da	-0.06314249
130	0xbe3f94f8	-0.18709171
131	0x3e639386	0.22224244
132	0xbcaa7cb4	-0.020811416
133	0x3e471421	0.19441272
134	0x3c785504	0.015156988
135	0x3e55ebb7	0.208907
136	0x3e108898	0.14114606
137	0xbe10a9a6	-0.14127216
138	0x3baacff7	0.0052127796
139	0xbdb80263	-0.0898483
140	0x3ea157f6	0.3151242
141	0xbd321185	-0.04347374
142	0x3d8c3745	0.06846479
143	0x3dbb7568	0.09153253
144	0x3db5e270	0.0888108
145	0xbda32c03	-0.07967379
146	0x3e7f952b	0.24959247
147	0xbcf33b69	-0.029691415
148	0xbde8ae65	-0.11361388
149	0x3c79012a	0.015198031
150	0x3e8028ba	0.25031072
151	0x3ed4ab71	0.4153705
152	0xbe690b23	-0.22758155
153	0x3dc8cba5	0.09804467
154	0xbe97db38	-0.29659438
155	0xbdf2eadb	-0.118612014
156	0x3e99a3fb	0.3000792
157	0x3e819a51	0.25313047
158	0x3d91f0d0	0.071260095
159	0x3c5ab6c2	0.013349237
160	0x3e9afd2a	0.30271274
161	0x3ec512a5	0.38490787
162	0x3d7af870	0.061272085
163	0x3e694203	0.22779088
164	0x3de5d126	0.112215325
165	0xbe13895c	-0.14407867
166	0xbe0124cf	-0.12611698
167	0x3e1c9ac4	0.15293413
168	0x3e5caf2b	0.21551196
169	0x3e98f12d	0.29871503
170	0x3df85af7	0.12126725
171	0xbe315dac	-0.17320889
172	0x3c62f26b	0.013851742
173	0x3e99d8e7	0.30048296
174	0x3de90078	0.113770425
175	0xbd4b997d	-0.049706925
176	0x3dd3f349	0.10349137
177	0xbeaa2cea	-0.33237392
178	0x3d987c48	0.0744558
179	0x3e7a9e82	0.24474528
180	0x3e850e75	0.25987592
181	0x3e9e5888	0.3092692
182	0xbea15fc7	-0.31518385
183	0x3ea03c35	0.31295934
184	0x3ea6d80a	0.325867
185	0x3e2ab011	0.16668727
186	0x3e59973d	0.21249099
187	0x3d7824a5	0.060581822
188	0xbe98bfd5	-0.29833856
189	0x3bd8bf62	0.0066146115
190	0xbe361ef9	-0.17785253
191	0xbd9da1fb	-0.07696911
192	0xbead811a	-0.3388756
193	0x3e484112	0.19556072
194	0x3d714934	0.058907703
195	0xbde6c714	-0.1126844
196	0xbe414f19	-0.1887783
197	0xbe33d618	-0.17562139
198	0x3e8dd255	0.27699533
199	0x3ea0fbd9	0.31442145
200	0x3e2fa3ba	0.171523
201	0xbe43ce38	-0.19121635
202	0xbda8f8d0	-0.08250582
203	0x3e8f531b	0.27993092
204	0xbcffe207	-0.031235708
205	0xbbb8e746	-0.0056428043
206	0xbe87bdca	-0.26511985
207	0xbe6a6731	-0.22890927
208	0x3e51b474	0.20478994
209	0xbdc973b9	-0.098365255
210	0x3eadb668	0.33928227
211	0xbec16e03	-0.37779245
212	0x3d73a2d5	0.05948146
213	0x3e791412	0.24324062
214	0xbe8f16dc	-0.27947128
215	0xbe8a021a	-0.26954728
216	0xbe8e2902	-0.2776566
217	0xbdec37a7	-0.11534052
218	0x3d39f1a7	0.045396473
219	0xbe918024	-0.28418076
220	0xbe7c370e	-0.24630377
221	0xbe8b4ffa	-0.27209455
222	0xbd5591b9	-0.052140925
223	0x3e8067e8	0.25079274
224	0xbe07b424	-0.13252312
225	0xbc73992b	-0.014868061
226	0xbde58aed	-0.112081386
227	0xbd2c432e	-0.042056255
228	0x3c58dbd6	0.013236007
229	0xbe15d9e2	-0.14633897
230	0xbe817a57	-0.2528865
231	0x3e389be4	0.18028218
232	0x3db6d7d0	0.08927882
233	0x3d978af8	0.07399553
234	0x3e4756b2	0.19466665
235	0x3eb3c57b	0.35111603
236	0xbe7b5dc1	-0.24547483
237	0x3c27b859	0.010236823
238	0x3da4d385	0.08048157
239	0xbe211306	-0.15729913
240	0x3e8b92c7	0.2726042
241	0xbdb8e709	-0.090284415
242	0x3cd4ef29	0.025992947
243	0xbe5e8e9f	-0.21734093
244	0x3db1f7c1	0.086898334
245	0x3e028f1e	0.12749907
246	0x3e7fe428	0.24989378
247	0x3ec40951	0.38288358
248	0xbe39dd07	-0.18150721
249	0xbdae901d	-0.08523581
250	0xbe2df6af	-0.16988634
251	0x3dff492e	0.1246513
252	0xbe8ee693	-0.2791029
253	0x3dc90032	0.098144904
254	0x3e04b558	0.12959802
255	0xbdc58046	-0.09643607

fc1.bias f4 [100]
0	0xbe53ce39	-0.20684136
1	0xbe838314	-0.25685942
2	0xbd6907ce	-0.05689221
3	0x3de53709	0.11192138
4	0x3d9170f4	0.07101622
5	0xbdf4d162	-0.11953999
6	0xbdb93af7	-0.0904445
7	0x3c8c2ef1	0.017112227
8	0xbdba3a43	-0.09093144
9	0xbead3c0f	-0.33834884
10	0x3d8167ea	0.06318648
11	0x3df02605	0.11726002
12	0xbe072adc	-0.13199943
13	0x3e83c7c9	0.2573836
14	0x3e5f46f2	0.21804407
15	0xbe8898a7	-0.26678964
16	0x3e904ddb	0.281844
17	0x3e7ac4a1	0.2448907
18	0xbdf4ce39	-0.11953396
19	0x3c2eebcf	0.010676338
20	0x3b9c92bd	0.0047782348
21	0xbe99edc4	-0.30064213
22	0x3e02a95f	0.12759922
23	0xbe4a8a18	-0.19779241
24	0x3d923622	0.07139231
25	0x3defdd5c	0.11712143
26	0xbe66df3d	-0.22546096
27	0xbe5c6773	-0.21523838
28	0x3e7bde76	0.24596581
29	0x3e32dbc8	0.17466652
30	0xbe5fdc34	-0.21861345
31	0x3d6c5580	0.057698727
32	0x3e585f95	0.21130212
33	0x3e534176	0.2063044
34	0xbeb047d0	-0.3442979
35	0x3dbd5079	0.092438646
36	0x3e0ae490	0.13563752
37	0xbb9cef2a	-0.0047892528
38	0xbe8094d9	-0.25113562
39	0x3e0e2d8e	0.13884565
40	0x3e55a6f4	0.20864469
41	0x3e943194	0.28944075
42	0xba9ec5c5	-0.0012113383
43	0xbe9d2cb4	-0.30698168
44	0x3dc55b9b	0.09636613
45	0x3d2072dd	0.039172042
46	0xbe714f79	-0.23565473
47	0xbe9b1a21	-0.30293372
48	0x3e187f71	0.14892365
49	0x3eb10681	0.34575275
50	0x3d8f7242	0.07004215
51	0x3e9e1feb	0.30883726
52	0xbe42400d	-0.18969746
53	0xbe349c8a	-0.1763784
54	0x3cbcfc73	0.023069596
55	0x3e5d20df	0.2159457
56	0xbd2f2b3d	-0.042765845
57	0x3e8817a0	0.26580524
58	0x3e722264	0.23645931
59	0x3e935efa	0.287834
60	0xbe744e36	-0.2385796
61	0x3ea8176e	0.32830375
62	0x3e989e5b	0.29808316
63	0x3de33ecb	0.11095961
64	0xbe276b59	-0.16349544
65	0xbe943e7a	-0.28953916
66	0xbd89ae4a	-0.06722696
67	0xbe1da8bb	-0.15396397
68	0xbd9366df	-0.071973555
69	0x3cfc804d	0.030822897
70	0x3ea769a1	0.32697776
71	0x3d0f8308	0.03503707
72	0x3e80f034	0.2518326
73	0x3dadc5b4	0.084849745
74	0xbe830433	-0.2558914
75	0xbe779b7c	-0.24180406
76	0x3e3b6077	0.18298517
77	0x3e0b16f9	0.13582982
78	0x3e87a1af	0.26490542
79	0x3ea7799a	0.32709962
80	0xbea3dca6	-0.3200428
81	0xbe97d1aa	-0.29652148
82	0x3e138239	0.14405145
83	0x3e5347d7	0.20632873
84	0x3e942a42	0.2893849
85	0xbe9f42ab	-0.3110555
86	0xbe453535	-0.19258578
87	0x3e8c058a	0.27347976
88	0x3e74ab60	0.238935
89	0xbd9a3e7a	-0.07531448
90	0x3e9e6b4c	0.30941236
91	0x3ea820f3	0.32837638
92	0xbc05b67d	-0.008161184
93	0x3ea03cfb	0.31296524
94	0xbe89819f	-0.26856706
95	0x3e57c003	0.2106934
96	0x3e8b9725	0.27263752
97	0xbd0283ef	-0.031864103
98	0x3e4ee690	0.2020514
99	0x3e73eaae	0.23819992

fc2.weight f4 [100, 100]
0	0x3d260329	0.040530358
1	0xbd8b05cc	-0.06788215
2	0xbd1ee3a4	-0.038791314
3	0x3d0545f1	0.032537404
4	0xbc73a9f2	-0.014872061
5	0xbd6810a1	-0.056656484
6	0xbd1da7a0	-0.038489938
7	0xbd8ea4ad	-0.06965003
8	0x3af1f66a	0.0018460278
9	0xbdde6841	-0.108597286
10	0x3da52829	0.080643006
11	0x3bf55d72	0.007487946
12	0x3d1a450d	0.03766351
13	0x3e39a218	0.1812824
14	0x3e5012fa	0.20319739
15	0x3e27c75f	0.16384648
16	0xbd340b5b	-0.043956142
17	0xbcf99fde	-0.030471738
18	0xbe309d80	-0.17247581
19	0x3cbd8bbc	0.02313792
20	0x3dd6cbea	0.10488112
21	0x3d844b34	0.06459656
22	0x3c93feab	0.018065771
23	0xbc5eed0c	-0.013606321
24	0xbd7012ea	-0.058611788
25	0x3cc78897	0.024357123
26	0xbd7b01a3	-0.061280858
27	0xbdbabaac	-0.09117636
28	0xbe1dbc81	-0.1540394
29	0x3b12af9b	0.00223825
30	0x3cd3711f	0.025810776
31	0xbbed9127	-0.0072499695
32	0x3e1e0dc8	0.15434945
33	0xbd430439	-0.04761145
34	0x3e1bbddc	0.15209144
35	0x3d6891da	0.05677972
36	0xbe36d419	-0.17854346
37	0x3dddde4c	0.108334154
38	0x3d13378b	0.03594164
39	0xbd0de4fe	-0.034642212
40	0x3e09dda4	0.13463455
41	0xbcc8f800	-0.024532318
42	0x3dfe97fb	0.12431332
43	0x3dfcb5c4	0.123393565
44	0x3df7521a	0.120762065
45	0x3de6edd6	0.11275832
46	0xbd80788d	-0.06272993
47	0xbd250d5c	-0.040295944
48	0xbcaaa7e0	-0.020832002
49	0xbcf25b8c	-0.029584669
50	0xbafe7d71	-0.0019416047
51	0xbe175394	-0.14777976
52	0x3d667a34	0.056268886
53	0x3d024686	0.031805538
54	0xbd28f3ee	-0.041248254
55	0xbca90c7f	-0.020635841
56	0x3cc4d066	0.024025153
57	0x3e267143	0.16254143
58	0xbc1f4a9a	-0.009722376
59	0x3c9f8904	0.019474514
60	0xbb82cf94	-0.0039920304
61	0xbd12840c	-0.03577046
62	0x3dbd1ace	0.09233628
63	0x3a7fcc1f	0.00097578944
64	0x3db2acec	0.087243885
65	0x3dbddd24	0.09270695
66	0x3dfb89f2	0.1228217
67	0x3d405987	0.04696038
68	0xbc4052ec	-0.01173852
69	0xbe4451d8	-0.19171846
70	0xbd2f957a	-0.04286716
71	0xbd87f414	-0.06638351
72	0x3cc2ea5d	0.023793394
73	0x3d8eac38	0.06966442
74	0x3e577942	0.2104235
75	0xbe0f17a4	-0.13973862
76	0xbe0741c3	-0.1320868
77	0x3e5fac46	0.21843061
78	0x3d103467	0.035206225
79	0xbd8b9e89	-0.068173476
80	0x3d2efc5f	0.04272115
81	0x3d08139c	0.033221826
82	0x3d0f74fc	0.035023674
83	0x3db64306	0.088995025
84	0xbccea01e	-0.025222834
85	0x3c41726a	0.011807064
86	0x3e348f64	0.17632824
87	0x3d2044f4	0.03912826
88	0xbe009a94	-0.12558967
89	0x3df13850	0.11778319
90	0xbc94d4f1	-0.018167945
91	0xbd114c20	-0.03547299
92	0xbddc3291	-0.10751832
93	0xbde7515c	-0.11294815
94	0xbd6b3511	-0.057423655
95	0x3bbcdda4	0.0057637263
96	0x3dbe1d9b	0.092829905
97	0xbde61faf	-0.11236512
98	0x3d2109b2	0.039315887
99	0x3d1910da	0.037369587
100	0xbdbe8b91	-0.09303964
101	0xbd58762b	-0.05284707
102	0x3e09ebe2	0.13468888
103	0x3e086c20	0.13322496
104	0xbd43eef9	-0.047835324
105	0xbc22def4	-0.0099408515
106	0x3d8c3eb7	0.068478994
107	0x3e36135b	0.17780821
108	0x3c43f0e5	0.011959289
109	0x3d303d67	0.043027308
110	0x3dea52d3	0.11441579
111	0xbdc77e53	-0.09740891
112	0xbda3b9ee	-0.07994448
113	0x3ccea20a	0.02522375
114	0x3d74b810	0.05974585
115	0x3ccb15f2	0.024790738
116	0x3dbc2100	0.09185982
117	0x3d74de29	0.05978218
118	0xbbf7e80c	-0.007565504
119	0xbd490093	-0.049072813
120	0xbdc53256	-0.096287414
121	0x3d9917c9	0.0747524
122	0x3e16b7f8	0.14718616
123	0x3d2c2b7d	0.04203366
124	0xbd29bbca	-0.041438855
125	0x3d0e6b34	0.034770206
126	0xbd8dd23e	-0.06924866
127	0xbd7601a0	-0.060060143
128	0xbcd89b5a	-0.026441265
129	0x3e429fb1	0.1900623
130	0xbe31c627	-0.17360745
131	0xbd919c86	-0.071099326
132	0xbae32ec5	-0.0017332664
133	0xbcbbef95	-0.02294139
134	0x3cfc2bef	0.030782668
135	0xbbd8fd18	-0.006621968
136	0xbd3ed671	-0.046591226
137	0x3d9ef032	0.07760657
138	0x3d927451	0.07151092
139	0xbd5d9604	-0.054098144
140	0x3bb07bfc	0.005385874
141	0xbdc10f90	-0.094267964
142	0xbdb62e82	-0.088955894
143	0x3ddaafd7	0.1067807
144	0xbd865e28	-0.06560928
145	0xbde528dc	-0.11189434
146	0x3ca38d86	0.019964945
147	0xbd66d593	-0.056356024
148	0xbbf9e64b	-0.00762633
149	0x3d8e9621	0.069622286
150	0x3c142cdc	0.009043898
151	0xbd71420a	-0.05890087
152	0x3dc35738	0.0953812
153	0xbd47b862	-0.048759826
154	0x3da39b82	0.07988645
155	0x3defc66b	0.11707767
156	0x3d53408a	0.05157522
157	0x3cfa1f78	0.030532584
158	0xbcd09de2	-0.02546591
159	0xbb3ef0c9	-0.0029135218
160	0x3d45a172	0.04824967
161	0x3c351bae	0.011053963
162	0x3c547b51	0.012968854
163	0x3e060c94	0.13090736
164	0xbde9b65a	-0.11411734
165	0xbdc32505	-0.09528545
166	0xbc82d6b9	-0.015971528
167	0x3d0207bf	0.03174567
168	0x3dcb32a6	0.0992177
169	0x3e1e493a	0.15457621
170	0x3dd8a9ce	0.10579263
171	0xbd9bb0cd	-0.076020814
172	0x3c5696c7	0.013097472
173	0xbdbfb87c	-0.093613595
174	0xbd774311	-0.060366694
175	0xbdaa28b4	-0.08308545
176	0x3c81bd22	0.015837256
177	0xbd976d7e	-0.07393931
178	0xbbd30e39	-0.0064409045
179	0x3e1e3a6a	0.1545197
180	0xbd33246f	-0.043735918
181	0xbd9913a6	-0.07474451
182	0xbdb1b3c7	-0.08676868
183	0xbde4c6a9	-0.11170704
184	0x3d4a840b	0.049442332
185	0x3d35461f	0.044256326
186	0x3d986a85	0.07442192
187	0xbd8d6119	-0.069032855
188	0xbdd69fdc	-0.104797095
189	0x3d9e35e5	0.07725123
190	0x3d55cfc2	0.052200086
191	0x3955fe96	0.00020408104
192	0xbc8c14b4	-0.017099716
193	0x3d83e0bc	0.06439349
194	0xbd6e4808	-0.058174163
195	0x3da69c02	0.08135225
196	0xbd8c36fb	-0.06846424
197	0xbc906cfc	-0.017630093
198	0x3d0616e8	0.03273669
199	0xbcd97f05	-0.026549825
200	0x3df7d18c	0.12100515
201	0xbd97f749	-0.07420213
202	0x3d9da6fe	0.07697867
203	0x3d47d5a5	0.04878773
204	0xbcf4a2eb	-0.029862842
205	0xbca617fb	-0.020275107
206	0x3ceb3258	0.02871053
207	0xbdeadc7c	-0.11467835
208	0x3c077e47	0.008269853
209	0x3d15ea30	0.03660029
210	0xbd71cee5	-0.0590352
211	0x3e3e0b68	0.18559039
212	0xbc4286fc	-0.011873003
213	0x3e167be4	0.14695698
214	0x3e1c614b	0.1527149
215	0xbcf95c7c	-0.030439608
216	0x3dfc3fe5	0.123168744
217	0x3d715ca0	0.058926225
218	0xbd813127	-0.06308203
219	0x3ccd6f0a	0.025077362
220	0x3e391f34	0.1807831
221	0xbdf70bef	-0.12062823
222	0x3ded60a0	0.115906954
223	0xbcd670e4	-0.026176877
224	0xbd2a9f19	-0.041655634
225	0x3d31de79	0.043425057
226	0xbd6b1de0	-0.057401538
227	0x3c6c0bfc	0.014407154
228	0xbd3906b1	-0.045172397
229	0x3dec6ad0	0.1154381
230	0xbd3c7512	-0.046010084
231	0x3d56b59c	0.05241929
232	0x3de06382	0.109564796
233	0xbd803151	-0.06259406
234	0xbbb56e93	-0.005536863
235	0x3d43772c	0.047721073
236	0xbdb3f42d	-0.08786807
237	0x3cf6651c	0.03007751
238	0xbe1daf07	-0.15398799
239	0xbc3348d4	-0.010942657
240	0x3de080d5	0.10962073
241	0xbd7d567f	-0.061850067
242	0xbccb962c	-0.024851881
243	0x3de2aea4	0.11068466
244	0x3d82b18b	0.0638152
245	0x3d6b2df1	0.05741686
246	0x3d07c25f	0.03314435
247	0xbdf8926e	-0.12137304
248	0x3c46096c	0.012087207
249	0xbd152f19	-0.03642187
250	0x3d182b0e	0.037150435
251	0xbd90a0dd	-0.07061932
252	0x3cd9fda1	0.026610197
253	0xbd848103	-0.064699195
254	0xbd0d7930	-0.0345394
255	0x3c992493	0.018694198

fc2.bias f4 [100]
0	0xbdc53345	-0.096289195
1	0x3d91bfad	0.071166374
2	0xbcd4dc9e	-0.025984105
3	0xbd8dc2fe	-0.069219574
4	0xbd9e8dc0	-0.077418804
5	0x3cacb7d8	0.021083757
6	0x3e3a71b0	0.18207431
7	0xbdf07ded	-0.117427684
8	0x3c4a4a04	0.012346748
9	0xbe71562a	-0.23568025
10	0x3d49bdc1	0.04925323
11	0x3e2dca8c	0.16971797
12	0xbc553ab3	-0.013014483
13	0xbd480c8a	-0.048840083
14	0xbcb6a486	-0.022295248
15	0xbd84f46a	-0.06491931
16	0xbe3a82af	-0.18213914
17	0x3e1fa66b	0.15590827
18	0xbda03317	-0.078222446
19	0x3dc9ec97	0.09859579
20	0x3cfb40fa	0.030670632
21	0x3cec33aa	0.02883323
22	0xbd155561	-0.036458377
23	0x3c9cb401	0.019128801
24	0xbd40ee88	-0.04710248
25	0x3deb2de3	0.114833616
26	0xbd1a6309	-0.037692104
27	0x3d653c99	0.055965994
28	0xbdc165d9	-0.09443254
29	0x3de2530c	0.11050996
30	0x3da90225	0.08252362
31	0x3d0e9fa4	0.034820214
32	0xbc962bd6	-0.01833145
33	0x3c5db535	0.013531973
34	0x3d7ef671	0.062246744
35	0x3e0375d7	0.12837921
36	0x3caf8c7f	0.021429298
37	0xbd8619a3	-0.065478586
38	0xbdc8547e	-0.097817406
39	0xbcfd2d1c	-0.030905299
40	0xbd3514e4	-0.044209376
41	0x3ce6531a	0.028115798
42	0x3cc8d91c	0.024517588
43	0x3c1400eb	0.009033422
44	0x3d8c9796	0.0686485
45	0xbc237ebc	-0.009978946
46	0xbdc871ed	-0.097873546
47	0xbda66c60	-0.0812614
48	0x3c1ff0db	0.009762014
49	0x3cf6b037	0.030113323
50	0x3d2d3380	0.042285442
51	0xbd028fca	-0.03187541
52	0x3de2103d	0.110382535
53	0xbe27dde3	-0.16393237
54	0x3d6e0b60	0.058116317
55	0x3da4adbd	0.080409504
56	0xbdc40ec6	-0.0957313
57	0x3d2610a3	0.04054321
58	0xbd490c28	-0.04908386
59	0xbc845166	-0.016152095
60	0xbda562e4	-0.080755025
61	0x3d4b9801	0.04970551
62	0xbda7759d	-0.0817673
63	0x3d564100	0.052308083
64	0xbd84242d	-0.064522125
65	0x3c85dab4	0.016339637
66	0x3cbc42f8	0.022981152
67	0xbd9d2b21	-0.07674242
68	0xbd86d0f9	-0.06582827
69	0xbad7b4b8	-0.0016457057
70	0x3dc8e1cd	0.09808693
71	0xbc1719f3	-0.009222495
72	0x3c89dc8f	0.016828803
73	0x3e04cef1	0.12969567
74	0xbdaf2be0	-0.0855329
75	0x3dd72423	0.105049394
76	0x3b6acf50	0.0035829134
77	0x3cbcdca6	0.023054432
78	0xbd811bdd	-0.063041426
79	0xbdadbe8f	-0.08483612
80	0x3d0d6f91	0.034530226
81	0xbe1f72c7	-0.15571128
82	0xbc77c144	-0.015121762
83	0xbcc80585	-0.024416694
84	0x3d803791	0.062605985
85	0x3d998b49	0.0749727
86	0xbc96bf67	-0.018401815
87	0xbd2e23b1	-0.042514507
88	0x3e257f5b	0.16161864
89	0x3e143426	0.14473018
90	0xbbe78a8d	-0.007066077
91	0xbd07867c	-0.03308724
92	0x3d6c4250	0.057680428
93	0x3bc3a093	0.0059700697
94	0xbda1ddcc	-0.079036325
95	0x3dae6987	0.085162215
96	0x3e5d17bc	0.21591085
97	0x3d8ffb7c	0.07030389
98	0x3ae93daf	0.0017794872
99	0xbd926a5e	-0.07149194

fc3.weight f4 [3, 100]
0	0x3c4f43f9	0.012650483
1	0x3d55950d	0.0521441
2	0x3cb2dc79	0.021833645
3	0xbd1e1f46	-0.038604043
4	0x3db9ed09	0.09078414
5	0x3d1c173b	0.03810809
6	0x3d255501	0.04036427
7	0xbd960ff7	-0.07327264
8	0xbc24353a	-0.010022456
9	0xbdee23cc	-0.116279215
10	0x3d0188c3	0.031624567
11	0x3d3009c1	0.042978052
12	0xbb1961fc	-0.002340435
13	0xbcdb34a6	-0.026758503
14	0xbb9a67d6	-0.0047120852
15	0xbcef0971	-0.029179307
16	0xbd1ef41c	-0.03880702
17	0x3db5fb3a	0.08885808
18	0xbd0b412d	-0.033997703
19	0x3b65b933	0.0035053014
20	0x3c98d559	0.01865642
21	0x3cc18bc5	0.023626218
22	0xbc8acee6	-0.01694436
23	0x3d8badf9	0.06820292
24	0xbd0b9e64	-0.0340866
25	0x3c3c13a0	0.011479288
26	0xbc07a6f7	-0.008279554
27	0xbd280641	-0.04102159
28	0xbc912989	-0.01772
29	0xbc8f3b45	-0.017484317
30	0xbd9e5eb4	-0.07732907
31	0xbdf724e7	-0.120675854
32	0x3dd6a4d4	0.10480657
33	0x3ccf477b	0.02530264
34	0xbcbabe0e	-0.022795703
35	0x3d842449	0.06452233
36	0x3b85990b	0.004077082
37	0xbd73cac3	-0.05951954
38	0xbc87f3b6	-0.016595703
39	0x3b075485	0.0020649743
40	0xbd29e12c	-0.041474506
41	0x3d8484a7	0.06470614
42	0xbc3361c7	-0.010948605
43	0xbd8e5c7c	-0.06951234
44	0x3d276b9b	0.040874105
45	0x3d87466e	0.0660523
46	0xbe0a8509	-0.13527311
47	0xbd0cb67e	-0.034353726
48	0xbd827b09	-0.06371123
49	0x3c8526bc	0.016253822
50	0xbc55f5c7	-0.013059086
51	0x3cf9ec9a	0.030508328
52	0x3d280800	0.041023254
53	0xbd6f3440	-0.05839944
54	0x3d1d763a	0.038442828
55	0x3d6bd0b9	0.0575721
56	0x3e15e13c	0.14636701
57	0xbbd84c29	-0.006600876
58	0x3c38ce0f	0.011279597
59	0x3d212590	0.039342463
60	0x3c22b6b1	0.009931252
61	0x3d36c90b	0.044625323
62	0xbd81d7a3	-0.063399576
63	0xb8d28d16	-0.000100398596
64	0xbd064be1	-0.032787208
65	0x3d058abb	0.032603007
66	0x3ce4443c	0.027864568
67	0x3c4dafd2	0.012554126
68	0x3d3ecaaf	0.046580013
69	0xbd8e1fa8	-0.06939632
70	0xbc9272fb	-0.017877093
71	0x3d84426b	0.06457981
72	0xbd7a74cd	-0.061146546
73	0x3db69bb7	0.08916419
74	0x3da03a4b	0.078236185
75	0x3d7d645b	0.061863285
76	0x3d5d221f	0.05398762
77	0xbc751ce9	-0.014960506
78	0x3abdd3dc	0.0014482695
79	0xbce1379e	-0.02749234
80	0x3cf6cf28	0.030128077
81	0xbbf560f7	-0.0074883658
82	0xbca08f06	-0.019599449
83	0x3da92497	0.08258932
84	0x3b39d1b7	0.002835376
85	0xbd363ce2	-0.044491656
86	0xbd18653c	-0.03720592
87	0x3c90acd8	0.017660543
88	0x3c3cf099	0.011531972
89	0xbab1dce2	-0.0013569857
90	0x3d3c70a1	0.04600585
91	0x3cf68a67	0.030095292
92	0x3ca0860c	0.019595169
93	0x3dd779b0	0.10521257
94	0xbcec98bd	-0.028881425
95	0x3ca65f09	0.020308988
96	0x3d655bfc	0.055995926
97	0x3c9d9376	0.019235354
98	0xbc516f10	-0.012782827
99	0x3b839aa1	0.004016236
100	0x3de13b11	0.10997594
101	0xbc7b917c	-0.01535451
102	0x3ddeb66a	0.108746365
103	0xbcfc9a38	-0.030835256
104	0xbcb5e9df	-0.022206245
105	0xbcca29a2	-0.024678055
106	0xbd198613	-0.03748138
107	0x3cb650ef	0.022255389
108	0xbda8b6d9	-0.082380004
109	0xbe0e8b70	-0.13920379
110	0x3d62d809	0.05538181
111	0x3cd14c35	0.025549034
112	0xbcd361d8	-0.025803491
113	0xbd3f85a1	-0.046758298
114	0xbd6448c2	-0.05573345
115	0xbcc76dda	-0.024344373
116	0x3d4c54e7	0.049885657
117	0x3d0d1217	0.03444108
118	0x3c1f4cbd	0.009722886
119	0x3de2e162	0.110781446
120	0x3d1e0536	0.03857919
121	0x3d29b3a3	0.04143108
122	0xbdb7d065	-0.08975295
123	0x3d4d75d8	0.050161213
124	0xbc8e55fd	-0.017374987
125	0xbd9cb234	-0.07651177
126	0xbd6ae6cf	-0.057349022
127	0x3becd013	0.007226953
128	0xbdd02f8e	-0.1016532
129	0x3dea4993	0.114398144
130	0x3da1e5e3	0.079051755
131	0x3d8f87b1	0.07008303
132	0x3ce4c3ab	0.027925333
133	0x3caf435a	0.02139442
134	0xbd078e49	-0.033094678
135	0x3c570e78	0.013126008
136	0xbda47edf	-0.08032011
137	0xbaca24ae	-0.0015422308
138	0xbb3aaaff	-0.002848327
139	0x3c6b0c7a	0.014346236
140	0x3cb005b5	0.021487096
141	0xbda38620	-0.07984567
142	0xbd8fc2f2	-0.07019605
143	0x3d0dcbb1	0.034618083
144	0xbcb8ebec	-0.022573434
145	0xbc15bead	-0.009139699
146	0xbdd5e939	-0.10444874
147	0xbd30b733	-0.043143462
148	0x3cb9ab56	0.022664707
149	0x3ceb66bf	0.028735517
150	0xbd8c3f4e	-0.06848012
151	0x3c9c842d	0.019105995
152	0x3db1553c	0.08658835
153	0xbd277f7e	-0.04089307
154	0x3d0974f4	0.0335588
155	0x3b8d5719	0.0043133614
156	0xbad6d3ae	-0.001638999
157	0xbdb3b615	-0.08774964
158	0xbc5b14ee	-0.013371689
159	0x3d963dff	0.073360436
160	0x3da40beb	0.08010086
161	0xbd6e54bc	-0.058186278
162	0xbdef0652	-0.116711274
163	0xbb0d9133	-0.0021601438
164	0x3c881c8c	0.016615175
165	0x3d2cb4b0	0.042164505
166	0xbd84c6a6	-0.06483202
167	0x3b9efec1	0.0048521464
168	0x3cd52ccd	0.02602234
169	0xbc3fbd87	-0.011702902
170	0x3b6c08e2	0.0036016037
171	0xbac7f857	-0.0015256506
172	0x3d5a194e	0.05324679
173	0x3da1af7e	0.078948006
174	0xbd4d7ba6	-0.05016675
175	0xbdd5b036	-0.10434
176	0x3dd35aa7	0.10320025
177	0xbc98c791	-0.018649848
178	0x3db72251	0.08942092
179	0x3dbc75d5	0.09202162
180	0xbcc9def0	-0.024642438
181	0x392a403d	0.00016236394
182	0xbcd3bbe6	-0.025846433
183	0xbda9ba7c	-0.08287522
184	0xbd9675a1	-0.07346655
185	0x3b00fd07	0.0019682066
186	0xbc8b92a9	-0.017037706
187	0xbde18541	-0.11011744
188	0x3dd4ca54	0.103901535
189	0x3bbbe24b	0.0057337633
190	0xbdb27157	-0.08713024
191	0x3d31cb31	0.04340667
192	0xbad1f3cd	-0.0016018093
193	0xbcc4e880	-0.024036646
194	0x3d49c3d6	0.04925903
195	0xbc839d4d	-0.016066218
196	0x3e08d5d3	0.13362817
197	0xbd8520a8	-0.06500369
198	0xbb196035	-0.002340329
199	0x3e025e71	0.12731339
200	0xbd9856fc	-0.07438466
201	0x3b3fe0f3	0.0029278367
202	0x3cfe647c	0.031053774
203	0xbc3948d1	-0.011308865
204	0xbdb4c8d6	-0.08827369
205	0xbca4b80a	-0.020107288
206	0xbe11f9a6	-0.1425539
207	0xbe5599a3	-0.20859389
208	0x3d4e11d6	0.05030998
209	0xbd198151	-0.03747684
210	0x3deb46b4	0.11488095
211	0xbcd25c42	-0.025678758
212	0x3b6cfbba	0.0036160783
213	0xbda63bb7	-0.081168585
214	0x3c9bbe6b	0.019011697
215	0x3c2f13a4	0.010685835
216	0x3dbd864c	0.09254131
217	0xbb2d188e	-0.002641234
218	0x3d0a925d	0.03383099
219	0x3cc57ecd	0.024108315
220	0x3d8c60c5	0.06854395
221	0x3df07152	0.11740364
222	0xbd431a79	-0.04763267
223	0xbd8b4641	-0.06800509
224	0x3cc8aea2	0.024497334
225	0x3d4a78ba	0.04943154
226	0x3c065d54	0.008200962
227	0x3cbe110f	0.023201494
228	0xbc3c3bc0	-0.011488855
229	0xbdd26dbd	-0.10274837
230	0xbdd462d5	-0.10370413
231	0xbe3b0efc	-0.18267435
232	0x3b003d77	0.0019567886
233	0x3e086bd7	0.13322388
234	0xbdd04dfc	-0.10171124
235	0xbd86eba9	-0.06587917
236	0xbda2fd6b	-0.07958492
237	0xbd6cd901	-0.05782414
238	0xbcd8e456	-0.026476067
239	0xbcea302e	-0.028587427
240	0xbc42a6ae	-0.01188056
241	0x3da97aee	0.082754
242	0x3c82ab07	0.015950693
243	0x3ce4a315	0.027909795
244	0x3ccda7ac	0.025104366
245	0xba17fa03	-0.00057974475
246	0x3c90e7d8	0.017688677
247	0x3d91fcc4	0.07128289
248	0xbbdb2756	-0.006688039
249	0x3ce6184a	0.028087754
250	0x3d2a459f	0.041570302
251	0x3dc2f2cb	0.09518965
252	0x3d88e5a9	0.06684429
253	0x3d83732e	0.06418453
254	0x3d7e4614	0.06207855
255	0x3bb9f617	0.005675088

fc3.bias f4 [3]
0	0x3d092d7b	0.03349064
1	0xbb47a765	-0.0030464765
2	0xbb88caca	-0.004174565

fc1.weight f4 [100, 11]
0	0xbe7e678b	-0.24844186
1	0x3e63cb78	0.22245586
2	0x3ca1b510	0.019739658
3	0xbe4165b8	-0.18886459
4	0x3cc94e88	0.02457358
5	0x3df0be03	0.11754992
6	0x3c432449	0.0119105065
7	0x3da392f4	0.079870135
8	0x3d29d130	0.041459262
9	0x3db090ee	0.08621393
10	0x3cad263c	0.021136396
11	0xbc66b530	-0.014081284
12	0xbe52fb48	-0.20603669
13	0x3e6b7b91	0.22996356
14	0x3ce4fecc	0.027953528
15	0xbc9729db	-0.018452575
16	0xbe1cbf6b	-0.15307395
17	0xbe2a74fd	-0.1664619
18	0xbc971181	-0.018440964
19	0xbd114c6d	-0.035473276
20	0x3dcc0354	0.09961572
21	0x3df79742	0.12089397
22	0xbdba86a5	-0.09107713
23	0x3d689d38	0.05679056
24	0xbe2f9431	-0.17146374
25	0xbdab8e6f	-0.083767764
26	0x3dfff01a	0.124969676
27	0x3e15ffa4	0.146483
28	0xbe0033df	-0.12519787
29	0x3e6e7d6b	0.2329003
30	0xbdb6f3d0	-0.08933222
31	0xb9834bb9	-0.00025042685
32	0x3df47684	0.119366676
33	0x3e02b1a0	0.12763071
34	0xbea0d56f	-0.31412837
35	0x3e917a7d	0.28413764
36	0x3cb54898	0.022129342
37	0xbd5778fd	-0.052605618
38	0xbd112fc9	-0.035445962
39	0x3e3b878c	0.18313426
40	0x3e2a98db	0.16659872
41	0xbde8413a	-0.11340566
42	0x3d97d74f	0.07414114
43	0xbd1f97e4	-0.038963214
44	0xbe58c3ed	-0.2116849
45	0x3da2b162	0.07943989
46	0x3d1f3fef	0.03887933
47	0xbe7d9f78	-0.24767864
48	0xbe0c79cd	-0.13718338
49	0xbddcaa45	-0.10774664
50	0x3cbb82c2	0.022889499
51	0x3e10603d	0.14099212
52	0xbb5cbff0	-0.003368374
53	0x3d1f7fe8	0.03894034
54	0xbca672ee	-0.020318475
55	0xbe893163	-0.26795492
56	0x3e4e4d13	0.20146589
57	0xbc101259	-0.008793437
58	0xbe0b31ec	-0.13593262
59	0xbe1172b6	-0.14203915
60	0x3de9409b	0.11389276
61	0xbd38eaa0	-0.04514563
62	0x3dd90024	0.1059573
63	0x3dc8dc27	0.09807616
64	0xbc48fdd0	-0.012267545
65	0xbb473c6e	-0.003040101
66	0xbeadd01e	-0.33947843
67	0x3e175751	0.14779402
68	0x3da0eabd	0.07857273
69	0x3d1566a8	0.036474854
70	0xbe0db683	-0.13839154
71	0xbdb6dffd	-0.08929441
72	0x3dec8b48	0.11550003
73	0xbdb7b86c	-0.089707226
74	0x3dae6914	0.08516136
75	0x3da8b929	0.082384415
76	0xbd4dc1d7	-0.05023369
77	0x3e351996	0.17685542
78	0x3e29c47c	0.16578859
79	0xbd5eceae	-0.054396324
80	0xbe8297b7	-0.25506374
81	0xbddc3390	-0.10752022
82	0xbe144f33	-0.14483337
83	0xbdf9a92e	-0.121904716
84	0xbe40c70f	-0.18825935
85	0x3e92390d	0.2855915
86	0xbe44340d	-0.19160481
87	0x3deadc0c	0.11467752
88	0xbe8528ab	-0.2600759
89	0xbd4b9743	-0.0497048
90	0xbea741f8	-0.32667518
91	0x3e55d288	0.20881093
92	0x3e168a66	0.14701232
93	0xbe8adabe	-0.27120012
94	0x3dbbe533	0.09174576
95	0x3e89549c	0.26822364
96	0xbe71b0c6	-0.2360259
97	0xbd0c10a7	-0.03419557
98	0x3db664a7	0.08905917
99	0xbdcafd05	-0.09911541
100	0x3e8c19a1	0.27363303
101	0xbe306bfb	-0.17228691
102	0xbd0c64ed	-0.034275938
103	0x3e3306ca	0.17483059
104	0x3c990adb	0.018681934
105	0x3dfe1dd4	0.12408033
106	0x3e87ed56	0.2654826
107	0xbe60794b	-0.2192127
108	0xbcfd7d79	-0.03094362
109	0x3e0dab76	0.13834938
110	0xbd8c551e	-0.06852172
111	0xbe21abb7	-0.1578816
112	0x3d2f97c2	0.042869337
113	0x3e5ec87f	0.2175617
114	0x3dea6d4b	0.11446627
115	0x3e72ac5f	0.23698567
116	0x3c88e5c1	0.016711118
117	0xbdd5bf0d	-0.10436831
118	0xbdee03d6	-0.116218254
119	0x3e0f1fca	0.1397697
120	0x3d215936	0.03939172
121	0x3d8d2dff	0.06893539
122	0xbd0117fb	-0.03151701
123	0x3e9506d1	0.29106763
124	0x3e219867	0.15780793
125	0x3e94115d	0.28919497
126	0x3e87d088	0.26526284
127	0x3c0ad36d	0.008473259
128	0xbe0f0a65	-0.13968809
129	0x3e515829	0.20443787
130	0x3e3c48ed	0.18387194
131	0xbde2c0cd	-0.1107193
132	0x3dc8cecc	0.098050684
133	0x3d864c2c	0.065574974
134	0x3edbb245	0.42909446
135	0x3e0c04e5	0.13673742
136	0x3d07b8c4	0.03313519
137	0x3d910cc5	0.07082514
138	0x3dac53d7	0.08414429
139	0xbe088931	-0.13333584
140	0x3e34816e	0.17627499
141	0xbd96ede3	-0.07369592
142	0x3d889add	0.06670163
143	0x3e4972a8	0.19672644
144	0xbdcd277d	-0.100172974
145	0x3e1212dd	0.14265008
146	0x3e0b1141	0.135808
147	0x3d18eafc	0.037333474
148	0x3e58edfd	0.21184535
149	0x3dd1d97b	0.10246559
150	0x3d41689d	0.047218908
151	0x3e580136	0.21094212
152	0x3dc90eb8	0.098172605
153	0x3e5df6c9	0.21676172
154	0x3da25166	0.07925682
155	0xbe625c24	-0.22105461
156	0x3e9a5dd5	0.30149713
157	0x3e137b79	0.1440257
158	0x3c152ab9	0.009104424
159	0x3b61d436	0.0034458763
160	0xbdfb8e25	-0.12282971
161	0xbe24a3e0	-0.16078138
162	0xbde11a7c	-0.109913796
163	0xbd9d03cc	-0.0766674
164	0x3d832099	0.06402702
165	0x3da21179	0.07913489
166	0xbea76c18	-0.32699656
167	0x3ea3a9d3	0.31965503
168	0xbe4f24a3	-0.2022882
169	0xbe19e52f	-0.15028833
170	0xbdd8a987	-0.1057921
171	0x3e4289fa	0.18997946
172	0x3dec5be6	0.11540966
173	0xbdc0016e	-0.09375273
174	0xbdcc29fc	-0.099689454
175	0x3dbab3ac	0.09116301
176	0xbe3ae7c8	-0.1825248
177	0xbdd4d835	-0.10392801
178	0x3e8933d2	0.26797348
179	0xbe801b4e	-0.25020832
180	0xbe2b993c	-0.16757673
181	0xbe62a166	-0.22131881
182	0xbddab42c	-0.10678896
183	0xbdc095d8	-0.094035804
184	0xbe0b7555	-0.13618977
185	0x3e13a3d6	0.14417967
186	0x3d87b133	0.06625595
187	0x3e75ee8f	0.24016784
188	0x3cd43fba	0.025909293
189	0xbe1c921e	-0.15290114
190	0x3c83278e	0.016010072
191	0xbdade3b1	-0.08490694
192	0x3d2381da	0.039918758
193	0x3e0ec163	0.13940959
194	0xbe575546	-0.21028623
195	0x3b7c82a9	0.0038530028
196	0x3e313e18	0.17308843
197	0xbe10579b	-0.14095919
198	0xbdd28b99	-0.102805324
199	0xbe955bcd	-0.291716
200	0x3d7b778c	0.061393306
201	0x3d91ce3d	0.07119415
202	0x3e3625e9	0.17787899
203	0xbd761e57	-0.060087528
204	0xbe81d3d5	-0.25356928
205	0x3de67305	0.11252407
206	0x3dfc7dc1	0.12328673
207	0x3dd42c9e	0.103600726
208	0x3de1b171	0.110201724
209	0x3e14ffa4	0.14550644
210	0xbe8bf16d	-0.2733263
211	0x3d5a09ce	0.053232007
212	0x3e03da20	0.12876177
213	0x3e2a6c7f	0.1664295
214	0x3d726a50	0.05918342
215	0x3e0124dd	0.12611718
216	0xbe3857a2	-0.1800218
217	0x3d8b95d0	0.06815684
218	0x3e297851	0.16549803
219	0x3e0aed4c	0.13567084
220	0xbe1fe14b	-0.15613286
221	0xbe08be32	-0.13353804
222	0xbe13a65e	-0.14418933
223	0x3e4761d2	0.19470909
224	0xbd84b25b	-0.06479331
225	0x3e9fd07c	0.31213748
226	0x3da2feb8	0.0795874
227	0xbc841f47	-0.016128195
228	0x3bb7c306	0.0056079654
229	0xbdb5e4a2	-0.08881499
230	0xbe0bee87	-0.1366521
231	0x3e61718c	0.22015971
232	0xbe10afa0	-0.14129496
233	0x3e3406a9	0.17580666
234	0x3eb5f48b	0.35538134
235	0x3db16fba	0.08663888
236	0xbc931c4d	-0.01795783
237	0x3bed5a76	0.00724345
238	0xbd0d028d	-0.03442626
239	0x3d0ba42e	0.03409212
240	0xbdfddb3b	-0.123953305
241	0x3b9c23ef	0.004765026
242	0xbddc487f	-0.10756015
243	0x3dd54c09	0.10414893
244	0xbe4dcbcf	-0.20097278
245	0xbd8b887e	-0.06813143
246	0x3bc4cd87	0.006005946
247	0x3d22593f	0.039635893
248	0xbdada481	-0.08478642
249	0x3d9f2afc	0.077718705
250	0xbcc65bcf	-0.0242137
251	0xbb7def56	-0.0038747392
252	0xbdd2a2d9	-0.10284967
253	0x3e892008	0.2678225
254	0xbea58e01	-0.32334903
255	0x3d1c7fda	0.038207866

fc1.bias f4 [100]
0	0x3f20e742	0.6285287
1	0xbf0628b8	-0.5240588
2	0x3f0429ee	0.5162648
3	0xbecc8d6d	-0.3995165
4	0xbe3ad143	-0.1824389
5	0x3f17bdab	0.59273785
6	0xbedd14ae	-0.4317984
7	0xbe89211d	-0.26783076
8	0xbee822ae	-0.45338959
9	0xbeff786c	-0.49896562
10	0x3e959c83	0.2922097
11	0x3d995068	0.074860394
12	0x3e05d7c8	0.13070595
13	0xbeff2343	-0.4983159
14	0x3ec1d11f	0.3785486
15	0xbe6d0cb5	-0.23149379
16	0xbedbb469	-0.4291108
17	0xbeeaf8f2	-0.45893055
18	0xbf178e23	-0.5920126
19	0xbf04fbc6	-0.51946676
20	0x3ecef990	0.40424776
21	0xbeae4e81	-0.3404427
22	0x3efcb02a	0.49353153
23	0xbed3bacb	-0.4135345
24	0x3f091479	0.53546864
25	0x3e84814a	0.2587989
26	0xbebd451a	-0.36966783
27	0xbda03a7f	-0.07823657
28	0x3e89d65e	0.26921362
29	0x3ede710d	0.43445626
30	0xbed70a03	-0.41999826
31	0xbeca5632	-0.39518887
32	0x3e5e72fa	0.21723548
33	0xbe84d5ed	-0.25944462
34	0xbed8d5ce	-0.4235062
35	0x3ef3fe65	0.47655025
36	0xbed11033	-0.40832672
37	0x3eaea254	0.34108222
38	0x3e9e9e45	0.30980125
39	0x3e77c088	0.24194539
40	0x3e7400ce	0.23828432
41	0xbeb2dd90	-0.34934664
42	0x3ed82263	0.42213735
43	0xbeaca3c6	-0.337187
44	0x3cf01216	0.029305499
45	0xbea9afaf	-0.33141848
46	0xbf02f528	-0.5115533
47	0xbf028bd4	-0.5099461
48	0xbef7584f	-0.48309562
49	0x3edf275e	0.43584722
50	0x3f016a6b	0.50553006
51	0xbf10a092	-0.5649501
52	0x3e091c10	0.13389611
53	0x3c239615	0.009984513
54	0xbe7c411d	-0.24634214
55	0xbedd7c4a	-0.43258888
56	0x3e076730	0.13222957
57	0x3e181f55	0.14855702
58	0xbed3ae9c	-0.41344154
59	0xbee0a50e	-0.43875927
60	0x3e2cbb6a	0.16868368
61	0x3e279151	0.16364028
62	0xbebf8159	-0.37403372
63	0xbe8f96b3	-0.28044662
64	0xbdbb99f8	-0.091602266
65	0xbec9f99d	-0.39448252
66	0x3e2467ad	0.16055174
67	0xbf09aa9b	-0.5377595
68	0x3e86cf39	0.26329973
69	0x3edfb062	0.43689257
70	0x3e6a6b5d	0.22892518
71	0x3f16fe51	0.58981806
72	0xbdcfda8c	-0.101491064
73	0xbea1d370	-0.31606627
74	0xbe81fef6	-0.25389832
75	0xbeee1a8f	-0.46504638
76	0xbf036491	-0.5132533
77	0xbe6cd34e	-0.23127481
78	0x3e5a2a9a	0.21305314
79	0xbe83352e	-0.2562651
80	0xbeedfb56	-0.46480817
81	0xbe9d17cc	-0.30682218
82	0xbecdab15	-0.40169588
83	0x3e701638	0.23445976
84	0xbecb939c	-0.39761055
85	0xbe1e8c80	-0.15483284
86	0xbf026ff5	-0.5095208
87	0xbeeee77a	-0.46660978
88	0xbefe9e47	-0.4973013
89	0xbea0210f	-0.31275222
90	0x3e3ab87f	0.18234442
91	0x3ef2c9b5	0.47419515
92	0x3ee5a373	0.44851264
93	0xbe4a7938	-0.19772804
94	0xbeb13e23	-0.3461772
95	0x3eb2d759	0.34929922
96	0x3f0efde5	0.5585616
97	0xbeae3198	-0.34022212
98	0xbee4a37d	-0.44655982
99	0xbecf8637	-0.40532085

fc2.weight f4 [100, 100]
0	0x3d800503	0.06250956
1	0xbd3bdb86	-0.04586365
2	0xba745620	-0.0009320695
3	0x3c872e53	0.016501581
4	0xbdc90c43	-0.09816792
5	0x3c9f3f31	0.019439312
6	0xbd308a76	-0.043100797
7	0xbe095f4b	-0.13415258
8	0xbe16da0c	-0.14731616
9	0xbe08b4c4	-0.13350207
10	0x3e275cc2	0.16343978
11	0x3de6ec0d	0.11275492
12	0x3daf7eae	0.08569084
13	0x3bdd60c4	0.00675592
14	0x3da99677	0.08280652
15	0x3d17fa9a	0.037104227
16	0xbdf2969b	-0.11845132
17	0xbc81781f	-0.015804349
18	0x3b801b88	0.003909532
19	0x3d10b1fc	0.03532599
20	0x3ddbdac4	0.107350856
21	0x3d497b53	0.049189877
22	0x3cc44d7b	0.023962727
23	0x3d02649e	0.031834237
24	0xbd1b204a	-0.03787259
25	0x3d916c63	0.07100751
26	0x392a1627	0.00016220716
27	0xbbfc7ae9	-0.0077050817
28	0x3e10713f	0.141057
29	0x3d7365b1	0.059423152
30	0xbd05db6b	-0.032679956
31	0xbe473f58	-0.19457757
32	0x3e282113	0.16418867
33	0x3d0d3cb5	0.034481723
34	0xbe0bf713	-0.1366847
35	0x3c159571	0.009129868
36	0xbde418a8	-0.11137515
37	0x3c2790a8	0.01022736
38	0x3ddd8ef0	0.10818279
39	0x3d1a6545	0.037694234
40	0x3dcd8258	0.10034627
41	0xbd6d3688	-0.057913333
42	0x3e037c09	0.12840284
43	0x3cc46774	0.023975112
44	0xbce06f13	-0.027396714
45	0xbdee3fba	-0.116332486
46	0xbdf43d77	-0.11925786
47	0xbd3bc859	-0.045845363
48	0xbc82ab83	-0.015950924
49	0x3cdc84b9	0.026918756
50	0x3d6a9e58	0.057279915
51	0xbd0fea9d	-0.035135854
52	0x3e1b4f64	0.15167004
53	0x3db4bcaa	0.08825047
54	0xbd266d13	-0.040631365
55	0x3d066f27	0.032820847
56	0x3e2787ce	0.16360399
57	0xbd1e04d4	-0.038578823
58	0xbe0da1a9	-0.138312
59	0xbd0abc84	-0.03387119
60	0x3d359002	0.04432679
61	0x3e0f8dfd	0.14019008
62	0xbcccd567	-0.025004102
63	0xbd063cd8	-0.03277287
64	0xbd2c304e	-0.042038254
65	0xbe2a5148	-0.16632569
66	0x3e0cd911	0.1375468
67	0xbd38db2f	-0.045130905
68	0x3c5c0c66	0.01343069
69	0x3dbb786a	0.091538265
70	0x3e170ee5	0.14751776
71	0x3c9aaacd	0.018880272
72	0xbde3a44b	-0.11115321
73	0xbd93b8ae	-0.07212959
74	0xbd0e03ce	-0.034671597
75	0xbcf526b2	-0.029925678
76	0xbd253535	-0.040333945
77	0xbddba942	-0.10725643
78	0x3d8e8ffb	0.06961056
79	0xbe134495	-0.1438163
80	0xbda16b6f	-0.078818195
81	0xbe0199f6	-0.12656388
82	0xbd084b91	-0.03327519
83	0x3dfb077a	0.122572854
84	0xbd803b9b	-0.06261369
85	0xbd04a7cb	-0.032386582
86	0xbdb81503	-0.08988383
87	0xbd8fd730	-0.07023466
88	0xbdbbfe1f	-0.09179329
89	0xbc83f6b7	-0.016108854
90	0x3de899f4	0.11357489
91	0x3db4c6c9	0.08826978
92	0x3cfb2f09	0.030662077
93	0xbd12ad9a	-0.03581009
94	0xbe756387	-0.23963748
95	0x3daf138a	0.08548649
96	0x3b998401	0.0046849255
97	0xbd6a284a	-0.05716733
98	0xbd0aa578	-0.03384921
99	0xbd1e558b	-0.0386558
100	0x3c5374d5	0.012906273
101	0xbc97f0cd	-0.01854744
102	0x3b43b38a	0.0029861652
103	0x3c79bd07	0.015242822
104	0xbe23f816	-0.16012606
105	0xbc926e22	-0.017874781
106	0xbd035c6b	-0.03207056
107	0xbe8f25d9	-0.27958563
108	0xbd9e3b84	-0.077261955
109	0xbe0b7973	-0.13620548
110	0x3e6a0f3c	0.22857374
111	0x3e854d9e	0.2603578
112	0x3dba1cb8	0.09087509
113	0xbd22ba08	-0.039728194
114	0x3e1ed713	0.15511732
115	0xbcdc7c0a	-0.026914615
116	0xbe110e16	-0.1416553
117	0xbd81ead1	-0.06343616
118	0xbbb64d51	-0.005563416
119	0x3d0b0f8b	0.03395037
120	0x3e18a77b	0.14907639
121	0x3da2404c	0.0792242
122	0x3cc9f937	0.024654968
123	0x3cd89112	0.026436362
124	0xbc36259e	-0.011117367
125	0x3dea2b49	0.11434037
126	0x3d1c34e8	0.038136393
127	0x3ce7f368	0.028314307
128	0x3e73d272	0.23810747
129	0x3e629ef9	0.22130956
130	0x3c65e2ff	0.014031171
131	0xbe69aef1	-0.22820641
132	0x3e497c9a	0.19676438
133	0x3cc27136	0.023735624
134	0xbe8c723a	-0.27430898
135	0xbd828cab	-0.063744865
136	0xbd8efd23	-0.06981876
137	0x3df09d7d	0.117487885
138	0x3deaf0cc	0.114717096
139	0x3c8325ef	0.0160093
140	0x3dfe50ac	0.12417731
141	0xbe2cbad5	-0.16868146
142	0x3e720b21	0.23637058
143	0x3e00c172	0.12573794
144	0xbde2f2a8	-0.11081439
145	0xbdda7d95	-0.10668484
146	0xbe21327d	-0.15741916
147	0xbdb6ff45	-0.089354075
148	0x3cff5284	0.031167276
149	0x3df33d95	0.1187698
150	0x3d8a7776	0.067610666
151	0xbd14e038	-0.036346644
152	0x3e0aec6a	0.13566747
153	0x3d5b0d0b	0.053479236
154	0xbe196121	-0.14978458
155	0x3d164445	0.0366862
156	0x3e14d4ac	0.14534253
157	0xbda01986	-0.07817368
158	0xbea8d398	-0.32973933
159	0x3c3f23e0	0.011666268
160	0x3e494ecc	0.19658965
161	0x3e49af04	0.1969567
162	0x3d808ca4	0.06276825
163	0x3d616bff	0.055034634
164	0x3bc816e1	0.006106243
165	0xbde9c5b1	-0.1141466
166	0x3dfd3bf5	0.123649515
167	0x3d5778b0	0.05260533
168	0x3ce0dd9f	0.027449427
169	0x3ded985e	0.11601327
170	0x3ce232f9	0.027612196
171	0xbc5840e2	-0.013199063
172	0xbe3c8910	-0.1841166
173	0xbe1b8a47	-0.15189467
174	0xbdacfa9c	-0.084462374
175	0xbb568738	-0.0032734405
176	0x3df63e51	0.12023605
177	0xbd75be3b	-0.05999587
178	0x3dbb9f9c	0.091613024
179	0xbe3c05b9	-0.18361558
180	0xbdecfec4	-0.1157203
181	0xbe854db7	-0.26035854
182	0xbdf4d71d	-0.11955092
183	0x3dfe5365	0.1241825
184	0xbdaa5b4e	-0.08318196
185	0xbcb29ab0	-0.021802276
186	0xbd831870	-0.064011455
187	0xbddf1721	-0.10893083
188	0xbe1d687a	-0.15371886
189	0x3d92b355	0.07163111
190	0x3e500d03	0.20317464
191	0xbcd345e2	-0.025790159
192	0x3e018334	0.12647706
193	0xbd0cc161	-0.034364108
194	0xbebd9c40	-0.37033272
195	0x3d84f7fc	0.06492612
196	0x3b7e9bf7	0.0038850287
197	0xbdaf5d56	-0.08562724
198	0xbd62eecd	-0.05540352
199	0xbbdcd93d	-0.006739764
200	0x3e568475	0.20948966
201	0xbe2b30fc	-0.16717905
202	0x3e1395f1	0.14412667
203	0xbe5afdfc	-0.2138595
204	0xbca96aab	-0.020680746
205	0x3e505061	0.20343162
206	0xbdbd5424	-0.09244564
207	0xbd92af2a	-0.07162316
208	0xbdc4e6f2	-0.09614362
209	0xbd97c68c	-0.07410917
210	0x3ca0f8aa	0.019649822
211	0xbce889eb	-0.028386077
212	0x3c8488d4	0.016178526
213	0xbe20b7b4	-0.15695077
214	0x3d92c769	0.07166941
215	0xbe00b7da	-0.12570134
216	0xbdcd8998	-0.100360096
217	0xbe0a4223	-0.13501792
218	0xbe59c9e7	-0.21268426
219	0xbe1cc24e	-0.15308496
220	0x3df5d1b3	0.120028876
221	0xbdf38d83	-0.118922256
222	0x3e6530ee	0.22381946
223	0xbe08d7cf	-0.13363574
224	0x3dfddd7e	0.12395762
225	0x3d159ea2	0.036528237
226	0xbde9f0b2	-0.11422862
227	0x3d868199	0.065676875
228	0x3d5b1e1e	0.05349552
229	0x3e20ee3c	0.15715879
230	0xbe425a5d	-0.18979783
231	0xbd27707c	-0.040878758
232	0x3d88e111	0.06683553
233	0x3c9d5266	0.01920433
234	0xbd74e9b0	-0.059793174
235	0x3e0dbe54	0.13842136
236	0xbdbfd308	-0.09366423
237	0x3da62bea	0.08113845
238	0x3d9e9ce0	0.07744765
239	0xbc844b83	-0.016149288
240	0x3ceae95e	0.028675731
241	0xbdc05a97	-0.09392279
242	0x3d6cd1ca	0.057817258
243	0xbe064719	-0.13113059
244	0x3da604ad	0.081063606
245	0xbd358091	-0.044312064
246	0xbdd92ffb	-0.10604855
247	0xbde00a0b	-0.109394155
248	0xbe130103	-0.14355855
249	0x3e0dc105	0.13843162
250	0x3e2ec0e3	0.17065768
251	0xbe456137	-0.19275366
252	0xbca74545	-0.020418772
253	0xbd25f2eb	-0.040514868
254	0xbd559519	-0.052144144
255	0xbe4a779c	-0.1977219

fc2.bias f4 [100]
0	0x3e20b3f9	0.15693654
1	0x3d840292	0.06445803
2	0x3e567511	0.20943095
3	0x3e73d070	0.23809981
4	0x3e6ebe82	0.2331486
5	0x3d882ffc	0.06649777
6	0x3e9081a2	0.28223902
7	0xbdf02449	-0.11725671
8	0xbd874b27	-0.06606131
9	0xbe74ab09	-0.2389337
10	0x3d0237c3	0.03179146
11	0x3de2a69e	0.11066936
12	0x3e144e47	0.14482985
13	0xbc4f85f3	-0.012666213
14	0x3e0b4782	0.13601497
15	0xbe6d957e	-0.23201558
16	0x3e6548a5	0.22390993
17	0xbdff8cea	-0.12478049
18	0x3bb56909	0.005536203
19	0x3e4e196b	0.20126884
20	0x3e1ad9d8	0.15122163
21	0xbe1ddfeb	-0.15417449
22	0x3e8485aa	0.25883228
23	0xbe6d007d	-0.23144718
24	0xbe85872d	-0.26079693
25	0xbe810a32	-0.2520309
26	0xbd39da52	-0.045374222
27	0x3e4b7e73	0.19872455
28	0x3d617924	0.05504717
29	0xbe875659	-0.26433066
30	0x3e1fc6db	0.15603201
31	0xbe3973a9	-0.18110527
32	0x3e2aba24	0.1667257
33	0x3e688ba0	0.22709513
34	0xbba65b2c	-0.0050767865
35	0x3d8c69e8	0.068561375
36	0xbe8aa263	-0.27077016
37	0x3e4ef6d2	0.20211342
38	0xbe521f81	-0.2051983
39	0x3e6695cd	0.22518082
40	0xbe4d2474	-0.20033437
41	0x3c45aa45	0.012064521
42	0xbe857138	-0.26062942
43	0xbddd54c4	-0.108071834
44	0x3e18d109	0.1492349
45	0x3dee8a69	0.116474934
46	0x3e50ab51	0.20377852
47	0xbe358a27	-0.17728482
48	0x3e8bd4f8	0.2731092
49	0x3e5a967c	0.21346468
50	0x3e495079	0.19659604
51	0xbdb23035	-0.08700601
52	0xbdd03189	-0.10165698
53	0xbe66d942	-0.22543815
54	0x3e7d3359	0.24726619
55	0x3e87c35f	0.26516244
56	0x3e89cf79	0.26916102
57	0xbe914b95	-0.28377977
58	0x3e7b0ab4	0.24515802
59	0xbd39a376	-0.045321904
60	0x3e5fc7db	0.21853583
61	0xbd77c36a	-0.060489096
62	0x3e713f2e	0.23559257
63	0x3e43db5c	0.19126648
64	0x3e527a16	0.20554385
65	0xbe895278	-0.2682073
66	0xbe1f5c80	-0.1556263
67	0x3d31992f	0.043358978
68	0xbe87066a	-0.2637208
69	0xbe177724	-0.14791542
70	0x3e54e725	0.207913
71	0xbe06698f	-0.13126205
72	0x3e6bfc67	0.23045503
73	0xbe3c3c2d	-0.1838233
74	0x3c56a74b	0.013101409
75	0x3e831299	0.25600126
76	0xbe9521fe	-0.29127496
77	0xbe4a7989	-0.19772924
78	0x3e11bc77	0.1423205
79	0xbdef2ede	-0.11678861
80	0x3e16bc82	0.14720348
81	0xbe1acded	-0.15117617
82	0xbd9042bb	-0.07043978
83	0x3c86908a	0.016426343
84	0xbe81ea0b	-0.25373873
85	0x3e43d2d6	0.19123396
86	0xbe4ae625	-0.19814356
87	0x3dc501e9	0.09619505
88	0x3e730330	0.23731685
89	0xbe2ee074	-0.1707781
90	0xbe0a6d5c	-0.1351828
91	0xbe1c1567	-0.1524254
92	0xbe6534d9	-0.22383441
93	0x3e5e265f	0.21694325
94	0xbe11627d	-0.14197727
95	0x3e2ab3ea	0.16670194
96	0xbe73d295	-0.238108
97	0xbe826146	-0.2546484
98	0x3e5a11a8	0.21295798
99	0xbe5d9d3d	-0.21642013

fc3.weight f4 [1, 100]
0	0x3f1132e3	0.5671827
1	0x3f17623f	0.59134287
2	0x3f121385	0.57061034
3	0x3f159132	0.58424675
4	0x3f1551d5	0.5832799
5	0x3f133aa6	0.57511365
6	0x3f150219	0.58206326
7	0xbf141724	-0.5784781
8	0x3f48d9de	0.7845744
9	0xbf13d5cb	-0.577481
10	0x3f0fbd64	0.5614836
11	0x3f14ac22	0.58075154
12	0x3f138af2	0.5763389
13	0xbf105235	-0.5637544
14	0x3f14d630	0.58139324
15	0xbf1245f8	-0.57138014
16	0x3f1487d2	0.58019745
17	0xbf13e989	-0.5777822
18	0xbf26fa95	-0.6522611
19	0x3f10c7c1	0.565548
20	0x3f156d70	0.58370113
21	0xbf11ea30	-0.56997967
22	0x3f1463e3	0.57964915
23	0xbf11f9f4	-0.57022023
24	0xbf116f7a	-0.56810725
25	0xbf107d7f	-0.5644149
26	0x3f12ebb7	0.5739092
27	0x3f1469a5	0.579737
28	0x3f172f21	0.5905629
29	0xbf17346b	-0.5906436
30	0x3f105aff	0.5638885
31	0xbf11a7e0	-0.5689678
32	0x3f136924	0.57582307
33	0x3f11557c	0.56771064
34	0xbf153341	-0.5828133
35	0x3f144aee	0.57926834
36	0xbf16f637	-0.58969444
37	0x3f16f30e	0.5896462
38	0xbf153af4	-0.5829308
39	0x3f139cbd	0.5766104
40	0xbf11441c	-0.5674455
41	0xbf13530a	-0.5754858
42	0xbf14e738	-0.5816531
43	0xbf14e60d	-0.5816353
44	0x3f14fde6	0.5819992
45	0x3f1670b0	0.587657
46	0x3f10e471	0.56598574
47	0xbf12e2c2	-0.57377255
48	0x3f130ab4	0.57438207
49	0x3f146ecc	0.5798156
50	0x3f171275	0.5901254
51	0xbf139b62	-0.5765897
52	0xbf135cee	-0.57563674
53	0xbf1746ff	-0.59092706
54	0x3f1332e4	0.5749953
55	0x3f18f438	0.5974765
56	0x3f1423f4	0.5786736
57	0xbf12d3f9	-0.57354695
58	0x3f13d10c	0.57740855
59	0xbf157ed3	-0.58396643
60	0x3f134d5e	0.5753993
61	0xbf13a463	-0.5767271
62	0x3f11330f	0.56718534
63	0x3f12a1b2	0.5727798
64	0x3f134fb0	0.5754347
65	0xbf1429ad	-0.5787609
66	0xbf1242af	-0.57133
67	0x3f16f48c	0.589669
68	0xbf103995	-0.56337863
69	0xbf0ed715	-0.5579694
70	0x3f18a7b3	0.5963089
71	0xbf116754	-0.5679829
72	0x3f1293a8	0.57256556
73	0xbf14034b	-0.57817525
74	0xbf21b833	-0.6317169
75	0x3f1886da	0.5958077
76	0xbf196d80	-0.5993271
77	0xbf15e3fe	-0.58551013
78	0x3f146970	0.57973385
79	0xbf14d27b	-0.5813367
80	0xbf2d9bca	-0.6781584
81	0xbf0c68fd	-0.548477
82	0xbf125089	-0.57154137
83	0xbf15e2ba	-0.5854908
84	0xbf11f706	-0.5701755
85	0x3f13378e	0.57506645
86	0xbf1015b8	-0.5628314
87	0xbf1d1300	-0.61357117
88	0x3f1282c8	0.57230806
89	0xbf14f7f3	-0.5819084
90	0xbf10490a	-0.5636145
91	0xbf0edeae	-0.5580853
92	0xbf18452e	-0.5948056
93	0x3f15e38e	0.58550346
94	0xbf13b6d3	-0.5770084
95	0x3f14a33b	0.5806157
96	0xbf13b78a	-0.57701933
97	0xbf1677c8	-0.5877652
98	0x3f0d9e72	0.55319893
99	0xbf1533e4	-0.58282304
