mujoco/gail/save_model/ckpt_2503.pth.tar (torch, 144879 bytes, 16 tensors)

fc1.weight f4 [100, 11]
0.050078183 -0.36919296 0.41996974 -0.4170782 0.03345809 0.12608624 -0.04302503 0.21303552
0.5089321 -0.041212425 0.011844239 0.30439582 -0.11806217 0.06399155 -0.58497643 -0.15880156
0.28735766 -0.016329192 0.13108262 -0.018397443 0.33117497 0.32833487 0.4686911 -0.29631326
-0.3013324 0.008067065 0.062642045 0.12280352 -0.059210718 0.52105737 0.2428837 0.062256813
0.28782424 0.53645307 -0.4025249 0.090715244 0.3207343 0.08454459 -0.05504074 -0.19533846
-0.14278683 -0.0047497163 0.13776685 -0.37457672 0.018426357 0.13829468 0.3160527 -0.3168998
-0.07370932 0.09202364 -0.17610885 0.31413513 0.63642895 0.054615323 -0.026485894 0.6464104
-0.2443486 0.3360942 -0.02526541 0.20190062 0.07146948 0.20314084 -0.39662662 -0.08357809
-0.08465429 0.102047965 0.31796154 -0.51143324 0.21871881 -0.0942186 -0.2144703 -0.30289683
0.0023582052 -0.052278984 0.22241294 -0.2772798 -0.03043638 0.17553614 0.3897429 -0.55701727
-0.03649992 0.41817376 0.07375775 0.039540738 0.02908904 -0.26043808 0.3342634 0.30638358
-0.018452795 0.20254132 -0.4951739 -0.59083563 0.21053857 0.3170921 0.17277968 -0.03601703
0.32693806 -0.124139965 0.13998583 0.0010817132 0.22588739 0.260818 -0.12104719 0.14257418
-0.059095126 0.23864329 0.44335064 0.22388376 0.30882776 -0.15976663 -0.44574976 -0.11676892
-0.21465327 -0.15781155 0.058618885 0.40269873 -0.26362786 0.39323297 -0.015542956 0.55503535
-0.18837813 -0.04633087 -0.10761126 -0.04151698 0.065532446 0.64923894 0.42186457 0.028906211
-0.17011341 -0.30245268 -0.15362726 0.12072226 0.03940953 0.13175996 0.26640716 0.034308184
0.25889227 -0.13915439 0.08896265 -0.09031366 0.31417197 -0.15463115 0.3807048 0.07807139
0.105219215 -0.13150717 0.22716826 -0.17538 -0.10985015 0.19136322 0.38973045 1.0504994
-0.1866771 0.06348743 -0.11885733 -0.19821852 0.6887274 0.25516894 0.11579273 -0.09275157
0.49165052 0.24804637 -0.005167253 0.0031413054 0.21213694 -0.11257339 -0.07271848 0.65485877
0.17735216 0.36292896 -0.0024541828 -0.05859806 -0.04944758 0.121641956 0.27116272 -0.041679855
0.3110672 -0.3484988 0.33700517 0.14578094 0.25568065 0.379961 -0.32173502 0.43783563
0.2815411 0.3428902 0.48507777 0.069831185 -0.28945586 -0.2966227 -0.091169454 0.062101606
-0.38292292 0.0699552 -0.041294277 -0.1102504 -0.24163952 -0.1560307 0.18857756 0.1501441
0.4577367 -0.12129346 -0.2167111 0.22239691 0.024305975 0.09689098 -0.17456837 -0.404756
0.45872265 0.031386998 0.491754 -0.5835929 0.13047865 0.4127675 -0.24629232 -0.18921669
-0.15465228 -0.19804464 0.28957888 -0.12344293 -0.20592648 -0.3952454 -0.078618295 0.25483254
-0.032929987 -0.086925864 -0.029681923 -0.20175974 0.07066259 -0.22015768 -0.3446784 0.19312234
0.18283273 0.64265907 0.31572226 0.4602867 -0.315637 0.04112067 0.06628576 -0.1081966
0.16209431 -0.088840984 0.051044613 -0.43680704 -0.02914072 0.23056665 0.49772766 0.1768291
-0.18330738 -0.2978579 -0.1558581 0.15822536 -0.4525571 0.31969896 0.27668446 -0.0727843
00000000: c81e 4d3d dc06 bdbe 4606 d73e 468b d5be
00000010: 5a0b 093d c01c 013e 043b 30bd fc25 5a3e
00000020: 6049 023f 5cce 28bd 570e 423c c5d9 9b3e
00000030: 94ca f1bd 000e 833d 04c1 15bf e09c 22be
00000040: 8b20 933e ccc4 85bc 863a 063e 3cb6 96bc
00000050: c48f a93e 821b a83e 48f8 ef3e 5fb6 97be
00000060: 3e48 9abe b92b 043c 794a 803d 6980 fb3d
00000070: f086 72bd 0464 053f 81b6 783e 0001 7f3d
00000080: b35d 933e fd54 093f be17 cebe eac8 b93d
00000090: 4937 a43e b725 ad3d 6672 61bd ce06 48be
000000a0: b636 12be 82a3 9bbb c112 0d3e 85c8 bfbe
000000b0: dff2 963c 1f9d 0d3e a9d1 a13e b140 a2be
000000c0: e9f4 96bd e476 bc3d e155 34be 52d6 a03e
000000d0: 02ed 223f 51b4 5f3d f2f8 d8bc 277b 253f
000000e0: 8536 7abe 8a14 ac3e 68f9 cebc 09bf 4e3e
000000f0: 975e 923d 2704 503e a512 cbbe fd2a abbd
00000100: 3a5f adbd 86fe d03d dbcb a23e 4aed 02bf
00000110: d3f7 5f3e aef5 c0bd 1a9e 5bbe 4b15 9bbe
00000120: 1e8c 1a3b 7d22 56bd 38c0 633e 9ef7 8dbe
00000130: b755 f9bc bfbf 333e 628c c73e af98 0ebf
00000140: f180 15bd df1a d63e 4e0e 973d 78f5 213d
00000150: 234c ee3c 2458 85be 9324 ab3e 4fde 9c3e
00000160: 512a 97bc fe66 4f3e 6f87 fdbe 0141 17bf
00000170: 6c97 573e e559 a23e 28ed 303e 9886 13bd
00000180: 6d64 a73e 183d febd 7258 0f3e 46c8 8d3a
00000190: 064f 673e f089 853e 97e7 f7bd f7fe 113e
000001a0: bb0d 72bd e85e 743e dbfe e23e c941 653e
000001b0: ac1e 9e3e dd99 23be 5039 e4be 8b24 efbd
000001c0: 11ce 5bbe 5a99 21be 5b1a 703d 872e ce3e
000001d0: 3bfa 86be d555 c93e e2a7 7ebc cc16 0e3f
000001e0: 32e6 40be 70c5 3dbd 4b63 dcbd b50d 2abd
000001f0: e035 863d 8634 263f a2fe d73e b8cc ec3c
00000200: 3632 2ebe 14db 9abe 7750 1dbe 3b3d f73d
00000210: e36b 213d 15ec 063e 8566 883e bd86 0c3d
00000220: 878d 843e 7d7e 0ebe 0d32 b63d 5ef6 b8bd
00000230: 26db a03e a157 1ebe bdeb c23e e5e3 9f3d
00000240: 2c7d d73d d1a9 06be cc9e 683e d196 33be
00000250: 1ef9 e0bd b8f4 433e c08a c73e c476 863f
00000260: 4828 3fbe b305 823d 796b f3bd ccf9 4abe
00000270: 7050 303f 81a5 823e bd24 ed3d 89f4 bdbd
00000280: 9eb9 fb3e deff 7d3e 0f52 a9bb 5cde 4d3b
00000290: 6d3a 593e e18c e6bd 6ded 94bd d3a4 273f
000002a0: ce9b 353e d3d1 b93e 5bd6 20bb 8504 70bd
000002b0: 8c89 4abd 6b1f f93d d7d5 8a3e 7fb8 2abd
000002c0: 3344 9f3e 6f6e b2be f18b ac3e 9947 153e
000002d0: 93e8 823e 408a c23e 74ba a4be fe2b e03e
000002e0: 2826 903e 4e8f af3e 1d5c f83e a703 8f3d
000002f0: 8f33 94be eede 97be 0db7 babd 415e 7e3d
00000300: 790e c4be ac44 8f3d 3024 29bd f6ca e1bd
00000310: 5a70 77be 83c6 1fbe 7a1a 413e 60bf 193e
00000320: 775c ea3e b568 f8bd 84e9 5dbe 04bc 633e
00000330: 531d c73c c76e c63d 0dc2 32be 2e3c cfbe
00000340: b2dd ea3e a78f 003d 2ec7 fb3e 5866 15bf
00000350: 329c 053e 4356 d33e 0e34 7cbe 05c2 41be
00000360: 2b5d 1ebe 37cc 4abe af43 943e a6cf fcbd
00000370: 64de 52be 9b5d cabe a102 a1bd 6979 823e
00000380: 98e1 06bd 3006 b2bd 8127 f3bc 1b9a 4ebe
00000390: 8cb7 903d 0471 61be b079 b0be ddc1 453e
000003a0: 8138 3b3e 4e85 243f 59a6 a13e b3aa eb3e
000003b0: 2c9b a1be 266e 283d d4c0 873d 2e96 ddbd
000003c0: 0dfc 253e 43f2 b5bd 2814 513d 2ca5 dfbe
000003d0: 85b8 eebc aa19 6c3e 29d6 fe3e b012 353e
000003e0: eeb4 3bbe d580 98be 4499 1fbe d405 223e
000003f0: 90b5 e7be 95af a33e 96a9 8d3e ef0f 95bd

fc1.bias f4 [100]
-0.10395201 -0.29516727 0.058158524 0.23614891 0.030937137 0.11731137 -0.26421338 -0.0005057307
-0.11811852 -0.3271468 -0.017968152 0.1481106 -0.1672641 0.16018009 0.095437855 -0.3729095
0.29062632 0.3298442 -0.24661233 0.15372568 -0.10372546 -0.20162117 0.096943595 -0.24457285
0.065515354 0.26774088 -0.31487128 -0.08673789 0.34485814 0.18107036 -0.119836345 0.044791333
0.32664928 0.04183022 -0.44923422 0.41826975 0.13764663 0.17165628 -0.15254764 0.065255284
-0.047853217 0.4438719 -0.06244439 -0.38941553 0.17222191 0.1380186 -0.17876014 -0.31589264
0.2809006 0.35159796 0.08684464 0.25343433 -0.22803853 -0.26332235 0.30033818 0.45886657
0.035064846 0.31573635 0.33019823 0.29724127 -0.16773361 0.21777683 0.30454373 0.1315756
-0.16173713 -0.36005342 -0.12629497 -0.35450044 -0.18029228 -0.056114234 0.39921772 0.030216673
0.057919912 -0.20457573 -0.08024815 -0.23292984 0.36728474 0.2568037 0.38453037 0.22780621
-0.43588883 -0.22374211 0.47008714 0.23147361 0.38790733 -0.48125607 -0.2452506 0.3833367
0.27551743 -0.07420904 0.22453307 0.13010731 0.043382607 0.45959258 -0.22218516 0.32681802
0.2478872 0.16713339 0.29264268 0.3172264
00000000: cbe4 d4bd 2a20 97be a237 6e3d 05d1 713e
00000010: e16f fd3c f240 f03d fa46 87be 0393 04ba
00000020: 1fe8 f1bd c97f a7be f231 93bc 4eaa 173e
00000030: 4847 2bbe 4006 243e ec74 c33d feed bebe
00000040: f9cc 943e 57e1 a83e f187 7cbe 446a 1d3e
00000050: 046e d4bd c875 4ebe 5d8a c63d 4e71 7abe
00000060: ea2c 863d 5515 893e cf36 a1be a3a3 b1bd
00000070: 3f91 b03e 826a 393e c26c f5bd 1e77 373d
00000080: 933e a73e 2a56 2b3d 0702 e6be 7427 d63e
00000090: 3df3 0c3e aac6 2f3e 7335 1cbe 90a4 853d
000000a0: bc01 44bd 2d43 e33e b0c5 7fbd 7961 c7be
000000b0: f15a 303e bf54 0d3e e60c 37be aebc a1be
000000c0: 34d2 8f3e a604 b43e 9adb b13d 25c2 813e
000000d0: ef82 69be 30d2 86be edc5 993e 8ff0 ea3e
000000e0: 28a0 0f3d 32a8 a13e be0f a93e 0230 983e
000000f0: 5cc2 2bbe e400 5f3e 28ed 9b3e c1bb 063e
00000100: 6b9e 25be ec58 b8be 7853 01be 1581 b5be
00000110: 8a9e 38be 0ad8 65bd 4466 cc3e f588 f73c
00000120: 6e3d 6d3d 4d7c 51be 2459 a4bd 2985 6ebe
00000130: bf0c bc3e c67b 833e 2ae1 c43e 0846 693e
00000140: d22c dfbe a71c 65be 43af f03e 6b07 6d3e
00000150: ca9b c63e 3267 f6be f922 7bbe b544 c43e
00000160: 9f10 8d3e e9fa 97bd ffeb 653e da3a 053e
00000170: f6b1 313d b84f eb3e 8284 63be b154 a73e
00000180: 24d6 7d3e 0425 2b3e 43d5 953e 806b a23e

fc2.weight f4 [100, 100]
-0.048554685 -0.045275033 0.15756753 -0.093213424 -0.006574613 -0.18899696 -0.03165207 0.11886672
0.14589763 -0.061143406 -0.003686595 -0.08403467 -0.09287195 0.29876575 -0.061846673 -0.11435967
0.022302084 0.04839567 -0.05325196 0.1406553 0.0046188184 -0.05471445 -0.17751987 0.023453768
-0.27527684 -0.087123014 -0.27375624 -0.091769315 -0.23906466 0.26416665 -0.21387976 -0.07715147
0.16307369 -0.12981781 0.021527946 0.23707548 -0.0663959 0.2857565 -0.1317447 -0.16549033
-0.09206155 -0.0899728 0.13498415 0.20121922 -0.053626325 0.030660069 -0.09520072 0.038841397
-0.10589225 -0.29734182 -0.13507819 0.031600676 0.2157674 0.031977538 -0.109091684 0.012388803
0.13683316 0.22020051 -0.0690134 0.09605889 0.24035595 0.012980301 0.066245206 0.026728455
-0.0632782 -0.19554964 0.18575001 0.028835202 -0.055629067 0.074920446 0.036492735 -0.17280127
0.23340164 0.033440787 -0.24084404 -0.35115993 -0.28137517 0.21532877 -0.16067694 0.10114679
0.0789783 -0.101730734 -0.012219629 -0.13252084 -0.07205115 -0.14588131 0.21045455 -0.15515889
-0.37731308 0.10355752 0.05587835 -0.02955521 -0.080288336 0.07425836 0.06657255 -0.092690356
0.2577487 -0.15237424 0.2778993 -0.14916682 -0.19238563 -0.23731287 0.098088935 -0.15697092
-0.19347791 -0.2677764 0.13555285 0.111477755 0.00645842 0.11998004 0.12567502 -0.011080808
-0.052411966 0.11308925 -0.027653726 0.108538784 -0.050877318 0.22358958 -0.20721819 -0.024855202
0.24875495 0.00091871386 0.1243891 -0.19784969 -0.43141642 0.06877607 -0.07944033 0.034889214
-0.26321507 0.22979057 -0.17439711 -0.16307355 -0.08025239 0.09207422 -0.060357217 -0.16923293
-0.024443302 0.39709404 -0.15180124 0.034946457 0.08731319 -0.34208566 -0.080800556 0.54253465
-0.11418839 -0.28369185 0.09267319 0.020683536 0.14291115 -0.2788123 -0.059047684 -0.1313683
0.07384518 0.011853206 -0.018319052 0.018855065 0.053806238 -0.059590187 0.011614904 0.16708317
0.030437188 -0.06322961 -0.10065652 0.14774388 -0.13248026 -0.119718544 0.18643975 0.30697042
0.11254339 0.27340475 0.11159859 -0.24623272 0.25715095 0.22745763 -0.13803841 -0.43626967
-0.3086307 0.0076999688 -0.10604222 0.21457404 0.11399885 -0.04853039 -0.1316879 -0.21096283
-0.05066899 0.15595427 0.26167032 0.09361361 -0.12071827 0.11733995 0.2669823 0.11529829
-0.14057888 0.17069231 0.23751754 -0.052902594 0.20032084 -0.08946371 0.1402715 -0.112507835
0.26248652 0.010955208 0.45773768 0.02026984 0.15455917 -0.03991908 0.11423811 -0.009894642
0.26826152 0.07252729 -0.093199365 0.16845809 0.1241195 0.26861334 0.22216684 -0.21719228
0.30485287 0.13881676 0.028831052 -0.10124864 0.013525935 -0.198323 0.000863129 0.0014521301
0.0794589 -0.07885949 -0.15599875 -0.042676207 -0.078513205 0.1883604 -0.3228384 0.069371745
0.4162512 -0.23414242 -0.05180516 0.52300054 -0.18915425 0.06349547 -0.3920778 -0.14326973
-0.2768532 0.064490154 -0.11372637 0.074931234 -0.036061432 0.10142585 -0.077680424 -0.18895741
0.06356545 -0.19258563 -0.09601911 0.050501928 0.30077547 -0.29990053 0.057366293 0.21598382
00000000: 47e1 46bd 5072 39bd 6259 213e aee6 bebd
00000010: da6f d7bb 6b88 41be 9aa5 01bd 6570 f33d
00000020: 3066 153e 8271 7abd cd9a 71bb 5e1a acbd
00000030: a633 bebd d3f7 983e f052 7dbd 6735 eabd
00000040: dcb2 b63c 8a3a 463d ba1e 5abd f107 103e
00000050: 7559 973b 421c 60bd c5c7 35be 1e22 c03c
00000060: 16f1 8cbe 8d6d b2bd c729 8cbe 8df1 bbbd
00000070: 5ecd 74be da40 873e 4c03 5bbe 9701 9ebd
00000080: cafc 263e f6ee 04be 605b b03c eac3 723e
00000090: 93fa 87bd ad4e 923e 15e8 06be 4c76 29be
000000a0: c48a bcbd a943 b8bd 4939 0a3e 690c 4e3e
000000b0: 47a7 5bbd d32a fb3c 98f8 c2bd 2818 1f3d
000000c0: 09de d8bd 303d 98be f051 0abe b66f 013d
000000d0: 21f2 5c3e e1fa 023d 766b dfbd 68fa 4a3c
000000e0: fe1d 0c3e 3e7c 613e e656 8dbd 86ba c43d
000000f0: df1f 763e 54ab 543c 91ab 873d a2f5 da3c
00000100: 0098 81bd 2a3e 48be 4035 3e3e cd37 ec3c
00000110: 4edb 63bd e46f 993d 6879 153d d1f2 30be
00000120: d700 6f3e 35f9 083d d29f 76be 3ccb b3be
00000130: 6810 90be 257f 5c3e 7f88 24be 0c26 cf3d
00000140: 60bf a13d 3458 d0bd d734 48bc 8bb3 07be
00000150: 8e8f 93bd e961 15be 6681 573e f9e1 1ebe
00000160: 2e2f c1be f715 d43d b2e0 643d c51d f2bc
00000170: 366e a4bd c414 983d 3057 883d 71d4 bdbd
00000180: a3f7 833e fe07 1cbe d148 8e3e 30bf 18be
00000190: bd00 45be 2502 73be dae2 c83d fcbc 20be
000001a0: 131f 46be fd19 89be 5ece 0a3e 734e e43d
000001b0: 27a1 d33b 18b8 f53d f4b0 003e 478c 35bc
000001c0: eead 56bd 569b e73d 118a e2bc 9549 de3d
000001d0: bc64 50bd abf4 643e 0131 54be 239d cbbc
000001e0: 9eb9 7e3e d8d5 703a b6bf fe3d 1c99 4abe
000001f0: 9de2 dcbe 78da 8c3d 9db1 a2bd fee7 0e3d
00000200: 20c4 86be 384e 6b3e 2895 32be c1fc 26be
00000210: 5d5b a4bd 6991 bc3d 2139 77bd 664b 2dbe
00000220: 523d c8bc e94f cb3e c971 1bbe 0424 0f3d
00000230: 42d1 b23d da25 afbe c37a a5bd 8de3 0a3f
00000240: 9adb e9bd 0f40 91be 71cb bd3d 8570 a93c
00000250: 4d57 123e 7cc0 8ebe fcdb 71bd 6985 06be
00000260: 243c 973d f333 423c d611 96bc f075 9a3c
00000270: ee63 5c3d d714 74bd 704c 3e3c da17 2b3e
00000280: 6957 f93c 877e 81bd 0125 cebd 2c4a 173e
00000290: e8a8 07be ff2e f5bd 10ea 3e3e 3a2b 9d3e
000002a0: 267d e63d b5fb 8b3e cd8d e43d 6e24 7cbe
000002b0: 4aa9 833e a7ea 683e f159 0dbe bd5e dfbe
000002c0: d804 9ebe 0550 fc3b aa2c d9bd 4cb9 5b3e
000002d0: 3b78 e93d cdc7 46bd 31d9 06be a406 58be
000002e0: 498a 4fbd 7ab2 1f3e a7f9 853e 7eb8 bf3d
000002f0: 243b f7bd ed4f f03d e7b1 883e 8321 ec3d
00000300: e9f3 0fbe f7c9 2e3e cc37 733e 64b0 58bd
00000310: e820 4d3e c038 b7bd 55a3 0f3e 826a e6bd
00000320: a264 863e 797d 333c 985c ea3e ef0c a63c
00000330: c244 1e3e 3082 23bd acf5 e93d 231d 22bc
00000340: 9359 893e 3089 943d 4fdf bebd 4780 2c3e
00000350: 5d32 fe3d b087 893e b47f 633e a767 5ebe
00000360: ad15 9c3e fb25 0e3e 192f ec3c 725b cfbd
00000370: e29b 5d3c 2f15 4bbe 9b43 623a 6755 be3a
00000380: 59bb a23d 1681 a1bd 23be 1fbe 3fcd 2ebd
00000390: 88cb a0bd 8ce1 403e 134b a5be c612 8e3d
000003a0: e11e d53e 08c3 6fbe a631 54bd 5de3 053f
000003b0: a7b1 41be ea09 823d 6cbe c8be 4db5 12be
000003c0: b4bf 8dbe 6a13 843d 5fe9 e8bd 8c75 993d
000003d0: 27b5 13bd 5bb8 cf3d ea16 9fbd 0d7e 41be
000003e0: 9a2e 823d 2b35 45be aba5 c4bd 1cdb 4e3d
000003f0: 3eff 993e 908c 99be ebf8 6a3d dd2a 5d3e

fc2.bias f4 [100]
-0.0041771177 -0.10406371 0.20460986 -0.17156948 0.1227588 -0.15211773 0.28686026 -0.14145015
0.03736178 -0.20505016 0.020077413 0.22711188 -0.124645114 -0.11517782 -0.062299415 0.08284973
0.038343284 -0.060498726 -0.06368612 0.13891517 -0.15081388 -0.016183708 -0.13003308 0.026157876
-0.0063295583 0.082705006 -0.22160895 -0.08273738 -0.111234106 -0.024699412 -0.028122006 0.06692031
0.022896292 0.19710413 -0.011359608 0.083794825 -0.07613525 -0.091047324 -0.13147193 0.010723914
0.08205125 0.0034134933 -0.011508359 -0.055236347 0.02579902 -0.051909614 0.110113166 -0.27821094
0.16831689 -0.112319045 -0.2443427 -0.17133239 0.26973704 -0.31191456 -0.042615227 0.23143743
0.1147635 -0.1523408 0.06448379 -0.09079073 -0.08943966 0.14832455 -0.19159424 0.01670956
-0.03658442 0.01755052 0.087729245 -0.18615752 0.06366911 -0.023802465 0.09077629 0.19452709
0.07476174 0.296431 -0.029260423 0.10421402 -0.2563112 -0.11279103 -0.12851429 0.082309805
0.16786435 -0.0012721836 -0.017922943 0.0470349 0.06437569 0.006984104 0.17543459 -0.02092806
0.2922804 -0.055469092 0.1736242 -0.05744564 0.0014210693 0.04454131 -0.21967411 0.3291391
-0.07241324 -0.09285394 -0.19462189 -0.013692633
00000000: 34e0 88bb 5b1f d5bd 3f85 513e e9af 2fbe
00000010: f768 fb3d c0c4 1bbe 59df 923e 4fd8 10be
00000020: aa08 193d abf8 51be 6379 a43c 0490 683e
00000030: f045 ffbd 59e2 ebbd ac2d 7fbd 1fad a93d
00000040: d90d 1d3d 83cd 77bd de6d 82bd c73f 0e3e
00000050: f46e 1abe b293 84bc 6427 05be 0b49 d63c
00000060: 2f68 cfbb 3e61 a93d 75ed 62be 3772 a9bd
00000070: b5ce e3bd 6c56 cabc 1f60 e6bc 840d 893d
00000080: 0191 bb3c aad5 493e a61d 3abc 9f9c ab3d
00000090: ccec 9bbd 0577 babd 94a0 06be 5bb3 2f3c
000000a0: 7c0a a83d eab4 5f3b 8e8d 3cbc 823f 62bd
000000b0: 7758 d33c 2d9f 54bd 0383 e13d aa71 8ebe
000000c0: 435b 2c3e 8707 e6bd f934 7abe c271 2fbe
000000d0: f91a 8a3e 44b3 9fbe 4e8d 2ebd effd 6c3e
000000e0: 2009 eb3d 3aff 1bbe 1410 843d 7ef0 b9bd
000000f0: 242c b7bd 64e2 173e 4831 44be 7de2 883c
00000100: 8bd9 15bd 1cc6 8f3c 64ab b33d 14a0 3ebe
00000110: f364 823d 63fd c2bc ebe8 b93d 1c32 473e
00000120: af1c 993d cec5 973e 8eb3 efbc 296e d53d
00000130: 393b 83be fcfe e6bd 4099 03be 0b92 a83d
00000140: a2e4 2b3e 66bf a6ba 23d3 92bc aba7 403d
00000150: 67d7 833d e9da e43b 20a5 333e 5371 abbc
00000160: c7a5 953e 8f33 63bd 8bca 313e 1f4c 6bbd
00000170: 2c43 ba3a f370 363d 40f2 60be ec84 a83e
00000180: 654d 94bd 352a bebd f64a 47be 1157 60bc

fc3.weight f4 [3, 100]
0.090010576 0.23590876 0.0808182 -0.23261939 -0.001624754 0.1985236 0.25005466 -0.21842414
-0.013537973 -0.13089788 -0.13354623 0.13304782 -0.13700935 -0.085486695 0.03835045 -0.18389115
-0.24748603 0.07637274 -0.089782 0.10283667 0.15359482 -0.063846044 -0.073639296 -0.0036899112
-0.098196164 -0.20676704 0.019294793 0.061103553 -0.124247976 0.10637084 -0.28841224 0.038594164
0.056820415 0.07121797 0.15621822 -0.021681087 0.1142469 -0.2021219 -0.17312895 0.083754644
-0.31383622 0.01267216 -0.06827909 -0.40859246 -0.16760255 -0.103092745 -0.017653197 0.040575005
0.0016214639 0.24797668 -0.07729085 0.17444132 -0.09121128 -0.098518066 -0.180664 0.018520568
0.35348275 -0.20329453 0.21147728 -0.0054172873 0.01767021 0.014019455 -0.23707709 -0.051293742
0.08111249 0.087442264 0.23352772 0.046138436 -0.00964956 0.0080392 0.2014881 -0.13062212
-0.024620263 0.19199498 0.17384294 0.15395372 0.12763938 -0.2192279 -0.23964442 -0.31821555
-0.043564994 0.007214244 -0.057109218 -0.18640196 0.031948447 -0.3428448 -0.25524136 0.036493864
-0.030038811 -0.16917738 -0.17515206 0.017127343 -0.08457674 0.20728025 -0.051033568 0.36448756
0.3266257 -0.07672062 0.078547984 0.12448875 -0.1754373 0.08083022 -0.22684649 0.063463405
-0.04009958 -0.10266348 0.113797486 -0.17912777 0.09576443 0.16400042 0.08514148 0.16597633
0.29961318 -0.27914405 -0.041802086 -0.23628704 0.20776564 0.20039077 -0.0711883 0.29301497
-0.070697516 0.23666607 -0.24028866 0.03725294 0.0015047602 -0.19512148 -0.02261605 0.054273058
-0.18436596 0.035730973 0.27475268 0.20038408 -0.20960018 -0.07051952 -0.026641103 0.023071393
-0.041742917 -0.10710329 -0.20462506 -0.27598903 0.04712896 0.16049136 0.045222092 -0.042297952
-0.19673352 -0.047864717 -0.14522357 -0.17684014 0.06101694 -0.004140878 -0.2266884 0.2420063
0.13444439 -0.3718902 0.16348168 -0.04550599 -0.0537543 0.15384063 0.046383135 0.006219595
0.008648181 -0.04802438 -0.10005349 -0.050562758 -0.010136735 0.21834166 -0.19184494 0.041532163
-0.060157515 0.019006316 0.29199937 -0.31596994 0.11950188 -0.18274015 -0.14801471 0.20457463
0.18823056 -0.115850344 0.09106868 0.3448669 -0.04861797 -0.15343362 -0.1637464 -0.2014617
0.04817039 0.024997 -0.015161482 0.13238868 0.37357628 -0.19931531 -0.039104003 0.014564791
0.059997767 -0.008273521 0.20361498 -0.09722217 0.28580976 -0.13935184 -0.17606299 0.25530943
0.0011675144 -0.21263787 0.10822327 -0.15217648 0.16534457 0.04442074 -0.24961215 -0.23924704
-0.056040395 -0.09122273 0.10397423 0.082878664 -0.037289318 0.051857103 -0.23427862 0.06209487
0.009158372 -0.024857305 -0.035531983 -0.0802579 -0.11257582 0.33380908 -0.105424844 -0.047193833
-0.26756233 0.1385348 -0.18238086 0.040590357 0.022959284 0.048053842 -0.13420919 -0.077060506
0.04147623 0.1908687 0.035948787 0.021854294 -0.2140514 -0.290533 0.13054803 0.046836242
0.090884276 -0.18441428 -0.05450858 0.009678249 0.02679122 0.12079135 -0.008065873 0.13685559
0.19597773 0.04119423 -0.16479778 0.076122485 0.34477365 -0.043200318 -0.035023365 0.12337527
00000000: 7757 b83d 1192 713e 0384 a53d c733 6ebe
00000010: b3f5 d4ba c549 4b3e 2a07 803e 94aa 5fbe
00000020: 60ce 5dbc 180a 06be 58c0 08be b03d 083e
00000030: 2e4c 0cbe a613 afbd 5d15 1d3d f64d 3cbe
00000040: fa6c 7dbe 5069 9c3d a0df b7bd 089c d23d
00000050: f647 1d3e b7c1 82bd 33d0 96bd 70d2 71bb
00000060: 121b c9bd bdba 53be 1d10 9e3c b847 7a3d
00000070: b975 febd f4d8 d93d c5aa 93be ea14 1e3d
00000080: 86bc 683d bada 913d abf7 1f3e 899c b1bc
00000090: 47fa e93d 0bf9 4ebe b748 31be 8e87 ab3d
000000a0: 24af a0be e49e 4f3c e8d5 8bbd 0833 d1be
000000b0: 01a0 2bbe 4a22 d3bd 709d 90bc fa31 263d
000000c0: 4d87 d43a 99ed 7d3e aa4a 9ebd bfa0 323e
000000d0: fbcc babd d7c3 c9bd fcff 38be 72b8 973c
000000e0: b1fb b43e 712c 50be 808d 583e 8083 b1bb
000000f0: 1ec1 903c dbb1 653c 56c4 72be 6319 52bd
00000100: 4e1e a63d ee14 b33d e421 6f3e a8fb 3c3d
00000110: 3019 1ebc d9b6 033c e652 4e3e cec1 05be
00000120: 6fb0 c9bc 559a 443e e203 323e 0ba6 1d3e
00000130: e6b3 023e 477d 60be 5965 75be 26ed a2be
00000140: 3571 32bd 7765 ec3b 5beb 69bd 28e0 3ebe
00000150: 60dc 023d 5b89 afbe ffae 82be 977a 153d
00000160: f413 f6bc d63c 2dbe 105b 33be a44e 8c3c
00000170: 9236 adbd 4641 543e 9308 51bd 1d9e ba3e
00000180: 7c3b a73e b31f 9dbd c4dd a03d f5f3 fe3d
00000190: d6a5 33be 508a a53d 724a 68be 1af9 813d
000001a0: 753f 24bd 3b41 d2bd a80e e93d 456d 37be
000001b0: 2420 c43d baef 273e a85e ae3d b3f5 293e
000001c0: e666 993e f8eb 8ebe aa38 2bbd 3bf5 71be
000001d0: 84c0 543e 3d33 4d3e 2ccb 91bd 0f06 963e
000001e0: dcc9 90bd 9758 723e 3b0e 76be 8a96 183d
000001f0: 603b c53a edcd 47be 4b45 b9bc 6d4d 5e3d
00000200: 6eca 3cbe a45a 123d 62ac 8c3e 7c31 4d3e
00000210: 6ea1 56be 8a6c 90bd 713e dabc 3800 bd3c
00000220: 9ffa 2abd f858 dbbd 3b89 51be 6f4e 8dbe
00000230: 4c0a 413d d957 243e cd3a 393d 9e40 2dbd
00000240: 8374 49be cb0d 44bd 7db5 14be 9515 35be
00000250: e6ec 793d 34b0 87bb 0121 68be 80d0 773e
00000260: caab 093e 6468 bebe be67 273e 7d64 3abd
00000270: 782d 5cbd 6688 1d3e 3efc 3d3d bfcd cb3b
00000280: 1ab1 0d3c 36b5 44bd d8e8 ccbd e51a 4fbd
00000290: 8c14 26bc f594 5f3e 0073 44be a11d 2a3d
000002a0: ba67 76bd 22b3 9b3c f180 953e d0c6 a1be
000002b0: 67bd f43d 3c20 3bbe 2b91 17be 037c 513e
000002c0: 83bf 403e f242 edbd 3782 ba3d 6592 b03e
000002d0: a323 47bd b41d 1dbe 23ad 27be fa4b 4ebe
000002e0: 514e 453d 82c6 cc3c dd67 78bc e690 073e
000002f0: 6445 bf3e 5019 4cbe 852b 20bd 29a1 6e3c
00000300: 38c0 753d aa8d 07bc 7280 503e 6b1c c7bd
00000310: a855 923e 40b2 0ebe db49 34be ebb7 823e
00000320: 4807 993a bebd 59be 29a4 dd3d 27d4 1bbe
00000330: 1650 293e 86f2 353d 549a 7fbe 2dfd 74be
00000340: 9d8a 65bd fcd2 babd 71f0 d43d 4abc a93d
00000350: afbc 18bd 1d68 543d bce6 6fbe 3157 7e3d
00000360: ff0c 163c 8ca1 cbbc fc89 11bd 415e a4bd
00000370: 278e e6bd 06e9 aa3e fbe8 d7bd 524e 41bd
00000380: eefd 88be 11dc 0d3e 0cc2 3abe 1342 263d
00000390: 1c15 bc3c 1bd4 443d 226e 09be e6d1 9dbd
000003a0: fbe2 293d 1673 433e 093f 133d c707 b33c
000003b0: 4a30 5bbe bec0 94be 62ae 053e 5cd7 3f3d
000003c0: 8921 ba3d 19d7 3cbe 6444 5fbd 8591 1e3c
000003d0: 4379 db3c 7561 f73d b926 04bc df23 0c3e
000003e0: 63ae 483e 48bb 283d c0c0 28be 1be6 9b3d
000003f0: 2c86 b03e d1f2 30bd a974 0fbd 2cac fc3d

fc3.bias f4 [3]
0.07761151 0.04991528 0.07115201
00000000: c9f2 9e3d f773 4c3d 25b8 913d

fc1.weight f4 [100, 11]
-0.20284897 0.20146815 0.10034936 -0.36428684 0.027061475 0.03475252 -0.10138347 0.24699323
-0.1286605 -0.059999406 0.023425927 -0.014649015 -0.22230412 0.24620341 0.2605453 0.033126146
-0.00898308 -0.029070463 -0.08408529 0.15396541 0.29676577 0.10420284 -0.13743679 0.087263204
-0.23128586 -0.28258708 0.08102701 0.10292547 -0.14564921 0.35458678 -0.28255516 -0.16897862
0.033580605 -0.048174422 -0.41446075 0.13335513 0.17018098 0.02976501 0.052593566 0.25223413
0.054676775 -0.06785587 0.019293964 -0.048009917 -0.34407753 0.22429092 0.04235853 -0.32249612
-0.10068382 0.06009125 -0.15923135 0.045690987 0.0062718512 -0.06506537 0.08651717 -0.2597421
0.27360198 0.10418976 -0.18284799 -0.0030060709 0.17819627 -0.24452001 0.27381468 -0.19206706
-0.26374695 -0.06739642 -0.18197115 -0.017009892 0.026385901 0.23581055 -0.16631769 -0.13798481
0.1307606 -0.083200775 0.16940919 0.24883476 0.131216 0.17404296 0.28022867 -0.019539049
-0.1354942 -0.0551345 0.2658844 -0.18981224 -0.23495223 0.25014818 0.07774034 0.2632818
-0.16389409 -0.039767846 -0.0040329946 0.19732817 0.0556858 -0.3775766 0.20357428 0.26083797
-0.29853478 -0.21145797 0.23385768 -0.18118335 0.21334548 -0.17428498 -0.28205994 -0.1251295
0.0913179 0.3209014 0.06220173 -0.1366845 -0.026666652 0.10004728 0.00403152 -0.21801934
-0.020418104 0.21249408 0.211369 -0.095587134 -0.06806243 -0.005853956 -0.084785886 0.06260129
-0.04809948 0.056024384 -0.08930314 0.039118893 -0.090611145 0.28904223 0.24547063 0.02445696
-0.27426082 0.31742975 0.35355005 -0.16070464 -0.022102606 0.13818786 0.14997825 0.11502674
-0.03666509 -0.11915342 0.13576466 -0.16256605 0.2949926 0.08214444 -0.034781046 0.13894805
-0.040699854 0.06863929 0.30026942 0.20902026 0.29930156 0.09845945 -0.15988348 0.25678313
0.19408993 0.07754121 0.13551387 -0.16517882 0.18271083 0.32557014 0.12455931 -0.07904733
-0.1259166 -0.08368804 -0.10159387 -0.1360655 -0.16915272 0.58175635 -0.4422718 0.123904824
-0.37841126 -0.36819124 0.085156836 0.28244653 -0.028045375 -0.076721944 -0.1659578 0.25765118
-0.21313122 -0.085244104 0.08004155 -0.20386286 -0.13210848 0.017065357 -0.19443463 -0.12694508
-0.08650513 0.04002615 0.034972515 0.1646254 0.05704306 -0.14756055 0.00026406167 -0.018512119
0.23526877 0.21288967 -0.34059104 0.21447563 0.19491683 -0.07075508 -0.026272466 -0.30185983
0.1115324 0.32924667 0.102433465 0.048311412 -0.07181007 0.00055660226 0.27215824 0.30214587
0.11731099 0.14385492 -0.34521443 -0.028066678 0.1997403 0.114460535 -0.19381662 0.41671574
-0.43692678 0.40836444 0.29935047 0.16442198 -0.19098476 -0.027807843 -0.3156835 0.048683442
-0.1476841 0.15029931 0.020734845 0.19632629 -0.20200478 -0.2814383 -0.11167615 0.0050821993
-0.008725149 -0.017872354 0.4033263 0.15323527 -0.20357408 0.21339704 -0.09087835 -0.040854584
-0.16508304 -0.14738727 -0.074151576 0.14305651 -0.15168671 -0.25513998 -0.061022937 -0.01871344
-0.15617496 0.2245461 -0.16674897 -0.08391702 -0.040681317 0.4021856 -0.3898428 0.08199938
00000000: a4b7 4fbe ab4d 4e3e f783 cd3d ce83 babe
00000010: 07b0 dd3c a958 0e3d 23a2 cfbd cbeb 7c3e
00000020: 94bf 03be f0c1 75bd bbe7 bf3c 6c02 70bc
00000030: b1a3 63be bf1c 7c3e 3266 853e 48af 073d
00000040: c52d 13bc 2e25 eebc e934 acbd 1ca9 1d3e
00000050: aff1 973e 4c68 d53d 3bbc 0cbe 0db7 b23d
00000060: 33d6 6cbe 41af 90be 7df1 a53d 97ca d23d
00000070: 1125 15be 668c b53e 12ab 90be bb08 2dbe
00000080: d18b 093d 8b52 45bd 3334 d4be 3f8e 083e
00000090: ec43 2e3e c0d5 f33c 5a6c 573d d524 813e
000000a0: c1f4 5f3d 05f8 8abd 600e 9e3c 0ca6 44bd
000000b0: ee2a b0be 85ac 653e 2380 2d3d 361e a5be
000000c0: 5233 cebd 3e22 763d 8b0d 23be 7926 3b3d
000000d0: 1a84 cd3b fe40 85bd ea2f b13d ebfc 84be
000000e0: 8f15 8c3e 7161 d53d 813c 3bbe 8001 45bb
000000f0: 1579 363e 7463 7abe 7031 8c3e 3aad 44be
00000100: d709 87be 2207 8abd a556 3abe 5458 8bbc
00000110: 3f27 d83c 5278 713e 2f4f 2abe e44b 0dbe
00000120: 1be6 053e 2b65 aabd 9a79 2d3e 8ace 7e3e
00000130: 7d5d 063e 5138 323e 227a 8f3e 5b10 a0bc
00000140: febe 0abe b7d4 61bd 0022 883e 245e 42be
00000150: 5197 70be 6c13 803e 5436 9f3d dfcc 863e
00000160: dad3 27be 9ce3 22bd 3627 84bb 6510 4a3e
00000170: cb16 643d b851 c1be c775 503e 8e8c 853e
00000180: 8dd9 98be 7088 58be 6378 6f3e 2188 39be
00000190: 3d77 5a3e c377 32be 296a 90be f321 00be
000001a0: e104 bb3d 304d a43e 3ec7 7e3d 06f7 0bbe
000001b0: 0674 dabc 97e5 cc3d d71a 843b 7640 5fbe
000001c0: de43 a7bc 0c98 593e 1d71 583e 30c3 c3bd
000001d0: 5164 8bbd 8bd2 bfbb 39a4 adbd 1b35 803d
000001e0: f603 45bd d379 653d 91e4 b6bd 223b 203d
000001f0: 5692 b9bd 58fd 933e a75c 7b3e f659 c83c
00000200: ea6b 8cbe 2786 a23e 8304 b53e c28f 24be
00000210: 8610 b5bc 1e81 0d3e e693 193e 2493 eb3d
00000220: 222e 16bd b506 f4bd e405 0b3e b777 26be
00000230: 4509 973e 583b a83d 9276 0ebd 6648 0e3e
00000240: e4b4 26bd c292 8c3d eabc 993e 6809 563e
00000250: 0e3e 993e 1ca5 c93d 7fb8 23be 1479 833e
00000260: 83bf 463e edcd 9e3d 26c4 0a3e a324 29be
00000270: 8c18 3b3e 21b1 a63e f418 ff3d 91e3 a1bd
00000280: 48f0 00be a364 abbd 7210 d0bd c154 0bbe
00000290: 5f36 2dbe fced 143f 7371 e2be d0c1 fd3d
000002a0: 1fbf c1be 9083 bcbe b566 ae3d d59c 903e
000002b0: 6abf e5bc 6520 9dbd d7f0 29be dbea 833e
000002c0: 123f 5abe 7694 aebd d3ec a33d 6dc1 50be
000002d0: 7247 07be a6cc 8b3c df19 47be e4fd 01be
000002e0: 9a29 b1bd 76f2 233d 573f 0f3d 9093 283e
000002f0: fca5 693d 1d1a 17be c271 8a39 baa6 97bc
00000300: 4cea 703e c0ff 593e f361 aebe 809f 5b3e
00000310: 4798 473e 0ae8 90bd 5b39 d7bc 5f8d 9abe
00000320: 196b e43d 0593 a83e a3c8 d13d 30e2 453d
00000330: 2811 93bd f2e8 113a 5358 8b3e ddb2 9a3e
00000340: bf40 f03d b44e 133e f2bf b0be 17ec e5bc
00000350: b988 4c3e 496a ea3d dd77 46be c45b d53e
00000360: deb4 dfbe 2515 d13e 7744 993e 3c5e 283e
00000370: 8291 43be 46cd e3bc 45a1 a1be 4a68 473d
00000380: 803a 17be 10e8 193e 1fdc a93c c209 493e
00000390: 57da 4ebe ae18 90be 77b6 e4bd 9488 a63b
000003a0: edf3 0ebc 0b69 92bc c980 ce3e b5e9 1c3e
000003b0: b975 50be c184 5a3e 6e1e babd 2357 27bd
000003c0: 870b 29be b0ec 16be c8dc 97bd 687d 123e
000003d0: c353 1bbe b5a1 82be 30f3 79bd ee4c 99bc
000003e0: 54ec 1fbe 6aef 653e 3ec0 2abe b0dc abbd
000003f0: 74a1 26bd 45eb cd3e 7a99 c7be 4aef a73d

fc1.bias f4 [100]
0.69206077 -0.5983009 0.53214943 -0.35750797 -0.45221332 0.6670712 -0.5359789 -0.59240186
-0.59520996 -0.75865936 0.5944056 0.22578827 0.2686606 -0.628812 0.5273693 -0.09695481
-0.67109776 -0.6102778 -0.6570239 -0.6491292 0.4877013 0.08216819 0.5694997 -0.29244852
0.57277256 0.4841781 -0.23607366 0.17778666 0.48104867 0.6767654 -0.366105 -0.73653036
0.4934761 -0.412301 -0.7939676 0.57787704 -0.57046217 0.66230553 0.50357413 0.5677863
0.4620592 -0.56284356 0.7739532 -0.12065445 -0.37508002 -0.73343116 -0.6489313 -0.53254247
-0.5735012 0.5555477 0.52088237 -0.6374571 -0.025148967 0.097774014 -0.49918658 -0.54945
0.1791429 -0.35830167 -0.7391925 -0.38404456 0.49164307 0.35248074 -0.33843833 -0.32633427
0.29839835 -0.6633315 0.41133583 -0.67070806 0.07177091 0.7194844 0.37344965 0.60543686
-0.33197662 -0.6298751 -0.36770624 -0.59855366 -0.58979124 -0.24806654 0.48243406 -0.4929841
-0.6090311 -0.52356106 -0.55004436 0.44906566 -0.64484227 -0.15726288 -0.71668994 -0.65678453
-0.7006945 -0.01172551 0.38348275 0.5111085 0.62064165 -0.5887907 -0.7006192 0.38398382
0.56709105 -0.5339699 -0.63013756 -0.4391201
00000000: e52a 313f 3f2a 19bf f23a 083f 490b b7be
00000010: 8188 e7be 2ec5 2a3f ea35 09bf a6a7 17bf
00000020: ae5f 18bf 8037 42bf f72a 183f 0a35 673e
00000030: e28d 893e d3f9 20bf ad01 073f 3e90 c6bd
00000040: 10cd 2bbf 2a3b 1cbf b832 28bf 552d 26bf
00000050: fcb3 f93e cc47 a83d bbca 113f d0bb 95be
00000060: 39a1 123f 31e6 f73e 4bbd 71be b50d 363e
00000070: 034c f63e 7f40 2d3f 1d72 bbbe 418d 3cbf
00000080: e6a8 fc3e 1e19 d3be 7641 4bbf c0ef 133f
00000090: cf09 12bf db8c 293f 3cea 003f 715a 113f
000000a0: 0693 ec3e 8416 10bf cc21 463f ae19 f7bd
000000b0: 7d0a c0be 25c2 3bbf 5d20 26bf b454 08bf
000000c0: fad0 12bf 6038 0e3f 8c58 053f 6330 23bf
000000d0: 3505 cebc be3d c83d 6295 ffbe c1a8 0cbf
000000e0: 3d71 373e 5173 b7be b83b 3dbf 7da1 c4be
000000f0: a4b8 fb3e 5b78 b43e ca47 adbe 4915 a7be
00000100: abc7 983e 18d0 29bf 9c9a d23e 86b3 2bbf
00000110: a0fc 923d 2130 383f cb34 bf3e e9fd 1a3f
00000120: d7f8 a9be 7f3f 21bf fe43 bcbe d03a 19bf
00000130: 8ffc 16bf 2805 7ebe 9901 f73e 6968 fcbe
00000140: 76e9 1bbf 1908 06bf b5cf 0cbf efeb e53e
00000150: 6214 25bf 8509 21be fe78 37bf 0823 28bf
00000160: b760 33bf 5a1c 40bc da57 c43e 02d8 023f
00000170: 5fe2 1e3f fdba 16bf c85b 33bf 8799 c43e
00000180: e12c 113f 40b2 08bf b250 21bf 5ad4 e0be

fc2.weight f4 [100, 100]
0.1949088 -0.20259537 0.23550525 -0.0973962 0.0080493875 0.24619666 -0.11696089 -0.02812072
-0.10171383 -0.07266282 0.0059123975 -0.03401105 -0.06090911 -0.2470115 0.10541179 -0.053307902
-0.04727361 -0.06775783 -0.22432113 -0.32553872 0.10808797 -0.06266513 0.19716631 -0.21701822
0.22246128 0.14893907 -0.2885621 -0.04292691 0.033355206 -0.1319023 -0.19335018 -0.029795675
0.04862008 -0.28738105 -0.033789195 0.31325674 -0.08322984 0.07703379 0.0879848 -0.011755623
0.1202713 -0.028576821 0.06399569 -0.19642094 -0.0154220965 -0.0059571327 -0.11127152 -0.21006963
-0.013683749 0.10254155 0.14714995 -0.21375564 0.020135196 -0.07179931 -0.027089242 -0.25753698
-0.0011411501 -0.0841083 -0.05733392 -0.1920949 0.07655228 0.09571433 -0.104119755 -0.17821983
-0.12027284 -0.068292364 -0.032579612 -0.18363097 -0.089202985 0.054962765 -0.01636701 0.2614907
-0.0024914131 -0.04473849 -0.11389515 -0.19266903 -0.16330977 -0.04043889 -0.046579048 0.025645468
-0.040005375 0.0013021867 -0.12879987 0.028227786 0.017507985 -0.03946726 -0.13508199 -0.058610283
-0.06771455 -0.07833929 -0.05629498 0.09296706 0.05119734 -0.104951255 -0.073550105 0.033441138
0.14126185 -0.13682163 -0.092374854 -0.21498463 -0.0029064112 0.084304824 -0.04724479 0.20852545
-0.16658795 -0.1358156 0.008868219 -0.076066196 -0.08686921 -0.21434906 0.16611111 0.18582705
-0.03143642 0.0014085083 0.12103986 0.041092962 -0.14289977 -0.12758574 0.0886571 0.32410103
-0.062675394 -0.12074656 -0.069729924 0.18417735 -0.07880325 -0.06237626 0.27580106 0.021388592
0.36971498 0.091806844 0.15515502 -0.210365 0.027643498 0.3406634 -0.3035754 -0.13707009
-0.06354542 0.1853655 0.29769072 0.26883373 0.14187601 -0.3910813 0.35144377 0.3363464
0.2017919 -0.11051287 -0.06880932 0.0141504025 -0.14459236 -0.24148445 -0.19232208 -0.09500206
0.36169007 0.33287847 -0.077345796 0.3581354 0.11094153 -0.100429386 -0.29161826 0.15275553
-0.077709876 0.04676181 0.05778864 0.050021585 0.042103205 -0.115646966 0.47433156 0.18764989
0.020796157 0.3979985 0.117198594 -0.060258333 -0.07878956 -0.30707246 0.012593699 -0.010570133
0.21343286 -0.10841257 -0.1188188 -0.06903103 0.049979895 -0.22342773 -0.056817748 0.10163868
-0.19496046 0.06505626 -0.1274363 -0.082346 -0.10965555 0.115717314 0.3388579 -0.09813933
-0.17258453 0.17148708 -0.20627056 0.015449704 -0.09053216 -0.101198696 0.020552704 0.11364149
0.23218459 -0.25210646 0.2778445 -0.08035988 -0.0031651782 0.34155887 -0.15182953 -0.037138358
-0.06323594 -0.08566944 -0.007806243 -0.0723653 -0.095171265 -0.26075673 0.06929134 -0.08710819
-0.085013084 -0.15796082 -0.28871518 -0.42580634 0.17515421 -0.06576924 0.19685088 -0.235566
0.24961165 0.16708261 -0.41113785 0.040862035 0.01829775 -0.16760729 -0.2555259 -0.024962962
0.0176731 -0.3382175 -0.06323568 0.40473112 -0.10647438 0.09382983 0.07517357 -0.007228064
0.13299584 -0.011836927 0.046041474 -0.24467576 0.024367724 -0.07126815 -0.17236993 -0.22050753
0.057082586 0.11522985 0.16515872 -0.24743733 -0.01748673 -0.13995183 -0.09141643 -0.39094684
00000000: 2c96 473e 2975 4fbe 4a28 713e a977 c7bd
00000010: 94e1 033c fa1a 7c3e 3189 efbd 6d5d e6bc
00000020: 574f d0bd 3fd0 94bd c9bc c13b 2c4f 0bbd
00000030: d57b 79bd 95f0 7cbe 23e2 d73d 6359 5abd
00000040: f9a1 41bd 9ec4 8abd 70b4 65be 03ad a6be
00000050: 3a5d dd3d 9356 80bd f7e5 493e 063a 5ebe
00000060: e4cc 633e 7c83 183e 69be 93be 21d4 2fbd
00000070: 789f 083d 6611 07be 97fd 45be 0f16 f4bc
00000080: d925 473d 9c23 93be 8a66 0abd 3063 a03e
00000090: 6874 aabd e4c3 9d3d 6031 b43d a89a 40bc
000000a0: cd50 f63d f019 eabc 2c10 833d 9222 49be
000000b0: f6ac 7cbc 0d34 c3bb 53e2 e3bd 7e1c 57be
000000c0: ce31 60bc 4e01 d23d 7aae 163e c2e2 5abe
000000d0: 91f2 a43c 840b 93bd 42ea ddbc e3db 83be
000000e0: a592 95ba f940 acbd f9d6 6abd 87b4 44be
000000f0: 71c7 9c3d e005 c43d bd3c d5bd 427f 36be
00000100: 9b51 f6bd dedc 8bbd 3372 05bd c209 3cbe
00000110: 0eb0 b6bd a320 613d 1c14 86bc 1ce2 853e
00000120: fa46 23bb b53f 37bd dc41 e9bd 084b 45be
00000130: ad3a 27be 40a3 25bd acc9 3ebd 7216 d23c
00000140: addc 23bd 23ae aa3a 1de4 03be f53d e73c
00000150: e86c 8f3c 6ca8 21bd ef52 0abe 5611 70bd
00000160: edad 8abd 5a70 a0bd 9195 66bd 8465 be3d
00000170: 4db4 513d aff0 d6bd 70a1 96bd 93f9 083d
00000180: f2a6 103e f81a 0cbe 072f bdbd ee24 5cbe
00000190: 7d79 3ebb 02a8 ac3d c183 41bd b287 553e
000001a0: 0896 2abe 3f13 0bbe 024c 113c 98c8 9bbd
000001b0: 7ce8 b1bd 527e 5bbe 0819 2a3e 7249 3e3e
000001c0: 7ac3 00bd b29d b83a bfe3 f73d 1851 283d
000001d0: 5154 12be d6a5 02be db91 b53d 92f0 a53e
000001e0: f55b 80bd f949 f7bd 90ce 8ebd fd98 3c3e
000001f0: 9963 a1bd 407e 7fbd cc35 8d3e 2137 af3c
00000200: 484b bd3e 3a05 bc3d f5e0 1e3e ec69 57be
00000210: 9e74 e23c 6f6b ae3e 3c6e 9bbe 1a5c 0cbe
00000220: 1a24 82bd 74d0 3d3e eb6a 983e 93a4 893e
00000230: f247 113e cf3b c8be 70f0 b33e 9835 ac3e
00000240: 89a2 4e3e 9254 e2bd e7eb 8cbd 17d7 673c
00000250: 0510 14be b347 77be 14f0 44be 7190 c2bd
00000260: 712f b93e 0c6f aa3e 7967 9ebd 865d b73e
00000270: 5035 e33d ecad cdbd fd4e 95be f26b 1c3e
00000280: 5b26 9fbd 5089 3f3d c8b3 6c3d 6fe3 4c3d
00000290: 6974 2c3d 51d8 ecbd 96db f23e 4b27 403e
000002a0: b45c aa3c 76c6 cb3e d105 f03d 71d1 76bd
000002b0: 6c5c a1bd 9a38 9dbe cd55 4e3c 5a2e 2dbc
000002c0: 258e 5a3e 6907 debd 4557 f3bd 2460 8dbd
000002d0: b8b7 4c3d 3dca 64be bab9 68bd f127 d03d
000002e0: b7a3 47be 373c 853d a97e 02be 05a5 a8bd
000002f0: 1793 e0bd 33fd ec3d c87e ad3e 46fd c8bd
00000300: 00ba 30be 4f9a 2f3e 9738 53be c120 7d3c
00000310: ed68 b9bd 4341 cfbd 255e a83c dfbc e83d
00000320: ccc1 6d3e 1914 81be a241 8e3e b993 a4bd
00000330: e16e 4fbb cee0 ae3e 3379 1bbe 641e 18bd
00000340: d881 81bd 7673 afbd 83cb ffbb 4234 94bd
00000350: 27e9 c2bd e881 85be 9ee8 8d3d c765 b2bd
00000360: 571b aebd 7bc0 21be 7ad2 93be 4a03 dabe
00000370: a05b 333e 06b2 86bd 4793 493e 3738 71be
00000380: 329a 7f3e b417 2b3e a980 d2be f35e 273d
00000390: 2ae5 953c 3fa1 2bbe 4ad4 82be 207f ccbc
000003a0: 2dc7 903c d82a adbe b581 81bd eb38 cf3e
000003b0: 3d0f dabd db29 c03d 9af4 993d 65d9 ecbb
000003c0: 1030 083e acef 41bc fc95 3c3d 488c 7abe
000003d0: d29e c73c 09f5 91bd be81 30be bacc 61be
000003e0: 6ecf 693d a1fd eb3d 5e1f 293e 3660 7dbe
000003f0: 5540 8fbc 884f 0fbe 8a38 bbbd 2f2a c8be

fc2.bias f4 [100]
0.19829354 0.18599811 0.20799787 0.21840712 0.22158991 0.24655762 0.25296393 -0.15297239
0.25666493 -0.24743772 0.23319437 0.22026095 0.18239328 -0.16869341 0.19987561 -0.22073233
0.20701207 -0.21182947 -0.1830406 0.24265125 0.16683757 -0.23910497 0.26081038 -0.22120142
-0.14921771 -0.21901715 0.22489102 0.2724585 0.25843364 -0.24308385 0.2270689 -0.23440373
0.21279429 0.21031338 -0.20895983 0.1375901 -0.24962042 0.18277813 -0.19691768 0.14829601
-0.14173418 -0.21240379 -0.235323 -0.10055869 0.15782103 0.2684249 0.15692893 -0.23497322
0.25277418 0.20954157 0.18364316 -0.26666933 -0.15360512 -0.2044132 0.17525864 0.10102645
0.24736388 -0.24567944 0.23773457 -0.22574069 0.20948285 -0.22760463 0.22102836 0.18294068
0.2530476 -0.25176665 -0.2000952 0.25639203 -0.20229141 -0.24037781 0.22965337 -0.24541079
0.1889613 -0.1552967 -0.23599048 0.20810266 -0.23483792 -0.1931065 0.146563 -0.15968351
-0.20351657 -0.19464965 -0.1653311 -0.22265169 -0.2407081 0.17747256 -0.21956034 -0.21503702
0.22846916 -0.09947938 -0.24199128 -0.168568 -0.20523956 0.23382024 -0.05641462 0.20458747
-0.21772636 -0.20659724 0.26483327 -0.19643463
00000000: 760d 4b3e 4a76 3e3e 65fd 543e 1ea6 5f3e
00000010: 77e8 623e 9a79 7c3e 7d84 813e cba4 1cbe
00000020: 9669 833e 5060 7dbe 81ca 6e3e 168c 613e
00000030: 4ec5 3a3e f7bd 2cbe 31ac 4c3e a807 62be
00000040: f9fa 533e d3e9 58be ff6e 3bbe 9279 783e
00000050: 78d7 2a3e efd7 74be f088 853e a082 62be
00000060: 87cc 18be 0846 60be d549 663e ae7f 8b3e
00000070: 6a51 843e f9ea 78be c084 683e 8807 70be
00000080: bfe6 593e 645c 573e 91f9 55be 6be4 0c3e
00000090: 7f9c 7fbe 312a 3b3e caa4 49be e9da 173e
000000a0: c422 11be 6180 59be 83f8 70be b7f1 cdbd
000000b0: d69b 213e fd6e 893e fab1 203e d29c 70be
000000c0: 9e6b 813e 1192 563e f40c 3c3e e288 88be
000000d0: a94a 1dbe b251 51be 0077 333e f5e6 ce3d
000000e0: f54c 7d3e 6493 7bbe b170 733e 9128 67be
000000f0: ac82 563e 3011 69be 4255 623e cd54 3b3e
00000100: 748f 813e 8fe7 80be c2e5 4cbe d145 833e
00000110: 7b25 4fbe 9a25 76be 412a 6b3e f74c 7bbe
00000120: 127f 413e 1906 1fbe 7da7 71be dd18 553e
00000130: 5a79 70be b6bd 45be 9c14 163e 1384 23be
00000140: a666 50be 3d52 47be 8e4c 29be cefe 63be
00000150: 2f7c 76be 5ebb 353e 6dd4 60be aa32 5cbe
00000160: d2f3 693e d8bb cbbd 90cc 77be 179d 2cbe
00000170: 522a 52be 936e 6f3e 0413 67bd 617f 513e
00000180: a9f3 5ebe 3a8e 53be 3a98 873e 2926 49be

fc3.weight f4 [1, 100]
0.8562336 0.62736595 0.9121935 0.941139 0.9250261 0.8879672 0.90993947 -0.8576041
0.86766416 -0.8577275 0.85035694 0.87880236 0.87887454 -0.85054183 0.9644792 -0.9203805
0.88510925 -0.8941516 -0.8614247 0.85619515 0.9057645 -0.8655025 0.89278984 -0.88676214
-0.88789034 -1.000161 0.84778714 0.9011404 0.87564826 -0.9182395 0.8626164 -0.86684847
0.8607129 0.87360805 -0.8897605 0.97725326 -0.91819876 0.860078 -0.89920247 0.86134547
-0.9891473 -0.88844097 -0.93017775 -0.894126 0.9029257 0.9014549 0.8514765 -0.8536566
0.91340554 0.9085515 0.85182124 -0.9003289 -0.8797249 -0.9271164 0.916415 0.987382
0.91902345 -0.8898341 0.90824986 -0.88383824 0.90608156 -0.8648319 0.8967123 0.8546056
0.8645903 -0.9020009 -0.86425567 0.93133324 -0.85149544 -0.85860795 0.8780121 -0.8590583
0.8813298 -0.83953714 -0.87433785 0.9415877 -0.9480352 -0.8946389 0.9558344 -0.86854327
-0.84489876 -0.85166997 -0.8580333 -0.8751059 -0.85516423 0.85374445 -0.8525832 -0.8651193
0.8992261 -1.0110732 -0.8539663 -0.8908868 -0.909945 0.92213994 -1.1250238 0.8981371
-0.8807078 -0.8785083 0.84562486 -0.91484886
00000000: 2032 5b3f 0e9b 203f 8385 693f 7cee 703f
00000010: 83ce 6c3f d251 633f cbf1 683f f18b 5bbf
00000020: 3d1f 5e3f 0894 5bbf feb0 593f 31f9 603f
00000030: ecfd 603f 1cbd 59bf 1ce8 763f 0e9e 6bbf
00000040: 8596 623f 1fe7 64bf 5486 5cbf 9b2f 5b3f
00000050: 2fe0 673f 9291 5dbf e08d 643f d802 63bf
00000060: c84c 63bf 4705 80bf 9408 593f 23b1 663f
00000070: 7c2a 603f be11 6bbf 6ed4 5c3f c8e9 5dbf
00000080: ae57 5c3f c7a4 5f3f 58c7 63bf 452d 7a3f
00000090: 130f 6bbf 122e 5c3f 2232 66bf 2381 5c3f
000000a0: c238 7dbf de70 63bf 2120 6ebf 71e5 64bf
000000b0: 2426 673f c0c5 663f 5dfa 593f 3d89 5abf
000000c0: f2d4 693f d596 683f f510 5a3f f47b 66bf
000000d0: a735 61bf 8057 6dbf 2c9a 6a3f 11c5 7c3f
000000e0: 1f45 6b3f 2bcc 63bf 1083 683f 3943 62bf
000000f0: f6f4 673f a065 5dbf f08e 653f 6fc7 5a3f
00000100: ca55 5d3f 88e9 66bf dc3f 5dbf db6b 6e3f
00000110: 9bfb 59bf bbcd 5bbf 67c5 603f 3feb 5bbf
00000120: d49e 613f e8eb 56bf 9bd4 5fbf e40b 713f
00000130: 6fb2 72bf 0e07 65bf 90b1 743f da58 5ebf
00000140: 494b 58bf 0b07 5abf 12a8 5bbf f106 60bf
00000150: 0bec 5abf ff8e 5a3f e542 5abf 7578 5dbf
00000160: af33 663f d96a 81bf 899d 5abf 2811 64bf
00000170: 28f2 68bf 5d11 6c3f c800 90bf 50ec 653f
00000180: 1176 61bf ece5 60bf df7a 583f 8933 6abf

fc1.weight f4 [100, 14]
0.16948293 0.20775926 0.18355232 0.24786077 0.13634855 0.15898374 -0.11452739 -0.23427407
0.012376991 -0.053116553 0.092220165 0.21376285 -0.14846972 0.2132796 -0.16766594 -0.0547721
0.019185005 0.123413235 0.12136376 -0.25949863 0.15838794 0.27337724 -0.1839169 -0.12805124
-0.2242807 0.005809191 -0.21930645 -0.11840711 0.011101978 -0.010604495 -0.23541717 -0.015160959
-0.25253832 0.073504694 0.11695759 0.2235301 0.2630028 -0.005071966 0.112198055 0.2590531
-0.13219759 0.100754514 -0.024472306 -0.24161437 -0.22148733 0.1706295 -0.039931107 0.0765413
0.17482062 0.22771199 -0.20629695 0.12780647 0.19258812 -0.26027715 -0.16677815 0.19407152
-0.27733207 -0.10714548 0.044789974 -0.07817037 0.052508574 -0.15351167 -0.20470789 0.07242115
0.22666898 -0.12111162 0.17011447 -0.21150157 -0.30509278 -0.07717221 0.060867492 0.18675028
0.028614959 0.19331838 0.17435165 -0.2564773 0.099982224 0.26740012 -0.021235501 -0.139553
-0.06783786 0.20069297 -0.21550485 -0.055833206 0.059501123 0.21653911 0.14061508 0.2703785
-0.110059306 -0.25577345 0.22406143 -0.02410773 0.113211125 0.09679154 0.14952387 -0.106239505
0.00048571336 -0.2330464 -0.032224223 0.11133552 0.10235449 0.17472063 -0.26675946 -0.2055485
-0.1843577 -0.12256294 0.24077104 0.16587254 -0.040398527 0.037576865 -0.05652126 -0.06999755
0.23560767 -0.17921703 -0.027548127 0.00031426028 -0.15962821 0.06589485 -0.024827905 0.08849387
-0.1596432 0.18200278 -0.0006026579 0.15281406 0.3006265 0.26813528 0.28153285 -0.031517606
0.16503672 -0.12499474 0.23881374 0.2306463 -0.15489332 0.17801294 0.0013474216 -0.17769854
-0.13997799 0.18094955 -0.01666367 0.17180713 -0.081477724 0.27233306 -0.027800748 0.13540754
-0.2047798 0.22745492 0.31083444 -0.21036975 0.23338471 0.09766205 0.16602555 -0.063637465
0.16791488 -0.021641385 0.016886517 -0.19587076 -0.22194128 -0.00094408373 -0.10033246 0.18614717
-0.25849965 -0.13096684 -0.08542031 0.14188528 0.18346249 -0.11024351 -0.17794845 0.006102053
-0.093665734 0.30093962 -0.06443732 0.22823259 -0.026930988 0.30123177 0.24861747 0.12515944
-0.115534104 -0.09367175 -0.2339091 -0.21649419 0.21248582 -0.1853387 -0.23794892 -0.20293702
-0.07070338 0.15012561 -0.056416355 -0.16277811 -0.30646548 0.10763224 -0.12710118 0.18541698
0.1480304 -0.21362315 -0.16072935 -0.019453553 -0.06808639 0.26795477 -0.28025442 0.06435442
-0.17904744 -0.14368449 -0.14736493 0.06688838 -0.0014305175 -0.035924185 0.1611958 0.2736487
-0.17898265 0.2203874 -0.17491956 0.11335882 0.05338598 0.043027963 -0.050452475 -0.10694196
0.044760346 -0.2708117 -0.07081113 0.11791667 -0.006823832 -0.09307264 0.17807238 0.03904189
-0.006566857 0.024282565 0.05775456 -0.15023302 -0.031116167 0.03454902 -0.20643139 -0.16639905
-0.12695843 0.20131928 0.055290774 0.17875786 -0.05305931 0.005582223 0.023037964 0.28042933
-0.30941448 0.16028547 -0.18231273 -0.10150975 0.075870514 0.00940316 0.26436582 -0.0541165
-0.0089086965 -0.25213283 -0.22699918 0.10314442 0.24616493 -0.1465033 -0.23817165 -0.057797793
00000000: ef8c 2d3e d8be 543e 24f5 3b3e 37cf 7d3e
00000010: f49e 0b3e a2cc 223e 568d eabd 8be5 6fbe
00000020: ddc8 4a3c be90 59bd eddd bc3d a6e4 5a3e
00000030: 7208 18be f865 5a3e 9fb0 2bbe b658 60bd
00000040: df29 9d3c 14c0 fc3d 908d f83d 01dd 84be
00000050: 7330 223e 1af8 8b3e b654 3cbe dd1f 03be
00000060: d7a9 65be 075b be3b df91 60be 6d7f f2bd
00000070: 12e5 353c 7abe 2dbc 3311 71be ac65 78bc
00000080: b44c 81be a189 963d 7687 ef3d 13e5 643e
00000090: 4ea8 863e bc32 a6bb 18c8 e53d 9ca2 843e
000000a0: ce5e 07be 6258 ce3d 257a c8bc c269 77be
000000b0: 93cd 62be 80b9 2e3e cd8e 23bd afc1 9c3d
000000c0: 2d04 333e 552d 693e 823f 53be b3df 023e
000000d0: d235 453e 0c43 85be e4c7 2abe afba 463e
000000e0: 78fe 8dbe 176f dbbd b175 373d c917 a0bd
000000f0: 3b13 573d 2a32 1dbe f29e 51be 8a51 943d
00000100: ea1b 683e 5e09 f8bd 7d32 2e3e de93 58be
00000110: 1f35 9cbe 770c 9ebd 3150 793d 773b 3f3e
00000120: eb69 ea3c 41f5 453e 3d89 323e fe50 83be
00000130: 7bc3 cc3d abe8 883e 13f6 adbc fbe6 0ebe
00000140: 93ee 8abd 7582 4d3e 4ead 5cbe 5cb1 64bd
00000150: 73b7 733d 6ebc 5d3e 66fd 0f3e 0d6f 8a3e
00000160: c666 e1bd bdf4 82be 5c70 653e 937d c5bc
00000170: 3cdb e73d a53a c63d c91c 193e 1994 d9bd
00000180: 58a7 fe39 b7a3 6ebe 8cfd 03bd e103 e43d
00000190: 3b9f d13d f7e9 323e b294 88be 4e7b 52be
000001a0: 44c8 3cbe 4702 fbbd af8c 763e 7eda 293e
000001b0: ed78 25bd 33ea 193d d682 67bd e05a 8fbd
000001c0: 2343 713e ab84 37be 9cac e1bc 4dc3 a439
000001d0: 9475 23be e1f3 863d e463 cbbc 463c b53d
000001e0: 8279 23be f05e 3a3e b0fb 1dba 4a7b 1c3e
000001f0: b7eb 993e 0749 893e 1325 903e 9b18 01bd
00000200: 63ff 283e 3efd ffbd 978b 743e 8b2e 6c3e
00000210: 5b9c 1ebe 0649 363e f79b b03a 9bf6 35be
00000220: 6456 0fbe d74a 393e 4082 88bc 35ee 2f3e
00000230: cbdd a6bd 3d6f 8b3e 65be e3bc 46a8 0a3e
00000240: ccb1 51be f1e9 683e b125 9f3e 2b6b 57be
00000250: 67fc 6e3e 0a03 c83d 9a02 2a3e 5c54 82bd
00000260: e1f1 2b3e 4649 b1bc 9855 8a3c 5892 48be
00000270: 9344 63be 637c 77ba 1b7b cdbd 5d9d 3e3e
00000280: 115a 84be 2c1c 06be d8f0 aebd 604a 113e
00000290: 97dd 3b3e 59c7 e1bd 1e38 36be bbf3 c73b
000002a0: d2d3 bfbd c214 9a3e b7f7 83bd ceb5 693e
000002b0: 609e dcbc 0d3b 9a3e 9495 7e3e cc29 003e
000002c0: 259d ecbd f9d6 bfbd de85 6fbe a7b0 5dbe
000002d0: e295 593e 6ec9 3dbe e2a8 73be b9ce 4fbe
000002e0: efcc 90bd 87ba 193e d614 67bd 4eaf 26be
000002f0: 0be9 9cbe 4b6e dc3d d026 02be f3dd 3d3e
00000300: 4895 173e 07c0 5abe 3c96 24be 0f5d 9fbc
00000310: e170 8bbd 5e31 893e 827d 8fbe 40cc 833d
00000320: 3658 37be 0722 13be d5e6 16be c6fc 883d
00000330: 3480 bbba 3d25 13bd 8310 253e af1b 8c3e
00000340: 3a47 37be 3cad 613e 1d1e 33be ab28 e83d
00000350: 42ab 5a3d 173e 303d 41a7 4ebd 6304 dbbd
00000360: a056 373d d5a7 8abe 6d05 91bd 4c7e f13d
00000370: 749a dfbb de9c bebd 9b58 363e 64ea 1f3d
00000380: ca2e d7bb 3bec c63c 0c90 6c3d afd6 19be
00000390: 55e7 febc 4683 0d3d c062 53be 8364 2abe
000003a0: 6401 02be a426 4e3e 9478 623d 4d0c 373e
000003b0: b854 59bd 15eb b63b 1dba bc3c 6f94 8f3e
000003c0: 936b 9ebe e021 243e 30b0 3abe 58e4 cfbd
000003d0: 0062 9b3d b60f 1a3c f55a 873e 43a9 5dbd
000003e0: c8f5 11bc 8e17 81be 7972 68be 623d d33d
000003f0: a912 7c3e f604 16be 45e3 73be 61bd 6cbd
