mujoco/gail/save_model/ckpt_1050.pth.tar (torch, 144879 bytes, 16 tensors)

fc1.weight f4 [100, 11]
000000 75 ed a3 bd e6 65 69 be 99 84 10 3e 1b 4d c1 bd
       -0.08004276 -0.22792777 0.14113082 -0.09438535
000010 d2 54 c6 3d 65 15 e2 3d fc c2 5f be 78 45 75 3e
       0.09684147 0.11039237 -0.21851724 0.23952281
000020 97 af 61 3e 0c 34 85 3e d9 31 41 3d fc 2e b2 3e
       0.22039638 0.2601627 0.04716668 0.3480147
000030 5b ad f3 bd 36 d0 14 bd 93 3d 59 be 22 a8 3a 3e
       -0.11898299 -0.036331378 -0.21214895 0.182282
000040 c3 58 0c 3d 42 83 90 3c bc 90 d7 3d 34 e4 1c 3e
       0.034264337 0.017640714 0.10525653 0.15321428
000050 f3 40 3d 3e 62 63 ac 3e 5a ce 78 3e 0d 74 fe bd
       0.18481807 0.33669573 0.24297467 -0.12424479
000060 ea f8 7e be 7d 3e 0c 3e 56 02 1b 3e 9e 47 6e be
       -0.2489964 0.13695712 0.1513761 -0.23269507
000070 81 b9 36 3c f9 b7 92 3e 41 6d 08 3d 9a 18 0a bc
       0.011152626 0.28655985 0.033307318 -0.008428717
000080 c3 26 27 3e 44 c3 68 3e da 31 24 be f2 c1 85 bc
       0.1632338 0.22730738 -0.16034642 -0.016327832
000090 cd db 26 3e 0b 21 39 3d d1 05 87 3e 6a 1a a7 be
       0.16294785 0.045197528 0.26371625 -0.3263734
0000a0 f2 85 af bd 5c 5f ae be b8 b5 93 3e 90 05 be be
       -0.0857047 -0.34057128 0.28849578 -0.3711362
0000b0 87 73 a0 3d e4 3a 9d 3e 82 36 8d 3e 79 1d b4 be
       0.07834535 0.30708992 0.2758065 -0.35178736
0000c0 26 31 c9 bc db df 3c 3e 54 c7 64 be 92 bb 85 bc
       -0.024559569 0.18444769 -0.22341663 -0.016324792
0000d0 b4 ba 64 3e e5 b4 85 3d a5 96 97 3d 51 18 a4 3e
       0.22336847 0.065286435 0.0740178 0.32049802
0000e0 aa e8 7f bd 20 81 a8 bd 35 d5 29 3e 8a 64 d7 3e
       -0.062477745 -0.08227754 0.16585238 0.42068893
0000f0 1b 55 0b 3e ad 0c cb 3d 60 91 1e be b2 32 e4 ba
       0.13606684 0.09914527 -0.15485144 -0.0017410128
000100 d8 76 9e bd b8 74 91 3d cf f0 b0 3e 4f 9a 87 be
       -0.077375114 0.071023405 0.34558722 -0.26484916
000110 11 31 af 3e 7e 98 2c be 08 69 95 bd 1c 12 5e be
       0.34217122 -0.16855046 -0.07295424 -0.21686596
000120 e6 91 a5 3e 88 ed 0b bd 19 02 4a bc 95 d4 17 be
       0.32337874 -0.034162074 -0.012329602 -0.14827187
000130 6d f4 f5 bd 46 e5 22 3d 25 9b af 3e 5c 02 a7 be
       -0.12009511 0.039769433 0.34298053 -0.32618988
000140 d9 5e 3a be a9 63 83 3e 57 9e 3d 3e 1d 9c 4d 3e
       -0.18200244 0.25661972 0.18517433 0.20079084
000150 6d c7 25 bc f0 cf 99 be 29 0f 4c 3e 88 e8 7b 3e
       -0.010118348 -0.30041456 0.19927658 0.24600422
000160 ac 9a 0c be 69 6e 42 3e 3c e1 75 be 44 bc 8c be
       -0.13730878 0.1898743 -0.24011701 -0.27487385
000170 5b 59 88 3e 82 33 81 3e cf 47 cf 3d 06 d3 1d be
       0.26630673 0.2523461 0.10121118 -0.1541253
000180 aa e4 9c 3e 87 5d 7a be f5 07 23 3e 92 5e e9 bd
       0.30643207 -0.2444974 0.15921004 -0.11394991
000190 06 ca 33 3e d6 ac 5e bd ca 9b 99 bc bd 8e ac 3e
       0.17557535 -0.054364048 -0.018751044 0.3370265
0001a0 3f 1c 06 be e3 29 1a 3e ca cb a2 3e 25 65 46 3e
       -0.13096713 0.15055041 0.31796104 0.19374521
0001b0 a9 bc 2a 3e 1e 05 bb bd 76 76 90 be aa cd 8f bd
       0.1667353 -0.091318354 -0.2821538 -0.07021649
0001c0 1f b0 84 3d d1 ef dc be 8f c8 48 be f6 56 85 3e
       0.06478905 -0.43151715 -0.19607757 0.26042908
0001d0 d4 65 a1 bd 11 0c 34 3e 1e e6 9e 3d e5 90 5f 3e
       -0.0788075 0.17582728 0.07758735 0.21832617
0001e0 5a 4b f8 bd 74 42 84 be 84 dd 8a bd f4 5b 50 3d
       -0.12123747 -0.2583195 -0.06780532 0.050868943
0001f0 a2 93 44 bd 47 ef 6e 3e 9f 69 ba 3e 22 8e ea bd
       -0.047992356 0.23333465 0.36408707 -0.11452891
000200 8f 34 84 bd 86 b9 19 bd 85 70 0e be 84 da 63 3e
       -0.06455337 -0.037530445 -0.1391011 0.22251326
000210 14 73 37 bc ab 18 36 3e f5 4e 4c 3d f2 39 79 3e
       -0.01119687 0.17782848 0.049879987 0.2433851
000220 07 8b 2c 3e 09 d2 06 be 58 4b dc bb 5c 1b ce bd
       0.1684991 -0.1316606 -0.006722849 -0.10063812
000230 8f 66 9c 3e 3c a0 1e bd f7 b7 eb 3d 42 65 9a 3d
       0.30546996 -0.03872703 0.11509698 0.07538845
000240 b6 e2 e4 3d ba bf bc bd 68 5a 83 3e 08 3e 29 bd
       0.11176054 -0.092162564 0.25654912 -0.041318923
000250 a2 d7 e3 bd 7e da 1f bc 81 8a 55 3e 9d 7c c0 3e
       -0.11125113 -0.009756682 0.20853616 0.37595072
000260 05 35 8a be 53 d6 98 3d 70 b3 a6 be 70 89 c7 bd
       -0.26993576 0.07462754 -0.32558775 -0.09743011
000270 3e 7f 86 3e 8a c7 92 3e e1 c3 92 3d 7f 71 eb bb
       0.26268953 0.2866786 0.07166267 -0.0071851606
000280 22 15 94 3e f7 2f d3 3e 28 11 b4 3d ee 8b 5e 3e
       0.28922373 0.41247532 0.08792335 0.21733066
000290 60 bd df 3d 09 fd 1b be 9f 48 08 be f0 35 65 3e
       0.10924792 -0.15233244 -0.13308953 0.22383857
0002a0 a6 a5 58 3e f2 53 aa 3e b7 97 04 3e 25 bd 33 be
       0.2115694 0.3326717 0.129485 -0.17552622
0002b0 0e 48 01 3d d6 c6 9e 3e 7a 6e 02 3e 62 f8 bf bb
       0.031562857 0.31011075 0.12737456 -0.005858467
0002c0 59 50 31 3e b5 9b bb be 98 f0 99 3d f9 15 7c 3e
       0.17315806 -0.36642233 0.07516593 0.24617757
0002d0 6e c5 64 3e 47 77 9f 3e 8b 53 83 be 16 7d 9f 3e
       0.22340938 0.3114569 -0.25649676 0.3115012
0002e0 47 b4 a4 3e d2 e7 33 3e 50 b6 82 3e 81 e3 5b 3d
       0.3216879 0.17568901 0.25529718 0.05368376
0002f0 4c 0d 8a be a4 9d 52 bd d3 e4 26 be 9b 61 dc bd
       -0.2696327 -0.05141987 -0.16298227 -0.10760804
000300 0d fa c4 be 70 09 28 3e 5e 6a 42 3d 91 0d f1 bd
       -0.38472024 0.1640985 0.04746472 -0.11770166
000310 1a 64 35 be 95 e2 51 be d5 d8 93 3e 1c a5 99 3e
       -0.17713967 -0.2049659 0.28876367 0.3000878
000320 97 20 4d 3e 42 bd 50 be e6 f6 91 bd 11 3d 8e 3e
       0.20031963 -0.20384696 -0.0712717 0.27780965
000330 39 a2 01 bd 72 43 9b bc 11 0b 9e be c1 c1 61 be
       -0.03164885 -0.018953059 -0.30867818 -0.22046567
000340 82 80 40 3e 3e 77 02 be c8 c2 b1 3e d6 23 d3 be
       0.18799022 -0.127408 0.3471892 -0.41238278
000350 08 4b 50 3d 72 4e 92 3e fc b6 8b be 11 ac 8e be
       0.050852805 0.28575474 -0.27288043 -0.2786565
000360 4a d9 a1 be 0b 4e 48 be 39 9e 8d ba e1 b2 9c be
       -0.3161109 -0.19561021 -0.00108046 -0.30605224
000370 f6 b7 69 be 8d 35 95 be 78 d2 83 bd 80 fa 70 3e
       -0.22824082 -0.29142419 -0.06436628 0.23533058
000380 63 2c 0d be 94 75 44 3b e9 c0 0e be ab ec 2c bd
       -0.13786463 0.0029977309 -0.13940777 -0.04221789
000390 aa 39 33 3d 9e db 26 be 40 65 88 be a2 7f 44 3e
       0.043756165 -0.16294715 -0.26639748 0.19189313
0003a0 ae 15 85 3d 9c 21 b6 3d a4 18 4e 3e 09 4e b8 3e
       0.06498276 0.08893129 0.20126587 0.35997036
0003b0 2a 85 8d be 90 bf 1f bc 22 83 69 3d 53 d5 08 be
       -0.2764066 -0.009750262 0.057009824 -0.13362627
0003c0 f0 de 8a 3e 13 25 b5 bd 04 e0 ee 3c 93 ae 56 be
       0.27123213 -0.08844962 0.029159553 -0.20965032
0003d0 08 7b 90 3d b6 f5 f0 3d 24 63 8d 3e 08 77 c2 3e
       0.07054716 0.11765616 0.276147 0.3798144
0003e0 bf 2e 42 be 16 12 d7 bd e0 9e 62 be d5 2e c1 3d
       -0.18963145 -0.105014965 -0.22130919 0.094327606
0003f0 df ef 8e be 44 87 a5 3d b1 88 f7 3d 4f 5b 08 be
       -0.27917382 0.080824405 0.12086619 -0.13316081

fc1.bias f4 [100]
000000 7d c0 53 be 86 62 84 be f8 4e 9c bc cd fc f5 3d
       -0.20678897 -0.25856417 -0.019080624 0.120111085
000010 b5 2c 5c 3d 15 39 02 be da cd a3 bd f7 37 11 bc
       0.053753573 -0.12717088 -0.079982474 -0.008863441
000020 89 a4 04 be fc 50 b1 be 9d 54 d2 3c 7a 55 21 3e
       -0.1295339 -0.346321 0.025675112 0.15755263
000030 30 a6 14 be 1a c6 64 3e 06 45 1e 3e 7f ef 81 be
       -0.1451652 0.22341195 0.15456018 -0.25378034
000040 ac 9d aa 3e eb 15 82 3e a7 5e 0a be 3a c6 06 3d
       0.3332342 0.25407347 -0.1351267 0.032903887
000050 15 46 e2 3c fd 89 76 be 4f e7 e4 3d 9d 47 66 be
       0.027621308 -0.24076076 0.11176931 -0.22488256
000060 6c 90 be 3d 1f 10 b4 3d 9a 95 5d be 67 c8 84 be
       0.0930489 0.08792137 -0.216391 -0.25934145
000070 e6 97 61 3e 76 6f 49 3e 83 40 3b be 3a 33 97 3d
       0.22030601 0.19671425 -0.18286328 0.073828176
000080 fb 8b 59 3e f5 36 33 3e 53 1b b7 be d5 1c e5 3d
       0.21244805 0.17501433 -0.35763034 0.1118714
000090 9b a0 40 3e 0d 56 c6 3b 56 2b 74 be 3c a7 0f 3e
       0.18811266 0.0060527385 -0.23844656 0.14028639
0000a0 c1 e8 4d 3e 6c 9a 99 3e 75 07 03 bd c6 11 a2 be
       0.2010832 0.30000627 -0.031989533 -0.31654185
0000b0 07 45 2e 3d 7a 33 2d 3d 87 be 92 be de 63 8f be
       0.0425463 0.04228542 -0.28660986 -0.2800588
0000c0 0a 7b 3d 3e 18 83 b9 3e f5 f3 9f 3d ba 40 8f 3e
       0.18503967 0.3623283 0.07810203 0.2797907
0000d0 8c 74 6e be 57 b8 1e be cc 70 02 3c d3 7e 6c 3e
       -0.23286647 -0.15500008 0.007961463 0.23095255
0000e0 7d 26 a0 bc db 48 8b 3e 5d 89 90 3e fb 13 9b 3e
       -0.019549603 0.27204022 0.282298 0.3028868
0000f0 29 ef 61 be b8 ff a4 3e 18 df 8c 3e 30 1e ad 3d
       -0.22063889 0.32226348 0.27513957 0.084530234
000100 0d a5 11 be 1b 23 aa be bf e6 e1 bc 36 a9 18 be
       -0.14223118 -0.33229908 -0.027575849 -0.14908299
000110 f0 d6 ed bc 8b da 19 3d 06 6c 9f 3e 61 df da 3c
       -0.029033154 0.037561934 0.31137103 0.026717843
000120 12 ca 82 3e 30 e1 f7 3d 4b 19 67 be fe 17 84 be
       0.25544792 0.12103498 -0.22568242 -0.25799555
000130 0a 7b 02 3e 3b 75 16 3e 65 c7 8a 3e 13 1f b7 3e
       0.12742248 0.14693157 0.2710525 0.35765895
000140 70 c5 a0 be 36 70 90 be 74 d8 17 3e 19 d5 51 3e
       -0.31400633 -0.2821061 0.14828664 0.20491447
000150 5c dc 87 3e 6f 20 a5 be 0c c4 38 be e3 30 89 3e
       0.26535308 -0.32251307 -0.18043536 0.2679511
000160 35 37 6f 3e df dd 01 be bf fe 8d 3e 60 53 9c 3e
       0.23360904 -0.12682293 0.27733418 0.3053236
000170 e5 a6 89 bc 8f a4 a0 3e 3d 64 8d be 8e 85 4d 3e
       -0.016803214 0.31375548 -0.27615538 0.20070478
000180 4e ec 8c 3e 29 b4 35 bd 75 44 56 3e fd 37 83 3e
       0.27524036 -0.044361267 0.20924552 0.25628653

fc2.weight f4 [100, 100]
000000 9b 53 01 3d 46 b9 82 bd 79 b0 0a bd 92 e7 33 3d
       0.031573873 -0.06382994 -0.033859704 0.043922015
000010 fb 8f 29 bd 19 16 b1 bd 4d 44 ea bc 13 bf 91 bd
       -0.041397076 -0.08646793 -0.028597021 -0.07116523
000020 b1 85 ac bc 36 33 df bd f9 6c dd 3d a9 62 13 bd
       -0.021059843 -0.108984396 0.108118005 -0.03598276
000030 56 0a 01 3d f7 e0 14 3e 1a 19 54 3e f4 06 0d 3e
       0.031503998 0.14538942 0.207127 0.13772184
000040 55 ff 9c bd 18 3d 0a bd 2f 04 3d be 16 bb 81 3c
       -0.07665888 -0.03374967 -0.18458627 0.01583628
000050 35 dc ff 3d 06 25 8d 3d 94 2c 31 3c c7 ee 6b 3b
       0.12493173 0.06891827 0.010813851 0.0036000477
000060 52 ee 2f bd f1 c9 ed 3c 93 48 aa bd 5f 09 d9 bd
       -0.04295189 0.029026957 -0.08314624 -0.105974905
000070 56 67 42 be 35 e5 13 3c e5 dc 1f bc f6 1e 39 3c
       -0.18984732 0.009026815 -0.009757255 0.011298886
000080 32 d6 16 3e 24 bd c1 bc 7d 9a 34 3e 29 bc fa 3c
       0.14730147 -0.02364976 0.17637058 0.0306073
000090 ca aa 4d be 56 7a bd 3d 42 6c 74 3d 39 44 30 bd
       -0.20084682 0.09251849 0.059673555 -0.043033812
0000a0 b9 8f 13 3e e9 64 cc bc 22 b6 15 3e ca df 03 3e
       0.14410295 -0.024950461 0.1462026 0.12878338
0000b0 36 71 e3 3d b7 c6 c2 3d b8 ed 5b bd 9b 34 6c bd
       0.11105578 0.09510558 -0.053693503 -0.057667356
0000c0 fc 20 36 bd 28 2a 0e bd 61 c4 d3 bb e8 1a 38 be
       -0.04446505 -0.034708172 -0.006462619 -0.17979014
0000d0 c0 ae 76 3d b9 7e 1e 3d fe 46 a3 bd b1 ae 76 bd
       0.06022525 0.03869507 -0.07972525 -0.060225192
0000e0 7d db 7d bb 3a 66 2d 3e 97 9f 18 bd 0f 69 06 3c
       -0.0038735562 0.16933528 -0.03726157 0.008203759
0000f0 f7 09 29 3d cf 25 48 bc 2e c4 61 3d c6 7a 2f 3b
       0.04126927 -0.0122160455 0.055118732 0.002677606
000100 64 d4 ee 3d ed 73 fc 3d 41 55 32 3e 5c da 7d 3d
       0.11661604 0.123267986 0.17415334 0.06197582
000110 8d 8a e6 bb a5 bb 3f be 48 92 8c bd 62 d5 c1 bd
       -0.0070355595 -0.18723924 -0.068638384 -0.09464528
000120 e8 cf 4a 3c f8 71 c6 3d 6a c4 5e 3e 04 28 fa bd
       0.01237867 0.096897066 0.21754614 -0.122146636
000130 54 32 21 be c6 32 65 3e a6 7b 06 3d 34 1b a0 bd
       -0.15741855 0.2238265 0.032832764 -0.078176886
000140 2e 2a 9f 3d 06 c2 85 3d 4a 84 9e 3b b2 7d 70 3d
       0.07771717 0.06531148 0.0048375474 0.058713622
000150 f5 2f 2d bd 33 6a 89 3c 86 1e 13 3e 22 29 27 3d
       -0.042282064 0.016774273 0.14367113 0.04081071
000160 f8 2f 2c be ee 09 06 3e 26 6b c9 bc 41 4b 40 bd
       -0.16815174 0.13089725 -0.024587225 -0.046946768
000170 fc 2f e9 bd 4c d0 d8 bd 24 65 58 bd ce 93 e7 3b
       -0.113861054 -0.105866045 -0.05283083 0.0070671802
000180 27 51 cb 3d 36 38 cc bd 8d be a4 3d 4e 2a 9c 3d
       0.09927588 -0.09971659 0.08044157 0.076252565
000190 56 1d 0d be f6 f6 37 bd 5c 31 11 3e 47 9d 03 3e
       -0.13780722 -0.044913255 0.14178985 0.12852965
0001a0 12 9a 69 bd 8f d3 96 3b a5 20 ad 3d ba 7d 45 3e
       -0.0570317 0.0046028565 0.08453492 0.19286242
0001b0 49 70 a7 3b 1a 32 25 3d 4b 36 ef 3d 73 3a 07 be
       0.005109821 0.040330984 0.116802774 -0.1320589
0001c0 64 68 bd bd a3 9a 68 3d 55 fd 89 3d ad cc 33 bc
       -0.092484266 0.056788098 0.067377724 -0.0109740915
0001d0 e2 6b ba 3d 3b b7 ca 3d 01 43 01 3c c5 dc 15 bc
       0.09102608 0.0989823 0.00788951 -0.009146874
0001e0 20 bc f2 bd 17 ac 6b 3d a3 2a fb 3d ba aa c8 3c
       -0.11852288 0.057537165 0.12263992 0.024495471
0001f0 6a 78 39 bd f1 0c 1f 3d b9 41 bb bd 65 f1 97 bd
       -0.04528085 0.0388307 -0.09143395 -0.07419089
000200 05 da e0 bc b3 ee 32 3e 68 39 4b be 0f 40 79 bd
       -0.02744771 0.17473869 -0.19846117 -0.060852107
000210 c7 bb e4 3b 4b 4e ce bc 90 dd 12 3c 30 d2 fa 3b
       0.0069803926 -0.025183817 0.008963957 0.007654451
000220 26 44 b8 bc 76 ea b5 3d 65 c1 79 3d 3d 42 30 bd
       -0.022493433 0.088826105 0.06097545 -0.04303192
000230 25 0e ec bb e0 5d b8 bd 12 ac cc bd e2 c5 a8 3d
       -0.0072038346 -0.0900228 -0.09993757 0.08240868
000240 f0 7e 93 bd 34 70 c8 bd 27 f9 a2 3c f1 42 92 bd
       -0.07201946 -0.09787026 0.019894196 -0.07141674
000250 12 28 2b bb 15 e4 9f 3d d3 a6 ab bc a1 6f 50 bd
       -0.0026116413 0.07807175 -0.020953571 -0.050887708
000260 19 da a0 3d 72 13 90 bd d7 0d 82 3d dd a0 e7 3d
       0.07854099 -0.07034959 0.06350296 0.11309979
000270 6a f0 a1 3d 24 07 df 3c 42 41 ea bc 5f 9f 7f 3c
       0.079071835 0.027225085 -0.02859557 0.015601962
000280 84 bd 1f 3d 53 2d 10 3d 63 65 ba bb 25 3d 04 3e
       0.038999096 0.035199475 -0.005688356 0.1291395
000290 64 5d eb bd 36 2a f2 bd 68 1f 63 bd 61 9f 3e 3d
       -0.11492422 -0.11824457 -0.055449873 0.046538714
0002a0 a9 80 d2 3d 18 63 42 3e c7 04 d7 3d d2 b6 a0 bd
       0.10278446 0.18983114 0.10498958 -0.0784737
0002b0 c2 9e 11 3d bd 55 bc bd 7a 83 94 bd c0 6a fa bd
       0.035551794 -0.09196041 -0.0725164 -0.12227392
0002c0 7f f5 a7 3c a9 7a 4f bd f4 7e 82 3c 5b f2 4b 3e
       0.020502804 -0.050654087 0.015929677 0.1991667
0002d0 23 b3 3d bd 18 73 cf bd 7d 6a f8 bd 6a 85 c9 bd
       -0.046313416 -0.10129374 -0.12129686 -0.098399
0002e0 d2 6e a1 3d b3 74 c0 3c 6a 51 6a 3d 4f 61 90 bd
       0.078824654 0.023493147 0.05720655 -0.0704981
0002f0 6d 72 de bd 72 8d 7f 3d 58 42 85 3d 8b 84 ba 3c
       -0.10861669 0.062390752 0.06506795 0.02276828
000300 58 c2 f1 3b 0a 8f d3 3d 3d 7a 5b bd 1e b6 99 3d
       0.007377904 0.10330017 -0.053583372 0.07505439
000310 60 c3 03 bd d7 91 68 bc 80 87 65 3d 5e 35 d6 3b
       -0.032168746 -0.014194927 0.056037426 0.0065371236
000320 46 47 c6 3d 32 5d 86 bd dc 03 9e 3d 03 c5 41 3d
       0.09681563 -0.06560744 0.0771558 0.047307026
000330 a6 50 92 bb ab 25 c4 bc ff df 84 3c 4f c7 2c be
       -0.0044651804 -0.023943743 0.01622009 -0.16872905
000340 42 33 05 3d a8 8f ac 3c cd 92 a4 bd 51 ed 3c 3e
       0.032519586 0.021064594 -0.080358125 0.18449904
000350 0e e9 3b 3c 49 83 2f 3e 73 15 b9 3d 4b 23 5e bd
       0.011469139 0.17139925 0.09037294 -0.054232877
000360 2a 64 f4 3d a6 7f 5d 3d ae d0 ff bc b1 fd 9d 3c
       0.11933167 0.054076813 -0.031227436 0.019286009
000370 0a c9 52 3e 74 03 21 be 19 e7 df 3d 3b 19 c0 bd
       0.20584503 -0.15723974 0.1093275 -0.09379812
000380 87 cc 9e bd 91 48 24 3d 2d 3f 5f bd 1d 8d f1 3c
       -0.07753854 0.040108267 -0.05450361 0.029486233
000390 e4 c1 97 bd d7 47 9f 3d 8c 48 cd bc 11 60 34 3d
       -0.074100286 0.07777374 -0.025059007 0.04403693
0003a0 f1 33 18 3e 9a 1f a9 bd 6f 98 03 bc 57 68 00 3e
       0.14863564 -0.08257981 -0.0080319485 0.12539802
0003b0 13 cc 05 bd b7 72 8e 3d 6d 70 60 be f3 3a 65 3c
       -0.032665323 0.06955474 -0.21917887 0.013991105
0003c0 51 bb 94 3d 51 b6 c7 bd 2d 75 95 bd 7b 67 f1 3d
       0.0726229 -0.09751571 -0.0729774 0.117873155
0003d0 e0 9a 82 3c 11 82 b7 3c f8 ce 15 3c 5d fc 01 be
       0.01594299 0.022400888 0.0091435835 -0.12693925
0003e0 60 18 7b bc 2c 1e fc bc a9 11 03 3d d3 26 05 bd
       -0.015325636 -0.030776106 0.031999264 -0.03250773
0003f0 27 4f ef 3c 4c d5 bf bd 26 f5 4d bd 99 f6 03 3d
       0.029212547 -0.09366855 -0.05028262 0.032217596

fc2.bias f4 [100]
000000 8d ad ee bd cb b5 c4 3d a5 0c 1c bd 8a 3f 8a bd
       -0.11654196 0.09604987 -0.038097996 -0.067504
000010 ed 9f f9 bc ad 99 82 bc f1 73 01 3e 87 e1 14 be
       -0.030471766 -0.015942419 0.12641884 -0.14539157
000020 b3 ad 64 3c 9e 04 86 be 39 94 85 3d 52 02 16 3e
       0.013957429 -0.26175398 0.06522412 0.14649323
000030 c2 80 18 bc e8 2e 55 bd 0c 64 de bc 7e 62 69 bd
       -0.009308042 -0.052046686 -0.027147315 -0.056978695
000040 49 d4 35 be b4 2a 31 3e 84 12 88 bd 02 cd e9 3d
       -0.17756762 0.17301446 -0.066441566 0.11416055
000050 47 08 37 3d ba cb 2f 3d 12 29 7a bd be 9c 93 ba
       0.04468563 0.0429189 -0.061074324 -0.0011261923
000060 e0 0c a8 bc 91 cb 1c 3e 7f 90 49 bc e9 77 96 3d
       -0.020513952 0.1531203 -0.012302517 0.0734709
000070 68 22 f8 bd c5 7f 66 3d 41 78 ff 3c 6a 99 62 3d
       -0.121159375 0.056274194 0.031185271 0.05532209
000080 2a a2 8c bc 49 60 5d 3d 4a 0d 5a 3d 92 1a c8 3d
       -0.01716717 0.054046903 0.05323533 0.09770693
000090 a4 30 8f 3c af ca d7 bc 7c d8 f2 bd 60 ee be bc
       0.017479248 -0.026341764 -0.11857697 -0.023307025
0000a0 f6 03 95 bd 2c 86 0a 3d b7 41 c5 3c f6 b1 fd bb
       -0.07276146 0.033819363 0.024079187 -0.007742162
0000b0 c2 ad 98 3d 5a fd cf 3c 45 84 d3 bd fe bb 54 bd
       0.07455017 0.025389362 -0.10327963 -0.051937096
0000c0 2e 6a 1e bd f2 6b c7 3c 52 bd 6f 3d 85 b4 79 bd
       -0.03867548 0.024343465 0.05853016 -0.060963172
0000d0 e1 6e 08 3e f1 37 1d be c9 20 99 3d 7c ec 89 3d
       0.13323547 -0.15353371 0.074769564 0.06734559
0000e0 c3 2f 08 be 4a 89 9c 3d f6 65 4e bd 13 87 fc bc
       -0.1329947 0.07643373 -0.050390206 -0.030826127
0000f0 80 b2 8c bd 10 75 8d 3d 92 f7 72 bd 6c ab 85 3d
       -0.06869984 0.069070935 -0.059318133 0.06526837
000100 bf c2 87 bd 9a 53 34 3d 5f 87 1e 3d cf 7f a7 bd
       -0.06628942 0.04402504 0.03870332 -0.081786744
000110 7d fd 9f bd 07 34 06 3c e6 52 e8 3d cb f8 b0 3b
       -0.07812021 0.008191115 0.113439366 0.005400752
000120 3a 58 fe 3c ed bc 0b 3e 9c 0e 15 bd 19 10 f0 3d
       0.03104793 0.13646288 -0.036390886 0.117218204
000130 2e 0a 01 bd 1b 21 ea 3c 32 67 8c bd 72 01 bb bd
       -0.03150385 0.028580239 -0.068556204 -0.09131135
000140 20 99 15 3d 09 63 2b be 94 dc bb bc d9 01 83 bd
       0.036522985 -0.16736998 -0.022932328 -0.06396837
000150 59 9e 9e 3d d1 67 f1 3d a9 82 80 bc 7c 82 6e bd
       0.07745046 0.117873795 -0.015687304 -0.05822991
000160 b8 06 1b 3e 9b d6 e3 3d b5 f8 db bc cf 76 7e bd
       0.15139282 0.11124917 -0.026851991 -0.062125023
000170 c8 b6 44 3d e4 fb 8d 3d 2f e1 f7 bd fc 88 b8 3d
       0.048025876 0.0693281 -0.12103497 0.09010503
000180 13 08 7b 3e 36 13 72 3d 17 89 50 bd 14 7c ab bd
       0.24514799 0.059100352 -0.05091199 -0.083732754

fc3.weight f4 [3, 100]
000000 ee ba 4a 3c 71 44 7f 3d 5d 1b a1 3c 1c 72 7e bd
       0.012373669 0.06232113 0.019666368 -0.062120542
000010 1e fc a9 3d 53 e2 2a 3d dd fc 41 3d 6b ce 7f bd
       0.08300041 0.041719746 0.04736029 -0.062452715
000020 c5 3e 20 bc a7 30 ea bd a4 db 98 3c e0 19 39 3d
       -0.00978059 -0.11435061 0.01865942 0.045190692
000030 8d b3 73 3b d7 d6 81 bc 2c e6 4b 3c 36 d6 63 bd
       0.0037185878 -0.015849514 0.012445014 -0.05562421
000040 36 ce b9 bc 38 ba c4 3d 2f cf 04 3c 2c 26 4f 3c
       -0.022681337 0.09605831 0.008106037 0.012643378
000050 ba ce b4 3c 78 a5 dc 3c 6b 59 28 3c ce 51 9c 3d
       0.022071231 0.02693437 0.010275225 0.076327905
000060 9b 5e 11 bd 30 01 d8 3c 63 8f f4 bc 2d 41 f7 bc
       -0.035490613 0.026367754 -0.029853528 -0.030182445
000070 9e 0e 99 bc db 4c 14 3c f3 c8 99 bd 07 61 ed bd
       -0.018683728 0.009051527 -0.07509031 -0.11590772
000080 46 7b df 3d a0 64 04 3d ff 87 1e bd c3 87 8a 3d
       0.109121844 0.032322526 -0.038703915 0.06764176
000090 39 e5 0b 3d 93 83 7f bd 10 da b3 bc 8f 36 bf bb
       0.03415415 -0.06238134 -0.021954566 -0.0058353613
0000a0 60 e7 75 bd 65 ea a7 3d 35 94 9e 3b 78 c4 73 bd
       -0.06003511 0.08199004 0.004839445 -0.05951354
0000b0 3c 35 30 3d 6a be 98 3d 2a ac 0f be 6f 03 21 bd
       0.04301952 0.074581936 -0.14030519 -0.039309915
0000c0 8b 4c 59 bd ee 8f e8 3c 62 9a 1b bc 75 09 55 3d
       -0.053051513 0.028388944 -0.009497257 0.052010972
0000d0 6c 51 14 3d 1d 40 59 bd 1e d7 50 3d 35 a1 6e 3d
       0.036210462 -0.05303966 0.0509864 0.058259208
0000e0 5b 6b 41 3e 2c 6f a9 3c 78 51 b3 3c a9 da fb 3c
       0.18888609 0.020682894 0.021889433 0.030743914
0000f0 45 a2 14 bc 1a 3e 80 3d 78 69 7e bd 08 29 92 bb
       -0.009071891 0.06261845 -0.0621123 -0.0044604577
000100 de 9d 15 bd 9f 63 cd 3c ca e3 81 3c ac 7f 39 3c
       -0.036527507 0.025071917 0.015855689 0.011321943
000110 8d 36 4f 3d f3 ce 8d bd 7d cb de bc f3 37 8f 3d
       0.050589133 -0.06924238 -0.02719664 0.06993093
000120 bb 65 83 bd 05 b8 b1 3d 88 9d bc 3d 2e 73 b8 3d
       -0.06415888 0.08677677 0.09209734 0.09006344
000130 77 c7 55 3d bc 1c 33 bc bd 30 7d 3b 90 85 26 bd
       0.052192178 -0.010932144 0.0038633787 -0.04065472
000140 eb 8c cc 3c bd 60 b1 bb 10 7b b0 bc 45 ed d5 3d
       0.024969539 -0.0054131434 -0.021543056 0.10445646
000150 fc 62 c1 bc b6 a3 42 bd ce c7 64 bd a4 39 35 3d
       -0.02360677 -0.04751941 -0.05585461 0.044244424
000160 bc 35 03 bc 7d 5f bd bc cd af 7e 3d 9f ab f3 3c
       -0.008008417 -0.023116821 0.062179375 0.029744921
000170 61 58 2b 3d ad 97 e8 3d 65 aa 97 bc e3 00 bc 3c
       0.04183233 0.11357055 -0.018513868 0.022949642
000180 37 da 6c 3d 0d 9d 2a 3d 3f b2 cf bc ab c9 31 bc
       0.057825293 0.04165368 -0.025353549 -0.010851304
000190 6b 01 07 3e 71 1b 8d bc 1e f2 15 3e 21 ee 36 bd
       0.13184135 -0.017225 0.14643142 -0.04466069
0001a0 51 37 18 bd 97 bb 50 bc 79 50 fb bc 99 5a 88 bb
       -0.03716213 -0.012740037 -0.03067802 -0.0041611907
0001b0 bd 62 bb bd c2 6d 14 be 8b 16 3f 3d 38 3b 2a 3d
       -0.09149692 -0.14494994 0.046652358 0.04156038
0001c0 af 09 0a bd d2 f2 b5 bd 14 ae 9a bd 49 be 2b bd
       -0.03370064 -0.08884205 -0.07552734 -0.041929517
0001d0 f0 bd 15 3c 54 50 80 3d 05 1a 4e 3c f0 63 0d 3e
       0.009139523 0.062653214 0.012579446 0.13807654
0001e0 d8 bb 9f 3d 38 2c 20 3d fb 2b 05 be 38 9a 45 3d
       0.077995 0.03910467 -0.13005058 0.048242778
0001f0 cb f3 28 bc d0 a0 c5 bd f5 73 89 bd 1f f1 25 bb
       -0.010312031 -0.09649813 -0.0671157 -0.0025320721
000200 58 15 f6 bd 0b 64 09 3e c9 11 ab 3d 1f b5 c5 3d
       -0.1201579 0.1341707 0.083530016 0.09653687
000210 cd 4a 14 3d e6 90 39 3c 6b 7f 29 bd a9 7c 11 3d
       0.036204148 0.01132605 -0.04138128 0.035519276
000220 a3 fc 5d bd 09 9d 71 bc dc 92 c5 bb 82 4a d0 3c
       -0.05419601 -0.014746913 -0.00602947 0.025426153
000230 e7 f0 ee 3c 62 46 7f bd 47 8c b0 bd 60 cd 6b 3c
       0.029167606 -0.06232298 -0.08620506 0.014392227
000240 c2 bd da ba 04 f4 68 bc 5c 58 19 be 16 07 61 bd
       -0.0016688632 -0.014218334 -0.14975113 -0.0549384
000250 99 7c 0b 3d e8 42 cf 3c 4d 5e b7 bd 69 05 9c 3c
       0.034054372 0.025300458 -0.08953533 0.019045549
000260 98 25 c1 3d 87 d1 69 bd 4e f4 06 3d dd 58 46 bb
       0.094309986 -0.057084586 0.03294783 -0.003026537
000270 5b 5b ad 3c 19 d0 dc bd 00 28 9e 3c f5 7e ab 3d
       0.021161726 -0.10781879 0.019306183 0.083738245
000280 df 0d d3 3d 92 49 6f bd 4d 0f 1a be 09 6d 09 bc
       0.1030538 -0.05841977 -0.150449 -0.008387812
000290 f2 ee a7 bc c9 62 1c 3d 43 94 9d bd e5 4e 7d 3a
       -0.02049968 0.038180146 -0.07694294 0.000966294
0002a0 dc ca 19 3d 85 39 c6 bb 9f 56 06 bb da b8 f5 3b
       0.037546977 -0.0060493373 -0.0020498408 0.0074988427
0002b0 96 7f 85 3d ea 38 db 3d 8b 2e 56 bd 71 f1 03 be
       0.06518476 0.10704215 -0.05229048 -0.12885071
0002c0 c4 5f 10 3e 58 52 98 bc 62 74 9e 3d 41 50 de 3d
       0.14099032 -0.018593952 0.07737042 0.10855151
0002d0 0d fb cc bc a7 03 0b bd a8 56 f5 bc cb f8 03 be
       -0.025022054 -0.03393903 -0.029948547 -0.12887876
0002e0 ee 47 85 bd 7c e0 77 bc 0a 15 0c bd c2 6f 01 be
       -0.0650786 -0.015129205 -0.034199752 -0.12640288
0002f0 fe 9d 07 3e 95 9d f5 3c 6a 3c a9 bd 42 21 59 3d
       0.13243863 0.029982368 -0.08263476 0.053010233
000300 dc ef af bd f2 0b ab bc 9e 47 87 3d ee ad e1 bc
       -0.085906714 -0.02087972 0.06605457 -0.027548756
000310 9e 84 1a 3e 87 d8 84 bd 21 29 b3 bc 59 cf 28 3e
       0.15089652 -0.06486612 -0.021870198 0.16485347
000320 50 cc af bd f6 84 28 3b dd fa 42 3d a8 5b 75 bc
       -0.085838914 0.0025714017 0.047602523 -0.014975466
000330 10 4b 01 be fe a1 de bc f7 1c 19 be 42 a7 76 be
       -0.1262629 -0.027176853 -0.14952455 -0.24087241
000340 e8 e6 e1 3c e3 ea 89 bd 2e 61 05 3e aa 43 19 bd
       0.027575925 -0.06734254 0.13025352 -0.037418045
000350 f9 a4 41 3c bd 04 89 bd 08 d2 c1 3c 00 ad 61 bb
       0.011819118 -0.06690357 0.023659721 -0.0034435391
000360 c5 7f cb 3d e9 4a b5 bc ff aa c3 3c 43 62 0e 3d
       0.099364795 -0.022130447 0.023885248 0.03476168
000370 59 4a 5d 3d 7b 9a fc 3d 22 9e 77 bd 79 d9 60 bd
       0.05402598 0.12334152 -0.06045354 -0.054894898
000380 44 60 3c bb ee 58 38 3d b1 e2 11 3d 3d 3b a7 3c
       -0.0028743902 0.045006685 0.03561658 0.02041399
000390 b9 81 d6 bc 89 fc e3 bd 89 17 c6 bd f0 17 36 be
       -0.026184903 -0.11132152 -0.09672458 -0.17782569
0003a0 3a 2d 1c bd 45 f9 17 3e 00 00 c1 bd 13 00 92 bd
       -0.03812907 0.14841183 -0.09423828 -0.071289204
0003b0 e7 27 e2 bd 59 4f 7c bd 17 32 00 bd 17 70 0e bd
       -0.11042767 -0.06159911 -0.03129777 -0.034774866
0003c0 f9 ea b9 bc 90 3f 84 3d 33 64 db 3c bd 16 e4 3c
       -0.022695052 0.06457436 0.026781177 0.027842874
0003d0 d6 e9 85 bb 0c 33 0f 3c 8b fa 37 3c 5b 2a 4b 3d
       -0.0040867133 0.008740198 0.011229168 0.04960094
0003e0 4a 7a 78 bc 38 f2 f5 3c 88 61 6b 3d 28 44 d7 3d
       -0.015165875 0.030022725 0.05746606 0.10511047
0003f0 48 2f 94 3d 29 db 92 3d bb 4e 98 3d dd 6a 6e bb
       0.07235581 0.07170708 0.07436892 -0.0036379613

fc3.bias f4 [3]
000000 c4 76 0d 3d e3 f4 63 bc c3 6a 6c 3c
       0.03453709 -0.013913366 0.014429751

fc1.weight f4 [100, 11]
000000 13 20 7f be 1e 38 46 3e 9b 3d 98 bc e5 56 74 be
       -0.24914579 0.19357345 -0.018584063 -0.23861273
000010 53 29 13 3d 97 aa 88 3d 1d 51 90 3b 47 b5 af 3d
       0.03592808 0.066731624 0.0044042007 0.08579498
000020 b0 76 6a 3d fd c4 88 3d d2 8b fd 3c 5f 68 6d bc
       0.057242095 0.066781975 0.03095046 -0.014490216
000030 c6 99 3e be 69 45 89 3e 0f 00 af 3d 9a d9 c6 bc
       -0.18613347 0.26810768 0.08544933 -0.024273682
000040 b9 20 df bd d5 00 31 be 04 f5 b9 bc 70 f7 19 bd
       -0.10894913 -0.17285474 -0.02269984 -0.03758949
000050 dc c5 03 3e 70 74 ea 3d b1 e3 d2 bd 5e 3d 2f 3d
       0.12868446 0.1144799 -0.10297335 0.042783134
000060 9b 58 5d be 3b d0 3c be ac 41 f8 3d 93 50 0b 3e
       -0.21615832 -0.18438809 0.12121901 0.13604955
000070 67 14 da bd a2 47 75 3e d5 19 c9 bd ce 0f 4c bd
       -0.10648423 0.23953107 -0.0981938 -0.04981976
000080 a5 24 e4 3d 6c 8f 02 3e 32 69 95 be fe b4 ab 3e
       0.11139802 0.12750024 -0.2918182 0.33536524
000090 5d 95 c7 3d 63 9f 72 bd 14 64 92 bc 75 ff 2f 3e
       0.09745286 -0.059234034 -0.017869987 0.17187293
0000a0 aa b3 13 3e e3 bd ed bd 82 82 d8 3d 72 44 4c bd
       0.14424005 -0.11608484 0.105717674 -0.049869962
0000b0 50 d4 52 be 79 08 98 3d f7 2b bc 3d ac 59 7d be
       -0.20588803 0.07423491 0.09188073 -0.24741238
0000c0 38 26 14 be 9f 27 43 bd ad d5 d7 3c 77 67 12 3e
       -0.14467704 -0.047645207 0.026347006 0.14297281
0000d0 58 3e 2a bc cc 35 17 3c 35 e8 4e bd 5e 55 89 be
       -0.0103908405 0.009229135 -0.05051442 -0.26822942
0000e0 07 16 26 3e a8 2b 26 bd 68 29 52 be b4 0f fe bd
       0.1621934 -0.040568978 -0.20523608 -0.12405339
0000f0 6e fc c3 3d 5b 33 4a bd b3 e4 05 3e bb 31 e0 3d
       0.095696315 -0.049365383 0.13075523 0.10946985
000100 fb 9d fd bc 9c c9 68 ba 82 41 c0 be 2c 55 41 3e
       -0.03095912 -0.000888014 -0.37549978 0.18880147
000110 03 78 0e 3e 7e cd 55 3d 6f e9 02 be a9 63 b4 bd
       0.13912968 0.052197926 -0.1278436 -0.08808071
000120 77 9e 0d 3e 16 2f d2 bd 68 50 d5 3d 1c f7 14 3d
       0.13829981 -0.10262887 0.10415727 0.036368474
000130 11 38 96 bd c9 d5 5c 3e 86 c1 0d 3e 51 fe 45 3c
       -0.073349126 0.21565928 0.13843355 0.01208456
000140 80 44 82 be a3 c7 fc bd a0 91 3a bd 8b 5a eb bd
       -0.25442886 -0.12342765 -0.045549035 -0.11491879
000150 06 95 1c be 1e f3 90 3e 3f d4 2f be 8e 72 c2 3d
       -0.15291223 0.28310484 -0.17170809 0.09494506
000160 92 82 86 be 45 c5 c1 bc 1d 98 a6 be 2f b9 54 3e
       -0.26271492 -0.023653636 -0.32537928 0.20773767
000170 b5 ed 36 3e da af 65 be f1 69 0e 3e f3 0e 88 3e
       0.17864116 -0.22430363 0.13907601 0.26573905
000180 06 a9 86 be 1a 1a ff bd b6 41 e7 3d 9f 1e a4 bd
       -0.2630083 -0.1245615 0.1129183 -0.08013653
000190 b6 6d 8c 3e 25 ce 20 be e8 a1 50 bc 7d 3f 52 3e
       0.27427453 -0.15703638 -0.012733914 0.20532031
0001a0 d1 b9 83 3d 89 49 08 3e ec a5 74 3e db 9d 86 be
       0.06431926 0.13309301 0.23891419 -0.2629231
0001b0 ce 1a eb bd 33 b9 1e 3e db 26 a1 bd 25 65 16 be
       -0.11479722 0.15500335 -0.07868739 -0.14687021
0001c0 15 95 0f 3c 9b dd 59 3e 2e 89 f3 3d 2f e7 23 3e
       0.008763571 0.21275942 0.11891399 0.16006158
0001d0 0e 55 91 3c be 3d fb bd c8 3e cb bd 45 25 1e 3e
       0.017740753 -0.12267636 -0.09924084 0.15443905
0001e0 ca a1 8a 3d 4a 12 13 3d 44 c1 1d bc 38 b7 8a 3e
       0.0676914 0.035906114 -0.009628598 0.2709291
0001f0 24 f9 2d 3e 97 13 97 3e bb e5 47 3e 5f be c7 3b
       0.16989571 0.29507133 0.19521229 0.006095692
000200 22 cd 2a be 28 75 5d 3e 72 19 56 3e b5 14 b2 bd
       -0.16679814 0.21626723 0.20908144 -0.08695356
000210 31 cb 82 3d d8 cf a8 3d 8c d6 bd 3e be 68 1c 3e
       0.06386412 0.08242768 0.3707775 0.15274331
000220 15 86 1c 3d 75 f6 2d bc 61 3e 93 3d de 2e 18 be
       0.038213808 -0.010617842 0.07189632 -0.14861628
000230 5a f6 50 3e a3 01 0d bd 93 a4 a4 3d 28 8f 38 3e
       0.20406476 -0.03442539 0.080392025 0.1802336
000240 65 5d 84 bd cd 41 28 3e 0e 0e 42 3e 7a c4 34 3d
       -0.06463126 0.16431351 0.18950674 0.044132687
000250 3d 6c 64 3e 51 0a b1 3d 9b 7d f4 3c 62 b0 5d 3e
       0.22306915 0.08644546 0.02984505 0.21649316
000260 65 f8 f0 3d 4e 6c 4c 3e f5 26 bc 3d a5 f7 7c be
       0.117661275 0.1996319 0.09187118 -0.24703844
000270 06 31 6e 3e 9a 90 0c 3e ea 14 41 3c df 26 11 bd
       0.23260888 0.13727036 0.011784771 -0.03543746
000280 fb 74 0a be 31 9b 11 be 6b 20 b6 bd 1e 7c 3f bd
       -0.13521187 -0.14219357 -0.08892902 -0.046749227
000290 6f 48 d3 3d a7 fa fe 3d 84 2c ac be c3 7f d8 3e
       0.1031655 0.12450152 -0.33627713 0.42284974
0002a0 ea c5 43 be 88 5a 4c be d0 25 ab bc a2 e7 43 3e
       -0.19118467 -0.1995641 -0.020892054 0.1913133
0002b0 24 bd b4 3d 0f e2 cf bd fd 4e a1 bd f7 74 bd 3d
       0.08825138 -0.10150539 -0.07876394 0.09250825
0002c0 8d 64 2b be 25 50 d3 bd b7 b1 9c 3e 43 6c 62 be
       -0.16737576 -0.10318021 0.30604336 -0.22111611
0002d0 13 c4 31 be 4d aa 10 be 6a 45 e8 bd f8 3f 9a bd
       -0.17359953 -0.14127465 -0.11341365 -0.07531732
0002e0 8c 84 02 be ab 76 0e 3e 66 cc 40 3d 59 6b 6a 3e
       -0.12745875 0.13912456 0.04706993 0.22892512
0002f0 60 7c 29 3d a2 f2 cd bd 01 96 89 3d 14 9e a8 bd
       0.04137838 -0.10056044 0.06718064 -0.08233276
000300 a9 c1 af 3d d4 46 ec 3d 3c fb 65 be f1 f6 0a 3c
       0.085818596 0.11536947 -0.2245912 0.008481727
000310 b5 22 32 3e d6 26 28 be 10 dd c4 bd 4f 99 95 be
       0.17396052 -0.16421065 -0.09612477 -0.29218528
000320 e5 63 dd 3d e9 12 e3 3d ed 98 23 3e 66 a3 79 bc
       0.10810069 0.11087591 0.15976305 -0.015236711
000330 c9 a9 98 be 32 ca c8 3d 3f ba 01 3e 7f 0f 01 3e
       -0.29817036 0.09804191 0.12668703 0.12603568
000340 f2 90 ed 3d 38 ca 0b 3e fb 55 5b be 32 54 8d 3d
       0.11599912 0.13651359 -0.21419518 0.069008246
000350 66 0b 47 3e 74 cf 18 3e fe f2 33 3d 7d 58 09 3e
       0.19437942 0.14922887 0.043932907 0.13412662
000360 d2 e6 49 be 21 20 94 3d 4a 61 44 3e fc dc 10 3e
       -0.19716957 0.072326906 0.19177738 0.14146799
000370 be 37 32 be 78 ba 05 be 09 09 41 be 65 fe 0d 3e
       -0.17404076 -0.13059413 -0.18851103 0.13866575
000380 9b ee 87 bd f1 12 74 3e 02 f3 a8 3d 86 8e 08 bd
       -0.06637307 0.2383535 0.08249475 -0.033339046
000390 a1 b5 53 3c f8 51 fc bd 75 e7 0c be e6 93 57 3e
       0.012921722 -0.12320322 -0.13760169 0.21052513
0003a0 70 9c b7 bd 05 8d 2d 3e 95 cc d6 3e 70 67 8d 3d
       -0.08965385 0.16948326 0.4195296 0.06904495
0003b0 20 35 7a bd a9 b3 fd 3c f2 de a6 bd 9b f7 28 3d
       -0.06108582 0.030969458 -0.08147992 0.04125176
0003c0 40 9a e8 bd ea 6b 23 3b 1e 97 ea bd 4e 35 aa 3d
       -0.11357546 0.0024936148 -0.114546046 0.08310948
0003d0 d8 ae 74 be 9e 19 16 be ec 9d 6f 3c b8 bd f1 3b
       -0.23894823 -0.1465821 0.014625054 0.0073773526
0003e0 ce 82 9f bd 28 1f b8 3d f4 b9 a9 bc 04 8f f6 bc
       -0.07788621 0.089903176 -0.020718552 -0.030097492
0003f0 e2 04 c7 bd fb 01 89 3e c8 6f 9a be 1b ae cf 3d
       -0.09717728 0.26759323 -0.30163407 0.1014063

fc1.bias f4 [100]
000000 64 7b 25 3f 32 33 0a bf 4e aa 06 3f f8 38 d3 be
       0.64641404 -0.5398437 0.52603614 -0.412544
000010 bc 75 4b be ef 7c 1d 3f de 08 df be 0b c8 86 be
       -0.19869131 0.6151876 -0.43561453 -0.26324496
000020 d3 7a fa be 95 e2 02 bf 71 5d 9e 3e 38 7b 7d 3d
       -0.48921832 -0.51126987 0.30930665 0.06188509
000030 c3 1d ef 3d 5c 6e 07 bf a0 fc c8 3e d2 ae 61 be
       0.116755985 -0.5290277 0.39255238 -0.22039345
000040 c1 df e4 be 1a 77 f4 be 7c 59 18 bf 1f a2 0d bf
       -0.4470196 -0.47747117 -0.5951154 -0.553255
000050 63 1a d6 3e 90 bc bd be 26 73 02 3f ac 56 da be
       0.41817006 -0.37057924 0.5095695 -0.4264425
000060 ba 73 0f 3f ec dc 81 3e e9 35 bf be 1d 12 d2 bd
       0.5603596 0.25363863 -0.37345818 -0.10257361
000070 67 12 8b 3e 10 f2 e1 3e 51 0d df be f4 b6 cc be
       0.27162477 0.44129992 -0.43564847 -0.39983332
000080 fb 5d 73 3e 93 ac 9b be d0 4f e1 be 52 da fe 3e
       0.2376632 -0.304051 -0.44006205 0.4977594
000090 99 9e d4 be 31 58 bc 3e bc e9 b4 3e 15 26 98 3e
       -0.4152725 0.36786035 0.35334575 0.29716554
0000a0 86 32 70 3e 85 e5 ae be 24 09 e0 3e ae de b4 be
       0.23456773 -0.34159485 0.43756974 -0.3532614
0000b0 8c a7 44 3d 5f 04 ab be 92 45 07 bf d9 63 06 bf
       0.048011348 -0.33401772 -0.5284053 -0.52496105
0000c0 f5 92 f9 be 1e 7b df 3e a1 9f 07 3f 4c 72 13 bf
       -0.48744932 0.43648618 0.5297795 -0.5759628
0000d0 23 ce ef 3d 2d e2 85 bc b3 45 89 be cc 3f ed be
       0.11709239 -0.0163432 -0.2681099 -0.46337736
0000e0 07 e0 fa 3d f3 bc 2b 3e 62 58 dd be 54 dc e3 be
       0.12249761 0.16771297 -0.43231493 -0.44504035
0000f0 76 83 33 3e c4 01 2c 3e 40 95 c5 be 4e 3d 95 be
       0.17530617 0.16797549 -0.3859043 -0.29148334
000100 fa f7 de bd 98 0d db be e8 d5 0f 3e 6d 0c 0e bf
       -0.108871415 -0.4278381 0.14046443 -0.5548771
000110 50 d2 93 3e 9c d4 ed 3e 79 ee 61 3e 7d b1 19 3f
       0.28871393 0.4645127 0.22063626 0.6003645
000120 3d 6c be bd c6 fa a9 be db 1f 83 be 74 b0 f2 be
       -0.092979886 -0.33199137 -0.2561024 -0.47400248
000130 93 89 08 bf 6b 20 70 be bb 0b 67 3e 72 7e 86 be
       -0.5333492 -0.23449866 0.22563069 -0.26268345
000140 dc 38 f8 be 6d b8 a8 be af 04 d2 be 8e 3b 85 3e
       -0.4848088 -0.32953206 -0.41019198 0.26022
000150 85 6c c6 be e0 d8 1c be 71 20 09 bf 2d a6 fa be
       -0.3875467 -0.15317106 -0.53565127 -0.48954907
000160 3e aa eb be 16 fd aa be f2 62 44 3e 78 2a f9 3e
       -0.46028322 -0.33396214 0.1917837 0.48665214
000170 ba b2 f4 3e 47 cc 71 be 37 03 be be 16 63 c0 3e
       0.47792608 -0.23613082 -0.37111828 0.37575597
000180 c9 26 1b 3f 27 33 b2 be 97 98 ea be 56 39 d6 be
       0.60606056 -0.3480465 -0.45819542 -0.4184062

fc2.weight f4 [100, 100]
000000 bf fa 79 3d fc af 0c bd 58 89 2a bc 86 b1 f7 bc
       0.061030146 -0.03434752 -0.010408722 -0.030236017
000010 8a db f6 bd e8 61 95 3c 68 95 e9 bc e3 e0 16 be
       -0.120535925 0.018235162 -0.028513625 -0.14734225
000020 e1 09 1a be d3 1e 17 be 9a 8e 30 3e 43 0d f1 3d
       -0.15042831 -0.14757852 0.17241898 0.117701076
000030 ac 90 b3 3d 0f ac d9 bc 47 2e c0 3d 10 e0 4e bd
       0.08767828 -0.026571302 0.09383827 -0.05050665
000040 93 25 c6 bd 18 54 fe bc 55 81 8c 3c 84 b7 d9 3c
       -0.096751355 -0.031045958 0.017151514 0.026576765
000050 75 d4 76 3d 77 eb 31 3d ed ea f9 3c 7a a8 d2 bc
       0.06026121 0.043437447 0.03050753 -0.025715102
000060 ae bb 39 3d cb 71 e7 3d 47 9f e4 3b 3a e1 c8 bd
       0.045345 0.11301001 0.006976995 -0.098085836
000070 9f e6 1c 3e 82 34 e5 3d 2d 68 a7 bc 9c b8 41 be
       0.1532235 0.11191656 -0.020435417 -0.18918079
000080 28 2e 8f 3d ca 3e 8f bd 3a a9 3e be 2c 7c a2 3c
       0.069912255 -0.06994398 -0.18619242 0.0198346
000090 a1 2b c7 bd b7 e9 11 3c 04 a2 d0 3d a1 e6 e9 3d
       -0.097251184 0.00890582 0.10187152 0.11420942
0000a0 66 a9 f5 3d 14 e4 02 be 73 f4 3a 3e 3b 23 32 3d
       0.11995201 -0.12782317 0.18257312 0.04349063
0000b0 a0 7e 3c bd 15 bc 29 be 58 7b b2 bd 0c e8 0e bd
       -0.046019197 -0.16575654 -0.08714932 -0.034889266
0000c0 ac 18 ed bd 39 24 8e 3d f5 4a ea 3d af 0b 22 bd
       -0.115769714 0.06940503 0.11440078 -0.039561924
0000d0 f1 15 cf 3d 08 85 a9 3d b3 2c b0 bc 52 d9 36 3d
       0.10111607 0.08277327 -0.02150569 0.044640847
0000e0 fd 9d d3 3d 8d a7 29 3d 9e 5b 27 be 3b 70 33 bd
       0.10332868 0.041419555 -0.16343543 -0.043808203
0000f0 ca ea a2 3d 24 88 a9 3d a3 fb 24 bc 93 a3 3a bc
       0.07954939 0.0827792 -0.0100697605 -0.011391538
000100 b6 00 9e ba 33 35 1c be 29 ee 26 3e 2f a8 b3 bd
       -0.0012054655 -0.15254669 0.16301788 -0.08772313
000110 06 7f b3 3d 41 d0 a2 3d 21 76 cb 3d ab fd aa 3c
       0.08764462 0.079498775 0.09934641 0.020872911
000120 a7 5a fc bd fe 89 24 be 66 37 b1 bd 92 5f 40 bc
       -0.12321978 -0.16068265 -0.086531445 -0.011741536
000130 bf 51 9f bd e3 2a 07 be 9e 18 85 3d 45 3a 17 be
       -0.07779264 -0.13199954 0.06498836 -0.14768322
000140 f2 8e e0 bd 11 f3 ea bd dd 8a 65 bd 3c 70 8e 3d
       -0.10964765 -0.114721425 -0.056040633 0.06955001
000150 74 23 1e be cb 6d 3d bc bf 07 b3 bd c1 e2 5c bd
       -0.15443212 -0.011561821 -0.08741712 -0.053927187
000160 8e e2 29 be f4 43 5b 3b 0c 7e 11 3e 0b ac b1 3d
       -0.1659033 0.0033457251 0.1420824 0.08675393
000170 6c ed a1 3d e0 d8 82 bd d3 44 3e be f1 05 a4 3d
       0.07906613 -0.06389022 -0.18580942 0.08008946
000180 cd 57 03 3c 2d 6c 16 3c 07 41 ac bd c0 8b 07 bd
       0.008016539 0.009181065 -0.084108405 -0.03309226
000190 66 bd 81 3c 39 31 33 bc 9a b2 45 3b 30 3a 93 bc
       0.015837383 -0.010937029 0.003016627 -0.017972082
0001a0 5f a2 07 be 83 df 94 bc 24 30 da bc 1b a1 8c be
       -0.13245533 -0.018172985 -0.026634283 -0.27466664
0001b0 bd e9 a8 bd 07 23 14 be 08 cf 51 3e 86 c1 61 3e
       -0.08247707 -0.14466487 0.20489132 0.2204648
0001c0 e3 39 5e 3d 00 67 94 bd ac 5f 13 3e d9 4a a8 bd
       0.054254424 -0.07246208 0.14391965 -0.08217401
0001d0 ee 2e be bd da 4a 87 bd c6 0a 69 3c 98 34 f9 3c
       -0.09286295 -0.06606074 0.01422376 0.030420586
0001e0 b6 62 bc 3d 8b a7 7b 3d a6 32 e8 3c ff 3a 91 bc
       0.09198515 0.06143908 0.028344464 -0.017728327
0001f0 42 a3 8b 3d 99 b7 23 3e c2 22 29 3d 8e 3c 46 bd
       0.06818248 0.15988006 0.041292913 -0.048397593
000200 17 e8 55 3e 31 9b 52 3e 30 3c 2c 3c 6a 5e 52 be
       0.20889316 0.20567013 0.010512397 -0.20543829
000210 c6 40 00 3e 15 30 5f bd 93 39 94 be 27 bd 23 bd
       0.12524709 -0.054489214 -0.28950176 -0.03997531
000220 d7 63 8c bd 2e b3 ce 3d 8d 06 c3 3d e9 02 ba 3d
       -0.068549804 0.100927696 0.09522734 0.09082586
000230 1a 37 1a 3e 63 5d 54 be a7 8e 90 3e 85 c8 01 3e
       0.15060082 -0.20738749 0.28233835 0.12674148
000240 be 13 c0 bd e1 e6 1a be 55 e7 fd bd 1e e7 a8 bd
       -0.093787655 -0.15127136 -0.12397639 -0.08247207
000250 ab 9d 7f bd b1 ca 00 3e d2 9d af 3d bd 8b 41 bd
       -0.062406223 0.1257732 0.08575024 -0.047252405
000260 f9 d9 f5 3d ec 85 4a 3d aa ee e7 bd 83 74 ab 3c
       0.120044656 0.049444124 -0.113248184 0.02092958
000270 84 b7 f1 3d 06 c0 61 bc 7b 98 a1 be 9d 11 37 3a
       0.11802581 -0.013778692 -0.31561646 0.00069835206
000280 82 27 4d 3e 17 cc 11 3e 09 aa 99 3d b9 b6 7e 3d
       0.20034602 0.1423801 0.07503135 0.062185977
000290 d1 46 54 3c 99 3d d5 bd 67 da 05 3e 68 77 c9 3b
       0.012956337 -0.104121394 0.13071595 0.0061482675
0002a0 d2 3c be 3d 41 87 b7 3d 98 fe 02 bc d2 4a 1a bc
       0.09288944 0.089613445 -0.00799527 -0.009417253
0002b0 be 2e 0b be 25 21 62 be 04 d2 f0 bd 7e 56 0e bb
       -0.1359205 -0.22082956 -0.11758807 -0.0021719034
0002c0 de d5 87 3d 30 52 ac bd 3d c2 61 3d df dc 2b be
       0.06632589 -0.084141135 0.05511688 -0.16783474
0002d0 ac 51 f9 bd 94 94 4f be 3c d4 14 be 3b 92 93 3d
       -0.12173781 -0.20271522 -0.14534086 0.072056256
0002e0 c7 c2 14 be fc 5b 4f ba b7 52 7d bd f2 fe ab bd
       -0.14527427 -0.000791013 -0.06184646 -0.08398236
0002f0 ff 70 60 be 9b 2b 83 3d 5a db 5a 3e 96 b5 c0 bc
       -0.21918105 0.064048015 0.21372738 -0.023524087
000300 20 b5 0c 3e 35 26 9d bd 7a 97 99 be 46 59 84 3d
       0.13740969 -0.07673303 -0.2999838 0.0646234
000310 0a 16 32 3d 27 89 4b bc f5 16 b5 bd d4 21 7e bb
       0.04347805 -0.012422836 -0.08842269 -0.0038777487
000320 b1 64 63 3e c7 a6 26 be 21 aa 1d 3e e3 aa 53 be
       0.2220638 -0.16274558 0.1539693 -0.20670657
000330 70 d2 72 bc 0c 05 58 3e c9 c2 cb bd 08 d9 53 bd
       -0.01482068 0.21095675 -0.09949262 -0.05172065
000340 1f dc cc bd e5 20 ad bd fe cd 8c 3a da be 65 bd
       -0.10002922 -0.0845354 0.0010742543 -0.056090213
000350 6b 71 25 bc d5 fb 35 be d0 50 99 3d eb d6 f4 bd
       -0.010097842 -0.17771848 0.07486117 -0.11955055
000360 8c a1 ab bd 0b fe 25 be 7f 96 4e be e8 9c 26 be
       -0.08380422 -0.16210191 -0.20174597 -0.16270792
000370 32 80 c8 3d f1 98 0e be e3 98 73 3e 5c c4 08 be
       0.09790076 -0.1392553 0.2378879 -0.13356155
000380 68 19 2b 3e 8b dd 59 3d 95 27 d0 bd 83 cd 06 3d
       0.1670891 0.053189795 -0.101638 0.032910835
000390 88 e1 64 3d ab cb c1 3d 2d 58 41 be 20 27 fb bc
       0.055879146 0.09462675 -0.18881293 -0.030658305
0003a0 91 2f 71 3d 2c 46 84 3c f4 fa 79 bd ad 2e 46 3e
       0.058883253 0.016146742 -0.061030343 0.19353743
0003b0 fc c5 e0 bd 70 34 89 3d 95 06 82 3d 36 e6 76 3b
       -0.109752625 0.06699455 0.06348912 0.0037673838
0003c0 18 b3 6c 3d 39 1c db bd d8 7e 70 3d b0 a8 15 be
       0.057787985 -0.106987424 0.058714718 -0.1461513
0003d0 ff 61 91 3d 49 22 4b bd 50 bc de bd 21 f7 f9 bd
       0.070987694 -0.049593244 -0.108757615 -0.12205339
0003e0 93 55 12 be 20 04 04 3e c0 9e 30 3e aa 6f 3d be
       -0.14290456 0.12892199 0.17248058 -0.18499628
0003f0 e6 a8 8e bc 3d fc 0d bd d5 63 3e bd 11 9f 56 be
       -0.017414521 -0.03466438 -0.046481926 -0.20959117

fc2.bias f4 [100]
000000 68 81 34 3e 3d f0 b6 3d b7 ab 5c 3e 39 1f 7c 3e
       0.1762749 0.089325406 0.21549879 0.24621285
000010 26 70 75 3e 15 0b b5 3d 14 6b 93 3e 8d 84 e5 bd
       0.23968562 0.08840004 0.28792632 -0.11206923
000020 ea 40 bf bd 6a 93 7a be 67 df 95 3d 62 53 d5 3d
       -0.09338553 -0.24470297 0.07318001 0.10416295
000030 1a 96 22 3e db c7 8e 3b 26 bb 04 3e 3b b2 3a be
       0.15877572 0.0043573207 0.12962016 -0.18232052
000040 9c 28 68 3e 95 7c f7 bd f0 93 00 3d e8 73 28 3e
       0.22671741 -0.12084309 0.031391084 0.16450465
000050 3b 32 21 3e 2a 65 17 be eb 6f 84 3e 6b 5b 69 be
       0.15741818 -0.14784685 0.25866637 -0.2278878
000060 1e f3 86 be 53 fe 80 be e5 1f 85 bd 6c 2f 35 3e
       -0.2635736 -0.25194034 -0.06500224 0.17693871
000070 28 b2 a0 3d 71 e2 8a be 4f 3c 1b 3e 79 cc 43 be
       0.078464806 -0.27125886 0.15159725 -0.19120969
000080 b0 53 0d 3e 33 47 62 3e 35 a5 4d bd e5 8e be 3d
       0.13801455 0.22097473 -0.05020638 0.09304599
000090 96 23 8d be fc bf 55 3e d5 70 5a be c3 6d 64 3e
       -0.27566212 0.20874017 -0.21332105 0.22307496
0000a0 70 8b 44 be 34 80 9e bc b3 8c 87 be 44 11 17 be
       -0.19193816 -0.019348241 -0.26474532 -0.1475268
0000b0 86 05 23 3e 3a d3 06 3e fd e8 11 3e b9 49 31 be
       0.15920076 0.13166514 0.14249034 -0.17313279
0000c0 37 e0 8f 3e ba d1 57 3e ea 2f 52 3e 37 98 ed bd
       0.2810075 0.21076098 0.2052609 -0.11601298
0000d0 5e a9 d3 bd 37 d4 6e be e1 b5 7d 3e 2c fa 8a 3e
       -0.103350386 -0.23323141 0.24776413 0.2714399
0000e0 2b 3f 8b 3e f4 5e 94 be 9e 56 7a 3e 78 dc 55 ba
       0.2719663 -0.28978693 0.24447104 -0.00081581576
0000f0 33 ea 66 3e 11 83 c4 bd 7a 09 0e 3e 23 56 59 3e
       0.22550277 -0.095953114 0.13870803 0.21224265
000100 93 d9 46 3e 40 82 88 be 99 f6 07 be 21 2a b3 3d
       0.19418935 -0.26661873 -0.13277663 0.0874827
000110 c4 fa 80 be 06 8c 34 be 36 23 5e 3e 22 16 04 be
       -0.2519132 -0.1763154 0.2169312 -0.12899068
000120 4f 6e 3b 3e ee 97 5b be bd b1 2b 3d e2 53 86 3e
       0.18303798 -0.21444675 0.04191755 0.26235873
000130 5f d6 97 be cf 97 5e be d8 da 1d 3e 56 75 23 be
       -0.2965574 -0.21737598 0.15415514 -0.15962729
000140 66 fb 29 3e 41 6e f1 bd 9d 2c 9c bd cb 48 c0 bc
       0.16599807 -0.117886074 -0.07625697 -0.02347221
000150 98 39 63 be 04 cf 46 3e 6d 20 02 be 60 70 f9 3d
       -0.22189939 0.19414908 -0.12707682 0.12179637
000160 1b a3 70 3e 6b b2 29 be 8c 4a f1 bd 94 58 22 be
       0.2349972 -0.16571967 -0.11781797 -0.15854102
000170 6a 65 69 be 98 93 59 3e 62 4a 02 be c8 5f 27 3e
       -0.22792593 0.21247709 -0.12723687 0.16345131
000180 99 de 68 be f4 fc 37 be fd 5d 44 3e 54 91 66 be
       -0.22741164 -0.17967588 0.19176479 -0.22516376

fc3.weight f4 [1, 100]
000000 41 00 0e 3f b5 3e 14 3f 4d 07 0f 3f a2 d9 12 3f
       0.5546914 0.57908183 0.55870515 0.5736333
000010 f9 74 12 3f 22 44 10 3f 32 a2 12 3f 52 28 12 bf
       0.57209736 0.5635396 0.5727874 -0.57092774
000020 1b c0 42 3f c2 15 11 bf a1 d2 0b 3f 57 da 11 3f
       0.7607438 -0.56673825 0.5461827 0.56973785
000030 2c 8a 10 3f 06 20 04 bf 1c 87 12 3f 77 20 0e bf
       0.56460834 -0.51611364 0.5723741 -0.5551829
000040 e2 b3 11 3f 7e e8 11 bf e4 7f 13 bf 46 d7 0f 3f
       0.56915104 -0.5699538 -0.5761702 0.56187856
000050 55 73 12 3f 2a 78 0f bf 48 74 11 3f e9 63 0e bf
       0.5720723 -0.5604273 0.56818056 -0.556212
000060 23 63 0e bf b6 9e 0d bf 31 46 08 3f 94 0d 12 3f
       -0.5562002 -0.553203 0.53232104 0.5705197
000070 ea 41 0f 3f a5 be 14 bf 93 7d 0d 3f fe 5f 0e bf
       0.5595995 -0.581034 0.55269736 -0.5561522
000080 af 65 10 3f 32 d3 0d 3f a5 2d 10 bf fa 4f 11 3f
       0.56405157 0.55400383 -0.5631965 0.5676266
000090 a9 5e 13 bf 60 b7 14 3f 68 c1 12 bf 3b 29 10 3f
       -0.57566315 0.5809231 -0.57326365 0.5631291
0000a0 7b aa 0d bf 6a e2 0f bf 59 38 12 bf 1a 28 11 bf
       -0.5533826 -0.56204855 -0.5711723 -0.56701815
0000b0 3b 7c 12 3f 23 79 13 3f 7d 92 0e 3f b7 e9 10 bf
       0.5722081 0.57606715 0.55692273 -0.5660662
0000c0 10 2c 10 3f fb 6f 11 3f 74 a8 14 3f 02 66 10 bf
       0.56317234 0.56811494 0.5806954 -0.5640565
0000d0 db 27 11 bf 4b eb 14 bf 81 f5 0f 3f 2f 8e 16 3f
       -0.5670144 -0.5817153 0.56233984 0.58810705
0000e0 61 0e 11 3f 8b 82 10 bf 8a b2 10 3f 00 92 07 bf
       0.56662565 -0.5644919 0.5652243 -0.52957153
0000f0 23 03 10 3f a1 29 10 bf f3 e9 13 3f c1 34 0f 3f
       0.56254786 -0.5631352 0.57778853 0.5593987
000100 ea 89 10 3f ae 16 11 bf 41 a5 10 bf 18 da 10 3f
       0.5646044 -0.5667523 -0.5650216 0.56582785
000110 ea b6 0c bf b1 58 0b bf b8 59 16 3f a4 9b 0e bf
       -0.54966605 -0.5443221 0.5873065 -0.5570624
000120 26 bb 0f 3f 91 8e 10 bf 2d a7 14 bf 95 65 16 3f
       0.5614494 -0.5646754 -0.5806759 0.5874875
000130 12 34 17 bf 53 5f 12 bf ce ff 10 3f d2 45 11 bf
       -0.5906383 -0.57176703 0.56640327 -0.5674716
000140 59 0e 2b bf c2 09 0b bf b2 f9 0f bf ee 8d 11 bf
       -0.6681877 -0.54311764 -0.5624038 -0.5685719
000150 92 d9 0e bf 00 e8 0f 3f 5f 35 0e bf d9 c9 0f bf
       -0.55800736 0.5621338 -0.5555019 -0.5616737
000160 26 4b 0f 3f d0 76 11 bf a6 4c 0e bf a3 19 0b bf
       0.5597404 -0.5682192 -0.55585706 -0.54335994
000170 0d 2c 16 bf 95 92 12 3f 55 57 11 bf a2 23 12 3f
       -0.58660966 0.57254916 -0.56773883 0.5708562
000180 83 49 10 bf e1 13 13 bf 4f 6d 0b 3f 7e d3 12 bf
       -0.5636217 -0.5745221 0.54463667 -0.5735396
