mujoco/gail/save_model/ckpt_1301.pth.tar (torch, 144879 bytes, 16 tensors)

fc1.weight f4 [100, 11]
-0.031310964 -0.2642243 0.24426334 -0.09013132 0.03375733 0.08990038 -0.16884628 0.24463286
0.29754853 0.23048069 0.0959254 0.42036512 -0.115084 -0.0035098533 -0.2559257 0.19093245
0.07594499 0.024147376 0.12862898 0.200666 0.18227157 0.41223818 0.3970563 -0.11985191
-0.15984643 0.16764706 0.12463097 -0.30634734 0.0402785 0.31969705 0.15589651 0.021923086
0.19152394 0.25643006 -0.1819954 -0.09437433 0.19250852 0.10085688 0.2510779 -0.39789888
-0.08463704 -0.3191571 0.26470834 -0.35196745 0.11797594 0.29527906 0.2907624 -0.34223363
-0.029251702 0.21374805 -0.22222982 0.0058966097 0.21168171 0.07922098 0.097785875 0.4009994
-0.093464546 -0.13567108 0.18149947 0.37786114 0.08341681 0.112222426 -0.18019229 0.06123634
-0.06805005 0.060250502 0.39524803 -0.3303775 0.36160094 -0.19881454 -0.08506771 -0.2029379
0.31212398 -0.019864762 0.063772745 -0.120454244 -0.11161193 0.009859153 0.3797164 -0.4788937
-0.19348316 0.23829861 0.19184111 0.19819804 0.008926091 -0.3212622 0.1953058 0.24477708
-0.18304314 0.23454891 -0.29867503 -0.32678 0.2223179 0.25896922 0.12216016 -0.14321348
0.27967855 -0.25252914 0.12893935 -0.082338236 0.13622147 -0.04240374 -0.009956187 0.34208402
-0.11282717 0.115489244 0.30771846 0.1689706 0.19215798 -0.06381938 -0.33963832 -0.06851349
0.026620472 -0.44534668 -0.13589077 0.31193763 -0.09428671 0.18852176 0.03179929 0.19400811
-0.1251726 -0.25221336 -0.074084945 0.17030156 -0.077304035 0.17201644 0.38348654 -0.0149729205
-0.0840945 -0.04699179 -0.17778952 0.21959007 -0.0013212044 0.17942408 0.10492587 0.23145087
0.09055214 -0.19403438 0.0010834074 -0.09048951 0.36231172 -0.0121000605 0.1505253 0.06221802
0.10817922 -0.09818846 0.24723606 -0.12502423 -0.15995377 0.0111759305 0.18668653 0.4309753
-0.31565315 0.09745064 -0.3258426 -0.106301695 0.2544191 0.28122017 0.021757536 -0.05684116
0.33299965 0.42986992 0.1204111 0.24496774 0.10928842 -0.14400455 -0.13315924 0.3486928
0.27140126 0.31086844 0.04411972 -0.18116222 -0.025156261 0.34796625 0.10103913 0.00970761
0.27702308 -0.44044745 0.058297075 0.23901704 0.13152929 0.29463676 -0.1785941 0.36950314
0.4302929 0.197601 0.26782608 0.04312235 -0.27218738 -0.071672015 -0.16647293 -0.07172153
-0.39224136 0.13157985 0.03728209 -0.1926607 -0.13840167 -0.20786017 0.29629123 0.30995688
0.17677614 -0.23492444 -0.07476637 0.32390118 -0.024113547 -0.022255141 -0.29770768 -0.24747047
0.16371608 -0.12466103 0.36858732 -0.4516394 0.07507531 0.29589906 -0.24155362 -0.2822673
-0.3788002 -0.27455953 -0.051300455 -0.2596066 -0.27016345 -0.29310313 -0.045338564 0.25822535
-0.14024423 -0.023630712 -0.14417352 -0.06553873 0.010276578 -0.17765687 -0.28358337 0.2990736
0.02545218 0.2007185 0.27243114 0.40398094 -0.32732883 -0.023279885 0.044832807 -0.094185874
0.3289204 -0.08949093 0.054627225 -0.23532496 0.021985719 0.17614202 0.3129352 0.41280547
-0.2043878 -0.09750542 -0.25400448 0.10841558 -0.23768042 0.07589928 0.1318445 -0.2212203
00000000: ed3f 00bd 6848 87be 2b20 7a3e c596 b8bd
00000010: 2045 0a3d b11d b83d 0ae6 2cbe 0981 7a3e
00000020: 4858 983e 2103 6c3e 8974 c43d 193a d73e
00000030: 29b1 ebbd 9105 66bb b108 83be cc83 433e
00000040: 0c89 9b3d b8d0 c53c 51b7 033e 637b 4d3e
00000050: 66a5 3a3e e210 d33e f74a cb3e eb74 f5bd
00000060: c8ae 23be acab 2b3e 863e ff3d 8fd9 9cbe
00000070: 12fb 243d 55af a33e 56a3 1f3e 0b98 b33c
00000080: da1e 443e cd4a 833e 015d 3abe 5447 c1bd
00000090: f420 453e 0d8e ce3d 488d 803e 67b9 cbbe
000000a0: 2f56 adbd 8f68 a3be da87 873e 1435 b4be
000000b0: 5f9d f13d d12e 973e cfde 943e 3f39 afbe
000000c0: 44a1 efbc c5e0 5a3e 3790 63be 5938 c13b
000000d0: 17c3 583e 9c3e a23d f643 c83d cb4f cd3e
000000e0: 576a bfbd 5ced 0abe ffda 393e 0477 c13e
000000f0: 6fd6 aa3d dfd4 e53d 5484 38be f5d2 7a3d
00000100: d35d 8bbd 3bc9 763d f35d ca3e 3d27 a9be
00000110: c223 b93e 0a96 4bbe fb37 aebd f4ce 4fbe
00000120: b7ce 9f3e 6dbb a2bc 499b 823d b7b0 f6bd
00000130: cc94 e4bd 4988 213c 306a c23e 8e31 f5be
00000140: 7320 46be 8d04 743e ff71 443e 6df4 4a3e
00000150: bd3e 123c 7b7c a4be 3efe 473e d8a6 7a3e
00000160: a96f 3bbe 972d 703e efeb 98be b54f a7be
00000170: 4ea7 633e 9d97 843e 1b2f fa3d 8ea6 12be
00000180: 0732 8f3e 804b 81be ad08 043e f3a0 a8bd
00000190: a47d 0b3e 8baf 2dbd 461f 23bc a325 af3e
000001a0: ee11 e7bd a085 ec3d 468d 9d3e a106 2d3e
000001b0: 10c5 443e bcb3 82bd 13e5 adbe cd50 8cbd
000001c0: 2d13 da3c 7b04 e4be f326 0bbe 4ab6 9f3e
000001d0: 6419 c1bd d90b 413e f93f 023d 10aa 463e
000001e0: 3f2d 00be 1c22 81be d9b9 97bd 8863 2e3e
000001f0: 9451 9ebd 1425 303e 5958 c43e fb50 75bc
00000200: bd39 acbd 777a 40bd 750e 36be 38dc 603e
00000210: 432c adba f2ba 373e 60e3 d63d 7501 6d3e
00000220: 6673 b93d f3b0 46be 1f01 8e3a 9052 b9bd
00000230: ec80 b93e 553f 46bc 4e23 1a3e 53d8 7e3d
00000240: 118d dd3d 0817 c9bd 732b 7d3e 5a06 00be
00000250: ecca 23be 401b 373c c12a 3f3e cba8 dc3e
00000260: 4a9d a1be 3394 c73d d7d4 a6be b4b4 d9bd
00000270: 3843 823e 17fc 8f3e dc3c b23c 47d2 68bd
00000280: ee7e aa3e e917 dc3e 189a f63d d3d8 7a3e
00000290: 9bd2 df3d ee75 13be e55a 08be dd87 b23e
000002a0: 1bf5 8a3e 262a 9f3e e1b6 343d 9782 39be
000002b0: 8114 cebc a228 b23e 9aed ce3d ab0c 1f3c
000002c0: f8d5 8d3e 5482 e1be eac8 6e3d e2c0 743e
000002d0: 9daf 063e a1da 963e 5fe1 36be 842f bd3e
000002e0: 5a4f dc3e eb57 4a3e 8020 893e 10a1 303d
000002f0: 255c 8bbe c7c8 92bd e177 2abe bde2 92bd
00000300: dcd3 c8be debc 063e 1bb5 183d d948 45be
00000310: 2bb9 0dbe 4cd9 54be 7cb3 973e abb2 9e3e
00000320: ce04 353e 0890 70be 1c1f 99bd 60d6 a53e
00000330: c689 c5bc 6a50 b6bc 246d 98be e668 7dbe
00000340: 30a5 273e 484e ffbd 7ab7 bc3e 483d e7be
00000350: 16c1 993d 1580 973e d559 77be 5785 90be
00000360: 1af2 c1be 1193 8cbe 6d20 52bd 28eb 84be
00000370: dd52 8abe 9d11 96be eeb4 39bd 1d36 843e
00000380: 2f9c 0fbe 3295 c1bc 39a2 13be 2b39 86bd
00000390: 185f 283c afeb 35be d731 91be 2d20 993e
000003a0: 1781 d03c 2789 4d3e 187c 8b3e 97d6 ce3e
000003b0: a597 a7be 75b5 bebc 9ba2 373d 86e4 c0bd
000003c0: 4168 a83e 0547 b7bd ccc0 5f3d 07f9 70be
000003d0: 651b b43c 935e 343e 0b39 a03e 3d5b d33e
000003e0: 094b 51be ecb0 c7bd e00c 82be fd08 de3d
000003f0: 7f62 73be 1571 9b3d 3f02 073e 9387 62be

fc1.bias f4 [100]
-0.20705214 -0.25528198 -0.0055198707 0.16795921 0.032784276 -0.17022263 -0.10078323 -0.048900027
-0.19263867 -0.36794782 0.061039135 0.21343613 -0.18342255 0.20443909 0.15109742 -0.2477745
0.27105263 0.2726381 -0.16164327 0.056977764 0.055574812 -0.21031898 0.14788581 -0.24306826
0.12179464 0.09416546 -0.25459722 -0.33916453 0.20910427 0.23584074 -0.17416397 0.12017223
0.21217239 0.15966721 -0.36092696 0.10282618 0.2024938 -0.04247285 -0.23033597 0.16721
0.22636247 0.25944802 -0.011916663 -0.34642488 0.02076769 0.0811088 -0.32544893 -0.29972568
0.20693755 0.39552447 0.061972152 0.25518364 -0.24065831 -0.14080921 0.018401852 0.23428507
-0.006616119 0.2885466 0.27856326 0.31545588 -0.20164706 0.32909536 0.34473023 0.09961762
-0.13433647 -0.36425 -0.0032775714 -0.11047085 -0.005317507 0.027187867 0.31721574 -0.0009815862
0.26507473 0.15397114 -0.18474473 -0.2813483 0.09544942 0.15724106 0.28016427 0.3577299
-0.26498702 -0.27131456 0.14792733 0.22717103 0.2271112 -0.37121347 -0.20357537 0.29895675
0.21619639 -0.16621345 0.2576869 0.32196805 -0.05195641 0.3343857 -0.29127258 0.19843407
0.28736138 -0.1267502 0.2231696 0.27241564
00000000: 7a05 54be 52b4 82be 08e0 b4bb 80fd 2b3e
00000010: ce48 063d d74e 2ebe 7067 cebd 654b 48bd
00000020: 1243 45be a863 bcbe 2c04 7a3d 008f 5a3e
00000030: 1fd3 3bbe 7b58 513e 48b9 1a3e 99b8 7dbe
00000040: 69c7 8a3e 3997 8b3e d085 25be 8461 693d
00000050: 6aa2 633d dc5d 57be 616f 173e e3e6 78be
00000060: 786f f93d d2d9 c03d 915a 82be f9a6 adbe
00000070: 6e1f 563e 3c80 713e 0a58 32be dc1c f63d
00000080: b843 593e cd7f 233e 6bcb b8be 8896 d23d
00000090: 895a 4f3e 03f8 2dbd 31dd 6bbe 1939 2b3e
000000a0: 90cb 673e 5fd6 843e 1b3e 43bc 9a5e b1be
000000b0: 0121 aa3c 5f1c a63d 3ea1 a6be a575 99be
000000c0: 70e7 533e 2f82 ca3e 83d6 7d3d 6ea7 823e
000000d0: 226f 76be 4a30 10be 7bbf 963c 6de8 6f3e
000000e0: 07cc d8bb 61bc 933e d89f 8e3e 6f83 a13e
000000f0: 917c 4ebe 307f a83e 7b80 b03e 5304 cc3d
00000100: 808f 09be fa7e babe 86cc 56bb 8a3e e2bd
00000110: 7b3e aebb 17b9 de3c 1a6a a23e 91a8 80ba
00000120: e0b7 873e 9caa 1d3e b92d 3dbe e20c 90be
00000130: fc7a c33d cd03 213e b171 8f3e 6028 b73e
00000140: 61ac 87be bee9 8abe 437a 173e 869f 683e
00000150: d78f 683e b10f bebe 1076 50be dc10 993e
00000160: 9662 5d3e dc33 2abe 8aef 833e ffd8 a43e
00000170: 3fd0 54bd 9a34 ab3e ae21 95be 4d32 4b3e
00000180: 0821 933e ceca 01be 9286 643e 107a 8b3e

fc2.weight f4 [100, 100]
0.018545136 -0.021632912 0.028534394 0.036870543 -0.019433117 -0.065343775 -0.028304752 -0.10651351
-0.038722046 -0.12158342 0.06937498 -0.050718527 0.10571154 0.22101077 0.1916643 0.15647072
-0.04024547 -0.0055297688 -0.20151716 0.05576675 0.093291424 0.09316924 -0.0057287496 -0.05390916
-0.043745823 0.0012404864 -0.08000872 -0.14015417 -0.2159964 -0.055345077 0.006102762 0.023080543
0.19421256 -0.04908332 0.20654987 0.107894726 -0.18591611 0.11010631 -0.030308558 -0.018117618
0.09114254 -0.019520227 0.10333101 0.09984658 0.020965118 0.13511457 -0.109786466 -0.06257648
-0.014614265 0.008432556 -0.027143685 -0.08496906 0.073594265 -0.0028915182 -0.11544355 -0.019126147
0.044733804 0.24624003 0.06399824 0.051722262 0.0056564673 0.03017855 0.07056679 -0.053536423
0.15530877 0.05774143 0.12060772 0.030921752 -0.10773366 -0.255791 -0.07758518 -0.04668719
0.04756797 0.07276717 0.28471494 -0.22928463 -0.14596125 0.28946105 0.027698152 -0.14774731
0.02931348 0.0054329406 0.077910446 0.10893728 -0.09802945 -0.04569336 0.15761247 0.026120123
-0.191934 0.09532674 -0.06520228 -0.020352898 -0.109152935 -0.08796737 -0.11516201 -0.012820393
0.15127061 -0.10875468 0.081806295 0.104974486 -0.14011669 -0.079223216 0.13587822 0.12643099
-0.1082134 0.005177745 0.045579657 0.1838499 0.024739405 0.073572464 0.10482231 -0.14335006
-0.062193763 0.07954186 0.05515826 0.006480493 0.11536522 0.12396618 -0.05879137 0.064876884
-0.06606132 0.060269322 0.11399963 -0.0042348807 -0.10194364 0.03363163 -0.0790844 -0.058006335
-0.06580658 0.18872109 -0.18153128 -0.074511915 0.009916445 -0.018834567 -0.012196435 0.02570043
0.019979954 0.16866733 0.014647543 -0.049773198 -0.020236444 -0.12929511 -0.11403867 0.08747761
-0.07383278 -0.119016446 0.02730857 -0.02981951 0.035707414 0.043585613 0.026019827 -0.07645609
0.053283874 -0.03962268 0.06231309 0.13774753 0.07262292 0.0056532873 -0.016176006 -0.0026102148
0.02552416 0.01295901 -0.018869875 0.11082503 -0.1376732 -0.1084353 -0.0064814193 0.100032404
0.07428254 0.18591073 0.12906519 -0.12709574 0.040397506 -0.07099819 -0.053660646 -0.19701186
-0.034814015 -0.0030792013 0.008121701 0.1787531 -0.08724964 -0.094950154 -0.11023097 -0.09464948
0.065208025 0.02970248 0.10372433 -0.04157883 -0.11211239 0.06969522 0.10411344 0.03773689
-0.03603114 0.102442905 -0.03299567 0.09196242 -0.0076641045 -0.03264607 0.054041047 0.02391157
0.015705593 -0.07323693 0.07913521 -0.043841805 -0.001600915 -0.07404923 -0.03927868 -0.16356541
0.09002708 0.0053385505 -0.061807133 0.19194943 0.024846993 0.27180076 0.123599425 -0.12276615
0.08829783 0.025848156 0.03407302 -0.032146525 0.19004597 -0.26276943 0.017157437 -0.17213595
-0.080555834 0.059017308 -0.033511434 0.04495978 -0.118222326 0.092535965 -0.036320705 -0.017315906
0.21634029 -0.09055683 0.010012049 0.18920623 -0.041396804 0.073774725 -0.20047313 -0.01677139
0.13477273 -0.09456932 -0.062786944 0.15676044 0.028295798 -0.004388007 0.022497531 -0.10011908
-0.1201834 -0.02916446 -0.02524248 0.043005344 0.04007427 -0.11010219 -0.11006008 -0.046602488
00000000: f8eb 973c 8137 b1bc f6c0 e93c 9105 173d
00000010: 3332 9fbc f5d2 85bd 5edf e7bc c123 dabd
00000020: 029b 1ebd ba00 f9bd 7814 8e3d 3bbe 4fbd
00000030: 4b7f d83d a650 623e a543 443e dc39 203e
00000040: 6fd8 24bd 1033 b5bb 845a 4ebe ad6b 643d
00000050: 930f bf3d 84cf be3d 3cb8 bbbb dacf 5cbd
00000060: d22e 33bd d197 a23a 9ddb a3bd 9384 0fbe
00000070: 292e 5dbe 85b1 62bd aef9 c73b 6813 bd3c
00000080: a8df 463e 970b 49bd cf81 533e e9f7 dc3d
00000090: cb60 3ebe 6b7f e13d a749 f8bc 666b 94bc
000000a0: f1a8 ba3d e2e8 9fbc 359f d33d 5d7c cc3d
000000b0: 0abf ab3c 795b 0a3e bad7 e0bd 1928 80bd
000000c0: ac70 6fbc b428 0a3c 6f5c debc 4204 aebd
000000d0: 97b8 963d a07f 3dbb ab6d ecbd 70ae 9cbc
000000e0: cb3a 373d 5926 7c3e 8211 833d b9da 533d
000000f0: e359 b93b 0239 f73c 5285 903d 0249 5bbd
00000100: 4309 1f3e 4782 6c3d 2e01 f73d 9d4f fd3c
00000110: 77a3 dcbd 0af7 82be fbe4 9ebd 113b 3fbd
00000120: a2d6 423d f406 953d 28c6 913e 97c9 6abe
00000130: de76 15be 3d34 943e 3ce7 e23c 124b 17be
00000140: d322 f03c cf06 b23b 838f 9f3d 821a df3d
00000150: aac3 c8bd f628 3bbd 2a65 213e def9 d53c
00000160: 598a 44be aa3a c33d c688 85bd 1fbb a6bc
00000170: 938b dfbd 3d28 b4bd 0fda ebbd a00c 52bc
00000180: afe6 1a3e c6ba debd 0f8a a73d ddfc d63d
00000190: c07a 0fbe c83f a2bd a923 0b3e 2077 013e
000001a0: fd9e ddbd 13aa a93b bcb1 3a3d 2643 3c3e
000001b0: 4baa ca3c 29ad 963d 14ad d63d 5cca 12be
000001c0: e3be 7ebd d8e6 a23d a1ed 613d 515a d43b
000001d0: 9a44 ec3d fbe1 fd3d 38cf 70bd 2cde 843d
000001e0: 284b 87bd f7dc 763d a378 e93d c1c4 8abb
000001f0: d4c7 d0bd 52c1 093d 00f7 a1bd 0d98 6dbd
00000200: 9ac5 86bd 1a40 413e 56e3 39be b499 98bd
00000210: 9678 223c f34a 9abc 8ed3 47bc b589 d23c
00000220: 00ad a33c 21b7 2c3e 40fc 6f3c fbde 4bbd
00000230: e6c6 a5bc f065 04be 1b8d e9bd 7627 b33d
00000240: a435 97bd e5be f3bd 39b6 df3c 0c48 f4bc
00000250: f041 123d d486 323d 8827 d53c 0395 9cbd
00000260: 3140 5a3d 644b 22bd 033c 7f3d b00d 0d3e
00000270: 53bb 943d 363f b93b 8b83 84bc 2310 2bbb
00000280: 0b18 d13c 0752 543c ff94 9abc 3cf8 e23d
00000290: 34fa 0cbe 5413 debd 1662 d4bb cadd cc3d
000002a0: 7221 983d 625f 3e3e aa29 043e 6325 02be
000002b0: db77 253d 8067 91bd 44cb 5bbd 7abd 49be
000002c0: 2499 0ebd 6dcc 49bb e210 053c 0d0b 373e
000002d0: f0af b2bd 3a75 c2bd c6c0 e1bd 96d7 c1bd
000002e0: c98b 853d 9e52 f33c 6c6d d43d 904e 2abd
000002f0: 2e9b e5bd 5ebc 8e3d 6d39 d53d ff91 1a3d
00000300: 6395 13bd 96cd d13d 7826 07bd cb56 bc3d
00000310: 2b23 fbbb e3b7 05bd 255a 5d3d 32e2 c33c
00000320: 04a9 803c 3efd 95bd a411 a23d 7793 33bd
00000330: cbd5 d1ba 1fa7 97bd aee2 20bd b17d 27be
00000340: 1e60 b83d 02ef ae3b 7a29 7dbd 648e 443e
00000350: ec8b cb3c 7829 8b3e b221 fd3d d26c fbbd
00000360: 7ed5 b43d 83bf d33c 2790 0b3d 13ac 03bd
00000370: 699b 423e b789 86be c18d 8c3c 6844 30be
00000380: 75fa a4bd 22bc 713d 4943 09bd bf27 383d
00000390: 8c1e f2bd 7f83 bd3d 05c5 14bd 16da 8dbc
000003a0: 4f88 5d3e dc75 b9bd 9409 243c 47bf 413e
000003b0: b28f 29bd 3417 973d d448 4dbe 2764 89bc
000003c0: dd01 0a3e 8fad c1bd 7196 80bd cf85 203e
000003d0: 97cc e73c 45c9 8fbb be4c b83c 3b0b cdbd
000003e0: b722 f6bd 4eea eebc 51c9 cebc 5f26 303d
000003f0: eb24 243d 427d e1bd 2e67 e1bd 40e2 3ebd

fc2.bias f4 [100]
-0.087315544 0.09024403 -0.023639577 -0.059394315 0.0038033912 -0.06433061 0.041824065 -0.081068695
0.03594627 -0.28185448 0.089015976 0.17369615 -0.008419899 -0.1403355 -0.03836449 -0.0016661853
-0.18865882 0.24706577 -0.05226115 0.13146226 -0.001573897 0.067574784 -0.13073619 -0.0051418208
-0.054386564 0.15734628 -0.016855873 0.055988874 -0.1610735 -0.0148719195 0.049722705 0.030524593
0.014124408 0.16368882 0.026948536 0.14188728 0.04710871 -0.06819941 -0.16363356 -0.0009667853
-0.08553912 0.028564634 0.02850994 -0.039134745 0.1088592 0.046803243 -0.10106901 -0.073094994
-0.0852517 0.049623393 0.09507085 -0.09253185 0.14250146 -0.19539316 0.100858964 0.083007865
-0.13740516 0.08669318 -0.03937871 0.00048749417 -0.07867522 0.064574 -0.008014143 0.11800284
-0.08922218 0.059974786 0.052848134 -0.07890111 -0.034314223 -0.026624529 0.15918839 0.048409227
0.029321112 0.14947313 -0.029074062 0.11184082 -0.09121558 0.012427683 -0.07785985 -0.08287424
0.044914596 -0.20385116 -0.03603413 -0.083300486 0.08103086 0.10409811 -0.019861843 -0.065648526
0.21605802 0.006431609 -0.060356434 -0.035944432 0.11261533 0.070498094 -0.12476276 0.0932203
0.30408153 0.09336538 -0.08798431 -0.06994857
00000000: 7ed2 b2bd ddd1 b83d c9a7 c1bc 7447 73bd
00000010: 5142 793b c4bf 83bd b64f 2b3d 5807 a6bd
00000020: 653c 133d 3b4f 90be 024e b63d 67dd 313e
00000030: 9ef3 09bc 1cb4 0fbe 1524 1dbd e763 daba
00000040: c72f 41be cffe 7c3e ca0f 56bd 0b9e 063e
00000050: 384b ceba a664 8a3d b5df 05be b87c a8bb
00000060: 72c4 5ebd 621f 213e 5415 8abc 9754 653d
00000070: 74f0 24be 5aa9 73bc 09aa 4b3d b60e fa3c
00000080: 106a 673c 0b9e 273e 2dc3 dc3c e64a 113e
00000090: 10f5 403d 22ac 8bbd 8e8f 27be dd6f 7dba
000000a0: 222f afbd 6100 ea3c ad8d e93c c14b 20bd
000000b0: 92f1 de3d c2b4 3f3d 45fd cebd d4b2 95bd
000000c0: 7198 aebd e641 4b3d 81b4 c23d 5781 bdbd
000000d0: e7eb 113e 2515 48be 258f ce3d 0700 aa3d
000000e0: f0b3 0cbe 328c b13d 924b 21bd 5c96 ff39
000000f0: 7920 a1bd 603f 843d c14d 03bc 79ab f13d
00000100: 1eba b6bd 1fa8 753d 4977 583d e896 a1bd
00000110: 128d 0cbd af1b dabc 4802 233e c148 463d
00000120: d432 f03c 7c0f 193e ba2c eebc cd0c e53d
00000130: 3ccf babd 7b9d 4b3c fc74 9fbd f8b9 a9bd
00000140: 5ef8 373d 5cbe 50be 8698 13bd 7299 aabd
00000150: 82f3 a53d 6431 d53d 4eb5 a2bc bc72 86bd
00000160: 503e 5d3e 3fc0 d23b 4f38 77bd 783a 13bd
00000170: dea2 e63d 4e61 903d 9e83 ffbd 49ea be3d
00000180: 93b0 9b3e 5936 bf3d 1e31 b4bd 3241 8fbd

fc3.weight f4 [3, 100]
0.012756801 0.08785254 0.019915389 -0.13133536 0.105790116 0.036707394 0.114722185 -0.06418964
-0.016651306 -0.10804896 0.032115594 0.083101474 -0.019400839 -0.03191911 -0.0051698987 -0.07776919
-0.00921567 0.12434876 0.005477992 -0.022539878 0.074159525 0.033481076 -0.031109218 0.10605245
-0.02579039 0.008456982 -0.051522657 -0.045788467 0.008192897 0.007017193 -0.06750927 -0.14361233
0.14972915 0.035149273 -0.0898812 0.090165816 0.038494658 -0.103606656 -0.047180038 -0.026244668
-0.077426545 0.062331013 0.0011586174 -0.06981348 0.07608917 0.09211351 -0.18934307 -0.06158911
-0.07411002 0.028609682 -0.028842892 0.088346735 0.03673003 -0.05282737 0.07742672 0.078674644
0.23621473 0.04236205 0.047976464 0.030876815 0.013129223 0.077719495 -0.08331464 -0.0008673907
-0.05513122 0.029613642 0.021439523 0.005280481 0.046623543 -0.044227444 -0.02878422 0.049899813
-0.09922584 0.10043568 0.12484718 0.108934775 0.0774407 -0.026215734 0.0035122028 -0.05452229
0.04125307 0.013806719 -0.025653783 0.112299666 -0.017893495 -0.01169382 -0.08064371 0.086989224
-0.0025763793 -0.006127662 0.06507127 0.051734794 0.054258473 0.1387337 -0.0064644627 0.029469956
0.07258813 0.037989836 -0.042772744 -0.01510568 0.1267701 -0.029457374 0.21156271 -0.017359661
-0.04325651 -0.011384545 -0.045546845 -0.05905287 -0.079988174 -0.16718833 0.041243184 0.06546693
-0.032463923 -0.0993081 -0.099681735 -0.08848215 0.008540746 0.087307796 0.04110938 0.13917221
0.07937847 0.023332745 -0.19681667 0.021295715 -0.020826505 -0.10140506 -0.046478137 0.008233186
-0.1250092 0.21050479 0.08476308 0.124874316 0.021939531 -0.055444017 -0.020602124 0.06414433
-0.08220679 -0.011466661 -0.0073795808 0.025689293 0.046011843 -0.07420677 -0.10465427 0.015210751
0.0030062457 -0.014183211 -0.17910118 -0.03820621 0.067802064 0.04385496 -0.09354305 0.020727484
0.14222331 -0.08313367 0.067721784 -0.008303877 0.073093995 -0.09296045 0.008918862 0.087756194
0.137543 -0.07704574 -0.15201713 -0.06803901 -0.011436376 0.043948058 -0.10360657 -0.007655268
0.044772115 0.032043077 -0.04240215 -0.0036894963 0.065063715 0.10756248 -0.1317027 -0.12088702
0.16422112 -0.009119628 0.06597915 0.0767664 -0.036101572 -0.05496569 -0.030300481 -0.17137352
-0.08284268 0.007973441 -0.03893077 -0.13037261 0.19711222 0.041071218 -0.09668881 0.037912715
-0.09546562 -0.046425983 0.09686311 -0.041040268 0.15639722 -0.09686845 0.028537562 0.18768758
-0.1115041 -0.011920494 0.059355717 0.010836153 -0.22029367 -0.031238593 -0.24307297 -0.29934907
0.032384116 -0.13253261 0.14229114 -0.025760947 0.021695776 -0.04275861 0.037093323 0.005779628
0.12480811 -0.019802006 0.008181403 0.025055798 0.028792163 0.13701224 -0.082036294 -0.13280906
-0.0030617686 0.09143464 0.034547705 0.022183677 -0.042755067 -0.11689504 -0.118556194 -0.20065436
-0.07265283 0.21377638 -0.098326206 -0.08570993 -0.10274818 -0.038013373 -0.07285361 -0.037002984
-0.0406354 0.09121875 0.036661886 0.022544151 -0.011292059 0.0243143 -0.0035023985 0.09287432
-0.015262244 0.01124526 0.10140958 0.099661134 0.08921745 0.056167528 0.050906677 -0.0125052435
00000000: e701 513c 08ec b33d 9925 a33c c77c 06be
00000010: 7da8 d83d 7e5a 163d 77f3 ea3d dc75 83bd
00000020: 5268 88bc c648 ddbd a48b 033d 1b31 aa3d
00000030: 82ee 9ebc 9dbd 02bd 4168 a9bb 7445 9fbd
00000040: 52fd 16bc 90aa fe3d ba80 b33b 8da5 b8bc
00000050: f3e0 973d 7423 093d c2d8 febc 0732 d93d
00000060: 5e46 d3bc 278f 0a3c 6c09 53bd b08c 3bbd
00000070: 803b 063c 7bf0 e53b 4d42 8abd 1c0f 13be
00000080: 9952 193e aff8 0f3d a213 b8bd dba8 b83d
00000090: 93ac 1d3d ba2f d4bd db3f 41bd 0fff d6bc
000000a0: cf91 9ebd ce4e 7f3d c0dc 973a 5ffa 8ebd
000000b0: a4d4 9b3d 02a6 bc3d 26e3 41be dd44 7cbd
000000c0: ffc6 97bd da5e ea3c ee47 ecbc 22ef b43d
000000d0: 3a72 163d 8361 58bd e691 9e3d 2c20 a13d
000000e0: 46e2 713e d483 2d3d f882 443d 60f1 fc3c
000000f0: f41b 573c 662b 9f3d dea0 aabd 9b61 63ba
00000100: 46d1 61bd 4f98 f23c f0a1 af3c e307 ad3b
00000110: 54f8 3e3d d627 35bd e2cc ebbc bf63 4c3d
00000120: eb36 cbbd 39b1 cd3d e1af ff3d 3219 df3d
00000130: 3b99 9e3d 61c2 d6bc fc2c 663b c452 5fbd
00000140: fbf8 283d 9435 623c e227 d2bc 5efd e53d
00000150: 6195 92bc 7097 3fbc 8828 a5bd 6827 b23d
00000160: 79d8 28bb 8eca c8bb 1644 853d dde7 533d
00000170: 223e 5e3d 3510 0e3e d8d3 d3bb fa6a f13c
00000180: 16a9 943d 3b9b 1b3d 7932 2fbd d07d 77bc
00000190: 05d0 013e 9750 f1bc e5a3 583e d935 8ebc
000001a0: bd2d 31bd 3e86 3abc 548f 3abd 6ce1 71bd
000001b0: d7d0 a3bd 6b33 2bbe 9dee 283d 8713 863d
000001c0: e4f8 04bd 0c62 cbbd f025 ccbd 2136 b5bd
000001d0: 7cee 0b3c 6ece b23d 4f62 283d 2983 0e3e
000001e0: 2e91 a23d 5024 bf3c 4f8a 49be 5a74 ae3c
000001f0: 599c aabc 75ad cfbd dc5f 3ebd 7ce4 063c
00000200: 6902 00be 918e 573e 4498 ad3d 1bbe ff3d
00000210: 88ba b33c 4419 63bd c9c5 a8bc 1a5e 833d
00000220: 095c a8bd a9de 3bbc 69d0 f1bb 5a72 d23c
00000230: ea76 3c3d b8f9 97bd fa54 d6bd 8436 793c
00000240: 6f04 453b b360 68bc 4d66 37be 1d7e 1cbd
00000250: cfdb 8a3d 42a1 333d 8093 bfbd afcc a93c
00000260: fda2 113e fc41 aabd b8b1 8a3d fc0c 08bc
00000270: 4eb2 953d 0c62 bebd 6b20 123c 85b9 b33d
00000280: 12d8 0c3e 28ca 9dbd 61aa 1bbe 0958 8bbd
00000290: a35f 3bbc e102 343d ae2f d4bd 0bd9 fabb
000002a0: f762 373d 9a3f 033d e0ad 2dbd 7acb 71bb
000002b0: 2040 853d b849 dc3d 13dd 06be 9d93 f7bd
000002c0: 9529 283e 7e6a 15bc 1420 873d b437 9d3d
000002d0: 3edf 13bd b423 61bd b738 f8bc 8a7c 2fbe
000002e0: 6ca9 a9bd 09a3 023c df75 1fbd 6680 05be
000002f0: c9d7 493e 4b3a 283d c804 c6bd 5d4a 1b3d
00000300: 7b83 c3bd 2c29 3ebd 2b60 c63d d719 28bd
00000310: 9826 203e f762 c6bd 9bc7 e93c 2c31 403e
00000320: 435c e4bd 2d4e 43bc fb1e 733d 1f8a 313c
00000330: aa94 61be 14e8 ffbc 1fe8 78be 4844 99be
00000340: 35a5 043d a1b6 07be c5b4 113e 9f08 d3bc
00000350: 57bb b13c a723 2fbd 2bef 173d 0963 bd3b
00000360: 659b ff3d d137 a2bc 4b0b 063c d141 cd3c
00000370: 8bdd eb3c f04c 0c3e a502 a8bd 19ff 07be
00000380: f4a7 48bb 1642 bb3d e581 0d3d 8bba b53c
00000390: f01f 2fbd ab66 efbd 97cd f2bd 5678 4dbe
000003a0: 02cb 94bd 32e8 5a3e 405f c9bd b088 afbd
000003b0: a36d d2bd e9b3 1bbd 4634 95bd 7190 17bd
000003c0: 4e71 26bd e5d0 ba3d c62a 163d 83ae b83c
000003d0: 5402 39bc c82e c73c 7f88 65bb e434 be3d
000003e0: 7e0e 7abc 0a3e 383c d3af cf3d 231b cc3d
000003f0: a3b7 b63d ec0f 663d 8583 503d cbe2 4cbc

fc3.bias f4 [3]
0.06376013 -0.004914062 0.014247417
00000000: ac94 823d 2406 a1bb 006e 693c

fc1.weight f4 [100, 11]
-0.24146682 0.19741043 0.024323918 -0.3032163 0.07280049 0.08170012 -0.033004247 0.09824165
0.0073524523 0.017272072 0.032980114 0.0077914014 -0.21337219 0.22754201 0.17331254 -0.061673388
-0.1456311 -0.1386892 -0.048530884 0.0001208139 0.16866316 0.16947944 -0.12827015 0.089998
-0.20908833 -0.25931072 0.12897865 0.18026276 -0.13038376 0.2526574 -0.1376608 -0.13817553
0.062198773 0.11853473 -0.30977187 0.2934114 0.17002736 -0.07136878 -0.07715197 0.2011887
0.07839508 -0.08833383 0.120265834 -0.06564132 -0.3709547 -0.044434868 0.07146094 -0.47722864
-0.11874376 -0.008195832 0.13373117 0.104173504 -0.02763153 -0.05046479 -0.084815994 -0.2518029
0.16802864 -0.0014297224 -0.264167 -0.058039863 0.11887612 -0.092837475 0.13817419 0.048017006
-0.08026206 -0.007974646 -0.59840995 0.15417306 0.13953008 -0.14539357 -0.10623074 -0.062204733
0.17063935 -0.107732244 0.115191214 0.08267539 -0.25582203 0.20133081 0.1085822 -0.07304018
-0.22071601 -0.10967765 -0.057122976 -0.078495085 -0.19454291 0.28937402 -0.17289625 0.12539573
-0.26504886 -0.019570248 -0.40705433 0.26943064 0.21052128 -0.13633694 0.064180456 0.27839682
-0.26426414 -0.13935164 0.050176196 -0.08329699 0.28809097 -0.23193115 0.059297353 0.27157572
0.15151002 0.08743271 0.27274963 -0.24365258 -0.12779513 0.14689116 -0.04469529 -0.13185787
0.123203754 0.22195749 0.057624783 0.17529552 -0.007905202 -0.098493405 -0.084724225 0.15151607
0.054819524 0.04130943 -0.021917254 0.2613447 0.24055007 0.24462725 0.14239858 0.031512436
-0.1909327 0.25138408 0.2471243 -0.09474887 0.067293435 0.05043289 0.40545952 0.16336557
-0.04756156 -0.062306665 0.08831912 -0.16079691 0.19671516 0.04145513 0.07710258 0.15439552
-0.08394738 0.09464633 0.2809664 0.035152473 0.17877087 0.06916067 -0.0450856 0.24165328
0.08028983 0.1610288 0.19329491 -0.24500689 0.2786689 0.21918903 0.0048210295 -0.087122604
-0.16133904 -0.115338005 -0.08973922 -0.048101503 0.21512656 0.14562859 -0.39006746 0.4139101
-0.20425564 -0.22591269 -0.05429434 0.2957564 0.028285088 -0.08807704 -0.07205279 0.14881706
-0.21437813 -0.15542448 0.2604143 -0.2658664 -0.15007833 -0.15019655 -0.057310987 -0.10593446
-0.094508186 0.15965387 0.05442906 0.23709576 0.0033732879 -0.13398989 0.13146198 -0.0914533
0.06471634 0.13378902 -0.24160296 0.05146455 0.23105279 -0.1587374 -0.092082664 -0.29254612
0.042255055 0.19171421 0.08242222 -0.022351729 -0.24678692 0.06916794 0.15911333 0.12629138
0.18669564 0.11315204 -0.22264726 0.026338214 0.25804782 0.0841686 -0.024592157 0.18020694
-0.2442355 0.11186798 0.20538516 0.14655288 -0.17891906 -0.09739984 -0.163229 0.05915804
-0.046660382 0.28038308 0.074848235 0.008240459 -0.01824911 -0.15530926 -0.1516196 0.18279631
-0.09242063 0.1265798 0.5242306 -0.01416925 -0.06411648 0.044449873 -0.07552771 0.07691602
-0.048984725 -0.008975693 -0.121852264 0.11228728 -0.2037397 -0.22869575 0.034546666 0.054453675
-0.10548223 0.12641989 -0.055603046 -0.07421511 -0.090057194 0.2657514 -0.3142117 0.058187883
00000000: 1443 77be f625 4a3e f442 c73c 2b3f 9bbe
00000010: 6c18 953d 6452 a73d 762f 07bd eb32 c93d
00000020: d7ec f03b 297e 8d3c 2816 073d 034f ff3b
00000030: 3d7e 5abe c600 693e d878 313e 3c9d 7cbd
00000040: 5220 15be 8b04 0ebe 52c8 46bd 785d fd38
00000050: 09b6 2c3e 058c 2d3e 4059 03be df50 b83d
00000060: 401b 56be 60c4 84be fb12 043e cd96 383e
00000070: 5283 05be 505c 813e f4f6 0cbe e37d 0dbe
00000080: 24c4 7e3d 56c2 f23d 6b9a 9ebe 053a 963e
00000090: a71b 2e3e cc29 92bd da01 9ebd 6904 4e3e
000000a0: 9a8d a03d 5ee8 b4bd ef4d f63d f56e 86bd
000000b0: c6ed bdbe 5601 36bd 1d5a 923d 5057 f4be
000000c0: ee2f f3bd d047 06bc d3f0 083e eb58 d53d
000000d0: 855b e2bc 2bb4 4ebd 02b4 adbd 4fec 80be
000000e0: b30f 2c3e 8665 bbba e640 87be 35bb 6dbd
000000f0: 5375 f33d 9321 bebd 897d 0d3e 7bad 443d
00000100: 6f60 a4bd 17a8 02bc 6531 19bf 8bdf 1d3e
00000110: f9e0 0e3e 0de2 14be 818f d9bd 64ca 7ebd
00000120: 15bc 2e3e b9a2 dcbd 5fe9 eb3d b751 a93d
00000130: 1bfb 82be aa29 4e3e 5860 de3d 1796 95bd
00000140: 6103 62be ad9e e0bd c8f9 69bd 08c2 a0bd
00000150: 4236 47be d528 943e b70b 31be bd67 003e
00000160: 7cb4 87be c951 a0bc 6d69 d0be d0f2 893e
00000170: e492 573e e99b 0bbe 0b71 833d 078a 8e3e
00000180: a14d 87be 32b2 0ebe 8e85 4d3d 9d97 aabd
00000190: a980 933e 5c7f 6dbe c8e1 723d f90b 8b3e
000001a0: 7125 1b3e ec0f b33d d7a5 8b3e 1080 79be
000001b0: badc 02be a36a 163e 6912 37bd c005 07be
000001c0: 4052 fc3d d348 633e f707 6c3d ab80 333e
000001d0: d284 01bc e9b6 c9bd e583 adbd 0727 1b3e
000001e0: 708a 603d 1434 293d d08b b3bc f9ce 853e
000001f0: c252 763e 917f 7a3e efd0 113e 2f13 013d
00000200: dd83 43be 6ab5 803e 270e 7d3e b20b c2bd
00000210: 24d1 893d b892 4e3d 6498 cf3e 4e49 273e
00000220: e9cf 42bd 4635 7fbd a8e0 b43d f2a7 24be
00000230: b36f 493e dbcc 293d f5e7 9d3d dc19 1e3e
00000240: 9bec abbd efd5 c13d d4da 8f3e 0afc 0f3d
00000250: b60f 373e 1ca4 8d3d aeab 38bd f573 773e
00000260: ff6e a43d bce4 243e 1aef 453e 16e3 7abe
00000270: b1ad 8e3e 1773 603e baf9 9d3b 566d b2bd
00000280: 1036 25be 5536 ecbd 32c9 b7bd 1506 45bd
00000290: 234a 5c3e a91f 153e ecb6 c7be 06ec d33e
000002a0: 6428 51be a855 67be be63 5ebd 626d 973e
000002b0: 21b6 e73c bc61 b4bd 6a90 93bd 8063 183e
000002c0: f185 5bbe 9827 1fbe 0655 853e a41f 88be
000002d0: 22ae 19be 20cd 19be edbe 6abd 2bf4 d8bd
000002e0: 828d c1bd 4e7c 233e 02f1 5e3d 3bc9 723e
000002f0: 6112 5d3b a534 09be f89d 063e de4b bbbd
00000300: 008a 843d fdff 083e c466 77be 7ecc 523d
00000310: 1a99 6c3e 0f8c 22be d695 bcbd 9bc8 95be
00000320: a313 2d3d bb50 443e fbcc a83d f91a b7bc
00000330: b6b5 7cbe eca7 8d3d 9bee 223e 8752 013e
00000340: 242d 3f3e 42bc e73d a5fd 63be 3dc3 d73c
00000350: d81e 843e 9660 ac3d 7e75 c9bc 2b88 383e
00000360: df18 7abe 0a1b e53d 7d50 523e f511 163e
00000370: 8f36 37be 9179 c7bd 8125 27be b34f 723d
00000380: f51e 3fbd 5f8e 8f3e 084a 993d fd02 073c
00000390: 287f 95bc 6409 1fbe 2b42 1bbe f52e 3b3e
000003a0: 0747 bdbd 239e 013e fa33 063f 2426 68bc
000003b0: 804f 83bd 1211 363d 46ae 9abd 2586 9d3d
000003c0: 35a4 48bd c90e 13bc ae8d f9bd e0f6 e53d
000003d0: 24a1 50be 382f 6abe ce80 0d3d d10a 5f3d
000003e0: 1107 d8bd 3774 013e 05c0 63bd 17fe 97bd
000003f0: e86f b8bd 9110 883e 5be0 a0be 6b56 6e3d

fc1.bias f4 [100]
0.7087656 -0.58418226 0.5554054 -0.46210027 -0.21534841 0.68263596 -0.4926086 -0.3668681
-0.5671073 -0.5797163 0.4138222 0.07339004 0.13071008 -0.6011971 0.47781792 -0.213286
-0.48861846 -0.54467195 -0.66360664 -0.614949 0.4648038 -0.43591845 0.5527644 -0.48653618
0.60818434 0.33304593 -0.39304623 -0.14770393 0.35421494 0.5122286 -0.48586538 -0.50570065
0.32499307 -0.30737045 -0.55606395 0.54332674 -0.4785795 0.39448413 0.4079423 0.33095935
0.30241248 -0.41459766 0.53331363 -0.40397045 0.039329138 -0.4375056 -0.55889773 -0.56697434
-0.5836038 0.49432185 0.60692894 -0.6147124 0.1455436 -0.028141467 -0.2955597 -0.52317584
0.096157774 0.21443959 -0.5492722 -0.496055 0.26633814 0.21236885 -0.4594851 -0.32884118
-0.17031766 -0.5441526 0.13342583 -0.6250586 0.31451303 0.51583487 0.21314226 0.6487091
-0.14046554 -0.43372843 -0.34056023 -0.53545 -0.60087085 -0.30582893 0.20035984 -0.3586158
-0.57773745 -0.42454058 -0.45427054 0.33264118 -0.47334915 -0.19671777 -0.58759606 -0.54227793
-0.45953047 -0.3946575 0.26960167 0.54502267 0.56318647 -0.29082865 -0.48572823 0.4227341
0.6762964 -0.39932314 -0.5481557 -0.47244862
00000000: aa71 353f f88c 15bf 0c2f 0e3f 6898 ecbe
00000010: 4b84 5cbe 3bc1 2e3f 3237 fcbe 23d6 bbbe
00000020: f22d 11bf 4a68 14bf 81e0 d33e 844d 963d
00000030: ddd8 053e 0ee8 19bf 8da4 f43e a567 5abe
00000040: 332c fabe 9f6f 0bbf 20e2 29bf 4c6d 1dbf
00000050: c4fa ed3e b430 dfbe f881 0d3f 451b f9be
00000060: f8b1 1b3f ff84 aa3e 5b3d c9be b33f 17be
00000070: a95b b53e 6a21 033f 59c3 f8be 9975 01bf
00000080: 7e65 a63e a95f 9dbe 355a 0ebf 7617 0b3f
00000090: 5f08 f5be d3f9 c93e d0dd d03e 8173 a93e
000000a0: cfd5 9a3e 2546 d4be 3e87 083f 37d5 cebe
000000b0: 9717 213d bc00 e0be ec13 0fbf 3b25 11bf
000000c0: 0f67 15bf c117 fd3e b25f 1b3f cb5d 1dbf
000000d0: 6209 153e ef88 e6bc 9a53 97be daee 05bf
000000e0: 5eee c43d 0d96 5b3e 1a9d 0cbf ecfa fdbe
000000f0: 795d 883e 3877 593e a241 ebbe df5d a8be
00000100: c167 2ebe 964d 0bbf c8a0 083e d703 20bf
00000110: da07 a13e c10d 043f f741 5a3e cd11 263f
00000120: 33d6 0fbe a711 debe e95d aebe 4013 09bf
00000130: acd2 19bf 9c95 9cbe 212b 4d3e 7d9c b7be
00000140: 9ae6 13bf 625d d9be 2696 e8be f24f aa3e
00000150: d25a f2be 6270 49be b26c 16bf bad2 0abf
00000160: 9447 ebbe 8c10 cabe 3b09 8a3e 9b86 0b3f
00000170: fd2c 103f 7ee7 94be 5fb1 f8be 9b70 d83e
00000180: c321 2d3f 1574 ccbe ef53 0cbf c9e4 f1be

fc2.weight f4 [100, 100]
0.120593995 -0.09258887 0.060246162 -0.06046395 -0.05699972 0.08896913 -0.061069604 -0.09471212
-0.19082606 -0.18349409 0.12099927 0.049942296 0.06717488 -0.083156414 0.10497408 -0.039073147
-0.12646055 -0.077426694 -0.08442311 -0.05240368 0.06899533 -0.051432237 0.07559194 -0.0481362
0.09428685 0.079142176 -0.055617213 -0.07592986 0.109852254 0.105255194 -0.080703415 -0.151921
0.07431858 -0.06874982 -0.1501893 0.07782671 -0.10190522 0.061644204 0.13091671 0.08394686
0.07664814 -0.12432922 0.17670019 -0.027435286 -0.0286494 -0.11180403 -0.11064086 -0.09972507
-0.13667232 0.08134793 0.13536696 -0.1270334 0.051246762 0.060454864 -0.01954627 -0.057824444
0.052779585 0.0577152 -0.15736942 -0.11064561 0.08240961 0.07504229 -0.07921949 -0.08485256
-0.019880285 -0.18198384 0.10160399 -0.13225003 0.07798297 0.11901351 0.08985298 0.09444845
-0.101482555 -0.17205241 -0.10714825 -0.081028685 -0.1251997 -0.15608123 0.0748712 -0.10159835
-0.13224275 -0.13017246 -0.1009309 0.08214794 -0.15078889 -0.0597259 -0.14340937 -0.11471214
-0.11304513 -0.05490308 0.09323641 0.091174275 0.118412495 -0.099019654 -0.1707301 0.122058734
0.06860145 -0.018640699 -0.11427437 -0.08472279 0.0740641 -0.049261447 0.057325117 -0.0897617
-0.14494339 0.042375468 -0.08091139 -0.20574781 -0.1261744 -0.1962819 0.14389999 0.12349301
0.07704472 -0.10198623 0.18833604 -0.14997303 -0.17002675 -0.13205443 -0.034943562 -0.023088573
0.09003221 0.005059204 0.061456144 -0.062109362 0.16166624 0.16509949 -0.0009594449 -0.0990347
0.20073308 0.20510216 -0.039331447 -0.18952434 0.07136982 -0.12907258 -0.3034162 0.047675315
-0.096755534 0.14769116 0.13526416 0.13285765 0.1474245 -0.20000653 0.28219938 0.07014289
-0.08223992 -0.1934974 -0.15205228 -0.119461976 -0.15181549 0.13610438 0.14696313 -0.13265972
0.10151324 -0.006811476 -0.113186754 -0.04704403 0.076994725 0.0847482 -0.31027055 -0.058432408
0.19771841 0.07695242 0.025310365 0.020479795 0.002923442 -0.13350959 0.11695544 -0.0749533
0.14217854 0.13051489 -0.0376812 0.045854677 -0.16909736 -0.25488004 -0.1482516 -0.036706418
-0.04226804 -0.11898815 0.14036816 -0.12534006 -0.15002494 -0.20906033 -0.15506722 0.0757413
-0.15995283 -0.011099159 -0.08878572 -0.094429076 -0.2575652 -0.003700609 0.19079995 0.031571902
0.20222984 -0.09294534 -0.26648325 0.08686009 0.06895365 -0.036402002 -0.11476466 -0.04424249
0.36016747 -0.24610615 0.2984231 -0.25779855 -0.028412493 0.29191846 -0.12994255 -0.06947178
-0.10885979 -0.0957466 0.008429888 -0.071414724 -0.014441268 -0.2469497 0.09997721 -0.14030588
-0.10633218 -0.26764956 -0.23176272 -0.26187077 0.117022276 -0.20155814 0.37944815 -0.23877072
0.27402124 0.088016324 -0.18598941 0.04249817 0.074191645 0.122138426 -0.3156239 -0.037451196
0.07167391 0.019693045 -0.076930955 0.33815643 -0.16519277 0.10109292 0.055271495 0.016459499
0.0921822 -0.12596406 0.07518693 -0.25864002 0.098230734 -0.058127895 -0.18769118 -0.20212477
-0.18979542 0.16047338 0.20618545 -0.28256536 0.0011320143 -0.022516938 -0.06393544 -0.3223643
00000000: fcf9 f63d 3c9f bdbd aec4 763d 0ca9 77bd
00000010: 8a78 69bd 7235 b63d 1f24 7abd 6ef8 c1bd
00000020: e867 43be e0e5 3bbe 77ce f73d 4b90 4c3d
00000030: fc92 893d e94d aabd a7fc d63d 2a0b 20bd
00000040: e07e 01be e391 9ebd 06e6 acbd 3ea5 56bd
00000050: 6c4d 8d3d 9caa 52bd f2cf 9a3d 772a 45bd
00000060: 7719 c13d 4b15 a23d e0ce 63bd 1d81 9bbd
00000070: 38fa e03d 0990 d73d d547 a5bd 2e91 1bbe
00000080: 5734 983d b5cc 8cbd 39cb 19be 9c63 9f3d
00000090: afb3 d0bd a27e 7c3d 080f 063e 55ec ab3d
000000a0: b3f9 9c3d 51a0 febd e5f0 343e f7bf e0bc
000000b0: 26b2 eabc 83f9 e4bd ad97 e2bd a83c ccbd
000000c0: d4f3 0bbe be99 a63d a39d 0a3e 0b15 02be
000000d0: 20e8 513d 859f 773d 801f a0bc 53d9 6cbd
000000e0: 682f 583d c666 6c3d 7325 21be 2a9a e2bd
000000f0: 5fc6 a83d c6af 993d d43d a2bd 2ec7 adbd
00000100: fbdb a2bc f959 3abe c115 d03d 8d6c 07be
00000110: 89b5 9f3d 5bbd f33d d704 b83d 306e c13d
00000120: 16d6 cfbd 822e 30be 8b70 dbbd 5ef2 a5bd
00000130: 5a34 00be c2d3 1fbe 1256 993d cc12 d0bd
00000140: a56a 07be ee4b 05be dcb4 cebd 2e3d a83d
00000150: 6768 1abe 25a3 74bd e8d9 12be 33ee eabd
00000160: 3584 e7bd 0de2 60bd bbf2 be3d 94b9 ba3d
00000170: 4082 f23d d1ca cabd dfd3 2ebe eef9 f93d
00000180: eb7e 8c3d 61b4 98bc ae08 eabd 2483 adbd
00000190: ebae 973d 5fc6 49bd becd 6a3d fbd4 b7bd
000001a0: 0a6c 14be e691 2d3d dfb4 a5bd 8eaf 52be
000001b0: dd33 01be 1ffe 48be 855a 133e e7e9 fc3d
000001c0: 9fc9 9d3d 28de d0bd 2adb 403e 8892 19be
000001d0: 7e1b 2ebe 4739 07be fb20 0fbd 3f24 bdbc
000001e0: cf62 b83d aec7 a53b 70b9 7b3d 6366 7ebd
000001f0: d68b 253e d70f 293e 4283 7bba b4d2 cabd
00000200: f98c 4d3e 4d06 523e 031a 21bd ab12 42be
00000210: 572a 923d 9a2b 04be 5e59 9bbe 3147 433d
00000220: c427 c6bd 5a3c 173e b082 0a3e d60b 083e
00000230: 73f6 163e 83ce 4cbe 707c 903e 13a7 8f3d
00000240: 676d a8bd 2f24 46be 98b3 1bbe 7ba8 f4bd
00000250: 8575 1bbe f25e 0b3e 817d 163e f3d7 07be
00000260: 2ce6 cf3d cd32 dfbb 75ce e7bd 3eb1 40bd
00000270: 69af 9d3d 7790 ad3d c8db 9ebe d256 6fbd
00000280: b276 4a3e 3b99 9d3d af57 cf3c 3ec5 a73c
00000290: 3897 3f3b bdb6 08be 5586 ef3d 1e81 99bd
000002a0: 4097 113e b2a5 053e 9a57 1abd 1dd2 3b3d
000002b0: dc27 2dbe a37f 82be 44cf 17be 7859 16bd
000002c0: 4121 2dbd 0fb0 f3bd acbc 0f3e 2559 00be
000002d0: 23a0 19be e913 56be f1c9 1ebe 411e 9b3d
000002e0: adca 23be 3fd9 35bc 4ad5 b5bd 0864 c1bd
000002f0: 96df 83be eb85 72bb 1061 433e 8a51 013d
00000300: 5715 4f3e 205a bebd 7e70 88be b4e3 b13d
00000310: 9237 8d3d 441a 15bd bc09 ebbd 9d37 35bd
00000320: df67 b83e 4003 7cbe eaca 983e 2cfe 83be
00000330: 51c1 e8bc 5676 953e a90f 05be 3847 8ebd
00000340: e2f1 debd cb16 c4bd 831d 0a3c e241 92bd
00000350: 119b 6cbc 62e0 7cbe dac0 cc3d 58ac 0fbe
00000360: b0c4 d9bd 5d09 89be 3553 6dbe ed13 86be
00000370: 60a9 ef3d 4265 4ebe 0747 c23e 5080 74be
00000380: 834c 8c3e e741 b43d 0274 3ebe 9012 2e3d
00000390: caf1 973d b623 fa3d 7599 a1be 6d66 19bd
000003a0: c5c9 923d 4f53 a13c fa8d 9dbd d722 ad3e
000003b0: 4b28 29be ce09 cf3d 5d64 623d 12d6 863c
000003c0: 05ca bc3d b9fc 00be 9bfb 993d 776c 84be
000003d0: 322d c93d 8417 6ebd 1e32 40be ccf9 4ebe
000003e0: bb59 42be 2253 243e 4722 533e 68ac 90be
000003f0: 1960 943a 7175 b8bc 95f0 82bd ef0c a5be

fc2.bias f4 [100]
0.24176626 0.15575713 0.24383548 0.27736348 0.26699352 0.16771927 0.31939673 -0.158157
-0.0555536 -0.2745963 0.18013653 0.18392988 0.21039352 -0.07226974 0.17918819 -0.2360035
0.25598365 -0.1537022 -0.07744838 0.20848693 0.18797417 -0.21296084 0.28659242 -0.25035176
-0.2883834 -0.27915147 -0.008274855 0.22329602 0.14815316 -0.30395517 0.21313168 -0.24952292
0.21367633 0.24383812 -0.15437162 0.16815738 -0.2613471 0.2432022 -0.24916679 0.24522132
-0.21711758 -0.10521323 -0.29629773 -0.21648037 0.19343716 0.17831191 0.1832455 -0.21753162
0.30727208 0.24070415 0.23941533 -0.19676301 -0.1546718 -0.2684308 0.27165714 0.30526316
0.297105 -0.32300976 0.26572725 -0.08691072 0.2497153 -0.20233838 0.21648368 0.26060477
0.2549797 -0.29481065 -0.17364772 0.17547183 -0.27457345 -0.2433852 0.2535337 -0.1934727
0.2339634 -0.2469982 -0.018108452 0.29706347 -0.33025727 -0.19605823 0.17967075 -0.2273073
0.12100182 -0.1629808 -0.12296453 -0.13463825 -0.2712745 0.21892466 -0.1754927 0.09634372
0.25874892 -0.19218993 -0.1574563 -0.18560667 -0.26274365 0.2402052 -0.1711891 0.21650743
-0.25086775 -0.21639337 0.23653741 -0.26073587
00000000: 9391 773e cc7e 1f3e 02b0 793e 9602 8e3e
00000010: 60b3 883e 9abe 2b3e f887 a33e e9f3 21be
00000020: 2c8c 63bd e397 8cbe b675 383e 1d58 3c3e
00000030: 6671 573e 2802 94bd 1c7d 373e e7aa 71be
00000040: 4a10 833e 1c64 1dbe 429d 9ebd 997d 553e
00000050: 4d7c 403e 6812 5abe 3ebc 923e 1b2e 80be
00000060: fda6 93be f1ec 8ebe 4293 07bc b6a7 643e
00000070: 76b5 173e 03a0 9bbe 313f 5a3e f082 7fbe
00000080: f8cd 5a3e b3b0 793e 9813 1ebe 7331 2c3e
00000090: 49cf 85be ff09 793e 9425 7fbe 4c1b 7b3e
000000a0: 1254 5ebe 097a d7bd 56b4 97be 08ad 5dbe
000000b0: 6414 463e 6697 363e b5a4 3b3e 9cc0 5ebe
000000c0: c452 9d3e 267b 763e 4b29 753e 3e7c 49be
000000d0: 4962 1ebe c36f 89be a516 8b3e 744b 9c3e
000000e0: 261e 983e 8961 a5be 670d 883e 3ffe b1bd
000000f0: 5eb5 7f3e cb31 4fbe e6ad 5d3e fd6d 853e
00000100: b38c 823e 6cf1 96be b5d0 31be e3ae 333e
00000110: e494 8cbe f839 79be 2bcf 813e b51d 46be
00000120: 1a94 6f3e 19ed 7cbe 2d58 94bc b418 983e
00000130: 7b17 a9be 7dc3 48be 9cfb 373e 3fc3 68be
00000140: cdcf f73d 70e4 26be d4d4 fbbd 9cde 09be
00000150: 7ee4 8abe c92d 603e 5cb4 33be db4f c53d
00000160: bd7a 843e 70cd 44be 393c 21be ad0f 3ebe
00000170: 5686 86be 5af8 753e 324c 2fbe 20b4 5d3e
00000180: bd71 80be 3996 5dbe dd36 723e 2c7f 85be

fc3.weight f4 [1, 100]
0.690645 0.7161378 0.70944095 0.72875774 0.72489655 0.69940484 0.7308448 -0.7095844
0.9925743 -0.7209293 0.6819708 0.7048258 0.70104724 -0.76947445 0.7093324 -0.69187194
0.72189486 -0.7095962 -0.691797 0.69826436 0.7246921 -0.695597 0.7203834 -0.7016241
-0.706555 -0.704829 0.708607 0.70580894 0.7090841 -0.7392351 0.6885622 -0.69200337
0.6994755 0.7001897 -0.6982868 0.70340616 -0.7149848 0.7411042 -0.7310156 0.70890915
-0.6980548 -0.6982304 -0.7263385 -0.70289093 0.7294984 0.71283436 0.69977266 -0.70431393
0.715919 0.7187052 0.73885334 -0.69996035 -0.70442635 -0.74030346 0.71199286 0.7480185
0.716234 -0.7238049 0.71323717 -0.6489605 0.709785 -0.6989764 0.7214501 0.69519657
0.70038736 -0.71694463 -0.7009647 0.70028687 -0.69333345 -0.6801586 0.74583304 -0.69238317
0.6966318 -0.7004945 -0.73221135 0.7487422 -0.7512201 -0.7152046 0.71321535 -0.70323575
-0.8194176 -0.67828393 -0.7003327 -0.7039818 -0.6936617 0.70871884 -0.6959322 -0.71763164
0.70808005 -0.71440744 -0.69265866 -0.6884055 -0.7474289 0.72264695 -0.7032637 0.70656157
-0.708461 -0.7599061 0.6799504 -0.7320885
00000000: 1cce 303f cf54 373f ec9d 353f de8f 3a3f
00000010: d292 393f 320c 333f a518 3b3f 53a7 35bf
00000020: 5919 7e3f d38e 38bf a395 2e3f 776f 343f
00000030: d577 333f 47fc 44bf cf96 353f 851e 31bf
00000040: 1ace 383f 19a8 35bf 9c19 31bf 74c1 323f
00000050: 6c85 393f a512 32bf 0c6b 383f a39d 33bf
00000060: cae0 34bf ac6f 34bf 4567 353f e5af 343f
00000070: 8986 353f 833e 3dbf 9d45 303f 2227 31bf
00000080: d410 333f a23f 333f ecc2 32bf 6d12 343f
00000090: 3e09 37bf 01b9 3d3f d723 3bbf 127b 353f
000000a0: b8b3 32bf 3abf 32bf 52f1 39bf a9f0 33bf
000000b0: 68c0 3a3f 507c 363f 4d24 333f eb4d 34bf
000000c0: 7846 373f 10fd 373f 7e25 3d3f 9a30 33bf
000000d0: 4955 34bf 8784 3dbf 2a45 363f 247e 3f3f
000000e0: 1d5b 373f 474b 39bf b696 363f 4622 26bf
000000f0: 78b4 353f 1ef0 32bf f4b0 383f 67f8 313f
00000100: 964c 333f af89 37bf 6c72 33bf 0046 333f
00000110: 4d7e 31bf e01e 2ebf eaee 3e3f 0640 31bf
00000120: 7656 323f 9c53 33bf 3472 3bbf 92ad 3f3f
00000130: f64f 40bf a617 37bf 4895 363f 4207 34bf
00000140: 5ac5 51bf 04a4 2dbf 0149 33bf 2738 34bf
00000150: d093 31bf 996e 353f 9d28 32bf b5b6 37bf
00000160: bc44 353f 68e3 36bf 1452 31bf 583b 30bf
00000170: 8057 3fbf 64ff 383f 1709 34bf 38e1 343f
00000180: b35d 35bf 3589 42bf 3b11 2e3f 276a 3bbf

fc1.weight f4 [100, 14]
0.17224258 0.20103094 0.19118664 0.24818724 0.14774786 0.16319935 -0.11586148 -0.24064642
0.010473045 -0.043955155 0.08164899 0.19243999 -0.12113759 0.22185326 -0.15361862 -0.07322954
0.0026708986 0.123771355 0.11742364 -0.2694782 0.14118682 0.24380887 -0.127333 -0.12107349
-0.21533708 0.023729093 -0.22544792 -0.13445318 0.022393212 -0.012233588 -0.24732621 -0.01604334
-0.24808145 0.064685 0.11048939 0.22468007 0.25431147 0.002834577 0.09327344 0.2693802
-0.14908025 0.08342959 -0.0046544024 -0.22303592 -0.2420371 0.1472481 -0.07220768 0.09255718
0.17785467 0.23357569 -0.19585076 0.12595749 0.211136 -0.25357747 -0.20638591 0.17128156
-0.24992795 -0.101081796 0.04009278 -0.07760693 0.03704245 -0.15296796 -0.21486591 0.071419664
0.2196239 -0.09672834 0.17304914 -0.19822758 -0.30957207 -0.1012136 0.07277337 0.1730957
0.015828837 0.1900804 0.18457288 -0.24650198 0.10535082 0.27780303 -0.015696883 -0.13068272
-0.05331788 0.21790683 -0.21660385 -0.06300302 0.07340522 0.18195875 0.15800552 0.26083362
-0.07624986 -0.23902534 0.2414585 -0.044484507 0.08764375 0.095025994 0.13630114 -0.13054432
0.032211687 -0.19286829 -0.017104615 0.090716206 0.09248493 0.17949603 -0.2514611 -0.2052443
-0.19038625 -0.110973515 0.24552773 0.15827279 -0.015603188 0.052102096 -0.041017234 -0.059708297
0.21587558 -0.17850456 -0.024383802 0.0032491712 -0.13803169 0.07879236 -0.035092488 0.10926862
-0.16649719 0.16939381 0.0012109323 0.14003336 0.30362964 0.30217746 0.23602553 -0.0077349353
0.19444144 -0.13983169 0.23428078 0.23003745 -0.14135018 0.14717716 -0.028329745 -0.23896596
-0.16836183 0.20668341 -0.06355356 0.15542406 -0.10440568 0.22699717 -0.09990665 0.113620274
-0.22339812 0.23816265 0.29112852 -0.15316467 0.2614136 0.07119644 0.17662254 -0.05845402
0.13835815 -0.034267038 -0.0048236772 -0.15112065 -0.20048559 -0.024626834 -0.13428424 0.20748901
-0.22028919 -0.15549718 -0.06294984 0.13167349 0.19073807 -0.082722954 -0.25997785 -0.02612277
-0.10529633 0.27896634 -0.04868058 0.22069219 -0.032644868 0.27442282 0.2348646 0.112175934
-0.07711057 -0.11857511 -0.2045918 -0.19575188 0.21840881 -0.17856325 -0.23207527 -0.1973597
-0.089531 0.1655304 -0.083925925 -0.17719279 -0.2885119 0.07070929 -0.10652131 0.17020158
0.1617738 -0.19039404 -0.1817881 -0.042268675 -0.05714257 0.2536911 -0.29051226 0.056271747
-0.18483573 -0.14805512 -0.14785424 0.07264363 0.0039085248 -0.048436806 0.18094254 0.29399362
-0.19335318 0.20240173 -0.1699064 0.07421757 -0.0122715365 0.04627177 -0.03395891 -0.16787705
0.007572666 -0.20806654 -0.00014099083 0.083614096 0.019893825 -0.083123945 0.22341374 0.104978584
-0.033582974 0.044617966 0.08163559 -0.1434128 -0.029251628 0.016765358 -0.15930153 -0.20744754
-0.12025981 0.19716544 0.02928055 0.19677308 -0.057715613 -0.019557038 0.040497478 0.25607535
-0.31612644 0.14751194 -0.18645984 -0.09105103 0.07406864 0.018453414 0.27433285 -0.054219227
0.027298221 -0.23096703 -0.24063458 0.10154182 0.26389635 -0.15061022 -0.22928646 -0.06343647
00000000: 5c60 303e 0edb 4d3e 6ec6 433e cc24 7e3e
00000010: 374b 173e bb1d 273e c948 edbd 046c 76be
00000020: 2297 2b3c 520a 34bd 9637 a73d fd0e 453e
00000030: fc16 f8bd 802d 633e 334e 1dbe 5ef9 95bd
00000040: 3e0a 2f3b d67b fd3d ce7b f03d 0cf9 89be
00000050: 4793 103e 08a9 793e 9563 02be 61f5 f7bd
00000060: 5381 5cbe 8463 c23c d2db 66be 18ae 09be
00000070: f871 b73c 636f 48bc 1543 7dbe 536d 83bc
00000080: 1009 7ebe 9279 843d 4348 e23d 8812 663e
00000090: 1d35 823e 50c4 393b 2506 bf3d 34ec 893e
000000a0: 7ea8 18be 22dd aa3d f583 98bb 8763 64be
000000b0: 93d8 77be 35c8 163e 9fe1 93bd 9e8e bd3d
000000c0: 891f 363e 772e 6f3e 1a8d 48be 00fb 003e
000000d0: 0934 583e e8d4 81be d456 53be 6f64 2f3e
000000e0: 1ded 7fbe f903 cfbd 5438 243d 62f0 9ebd
000000f0: d3b9 173d a2a3 1cbe cf05 5cbe 7944 923d
00000100: 16e5 603e 8219 c6bd cb33 313e 2cfc 4abe
00000110: 3b80 9ebe 1349 cfbd 340a 953d 0040 313e
00000120: 7aab 813c 70a4 423e ac00 3d3e 046b 7cbe
00000130: 2cc2 d73d 333c 8e3e c096 80bc b1d1 05be
00000140: d963 5abd f822 5f3e 66cd 5dbe ba07 81bd
00000150: 7a55 963d 6553 3a3e 33cc 213e fc8b 853e
00000160: e328 9cbd 0fc3 74be e640 773e 6335 36bd
00000170: 917e b33d fd9c c23d 8792 0b3e 69ad 05be
00000180: 67f0 033d 447f 45be fa1e 8cbc 6bc9 b93d
00000190: bd68 bd3d cfcd 373e 82bf 80be 902b 52be
000001a0: 9df4 42be 1546 e3bd 9f6b 7b3e 4312 223e
000001b0: 84a4 7fbc 0269 553d b001 28bd b090 74bd
000001c0: 7d0e 5d3e e6c9 36be 8ac0 c7bc 0cf0 543b
000001d0: 2e58 0dbe e45d a13d 24bd 0fbd 3ac8 df3d
000001e0: 3d7e 2abe 9275 2d3e 25b8 9e3a e864 0f3e
000001f0: 5875 9b3e 01b7 9a3e adb0 713e 5775 fdbb
00000200: a81b 473e 0a30 0fbe 4de7 6f3e f08e 6b3e
00000210: 1abe 10be 9cb5 163e c813 e8bc 7eb3 74be
00000220: 0b67 2cbe d1a4 533e 5e28 82bd 7c27 1f3e
00000230: a5d2 d5bd f271 683e dc9b ccbd bfb1 e83d
00000240: 7ac2 64be e9e0 733e cc0e 953e 33d7 1cbe
00000250: 01d8 853e 70cf 913d 8adc 343e 7c6d 6fbd
00000260: c2ad 0d3e 985b 0cbd f00f 9ebb 5fbf 1abe
00000270: 184c 4dbe 37be c9bc cf81 09be 0078 543e
00000280: 7d93 61be a73a 1fbe d9eb 80bd 6ad5 063e
00000290: d750 433e a76a a9bd d11b 85be 6bff d5bc
000002a0: 9aa5 d7bd add4 8e3e 4a65 47bd 22fd 613e
000002b0: a0b6 05bd 2681 8c3e 5880 703e 7fbc e53d
000002c0: 26ec 9dbd 82d7 f2bd 8380 51be 2e73 48be
000002d0: 8fa6 5f3e 49d9 36be 24a5 6dbe a918 4abe
000002e0: 075c b7bd cd80 293e 5be1 abbd 0772 35be
000002f0: d5b7 93be 08d0 903d d827 dabd 5349 2e3e
00000300: 08a8 253e a8f6 42be a926 3abe eb21 2dbd
00000310: 540e 6abd cde3 813e 06be 94be 347d 663d
00000320: 9445 3dbe c39b 17be 1a67 17be 2fc6 943d
00000330: 1513 803b ac65 46bd 0049 393e 5586 963e
00000340: 60fe 45be 6642 4f3e f1fb 2dbe 62ff 973d
00000350: 8e0e 49bc 7887 3d3d 7f18 0bbd f6e7 2bbe
00000360: 2024 f83b 650f 55be f0d6 13b9 de3d ab3d
00000370: 60f8 a23c e33c aabd 92c6 643e 03ff d63d
00000380: 4d8e 09bd 54c1 363d 8f30 a73d ceda 12be
00000390: 1ca1 efbc 8157 893c f11f 23be 216d 54be
000003a0: c64a f6bd bde5 493e c4dd ef3c e27e 493e
000003b0: 3567 6cbd 1536 a0bc afe0 253d 4f1c 833e
000003c0: 53db a1be 5f0d 173e 54ef 3ebe f678 babd
000003d0: 4db1 973d 9d2b 973c 5b75 8c3e fb14 5ebd
000003e0: 85a0 df3c 9f82 6cbe e968 76be 28f5 cf3d
000003f0: 6c1d 873e 9139 1abe 12ca 6abe fbea 81bd
