mujoco/gail/save_model/ckpt_1276.pth.tar (torch, 144879 bytes, 16 tensors)

fc1.weight f4 [100, 11]
-0.0019306766 -0.308621 0.2914752 -0.11190153 0.08099662 0.062431026 -0.22362834 0.24282177
0.28487027 0.24954806 0.14006373 0.5049855 -0.1089204 0.025755286 -0.27130026 0.25556937
0.08358077 0.05430322 0.07563938 0.19135377 0.10390644 0.5015058 0.44572845 -0.092497796
-0.12771812 0.21601635 0.19558905 -0.33119678 0.051893156 0.33392212 0.17733662 0.033347014
0.13981646 0.24390179 -0.14953604 -0.06955529 0.22446649 0.044058967 0.19812933 -0.35811466
-0.14276412 -0.37240914 0.25921836 -0.38195857 0.11069432 0.29324314 0.3102503 -0.38479567
-0.029830776 0.22916463 -0.23801512 -0.029062625 0.2300947 0.026743582 0.12506646 0.42321616
-0.065781206 -0.18812151 0.1557274 0.41241097 0.024188269 0.13600282 -0.25493807 0.042111784
-0.12444136 0.08849556 0.37942576 -0.27639082 0.37113023 -0.16617215 -0.08018991 -0.20879512
0.34639832 -0.02650256 0.087967284 -0.115427196 -0.11144462 0.005744745 0.36172545 -0.5805195
-0.24604888 0.20429023 0.18655346 0.19552788 0.015263461 -0.36625516 0.19509305 0.27347365
-0.14565416 0.2278455 -0.31978557 -0.44741836 0.21470745 0.27582246 0.141565 -0.11893159
0.3001943 -0.21460481 0.13349417 -0.015394738 0.1491134 -0.085519984 -0.047581233 0.34901896
-0.12587936 0.11224537 0.29075423 0.14457718 0.22305007 -0.0501339 -0.36223283 -0.13094166
0.04488588 -0.47051507 -0.14789309 0.3782777 -0.124776915 0.28255183 0.013726168 0.24610573
-0.04967638 -0.28377753 -0.09835842 0.2636341 -0.07835855 0.19446751 0.41888344 0.0045516733
-0.07635739 -0.03298363 -0.2236323 0.23945586 0.012759096 0.21763967 0.15283753 0.26633143
0.09913564 -0.27239388 0.0010219372 -0.11773851 0.4061843 -0.021107381 0.11609615 0.07181355
0.14107832 -0.055740554 0.30794725 -0.072623804 -0.14851215 -0.011760919 0.17654367 0.46689144
-0.3389265 0.07354666 -0.37305295 -0.097925976 0.2849452 0.22785516 0.01613169 -0.005250293
0.34478772 0.47318846 0.15434986 0.28478214 0.030419137 -0.10434642 -0.08544981 0.43748665
0.25614217 0.33227453 -0.029644515 -0.16072993 -0.06987021 0.39445674 0.053717684 0.018481351
0.31452802 -0.40462998 0.06907891 0.27674615 0.12457799 0.2637297 -0.17356111 0.3843207
0.48272005 0.1899544 0.25558636 0.0062573445 -0.31544036 -0.046241283 -0.06892633 -0.06521196
-0.37656116 0.16141002 0.06996743 -0.206022 -0.095598176 -0.24588567 0.30674452 0.34820154
0.20030795 -0.26662207 -0.053332232 0.34443665 0.005317177 0.009294732 -0.22573312 -0.2853394
0.17287977 -0.15234639 0.40091893 -0.5595057 0.04319249 0.28420582 -0.17036939 -0.28034574
-0.33720505 -0.342604 -0.018950172 -0.28185332 -0.33448842 -0.30336776 -0.03587549 0.324782
-0.16964574 -0.062130902 -0.18057816 -0.03751533 -0.0030803257 -0.14215681 -0.2753126 0.37991664
0.04656392 0.26485226 0.29766935 0.485461 -0.2920193 -0.041259646 0.039975103 -0.05975613
0.29481798 -0.11043988 0.11745968 -0.22316463 0.09099518 0.16662991 0.2988949 0.4138819
-0.19820678 -0.07181989 -0.3025974 0.15442923 -0.16483329 0.05957795 0.15679064 -0.29946035
00000000: c20e fdba 9203 9ebe 3d3c 953e a12c e5bd
00000010: 8ee1 a53d adb7 7f3d d4fe 64be 45a6 783e
00000020: 84da 913e 8789 7f3e de6c 0f3e bb46 013f
00000030: a911 dfbd c0fc d23c dee7 8abe fdd9 823e
00000040: 652c ab3d 0e6d 5e3d d2e8 9a3d 3ef2 433e
00000050: e6cc d43d af62 003f 8536 e43e 7c6f bdbd
00000060: 8ac8 02be 6433 5d3e 7f48 483e a092 a9be
00000070: eb8d 543d d7f7 aa3e bb97 353e e196 083d
00000080: 0c2c 0f3e 64c1 793e fa1f 19be 0173 8ebd
00000090: 8bda 653e 2d77 343d 6ae2 4a3e ce5a b7be
000000a0: c230 12be 69ac bebe 45b8 843e 1390 c3be
000000b0: b4b3 e23d f723 963e 21d9 9e3e f003 c5be
000000c0: ac5f f4bc 22aa 6a3e 3cba 73be be14 eebc
000000d0: f29d 6b3e 5b15 db3c 6c11 003e caaf d83e
000000e0: 4cb8 86bd eda2 40be 0177 1f3e 8827 d33e
000000f0: 7a26 c63c 5344 0b3e 3e87 82be 687d 2c3d
00000100: 1ddb febd 293d b53d 1844 c23e 1983 8dbe
00000110: c804 be3e 0829 2abe 9c3a a4bd 63ce 55be
00000120: 1f5b b13e e61b d9bc 3128 b43d 1865 ecbd
00000130: 143d e4bd 6a3e bc3b 1434 b93e ed9c 14bf
00000140: 3df4 7bbe 7531 513e df07 3f3e 7638 483e
00000150: 9813 7a3c cc85 bbbe 79c6 473e bd04 8c3e
00000160: 5d26 15be 5550 693e efba a3be 0514 e5be
00000170: 45dc 5b3e 9a38 8d3e 6af6 103e 6892 f3bd
00000180: 11b3 993e 5dc1 5bbe b2b2 083e 363a 7cbc
00000190: 2fb1 183e 1a25 afbd 8ae4 42bd 9db2 b23e
000001a0: 85e6 00be e7e0 e53d bddd 943e 0a0c 143e
000001b0: 3d67 643e 3459 4dbd 9576 b9be 9215 06be
000001c0: 42da 373d 5ae7 f0be 4971 17be 9dad c13e
000001d0: 0a8b ffbd a2aa 903e b9e3 603c 2403 7c3e
000001e0: 7679 4bbd 4a4b 91be 2470 c9bd 0cfb 863e
000001f0: 737a a0bd 7e22 473e e477 d63e 3426 953b
00000200: 4361 9cbd d819 07bd deff 64be eb33 753e
00000210: 870b 513c efdc 5e3e 7181 1c3e 985c 883e
00000220: a007 cb3d 3677 8bbe 86f2 853a e320 f1bd
00000230: 63f7 cf3e 63e9 acbc d1c3 ed3d fc12 933d
00000240: d676 103e 3550 64bd 43ab 9d3e cabb 94bd
00000250: 9213 18be dfb0 40bc ddc7 343e 650c ef3e
00000260: c687 adbe a29f 963d cc00 bfbe 6a8d c8bd
00000270: 56e4 913e dd52 693e 9b26 843c a60a acbb
00000280: 0488 b03e c245 f23e e40d 1e3e f7ce 913e
00000290: 8e31 f93c 93b3 d5bd 4f00 afbd 40fe df3e
000002a0: 1125 833e e31f aa3e 0ed9 f2bc 6396 24be
000002b0: 1d18 8fbd 3cf6 c93e 1307 5c3d 3466 973c
000002c0: d109 a13e a92b cfbe 3e79 8d3d acb1 8d3e
000002d0: bf22 ff3d 9407 873e 01ba 31be afc5 c43e
000002e0: 1527 f73e 6883 423e 37dc 823e 690a cd3b
000002f0: 6681 a1be 8067 3dbd 3f29 8dbd d98d 85bd
00000300: a0cc c0be ab48 253e 154b 8f3d 6ef7 52be
00000310: fac8 c3bd 74c9 7bbe 9e0d 9d3e 7947 b23e
00000320: 871d 4d3e b082 88be e672 5abd 005a b03e
00000330: b73b ae3b ee48 183c 9526 67be 0118 92be
00000340: 6507 313e b100 1cbe 3f45 cd3e c43b 0fbf
00000350: 9cea 303d 6d83 913e 5075 2ebe 7a89 8fbe
00000360: 24a6 acbe cb69 afbe 643d 9bbc 144f 90be
00000370: 1142 abbe 0553 9bbe 2ef2 12bd d449 a63e
00000380: 9db7 2dbe f97c 7ebd 7be9 38be ada9 19bd
00000390: 4adf 49bb 8e91 11be c6f5 8cbe 6f84 c23e
000003a0: cfb9 3e3d b79a 873e 1e68 983e 588e f83e
000003b0: 8e83 95be e0ff 28bd efbc 233d d8c2 74bd
000003c0: 62f2 963e 4e2e e2bd b38e f03d 4585 64be
000003d0: ae5b ba3d 08a1 2a3e c108 993e 54e8 d33e
000003e0: b8f6 4abe 4e16 93bd 0cee 9abe b222 1e3e
000003f0: 0fca 28be 0208 743d ba8d 203e de52 99be

fc1.bias f4 [100]
-0.22498016 -0.23263593 -0.009712896 0.21568339 0.040123668 -0.22238438 -0.12315373 -0.07739541
-0.16802633 -0.4075523 0.09425317 0.25729564 -0.21668649 0.20037277 0.14345956 -0.24366497
0.28684494 0.2845572 -0.09830904 0.05088463 0.0390532 -0.21676838 0.22098461 -0.25813225
0.13236897 0.09756452 -0.2720426 -0.37058797 0.23564605 0.26026765 -0.14593638 0.10143322
0.18146461 0.17436586 -0.39699826 0.06314317 0.24162586 -0.08623758 -0.24869683 0.18675745
0.21807323 0.24038664 0.007657822 -0.41574493 0.026545472 0.08624053 -0.34424666 -0.30265453
0.17873457 0.4339688 0.080476396 0.30912176 -0.27811643 -0.13033035 0.011396512 0.24703184
-0.02397904 0.31716594 0.31476602 0.30630368 -0.16423188 0.2900293 0.37361717 0.07447819
-0.15867633 -0.3766063 0.023033256 -0.10831695 0.011017543 0.021446185 0.31985754 -0.014148589
0.2635001 0.17657076 -0.20141625 -0.27883148 0.15851215 0.1386565 0.28501406 0.37419018
-0.27531353 -0.25579783 0.14389051 0.2393986 0.28485087 -0.42379928 -0.27044782 0.30609232
0.26292515 -0.18266436 0.28074116 0.33842367 -0.049379665 0.33962825 -0.28970858 0.24298555
0.2752745 -0.20215069 0.20841794 0.27896705
00000000: 3361 66be 1d38 6ebe d722 1fbc 1bdc 5c3e
00000010: b758 243d bbb8 63be 0638 fcbd 7c81 9ebd
00000020: 180f 2cbe b2aa d0be ce07 c13d 41bc 833e
00000030: 10e3 5dbe 852e 4d3e 10e7 123e 4f83 79be
00000040: 57dd 923e 7bb1 913e 4056 c9bd 676c 503d
00000050: 40f6 1f3d 88f8 5dbe ca49 623e e929 84be
00000060: bb8b 073e e8cf c73d 2b49 8bbe b5bd bdbe
00000070: 334d 713e cd41 853e 5970 15be 38bc cf3d
00000080: dcd1 393e f78c 323e 5b43 cbbe 3551 813d
00000090: c56c 773e 549d b0bd 62aa 7ebe 583d 3f3e
000000a0: 974e 5f3e ea27 763e 78ee fa3b 85dc d4be
000000b0: e475 d93c e09e b03d 1941 b0be 89f5 9abe
000000c0: 3206 373e 2931 de3e cfd0 a43d 3545 9e3e
000000d0: 4765 8ebe 5275 05be 70b8 3a3c eaf5 7c3e
000000e0: b16f c4bc 9363 a23e 0329 a13e d6d3 9c3e
000000f0: 672c 28be b87e 943e c04a bf3e 0588 983d
00000100: 0c7c 22be 8ad2 c0be 3db0 bc3c 47d5 ddbd
00000110: ed82 343c e9af af3c 5ec4 a33e 7ccf 67bc
00000120: 7ce9 863e f7ce 343e 1040 4ebe 00c3 8ebe
00000130: 0251 223e f8fb 0d3e 5ded 913e db95 bf3e
00000140: e5f5 8cbe eff7 82be 0958 133e e824 753e
00000150: f9d7 913e 38fc d8be 2378 8abe 22b8 9c3e
00000160: 209e 863e 5e0c 3bbe 4ebd 8f3e de45 ad3e
00000170: 5542 4abd c1e3 ad3e af54 94be 34d1 783e
00000180: c7f0 8c3e 9700 4fbe 836b 553e c5d4 8e3e

fc2.weight f4 [100, 100]
0.020165235 -0.01773128 -0.015373418 0.047045067 0.028890898 -0.059960138 -0.05440232 -0.09272756
-0.0054741967 -0.107684806 0.08295873 -0.04138275 0.111443415 0.19390759 0.09343755 0.1760923
-0.06207045 -0.05806992 -0.14001559 0.13790058 0.104762055 0.07900388 -0.0010378385 -0.023764612
-0.11750102 0.0064676227 -0.06326601 -0.11965299 -0.25502032 -0.06307231 0.06882391 -0.018211918
0.20176528 -0.007719403 0.216985 0.15479434 -0.11561922 0.13920282 -0.046019033 -0.05094586
0.04116209 -0.08541279 0.121945426 0.120687254 -0.034035787 0.06539484 -0.109909445 -0.005132292
-0.03382593 -0.031167137 0.029333465 -0.077158034 0.10790465 -0.033934828 -0.08963872 0.0013158538
0.022781247 0.24582529 0.09254546 0.008012512 0.03562119 -0.0026843068 0.07715781 -0.12155851
0.08551121 0.056561433 0.16580476 0.06110535 -0.13888115 -0.24016373 -0.036333017 -0.058767676
0.07376129 0.022019353 0.28728268 -0.24535893 -0.081366435 0.28983122 -0.056033127 -0.16304635
-0.059173677 0.037142154 0.09625148 0.14340168 -0.0823521 -0.03520973 0.21415633 -0.059942976
-0.20226105 0.16481628 -0.034951568 -0.07467019 -0.114877686 -0.12056493 -0.097046174 0.02272643
0.11050671 -0.11849247 0.022016559 0.08934906 -0.15576239 -0.09375081 0.12596305 0.16778953
-0.09255315 -0.0015657021 0.018482374 0.23693962 0.011746038 0.097465456 0.12260051 -0.18679589
-0.09595136 0.027274372 0.034858346 -0.03466185 0.14489585 0.08414452 -0.061914176 0.103156075
-0.08921123 0.08750019 0.1333298 0.068864636 -0.109615035 0.006872174 -0.07316942 -0.084774695
-0.020388955 0.22577663 -0.21275789 -0.07469075 -0.035624165 -0.002859001 -0.05706915 0.0380477
0.038204305 0.21205217 0.053267162 -0.08497999 -0.034721844 -0.15606561 -0.11127881 0.09381602
-0.031777486 -0.12279558 0.047832903 -0.027975772 0.063782334 0.014974836 0.052040942 -0.11168088
0.05868298 -0.008477365 0.07467194 0.13162997 0.05932385 -0.03657263 -0.052604254 -0.07950647
0.07958012 0.01075067 -0.015597143 0.12288974 -0.22832292 -0.07937074 0.0268666 0.087581605
0.11369809 0.26619938 0.18063264 -0.15859729 0.035223722 -0.12218743 -0.0807951 -0.15489623
-0.026782418 -0.08132195 -0.023170264 0.24766369 -0.0957343 -0.07534431 -0.13491762 -0.12868856
0.055579074 0.036749016 0.093330346 -0.06865377 -0.10021003 0.070781074 0.14762124 0.017162537
-0.024500754 0.11503203 0.003023719 0.1125929 -0.03635458 -0.019589435 0.03514388 0.0447337
-0.010532246 -0.1318904 0.065442115 -0.01545878 -0.033194717 -0.064264566 -0.0900196 -0.2051635
0.10034305 0.013762498 -0.09097598 0.24264936 0.029049084 0.28496647 0.15488929 -0.06308176
0.057480726 0.020925753 -0.007868823 0.02731629 0.2584619 -0.2578992 0.06318368 -0.17359377
-0.08898441 0.024077453 0.015774714 0.051645324 -0.066800155 0.122131445 -0.04648446 -0.061888143
0.16235419 -0.10268 -0.052140944 0.14082411 -0.0031587877 0.017709117 -0.23016751 0.0051991246
0.13122012 -0.07097447 -0.009933104 0.16560183 0.092403896 -0.029107615 0.0672828 -0.111602984
-0.06627554 -0.060326137 0.036278352 -0.008954147 -0.033146538 -0.017159427 -0.07836985 -0.0099740205
00000000: 9031 a53c 3041 91bc cae0 7bbc 54b2 403d
00000010: 9bac ec3c c398 75bd f8d4 5ebd f2e7 bdbd
00000020: e460 b3bb da89 dcbd 44e6 a93d f580 29bd
00000030: 723c e43d b68f 463e 305c bf3d 8a51 343e
00000040: 963d 7ebd b9da 6dbd 3f60 0fbe cf35 0d3e
00000050: 7d8d d63d c9cc a13d 1508 88ba 01ae c2bc
00000060: 60a4 f0bd 5aee d33b 9c91 81bd a00c f5bd
00000070: 0692 82be 0e2c 81bd 8df3 8c3d 2931 95bc
00000080: 8f9b 4e3e 0cf3 fcbb 5131 5e3e 6882 1e3e
00000090: c5c9 ecbd 2f8b 0e3e 747e 3cbd 9bac 50bd
000000a0: 9499 283d e7ec aebd 86be f93d e12a f73d
000000b0: 1c69 0bbd bbed 853d 3418 e1bd c92c a8bb
000000c0: 0f8d 0abd 3952 ffbc bc4c f03c 0805 9ebd
000000d0: 1dfd dc3d 3fff 0abd 8194 b7bd ba78 ac3a
000000e0: bd9f ba3c a0b9 7b3e 7988 bd3d e946 033c
000000f0: 86e7 113d 32eb 2fbb ea04 9e3d abf3 f8bd
00000100: 8020 af3d f6ac 673d b9c8 293e 9a49 7a3d
00000110: dc36 0ebe 7bed 75be eed1 14bd 60b6 70bd
00000120: 2910 973d ee61 b43c b716 933e 5f3f 7bbe
00000130: 72a3 a6bd c264 943e fe82 65bd 9ff5 26be
00000140: 1960 72bd 5f22 183d 7f1f c53d e4d7 123e
00000150: 38a8 a8bd 1438 10bd cc4b 5b3e c486 75bd
00000160: 851d 4fbe 99c5 283e 6029 0fbd afec 98bd
00000170: fe44 ebbd bfea f6bd 25c0 c6bd c72c ba3c
00000180: 5851 e23d 2eac f2bd 125c b43c a4fc b63d
00000190: 2d80 1fbe 6d00 c0bd 75fc 003e 05d1 2b3e
000001a0: 828c bdbd 3f38 cdba 5968 973c 4da0 723e
000001b0: 7472 403c f89b c73d fa15 fb3d 6c47 3fbe
000001c0: 2682 c4bd 816e df3c a0c7 0e3d 96f9 0dbd
000001d0: 945f 143e f653 ac3d b899 7dbd 7e43 d33d
000001e0: 61b4 b6bd 4d33 b33d 9b87 083e e708 8d3d
000001f0: d97d e0bd f92f e13b d9d9 95bd 5b9e adbd
00000200: bd06 a7bc fd31 673e 34dd 59be 77f7 98bd
00000210: a5ea 11bd 145e 3bbb 57c1 69bd e8d7 1b3d
00000220: 1e7c 1c3d 3424 593e ab2e 5a3d fd09 aebd
00000230: 7e38 0ebd aacf 1fbe 25e6 e3bd 9d22 c03d
00000240: 1c29 02bd 407c fbbd 6fec 433d 722d e5bc
00000250: 50a0 823d 0459 753c e228 553d f2b8 e4bd
00000260: 905d 703d a5e4 0abc 9aed 983d 02ca 063e
00000270: 91fd 723d 2fcd 15bd 8f77 57bd 4ad4 a2bd
00000280: e7fa a23d 9423 303c 298b 7fbc 9ead fb3d
00000290: 7ccd 69be 208d a2bd 5817 dc3c fc5d b33d
000002a0: 8bda e83d 494b 883e c3f7 383e 5467 22be
000002b0: c046 103d 673d fabd e777 a5bd 1e9d 1ebe
000002c0: cd66 dbbc 1f8c a6bd 91cf bdbc 8d9b 7d3e
000002d0: 5810 c4bd 1e4e 9abd d827 0abe efc6 03be
000002e0: e2a6 633d 2386 163d fb23 bf3d 599a 8cbd
000002f0: eb3a cdbd abf5 903d 062a 173e 7398 8c3c
00000300: ceb5 c8bc ea95 eb3d 9629 463b 1b97 e63d
00000310: 8ae8 14bd 067a a0bc 07f3 0f3d af3a 373d
00000320: 718f 2cbc 470e 07be 8406 863d d346 7dbc
00000330: 2ff7 07bd 249d 83bd 325c b8bd 6116 52be
00000340: a880 cd3d 1a7c 613c 9d51 babd 1379 783e
00000350: 58f8 ed3c 20e7 913e 4c9b 1e3e 0331 81bd
00000360: e970 6b3d 7c6c ab3c 3cec 00bc 6ac6 df3c
00000370: 1e55 843e 5d0b 84be 7266 813d 91c2 31be
00000380: 753d b6bd 143e c53c f939 813c 0c8a 533d
00000390: 85ce 88bd 0d20 fa3d 7d66 3ebd 6c7e 7dbd
000003a0: 2d40 263e e449 d2bd be91 55bd 3234 103e
000003b0: aa03 4fbb b612 913c 08b1 6bbe 6b5d aa3b
000003c0: 915e 063e 105b 91bd 75be 22bc 8793 293e
000003d0: 413e bd3d 1873 eebc 91cb 893d 1b90 e4bd
000003e0: 78bb 87bd 8a18 77bd 9c98 143d 6ab4 12bc
000003f0: aac4 07bd ed91 8cbc 5f80 a0bd 136a 23bc

fc2.bias f4 [100]
-0.1400151 0.08932185 0.003011679 -0.08462424 0.035985846 -0.07557159 0.07423153 -0.008501046
0.031089589 -0.37428418 0.03673973 0.16193268 -0.014208695 -0.1814972 0.021616638 -0.046013657
-0.18530135 0.25118497 -0.034879025 0.17393099 -0.01769763 0.08334932 -0.16228051 -0.010254592
-0.023487613 0.20739824 -0.037339553 0.06367459 -0.21145333 -0.07020064 0.069746144 0.029834444
-0.0016387741 0.17407343 -0.0032604944 0.1579557 0.05663335 -0.08520684 -0.18744364 0.010261001
-0.11948407 0.02556427 0.02324546 0.010695141 0.08604289 0.043054957 -0.07973008 -0.0193088
-0.050416775 0.0378449 0.12956978 -0.06903159 0.13572502 -0.2311471 0.1379334 0.09766711
-0.0843084 0.122936025 -0.04416427 -0.02955283 -0.11249952 0.08596263 0.027690874 0.121901445
-0.069344595 0.14267635 -0.013333968 -0.036774997 -0.049015287 0.03249091 0.18897665 0.023931975
0.062566265 0.11995357 0.008786247 0.0754416 -0.09916243 0.026840804 -0.1473362 -0.07786642
0.043026086 -0.24139065 0.008108642 -0.0070538344 0.10591424 0.11860021 -0.015854808 -0.10598894
0.2540695 -0.050807357 -0.0964522 -0.029510977 0.10273185 0.07961871 -0.1428737 0.07213408
0.3670317 0.07511413 -0.036811344 0.020521775
00000000: 1e60 0fbe 60ee b63d 975f 453b 794f adbd
00000010: e565 133d 47c5 9abd b306 983d f947 0bbc
00000020: 98af fe3c 2da2 bfbe 667c 163d aed1 253e
00000030: 96cb 68bc 67da 39be 6015 b13c d178 3cbd
00000040: a3bf 3dbe 519b 803e 4fdd 0ebd f71a 323e
00000050: 9ffa 90bc 0cb3 aa3d dd2c 26be e002 28bc
00000060: 1869 c0bc 3460 543e 5cf1 18bd d367 823d
00000070: 3987 58be 5ac5 8fbd 11d7 8e3d 5d67 f43c
00000080: 22cc d6ba 4e40 323e 05ae 55bb 24bf 213e
00000090: 5ff8 673d ec80 aebd 3af1 3fbe c21d 283c
000000a0: 10b4 f4bd 296c d13c 436d be3c ac3a 2f3c
000000b0: 4137 b03d 655a 303d 8649 a3bd 7d2d 9ebc
000000c0: d281 4ebd 4103 1b3d f1ad 043e 6f60 8dbd
000000d0: 80fb 0a3e d3b1 6cbe 6a3e 0d3e b205 c83d
000000e0: e2a9 acbd e2c5 fb3d 98e5 34bd c718 f2bc
000000f0: 2666 e6bd 2d0d b03d f9d7 e23c 77a7 f93d
00000100: 8a04 8ebd c019 123e b776 5abc 61a1 16bd
00000110: 41c4 48bd 3015 053d 1883 413e fd0c c43c
00000120: be22 803d 38aa f53d 31f4 0f3c 2081 9a3d
00000130: ac15 cbbd 3fe1 db3c 4ddf 16be 6e78 9fbd
00000140: 1f3c 303d 1c2f 77be 1cda 043c da23 e7bb
00000150: 91e9 d83d abe4 f23d f1e1 81bc bb10 d9bd
00000160: 6615 823e 601b 50bd bb88 c5bd 01c1 f1bc
00000170: 1465 d23d 220f a33d 7c4d 12be 08bb 933d
00000180: 94eb bb3e 70d5 993d 7ec7 16bd 481d a83c

fc3.weight f4 [3, 100]
0.04688308 0.10402927 0.005575648 -0.15868169 0.12963304 0.057875693 0.12680586 -0.08862417
-0.006594674 -0.12696952 0.055817336 0.13032709 -0.05443745 0.006378765 0.015525901 -0.09109445
0.006056009 0.1215472 -0.0293638 -0.039451215 0.110481 0.060986497 -0.060116656 0.074104294
-0.0175295 0.00097282726 -0.061216503 -0.030984148 -0.00039623844 0.012566962 -0.07394583 -0.14548783
0.16397402 0.03575326 -0.11822568 0.107312396 0.041923393 -0.083367705 -0.04386966 -0.061748616
-0.09075366 0.08069375 0.024487846 -0.08264207 0.10573759 0.11450759 -0.22882432 -0.027000869
-0.093883365 0.027324758 -0.053241163 0.07576282 0.051861983 -0.05998476 0.10192975 0.072022855
0.27592036 0.12270678 0.02122288 0.012338886 -0.012498959 0.06723991 -0.070960745 -0.0060978904
-0.033536837 0.049016118 0.04403189 0.034103826 0.07501821 -0.011639636 -0.024573592 0.07063848
-0.12661302 0.1116132 0.11848142 0.15506284 0.068629704 -0.013076131 0.059090436 -0.054862615
0.04605339 0.06161307 -0.036412276 0.15553689 -0.012818104 -0.008817957 -0.09093339 0.09634648
0.0015153646 -0.01462171 0.10943036 0.077018805 0.04307097 0.21506119 0.00644974 0.05494927
0.09771015 0.06457824 -0.0642156 -0.012259154 0.13305321 -0.05620155 0.19407058 -0.004062174
-0.08484807 -0.062144205 -0.0117548965 -0.070824936 -0.084803775 -0.179313 0.0041378094 0.071537375
-0.07905349 -0.1361353 -0.11861595 -0.11623572 0.004363466 0.087848224 0.06214546 0.15368816
0.081627995 0.024182644 -0.2462529 0.025034511 -0.009715777 -0.09930142 -0.11002358 0.021382807
-0.14284235 0.26081502 0.083592504 0.13231528 -0.01142711 -0.09238279 0.006782437 0.09500303
-0.14284472 0.008168439 0.018347975 0.039900836 0.050132506 -0.11779344 -0.11195007 0.025199415
-0.0022216975 -0.030772546 -0.17845312 -0.036628585 0.092495196 0.0254553 -0.1009538 0.027827712
0.17751242 -0.10429417 0.07124406 -0.07001742 0.06801761 -0.096078396 0.023423456 0.11105968
0.1236271 -0.10276974 -0.16882777 -0.11043306 -0.015146639 0.047686223 -0.14250417 -0.024149839
0.036927335 0.04993738 -0.07342763 -0.06578299 0.09912833 0.085245505 -0.17775513 -0.08085376
0.19646418 0.0123418365 0.07315046 0.06979249 -0.016261164 -0.074110135 -0.025652075 -0.16122827
-0.08620204 0.07273915 -0.0426798 -0.14732242 0.21189135 0.062496506 -0.15529522 0.03423631
-0.10466896 -0.0607891 0.1336371 -0.05522214 0.20034519 -0.1399802 0.010486402 0.19760774
-0.10037861 -0.019458191 0.0625577 -0.0018527532 -0.27440974 0.031877074 -0.32063022 -0.3479457
0.059493277 -0.2240822 0.16015948 -0.037952166 0.0030114271 -0.06311907 0.0813808 0.012381268
0.13389745 -0.009050892 0.013223198 0.04536425 0.013764971 0.17225538 -0.100633055 -0.22875169
0.009395777 0.09738764 0.019814312 0.01692705 -0.0549804 -0.13219334 -0.15490144 -0.2760746
-0.04610477 0.26757342 -0.12280488 -0.09441524 -0.123769075 -0.102369845 -0.12519245 -0.040812105
-0.027618729 0.119494446 0.042399336 0.025703931 -0.013019105 0.010878933 0.0055716247 0.15252966
-0.027075782 -0.013664559 0.15713133 0.14450613 0.09708368 0.072788835 0.043410316 0.025303243
00000000: 7908 403d 4c0d d53d edb3 b63b 747d 22be
00000010: 86be 043e 100f 6d3d 65d9 013e 9780 b5bd
00000020: 2318 d8bb 4c04 02be b8a0 643d 7774 053e
00000030: cef9 5ebd f604 d13b 5960 7e3c ba8f babd
00000040: 7c71 c63b bded f83d 5a8c f0bc 9997 21bd
00000050: dd43 e23d facc 793d e23c 76bd fec3 973d
00000060: 079a 8fbc 5505 7f3a 28be 7abd 78d2 fdbc
00000070: 39be cfb9 a9e5 4d3c e970 97bd c3fa 14be
00000080: cee8 273e 0372 123d 4e20 f2bd 9ac6 db3d
00000090: ddb7 2b3d b0bc aabd acb0 33bd 1eec 7cbd
000000a0: 0edd b9bd c442 a53d bc9a c83c 3f40 a9bd
000000b0: f38c d83d f582 ea3d ec50 6abe ed30 ddbc
000000c0: ec45 c0bd 2cd8 df3c 6813 5abd 8a29 9b3d
000000d0: 3b6d 543d 94b2 75bd 8bc0 d03d b880 933d
000000e0: 6f45 8d3e b14d fb3d 9bdb ad3c 0a29 4a3c
000000f0: 6fc8 4cbc 14b5 893d de53 91bd d0d0 c7bb
00000100: ec5d 09bd 20c5 483d c85a 343d 74b0 0b3d
00000110: 26a3 993d 2cb4 3ebc 8f4e c9bc e8aa 903d
00000120: d8a6 01be 7695 e43d 63a6 f23d cbc8 1e3e
00000130: bb8d 8c3d 453d 56bc d008 723d 9fb7 60bd
00000140: 7ba2 3c3d fd5d 7c3d 0a25 15bd 1045 1f3e
00000150: 0603 52bc 3179 10bc 493b babd 4e51 c53d
00000160: 339f c63a e68f 6fbc 061d e03d 09bc 9d3d
00000170: 2f6b 303d 0039 5c3e 5758 d33b 7c12 613d
00000180: 421c c83d 9941 843d 7883 83bd 9eda 48bc
00000190: 1a3f 083e 9933 66bd 70ba 463e fc1b 85bb
000001a0: d3c4 adbd ec8a 7ebd 9c97 40bc aa0c 91bd
000001b0: 9aad adbd d49d 37be 7696 873b 3082 923d
000001c0: cce6 a1bd 0d67 0bbe ebec f2bd fe0c eebd
000001d0: 68fb 8e3b c5e9 b33d 3d8c 7e3d 6e60 1d3e
000001e0: 942c a73d ae1a c63c b829 7cbe 2d15 cd3c
000001f0: ec2e 1fbc 8b5e cbbd 0b54 e1bd ff2a af3c
00000200: 4445 12be 8c89 853e 8c32 ab3d a87d 073e
00000210: c638 3bbc 3033 bdbd 353f de3b f390 c23d
00000220: e345 12be ebd4 053c 7e4e 963c 0f6f 233d
00000230: be57 4d3d b03d f1bd 1446 e5bd 016f ce3c
00000240: e699 11bb b516 fcbc 6abc 36be db07 16bd
00000250: 1f6e bd3d a287 d03c dec0 cebd f1f6 e33c
00000260: d1c5 353e 2f98 d5bd 68e8 913d 4b65 8fbd
00000270: d14c 8b3d c0c4 c4bd 8ce2 bf3c 4273 e33d
00000280: 3430 fd3d f178 d2bd 30e1 2cbe ba2a e2bd
00000290: 9c29 78bc a152 433d 9dec 11be e2d5 c5bc
000002a0: 1e41 173d 238b 4c3d 3a61 96bd 3bb9 86bd
000002b0: cb03 cb3d 3295 ae3d 7105 36be a896 a5bd
000002c0: e82d 493e 6a35 4a3c e9cf 953d 5def 8e3d
000002d0: 2236 85bc 0ec7 97bd 4d24 d2bc 0619 25be
000002e0: b28a b0bd 43f8 943d 04d1 2ebd b0db 16be
000002f0: 0cfa 583e 56fc 7f3d b605 1fbe 5f3b 0c3d
00000300: ae5c d6bd fefd 78bd 2ad8 083e 9c30 62bd
00000310: 4a27 4d3e f856 0fbe 28cf 2b3c af59 4a3e
00000320: 4d93 cdbd c966 9fbc 401e 803d 15d8 f2ba
00000330: 6f7f 8cbe 8991 023d a529 a4be f025 b2be
00000340: 39af 733d ce75 65be d900 243e bb73 1bbd
00000350: 5d5b 453b 9244 81bd faaa a63d cdda 4a3c
00000360: 6a1c 093e 314a 14bc 1da6 583c ddcf 393d
00000370: 7986 613c b763 303e b418 cebd e23d 6abe
00000380: bff0 193c 2c73 c73d a051 a23c 99aa 8a3c
00000390: 2133 61bd b15d 07be 7c9e 1ebe a659 8dbe
000003a0: 5bd8 3cbd 62ff 883e 2081 fbbd c75c c1bd
000003b0: a47a fdbd 48a7 d1bd 7332 00be 982a 27bd
000003c0: ac40 e2bc 81b9 f43d edaa 2d3d 0d91 d23c
000003d0: 164e 55bc 8d3d 323c 2d92 b63b bc30 1c3e
000003e0: 08ce ddbc 51e1 5fbc 09e7 203e 6af9 133e
000003f0: cfd3 c63d 5012 953d 04cf 313d bf48 cf3c

fc3.bias f4 [3]
0.055499237 0.00499841 0.040692758
00000000: 2b53 633d b4c9 a33b 73ad 263d

fc1.weight f4 [100, 11]
-0.2520415 0.19030876 -0.016029945 -0.29732314 0.09168626 0.10542799 -0.053536925 0.15785494
-0.042502753 -0.04493216 0.013353923 0.023187254 -0.19287878 0.24741593 0.15600649 -0.07419842
-0.17399606 -0.09661439 -0.11394973 0.058567625 0.2316327 0.22623181 -0.12172781 0.09267131
-0.22705686 -0.24904467 0.11609168 0.2064072 -0.12904961 0.30618775 -0.2061419 -0.21590434
0.008232757 0.12441082 -0.29681015 0.33700895 0.18851882 -0.057087664 -0.119510725 0.231928
0.005203535 -0.019143058 0.20952618 -0.03770263 -0.50869673 -0.08993352 0.07068244 -0.6528955
-0.067936294 0.0608481 -0.0033336435 0.14204173 -0.0514112 -0.0045215595 -0.20589142 -0.24925156
0.16016051 -0.03523662 -0.25447077 -0.049159076 0.15505351 -0.12584673 0.20474651 -0.020175785
-0.16683787 -0.02690916 -0.74359274 0.2006437 0.10554205 -0.3000325 0.026388913 0.036424667
0.059877846 -0.04517962 0.09462268 0.18752654 -0.4332668 0.2101286 0.07913372 0.002824912
-0.21040092 -0.11292971 -0.0397232 -0.06376837 -0.23200908 0.2914952 -0.15068018 0.106024966
-0.18770227 -0.0485988 -0.3941328 0.23061834 0.20756638 -0.060123153 0.026041497 0.2830624
-0.25550738 -0.15647005 0.018901877 0.006660646 0.27073246 -0.21457201 0.034657735 0.2704353
0.26336262 0.14187448 0.3387268 -0.24103813 -0.1185453 0.12595704 -0.09357059 -0.094395176
0.060533404 0.20336275 0.111031815 0.115710266 0.020443404 -0.12447619 -0.06279815 0.13877247
0.09893225 0.035691474 0.022401808 0.24803574 0.22619979 0.23889205 0.12307379 0.09518942
-0.23286954 0.30976164 0.35507655 -0.06093326 -0.029104743 0.07039069 0.35852596 0.10101541
0.0021078733 -0.07772595 0.15792792 -0.18229356 0.26469517 0.11386452 0.08242735 0.14917143
-0.08700157 0.13826849 0.288454 0.03827299 0.14483586 0.07550405 -0.13608755 0.25965488
0.102431364 0.17415366 0.26336506 -0.30232683 0.2999188 0.27931684 0.023472307 -0.13247232
-0.13214985 -0.101164125 0.0019310802 -0.15637034 0.28465387 0.13424519 -0.36984378 0.46662015
-0.18506646 -0.23050037 -0.118735574 0.3264348 -0.026736572 -0.021521714 0.0026508044 0.14385371
-0.19763246 -0.17663144 0.3185753 -0.25344983 -0.15006727 -0.17119892 -0.09209819 -0.13110733
-0.02442351 0.22331914 -0.004408088 0.2351269 0.015763003 -0.1049645 0.14400306 -0.093486205
0.04405599 0.13610609 -0.29424146 0.10857401 0.30239648 -0.11677637 -0.08588187 -0.2680509
0.04573807 0.15458113 0.06524293 0.0025255794 -0.20224027 0.028275317 0.20821323 0.16741386
0.26370654 0.10206901 -0.21051668 0.060547784 0.25387663 0.095643416 -0.0815033 0.2285021
-0.32296064 0.18085082 0.27327195 0.16299619 -0.16762115 -0.088183306 -0.1914051 0.053915642
-0.062338233 0.32909286 0.048409887 0.097848825 -0.09680633 -0.22505942 -0.12782142 0.14918198
-0.06775558 0.12932019 0.5280623 0.015222701 -0.09298872 0.08010538 -0.14808588 0.12760064
0.013562901 -0.019231997 -0.12555256 0.109831326 -0.24121004 -0.22492757 0.032711618 0.091901645
-0.12699035 0.19395725 -0.11650858 -0.14131944 -0.101243034 0.2663526 -0.30722013 0.09663926
00000000: 950b 81be 4de0 423e 3b51 83bc bd3a 98be
00000010: 02c6 bb3d a1ea d73d 8949 5bbd baa4 213e
00000020: 5e17 2ebd c90a 38bd 6aca 5a3c 32f3 bd3c
00000030: 0482 45be 9a5a 7d3e 2ac0 1f3e 57f5 97bd
00000040: 062c 32be c4dd c5bd 7a5e e9bd 9be4 6f3d
00000050: 1f31 6d3e 50a9 673e 6e4c f9bd 75ca bd3d
00000060: 9881 68be 9105 7fbe 7ac1 ed3d 695c 533e
00000070: 9525 04be a4c4 9c3e dd16 53be 0716 5dbe
00000080: b0e2 063c 1acb fe3d 80f7 97be 708c ac3e
00000090: 140b 413e c1d4 69bd 0ac2 f4bd 897e 6d3e
000000a0: 6a82 aa3b e7d1 9cbc 088e 563e 136e 1abd
000000b0: f339 02bf 112f b8bd f5c1 903d 2924 27bf
000000c0: 2f22 8bbd db3b 793d 4279 5abb 6373 113e
000000d0: 8d94 52bd 9729 94bb 33d5 52be cd3b 7fbe
000000e0: 1e01 243e 4654 10bd fe49 82be 075b 49bd
000000f0: 59c6 1e3e f7dd 00be 12a9 513e b047 a5bc
00000100: 8cd7 2abe 9970 dcbc 185c 3ebf 8b75 4d3e
00000110: 6e26 d83d dc9d 99be 902d d83c 0832 153d
00000120: 7942 753d 440e 39bd 89c9 c13d f506 403e
00000130: 25d5 ddbe f42b 573e dc10 a23d 2922 393b
00000140: 5773 57be b147 e7bd cbb4 22bd fe98 82bd
00000150: ca93 6dbe dc3e 953e e84b 1abe 9e23 d93d
00000160: 0635 40be 890f 47bd c6cb c9be 3727 6c3e
00000170: 488c 543e b243 76bd fa54 d53c 8eed 903e
00000180: ddd1 82be af39 20be 1cd8 9a3c 8c41 da3b
00000190: 729d 8a3e c4b8 5bbe 45f5 0d3d 7f76 8a3e
000001a0: 77d7 863e 8b47 113e 996d ad3e b3d2 76be
000001b0: e1c7 f2bd e2fa 003e f0a1 bfbd 4252 c1bd
000001c0: e0f1 773d 533e 503e a664 e33d 81f9 ec3d
000001d0: ed78 a73c 5fed febd 519c 80bd 5f1a 0e3e
000001e0: fe9c ca3d 3931 123d ff83 b73c 15fd 7d3e
000001f0: eba0 673e 1ea0 743e 1c0e fc3d acf2 c23d
00000200: 5a75 6ebe 1499 9e3e 98cc b53e 2795 79bd
00000210: 126d eebc fe28 903d b790 b73e 2be1 ce3d
00000220: 3f24 0a3b c82e 9fbd dbb7 213e 2aab 3abe
00000230: 2086 873e cd31 e93d accf a83d 65c0 183e
00000240: e12d b2bd 4196 0d3e 3eb0 933e 24c4 1c3d
00000250: da4f 143e dea1 9a3d 895a 0bbe 7cf1 843e
00000260: 89c7 d13d 5655 323e c9d7 863e 95ca 9abe
00000270: f58e 993e 9e02 8f3e ff48 c03c d3a6 07be
00000280: 4a52 07be 232f cfbd 4d1c fd3a 8c1f 20be
00000290: 27be 913e 9277 093e 2a5c bdbe d6e8 ee3e
000002a0: 1082 3dbe 4a08 6cbe a32b f3bd 7622 a73e
000002b0: a806 dbbc 4e4e b0bc 1eb9 2d3b 634e 133e
000002c0: 2a60 4abe dfde 34be 4d1c a33e 2dc4 81be
000002d0: 3cab 19be c54e 2fbe fa9d bcbd 0041 06be
000002e0: d013 c8bc c6ad 643e b971 90bb 1bc5 703e
000002f0: 6a21 813c a1f7 d6bd 8a75 133e b275 bfbd
00000300: 0e74 343d 655f 0b3e d1a6 96be 0d5c de3d
00000310: b6d3 9a3e 7328 efbd d5e2 afbd f83d 89be
00000320: d857 3b3d 844a 1e3e 169e 853d 3184 253b
00000330: 1318 4fbe a3a1 e73c d935 553e 8a6e 2b3e
00000340: 8b04 873e 8f09 d13d af91 57be f400 783d
00000350: 1efc 813e b2e0 c33d 34eb a6bd 74fc 693e
00000360: 195b a5be f530 393e 4dea 8b3e 79e8 263e
00000370: e1a4 2bbe 7399 b4bd b3ff 43be a6d6 5c3d
00000380: 6056 7fbd dc7e a83e 7249 463d f764 c83d
00000390: 6642 c6bd fa75 66be 9ee3 02be 29c3 183e
000003a0: 70c3 8abd 836c 043e 172f 073f a368 793c
000003b0: df70 bebd 4a0e a43d d3a3 17be bea9 023e
000003c0: ee36 5e3c 6c8c 9dbc da90 00be 3fef e03d
000003d0: c4ff 76be 6a53 66be 9efc 053d ee36 bc3d
000003e0: c209 02be bb9c 463e 0d9c eebd 0bb6 10be
000003f0: 8258 cfbd 5e5f 883e f54b 9dbe ceea c53d

fc1.bias f4 [100]
0.7416721 -0.6233008 0.5960678 -0.48700368 -0.17584164 0.7214451 -0.5076319 -0.4005912
-0.6485242 -0.6214476 0.44005844 0.0328868 0.09246894 -0.6360957 0.52849853 -0.21083024
-0.4800437 -0.589503 -0.7299549 -0.65150535 0.503989 -0.50052536 0.58456385 -0.5163132
0.63256323 0.37850168 -0.41981456 -0.15445256 0.34707087 0.54367614 -0.5296063 -0.5640486
0.3549173 -0.26679793 -0.59802014 0.58398235 -0.53536844 0.39817095 0.4653665 0.26963845
0.36808565 -0.43285084 0.5943462 -0.45392945 0.06820908 -0.5095192 -0.58667725 -0.6105378
-0.63001513 0.5338178 0.6575428 -0.642406 0.12982135 -0.0274554 -0.28366122 -0.5812271
0.0018513356 0.21165621 -0.593185 -0.53173035 0.2600262 0.19106722 -0.52690464 -0.37151214
-0.23422652 -0.6458839 0.08807495 -0.6600197 0.2924846 0.54375017 0.23647663 0.6836316
-0.109923854 -0.4958269 -0.390704 -0.5799257 -0.62971574 -0.3389541 0.11601215 -0.3722492
-0.62388676 -0.44881174 -0.48690054 0.3981834 -0.50489134 -0.19859025 -0.6360645 -0.5788849
-0.48989674 -0.4495083 0.2566223 0.5803853 0.6050501 -0.33626792 -0.53658867 0.46275046
0.73175794 -0.45638528 -0.58190364 -0.5213319
00000000: 39de 3d3f a490 1fbf e697 183f 8c58 f9be
00000010: d50f 34be a0b0 383f 2af4 01bf 4a1a cdbe
00000020: af05 26bf 3117 1fbf 574f e13e 4fb4 063d
00000030: 5b60 bd3d 2bd7 22bf ae4b 073f e2e3 57be
00000040: 4ac8 f5be abe9 16bf 53de 3abf 0ec9 26bf
00000050: 6c05 013f 6e22 00bf faa5 153f 1a2d 04bf
00000060: aaef 213f f9ca c13e eff1 d6be d028 1ebe
00000070: 46b3 b13e 5c2e 0b3f 4794 07bf 7d65 10bf
00000080: b8b7 b53e bd99 88be d917 19bf de7f 153f
00000090: e80d 09bf 10dd cb3e 8544 ee3e 0d0e 8a3e
000000a0: b975 bc3e a09e ddbe 1327 183f 7169 e8be
000000b0: 34b1 8b3d da6f 02bf 7b30 16bf 354c 1cbf
000000c0: ac48 21bf 49a8 083f ba54 283f b874 24bf
000000d0: e3ef 043e 26ea e0bc 0b3c 91be 4dcb 14bf
000000e0: 84a8 f23a 68bc 583e f9da 17bf 7b1f 08bf
000000f0: 2722 853e 20a7 433e 39e3 06bf d736 bebe
00000100: 14d9 6fbe a658 25bf a460 b43d 0df7 28bf
00000110: 8bc0 953e 3633 0b3f ee26 723e 7b02 2f3f
00000120: c21f e1bd 06dd fdbe 5b0a c8be 0376 14bf
00000130: 0d35 21bf 648b adbe c797 ed3d 7297 bebe
00000140: 0bb7 1fbf a7ca e5be 074b f9be b2de cb3e
00000150: 8f40 01bf 3e5b 4bbe 20d5 22bf cd31 14bf
00000160: bfd3 fabe f425 e6be 0064 833e 2294 143f
00000170: 90e4 1a3f 4f2b acbe e05d 09bf a1ed ec3e
00000180: 7d54 3b3f 55ab e9be a3f7 14bf 0276 05bf

fc2.weight f4 [100, 100]
0.12977783 -0.102770805 0.077032275 -0.045697752 -0.024299942 0.09397697 -0.062435657 -0.085672356
-0.15319845 -0.15931703 0.094054066 0.0668294 0.059691112 -0.09359513 0.09246431 -0.033701256
-0.1195029 -0.114381544 -0.12916791 -0.044328477 0.058004647 -0.06544502 0.06819384 -0.051524766
0.11697715 0.12156887 -0.00518237 -0.07351363 0.09900164 0.10880874 -0.064378574 -0.12639442
0.06848906 -0.05647019 -0.12919155 0.067734286 -0.088294715 0.043716505 0.09823545 0.07177828
0.105395064 -0.13188918 0.14505006 -0.028085377 -0.05973519 -0.12932062 -0.07700848 -0.1196925
-0.14590172 0.09266147 0.15504044 -0.08203228 0.030010438 0.06646711 -0.021220582 -0.07906859
0.030752594 0.09044392 -0.13956796 -0.0696922 0.11444731 0.08203203 -0.108170375 -0.07426519
-0.0071284547 -0.17423907 0.07443343 -0.11135949 0.08189329 0.117750406 0.07064372 0.06598531
-0.072840214 -0.15334192 -0.11557276 -0.103037894 -0.08972345 -0.112925775 0.052517172 -0.101813555
-0.15175769 -0.11849425 -0.13552125 0.06522547 -0.13696633 -0.034641095 -0.11483578 -0.10759998
-0.08197528 -0.05535655 0.10064043 0.070057616 0.13177952 -0.10665439 -0.14572881 0.085479304
0.121902294 -0.038248032 -0.13847253 -0.082418695 0.08148296 -0.043664217 0.051065624 -0.10255627
-0.077092335 0.0548317 -0.0719827 -0.075525515 -0.1189394 -0.16479269 0.074191056 0.004713396
0.061676495 -0.085958734 0.1700167 -0.1281532 -0.11962291 -0.16573703 -0.06343639 -0.028128775
0.03952831 -0.026320359 0.042768892 -0.060710218 0.17260708 0.09679165 0.037582453 -0.072766125
0.17244893 0.118752815 -0.04649554 -0.16655415 0.06105556 -0.11710819 -0.1898254 0.0923419
-0.11563427 0.110599495 0.10818457 0.10764142 0.16963685 -0.13091807 0.16941431 0.017848676
-0.046350148 -0.19302772 -0.08750296 -0.10654523 -0.11673909 0.10367362 0.1281556 -0.09736981
0.047348686 -0.015810093 -0.06719595 -0.10094477 0.00999059 0.09295192 -0.22709194 -0.06440733
0.10773028 0.022016462 -0.014055832 0.03070011 -0.048083868 -0.12311766 0.095322944 -0.056956917
0.12538947 0.07713601 -0.025668193 0.062520646 -0.10090424 -0.16561887 -0.12914912 -0.050829798
-0.115171 -0.09830683 0.13497984 -0.06043147 -0.14176288 -0.13333324 -0.11403637 0.07688259
-0.12464446 -0.023361301 -0.06834113 -0.06007954 -0.17406037 -0.0915756 0.14662653 0.07449059
0.12071072 -0.08349557 -0.1850764 0.06389457 0.0688327 -0.041433915 -0.10397858 -0.050007448
0.44890863 -0.33337456 0.4150962 -0.29189736 -0.030117614 0.36748892 -0.14213133 -0.12900521
-0.073149905 -0.08924347 0.0070549487 -0.0868732 -0.052204803 -0.32830977 0.1095376 -0.18410788
-0.12266248 -0.3472992 -0.28233403 -0.37428698 0.19884619 -0.23784296 0.5112588 -0.30579612
0.36684126 0.1787425 -0.23611085 0.043957733 0.08455445 0.15127592 -0.37978384 -0.04184185
0.07355518 0.022299403 -0.08808228 0.4336646 -0.19950424 0.10646188 0.02525462 0.021650985
0.14527628 -0.13640344 0.072053835 -0.30836493 0.11658107 -0.075505614 -0.29297605 -0.27386722
-0.19733338 0.21113811 0.27171412 -0.32260725 -0.0011539913 -0.04851578 -0.08284499 -0.4171892
00000000: 7be4 043e 8079 d2bd 19c3 9d3d 912d 3bbd
00000010: ac10 c7bc ff76 c03d 88bc 7fbd fd74 afbd
00000020: 0ee0 1cbe 0124 23be 6b9f c03d dadd 883d
00000030: ab7e 743d ceae bfbd ee5d bd3d 540a 0abd
00000040: f0bd f4bd df40 eabd 9844 04be c791 35bd
00000050: 4896 6d3d 0a08 86bd 36a9 8b3d a20b 53bd
00000060: b791 ef3d 1af9 f83d dfd0 a9bb 508e 96bd
00000070: 5fc1 ca3d 1ed7 de3d ead8 83bd 8a6d 01be
00000080: fe43 8c3d 494d 67bd ca4a 04be 46b8 8a3d
00000090: dcd3 b4bd 1410 333d ab2f c93d 7e00 933d
000000a0: 5ed9 d73d f50d 07be 0188 143e 4e13 e6bc
000000b0: e3ac 74bd a06c 04be 9fb6 9dbd 5721 f5bd
000000c0: 4367 15be 4cc5 bd3d ecc2 1e3e 8a00 a8bd
000000d0: 73d8 f53c e81f 883d c9d6 adbc b7ee a1bd
000000e0: ddec fb3c a93a b93d e7ea 0ebe c9ba 8ebd
000000f0: 5a63 ea3d 6900 a83d 6e88 ddbd 5918 98bd
00000100: d095 e9bb ba6b 32be 8e70 983d 7210 e4bd
00000110: abb7 a73d 2027 f13d a8ad 903d 4e23 873d
00000120: 402d 95bd aa05 1dbe 69b1 ecbd 8805 d3bd
00000130: eec0 b7bd a145 e7bd 3f1c 573d a083 d0bd
00000140: 5e66 1bbe 1dad f2bd 15c6 0abe ee94 853d
00000150: e740 0cbe d2e3 0dbd 052f ebbd 615d dcbd
00000160: a8e2 a7bd 8dbd 62bd 921c ce3d 5e7a 8f3d
00000170: 36f1 063e 9e6d dabd ef39 15be c60f af3d
00000180: e9a7 f93d f8a9 1cbd becb 0dbe 22cb a8bd
00000190: 8ae0 a63d 40d9 32bd 302a 513d 0609 d2bd
000001a0: 96e2 9dbd 3497 603d aa6b 93bd 1fad 9abd
000001b0: 8096 f3bd 6abf 28be 7bf1 973d d572 9a3b
000001c0: 7ea0 7c3d 220b b0bd dc18 2e3e 983a 03be
000001d0: dbfc f4bd f8b6 29be f0ea 81bd 516e e6bc
000001e0: 70e8 213d cb9d d7bc 6f2e 2f3d 47ab 78bd
000001f0: e9bf 303e b33a c63d 0ff0 193d 6806 95bd
00000200: 7496 303e ad34 f33d 1b72 3ebd 2c8d 2abe
00000210: 6515 7a3d 6bd6 efbd 9761 42be c01d bd3d
00000220: a9d1 ecbd fd81 e23d df8f dd3d 1b73 dc3d
00000230: 48b5 2d3e 630f 06be f27a 2d3e 6337 923c
00000240: a7d9 3dbd 0fa9 45be c034 b3bd 6334 dabd
00000250: e714 efbd d652 d43d 393b 033e d369 c7bd
00000260: b2f0 413d 2b84 81bc 089e 89bd 22bc cebd
00000270: 92af 233c 945d be3d ca8a 68be fde7 83bd
00000280: b1a1 dc3d de5b b43c 6f4a 66bc cc7e fb3c
00000290: 97f3 44bd 1d25 fcbd ad38 c33d a84b 69bd
000002a0: 1966 003e 7cf9 9d3d 1a46 d2bc d30a 803d
000002b0: e2a6 cebd fe97 29be ab3f 04be e832 50bd
000002c0: c6de ebbd 1755 c9bd 2838 0a3e fd86 77bd
000002d0: 4a2a 11be 8288 08be e68b e9bd 9f74 9d3d
000002e0: 9845 ffbd 3360 bfbc 6ff6 8bbd f715 76bd
000002f0: e23c 32be fd8b bbbd 4425 163e 868e 983d
00000300: 2f37 f73d baff aabd ab84 3dbe 28db 823d
00000310: 29f8 8c3d 9cb6 29bd b9f2 d4bd 9cd4 4cbd
00000320: 5ad7 e53e 12b0 aabe 7d87 d43e 9273 95be
00000330: 37b9 f6bc 8227 bc3e e08a 11be f119 04be
00000340: 9ecf 95bd 48c5 b6bd 332d e73b 94ea b1bd
00000350: b4d4 55bd 3818 a8be 4055 e03d c786 3cbe
00000360: 7736 fbbd 33d1 b1be 168e 90be 8ba2 bfbe
00000370: 569e 4b3e 1b8d 73be dbe1 023f 4f91 9cbe
00000380: 9ed2 bb3e 4608 373e 0bc7 71be 060d 343d
00000390: e22a ad3d 13e8 1a3e 0773 c2be 5c62 2bbd
000003a0: 19a4 963d 3dad b63c 7b64 b4bd 4909 de3e
000003b0: d74a 4cbe b008 da3d c7e2 ce3c 685d b13c
000003c0: 4ec3 143e 58ad 0bbe f690 933d 02e2 9dbe
000003d0: 0ec2 ee3d b0a2 9abd f500 96be 5338 8cbe
000003e0: c311 4abe 9734 583e 1d1e 8b3e c72c a5be
000003f0: 8641 97ba 7cb8 46bd a2aa a9bd d399 d5be

fc2.bias f4 [100]
0.26414686 0.16675627 0.250839 0.28360695 0.27291453 0.22648358 0.32414165 -0.16640405
-0.06434202 -0.28021228 0.23623547 0.22996934 0.16564171 -0.12324823 0.16868651 -0.25893593
0.26323277 -0.15011251 -0.16221501 0.21072248 0.1977144 -0.24664246 0.29311612 -0.2615034
-0.2940862 -0.28575322 0.058522277 0.24791119 0.20165105 -0.31152925 0.24980663 -0.27216688
0.21227714 0.2526697 -0.22279161 0.22268179 -0.24345805 0.25079063 -0.25743794 0.2551389
-0.2295774 -0.17868716 -0.30216736 -0.24526758 0.20042475 0.1456122 0.17611478 -0.20549916
0.31141895 0.24824281 0.24787758 -0.23984174 -0.15037504 -0.27459955 0.27944455 0.31250003
0.30237865 -0.3289365 0.2710339 -0.13229984 0.25628665 -0.251208 0.25597277 0.27742055
0.26960516 -0.3018224 -0.1323397 0.21254976 -0.29519376 -0.2694282 0.26064408 -0.21152301
0.24573055 -0.24673437 -0.031360295 0.30396947 -0.33617038 -0.19926037 0.1891403 -0.2413181
0.15567319 -0.16376187 -0.1106984 -0.2164492 -0.28073648 0.22716932 -0.17807709 0.1264063
0.2658978 -0.20429209 -0.16493456 -0.20098503 -0.2694388 0.25078887 -0.17705642 0.24709083
-0.26347432 -0.24824142 0.2459834 -0.26802188
00000000: 423e 873e 28c2 2a3e f86d 803e ee34 913e
00000010: 74bb 8b3e 50eb 673e e5f5 a53e d365 2abe
00000020: c0c5 83bd fc77 8fbe b6e7 713e 157d 6b3e
00000030: fb9d 293e 9169 fcbd 28bc 2c3e 4093 84be
00000040: 72c6 863e 18b7 19be b11b 26be a2c7 573e
00000050: a575 4a3e d78f 7cbe 5113 963e c6e3 85be
00000060: 7792 96be 3f4e 92be 0eb5 6f3d 6edc 7d3e
00000070: 9d7d 4e3e c380 9fbe 4fcd 7f3e 7559 8bbe
00000080: 2e5f 593e ec5d 813e 7c23 64be b206 643e
00000090: 114d 79be a167 803e e8ce 83be 91a1 823e
000000a0: 5716 6bbe c4f9 36be aeb5 9abe 6d27 7bbe
000000b0: 253c 4d3e 5d1b 153e 6f57 343e 5f6e 52be
000000c0: 4e72 9f3e 5d33 7e3e 9fd3 7d3e 1399 75be
000000d0: eafb 19be 5098 8cbe 5b13 8f3e 0100 a03e
000000e0: 60d1 9a3e 5d6a a8be f5c4 8a3e 9c79 07be
000000f0: 0138 833e 569e 80be dd0e 833e 110a 8e3e
00000100: b009 8a3e 7788 9abe 0f84 07be a5a6 593e
00000110: a323 97be 7ef2 89be 2473 853e 7d99 58be
00000120: caa0 7b3e efa7 7cbe a773 00bd e3a1 9b3e
00000130: 861e acbe e90a 4cbe ffad 413e 181c 77be
00000140: cb68 1f3e 31b1 27be d8b5 e2bd dca4 5dbe
00000150: b1bc 8fbe 139f 683e d759 36be a770 013e
00000160: c223 883e f231 51be 9be4 28be 05cf 4dbe
00000170: e2f3 89be 6667 803e 474e 35be 6105 7d3e
00000180: 1be6 86be 0033 7ebe 13e3 7b3e 2a3a 89be

fc3.weight f4 [1, 100]
0.92094356 0.9467824 0.9556046 0.9765063 0.97145253 0.9297024 0.97983056 -0.9437259
1.1534659 -0.96807265 0.91232425 0.9351136 0.9349557 -1.1781389 0.9402139 -0.92280245
0.96951795 -0.9475691 -0.9486829 0.9292998 0.9720268 -0.92589635 0.9667215 -0.9428049
-0.9517535 -0.9517429 0.96092397 0.93614244 0.9487954 -0.98846936 0.9188766 -0.922259
0.9304002 0.94221705 -0.92860687 0.9337065 -0.95382947 0.99119335 -0.97992384 0.9504751
-0.93871796 -0.92859155 -0.97465694 -0.93322337 0.9783406 0.9540471 1.0616709 -0.93795836
0.9626109 0.96465975 0.98773265 -0.930256 -0.93603945 -0.98945546 0.95669585 0.997989
0.96197736 -0.97331876 0.9577719 -0.89340025 0.9532374 -0.92924464 0.9496193 0.9254248
0.9306653 -0.9623568 -0.9339996 0.9306592 -0.93298703 -0.9104492 0.9949602 -0.9227975
0.9321355 -0.93323666 -1.0048797 0.9993061 -1.0013282 -0.96098983 0.9561398 -0.9330364
-1.0767276 -0.909398 -0.934941 -0.9342781 -0.92388433 0.95115006 -0.9171501 -0.93988913
0.9533702 -0.9565202 -0.92394304 -0.92896414 -0.9978718 0.9670376 -0.9338506 0.9368518
-0.9489289 -1.1296649 0.9103713 -0.9812973
00000000: f5c2 6b3f 5560 723f 81a2 743f 51fc 793f
00000010: 1db1 783f fa00 6e3f 2dd6 7a3f 0598 71bf
00000020: c5a4 933f 9cd3 77bf 158e 693f 9b63 6f3f
00000030: 4259 6f3f 41cd 96bf dcb1 703f c83c 6cbf
00000040: 5432 783f e393 72bf e2dc 72bf 97e6 6d3f
00000050: c0d6 783f 8b07 6dbf 0f7b 773f a95b 71bf
00000060: 1ea6 73bf 6ca5 73bf 1dff 753f 08a7 6f3f
00000070: 41e4 723f 540c 7dbf 7f3b 6b3f 2a19 6cbf
00000080: b52e 6e3f 2335 713f 2eb9 6dbf 6407 6f3f
00000090: 2b2e 74bf d9be 7d3f 4adc 7abf 5652 733f
000000a0: d24f 70bf 2db8 6dbf 1e83 79bf bae7 6ebf
000000b0: 8874 7a3f 6e3c 743f d5e4 873f 0a1e 70bf
000000c0: ab6d 763f f1f3 763f 0cdc 7c3f 4225 6ebf
000000d0: 48a0 6fbf f44c 7dbf 05ea 743f 357c 7f3f
000000e0: 2644 763f 6b2b 79bf 8a30 753f e1b5 64bf
000000f0: 5e07 743f fae2 6dbf 401a 733f a4e8 6c3f
00000100: 1540 6e3f 045d 76bf 991a 6fbf ae3f 6e3f
00000110: 3dd8 6ebf 3313 69bf b6b5 7e3f 753c 6cbf
00000120: 6fa0 6e3f 99e8 6ebf e69f 80bf 86d2 7f3f
00000130: 862b 80bf 6e03 76bf 94c5 743f 79db 6ebf
00000140: 36d2 89bf 4fce 68bf 4b58 6fbf d92c 6fbf
00000150: af83 6cbf 927e 733f 59ca 6abf 939c 70bf
00000160: 1210 743f 82de 74bf 8887 6cbf 98d0 6dbf
00000170: 8774 7fbf c78f 773f d510 6fbf 85d5 6f3f
00000180: 01ed 72bf dc98 90bf 180e 693f 4d36 7bbf

fc1.weight f4 [100, 14]
0.17224258 0.20103094 0.19118664 0.24818724 0.14774786 0.16319935 -0.11586148 -0.24064642
0.010473045 -0.043955155 0.08164899 0.19243999 -0.12113759 0.22185326 -0.15361862 -0.07322954
0.0026708986 0.123771355 0.11742364 -0.2694782 0.14118682 0.24380887 -0.127333 -0.12107349
-0.21533708 0.023729093 -0.22544792 -0.13445318 0.022393212 -0.012233588 -0.24732621 -0.01604334
-0.24808145 0.064685 0.11048939 0.22468007 0.25431147 0.002834577 0.09327344 0.2693802
-0.14908025 0.08342959 -0.0046544024 -0.22303592 -0.2420371 0.1472481 -0.07220768 0.09255718
0.17785467 0.23357569 -0.19585076 0.12595749 0.211136 -0.25357747 -0.20638591 0.17128156
-0.24992795 -0.101081796 0.04009278 -0.07760693 0.03704245 -0.15296796 -0.21486591 0.071419664
0.2196239 -0.09672834 0.17304914 -0.19822758 -0.30957207 -0.1012136 0.07277337 0.1730957
0.015828837 0.1900804 0.18457288 -0.24650198 0.10535082 0.27780303 -0.015696883 -0.13068272
-0.05331788 0.21790683 -0.21660385 -0.06300302 0.07340522 0.18195875 0.15800552 0.26083362
-0.07624986 -0.23902534 0.2414585 -0.044484507 0.08764375 0.095025994 0.13630114 -0.13054432
0.032211687 -0.19286829 -0.017104615 0.090716206 0.09248493 0.17949603 -0.2514611 -0.2052443
-0.19038625 -0.110973515 0.24552773 0.15827279 -0.015603188 0.052102096 -0.041017234 -0.059708297
0.21587558 -0.17850456 -0.024383802 0.0032491712 -0.13803169 0.07879236 -0.035092488 0.10926862
-0.16649719 0.16939381 0.0012109323 0.14003336 0.30362964 0.30217746 0.23602553 -0.0077349353
0.19444144 -0.13983169 0.23428078 0.23003745 -0.14135018 0.14717716 -0.028329745 -0.23896596
-0.16836183 0.20668341 -0.06355356 0.15542406 -0.10440568 0.22699717 -0.09990665 0.113620274
-0.22339812 0.23816265 0.29112852 -0.15316467 0.2614136 0.07119644 0.17662254 -0.05845402
0.13835815 -0.034267038 -0.0048236772 -0.15112065 -0.20048559 -0.024626834 -0.13428424 0.20748901
-0.22028919 -0.15549718 -0.06294984 0.13167349 0.19073807 -0.082722954 -0.25997785 -0.02612277
-0.10529633 0.27896634 -0.04868058 0.22069219 -0.032644868 0.27442282 0.2348646 0.112175934
-0.07711057 -0.11857511 -0.2045918 -0.19575188 0.21840881 -0.17856325 -0.23207527 -0.1973597
-0.089531 0.1655304 -0.083925925 -0.17719279 -0.2885119 0.07070929 -0.10652131 0.17020158
0.1617738 -0.19039404 -0.1817881 -0.042268675 -0.05714257 0.2536911 -0.29051226 0.056271747
-0.18483573 -0.14805512 -0.14785424 0.07264363 0.0039085248 -0.048436806 0.18094254 0.29399362
-0.19335318 0.20240173 -0.1699064 0.07421757 -0.0122715365 0.04627177 -0.03395891 -0.16787705
0.007572666 -0.20806654 -0.00014099083 0.083614096 0.019893825 -0.083123945 0.22341374 0.104978584
-0.033582974 0.044617966 0.08163559 -0.1434128 -0.029251628 0.016765358 -0.15930153 -0.20744754
-0.12025981 0.19716544 0.02928055 0.19677308 -0.057715613 -0.019557038 0.040497478 0.25607535
-0.31612644 0.14751194 -0.18645984 -0.09105103 0.07406864 0.018453414 0.27433285 -0.054219227
0.027298221 -0.23096703 -0.24063458 0.10154182 0.26389635 -0.15061022 -0.22928646 -0.06343647
00000000: 5c60 303e 0edb 4d3e 6ec6 433e cc24 7e3e
00000010: 374b 173e bb1d 273e c948 edbd 046c 76be
00000020: 2297 2b3c 520a 34bd 9637 a73d fd0e 453e
00000030: fc16 f8bd 802d 633e 334e 1dbe 5ef9 95bd
00000040: 3e0a 2f3b d67b fd3d ce7b f03d 0cf9 89be
00000050: 4793 103e 08a9 793e 9563 02be 61f5 f7bd
00000060: 5381 5cbe 8463 c23c d2db 66be 18ae 09be
00000070: f871 b73c 636f 48bc 1543 7dbe 536d 83bc
00000080: 1009 7ebe 9279 843d 4348 e23d 8812 663e
00000090: 1d35 823e 50c4 393b 2506 bf3d 34ec 893e
000000a0: 7ea8 18be 22dd aa3d f583 98bb 8763 64be
000000b0: 93d8 77be 35c8 163e 9fe1 93bd 9e8e bd3d
000000c0: 891f 363e 772e 6f3e 1a8d 48be 00fb 003e
000000d0: 0934 583e e8d4 81be d456 53be 6f64 2f3e
000000e0: 1ded 7fbe f903 cfbd 5438 243d 62f0 9ebd
000000f0: d3b9 173d a2a3 1cbe cf05 5cbe 7944 923d
00000100: 16e5 603e 8219 c6bd cb33 313e 2cfc 4abe
00000110: 3b80 9ebe 1349 cfbd 340a 953d 0040 313e
00000120: 7aab 813c 70a4 423e ac00 3d3e 046b 7cbe
00000130: 2cc2 d73d 333c 8e3e c096 80bc b1d1 05be
00000140: d963 5abd f822 5f3e 66cd 5dbe ba07 81bd
00000150: 7a55 963d 6553 3a3e 33cc 213e fc8b 853e
00000160: e328 9cbd 0fc3 74be e640 773e 6335 36bd
00000170: 917e b33d fd9c c23d 8792 0b3e 69ad 05be
00000180: 67f0 033d 447f 45be fa1e 8cbc 6bc9 b93d
00000190: bd68 bd3d cfcd 373e 82bf 80be 902b 52be
000001a0: 9df4 42be 1546 e3bd 9f6b 7b3e 4312 223e
000001b0: 84a4 7fbc 0269 553d b001 28bd b090 74bd
000001c0: 7d0e 5d3e e6c9 36be 8ac0 c7bc 0cf0 543b
000001d0: 2e58 0dbe e45d a13d 24bd 0fbd 3ac8 df3d
000001e0: 3d7e 2abe 9275 2d3e 25b8 9e3a e864 0f3e
000001f0: 5875 9b3e 01b7 9a3e adb0 713e 5775 fdbb
00000200: a81b 473e 0a30 0fbe 4de7 6f3e f08e 6b3e
00000210: 1abe 10be 9cb5 163e c813 e8bc 7eb3 74be
00000220: 0b67 2cbe d1a4 533e 5e28 82bd 7c27 1f3e
00000230: a5d2 d5bd f271 683e dc9b ccbd bfb1 e83d
00000240: 7ac2 64be e9e0 733e cc0e 953e 33d7 1cbe
00000250: 01d8 853e 70cf 913d 8adc 343e 7c6d 6fbd
00000260: c2ad 0d3e 985b 0cbd f00f 9ebb 5fbf 1abe
00000270: 184c 4dbe 37be c9bc cf81 09be 0078 543e
00000280: 7d93 61be a73a 1fbe d9eb 80bd 6ad5 063e
00000290: d750 433e a76a a9bd d11b 85be 6bff d5bc
000002a0: 9aa5 d7bd add4 8e3e 4a65 47bd 22fd 613e
000002b0: a0b6 05bd 2681 8c3e 5880 703e 7fbc e53d
000002c0: 26ec 9dbd 82d7 f2bd 8380 51be 2e73 48be
000002d0: 8fa6 5f3e 49d9 36be 24a5 6dbe a918 4abe
000002e0: 075c b7bd cd80 293e 5be1 abbd 0772 35be
000002f0: d5b7 93be 08d0 903d d827 dabd 5349 2e3e
00000300: 08a8 253e a8f6 42be a926 3abe eb21 2dbd
00000310: 540e 6abd cde3 813e 06be 94be 347d 663d
00000320: 9445 3dbe c39b 17be 1a67 17be 2fc6 943d
00000330: 1513 803b ac65 46bd 0049 393e 5586 963e
00000340: 60fe 45be 6642 4f3e f1fb 2dbe 62ff 973d
00000350: 8e0e 49bc 7887 3d3d 7f18 0bbd f6e7 2bbe
00000360: 2024 f83b 650f 55be f0d6 13b9 de3d ab3d
00000370: 60f8 a23c e33c aabd 92c6 643e 03ff d63d
00000380: 4d8e 09bd 54c1 363d 8f30 a73d ceda 12be
00000390: 1ca1 efbc 8157 893c f11f 23be 216d 54be
000003a0: c64a f6bd bde5 493e c4dd ef3c e27e 493e
000003b0: 3567 6cbd 1536 a0bc afe0 253d 4f1c 833e
000003c0: 53db a1be 5f0d 173e 54ef 3ebe f678 babd
000003d0: 4db1 973d 9d2b 973c 5b75 8c3e fb14 5ebd
000003e0: 85a0 df3c 9f82 6cbe e968 76be 28f5 cf3d
000003f0: 6c1d 873e 9139 1abe 12ca 6abe fbea 81bd
