mujoco/gail/save_model/ckpt_1202.pth.tar (torch, 144879 bytes, 16 tensors)

fc1.weight f4 [100, 11]
0.044889353 -0.31602588 0.295439 -0.13611747 0.063629925 0.007404338 -0.19622108 0.2655038
0.33098382 0.2635354 0.15834962 0.5910832 -0.051253606 0.015228209 -0.2325915 0.30292937
0.07421875 0.048342258 0.15733325 0.23129308 0.11702717 0.5751631 0.46204945 -0.042906873
-0.15571901 0.2797214 0.2405378 -0.32626563 0.010766264 0.38423216 0.16752724 0.0960637
0.14865132 0.3090221 -0.12596986 -0.054866 0.19157948 0.025285201 0.23929788 -0.33145326
-0.07920361 -0.40284374 0.36994156 -0.3492937 0.103532396 0.2858474 0.30698642 -0.48115546
-0.06945299 0.2403424 -0.24730676 -0.02218334 0.21184549 0.06546895 0.08887571 0.45849925
-0.06809837 -0.20076253 0.1771864 0.46518138 0.01881764 0.12588197 -0.2626821 0.0613527
-0.1311645 0.0014144009 0.36437267 -0.25896662 0.4267298 -0.16375796 -0.09884653 -0.18885443
0.39828247 -0.007028865 0.07562897 -0.078276165 -0.1557115 0.038101263 0.34288874 -0.60805166
-0.258367 0.17977391 0.16789113 0.21133266 0.06651138 -0.37108698 0.23730613 0.28908333
-0.13536361 0.20085002 -0.33264238 -0.46013963 0.17048061 0.28685722 0.10520242 -0.11634933
0.3084146 -0.233917 0.18925597 -0.018260967 0.12728377 -0.11127659 -0.0525676 0.37539732
-0.12716869 0.040281188 0.317474 0.15186071 0.22276294 -0.086555265 -0.4325958 -0.112640865
0.03702766 -0.5005927 -0.17687865 0.42151648 -0.13466872 0.31681362 -0.022303749 0.24055728
-0.008468659 -0.31081623 -0.085097045 0.28457293 -0.111118004 0.1978665 0.4446509 -0.016976012
-0.08169391 0.0068748225 -0.24067378 0.21503115 0.042652518 0.20470458 0.1940667 0.28517216
0.12492889 -0.3021358 -0.021360537 -0.15928626 0.42633244 -0.026793843 0.057289682 0.05164269
0.13531975 -0.015275762 0.32708284 -0.08882559 -0.1760604 -0.018773561 0.15992552 0.5261647
-0.33618078 0.009418585 -0.4419908 -0.08841977 0.39326724 0.2807595 0.047887743 0.0026071658
0.30599728 0.48068675 0.23075078 0.19470389 0.047495443 -0.07263848 -0.109466076 0.47351146
0.3071348 0.3702949 -0.038227856 -0.23223367 -0.07878154 0.4116712 0.068038024 -0.007823855
0.25437823 -0.31116298 0.0393294 0.28783914 0.1423036 0.27066702 -0.2776949 0.5365216
0.53042895 0.27720377 0.25776836 0.0032496061 -0.29796368 -0.012158195 -0.05875849 -0.10209437
-0.3555685 0.21301393 0.06658939 -0.21662624 -0.10031775 -0.18458699 0.34274802 0.33333126
0.18673265 -0.30177957 -0.076591834 0.30863103 0.013392909 -0.043878786 -0.25663 -0.29441535
0.1713772 -0.17703174 0.44464052 -0.6129825 0.037091896 0.25482768 -0.16110465 -0.26398647
-0.311206 -0.37724566 -0.016636278 -0.2466606 -0.39730263 -0.2935224 -0.020001594 0.3263379
-0.1727568 -0.017477836 -0.22207904 -0.065720916 -0.02965973 -0.19631737 -0.2657882 0.4306169
0.013402355 0.25055304 0.3564774 0.52265704 -0.30816117 -0.03133061 0.013306934 -0.09016066
0.3074432 -0.11938113 0.17167597 -0.2662262 0.04933412 0.06226032 0.2971048 0.46772906
-0.23065889 -0.07935398 -0.28970513 0.12898849 -0.12883458 0.074037336 0.13746311 -0.3410758
00000000: e6dd 373d 25ce a1be c843 973e 6162 0bbe
00000010: 6850 823d 17a0 f23b 2eee 48be 1df0 873e
00000020: b676 a93e 1dee 863e 6726 223e 3b51 173f
00000030: 4def 51bd bd7f 793c 772c 6ebe 8f19 9b3e
00000040: 0000 983d 8802 463d f81b 213e 18d8 6c3e
00000050: f1ab ef3d e43d 133f bf91 ec3e 1ebf 2fbd
00000060: ce74 1fbe a537 8f3e 8b4f 763e 4a0c a7be
00000070: fc64 303c 14ba c43e 438c 2b3e 0cbd c43d
00000080: 0d38 183e 2538 9e3e 3efe 00be 2cbb 60bd
00000090: 692d 443e e922 cf3c 810a 753e 3eb4 a9be
000000a0: 8135 a2bd 8941 cebe fb68 bd3e a0d6 b2be
000000b0: cb08 d43d 975a 923e 532d 9d3e 025a f6be
000000c0: 5f3d 8ebd 511c 763e fc3d 7dbe d6b9 b5bc
000000d0: 06ee 583e 9614 863d 7804 b63d 6ac0 ea3e
000000e0: 2977 8bbd b194 4dbe 5a70 353e 412c ee3e
000000f0: 7427 9a3c 34e7 003e 457e 86be f84c 7b3d
00000100: fd4f 06be 6b63 b93a 0e8f ba3e 4697 84be
00000110: 547c da3e 2bb0 27be 0d70 cabd 0e63 41be
00000120: aeeb cb3e 6552 e6bb 5de3 9a3d 414f a0bd
00000130: d672 1fbe 1210 1c3d 1d8f af3e 46a9 1bbf
00000140: ae48 84be a716 383e a7eb 2b3e 9767 583e
00000150: 1e37 883d 1dff bdbe 6100 733e bb02 943e
00000160: c29c 0abe a1ab 4d3e 1a50 aabe 6c97 ebbe
00000170: 7892 2e3e f3de 923e 5e74 d73d 8f48 eebd
00000180: 85e8 9d3e f087 6fbe 51cc 413e 0698 95bc
00000190: ad56 023e fbe4 e3bd 2051 57bd 1434 c03e
000001a0: 8238 02be e3fd 243d f48b a23e 6081 1b3e
000001b0: f81b 643e e343 b1bd 327d ddbe 41b0 e6bd
000001c0: 51aa 173d d826 00bf ad1f 35be 02d1 d73e
000001d0: 99e6 09be 6535 a23e 5ab6 b6bc a654 763e
000001e0: 21c0 0abc 4e23 9fbe 5c47 aebd 8bb3 913e
000001f0: d691 e3bd 849d 4a3e 48a9 e33e 4711 8bbc
00000200: 234f a7bd 3146 e13b 3073 76be 2031 5c3e
00000210: 68b4 2e3d 149e 513e 6cb9 463e 1602 923e
00000220: b8da ff3d 8bb1 9abe 4bfc aebc f01b 23be
00000230: 3f48 da3e c37e dbbc 96a8 6a3d 4987 533d
00000240: 4391 0a3e 3147 7abc 6777 a73e 31ea b5bd
00000250: 2d49 34be 03cb 99bc 84c3 233e bbb2 063f
00000260: e31f acbe 6950 1a3c 9e4c e2be 6d15 b5bd
00000270: 535a c93e b6bf 8f3e f025 443d fcdc 2a3b
00000280: adab 9c3e 931c f63e ef49 6c3e 7560 473e
00000290: 958a 423d 7cc3 94bd c02f e0bd 1870 f23e
000002a0: c640 9d3e 4b97 bd3e d094 1cbd aace 6dbe
000002b0: 3758 a1bd 91c6 d23e 8557 8b3d a02f 00bc
000002c0: dd3d 823e c150 9fbe dd17 213d a75f 933e
000002d0: 09b8 113e de94 8a3e 072e 8ebe 7b59 093f
000002e0: 31ca 073f a7ed 8d3e 37fa 833e 58f7 543b
000002f0: b28e 98be 2a33 47bc beac 70bd da16 d1bd
00000300: 130d b6be 5320 5a3e 0560 883d 45d3 5dbe
00000310: 6473 cdbd 5f04 3dbe ab7c af3e 65aa aa3e
00000320: d836 3f3e da82 9abe 2edc 9cbd e304 9e3e
00000330: ef6d 5b3c 3eba 33bd 0265 83be 9cbd 96be
00000340: 817d 2f3e cf47 35be eca7 e33e 6cec 1cbf
00000350: aced 173d c678 823e 9ef8 24be 3c29 87be
00000360: 6556 9fbe 5826 c1be ce48 88bc 9994 7cbe
00000370: 406b cbbe 9148 96be 62da a3bc c315 a73e
00000380: 29e7 30be ae2d 8fbc b068 63be b098 86bd
00000390: f6f8 f2bc 6c07 49be 6415 88be d179 dc3e
000003a0: 8d95 5b3c 7d48 803e 3584 b63e dacc 053f
000003b0: 4dc7 9dbe 8754 00bd 5405 5a3c 27a6 b8bd
000003c0: 3269 9d3e 187e f4bd d3cb 2f3e cd4e 88be
000003d0: 9312 4a3d ad04 7f3d 1f1e 983e 2f7a ef3e
000003e0: d831 6cbe 5784 a2bd 3b54 94be 8f15 043e
000003f0: 36ed 03be e3a0 973d 21c3 0c3e 7da1 aebe

fc1.bias f4 [100]
-0.23501775 -0.22403003 -0.035006896 0.25981107 0.010251763 -0.23878151 -0.113011256 -0.048219673
-0.17778452 -0.43285453 0.13766763 0.26514226 -0.25508878 0.20536074 0.19018835 -0.279005
0.27792114 0.34374616 -0.11210907 0.04504221 0.029789332 -0.25791374 0.22898711 -0.2681957
0.12138681 0.14871208 -0.306448 -0.392035 0.21066937 0.29747134 -0.15191892 0.12027415
0.23524061 0.20422421 -0.3869606 0.10659498 0.26595217 -0.07900097 -0.2770403 0.1632296
0.3021555 0.23733658 0.011365144 -0.41677925 0.037993357 0.089221016 -0.34752426 -0.3254899
0.17501806 0.43795845 0.09050329 0.269321 -0.27394947 -0.19086243 0.035276935 0.24186732
-0.015397145 0.34378803 0.32986483 0.35624444 -0.14562553 0.2872815 0.40885615 0.083028324
-0.16092539 -0.37955138 0.046967775 -0.08565139 0.003840317 0.0025436315 0.33566484 -0.012666113
0.26240817 0.18434678 -0.22052525 -0.28611824 0.14996345 0.19548917 0.29561776 0.37739515
-0.30277973 -0.2259227 0.124977745 0.2306571 0.34018016 -0.44030055 -0.24567293 0.34945044
0.2516289 -0.16574977 0.28931984 0.33200428 -0.037262574 0.34136045 -0.25956577 0.251043
0.31937486 -0.19974259 0.24253856 0.27085042
00000000: 7ea8 70be 2168 65be 6463 0fbd f505 853e
00000010: 03f7 273c 2483 74be 7272 e7bd fe81 45bd
00000020: 250d 36be 1c9f ddbe bef8 0c3e bac0 873e
00000030: ff9a 82be 164a 523e bcc0 423e bed9 8ebe
00000040: ae4b 8e3e 7fff af3e 7199 e5bd 2e7e 383d
00000050: c208 f43c 450d 84be 997b 6a3e f250 89be
00000060: a699 f83d fb47 183e c1e6 9cbe d0b8 c8be
00000070: b6b9 573e 2a4e 983e a290 1bbe 4b52 f63d
00000080: eae2 703e 2720 513e b31f c6be 784e da3d
00000090: e22a 883e 43cb a1bd 3ad8 8dbe a925 273e
000000a0: 20b4 9a3e 5c08 733e de34 3a3c 1764 d5be
000000b0: ec9e 1b3d 82b9 b63d b3ee b1be 9da6 a6be
000000c0: ef37 333e 173c e03e ca59 b93d 71e4 893e
000000d0: 1b43 8cbe 7171 43be 8c7e 103d 11ac 773e
000000e0: 4f44 7cbc fc04 b03e 0be4 a83e ac65 b63e
000000f0: dc1e 15be 9016 933e 9855 d13e c10a aa3d
00000100: a0c9 24be 8f54 c2be 4861 403d ff69 afbd
00000110: d4ad 7b3b 0eb3 263b 43dc ab3e 8785 4fbc
00000120: 5d5a 863e 67c5 3c3e 5fd1 61be 177e 92be
00000130: 0590 193e 502e 483e 365b 973e f039 c13e
00000140: f205 9bbe 4858 67be 55f4 ff3d 6031 6c3e
00000150: 182c ae3e 136f e1be af91 7bbe 2beb b23e
00000160: 81d5 803e 4fba 29be bb21 943e 77fc a93e
00000170: a4a0 18bd ccc6 ae3e cee5 84be b588 803e
00000180: 1a85 a33e 5289 4cbe 075c 783e e8ac 8a3e

fc2.weight f4 [100, 100]
-0.033964094 -0.023857756 -0.027668137 0.11271865 0.056444686 -0.041520145 -0.11078622 -0.04609216
-0.024714243 -0.12395734 0.05992039 -0.06732446 0.14177468 0.13239862 -0.024298625 0.16731332
-0.09507686 -0.12018396 -0.06877971 0.2438903 0.07110566 0.12929222 0.026699651 0.06656702
-0.14048785 -0.05234006 -0.03660225 -0.13309333 -0.22700971 -0.09150017 0.12942635 -0.056924574
0.10328658 0.031691156 0.2378252 0.16979298 -0.023236975 0.19829768 -0.026122414 -0.07907779
-0.06346997 -0.16961579 0.14890942 0.08491722 -0.052288607 0.033132046 -0.08706182 0.031157851
-0.039155543 -0.038071018 0.09941655 -0.045695018 0.051831987 0.04734936 -0.015056531 0.0010144662
-0.01816674 0.17615682 0.0845855 -0.10193962 0.073658004 -0.027127668 0.09812612 -0.17158249
-0.004455542 0.09362296 0.22945186 0.09198868 -0.117280446 -0.14255463 0.0365244 -0.15532435
0.07252608 -0.0775513 0.29372573 -0.20959517 0.06047277 0.18055372 -0.10270589 -0.15712549
-0.10946709 0.042483114 0.06523207 0.14181897 -0.078793965 -0.012905886 0.15387587 -0.11455003
-0.1833453 0.19035357 -0.008744896 -0.1663387 -0.061074484 -0.14455418 -0.11330596 0.04622212
0.04435109 -0.09029948 -0.028046641 0.14265832 -0.1623154 -0.107787244 0.13071336 0.15434796
-0.09592205 -0.024386156 0.011459823 0.22811921 -0.0005854749 0.08926395 0.14734676 -0.19867353
-0.114263594 0.06809422 0.019941438 -0.07931023 0.13606676 0.110430345 -0.095571674 0.083908245
-0.076803096 0.05858495 0.10893469 0.04388759 -0.124504246 0.019751444 -0.06644496 -0.084712364
-0.062018696 0.26297274 -0.2032633 -0.0605311 0.0060096844 0.008580309 -0.024239298 0.09136093
0.05302707 0.2466895 0.023797559 -0.0822681 0.0068582343 -0.1689663 -0.13505666 0.096314095
-0.0759066 -0.13457273 0.01942704 -0.043590195 0.06706909 0.0134485215 0.038142234 -0.104806714
0.07208805 -0.06858005 0.059480727 0.13341676 0.07878614 0.0015698199 -0.03432049 -0.06339861
0.10073658 -0.00042347834 -0.031606544 0.0933059 -0.21585447 -0.090865836 0.061598763 0.079352506
0.0706017 0.24565436 0.1832138 -0.16571087 0.058673568 -0.089611284 -0.08997927 -0.19261546
-0.03811386 -0.04919465 -0.024668824 0.23899227 -0.11494577 -0.054202266 -0.13982025 -0.12807491
0.055747196 0.01771347 0.118516915 -0.08246605 -0.16465327 0.08295246 0.14416838 0.034294996
-0.05836091 0.12878695 0.0016123309 0.11110872 -0.020087989 -0.0077461824 0.061233908 0.026864465
-0.015104735 -0.15497877 0.043794326 -0.04617761 -0.06620189 -0.07056505 -0.0905318 -0.25635874
0.10104606 -0.06748022 -0.15142222 0.26056322 0.09006421 0.31578535 0.12603872 -0.021451045
0.05591772 0.01532021 -0.002235153 -0.010400889 0.32322 -0.28177434 0.037592124 -0.23839982
-0.11173257 0.039286677 0.020817468 0.04249655 -0.1110631 0.070823744 0.009508618 -0.07435497
0.22198743 -0.115190834 0.0006245102 0.12342548 -0.0120140575 0.08664178 -0.26518536 0.044968486
0.108462706 -0.10795361 -0.03402504 0.18923166 0.06263348 -0.009710729 0.045536384 -0.12321632
-0.084158316 -0.034933332 0.073814936 -0.0016052374 -0.044460718 -0.04657285 -0.05649507 -0.020557525
00000000: ef1d 0bbd 5771 c3bc 4aa8 e2bc 09d9 e63d
00000010: 8b32 673d 0711 2abd e3e3 e2bd 22cb 3cbd
00000020: 8675 cabc 59dd fdbd 156f 753d 68e1 89bd
00000030: 622d 113e 8193 073e e90d c7bc 2f54 2b3e
00000040: a8b7 c2bd 0223 f6bd 60dc 8cbd 61be 793e
00000050: d89f 913d 2e65 043e 3ab9 da3c 4a54 883d
00000060: 0cdc 0fbe 8862 56bd 3eec 15bd 9e49 08be
00000070: 3c75 68be 7164 bbbd 5788 043e be29 69bd
00000080: ea87 d33d 96ce 013d 7388 733e 36de 2d3e
00000090: 785b bebc 8c0e 4b3e acfe d5bc 89f3 a1bd
000000a0: 8bfc 81bd c3af 2dbe b67b 183e 14e9 ad3d
000000b0: 942c 56bd 78b5 073d 784d b2bd c03e ff3c
000000c0: 9061 20bd 5bf0 1bbd e79a cb3d b32a 3bbd
000000d0: c74d 543d 67f1 413d abaf 76bc d6f7 843a
000000e0: 6ad2 94bc 7462 343e 2a3b ad3d b8c5 d0bd
000000f0: 02da 963d d83a debc 59f6 c83d 52b3 2fbe
00000100: ccff 91bb 65bd bf3d 6ef5 6a3e 9064 bc3d
00000110: bb30 f0bd d7f9 11be 9c9a 153d 590d 1fbe
00000120: 8e88 943d 37d3 9ebd 3863 963e 1ea0 56be
00000130: 4cb2 773d 13e3 383e 7757 d2bd 81e5 20be
00000140: 4830 e0bd c602 2e3d 6498 853d fe38 113e
00000150: bb5e a1bd 3673 53bc a391 1d3e 3599 eabd
00000160: dfbe 3bbe 0cec 423e c146 0fbc b154 2abe
00000170: 3d29 7abd 0306 14be f50c e8bd 6853 3d3d
00000180: 7da9 353d efee b8bd 12c2 e5bc 0615 123e
00000190: 0236 26be 8fbf dcbd b9d9 053e 640d 1e3e
000001a0: c872 c4bd 7ac5 c7bc fbc1 3b3c 1598 693e
000001b0: 8e7a 19ba 05d0 b63d 12e2 163e 1371 4bbe
000001c0: 0803 eabd fb74 8b3d 3a5c a33c 676d a2bd
000001d0: 1655 0b3e 4e29 e23d 15bb c3bd 16d8 ab3d
000001e0: f14a 9dbd c6f6 6f3d 2719 df3d 79c3 333d
000001f0: 15fc febd c8cd a13c 4c14 88bd ad7d adbd
00000200: 5107 7ebd 5da4 863e 4124 50be 75ef 77bd
00000210: e3ec c43b 6d94 0c3c 7e91 c6bc 701b bb3d
00000220: ea32 593d 2c9c 7c3e 19f3 c23c 2d7c a8bd
00000230: 0abb e03b 8005 2dbe 4b4c 0abe 5340 c53d
00000240: eb74 9bbd 6fcd 09be 7525 9f3c a28b 32bd
00000250: 855b 893d 3057 5c3c 083b 1c3d e7a4 d6bd
00000260: e6a2 933d b273 8cbd 10a2 733d 679e 083e
00000270: a15a a13d 6ac2 cd3a a493 0cbd 21d7 81bd
00000280: fb4e ce3d 4d06 deb9 dd75 01bd 2a17 bf3d
00000290: f408 5dbe de17 babd fc4e 7c3d 9183 a23d
000002a0: a097 903d d18c 7b3e 669c 3b3e 1cb0 29be
000002b0: b253 703d 1f86 b7bd 0d47 b8bd fd3c 45be
000002c0: 471d 1cbd 5480 49bd 4616 cabc 64ba 743e
000002d0: b068 ebbd 3203 5ebd 0a2d 0fbe 1226 03be
000002e0: 2c57 643d d71b 913c ffb8 f23d f6e3 a8bd
000002f0: de9a 28be fbe2 a93d e0a0 133e e978 0c3d
00000300: d90b 6fbd bae0 033e d954 d33a f88c e33d
00000310: 918f a4bc b0d3 fdbb 68d0 7a3d de12 dc3c
00000320: da79 77bc c1b2 1ebe ae61 333d bc24 3dbd
00000330: db94 87bd 6984 90bd bd68 b9bd 7441 83be
00000340: 3df1 ce3d 1233 8abd 6d0e 1bbe 8b68 853e
00000350: 9673 b83d 9eae a13e 4b10 013e 1aba afbc
00000360: fb09 653d 9e01 7b3c a57b 12bb 7e68 2abc
00000370: 187d a53e ba44 90be 33fa 193d 151f 74be
00000380: 0cd4 e4bd 11eb 203d 6589 aa3c dd10 2e3d
00000390: 0d75 e3bd 0a0c 913d 09ca 1b3c 6b47 98bd
000003a0: ac50 633e 2ce9 ebbd 2cb6 233a 80c6 fc3d
000003b0: 9cd6 44bc 3f71 b13d 60c6 87be e030 383d
000003c0: b221 de3d c816 ddbd d75d 0bbd f2c5 413e
000003d0: fb45 803d c019 1fbc 5c84 3a3d d758 fcbd
000003e0: 325b acbd 4116 0fbd 492c 973d d466 d2ba
000003f0: 711c 36bd 2cc3 3ebd 6067 67bd 4168 a8bc

fc2.bias f4 [100]
-0.19052191 0.09307836 -0.0048261215 -0.16220513 -0.036316358 -0.033059157 0.011643922 -0.033935156
0.041918695 -0.42574373 0.059760086 0.21174884 0.009139683 -0.23243771 0.0057943333 -0.044779394
-0.21501255 0.24655141 0.030547496 0.24974337 -0.061707202 0.044117928 -0.18306354 -0.006259339
-0.035775073 0.18325555 -0.08047178 0.07245094 -0.22521068 -0.02364783 0.013955567 0.020442504
0.017949013 0.13510668 -0.0037951523 0.20078076 0.05514301 -0.043801878 -0.1304391 0.015425977
-0.113276616 0.041812837 0.05496827 -0.014496709 0.13247396 0.06875684 -0.120440386 -0.05918201
-0.07171142 0.064664565 0.06435661 -0.052667856 0.12494342 -0.21030805 0.112700514 0.078340195
-0.05392874 0.122570224 -0.018454498 -0.04914675 -0.100965165 0.072774485 0.07141168 0.11755271
-0.09473932 0.15061654 -0.0055998876 -0.04939053 -0.025420541 0.04686048 0.15176326 0.048064534
0.08493868 0.13922355 -0.021706697 0.07173263 -0.109015435 0.0059393616 -0.13711299 -0.058520492
0.05259652 -0.26139662 -0.025261492 -0.00042761117 0.004867315 0.09567462 -0.038766593 -0.103140056
0.31543866 0.013767318 -0.09801117 -0.01151618 0.19099286 0.094158635 -0.10563919 0.09648629
0.39351735 0.162968 -0.104062505 0.009707339
00000000: 2d18 43be de9f be3d 7124 9ebb 1a19 26be
00000010: 76c0 14bd 0a69 07bd 26c6 3e3c 97ff 0abd
00000020: f0b2 2b3d 15fb d9be fec6 743d b0d4 583e
00000030: 9cbe 153c 2704 6ebe 64de bd3b 996a 37bd
00000040: 402c 5cbe f977 7c3e be3e fa3c babc 7f3e
00000050: b1c0 7cbd 00b5 343d 0275 3bbe 241b cdbb
00000060: e288 12bd 58a7 3b3e 63ce a4bd 2961 943d
00000070: a19d 66be 18b9 c1bc e4a5 643c 0a77 a73c
00000080: cf09 933c 6859 0a3e 17b8 78bb 7999 4d3e
00000090: a3dd 613d 9969 33bd d491 05be 3dbd 7c3c
000000a0: 92fd e7bd f043 2b3d 6926 613d 9b83 6dbc
000000b0: 41a7 073e 63d0 8c3d 73a9 f6bd d668 72bd
000000c0: 70dd 92bd db6e 843d 66cd 833d 40ba 57bd
000000d0: 56e2 ff3d fe5a 57be 87cf e63d d370 a03d
000000e0: 62e4 5cbd 1906 fb3d e32d 97bc 1a4e 49bd
000000f0: d3c6 cebd ca0a 953d 4940 923d 7abf f03d
00000100: b006 c2bd 393b 1a3e 437f b7bb b94d 4abd
00000110: bd3e d0bc c6f0 3f3d d467 1b3e 51df 443d
00000120: 55f4 ad3d 9e90 0e3e 3ed2 b1bc 8fe8 923d
00000130: 7c43 dfbd fa9e c23b 5967 0cbe 2fb3 6fbd
00000140: 736f 573d c7d5 85be 30f1 cebc 0031 e0b9
00000150: ff7d 9f3b 0ef1 c33d b8c9 1ebd 183b d3bd
00000160: 2d81 a13e 5190 613c 15ba c8bd 5cae 3cbc
00000170: a293 433e 3ed6 c03d 5c59 d8bd 9b9a c53d
00000180: 1b7b c93e 15e1 263e b91e d5bd 880b 1f3c

fc3.weight f4 [3, 100]
0.04747328 0.08126401 0.036041036 -0.16610292 0.16303447 0.0795773 0.13255312 -0.09224186
-0.04208892 -0.20224419 0.09115603 0.1443289 -0.081513464 0.024338374 0.019187264 -0.091098204
0.042185117 0.15549047 -0.021342438 -0.012015054 0.16263689 0.07877798 -0.08580974 0.08551617
-0.02818319 -0.025234764 -0.05484274 -0.03694723 -0.040122114 0.010467712 -0.11774855 -0.19609255
0.1817112 0.011778871 -0.16081357 0.1283046 0.07956106 -0.0783877 -0.057464197 -0.06646535
-0.08552772 0.08520217 0.02344652 -0.09299694 0.113284424 0.10925867 -0.2670085 0.07096361
-0.08396993 0.036729284 -0.0070872344 0.0403533 0.022651097 -0.07933114 0.14978835 0.08888998
0.31173936 0.17926206 0.010666135 0.0042510107 0.026931414 0.046184793 -0.008767448 -0.04025938
-0.0024772412 0.08578708 0.03631936 0.04154338 0.08780587 0.013802452 -0.051423218 0.060598794
-0.12670094 0.11779514 0.10095909 0.18201834 -0.00927509 -0.013106557 0.075018674 -0.03755823
0.025273208 0.05926136 -0.04923914 0.106135964 -0.0045217834 -0.043303616 -0.118387245 0.10535447
-0.0037181084 -0.002810191 0.11719089 0.09709862 0.070777245 0.23818281 0.012196237 0.08981693
0.15537816 0.08763062 -0.058906768 0.021000057 0.13953528 -0.08007623 0.22200318 0.0020859945
-0.09360216 -0.08764826 -0.039096475 -0.060896657 -0.06462316 -0.17163682 0.029422278 0.0662945
-0.08689571 -0.15504733 -0.1273026 -0.12892081 0.0036034745 0.16334678 0.07739589 0.17757015
0.08438175 0.051565293 -0.31834456 0.00027860247 0.010109896 -0.087327994 -0.14176762 0.044156976
-0.13087995 0.27232623 0.09401213 0.05702048 -0.008429965 -0.054749127 0.016397351 0.12526646
-0.16873217 -0.009186408 -0.010045631 0.055068366 0.0696317 -0.13834268 -0.13034447 0.038071427
0.00033637954 -0.03813425 -0.20460884 -0.01625438 0.11157379 0.02840632 -0.10292595 0.042397484
0.21071841 -0.12513003 0.08012466 -0.0707113 0.047056347 -0.1436099 -0.020618547 0.079775445
0.12335926 -0.13777806 -0.17137454 -0.08646616 0.0058045886 0.06499172 -0.1772392 -0.048872136
0.01602928 0.044161156 -0.04810536 -0.07395184 0.11432252 0.11552652 -0.23952089 -0.08137777
0.19832225 0.0116942795 0.10456538 0.049952816 -0.045204785 -0.10315343 -0.04081667 -0.13423255
-0.09369052 0.082647815 -0.055269014 -0.18325448 0.24153289 0.028415632 -0.1948148 0.03420877
-0.05018767 -0.08033673 0.14724776 -0.05101198 0.2414686 -0.14039147 0.0009584728 0.22689955
-0.057518832 -0.010716909 0.098219834 -0.022357853 -0.30755344 0.033145834 -0.32147065 -0.31989914
0.07835483 -0.22814418 0.14593433 -0.029043546 0.04014663 -0.034429725 0.08696837 0.0057891323
0.21530913 -0.016333628 0.024422305 0.04362547 0.03320433 0.22444284 -0.07227471 -0.29760465
-0.034665585 0.13933377 0.055652764 0.044351265 -0.058590706 -0.08053595 -0.1826974 -0.32074738
-0.017319517 0.32617173 -0.11970812 -0.08553445 -0.11097476 -0.11214982 -0.15950778 -0.04963982
-0.0047900383 0.09831623 0.017750232 -0.010410445 0.005187349 -0.025687244 -0.016186222 0.19890054
0.028553233 -0.008608095 0.19415483 0.19079413 0.11996458 0.069070436 0.038986932 -0.00059981114
00000000: 5873 423d bf6d a63d c49f 133d e216 2abe
00000010: 82f2 263e 6cf9 a23d 01bc 073e 4de9 bcbd
00000020: 6e65 2cbd 1a19 4fbe 03b0 ba3d f5ca 133e
00000030: 88f0 a6bd 4561 c73c 9c2e 9d3c b291 babd
00000040: 4dca 2c3d e538 1f3e 56d6 aebc cada 44bc
00000050: 498a 263e 5956 a13d 04bd afbd 1a23 af3d
00000060: 6fe0 e6bc 23b9 cebc c8a2 60bd fb55 17bd
00000070: 1657 24bd c480 2b3c 2726 f1bd 7ccc 48be
00000080: 8012 3a3e 2afc 403c 50ac 24be 4862 033e
00000090: e9f0 a23d bb89 a0bd 945f 6bbd fc1e 88bd
000000a0: 2829 afbd 7a7e ae3d eb12 c03c 2e75 bebd
000000b0: aa01 e83d 02c3 df3d 57b5 88be 5f55 913d
000000c0: 6df8 abbd 7271 163d 083c e8bb 8049 253d
000000d0: cb8e b93c 5d78 a2bd 1e62 193e f30b b63d
000000e0: 4d9c 9f3e 7990 373e 03c1 2e3c 104c 8b3b
000000f0: 459f dc3c 442c 3d3d 58a5 0fbc 05e7 24bd
00000100: 3659 22bb 23b1 af3d 9cc3 143d 6429 2a3d
00000110: 90d3 b33d ae23 623c 27a1 52bd 7136 783d
00000120: e4bd 01be 943e f13d a4c3 ce3d 0463 3a3e
00000130: 8cf6 17bc e2bc 56bc 64a3 993d a9d6 19bd
00000140: c209 cf3c 0abc 723d fbae 49bd d05d d93d
00000150: 782b 94bb 225f 31bd 0375 f2bd 16c4 d73d
00000160: 82ab 73bb 2e2b 38bb c701 f03d a4db c63d
00000170: a9f3 903d 32e6 733e bad2 473c f0f1 b73d
00000180: 741b 1f3e af77 b33d 3948 71bd 5008 ac3c
00000190: 56e2 0e3e 02ff a3bd cd54 633e 2eb5 083b
000001a0: 7db2 bfbd ee80 b3bd a023 20bd c66e 79bd
000001b0: 2659 84bd 90c1 2fbe fd06 f13c 69c5 873d
000001c0: 61f6 b1bd bac4 1ebe 9d5b 02be d103 04be
000001d0: 4528 6c3b 6144 273e bd81 9e3d f3d4 353e
000001e0: 57d0 ac3d 2136 533d 0ffe a2be 6411 9239
000001f0: faa3 253c 05d9 b2bd 882b 11be f2dd 343d
00000200: 6505 06be 586e 8b3e 6e89 c03d 4f8e 693d
00000210: d61d 0abc 9f40 60bd bd53 863c da45 003e
00000220: 20c8 2cbe 9682 16bc 6e96 24bc 5e8f 613d
00000230: 119b 8e3d b4a9 0dbe 0579 05be c9f0 1b3d
00000240: 195c b039 a932 1cbd fb84 51be e827 85bc
00000250: cd80 e43d 5fb4 e83c d7ca d2bd fca8 2d3d
00000260: 91c6 573e 1622 00be 6618 a43d 16d1 90bd
00000270: 28be 403d 790e 13be 3ae8 a8bc 4f61 a33d
00000280: c8a3 fc3d b115 0dbe cf7c 2fbe 2c15 b1bd
00000290: 6b34 be3b 611a 853d 317e 35be 262e 48bd
000002a0: d64f 833c 54e2 343d 200a 45bd 1074 97bd
000002b0: ed21 ea3d 2b99 ec3d f744 75be 63a9 a6bd
000002c0: fd14 4b3e 5d99 3f3c 6026 d63d 539b 4c3d
000002d0: a728 39bd 1b42 d3bd 612f 27bd 4274 09be
000002e0: d1e0 bfbd 4243 a93d c361 62bd 10a7 3bbe
000002f0: 6654 773e e6c7 e83c 887d 47be 7f1e 0c3d
00000300: 9691 4dbd 9587 a4bd 1ec8 163e f0f1 50bd
00000310: 8b43 773e c8c2 0fbe 0542 7b3a 5b58 683e
00000320: de98 6bbd f995 2fbc 7b27 c93d d127 b7bc
00000330: a577 9dbe edc3 073d cd97 a4be d2c9 a3be
00000340: 7f78 a03d a19e 69be cf6f 153e bbec edbc
00000350: cb70 243d 2f06 0dbd 791c b23d c3b2 bd3b
00000360: ff79 5c3e 1ace 85bc 4911 c83c 9fb0 323d
00000370: 4301 083d 58d4 653e c304 94bd a35f 98be
00000380: 80fd 0dbd 83ad 0e3e 27f4 633d aca9 353d
00000390: cffc 6fbd 08f0 a4bd 0715 3bbe 0039 a4be
000003a0: a9e1 8dbc fbff a63e 8829 f5bd b02c afbd
000003b0: bc46 e3bd ceae e5bd 0256 23be 2053 4bbd
000003c0: c1f5 9cbb 055a c93d ef68 913c 9290 2abc
000003d0: a3fa a93b 0e6e d2bc f898 84bc 95ac 4b3e
000003e0: 78e8 e93c f808 0dbc 86d0 463e 895f 433e
000003f0: fdaf f53d cd74 8d3d c3b0 1f3d a53c 1dba

fc3.bias f4 [3]
0.06848869 0.021850513 0.039827876
00000000: cc43 8c3d d9ff b23c 8e22 233d

fc1.weight f4 [100, 11]
-0.23405696 0.18651432 0.0036654295 -0.2738277 0.06842032 0.13976383 -0.07649184 0.15049696
-0.04653846 -0.038780622 -0.0055999556 0.012938891 -0.2047634 0.24109313 0.1372961 -0.07052507
-0.22487761 -0.07586858 -0.11869274 0.06430283 0.2294411 0.2793952 -0.1135323 0.11447162
-0.20779614 -0.21445225 0.09797979 0.24723014 -0.12978917 0.30434623 -0.20770533 -0.232715
-0.014318971 0.12547755 -0.314243 0.3209991 0.15102121 -0.033505276 -0.16315606 0.2773929
-0.01370258 -0.020032555 0.20896208 -0.027872514 -0.70865226 -0.1013081 0.078859 -0.65242255
-0.064711414 0.103481404 -0.06857549 0.16156678 -0.048144422 -0.032543764 -0.28005186 -0.25580814
0.16347456 -0.011681606 -0.21840355 -0.07830126 0.1961152 -0.14665522 0.20136745 -0.031082738
-0.17215121 -0.05364862 -0.8656032 0.24913321 0.07126492 -0.36672717 0.09453926 0.08674061
-0.022835322 -0.02509373 0.11729788 0.11719879 -0.42460424 0.18657707 0.09756207 -0.039250303
-0.2433468 -0.09047878 -0.08490062 -0.012581611 -0.23681721 0.2495707 -0.1791182 0.11630312
-0.22742395 -0.060456585 -0.41099367 0.21139759 0.23838753 -0.12469237 0.061032694 0.28281835
-0.2500783 -0.15561904 0.014207173 -0.068176866 0.23675534 -0.25319088 0.014430371 0.27587456
0.24019381 0.18703537 0.38233885 -0.23543178 -0.12642616 0.17158225 0.02267295 -0.04666462
0.09369237 0.15775079 0.10393014 0.14815497 0.010561597 -0.13640781 -0.034135167 0.213375
0.07236398 0.12889107 0.047021233 0.23523629 0.22428237 0.33567795 0.08167785 0.0846209
-0.2792053 0.31882536 0.38218397 -0.014130235 0.03985541 0.039922647 0.3823614 0.09093819
0.058898143 -0.05143691 0.10856644 -0.18473427 0.2834363 0.16311543 0.05755782 0.13275279
-0.103140034 0.11930336 0.26107413 0.060246542 0.09573967 0.10586507 -0.14284633 0.25981686
0.10867783 0.18685591 0.37358436 -0.39915887 0.33638087 0.2588227 -0.009242942 -0.14596453
-0.06428233 -0.107108444 -0.025001282 -0.054354906 0.2086519 0.11589445 -0.41292188 0.486889
-0.17480412 -0.24032083 -0.17024037 0.36811307 -0.017900467 -0.016940705 0.030477269 0.10239176
-0.19920175 -0.18072277 0.33082595 -0.2443259 -0.13939236 -0.23115571 -0.09599439 -0.11845728
-0.002089375 0.20879439 0.02483932 0.22541519 0.021586506 -0.13844636 0.11142332 -0.096757784
-0.0030887453 0.16060317 -0.30741352 0.10649356 0.29622313 -0.060400207 -0.10025118 -0.28247106
0.025379747 0.12591796 0.09010959 -0.01755762 -0.16469409 0.05261232 0.20609836 0.18389525
0.26873592 0.11716764 -0.233172 0.04414484 0.21640831 0.13807386 -0.120237045 0.23937948
-0.33638954 0.18146245 0.28194174 0.1836475 -0.18660843 -0.07238964 -0.17462024 0.07127728
-0.09132143 0.3716909 0.03360775 0.12223951 -0.09580936 -0.22845891 -0.14452615 0.16190104
-0.082110696 0.09682907 0.48481846 0.06322106 -0.11466994 0.0840207 -0.15760632 0.12964754
0.02308614 -0.032744616 -0.121771 0.11940617 -0.22281465 -0.19547027 0.001524118 0.13282494
-0.13765088 0.20099252 -0.11796929 -0.14317377 -0.11666701 0.24947713 -0.3276621 0.08791748
00000000: a1ac 6fbe 9cfd 3e3e b437 703b 2533 8cbe
00000010: f41f 8c3d 401e 0f3e c1a7 9cbd e01b 1a3e
00000020: 1d9f 3ebd 6ed8 1ebd d57f b7bb a4fd 533c
00000030: 7fad 51be 1ee1 763e 5997 0c3e 736f 90bd
00000040: 5146 66be fc60 9bbd 2e15 f3bd 34b1 833d
00000050: 9cf2 6a3e e30c 8f3e 9f83 e8bd 1970 ea3d
00000060: 83c8 54be 5f99 5bbe a1a9 c83d e629 7d3e
00000070: 74e7 04be 45d3 9b3e b5b0 54be d74c 6ebe
00000080: 1e9a 6abc 307d 003e 75e4 a0be fe59 a43e
00000090: 4ea5 1a3e d43c 09bd 6212 27be 7106 8e3e
000000a0: c980 60bc 501b a4bc 28fa 553e e654 e4bc
000000b0: 3c6a 35bf 9f7a cfbd d480 a13d 2a05 27bf
000000c0: 6b87 84bd 0fee d33d 4e71 8cbd c371 253e
000000d0: 1633 45bd 9c4c 05bd f562 8fbe 49f9 82be
000000e0: e065 273e 3564 3fbc 2ea5 5fbe 695c a0bd
000000f0: 6cd2 483e c92c 16be 4533 4e3e 3aa1 febc
00000100: 6848 30be a8be 5bbd 2c98 5dbf c71c 7f3e
00000110: 58f3 913d aac3 bbbe cd9d c13d 10a5 b13d
00000120: 2411 bbbc 5e91 cdbc df39 f03d eb05 f03d
00000130: ba65 d9be 0f0e 3f3e 9fce c73d edc4 20bd
00000140: e72f 79be f04c b9bd 60e0 adbd 1a23 4ebc
00000150: 3680 72be 768f 7f3e c36a 37be 5530 ee3d
00000160: d3e1 68be 53a1 77bd c36d d2be 9c78 583e
00000170: dc1b 743e b75e ffbd 6bfd 793d 91cd 903e
00000180: 430a 80be 995a 1fbe 34c5 683c 50a0 8bbd
00000190: fe6f 723e 3ca2 81be 5d6d 6c3c 6e3f 8d3e
000001a0: 5ef5 753e 3386 3f3e ebc1 c33e 0715 71be
000001b0: dc75 01be 42b3 2f3e 9fbc b93c 6723 3fbd
000001c0: c9e1 bf3d 6c89 213e 53d9 d43d f0b5 173e
000001d0: 8c0a 2d3c 7dae 0bbe 51d1 0bbd fa7e 5a3e
000001e0: 9133 943d 05fc 033e 5699 403d c8e1 703e
000001f0: 47aa 653e fbdd ab3e b746 a73d b94d ad3d
00000200: fff3 8ebe 143d a33e 9ead c33e 8082 67bc
00000210: 6d3f 233d ee85 233d e0c4 c33e cd3d ba3d
00000220: 2e3f 713d 82af 52bd 1558 de3d fb2a 3dbe
00000230: 901e 913e bb07 273e c0c1 6b3d 59f0 073e
00000240: 153b d3bd 5255 f43d 82ab 853e 14c5 763d
00000250: 2913 c43d c9cf d83d 4f46 12be b706 853e
00000260: 7b92 de3d 2857 3f3e 7346 bf3e 8d5e ccbe
00000270: 1d3a ac3e 6984 843e b56f 17bc ba77 15be
00000280: 74a6 83bd ac5b dbbd 7dcf ccbc 40a3 5ebd
00000290: d8a8 553e 125a ed3d 7f6a d3be 8449 f93e
000002a0: daff 32be aa16 76be 7e53 2ebe 5179 bc3e
000002b0: 00a4 92bc 3cc7 8abc 77ab f93c c5b2 d13d
000002c0: 8bfb 4bbe 640f 39be 0562 a93e 9230 7abe
000002d0: dfbc 0ebe 15b4 6cbe b598 c4bd bb99 f2bd
000002e0: e5ed 08bb 32ce 553e d47b cb3c 3dd3 663e
000002f0: 2fd6 b03c e2c4 0dbe e931 e43d f228 c6bd
00000300: 8c6c 4abb 2875 243e 4e65 9dbe 4c19 da3d
00000310: 8faa 973e 3566 77bd 7e50 cdbd 0ca0 90be
00000320: 30e9 cf3c a3f0 003e 608b b83d ffd4 8fbc
00000330: 91a5 28be 0480 573d 730b 533e 094f 3c3e
00000340: c197 893e 96f5 ef3d a4c4 6ebe 38d1 343d
00000350: 249a 5d3e 3c63 0d3e d73e f6bd e51f 753e
00000360: 403b acbe 4bd1 393e ab5a 903e 170e 3c3e
00000370: 4816 3fbe 0541 94bd a6cf 32be d3f9 913d
00000380: bb06 bbbd 454e be3e 48a8 093d b558 fa3d
00000390: b337 c4bd 22f1 69be aafe 13be 63c9 253e
000003a0: a729 a8bd 524e c63d 203a f83e 0b7a 813d
000003b0: 13d8 eabd 0b13 ac3d 8d63 21be 53c2 043e
000003c0: 251f bd3c 381f 06bd 1363 f9bd 398b f43d
000003d0: 8629 64be 5c29 48be eac4 c73a 4303 083e
000003e0: 5af4 0cbe fcd0 4d3e e299 f1bd 259c 12be
000003f0: 1def eebd ef76 7f3e 54c3 a7be 140e b43d

fc1.bias f4 [100]
0.7766749 -0.6484276 0.62559336 -0.507324 -0.20924117 0.74725276 -0.5799064 -0.44048923
-0.66474324 -0.66305506 0.49242297 0.03456721 0.119384006 -0.65766567 0.6190515 -0.22236282
-0.49010798 -0.62521774 -0.7524304 -0.67541033 0.5226342 -0.52915174 0.6135114 -0.54190147
0.66077924 0.42593667 -0.4423112 -0.15910149 0.41945285 0.5696302 -0.55541277 -0.62910974
0.38740206 -0.28307393 -0.64748555 0.61164474 -0.60421526 0.411221 0.5175502 0.2870842
0.4582956 -0.51552904 0.68755305 -0.47347653 0.04743736 -0.5919731 -0.6232884 -0.61591905
-0.6858258 0.5550712 0.69602406 -0.67056054 0.16108651 -0.013107705 -0.2942296 -0.60179836
0.036228612 0.23651914 -0.63894534 -0.5569549 0.32795835 0.2032835 -0.5462847 -0.39123464
-0.2529906 -0.7020083 0.103300475 -0.6869891 0.32457975 0.5814355 0.25512317 0.71213365
-0.14649792 -0.5547284 -0.45514527 -0.56951356 -0.6611993 -0.36399087 0.08773976 -0.4221181
-0.66985095 -0.48530895 -0.49883336 0.41467682 -0.5634153 -0.2305792 -0.6679363 -0.609459
-0.5645075 -0.47318614 0.2982183 0.6092274 0.6504996 -0.37292647 -0.59340227 0.49229556
0.75290513 -0.49710497 -0.61712354 -0.5250743
00000000: 2bd4 463f 5aff 25bf e326 203f fcdf 01bf
00000010: 5143 56be f54b 3f3f bf74 14bf ce87 e1be
00000020: 9d2c 2abf fabd 29bf dd1e fc3e 5996 0d3d
00000030: 9a7f f43d c75c 28bf 297a 1e3f 14b3 63be
00000040: 6fef fabe 450e 20bf 479f 40bf b1e7 2cbf
00000050: 5bcb 053f 7d76 07bf 150f 1d3f 0eba 0abf
00000060: d428 293f 5f14 da3e 9d76 e2be 80eb 22be
00000070: 86c2 d63e 49d3 113f 882f 0ebf 560d 21bf
00000080: 9059 c63e 11ef 90be 9dc1 25bf c094 1c3f
00000090: daad 1abf 8f8b d23e 2b7e 043f b3fc 923e
000000a0: b9a5 ea3e b6f9 03bf 7a03 303f 846b f2be
000000b0: ad4d 423d 8d8b 17bf d48f 1fbf dfac 1dbf
000000c0: 4892 2fbf 2519 0e3f a22e 323f dba9 2bbf
000000d0: ddf3 243e b3c1 56bc 43a5 96be 750f 1abf
000000e0: 7464 143d 1332 723e ec91 23bf 9994 0ebf
000000f0: 28ea a73e 8d29 503e 50d9 0bbf e84f c8be
00000100: fc87 81be d1b6 33bf 338f d33d 85de 2fbf
00000110: 512f a63e f5d8 143f 819f 823e 644e 363f
00000120: 8d03 16be ae02 0ebf cd08 e9be a4cb 11bf
00000130: 5b44 29bf 035d babe e7b0 b33d dd1f d8be
00000140: 5a7b 2bbf 6a7a f8be 1667 ffbe 8550 d43e
00000150: fc3b 10bf f41c 6cbe e0fd 2abf 8105 1cbf
00000160: 9083 10bf 7445 f2be 12b0 983e 54f6 1b3f
00000170: 2487 263f 38f0 bebe 36e9 17bf 2a0e fc3e
00000180: 64be 403f 8b84 febe cffb 1dbf 456b 06bf

fc2.weight f4 [100, 100]
0.05685934 -0.08043114 -0.0024933196 -0.03882042 -0.07350453 0.018393965 -0.08985178 -0.07706988
-0.16998415 -0.14803953 0.14489612 0.17761876 0.108733766 -0.058428787 0.09443863 -0.06722864
-0.15203544 -0.036207207 -0.12550323 -0.0014117362 -0.0068925577 0.006798157 0.013777361 -0.01703664
0.0722918 0.07086358 -0.025680676 -0.08257117 0.11093451 0.10388258 -0.021118665 -0.1442813
0.07167473 -0.19667423 -0.086949386 -0.007828437 -0.03553765 0.046884034 0.13956623 0.07329704
0.046376124 -0.14893587 0.15909247 -0.020834604 -0.071092136 -0.10916887 -0.022760434 -0.10108035
-0.12957343 0.06509253 0.15237275 -0.06124886 0.0828498 0.055429723 -0.021854768 0.017631853
0.08734036 0.035466354 -0.10406463 -0.111458 0.1513109 0.07290139 -0.05640161 -0.05510419
0.075988844 -0.19340931 0.061436992 -0.045767896 0.07861799 0.14735131 0.03912834 0.032707047
-0.1836563 -0.1727491 -0.13134946 0.002815344 -0.026052022 -0.13550158 0.11026557 -0.13493408
-0.1654532 -0.16905427 -0.066815026 0.08456542 -0.15321612 -0.10116182 -0.11180509 -0.06983412
-0.072203785 0.028246306 0.12619683 0.033805765 0.13924924 -0.06664536 -0.16738795 0.10686824
0.05420784 0.043492135 -0.0865951 -0.033743232 0.083560884 -0.03408524 -0.024238871 -0.073218204
-0.03049786 0.048254486 -0.06338566 -0.10710052 -0.15493706 -0.19446614 0.10998688 0.109825425
0.10119944 -0.1010669 0.14074221 -0.107247844 -0.07979152 -0.09675785 -0.086802244 -0.012602073
0.0037455002 -0.0017462403 0.015204688 -0.06075343 0.1232825 0.10471123 0.051850744 -0.15276186
0.15202054 0.13294941 0.039472964 -0.15058812 0.036727123 -0.09055134 -0.13222584 0.017268836
-0.075410135 0.04399406 0.13938434 0.10422362 0.14329581 -0.1675293 0.19030175 0.045905113
-0.078002654 -0.17396928 -0.010902542 -0.070821024 -0.12893459 0.12465809 0.14912221 -0.07127395
0.022938551 0.023182143 -0.011423979 0.019118706 -0.0003940624 0.10050555 -0.13630342 -0.092142865
0.13484788 0.03715036 -0.02315098 0.0523676 0.038545057 -0.17210901 0.11299205 -0.06559428
0.13725305 0.04370122 0.021316389 0.030751256 -0.15421866 -0.21169361 -0.1328344 -0.016572237
-0.066232234 -0.14394252 0.1390898 -0.1067133 -0.16113201 -0.13826801 -0.04560451 0.07031025
-0.16456327 -0.06705983 -0.09020229 -0.057289694 -0.18030043 0.008302918 0.13439244 0.05685211
0.13901392 -0.10436353 -0.16320139 0.088058904 0.03935339 0.022773929 -0.12120838 -0.03829065
0.4784628 -0.3756926 0.44721782 -0.31489402 -0.03154839 0.4144594 -0.15531458 -0.12182419
-0.10598848 -0.10514654 0.0233238 -0.09965397 -0.03426555 -0.32009068 0.13287672 -0.20556645
-0.11593535 -0.36735678 -0.2916415 -0.4139066 0.24321078 -0.24768578 0.5339018 -0.30143803
0.36466205 0.14208058 -0.29916546 0.03844414 0.088190384 0.15757746 -0.40638384 -0.06288947
0.066943295 0.02869402 -0.12944986 0.46948075 -0.23098838 0.14265698 0.06106861 0.03335514
0.1578763 -0.14129691 0.08995316 -0.34431303 0.11150308 -0.09633263 -0.34633425 -0.3048035
-0.20027001 0.19823387 0.26799044 -0.39925417 0.0036723625 -0.06321094 -0.12573195 -0.4205743
00000000: 57e5 683d 15b9 a4bd f666 23bb 2902 1fbd
00000010: 8b89 96bd f1ae 963c 3604 b8bd d0d6 9dbd
00000020: 5310 2ebe ad97 17be a65f 143e b1e1 353e
00000030: cfaf de3d 0653 6fbd 0a69 c13d 2baf 89bd
00000040: 2eaf 1bbe 024e 14bd eb83 00be 020a b9ba
00000050: f7da e1bb 13c3 de3b 71ba 613c 6c90 8bbc
00000060: b90d 943d ed20 913d 4860 d2bc 131b a9bd
00000070: a231 e33d 64c0 d43d 0d01 adbc 7abe 13be
00000080: 33ca 923d f864 49be 8512 b2bd d842 00bc
00000090: ed8f 11bd 7909 403d 73ea 0e3e c21c 963d
000000a0: e4f4 3d3d a582 18be 23e9 223e 55ad aabc
000000b0: c198 91bd ee93 dfbd 1774 babc 3703 cfbd
000000c0: e6ae 04be 3b4f 853d 9a07 1c3e 16e0 7abd
000000d0: 28ad a93d 470a 633d c508 b3bc ad70 903c
000000e0: 81df b23d 2b45 113d d61f d5bd 1844 e4bd
000000f0: 3ff1 1a3e 534d 953d 6005 67bd eeb4 61bd
00000100: 0aa0 9b3d 170d 46be 5ba5 7b3d 1e77 3bbd
00000110: 7802 a13d 43e3 163e 0a45 203d d3f7 053d
00000120: 6610 3cbe 24e5 30be 7980 06be a281 383b
00000130: 0d6b d5bc edc0 0abe ead2 e13d 292c 0abe
00000140: 906c 29be 901c 2dbe 51d6 88bd a330 ad3d
00000150: b0e4 1cbe ee2d cfbd 11fa e4bd 3105 8fbd
00000160: 94df 93bd cc64 e73c be39 013e ea77 0a3d
00000170: 5a97 0e3e 5d7d 88bd bf67 2bbe bcdd da3d
00000180: 0a09 5e3d cf24 323d c658 b1bd 5836 0abd
00000190: f821 ab3d f79c 0bbd 9990 c6bc 6df3 95bd
000001a0: a6d6 f9bc 7fa6 453d 57d0 81bd 8457 dbbd
000001b0: d2a7 1ebe 2222 47be cd40 e13d 27ec e03d
000001c0: a741 cf3d 2afc cebd ba1e 103e c2a4 dbbd
000001d0: bd69 a3bd fb28 c6bd 60c5 b1bd ed78 4ebc
000001e0: 1177 753b 1ae2 e4ba 151d 793c 97d8 78bd
000001f0: 897b fc3d d772 d63d 7261 543d 9b6d 1cbe
00000200: 46ab 1b3e e423 083e 67ae 213d c633 1abe
00000210: 2e6f 163d fb72 b9bd 3666 07be 6077 8d3c
00000220: a170 9abd 1e33 343d c5ba 0e3e 3173 d53d
00000230: 23bc 123e cd8c 2bbe 76de 423e 0007 3c3d
00000240: dbbf 9fbd 0125 32be 93a0 32bc 9d0a 91bd
00000250: 6e07 04be be4c ff3d 7eb3 183e 14f8 91bd
00000260: a1e9 bb3c 7ae8 bd3c a42b 3bbc d59e 9c3c
00000270: 299a ceb9 dbd5 cd3d 2093 0bbe 66b5 bcbd
00000280: 9015 0a3e fa2a 183d 20a7 bdbc 697f 563d
00000290: 6ce1 1d3d 583d 30be 6068 e73d 4b56 86bd
000002a0: 108c 0c3e 0d00 333d b59f ae3c 0fea fb3c
000002b0: 7feb 1dbe 36c6 58be be05 08be 80c2 87bc
000002c0: c4a4 87bd ab65 13be 8e6d 0e3e 818c dabd
000002d0: caff 24be 2196 0dbe cbcb 3abd d2fe 8f3d
000002e0: 4683 28be aa56 89bd fabb b8bd 99a8 6abd
000002f0: ada0 38be f608 083c 2c9e 093e c2dd 683d
00000300: aa59 0e3e 8cbc d5bd 441e 27be 3a58 b43d
00000310: 0531 213d 6490 ba3c 193c f8bd a8d6 1cbd
00000320: 13f9 f43e c85a c0be bcf9 e43e ca39 a1be
00000330: e238 01bd 0634 d43e c90a 1fbe f67e f9bd
00000340: 7d10 d9bd 1257 d7bd 8e11 bf3c 6117 ccbd
00000350: 095a 0cbd ede2 a3be d610 083e 0380 52be
00000360: 836f edbd 3016 bcbe 0952 95be 91eb d3be
00000370: 3f0c 793e 57a1 7dbe caad 083f 1656 9abe
00000380: fcb4 ba3e 927d 113e 372c 99be 9a77 1d3d
00000390: 299d b43d fc5b 213e 8b11 d0be 32cc 80bd
000003a0: 9119 893d b90f eb3c 818e 04be c85f f03e
000003b0: 3888 6cbe ac14 123e 1423 7a3d 669f 083d
000003c0: 53aa 213e 23b0 10be 5d39 b83d cc49 b0be
000003d0: ba5b e43d 0b4a c5bd b952 b1be 340f 9cbe
000003e0: 9513 4dbe d2fd 4a3e 0b36 893e 0b6b ccbe
000003f0: 05ac 703b bd74 81bd e0bf 00be 8455 d7be

fc2.bias f4 [100]
0.27079165 0.22548202 0.2777579 0.30416274 0.29466078 0.25861636 0.3461683 -0.14399993
-0.02353191 -0.3017287 0.25514457 0.2591692 0.23010015 -0.13006179 0.23434842 -0.28494367
0.29102424 -0.13848351 -0.15296584 0.22004592 0.22442147 -0.25224414 0.31561056 -0.29536077
-0.32020807 -0.31672195 0.075365394 0.25145388 0.23813958 -0.3254045 0.2563757 -0.238336
0.2398056 0.28647047 -0.2573537 0.25881344 -0.2800686 0.26075757 -0.27928042 0.29074574
-0.2653056 -0.234252 -0.32709983 -0.2725098 0.2202556 0.21433103 0.27839994 -0.17917842
0.33091205 0.27818984 0.2647895 -0.26835477 -0.16739523 -0.2963983 0.30428717 0.32990834
0.32998672 -0.3477548 0.3065947 -0.18071915 0.28993812 -0.25076625 0.2331987 0.19205165
0.27545816 -0.32782194 -0.17809403 0.25899872 -0.3274908 -0.25869605 0.2839178 -0.26204443
0.27635917 -0.2755219 -0.05951806 0.32105377 -0.35315657 -0.17579138 0.22260164 -0.24130775
0.13257134 -0.2146902 -0.1504406 -0.25137427 -0.20538834 0.2653652 -0.2261664 0.038673684
0.30161116 -0.23981734 -0.20341407 -0.23376276 -0.2756878 0.27530015 -0.24602021 0.26998225
-0.30118665 -0.2652278 0.2773872 -0.2888793
00000000: 34a5 8a3e c2e4 663e 4936 8e3e 38bb 9b3e
00000010: c7dd 963e 5d69 843e f93c b13e b874 13be
00000020: fec5 c0bc 2f7c 9abe 4fa2 823e d3b1 843e
00000030: 609f 6b3e eb2e 05be 08f9 6f3e 23e4 91be
00000040: 2101 953e 9fce 0dbe 14a3 1cbe b853 613e
00000050: bece 653e 2526 81be b597 a13e 8739 97be
00000060: 50f2 a3be 6129 a2be 2c59 9a3d 90be 803e
00000070: ddda 733e 6b9b a6be ad43 833e 5a0e 74be
00000080: 998f 753e 42ac 923e ddc3 83be 3283 843e
00000090: 2765 8fbe 0482 853e d8fd 8ebe a0dc 943e
000000a0: 23d6 87be c2df 6fbe a179 a7be 6886 8bbe
000000b0: af8a 613e 9879 5b3e 708a 8e3e 8c7a 37be
000000c0: 4e6d a93e e66e 8e3e 7d92 873e cc65 89be
000000d0: a869 2bbe 85c1 97be 87cb 9b3e bfe9 a83e
000000e0: 05f4 a83e eb0c b2be fbf9 9c3e 710e 39be
000000f0: c572 943e 6f64 80be a4cb 6e3e 30a9 443e
00000100: da08 8d3e 47d8 a7be 485e 36be 7b9b 843e
00000110: e0ac a7be cf73 84be ad5d 913e b02a 86be
00000120: f37e 8d3e 3511 8dbe 36c9 73bd 2961 a43e
00000130: f0d0 b4be a802 34be aff1 633e 6119 77be
00000140: c8c0 073e bfd7 5bbe 1a0d 1abe 21b4 80be
00000150: 5251 52be f3dd 873e 2a98 67be 4c68 1e3d
00000160: c76c 9a3e ad92 75be c74b 50be 815f 6fbe
00000170: f426 8dbe 24f4 8c3e b9ec 7bbe 1d3b 8a3e
00000180: 2335 9abe f0cb 87be b205 8e3e fde7 93be

fc3.weight f4 [1, 100]
1.0369627 1.0627743 1.0729719 1.0967553 1.0902046 1.0457819 1.1009982 -1.0595504
1.2593813 -1.0872924 1.0285095 1.0511149 1.0478019 -1.3117764 1.056224 -1.039506
1.0870908 -1.0909542 -1.0728375 1.0452653 1.089733 -1.0419083 1.0854719 -1.0589836
-1.0686522 -1.0687149 1.0464579 1.052186 1.0664521 -1.1116368 1.0349371 -1.0384667
1.0471312 1.0582708 -1.0447457 1.0497543 -1.0702051 1.1152779 -1.1012746 1.0665579
-1.0551409 -1.0447246 -1.09377 -1.0488863 1.0991309 1.0647337 1.1712451 -1.0551043
1.0810717 1.0816839 1.1101843 -1.0463178 -1.0520875 -1.110908 1.0740705 1.1215304
1.0789086 -1.0958203 1.0734764 -0.9821212 1.0690736 -1.0453049 1.0688552 1.0489887
1.0466176 -1.080038 -1.0445175 1.0467719 -1.0505508 -1.026602 1.116327 -1.0385851
1.0501347 -1.0506787 -1.156539 1.1227144 -1.1245629 -1.0899947 1.0718673 -1.0473782
-1.2241662 -1.0253704 -1.0489649 -1.0504189 -1.0433319 1.0669956 -1.0059372 -1.041598
1.0692024 -1.0726789 -1.0399736 -1.0457076 -1.1224504 1.0854254 -1.0498247 1.0528626
-1.0654273 -1.2779417 1.026338 -1.1032801
00000000: 32bb 843f fd08 883f 2557 893f 7a62 8c3f
00000010: d38b 8b3f 2edc 853f 82ed 8c3f 599f 87bf
00000020: 6833 a13f 662c 8bbf 33a6 833f ef8a 863f
00000030: 5f1e 863f 4ae8 a7bf 5932 873f 880e 85bf
00000040: cb25 8b3f 63a4 8bbf bd52 89bf 41cb 853f
00000050: 5f7c 8b3f 405d 85bf bef0 8a3f c68c 87bf
00000060: 98c9 88bf a6cb 88bf 55f2 853f 08ae 863f
00000070: 8181 883f 1d4a 8ebf d278 843f 7aec 84bf
00000080: 6508 863f 6b75 873f 3aba 85bf 595e 863f
00000090: 7bfc 88bf 6dc1 8e3f 91f6 8cbf f884 883f
000000a0: db0e 87bf 89b9 85bf a800 8cbf e841 86bf
000000b0: 52b0 8c3f 3249 883f 5ceb 953f a80d 87bf
000000c0: 8f60 8a3f 9e74 8a3f 851a 8e3f beed 85bf
000000d0: ceaa 86bf 3c32 8ebf 247b 893f 4f8e 8f3f
000000e0: ad19 8a3f d743 8cbf ad67 893f 4c6c 7bbf
000000f0: 67d7 883f 8dcc 85bf 3fd0 883f 4345 863f
00000100: 91f7 853f af3e 8abf c0b2 85bf 9ffc 853f
00000110: 7378 86bf b267 83bf cee3 8e3f 5bf0 84bf
00000120: d06a 863f a47c 86bf 7809 94bf 1bb5 8f3f
00000130: adf1 8fbf f284 8bbf f332 893f 7d10 86bf
00000140: 7ab1 9cbf 563f 83bf 7b44 86bf 2074 86bf
00000150: e68b 85bf 5093 883f 8dc2 80bf 1553 85bf
00000160: a0db 883f 8b4d 89bf db1d 85bf bfd9 85bf
00000170: 74ac 8fbf 38ef 8a3f a860 86bf 34c4 863f
00000180: ec5f 88bf 9893 a3bf 0b5f 833f 4838 8dbf

fc1.weight f4 [100, 14]
0.17224258 0.20103094 0.19118664 0.24818724 0.14774786 0.16319935 -0.11586148 -0.24064642
0.010473045 -0.043955155 0.08164899 0.19243999 -0.12113759 0.22185326 -0.15361862 -0.07322954
0.0026708986 0.123771355 0.11742364 -0.2694782 0.14118682 0.24380887 -0.127333 -0.12107349
-0.21533708 0.023729093 -0.22544792 -0.13445318 0.022393212 -0.012233588 -0.24732621 -0.01604334
-0.24808145 0.064685 0.11048939 0.22468007 0.25431147 0.002834577 0.09327344 0.2693802
-0.14908025 0.08342959 -0.0046544024 -0.22303592 -0.2420371 0.1472481 -0.07220768 0.09255718
0.17785467 0.23357569 -0.19585076 0.12595749 0.211136 -0.25357747 -0.20638591 0.17128156
-0.24992795 -0.101081796 0.04009278 -0.07760693 0.03704245 -0.15296796 -0.21486591 0.071419664
0.2196239 -0.09672834 0.17304914 -0.19822758 -0.30957207 -0.1012136 0.07277337 0.1730957
0.015828837 0.1900804 0.18457288 -0.24650198 0.10535082 0.27780303 -0.015696883 -0.13068272
-0.05331788 0.21790683 -0.21660385 -0.06300302 0.07340522 0.18195875 0.15800552 0.26083362
-0.07624986 -0.23902534 0.2414585 -0.044484507 0.08764375 0.095025994 0.13630114 -0.13054432
0.032211687 -0.19286829 -0.017104615 0.090716206 0.09248493 0.17949603 -0.2514611 -0.2052443
-0.19038625 -0.110973515 0.24552773 0.15827279 -0.015603188 0.052102096 -0.041017234 -0.059708297
0.21587558 -0.17850456 -0.024383802 0.0032491712 -0.13803169 0.07879236 -0.035092488 0.10926862
-0.16649719 0.16939381 0.0012109323 0.14003336 0.30362964 0.30217746 0.23602553 -0.0077349353
0.19444144 -0.13983169 0.23428078 0.23003745 -0.14135018 0.14717716 -0.028329745 -0.23896596
-0.16836183 0.20668341 -0.06355356 0.15542406 -0.10440568 0.22699717 -0.09990665 0.113620274
-0.22339812 0.23816265 0.29112852 -0.15316467 0.2614136 0.07119644 0.17662254 -0.05845402
0.13835815 -0.034267038 -0.0048236772 -0.15112065 -0.20048559 -0.024626834 -0.13428424 0.20748901
-0.22028919 -0.15549718 -0.06294984 0.13167349 0.19073807 -0.082722954 -0.25997785 -0.02612277
-0.10529633 0.27896634 -0.04868058 0.22069219 -0.032644868 0.27442282 0.2348646 0.112175934
-0.07711057 -0.11857511 -0.2045918 -0.19575188 0.21840881 -0.17856325 -0.23207527 -0.1973597
-0.089531 0.1655304 -0.083925925 -0.17719279 -0.2885119 0.07070929 -0.10652131 0.17020158
0.1617738 -0.19039404 -0.1817881 -0.042268675 -0.05714257 0.2536911 -0.29051226 0.056271747
-0.18483573 -0.14805512 -0.14785424 0.07264363 0.0039085248 -0.048436806 0.18094254 0.29399362
-0.19335318 0.20240173 -0.1699064 0.07421757 -0.0122715365 0.04627177 -0.03395891 -0.16787705
0.007572666 -0.20806654 -0.00014099083 0.083614096 0.019893825 -0.083123945 0.22341374 0.104978584
-0.033582974 0.044617966 0.08163559 -0.1434128 -0.029251628 0.016765358 -0.15930153 -0.20744754
-0.12025981 0.19716544 0.02928055 0.19677308 -0.057715613 -0.019557038 0.040497478 0.25607535
-0.31612644 0.14751194 -0.18645984 -0.09105103 0.07406864 0.018453414 0.27433285 -0.054219227
0.027298221 -0.23096703 -0.24063458 0.10154182 0.26389635 -0.15061022 -0.22928646 -0.06343647
00000000: 5c60 303e 0edb 4d3e 6ec6 433e cc24 7e3e
00000010: 374b 173e bb1d 273e c948 edbd 046c 76be
00000020: 2297 2b3c 520a 34bd 9637 a73d fd0e 453e
00000030: fc16 f8bd 802d 633e 334e 1dbe 5ef9 95bd
00000040: 3e0a 2f3b d67b fd3d ce7b f03d 0cf9 89be
00000050: 4793 103e 08a9 793e 9563 02be 61f5 f7bd
00000060: 5381 5cbe 8463 c23c d2db 66be 18ae 09be
00000070: f871 b73c 636f 48bc 1543 7dbe 536d 83bc
00000080: 1009 7ebe 9279 843d 4348 e23d 8812 663e
00000090: 1d35 823e 50c4 393b 2506 bf3d 34ec 893e
000000a0: 7ea8 18be 22dd aa3d f583 98bb 8763 64be
000000b0: 93d8 77be 35c8 163e 9fe1 93bd 9e8e bd3d
000000c0: 891f 363e 772e 6f3e 1a8d 48be 00fb 003e
000000d0: 0934 583e e8d4 81be d456 53be 6f64 2f3e
000000e0: 1ded 7fbe f903 cfbd 5438 243d 62f0 9ebd
000000f0: d3b9 173d a2a3 1cbe cf05 5cbe 7944 923d
00000100: 16e5 603e 8219 c6bd cb33 313e 2cfc 4abe
00000110: 3b80 9ebe 1349 cfbd 340a 953d 0040 313e
00000120: 7aab 813c 70a4 423e ac00 3d3e 046b 7cbe
00000130: 2cc2 d73d 333c 8e3e c096 80bc b1d1 05be
00000140: d963 5abd f822 5f3e 66cd 5dbe ba07 81bd
00000150: 7a55 963d 6553 3a3e 33cc 213e fc8b 853e
00000160: e328 9cbd 0fc3 74be e640 773e 6335 36bd
00000170: 917e b33d fd9c c23d 8792 0b3e 69ad 05be
00000180: 67f0 033d 447f 45be fa1e 8cbc 6bc9 b93d
00000190: bd68 bd3d cfcd 373e 82bf 80be 902b 52be
000001a0: 9df4 42be 1546 e3bd 9f6b 7b3e 4312 223e
000001b0: 84a4 7fbc 0269 553d b001 28bd b090 74bd
000001c0: 7d0e 5d3e e6c9 36be 8ac0 c7bc 0cf0 543b
000001d0: 2e58 0dbe e45d a13d 24bd 0fbd 3ac8 df3d
000001e0: 3d7e 2abe 9275 2d3e 25b8 9e3a e864 0f3e
000001f0: 5875 9b3e 01b7 9a3e adb0 713e 5775 fdbb
00000200: a81b 473e 0a30 0fbe 4de7 6f3e f08e 6b3e
00000210: 1abe 10be 9cb5 163e c813 e8bc 7eb3 74be
00000220: 0b67 2cbe d1a4 533e 5e28 82bd 7c27 1f3e
00000230: a5d2 d5bd f271 683e dc9b ccbd bfb1 e83d
00000240: 7ac2 64be e9e0 733e cc0e 953e 33d7 1cbe
00000250: 01d8 853e 70cf 913d 8adc 343e 7c6d 6fbd
00000260: c2ad 0d3e 985b 0cbd f00f 9ebb 5fbf 1abe
00000270: 184c 4dbe 37be c9bc cf81 09be 0078 543e
00000280: 7d93 61be a73a 1fbe d9eb 80bd 6ad5 063e
00000290: d750 433e a76a a9bd d11b 85be 6bff d5bc
000002a0: 9aa5 d7bd add4 8e3e 4a65 47bd 22fd 613e
000002b0: a0b6 05bd 2681 8c3e 5880 703e 7fbc e53d
000002c0: 26ec 9dbd 82d7 f2bd 8380 51be 2e73 48be
000002d0: 8fa6 5f3e 49d9 36be 24a5 6dbe a918 4abe
000002e0: 075c b7bd cd80 293e 5be1 abbd 0772 35be
000002f0: d5b7 93be 08d0 903d d827 dabd 5349 2e3e
00000300: 08a8 253e a8f6 42be a926 3abe eb21 2dbd
00000310: 540e 6abd cde3 813e 06be 94be 347d 663d
00000320: 9445 3dbe c39b 17be 1a67 17be 2fc6 943d
00000330: 1513 803b ac65 46bd 0049 393e 5586 963e
00000340: 60fe 45be 6642 4f3e f1fb 2dbe 62ff 973d
00000350: 8e0e 49bc 7887 3d3d 7f18 0bbd f6e7 2bbe
00000360: 2024 f83b 650f 55be f0d6 13b9 de3d ab3d
00000370: 60f8 a23c e33c aabd 92c6 643e 03ff d63d
00000380: 4d8e 09bd 54c1 363d 8f30 a73d ceda 12be
00000390: 1ca1 efbc 8157 893c f11f 23be 216d 54be
000003a0: c64a f6bd bde5 493e c4dd ef3c e27e 493e
000003b0: 3567 6cbd 1536 a0bc afe0 253d 4f1c 833e
000003c0: 53db a1be 5f0d 173e 54ef 3ebe f678 babd
000003d0: 4db1 973d 9d2b 973c 5b75 8c3e fb14 5ebd
000003e0: 85a0 df3c 9f82 6cbe e968 76be 28f5 cf3d
000003f0: 6c1d 873e 9139 1abe 12ca 6abe fbea 81bd
