mujoco/gail/save_model/ckpt_907.pth.tar (torch, 144879 bytes, 16 tensors)

fc1.weight f4 [100, 11]
00000000: 7086 d63d be0d 91be 1cc1 ea3e e7fa 7ebe
00000010: afc6 013d e393 c93c 1818 a9bc 4570 163e
00000020: 1fe3 eb3e 7707 123d 8391 673d a541 8e3e
00000030: 0749 a6bd a4a7 ea3d 2295 05bf e835 90bc
00000040: 657a 1e3e cdff bc3d 8dcc 0d3e 5e3b ba3d
00000050: 392d 803e 6c8e 933e 91b1 853e bfb6 31be
00000060: 655e c1be 50b0 d83d 084f f53c bc6b efbd
00000070: 1eb5 083c 2d41 e13e 4132 3e3e 7133 123b
00000080: 46a3 8b3e b2ae e23e e15f bdbe 244e e03d
00000090: 5e69 8a3e 4b5e c83d 0a62 6bbc 7b50 5dbe
000000a0: bc84 26be 71b4 72bd 942e 1e3e 283b c5be
000000b0: 9d71 ed3c ca0f 7b3e 45cb a33e f80d aabe
000000c0: 22a6 01be d050 373e 3e5c 3bbe 1d97 183e
000000d0: df1c fe3e 2040 ac3c 3fee 9d3b a157 f33e
000000e0: e013 15be 3e76 713e a363 f73d 3cf4 8a3e
000000f0: a712 483d 4162 dc3d 3677 94be ace6 34bd
00000100: b48b adbc a130 883d d04e a63e 9e72 c5be
00000110: e198 3a3e 22a0 d3bc ee43 1ebe abed 8fbe
00000120: 6d13 4dbb 869b adbc 2a09 e83d ca49 13be
00000130: c6eb 7d3d a1f7 4f3e 514f aa3e 85c3 10bf
00000140: ac52 43be e4e7 8b3e db8d 1b3e 0e22 373e
00000150: 9e41 8f3d 9cd6 4fbe dbbd 8e3e fe0d 703e
00000160: 392b 1c3c 50bd 233e 2e2d afbe c8c8 febe
00000170: 047e 8d3e d9e5 bc3e a934 b83d 4ad2 293d
00000180: a6fa 843e 4c13 743c 48c5 5b3e 422a d83c
00000190: d7a0 2c3e c3a6 5c3e e54b 2fbd f27e 603e
000001a0: 09cd 5abe 1d47 4c3e 3a37 b53e 7933 873e
000001b0: 987e 2b3e 896f 02be fd0c dabe 321a a6bc
000001c0: 2d34 73bd 99f7 40be e3b3 d23b 1afd 933e
000001d0: ed43 56be 986a b63e 2b7e 603d 7757 c83e
000001e0: acc1 81be a57d 7fbd 765d abbd f0a8 ba3c
000001f0: 8ed0 98bd 4f01 0b3f d508 bb3e 46a2 5e3d
00000200: 47e2 23be c31f 9ebe c416 8cbd 71df 0b3e
00000210: 385c 803d 740c 143e f892 a13d dcc3 6a3d
00000220: 80d1 473e 5833 1bbd 09c3 823d aebc 16be
00000230: 7460 773e d6b1 ebbd aea0 9d3e 20af 6d3c
00000240: e2cb 893d c5be ccbd edee b63e 7765 07be
00000250: 7758 0ebe 742c 343d 317b 9a3e 3576 1a3f
00000260: 2ccb 6fbe d419 993d ed07 a6bd 8648 92be
00000270: 2a83 e93e 74c1 613e 9313 003e c5ab c8bd
00000280: 68fb ce3e c684 163e edd7 9f3d 5780 2cbd
00000290: 78ab 8f3e 52a6 6cbd 2200 17be cb9c 063f
000002a0: 5a22 e43d 2a2f 8e3e d5b5 2f3d 7dc8 acbd
000002b0: 86b7 07be f70c 223e ce51 4f3e 91c4 b1bd
000002c0: 75b6 7a3e 59d0 c2be 6dea 923e 5726 1d3e
000002d0: a441 923e 6872 a83e 555b 95be 2bb1 e43e
000002e0: 18c2 ab3e 7992 883e bfe4 d03e b437 523d
000002f0: 4ccb 59be d4bd 84be b96a 7dbd 3631 6a3d
00000300: 7260 b8be 714f 2f3d 924a f83d 3f79 edbc
00000310: e868 28be 969e edbd 99f7 203e 1317 573e
00000320: 0b13 983e 728b ebbd 2237 32be 22e1 643e
00000330: 3aa4 1d3d 78e7 c13d 6dfb 36be 9b15 b1be
00000340: a1d1 cb3e 4a01 57bd 8856 c23e bb17 c5be
00000350: f70d 14bc 831b be3e 5842 70be 0e06 64be
00000360: 829b 3fbe 40ab 77be e28c 6b3e 1a9b 48be
00000370: 4757 2bbe 5ee0 a5be c105 cdbc 5ef3 943e
00000380: 1ee0 a4bd df2b 35bd a752 8bbd e16e e9bd
00000390: e954 ea3d 4f6e 63be e3f5 99be caa3 8a3e
000003a0: afb6 1a3d 5fb7 e73e 5a78 4d3e befb c33e
000003b0: d488 aabe 7bc1 b1bc 60cf 4abd ed5b 22bd
000003c0: 8a81 173e 9abb 61bd 9746 893d cc70 e6be
000003d0: b11d 6d3e 0032 593e bd2c c93e 3d48 403e
000003e0: dfcb eabd c7c1 62be 3b5b f0bd 457c c83d
000003f0: c94b c7be 61fe 783e d298 303e e7d8 9bbc
0.10474861 -0.28330797 0.45850456 -0.24900399 0.03168362 0.02460665 -0.020641372 0.14691265
0.46071717 0.03565165 0.056535255 0.27784458 -0.081193976 0.11457756 -0.52180684 -0.01760383
0.15476377 0.092284776 0.13847561 0.09093355 0.25034502 0.28819597 0.26112035 -0.17354868
-0.3776733 0.10580504 0.029944912 -0.116904706 0.008343963 0.43995038 0.18573858 0.0022308493
0.27273005 0.44273907 -0.36987212 0.10952404 0.27033514 0.0978361 -0.014366636 -0.21612732
-0.16261572 -0.059254114 0.15447456 -0.38521695 0.02898484 0.24517742 0.3199102 -0.33213782
-0.12661031 0.17901921 -0.18296906 0.14901395 0.49631402 0.021026671 0.004819661 0.47527793
-0.14558363 0.23580262 0.12079551 0.2713946 0.048845913 0.10760928 -0.289972 -0.0441653
-0.02118478 0.066499 0.32482004 -0.38564008 0.18222381 -0.025833193 -0.154556 -0.28111014
-0.0031292096 -0.021192323 0.11329873 -0.14383617 0.06199243 0.20309307 0.3326364 -0.5654834
-0.19074506 0.27325356 0.15190832 0.17884085 0.06994937 -0.2029671 0.27879223 0.23442838
0.009531789 0.15990186 -0.34214157 -0.4976256 0.27635205 0.3689411 0.08994419 0.041460313
0.2597248 0.014897179 0.21461976 0.026387338 0.1685823 0.2154799 -0.042796988 0.21923426
-0.21367277 0.19949003 0.35393697 0.26406458 0.1674751 -0.1273786 -0.42588034 -0.020276163
-0.05937593 -0.18844451 0.0064301356 0.2890404 -0.20924349 0.356282 0.054807823 0.3912923
-0.25343072 -0.062375683 -0.08367436 0.022785634 -0.07461654 0.5429887 0.36530176 0.054353975
-0.16004287 -0.30883607 -0.0684028 0.13659455 0.06267589 0.14457875 0.0788936 0.057315692
0.19513512 -0.037890762 0.06384856 -0.14720413 0.24157888 -0.11508529 0.3078665 0.014507085
0.06728341 -0.09997324 0.3572916 -0.132223 -0.13900934 0.043987706 0.30172113 0.6033662
-0.23417348 0.074756294 -0.081069805 -0.28570956 0.45607883 0.22046453 0.12507467 -0.097983874
0.40426183 0.14699087 0.078048564 -0.042114582 0.28060508 -0.057775803 -0.14746144 0.52583
0.111393645 0.27770358 0.042898018 -0.084366776 -0.13253602 0.15825258 0.2024605 -0.0868007
0.24483664 -0.38049582 0.28694478 0.15346657 0.28565705 0.32899785 -0.29171243 0.44666418
0.3354652 0.2667425 0.4079952 0.051322654 -0.21268958 -0.25926077 -0.061869357 0.057175837
-0.36011082 0.04280037 0.12123598 -0.028988479 -0.16446269 -0.116025135 0.15719451 0.21004896
0.2970203 -0.115012065 -0.17403844 0.22351506 0.038486697 0.09467977 -0.17869349 -0.34586796
0.39808372 -0.052491464 0.37956643 -0.38494667 -0.009036533 0.37130365 -0.23462808 -0.22267935
-0.18711665 -0.2418642 0.23002961 -0.19590417 -0.16732512 -0.3239774 -0.025027158 0.29091924
-0.080505595 -0.04423129 -0.06802874 -0.113981016 0.114419766 -0.22210048 -0.3007041 0.27078086
0.037771877 0.4525709 0.20065442 0.38278002 -0.33307517 -0.021698704 -0.049514174 -0.03963845
0.14795509 -0.05511055 0.06702917 -0.45007932 0.23155858 0.2121048 0.39291945 0.18777557
-0.114646666 -0.22144233 -0.11736151 0.097893275 -0.38925007 0.24315788 0.17245796 -0.019024326

fc1.bias f4 [100]
00000000: 2c49 3dbe 94a0 b7be 1622 fdbd 63c5 473e
00000010: 7cd1 ba3d c9a9 e5bc fbb8 61be 9368 db3d
00000020: 611e 88bd 9561 dabe 1e34 ad3d 9c4f 223e
00000030: 5112 27be 5cc8 ad3d 7a3c 903d 37a1 8ebe
00000040: fdf0 803e e503 a23e 783b 8fbe c8fb a33d
00000050: 7534 f83b b8d2 4ebe 1e71 f63d ca20 70be
00000060: 5c12 393d f02e d13d edc4 a7be 7fa4 55be
00000070: 5864 763e b0ea 5c3e 6b4f ccbd f540 fa3d
00000080: 683e 963e 01ed 013e ff79 d1be e436 7d3e
00000090: ef01 263e b9ac 633e 146f fabd d44b 3e3d
000000a0: d851 273d 8432 c73e b777 b7bb c417 b2be
000000b0: a21c df3d 0a2d 26bc e8fb 67be 0af0 b6be
000000c0: c084 8e3e e378 b33e d719 b53d b7b2 813e
000000d0: 8d17 41be c422 8dbe b7f8 933d d508 b33e
000000e0: fa77 fd3c 3b5d 8e3e 5688 9b3e 245d 863e
000000f0: 56a1 2dbe 4441 913e 13f9 8a3e fc83 853d
00000100: 129d 11be 8f92 cdbe ef94 56bd 55a3 43be
00000110: 6bdb 06be 2da1 213d 5516 d83e a83e 0dbe
00000120: 753d 273e 6d9c 0abe 7052 3ebe 515e 97be
00000130: 6ed3 b13e 7ba6 403e 11ff a83e 5d73 833e
00000140: 929c cdbe 0052 76be 2576 983e 214c 323e
00000150: 1086 a93e cd7b e5be 6943 55be 5f84 b83e
00000160: d58c 8a3e 9228 003d 6a42 833e a14a ee3d
00000170: cd01 84bd eb06 bb3e 4f2c 67be de1f 643e
00000180: 5cbc 823e d995 ea3d 4917 943e 0807 a03e
-0.18484944 -0.358647 -0.12360017 0.19508891 0.09121987 -0.028035061 -0.2204322 0.10713305
-0.06646419 -0.42652574 0.08457206 0.15850681 -0.16315581 0.08485481 0.07042785 -0.27857372
0.2518386 0.31643596 -0.2797506 0.08007008 0.0075746127 -0.2019757 0.12033294 -0.23450008
0.045183524 0.10214031 -0.3276743 -0.20863532 0.24061716 0.21573901 -0.09976085 0.12219421
0.29344487 0.12688066 -0.40913388 0.2472797 0.16211675 0.22233857 -0.12228218 0.046459034
0.040849537 0.38905728 -0.005598988 -0.34783757 0.10894133 -0.010142574 -0.22654688 -0.3573001
0.27835655 0.35053167 0.08842819 0.2533166 -0.1885664 -0.27565587 0.07225173 0.34967676
0.030940998 0.27805504 0.30377454 0.26242936 -0.16956076 0.28370106 0.27143154 0.06519315
-0.14220074 -0.40150878 -0.052388128 -0.19105275 -0.13169639 0.03946035 0.42204538 -0.13793433
0.16332038 -0.13536234 -0.18586135 -0.29564145 0.3473162 0.18813507 0.330071 0.25673953
-0.40158516 -0.24054718 0.29777637 0.17411853 0.33110094 -0.44821015 -0.20826496 0.3603849
0.2706057 0.03128869 0.25636607 0.11635328 -0.06445656 0.36528715 -0.22575496 0.22277781
0.25534332 0.114543624 0.28924015 0.31255364

fc2.weight f4 [100, 100]
00000000: 4b23 87bd fe51 1fbc 9fa1 933d 5959 0d3d
00000010: 1bff 6b3c ce49 99bd d185 bbbc 3e57 d13d
00000020: 1ed3 0b3d 185a a7bd e1ea 3c3c b050 f4bc
00000030: 6d8c bd3c 7c6d 563e c88f af3d c922 dc3c
00000040: dc5a 18bd 1e40 953d f394 bcbd 667c 083e
00000050: f2fd d1bc 9c86 aa3d d7b3 31bd ef46 123d
00000060: 7d46 17be a15c a3bc 048d 0dbe ee4c d8bd
00000070: faf8 b2bd f39d ef3d cebb f4bd 5ae9 3f3b
00000080: d114 1d3e 1d7b a6bd baf5 693d db44 cf3d
00000090: af20 fdbd 2021 633e d723 acbd e2b1 01be
000000a0: 8493 903d 1209 3bbd 14bf 4b3d d906 4c3c
000000b0: d20e bc3d ed80 013e f6c4 acbd 17a9 d73c
000000c0: f988 0abd 8db8 b5bd a1f5 82bd d3b9 d9bd
000000d0: 9bef ea3d a29a a03c 4122 a8bd 91d9 8abb
000000e0: 0353 da3d 9205 3e3e 6dda 5f3d 3230 9d3d
000000f0: c2c8 bb3d dfe9 d339 1b6b 7d3d 57d1 a23d
00000100: 27f1 47bc d147 03be cf26 1d3e 77b1 063d
00000110: 0478 bdbc a7f2 c63c 8b63 6a3d 23c1 08be
00000120: 2652 a43d 94ce d8ba 35b4 52bd 5ea2 75be
00000130: c583 15be 11d9 523e c189 8dbc d1f1 b53d
00000140: a51f 9dbd b5c4 ccbd a3de abba 6377 4b3d
00000150: cc6d 543c 8fa2 00be cdd7 0f3e 842d 0c3d
00000160: 5095 f0bd 965b 0dbb 1922 7e3d 1b30 293c
00000170: 8b9e b8bc 440c 5bbc fe17 e23b d54b ce3c
00000180: cada 463e 2b09 b1bd 4cb3 e73d 88a6 983d
00000190: 866a 1fbe d8b0 e7bd aab9 c93d 23e3 ab3d
000001a0: 8883 0cbe 4025 8bbd 4be1 123e 8098 013e
000001b0: 9313 f33b 0b38 9aba a981 1d3e 7bcc bbbd
000001c0: beeb 48be aa45 643c 252d 84bc e3ca ac3c
000001d0: 96a7 f8bd f634 5d3e 438a 3ebe a53d 65bd
000001e0: dd95 413d 4ad5 2abd 7bad d53d a2d3 bbbd
000001f0: 49ca 82be ccf7 143e f6d6 39be 8adc d0bd
00000200: 7995 b9bd d50e 873e f1bc 48be 3066 5dba
00000210: beaa edbc 77e1 0a3d 1c39 e1ba d288 31be
00000220: a1be 96bd faf5 7f3e b407 2f3c aeb2 52bc
00000230: f55c 99bc f5f7 57be 0fa4 dcbd af68 143e
00000240: fa22 08be d27c 34be 3080 29bc 3dac 39bd
00000250: 9b0c 933d bcb8 78bd c881 83bd dcbc ebbd
00000260: d14f f93d b392 05bd ed85 43bc 7404 3c3d
00000270: c709 403e 91fc cf3c de94 0dbd 603a 993d
00000280: 4fe5 073e bd40 c63b 4b91 e3bd 74b5 373e
00000290: 7761 48bd 584c 24be 73c5 893d ed73 733e
000002a0: 94e5 1c3e 4e8c 1c3e e5d2 f03d f7bf 06be
000002b0: 1ffc 4b3d 609a a63d 8fca e8bd ff9c 93be
000002c0: 2bf8 13be 6a90 833d 34f8 993d 5a49 663e
000002d0: f704 213d f882 81bb 803f 4cbe ceb8 54be
000002e0: 09ae 20bc f722 78bc 1570 b13d 27a8 d13c
000002f0: 7031 09be 2873 253e 1923 4d3e 300e 1abd
00000300: 0871 f0bd c6ad 7e3d 45de 673d 4942 82bd
00000310: 849a 053e 2478 d2bc 7ded 663e 7b37 d3bd
00000320: a03e f83d 4872 e83d 0dbc db3e 70e8 ee3d
00000330: e5b0 0e3c e0bb 5b3d d82f 1a3e 7bdd 683c
00000340: 1fe6 ca3d a6e5 bc3d 2885 25be 2007 a93d
00000350: 058d 313e 5507 4a3e e0b8 493e 9273 2abe
00000360: 7471 403e 0beb 183e 7cee 843d 6349 ad3c
00000370: f947 20bd 3592 70bc fa42 8e3a 9cf6 e23d
00000380: 132e ad3d 876c 25bd 3b30 42be 9ef0 05be
00000390: 64d4 23bd 2d9e 343e ad49 38be 5cc7 3f3e
000003a0: 3216 273e c17c 8fbe bc42 b63d 6952 883e
000003b0: b06d 9cbe ef06 dfbb a085 4dbe 9437 15be
000003c0: 147e 6cbe 1b34 e0bc 7d39 5dbe 7e85 05bd
000003d0: 8f2e ba3c edb7 8f3e b4a5 2bbe b4c1 a7bd
000003e0: 97a5 243d 4899 a8bd 20c7 1fbe a30c 65bd
000003f0: 8586 5d3e d413 6cbd 1420 fbbc e4f8 c23d
-0.065985285 -0.009724138 0.07208561 0.034509037 0.014404084 -0.0748478 -0.022890957 0.10221718
0.034136884 -0.08171481 0.011530609 -0.029823631 0.02313825 0.20940202 0.08572346 0.026872056
-0.037196025 0.0728762 -0.09208097 0.13328704 -0.025633786 0.08326456 -0.0433844 0.03571218
-0.14772983 -0.01994163 -0.13823324 -0.10561548 -0.08738895 0.11700048 -0.119498834 0.0029283375
0.15339972 -0.08128951 0.05711911 0.10120555 -0.123597495 0.22180605 -0.084052734 -0.12665513
0.070593864 -0.045662947 0.049742773 0.0124528045 0.09182514 0.12646838 -0.08436005 0.026325746
-0.033822034 -0.08873091 -0.06394506 -0.10631146 0.11471482 0.019604985 -0.082096584 -0.0042373617
0.106603645 0.18556812 0.054651666 0.07675208 0.09169151 0.00040419304 0.06186972 0.07950085
-0.012203491 -0.12820365 0.15346836 0.032884087 -0.023128517 0.024285628 0.057223838 -0.13354926
0.08023481 -0.0016541057 -0.05144139 -0.2398772 -0.14601047 0.20590617 -0.0172776 0.088840134
-0.07672051 -0.099984564 -0.0013112616 0.049674403 0.012965631 -0.12562011 0.14047165 0.034223095
-0.11747229 -0.0021569482 0.062044237 0.010326411 -0.022536537 -0.013369624 0.0068998327 0.025182644
0.19419399 -0.08644327 0.11313495 0.07453638 -0.15567979 -0.11313027 0.09849866 0.08392932
-0.1372205 -0.06794214 0.14343755 0.1265583 0.007418105 -0.001176597 0.15381493 -0.09169861
-0.19621179 0.013932625 -0.016134808 0.021092838 -0.121413395 0.21602234 -0.1860743 -0.055966992
0.04726206 -0.041707315 0.104334794 -0.09171225 -0.25544956 0.14547652 -0.18148407 -0.101983145
-0.09061713 0.26378503 -0.19603325 -0.0008445708 -0.02901208 0.033906426 -0.0017183158 -0.17337349
-0.07360578 0.24996176 0.010682989 -0.012859983 -0.018721083 -0.21090682 -0.10773479 0.14493059
-0.13294592 -0.1762574 -0.010345504 -0.045330275 0.07180139 -0.06072305 -0.06421238 -0.115106314
0.12173427 -0.032610606 -0.011933786 0.045902684 0.1875373 0.025388988 -0.0345658 0.07481837
0.13271068 0.006050198 -0.11111697 0.17940313 -0.048921075 -0.16044748 0.067271136 0.23774691
0.15321952 0.15287897 0.11758975 -0.13159166 0.04980099 0.081349134 -0.1136676 -0.28830716
-0.14450137 0.06424029 0.07518044 0.22488919 0.039311375 -0.0039523803 -0.19946098 -0.20773622
-0.009807118 -0.015145055 0.08663956 0.025592877 -0.13397765 0.1615721 0.2003292 -0.037611187
-0.11740309 0.062177442 0.056608457 -0.06360299 0.13047224 -0.025692053 0.22551532 -0.103133164
0.1212132 0.113499224 0.4291691 0.11665428 0.008709167 0.05364597 0.15057313 0.014212961
0.09907173 0.092234895 -0.16164076 0.08253312 0.17338951 0.1972936 0.1969943 -0.16645649
0.18793279 0.14933412 0.064908 0.021153158 -0.03913114 -0.014683296 0.0010853701 0.11082193
0.084560536 -0.040386703 -0.18963711 -0.1308007 -0.039997473 0.17638464 -0.17996855 0.18728393
0.1631706 -0.28024867 0.08899447 0.26625374 -0.30552435 -0.0068062465 -0.20070505 -0.14571983
-0.2309497 -0.027368596 -0.21603961 -0.03259801 0.022727279 0.28070012 -0.1676243 -0.08191243
0.04019698 -0.08232361 -0.15603304 -0.055920254 0.21633346 -0.057636097 -0.030654944 0.09520128

fc2.bias f4 [100]
00000000: a572 8b3c 5707 ba3c f8be b83c b39a 02be
00000010: 1893 9b3d f2be 9cbd 991c aa3e 18c9 ff3c
00000020: c1da 13bd 2045 7cbe 94d9 793d 17fa 5c3e
00000030: 02e7 33be 51b0 45be 6143 acbd 9757 b1bc
00000040: 882c ccbd 58fa a23d 92ef f7bc ce3b f73d
00000050: c470 a5bc 8fd0 a83c 0bdb 45be 8141 a83c
00000060: 9d35 d3bc fc74 003d 9227 0cbe b1bb 4e3c
00000070: 78c7 65be 4b04 9f3d 5e80 91bd 3c1c 96b9
00000080: 2317 9b3b 84db 6c3e cef9 a13a 3cb0 563d
00000090: a808 4abd b254 16be 080c 84be 4017 63bd
000000a0: 36e4 8b3d d3bb 133d 918c 87bd a4c3 53bd
000000b0: 0381 323e b42b b7bd 761a e13c 90ff 82be
000000c0: 36eb a43d 9b7a f93c d442 45be e87d 35be
000000d0: d711 7b3e 7bb3 1dbe 7e3c 9b3c 540c 4f3e
000000e0: 8ae5 09bd e778 0ebe fa13 b8bc eb5d 8abd
000000f0: 6d6d adbd 696f e93d 926a aabe bd6a 18bd
00000100: 1045 9dbd e4fe 2f3e 2987 3ebd 3ef6 e7bd
00000110: fa26 5f3d 6f87 d2bc 0311 f83d c6b5 753d
00000120: 2a70 583d e8dd 053e b53f 6dbc 6b5c 613e
00000130: 0fc8 15be e4f0 15be ccf3 f3bd 5f0a 7e3c
00000140: 3bc9 933d 5e0c beba 267e 0fbd f178 263d
00000150: aa7e 903d 2e72 723c a4ba f13d f40d 37bb
00000160: 3d28 363e 838e 8abb 7d99 c63c 2e35 d7bc
00000170: bc20 4a3d 6f34 94bd ba8b 0bbe 9356 923e
00000180: 3311 b4bc 5b4d bcbb a996 6ebd 134b 63bd
0.01702244 0.022708578 0.022551998 -0.12754326 0.07596415 -0.076536074 0.33224943 0.031223819
-0.03609729 -0.24635744 0.060998514 0.21579777 -0.17568591 -0.1930554 -0.08411289 -0.021648211
-0.09969431 0.079579055 -0.030265603 0.12071954 -0.020195372 0.020607261 -0.1932184 0.020539047
-0.0257824 0.031361565 -0.1368697 0.012617991 -0.22439373 0.07764491 -0.07104562 -0.00028631266
0.0047329827 0.23130614 0.0012357773 0.052414164 -0.04932466 -0.14680746 -0.2579043 -0.055442095
0.06830637 0.036067795 -0.06618608 -0.05170025 0.17432027 -0.089438826 0.027478438 -0.25585604
0.080526754 0.03045397 -0.19263774 -0.1772381 0.24518524 -0.15400498 0.018949743 0.20219547
-0.03366617 -0.13913308 -0.022470463 -0.06756195 -0.08468137 0.11398203 -0.33284432 -0.03721117
-0.07679188 0.17187077 -0.046515618 -0.11326264 0.05448053 -0.025699345 0.1211262 0.059987806
0.052841343 0.13072932 -0.014480521 0.22007911 -0.14627098 -0.14642674 -0.11911735 0.015505402
0.07216116 -0.0014499535 -0.035032414 0.040642682 0.07055409 0.01479773 0.11803177 -0.00279319
0.17788787 -0.0042284145 0.02424311 -0.026270475 0.049347624 -0.072365634 -0.1362752 0.28581676
-0.021980857 -0.005746526 -0.05824915 -0.05549152

fc3.weight f4 [3, 100]
00000000: 5235 2d3d 97ba c33d f323 573d 4f11 b1bd
00000010: 9a42 c53c f99f 513d 416f 413e 3f3f 35be
00000020: 1312 ecbc 0e81 bdbd f5b3 28bd c8f2 e63d
00000030: 9de0 edbd aaa3 b9bd 2c06 013d 6b5c 1bbe
00000040: fa77 4bbe 0a20 b73d b85e 1c3d a33f b53d
00000050: 114c d23d 3188 913c 884f f2bd 1235 bebc
00000060: de56 1ebd 264f aebd bc88 2bbd c629 4fbc
00000070: d33b 6cbd b57a ad3d d0ba 13be 1d12 303d
00000080: 8fc6 c43d 56e9 533d 1b43 22bc 1682 2939
00000090: e69b a43d 7143 e2bd 79a4 9abd 2f1e ad3d
000000a0: a7e2 0ebe 9d01 0dbd dcab 3cbd 9420 59be
000000b0: 7adc 7fbd dfdf 79bc 79fd 93bd e786 87bd
000000c0: e8ff db3b 482c 163e 2704 dcbd 27e4 6c3d
000000d0: a1f3 a83c fe41 d5bc c595 98bd a4db 913d
000000e0: 90a5 003e badf bfbd 614f e63d eb92 4abc
000000f0: 4751 c73a 6b64 4c3d 36c3 60be 40b1 f3bc
00000100: 96dc 1cbc 8683 533d 99f7 8c3d df19 dcbc
00000110: 0597 0c3d 006c 6ebc f23d e9bb 159d b03b
00000120: bc66 09bd 3b86 d33d 382a 183d 92e8 a43d
00000130: 1cfc a73d a7e4 73bd 4f03 a3bd f508 1cbe
00000140: 5f73 443c b6ea eb3c a5b1 cabc 8de1 babd
00000150: 1d1b bb3c 6bef 64be dd64 91bc eb44 273c
00000160: 6e7c 5dbd 739a 9ebd 60ef 783c 851a 44bc
00000170: dbb2 77bc 0265 5c3d d1fe 72bd 3d99 333e
00000180: ebf6 0f3e 3382 3b3d 5a5b b63d d37c aa3d
00000190: 5661 52bd 6cd0 cf3c b59f 22be a5cf 093d
000001a0: d496 233c af0b 18bd 65e4 6f3d 89f7 6fbd
000001b0: 1c6e 203d 0bd4 873d d2cd 153d 5437 ff3d
000001c0: ba0b 343e 9481 f4bd 96ca 1fbd aa8b 23be
000001d0: 7361 8d3d 3864 473e 0809 35bd 4ebf 303e
000001e0: e82a 9fbd cb2d 0c3e e882 fcbd 83db d0bb
000001f0: 7a81 4ebd b4e1 20be 728e 863d 53a2 9d3c
00000200: eb53 15be ad09 163c 9813 763e 5fee 243e
00000210: d24d 07be 9f52 c0bc 5be3 2c3d 2132 c13b
00000220: 0003 a4bd e2c7 16be 8bf4 d9bd c852 c1bd
00000230: b9a9 50bc f515 c43d ee7c 523c ffbb 8bbd
00000240: 4346 c1bd c5ae 0bbc 755d 0cbe 6ecd 05be
00000250: 6281 7b3d e493 57bd 11cd 1bbe de67 093e
00000260: 9e9b 853d 5853 67be f3d6 803d 1e50 63bd
00000270: a6b9 ad3a 0204 833d e06b 0bbd acc8 1dba
00000280: 830f ca3b dd13 1fbc b2e4 88bd b196 49bc
00000290: 2360 8c3c b737 ea3d a640 d4bd 1eb1 313d
000002a0: a501 38bd cb8f 893c 69cc f93d 4ce3 4fbe
000002b0: 8e65 eb3d 4771 7abd 2606 52bd 4ca8 173e
000002c0: cd01 1d3e 0fe3 debc 2a5c 593d f1e9 9a3e
000002d0: 8b06 f7bc e747 87bd b85b c6bd 7ad4 0dbe
000002e0: f311 5f3d b950 253b 07dd 53bd 6bf5 763c
000002f0: f7db 4d3e 2197 8dbd 6c86 eebd 8412 303c
00000300: 0b6d 96bc 1a1c 0d3b 54c5 1e3e c7f5 97bd
00000310: 818c 513e f116 8dbd 9453 a5bd b191 483e
00000320: d1e0 fcbc 5e4f 0dbe dff7 5d3d 934f 08bd
00000330: 9e9c 5b3d 13fb 8d3c 97ff 21be a545 ddbd
00000340: a913 923c 9f74 89bc 2fa4 9f3d aabb a53d
00000350: 5f98 18bc 32dd a73d e987 f7bd b59b ad3d
00000360: f29b 963d 9aea ea3c 1a2c 26bd 4574 1bbe
00000370: e58e febd 4289 633e 46dc f7bd d6ff 7c3a
00000380: 2308 42be bd2b 393d c1e3 d0bd e52e 803c
00000390: faf0 293d 13ab 8c3d e551 3fbe cdaa 81bd
000003a0: 165a 5d3d b9d0 6f3d 78e1 da3c 888c e13c
000003b0: c093 c1bd e9fe 08be 0cae 633d 8501 053d
000003c0: 47b8 ec3d b6d6 20bd 476e 28bd 45d3 363d
000003d0: 945f 623d e7f5 993d 668c 9ebc 0004 1a3e
000003e0: 1094 ec3d 331b 613d 5082 0dbd d945 d83d
000003f0: fb74 3d3e 215c 3dbc f2a8 d1bb b62a 8b3d
0.04228718 0.095570736 0.05252452 -0.086458795 0.02407961 0.051177952 0.18890096 -0.17699908
-0.028817212 -0.09253131 -0.041187245 0.112767756 -0.11615107 -0.090644196 0.031500027 -0.15171973
-0.19869986 0.08941658 0.03817627 0.08850028 0.10268415 0.017765136 -0.11831576 -0.023218665
-0.03865706 -0.0851119 -0.041878447 -0.012644237 -0.05767424 0.0847067 -0.14426732 0.042986024
0.096081845 0.0517362 -0.0099036945 0.00016165557 0.08037548 -0.1104802 -0.07550902 0.08453023
-0.13953649 -0.034425367 -0.046062335 -0.21203834 -0.062466122 -0.015251129 -0.072260804 -0.066175275
0.006713856 0.1466533 -0.107429795 0.05783477 0.020623984 -0.026032444 -0.07450441 0.07121971
0.12563157 -0.09368844 0.11245609 -0.01236413 0.0015206718 0.049900454 -0.21949467 -0.029747605
-0.009574076 0.051639102 0.06883163 -0.026867805 0.03432371 -0.014552116 -0.00711798 0.0053898194
-0.03354524 0.10328337 0.037149638 0.08052172 0.08202383 -0.05954423 -0.079596154 -0.15237792
0.011990397 0.028798442 -0.02474291 -0.09125052 0.022840077 -0.22356956 -0.01774829 0.010209302
-0.054073744 -0.077443026 0.01519379 -0.011969213 -0.015118326 0.053807266 -0.059325043 0.17538925
0.14059035 0.045778465 0.08904143 0.083245896 -0.051362358 0.025367938 -0.15881236 0.03364529
0.009984691 -0.037120517 0.058567423 -0.058585677 0.03916751 0.06632241 0.03657324 0.12461725
0.17582598 -0.119387776 -0.03901156 -0.15971246 0.069033526 0.19471824 -0.044198066 0.17260477
-0.077718556 0.13689344 -0.12329656 -0.006373824 -0.050416447 -0.15711099 0.06570138 0.019242441
-0.14582793 0.00915758 0.24030912 0.16106556 -0.1321328 -0.023476897 0.04220901 0.0058958684
-0.08008385 -0.14724687 -0.10642346 -0.094396174 -0.012735778 0.095745005 0.012847168 -0.06822967
-0.094372295 -0.008525555 -0.13707526 -0.13066646 0.061402686 -0.052631274 -0.15214945 0.13418528
0.06523822 -0.22590387 0.06290998 -0.055496328 0.001325418 0.06397249 -0.034038424 -0.0006018977
0.0061664 -0.009709326 -0.06684245 -0.012303994 0.017135685 0.11436408 -0.10363893 0.043381803
-0.044923443 0.016792199 0.12197191 -0.2030155 0.114939794 -0.061143186 -0.051275395 0.14810294
0.15332718 -0.02720788 0.05306641 0.30256608 -0.030154487 -0.06605511 -0.09685463 -0.13850585
0.054460477 0.0025225116 -0.05172446 0.015073161 0.20103441 -0.06913591 -0.11646733 0.010746602
-0.018362543 0.0021531642 0.15504962 -0.07419925 0.20463754 -0.06889141 -0.08072582 0.19586827
-0.03086892 -0.13799807 0.054191466 -0.033279013 0.05361616 0.017331636 -0.15820156 -0.10804299
0.01783164 -0.016779242 0.077949874 0.08092435 -0.009313672 0.081964865 -0.1208647 0.084769644
0.07353963 0.02867632 -0.040569402 -0.15181072 -0.12429599 0.22220328 -0.12102561 0.00096511596
-0.18948416 0.045207728 -0.101996906 0.015647361 0.04148958 0.06868567 -0.18683584 -0.06331406
0.05404099 0.058548663 0.02671884 0.02753283 -0.09452009 -0.1337849 0.055585906 0.032472152
0.115585856 -0.039267264 -0.041120794 0.044635076 0.05526693 0.07517605 -0.019354057 0.15040588
0.11551678 0.05495758 -0.034548104 0.105601974 0.18501656 -0.01155761 -0.0063983137 0.06795256

fc3.bias f4 [3]
00000000: 9d0e d73d 772d d23c a5e8 733d
0.10500834 0.025656445 0.05954804

fc1.weight f4 [100, 11]
00000000: 905f 53be de53 4f3e f7a4 da3d 5a90 9ebe
00000010: d451 433d d9ed 843d 167d 63bd 810a 4c3e
00000020: e819 73bd bc6b 3abd 808f 993c 2e37 aabc
00000030: 6a3c 81be 3033 8e3e 0ce9 1d3e 0a79 b9bb
00000040: 632d c3bd 4750 94bd aa31 b4bd d0d1 993d
00000050: 0faa 663e 9a20 c83d d5a0 00be 9c83 883d
00000060: 60b2 58be 982d 90be 410c b83d 7e56 ca3d
00000070: b07d d8bd 5113 963e ce22 48be 7a4f 2bbe
00000080: 48c0 db3c ab56 fa3b 315c b4be 99e2 423e
00000090: e0dd 043e 3074 3c3d 722e 80bd 230d 333e
000000a0: c8fe 893d 6f62 d4bd f3f7 ca3d cc6b cdbd
000000b0: c4af a8be 7928 f63d 2727 4c3d 5dd0 b7be
000000c0: 427d 60be bfd1 2c3e 2f68 edbc 3ebb 2f3b
000000d0: 2349 07bc 402e 7ebd 46d6 423d b0f5 59be
000000e0: 5076 4d3e d206 063d c2b0 6bbe 22fd d0bd
000000f0: dda6 1a3e 044e 31be fc80 503e 47b2 71bd
00000100: 8f93 5dbe 0b8d 2bbc d924 21be 4f82 fabc
00000110: 0574 b33d bba2 513e 5393 3fbe 6892 d3bd
00000120: c9aa 1f3e 4b16 f6bd 3fad 1a3e fc62 703e
00000130: 36d3 563d 9a67 e83d f0c2 3e3e 95ae 8cbc
00000140: f3bb 78bd 0f44 aabd 0d5a 703e fcdd b1bd
00000150: 8fff 5dbe de6a 8f3e 8319 9cbd 36b6 943e
00000160: 98d2 ffbd 0182 67bd 83e1 c4bd 6d21 5c3e
00000170: e0d4 a23d 2408 8abe f48c 233e 81dc 9e3e
00000180: bdf1 7fbe 686d ecbd 355c 223e 76bd 6bbe
00000190: fe0a 863e 80bc 45be 4998 62be 052e d1bd
000001a0: 2e1b 1c3e d1a6 af3e c8ff 873d 6ba5 2dbe
000001b0: c181 73bd 89c2 2f3d 92e7 503d 8c4b 68be
000001c0: f92d 963d 949d 023e 2968 423e c425 8bbd
000001d0: aa5a fbbd 6d9b 07bd 979e 25be df61 d53d
000001e0: d8db 52bc ad38 063d d6c4 5abd 88ea 293e
000001f0: 5c60 20be 14a9 5a3e ab80 273e 6200 bb3d
00000200: 3d38 99be 5f31 853e 999e 723e 1a69 35be
00000210: b9e1 6a3d 478d 3f3e 0143 713e c367 933c
00000220: e0e5 cb3a 1cda f7bc b5d8 d53d 3d6e 14be
00000230: 963f 5a3e b9b7 043e c385 013d 4544 0c3e
00000240: 4291 a9bd 0954 bd3d f5f2 793e 2be4 ad3d
00000250: e4f9 2a3e 942e 013e d3c0 05be 14bf 683e
00000260: e807 e23d bc69 e73d 6934 413e 9674 58be
00000270: e110 4d3e 1483 5a3e 3a63 0a3e c2d6 e6bd
00000280: f7b5 4bbe a7f9 03be d912 a6bd fac4 1fbe
00000290: 77e6 6dbd 2db2 793e eaeb d1be e1ed 9e3e
000002a0: 5d3f 0dbe 1011 8fbe b8e4 833d f411 723e
000002b0: cf41 9d3d 424c 18be 7b0f f7bd 9e46 64bb
000002c0: 4299 41be dbc3 fbbd 6126 123e ad98 25be
000002d0: c3b5 2bbe 150d 30bd ff23 f8bd 76fc 10be
000002e0: b49d adbd 3bd4 433d d333 163d 3d9f 123e
000002f0: 86fd 3a3d 69e3 05be b75c 083d de56 a8bd
00000300: c07e 333e ce4e 423e 7862 93be 5b1d 933d
00000310: 7b83 623e cc2f 3bbd 48f4 1bbd 5a0f afbe
00000320: 58ce d83d ede7 593e 5086 6d3d eee7 8ebd
00000330: 6f16 dbbd f6d3 723c 474a 6d3e 9a6d 5c3e
00000340: f9d9 cc3d 69cd c03d 1b4b 96be 2fb7 253d
00000350: fca5 803e e081 553e 2c57 07be d4e8 b53e
00000360: af18 afbe 42ac 963e acbc 8a3e 5d25 ab3d
00000370: 9f34 25be cfc4 d5bc 0f9c 93be 2e76 363d
00000380: 2376 d4bd bab2 633e aa44 543d 8717 213e
00000390: 3bd0 f4bd ed8a 46be 7730 20be d601 ca3d
000003a0: 2b17 9bbd 71c1 a4bd 1cf5 b73e f3d8 703e
000003b0: 33a6 7ebe 3edf f63d 25db 84bd 7c0d 75bd
000003c0: 2a8e bdbd e776 6cbd 8d2e aebd e47d 0f3e
000003d0: f1bc 3fbe aa50 4abe 4953 6cbc 9578 dd3b
000003e0: 21f6 e4bd 79cd 343e 3df9 ccbd b884 bcbd
000003f0: 164e 5ebd 0976 b33e 03b0 a3be 519e cd3d
-0.20641923 0.20246837 0.10675996 -0.30969507 0.04768546 0.06490678 -0.055539213 0.19925882
-0.059350878 -0.0455129 0.018745184 -0.020778265 -0.25241405 0.27773428 0.15420932 -0.005660181
-0.09530141 -0.07241874 -0.08798535 0.07510722 0.2252581 0.09771843 -0.12561353 0.066657275
-0.21161795 -0.28159785 0.08986712 0.09879778 -0.10570848 0.29311612 -0.19544527 -0.16729537
0.026825085 0.007639726 -0.35226586 0.19031753 0.12975264 0.046009243 -0.06258859 0.1748548
0.06738049 -0.10370337 0.09910574 -0.10030326 -0.329466 0.12019438 0.049842026 -0.35901156
-0.21922782 0.16876887 -0.028980343 0.0026814486 -0.008257183 -0.062055826 0.04756763 -0.21285129
0.20064664 0.032721348 -0.23016647 -0.10204531 0.15102716 -0.17314917 0.20361704 -0.05900791
-0.2163832 -0.010470639 -0.15736713 -0.030579714 0.08762363 0.20472233 -0.18708543 -0.10330659
0.15592493 -0.12015971 0.1510515 0.2347526 0.05244752 0.113478854 0.1862905 -0.017173091
-0.060726117 -0.083137624 0.23471852 -0.08684918 -0.21679519 0.2801122 -0.076220535 0.29045266
-0.124913394 -0.056520466 -0.096133254 0.21497126 0.07950759 -0.26959336 0.15971738 0.31027606
-0.2499456 -0.11544305 0.15855487 -0.23021492 0.2618026 -0.19310188 -0.22128405 -0.10213856
0.15244743 0.34306958 0.06640583 -0.16957633 -0.059449915 0.042910133 0.051002093 -0.22685069
0.07332987 0.12755424 0.18985046 -0.067943126 -0.12273152 -0.03310721 -0.16173778 0.10419058
-0.012869798 0.032768894 -0.053410374 0.16593373 -0.15661758 0.2135356 0.16357677 0.091309324
-0.2992572 0.2601423 0.23693313 -0.17715874 0.057344172 0.18706237 0.23560716 0.017993813
0.0015556179 -0.03025537 0.10441724 -0.14495178 0.21313319 0.1296071 0.031621706 0.13697918
-0.08279659 0.09244544 0.24409087 0.08490785 0.16696888 0.12615424 -0.13061838 0.2272914
0.11036664 0.11299464 0.18867649 -0.21138224 0.2002597 0.21339065 0.13514414 -0.112714306
-0.19893633 -0.12888204 -0.08109064 -0.15602484 -0.058081117 0.24384375 -0.410003 0.31040862
-0.13793702 -0.27942705 0.06440109 0.23639661 0.076785676 -0.1487284 -0.120634995 -0.003483213
-0.1890612 -0.12293216 0.14272453 -0.16171522 -0.16768555 -0.042981226 -0.12116241 -0.14158806
-0.08477345 0.04780982 0.036670517 0.14318557 0.045651935 -0.13075031 0.033291545 -0.082196936
0.1752882 0.18975374 -0.28786063 0.071833335 0.22120468 -0.04569988 -0.03807476 -0.341914
0.10586232 0.21279879 0.05798942 -0.06977831 -0.10697638 0.014821043 0.23172866 0.21526185
0.100025125 0.09414179 -0.29354176 0.0404579 0.25126636 0.20850325 -0.13216847 0.35529196
-0.3419852 0.29428297 0.2709707 0.08356736 -0.16133355 -0.026094822 -0.2883 0.0445463
-0.10374095 0.22236148 0.051823296 0.15731631 -0.11953779 -0.19388933 -0.15643488 0.098636314
-0.07572778 -0.080447085 0.3592919 0.2352026 -0.24868087 0.12054299 -0.06487111 -0.059827313
-0.09255631 -0.05773058 -0.085049726 0.14012867 -0.18724419 -0.19757333 -0.014424154 0.0067587593
-0.11179758 0.17656507 -0.10008476 -0.092050016 -0.054273687 0.3505099 -0.31970224 0.10039962

fc1.bias f4 [100]
00000000: afd6 2c3f 1f45 19bf 251c 083f 8bd9 c1be
00000010: 3553 c7be 071e 2e3f aafc f9be cf91 04bf
00000020: 67f0 04bf c0ce 31bf c66f 0e3f 39e4 263e
00000030: b053 883e 6617 18bf 3207 ff3e 6ee4 25be
00000040: 3188 18bf 885c 1bbf 7725 2bbf 01f3 26bf
00000050: 6deb 083f 2191 d73d 8760 0d3f 6805 91be
00000060: c659 0c3f a0b6 cc3e 9158 95be 196d 403e
00000070: 0ecf d13e 2468 1b3f 409f c3be dfe7 1fbf
00000080: b8f1 b33e 0496 d3be 0a06 3fbf a0e2 113f
00000090: d895 15bf a27d 123f 9a60 073f 10bd 003f
000000a0: b19e d73e 5000 00bf a972 2e3f afd9 5abe
000000b0: 8d97 69be 6a58 34bf 769e 1abf 6c1a 04bf
000000c0: 978b 07bf a052 0d3f 631c 0a3f e2fe 14bf
000000d0: 294f d93b 6e81 c13d f7c7 fcbe 5966 0dbf
000000e0: 5464 013e 6141 cabe 8ec0 34bf d7e1 cbbe
000000f0: 7b27 c03e 7f62 8d3e 094a 97be dd45 9cbe
00000100: 0af9 6b3e a2bc 15bf bccf bd3e 268c 28bf
00000110: 7aa4 a3bc 3dee 1c3f c31e 953e 33da 1d3f
00000120: 5b05 8abe 91e8 12bf 1a6c 98be 2f32 0ebf
00000130: fcb3 1ebf 73e0 61be 87be d83e d263 eabe
00000140: fe48 0cbf 5236 cebe ecce fbbe 7b9e cc3e
00000150: 249b 11bf 131e 1dbe 55f4 23bf eb3d 19bf
00000160: c9c7 30bf df7c 933c d901 a23e fd3d ee3e
00000170: 2abb 0e3f 9540 f7be 91d3 14bf a74c 9e3e
00000180: ab76 103f 43bb 0fbf bf42 0dbf 6e1e eabe
0.6751508 -0.59871095 0.53167945 -0.37861285 -0.3893067 0.6801457 -0.4882558 -0.51784986
-0.51929325 -0.694561 0.556393 0.16297998 0.26626348 -0.59410703 0.49810177 -0.1620042
-0.5958281 -0.60688066 -0.6685404 -0.65214545 0.5348423 0.10525728 0.55225414 -0.28324437
0.54824483 0.39983082 -0.29169133 0.18791617 0.40978283 0.6070578 -0.38207436 -0.6246318
0.35145354 -0.4132539 -0.7461859 0.5698643 -0.5843177 0.5722295 0.5288178 0.50288486
0.4211326 -0.50000477 0.6814371 -0.21372102 -0.22811718 -0.7044741 -0.6039804 -0.51602817
-0.5294737 0.552042 0.53949565 -0.5820142 0.006631751 0.09448515 -0.4937131 -0.55234295
0.12635928 -0.39503005 -0.70606315 -0.3982074 0.3753012 0.2761421 -0.29548672 -0.3052205
0.2304422 -0.58490956 0.3707255 -0.6583885 -0.01997589 0.6130102 0.29125032 0.6166107
-0.2695721 -0.5738612 -0.29769975 -0.55545324 -0.61993384 -0.22058277 0.4233286 -0.45779282
-0.5479888 -0.40275818 -0.49181306 0.3996466 -0.5687735 -0.15343504 -0.64044696 -0.59860104
-0.6905485 0.01800388 0.31642035 0.46531668 0.5575434 -0.4829146 -0.58135325 0.30917856
0.5643107 -0.56145114 -0.5517997 -0.4572634

fc2.weight f4 [100, 100]
00000000: 88b1 8e3e e745 70be 0c03 873e 25df e4bd
00000010: 5e9f 93bb 12dd 853e 51a8 00be 57ae 5dbd
00000020: d111 f1bd 336c e0bd 4f32 233d 455e 11bd
00000030: ae2f 153c 4b0a 73be 1417 0b3e e23f 13bd
00000040: 3538 68bd 55de bfbd f89c 67be 0d1f aabe
00000050: 07c3 013e fcb6 83bc 6c35 843e f140 42be
00000060: 8e19 743e 5ea7 f73d 2ceb 96be b6c8 1bbd
00000070: fc37 863d fe73 d7bc 27aa 64be bc85 dcbc
00000080: ca2e ac3d 35f9 9ebe a685 93bd 5c55 933e
00000090: 4453 ebbd b33d d93d eb27 c43d d251 0d3d
000000a0: 85d2 d83d fc11 8dbd 2b2b b83d 1429 4abe
000000b0: 8ed8 92bd 9bf4 32bd 64b0 15be 936c 63be
000000c0: 64be d6bd befd 2c3e cdea 353e dc2d 70be
000000d0: 4f9a 9e3c 8069 a4ba 613a 4dbd db07 a3be
000000e0: 07bc 8bbc a1c5 e5bd aa57 bebd 9009 26be
000000f0: 9bbe e23d 58c7 f83d 6b92 78bd db00 29be
00000100: 0656 ccbc 8710 95bd 75bf 253c ce28 88be
00000110: e84e 0fbd 6047 ad3d 6b05 ca3c b7bd 8f3e
00000120: bfbc a3bb b726 78bd 81c2 07be 3768 34be
00000130: cac3 4cbe e3dc 36bc 716e cf3c c410 1d3c
00000140: 86c0 febd d634 8f3a 757f 53be 3e2f 2f3d
00000150: c0d9 15bd 2603 68bd d766 1dbe 7b46 f2bd
00000160: ee64 81bd 5981 92bd e10c c7bc 0035 9c3d
00000170: ad7a 053e 9d80 debd b152 a8bd 05ff 323c
00000180: 43df 5f3e f5ed 0ebe 8860 33be b504 5dbe
00000190: dcec 3bbe aa72 1f3e cb17 8fbe e0f4 c63e
000001a0: 79cc 45be 8865 b5be 7f75 2c3e e66e 81be
000001b0: 7f38 1c3d cf8d 0a3c fbb6 763d 42d2 0d3e
000001c0: 3847 d63d adf0 ed3d 2958 793d 4906 133c
000001d0: 5000 0cbe 822a 363e 33fc f23d 7725 0a3f
000001e0: 2355 15be cc40 533d 0c82 76be 1788 7b3e
000001f0: 6910 abbe 5116 9ebd 5560 b33e d131 183e
00000200: c7bf 8f3e 492b 743e d8bf a83e f20a e1bd
00000210: e10a ebbd 7984 e83e f948 eabd 12e7 d6be
00000220: 413d 9a3d 90f6 563d d82d 8c3e c967 9b3d
00000230: ec82 553b e156 71be dd9d 083e cd0c 013f
00000240: cbab cfbd b2c9 b33d e22c fd3d ed7d 333d
00000250: a76f 2bbd a641 163c beab 5abd a819 ba3d
00000260: 759e 9bbc dc0b 083e bb51 8a3d 638c 0f3f
00000270: 01e0 38bc 2a79 b3bd 6b5d f0bd b37a 443e
00000280: 277a 993d c088 873c 9ee0 ae3d fe18 303e
00000290: dbab 513e 59e0 62bd ef71 903e ce0a 883e
000002a0: 218a 083e c793 a83e f5a2 54bd a393 66be
000002b0: dc4a 0cbe f182 dabd b3e2 783d 5923 ea3d
000002c0: 3454 cf3e 5cd3 8bbd 395d 563e 8a9e 88bd
000002d0: 1970 b53b 69c5 46be c57e 49bc cd07 94bd
000002e0: dd50 43be d814 2e3e 310c 7b3d f5bb cabc
000002f0: c6d5 1e3d 0dbb 853e 2e8f 643e cd6f 8bbe
00000300: aa7f c93d 7953 4b3d 7967 89bd ae42 a9bd
00000310: 965b 7abe c4a7 a03d d277 0a3e 0e41 5d3e
00000320: 19c4 c03e 13e2 a6be 03c9 c13e 04c6 34be
00000330: c329 ca37 6e5d d33e 84a9 1bbe ebd9 46bd
00000340: 69d7 8ebd 9d20 01be 4ff2 e53c 998b 9fbd
00000350: e8d9 c4bc 4cd8 98be 7396 943d c021 8abd
00000360: 59f3 a8bd 2e0d 52be 1073 b0be 8406 f6be
00000370: 5eec 4b3e 0997 8abd 2908 bb3e 038d 5dbe
00000380: ab78 9c3e 92cf 253e eb7c dbbe 7a00 f63a
00000390: e675 ed3c 2b40 d4bd 2915 adbe cf97 b3bc
000003a0: c0c7 ba3c c9c9 b4be 345b ddbd 2c11 eb3e
000003b0: 0522 26be 7d75 d23d 4187 9c3d 8377 183d
000003c0: 560c 2e3e 3ef3 b9bd 9ddd a13d aa17 97be
000003d0: c6c3 3abc e0a9 08be 4d15 3ebe a234 73be
000003e0: 416b c7bd 4b00 393e f960 503e 0b47 8bbe
000003f0: ae39 c7bc b709 43bd 3bba eabd 1479 f3be
0.2786982 -0.23464166 0.26369512 -0.11175374 -0.004505082 0.26145226 -0.12564208 -0.05412134
-0.11770976 -0.10958137 0.0398429 -0.035490293 0.009105606 -0.23734395 0.13583022 -0.035949595
-0.05669423 -0.09368578 -0.22618473 -0.33226815 0.12672053 -0.016078465 0.25822008 -0.18970086
0.23837873 0.1209247 -0.29476297 -0.03803321 0.06553647 -0.026300427 -0.22330533 -0.026919238
0.08407362 -0.31049505 -0.07203226 0.28776062 -0.11490491 0.10607471 0.09577926 0.034501858
0.105870284 -0.06888196 0.08992609 -0.19742233 -0.07170211 -0.043690305 -0.14618069 -0.22209387
-0.10485533 0.1689367 0.1776535 -0.23454994 0.01936069 -0.0012543648 -0.050104503 -0.3184193
-0.017057432 -0.11219335 -0.09294064 -0.16214585 0.11071511 0.12147397 -0.06068651 -0.16504233
-0.024943363 -0.07278543 0.010116448 -0.26593632 -0.03498736 0.08460879 0.024660787 0.28074428
-0.0049968655 -0.060583796 -0.13257791 -0.1761788 -0.19996563 -0.011161062 0.025321217 0.009586517
-0.12439065 0.001092578 -0.2065409 0.042769663 -0.036584616 -0.056643628 -0.15371262 -0.11829849
-0.06318079 -0.07153577 -0.024298133 0.076272964 0.13035078 -0.10864375 -0.08218897 0.010925059
0.21862511 -0.13957961 -0.17517292 -0.21583827 -0.18352073 0.15571085 -0.2794784 0.388587
-0.19316281 -0.35429025 0.16841696 -0.2527992 0.038139816 0.008456661 0.060233098 0.13849738
0.10462803 0.11618171 0.06087509 0.0089736665 -0.13671994 0.17789653 0.118645094 0.53963417
-0.14583258 0.051575467 -0.24073046 0.24563633 -0.33410957 -0.077191 0.35034433 0.14862753
0.28076002 0.23844637 0.32958865 -0.10988416 -0.11476684 0.4541357 -0.114397 -0.41973168
0.075312145 0.052481234 0.27378726 0.07588155 0.0032579256 -0.23568298 0.1334147 0.5041016
-0.10140189 0.08778705 0.12362076 0.043821264 -0.041854527 0.009170925 -0.053386442 0.09086925
-0.018996457 0.13285774 0.0675387 0.5607359 -0.011283875 -0.087633446 -0.11736568 0.19187431
0.07494002 0.0165447 0.08538936 0.17197034 0.20475714 -0.055389736 0.28211924 0.26570743
0.13333942 0.32925245 -0.05191322 -0.22517256 -0.13700432 -0.10669506 0.060763072 0.11432523
0.4049393 -0.06827423 0.20933999 -0.06670864 0.0055370447 -0.19411243 -0.012298291 -0.072280504
-0.19073816 0.17000139 0.061290924 -0.024747828 0.03877809 0.2611927 0.22320244 -0.27233735
0.09838803 0.049640153 -0.06709189 -0.08264671 -0.24449 0.07844499 0.1352227 0.21606848
0.3764961 -0.32594356 0.37848672 -0.17653662 2.4099723e-05 0.4128222 -0.15201384 -0.048547667
-0.0697468 -0.12610097 0.028069643 -0.07790298 -0.024029687 -0.2985252 0.072552584 -0.067447186
-0.0824954 -0.2051284 -0.34462786 -0.48051846 0.19914386 -0.06767089 0.36529663 -0.21635823
0.30560812 0.16192463 -0.42868742 0.0018768453 0.028986882 -0.103638016 -0.33805206 -0.021922974
0.022800326 -0.353102 -0.10808411 0.4591154 -0.16223915 0.10276315 0.07642985 0.03722335
0.16996893 -0.09079598 0.079035975 -0.29510242 -0.011399215 -0.13346052 -0.18562813 -0.23750547
-0.09737254 0.18066518 0.20349492 -0.2720264 -0.024319496 -0.047616687 -0.11461302 -0.47553313

fc2.bias f4 [100]
00000000: d490 5e3e c976 8d3c 0100 693e 7c8c 803e
00000010: 91b5 7a3e 6cc4 493e c0c8 8f3e b4c8 4cbe
00000020: 7864 7a3e c72f 6abe aead 513e d630 773e
00000030: db48 673e e408 44be b484 653e 7d84 76be
00000040: 39bf 5e3e 9631 46be 7507 62be d00a 703e
00000050: 6e2f 2d3e 8a96 71be d6f3 713e e382 71be
00000060: b1a3 64be 4acd 4fbe 0775 4e3e 43b2 6f3e
00000070: 21b6 813e 19d6 88be 38b8 513e a485 64be
00000080: d4ff 3e3e 8191 643e 5239 5bbe 2091 463d
00000090: 5b73 8bbe 24b1 453e 2ff9 53be 5b94 5a3e
000000a0: 0f03 97bc 7bae ebbd bf3b 87be a661 07be
000000b0: 6f18 243e 0b28 613e c5f2 3c3e fb82 6ebe
000000c0: 5cf4 8f3e 9303 663e 1b80 4f3e 0316 69be
000000d0: 74b2 67be e7c4 68be 6d97 773e 7a19 ec3d
000000e0: 3b95 8d3e 84d5 8abe ec67 843e 8ce0 3cbe
000000f0: c43c f93d 4ede 48be f37f 733e e803 643e
00000100: 0631 7d3e a619 8bbe e25c 3cbe ada6 5a3e
00000110: ce87 7dbe e4d1 6abe bac7 5e3e 5e8a 70be
00000120: 9841 423e ebf6 01be 30bf 62be 1205 7b3e
00000130: 8c47 8fbe bd27 4ebe 2af5 2b3e b936 31be
00000140: 9f6e 3cbe 8369 33be 03d5 4ebe c283 3dbe
00000150: ef19 70be 30e1 4c3e 094e 57be 8e08 57be
00000160: 7355 7d3e 898c 1fbd baf4 5ebe 121a 33be
00000170: f91b 62be b265 f23d a7de 713c d5c0 5d3e
00000180: 8d8c 6cbe 2a1d 62be 19ba 8a3e 4054 5ebe
0.21734935 0.017268555 0.22753908 0.2510718 0.24483325 0.19703835 0.28082848 -0.19998437
0.24452388 -0.22869788 0.2047641 0.24139723 0.22586386 -0.19144017 0.22413903 -0.24073978
0.21752633 -0.19354853 -0.22073157 0.23441625 0.16912624 -0.23592582 0.23628172 -0.23585086
-0.22328068 -0.20293155 0.2016183 0.23407845 0.25334266 -0.26725844 0.2048043 -0.22316605
0.18652278 0.2232113 -0.21408585 0.048478246 -0.27236447 0.19305855 -0.20700525 0.21345656
-0.018434076 -0.11507889 -0.2641277 -0.13220844 0.16024946 0.21987931 0.18451984 -0.23292153
0.2811612 0.22462301 0.20263712 -0.22762303 -0.22626668 -0.22731362 0.24178858 0.11528297
0.27652916 -0.27116024 0.25860536 -0.18445033 0.12169793 -0.19616053 0.23779278 0.22267115
0.24725732 -0.27168006 -0.18394807 0.21352644 -0.24758837 -0.2293163 0.21755877 -0.23490283
0.18970335 -0.12691848 -0.22143245 0.24513653 -0.27984273 -0.20132346 0.16792741 -0.17306031
-0.18401574 -0.17520718 -0.20198445 -0.18507293 -0.23447393 0.20007777 -0.21025862 -0.20999357
0.24739628 -0.038952384 -0.21773043 -0.17490414 -0.22080983 0.11835803 0.014762557 0.21655591
-0.23100491 -0.22081438 0.27095106 -0.21711826

fc3.weight f4 [1, 100]
00000000: 331c 243f 8228 2d3f 6286 2f3f ede7 343f
00000010: 6e96 323f 2192 223f 154b 2f3f 7c06 25bf
00000020: 4f95 253f ebf2 22bf 0c03 213f e3f5 273f
00000030: a5fc 263f 5d6a 1fbf db4b 263f a2cb 31bf
00000040: 479a 2a3f 11e9 23bf 09f0 23bf f41a 223f
00000050: b8e0 2e3f 9ef1 23bf d91e 253f fcce 2abf
00000060: 8d9e 21bf f8bd 1fbf 9b4b 203f f7b6 253f
00000070: 1173 273f 8a72 31bf 1361 233f 1ceb 21bf
00000080: b6c3 233f ca04 283f 71b3 27bf 4d5a 293f
00000090: a91c 32bf bedf 253f 833b 2dbf c94d 253f
000000a0: 3e7f 36bf abb6 24bf fa4e 33bf 4bc4 2fbf
000000b0: d1dd 2d3f 07ca 253f 1399 233f 5820 22bf
000000c0: 79ec 2f3f fd20 2f3f a075 263f d005 25bf
000000d0: 6802 26bf 45b7 32bf c605 2e3f aac7 553f
000000e0: ed27 313f 0c91 2abf 063f 2f3f e644 21bf
000000f0: f5dd 543f b9bf 24bf 569a 2c3f fe68 243f
00000100: a1a3 243f 005a 2ebf 0894 21bf 59fc 203f
00000110: dea1 1ebf e530 20bf 0610 263f ccfc 23bf
00000120: 396f 223f 4285 5bbf 49c0 26bf 9c19 343f
00000130: f89e 35bf 6b11 2dbf e979 373f f65a 27bf
00000140: 91a1 1fbf 4a42 1dbf e195 24bf 3c56 26bf
00000150: 1459 22bf 508a 243f 68a2 21bf ee71 22bf
00000160: b51d 2d3f 66bf 30bf d2e8 21bf e2f8 2abf
00000170: d6f0 2fbf e00d 183f 84c9 5fbf d230 2d3f
00000180: 28cc 29bf 69b6 29bf 48a2 203f d205 30bf
0.6410553 0.67639935 0.68564427 0.7066639 0.6976079 0.63504225 0.6847394 -0.6446302
0.6468095 -0.63651913 0.62895274 0.6560957 0.65229255 -0.6227167 0.64959496 -0.69451344
0.6664166 -0.64027506 -0.6403814 0.6332238 0.68311644 -0.64040554 0.64500195 -0.66722083
-0.63132554 -0.62399244 0.62615365 0.6473231 0.6540995 -0.693154 0.6382 -0.63249373
0.63970506 0.6563231 -0.6550818 0.66153413 -0.6957498 0.6479453 -0.6766893 0.64571816
-0.71287906 -0.6434123 -0.70042384 -0.68658894 0.6791659 0.64761394 0.6390545 -0.633306
0.68720204 0.6840971 0.6502323 -0.64461994 -0.6484742 -0.698109 0.6797756 0.8350779
0.69201547 -0.66627574 0.6845554 -0.62995756 0.8315118 -0.64355046 0.67423 0.64222705
0.6431218 -0.6810608 -0.631165 0.6288505 -0.6196574 -0.6257461 0.648682 -0.6405761
0.6345096 -0.8575021 -0.65137154 0.70351577 -0.7094569 -0.676047 0.71670395 -0.6537317
-0.62355906 -0.61429274 -0.642912 -0.64975333 -0.6341717 0.6427355 -0.6313844 -0.6345509
0.67623454 -0.6904205 -0.6324588 -0.66786015 -0.6872686 0.5939617 -0.87416863 0.6765262
-0.6632714 -0.6629396 0.6274762 -0.6875888

fc1.weight f4 [100, 14]
00000000: ef8c 2d3e d8be 543e 24f5 3b3e 37cf 7d3e
00000010: f49e 0b3e a2cc 223e 568d eabd 8be5 6fbe
00000020: ddc8 4a3c be90 59bd eddd bc3d a6e4 5a3e
00000030: 7208 18be f865 5a3e 9fb0 2bbe b658 60bd
00000040: df29 9d3c 14c0 fc3d 908d f83d 01dd 84be
00000050: 7330 223e 1af8 8b3e b654 3cbe dd1f 03be
00000060: d7a9 65be 075b be3b df91 60be 6d7f f2bd
00000070: 12e5 353c 7abe 2dbc 3311 71be ac65 78bc
00000080: b44c 81be a189 963d 7687 ef3d 13e5 643e
00000090: 4ea8 863e bc32 a6bb 18c8 e53d 9ca2 843e
000000a0: ce5e 07be 6258 ce3d 257a c8bc c269 77be
000000b0: 93cd 62be 80b9 2e3e cd8e 23bd afc1 9c3d
000000c0: 2d04 333e 552d 693e 823f 53be b3df 023e
000000d0: d235 453e 0c43 85be e4c7 2abe afba 463e
000000e0: 78fe 8dbe 176f dbbd b175 373d c917 a0bd
000000f0: 3b13 573d 2a32 1dbe f29e 51be 8a51 943d
00000100: ea1b 683e 5e09 f8bd 7d32 2e3e de93 58be
00000110: 1f35 9cbe 770c 9ebd 3150 793d 773b 3f3e
00000120: eb69 ea3c 41f5 453e 3d89 323e fe50 83be
00000130: 7bc3 cc3d abe8 883e 13f6 adbc fbe6 0ebe
00000140: 93ee 8abd 7582 4d3e 4ead 5cbe 5cb1 64bd
00000150: 73b7 733d 6ebc 5d3e 66fd 0f3e 0d6f 8a3e
00000160: c666 e1bd bdf4 82be 5c70 653e 937d c5bc
00000170: 3cdb e73d a53a c63d c91c 193e 1994 d9bd
00000180: 58a7 fe39 b7a3 6ebe 8cfd 03bd e103 e43d
00000190: 3b9f d13d f7e9 323e b294 88be 4e7b 52be
000001a0: 44c8 3cbe 4702 fbbd af8c 763e 7eda 293e
000001b0: ed78 25bd 33ea 193d d682 67bd e05a 8fbd
000001c0: 2343 713e ab84 37be 9cac e1bc 4dc3 a439
000001d0: 9475 23be e1f3 863d e463 cbbc 463c b53d
000001e0: 8279 23be f05e 3a3e b0fb 1dba 4a7b 1c3e
000001f0: b7eb 993e 0749 893e 1325 903e 9b18 01bd
00000200: 63ff 283e 3efd ffbd 978b 743e 8b2e 6c3e
00000210: 5b9c 1ebe 0649 363e f79b b03a 9bf6 35be
00000220: 6456 0fbe d74a 393e 4082 88bc 35ee 2f3e
00000230: cbdd a6bd 3d6f 8b3e 65be e3bc 46a8 0a3e
00000240: ccb1 51be f1e9 683e b125 9f3e 2b6b 57be
00000250: 67fc 6e3e 0a03 c83d 9a02 2a3e 5c54 82bd
00000260: e1f1 2b3e 4649 b1bc 9855 8a3c 5892 48be
00000270: 9344 63be 637c 77ba 1b7b cdbd 5d9d 3e3e
00000280: 115a 84be 2c1c 06be d8f0 aebd 604a 113e
00000290: 97dd 3b3e 59c7 e1bd 1e38 36be bbf3 c73b
000002a0: d2d3 bfbd c214 9a3e b7f7 83bd ceb5 693e
000002b0: 609e dcbc 0d3b 9a3e 9495 7e3e cc29 003e
000002c0: 259d ecbd f9d6 bfbd de85 6fbe a7b0 5dbe
000002d0: e295 593e 6ec9 3dbe e2a8 73be b9ce 4fbe
000002e0: efcc 90bd 87ba 193e d614 67bd 4eaf 26be
000002f0: 0be9 9cbe 4b6e dc3d d026 02be f3dd 3d3e
00000300: 4895 173e 07c0 5abe 3c96 24be 0f5d 9fbc
00000310: e170 8bbd 5e31 893e 827d 8fbe 40cc 833d
00000320: 3658 37be 0722 13be d5e6 16be c6fc 883d
00000330: 3480 bbba 3d25 13bd 8310 253e af1b 8c3e
00000340: 3a47 37be 3cad 613e 1d1e 33be ab28 e83d
00000350: 42ab 5a3d 173e 303d 41a7 4ebd 6304 dbbd
00000360: a056 373d d5a7 8abe 6d05 91bd 4c7e f13d
00000370: 749a dfbb de9c bebd 9b58 363e 64ea 1f3d
00000380: ca2e d7bb 3bec c63c 0c90 6c3d afd6 19be
00000390: 55e7 febc 4683 0d3d c062 53be 8364 2abe
000003a0: 6401 02be a426 4e3e 9478 623d 4d0c 373e
000003b0: b854 59bd 15eb b63b 1dba bc3c 6f94 8f3e
000003c0: 936b 9ebe e021 243e 30b0 3abe 58e4 cfbd
000003d0: 0062 9b3d b60f 1a3c f55a 873e 43a9 5dbd
000003e0: c8f5 11bc 8e17 81be 7972 68be 623d d33d
000003f0: a912 7c3e f604 16be 45e3 73be 61bd 6cbd
0.16948293 0.20775926 0.18355232 0.24786077 0.13634855 0.15898374 -0.11452739 -0.23427407
0.012376991 -0.053116553 0.092220165 0.21376285 -0.14846972 0.2132796 -0.16766594 -0.0547721
0.019185005 0.123413235 0.12136376 -0.25949863 0.15838794 0.27337724 -0.1839169 -0.12805124
-0.2242807 0.005809191 -0.21930645 -0.11840711 0.011101978 -0.010604495 -0.23541717 -0.015160959
-0.25253832 0.073504694 0.11695759 0.2235301 0.2630028 -0.005071966 0.112198055 0.2590531
-0.13219759 0.100754514 -0.024472306 -0.24161437 -0.22148733 0.1706295 -0.039931107 0.0765413
0.17482062 0.22771199 -0.20629695 0.12780647 0.19258812 -0.26027715 -0.16677815 0.19407152
-0.27733207 -0.10714548 0.044789974 -0.07817037 0.052508574 -0.15351167 -0.20470789 0.07242115
0.22666898 -0.12111162 0.17011447 -0.21150157 -0.30509278 -0.07717221 0.060867492 0.18675028
0.028614959 0.19331838 0.17435165 -0.2564773 0.099982224 0.26740012 -0.021235501 -0.139553
-0.06783786 0.20069297 -0.21550485 -0.055833206 0.059501123 0.21653911 0.14061508 0.2703785
-0.110059306 -0.25577345 0.22406143 -0.02410773 0.113211125 0.09679154 0.14952387 -0.106239505
0.00048571336 -0.2330464 -0.032224223 0.11133552 0.10235449 0.17472063 -0.26675946 -0.2055485
-0.1843577 -0.12256294 0.24077104 0.16587254 -0.040398527 0.037576865 -0.05652126 -0.06999755
0.23560767 -0.17921703 -0.027548127 0.00031426028 -0.15962821 0.06589485 -0.024827905 0.08849387
-0.1596432 0.18200278 -0.0006026579 0.15281406 0.3006265 0.26813528 0.28153285 -0.031517606
0.16503672 -0.12499474 0.23881374 0.2306463 -0.15489332 0.17801294 0.0013474216 -0.17769854
-0.13997799 0.18094955 -0.01666367 0.17180713 -0.081477724 0.27233306 -0.027800748 0.13540754
-0.2047798 0.22745492 0.31083444 -0.21036975 0.23338471 0.09766205 0.16602555 -0.063637465
0.16791488 -0.021641385 0.016886517 -0.19587076 -0.22194128 -0.00094408373 -0.10033246 0.18614717
-0.25849965 -0.13096684 -0.08542031 0.14188528 0.18346249 -0.11024351 -0.17794845 0.006102053
-0.093665734 0.30093962 -0.06443732 0.22823259 -0.026930988 0.30123177 0.24861747 0.12515944
-0.115534104 -0.09367175 -0.2339091 -0.21649419 0.21248582 -0.1853387 -0.23794892 -0.20293702
-0.07070338 0.15012561 -0.056416355 -0.16277811 -0.30646548 0.10763224 -0.12710118 0.18541698
0.1480304 -0.21362315 -0.16072935 -0.019453553 -0.06808639 0.26795477 -0.28025442 0.06435442
-0.17904744 -0.14368449 -0.14736493 0.06688838 -0.0014305175 -0.035924185 0.1611958 0.2736487
-0.17898265 0.2203874 -0.17491956 0.11335882 0.05338598 0.043027963 -0.050452475 -0.10694196
0.044760346 -0.2708117 -0.07081113 0.11791667 -0.006823832 -0.09307264 0.17807238 0.03904189
-0.006566857 0.024282565 0.05775456 -0.15023302 -0.031116167 0.03454902 -0.20643139 -0.16639905
-0.12695843 0.20131928 0.055290774 0.17875786 -0.05305931 0.005582223 0.023037964 0.28042933
-0.30941448 0.16028547 -0.18231273 -0.10150975 0.075870514 0.00940316 0.26436582 -0.0541165
-0.0089086965 -0.25213283 -0.22699918 0.10314442 0.24616493 -0.1465033 -0.23817165 -0.057797793
