mujoco/gail/save_model/ckpt_851.pth.tar (torch, 144879 bytes, 16 tensors)

fc1.weight f4 [100, 11]
0	0x3c7a4120	0.015274316
1	0xbe94d617	-0.29069588
2	0x3e9a8f0f	0.3018727
3	0xbdadfcea	-0.08495505
4	0x3d9332b5	0.07187406
5	0x3d5686a0	0.052374482
6	0xbe4bd483	-0.19905286
7	0x3e905dca	0.28196555
8	0x3e9c4cd4	0.30527365
9	0x3e91abf4	0.28451502
10	0x3defb867	0.11705094
11	0x3f0c17d7	0.54723877
12	0xbdc0d80c	-0.09416208
13	0x3d2bdb84	0.041957393
14	0xbe88c1e6	-0.26710433
15	0x3e8576e9	0.26067284
16	0x3db4b900	0.088243484
17	0x3d6e5217	0.058183756
18	0x3d9ac71a	0.07557507
19	0x3e3dfcb3	0.18553428
20	0x3dcc0298	0.09961432
21	0x3f040656	0.5157217
22	0x3ee3d3e1	0.44497588
23	0xbd8d65d7	-0.0690419
24	0xbdf0d170	-0.11758697
25	0x3e6df2c8	0.23237145
26	0x3e5a0c23	0.21293692
27	0xbea7fccd	-0.3281006
28	0x3d270125	0.040772576
29	0x3eb4fc4a	0.3534873
30	0x3e388776	0.18020424
31	0x3d541049	0.051773343
32	0x3e0c5ef4	0.13708097
33	0x3e71ce3b	0.23613827
34	0xbe2dcce3	-0.1697269
35	0xbd53062c	-0.051519558
36	0x3e6de633	0.23232345
37	0x3d739c54	0.059475258
38	0x3e6117b2	0.21981695
39	0xbebc7170	-0.36805296
40	0xbdf26909	-0.1183644
41	0xbec58920	-0.3858118
42	0x3e9505e3	0.29106054
43	0xbebdd80b	-0.3707889
44	0x3de98d7b	0.114039384
45	0x3e8f1c16	0.27951115
46	0x3e97f051	0.29675534
47	0xbec5d7b1	-0.38641122
48	0xbd4b21b6	-0.049592696
49	0x3e5b9a62	0.21445611
50	0xbe76a444	-0.240861
51	0xbd25cebe	-0.040480368
52	0x3e70b056	0.23504767
53	0x3d001099	0.03126583
54	0x3de5fed0	0.11230242
55	0x3ee5ac83	0.44858178
56	0xbd5619e6	-0.052270792
57	0xbe3d6c42	-0.18498328
58	0x3e2c69c4	0.16837221
59	0x3ed9c04d	0.42529526
60	0x3d0dbcd2	0.0346039
61	0x3e05ea28	0.13077605
62	0xbe870aa5	-0.2637531
63	0x3cd5b4d7	0.026087208
64	0xbe012261	-0.12610771
65	0x3dcef313	0.101049565
66	0x3ec0515e	0.37562078
67	0xbe928e37	-0.28624126
68	0x3eb10c3b	0.34579644
69	0xbe27d0d8	-0.16388261
70	0xbdb55756	-0.08854549
71	0xbe4605c1	-0.19338132
72	0x3eace46d	0.33768025
73	0xbd135033	-0.035965156
74	0x3daef5b4	0.08542958
75	0xbdf54076	-0.119751856
76	0xbe01e710	-0.126858
77	0x3bcc046a	0.006226112
78	0x3eb51746	0.3536932
79	0xbf137b41	-0.57609946
80	0xbe82a9cb	-0.25520167
81	0x3e46234f	0.19349407
82	0x3e3617e1	0.17782547
83	0x3e52fc5f	0.20604084
84	0x3c9c3b12	0.019071136
85	0xbeba211c	-0.36353385
86	0x3e5449c4	0.20731264
87	0x3e944dd8	0.2896564
88	0xbe0f0d0d	-0.13969822
89	0x3e68e873	0.22744922
90	0xbea77d38	-0.32712722
91	0xbeea7774	-0.4579426
92	0x3e48fa75	0.19626792
93	0x3e8cdb91	0.27511266
94	0x3e11ac8b	0.14225976
95	0xbdfcf303	-0.12351038
96	0x3e9f22b0	0.31081152
97	0xbe619282	-0.22028545
98	0x3e0a10b2	0.13482931
99	0xbc743f5c	-0.014907684
100	0x3e1d3aba	0.15354434
101	0xbdc38458	-0.09546727
102	0xbd07090c	-0.032967612
103	0x3ebe16b7	0.37126705
104	0xbddc6b8c	-0.107627004
105	0x3dedf9e9	0.11619932
106	0x3e969143	0.294077
107	0x3e215960	0.1575675
108	0x3e5f98ef	0.21835683
109	0xbd92d4d5	-0.07169501
110	0xbec01bd7	-0.3752124
111	0xbe0e0420	-0.13868761
112	0x3d31fe3b	0.043455344
113	0xbefacc5f	-0.48984048
114	0xbe100146	-0.14062986
115	0x3eca18bb	0.39471993
116	0xbdea5cb6	-0.114434645
117	0x3e880b40	0.26571083
118	0x3cc02192	0.023453508
119	0x3e4fa5ff	0.20278166
120	0xbd375df1	-0.044767324
121	0xbe8c0302	-0.27346045
122	0xbd9efd7d	-0.07763193
123	0x3e860243	0.261736
124	0xbdae3a9a	-0.08507271
125	0x3e483ebb	0.1955518
126	0x3eda4841	0.4263325
127	0xbb149b35	-0.0022675518
128	0xbd6b1283	-0.0573907
129	0xbc4b4c17	-0.012408278
130	0xbe72634e	-0.23670694
131	0x3e65df98	0.22448575
132	0x3d06bbc2	0.032893904
133	0x3e636394	0.22205955
134	0x3e224ee6	0.1585041
135	0x3e963492	0.29336983
136	0x3ddc14dc	0.10746166
137	0xbe930f13	-0.28722438
138	0xbb75ec81	-0.0037525
139	0xbe02e468	-0.12782443
140	0x3ecbcb89	0.39803723
141	0xbc58b258	-0.013226114
142	0x3de28826	0.110611245
143	0x3d86a10b	0.06573685
144	0x3e1aecc2	0.15129378
145	0xbd4aca2a	-0.049509205
146	0x3ea53afa	0.32271558
147	0xbda0000f	-0.07812511
148	0xbe1d8cff	-0.15385817
149	0xbcb93dca	-0.022612471
150	0x3e42600b	0.1898195
151	0x3ef376ef	0.47551677
152	0xbeaa697e	-0.3328361
153	0x3d67c4df	0.056584235
154	0xbecb8886	-0.39752597
155	0xbde4c7cb	-0.1117092
156	0x3e9d8c43	0.30771074
157	0x3e7d51f5	0.24738295
158	0x3d0b0f89	0.033950362
159	0xba1ca070	-0.0005974835
160	0x3ea9a910	0.33136797
161	0x3ef0d15a	0.47034723
162	0x3e37b8f0	0.17941642
163	0x3e7dd8e9	0.24789776
164	0x3c554db9	0.013019019
165	0xbdb6ad47	-0.08919769
166	0xbdace43f	-0.08441972
167	0x3ee9706e	0.4559359
168	0x3e948a91	0.29011968
169	0x3eb238f0	0.34809065
170	0xbd12bf8f	-0.035827216
171	0xbe34f4a0	-0.17671442
172	0xbd8e7abc	-0.069570035
173	0x3ec9024b	0.39259562
174	0x3d68c21d	0.056825746
175	0x3c1acf2d	0.009448809
176	0x3e9e725a	0.30946618
177	0xbebe8940	-0.37214088
178	0x3dae5d45	0.085138835
179	0x3e831a04	0.25605786
180	0x3dcc2da6	0.09969644
181	0x3e8259b9	0.25459078
182	0xbe2b70b6	-0.16742215
183	0x3ee43164	0.44568932
184	0x3f0398be	0.5140494
185	0x3e716e26	0.23577175
186	0x3e79cdc0	0.24394894
187	0x3ae79692	0.0017668775
188	0xbe95c39f	-0.2925081
189	0xbcd96597	-0.0265377
190	0xbd8c5bcf	-0.068534486
191	0xbd74a63b	-0.059728842
192	0xbeb918c2	-0.361517
193	0x3e21480e	0.15750143
194	0x3da75d96	0.08172147
195	0xbe5ed23c	-0.21759886
196	0xbdbf446d	-0.09339223
197	0xbe700327	-0.23438703
198	0x3ea47074	0.32117045
199	0x3eb4ee3d	0.3533801
200	0x3e39365e	0.18087146
201	0xbe9202d1	-0.28517774
202	0xbd9ca6dc	-0.076490134
203	0x3ea1d1f7	0.31605503
204	0x3cfd88f5	0.030949095
205	0xbbb0c953	-0.0053950935
206	0xbe60dbab	-0.21958797
207	0xbe9335ca	-0.28751975
208	0x3e32c2e6	0.1745716
209	0xbe2392ab	-0.15973918
210	0x3ed33a51	0.4125543
211	0xbf10b927	-0.5653252
212	0x3c83a124	0.016068049
213	0x3e95be89	0.2924693
214	0xbe1b996c	-0.15195245
215	0xbe933c61	-0.28757003
216	0xbeabd636	-0.33561867
217	0xbeb074fb	-0.3446425
218	0xbcfb5ffc	-0.030685417
219	0xbe7c149b	-0.24617235
220	0xbeb0e3a9	-0.3454869
221	0xbea2e16d	-0.3181261
222	0xbcedfc37	-0.02905093
223	0x3ea3291f	0.3186731
224	0xbe2a0835	-0.16604693
225	0xbd6abdba	-0.057309844
226	0xbe4cdace	-0.20005342
227	0xbcd78b69	-0.026311593
228	0x3b8f3079	0.004369792
229	0xbe1687cc	-0.1470024
230	0xbe8bca48	-0.27302766
231	0x3ec765bd	0.38944808
232	0x3d65549d	0.055988897
233	0x3e887292	0.2664991
234	0x3ea27993	0.3173338
235	0x3f000939	0.5001407
236	0xbe96e027	-0.2946789
237	0xbd0eea7d	-0.034891594
238	0x3ce170db	0.027519634
239	0xbd88e6b9	-0.06684632
240	0x3e940bb0	0.28915167
241	0xbde16074	-0.11004725
242	0x3dfe5bb1	0.124198325
243	0xbe6d2f80	-0.23162651
244	0x3db502bc	0.08838412
245	0x3e0dbf79	0.13842572
246	0x3e9a9a11	0.30195668
247	0x3ee0e1ea	0.4392236
248	0xbe52260b	-0.20522325
249	0xbd6ac43a	-0.057316042
250	0xbe9b2df8	-0.3030851
251	0x3e0e1141	0.1387377
252	0xbe0ef8fa	-0.13962165
253	0x3d55b612	0.05217559
254	0x3e1a8c9e	0.15092704
255	0xbea1878f	-0.31548735

fc1.bias f4 [100]
0	0xbe6aaa73	-0.22916584
1	0xbe6bf39d	-0.2304215
2	0xbb2674a6	-0.0025399118
3	0x3e6582f4	0.22413236
4	0x3cb8757b	0.022516957
5	0xbe614a2d	-0.22000952
6	0xbe0a6cf4	-0.13518125
7	0xbd91d546	-0.07120757
8	0xbe33cf6d	-0.17559595
9	0xbecd0585	-0.40043274
10	0x3ddd9655	0.10819689
11	0x3e77c59b	0.24196474
12	0xbe693567	-0.22774278
13	0x3e3db1a4	0.18524796
14	0x3e19b492	0.15010288
15	0xbe7e6165	-0.2484184
16	0x3e93e4c2	0.28885466
17	0x3e9d4497	0.30716392
18	0xbde1f91f	-0.11033844
19	0x3d5f0e1a	0.054456808
20	0x3ced5f54	0.02897612
21	0xbe569a1c	-0.20957226
22	0x3e56e45e	0.20985553
23	0xbe83a27d	-0.25709906
24	0x3dfb230a	0.122625425
25	0x3db4d0d3	0.088288926
26	0xbe8c42f0	-0.2739482
27	0xbec20a2f	-0.37898394
28	0x3e8018c8	0.25018907
29	0x3e868056	0.26269788
30	0xbe12d130	-0.14337611
31	0x3de849d3	0.11342206
32	0x3e3529ab	0.17691676
33	0x3e3700c6	0.17871389
34	0xbecfd7ef	-0.40594432
35	0x3d83377e	0.06407069
36	0x3e7b13e5	0.24519308
37	0xbda11902	-0.07866098
38	0xbe7fc181	-0.2497616
39	0x3e3b0633	0.18264084
40	0x3e69faa8	0.22849524
41	0x3e71cd5a	0.23613492
42	0x3c7f6a1d	0.015589264
43	0xbed95bf9	-0.42452982
44	0x3d6ec5a9	0.058293972
45	0x3dc75808	0.097335875
46	0xbeae8c99	-0.34091642
47	0xbe9c9823	-0.3058482
48	0x3e48824c	0.19580954
49	0x3eda09aa	0.42585498
50	0x3dac5c4c	0.08416042
51	0x3e90074f	0.28130576
52	0xbe921ec4	-0.28539097
53	0xbe0a4f87	-0.135069
54	0x3c5fb2fe	0.013653515
55	0x3e86758a	0.2626155
56	0xbcbafd27	-0.02282579
57	0x3ea3b57d	0.31974402
58	0x3e9fbe60	0.31199932
59	0x3e9d564a	0.30729896
60	0xbe21501e	-0.15753219
61	0x3e8c5abc	0.27412975
62	0x3eba7796	0.36419362
63	0x3dbf50d9	0.09341592
64	0xbe3bebf4	-0.18351728
65	0xbec10198	-0.37696528
66	0x3cef8825	0.029239723
67	0xbdc7bc18	-0.09752673
68	0x3cdb04d7	0.026735706
69	0x3d072050	0.0329898
70	0x3eaa0bf7	0.33212253
71	0xbcb0a88c	-0.021564744
72	0x3e7f2b9e	0.24918982
73	0x3e37b329	0.17939438
74	0xbe4fef97	-0.2030624
75	0xbe8d8bcf	-0.27645728
76	0x3e173eb6	0.14770016
77	0x3dfd84ce	0.12378846
78	0x3e935310	0.2877431
79	0x3ec7534b	0.38930735
80	0xbe95bcf1	-0.29245713
81	0xbe7d8bc5	-0.24760349
82	0x3e00b2cb	0.12568204
83	0x3e645000	0.22296143
84	0x3e92bf87	0.2866175
85	0xbedcc54d	-0.4311928
86	0xbe887b58	-0.26656604
87	0x3ea3dcde	0.32004446
88	0x3e88028c	0.26564443
89	0xbe4d3584	-0.20039946
90	0x3e9247a0	0.2857027
91	0x3eaad962	0.33368975
92	0xbd7191d5	-0.058976967
93	0x3eb1c81f	0.34722993
94	0xbe8951f3	-0.26820335
95	0x3e74a98d	0.23892803
96	0x3e91fe4d	0.2851433
97	0xbe5af828	-0.21383727
98	0x3e5fa6eb	0.21841018
99	0x3e914465	0.28372493

fc2.weight f4 [100, 100]
0	0x3bb70444	0.0055852253
1	0xbc60ac61	-0.013712973
2	0xbcba4426	-0.022737574
3	0x3d6d8919	0.057992075
4	0x3cf91f5e	0.030410465
5	0xbd5435d7	-0.05180916
6	0xbd7ff1c8	-0.06248644
7	0xbdae1dbf	-0.08501767
8	0xbc331989	-0.010931381
9	0xbe000ec6	-0.12505636
10	0x3da86081	0.08221532
11	0xbd08eae0	-0.03342712
12	0x3dee229e	0.116276965
13	0x3e41ed7f	0.18938254
14	0x3d980eb7	0.07424682
15	0x3e2a6dfc	0.16643518
16	0xbd912d02	-0.07088663
17	0xbdaa9aa0	-0.08330274
18	0xbde00ad9	-0.10939569
19	0x3e13c1c3	0.14429383
20	0x3dcb8b2b	0.099386536
21	0x3d8edf30	0.069761634
22	0x3c09790d	0.008390677
23	0xbb983b82	-0.0046457658
24	0xbde0b9c4	-0.10972932
25	0x3c79c3b1	0.01524441
26	0xbd7be3cf	-0.061496552
27	0xbde32b8d	-0.11092291
28	0xbe91478b	-0.28374895
29	0xbd556c62	-0.052105315
30	0x3d986668	0.074414074
31	0xbd08646e	-0.033298902
32	0x3e486aea	0.19572034
33	0xbbb86ace	-0.0056279665
34	0x3e7b434c	0.2453739
35	0x3e2dad7c	0.1696071
36	0xbdd769d7	-0.10518234
37	0x3e256fd2	0.16155937
38	0xbd47e706	-0.048804305
39	0xbd834efd	-0.0641155
40	0x3d42cc59	0.047558162
41	0xbddff2cc	-0.10934982
42	0x3df77858	0.120835006
43	0x3e08a297	0.13343273
44	0xbcf30c8d	-0.02966907
45	0x3d85b8f1	0.065294154
46	0xbdda3936	-0.10655443
47	0xbc10e029	-0.008842506
48	0xbd5d79a6	-0.05407109
49	0xbd28d422	-0.04121793
50	0x3cf049b9	0.029332029
51	0xbdac26e9	-0.08405859
52	0x3ddc064f	0.10743391
53	0xbd1224e7	-0.035679724
54	0xbd83bda5	-0.06432656
55	0xbaf7cc63	-0.0018905516
56	0x3cd27d10	0.0256944
57	0x3e76e441	0.2411051
58	0x3db77b1e	0.089590296
59	0xbc88ed60	-0.016714752
60	0x3d295813	0.04134376
61	0xbbdf6ff6	-0.0068187667
62	0x3d9f963e	0.07792328
63	0xbe031103	-0.12799458
64	0x3d93d2e1	0.07217956
65	0x3d73b4c2	0.059498556
66	0x3e267d47	0.16258727
67	0x3d7cf3c1	0.0617559
68	0xbe19ddff	-0.15026091
69	0xbe7fa4b8	-0.24965179
70	0xbcb3ed6a	-0.021963794
71	0xbd698cce	-0.057019047
72	0x3db64b8c	0.08901128
73	0x3bf12a7d	0.0073598013
74	0x3e8e301f	0.27771088
75	0xbe604e33	-0.2190483
76	0xbd20040f	-0.03906637
77	0x3e8a8aba	0.27058965
78	0xbd833b88	-0.06407839
79	0xbe35bf5d	-0.1774878
80	0xbd7cd5ee	-0.061727457
81	0x3d28bb16	0.041194044
82	0x3d9a7a7a	0.07542892
83	0x3e02c90e	0.12772009
84	0xbd8bb38f	-0.068213575
85	0xbcba7700	-0.022761822
86	0x3e55b657	0.20870338
87	0xbd67b38c	-0.056567714
88	0xbe617f6a	-0.22021261
89	0x3e2baa94	0.16764289
90	0xbd119b82	-0.035548694
91	0xbdbb3535	-0.09141008
92	0xbdd94ee9	-0.10610754
93	0xbdf9043f	-0.12159013
94	0xbdbde924	-0.09272984
95	0x3cf628b2	0.030048702
96	0x3da7409a	0.08166619
97	0xbdbde93d	-0.09273002
98	0x3cf6eade	0.03014129
99	0x3dac7938	0.08421558
100	0xbe2413ef	-0.16023229
101	0xbdb557b6	-0.0885462
102	0x3e03a435	0.12855609
103	0x3e283da4	0.16429764
104	0xbdc18726	-0.09449606
105	0xbb52f01a	-0.0032186569
106	0x3c9364e6	0.017992448
107	0x3e664d65	0.22490461
108	0x3b4ceddc	0.0031269705
109	0x3d9a517f	0.075350754
110	0x3e041d57	0.12901817
111	0xbe39facf	-0.18162082
112	0xbdd7a092	-0.10528673
113	0x3cf465d6	0.029833715
114	0x3ca580e3	0.02020306
115	0xbd2b4305	-0.04181196
116	0x3e1c45e3	0.15261035
117	0x3dd576ac	0.104230255
118	0xbdabd86d	-0.08390889
119	0x3dbc8068	0.09204179
120	0xbd9e2e99	-0.077237315
121	0x3db2a6ab	0.08723196
122	0x3e080830	0.13284373
123	0x3d43c4f8	0.047795266
124	0xbde29264	-0.11063078
125	0x3c94a773	0.018146252
126	0xbdb0ddaf	-0.08636033
127	0xbdba02c7	-0.09082561
128	0xbce09025	-0.027412483
129	0x3e70c46b	0.23512428
130	0xbe54269d	-0.20717855
131	0xbd6f4f2e	-0.05842512
132	0xbc7fb0d1	-0.015606121
133	0x3b71f0a9	0.0036917126
134	0xbd5ba952	-0.053628273
135	0x3d4a8727	0.049445298
136	0x3d21588f	0.039391097
137	0x3e76a718	0.24087179
138	0x3d46453b	0.048405867
139	0xbd8ce0f2	-0.068788424
140	0xbcbff7e8	-0.02343364
141	0xbe2603e1	-0.16212417
142	0xbdfb7e4e	-0.1227995
143	0x3db37660	0.087628126
144	0xbd3651b0	-0.044511497
145	0xbdef74cc	-0.11692199
146	0x3d10d59a	0.035359956
147	0xbd25d458	-0.04048571
148	0x3d95bc4d	0.07311306
149	0x3cbcdc83	0.023054367
150	0x3d32edba	0.043683745
151	0xbddcbb81	-0.10777951
152	0x3d7334cf	0.059376534
153	0xbce71b61	-0.028211297
154	0x3d97a196	0.07403867
155	0x3e06073b	0.13088696
156	0x3d9b66cf	0.075879686
157	0xbc23f3c0	-0.010006845
158	0xbd0faa43	-0.035074484
159	0xbd81f44e	-0.063454255
160	0x3db439ef	0.088001125
161	0x3c9cea7d	0.019154781
162	0xbc239d44	-0.0099862255
163	0x3df65d65	0.12029532
164	0xbe5a7946	-0.21335325
165	0xbda9d549	-0.08292634
166	0x3d25ccbd	0.040478457
167	0x3dd26b3f	0.10274362
168	0x3dcc8577	0.09986394
169	0x3e8162b0	0.25270605
170	0x3e43fcf5	0.19139464
171	0xbe20854f	-0.15675853
172	0x3d0e75c0	0.034780264
173	0xbe03aa46	-0.12857923
174	0xbd910cab	-0.07082494
175	0xbe315d1e	-0.17320678
176	0xbcadb445	-0.021204123
177	0xbd4feae1	-0.050761107
178	0xbc8194b3	-0.015817976
179	0x3e7c8064	0.24658352
180	0xbdfe1932	-0.124071494
181	0xbd8d4abc	-0.0689902
182	0xbdef11ad	-0.11673293
183	0xbe091898	-0.13388288
184	0x3d52295d	0.05130898
185	0x3cafe1d0	0.02146998
186	0x3dc867e0	0.097854376
187	0xbd852afd	-0.0650234
188	0xbdcffffb	-0.10156246
189	0x3d9b133b	0.07572027
190	0x3e12b4f5	0.14326842
191	0x3c781aea	0.015143136
192	0xbd05f497	-0.032703962
193	0x3df82cb5	0.12117902
194	0xbbb43c04	-0.0055003185
195	0x3df2d862	0.11857678
196	0xbbe4cf74	-0.006982738
197	0xbc867235	-0.01641188
198	0x3d58d600	0.05293846
199	0x3d38b3b1	0.045093242
200	0x39a3294c	0.0003112055
201	0xbe219c8b	-0.15782373
202	0x3d2f163d	0.042745817
203	0xbd095817	-0.033531275
204	0xbd2a0271	-0.041506235
205	0xbd9fdc5d	-0.07805703
206	0xbdbb8362	-0.09155919
207	0xbe509de9	-0.20372738
208	0x3df8eccc	0.121545404
209	0x3d2499bb	0.04018567
210	0xbda23cd3	-0.079217575
211	0x3e811553	0.25211582
212	0x3cba6741	0.022754313
213	0x3e8acff0	0.2711177
214	0x3e2e79a6	0.17038593
215	0xbd7238f7	-0.059136357
216	0x3d2d713d	0.04234432
217	0x3b0707c8	0.0020604003
218	0x3bb5fda0	0.005553916
219	0xb8c44e42	-9.360585e-05
220	0x3e89a66f	0.2688479
221	0xbe8c16fe	-0.27361292
222	0x3d59bd1c	0.053158864
223	0xbe260076	-0.16211113
224	0xbde53849	-0.11192376
225	0x3d12ba8d	0.03582244
226	0x3d4d0c8f	0.050060805
227	0x3dab24b7	0.08356612
228	0xbd9c1773	-0.0762166
229	0x3df6e929	0.120561905
230	0xbd492d5d	-0.049115527
231	0xbdcaa911	-0.09895528
232	0x3e1ded18	0.15422475
233	0xbdb69c65	-0.08916549
234	0xbd524633	-0.05133648
235	0x3e02f76b	0.12789695
236	0xbcb38e78	-0.02191852
237	0x3c4a58b4	0.01235025
238	0xbe520faa	-0.20513788
239	0xbba15b0a	-0.004924183
240	0x3e11f94b	0.14255254
241	0xbd97b464	-0.07407454
242	0x3bbde2e3	0.0057948693
243	0x3e4aef4d	0.19817849
244	0x3ded7121	0.11593843
245	0xbd55775f	-0.052115794
246	0x3dc86d6b	0.09786495
247	0xbdd6fc2e	-0.10497318
248	0xbdb0d494	-0.08634296
249	0xbdb61e9e	-0.088925585
250	0x3d4b15b2	0.049581237
251	0xbd2424de	-0.04007422
252	0xbcc530ca	-0.024071116
253	0xbc4b51e3	-0.01240966
254	0xbdb0c532	-0.08631362
255	0xbcb6455d	-0.022249872

fc2.bias f4 [100]
0	0xbe24d822	-0.16098073
1	0x3dd6f4ef	0.10495936
2	0xbccded9f	-0.02513772
3	0xbdcf0c2a	-0.10109742
4	0x3b7a24cb	0.0038168903
5	0xbd9c4ce3	-0.076318525
6	0x3d577d88	0.05260995
7	0x3ce67519	0.028132008
8	0x3cbbf11f	0.022942124
9	0xbed43114	-0.41443694
10	0x3d5e2bf0	0.05424112
11	0x3e251106	0.16119775
12	0xb98ff856	-0.0002746011
13	0xbe39492d	-0.1809432
14	0x3c676c10	0.014124885
15	0xbd25ae17	-0.04044923
16	0xbe194c97	-0.14970623
17	0x3e646f01	0.2230797
18	0xbd40207b	-0.046905976
19	0x3e152caf	0.14567827
20	0xbd2b4b2f	-0.041819748
21	0x3d9d5ffa	0.07684322
22	0xbe2dd236	-0.1697472
23	0xbc555d93	-0.013022798
24	0xbd08385f	-0.033256885
25	0x3e6ee05e	0.23327777
26	0xbd5e253d	-0.054234732
27	0x3d8561cb	0.06512793
28	0xbe75644a	-0.23964038
29	0xbd24086c	-0.040047094
30	0x3d77daf3	0.06051154
31	0xba8fca23	-0.0010970276
32	0x3c6d4d2c	0.014483731
33	0x3e538b0a	0.20658508
34	0xbc6b896e	-0.0143760275
35	0x3e3410f5	0.17584594
36	0x3d900e40	0.07033968
37	0xbdd0fd0c	-0.10204515
38	0xbe3af449	-0.1825725
39	0x3d23c3bd	0.039981592
40	0xbe038093	-0.12842016
41	0x3d362f0c	0.04447846
42	0x3cbf91df	0.023384986
43	0xbb30c4c3	-0.0026972748
44	0x3db7bce6	0.089715764
45	0x3d65f4ac	0.05614154
46	0xbdcbd85f	-0.09953379
47	0xbcff2934	-0.031147577
48	0xbd4c20b6	-0.049835883
49	0x3d507421	0.050892
50	0x3e022999	0.12711181
51	0xbda94a93	-0.08266177
52	0x3df572ce	0.11984788
53	0xbe69a194	-0.22815543
54	0x3e23fa58	0.16013467
55	0x3dc53d90	0.09630883
56	0xbd6bde65	-0.05758514
57	0x3e01dbaa	0.12681451
58	0xbd010162	-0.03149546
59	0xbd2ce75d	-0.042212833
60	0xbdcf3860	-0.101181746
61	0x3ddf7d09	0.109125204
62	0x3d2171f3	0.03941531
63	0x3e125fdc	0.1429438
64	0xbdaaf4a3	-0.08347442
65	0x3e155efd	0.14587016
66	0xbbc45da4	-0.005992608
67	0xbd36f6a7	-0.04466882
68	0xbcdc7e75	-0.026915768
69	0x3c9d9d05	0.019239912
70	0x3e4b0e86	0.19829759
71	0x3c9d6329	0.019212322
72	0x3d27f419	0.041004274
73	0x3dde2ab6	0.1084799
74	0x3ce5b5ee	0.028040852
75	0x3db2e11b	0.08734342
76	0xbdfe0f39	-0.12405247
77	0x3c8628c7	0.016376866
78	0xbdfb5d5b	-0.122736655
79	0xbdb82093	-0.08990588
80	0x3d5a6166	0.053315543
81	0xbe7e9075	-0.24859793
82	0xbc3423ba	-0.010994846
83	0xbb590593	-0.0033114895
84	0x3dcbd2ee	0.09952341
85	0x3deb4f2c	0.1148971
86	0xbcb9aaff	-0.022664545
87	0xbdbb801f	-0.091552965
88	0x3e867c59	0.26266745
89	0xbd543b8b	-0.051814597
90	0xbda55113	-0.08072104
91	0xbbd31208	-0.0064413585
92	0x3e0c9611	0.13729121
93	0x3dcc9530	0.09989393
94	0xbe0df7cb	-0.13864057
95	0x3d94b2f1	0.07260693
96	0x3ebaad40	0.36460304
97	0x3dbf54f8	0.093423784
98	0xbd6aa8dc	-0.057289943
99	0x3b83e932	0.004025602

fc3.weight f4 [3, 100]
0	0x3d5cd1ec	0.053911135
1	0x3dc57968	0.09642297
2	0x3c058465	0.008149241
3	0xbe1dc782	-0.15408137
4	0x3e002812	0.12515286
5	0x3d8a14f5	0.067422785
6	0x3e01e7ce	0.12686083
7	0xbde26af2	-0.110555544
8	0xbc9a7278	-0.018853411
9	0xbe12a8e1	-0.14322235
10	0x3d84e9b9	0.064898916
11	0x3e093831	0.13400342
12	0xbd40fc80	-0.047115803
13	0x3c43cb61	0.011950345
14	0x3c2d6911	0.010584132
15	0xbd88c5fa	-0.06678386
16	0x3c11ad17	0.0088913655
17	0x3e0ab9e3	0.13547473
18	0xbd5fbb1c	-0.0546218
19	0xbd1f03c6	-0.038821958
20	0x3e005f6f	0.12536405
21	0x3d69977b	0.05702923
22	0xbd85781a	-0.06517048
23	0x3d969a3f	0.07353639
24	0xbcdc94e8	-0.026926473
25	0xbc29f098	-0.010372303
26	0xbd4e9e03	-0.05044366
27	0xbd156357	-0.03647169
28	0xbc8c5c79	-0.017133938
29	0x3cb79943	0.022411948
30	0xbdcd31b5	-0.100192465
31	0xbe08b19f	-0.13349007
32	0x3e29d050	0.16583371
33	0x3d132e52	0.035932846
34	0xbddfacdf	-0.109216444
35	0x3df07e13	0.11742797
36	0x3d51883d	0.051155318
37	0xbdae1202	-0.084995285
38	0xbd600452	-0.05469162
39	0xbd63668b	-0.055517714
40	0xbdafeb08	-0.085897505
41	0x3db7dab2	0.0897726
42	0x3c9069c4	0.017628558
43	0xbdb60f59	-0.08889646
44	0x3dd41f36	0.103575155
45	0x3dd534ba	0.104104474
46	0xbe7b4de1	-0.24541427
47	0xbca0169d	-0.019542033
48	0xbdd768f4	-0.10518065
49	0x3d462be1	0.04838169
50	0xbd38256a	-0.044957556
51	0x3d7e3e57	0.06207117
52	0x3d19b3cc	0.037524983
53	0xbd84e291	-0.064885266
54	0x3de462a1	0.111516245
55	0x3d9c11fa	0.07620616
56	0x3e9c6c81	0.30551532
57	0x3e0a38a7	0.13498174
58	0x3aface0c	0.0019134893
59	0x3c7dc0bb	0.015487845
60	0x3c045bd7	0.008078537
61	0x3d81ba86	0.06334405
62	0xbd982d8f	-0.074305646
63	0xbc3e7778	-0.011625163
64	0xbd208587	-0.03918984
65	0x3d9cca7c	0.07655808
66	0x3d22b8b8	0.039726943
67	0x3d07c352	0.033145256
68	0x3da84fb6	0.08218329
69	0xbcb525cf	-0.022112755
70	0xbcc98b19	-0.02460246
71	0x3da1bc26	0.078972146
72	0xbe026266	-0.12732849
73	0x3ddaf149	0.10690553
74	0x3de0e5ab	0.10981306
75	0x3e1f455e	0.15553805
76	0x3d8ac7d1	0.06776393
77	0xbc461ef8	-0.012092344
78	0x3d802e17	0.06258791
79	0xbd258f2b	-0.04041974
80	0x3d011fad	0.03152435
81	0x3d38ee89	0.04514936
82	0xbd3d8990	-0.046273768
83	0x3e090f76	0.13384804
84	0xbc881750	-0.016612679
85	0xbd05d4b5	-0.032673556
86	0xbde0cfe5	-0.10977153
87	0x3daf4712	0.085584775
88	0xbbca7dae	-0.006179533
89	0xbc881357	-0.016610784
90	0x3e01072f	0.12600397
91	0x3dab4e85	0.08364586
92	0x3d86f020	0.06588769
93	0x3e5a7e3e	0.2133722
94	0x3c49cd88	0.012317069
95	0x3d8128b8	0.063065946
96	0x3e002c3c	0.12516874
97	0x3da54350	0.080694795
98	0xbd67d7b1	-0.056602184
99	0xbb3bbe29	-0.002864728
100	0x3e023b03	0.12717824
101	0xbd76737f	-0.06016874
102	0x3e535244	0.2063685
103	0x3c62e41e	0.013848333
104	0xbdcacad4	-0.09901968
105	0xbd9fc9ae	-0.07802139
106	0xbb940cf6	-0.0045181466
107	0xbd9107d7	-0.070815735
108	0xbda588d5	-0.08082739
109	0xbe27e4ce	-0.16395876
110	0x3b7f642f	0.0038969626
111	0x3d62dfc5	0.055389185
112	0xbdace1b2	-0.084414855
113	0xbe0effcd	-0.13964768
114	0xbdffd42e	-0.12491642
115	0xbe02c2bc	-0.12769598
116	0x3c808ff5	0.015693644
117	0x3df800c9	0.12109525
118	0x3d81cb52	0.063376084
119	0x3e20931d	0.1568112
120	0x3da03969	0.0782345
121	0x3cf2aec8	0.029624358
122	0xbe893e11	-0.26805165
123	0x3caf2eb1	0.021384569
124	0xbb699994	-0.0035644518
125	0xbdd7c440	-0.105354786
126	0xbdee3043	-0.11630299
127	0x3cfd9f65	0.030959794
128	0xbe109087	-0.14117633
129	0x3e8854ff	0.26627347
130	0x3db3a7a9	0.08772213
131	0x3df02500	0.11725807
132	0xbc3e95c1	-0.011632384
133	0xbda60d45	-0.08108
134	0x3ca8372f	0.020534126
135	0x3dbfa0b3	0.09356823
136	0xbe216046	-0.15759382
137	0xbc347efc	-0.011016604
138	0x3ca67389	0.020318763
139	0x3d492210	0.04910475
140	0x3d7d40f8	0.061829537
141	0xbe06102d	-0.13092108
142	0xbde8fbee	-0.11376177
143	0x3d206850	0.03916198
144	0xbc97b626	-0.018519472
145	0xbd189bef	-0.037258085
146	0xbe360add	-0.17777582
147	0xbd631e6c	-0.055448934
148	0x3dcedb5e	0.10100435
149	0x3cc7ddfb	0.02439784
150	0xbdb2412e	-0.08703838
151	0x3ccdd24c	0.025124691
152	0x3e364902	0.17801288
153	0xbde016ce	-0.1094185
154	0x3db7461c	0.08948919
155	0xbd98fc82	-0.07470037
156	0x3d8592ae	0.065221176
157	0xbdd2281d	-0.10261557
158	0xbbeaf21f	-0.0071699764
159	0x3de6d59d	0.11271212
160	0x3df924dd	0.12165234
161	0xbddde1c5	-0.10834078
162	0xbe284a0c	-0.16434497
163	0xbdd8e43a	-0.10590406
164	0x3b4dafad	0.0031385229
165	0x3d58b5ab	0.052907627
166	0xbe17b3cf	-0.14814685
167	0xbcef5b04	-0.029218204
168	0x3c9bdd51	0.01902643
169	0x3d5092e5	0.05092134
170	0xbd85b71f	-0.06529068
171	0xbd98dc14	-0.074638516
172	0x3dd0af31	0.10189665
173	0x3dcdb051	0.10043395
174	0xbe40554d	-0.1878254
175	0xbd9a97c9	-0.07548482
176	0x3e42d045	0.19024761
177	0x3c398108	0.011322267
178	0x3da0b79d	0.078475215
179	0x3d8a8c33	0.06765022
180	0xbd066ca1	-0.03281844
181	0xbda5e6d1	-0.08100665
182	0xbd16466b	-0.03668825
183	0xbe205005	-0.15655525
184	0xbdaf80ab	-0.08569463
185	0x3da69b3a	0.08135076
186	0xbd03112d	-0.031998802
187	0xbe2e09a0	-0.16995859
188	0x3e62e4ed	0.22157641
189	0x3d508b4c	0.050914094
190	0xbe42f59b	-0.19039004
191	0x3ca9aa9d	0.020711238
192	0xbdccc02f	-0.099975936
193	0xbd8251d7	-0.06363266
194	0x3e1b71f3	0.15180187
195	0xbd5f450d	-0.05450921
196	0x3e5f1d35	0.21788485
197	0xbe11e84b	-0.14248769
198	0x3ca4d4a3	0.020120924
199	0x3e4f86e2	0.20266297
200	0xbdc30793	-0.09522929
201	0xbca7862a	-0.020449717
202	0x3d8880cb	0.0666519
203	0xbca2889b	-0.01984053
204	0xbe951de2	-0.2912436
205	0x3d3ceca2	0.046124108
206	0xbea2b2c7	-0.3177702
207	0xbebc3d9a	-0.36765748
208	0x3d7bc0d7	0.061463203
209	0xbe662a48	-0.22477067
210	0x3e243d19	0.16038932
211	0xbd1597a0	-0.036521554
212	0x3bd6a21e	0.0065500876
213	0xbd6357e0	-0.055503726
214	0x3dbe0738	0.092787206
215	0xbbf8c043	-0.0075912788
216	0x3e1a18d3	0.15048532
217	0xbc7b2df0	-0.015330777
218	0x3c96a737	0.018390281
219	0x3d631995	0.05544432
220	0x3cda2f8d	0.026634002
221	0x3e309627	0.17244779
222	0xbda9900f	-0.0827943
223	0xbe6b9ffc	-0.23010248
224	0xbc056c6b	-0.008143525
225	0x3de28145	0.110598125
226	0x3d0b1622	0.033956654
227	0x3cd177de	0.025569852
228	0xbd89344a	-0.066994265
229	0xbdf1114c	-0.11770877
230	0xbe36b31c	-0.17841762
231	0xbe8d4f0e	-0.27599376
232	0xbd5080b2	-0.050903983
233	0x3e930100	0.287117
234	0xbe014c1f	-0.12626694
235	0xbdc14e32	-0.09438743
236	0xbe072299	-0.13196792
237	0xbdbe3d1b	-0.09288999
238	0xbe0456bf	-0.12923716
239	0xbd37e854	-0.0448993
240	0xbccb49e4	-0.024815507
241	0x3e08a400	0.13343811
242	0x3d464af5	0.04841133
243	0x3cd91bf7	0.026502592
244	0xbc68865e	-0.014192192
245	0x3b7551ce	0.0037432793
246	0x3bb33dd9	0.0054700193
247	0x3e28f03f	0.16497897
248	0xbd1a8e4f	-0.037733372
249	0xbc78e591	-0.015191452
250	0x3e2c3979	0.16818799
251	0x3e1ca58a	0.15297523
252	0x3dd85cbc	0.10564563
253	0x3d91adc9	0.07113225
254	0x3cbaf544	0.02282203
255	0x3c9eb9cc	0.019375704

fc3.bias f4 [3]
0	0x3d959e12	0.0730554
1	0x3c2be611	0.010491864
2	0x3d253409	0.040332828

fc1.weight f4 [100, 11]
0	0xbe713f9a	-0.23559418
1	0x3e42c262	0.19019464
2	0xbb8dbde5	-0.0043256157
3	0xbe951db3	-0.2912422
4	0x3d8cf55f	0.06882738
5	0x3ddad7ea	0.106857136
6	0xbd8c81e7	-0.068607144
7	0x3e1d682d	0.15371771
8	0xbd1b5b87	-0.037929084
9	0xbcfeac57	-0.031088037
10	0x3c65b855	0.014020999
11	0x3c4f7419	0.012661957
12	0xbe4ee622	-0.20204976
13	0x3e7686c4	0.24074847
14	0x3e2229d8	0.15836275
15	0xbd66bb45	-0.056330938
16	0xbe3d082d	-0.1846015
17	0xbda4dbe6	-0.08049755
18	0xbdecbf8c	-0.11559972
19	0x3d59bd9c	0.05315934
20	0x3e65c76d	0.22439356
21	0x3e6d9297	0.23200451
22	0xbde85622	-0.113445535
23	0x3dd554d9	0.10416574
24	0xbe5bbd26	-0.21458873
25	0xbe784f83	-0.24249081
26	0x3dc1ea5e	0.0946853
27	0x3e5845e0	0.21120405
28	0xbe0f1d67	-0.1397606
29	0x3e9cb411	0.3060613
30	0xbe4e4d17	-0.20146595
31	0xbe58c89b	-0.21170275
32	0x3bfe29b2	0.0077564353
33	0x3ded2e09	0.11581046
34	0xbe9ceab4	-0.30647814
35	0x3ea4aea8	0.32164502
36	0x3e39db77	0.18150125
37	0xbd07d59f	-0.03316271
38	0xbdfa5a7e	-0.12224291
39	0x3e7c2bdb	0.24626105
40	0x3bfa3fde	0.007637008
41	0xbccfb736	-0.025355916
42	0x3e5115df	0.204185
43	0xbceae47c	-0.028673403
44	0xbf04996c	-0.51796603
45	0xbdff6761	-0.1247089
46	0x3cd6a7cd	0.02620306
47	0xbf2d2855	-0.67639667
48	0xbd39b7c2	-0.04534126
49	0x3da558a1	0.08073545
50	0xbc0e2925	-0.008676802
51	0x3e2fcae1	0.17167236
52	0xbd53364a	-0.051565446
53	0xbd03e227	-0.032198098
54	0xbe54ba99	-0.20774306
55	0xbe76dbab	-0.24107234
56	0x3e2a8b1f	0.16654633
57	0xbce3094c	-0.027714394
58	0xbe73341e	-0.2375035
59	0xbd8b9bf0	-0.06816852
60	0x3e1dd468	0.15413058
61	0xbe153d15	-0.14574082
62	0x3e4ca6bc	0.19985479
63	0xbc90fbfa	-0.017698277
64	0xbe29f1b7	-0.16596113
65	0xbcdce0ef	-0.026962725
66	0xbf3ad366	-0.7297882
67	0x3e1ce731	0.15322568
68	0x3d92a0bc	0.07159564
69	0xbeb08b8d	-0.3448147
70	0x3d6f6c20	0.058452725
71	0x3d56b55a	0.052419044
72	0x3d604488	0.054752856
73	0xbb814d27	-0.003945965
74	0x3dc76ed6	0.09737937
75	0x3e32fc7b	0.17479126
76	0xbec9ffe2	-0.39453036
77	0x3e471c8f	0.19444488
78	0x3dc359e3	0.09538629
79	0xbc835404	-0.016031273
80	0xbe4cf4b8	-0.20015228
81	0xbdb3503f	-0.0875554
82	0xbd1fda3f	-0.039026495
83	0xbd435898	-0.04769191
84	0xbe664354	-0.22486621
85	0x3e91d4b0	0.2848258
86	0xbe2d81f0	-0.16944098
87	0x3dcd2f6c	0.10018811
88	0xbe4fb52a	-0.20283952
89	0xbcf97ce6	-0.030455064
90	0xbec5217e	-0.38502115
91	0x3e7ed169	0.24884571
92	0x3e5476d8	0.2074846
93	0xbd9e99e9	-0.077442
94	0x3d495739	0.049155448
95	0x3e8b3069	0.27185372
96	0xbe84cfe8	-0.2593987
97	0xbe1fefb5	-0.15618785
98	0x3c2642f6	0.010147801
99	0xbcd2535a	-0.02567451
100	0x3e9825fe	0.29716486
101	0xbe4eb92e	-0.20187828
102	0x3d5fd353	0.054644894
103	0x3e8be422	0.2732249
104	0x3e800a8a	0.2500804
105	0x3e251110	0.1611979
106	0x3eadbf52	0.33935028
107	0xbe74d48e	-0.23909208
108	0xbe02123a	-0.12702265
109	0x3e04394d	0.12912484
110	0xbd5e0a02	-0.054208763
111	0xbe06fd54	-0.13182575
112	0x3db64a12	0.089008465
113	0x3da5a294	0.0808765
114	0x3db01ed3	0.08599629
115	0x3e041f41	0.12902547
116	0x3ce861f9	0.02836703
117	0xbe129ece	-0.14318392
118	0xbd84ee40	-0.06490755
119	0x3e27a11b	0.1637005
120	0x3dbee1f8	0.09320444
121	0x3d3a7583	0.045522224
122	0x3bcb0e68	0.0061967857
123	0x3e83f103	0.25769815
124	0x3e466fb7	0.19378553
125	0x3e88a81b	0.26690754
126	0x3df25ab7	0.11833709
127	0x3de3b3d3	0.11118283
128	0xbe7c7ce8	-0.24657023
129	0x3e981998	0.29707026
130	0x3eba0bf7	0.36337253
131	0xbd44983d	-0.04799675
132	0xbc3a6c32	-0.011378335
133	0x3c6e1757	0.014531932
134	0x3eb64b6f	0.35604426
135	0x3d63bff1	0.05560297
136	0x3c98c7b6	0.018649917
137	0xbd9dd930	-0.07707441
138	0x3e202de6	0.15642509
139	0xbe3a3c9b	-0.18187182
140	0x3e848a9a	0.25886995
141	0x3e060fee	0.13092014
142	0x3d91d190	0.07120049
143	0x3e08b780	0.1335125
144	0xbdb7a70c	-0.089674085
145	0x3e070765	0.13186415
146	0x3e8daaa1	0.27669242
147	0x3d590810	0.052986205
148	0x3e119a34	0.1421898
149	0x3dc4bce2	0.09606339
150	0xbe07613c	-0.13220686
151	0x3e8469f5	0.2586209
152	0x3dc34cd0	0.09536135
153	0x3e2e1ccd	0.17003174
154	0x3e903cb5	0.28171316
155	0xbe9061bd	-0.28199568
156	0x3ea8d798	0.32976985
157	0x3e799118	0.24371755
158	0xbc45f5a1	-0.012082488
159	0xbe1672c2	-0.14692214
160	0xbde05121	-0.10952974
161	0xbe192cb3	-0.14958458
162	0xbcd87f6a	-0.026427943
163	0xbdfdad85	-0.12386612
164	0x3e763fe1	0.24047805
165	0x3dffe646	0.12495093
166	0xbec328ce	-0.3811707
167	0x3ee16666	0.44023436
168	0xbe326ff4	-0.17425519
169	0xbe4c700f	-0.19964622
170	0xbe04535d	-0.12922426
171	0x3eab1903	0.3341752
172	0xbca7e616	-0.020495456
173	0xbccff3b9	-0.02538477
174	0xbc59e2da	-0.0132987145
175	0x3e1aaf67	0.15105973
176	0xbe568f0b	-0.20953004
177	0xbe324379	-0.17408551
178	0x3e97027c	0.29494083
179	0xbe58aa89	-0.21158804
180	0xbdf1786f	-0.11790549
181	0xbe384b9a	-0.1799759
182	0xbdd1615e	-0.102236494
183	0xbdef2cc8	-0.11678463
184	0xbc77029d	-0.015076307
185	0x3e48eedc	0.19622368
186	0x3c1d23d3	0.009591061
187	0x3e6348cd	0.2219574
188	0x3c7a172b	0.015264313
189	0xbdfbc8d9	-0.12294168
190	0x3e14214c	0.14465827
191	0xbd994060	-0.07482982
192	0x3d1f370d	0.03887086
193	0x3e18d90a	0.14926544
194	0xbe94740a	-0.2899478
195	0x3dd90cc3	0.10598137
196	0x3e936c2e	0.28793472
197	0xbdda4a76	-0.106587335
198	0xbdc8396f	-0.097765796
199	0xbe8a7f59	-0.27050284
200	0x3d06e340	0.032931566
201	0x3e1a3cc4	0.15062243
202	0x3dab7e92	0.08373751
203	0x3b0f6de8	0.0021885578
204	0xbe3a6184	-0.18201262
205	0x3cf24c59	0.029577421
206	0x3e4b86f9	0.19875707
207	0x3e1f2fdf	0.15545605
208	0x3e847f93	0.2587858
209	0x3dcaa5f6	0.09894936
210	0xbe672e62	-0.22576287
211	0x3d56b767	0.052421
212	0x3e70850a	0.2348825
213	0x3de823fc	0.113349885
214	0xbda5eb93	-0.08101573
215	0x3e7f1b7b	0.24912827
216	0xbea61ce0	-0.32443905
217	0x3e32cbfb	0.17460625
218	0x3e8ea73f	0.27861974
219	0x3e236076	0.15954766
220	0xbe2600db	-0.16211264
221	0xbd9bedc8	-0.076137125
222	0xbe388344	-0.18018824
223	0x3d88dab1	0.06682337
224	0xbdae02c1	-0.08496619
225	0x3ea87e83	0.3290902
226	0x3d0a5e2a	0.033781208
227	0x3dcae7b0	0.09907472
228	0xbdb7013a	-0.08935781
229	0xbe62e8f6	-0.2215918
230	0xbdf20f9b	-0.11819383
231	0x3e0f9640	0.1402216
232	0xbd9bf633	-0.07615318
233	0x3e05159a	0.12996522
234	0x3f0070ab	0.5017192
235	0x3cedcc5a	0.029028106
236	0xbdb8be5e	-0.09020685
237	0x3dc20ea0	0.09475446
238	0xbe21b2ee	-0.15790913
239	0x3df89a04	0.12138751
240	0x3c2ebe5b	0.0106655015
241	0xbcd2d6f4	-0.025737263
242	0xbdebcc53	-0.11513581
243	0x3df14b91	0.11781991
244	0xbe6b9a31	-0.23008038
245	0xbe5cd3b7	-0.21565138
246	0x3c10c345	0.008835618
247	0x3dc1fa55	0.09471575
248	0xbe104e82	-0.14092448
249	0x3e46ccde	0.19414088
250	0xbde28558	-0.110605896
251	0xbe08fa91	-0.13376833
252	0xbdc83558	-0.097757995
253	0x3e81dd2a	0.25364047
254	0xbea02311	-0.31276754
255	0x3da3058d	0.07960043

fc1.bias f4 [100]
0	0x3f413919	0.7547775
1	0xbf204e6c	-0.6261966
2	0x3f1ab756	0.60436
3	0xbefe539c	-0.49673164
4	0xbe4a0cc0	-0.19731426
5	0x3f3b014c	0.73048854
6	0xbf09316a	-0.53591025
7	0xbed64205	-0.41847244
8	0xbf274d07	-0.6535191
9	0xbf2155ab	-0.63021344
10	0x3ee8fbc1	0.45504573
11	0x3d10d7cb	0.035362046
12	0x3dc88079	0.09790129
13	0xbf25c028	-0.6474633
14	0x3f102399	0.5630432
15	0xbe5c64fb	-0.21522896
16	0xbefc62cb	-0.49294123
17	0xbf1a4b01	-0.60270697
18	0xbf3d1986	-0.7386707
19	0xbf2844d8	-0.6573005
20	0x3f027e89	0.5097433
21	0xbf022ac2	-0.50846493
22	0x3f181d1d	0.59419423
23	0xbf06aeba	-0.5261036
24	0x3f268566	0.650473
25	0x3ecb4933	0.39704284
26	0xbedabffb	-0.42724594
27	0xbe2cdf25	-0.16881998
28	0x3ec2baa0	0.3803301
29	0x3f0fe241	0.5620461
30	0xbf082d76	-0.5319437
31	0xbf1485d7	-0.58016723
32	0x3ebc938a	0.36831313
33	0xbe895619	-0.268235
34	0xbf223e12	-0.6337596
35	0x3f1874da	0.595533
36	0xbf0dc999	-0.5538574
37	0x3ecf173a	0.40447408
38	0x3efba4f9	0.49149302
39	0x3e991302	0.29897314
40	0x3ec5c67f	0.38628003
41	0xbee92535	-0.455362
42	0x3f217c8e	0.6308068
43	0xbee88983	-0.45417413
44	0x3d8bd5cf	0.0682789
45	0xbf099326	-0.53740156
46	0xbf196aa6	-0.5992836
47	0xbf1ca20d	-0.6118477
48	0xbf2667e3	-0.6500227
49	0x3f0b2db5	0.5436662
50	0x3f2da27a	0.67826045
51	0xbf2776e2	-0.65415776
52	0x3e05861e	0.13039443
53	0xbc6f2979	-0.01459729
54	0xbe9198fc	-0.2843703
55	0xbf143806	-0.57897985
56	0xbc284a48	-0.010271616
57	0x3e6f29af	0.23355745
58	0xbf2215f4	-0.6331475
59	0xbf0c22eb	-0.5474078
60	0x3e95c2da	0.29250222
61	0x3e2809a9	0.16409935
62	0xbf09b2d1	-0.5378848
63	0xbebc2be8	-0.36752248
64	0xbe669fec	-0.22521943
65	0xbf27c740	-0.65538406
66	0x3dbdb2bc	0.092626065
67	0xbf2c314f	-0.6726274
68	0x3e9faca7	0.3118641
69	0x3f0dbc34	0.553653
70	0x3e7d12a9	0.2471415
71	0x3f31acb1	0.6940413
72	0xbe00b20a	-0.12567917
73	0xbf0333f5	-0.51251155
74	0xbed5b133	-0.41736755
75	0xbf14fc45	-0.5819743
76	0xbf24ef7f	-0.6442794
77	0xbeb504ea	-0.35355312
78	0x3de1b726	0.11021261
79	0xbebb30b0	-0.36560583
80	0xbf25d1da	-0.64773333
81	0xbeefcb4d	-0.46834794
82	0xbefa8c0d	-0.48934975
83	0x3ece77d6	0.40325803
84	0xbf062563	-0.524008
85	0xbe50bbd5	-0.20384152
86	0xbf2547dd	-0.6456278
87	0xbf1604e6	-0.58601224
88	0xbf053080	-0.5202713
89	0xbee622d0	-0.44948435
90	0x3e8fe5f3	0.28105125
91	0x3f173339	0.59062535
92	0x3f20e147	0.62843746
93	0xbeb455ac	-0.35221612
94	0xbf0e55e8	-0.5559983
95	0x3ef36d22	0.475442
96	0x3f3be13b	0.7339055
97	0xbeedbb72	-0.46432072
98	0xbf17c2bb	-0.5928151
99	0xbf073cb2	-0.5282699

fc2.weight f4 [100, 100]
0	0x3dde2977	0.108477525
1	0xbdad307f	-0.084565155
2	0x3d2cbd25	0.04217257
3	0xbd1163bb	-0.0354955
4	0x3ab4f50f	0.0013805943
5	0x3d89c31b	0.067266665
6	0xbd6629a7	-0.056192067
7	0xbd6e3bd0	-0.05816251
8	0xbe2e547d	-0.17024417
9	0xbe3616a3	-0.17782073
10	0x3d9b50cc	0.0758377
11	0x3d339a47	0.043848302
12	0x3d20bf20	0.03924477
13	0xbdc82fd9	-0.09774751
14	0x3da8be22	0.0823939
15	0xbd176e5b	-0.036970478
16	0xbdb48b09	-0.08815581
17	0xbdbd5802	-0.09245302
18	0xbe134f55	-0.14385732
19	0xbcb08610	-0.021548301
20	0x3c793a7c	0.015211698
21	0xbd92c24d	-0.07165966
22	0x3d239b5b	0.03994308
23	0xbd41e700	-0.04733944
24	0x3df9afa3	0.12191703
25	0x3de4e95c	0.11177322
26	0x3bf46d95	0.0074593523
27	0xbddbface	-0.107411966
28	0x3db1fd12	0.086908475
29	0x3db1b475	0.086769976
30	0xbd31b50f	-0.04338556
31	0xbdd0797c	-0.10179421
32	0x3d2ca17c	0.04214619
33	0xbd93a85a	-0.07209845
34	0xbe00fe89	-0.12597097
35	0x3d4e6a60	0.050394416
36	0xbda24ead	-0.079251625
37	0x3ca5701e	0.020195063
38	0x3dd05261	0.101719625
39	0x3d9abae3	0.07555177
40	0x3dd3f685	0.10349754
41	0xbe0d51f6	-0.13800797
42	0x3e18876c	0.1489541
43	0xbc902474	-0.017595507
44	0xbd46cc00	-0.048534393
45	0xbdfcd5c5	-0.12345461
46	0xbd1d44cf	-0.0383957
47	0xbde4858b	-0.11158284
48	0xbe3c03e1	-0.18360855
49	0x3db5ac28	0.08870727
50	0x3e2f5618	0.17122686
51	0xbd961082	-0.07327367
52	0x3ca97bab	0.020688852
53	0x3d9da233	0.07696953
54	0x3c16606b	0.009178261
55	0xbd48586f	-0.04891246
56	0x3cbb2a9c	0.022847466
57	0x3df7435d	0.120733954
58	0xbe06e12b	-0.13171832
59	0xbdc23b95	-0.094840206
60	0x3ddb2e01	0.10702134
61	0x3d71538c	0.058917567
62	0xbdf37b34	-0.118887335
63	0xbd8dbf6d	-0.06921277
64	0xbb62510c	-0.003453317
65	0xbe35d2ee	-0.17756245
66	0x3d80945c	0.06278297
67	0xbdd427f9	-0.10359187
68	0x3da66f76	0.08126728
69	0x3db3be39	0.087765165
70	0x3d8856aa	0.06657155
71	0x3d0f45d6	0.03497871
72	0xbda0d722	-0.07853533
73	0xbe36458b	-0.17799966
74	0xbe105977	-0.14096628
75	0xbdc69b30	-0.096975684
76	0xbdab9098	-0.083771884
77	0xbe223dba	-0.1584386
78	0x3d1f84a9	0.038944874
79	0xbd8b24bf	-0.06794118
80	0xbe44e9a7	-0.19229756
81	0xbdd91e5d	-0.106014945
82	0xbded3f50	-0.115843415
83	0x3d43f04f	0.047836598
84	0xbe1a2231	-0.15052105
85	0xbd777dc1	-0.060422663
86	0xbdead013	-0.11465468
87	0xbda5fbba	-0.08104654
88	0xbda1b07f	-0.07894992
89	0xbd07755a	-0.0330709
90	0x3db67118	0.0890829
91	0x3d3b9b01	0.04580212
92	0x3e1069bb	0.14102833
93	0xbde6a8b4	-0.11262646
94	0xbe01e5d5	-0.1268533
95	0x3de3182b	0.11088594
96	0x3dc87386	0.09787659
97	0xba535c18	-0.0008062734
98	0xbdeb194b	-0.114794336
99	0xbd8fbd8c	-0.07018575
100	0x3dcc8f92	0.09988321
101	0xbd6cb4ff	-0.0577898
102	0x3d42e78f	0.047584113
103	0xbda07108	-0.07834059
104	0xbd270820	-0.040779233
105	0x3d85aeae	0.06527458
106	0xbd856522	-0.0651343
107	0xbd99cfde	-0.07510351
108	0xbe20ee29	-0.15715851
109	0xbe59251f	-0.21205567
110	0x3dacc1ef	0.084354274
111	0x3c7ae9c4	0.015314523
112	0x3d9b9b45	0.07597975
113	0xbddec8a8	-0.10878116
114	0x3e25c97b	0.1619014
115	0xbdb6c6a7	-0.08924609
116	0xbdbee1f0	-0.09320438
117	0xbe13b6b9	-0.14425172
118	0xbdbb04e1	-0.0913179
119	0xbcfc680d	-0.030811334
120	0x3d1b7d04	0.03796102
121	0xbd843dae	-0.06457077
122	0x3d55a33b	0.05215762
123	0xbd3f1197	-0.046647634
124	0x3e31da15	0.17368348
125	0x3dcd0fdf	0.10012793
126	0x3d010662	0.031500228
127	0xbe076c12	-0.1322482
128	0x3e270082	0.16308787
129	0x3de7ad2a	0.11312325
130	0xbd62f4c9	-0.055409227
131	0xbe305a64	-0.17221981
132	0x3d44c1a0	0.048036218
133	0xbdbf083d	-0.09327743
134	0xbe3fb8a8	-0.18722785
135	0x3dc03aaf	0.09386193
136	0xbe04089a	-0.12893906
137	0x3dac2fa0	0.08407521
138	0x3e113e02	0.1418381
139	0x3de24dc3	0.11049988
140	0x3e2b4791	0.16726519
141	0xbe1bcdd3	-0.15215234
142	0x3e4a926b	0.19782417
143	0x3ae80a53	0.0017703272
144	0xbd522a15	-0.051309664
145	0xbe3b7d27	-0.1830946
146	0xbd8ad29b	-0.06778451
147	0xbe047718	-0.12936056
148	0xbe154864	-0.14578396
149	0x3dcf2894	0.101151615
150	0x3e1157f2	0.14193705
151	0xbde87864	-0.11351088
152	0x3d0cda44	0.03438784
153	0x3c113964	0.008863781
154	0xbd1b3078	-0.03788802
155	0xbdb3d929	-0.087816544
156	0x3b46efab	0.0030355256
157	0x3de0857e	0.109629616
158	0xbe5e5409	-0.21711744
159	0xbdcc04d1	-0.09961856
160	0x3deec93e	0.11659478
161	0x3d16ccc9	0.036816392
162	0xbd49c0c1	-0.04925609
163	0x3c43e9aa	0.011957565
164	0xbd69933f	-0.05702519
165	0xbe22a128	-0.15881789
166	0x3dd691b4	0.104770094
167	0xbd890095	-0.06689564
168	0x3e09dbf2	0.13462809
169	0x3d7d28b2	0.06180639
170	0x3c1d3e7a	0.009597415
171	0x3da4d9cf	0.08049356
172	0xbdfb951a	-0.12284298
173	0xbe5ae793	-0.21377401
174	0xbe147cc6	-0.14500722
175	0xbda1e4d9	-0.07904977
176	0xbdf8963d	-0.12138031
177	0xbe0d56f7	-0.13802706
178	0x3dc9eb42	0.09859325
179	0xbd905024	-0.070465356
180	0xbe2936d5	-0.16524823
181	0xbe0e6224	-0.13904625
182	0xbdf6d69d	-0.12052653
183	0x3db2d4df	0.08732008
184	0xbe1b61c5	-0.15174015
185	0xbd7c341c	-0.061573133
186	0xbdce0838	-0.10060161
187	0xbd9e17f2	-0.07719411
188	0xbe15cdc4	-0.14629275
189	0xbdaab13c	-0.08334586
190	0x3e11449a	0.14186326
191	0x3da77490	0.081765294
192	0x3e08e14a	0.13367191
193	0xbdde0e9a	-0.10842629
194	0xbe419198	-0.18903196
195	0x3df7d288	0.121007025
196	0x3da44bd8	0.080222785
197	0xbcb52463	-0.022112077
198	0xbdee7035	-0.116424955
199	0xbd98bde2	-0.07458092
200	0x3ee20284	0.44142544
201	0xbea30ae4	-0.31844246
202	0x3ecce0ac	0.4001516
203	0xbe8dc304	-0.27687848
204	0xbd2688fd	-0.040657986
205	0x3ec29de9	0.380111
206	0xbe20b3f2	-0.15693644
207	0xbe095728	-0.13412154
208	0xbdd0239f	-0.10163044
209	0xbddb7850	-0.10716307
210	0x3caf1e77	0.021376831
211	0xbdc5ee68	-0.09664613
212	0xbd06641c	-0.032810315
213	0xbeabbc45	-0.33542076
214	0x3e02893e	0.12747666
215	0xbe2badee	-0.16765568
216	0xbddf6d3a	-0.10909505
217	0xbeb3b41e	-0.35098356
218	0xbe8f35bb	-0.2797068
219	0xbec2d2c9	-0.3805144
220	0x3e4a5139	0.19757546
221	0xbe73572e	-0.23763725
222	0x3eff08a9	0.49811295
223	0xbe8d842d	-0.27639905
224	0x3ec0ed09	0.37680843
225	0x3e18e838	0.14932334
226	0xbe750549	-0.23927797
227	0x3cf3d08c	0.029762529
228	0x3dc5d772	0.096602336
229	0x3e2276bf	0.1586561
230	0xbeba80b3	-0.36426315
231	0xbd52e29d	-0.051485647
232	0x3d9d2c80	0.07674503
233	0x3c253916	0.010084411
234	0xbddcbc00	-0.10778046
235	0x3ee6ad23	0.45053968
236	0xbe5645c8	-0.20925057
237	0x3df9062f	0.121593826
238	0x3d75f70a	0.060050048
239	0x3d17b8c3	0.037041437
240	0x3e114192	0.1418517
241	0xbe186285	-0.14881332
242	0x3db0db23	0.08635547
243	0xbe9940ad	-0.29932156
244	0x3dcd377c	0.100203484
245	0xbdaf6aa3	-0.08565261
246	0xbe9bc3bc	-0.3042277
247	0xbe896be4	-0.26840127
248	0xbe58b2dd	-0.21161981
249	0x3e4a2173	0.19739322
250	0x3e8a02c4	0.26955235
251	0xbeb98478	-0.36233878
252	0x3b60aa93	0.0034281358
253	0xbd18080f	-0.03711706
254	0xbdba7bf0	-0.091056705
255	0xbec9ac24	-0.39389145

fc2.bias f4 [100]
0	0x3e8460d0	0.25855112
1	0x3e47e735	0.19521792
2	0x3e89a2c4	0.26881993
3	0x3e91ef79	0.28503016
4	0x3e8e204c	0.27759016
5	0x3e6d6230	0.23181987
6	0x3ea67b05	0.3251573
7	0xbe3e15b6	-0.1856297
8	0xbd1d6a7f	-0.03843164
9	0xbe9178d3	-0.28412494
10	0x3e71bad1	0.23606421
11	0x3e6b502f	0.22979806
12	0x3e39323f	0.18085574
13	0xbe083b92	-0.13303974
14	0x3e46a648	0.19399369
15	0xbe872b57	-0.26400253
16	0x3e91d268	0.2848084
17	0xbe317f61	-0.17333747
18	0xbe20ea39	-0.15714349
19	0x3e64fc4d	0.2236187
20	0x3e5dc1f6	0.21656021
21	0xbe785efb	-0.24254982
22	0x3e98b8f9	0.29828623
23	0xbe905ba6	-0.28194922
24	0xbe9f9f55	-0.31176248
25	0xbe9f1265	-0.3106872
26	0x3d81090d	0.063005544
27	0x3e7e69f3	0.24845104
28	0x3e45c8df	0.19314907
29	0xbe9f18c5	-0.31073585
30	0x3e7da5e5	0.24770315
31	0xbe8a1701	-0.26970676
32	0x3e594456	0.21217474
33	0x3e8cc05b	0.27490506
34	0xbe6d0452	-0.2314618
35	0x3e6bd0b4	0.23028833
36	0xbe86afac	-0.26305902
37	0x3e7fcf2a	0.2498137
38	0xbe844610	-0.25834703
39	0x3e8e3044	0.277712
40	0xbe80d68c	-0.25163686
41	0xbe4cb343	-0.19990258
42	0xbe9f9c24	-0.31173813
43	0xbe704a59	-0.23465861
44	0x3e4ff083	0.20306592
45	0x3e2580cc	0.16162413
46	0x3e6360a5	0.22204836
47	0xbe5f1480	-0.21785164
48	0x3ea34890	0.31891298
49	0x3e89a22c	0.2688154
50	0x3e7dd5f6	0.24788651
51	0xbe78232c	-0.24232167
52	0xbe3129ad	-0.17301054
53	0xbe8cf505	-0.27530685
54	0x3e95160c	0.29118383
55	0x3e9fe4c3	0.3122922
56	0x3ea5d5c2	0.32389647
57	0xbea8d235	-0.32972875
58	0x3e97bbcc	0.29635465
59	0xbe139e75	-0.14415915
60	0x3e8f46f0	0.2798381
61	0xbe793b18	-0.24338949
62	0x3e85ea0c	0.26155126
63	0x3e8cad70	0.27476072
64	0x3e856664	0.2605468
65	0xbea19088	-0.3155558
66	0xbe1a7120	-0.15082216
67	0x3e6e9dce	0.23302385
68	0xbe9ebdc5	-0.31004158
69	0xbe873241	-0.26405528
70	0x3e85c903	0.26129922
71	0xbe6a1029	-0.22857727
72	0x3e81d869	0.2536042
73	0xbe802ad7	-0.25032684
74	0x3b4111c9	0.0029460064
75	0x3e9bdcf3	0.30442008
76	0xbeabd089	-0.33557537
77	0xbe5a1283	-0.21296124
78	0x3e58d2b2	0.21174124
79	0xbe68e39b	-0.22743075
80	0x3e255400	0.16145325
81	0xbe3b27a1	-0.18276836
82	0xbe0800cb	-0.13281552
83	0xbe663fd7	-0.2248529
84	0xbe8cb21b	-0.27479634
85	0x3e80ff56	0.25194806
86	0xbe33a0f7	-0.17541872
87	0x3d5d9dd4	0.054105595
88	0x3e95f000	0.29284668
89	0xbe67c613	-0.22634153
90	0xbe443f51	-0.19164778
91	0xbe5f762f	-0.21822427
92	0xbe89b7db	-0.26898083
93	0x3e82396a	0.25434428
94	0xbe4ff758	-0.20309198
95	0x3e7c2fe4	0.24627644
96	0xbe9206b2	-0.28520733
97	0xbe74d8a9	-0.23910774
98	0x3e7db937	0.24777685
99	0xbe89efb1	-0.26940683

fc3.weight f4 [1, 100]
0	0x3f6a6a79	0.91568714
1	0x3f7110f4	0.94166493
2	0x3f730bc7	0.94939846
3	0x3f78a4e8	0.97126627
4	0x3f77330c	0.96562266
5	0x3f6caed1	0.9245425
6	0x3f7989af	0.97475713
7	0xbf703c8a	-0.93842375
8	0x3f93e1f0	1.1553326
9	0xbf765e97	-0.9623808
10	0x3f683c90	0.9071741
11	0x3f6e0cb3	0.9298813
12	0x3f6d6ec3	0.92747134
13	0xbf960d2f	-1.1722773
14	0x3f6f5c44	0.9350016
15	0xbf6b1b2f	-0.91838354
16	0x3f76a522	0.9634572
17	0xbf70baef	-0.9403524
18	0xbf7157bd	-0.94274503
19	0x3f6c998e	0.92421806
20	0x3f773f22	0.9658071
21	0xbf6bb046	-0.92065847
22	0x3f75fb37	0.9608645
23	0xbf6feac9	-0.9371763
24	0xbf720c09	-0.94549614
25	0xbf722bb4	-0.94597936
26	0x3f745486	0.9544147
27	0x3f6e554f	0.9309892
28	0x3f727973	0.94716567
29	0xbf7bfaae	-0.9842938
30	0x3f69e6d4	0.9136784
31	0xbf6acca0	-0.9171848
32	0x3f6cfe6a	0.92575705
33	0x3f6fbbc3	0.93645877
34	0xbf6c6999	-0.9234863
35	0x3f6db552	0.928548
36	0xbf72d16b	-0.94850796
37	0x3f7cbcaa	0.9872538
38	0xbf79945b	-0.97492
39	0x3f71eda9	0.94503266
40	0xbf6ef798	-0.9334655
41	0xbf6c6c9d	-0.9235323
42	0xbf77f3e4	-0.9685652
43	0xbf6d78a0	-0.92762184
44	0x3f792768	0.97325754
45	0x3f71eab8	0.9449878
46	0x3f875abc	1.0574565
47	0xbf6ea36c	-0.9321811
48	0x3f74df83	0.9565355
49	0x3f755f1d	0.95848256
50	0x3f7bc799	0.98351437
51	0xbf6cd096	-0.92505777
52	0xbf6e4521	-0.9307423
53	0xbf7c066d	-0.98447305
54	0x3f7355df	0.95052904
55	0x3f7e65c7	0.9937405
56	0x3f74bba7	0.95598835
57	0xbf780587	-0.96883434
58	0x3f73b355	0.95195514
59	0xbf6171d7	-0.8806433
60	0x3f7283eb	0.9473254
61	0xbf6c8cc5	-0.924023
62	0x3f71d230	0.94461346
63	0x3f6b9f56	0.9204
64	0x3f6ce3ae	0.9253491
65	0xbf74cb13	-0.95622367
66	0xbf6cf487	-0.9256062
67	0x3f6cf115	0.9255536
68	0xbf6dbc40	-0.9286537
69	0xbf67c21d	-0.9053057
70	0x3f7d6d74	0.9899514
71	0xbf6ae3fb	-0.9175412
72	0x3f6d8907	0.9278721
73	0xbf6dc1ec	-0.92874026
74	0xbf820053	-1.0156349
75	0x3f7eb6c3	0.9949762
76	0xbf7f371b	-0.9969346
77	0xbf74b742	-0.9559213
78	0x3f734071	0.95020205
79	0xbf6d8f1a	-0.9279648
80	0xbf8aa1d6	-1.0830638
81	0xbf6777d9	-0.9041725
82	0xbf6dadbe	-0.92843235
83	0xbf6dddeb	-0.92916745
84	0xbf6b3a0d	-0.91885453
85	0x3f72146e	0.94562423
86	0xbf692f96	-0.91088235
87	0xbf716ca1	-0.9430638
88	0x3f729b89	0.9476858
89	0xbf7365b9	-0.9507709
90	0xbf6b3c27	-0.9188866
91	0xbf6c685d	-0.92346746
92	0xbf7e73c4	-0.99395394
93	0x3f761d3d	0.96138364
94	0xbf6dbce8	-0.92866373
95	0x3f6e7ebc	0.9316213
96	0xbf71a92a	-0.9439875
97	0xbf9018bd	-1.125755
98	0x3f67b288	0.9050679
99	0xbf7a039a	-0.97661746
