mujoco/gail/save_model/ckpt_1216.pth.tar (torch, 144879 bytes, 16 tensors)

fc1.weight f4 [100, 11]
000000 e6 a5 01 3e d5 d9 7d be 6a 69 9b 3e b9 1e 64 be
       0.12660941 -0.24790128 0.30353862 -0.22277345
000010 6c f3 53 bc 44 5f 6c bc dc b3 98 bd a4 21 f3 3d
       -0.012936454 -0.01442701 -0.074561805 0.11871651
000020 61 ce cd 3e 47 c2 85 3d 8a 44 f4 3b 5d 05 81 3e
       0.40196517 0.06531196 0.0074544596 0.25199404
000030 e2 b3 9d bd ee 0e 4a 3d 5a 6c cd be 8e e1 51 3d
       -0.077003255 0.049330644 -0.40121728 0.051240496
000040 e6 51 0d 3e 42 0b 85 3d 81 24 f9 3d 2f 18 04 3e
       0.13800773 0.06496288 0.12165166 0.1289985
000050 50 dd 3a 3e 24 e0 8c 3e 3e 60 46 3e 35 29 fe bd
       0.18248487 0.27514756 0.19372651 -0.12410203
000060 7f e7 84 be 5e 8f d4 3d db a5 b7 3c f7 ca 11 be
       -0.25957868 0.103789076 0.022417953 -0.14237581
000070 2d d3 0b 3d 8a cf 9d 3e c2 25 32 bc 13 b4 58 bd
       0.03413694 0.30822402 -0.01087326 -0.052906107
000080 80 91 8e 3e 69 00 ce 3e 07 43 d1 be 40 e9 5d 3d
       0.27845383 0.40234688 -0.4087145 0.054177523
000090 ca 36 68 3e 30 ea af 3d ca 58 0e 3c c6 82 40 be
       0.2267715 0.085895896 0.008688161 -0.18799886
0000a0 61 ad 05 be 56 dd 03 be 4e c9 ec 3d f2 14 aa be
       -0.1305442 -0.12877402 0.11561833 -0.33219105
0000b0 25 61 db 3d 51 40 55 3e b8 95 71 3e 10 f6 91 be
       0.10711888 0.20825316 0.2359227 -0.28508043
0000c0 36 a8 de bd ea 0a 09 3e 90 8d 67 be 26 1b 83 3c
       -0.108719274 0.1338307 -0.22612596 0.016004156
0000d0 a8 3b 9e 3e 10 95 80 3d fa 91 8f 3d 07 9d 8e 3e
       0.3090489 0.062784314 0.07010265 0.27854177
0000e0 03 62 49 be 6b ff 35 3d b5 3a 26 3e c1 8b 85 3e
       -0.19666295 0.04443304 0.16233332 0.26083186
0000f0 ca 59 68 3d 92 f7 e9 3d fb 63 4e be c0 7f 0a bd
       0.056726255 0.114241734 -0.20155327 -0.03381324
000100 fe 0b 43 bd 5a e3 b6 3d bc f7 79 3e bb fe ac be
       -0.04761886 0.089300826 0.2441091 -0.33788094
000110 eb 86 2e 3e a7 18 f7 bd 3d fd 66 be ea fc 9e be
       0.17043655 -0.12065249 -0.2255754 -0.31052333
000120 60 a1 cf 3d bc 03 2a 3c 9b 06 99 3d e8 4d 0e be
       0.10138202 0.010376867 0.07471963 -0.13896906
000130 59 e8 80 bd 77 9c 08 3e fb f6 ac 3e b0 d2 cb be
       -0.06294317 0.13340937 0.3378218 -0.3980918
000140 3c e8 00 be 79 f9 8c 3e fa 6c 07 3e 2a e8 3a 3e
       -0.1258859 0.27534083 0.13225165 0.18252626
000150 f2 59 d1 3b 51 49 b7 be 7c b2 ae 3e b9 84 79 3e
       0.006388896 -0.35798123 0.34120548 0.24367036
000160 4e aa f9 3c c4 81 10 3e cf 40 60 be a1 09 da be
       0.030476715 0.14112002 -0.21899723 -0.4258547
000170 19 bb 78 3e b3 53 c1 3e 58 50 bd 3d 1d d1 b6 bc
       0.24290122 0.3775917 0.0924384 -0.02231651
000180 df eb 8a 3e e8 c3 d4 3b ab f7 58 3e 5b 28 7e 3c
       0.2713308 0.0064930804 0.21188228 0.015512551
000190 d4 00 4b 3e b6 1c c1 3d 1e 05 11 bd 2b 9d 87 3e
       0.19824535 0.09429304 -0.03540527 0.26487097
0001a0 04 cd 62 be cc ed 3f 3e 4b 4b b1 3e 9b fd 92 3e
       -0.2214852 0.18743056 0.34627756 0.2870911
0001b0 6f 2a db 3d e3 3b 04 be 73 bb c7 be 82 cc e6 bc
       0.10701453 -0.1291347 -0.390102 -0.028173689
0001c0 1e a9 61 bd ec be 6e be dc 08 c5 bc e5 2c 8a 3e
       -0.055092923 -0.23315018 -0.024052076 0.26987377
0001d0 0f 55 90 be d7 bf 5f 3e 23 12 21 3d e7 67 92 3e
       -0.28189895 0.21850525 0.039323937 0.28594896
0001e0 b6 9e 3d be 31 28 bd bd 19 c0 e7 bc 52 37 88 3d
       -0.18517575 -0.092361815 -0.028289841 0.066511765
0001f0 7d 6d 0e bd 5e f1 ef 3e 74 71 ba 3e 2b c0 98 3c
       -0.034772385 0.46863836 0.36414683 0.01864632
000200 45 71 db bd 3a 94 3b be 89 71 17 be 31 9b 3b 3e
       -0.10714964 -0.18318263 -0.14789404 0.1832092
000210 a7 4d af bc dc 41 51 3e 1a 60 7e bd 01 16 05 3e
       -0.021399332 0.2043528 -0.06210337 0.12996675
000220 c4 57 44 3e 04 49 a8 bd 61 1e 7b bb cf 0a 83 bd
       0.19174105 -0.082170516 -0.0038317668 -0.06398546
000230 7e 60 43 3e 3b 61 03 3b b5 5e 8d 3e 43 b3 72 3d
       0.19079778 0.0020046968 0.27611318 0.05925299
000240 96 b7 a7 3d b3 1b b8 3c 74 ec 89 3e e7 3e f2 bd
       0.08189313 0.022474146 0.26938212 -0.11828404
000250 86 b7 e9 bd 6a 5a 6d 3c 59 cd 5b 3e 60 76 a2 3e
       -0.114119574 0.014486888 0.21465053 0.31730938
000260 62 53 4c be 8c 12 bf 3d be cf 1d be ff 61 68 be
       -0.19953683 0.093297094 -0.15411279 -0.22693633
000270 4a f9 8b 3e 04 6f 9f 3e 27 b5 80 3d a3 32 05 be
       0.2733863 0.31139386 0.06284552 -0.13007598
000280 8f 5d c1 3e 66 61 7a 3e 53 b0 ff 3d 8d 95 a5 bc
       0.37766692 0.24451217 0.12484803 -0.020212913
000290 34 ab 56 3e 0b e7 9a bd 48 64 1a be 47 70 39 3e
       0.20963746 -0.07563599 -0.15077317 0.18109237
0002a0 8d 5d 0f 3e d5 59 83 3e 93 36 37 bc 0b 65 f7 bd
       0.1400053 0.25654474 -0.011182445 -0.12079819
0002b0 33 c0 ab bd 37 a8 56 3e 85 cc 22 3e a9 2e eb bd
       -0.083862685 0.20962606 0.1589833 -0.11483509
0002c0 ba c5 67 3e 29 79 a2 be ef 07 00 3e 47 b9 16 3e
       0.2263402 -0.31733063 0.12503026 0.14719115
0002d0 d3 be 5a 3e f7 0a ba 3e 7d 8f 82 be 60 4c da 3e
       0.21361856 0.3633649 -0.25500098 0.42636395
0002e0 dd 34 a4 3e d4 d4 6c 3e 45 81 a5 3e df 8a 2a 3c
       0.3207158 0.23128062 0.32325187 0.010409086
0002f0 45 55 6f be 2e 0c a7 3c 62 db 16 be 89 7c 23 3c
       -0.23372371 0.02039155 -0.14732125 0.009978422
000300 34 3c 99 be 99 2e cb 3d c6 58 ba 3d 21 f1 a4 bd
       -0.29928744 0.09920997 0.090989634 -0.08053804
000310 74 5c 4f be ec 9d 07 be 20 bb 55 3e 8a 94 61 3e
       -0.20250112 -0.13243836 0.20872164 0.2202932
000320 de 0c 64 3e 87 22 98 bd b5 1e 2e be 72 1a 45 3e
       0.22270533 -0.074284606 -0.17003901 0.1924837
000330 55 64 e0 3c c0 0a cd 3d bd 0a 05 be 55 50 99 be
       0.027391592 0.10011816 -0.12992378 -0.299441
000340 80 e8 d1 3e 3c 61 d4 bd ee 1b a4 3e c0 41 c2 be
       0.40997696 -0.103701085 0.3205256 -0.37940788
000350 8e d8 5f 3d 1d 75 db 3e 85 38 7c be 0f dc 64 be
       0.054649882 0.42862788 -0.24630935 -0.2234957
000360 a9 cb 3d be 92 b3 40 be 7a fb 35 3e 1c 5a 2b be
       -0.18534721 -0.188185 0.17771712 -0.16733593
000370 28 ec 04 be 59 05 92 be 53 1c 9b bb 6b 8f 77 3e
       -0.12980711 -0.28519705 -0.004733601 0.24175803
000380 75 a0 a6 bd 41 0b 5d bc a4 90 cd bd 2f e6 7a bd
       -0.081360735 -0.013491453 -0.10037354 -0.061254676
000390 f4 ff d4 3d 7a a6 35 be e8 6c 8a be 9b 16 7f 3e
       0.10400382 -0.17739287 -0.27036214 0.24910967
0003a0 36 d9 b5 bc e9 34 5b 3e 65 38 65 3e 2a 2a b0 3e
       -0.0221983 0.21406902 0.22384794 0.3440717
0003b0 8d 09 c8 be 31 62 23 bd 7a 69 0c 3b c7 9e 21 bc
       -0.39069787 -0.039888564 0.0021425174 -0.009864516
0003c0 75 c4 00 3e 52 0d 24 bd df 4a 34 3d 0b 5e ce be
       0.12574942 -0.040051766 0.044016715 -0.40306124
0003d0 95 8c 29 3e e1 d2 5f 3e bd 53 b8 3e 72 eb 43 3e
       0.16557534 0.21857788 0.36001387 0.19132784
0003e0 d7 84 d2 bd 3c a1 2d be ae a3 11 be 1c ec c3 3d
       -0.102792434 -0.16956037 -0.14222595 0.09566519
0003f0 ea 8c bc be 9f 6d 48 3e 74 dc 0f 3e 3d 6f 85 bd
       -0.3682626 0.19573067 0.1404894 -0.06515358

fc1.bias f4 [100]
000000 00 61 43 be ed e6 9e be 32 11 3b be c8 62 08 3e
       -0.19079971 -0.31035557 -0.18268278 0.13318932
000010 f5 41 c7 3d f5 b4 15 be 16 7f 6e be 00 53 ce 3d
       0.09729377 -0.14619811 -0.23290667 0.10074425
000020 d0 3c 9d bc 0b 19 b6 be a9 e4 cc 3d ef df 0e 3e
       -0.019194037 -0.3556598 0.10004551 0.13952611
000030 a8 a2 39 be c3 ba ed 3d de fa e0 3c b1 bd af be
       -0.18128455 0.116078876 0.027463373 -0.3432441
000040 46 0e 62 3e a0 c5 81 3e b4 c8 64 be f5 8a b8 3d
       0.22075757 0.25346088 -0.22342187 0.09010879
000050 af 95 26 bb f0 77 96 be 0d ad 4d 3d b2 d2 49 be
       -0.0025418808 -0.2938838 0.050213862 -0.1970928
000060 92 b1 05 3d 0b 9a 02 3e 83 05 ad be 86 45 1c be
       0.032640047 0.12754075 -0.33793268 -0.15260896
000070 77 62 70 3e e8 f7 4f 3e 5d 11 01 be 2a 84 58 3d
       0.23475061 0.20309412 -0.1260428 0.052860416
000080 97 9b 89 3e 28 e5 4c 3e 6e e0 c6 be e2 47 13 3e
       0.26876518 0.20009291 -0.388431 0.1438289
000090 a6 06 3c 3e 9b 10 2c 3e 6a 69 a7 bd d0 47 ab 3d
       0.18361911 0.1680321 -0.08174403 0.083633065
0000a0 3c 86 d4 3d 26 d7 b5 3e b4 a8 97 3d 0f 41 9f be
       0.10377166 0.35515708 0.074052244 -0.31104323
0000b0 ec a9 5f 3d b1 d7 7d bd b6 20 25 be 1d 94 8b be
       0.05460541 -0.061973277 -0.1612576 -0.2726144
0000c0 97 ff 1f 3e fb 5d a4 3e c9 e3 c8 3d f6 d6 98 3e
       0.15624844 0.3210295 0.098090716 0.29851502
0000d0 5d ff 67 be ad 46 4f be c1 c6 e7 3c 08 49 65 3e
       -0.22656007 -0.20241804 0.028293015 0.2239114
0000e0 81 2a bd bc 80 57 9c 3e 13 35 92 3e f0 d1 6c 3e
       -0.023091557 0.30535507 0.28556117 0.2312696
0000f0 6a e8 0b be 7c d0 ba 3e 25 84 49 3e e9 6d dc 3c
       -0.13662878 0.36487186 0.19679315 0.026907878
000100 55 84 e5 bd 33 f7 b4 be 9a bc 6d bd 89 d8 1e be
       -0.11206881 -0.35344848 -0.058041193 -0.15512289
000110 a7 91 e2 bd 75 76 55 3d ce db b9 3e 78 d5 0e be
       -0.11062937 0.052114923 0.3630051 -0.1394862
000120 19 50 46 3e 68 90 18 be 52 10 76 be 7d 89 80 be
       0.19366492 -0.14898837 -0.24029663 -0.25104895
000130 0a cd 81 3e dc ab 20 3e 33 65 9a 3e a0 01 90 3e
       0.25351745 0.15690559 0.30155334 0.2812624
000140 ee 66 c3 be 6b 2f 8f be 78 ac 84 3e 99 94 17 3e
       -0.38164467 -0.27965865 0.25912833 0.1480278
000150 84 65 c7 3e 82 a7 b6 be 80 13 17 be 08 f3 8e 3e
       0.38944638 -0.35674673 -0.14753532 0.27919793
000160 d4 da 83 3e a2 0e bf 3d fc 4a 7a 3e b5 68 e6 3d
       0.2575289 0.09328963 0.24442667 0.1125044
000170 f0 ec e8 bd cc a9 a6 3e 07 8f 71 be bc d1 62 3e
       -0.11373317 0.3255142 -0.23589717 0.2215032
000180 2b 2d 5f 3e 76 8e a2 3d d5 7f 97 3e c5 c6 94 3e
       0.21794574 0.079373285 0.29589716 0.290579

fc2.weight f4 [100, 100]
000000 b3 8a bb bc 8e 12 8f bc 39 99 2a bc 2b 05 15 3d
       -0.022893285 -0.017464902 -0.010412508 0.03638188
000010 eb f5 97 3d 5f 99 c8 bd a6 b5 65 bd c3 67 28 3d
       0.07419952 -0.09794878 -0.056081437 0.04111458
000020 9b 43 04 3d c7 0f d0 bd 48 92 72 3d 42 88 07 bd
       0.032291036 -0.10159259 0.059221536 -0.03308893
000030 6e 4c 38 bc b9 f1 28 3e b6 c9 d5 3d f4 9e 25 3d
       -0.011248691 0.1649846 0.10438864 0.040434793
000040 cc 64 05 bd d5 45 d1 3c da 51 53 bd 68 a7 d7 3d
       -0.03256683 0.025545994 -0.05159173 0.10529977
000050 1f 98 10 bd 1b 45 30 3d 42 a2 0c bd c3 38 a6 3c
       -0.035301324 0.043034654 -0.03433443 0.020290738
000060 51 fb bc bd 94 70 f5 3a 20 a3 7d bd 2e 88 6c bd
       -0.09227622 0.0018725567 -0.061923146 -0.05774706
000070 a4 46 37 bd 97 b8 b9 3c 5b 58 a6 bd fc 63 fd bc
       -0.044745103 0.022671027 -0.08122321 -0.030931465
000080 84 a6 2d 3e c1 3d 17 bd 6f 5a 68 3d 4b 7d c0 3d
       0.16958052 -0.036924127 0.05672687 0.09398898
000090 90 5f e9 bd d4 d3 19 3e 36 a9 ca bc db 2b 88 bd
       -0.1139518 0.15022212 -0.02473889 -0.0664899
0000a0 1f af 99 3d 5f 05 fc bc 20 dc e5 3d a8 f1 b2 3c
       0.07504105 -0.03076428 0.11223626 0.021843746
0000b0 fe 68 e9 3d fe 0e a1 3d 3f 82 08 bd 86 de 8b 3b
       0.11396979 0.07864188 -0.033327337 0.00426847
0000c0 e4 23 cb bd 4c 3a 55 bd a7 d9 2b bd b4 cf a6 bd
       -0.09918955 -0.05205755 -0.041955616 -0.08145085
0000d0 fd 92 9b 3d 55 94 75 3b d6 6f 92 bd 2c 02 65 bd
       0.07596395 0.0037472446 -0.07150237 -0.055910274
0000e0 a1 63 b2 3c 48 96 2f 3e 63 5d a3 3d 79 34 7d 3d
       0.021776022 0.17147171 0.079767965 0.06181762
0000f0 69 5c c6 3d f4 9b 4e bd 74 61 ba 3d 85 a8 2c 3d
       0.096855946 -0.050441697 0.09100619 0.0421529
000100 e2 ad b1 3c 3c fc fc bc af c9 b0 3d ce b1 a3 bc
       0.02168936 -0.030881993 0.08632218 -0.019982245
000110 87 35 14 3d 7d 50 b0 ba 75 2b 5a bb 29 f1 b7 bd
       0.03618386 -0.0013451722 -0.0033290063 -0.089815445
000120 01 ce 93 3d 48 9d 3d 3c 3b 1e ac 3b b5 27 29 be
       0.072170265 0.011573143 0.005252627 -0.16519053
000130 6c e4 cf bd 59 c1 04 3e a2 1a 58 3c 2c 66 6e 3d
       -0.1015099 0.12964381 0.0131899435 0.058202907
000140 31 c9 c0 bc 1b b1 57 bd db 0f ea bb a2 5f ae 3d
       -0.023533436 -0.052659135 -0.0071430034 0.08514334
000150 2d 19 74 3d 62 ee 2e bd 84 ea 18 3e 29 10 aa 3b
       0.059594322 -0.04270781 0.1493321 0.0051899147
000160 17 2d ea bd 0b 31 b7 3d 97 df 8d 3d 4b e0 39 ba
       -0.114343815 0.08944901 0.06927412 -0.0007090612
000170 25 5a 0d bd 2c 84 93 bd 19 35 b5 3a ea 7e 16 3d
       -0.034509797 -0.07202944 0.0013825028 0.03674213
000180 1e b3 c0 3d c7 fa a0 bd ce d2 22 3d d7 fe 4b 3d
       0.09409164 -0.07860332 0.03975182 0.04980358
000190 e3 5a f0 bd 19 25 b9 bd 2d 3c 4c 3d 61 db 8e 3d
       -0.11736085 -0.09040279 0.049862076 0.06975437
0001a0 f6 51 74 bd 10 cb 7e bd 35 ad b0 3d 35 41 1b 3e
       -0.059648477 -0.062205374 0.086267866 0.15161593
0001b0 34 f5 da 3c 6d 26 f0 bc fa e4 09 3e 6d 46 40 bd
       0.02672825 -0.029315198 0.13466254 -0.046942163
0001c0 1c 1a 88 bd f0 95 c7 3b 41 9d 42 3d b4 4b 4f 3d
       -0.06645605 0.006090872 0.04751325 0.050609306
0001d0 05 62 27 bd 27 3c 08 3e 33 2f 52 bd e5 bc 58 bd
       -0.040864963 0.13304196 -0.051314544 -0.05291452
0001e0 9d a5 54 bd f9 b7 b6 bc 10 03 c9 3d a8 43 8d bd
       -0.051915754 -0.022304522 0.09815037 -0.0689767
0001f0 60 89 27 be 2b d6 bf 3d fe b0 7d bd 86 ff 69 bd
       -0.16360998 0.09367021 -0.06193637 -0.05712845
000200 71 76 15 3c 61 18 3b 3e 32 34 8f bd 54 86 97 bd
       0.009122477 0.18271019 -0.06992377 -0.07398668
000210 c8 b1 e6 3c d9 c7 2d 3d bc 08 87 3c 4c 27 4a bd
       0.028160945 0.042426918 0.016483657 -0.049353883
000220 79 99 92 bd 5b d9 73 3e 2b 3d 79 3d 4f 09 81 bb
       -0.07158179 0.23813383 0.06084935 -0.0039378772
000230 e0 35 d3 3c 02 f5 5c be de 35 cd bd fb f2 1a 3e
       0.025782526 -0.21577838 -0.1002004 0.15131752
000240 f3 08 cd bd 62 bc 35 be be 45 c7 b9 ef c7 16 bd
       -0.100114726 -0.17747644 -0.000380082 -0.036811765
000250 18 b9 62 bd 53 a2 f8 3c 02 9e 89 bd 84 d3 08 3c
       -0.0553523 0.03035084 -0.06719591 0.0083512105
000260 28 c9 a7 3d ea 7d 18 bd 8f 5a 81 3d e8 8d 3e 3d
       0.081926644 -0.037229456 0.06316101 0.04652205
000270 46 ac e8 3d c2 bf d6 bb f7 68 00 3d ee d0 c2 3d
       0.113609836 -0.006553621 0.031350102 0.095125064
000280 a3 a2 7a 3d 5c 80 9c bc 31 73 eb bc c8 c0 e3 3d
       0.06119026 -0.019104175 -0.028741451 0.111207545
000290 93 d0 7f bd 96 fc 01 be 86 79 87 bd 88 0a 0e 3e
       -0.06245477 -0.1269401 -0.06614976 0.13871205
0002a0 75 b5 df 3d f9 11 01 3e 44 57 e4 3d 83 67 a4 bc
       0.10923282 0.12604512 0.11149457 -0.02006889
0002b0 8b 42 b3 3c 75 97 14 3a 78 31 69 bd ad da 2f be
       0.021882316 0.0005668321 -0.056931943 -0.17173262
0002c0 ba 4d 97 bc c8 36 47 bc 72 ce 89 3c 84 a9 02 3e
       -0.01846968 -0.012159057 0.016822074 0.12759978
0002d0 92 3e 23 bd d2 ff c5 bd a1 16 c8 bd 3d 1a 18 be
       -0.039854594 -0.096679345 -0.09769941 -0.14853759
0002e0 44 16 86 3d bb 23 3b 3d 74 3e 06 3e 82 25 21 bc
       0.065472156 0.045688372 0.13109761 -0.009835603
0002f0 5f f1 bf bd 0e 92 33 3e 9b 52 0b 3e fc 7b 21 bd
       -0.0937221 0.17536184 0.1360573 -0.03942488
000300 a1 48 ae bd be 1e c8 3d 60 80 05 bd 5a e3 b5 3c
       -0.085099466 0.097714886 -0.03259313 0.022203136
000310 80 de 71 bb 8d dd d9 3c d4 2f 9d 3d 34 04 eb bd
       -0.0036906302 0.026594901 0.07675138 -0.11475411
000320 67 83 1d 3b 6f 95 48 bd 2b fc 64 3e 73 62 a2 3d
       0.002403462 -0.048970636 0.2236182 0.07928934
000330 33 a5 05 be a4 91 23 3d b1 46 e6 3d 18 85 69 bd
       -0.130513 0.039933816 0.11243952 -0.057011694
000340 6f 0f 80 bc 33 b9 4e 3d 71 41 2d be d6 a7 be 3d
       -0.01563236 0.05046959 -0.16919495 0.09309356
000350 f4 42 f0 3d 9e f6 a8 3d 20 3f 03 3e 83 04 bb bd
       0.1173152 0.082501635 0.12817049 -0.0913172
000360 26 18 e0 3d fa 3c 9d 3d fe 80 f7 3c e6 6a 96 3d
       0.10942106 0.07677646 0.030212875 0.07344608
000370 bc 8c 12 3e fc 6c d2 3b 7d 2f 23 3d 1a 59 48 3d
       0.14311498 0.0064216834 0.03984021 0.0489131
000380 29 52 02 bd cf 1e 6b 3d 1e d4 d2 bd 70 52 29 bc
       -0.031816635 0.05740243 -0.102943644 -0.010334596
000390 5b 33 b1 bd fd 86 48 3e 33 e2 e0 bd 33 70 bb 3d
       -0.086523734 0.19582744 -0.10980644 0.0915226
0003a0 fd ad ae bc b6 ce 67 be f7 dd cf 3d 6c 43 b4 3d
       -0.021323198 -0.22637448 0.10149758 0.08801922
0003b0 81 08 17 be 57 fb 4c 3d c9 fa a3 bd 2c 2c ba bd
       -0.14749338 0.050044384 -0.08006818 -0.09090456
0003c0 3f c1 c0 bd 4e c8 e5 bd f9 6c ec bd dd 70 cd 3d
       -0.09411859 -0.11219846 -0.115442224 0.100312926
0003d0 59 39 9f 3d 9a 85 1f 3e 60 c0 b6 bc 4b 50 1a bd
       0.0777461 0.15578309 -0.022308528 -0.03767423
0003e0 af 3d 32 3c 1d 07 dc bd 02 8e 93 bc 1d 2f 18 be
       0.010878964 -0.10743544 -0.01801205 -0.14861722
0003f0 d3 12 0c 3d f2 39 77 3d 28 19 26 bd a7 fa 9e 3b
       0.03419764 0.060357995 -0.040551335 0.0048516574

fc2.bias f4 [100]
000000 08 1a 23 3c 6e a3 1a 3d 68 d6 b7 bd 95 10 c1 bd
       0.009954937 0.037753515 -0.089764416 -0.09426991
000010 57 b0 f4 3c 84 02 e1 bc 63 fe 91 3e 4f ed 48 bd
       0.029869242 -0.02746702 0.28514394 -0.04905444
000020 c6 d6 31 bc 4b c1 43 be c3 ae d6 3c fd f0 4b 3e
       -0.010854429 -0.19116704 0.02620638 0.19916148
000030 38 ea ab bd 36 e2 cf bd 10 a0 83 bd 70 05 61 bd
       -0.08394283 -0.10150568 -0.06427014 -0.054936826
000040 64 8a 1a be 4d e1 0c 3e f8 02 4e bd 7e 98 81 3d
       -0.15091854 0.1375782 -0.0502958 0.06327914
000050 46 25 1c 3d b8 ed 8c 3d 07 7a 42 bd ae f2 3a 3d
       0.038121484 0.06881279 -0.047479656 0.045641594
000060 10 f3 64 bd 91 fe b0 3d 9b 68 67 bd 76 17 95 3c
       -0.055895865 0.08642305 -0.056496244 0.018199664
000070 3c 6a 1b be 8e d6 cc 3c c2 13 bc bc 90 9b 39 bc
       -0.15177244 0.025004651 -0.02295864 -0.011328593
000080 95 21 78 bd fe 7f e8 3d 63 47 a6 3c a3 d3 81 3c
       -0.0605789 0.113525376 0.020297712 0.015847987
000090 85 ac 89 39 6a 71 26 be 4a 98 32 be 3f 73 8f bd
       0.00026259213 -0.16254202 -0.17440906 -0.07004403
0000a0 5e a5 5e 3d cf 80 c3 3d 1b 0a b0 bc 83 12 33 bd
       0.054356925 0.09546053 -0.021489194 -0.043718826
0000b0 2c 6e 6a 3d 6b 44 cd bd 88 0b 94 bd 9c 11 84 be
       0.057233974 -0.10022815 -0.07228762 -0.25794685
0000c0 ef eb 82 3c 66 51 b7 3d 4d c4 8d bd a4 50 3e be
       0.015981643 0.089510724 -0.06922207 -0.1858545
0000d0 89 71 24 3e ad 99 86 bd 46 7f 2b 3d 86 4c 06 3e
       0.16058935 -0.0657228 0.041869424 0.13115129
0000e0 5b be 8d bd b9 7a 88 bd 00 a0 b8 ba 72 ff d6 bb
       -0.06921073 -0.066640325 -0.001408577 -0.006561213
0000f0 de f7 4d bd ed 5b 71 3b 65 22 20 be 6a aa 28 3c
       -0.050285213 0.0036828474 -0.1563812 0.010294536
000100 4d a8 90 bd ab d8 8f 3d 53 35 48 bc 78 b0 3e bd
       -0.07063351 0.07023748 -0.012219745 -0.046555012
000110 c0 2d 2f bd a1 ea e6 3a a9 74 d6 3c ee 06 c5 bc
       -0.04276824 0.0017617532 0.026178675 -0.024051156
000120 e2 e2 04 3e 27 5e f2 3d 32 14 9f bd c9 9f 14 3e
       0.12977174 0.118343644 -0.07767524 0.14514078
000130 e4 e8 81 bd ea 6d 41 bd 50 90 b2 bd fb 87 75 bb
       -0.063432485 -0.047223963 -0.08718932 -0.0037465084
000140 d4 50 39 3c da b7 49 bd c0 d2 b6 bd f2 69 82 3d
       0.011310775 -0.0492476 -0.08926916 0.06367864
000150 b0 67 d9 3d ea 22 fa bc 7a 20 89 3c 36 40 a7 bc
       0.1061548 -0.030534226 0.016739119 -0.02041636
000160 68 90 1d 3e 69 1b 30 3d 23 16 43 ba 06 b3 0b bd
       0.15387118 0.04299489 -0.00074419583 -0.034106277
000170 34 d2 a2 3c 5e 60 2d bd af a7 ca bc 10 7e 61 3e
       0.019875623 -0.04232823 -0.02473816 0.22020745
000180 7a 8e 61 3d cb a2 11 3d e9 6e 95 bd 7d 55 0a be
       0.055067517 0.035555642 -0.07296545 -0.13509174

fc3.weight f4 [3, 100]
000000 45 2e 21 3d 29 aa 92 3d b4 ed 3e 3d c8 46 30 bd
       0.039350767 0.07161362 0.04661341 -0.043036252
000010 e1 6b 9c 3b c0 a2 24 3d 6d 3f 08 3e 8a 1a 27 be
       0.0047736024 0.040194273 0.13305445 -0.16318718
000020 f0 6f c5 bc f7 6f 9e bd c3 60 1d bc a4 18 d3 3c
       -0.024101228 -0.07736199 -0.009605589 0.025768586
000030 8a 9a 5a bd 89 c0 6b bd e3 0f 85 3c 52 c0 29 bd
       -0.053370036 -0.057556663 0.016242927 -0.041443177
000040 99 e9 02 be b7 45 20 3d 3b 22 75 3a 81 c7 81 3d
       -0.12784423 0.039128985 0.0009351109 0.063368805
000050 73 8b 81 3d 99 83 e0 3c b4 da 6a bd 5a 29 6e 3c
       0.06325426 0.0274065 -0.057337478 0.014536226
000060 b1 54 b4 bc 13 c8 0a bd 69 a2 a5 bb be 63 b3 bc
       -0.02201304 -0.033882212 -0.005054761 -0.021898147
000070 61 d0 37 bd 47 f3 1e 3d 6c eb ff bd 1e 6c cd 3c
       -0.04487646 0.038806226 -0.12496075 0.025075968
000080 a9 f3 38 3d dc 94 e3 3c 0a 60 73 bc cc 33 68 bc
       0.045154247 0.027780943 -0.01485444 -0.014172506
000090 41 ce 20 3d 20 7f b0 bd da 93 90 bd dd bd 56 3d
       0.0392592 -0.08617997 -0.070594504 0.05242716
0000a0 24 9b e2 bd 28 da 83 bc 39 fd 8d bc f4 3b 00 be
       -0.11064747 -0.016095236 -0.01733266 -0.1252287
0000b0 13 92 41 bc 1a da 28 bc 3e f1 87 bd c6 b5 9d bc
       -0.011814612 -0.010305906 -0.0663781 -0.019251715
0000c0 f2 fa 3f bd ea f5 b5 3d 13 d8 32 bd c0 06 1e 3d
       -0.04687018 0.08884795 -0.043663096 0.038580656
0000d0 18 01 76 3c 85 91 0a bd b7 27 04 bd 28 56 a2 3d
       0.015014909 -0.033830184 -0.032264438 0.07926589
0000e0 d0 f7 8f 3d 39 38 77 bd 18 49 82 3d d7 74 ed 3c
       0.07029688 -0.060356352 0.06361598 0.028986378
0000f0 5f 8f cb b9 c0 4a cc ba 1c 57 fe bd 07 e0 f2 bb
       -0.00038825997 -0.0015586242 -0.124189585 -0.00741196
000100 47 05 02 3c 7b 96 ae 3c 18 10 a6 3b f5 04 46 bc
       0.0079358285 0.021311989 0.0050678365 -0.012086143
000110 33 bb 60 3c 9e 0b 0e bd b2 21 e8 3c 37 0e cf 3c
       0.013716507 -0.034679048 0.02833638 0.025275333
000120 19 e0 7c bd be 87 60 3d 05 49 42 3d c4 b7 83 3d
       -0.061737154 0.054816954 0.047432918 0.06431535
000130 82 a4 63 3d 07 db a6 bc 7f bf a9 bd 83 71 10 bd
       0.05557681 -0.020368112 -0.08288478 -0.035264503
000140 8f 7a 47 3c 7a 62 b9 3c 73 26 69 3c 88 ef b9 bd
       0.012175216 0.022629965 0.014230358 -0.0907889
000150 03 d8 af bc d6 3a 29 be 34 d9 14 bb 68 c6 ae 3b
       -0.021465307 -0.1652635 -0.002271247 0.0053337105
000160 63 fe 0a bd 29 d2 3b bc 7d 64 b5 3d 96 c7 85 bb
       -0.03393401 -0.01146368 0.08857057 -0.0040826304
000170 d1 94 d0 bb 34 44 85 3d 37 05 4c bd fb 8c d3 3d
       -0.0063653965 0.06507149 -0.04980966 0.10329624
000180 b1 85 e1 3d 9b d6 a5 3d df b0 9b 3c c1 21 fd 3c
       0.11011828 0.08097573 0.019005237 0.030899884
000190 f9 5d ec bb 7a d2 c0 bc 6b d1 41 bd c8 c4 3c 3c
       -0.007213351 -0.023537863 -0.047318857 0.011521526
0001a0 2c d5 da 3c 6d 14 f5 bc ce ab fa 3c ce f2 8c 3d
       0.026712976 -0.029916966 0.030599501 0.06882249
0001b0 cf 57 d4 3c 7d 84 5f 3b df 28 2b 3d b1 f1 9e 3d
       0.025920777 0.0034106069 0.041787025 0.07760943
0001c0 09 79 66 3d 25 89 c5 bd dd d1 0f bd ae 4f ba bd
       0.056267772 -0.09645299 -0.03511225 -0.09097229
0001d0 73 8f 8e 3d 7a 56 1a 3e 9a eb bf bb bc 9e cb 3d
       0.069609545 0.1507205 -0.0058569433 0.099423856
0001e0 a8 6a 7b bd da d0 ea 3d c3 34 cc bd 3b e9 13 3c
       -0.061381012 0.114656165 -0.09971001 0.009027774
0001f0 8a b1 5f bd f8 39 b4 bd 52 55 02 3d b3 71 da bc
       -0.054612674 -0.08800119 0.03181965 -0.026665544
000200 3a e4 9c bd 3f 1a e3 3c e7 e8 5e 3e 9f f6 8f 3d
       -0.07660718 0.027722476 0.21768533 0.07029461
000210 05 a6 be bd 54 45 0a bd 95 36 87 ba f9 ed 15 3b
       -0.093090095 -0.033757523 -0.0010315949 0.0022877438
000220 40 cb 82 bd 38 83 d7 bd 98 a3 69 bd 05 5e 43 bd
       -0.06386423 -0.10523075 -0.05704078 -0.047697086
000230 14 da 9c 3c da 7a 4c bc 93 89 25 bc 1b 3a e1 bc
       0.019146957 -0.012480462 -0.010103601 -0.027493527
000240 cb 75 a0 bd d2 3f 7a bc f4 3c 8a bd f4 59 77 bd
       -0.07834967 -0.015274005 -0.06749907 -0.06038852
000250 3a 6f f3 3c cf e3 62 bc 90 06 b8 bd b2 c0 3a 3d
       0.029716123 -0.013848259 -0.08985627 0.045593925
000260 23 cd 8b 3d 83 5b 91 bd 29 35 2e 3d 0c 42 1f bd
       0.06826236 -0.070975326 0.042531166 -0.038881347
000270 cd 65 04 bd da 45 3d bc 12 69 29 bd e1 f2 9b 3c
       -0.032323647 -0.011552298 -0.04135997 0.019036712
000280 11 17 c5 3c 36 f5 9d bc ce 3e 3c bd b5 a7 8d 3a
       0.02405885 -0.019281965 -0.045958333 0.0010807427
000290 48 6d 3f 3c 9d 73 99 3d 49 0c 97 bd 27 a0 94 3c
       0.0116837695 0.074927546 -0.0737539 0.018142773
0002a0 fe 46 bf 3b af bb 1a 3d 47 b9 7a 3d a0 51 22 bd
       0.0058373204 0.037776645 0.06121185 -0.039628625
0002b0 2c d2 e0 3d 42 09 84 bc 0b a6 41 bd 22 7a 43 3d
       0.10977587 -0.016117696 -0.04727749 0.047723897
0002c0 c6 9e e4 3d 93 6a 12 bd 47 6e 23 3d 56 64 2d 3e
       0.11163096 -0.03574617 0.03990009 0.16932806
0002d0 7e 18 e0 bb b6 7f 9b bc 48 ce 56 bd ae e3 a6 bd
       -0.006838857 -0.018981796 -0.05244282 -0.08148895
0002e0 e1 78 63 3a 59 c1 22 3d d7 b7 0b bd ef c4 b8 bc
       0.0008677375 0.039735172 -0.03411087 -0.022554843
0002f0 1f 05 05 3e bb c5 53 bd 2a 3d 42 bd e2 6b 3e 3c
       0.12990235 -0.051702242 -0.04742161 0.011622401
000300 b8 32 b8 bc 3c cd d6 bc 90 d7 e2 3d 17 ec 20 3c
       -0.022485122 -0.02622091 0.110762715 0.009821913
000310 21 fc e0 3d a5 3b 89 bc e7 21 51 bd 03 59 f6 3d
       0.1098559 -0.016752074 -0.051057722 0.120286964
000320 65 f8 42 bb 53 3f 0f bd 3e 25 71 3d df 15 a0 bc
       -0.0029750105 -0.0349725 0.058873408 -0.019541679
000330 7d 3f 6d 3d ff 22 0e 3d 3e d3 e8 bd 9c 05 72 bd
       0.057921875 0.034701344 -0.11368416 -0.05908738
000340 b6 f2 2b 3b d3 d0 81 bc ad 16 bf 3c 50 77 95 3d
       0.0026237196 -0.015846645 0.023326242 0.07298148
000350 bc ac 16 3c 0b ed b9 bb ae 98 81 bd 59 18 d6 3d
       0.0091964565 -0.0056740097 -0.063279495 0.10453863
000360 fc 99 a3 3d eb 4f dc 3c df ed e4 3b e2 db f6 bc
       0.079883546 0.026893577 0.0069863643 -0.030134145
000370 fa 6a be bd 5e 98 2f 3e 24 fa 22 bd 76 98 89 3c
       -0.09297748 0.17147967 -0.039789334 0.016796332
000380 ce 32 aa bd cf fe 3a 3d 80 22 dc bd a5 c4 86 ba
       -0.083104715 0.04565316 -0.10748768 -0.0010281993
000390 f4 1e 48 3c 1f 1d ff bc 3a b7 01 be 50 a0 7b bd
       0.012214411 -0.031141816 -0.12667552 -0.061432183
0003a0 cd c8 bc 3d 67 3e f7 3b 2a 6e 74 bc 7c 18 fe 3c
       0.09217987 0.0075452807 -0.014918843 0.031017534
0003b0 80 d3 42 bd 64 11 7d bd dd 3b 01 3d cb cb a9 3d
       -0.047564983 -0.061784163 0.03155123 0.082908235
0003c0 f2 dc ca 3d 6e 15 c6 3c f4 b6 1b bd b0 a0 78 3d
       0.09905423 0.02418014 -0.038016275 0.06070012
0003d0 c2 87 8a 3d 0f c8 45 3d d6 5b 27 bd ae 8e d5 3d
       0.06764175 0.048286494 -0.040859066 0.104276046
0003e0 ea fe 8d 3d bf 41 90 3c 1a 21 3a bd 40 65 f0 3d
       0.069333866 0.017609475 -0.045441724 0.11738062
0003f0 c4 12 c5 3d 7a 08 24 3c 55 4f 6f bd c2 fb 4e 3b
       0.0962272 0.010011787 -0.058425266 0.0031583165

fc3.bias f4 [3]
000000 6b a3 86 3d 08 4c 6e 3d 1e 2e 02 3c
       0.06574138 0.058177978 0.0079455655

fc1.weight f4 [100, 11]
000000 ce d5 62 be cb d5 37 3e 59 00 db 3d a8 a9 74 be
       -0.22151873 0.1795265 0.10693426 -0.23892844
000010 c3 ef 8b 3c 59 ba 06 3e 98 93 e1 3c 60 3d d5 3d
       0.0170821 0.13157023 0.027536198 0.10412097
000020 c3 94 18 3d 04 92 1c 3d d4 76 ea 3c be 17 ff bc
       0.037251245 0.03822519 0.028621115 -0.03113925
000030 fb ef 44 be b1 2d 73 3e 24 92 5a 3d b0 0e b0 bb
       -0.1923217 0.23747899 0.053362027 -0.0053728446
000040 56 8a 42 be a6 48 e7 bd 11 8c aa 3a 55 41 c4 bb
       -0.18998083 -0.112931535 0.0013011714 -0.0059892335
000050 21 e2 f6 3d d3 fb 44 3d f5 11 ea bd d8 25 19 bb
       0.120548494 0.04809172 -0.11429206 -0.0023368504
000060 33 a8 3f be 9a d6 35 be 1e f6 d5 3d 77 ee 1d 3e
       -0.18716507 -0.17757645 0.10447334 0.15422998
000070 78 7f a1 bd c9 55 3b 3e 0a 7b d3 bd 68 13 9d bd
       -0.07885641 0.18294443 -0.10326202 -0.07669717
000080 52 15 4c 3d 0d 11 76 3d f2 63 9b be 4f 7e 43 3e
       0.04982502 0.060074855 -0.3034969 0.19091152
000090 52 6f c5 bb ac 78 58 bc be 1a c1 bd 84 71 0c 3e
       -0.0060252333 -0.013212364 -0.09428929 0.13715178
0000a0 d6 ac 2c 3e 52 df 3b be 2d 8c ac 3d 6d fc 8d bd
       0.16862807 -0.18346909 0.08425174 -0.06932912
0000b0 31 8e 1e be 82 76 8f 3d c8 12 78 3c 27 9a 94 be
       -0.15483929 0.070050254 0.015141197 -0.2902386
0000c0 10 00 3d be 65 10 e6 3d 18 4e 49 bd 11 a1 7e 3d
       -0.18457055 0.11233596 -0.04914674 0.062165324
0000d0 cf 30 8c bd b1 f5 a2 bd 14 45 26 bd eb 60 6f be
       -0.06845247 -0.07957018 -0.04059322 -0.23376815
0000e0 f3 da 23 3e a2 08 76 3d 14 52 22 be 24 cb 1a be
       0.16001491 0.060066827 -0.15851623 -0.15116554
0000f0 e8 83 6e 3e 8d 0f 96 bd 31 53 c1 3d 3d a2 5e 3d
       0.23292506 -0.07327185 0.094396956 0.05435394
000100 e4 bc 11 be a7 00 dc bc 4b 61 30 be b4 3b 24 3d
       -0.14232212 -0.02685578 -0.17224614 0.040096
000110 f7 6f 15 3e 1c 20 34 3e a3 ef 13 be d6 b4 ba bd
       0.14593492 0.17590374 -0.14446883 -0.09116523
000120 74 89 03 3e 69 3c a3 bd f1 14 8b 3d b8 47 08 3e
       0.12845403 -0.07970507 0.06791104 0.13308609
000130 8b 59 13 bc 31 bd 92 3d 59 89 20 3e 3a a1 c0 bd
       -0.008993517 0.07164992 0.15677394 -0.094057515
000140 bb 55 6a be 13 55 cc bd 5d c4 ab 3d 4b fa 01 be
       -0.22884266 -0.09977164 0.08387063 -0.12693135
000150 9a 61 21 be 0a ae 4c 3e 59 fe 28 be 87 bd 32 3e
       -0.15759888 0.19988266 -0.16503276 0.17455111
000160 37 c8 45 be 8d 9b f8 bd 12 d0 4f be 21 08 74 3e
       -0.19314657 -0.12139044 -0.20294216 0.23831226
000170 5e bf c3 3d 65 7d 64 be a2 22 ae 3d eb 31 93 3e
       0.09557985 -0.22313459 0.085026994 0.28749022
000180 10 7f 6e be e1 e1 18 bd c0 b2 4a 3d f8 65 f3 bc
       -0.23290658 -0.03732479 0.049486876 -0.029711708
000190 be b0 77 3e 8e cb 04 be a5 14 2d be 36 fc fe bc
       0.24188516 -0.12968275 -0.16902407 -0.031126123
0001a0 be 5d 0d 3e 1e 53 7c 3e 07 bc 63 3e b9 b6 1e be
       0.13805291 0.24641082 0.22239695 -0.1549939
0001b0 7f 75 dd bd 1b c4 a0 3d 20 a7 26 bd 74 e2 44 be
       -0.10813426 0.07849904 -0.040686727 -0.1922701
0001c0 0f 9b 8a 3d f6 5f 46 3e b8 4e 2f 3e 30 b5 0e 3d
       0.06767856 0.19372544 0.17119873 0.034840763
0001d0 c5 b7 08 bd b9 3f c7 bd 48 e5 6a bd 55 dc 04 3e
       -0.03337838 -0.09728951 -0.057347566 0.12974675
0001e0 42 71 84 3c 54 08 64 3d 45 6a 30 bd cf 88 1c 3e
       0.016167287 0.055672005 -0.043070097 0.15286563
0001f0 09 28 fe bd cf 94 8d 3e 5d 85 9f 3d 5b a1 55 3d
       -0.1240998 0.27652594 0.07789109 0.052155834
000200 62 db 33 be bc ec 7c 3e eb 26 51 3e 08 34 56 be
       -0.17564157 0.24699682 0.20425002 -0.20918286
000210 e9 35 cd 3d fa f5 24 3e a0 6a 4f 3e fe ac bc 3c
       0.10020048 0.16109458 0.20255518 0.023031708
000220 22 d6 0e 3d 68 08 ff bc 5c cd e6 3d 1f 15 d0 bd
       0.03487218 -0.031131938 0.11269638 -0.101602785
000230 29 b6 39 3e fa 40 bb 3d 6e 03 a2 3d 2b 21 40 3e
       0.18135895 0.09143253 0.079108104 0.18762653
000240 fd 89 4c bd fe 3c bb 3d 5a 3d 17 3e ee 28 7c 3d
       -0.049936283 0.09142493 0.14769498 0.06156247
000250 15 fb e6 3d 82 12 c7 3d 2c fc 61 3b dc 20 2d 3e
       0.11278359 0.09720327 0.0034482582 0.16907066
000260 69 2b a0 3d dd 52 28 3e 19 76 39 3d f3 62 4b be
       0.0782078 0.1643786 0.045278642 -0.19861965
000270 5d 9e 4e 3e b4 50 32 3e 45 65 82 3d 5b a5 61 bd
       0.20177598 0.17413598 0.06366972 -0.055089336
000280 4c 94 d7 bd b2 a2 6c be a6 77 9d bd d6 42 0a be
       -0.10526332 -0.23108938 -0.07688837 -0.13502058
000290 39 0c fd 3c 0a 90 e5 3d 04 9a 9f be 98 07 45 3e
       0.030889617 0.11209114 -0.31172192 0.19241178
0002a0 5b c9 20 be fd 78 77 be 06 f9 e8 bc 16 7c 45 3e
       -0.15701811 -0.24167247 -0.028439056 0.19285616
0002b0 4f 8e d1 3d 8f e1 2d be a0 8e 0b be f6 ca 95 bd
       0.10232221 -0.16980575 -0.13628626 -0.07314102
0002c0 42 eb 21 be 9e 88 f3 bd 0d f4 50 3e 4a e3 66 be
       -0.158124 -0.11891292 0.20405598 -0.22547641
0002d0 80 52 38 be 49 39 2e bd 38 6d 2d be ad 51 c4 bd
       -0.18000221 -0.0425351 -0.16936195 -0.09585891
0002e0 1b 16 46 be 3c c5 ff 3c 68 62 56 3d e6 9b 30 3e
       -0.1934437 0.031221978 0.05233994 0.1724697
0002f0 b1 3e b8 3d 10 e2 1e be 26 61 8f bd b4 dd e3 bd
       0.089963324 -0.15515924 -0.070009515 -0.11126271
000300 c7 17 cc 3d fd ce cb 3d aa 51 13 be a4 63 50 3d
       0.09965473 0.09951589 -0.14386621 0.050876275
000310 fe 29 0b 3e ba 0f e3 bd a7 87 9c bd 2d 7b 8e be
       0.13590237 -0.11086984 -0.07643061 -0.2782835
000320 89 ad 81 3d 6c a9 c7 3d 08 af 7b 3d 4e a8 31 be
       0.06331927 0.097491115 0.06144622 -0.1734936
000330 8d 70 04 be 82 c6 95 3d 49 4a 0c 3e cb 4f d3 3d
       -0.1293356 0.07313253 0.13700213 0.10317954
000340 5a 52 f9 3c 26 90 10 3e 27 0b 62 be ba da 28 3c
       0.030434776 0.14117488 -0.22074567 0.010306055
000350 56 d4 06 3e d7 35 7e 3e 84 e0 5d be 4c 57 92 3e
       0.13166937 0.24825226 -0.21667677 0.28582227
000360 a3 95 6a be 30 f3 1b 3e 6c 65 5d 3e cb fe 16 3e
       -0.22908644 0.15229487 0.2162072 0.14745633
000370 f5 5c 2f be 57 53 c1 bd ef 61 3e be 1e 8c 04 3e
       -0.17125304 -0.09439724 -0.18592046 0.12944075
000380 73 12 d3 bd 7a a9 a2 3e 6e 90 b4 3d 58 0e 01 3d
       -0.10306253 0.31769925 0.0881661 0.03150782
000390 a3 fa 61 bd da f0 d3 bd f0 0d 19 be 0b 7f 8b 3d
       -0.055170666 -0.10348673 -0.14946723 0.06811341
0003a0 a8 47 64 bd 81 bb 78 bd 31 80 73 3e cf 0d 42 3e
       -0.0557324 -0.060725693 0.2377937 0.1895058
0003b0 14 42 81 be 0d 7b 03 3e 17 07 6e bd b0 86 62 bc
       -0.25245726 0.12839909 -0.05811223 -0.013826057
0003c0 ad 0e 9d bd d2 63 91 bd 29 41 c9 bd 87 5e a8 3d
       -0.07668815 -0.07099117 -0.098268814 0.08221155
0003d0 bb c8 2a be 71 98 dd bd 86 87 54 bc ad 17 5c 3d
       -0.16678135 -0.108200915 -0.012971764 0.053733516
0003e0 24 ad 78 bd 65 d5 72 3d 3d 2b ad bc 04 e4 a0 bc
       -0.060711995 0.05928554 -0.021138782 -0.019639976
0003f0 15 20 71 bd 8a b2 9d 3e 04 ad b3 be ae b9 98 3c
       -0.058868486 0.30800277 -0.35092938 0.018643226

fc1.bias f4 [100]
000000 be 53 1c 3f e0 b7 09 bf 1c ec fd 3e c3 cb a9 be
       0.6106528 -0.53796196 0.495942 -0.3316327
000010 40 d2 99 be 58 27 1a 3f ce ca e5 be 10 a5 eb be
       -0.3004322 0.60216284 -0.4488129 -0.4602437
000020 ea 60 f3 be e3 56 0a bf 8c 98 de 3e 47 40 1e 3e
       -0.47534877 -0.5403883 0.4347576 0.15454207
000030 b0 71 5d 3e 66 eb fd be d3 d8 c5 3e 52 dd 48 be
       0.216254 -0.49593657 0.38641986 -0.19615677
000040 ed 3a f5 be 1c e7 06 bf 0c 68 20 bf d6 a3 0e bf
       -0.4789652 -0.52696395 -0.6265876 -0.55718744
000050 c3 5b ef 3e ec 97 97 3d 8d 33 ff 3e 79 2f 8c be
       0.46749696 0.07402024 0.49844018 -0.2737997
000060 e0 b0 f1 3e b4 20 a6 3e 2c 22 8d be d0 5d 20 3e
       0.47205257 0.32446826 -0.27565134 0.15660787
000070 1d de b0 3e 1b 10 fa 3e b4 97 b3 be aa 9d 07 bf
       0.3454446 0.48840412 -0.35076678 -0.5297495
000080 69 c4 8b 3e 66 1f ac be 32 fd 10 bf f4 2e f8 3e
       0.27298287 -0.33617705 -0.56636345 0.48473322
000090 fb de 01 bf 1a 35 e5 3e cb 6e cc 3e e8 ea b6 3e
       -0.50730866 0.44767076 0.39928278 0.35726094
0000a0 c7 b8 be 3e dc bb db be 80 3b 09 3f 07 41 54 be
       0.3725035 -0.42916763 0.53606415 -0.20727931
0000b0 ef 67 18 be 7d 60 03 bf b6 1e 0b bf 72 d3 f4 be
       -0.14883398 -0.51319104 -0.54343736 -0.4781757
0000c0 83 93 df be fd 45 ea 3e 85 d2 fd 3e e4 0a 0c bf
       -0.4366723 0.45756522 0.49574676 -0.5470412
0000d0 13 17 59 3d 59 39 97 3c 99 9b b7 be d7 7f e8 be
       0.05300052 0.018459963 -0.358609 -0.45410034
0000e0 f3 f8 fe 3d 59 65 9e be a1 54 0d bf 88 9f c7 be
       0.12449827 -0.30936697 -0.5520726 -0.389889
0000f0 b6 f3 8b 3e 0e c6 72 3e 6d 74 8f be 4e 2c 8a be
       0.27334374 0.23708364 -0.28018513 -0.26986927
000100 eb 2b 36 3e 96 1c f3 be 37 5e 92 3e 2d b5 11 bf
       0.17790191 -0.47482747 0.28587505 -0.5691708
000110 93 67 46 bd 45 53 f7 3e ec eb 45 3e 18 09 16 3f
       -0.04843862 0.48305717 0.19328278 0.58607626
000120 8e 49 2d be d5 2a db be 51 59 70 be 7e 8c ed be
       -0.1692259 -0.42806116 -0.23471572 -0.4639625
000130 7a 2b 0f bf b6 2b 3e be 01 f8 8e 3e eb 0e ce be
       -0.55925715 -0.18571362 0.27923587 -0.40245757
000140 18 0d ea be 4b 78 9b be 69 3f db be 18 84 99 3e
       -0.45713115 -0.30365214 -0.42821816 0.29983592
000150 1c a4 e6 be c9 d2 41 be 69 0a 0c bf 60 29 fa be
       -0.4504708 -0.18928064 -0.54703385 -0.48859692
000160 7c cc 13 bf 77 62 01 ba 6c 7c 88 3e 53 45 e4 3e
       -0.57733893 -0.0004935632 0.26657426 0.4458414
000170 ca ba e9 3e 26 79 ae be f1 2c ed be 21 f4 96 3e
       0.4565032 -0.34076804 -0.4632335 0.2948313
000180 a0 b0 fd 3e 65 45 ff be 41 36 fc be c7 40 c5 be
       0.49548817 -0.4985763 -0.49260142 -0.38525984

fc2.weight f4 [100, 100]
000000 a9 1f 0b 3e 05 b1 f7 bd ea b1 df 3d 9b 43 df bd
       0.13586296 -0.12094311 0.10922606 -0.109015666
000010 4f 8e 0c 3d 6e 6d 1e 3e 11 39 ed bd a0 b9 5a 3b
       0.034315404 0.15471432 -0.1158315 0.0033374801
000020 17 d7 33 be 3d a9 b2 bd 90 9a 10 3d e1 19 5a bc
       -0.17562519 -0.08723686 0.035303652 -0.013311834
000030 71 37 41 3d 06 87 d3 bd bd fd f9 3d c7 d7 e0 bc
       0.047172014 -0.10328488 0.122066 -0.02744664
000040 83 41 cf bc 99 e8 43 bd 19 06 eb bd 28 50 24 be
       -0.025299793 -0.047829244 -0.114757724 -0.16046202
000050 45 e6 97 3d 0c a8 3b bd 01 48 ef 3d 21 88 00 be
       0.07416967 -0.04581456 0.116836555 -0.12551929
000060 ac b3 b8 3d 6b f8 f2 bc 54 74 e1 bd e1 4b bb bd
       0.09018645 -0.02965947 -0.11008516 -0.09145332
000070 60 4b 51 3d 91 4e 17 3d bf 7b 11 be f0 5b 6f bd
       0.051097274 0.03694016 -0.14207362 -0.058437288
000080 52 9b e2 3d 7e f3 d2 bd 54 e9 5b bd 81 26 27 3e
       0.11064781 -0.10300349 -0.053689316 0.16323282
000090 d8 29 ef bd 14 26 cf 3d 3d 7b 80 3d b4 c2 7f 3c
       -0.11677903 0.10114685 0.06273506 0.015610386
0000a0 6e 08 ec 3c ad 44 82 bc ec 29 90 3d 8d 59 ed bd
       0.028812613 -0.015901888 0.07039246 -0.11589346
0000b0 c3 07 c4 3c 50 41 43 bd 45 a7 e4 bd e2 95 8a bd
       0.023929482 -0.04766971 -0.11164717 -0.06766869
0000c0 b0 9a f2 bc 02 9e c0 3d c1 4d ae 3d e0 51 44 be
       -0.029614776 0.094051376 0.08510924 -0.19171858
0000d0 b5 ff 71 3d b2 66 a2 3b 3a 26 3b bd 2b a5 04 be
       0.05908175 0.00495609 -0.045690753 -0.12953632
0000e0 48 b6 64 3c 07 48 98 bd bd d3 9f bd 29 a3 25 be
       0.013959475 -0.07435613 -0.07804058 -0.16175522
0000f0 5f d5 e5 bc 9f b7 9d 3b 0d 08 f7 bc 0e 7e 87 bd
       -0.028055845 0.004813149 -0.030155206 -0.0661584
000100 6f 27 c6 bd c7 cb 4f bd 89 fd 19 3d 45 3e 26 be
       -0.0967549 -0.050731447 0.037595306 -0.16234691
000110 5f 6b 42 bc 42 92 4d 3d 5a 5c a2 3d eb 65 33 3e
       -0.01186642 0.05018831 0.07927771 0.17519347
000120 d9 bc fb bb 7a 28 16 bd 10 e0 f5 bc 03 57 af bd
       -0.0076824245 -0.036659695 -0.030014068 -0.08561518
000130 b0 d7 30 be 78 c9 c7 bc 94 77 c1 3b 46 b6 f2 3b
       -0.17269778 -0.02438806 0.0059041474 0.0074069826
000140 ba 4e b6 bd fb f8 78 bb 8e 2b 70 bd 40 bb bc 3d
       -0.08901735 -0.00379902 -0.058635287 0.092154026
000150 87 a6 bd bc a1 f4 dd bd 21 f7 22 be a9 0a 8d bd
       -0.023150695 -0.10837675 -0.15914585 -0.06886799
000160 ee 02 2f bd a1 5c e1 bd 48 0e 9f bc 75 bd 29 3e
       -0.042727403 -0.11003996 -0.01941599 0.16576178
000170 b8 a7 7b 3d ad 9d 19 bd 69 ec be bd a3 18 c1 3d
       0.061439246 -0.037503887 -0.093224354 0.09428527
000180 fd ad 95 3d c6 85 dd bd 05 5b 83 bd 3a 56 b3 bd
       0.07308576 -0.10816531 -0.06413845 -0.08756681
000190 72 29 87 bc 99 5f c0 3c f3 80 f3 bd e0 62 ad bd
       -0.016499255 0.023483085 -0.118898295 -0.084661245
0001a0 40 ae af bd e0 c1 0e bd 52 4d 37 3e bd be 31 bd
       -0.085781574 -0.034852862 0.17900589 -0.043394793
0001b0 b1 85 3b 3d e8 43 ac 3d 5b 6f 78 bd 1c 83 ea 3c
       0.045781795 0.084113896 -0.06065307 0.028626971
0001c0 b1 d7 05 3e a3 d6 38 3d a8 53 b9 bd 54 17 2a be
       0.13070561 0.04512657 -0.09049159 -0.16610461
0001d0 70 05 35 be 1b 97 0a 3e b6 87 4d 3c fd 9c 09 3d
       -0.17677855 0.13534205 0.012544563 0.03359698
0001e0 f6 a0 e3 bd b0 90 a1 bd 34 79 1e bd 51 86 96 3d
       -0.11114685 -0.07888925 -0.038689807 0.073498376
0001f0 2e c1 a4 bb c8 c1 d2 3b 21 11 01 3d 1d 1d 13 3e
       -0.0050279116 0.006431792 0.031510476 0.14366575
000200 f1 ee 9b 3d 4f fd 49 3e 5c 95 0f 3d 08 bd cd 3c
       0.07613934 0.19725536 0.03505455 0.025114551
000210 d8 fc 4e be 87 8f a1 3d 6b 73 69 bd 86 d0 ba bd
       -0.2021364 0.07888704 -0.056994837 -0.09121804
000220 df c1 0c 3e 38 58 67 3d 33 ee 5a 3e 55 d8 a4 bd
       0.13745831 0.056480616 0.21379928 -0.080490746
000230 13 d0 b2 bd d8 44 19 be 92 1c bd 3d 46 14 2c 3e
       -0.08731093 -0.14967668 0.09233965 0.16804609
000240 7c de 05 be 67 72 e0 3d 0a 68 a7 3d e5 a3 61 bd
       -0.13073152 0.109593205 0.08174141 -0.055087943
000250 a1 9d 03 be f9 18 58 3d e9 8d 26 3e 1c 3d 6b bc
       -0.128531 0.05275819 0.16265072 -0.014357831
000260 a5 8b 27 be e1 7d 4a 3c 74 1c f7 3d f2 40 f0 3d
       -0.16361864 0.012359113 0.12065974 0.11731137
000270 4b 2e f0 bd 87 70 86 3c e9 f3 7e bd db a4 ef bc
       -0.1172758 0.01641108 -0.06224433 -0.029253414
000280 50 a4 ce 3d a9 16 8b bd ec b1 22 3d a1 37 35 3c
       0.10089934 -0.067914315 0.03972046 0.011060626
000290 a5 e7 f5 3d 3e 80 fe 3c e3 85 b4 3d 6a ed 92 3c
       0.12007073 0.03106701 0.08814599 0.017935473
0002a0 98 a8 83 3c 5f 86 a5 3e 36 4b 52 be 29 01 7f bd
       0.016071603 0.3232908 -0.20536503 -0.062256966
0002b0 b8 22 d4 bd 27 b5 73 bd 95 0c 62 bd 90 7a d6 3d
       -0.103581846 -0.059498932 -0.05518778 0.10472596
0002c0 c1 23 eb 3c 69 e3 70 bd 20 cb 25 3e 21 5c cd 3d
       0.028703572 -0.058810625 0.16190767 0.10027338
0002d0 f3 45 51 be c4 ad 04 be df cf aa 3b b1 e1 e8 bd
       -0.2043684 -0.12956911 0.0052127684 -0.11371172
0002e0 08 4a c2 bd 58 2f 9a 3d 01 4f 2d 3d 81 97 fd 3c
       -0.094867766 0.07528561 0.042311672 0.030956032
0002f0 00 3d 2e bc 82 fd ed 3c c4 61 07 3e 22 e8 54 bd
       -0.010634661 0.029051546 0.13220888 -0.05197919
000300 2d 1f 82 3e 50 58 17 3c 5a d7 f2 3c c2 b3 c3 bc
       0.2541441 0.009237364 0.029643703 -0.023889426
000310 1c 1b cc bd 6e cf f9 3d 8f 1e 21 3e 54 30 e5 3d
       -0.09966108 0.12197767 0.15734313 0.111908585
000320 97 2a a9 3e cc 48 85 be e2 40 6e 3e da cd 3d be
       0.33040306 -0.26032102 0.23266938 -0.18535557
000330 40 7e 2b 3d e0 42 bc 3e e8 e1 a1 bd d5 fd 5a bd
       0.04186845 0.36769772 -0.07904416 -0.05346473
000340 a6 9c bb bd bd 14 ad bd 53 f8 95 3c 15 63 1d bd
       -0.09160738 -0.08451221 0.018306887 -0.03842457
000350 77 70 1d bc 1d e8 78 be c0 b3 01 3d 2e cb ee bd
       -0.009609333 -0.24307294 0.031665564 -0.11659847
000360 54 86 62 bd 9d 39 21 be c4 6e 8e be 5b a7 9d be
       -0.055303887 -0.15744634 -0.27818882 -0.30791745
000370 52 a3 81 3e ec 13 a9 bd 24 14 b1 3e 34 92 4b be
       0.25319916 -0.08255753 0.3458568 -0.19879991
000380 6f 65 3a 3e 01 ec a2 3d e6 48 22 be 15 25 2f bd
       0.18202756 0.079551704 -0.15848121 -0.042759974
000390 0e bf 48 3c 16 35 2a 3d db 18 83 be 7a 0e f4 bd
       0.012252582 0.041554533 -0.256049 -0.11916824
0003a0 78 b3 32 3c cd c2 0d be cb 70 90 bd b0 fa bc 3e
       0.0109070465 -0.13843842 -0.070527636 0.3691001
0003b0 91 a3 26 be df 12 6b 3d 09 de 8d 3c 18 f1 c9 3a
       -0.16273333 0.057391044 0.017317789 0.0015406935
0003c0 a9 ad 02 3e ac 84 4e bd 7e fb 1e 3d e4 68 0d be
       0.12761559 -0.050419495 0.03881406 -0.13809544
0003d0 10 67 25 3d 3b ee f1 bd bd 24 05 be 92 94 d6 bd
       0.04038149 -0.11813017 -0.13002296 -0.10477556
0003e0 98 80 77 bd da 9a 3d 3e 69 2a 2e 3e 40 87 54 be
       -0.06042537 0.18516102 0.17008366 -0.20754719
0003f0 9c ab 30 bc 04 4d 62 bd bc be 8c bd 83 9c 92 be
       -0.010783102 -0.05524923 -0.06872317 -0.28635034

fc2.bias f4 [100]
000000 a8 46 4c 3e 2a 43 12 bb 54 fa 55 3e 06 fd 6f 3e
       0.19948828 -0.0022317865 0.20896274 0.23436365
000010 dd 66 6d 3e b6 59 d4 3d fc cf 8a 3e 80 88 e4 bd
       0.2318377 0.103686735 0.27111804 -0.11158848
000020 13 23 3e 3e 69 4c 1f be 98 5f cf 3d b7 55 10 3e
       0.18568067 -0.15556492 0.10125655 0.14095198
000030 97 58 36 3e 27 dc 76 bd 58 f0 27 3e ee c5 65 be
       0.17807232 -0.060268547 0.16400278 -0.22438785
000040 ef 56 48 3e db 00 0c be 35 f8 47 be 29 56 2d 3e
       0.19564413 -0.13672201 -0.19528277 0.16927399
000050 57 66 0d 3e 44 9e 2b be 8e 3f 63 3e cb 6b 5c be
       0.13808571 -0.16759592 0.22192213 -0.21525495
000060 2d 11 56 be 12 8c 57 be f8 61 bf 3d 95 d8 31 3e
       -0.2090499 -0.21049526 0.09344858 0.17367776
000070 07 7b 37 3e 0f b2 82 be d1 e2 de 3d e5 22 08 be
       0.17918025 -0.25526473 0.108831055 -0.13294561
000080 65 17 a2 3d eb 5c 4b 3e 3a 84 b7 bd 0c 05 86 3d
       0.079146184 0.19859664 -0.08960767 0.06543931
000090 90 62 85 be 97 47 24 3e 51 6b 3b be 43 f4 41 3e
       -0.2605176 0.16042934 -0.18302657 0.18940835
0000a0 5b 58 01 bd 45 de 0b bd 53 ce 7c be f4 00 3e bd
       -0.031578403 -0.03414752 -0.24688081 -0.046387628
0000b0 08 60 0a 3e 53 84 1a 3e 7a 54 20 3e d8 2f 29 be
       0.13513196 0.1508954 0.15657225 -0.16522157
0000c0 6a 58 8a 3e 93 be 56 3e b4 3d 2a 3e 7f 10 21 be
       0.2702058 0.20971136 0.166251 -0.15728949
0000d0 e5 1d 08 be a3 93 57 be 82 cd f2 3d 11 97 ef 3d
       -0.13292654 -0.21052413 0.11855604 0.116987355
0000e0 8f 81 86 3e 9d 38 85 be 98 16 7c 3e e2 11 04 be
       0.2627072 -0.26019755 0.24617994 -0.12897447
0000f0 81 71 aa 3d c5 56 af bd 37 26 5e 3e a4 04 4d 3e
       0.083224304 -0.08561472 0.21694265 0.20021302
000100 26 08 4a 3e 97 24 83 be e6 03 57 bd 1c 50 fd 3d
       0.19729671 -0.25613853 -0.052493952 0.12368795
000110 80 3c 5d be bf 69 20 be 14 6b 07 3e 6f 66 28 be
       -0.2160511 -0.15665339 0.13224441 -0.16445325
000120 40 0f f1 3d a3 84 13 bd 2b 1f 05 be 25 ae 6a 3e
       0.11770487 -0.036015164 -0.13000171 0.22917993
000130 5f c6 88 be 96 fd 32 be 22 27 0d 3e 26 af 13 be
       -0.26713845 -0.17479548 0.13784459 -0.14422283
000140 1c a9 8a bd 01 de dc bd 20 ed de bd 6d fd a2 bd
       -0.06770536 -0.107845314 -0.10885072 -0.079584934
000150 2b 88 26 be 59 c2 2b 3e 13 08 f5 bd 0b d0 c6 bd
       -0.16262881 0.16773356 -0.11964431 -0.0970765
000160 4e 43 6e 3e 4f 86 cc bc d1 43 05 be f5 ee 19 be
       0.23267862 -0.024966387 -0.13014151 -0.15032561
000170 c8 4c 53 be 12 67 fc 3d c4 0e 9e 3b 3a c3 48 3e
       -0.20634758 0.123243466 0.0048235375 0.19605723
000180 cf 8b 51 be 71 d5 54 be a2 12 51 3e 55 54 50 be
       -0.20463489 -0.20784546 0.20417264 -0.2034467

fc3.weight f4 [1, 100]
000000 cf d9 04 3f e8 0b f9 3e 21 fe 08 3f ed 26 0c 3f
       0.5189485 0.48641896 0.5351277 0.54746896
000010 c9 c6 0b 3f 3f 92 06 3f 69 17 09 3f c6 5a 08 bf
       0.546002 0.52566904 0.53551346 -0.5326351
000020 bc 5f 09 3f a6 e6 06 bf 04 d3 04 3f 25 c9 0a 3f
       0.53661704 -0.5269569 0.51884484 0.5421317
000030 f6 b9 06 3f cd ea 03 bf 30 22 0a 3f 64 72 0b bf
       0.52627504 -0.5153015 0.53958416 -0.5447142
000040 57 b7 07 3f 40 d3 07 bf d4 be 07 bf b8 ee 05 3f
       0.5301413 -0.53056717 -0.53025556 0.5231738
000050 61 a3 09 3f 05 c7 07 bf 6f c6 07 3f 7d 51 07 bf
       0.5376492 -0.53038055 0.5303716 -0.52858716
000060 6f d4 04 bf c3 21 03 bf 93 19 04 3f 3a 8e 09 3f
       -0.5188665 -0.5122339 0.51601523 0.53732646
000070 8e 1d 0b 3f 49 49 0b bf 49 fa 06 3f 34 00 06 bf
       0.5434197 -0.544087 0.52725655 -0.5234406
000080 63 ba 07 3f 01 ba 05 3f 43 83 09 bf 8a f0 07 3f
       0.5301878 0.52236944 -0.53715914 0.5310141
000090 ac 14 0d bf 97 ff 06 3f df 41 08 bf a0 2c 07 3f
       -0.5510967 0.5273375 -0.5322551 0.5280247
0000a0 2a 46 0b bf 52 83 06 bf bc 7a 0b bf 22 11 0e bf
       -0.54403937 -0.5254413 -0.5448415 -0.5549489
0000b0 cf 79 08 3f 63 d2 09 3f 2f 45 05 3f db fc 05 bf
       0.53310865 0.5383665 0.5205869 -0.5233895
0000c0 1b 6e 09 3f 3e 4e 09 3f 21 3b 08 3f ff d9 08 bf
       0.5368363 0.53635013 0.53215224 -0.53457636
0000d0 92 40 09 bf ff 66 0b bf bf 65 07 3f d9 5d 1b 3f
       -0.5361415 -0.54454035 0.5288963 0.60690075
0000e0 f6 6f 0a 3f 16 fe 04 bf b8 b5 09 3f fd 3e 05 bf
       0.5407709 -0.51950204 0.53792906 -0.5204924
0000f0 99 6e 1b 3f 06 94 08 bf 2f 52 07 3f 65 6a 06 3f
       0.60715634 -0.53350866 0.5285978 0.52506095
000100 aa 77 08 3f e9 de 09 bf ad b9 06 bf dd 3a 05 3f
       0.5330759 -0.5385576 -0.5262707 0.52042943
000110 33 f2 02 bf f5 02 04 bf e4 e5 09 3f 9f cf 07 bf
       -0.51150817 -0.5156701 0.5386641 -0.5305118
000120 c7 c1 06 3f 17 de 47 bf be 9a 0a bf 15 df 0a 3f
       0.5263943 -0.7807326 -0.5414237 0.54246646
000130 1b 6c 0c bf b2 42 0a bf 78 7b 0d 3f be 40 09 bf
       -0.54852456 -0.5400802 0.55266523 -0.53614414
000140 15 7a 03 bf 48 8c 01 bf 2b ab 07 bf 05 b3 09 bf
       -0.5135816 -0.5060468 -0.52995557 -0.5378879
000150 d0 5c 06 bf 23 20 06 3f 0a 7c 05 bf 99 17 05 bf
       -0.5248537 0.52392787 -0.52142394 -0.5198913
000160 00 c6 07 3f c5 36 0b bf 75 b9 05 bf 9f 9d 05 bf
       0.530365 -0.54380447 -0.5223611 -0.52193636
000170 8a d6 0a bf 3a e6 07 3f 7a a3 25 bf ed 5a 09 3f
       -0.5423361 0.5308567 -0.6470257 0.53654367
000180 31 f0 07 bf 11 8a 0a bf 77 fb 03 3f 94 72 09 bf
       -0.5310088 -0.5411692 0.5155558 -0.5369046
