mujoco/gail/save_model/ckpt_84.pth.tar (torch, 144879 bytes, 16 tensors)

fc1.weight f4 [100, 11]
0.033716526 -0.18609142 0.20002297 -0.13774244 0.10584705 0.059157815 -0.2153471 0.13262196
0.18854956 0.18560414 -0.034753524 0.24430053 -0.11615756 0.05674188 -0.29248807 0.05977871
0.065248735 -0.020105625 0.06519375 0.14589436 0.16480714 0.20645276 0.20131645 -0.10983578
-0.27652445 0.09105195 0.054853287 -0.20839126 -0.063348636 0.18969873 -0.11089269 -0.019483102
0.15897767 0.2442134 -0.2604689 0.061927937 0.20233777 0.08922384 0.114668764 -0.27892786
-0.031344768 -0.15489683 0.22201432 -0.28501746 0.098077014 0.20486543 0.1851938 -0.24734029
-0.081409104 0.086723156 -0.20850417 -0.042498212 0.26083744 0.06497531 0.04451675 0.27227134
-0.08876637 -0.038848232 0.16826957 0.30328187 0.083269276 0.094374254 -0.14419587 0.01882275
-0.035467427 0.021760166 0.2572218 -0.21930285 0.21857843 -0.24064712 -0.08365751 -0.20443267
0.2099258 -0.026720306 -0.017427716 -0.15256055 -0.19328694 0.07013732 0.2917131 -0.16887356
-0.1260816 0.23192233 0.088988006 0.2583911 0.010169435 -0.19303831 0.20463414 0.26150164
-0.009989389 0.030011373 -0.22735463 -0.3311781 0.19912763 0.21693692 0.16243744 -0.20010719
0.27381837 -0.19245455 0.16977577 -0.039815422 0.18867557 -0.0321472 0.098405905 0.26821253
-0.23644434 0.12440414 0.2922172 0.20020372 0.14150485 -0.08254374 -0.22221993 -0.04490875
-0.028791346 -0.26843023 -0.032797027 0.2659157 -0.1337833 0.22318478 0.08690223 0.20480527
-0.056097604 -0.12544 -0.08186212 0.03890599 -0.008662937 0.3218127 0.29703596 0.011291059
-0.060077984 -0.03800794 -0.14469767 0.17578433 -0.050283797 0.22293046 -0.15038517 0.15056661
0.1632778 -0.13949485 0.0048958645 -0.12583789 0.19698377 -0.012966487 0.11512999 0.116718575
0.11245639 -0.18132897 0.17659329 -0.07850243 -0.049366828 0.044344835 0.2185252 0.22875072
-0.12637836 0.019455042 -0.26017565 -0.16845573 0.2084733 0.28041422 0.032267712 -0.0721739
0.2639965 0.24142836 0.011802669 -0.003994021 0.17610464 -0.058574863 -0.12577832 0.12075967
0.14769113 0.21911868 0.061155636 -0.14373563 -0.07648662 0.20841481 0.10653387 -0.091280945
0.20450117 -0.30961064 0.081603155 0.21255098 0.121943526 0.25484598 -0.23001839 0.25698313
0.242376 0.19517833 0.25485486 0.031305306 -0.2591625 0.06336629 -0.24726889 -0.011423737
-0.24618055 0.15497069 0.12710609 -0.093219504 -0.16075678 -0.14746788 0.22885036 0.25089273
0.20090102 -0.10185726 -0.044832513 0.15760735 -0.034770492 0.04252799 -0.16727588 -0.2305141
0.27547878 -0.10530347 0.23995064 -0.25796643 0.07263557 0.2553494 -0.33625564 -0.24893466
-0.2556684 -0.07765354 0.08473378 -0.27710548 -0.16327584 -0.24072313 -0.089105785 0.18989141
-0.07178277 0.039668247 -0.09064157 -0.03046323 0.013500604 -0.12446924 -0.24305394 0.24951836
0.031685423 0.17454201 0.2030241 0.2733997 -0.25846776 -0.10652234 0.08272537 -0.07597691
0.21157025 -0.026182933 0.020667342 -0.28486162 0.16991414 0.17696664 0.2687586 0.23601475
-0.14557168 -0.07279778 -0.07567215 0.13218987 -0.27821177 0.18330635 0.073668204 0.014780886
00000000: 571a 0a3d c08e 3ebe d2d2 4c3e 5b0c 0dbe
00000010: 57c6 d83d 774f 723d f383 5cbe 0dce 073e
00000020: 2313 413e 030f 3e3e b659 0ebd eb29 7a3e
00000030: 04e4 edbd 2c6a 683d ffc0 95be 85da 743d
00000040: 21a1 853d 8db4 a4bc 4d84 853d 5565 153e
00000050: 34c3 283e 5a68 533e e625 4e3e 95f1 e0bd
00000060: 9d94 8dbe 7279 ba3d d7ad 603d 8564 55be
00000070: eebc 81bd 6240 423e b51b e3bd 079b 9fbc
00000080: 0bcb 223e 1413 7a3e 2e5c 85be 26a8 7d3d
00000090: a231 4f3e fdba b63d 75d7 ea3d a2cf 8ebe
000000a0: 5f63 00bd 469d 1ebe b957 633e cfed 91be
000000b0: 9adc c83d 3ec8 513e 72a3 3d3e c646 7dbe
000000c0: d1b9 a6bd e99b b13d 1e82 55be 9b12 2ebd
000000d0: 7c8c 853e c611 853d 3257 363d 2667 8b3e
000000e0: 25cb b5bd 531f 1fbd dc4e 2c3e c347 9b3e
000000f0: 1589 aa3d 4a47 c13d 15a8 13be 2b32 9a3c
00000100: 4b46 11bd 6042 b23c 93b2 833e ed90 60be
00000110: 06d3 5f3e 336c 76be a154 abbd cc56 51be
00000120: caf6 563e 8be4 dabc 92c4 8ebc d538 1cbe
00000130: 03ed 45be 28a4 8f3d 6b5b 953e 31ed 2cbe
00000140: 891b 01be 0c7d 6d3e 583f b63d d74b 843e
00000150: b49d 263c d6ab 45be 9d8b 513e 8be3 853e
00000160: 89aa 23bc 69da f53c a7cf 68be 2d90 a9be
00000170: 1de8 4b3e b624 5e3e 0056 263e e6e8 4cbe
00000180: ec31 8c3e ce12 45be b3d9 2d3e 7f15 23bd
00000190: 2b34 413e c8ac 03bd 0989 c93d 2753 893e
000001a0: 771e 72be 99c7 fe3d 7e9d 953e 3402 4d3e
000001b0: a6e6 103e b10c a9bd 9f8d 63be 3df2 37bd
000001c0: d4db ebbc b06f 89be 2d56 06bd 1a26 883e
000001d0: 7dfe 08be 8d8a 643e ccf9 b13d 79b8 513e
000001e0: 9ac6 65bd 5873 00be 54a7 a7bd e35b 1f3d
000001f0: feee 0dbc a2c4 a43e 1915 983e 22fe 383c
00000200: 5514 76bd 37ae 1bbd a02b 14be cf00 343e
00000210: 62f6 4dbd e247 643e 92fe 19be 222e 1a3e
00000220: 4c32 273e bdd7 0ebe 7d6d a03b a6db 00be
00000230: 1db6 493e 6371 54bc 46c9 eb3d 260a ef3d
00000240: 894f e63d 4dae 39be dfd4 343e e2c5 a0bd
00000250: df34 4abd eea2 353d 12c5 5f3e a13d 6a3e
00000260: 5469 01be 2e60 9f3c be35 85be a97f 2cbe
00000270: 067a 553e 7492 8f3e 262b 043d e9cf 93bd
00000280: 8d2a 873e ff38 773e fb5f 413c 47e0 82bb
00000290: c654 343e 32ec 6fbd 08cc 00be d950 f73d
000002a0: 583c 173e a660 603e 557e 7a3d 6f2f 13be
000002b0: 04a5 9cbd b16a 553e 6e2e da3d 81f1 babd
000002c0: c168 513e 4985 9ebe 8e1f a73d f7a6 593e
000002d0: 87bd f93d 2c7b 823e f189 6bbe 4b93 833e
000002e0: 6a31 783e d4dc 473e 567c 823e fe39 003d
000002f0: f2b0 84be 2fc6 813d 0e34 7dbe a02a 3bbc
00000300: c116 7cbe a3b0 1e3e 1928 023e dee9 bebd
00000310: 6d9d 24be d201 17be c057 6a3e 0375 803e
00000320: ffb8 4d3e 8a9a d0bd 4ca2 37bd d263 213e
00000330: 816b 0ebd d431 2e3d 5e4a 2bbe e30b 6cbe
00000340: 8e0b 8d3e 58a9 d7bd 9fb5 753e 2d14 84be
00000350: f5c1 943d 28bd 823e b329 acbe bae8 7ebe
00000360: f8e6 82be d208 9fbd e788 ad3d c5e0 8dbe
00000370: c831 27be 2080 76be 187d b6bd e572 423e
00000380: d802 93bd 2c7b 223d 4aa2 b9bd 068e f9bc
00000390: a331 5d3c bbe9 febd 22e3 78be be81 7f3e
000003a0: 93c8 013d 24bb 323e 8de5 4f3e 0cfb 8b3e
000003b0: e355 84be 6228 dabd eb6b a93d c899 9bbd
000003c0: dfa5 583e 977d d6bc 8f4e a93c 62d9 91be
000003d0: f9fd 2d3e be36 353e ba9a 893e daad 713e
000003e0: be10 15be 0117 95bd 00fa 9abd c85c 073e
000003f0: c671 8ebe a9b4 3b3e 5bdf 963d 872b 723c

fc1.bias f4 [100]
-0.14111173 -0.28706864 -0.12684967 0.08380216 0.05171545 -0.17848167 -0.106122 -0.009246514
-0.053283174 -0.30114397 0.077027574 0.05961123 -0.1602521 0.16742113 0.14164187 -0.29711127
0.20678647 0.2676396 -0.19397348 0.070856065 0.0014074097 -0.2669159 0.0840318 -0.20381781
0.056301266 0.11326921 -0.25667053 -0.1657248 0.2644455 0.12318767 -0.21504247 0.0968356
0.20895848 0.2504325 -0.33685055 0.050208177 0.13807076 0.12619239 -0.16303158 0.120625086
0.18689477 0.29953396 0.008360869 -0.30228832 0.062052585 0.019935068 -0.22056797 -0.24323015
0.16453613 0.33477682 0.087232724 0.30174068 -0.23002736 -0.20414996 -0.0023105862 0.18937637
-0.026228942 0.30371797 0.22908798 0.2546256 -0.17094883 0.26947612 0.21237929 0.090468846
-0.03901446 -0.26607493 -0.009294875 -0.10745548 0.0043458017 -0.02161519 0.3262361 -0.13738906
0.13880438 0.010859761 -0.22989011 -0.25312856 0.15504068 0.1885142 0.26879656 0.3282332
-0.24195807 -0.24619406 0.24971485 0.14737235 0.30453557 -0.30891714 -0.17055163 0.26603812
0.22789092 0.0028646851 0.24889679 0.21854122 -0.016721351 0.2235868 -0.22343916 0.23127203
0.28580865 0.008472181 0.20976709 0.28733557
00000000: 987f 10be a9fa 92be e1e4 01be 78a0 ab3d
00000010: 94d3 533d e6c3 36be 7e56 d9bd b17e 17bc
00000020: 753f 5abd 8b2f 9abe a2c0 9d3d e82a 743d
00000030: 2019 24be 7270 2b3e 910a 113e f81e 98be
00000040: d5bf 533e 0f08 893e fca0 46be fc1c 913d
00000050: d578 b83a 33a9 88be dd18 ac3d 9eb5 50be
00000060: 289c 663d b0f9 e73d 526a 83be c3b3 29be
00000070: 6765 873e d149 fc3d 1834 5cbe be51 c63d
00000080: 36f9 553e b038 803e ad77 acbe 17a7 4d3d
00000090: 6c62 0d3e 9438 013e c0f1 26be 490a f73d
000000a0: 5861 3f3e 845c 993e 07fc 083c 89c5 9abe
000000b0: da2a 7e3d de4e a33c 92dc 61be 5311 79be
000000c0: 297c 283e de67 ab3e 12a7 b23d c17d 9a3e
000000d0: 4b8c 6bbe b00c 51be 346d 17bb e1eb 413e
000000e0: 14de d6bc ec80 9b3e 0a96 6a3e 495e 823e
000000f0: 360d 2fbe c6f8 893e f579 593e bb47 b93d
00000100: a0cd 1fbd f93a 88be 8849 18bc 9e11 dcbd
00000110: 3a67 8e3b 5712 b1bc 6b08 a73e b8af 0cbe
00000120: bc22 0e3e 24ed 313c 5068 6bbe 119a 81be
00000130: fcc2 1e3e de09 413e b49f 893e 2f0e a83e
00000140: dbc3 77be 4c1a 7cbe 40b5 7f3e c7e8 163e
00000150: 16ec 9b3e 632a 9ebe 16a5 2ebe 2636 883e
00000160: 3d5c 693e 71bd 3b3b cdde 7e3e 45c9 5f3e
00000170: 37fb 88bc f0f3 643e 3ccd 64be 93d2 6c3e
00000180: 8355 923e e7ce 0a3c 2fcd 563e a61d 933e

fc2.weight f4 [100, 100]
-0.03862131 -0.0142340595 -0.02450822 0.037662245 0.029438227 -0.003252006 -0.026548857 0.005485764
0.0034083617 -0.10247161 0.06493415 -0.032578863 -0.019850513 0.09375665 0.07163105 0.07726757
-0.020329058 -0.02864823 -0.044377573 0.079113826 -0.02100178 0.07836282 0.028541014 0.03224802
-0.058075637 -0.0031151024 -0.057750974 -0.055262398 -0.060157612 -0.060989078 -0.045340456 -0.04975729
0.09358939 -0.07355408 0.07334364 0.058232684 -0.101172395 0.108550094 0.07431288 -0.04865944
0.043072168 0.019765593 0.07222412 0.04322939 0.100451834 0.07687807 -0.06578349 -0.026537621
-0.0907634 -0.06287668 -0.034969453 -0.10195724 0.05130213 0.04162447 -0.083360925 -0.025348285
0.033224963 0.07430443 0.045442723 -0.0020403606 0.021750258 -0.05634324 0.08309125 0.0014185519
0.02224781 0.048428573 0.068299174 0.029985532 0.09099746 0.026728028 -0.05719893 -0.08668634
0.043259386 0.04208555 0.07096177 -0.077406466 -0.11254843 0.06955851 0.027974976 0.04884699
0.008659233 -0.007628992 -0.04701246 0.063674115 0.08459019 0.027474357 0.119082116 -0.0044338778
-0.08340367 0.07923084 -0.011011647 -0.043957256 -0.045070503 -0.043543134 0.015537162 0.024595076
0.04113344 -0.06206525 -0.005507882 0.085770436 -0.08773619 -0.06262778 0.10573949 0.0959103
-0.04577726 -0.0061188345 0.080243096 0.076517805 -0.012753316 0.055312723 0.10088051 -0.08004199
-0.06287771 0.06087361 0.08088114 0.052589484 0.09684942 0.05278752 -0.012277433 -0.10024682
-0.08487983 0.08367597 0.123828836 -0.0043447074 -0.012687298 0.027703067 -0.052000683 -0.08270627
0.016912341 0.10179945 -0.12245438 -0.047541104 -0.022894992 -0.006357916 0.057129312 -0.043423794
-0.08222499 0.09113689 0.05923187 -4.5453853e-05 -0.027820887 -0.09045683 -0.07149347 0.083588585
-0.072406314 -0.08764994 0.01585864 -0.065179266 -0.022395965 0.06795028 0.024082616 -0.022078982
0.075454935 -0.030340564 0.06049136 0.06869962 0.05780826 -0.014278257 0.005093204 0.04441714
-0.03830715 -0.01027107 -0.036641236 0.11358283 -0.031669583 -0.10397932 -0.06259422 0.04473346
0.093951106 0.11739917 0.06071031 -0.051032647 -0.0026194244 -0.0089870365 0.0048847026 -0.082219556
0.021584565 -0.066432014 0.024730891 0.10993207 -0.008082799 -0.092936166 -0.08428359 -0.08951106
0.05282537 0.056532666 0.038897384 -0.0457474 -0.07641742 0.07434829 0.046636205 0.008834973
-0.039151285 0.062082842 -0.07883455 0.02481622 -0.062019553 -0.027655378 0.0019727512 -0.06620369
0.05613847 -0.036042728 0.07527174 -0.0021387923 -0.014129925 -0.01900639 0.040322024 -0.06757832
-0.0068920604 0.056826226 -0.06824216 0.08866629 -0.0061005787 0.014688598 0.057051633 -0.094470866
0.025652707 0.054026574 0.008428225 0.070413224 0.11161874 -0.101448074 0.09148629 0.033510897
-0.030962732 0.030355625 -0.08250657 0.028706789 -0.019774681 0.053570155 -0.07238336 0.056249388
0.013069537 -0.07695048 0.0039122836 0.0038860603 -0.04735774 -0.02409777 -0.009010599 -0.021182597
-0.00018366092 -0.074609905 -0.033209473 0.10733643 0.046266787 0.024871277 0.0496923 -0.05952974
-0.07738367 -0.08301019 0.042708114 -0.07922598 0.01672984 0.0148192085 -0.08550129 -0.068039976
00000000: 6131 1ebd f935 69bc 76c5 c8bc ba43 1a3d
00000010: 7028 f13c 9b1f 55bb fd7c d9bc ecc1 b33b
00000020: d25e 5f3b a3dc d1bd 32fc 843d 6a71 05bd
00000030: 8b9d a2bc 7d03 c03d 4db3 923d 763e 9e3d
00000040: 2089 a6bc b1af eabc 42c5 35bd 6e06 a23d
00000050: ed0b acbc b07c a03d d8ce e93c 8016 043d
00000060: b8e0 6dbd bf26 4cbb 498c 6cbd d35a 62bd
00000070: d467 76bd afcf 79bd eab6 39bd 4dce 4bbd
00000080: cbab bf3d 86a3 96bd 3135 963d 6585 6e3d
00000090: 7933 cfbd 834f de3d 5a31 983d 1f4f 47bd
000000a0: 716c 303d 74eb a13c 3dea 933d 4d11 313d
000000b0: b1b9 cd3d 4072 9d3d 7fb9 86bd 6d65 d9bc
000000c0: 29e2 b9bd 7dc5 80bd 213c 0fbd f5ce d0bd
000000d0: 2f22 523d 6c7e 2a3d 22b9 aabd 35a7 cfbc
000000e0: e616 083d ec2c 983d 2622 3a3d 92b7 05bb
000000f0: 992d b23c 2bc8 66bd bf2b aa3d b4ee b93a
00000100: 0a41 b63c 0a5d 463d 70e0 8b3d 38a4 f53c
00000110: e05c ba3d bdf4 da3c 6d49 6abd 9c88 b1bd
00000120: c130 313d e661 2c3d 6854 913d 4887 9ebd
00000130: cb7f e6bd b174 8e3d c72b e53c c813 483d
00000140: 75df 0d3c a0fc f9bb 2390 40bd 9367 823d
00000150: 9f3d ad3d e711 e13c 53e1 f33d 104a 91bb
00000160: 8bcf aabd c743 a23d 326a 34bc 860c 34bd
00000170: d99b 38bd 495a 32bd 958f 7e3c 9d7b c93c
00000180: 8a7b 283d 2238 7ebd 777b b4bb 69a8 af3d
00000190: 08af b3bd fe42 80bd f28d d83d 9f6c c43d
000001a0: f080 3bbd 8180 c8bb 7e56 a43d 5eb5 9c3d
000001b0: 49f3 50bc 988f 623d 719a ce3d 0eed a3bd
000001c0: 07c6 80bd 9b56 793d 03a5 a53d 1268 573d
000001d0: fd58 c63d ba37 583d 4927 49bc 344e cdbd
000001e0: 7ad5 adbd 4f5e ab3d f999 fd3d 0c5e 8ebb
000001f0: 62de 4fbc 8bf1 e23c abfe 54bd e861 a9bd
00000200: c08b 8a3c 3b7c d03d 5dc9 fabd 76ba 42bd
00000210: 478e bbbc 1156 d0bb 6d00 6a3d 26dd 31bd
00000220: 9365 a8bd faa5 ba3d 1e9d 723d b4a5 3eb8
00000230: a1e8 e3bc 6e41 b9bd 2b6b 92bd 7e30 ab3d
00000240: c349 94bd d081 b3bd fbe9 813c b57c 85bd
00000250: be77 b7bc 8429 8b3d e848 c53c fbde b4bc
00000260: 1e88 9a3d c68c f8bc cac5 773d 63b2 8c3d
00000270: 5bc8 6c3d 5aef 69bc e4e4 a63b bfee 353d
00000280: f5e7 1cbd fd47 28bc 1f15 16bd 1d9e e83d
00000290: f7b7 01bd 1cf3 d4bd 6631 80bd 6f3a 373d
000002a0: 7069 c03d fa6e f03d 60ab 783d 9c07 51bd
000002b0: a6aa 2bbb 5d3e 13bc db0f a03b ba62 a8bd
000002c0: 1dd2 b03c 820d 88bd 7098 ca3c 1124 e13d
000002d0: b76d 04bc 5155 bebd e09c acbd 9351 b7bd
000002e0: 6a5f 583d cc8e 673d dd52 1f3d a061 3bbd
000002f0: bc80 9cbd eb43 983d 9b05 3f3d 90c0 103c
00000300: 195d 20bd 944a 7e3d 0274 a1bd 634b cb3c
00000310: 3708 7ebd 888d e2bc 4649 013b cd95 87bd
00000320: 74f1 653d 8aa1 13bd 1228 9a3d fb2a 0cbb
00000330: 3381 67bc 4ab3 9bbc b528 253d 8166 8abd
00000340: cbd6 e1bb 9ec2 683d 8cc2 8bbd ac96 b53d
00000350: 5de7 c7bb 72a8 703c f9ae 693d f179 c1bd
00000360: a025 d23c f84a 5d3d 8a16 0a3c cf34 903d
00000370: 5e98 e43d 02c4 cfbd 2a5d bb3d b942 093d
00000380: 8ea5 fdbc 5cac f83c 34f9 a8bd 802a eb3c
00000390: 83fe a1bc 616c 5b3d ba3d 94bd c265 663d
000003a0: 9c21 563c 3798 9dbd 9d32 803b 46ad 7e3b
000003b0: 31fa 41bd b068 c5bc 31a1 13bc 2087 adbc
000003c0: 1a95 40b9 14cd 98bd a806 08bd 34d3 db3d
000003d0: 3e82 3d3d d9be cb3c 278a 4b3d 75d5 73bd
000003e0: 547b 9ebd 3f01 aabd b4ee 2e3d 3b41 a2bd
000003f0: 040d 893c 44cc 723c 4d1b afbd 8b58 8bbd

fc2.bias f4 [100]
-0.049583714 0.043495853 -0.07765617 -0.10891023 0.0084839305 0.026743995 0.115667395 -0.020161811
0.0220029 -0.11141936 0.047648784 0.12541617 -0.073349915 -0.08211166 -0.055484228 -0.047163308
-0.09416283 0.09304706 -0.0760636 0.06579484 0.08677296 0.07525569 -0.0070836297 -0.0035419054
-0.05034064 0.08607759 -0.06855157 0.061821852 -0.07392306 0.058362067 -0.012885132 0.042244025
-0.055074524 0.07477006 0.037446655 0.064069286 0.031241262 -0.12782535 -0.108941175 -0.06781887
0.010355357 0.09154561 -0.015681915 0.0071671507 0.06011182 -0.061159078 -0.05684221 -0.087612614
0.0462055 0.076489314 0.031688664 -0.058570676 0.12828085 -0.11659729 0.07200534 0.07842798
-0.067275055 0.002878628 0.007210008 -0.0015419874 -0.04354649 0.023210792 -0.052406322 0.047285
-0.04193381 0.0033573902 -0.016727606 -0.06341532 -0.05145872 0.0517458 0.06798262 -0.03631747
0.04662474 0.068313554 -0.08555487 0.06179371 -0.022071179 -0.0106674 -0.07114462 -0.07088764
0.047977597 -0.09688294 -0.039905474 -0.019560095 0.07829088 0.022508372 0.013215344 -0.04398134
0.08233192 0.072037 0.044091396 -0.013590119 0.0071087526 -0.032728523 -0.06329184 0.1066205
0.12045464 0.07808584 -0.059492 -0.057156693
00000000: 4b18 4bbd b528 323d 330a 9fbd 540c dfbd
00000010: 2f00 0b3c 3916 db3c 07e3 ec3d 622a a5bc
00000020: 6d3f b43c d52f e4bd 5f2b 433d 196d 003e
00000030: 7b38 96bd 282a a8bd 6e43 63bd 502e 41bd
00000040: 71d8 c0bd 758f be3d 3cc7 9bbd 72bf 863d
00000050: 06b6 b13d a81f 9a3d cb1d e8bb 501f 68bb
00000060: fd31 4ebd 7349 b03d c464 8cbd e938 7d3d
00000070: f964 97bd 100d 6f3d 291c 53bc 1208 2d3d
00000080: d395 61bd 0c21 993d aa61 193d c236 833d
00000090: aded ff3c a6e4 02be 8d1c dfbd 9fe4 8abd
000000a0: 84a9 293c 447c bb3d 5c77 80bc 6bda ea3b
000000b0: d037 763d f181 7abd 61d3 68bd 3e6e b3bd
000000c0: fa41 3d3d 6ea6 9c3d f9cb 013d cee7 6fbd
000000d0: 0e5c 033e 8fca eebd 8977 933d d99e a03d
000000e0: 81c7 89bd 5da7 3c3b ee41 ec3b 831c caba
000000f0: ce5d 32bd 8f24 be3c 03a8 56bd ebad 413d
00000100: c9c2 2bbd a907 5c3b 5508 89bc e4df 81bd
00000110: 61c6 52bd 67f3 533d 793a 8b3d a1c1 14bd
00000120: 95f9 3e3d fae7 8b3d 6437 afbd 671b 7d3d
00000130: 9ece b4bc 52c6 2ebc 45b4 91bd 8a2d 91bd
00000140: 2884 443d 906a c6bd ec73 23bd 7e3c a0bc
00000150: f856 a03d 7a63 b83c 2c85 583c c725 34bd
00000160: a39d a83d 2288 933d 2e99 343d 17a9 5ebc
00000170: 8af0 e83b 580e 06bd 279f 81bd d95b da3d
00000180: ecb0 f63d 78eb 9f3d e2ad 73bd 231d 6abd

fc3.weight f4 [3, 100]
-0.0048987977 0.032608792 -0.019355947 -0.022230262 0.031585876 0.05126008 0.028814724 -0.038282588
0.010298031 -0.04333685 0.013980872 0.025521634 -0.019386824 -0.010833933 -0.0047032107 0.002793867
-0.019444915 0.030930629 -0.0056225886 0.026664123 -0.0029831245 0.007930867 -0.014897309 0.0009265579
-0.020290256 0.027886149 -0.019978674 -0.0077099144 -0.023059111 -0.010917519 -0.03308756 -0.021646583
0.034319233 0.0077244514 -0.0049321777 0.0336754 -0.011360053 -0.026319442 -0.031239718 0.025227409
-0.014584603 0.027396403 -0.013968252 -0.036153153 0.028523924 0.03191158 -0.043121215 -0.0054097995
-0.018339304 0.020860057 -0.020000419 0.0048833806 0.019497177 -0.02880632 0.008634879 0.029846523
0.026367646 -0.018802008 0.006546267 0.020895597 0.0038018737 0.02175424 -0.028157003 0.006270181
0.003300796 0.009016725 0.0008553218 -0.020163354 0.018362861 0.015779942 0.020034866 -0.00029771292
-0.025247382 0.033359874 0.01742828 0.030673804 0.040945765 -0.018634629 -0.0022564484 -0.014657045
0.024394652 -0.021431524 -0.0048964396 0.024304377 0.008453588 -0.038864557 0.007105836 0.006252119
0.0017473885 -0.008197123 0.036326557 0.0055277427 0.001888206 0.030560296 -0.018101629 0.029039873
0.025001384 0.015464578 0.022531964 0.014430309 -0.00024083303 0.0037539068 0.023499172 -0.022981003
-0.008765307 0.003288841 -0.009979385 0.009949495 -0.0067300578 -0.019175103 0.021292292 0.010564008
-0.017592471 -0.031316876 -0.012138099 -0.024643311 0.00065143197 0.014114039 0.003284196 0.028118923
0.0020472351 0.01621574 -0.025563503 0.0017803634 0.00043985498 -0.014099155 -0.0033105514 0.021340812
-0.02270216 0.033368252 0.032641 0.024019359 -0.014135547 0.010249891 0.0037418231 -0.0036617357
-0.02417508 -0.01621651 -0.018074995 -0.013255083 0.001741931 -0.03599797 -0.006755162 0.0028100568
-0.011937201 -0.017341709 -0.029161459 -0.025729213 0.026854813 0.025004808 -0.01955807 -0.0055625904
0.025345106 -0.016919902 0.021716997 0.020069996 -0.0068832827 -0.02457365 0.0047227005 0.022989366
0.013033347 -0.021569595 -0.021700121 0.00083224324 0.00804408 0.026819497 -0.029006507 -0.00013308908
0.010681631 0.011937069 -0.010118578 -0.0076316204 0.03043268 0.021969058 -0.022327997 -0.018133972
0.03006244 -0.025173761 0.0017460648 0.0054438557 -0.00411101 0.014438443 -0.027868109 -0.027800122
-0.007368018 0.0031489816 -0.003960816 -0.024355074 0.022836296 -0.00796431 -0.030854808 0.009170629
-0.032015167 -0.029463105 0.038031567 -0.0016844573 0.018480292 0.015634235 -0.0096715735 0.034772646
-0.02740499 -0.014362299 -0.0200319 -0.0122849 -0.01057403 -0.005007997 -0.0008308267 0.007826328
0.013457932 0.011884168 0.020643055 0.0092137605 0.012235778 -0.015360318 0.012356681 0.0022336643
0.0043972554 -0.011884839 0.0059657786 0.004508097 -0.009981742 0.023037842 -0.004898644 -0.015357504
-0.0026919916 0.008480713 0.01081346 0.014527043 0.0073371213 -0.017088993 -0.009098035 -0.044685703
-0.0028386773 0.013061205 -0.010669939 -0.0063610305 -0.014082755 -0.015523614 -0.025738107 0.0014516973
0.023071071 0.023520613 0.0138203595 0.0039721304 -0.00017978373 -0.019128518 0.0047633327 0.016848568
0.033514243 -0.007049641 0.009502154 0.023887502 0.006521377 -0.003308305 -0.009109816 0.0010029217
00000000: 1886 a0bb cc90 053d 5d90 9ebc 3d1c b6bc
00000010: 3160 013d 17f6 513d db0c ec3c 34ce 1cbd
00000020: 13b9 283c fb81 31bd 0710 653c bf12 d13c
00000030: 1ed1 9ebc cf80 31bc 641d 9abb 4f19 373b
00000040: f14a 9fbc 3b62 fd3c b13d b8bb b86e da3c
00000050: 8680 43bb 78f0 013c d813 74bc 40e4 723a
00000060: c037 a6bc 7e71 e43c 51aa a3bc 73a3 fcbb
00000070: 76e6 bcbc 65df 32bc d286 07bd 2d54 b1bc
00000080: 5392 0c3d 651d fd3b 1b9e a1bb 37ef 093d
00000090: 841f 3abc df9b d7bc 70ea ffbc b6a9 ce3c
000000a0: 42f4 6ebc 6c6e e03c 18db 64bc 5415 14bd
000000b0: 01ab e93c b8b5 023d df9f 30bd b044 b1bb
000000c0: 4f3c 96bc b6e2 aa3c ebd7 a3bc c404 a03b
000000d0: 8bb8 9f3c 3bfb ebbc 4f79 0d3c b280 f43c
000000e0: f600 d83c ab06 9abc 1182 d63b 3e2d ab3c
000000f0: db28 793b f335 b23c 84a9 e6bc 1776 cd3b
00000100: 2b52 583b e3ba 133c ad37 603a 9e2d a5bc
00000110: b66d 963c f044 813c 2920 a43c 5a16 9cb9
00000120: 99d3 cebc 5da4 083d c1c5 8e3c a147 fb3c
00000130: bfb6 273d a6a7 98bc ece0 13bb 1a24 70bc
00000140: 4bd7 c73c 2a91 afbc 5072 a0bb f919 c73c
00000150: eb80 0a3c 7130 1fbd 13d8 e83b 93de cc3b
00000160: a108 e53a 3a4d 06bc 28cb 143d 1122 b53b
00000170: ae7d f73a 9659 fa3c de49 94bc 07e5 ed3c
00000180: b4cf cc3c 245f 7d3c f494 b83c 1a6d 6c3c
00000190: 2088 7cb9 1b04 763b 5681 c03c a842 bcbc
000001a0: 5d9c 0fbc 9989 573b 9380 23bc 3503 233c
000001b0: d187 dcbb 1b15 9dbc 2c6d ae3c a914 2d3c
000001c0: 161e 90bc 2046 00bd e1de 46bc c5e0 c9bc
000001d0: dcc4 2a3a 923e 673c aa3b 573b a859 e63c
000001e0: e82a 063b dfd6 843c 8d6a d1bc 155b e93a
000001f0: 569c e639 2400 67bc d6f5 58bb edd2 ae3c
00000200: e1f9 b9bc 26ad 083d 92b2 053d 3fc4 c43c
00000210: c898 67bc 29ef 273c 6039 753b bbf9 6fbb
00000220: d10a c6bc 7dd8 84bc 0312 94bc d92b 59bc
00000230: 8151 e43a 9b72 13bd 685a ddbb ee28 383b
00000240: 4094 43bc 3310 8ebc 03e4 eebc 12c6 d2bc
00000250: a0fe db3c e2d6 cc3c 3f38 a0bc 6446 b6bb
00000260: 8aa0 cf3c 9b9b 8abc d8e7 b13c d569 a43c
00000270: 298d e1bb ae4e c9bc e2c0 9a3b 3254 bc3c
00000280: d289 553c b8b2 b0bc 74c4 b1bc e62a 5a3a
00000290: 51cb 033c 90b4 db3c 0e9f edbc d48d 0bb9
000002a0: 0202 2f3c b293 433c 64c8 25bc ac12 fabb
000002b0: f54d f93c 74f8 b33c 34e9 b6bc b28d 94bc
000002c0: 8245 f63c 3439 cebc 36dc e43a 5f62 b23b
000002d0: a7b5 86bb 388f 6c3c a94b e4bc 15bd e3bc
000002e0: 6a6f f1bb 255f 4e3b bcc9 81bb 4b84 c7bc
000002f0: 2f13 bb3c bd7c 02bc 39c3 fcbc 6840 163c
00000300: 5622 03bd 9c5c f1bc fdc6 1b3d 02c9 dcba
00000310: fb63 973c 5e13 803c 8575 1ebc c36d 0e3d
00000320: 6e80 e0bc d94f 6bbc f019 a4bc 9b46 49bc
00000330: b23e 2dbc 201a a4bb d6cb 59ba 003a 003c
00000340: a87e 5c3c d0b5 423c a01b a93c 50f5 163c
00000350: 9378 483c d8a9 7bbc ad73 4a3c ab62 123b
00000360: da16 903b a1b8 42bc 947c c33b a9b8 933b
00000370: 768a 23bc dbb9 bc3c ce84 a0bb 0a9e 7bbc
00000380: 206c 30bb b0f2 0a3c f02a 313c d602 6e3c
00000390: 3c6c f03b 37fe 8bbc ed0f 15bc 5b08 37bd
000003a0: 1a09 3abb aafe 553c f8d0 2ebc 3170 d0bb
000003b0: 5bbb 66bc c256 7ebc b9d8 d2bc e146 be3a
000003c0: 8bff bc3c 4dae c03c ca6e 623c a528 823b
000003d0: 5484 3cb9 69b3 9cbc bb15 9c3b 0206 8a3c
000003e0: 3b46 093d ad00 e7bb ecae 1b3c b9af c33c
000003f0: 46b1 d53b 26d0 58bb 5641 15bc 7874 833a

fc3.bias f4 [3]
0.029536566 0.019038482 0.005336133
00000000: abf6 f13c 97f6 9b3c bada ae3b

fc1.weight f4 [100, 11]
-0.19691938 0.16132446 0.18109766 -0.18813623 0.024603562 0.0956023 0.08562161 0.15178427
0.19701228 0.1526393 0.074749835 -0.0013758657 -0.19068378 0.17726453 0.04083276 -0.029802915
-0.17345211 -0.21208763 0.01187572 -0.062239908 0.118739665 0.122727334 -0.068635665 -0.061938208
-0.18445027 -0.15173951 0.15769888 0.20844142 -0.14569265 0.27356595 -0.04090664 0.046779748
0.14755493 0.06945306 -0.2769461 0.12602733 -0.026306655 -0.026188025 -0.07252043 0.13881831
0.25001195 -0.21052454 0.08020064 -0.0522769 -0.24992923 -0.0045762463 0.10566434 -0.22623037
-0.081141755 0.023455773 0.023120038 0.09762573 0.0014019159 -0.019210804 -0.11348739 -0.2621869
0.16622615 0.14088054 -0.08787105 -0.21454658 0.16631947 0.001094216 0.14138612 0.26972395
-0.03963354 0.024135534 -0.2903937 0.078111805 0.1728891 0.08376299 -0.18242791 -0.11203504
0.2074279 -0.16102248 0.03645686 0.12238732 -0.049617197 0.14606139 0.15158686 -0.08267864
-0.18219827 -0.059564795 -0.056368303 -0.11282581 -0.24929544 0.26416072 -0.2580134 0.16661547
-0.253253 -0.09270918 -0.2825879 0.22399461 0.0383841 -0.24633117 0.09852532 0.21695079
-0.2960371 -0.11030577 0.12600167 -0.08451966 0.13857645 -0.09343616 -0.09890335 0.27411163
0.20514917 0.26199985 0.25030044 -0.18679686 -0.10783727 0.058862865 -0.11786855 -0.12681144
0.017083528 0.13071643 0.13344891 0.14852442 -0.016204096 -0.049944717 -0.1184814 0.18740386
0.030561617 0.02729163 0.029985033 0.21026534 0.06274511 0.24450228 0.2579838 -0.10144913
-0.042558085 0.21796784 0.256268 -0.25883305 0.09278981 0.20092124 0.2485601 0.08204077
-0.14447504 0.010583403 0.079018414 -0.11342922 0.16074425 -0.049658276 0.0732217 0.20789482
-0.058282804 0.07457009 0.187472 0.08623884 0.19692238 0.112268694 0.17804144 0.24701424
0.13960677 0.25278807 0.027953545 -0.1467881 0.25961658 0.11052817 -0.10172612 -0.07395315
-0.2156558 -0.25534537 -0.18050176 -0.16777472 0.14663488 0.08247547 -0.27335462 0.17128317
-0.08860249 -0.2393757 -0.10453537 0.17438328 0.20481433 -0.23165871 -0.07666191 0.054847594
-0.2592258 -0.13178995 0.27119827 -0.25374797 -0.12235306 -0.16224231 -0.19624442 -0.17622666
-0.2454453 0.121421024 0.1163228 0.2115273 0.024875075 -0.2092518 0.04350515 -0.04634186
0.076651074 0.112724565 -0.22785896 -0.061844334 0.1467382 -0.22022115 -0.09278323 -0.3135374
0.011495093 0.066513844 0.137741 -0.09939548 -0.25588307 0.189369 0.1741247 0.09088407
0.07617187 0.20093232 -0.27440664 -0.053041443 0.11304837 0.28891167 -0.08299695 0.15820633
-0.17062174 0.024597565 0.22676507 0.1956565 -0.19953151 -0.14067948 -0.14839357 0.15926489
-0.12365532 0.28487062 0.1107896 -0.011138887 0.030582739 -0.09113007 -0.22065416 0.20496468
0.04188789 -0.21533775 0.22729392 0.15922391 -0.1635634 0.097651616 -0.124899045 -0.1593016
-0.23901626 -0.07050949 -0.10152598 0.04427451 -0.16355018 -0.07516115 -0.02688786 0.040644728
-0.10334795 0.039508335 0.025901167 0.010107395 -0.11903394 0.25981897 -0.27933976 -0.036511876
00000000: 3ca5 49be 3d32 253e aa71 393e c9a6 40be
00000010: 698d c93c 23cb c33d 625a af3d 566d 1b3e
00000020: 96bd 493e 7a4d 1c3e 7116 993d 6456 b4ba
00000030: 9c42 43be d584 353e 4140 273d 3e25 f4bc
00000040: 6e9d 31be 802d 59be 6192 423c 46ef 7ebd
00000050: c82d f33d 7858 fb3d db90 8cbd ebb2 7dbd
00000060: 88e0 3cbe 9a61 1bbe d17b 213e ab71 553e
00000070: 7430 15be d610 8c3e b98d 27bd 1f9c 3f3d
00000080: a418 173e 683d 8e3d e1cb 8dbe 4f0d 013e
00000090: 0e81 d7bc 4588 d6bc 9785 94bd 6326 0e3e
000000a0: 9101 803e bf93 57be 3c40 a43d 4d20 56bd
000000b0: 73ed 7fbe 56f4 95bb 8c66 d83d efa8 67be
000000c0: a62d a6bd 5226 c03c 3c66 bd3c 00f0 c73d
000000d0: 7ec0 b73a fa5f 9dbc 146c e8bd 5d3d 86be
000000e0: 3037 2a3e fd42 103e bdf5 b3bd 19b2 5bbe
000000f0: a74f 2a3e cc6b 8f3a 86c7 103e 4219 8a3e
00000100: c756 22bd e2b7 c53c 7cae 94be 15f9 9f3d
00000110: d709 313e ee8b ab3d 62ce 3abe a172 e5bd
00000120: fb67 543e 14e3 24be ca53 153d 34a6 fa3d
00000130: 673b 4bbd 1e91 153e 9639 1b3e 6b53 a9bd
00000140: 2f92 3abe 37fa 73bd 73e2 66bd 3811 e7bd
00000150: 4e47 7fbe 1340 873e 551a 84be 3f9d 2a3e
00000160: 61aa 81be 50de bdbd 5caf 90be d85e 653e
00000170: a538 1d3d 3d3e 7cbe a5c7 c93d 5928 5e3e
00000180: 2d92 97be fee7 e1bd 9506 013e a518 adbd
00000190: fce6 0d3e 755b bfbd d78d cabd 5c58 8c3e
000001a0: a012 523e d824 863e 6127 803e ad47 3fbe
000001b0: c9d9 dcbd 301a 713d 1165 f1bd dcda 01be
000001c0: c1f2 8b3c 87da 053e d5a6 083e c916 183e
000001d0: 74be 84bc d592 4cbd 60a6 f2bd cce6 3f3e
000001e0: 5b5c fa3c b292 df3c 2ca3 f53c cc4f 573e
000001f0: 8280 803d ce5e 7a3e 7416 843e 90c4 cfbd
00000200: 6351 2ebd f632 5f3e 8f35 833e c485 84be
00000210: 9508 be3d 4cbe 4d3e 8a86 7e3e fe04 a83d
00000220: 44f1 13be 0266 2d3c 68d4 a13d 944d e8bd
00000230: 249a 243e 7a66 4bbd 42f5 953d 61e2 543e
00000240: f3b9 6ebd 34b8 983d a9f8 3f3e fd9d b03d
00000250: 05a6 493e 21ed e53d 7f50 363e 4df1 7c3e
00000260: 14f5 0e3e 706d 813e d5fe e43c 9f4f 16be
00000270: 77ec 843e 985c e23d c955 d0bd c074 97bd
00000280: e0d4 5cbe a1bc 82be 74d5 38be 23cd 2bbe
00000290: 7427 163e e6e8 a83d 23f5 8bbe db64 2f3e
000002a0: 3975 b5bd e71e 75be a416 d6bd 8891 323e
000002b0: d9ba 513e f137 6dbe eb00 9dbd dfa7 603d
000002c0: 3eb9 84be f2f3 06be 80da 8a3e 41eb 81be
000002d0: 3e94 fabd d922 26be 4cf4 48be c374 34be
000002e0: 0356 7bbe 96ab f83d a63a ee3d 9d9a 583e
000002f0: d0c6 cb3c 1b46 56be 7532 323d f6d0 3dbd
00000300: 3dfb 9c3d 23dc e63d dc53 69be 7c50 7dbd
00000310: 8a42 163e a781 61be 2205 bebd f987 a0be
00000320: ea55 3c3c 6938 883d fa0b 0d3e db8f cbbd
00000330: 1b03 83be f2e9 413e bf4d 323e 6d21 ba3d
00000340: ffff 9b3d 34c1 4d3e 077f 8cbe fc41 59bd
00000350: e785 e73d 3bec 933e 4efa a9bd d700 223e
00000360: 77b7 2ebe d580 c93c 1a35 683e 2d5a 483e
00000370: fd51 4cbe 480e 10be 7cf4 17be 5616 233e
00000380: 003f fdbd 90da 913e a8e5 e23d e17f 36bc
00000390: a788 fa3c 67a2 babd 2af3 61be 43e2 513e
000003a0: a392 2b3d 8081 5cbe bdbf 683e 980b 233e
000003b0: 2a7d 27be 92fd c73d 12cb ffbd f51f 23be
000003c0: aec0 74be 4867 90bd daec cfbd 3059 353d
000003d0: b379 27be 17ee 99bd ee43 dcbc 167b 263d
000003e0: 17a8 d3bd 7ed3 213d af2e d43c 7d99 253c
000003f0: 11c8 f3bd fe06 853e 9f05 8fbe 7a8d 15bd

fc1.bias f4 [100]
0.37158594 -0.2858758 0.26782432 -0.11332429 -0.08985825 0.27582473 -0.2669848 -0.21897352
-0.33221304 -0.3451551 0.19416294 0.097213805 0.10443294 -0.25329974 0.25848874 -0.0081978375
-0.3393332 -0.2612094 -0.35369343 -0.15146336 0.23458776 -0.013053141 0.2914247 -0.09462168
0.29816163 0.10871857 -0.06209715 -0.024804613 0.21585606 0.3321904 -0.099775545 -0.3692108
0.16248237 -0.03158666 -0.31972408 0.17065857 -0.2120254 0.26630598 0.15880355 0.08028389
0.14035365 -0.27575827 0.36383337 -0.0075504794 0.033181086 -0.20296599 -0.3704627 -0.29425478
-0.26466334 0.2612961 0.34760925 -0.3123804 0.07021011 0.015141477 -0.13270314 -0.08035408
0.08783085 -0.009641207 -0.3412355 -0.16217002 0.099933654 0.17426108 -0.13133557 -0.022447277
-0.028447505 -0.34459364 0.15372539 -0.29366678 0.108707435 0.2814046 0.17915216 0.33711478
-0.06054918 -0.24448985 -0.10169903 -0.23625708 -0.2676982 -0.13288996 0.108181536 -0.20695756
-0.28026378 -0.2207526 -0.27439424 0.12717806 -0.28306234 -0.0905298 -0.3292446 -0.32653862
-0.33691877 -0.020008435 0.121191666 0.20630895 0.264289 -0.08359339 -0.3326073 0.14257571
0.27985102 -0.16061243 -0.3000189 -0.17488244
00000000: 8340 be3e 505e 92be 4520 893e 9116 e8bd
00000010: 9a07 b8bd e638 8d3e 3bb2 88be 983a 60be
00000020: d417 aabe 2bb8 b0be a6d2 463e 0818 c73d
00000030: f0e0 d53d 81b0 81be a358 843e 3950 06bc
00000040: 15bd adbe 3dbd 85be 4e17 b5be 3619 1bbe
00000050: c637 703e d7dc 55bc 9e35 953e 03c9 c1bd
00000060: a4a8 983e d7a7 de3d 9559 7ebd 0b33 cbbc
00000070: 5f09 5d3e dc14 aa3e 1f57 ccbd 3309 bdbe
00000080: c761 263e 0361 01bd e0b2 a3be 1fc1 2e3e
00000090: 301d 59be 4259 883e 669d 223e e16b a43d
000000a0: deb8 0f3e 3030 8dbe 5e48 ba3e 036a f7bb
000000b0: e4e8 073d 51d6 4fbe 49ad bdbe 90a8 96be
000000c0: f481 87be 9ac8 853e d7f9 b13e 53f0 9fbe
000000d0: 51ca 8f3d f513 783c 55e3 07be ae90 a4bd
000000e0: a9e0 b33d 27f6 1dbc 6bb6 aebe e60f 26be
000000f0: 04aa cc3d 7f71 323e d57c 06be 5ae3 b7bc
00000100: be0a e9bc 946e b0be 306a 1d3e 7e5b 96be
00000110: 01a2 de3d 4414 903e aa73 373e 4f9a ac3e
00000120: 6b02 78bd 8c5b 7abe 9547 d0bd 60ed 71be
00000130: bd0f 89be 4e14 08be 488e dd3d afec 53be
00000140: bc7e 8fbe f80c 62be 677d 8cbe f73a 023e
00000150: 8ced 90be b067 b9bd c092 a8be 1230 a7be
00000160: 9e80 acbe bbe8 a3bc 5633 f83d a742 533e
00000170: e350 873e 0333 abbd 814b aabe 5eff 113e
00000180: a248 8f3e 9677 24be 149c 99be 6214 33be

fc2.weight f4 [100, 100]
0.08782514 -0.12818001 -0.03447907 -0.056846663 -0.0010001808 0.038475074 0.007345883 -0.13659608
-0.1254862 -0.10303319 0.11923179 0.014567759 0.12156563 0.036258943 0.12174007 -0.013213189
-0.11569408 0.033475712 -0.010103768 -0.010682552 0.06494256 0.05094107 0.04394256 -0.0061861384
0.004800175 0.12305431 -0.0041032666 -0.043514706 0.12057569 0.10963951 -0.069011584 -0.16060978
0.11608566 -0.0267494 -0.101896465 0.07047687 -0.111515835 -0.027497927 0.117261104 0.062354125
0.071662605 0.031381384 0.04868579 0.003213331 -0.015130311 -0.09461317 -0.10844743 -0.10382076
-0.0013950999 0.12736665 0.09334458 -0.0462926 0.09225989 0.018842712 0.029988015 -0.0077331336
0.084049605 -0.035198245 -0.032550503 -0.06422892 -0.01538432 0.12345415 -0.062897354 -0.07699318
-0.07865689 -0.10287234 0.13297741 -0.15280083 -0.021142999 0.131696 0.096253216 -0.030067243
-0.04322406 0.0012673617 -0.037466027 0.024491087 -0.12321009 -0.10375145 0.09081475 -0.10359642
-0.14587116 -0.073857926 -0.03636525 0.0677319 0.019552736 0.016663352 -0.070787154 -0.0046577337
-0.1384725 -0.061446432 0.07704445 0.13240984 0.063602395 -0.029050855 -0.06945721 0.05217227
0.077026784 -0.051644657 -0.036680322 -0.09994374 0.08550038 -0.04005355 -0.0017755774 -0.05428432
0.040900983 0.046591572 0.036360897 -0.14549293 -0.05652681 0.01776895 0.06803885 0.10927675
0.025306318 -0.082380384 0.10400376 0.06571366 -0.011817233 -0.032146744 -0.053103536 -0.038573608
-0.0080999965 -0.10357527 0.06195542 -0.08226884 0.12560537 0.047359064 0.055212375 -0.028398626
0.03266125 0.11445097 -0.08483844 -0.07735406 -0.015572532 0.005487187 -0.16171974 0.046069592
0.02265315 0.07668587 -0.02770734 0.036344144 0.014351122 -0.13807808 0.14668308 0.06525706
-0.029215788 0.028252387 -0.09504087 -0.14290051 -0.012916033 0.03841803 -0.027106863 -0.11645438
0.07447531 0.06724659 -0.081754446 -0.07543694 0.0068146675 0.09033847 -0.1617102 -0.022566024
0.12608594 0.09315393 0.047713697 0.066757336 -0.031457756 0.0051206294 -0.028373096 0.03293617
0.041456927 0.07864807 -0.028011452 -0.0054997164 0.033286236 -0.12168098 -0.110674985 -0.026956074
0.026209988 -0.020358378 -0.039626926 0.018708726 -0.1379634 -0.15391867 -0.1341845 -0.042414844
-0.039387014 0.017636767 -0.053714752 -0.115629755 -0.10596789 0.0732879 0.13366312 -0.0068157185
0.1306359 0.028239528 -0.08076117 0.08141124 0.0312506 -0.030140558 0.018333439 0.0032601678
0.0057972386 -0.025358535 0.09788671 -0.019780815 -0.0037951919 0.10740286 -0.010936456 -0.09528
-0.107500836 -0.058725607 -0.02089565 0.028417688 0.071929336 -0.07427828 0.07431144 0.0058895657
-0.116759904 -0.12591816 -0.15243374 0.010330548 0.13086763 -0.0008627452 0.1406853 0.033352733
0.05041623 0.0724013 -0.049002618 -0.060961355 0.07337585 0.028155258 0.052214287 -0.07697955
0.07681443 0.051351387 -0.044356577 0.09156877 -0.08351354 0.099162206 0.027903495 0.049689915
0.12623449 -0.14066054 -0.016193438 0.011777527 0.096839234 -0.123940706 -0.05256307 -0.057849344
-0.060929853 0.02496484 0.12289459 -0.11029192 -0.029778082 0.035130996 -0.058511492 -0.010154969
00000000: abdd b33d 9f41 03be ed39 0dbd 0cd8 68bd
00000010: 8018 83ba 0a98 1d3d bcb5 f03b d8df 0bbe
00000020: 747f 00be 1103 d3bd cc2f f43d 9cad 6e3c
00000030: 67f7 f83d 4284 143d dc52 f93d 227c 58bc
00000040: 05f1 ecbd d41d 093d 468a 25bc df05 2fbc
00000050: 9b00 853d 95a7 503d 1dfd 333d 17b5 cabb
00000060: c94a 9d3b e603 fc3d b274 86bb 7a3c 32bd
00000070: 63f0 f63d ae8a e03d f255 8dbd e476 24be
00000080: 52be ed3d 8f21 dbbc 18af d0bd 2d56 903d
00000090: 6a62 e4bd 5543 e1bc 9726 f03d 0a67 7f3d
000000a0: d8c3 923d c489 003d c06a 473d c096 523b
000000b0: 20e5 77bc 8dc4 c1bd b019 debd fb9f d4bd
000000c0: c9db b6ba 676c 023e 712b bf3d 4f9d 3dbd
000000d0: c1f2 bc3d 085c 9a3c 6da9 f53c 3a66 fdbb
000000e0: 3322 ac3d 092c 10bd ad53 05bd 748a 83bd
000000f0: 840e 7cbc 88d5 fc3d 54d0 80bd 9aae 9dbd
00000100: dd16 a1bd bcae d2bd 3b2b 083e d277 1cbe
00000110: 1534 adbc 51db 063e 6820 c53d 944f f6bc
00000120: b60b 31bd 9a1d a63a fa75 19bd 88a1 c83c
00000130: 9255 fcbd a47b d4bd 15fd b93d 5c2a d4bd
00000140: 405f 15be d342 97bd baf3 14bd 06b7 8a3d
00000150: 0f2d a03c 9581 883c dbf8 90bd e79f 98bb
00000160: bccb 0dbe 41af 7bbd 7bc9 9d3d 7296 073e
00000170: f941 823d 0ffc edbc 953f 8ebd 97b2 553d
00000180: 38c0 9d3d 5989 53bd 1b3e 16bd 4eaf ccbd
00000190: d31a af3d 310f 24bd 7eba e8ba 3c59 5ebd
000001a0: ca87 273d ced6 3e3d 2aef 143d 19fc 14be
000001b0: a888 67bd 3090 913c f457 8b3d 7dcc df3d
000001c0: 324f cf3c 0cb7 a8bd ecff d43d e294 863d
000001d0: 119d 41bc 4eac 03bd 1883 59bd 5cff 1dbd
000001e0: d9b5 04bc 451f d4bd f7c4 7d3d 917c a8bd
000001f0: b29e 003e 94fb 413d 5f26 623d 3ca4 e8bc
00000200: cec7 053d 4565 ea3d c7bf adbd ce6b 9ebd
00000210: ef23 7fbc dccd b33b dc99 25be 78b3 3c3d
00000220: 1993 b93c 7b0d 9d3d 81fa e2bc 99dd 143d
00000230: f820 6b3c 5764 0dbe 1734 163e 7ea5 853d
00000240: f355 efbc 8d71 e73c caa4 c2bd 8354 12be
00000250: c59d 53bc 395c 1d3d 360f debc a27f eebd
00000260: 8386 983d 95b8 893d e06e a7bd af7e 9abd
00000270: 934d df3b 6003 b93d 5c97 25be 62dc b8bc
00000280: ac1c 013e 7dc7 be3d 706f 433d 12b8 883d
00000290: d9d9 00bd f4ca a73b b26e e8bc 14e8 063d
000002a0: bdce 293d 3d12 a13d 4678 e5bc f736 b4bb
000002b0: 2657 083d e133 f9bd 91a9 e2bd fcd2 dcbc
000002c0: 54b6 d63c 9dc6 a6bc d84f 22bd 0b43 993c
000002d0: 4746 0dbe db9c 1dbe a967 09be 30bb 2dbd
000002e0: 4754 21bd fb7a 903c 0004 5cbd 4bcf ecbd
000002f0: b105 d9bd f717 963d fcde 083e 6456 dfbb
00000300: 6bc5 053e 9556 e73c 1d66 a5bd f0ba a63d
00000310: a100 003d 55e9 f6bc 0230 963c 8aa8 553b
00000320: c3f6 bd3b b4bc cfbc d478 c83d 600b a2bc
00000330: c1b8 78bb 08f6 db3d d22e 33bc 2922 c3bd
00000340: 6629 dcbd 438a 70bd 5b2d abbc 36cc e83c
00000350: b04f 933d 361f 98bd 9930 983d 42fd c03b
00000360: d11f efbd b1f0 00be 9717 1cbe 7541 293c
00000370: 2a02 063e da29 62ba cf0f 103e e09c 083d
00000380: 4081 4e3d 2247 943d f8b6 48bd 9db2 79bd
00000390: 1446 963d dba5 e63c a6de 553d 74a7 9dbd
000003a0: e250 9d3d d555 523d 3eaf 35bd 6888 bb3d
000003b0: 2609 abbd 8e15 cb3d df95 e43c a787 4b3d
000003c0: 9d43 013e 5109 10be 1aa8 84bc 87f6 403c
000003d0: a653 c63d a0d4 fdbd 604c 57bd 6ff3 6cbd
000003e0: 9591 79bd 1083 cc3c 29b0 fb3d bbe0 e1bd
000003f0: 2af1 f3bc 85e5 0f3d bfa9 6fbd 0761 26bc

fc2.bias f4 [100]
0.114385605 0.054113686 0.068831824 0.116440386 0.114114985 0.03301391 0.16244939 -0.026649231
0.11712846 -0.115190774 -0.0011688392 0.06802811 0.15594923 0.003515657 0.095520824 -0.09046349
0.08661921 -0.07700381 -0.121508285 0.09767694 -0.020571515 -0.10650176 0.15523006 -0.10804797
-0.15203929 -0.122875065 -0.015398569 0.12610582 0.12187912 -0.14406694 0.020644804 -0.105617985
-0.010432236 0.09184102 -0.012752253 0.026379796 -0.16231494 0.040984325 -0.047846083 0.09826049
-0.04306602 0.024133146 -0.13169852 -0.050649293 -0.026972247 0.10834533 0.047090042 -0.120948456
0.16426755 0.081793316 0.04831879 -0.087130815 -0.04090716 -0.07802453 0.13360986 0.12715851
0.17141095 -0.14317651 0.13423742 -0.09760327 0.090872556 0.016581291 0.095564805 0.13094033
0.16299772 -0.16653197 -0.010152444 0.083795816 -0.1481936 -0.08790593 0.050627004 -0.09605016
0.09077657 -0.10664147 -0.06616829 0.09836574 -0.15780622 -0.052491866 -0.013873631 -0.044720713
0.045712665 -0.004993563 -0.0088605 0.02006372 -0.13311437 0.04197306 -0.037708465 0.002677531
0.1110344 -0.011610497 -0.033659257 0.01556981 -0.07380822 0.087767504 0.020850988 0.08852351
-0.11694794 -0.14125134 0.1412818 -0.05884607
00000000: 0043 ea3d 50a6 5d3d b3f7 8c3d 4c78 ee3d
00000010: 1eb5 e93d 9839 073d 2259 263e 7d4f dabc
00000020: 0ce1 ef3d 24e9 ebbd bc33 99ba 5252 8b3d
00000030: 28b1 1f3e f066 663b 6ca0 c33d ec44 b9bd
00000040: 6a65 b13d 2cb4 9dbd 56d9 f8bd d90a c83d
00000050: 9885 a8bc 981d dabd a1f4 1e3e 4148 ddbd
00000060: 30b0 1bbe eca5 fbbd 484a 7cbc e221 013e
00000070: c39b f93d 4986 13be 4b1f a93c 3e4e d8bd
00000080: f8eb 2abc 2517 bc3d d3ee 50bc 711a d83c
00000090: e335 26be 2edf 273d 41fa 43bd cc3c c93d
000000a0: ff65 30bd e0b2 c53c fadb 06be a275 4fbd
000000b0: e7f4 dcbc 28e4 dd3d 7de1 403d d3b3 f7bd
000000c0: c135 283e 4183 a73d ece9 453d a471 b2bd
000000d0: 448e 27bd 53cb 9fbd 06d1 083e d735 023e
000000e0: 5a86 2f3e dd9c 12be 8975 093e 39e4 c7bd
000000f0: 641b ba3d 7dd5 873c 7bb7 c33d 3915 063e
00000100: e0e8 263e 5b87 2abe 7056 26bc 249d ab3d
00000110: 10c0 17be 0608 b4bd 435e 4f3d f2b5 c4bd
00000120: 11e9 b93d d866 dabd 3e83 87bd fa73 c93d
00000130: f497 21be b601 57bd 3a4e 63bc 112d 37bd
00000140: 343d 3b3d 0ba1 a3bb a12b 11bc ac5c a43c
00000150: 224f 08be f2eb 2b3d 3174 1abd 8479 2f3b
00000160: 0166 e33d f439 3ebc 4ade 09bd 8418 7f3c
00000170: c428 97bd 73bf b33d b1cf aa3c d04b b53d
00000180: 6782 efbd 31a4 10be 2dac 103e 9408 71bd

fc3.weight f4 [1, 100]
0.058539968 0.0721326 0.06063307 0.070003524 0.07214279 0.06247281 0.06164523 -0.06464717
0.063961074 -0.06487015 0.045264814 0.070322715 0.06401362 -0.047736567 0.06896435 -0.060346063
0.06341206 -0.06470197 -0.06953327 0.05477987 0.06749239 -0.063102014 0.069786005 -0.063171074
-0.057645544 -0.04590532 0.042683 0.06942026 0.07152833 -0.069071025 0.054353144 -0.060808476
0.06624744 0.05613739 -0.06294272 0.0668856 -0.07836353 0.063026346 -0.06446143 0.06673889
-0.05916455 -0.056959003 -0.06348884 -0.07150114 0.06274799 0.074168175 0.054793216 -0.058319323
0.061615095 0.06899693 0.06988284 -0.06413476 -0.064591736 -0.06887993 0.06524268 0.06817802
0.06643645 -0.043954454 0.06460635 -0.0586977 0.0637537 -0.06627282 0.057316873 0.06424818
0.06616488 -0.06975032 -0.062150415 0.06968325 -0.04940356 -0.04556714 0.071126126 -0.058045544
0.06470505 -0.068929456 -0.06925524 0.062373724 -0.06565096 -0.074352264 0.06901725 -0.07016815
-0.03958227 -0.031705953 -0.060081743 -0.06543084 -0.059668597 0.06431395 -0.05295278 -0.043992642
0.058803607 -0.073519625 -0.05225797 -0.046808034 -0.06636954 0.07513356 -0.06713571 0.070953555
-0.06640174 -0.07935678 0.04284049 -0.062254485
00000000: 9bc7 6f3d 42ba 933d 625a 783d 025e 8f3d
00000010: 99bf 933d 7de3 7f3d b57f 7c3d bc65 84bd
00000020: 06fe 823d a4da 84bd 9967 393d 5b05 903d
00000030: 9319 833d 6b87 43bd 2e3d 8d3d 6f2d 77bd
00000040: 2fde 813d 7782 84bd 7667 8ebd db60 603d
00000050: 7339 8a3d a13b 81bd f7eb 8e3d d65f 81bd
00000060: bc1d 6cbd 3807 3cbd 5fd4 2e3d 362c 8e3d
00000070: 727d 923d 1c75 8dbd 67a1 5e3d 4f12 79bd
00000080: bdac 873d 52f0 653d 1de8 80bd 51fb 883d
00000090: 0f7d a0bd f513 813d 5b04 84bd 66ae 883d
000000a0: 8756 72bd d84d 69bd 7006 82bd 316f 92bd
000000b0: 0582 803d 7ce5 973d da6e 603d 3ee0 6ebd
000000c0: 1c60 7c3d 434e 8d3d bc1e 8f3d 1659 83bd
000000d0: ac48 84bd ec10 8dbd f49d 853d eba0 8b3d
000000e0: d50f 883d 9609 34bd 5650 843d 006d 70bd
000000f0: 4d91 823d 0bba 87bd 19c5 6a3d 8d94 833d
00000100: 7481 873d 41d9 8ebd 6f91 7ebd 17b6 8e3d
00000110: 635b 4abd 9ca4 3abd 93aa 913d 2ac1 6dbd
00000120: 1584 843d e32a 8dbd b1d5 8dbd 977b 7f3d
00000130: 0374 86bd 0046 98bd ea58 8d3d 52b4 8fbd
00000140: 0521 22bd 1ade 01bd 4618 76bd 9b00 86bd
00000150: 0f67 74bd 08b7 833d 04e5 58bd a131 34bd
00000160: 0ddc 703d 7591 96bd 740c 56bd c8b9 3fbd
00000170: c1ec 87bd a0df 993d 727e 89bd 1950 913d
00000180: a3fd 87bd cf85 a2bd 8279 2f3d 8ffe 7ebd

fc1.weight f4 [100, 14]
0.19402103 0.18189809 0.11780602 0.25245553 0.11549098 0.14665653 -0.12164362 -0.16635853
0.08458048 -0.06606903 0.13132536 0.21879737 -0.14102457 0.25211385 -0.14122707 -0.09122956
0.072836034 0.11275261 0.10813854 -0.25480843 0.16186918 0.26601043 -0.11013693 -0.07921108
-0.14563927 -0.0103962235 -0.22329022 -0.081359245 0.036043238 -0.011122356 -0.17711744 -0.0027878154
-0.22130528 0.070604324 0.12773953 0.15264823 0.18971121 0.04238233 0.124326795 0.24756508
-0.16315731 0.107249305 -0.023120342 -0.2320879 -0.18709841 0.14212243 -0.048027735 0.11307865
0.19292906 0.20592386 -0.2443339 0.18552658 0.21581557 -0.24402963 -0.21422663 0.1847218
-0.26440236 -0.089741394 0.106108114 -0.082220815 0.023367427 -0.1470722 -0.15448478 0.017720908
0.17200303 -0.09754772 0.11869442 -0.21795197 -0.26800004 -0.095784046 0.075455844 0.17226739
0.08180926 0.18478514 0.20176467 -0.2168072 0.10055642 0.2177489 -0.057927538 -0.10982861
-0.05873374 0.18041965 -0.21729778 -0.048265688 0.07811789 0.19480704 0.167831 0.25965637
-0.08925392 -0.23913622 0.20357154 -0.040515665 0.108438596 0.11002875 0.14777076 -0.14387943
0.031084571 -0.20524493 -0.019023353 0.10378483 0.15047553 0.16930616 -0.2578105 -0.17931269
-0.15022695 -0.16408569 0.19924697 0.13445637 -0.04705015 0.012007003 -0.03208284 -0.06661175
0.21932445 -0.18096715 -0.08025431 0.008062109 -0.13842633 0.082409464 -0.030599017 0.077740386
-0.12761503 0.1264803 -0.06911552 0.17032711 0.26150727 0.25072718 0.2621118 -0.016740693
0.13171318 -0.11606191 0.21409705 0.21690077 -0.18144125 0.21447277 0.032123305 -0.17195734
-0.1419525 0.2190939 -0.048629 0.18594882 -0.07780933 0.23513268 -0.058227256 0.12694553
-0.20021446 0.2514525 0.25576013 -0.17028841 0.24407978 0.06666721 0.19141793 -0.0924441
0.17722619 -0.00027584113 0.0035624919 -0.17347428 -0.21558665 -0.018690625 -0.13261548 0.19226143
-0.23014736 -0.15763755 -0.08268126 0.095855035 0.17844795 -0.089808844 -0.23514366 -0.029989455
-0.08405114 0.2682073 -0.024427151 0.22478677 -0.014460213 0.2666074 0.21094377 0.091257825
-0.049100175 -0.1339154 -0.17199951 -0.22702324 0.23903951 -0.1476351 -0.2549298 -0.15619552
-0.034226593 0.16280523 -0.06031303 -0.15601754 -0.26765472 0.103214025 -0.15007861 0.21432284
0.10541044 -0.20395152 -0.18338136 -0.041942667 -0.04926348 0.24831568 -0.21749824 0.04847658
-0.19208252 -0.13883504 -0.09168023 0.006998746 -0.02229033 -0.053642977 0.20675409 0.26217228
-0.17448899 0.2301519 -0.16995801 0.10276611 -0.009698701 0.04599237 -0.05640854 -0.13879316
0.015332188 -0.21524538 -0.010518879 0.06831479 -0.01200877 -0.08148459 0.20486937 0.062355697
-0.021081302 0.0226639 0.108879134 -0.16670173 -0.03784922 0.044477273 -0.18923809 -0.20545612
-0.12398751 0.17171437 0.06980382 0.16503608 -0.046151 0.00034435303 0.022696262 0.24292526
-0.25115448 0.12657648 -0.17198482 -0.08200377 0.1359394 -0.043785 0.23103665 -0.068556525
-0.0023765555 -0.254138 -0.24470061 0.10791556 0.23025395 -0.1244895 -0.19691363 -0.05219701
00000000: 73ad 463e 7e43 3a3e 4844 f13d da41 813e
00000010: 8986 ec3d 212d 163e 4a20 f9bd e459 2abe
00000020: 8838 ad3d 334f 87bd 287a 063e 6b0c 603e
00000030: bf68 10be 1115 813e d49d 10be 90d6 babd
00000040: 0f2b 953d d7ea e63d bd77 dd3d 4076 82be
00000050: 09c1 253e 8532 883e 798f e1bd 6b39 a2bd
00000060: 7622 15be ec54 2abc 31a6 64be ad9f a6bd
00000070: 13a2 133d 8b3a 36bc 465e 35be c8b3 36bb
00000080: da9d 62be 0099 903d 27ce 023e d14f 1c3e
00000090: a843 423e 1899 2d3d 0c9f fe3d b381 7d3e
000000a0: b612 27be 86a5 db3d df66 bdbc 73a8 6dbe
000000b0: ba96 3fbe 8b88 113e bbb8 44bd c795 e73d
000000c0: 328f 453e b4dd 523e aa32 7abe aefa 3d3e
000000d0: c2fe 5c3e e7e2 79be 3a5e 5bbe b627 3d3e
000000e0: bf5f 87be 56ca b7bd 364f d93d 6363 a8bd
000000f0: 0c6d bf3c 189a 16be 4231 1ebe 702b 913c
00000100: 9021 303e 19c7 c7bd 0f16 f33d cd2e 5fbe
00000110: 4d37 89be 6d2a c4bd 9888 9a3d dd66 303e
00000120: 9d8b a73d 5138 3d3e 669b 4e3e b502 5ebe
00000130: 86f0 cd3d 91f9 5e3e 6d45 6dbd d3ed e0bd
00000140: ca92 70bd eebf 383e 4f83 5ebe 3eb2 45bd
00000150: 46fc 9f3d 7f7b 473e e4db 2b3e aef1 843e
00000160: c2ca b6bd 20e0 74be 0f75 503e c1f3 25bd
00000170: 0e15 de3d c156 e13d 3851 173e 2155 13be
00000180: 12a5 fe3c ba2b 52be ddd6 9bbc 248d d43d
00000190: 4216 1a3e 985e 2d3e bdff 83be bf9d 37be
000001a0: 18d5 19be 1406 28be 6607 4c3e eeae 093e
000001b0: a8b7 40bd 05b9 443c 4c69 03bd be6b 88bd
000001c0: 9796 603e 744f 39be 5f5c a4bd f016 043c
000001d0: a2bf 0dbe 4bc6 a83d caaa fabc 5a36 9f3d
000001e0: 84ad 02be 0d84 013e 708c 8dbd 3b6a 2e3e
000001f0: 48e4 853e 505f 803e 8533 863e c723 89bc
00000200: d2df 063e deb1 edbd 423c 5b3e 3c1b 5e3e
00000210: bccb 39be c09e 5b3e ba93 033d 9615 30be
00000220: ff5b 11be 275a 603e 342f 47bd 5e69 3e3e
00000230: 7f5a 9fbd 9fc6 703e b47f 6ebd 02fe 013e
00000240: 0505 4dbe 62be 803e fef2 823e 1660 2ebe
00000250: 0df0 793e d188 883d 1003 443e 5553 bdbd
00000260: c87a 353e c59e 90b9 b278 693b 3ea3 31be
00000270: bfc2 5cbe 151d 99bc 5acc 07be 2ee0 443e
00000280: c0ab 6bbe bd6b 21be cb54 a9bd a54f c43d
00000290: 0fbb 363e b3ed b7bd 80c9 70be 72ac f5bc
000002a0: 0123 acbd 7852 893e 731b c8bc 812e 663e
000002b0: 87ea 6cbc c480 883e a501 583e 62e5 ba3d
000002c0: 441d 49bd 1e21 09be a420 30be c878 68be
000002d0: c6c6 743e a82d 17be 2986 82be b8f1 1fbe
000002e0: 2f31 0cbd 6ab6 263e cc0a 77bd 10c3 1fbe
000002f0: 0a0a 89be e061 d33d 35ae 19be 7277 5b3e
00000300: 6ee1 d73d abd8 50be 53c8 3bbe 13cc 2bbd
00000310: 81c8 49bd 7746 7e3e dcb7 5ebe 618f 463d
00000320: 48b1 44be c62a 0ebe d8c2 bbbd bd55 e53b
00000330: 369a b6bc bdb8 5bbd 58b7 533e 723b 863e
00000340: 3ead 32be f1ac 6b3e 7909 2ebe 0a77 d23d
00000350: 4de7 1ebc 7f62 3c3d a40c 67bd cb1f 0ebe
00000360: dc33 7b3c 4969 5cbe 6057 2cbc a0e8 8b3d
00000370: 6fc0 44bc 65e1 a6bd 47c9 513e b068 7f3d
00000380: b2b2 acbc a5a9 b93c 06fc de3d dcb3 2abe
00000390: c907 1bbd cd2d 363d a1c7 41be 1763 52be
000003a0: 2aed fdbd e4d5 2f3e 4ef5 8e3d 38ff 283e
000003b0: d508 3dbd 488a b439 83ed b93c 66c1 783e
000003c0: 5297 80be 449d 013e ca1c 30be 98f1 a7bd
000003d0: b333 0b3e e657 33bd df94 6c3e 5d67 8cbd
000003e0: fcbf 1bbb 601e 82be cc92 7abe d502 dd3d
000003f0: b1c7 6b3e 5af4 febd baa3 49be 88cc 55bd
