mujoco/gail/save_model/ckpt_1157.pth.tar (torch, 144879 bytes, 16 tensors)

fc1.weight f4 [100, 11]
0	0x3df43d59	0.11925764
1	0xbe5bfd5c	-0.21483368
2	0x3e711678	0.23543727
3	0xbe38fb67	-0.18064652
4	0x3c2092d9	0.009800636
5	0x3c54cda9	0.012988486
6	0xbdc3dd72	-0.09563722
7	0x3e041da4	0.12901932
8	0x3eccf566	0.40030974
9	0x3d744161	0.059632663
10	0xbd972a8a	-0.073811606
11	0x3e6ed2ed	0.2332265
12	0xbde3b64d	-0.111187555
13	0x3d45060a	0.048101462
14	0xbebef77f	-0.372982
15	0x3daa46ca	0.08314283
16	0x3dfe2f68	0.12411386
17	0x3d7c5ec1	0.061613802
18	0x3df57952	0.11986031
19	0x3e29720a	0.16547409
20	0x3e32244c	0.17396659
21	0x3e6e223b	0.23255245
22	0x3e4ed0b5	0.20196803
23	0xbdd2b20d	-0.10287867
24	0xbe67f453	-0.22651796
25	0x3d8fe355	0.07025782
26	0x3ceaa7a3	0.028644389
27	0xbe1ecbbd	-0.15507407
28	0x3d574da7	0.05256429
29	0x3ea285b5	0.31742635
30	0x3d3c762d	0.04601114
31	0xbd3632ec	-0.044482157
32	0x3e709026	0.23492488
33	0x3ece8893	0.40338573
34	0xbed63a20	-0.4184122
35	0x3d98af8d	0.07455359
36	0x3e6f4809	0.23367323
37	0x3dcc32a6	0.09970598
38	0x3a5ccba2	0.00084226776
39	0xbe51bcfd	-0.2048225
40	0xbe1f3450	-0.155473
41	0xbdd36685	-0.103222884
42	0x3d77111c	0.06031905
43	0xbe9db711	-0.3080373
44	0x3d491ad5	0.049097855
45	0x3e572326	0.21009502
46	0x3e4a4ac3	0.19755082
47	0xbe8de3e5	-0.27712932
48	0xbdb4240c	-0.08795938
49	0x3de732c0	0.11288977
50	0xbe64ac6a	-0.22331396
51	0x3d206a78	0.039164037
52	0x3eb5ad29	0.35483673
53	0x3d5f5fac	0.0545346
54	0x3d1eaef6	0.038741075
55	0x3e94b6fc	0.29045856
56	0xbe20acc9	-0.15690912
57	0xbd13f7ef	-0.03612512
58	0x3e0ef02a	0.13958803
59	0x3e3e1c48	0.18565476
60	0x3d639550	0.055562317
61	0x3ddf5352	0.10904564
62	0xbe3e6dbd	-0.1859655
63	0xbcbd3591	-0.023096832
64	0xbc59f536	-0.013303092
65	0x3d73bfbb	0.05950902
66	0x3e46355e	0.19356295
67	0xbebb48b7	-0.36578915
68	0x3e45586a	0.19272009
69	0xbe222354	-0.15833789
70	0xbe43d76c	-0.19125146
71	0xbe8cc749	-0.27495793
72	0x3dd4996b	0.10380825
73	0xbcb09466	-0.021555137
74	0x3be3497b	0.00693625
75	0xbe2dc475	-0.16969474
76	0xbdf81997	-0.12114256
77	0x3dea4083	0.11438086
78	0x3e9a2e29	0.30113342
79	0xbe9ca3d2	-0.30593735
80	0xbe0e974b	-0.13924901
81	0x3e90c414	0.28274596
82	0x3db71b89	0.08940799
83	0x3e425427	0.18977414
84	0xbd1ab8cd	-0.037773896
85	0xbeb5b379	-0.3548849
86	0x3e9a6865	0.30157772
87	0x3e8ac695	0.2710463
88	0xbc85b69b	-0.016322425
89	0x3e264c1d	0.16239972
90	0xbe51e678	-0.20498073
91	0xbecd3afa	-0.40084058
92	0x3e88dbc3	0.26730165
93	0x3eac83d4	0.33694327
94	0x3da57c57	0.080803566
95	0xbd0dd33d	-0.03462528
96	0x3ea6b1d0	0.32557535
97	0xbd1d71ca	-0.038438596
98	0x3e493f61	0.19653083
99	0x3cd4f05d	0.02599352
100	0x3e49eb85	0.1971875
101	0x3d86d7f9	0.06584162
102	0x3d2c3036	0.042038165
103	0x3e8822e0	0.26589108
104	0xbe7542d0	-0.23951268
105	0x3e30a83e	0.1725168
106	0x3e94a810	0.29034472
107	0x3e864986	0.2622797
108	0x3d809fdc	0.06280491
109	0xbdf02e67	-0.117276005
110	0xbe96f3ee	-0.2948298
111	0xbd7083a8	-0.058719307
112	0xbd841275	-0.06448833
113	0xbe4a8321	-0.19776584
114	0xbd35e425	-0.04440703
115	0x3e959b3c	0.29219997
116	0xbe75710d	-0.23968907
117	0x3e784882	0.2424641
118	0x3ba0eae8	0.0049108155
119	0x3eb164a7	0.34647104
120	0xbdfff52b	-0.12497934
121	0xbde5c343	-0.11218884
122	0x3b12a38b	0.0022375311
123	0x3d818431	0.06324042
124	0x3cf49cf1	0.029859992
125	0x3ece4db6	0.40293664
126	0x3ea53ca0	0.32272816
127	0xbd2e3d63	-0.04253901
128	0xbdc20c0b	-0.09474953
129	0xbe1aaf4a	-0.1510593
130	0xbdf4c676	-0.11951916
131	0x3e4fde5d	0.20299669
132	0xbd8de011	-0.06927503
133	0x3e8d51b5	0.276014
134	0xbdc7d98c	-0.09758291
135	0x3e187c85	0.1489125
136	0x3e3828f0	0.17984366
137	0xbe005776	-0.12533364
138	0x3d148a32	0.036264606
139	0xbdb7c9a2	-0.08974005
140	0x3e5b9d4e	0.21446726
141	0xbd1a0fe8	-0.037612826
142	0x3e43ccf9	0.1912116
143	0x3d5204b1	0.051274005
144	0x3dcfeff1	0.10153187
145	0xbd08dabd	-0.03341173
146	0x3e6efd89	0.23338903
147	0xbdd86ccf	-0.105676286
148	0xbde15c4e	-0.11003934
149	0x3da7103f	0.081573956
150	0x3e54ef3d	0.20794387
151	0x3e8e4a53	0.2779108
152	0xbe4b5916	-0.19858202
153	0x3d65ada2	0.056073792
154	0xbe2e81b9	-0.17041673
155	0xbe4ffdea	-0.20311704
156	0x3e7e4214	0.24829894
157	0x3ea09ef3	0.3137127
158	0x3d7483ff	0.059696194
159	0xbdcb38d3	-0.09922948
160	0x3eb4d673	0.35319862
161	0x3e7ed0ed	0.24884386
162	0x3dfa49a3	0.12221076
163	0xbca3ffee	-0.020019498
164	0x3e4d4aec	0.20048112
165	0xbd1e9f14	-0.038725927
166	0xbe0d82a8	-0.13819373
167	0x3e0d949d	0.13826223
168	0x3e3e62ce	0.18592378
169	0x3e985c98	0.29758143
170	0x3d0bb44d	0.034107495
171	0xbe143173	-0.14471988
172	0xbdb29165	-0.08719138
173	0x3e83c8ef	0.25739238
174	0x3dbfb2c8	0.09360272
175	0xbdc1c901	-0.094621666
176	0x3e770aea	0.24125257
177	0xbe9acaaf	-0.3023276
178	0x3dd79afe	0.10527609
179	0x3e1be476	0.1522387
180	0x3e5110d7	0.2041658
181	0x3ec4e6a0	0.38457203
182	0xbe8d8cb3	-0.27646407
183	0x3eaf7708	0.342705
184	0x3e9091a4	0.28236115
185	0x3e193348	0.14960968
186	0x3e94c2f0	0.29054976
187	0xbc76bbed	-0.015059453
188	0xbe919f00	-0.2844162
189	0x3d256cbc	0.0403869
190	0xbe52f492	-0.20601109
191	0xbcfcb13a	-0.030846227
192	0xbe8c3f73	-0.27392158
193	0x3dc0c518	0.09412593
194	0x3de74030	0.1129154
195	0xbdbc7d9d	-0.09203646
196	0xbe40bcc6	-0.18822011
197	0xbe07b34a	-0.13251987
198	0x3e4d4dd8	0.20049226
199	0x3e74ea3c	0.23917478
200	0x3e5570fd	0.20843883
201	0xbd925753	-0.07145562
202	0xbe344e83	-0.17608075
203	0x3e16befa	0.1472129
204	0x3d61c436	0.055118762
205	0x3da960eb	0.08270439
206	0xbe1aaea7	-0.15105687
207	0xbe898bd6	-0.268645
208	0x3ebb0112	0.36524254
209	0xbe0b6125	-0.13611276
210	0x3ea3a9e1	0.31965545
211	0xbea01356	-0.31264752
212	0x3c0bb672	0.008527385
213	0x3ed49175	0.41517225
214	0xbe3d8578	-0.18507946
215	0xbe812774	-0.25225413
216	0xbe37bc0f	-0.17942832
217	0xbe5d85fa	-0.21633139
218	0x3e3e20e5	0.18567236
219	0xbe2d52b5	-0.16926081
220	0xbe022952	-0.12711075
221	0xbe861b6e	-0.26192802
222	0xbd03c313	-0.03216846
223	0x3e5b332c	0.2140624
224	0xbddbb251	-0.107273705
225	0x3cdf1ba6	0.027234863
226	0xbdb7c2ea	-0.08972724
227	0xbd5a6aad	-0.05332439
228	0x3db47891	0.08812059
229	0xbe3935dc	-0.18086952
230	0xbe87c7f2	-0.26519734
231	0x3eabc492	0.3354841
232	0xbc5d1172	-0.013492929
233	0x3e338901	0.17532732
234	0x3e44bd08	0.19212735
235	0x3e8b6c72	0.27231175
236	0xbeb8686f	-0.36017177
237	0xbc98640b	-0.018602392
238	0x3c2db6b5	0.010602643
239	0xba5dd601	-0.000846237
240	0x3e141162	0.14459756
241	0xbd99480a	-0.074844435
242	0x3d84963e	0.06473969
243	0xbec63ad4	-0.38716757
244	0x3dfc2f39	0.123136945
245	0x3e5bacdf	0.21452664
246	0x3eb3690d	0.35041085
247	0x3e7135ee	0.23555729
248	0xbe07489e	-0.13211295
249	0xbe076123	-0.13220648
250	0xbdec328e	-0.1153308
251	0x3dd4693e	0.10371636
252	0xbea8f3bf	-0.32998464
253	0x3e4c8e52	0.19976166
254	0x3dc1b555	0.094584145
255	0x3ac22598	0.0014812229

fc1.bias f4 [100]
0	0xbe2ff42e	-0.17182991
1	0xbea31f05	-0.31859604
2	0xbe432c98	-0.1905998
3	0x3dfcff08	0.12353331
4	0x3dd85ed5	0.10564963
5	0xbe41620a	-0.18885055
6	0xbe801adf	-0.250205
7	0x3db43951	0.08799995
8	0xbc14cbfa	-0.009081835
9	0xbe9ef9d8	-0.3104999
10	0x3ddea90a	0.108720854
11	0x3d840f6a	0.064482525
12	0xbe4a8b69	-0.19779743
13	0x3de23871	0.110459216
14	0x3d4e1602	0.050313957
15	0xbea1b847	-0.31585905
16	0x3e5e6f7c	0.21722215
17	0x3e5e6bc2	0.21720794
18	0xbe76bad7	-0.24094711
19	0x3db1bc0c	0.08678445
20	0x3c33b3d0	0.010968164
21	0xbe974b77	-0.29549763
22	0x3d6b9491	0.05751473
23	0xbe325294	-0.17414314
24	0x3ccd1e93	0.025038993
25	0x3d8e2227	0.06940108
26	0xbea6268f	-0.32451293
27	0xbda47d48	-0.08031708
28	0x3e71af45	0.23602016
29	0x3e2eeabc	0.17081732
30	0xbe168aed	-0.14701433
31	0x3c232845	0.0099583315
32	0x3e8c77f0	0.27435255
33	0x3e59b75b	0.21261351
34	0xbed0c183	-0.40772638
35	0x3d9fccf2	0.07802762
36	0x3e334561	0.17506935
37	0x3e06c45c	0.13160843
38	0xbdceb833	-0.10093727
39	0x3db9f67f	0.090802185
40	0x3e1ff9d7	0.1562265
41	0x3e9e52db	0.3092259
42	0x3dc1b7e0	0.094588995
43	0xbe95f620	-0.2928934
44	0x3d73c0f7	0.059510197
45	0xbd8dfb86	-0.0693274
46	0xbdc3295b	-0.09529372
47	0xbe83eecf	-0.25768134
48	0x3e0e10f7	0.13873659
49	0x3ea12819	0.31475905
50	0x3db6770c	0.08909425
51	0x3e9e5def	0.3093104
52	0xbe606c4c	-0.21916312
53	0xbe449ecc	-0.19201201
54	0xbc952d87	-0.018210186
55	0x3e51df85	0.20495422
56	0xbd1c670f	-0.03818422
57	0x3ea33f8b	0.31884417
58	0x3e75ed3f	0.24016283
59	0x3e541ebc	0.20714849
60	0xbe0fd806	-0.1404725
61	0x3ea95858	0.33075213
62	0x3e22427d	0.15845676
63	0x3d004af3	0.031321477
64	0xbde5a28b	-0.11212643
65	0xbe986174	-0.2976185
66	0xbd99a4ea	-0.07502158
67	0xbe423297	-0.18964611
68	0xbccb4ac5	-0.024815926
69	0x3d28db91	0.04122502
70	0x3e993437	0.2992265
71	0xbe2c864c	-0.16848105
72	0x3e2cab2b	0.1686217
73	0xbd912213	-0.07086577
74	0xbe81ae79	-0.25328425
75	0xbe75de2f	-0.24010538
76	0x3e36dbd6	0.17857298
77	0x3df479ce	0.11937295
78	0x3e94087d	0.28912726
79	0x3e8f9929	0.2804654
80	0xbe8ea095	-0.2785689
81	0xbe63f4ab	-0.22261302
82	0x3e55845f	0.20851277
83	0x3e1cd2d9	0.15314807
84	0x3eb53e4e	0.35399097
85	0xbeaa498d	-0.3325924
86	0xbde32ebc	-0.11092898
87	0x3e859a1b	0.26094136
88	0x3e82d1f3	0.25550804
89	0x3db8e1b5	0.09027425
90	0x3e8984a6	0.26859015
91	0x3e20eb25	0.157147
92	0xbdf2ec16	-0.11861436
93	0x3e8a73ea	0.2704156
94	0xbe50adfd	-0.20378871
95	0x3e43c71a	0.1911892
96	0x3e4ac1e6	0.19800529
97	0x3c1f9fa7	0.009742654
98	0x3e845a49	0.25850132
99	0x3e8243ec	0.25442445

fc2.weight f4 [100, 100]
0	0xbcaae445	-0.0208608
1	0x3cba0b64	0.02271051
2	0xbbd55d1d	-0.006511344
3	0x3c9c79d7	0.019101067
4	0x3db671cf	0.08908426
5	0xbdc6c14d	-0.09704838
6	0xbd8c67e5	-0.06855754
7	0x3d27a66b	0.040930193
8	0x3c975837	0.018474681
9	0xbdbb374f	-0.09141409
10	0x3d9774e4	0.07395342
11	0xbccb0eb3	-0.024787283
12	0xbb056e81	-0.0020360055
13	0x3e0c9680	0.13729286
14	0x3de11724	0.10990742
15	0x3cfee05a	0.031112839
16	0x3bc07d2a	0.0058742957
17	0x3c4cf9fa	0.012510771
18	0xbcc0484c	-0.023471974
19	0x3dd3053f	0.10303735
20	0xbdb3bd8e	-0.08776389
21	0x3d818ec6	0.0632606
22	0xbd1f6749	-0.03891686
23	0x3d6c0f77	0.057631936
24	0xbd2cb5e8	-0.042165667
25	0xbc191f58	-0.009345852
26	0xbd9f6c36	-0.077843115
27	0xbd8b80e7	-0.068116955
28	0xbd2ae6a2	-0.041723855
29	0x3ba82bbd	0.005132167
30	0xbdb254fc	-0.08707616
31	0xbceeccb1	-0.029150339
32	0x3e14a12e	0.1451461
33	0xbca9cd54	-0.02072779
34	0x3d9fa9a1	0.07796026
35	0x3db95201	0.09048844
36	0xbe02a47a	-0.12758055
37	0x3dfbf098	0.12301749
38	0x3d1a1e3a	0.037626483
39	0xbd9fcdf2	-0.07802953
40	0x3d76be02	0.0602398
41	0xba21f32f	-0.00061779
42	0x3deb783a	0.11497541
43	0xbc1e3cab	-0.009658019
44	0x3df4d61b	0.119549
45	0x3dbf7a80	0.09349537
46	0xbd72942d	-0.059223343
47	0x3cbd12a8	0.023080185
48	0xbdf465eb	-0.11933502
49	0xbd31adeb	-0.04337875
50	0xbd32630f	-0.0435515
51	0xbd81b0ef	-0.063325755
52	0x3dc62d0e	0.09676562
53	0x3cf0d794	0.02939967
54	0xbd96b41f	-0.07358574
55	0xbd62d439	-0.055378173
56	0x3cc3e67f	0.02391362
57	0x3e3c9c93	0.18419103
58	0x3d975189	0.073885985
59	0x3d67c066	0.05657997
60	0x3db1a888	0.08674723
61	0xbd01f73f	-0.031729933
62	0x3da2712a	0.079317406
63	0x3cc9d7cb	0.02463903
64	0x3cc228e4	0.023701139
65	0xbc75248a	-0.014962325
66	0x3daecbaf	0.08534943
67	0xbd002f84	-0.031295314
68	0x3d56e893	0.052467894
69	0xbc338b09	-0.0109584415
70	0xbc913e95	-0.017730037
71	0xbd71f0e9	-0.05906764
72	0x3d6f1619	0.058370683
73	0xbba65ea4	-0.0050772
74	0x3d4f6124	0.05062975
75	0xbdd99828	-0.106247246
76	0xbdb83857	-0.08995121
77	0x3def7de5	0.11693934
78	0x3b1d4d81	0.0024002495
79	0x3d404b79	0.046946976
80	0xbd061b8a	-0.032741107
81	0xbd19871c	-0.037482366
82	0xbba0fa22	-0.0049126307
83	0x3d9e7b7b	0.07738396
84	0x3db852e8	0.09000188
85	0xbccae851	-0.02476898
86	0x3dd05e3a	0.10174222
87	0xbba0b523	-0.0049044057
88	0xbdf66f7f	-0.12032985
89	0x3db074c8	0.08616024
90	0x3c84a7ab	0.016193232
91	0xbc89d206	-0.01682378
92	0x3c0cc9b5	0.008593013
93	0xbd8eb72b	-0.0696853
94	0xbccd93c0	-0.025094867
95	0x3cd301b9	0.025757657
96	0x3d83625a	0.064152434
97	0xbdae0162	-0.084963575
98	0xb9fa646e	-0.00047758542
99	0x3cdb129e	0.026742276
100	0xbd943eb0	-0.07238519
101	0xbc562f17	-0.0130727505
102	0x3dc85cab	0.097833
103	0x3d870074	0.06591883
104	0xbd2155e6	-0.03938856
105	0xbd2a3b91	-0.041560713
106	0x3df73be3	0.12071969
107	0x3e12b539	0.14326943
108	0x3cb18e79	0.021674382
109	0xbadeda04	-0.001700223
110	0x3df73fac	0.12072691
111	0xbd9a6eb8	-0.07540649
112	0xbd97ce80	-0.074124336
113	0x3cfca1f3	0.030838942
114	0x3dbcf0e1	0.092256315
115	0x3d297c92	0.041378565
116	0x3ca2656a	0.019823749
117	0x3e04ec20	0.129807
118	0xb9e3c09b	-0.00043440316
119	0xbe0c6b3f	-0.13712786
120	0xbdd3eee1	-0.10348297
121	0x394b3bd7	0.0001938188
122	0x3db60103	0.08886912
123	0xbc6c12c8	-0.014408775
124	0xbd6aaa51	-0.057291333
125	0x3d779208	0.060442
126	0xbdf1b9de	-0.118030295
127	0xbd8416fd	-0.06449697
128	0xbc829f2e	-0.015945043
129	0x3e2e5d1b	0.17027704
130	0xbdbb5165	-0.09146384
131	0xbd49d211	-0.0492726
132	0x3cde8ba9	0.027166205
133	0x3c44a01f	0.0120010665
134	0x3d95337d	0.07285211
135	0xbd3eb994	-0.0465637
136	0xbdf92506	-0.12165265
137	0x3e39ef94	0.18157798
138	0x3dd2fb9e	0.103018984
139	0xbc778384	-0.015107039
140	0xbb3d1cae	-0.0028856206
141	0xbe11196a	-0.14169851
142	0xbde95fae	-0.113952026
143	0x3ddc1bec	0.10747513
144	0xbddc4bab	-0.1075662
145	0xbe04e34b	-0.1297733
146	0xbcab0833	-0.020877933
147	0xbd74679b	-0.05966912
148	0xbda0b202	-0.07846452
149	0x3d262990	0.04056698
150	0xbdea186c	-0.11430439
151	0x3c3761dd	0.011192766
152	0x3e1022ce	0.14075777
153	0xbd86e198	-0.06585997
154	0x3d91d54d	0.07120762
155	0x3d53caa8	0.05170694
156	0x3e0ef5da	0.13960972
157	0x3d196d60	0.037457824
158	0xba62c5ab	-0.00086506706
159	0x3dd0633b	0.10175177
160	0x3d208bec	0.03919594
161	0xba9bc296	-0.0011883553
162	0xbd1e57cc	-0.03865795
163	0x3dd915f4	0.1059989
164	0xbcae48c8	-0.02127494
165	0xbdfd853f	-0.1237893
166	0xbdbaf8c6	-0.09129481
167	0x3dd5021d	0.10400794
168	0x3dc5681d	0.09638999
169	0x3d99fd4a	0.07519014
170	0x3db45af3	0.0880641
171	0x3c5061ba	0.012718612
172	0xbc37e1dc	-0.011223283
173	0xbc8040e1	-0.015655937
174	0xbcd5bd41	-0.02609122
175	0xbdc9f574	-0.098612696
176	0xbcc7a8ab	-0.02437242
177	0xbc4dc93d	-0.012560186
178	0x3c9c4704	0.019076832
179	0x3d9b59f7	0.07585519
180	0xbd0e43f3	-0.03473277
181	0xbdd3f76a	-0.10349925
182	0xbdbbce55	-0.09170214
183	0xbe20fc96	-0.15721354
184	0x3d848384	0.06470397
185	0x3d743dce	0.059629254
186	0x3d8a283d	0.06745956
187	0xbd09f272	-0.03367848
188	0xbde7f18e	-0.1132537
189	0x3e100755	0.14065297
190	0x3d27fd9f	0.041013356
191	0xbd3ed3ed	-0.046588827
192	0xbd5483b6	-0.05188342
193	0x3d8262d9	0.0636651
194	0xbd72c50e	-0.059269957
195	0x3c400d5c	0.011721935
196	0xbca2c68e	-0.019870069
197	0x3cc14b0b	0.023595354
198	0x3d3a2582	0.045445926
199	0xbe188bdf	-0.14897107
200	0x3d048d5a	0.032361366
201	0xbcd19cf6	-0.02558754
202	0x3e13dd3a	0.1443986
203	0x3d1184a9	0.035526905
204	0xbdc55597	-0.096354656
205	0xbc6decea	-0.014521817
206	0x3da350e6	0.079744145
207	0xbd96ef42	-0.073698536
208	0xbca59b94	-0.020215787
209	0x3d6a685c	0.05722843
210	0xbdf54c0a	-0.11977394
211	0x3df7cc6e	0.12099539
212	0x3d87455a	0.06605025
213	0x3cea564b	0.0286056
214	0x3dd7a584	0.105296165
215	0xbdc3c190	-0.095584035
216	0x3db4fba4	0.08837059
217	0x3dc9adc8	0.09847599
218	0x3c802a36	0.015645128
219	0x3da81936	0.082079336
220	0x3e0755c9	0.13216318
221	0xbd6792cb	-0.056536477
222	0x3d706804	0.058692947
223	0xbb656d24	-0.003500768
224	0xbd61b56f	-0.05510467
225	0x3dbd81ad	0.09253249
226	0xbdb4b76f	-0.0882405
227	0x3c8fc3ef	0.017549483
228	0xbd903ffe	-0.070434555
229	0x3e276871	0.16348435
230	0xbdaf7f90	-0.085692525
231	0x3d66b1f3	0.05632205
232	0xbbb7ecf8	-0.0056129657
233	0xbdf88220	-0.121341944
234	0x3d540d4f	0.051770505
235	0x3d97511e	0.07388519
236	0xbdd663ec	-0.10468277
237	0x3d264bf4	0.04059978
238	0xbcbe19d0	-0.023205668
239	0xbd424ff1	-0.04743952
240	0xbce2f589	-0.02770497
241	0xbdb1f3e5	-0.08689097
242	0xbd7518c9	-0.05983809
243	0x3df996a5	0.12186936
244	0x3d979e46	0.07403235
245	0x3dcd6dea	0.1003073
246	0x3d06f1e6	0.032945536
247	0xbce7e97f	-0.028309582
248	0xbcff2f06	-0.031150352
249	0xbdc2de7f	-0.09515094
250	0xbb8e3161	-0.0043393825
251	0xbdda8785	-0.106703795
252	0x3c4c5a9a	0.012472773
253	0x3d852017	0.06500261
254	0xbd5b7ce9	-0.05358592
255	0xbd209c21	-0.039211396

fc2.bias f4 [100]
0	0xbc08a688	-0.008340485
1	0x3d118c89	0.035534415
2	0xbd85d608	-0.06534964
3	0xbdbc044e	-0.091805086
4	0x3c676f71	0.014125691
5	0x3a8758e3	0.0010326173
6	0x3e51df9f	0.20495461
7	0xbc3d7973	-0.0115646
8	0xbb297ff4	-0.002586362
9	0xbe09671f	-0.13418244
10	0x3d022381	0.03177214
11	0x3e2db58d	0.16963787
12	0xbd78e4bc	-0.060765013
13	0xbda6a3c1	-0.08136702
14	0xbd84ede8	-0.064906895
15	0x3b8dc8e2	0.0043269256
16	0xbe0cad62	-0.13738015
17	0x3e288c3e	0.16459748
18	0xbd2dde50	-0.04244834
19	0x3dbe16e3	0.09281709
20	0x3d2b14c5	0.041767854
21	0x3d9fde13	0.07806029
22	0xbd35797a	-0.044305302
23	0x3d3c4e44	0.045973077
24	0xbd5c4962	-0.05378092
25	0x3db3b897	0.08775442
26	0xbd8dc56d	-0.069224216
27	0x3d085984	0.033288494
28	0xbda5948f	-0.08084976
29	0x3cbc4bb6	0.02298532
30	0xbc96ab93	-0.01839236
31	0xbc2504b3	-0.010071921
32	0xbd6ece73	-0.058302354
33	0x3dae8623	0.08521678
34	0x3cf37d9e	0.029722985
35	0x3ca2baa3	0.019864386
36	0xbb850cef	-0.0040603797
37	0xbe1a89a0	-0.15091562
38	0xbe2d81f9	-0.16944112
39	0xbd8a0756	-0.067396805
40	0xbbb5c002	-0.0055465708
41	0x3d83ec4d	0.06441555
42	0xbc2f88a5	-0.010713731
43	0xbd9cbab1	-0.07652796
44	0x3d554f12	0.05207736
45	0xbdc24899	-0.09486503
46	0xbda1c4be	-0.07898854
47	0xbe63a3ea	-0.22230497
48	0x3cd2dc02	0.025739674
49	0x3dc4d4ea	0.09610923
50	0xbd45e6bf	-0.04831576
51	0xbe3ee321	-0.1864133
52	0x3e21e557	0.15810142
53	0xbd9e65b2	-0.077342406
54	0x3d51cc5e	0.05122029
55	0x3df1b426	0.11801939
56	0xbdb101a5	-0.08642892
57	0xbcaca39d	-0.02107411
58	0x3ca5ca45	0.020238051
59	0x3ba69c5e	0.0050845584
60	0xbd40a83c	-0.04703544
61	0x3a948c9e	0.0011333411
62	0xbda11f62	-0.07867314
63	0x3d269a7b	0.040674668
64	0xbd828e4f	-0.063747995
65	0x3d74b958	0.05974707
66	0xbcc53376	-0.02407239
67	0xbcd417ef	-0.025890319
68	0xbd9d08ec	-0.07667717
69	0x3c0495c2	0.008092346
70	0x3d2c278f	0.042029914
71	0xbd430236	-0.04760953
72	0x3e0b7a78	0.13620937
73	0x3da300e8	0.07959157
74	0xbdbcde40	-0.09222078
75	0x3db9274d	0.09040699
76	0xbd231318	-0.03981313
77	0xbd5e0409	-0.054203067
78	0xbda35bbd	-0.07976482
79	0xbd14db06	-0.03634169
80	0x3c71fea6	0.014770186
81	0xbce7f485	-0.028314838
82	0xbdc7efee	-0.0976256
83	0x3d4205f7	0.04736897
84	0x3db504cd	0.08838806
85	0xbc6628e4	-0.014047835
86	0xbcb53e6a	-0.022124488
87	0xbceb8e54	-0.02875439
88	0x3e1f2bba	0.15544024
89	0x3cb18abd	0.0216726
90	0x3b3074bb	0.0026925046
91	0xbcf11f7b	-0.029433956
92	0x3c8e3bd3	0.01736251
93	0xbd453617	-0.048147287
94	0x3beee2fc	0.0072902422
95	0x3de7995c	0.11308548
96	0x3dee162c	0.11625323
97	0x3dd45690	0.10368073
98	0xbd852dac	-0.06502852
99	0xbe09daca	-0.13462368

fc3.weight f4 [3, 100]
0	0x3c7cc14e	0.015426947
1	0x3d7161c6	0.058931135
2	0x3cf06088	0.029342905
3	0xbc5287cd	-0.01284976
4	0x3c51c868	0.012804128
5	0x3d0940cc	0.03350906
6	0x3db88954	0.09010568
7	0xbe24e53e	-0.16103074
8	0xbc12f3c6	-0.008969253
9	0xbd35b3d4	-0.04436095
10	0x3be4e743	0.0069855764
11	0x3cbbd415	0.022928277
12	0xbb928ef5	-0.004472608
13	0xbce35b29	-0.02775343
14	0xbc109488	-0.008824475
15	0xbd0a9ab8	-0.033838958
16	0xbd64ad89	-0.05582956
17	0x3d1f80d5	0.038941223
18	0x3bb2d3e8	0.00545739
19	0x3d55d71c	0.052207097
20	0x3ccef2b9	0.025262224
21	0x3c12dfc6	0.008964485
22	0xbd12e75c	-0.035865173
23	0x3ca7ce57	0.020484133
24	0xbc85b05d	-0.016319448
25	0x3c4ee843	0.012628618
26	0xbcc2132f	-0.023690788
27	0xbc641ec9	-0.013923355
28	0xbccd3eff	-0.025054453
29	0x3c8ce550	0.017199188
30	0xbd95f7e0	-0.07322669
31	0xbd20a913	-0.03922374
32	0x3d3b229d	0.045687307
33	0x3c833862	0.016018096
34	0xbc6889a2	-0.0141929705
35	0x3b0ee1f6	0.0021802164
36	0x3cac7864	0.0210535
37	0xbd87e11d	-0.06634734
38	0xbd735b65	-0.059413332
39	0x3d054e25	0.032545228
40	0xbd5587eb	-0.052131575
41	0xbbed7ae0	-0.007247314
42	0xbc8d084f	-0.017215876
43	0xbd952ec8	-0.072843134
44	0xb9b381a1	-0.00034238122
45	0xbb84f2f0	-0.0040572807
46	0xbd28dbb0	-0.041225135
47	0xbc3228f4	-0.010874022
48	0xbd38096b	-0.044930857
49	0x3d93ed28	0.07222968
50	0xbcc3c112	-0.023895774
51	0x3d37a9df	0.044839736
52	0x3c818a86	0.015813123
53	0xbcdcd431	-0.02695665
54	0xbcf7a2be	-0.030228969
55	0x3d8bd3a4	0.068274766
56	0x3d7d21de	0.061799876
57	0xbd12504b	-0.035721105
58	0x3cb6f471	0.022333356
59	0x3c9f54dc	0.019449644
60	0x3aafe2b6	0.0013419006
61	0x3bad811f	0.0052949334
62	0xbd80c977	-0.06288426
63	0xbb5ed935	-0.0034003977
64	0xbad795c8	-0.0016447837
65	0xbaaeca57	-0.0013335448
66	0x3bb930f1	0.005651586
67	0xbc4963b7	-0.01229184
68	0x3cee6b53	0.02910391
69	0xbc4cb270	-0.012493715
70	0x3d056481	0.03256655
71	0x3ca9e671	0.020739766
72	0xbd2098c3	-0.039208185
73	0x3d482e22	0.04887212
74	0x3d2a1e8d	0.04153304
75	0x3d215ef3	0.03939719
76	0x3d4c5ec0	0.04989505
77	0xbc6ebf3a	-0.014571959
78	0xbd78db39	-0.060755942
79	0xbd1aea7a	-0.03782127
80	0x3bea4fb6	0.0071506156
81	0x3c260077	0.010131947
82	0x3c157b94	0.009123702
83	0xbcdbd377	-0.026834233
84	0x3b4d4849	0.0031323603
85	0xbe1403e3	-0.14454608
86	0x3a101a06	0.0005497042
87	0x3ca88307	0.020570291
88	0xbcd74bdb	-0.026281288
89	0xbcac9a7d	-0.02106976
90	0x3d951445	0.07279257
91	0x3af16ffd	0.0018420216
92	0xbc550742	-0.013002219
93	0x3d80cb56	0.06288783
94	0xbd411928	-0.04714313
95	0x3da93ef7	0.08263963
96	0x3daac92b	0.08339151
97	0x3d1c5973	0.038171243
98	0x3ca9b6f0	0.020717114
99	0x3d128bfd	0.035778034
100	0x3cbcf2c0	0.023064971
101	0x3a7dce52	0.0009681928
102	0xbcab22da	-0.020890642
103	0xbbd05fdd	-0.006359084
104	0x3cb19aed	0.02168032
105	0xbc093147	-0.008373565
106	0xbbbb850f	-0.005722649
107	0x3cad71a2	0.021172348
108	0x3c566f9a	0.013088131
109	0xbc93585b	-0.017986467
110	0x3cb5e7ef	0.022205321
111	0x3d6e417a	0.058167912
112	0x3c9e0f8b	0.01929452
113	0xbdc09623	-0.09403636
114	0xbc7d3b2d	-0.015456003
115	0xbd7d01f2	-0.061769433
116	0x3d02e4bf	0.03195643
117	0x3dddf6e0	0.10838103
118	0x3c67b138	0.014141373
119	0x3dbe5c2a	0.09294923
120	0xbd1af8f8	-0.03783509
121	0x3e0d7412	0.13813809
122	0xbd6e8c01	-0.058238987
123	0x3d275e51	0.04086143
124	0xbd55c3d3	-0.052188706
125	0xbda73166	-0.08163719
126	0x3c6a955b	0.014317836
127	0xbd038c4c	-0.03211622
128	0xbd83b820	-0.064316034
129	0x3d35e157	0.044404354
130	0x3e23f517	0.16011463
131	0x3d92dd6d	0.0717114
132	0xbd2db0f0	-0.04240507
133	0xbb3d7f8b	-0.0028915133
134	0xbd0fdc69	-0.03512231
135	0x3a90f001	0.0011057855
136	0xbd585404	-0.0528145
137	0xbda7a72e	-0.08186184
138	0xbd59edbd	-0.05320524
139	0xbc38cdd7	-0.011279545
140	0x3d3b0628	0.045660168
141	0xbcc3163c	-0.023814313
142	0x3be362ca	0.006939267
143	0xbc31809f	-0.010833888
144	0xbd7219b0	-0.05910653
145	0xbc44c17e	-0.012009023
146	0xbd6ee65a	-0.05832515
147	0xbd29ccd7	-0.041455116
148	0x3cbc149a	0.022959042
149	0xbc8fe787	-0.017566456
150	0xbd985615	-0.07438294
151	0x3cffc9a4	0.03122408
152	0x3d5d0ca7	0.053967144
153	0xbd311b2f	-0.043238815
154	0x3ca15f76	0.01969884
155	0x3b841e92	0.0040319646
156	0xbc4799bc	-0.012182649
157	0xbc8cce32	-0.017188165
158	0xbc75f56b	-0.0150121255
159	0x3b8ba0ac	0.004261097
160	0x3c878cbd	0.016546601
161	0xbc7a1208	-0.015263088
162	0xbd57f2fa	-0.052721955
163	0xbaa8907c	-0.0012860443
164	0x3b9f7e21	0.0048673307
165	0x3d770e7e	0.060316555
166	0xbd23c7ec	-0.039985582
167	0x3b034948	0.0020032693
168	0x3c134056	0.008987507
169	0x3cb35b11	0.02189401
170	0x3d33c42b	0.043888252
171	0xbca2a359	-0.01985328
172	0x3dccac14	0.09993759
173	0x3ad6546a	0.0016352062
174	0xbcb20632	-0.02173147
175	0x3d19e06f	0.037567552
176	0x3dc83d95	0.09777371
177	0xbcf6fe44	-0.03015054
178	0x3c7b4a05	0.015337472
179	0x3df02b67	0.11727028
180	0x3bfdac26	0.007741469
181	0x3c5c27be	0.01343721
182	0xbc88933d	-0.016671771
183	0xbdc53675	-0.096295275
184	0xbc83150c	-0.016001247
185	0x3c3c88bd	0.01150721
186	0xbc8389e0	-0.016056955
187	0xbcc29ec0	-0.023757339
188	0x3dabe8d5	0.083940186
189	0xbd478da1	-0.048719052
190	0xbc0961be	-0.00838512
191	0x3d014986	0.031564258
192	0xbbeb1593	-0.0071742027
193	0xba3bab6b	-0.0007159027
194	0x3dbf1e19	0.093319125
195	0x3cb7df74	0.022445418
196	0x3dbc4253	0.09192338
197	0xbd0d0798	-0.03443107
198	0xbc948f96	-0.018134873
199	0x3dbcce98	0.09219092
200	0xbc6fde64	-0.014640424
201	0xbcdaa781	-0.0266912
202	0x3d3b3fac	0.04571502
203	0xbb8cc33b	-0.004295734
204	0x3d1b1e4c	0.03787069
205	0x3d0c91c9	0.03431872
206	0xbda4c1c4	-0.0804477
207	0xbc3e4077	-0.011612049
208	0x3c822061	0.01588458
209	0xbd26c558	-0.040715545
210	0x3cd4ae28	0.02596195
211	0x3d2ceaf3	0.042216253
212	0x3c5dad1e	0.013530044
213	0x3c2dd9d2	0.010611014
214	0xbd600942	-0.05469633
215	0x3d866194	0.0656158
216	0x3dafcc0c	0.08583841
217	0x3d1e1be3	0.038600814
218	0xbc8fe840	-0.0175668
219	0xbcfa74be	-0.030573245
220	0xbd66d293	-0.056353163
221	0x3dc5f08f	0.096650235
222	0xbd06638b	-0.032809775
223	0xbc30d2ed	-0.010792476
224	0xbd582b89	-0.052775893
225	0x3c7bc941	0.015367807
226	0xbd6590af	-0.056046184
227	0x3c1b8aef	0.009493574
228	0xbbd21547	-0.006411228
229	0xbca7d6ff	-0.02048826
230	0xbdb09aa4	-0.08623245
231	0xbc476ec6	-0.012172407
232	0x3d244dcf	0.040113267
233	0x3ccd8946	0.025089871
234	0x3c87c776	0.016574603
235	0x3ce32dda	0.027731825
236	0xbca97b44	-0.02068866
237	0xbd5396c7	-0.051657464
238	0x3d14c6a7	0.036322262
239	0x3cfdac58	0.030965969
240	0x3d964335	0.073370375
241	0x3c1a33ec	0.009411793
242	0xbcf300e1	-0.029663505
243	0x3d7a4634	0.061102107
244	0x3d1f9c1f	0.038967248
245	0x3d1004a8	0.03516069
246	0xbcf03652	-0.029322777
247	0x3d9b4b80	0.0758276
248	0x3d4222ca	0.04739646
249	0x3cb2cea6	0.021827053
250	0xbd0c549a	-0.03426037
251	0x3dc984fb	0.09839817
252	0x3d90d6e2	0.07072236
253	0xbce74162	-0.02822942
254	0xbca608e9	-0.02026792
255	0x3c785b9f	0.015158563

fc3.bias f4 [3]
0	0x3d696736	0.056983195
1	0x3d836a5e	0.06416772
2	0x3aee7f1a	0.0018195838

fc1.weight f4 [100, 11]
0	0xbe50f10b	-0.2040445
1	0x3e414af0	0.18876243
2	0x3e113b5a	0.14182797
3	0xbe4e3ac3	-0.20139603
4	0x3c65f8fe	0.014036415
5	0x3daa4738	0.08314365
6	0x3c903a3b	0.017605891
7	0x3dbbbc6d	0.09166799
8	0x3d52bbc2	0.05144859
9	0x3d86a494	0.065743595
10	0x3d808fb8	0.06277412
11	0xbd274cb5	-0.040844638
12	0xbe3d2f12	-0.18474987
13	0x3e57a58c	0.21059245
14	0x3dabe30f	0.08392917
15	0xbc2f5abf	-0.010702788
16	0xbe3875db	-0.18013708
17	0xbdd785da	-0.10523577
18	0xb89c5531	-7.454528e-05
19	0xbbe48645	-0.006974014
20	0x3ddd74c8	0.1081329
21	0x3d22a7e9	0.039710913
22	0xbdab1200	-0.083530426
23	0x3aacafee	0.001317499
24	0xbe1b72d0	-0.15180516
25	0xbe1d0973	-0.15335636
26	0x3dd45720	0.1036818
27	0x3df26712	0.11836065
28	0xbdf6e5cf	-0.12055551
29	0x3e39dd3c	0.181508
30	0xbdc9b2d3	-0.09848561
31	0xbd22c009	-0.03973392
32	0x3dbb93ba	0.09159036
33	0x3d701a88	0.058619052
34	0xbe8e889f	-0.2783861
35	0x3e1bf478	0.15229976
36	0x3c2e01e1	0.010620565
37	0xbd10d674	-0.03536077
38	0xbdba81bf	-0.09106778
39	0x3e13f4eb	0.14448898
40	0x3e42983c	0.19003385
41	0xbe32cae7	-0.17460214
42	0x3dd10d06	0.10207562
43	0xbd805210	-0.06265652
44	0xbe19b8f6	-0.15011963
45	0x3d55d56a	0.05220548
46	0x3d339347	0.043841626
47	0xbe7eef72	-0.24896029
48	0xbe4a54b6	-0.19758877
49	0x3df40055	0.11914126
50	0xbd122289	-0.035677467
51	0x3d2673fa	0.040637948
52	0xbd333980	-0.04375601
53	0xbd3d3c29	-0.04619995
54	0xbd146980	-0.036233425
55	0xbe61e484	-0.22059828
56	0x3e1e679c	0.15469211
57	0x3df41929	0.119188614
58	0xbde62d8f	-0.11239158
59	0xbe33421a	-0.17505684
60	0x3e261bc5	0.1622153
61	0xbd599681	-0.053122047
62	0x3d8888b4	0.06666699
63	0x3da68bc1	0.08132125
64	0xbdd06ea2	-0.101773515
65	0x3d0c0c0d	0.03419118
66	0xbe74ae51	-0.23894621
67	0x3d990fde	0.074737296
68	0x3dfb52cb	0.12271651
69	0x3e481ef4	0.19543058
70	0xbdebd98e	-0.11516105
71	0xbda5100f	-0.080597036
72	0x3e0264aa	0.12733713
73	0xbdb1710f	-0.08664142
74	0x3d6bff6b	0.057616632
75	0x3de1a13a	0.1101708
76	0xbd4a5057	-0.049393024
77	0x3db28c10	0.08718121
78	0x3e167cd4	0.14696056
79	0xbd9464f7	-0.0724582
80	0xbe5ef322	-0.21772435
81	0xbdb1fa10	-0.08690274
82	0x3d9549dd	0.07289479
83	0xbdde5c60	-0.10857463
84	0xbe2e701d	-0.17034955
85	0x3e636c5e	0.22209308
86	0xbdf2641b	-0.118355
87	0x3e461177	0.193426
88	0xbe712737	-0.23550116
89	0xbdc79e9a	-0.09747048
90	0xbe5f9d31	-0.21837308
91	0x3e8f3819	0.27972487
92	0x3d39741d	0.04527675
93	0xbe7234d8	-0.23652971
94	0x3d8e1d2b	0.06939157
95	0x3e869a6f	0.26289698
96	0xbe7a57d8	-0.24447572
97	0xbb776fb7	-0.0037755796
98	0x3d0e6f64	0.0347742
99	0xbd70b785	-0.058768768
100	0x3e65a9a8	0.22428
101	0xbe0495d5	-0.12947781
102	0xbce01b5d	-0.027356798
103	0x3d3342eb	0.04376499
104	0x3e06bc1f	0.131577
105	0x3e3bff25	0.18359049
106	0x3e63b5e1	0.2223735
107	0xbe1b28c9	-0.15152277
108	0xbdf3c8d2	-0.11903538
109	0x3dfa6083	0.122254394
110	0xbd2a64d6	-0.04160007
111	0xbe339a23	-0.17539267
112	0x3d19dd54	0.03756459
113	0x3e0ed047	0.13946639
114	0x3e12b94e	0.143285
115	0x3d42a1cb	0.04751758
116	0xbd0c1b1a	-0.034205534
117	0xbd7a04e4	-0.06103982
118	0xbda52130	-0.08062971
119	0x3e067c97	0.13133465
120	0x3acc1532	0.0015570282
121	0x3de9062c	0.1137813
122	0xbcdd00bd	-0.026977891
123	0x3e17265b	0.14760725
124	0xbdcb16e0	-0.099164724
125	0x3e664166	0.22485885
126	0x3e010c18	0.1260227
127	0x3c8b503d	0.017006034
128	0xbe263703	-0.16231923
129	0x3e5eeb15	0.21769364
130	0x3e0fe41b	0.14051859
131	0xbe7f8602	-0.24953464
132	0x3e124661	0.1428466
133	0x3dee43e8	0.11634046
134	0x3e75926f	0.23981641
135	0x3c2b282f	0.010446592
136	0x3cd70ef0	0.02625224
137	0x3a019b56	0.00049441063
138	0x3e170b4e	0.14750406
139	0xbdc476c4	-0.09592965
140	0x3e2440ef	0.16040395
141	0x3c5e66a0	0.013574272
142	0x3d9177d1	0.07102931
143	0x3e28e32a	0.16492906
144	0xbd4cfeaf	-0.050047573
145	0x3d87ad35	0.066248335
146	0x3e20f3e8	0.15718043
147	0x3da7b679	0.08189101
148	0x3e2f0975	0.17093451
149	0x3dcbcef8	0.099515855
150	0x3cd8e1de	0.02647489
151	0x3e3649bd	0.17801566
152	0x3d6443ac	0.0557286
153	0x3e2cd266	0.16877136
154	0x3dd733ba	0.10507913
155	0xbe5aa7a7	-0.21353017
156	0x3e6ece49	0.23320879
157	0x3d39449e	0.045231454
158	0x3c2195be	0.0098623615
159	0xbd3ad72a	-0.045615353
160	0xbd8bdca6	-0.06829195
161	0xbe48adae	-0.19597504
162	0xbd8cf429	-0.06882507
163	0xbe01a481	-0.1266041
164	0x3d23c5e6	0.039983653
165	0x3d97a641	0.07404757
166	0xbe769f31	-0.24084164
167	0x3e288f10	0.16460824
168	0xbddc65e1	-0.10761619
169	0xbe584a7c	-0.21122164
170	0xbd5fb90f	-0.054619845
171	0x3e3d3ce5	0.1848026
172	0x3e05f685	0.13082321
173	0xbe45898b	-0.1929075
174	0xbd717572	-0.058949895
175	0xbd2cae66	-0.042158507
176	0xbe25a0e7	-0.1617466
177	0xbdd22a1e	-0.102619395
178	0x3e4d5e69	0.20055546
179	0xbe60af1b	-0.21941797
180	0xbe1b8938	-0.15189064
181	0xbd7cd9ff	-0.061731335
182	0xbe313cd5	-0.17308362
183	0xbe097d2e	-0.13426659
184	0xbe48a345	-0.19593532
185	0x3d9dbdad	0.077021934
186	0x3da6cab6	0.08144133
187	0x3e323e59	0.17406596
188	0x3d8d8232	0.069095984
189	0xbe25985a	-0.16171399
190	0x3d004c93	0.031323027
191	0xbda9e248	-0.08295113
192	0x3debc091	0.115113385
193	0x3dc7f12c	0.09762797
194	0xbe2cc00f	-0.1687014
195	0x3cf1cea4	0.02951748
196	0x3df8c2fd	0.12146566
197	0xbdbbd6ca	-0.09171827
198	0xbdc29b9a	-0.09502335
199	0xbe867ed7	-0.26268646
200	0x3d14998b	0.036279242
201	0x3debb734	0.115095526
202	0x3d7a1d5d	0.06106316
203	0xbe200337	-0.15626226
204	0xbdf5885b	-0.11988898
205	0x3dc95691	0.09830964
206	0x3e15725f	0.1459441
207	0x3dac9cbb	0.084283315
208	0xbaa2a191	-0.001240777
209	0x3e0ff6cb	0.14058988
210	0xbe69357c	-0.22774309
211	0xbd01e063	-0.031708132
212	0x3df898fc	0.121385545
213	0x3e8e3ecd	0.27782288
214	0xbdd0030e	-0.10156833
215	0x3e6f2d88	0.23357213
216	0xbe1d2610	-0.15346551
217	0x3dfe548d	0.124184705
218	0x3e54b994	0.20773917
219	0x3db0316f	0.08603179
220	0xbe1cd7cd	-0.15316696
221	0xbdccbcc7	-0.09996944
222	0xbe11d7e5	-0.14242513
223	0x3ddf031d	0.10889266
224	0xbdfa9e98	-0.122372806
225	0x3e8f7140	0.2801609
226	0x3dc7e01c	0.09759542
227	0x3c3e1cfb	0.011603589
228	0xbd314d30	-0.043286502
229	0xbda7755a	-0.0817668
230	0xbe21bf7e	-0.15795705
231	0x3da1934c	0.07889423
232	0xbd0f70c5	-0.035019655
233	0xbd9be1ea	-0.07611449
234	0x3e52d9d7	0.20590912
235	0x3e370834	0.17874223
236	0xbe6c3376	-0.23066506
237	0x3ddad76d	0.106856205
238	0xbcd0639a	-0.025438119
239	0xbd39361d	-0.045217622
240	0xbdfc1ef8	-0.12310594
241	0xbdadf216	-0.0849344
242	0xbda9500a	-0.08267219
243	0x3daa619a	0.08319397
244	0xbe0ca1eb	-0.13733642
245	0xbddcd3f6	-0.10782616
246	0xbc74f1ea	-0.014950255
247	0x3cc04fe6	0.023475599
248	0xbda6acce	-0.08138429
249	0x3d6200b2	0.055176444
250	0xbc988c3f	-0.018621562
251	0xbb812d6f	-0.0039421837
252	0xbd74e51e	-0.059788816
253	0x3e8b41d2	0.27198654
254	0xbe97de46	-0.2966177
255	0xbd3ba5e5	-0.045812506

fc1.bias f4 [100]
0	0x3f18081c	0.59387374
1	0xbf05cd00	-0.5226593
2	0x3efc9a58	0.49336505
3	0xbea8b432	-0.32949978
4	0xbe9c4ef5	-0.3052899
5	0x3f100fc1	0.5627404
6	0xbee45e88	-0.44603372
7	0xbee8ca15	-0.45466676
8	0xbefd12ce	-0.4942841
9	0xbf0c90d7	-0.5490851
10	0x3ed8a702	0.42314917
11	0x3e6142b0	0.21998096
12	0x3e909f3c	0.28246486
13	0xbef9b3ce	-0.48769993
14	0x3edca4cd	0.43094483
15	0xbe82f9d7	-0.25581238
16	0xbf02b53c	-0.5105779
17	0xbf01846c	-0.50592685
18	0xbf19f435	-0.60138255
19	0xbeeda486	-0.46414584
20	0x3ee983eb	0.45608458
21	0x3ddb1220	0.106968164
22	0x3efcd497	0.49380943
23	0xbea757e9	-0.32684258
24	0x3ef81ad8	0.4845798
25	0x3eb0270b	0.34404787
26	0xbe85a14e	-0.26099628
27	0x3e1bac1a	0.1520237
28	0x3ed7e7e0	0.42169094
29	0x3f064420	0.524477
30	0xbeaa590f	-0.3327107
31	0xbf0e02c2	-0.5547296
32	0x3ea109dd	0.31452838
33	0xbe8c8529	-0.27445343
34	0xbf0c2aeb	-0.5475299
35	0x3ee4e6d4	0.44707358
36	0xbef58577	-0.47953388
37	0x3ef2eff4	0.47448695
38	0x3ec50d73	0.38486823
39	0x3e9d2ae5	0.30696788
40	0x3ebe231f	0.3713617
41	0xbef7d3dc	-0.48403823
42	0x3f0f09e2	0.55874455
43	0xbe443e01	-0.19164278
44	0xbe1bd949	-0.15219606
45	0xbef89fb8	-0.48559356
46	0xbf0e0c24	-0.55487275
47	0xbef84e76	-0.4849736
48	0xbef17653	-0.47160587
49	0x3efd8e79	0.4952276
50	0x3f0c7de3	0.5487959
51	0xbf080c5a	-0.53143847
52	0x3e18909e	0.14898917
53	0x3e0c977a	0.13729659
54	0xbeb28afd	-0.34871665
55	0xbec61351	-0.38686612
56	0x3e3c8b40	0.18412495
57	0xbe9087dc	-0.28228652
58	0xbf0cf2ad	-0.55057794
59	0xbec2adce	-0.38023227
60	0x3ea2a551	0.3176675
61	0x3e90303a	0.28161794
62	0xbe955eb4	-0.29173815
63	0xbe80e8a5	-0.25177494
64	0x3e28327f	0.16425513
65	0xbf027cb8	-0.50971556
66	0x3eb200c0	0.34766197
67	0xbf09dc9d	-0.53852254
68	0xbdd341cf	-0.10315286
69	0x3f02ed90	0.5114374
70	0x3e990782	0.2988854
71	0x3f110d80	0.56661224
72	0xbe5c2557	-0.21498619
73	0xbee2282b	-0.4417127
74	0xbe8bb067	-0.27283022
75	0xbee6c0d7	-0.45069
76	0xbf08cf26	-0.53441083
77	0xbe812716	-0.25225133
78	0x3ea13806	0.31488055
79	0xbed3c12c	-0.41358316
80	0xbef620cb	-0.48071894
81	0xbeb404ce	-0.35159916
82	0xbee1fe47	-0.4413931
83	0x3ea6e15b	0.32593808
84	0xbefa7147	-0.4891455
85	0xbe6afdcc	-0.22948378
86	0xbf06d153	-0.52663153
87	0xbf03c70f	-0.51475614
88	0xbf1a5054	-0.6027882
89	0xbc172742	-0.009225668
90	0x3ea4cc8a	0.321873
91	0x3ee56fd1	0.44811872
92	0x3ef69deb	0.48167357
93	0xbeab48d1	-0.33453992
94	0xbf00b190	-0.5027094
95	0x3ea27404	0.31729138
96	0x3f002178	0.5005107
97	0xbef1fe35	-0.47264257
98	0xbeffc5c3	-0.49955568
99	0xbeba9c5a	-0.36447412

fc2.weight f4 [100, 100]
0	0x3e1c6e09	0.1527635
1	0xbe0b45f2	-0.13600901
2	0x3df4b801	0.119491585
3	0xbd92eac3	-0.071736835
4	0xbbb656c3	-0.005564542
5	0x3e0b3175	0.13593085
6	0xbe0dbec1	-0.13842298
7	0xbd5c5450	-0.053791344
8	0xbe60ad60	-0.21941137
9	0xbe10348a	-0.14082542
10	0x3db2b1fd	0.08725355
11	0x3da1ea2e	0.07905994
12	0x3d8f4dd8	0.069972694
13	0xbdddbcaf	-0.10827004
14	0x3e150e18	0.14556158
15	0xba40f9d8	-0.00073614484
16	0xbd873cb4	-0.06603375
17	0xbd93c50e	-0.072153196
18	0xbde98cab	-0.114037834
19	0xbe104220	-0.14087725
20	0x3dca36c6	0.098737285
21	0xbc97f86b	-0.018551072
22	0x3df9e6fd	0.12202261
23	0xbdafe3ff	-0.08588409
24	0x3da20914	0.07911888
25	0xbbf8cf04	-0.0075930376
26	0xbdfd4e6e	-0.12368475
27	0xbd6c7f50	-0.057738602
28	0x3da2c58f	0.079478376
29	0x3d5037ac	0.050834343
30	0xbe05e71b	-0.13076441
31	0xbe022cd9	-0.1271242
32	0x3e0bd973	0.13657169
33	0xbdcb6c58	-0.09932774
34	0xbdc10b6b	-0.09426006
35	0x3e0108d3	0.12601022
36	0xbe21bfda	-0.15795842
37	0x3dd4f9c7	0.10399204
38	0x3d9eb1c5	0.077487506
39	0x3ccd1430	0.02503404
40	0x3ddf1205	0.10892109
41	0xbd0f05f0	-0.03491777
42	0x3e06818b	0.13135354
43	0xbdddb4ac	-0.10825476
44	0x3d0b5cce	0.034024052
45	0xbdc397dc	-0.09550449
46	0xbe11fd5e	-0.14256808
47	0xbdc4fc27	-0.09618407
48	0xbcf59022	-0.029975954
49	0x3dabb6d7	0.08384483
50	0x3d8f40c7	0.06994777
51	0xbe337664	-0.17525631
52	0x3dcdbc2e	0.10045658
53	0x3d11d8ef	0.035607275
54	0xbd9cdd19	-0.076593585
55	0xbdd933ae	-0.1060556
56	0x3d79accf	0.06095582
57	0xbda9251e	-0.08259033
58	0xbdeabac4	-0.11461404
59	0xbe1d6394	-0.15370017
60	0xbbf71e97	-0.0075414884
61	0x3d91e338	0.07123417
62	0xbd76e4bb	-0.060276728
63	0xbd13f1bc	-0.036119208
64	0xbda32cc6	-0.07967524
65	0xbddfb9bf	-0.109241
66	0x3d52303e	0.05131554
67	0xbe0e43bc	-0.13893026
68	0xbd9861a1	-0.07440496
69	0x3d8c372d	0.068464614
70	0x3ddcbd31	0.10778273
71	0x3e2d0f5c	0.1690039
72	0xbd36e4ab	-0.04465167
73	0xbdbf862b	-0.093517624
74	0xbd5839b6	-0.052789412
75	0xbdd3d569	-0.10343439
76	0xbe192a8b	-0.14957635
77	0xbda9cb5f	-0.08290743
78	0x3d090e80	0.033461094
79	0xbd7dfdaf	-0.06200951
80	0xbdac10a7	-0.08401614
81	0xbd772382	-0.060336597
82	0xbdccdbf7	-0.100028925
83	0x3dcfb96a	0.10142787
84	0xbd406633	-0.046972465
85	0xbe01cb6a	-0.12675253
86	0xbe2193cb	-0.15779035
87	0xbd9ef7ec	-0.07762131
88	0xbdd3d3d0	-0.103431344
89	0xbd9b8dd7	-0.07595413
90	0x3cb616f2	0.022227738
91	0x3e18ab58	0.14909112
92	0x3d2d7d86	0.042356037
93	0xbcd8457b	-0.026400318
94	0xbe07e25f	-0.13269947
95	0x3e26689d	0.16250844
96	0x3db07ad0	0.086171746
97	0xbe08dca0	-0.13365412
98	0xbd63e011	-0.05563361
99	0xbdda0a55	-0.10646502
100	0x3daf1ea2	0.085507646
101	0xbd8e542e	-0.0694965
102	0x39ea1f9e	0.00044655515
103	0xbdb3dbf0	-0.08782184
104	0xbe07312c	-0.13202351
105	0x3da4bec8	0.08044201
106	0x3dba98f2	0.09111203
107	0xbe6927ed	-0.22769137
108	0x3b8f902a	0.0043811994
109	0xbca199cf	-0.019726662
110	0x3dbf6931	0.093462355
111	0x3dcd4570	0.1002301
112	0x3e1f1c80	0.15538216
113	0xbd9ceacc	-0.076619714
114	0x3d863d96	0.06554715
115	0xbe17d5ad	-0.14827605
116	0xbe6b8635	-0.23000415
117	0xbd157b01	-0.03649426
118	0xbd751fa4	-0.059844628
119	0xbdd85bb8	-0.10564369
120	0x3d21b619	0.039480302
121	0x3d05c92c	0.032662556
122	0x3d7aab8b	0.061198752
123	0xbd276106	-0.040864013
124	0x3db99bd5	0.09062926
125	0x3dd7d5ce	0.10538827
126	0xbcab5a10	-0.020916969
127	0x3e15e8cc	0.14639586
128	0x3e437cb2	0.19090536
129	0x3ea13f77	0.31493732
130	0xbd33fdab	-0.04394309
131	0xbe00a753	-0.12563829
132	0xbd79e324	-0.061007634
133	0x3c70bcb0	0.014693424
134	0xbe7224f4	-0.23646909
135	0x3c8bd907	0.01707126
136	0xb9e310c9	-0.0004330932
137	0x3dbee33b	0.093206845
138	0x3e2878a9	0.16452278
139	0x3c0a7540	0.008450806
140	0x3d542f8b	0.051803153
141	0xbe737a76	-0.23777184
142	0x3e3fb924	0.1872297
143	0x3dc95f6e	0.09832655
144	0xbdfe2f28	-0.12411338
145	0xbd0f56ca	-0.034994878
146	0xbd022dbf	-0.031781908
147	0xbdc2c8d4	-0.09510961
148	0xbdea036d	-0.11426435
149	0x3e2a9c9b	0.16661303
150	0x3e51e4fd	0.20497508
151	0xbd4b43d3	-0.04962523
152	0xbd0c8e16	-0.03431519
153	0x3cb234df	0.021753727
154	0xbc79adc5	-0.015239184
155	0xbd1ccc20	-0.038280606
156	0xbca2db80	-0.019880056
157	0xbd383779	-0.044974778
158	0xbe65acba	-0.22429171
159	0xbd25b6bd	-0.040457476
160	0x3e749e84	0.23888594
161	0x3d903eb7	0.07043212
162	0x3d8e00bd	0.069337346
163	0xbbc2fd3e	-0.005950599
164	0x3db99e1a	0.090633586
165	0xbd90bb8b	-0.07067021
166	0x3debc756	0.1151263
167	0xbd27adfe	-0.040937416
168	0x3c87b631	0.016566368
169	0x3e967dbe	0.2939281
170	0xbd77ffa7	-0.060546543
171	0x3c99cef8	0.018775448
172	0xbe1a58a9	-0.15072884
173	0xbe1dae9c	-0.1539864
174	0xbe23a218	-0.15979803
175	0x3c20d8fe	0.00981736
176	0xbd05aabb	-0.032633524
177	0xbd77d70d	-0.060507823
178	0x3e1666e2	0.14687684
179	0xbd7a4898	-0.061104387
180	0xbe7dc3e3	-0.24781756
181	0xbe81ecfa	-0.2537611
182	0xbdfd0e94	-0.12356296
183	0xbca4a8b9	-0.020099984
184	0xbe2dcb13	-0.16971998
185	0x3d81f81f	0.063461535
186	0x3b83470e	0.004006273
187	0xbda9ac39	-0.08284802
188	0xbe0c3dab	-0.136954
189	0x3cbb78c9	0.022884743
190	0x3e549729	0.20760788
191	0x3c9c73c4	0.01909817
192	0x3e86f4cb	0.26358637
193	0xbd5c4ca6	-0.053784035
194	0xbdd37bfc	-0.103263825
195	0xbba7f28a	-0.0051253485
196	0x3d5be3d9	0.05368409
197	0xbc351b13	-0.011053818
198	0xbd43ae9d	-0.047773946
199	0x3d131536	0.0359089
200	0x3e8e7822	0.2782603
201	0xbe6b2268	-0.22962344
202	0x3e55c48e	0.20875761
203	0xbe32060a	-0.17385116
204	0x3cabff0c	0.02099564
205	0x3e99e50e	0.30057567
206	0xbda745c1	-0.081676014
207	0xbd7ced9b	-0.061750036
208	0xbdd6c77f	-0.104872696
209	0xbdae08c0	-0.08497763
210	0x3d008ce9	0.031384382
211	0xbce06c98	-0.027395532
212	0x3cb2b998	0.021817014
213	0xbe579004	-0.21051031
214	0x3d133af6	0.0359449
215	0xbdead649	-0.11466653
216	0xbd828596	-0.06373136
217	0xbe19811c	-0.14990658
218	0xbe8cc5bd	-0.27494612
219	0xbe7d471b	-0.24734156
220	0x3e589765	0.21151502
221	0xbd97ceba	-0.07412477
222	0x3e9a0b3a	0.3008669
223	0xbe3e199e	-0.1856446
224	0x3e24ee1e	0.1610646
225	0x3daaed2f	0.083460204
226	0xbe049d2f	-0.12950586
227	0xbd5fd608	-0.054647475
228	0x3ce1e250	0.027573735
229	0x3d87cf7d	0.06631372
230	0xbe66221d	-0.2247395
231	0xbe00eeea	-0.12591138
232	0x3cc06f93	0.023490703
233	0xbd9eddd4	-0.07757154
234	0xbd8c8d66	-0.06862907
235	0x3e9de354	0.308375
236	0xbe1d0ba7	-0.15336476
237	0x3d9a23a6	0.07526331
238	0x3ce8043f	0.028322337
239	0x3c729d58	0.0148080215
240	0x3de64dcd	0.11245308
241	0xbd9227f5	-0.071365274
242	0x3d4cbd5b	0.04998527
243	0xbdd58c07	-0.10427099
244	0x3d65c24e	0.056093507
245	0xbdea5637	-0.114422254
246	0xbdf639fc	-0.120227784
247	0xbdc0263a	-0.09382291
248	0xbdc34a43	-0.09535649
249	0x3e2824fb	0.16420357
250	0x3e1b7f6b	0.15185325
251	0xbe59758f	-0.21236251
252	0x3b84920e	0.0040457314
253	0xbcc856d4	-0.024455465
254	0xbda0f2dc	-0.07858822
255	0xbe6acf18	-0.22930562

fc2.bias f4 [100]
0	0x3e6ee2fa	0.23328772
1	0x3dad32e2	0.08456971
2	0x3e548d98	0.20757139
3	0x3e6eb6a9	0.23311867
4	0x3e6c2f21	0.23064853
5	0x3e0f43b6	0.13990673
6	0x3e8bf4fb	0.27335343
7	0xbe018fae	-0.12652466
8	0x3e49f6e7	0.19723092
9	0xbe41c9b6	-0.18924603
10	0x3df2591e	0.11833404
11	0x3e1d8db3	0.15386085
12	0x3e661ee2	0.22472718
13	0xbdd30e8d	-0.1030551
14	0x3e34e9ce	0.17667314
15	0xbe656107	-0.22400294
16	0x3e55e203	0.20886998
17	0xbe33edff	-0.17571257
18	0xbe65cc01	-0.22441103
19	0x3e49c551	0.19704176
20	0x3e0a50dd	0.1350741
21	0xbe451e39	-0.1924981
22	0x3e830de6	0.2559654
23	0xbe69e9ac	-0.22843045
24	0xbe7e44c1	-0.24830915
25	0xbe61c661	-0.22048332
26	0x3de84ed7	0.113431625
27	0x3e53c93c	0.20682234
28	0x3e46d44a	0.1941692
29	0xbe82babd	-0.25533095
30	0x3dfccd1e	0.123438105
31	0xbe380709	-0.17971434
32	0x3dd5e0b8	0.10443252
33	0x3e5dbb18	0.21653402
34	0xbddc84e7	-0.107675366
35	0x3ddbda08	0.107349455
36	0xbe87acd5	-0.26499048
37	0x3e37bd7c	0.17943376
38	0xbe3ea83e	-0.18618867
39	0x3e581e62	0.2110534
40	0xbdf38292	-0.11890139
41	0xbd94edce	-0.0727192
42	0xbe7b6de8	-0.24553645
43	0xbe086fd8	-0.13323915
44	0x3e05e190	0.13074327
45	0x3e3e0645	0.18557079
46	0x3e3bbb97	0.18333279
47	0xbe4caedc	-0.19988579
48	0x3e8b2009	0.27172878
49	0x3e56a85f	0.20962666
50	0x3e3fe0c4	0.18738085
51	0xbe364576	-0.17799935
52	0xbe1126ca	-0.14174953
53	0xbe531a55	-0.20615514
54	0x3e3cb867	0.18429719
55	0x3e142b13	0.14469557
56	0x3e885cc2	0.2663327
57	0xbe86462e	-0.26225418
58	0x3e7e3370	0.2482431
59	0xbe2c1dfd	-0.16808315
60	0x3de6e305	0.11273769
61	0xbdd874f2	-0.105691805
62	0x3e6052e4	0.2190662
63	0x3e730638	0.23732841
64	0x3e6c853d	0.23097701
65	0xbe88ab11	-0.26693013
66	0xbdda76fd	-0.106672265
67	0x3df97a51	0.12181533
68	0xbe7a6685	-0.2445317
69	0xbe3cbf69	-0.18432392
70	0x3e1fbef3	0.15600185
71	0xbe3aae7b	-0.18230622
72	0x3e26fdf7	0.16307817
73	0xbda2cb58	-0.07948941
74	0xbe17803d	-0.14795013
75	0x3e6a85d4	0.22902614
76	0xbe8a7770	-0.2704425
77	0xbe3e6698	-0.18593824
78	0x3e0be4ff	0.13661574
79	0xbe36266c	-0.17788094
80	0xbdaeade2	-0.08529259
81	0xbe0bd3bc	-0.13654989
82	0xbdfc1494	-0.123086125
83	0xbdac3a25	-0.08409528
84	0xbe4d2a2a	-0.20035616
85	0x3e400c22	0.18754628
86	0xbe19df92	-0.15026692
87	0xbdde9303	-0.10867884
88	0x3e70263f	0.2345209
89	0xbdbdffb2	-0.09277286
90	0xbe198a3b	-0.14994137
91	0xbe15c7ff	-0.14627074
92	0xbe525b3a	-0.20542613
93	0x3e314371	0.17310883
94	0xbc8172aa	-0.015801746
95	0x3e58d2f0	0.21174216
96	0xbe6ef948	-0.23337281
97	0xbe78b88c	-0.24289149
98	0x3e5fc3fa	0.21852103
99	0xbe4d58db	-0.20053427

fc3.weight f4 [1, 100]
0	0x3f128b07	0.5724339
1	0x3f1263d8	0.571836
2	0x3f1445b4	0.5791886
3	0x3f17376b	0.59068936
4	0x3f170a54	0.59000134
5	0x3f141841	0.5784951
6	0x3f146ac2	0.579754
7	0xbf147d1f	-0.5800342
8	0x3f159134	0.5842469
9	0xbf148c04	-0.58026147
10	0x3f1110a2	0.56666005
11	0x3f16ce72	0.5890876
12	0x3f14529c	0.5793855
13	0xbf119d87	-0.5688099
14	0x3f1668e1	0.5875378
15	0xbf16bddd	-0.5888346
16	0x3f14981b	0.58044595
17	0xbf14f094	-0.58179593
18	0xbf159579	-0.584312
19	0x3f127a1a	0.5721756
20	0x3f15876d	0.5840977
21	0xbf141421	-0.57843214
22	0x3f1586ee	0.5840901
23	0xbf13deeb	-0.5776202
24	0xbf12d592	-0.5735713
25	0xbf1112f7	-0.56669563
26	0x3f108074	0.56446004
27	0x3f1640e7	0.58692783
28	0x3f17020f	0.58987516
29	0xbf16a8d7	-0.5885138
30	0x3f12e7f0	0.5738516
31	0xbf138578	-0.5762553
32	0x3f15562e	0.58334625
33	0x3f12cbd5	0.57342273
34	0xbf15c27d	-0.5849989
35	0x3f15ed24	0.5856497
36	0xbf18d1b0	-0.5969496
37	0x3f14b66f	0.5809087
38	0xbf1448e6	-0.57923734
39	0x3f15000c	0.58203197
40	0xbf1362e9	-0.575728
41	0xbf14265e	-0.57871044
42	0xbf1698b1	-0.5882674
43	0xbf1677ee	-0.5877675
44	0x3f1460ae	0.5796002
45	0x3f1753d5	0.5911229
46	0x3f1315d4	0.5745518
47	0xbf139c24	-0.57660127
48	0x3f14c002	0.5810548
49	0x3f14c987	0.58120006
50	0x3f15f1ce	0.5857209
51	0xbf150a8f	-0.58219236
52	0xbf152b80	-0.582695
53	0xbf168b26	-0.58806074
54	0x3f14619e	0.5796145
55	0x3f17fb41	0.5936776
56	0x3f15dee0	0.58543205
57	0xbf10949e	-0.5647677
58	0x3f155ed7	0.5834784
59	0xbf12fd16	-0.5741743
60	0x3f17414a	0.59084
61	0xbf1505fb	-0.5821225
62	0x3f132acd	0.57487184
63	0x3f143797	0.57897323
64	0x3f15126e	0.58231246
65	0xbf1604b3	-0.5860092
66	0xbf147938	-0.57997465
67	0x3f12365f	0.57114214
68	0xbf116e18	-0.56808615
69	0xbf10676a	-0.564078
70	0x3f164b6b	0.5870883
71	0xbf13d23d	-0.57742673
72	0x3f147cc0	0.58002853
73	0xbf23437b	-0.6377484
74	0xbf16bc8f	-0.5888147
75	0x3f15fc04	0.5858767
76	0xbf1797f0	-0.59216213
77	0xbf17265a	-0.59042895
78	0x3f1895b9	0.5960346
79	0xbf170b3c	-0.5900152
80	0xbf0f9d61	-0.56099516
81	0xbf0e9537	-0.55696434
82	0xbf13730e	-0.57597435
83	0xbf1600a8	-0.5859475
84	0xbf1405b3	-0.57821196
85	0x3f13d9a7	0.57753986
86	0xbf12316e	-0.57106674
87	0xbf10faef	-0.56632894
88	0x3f13834e	0.5762223
89	0xbf16c8e1	-0.58900267
90	0xbf1202a2	-0.5703527
91	0xbf114f00	-0.5676117
92	0xbf169ac1	-0.58829886
93	0x3f1783c9	0.59185463
94	0xbf227a06	-0.63467443
95	0x3f1609eb	0.58608884
96	0xbf1538bc	-0.58289695
97	0xbf183ecc	-0.5947082
98	0x3f0fddc4	0.5619776
99	0xbf14aec7	-0.5807919
