mujoco/gail/save_model/ckpt_1602.pth.tar (torch, 144879 bytes, 16 tensors)

fc1.weight f4 [100, 11]
000000 ae 9a 3c 3d 85 8b ac be 82 ff e9 3e af 73 bb be
       0.04604595 -0.33700195 0.4570275 -0.36611697
000010 e7 11 0b bc 1c 54 e3 3d dc 02 7e bc ab ce 2c 3e
       -0.008488155 0.11100027 -0.015503611 0.16875713
000020 f6 e4 03 3f 23 13 19 bd 73 4b 16 bc 30 16 9b 3e
       0.5152124 -0.037371766 -0.009173262 0.30290365
000030 e7 f7 a6 bd c5 ff 7d 3d 6d 74 09 bf 5a f3 25 be
       -0.08152752 0.0620115 -0.53693277 -0.16206113
000040 94 52 8c 3e 13 eb 23 3d a7 bc 16 3e 93 bc d9 bc
       0.27406752 0.040019106 0.14720403 -0.026579177
000050 c5 7d bd 3e 65 24 a3 3e de 1e c2 3e 43 fb 5e be
       0.37010017 0.31863704 0.37914175 -0.21775536
000060 cf f3 a4 be 80 cc 6f 3d 62 5f 90 3d 2f f2 0c 3d
       -0.3221726 0.058544636 0.07049443 0.03441065
000070 b0 81 10 3d ba 3a 04 3f 65 1f 4c 3e d0 5d c2 3d
       0.03527993 0.5165211 0.19933851 0.094905496
000080 02 e2 94 3e 84 38 08 3f 20 4e c4 be 38 3c c0 3d
       0.2907868 0.53211236 -0.38340855 0.09386486
000090 05 20 94 3e 02 54 af 3d 3f 78 26 bd d1 2b 4a be
       0.2893068 0.08560945 -0.04064202 -0.19743277
0000a0 c6 30 3b be b6 37 62 bd a1 ad 2d 3e c4 7b bf be
       -0.18280324 -0.05522891 0.16960765 -0.37399113
0000b0 3c d6 d7 3c 3d a4 27 3e 2c d3 aa 3e 85 b8 b3 be
       0.026347272 0.16371246 0.33364236 -0.35101715
0000c0 ff 6d f0 bd 4c ff 1b 3e 48 3f 12 be c2 34 53 3e
       -0.1173973 0.15234107 -0.14281952 0.20625594
0000d0 cc e1 11 3f b2 08 bf 3c 86 f9 1c bd 2b f7 18 3f
       0.56985164 0.023319576 -0.0383239 0.5975215
0000e0 bb 23 52 be 64 d4 7b 3e 59 6c b1 3c ca 85 57 3e
       -0.20521443 0.2459274 0.02165811 0.2104713
0000f0 c1 f6 0b 3d 71 7f 4e 3e 59 3c cf be 32 e4 06 be
       0.03417087 0.20165803 -0.4047573 -0.13172987
000100 5d ad e9 bc 7d 68 ae 3d 28 c3 a2 3e 06 4c 05 bf
       -0.028525049 0.08516023 0.31789517 -0.5206913
000110 2d fd 3f 3e 5d ad 97 bd bb f6 19 be 98 27 76 be
       0.18748923 -0.07406113 -0.15035526 -0.24038541
000120 b0 a2 9f 3a 26 24 7e bd 90 e6 4a 3e fa c2 72 be
       0.0012179222 -0.062046193 0.19814515 -0.2370719
000130 80 2a 1b bd 93 11 2e 3e 9f 9c bb 3e d3 ea 12 bf
       -0.037882328 0.16998892 0.3664293 -0.57389563
000140 7e c9 13 be 5e 94 c4 3e 7d 16 f0 3d d5 96 c4 3d
       -0.14432332 0.38394445 0.11723039 0.095990814
000150 a1 69 1c 3d 57 65 8a be 81 8a 94 3e c1 29 8b 3e
       0.038186673 -0.2703044 0.2901192 0.27180293
000160 92 5a 69 3c fb 82 3c 3e bc c3 e4 be a8 9e 09 bf
       0.014242785 0.1840934 -0.44680583 -0.53757715
000170 69 05 7f 3e 51 08 b2 3e 5d 09 f5 3d 2a 9e c9 3c
       0.24904408 0.3477197 0.119646765 0.024611551
000180 da ce 9c 3e 87 c4 79 bd 48 a5 64 3e 1a a8 83 bd
       0.30626565 -0.06097844 0.22328675 -0.06428547
000190 70 d2 7e 3e f0 be 54 3e 00 4e 9c bd e4 cc 11 3e
       0.24884963 0.20775962 -0.07632065 0.14238316
0001a0 1a f5 00 be 90 79 80 3e 2a 59 ca 3e 8e 4f 5c 3e
       -0.12593499 0.25092745 0.39521152 0.21514723
0001b0 db d2 77 3e 7d 5d 24 be 13 97 fd be 5f c7 a7 bd
       0.24201529 -0.16051288 -0.49529323 -0.08192324
0001c0 c7 9a 42 be d1 06 39 be ca 83 c3 bc 51 5e c8 3e
       -0.19004355 -0.18069007 -0.023866553 0.39134458
0001d0 0c 1d 40 be e7 d9 c2 3e 5b b2 b1 ba fc 1f 03 3f
       -0.1876108 0.3805687 -0.0013557182 0.5122068
0001e0 e4 31 6d be 49 ab a4 ba fa 37 d6 bd c2 a7 09 bd
       -0.23163563 -0.0012563254 -0.104598954 -0.033607252
0001f0 de 3e 87 3d 46 3e 2a 3f 76 f7 c5 3e de a2 4f 3d
       0.06603788 0.6650127 0.3866536 0.05069243
000200 1c 31 3c be 26 14 a9 be a5 d4 98 bd bb 5c 09 3e
       -0.18378109 -0.33023185 -0.07462434 0.1341428
000210 6d d1 82 3d 5e 48 01 3e 31 90 ac 3e 4d a4 06 3c
       0.06387601 0.12625262 0.3370376 0.008217883
000220 ba b9 48 3e 3a db d0 bd f6 0a d6 3d f1 d7 0f be
       0.19602099 -0.10198064 0.104513094 -0.14047219
000230 d7 bf 82 3e 0f 43 f8 bd e8 33 be 3e 36 b1 a4 3c
       0.25536987 -0.121221654 0.37148976 0.020104032
000240 27 f1 e0 3d d3 4f 6b bd 4e 07 86 3e fe 95 0f be
       0.10983496 -0.057449173 0.26177448 -0.14022061
000250 48 58 df bd 40 27 51 3d 07 f3 fc 3e d9 b8 73 3f
       -0.1090551 0.051062822 0.49404165 0.9520393
000260 2b 15 f8 bd c6 2e a8 3d 56 58 c5 bd 0e 0e 76 be
       -0.121134125 0.08212046 -0.09635989 -0.24028799
000270 6b 9f 22 3f 28 2c 90 3e 1b 3a 04 3e c6 6d c7 bd
       0.635245 0.2815869 0.1291279 -0.097377345
000280 4e 38 e1 3e c1 bb 66 3e da cb 0c 3c e1 14 d8 3c
       0.4398827 0.2253256 0.008593524 0.026377143
000290 74 53 67 3e 5c d6 f9 bd 72 30 f8 bd 69 13 11 3f
       0.22590429 -0.12199089 -0.12118615 0.5667024
0002a0 38 9c 56 3e 08 6a b2 3e f0 8a 0f bb 04 33 ba bd
       0.2095803 0.3484652 -0.0021902882 -0.09091762
0002b0 37 12 9f bd 0e eb 0e 3e 8a f1 80 3e d3 64 94 bd
       -0.07767146 0.13956854 0.2518428 -0.07245793
0002c0 9c f5 6c 3e 02 84 85 be f1 4d ca 3e 11 4d 55 3e
       0.23140568 -0.26077276 0.3951259 0.2083018
0002d0 f3 b9 a2 3e f0 11 b3 3e 25 68 b8 be 00 a3 e2 3e
       0.31782493 0.34974623 -0.36016956 0.44264984
0002e0 d4 20 94 3e 9b cc 8e 3e 0f 5d e6 3e 36 37 da 3d
       0.28931296 0.27890477 0.44992873 0.10655062
0002f0 b7 63 88 be 7d b8 87 be b3 29 4d bd 8c ba de 3d
       -0.26638576 -0.2650794 -0.050088596 0.10875425
000300 dd d8 b6 be 5c f5 75 3d cc 21 07 3d 31 45 70 bd
       -0.3571233 0.060048446 0.032991216 -0.058659736
000310 d2 fb 53 be ff d1 f1 bd b7 6d 45 3e 4d f1 2a 3e
       -0.2070153 -0.11807632 0.19280134 0.16693611
000320 fc 0f d0 3e ec ab 8a bd 37 4d 31 be d4 c8 77 3e
       0.40637195 -0.06771073 -0.17314611 0.24197704
000330 56 43 90 bc e3 24 f0 3d 7d 81 4c be 49 f4 9d be
       -0.017610233 0.117257856 -0.19971271 -0.30850437
000340 82 8d e8 3e 50 d8 72 3c 24 74 dc 3e 49 a9 04 bf
       0.45420462 0.014822081 0.43057358 -0.5182081
000350 31 9d b8 3d f2 7b c4 3e fe 9a 74 be a9 38 31 be
       0.09014357 0.38375813 -0.2388725 -0.1730677
000360 47 2d 54 be 59 9d 95 be d6 cc 93 3e 61 62 37 be
       -0.20720397 -0.2922161 0.28867215 -0.17908622
000370 f7 db 3d be fc d1 c0 be d8 ca c2 bd 73 41 8c 3e
       -0.18540941 -0.37660205 -0.095113456 0.27393684
000380 34 38 fa bc d1 16 d2 bd 11 01 2e bd 08 33 48 be
       -0.030544378 -0.10258258 -0.042481486 -0.19550717
000390 51 0c e8 3d 71 9d 6a be 24 1d 9a be 06 79 5b 3e
       0.11330474 -0.22911622 -0.30100358 0.21432886
0003a0 84 39 ed 3d f5 f7 1c 3f eb 60 8b 3e d3 cd c6 3e
       0.11583236 0.6131585 0.2722238 0.38828906
0003b0 8b 08 ad be 31 fa 7f 3d ec 0b 63 3b 88 41 cf bd
       -0.3379558 0.06249446 0.0034644557 -0.10119921
0003c0 98 4e 31 3e 62 d6 d3 bd 5f 47 e5 3c 9b 35 e5 be
       0.17315137 -0.10343625 0.027988134 -0.4476746
0003d0 e0 ae aa 3c ee 15 51 3e f3 81 ea 3e 0d ce 3b 3e
       0.02083534 0.20418522 0.45802268 0.18340321
0003e0 72 54 16 be 57 a9 a1 be bd 2c 43 be de 15 1a 3e
       -0.14680651 -0.3157451 -0.19060035 0.15047404
0003f0 ec f4 e3 be dc 94 7c 3e b5 c0 80 3e d8 16 47 bd
       -0.44522798 0.2466616 0.25147024 -0.04860577

fc1.bias f4 [100]
000000 cb 6e f1 bd cb e7 9c be 56 9d 81 bc ec 81 78 3e
       -0.1178871 -0.30645594 -0.015822094 0.24268311
000010 f2 57 9c 3d bf 5f ae 3d f3 93 38 be 55 f9 ef 3b
       0.07633962 0.08514356 -0.18025188 0.007323424
000020 c8 f6 f1 bd c8 ec bf be dd 44 36 3c b0 bc 07 3e
       -0.11814648 -0.37485337 0.011124817 0.13255572
000030 28 e5 02 be 32 0b 11 3e 55 c1 dc 3d 30 5b a9 be
       -0.12782729 0.14164427 0.10779063 -0.33077383
000040 92 08 6c 3e a5 86 af 3e 5b 0e 7b be 3d e7 e4 3d
       0.23050144 0.34282413 -0.24517195 0.11176918
000050 1a 35 6a bd c2 d8 3f be 97 bd fa 3d dc 24 82 be
       -0.057179548 -0.1873503 0.12243193 -0.25418746
000060 d9 31 bc 3d 90 8a 55 3e e4 2a 9b be b1 6c 09 be
       0.09189195 0.20853639 -0.3030616 -0.13420369
000070 bc ee 93 3e 53 74 2a 3e ca 3d 12 be c7 8b c7 3d
       0.28893077 0.16645937 -0.14281383 0.09743457
000080 94 3d bc 3e 87 be 7e 3b 54 47 db be f8 be ac 3e
       0.3676573 0.0038870887 -0.42827857 0.33739448
000090 42 b3 c9 3d ff ee 1d 3e 29 8c f0 bd a3 84 ab 3d
       0.09848644 0.15423201 -0.117454834 0.08374908
0000a0 5a a7 18 bc fd 42 f7 3e d7 28 ec bd 76 48 c2 be
       -0.0093172435 0.48293296 -0.11531227 -0.37945908
0000b0 e5 2f 03 3e 4c f1 b0 3d 84 bc 70 be 26 6c bc be
       0.12811239 0.08639774 -0.23509413 -0.3680126
0000c0 26 8a 9b 3e a3 25 b1 3e 45 35 47 3d cb 1d 6d 3e
       0.30378836 0.34599027 0.048634786 0.23155896
0000d0 15 ee 3f be ce e9 8f be e2 67 57 3e 9b ce e2 3e
       -0.18743165 -0.28108066 0.21035722 0.44298252
0000e0 26 7a 66 3d 07 99 a5 3e 19 eb b1 3e 52 45 9e 3e
       0.056268834 0.32343313 0.34749678 0.30912262
0000f0 df d3 3f be b4 c6 63 3e 43 4b 9b 3e 5f 04 e8 3d
       -0.18733166 0.22243768 0.30330858 0.11328959
000100 aa f8 ed bd 18 75 b4 be 64 d6 a4 bd 47 fe a4 be
       -0.116196945 -0.35245585 -0.08048704 -0.32225248
000110 8b c5 27 be d7 e3 34 bd f4 82 c8 3e d8 13 55 bd
       -0.1638395 -0.044162598 0.3916241 -0.052020878
000120 2a 8d b8 3d 2a 40 59 be a2 13 f3 bd 45 67 7b be
       0.090113 -0.21215883 -0.11868979 -0.24551113
000130 18 32 c8 3e c7 76 79 3e 1d fb aa 3e 5d ac 5a 3e
       0.39100718 0.24361716 0.3339471 0.21354814
000140 9f b2 f6 be d8 d5 5d be be 97 aa 3e 55 af 4b 3e
       -0.48183152 -0.21663606 0.33318895 0.19891103
000150 e4 ea c1 3e eb 8b 00 bf 11 26 67 be 16 a7 c5 3e
       0.3787452 -0.502135 -0.22573115 0.3860404
000160 a3 3a 87 3e 91 95 54 bd 97 7d 54 3e c4 ed 00 3e
       0.26411924 -0.05190045 0.20751034 0.125907
000170 f7 22 02 3d 1f 13 df 3e 51 d8 65 be 1b 1d 97 3e
       0.031771626 0.43569276 -0.224458 0.29514393
000180 e9 ef 7b 3e c2 8f 17 3e 6e 05 87 3e d5 ce 9f 3e
       0.24603237 0.14800933 0.2637133 0.31212488

fc2.weight f4 [100, 100]
000000 40 6b 87 bd 5c 54 25 bd 1a e8 48 3e 12 71 92 bc
       -0.06612253 -0.040363654 0.1961979 -0.017876182
000010 b6 bc 33 bd 37 39 31 be cf a1 6a bc b8 1e f4 3d
       -0.04388114 -0.17306982 -0.014320805 0.11919922
000020 82 ab 76 3d 74 ab 1b bd a2 7b 8c 3d a0 a1 cd bd
       0.060222156 -0.038005307 0.068595186 -0.10040593
000030 97 af 99 bd b8 4b aa 3e c8 60 8d 3d 04 6b 51 bc
       -0.07504194 0.33260894 0.06903225 -0.012781862
000040 8b 99 a1 3d be 39 b8 3d 05 2f fa bd bd dd 28 3e
       0.07890614 0.089953884 -0.122159995 0.16490836
000050 50 f7 ad bc 3e a8 2d 3d 1d 82 d5 bd 97 fb 8d 3d
       -0.021236092 0.042396776 -0.10425208 0.069327526
000060 b8 17 5a be 86 77 0f be d4 17 72 be 5e 46 21 be
       -0.2129811 -0.14010438 -0.23641902 -0.15749499
000070 ba 9a 25 be 9a 47 7c 3e e6 88 5c be b9 88 57 3d
       -0.16172305 0.24636689 -0.21536598 0.052620623
000080 da 8d f1 3d fc 98 9d bd 2b 0f 90 3d 99 07 e5 3d
       0.11794634 -0.07695195 0.07034143 0.1118309
000090 7e 3e e7 bd ee a7 54 3e 17 6f cc bd 4f bb 36 be
       -0.11291216 0.20767185 -0.09982126 -0.1784489
0000a0 8a 8a 1b bc 25 34 62 bd 8e f1 02 3e f9 5e 32 3d
       -0.0094934795 -0.05522551 0.12787458 0.043547604
0000b0 3e 2b 59 3c 56 7d b2 3d 9e 1c f4 bd cf b4 b5 3c
       0.013254939 0.08715312 -0.11919521 0.022180943
0000c0 c1 fa 48 bc 89 7e 5d be 79 1b af bd a3 4b ff bd
       -0.012266816 -0.216303 -0.08550162 -0.124655984
0000d0 03 c5 41 3e 85 39 34 3d eb 25 76 bd 59 1b bd 3c
       0.1892281 0.044000167 -0.060094755 0.02308433
0000e0 d5 87 38 3e 5c 4a 89 3e 8d f1 0d be 6d 49 95 3d
       0.18020566 0.26814544 -0.13861676 0.072893955
0000f0 59 cf 22 3e 52 c0 6c 3d 02 e1 e0 3d be 5f c1 3d
       0.1589941 0.0578006 0.10980417 0.094420895
000100 ab cd 1e bd fc 72 2c be a1 14 52 3e 88 4f 6f 3d
       -0.03877036 -0.16840738 0.20515682 0.058425456
000110 c0 bc ad bb 7f aa 52 3d 64 1d cd 3c 67 fb 23 be
       -0.005302042 0.05143213 0.025038429 -0.16013871
000120 1f cb 09 3e 4d a4 eb 3c b3 94 f4 bd dd ed a2 be
       0.13456391 0.028764868 -0.119424246 -0.318221
000130 0c b7 6b be 15 9b 87 3e 01 57 f8 bc a8 80 91 3d
       -0.23019046 0.26485506 -0.030314924 0.07104617
000140 f6 cc 2f 3d a1 b5 fc bc 85 56 30 3d fd 27 20 bc
       0.042920075 -0.030848326 0.04305126 -0.009775159
000150 48 af 00 be de 58 25 be 7e ef c5 3d 0b ae 0a 3c
       -0.12566864 -0.16147181 0.0966482 0.008464347
000160 29 f7 8e be 53 37 86 3c b9 41 c1 3b 40 30 04 3d
       -0.27922943 0.016383803 0.0058977273 0.032272577
000170 0c 73 69 bd f2 c4 bc bc c8 ba 79 3d bd ea 9c bc
       -0.056994483 -0.02304313 0.060969144 -0.0191549
000180 c2 db 80 3e 5d 10 22 be 4d 33 68 3e 1b f4 d7 bc
       0.25167662 -0.15826555 0.2267582 -0.026361516
000190 af 8b 3f be 63 40 3d be 69 c5 81 3d a7 a3 03 be
       -0.18705629 -0.18481593 0.06336481 -0.12855397
0001a0 a9 1a 50 be 80 eb 49 be c4 00 c8 3d 64 64 ef 3d
       -0.2032267 -0.19718742 0.09765771 0.1168907
0001b0 0d 7f 88 3d 4f 2c c7 3d 9d 62 00 3e d4 e7 4f bc
       0.06664858 0.09725248 0.12537618 -0.0126895495
0001c0 92 7b 43 bd 0d 45 33 3d 08 10 96 bc 5c 78 3e 3d
       -0.047725268 0.043767024 -0.018318191 0.046501502
0001d0 e4 52 e2 bd 28 d1 7a 3e fc db 31 be 3a ef a4 bc
       -0.110509664 0.2449385 -0.17369074 -0.020133603
0001e0 40 a5 0b 3e 7d 83 75 bd d7 0e ed 3d 6c 59 3e be
       0.13637257 -0.05993985 0.11575096 -0.18588799
0001f0 01 42 d2 be bc fd f2 3d ba 83 16 be 57 2b 27 3d
       -0.41065982 0.11864802 -0.14698687 0.040812816
000200 81 73 36 be c5 12 4c 3e e5 87 42 be 31 13 19 be
       -0.17817499 0.19929035 -0.18997152 -0.14948727
000210 8e 37 81 bc ee f9 a1 3d 69 49 e3 bd d6 96 12 be
       -0.01577356 0.079089984 -0.11097986 -0.14315352
000220 7f 1d 23 bd 32 5b c5 3e ef 7a a8 bd 80 10 fc 3c
       -0.03982305 0.3854614 -0.08226573 0.030769587
000230 75 52 77 3d d8 81 90 be 45 8f ca bd 14 6c cf 3e
       0.06038137 -0.28224063 -0.09890608 0.40512145
000240 2e 46 1a be cb 7f 91 be d8 6c a2 3d 2c 1c 10 3c
       -0.15065834 -0.2841781 0.079309165 0.008795779
000250 c1 b7 c7 3d 49 59 49 be 17 96 a9 bd 06 72 a6 bd
       0.09751845 -0.19662966 -0.082805805 -0.08127217
000260 ea 46 7d 3d 3e 96 1d bb c8 36 2a bd 5c 88 06 3c
       0.061835207 -0.002404585 -0.04155615 0.008211222
000270 5f 3f 95 3d c4 f7 38 bd 6e 7b 15 3d cb 81 4f 3e
       0.07287478 -0.045158163 0.036494665 0.20264356
000280 14 c0 8e 3d d3 13 6f bd 31 e5 0e be b9 87 04 3e
       0.0697023 -0.058368515 -0.13954617 0.12942399
000290 2b 55 cc bd 20 f8 06 be 0f 5d 8e 3d bb 44 a8 3e
       -0.09977182 -0.1318059 0.06951343 0.32864937
0002a0 2b cd bd 3d e2 ed 62 3e d6 34 b6 3d 7d b1 4a be
       0.09267648 0.22161058 0.088967964 -0.19794269
0002b0 2f 47 f1 3d 88 51 2e 3e de 21 19 be c7 8d de be
       0.11781155 0.17023289 -0.14954326 -0.43467543
0002c0 4a 07 9b be 7e d7 f1 3c 40 4a 91 bd 38 80 51 3e
       -0.30279 0.0295217 -0.0709424 0.20459068
0002d0 a1 04 87 3d e3 ed 9c bd e9 7f 2e be 47 3e 78 be
       0.0659268 -0.07662561 -0.17040981 -0.24242507
0002e0 95 00 95 3c a0 07 c6 3d bb 66 8b 3e 38 47 2a 3d
       0.018188754 0.09669423 0.27226815 0.041571826
0002f0 24 fd 91 bd 57 9d 2c 3e 4e 04 8e 3e 13 c3 4b 3d
       -0.07128361 0.16856895 0.2773766 0.049746584
000300 15 7b 03 be db e2 26 3e fc b9 27 3e 36 ef 9a bd
       -0.12839921 0.16297476 0.16379541 -0.07565157
000310 77 8f 5c 3e 4e 20 9f bd c7 b8 0c 3e 2c a7 b0 bd
       0.21539102 -0.077698335 0.13742362 -0.086256355
000320 82 22 57 3e de a0 90 3d c5 cf 03 3f eb 98 5d 3d
       0.21009257 0.07061933 0.51488906 0.054100912
000330 2f 5d d4 3d d3 70 22 bd 29 8b 24 3e 92 7c 2b 3c
       0.10369336 -0.03965838 0.1606871 0.010466712
000340 c8 da 4a 3e 8f f5 37 3e 6b f4 23 be 42 8e a5 3d
       0.19810021 0.17964767 -0.16011207 0.08083774
000350 76 5c 4f 3e 79 b3 c7 3e 1c 04 84 3e 95 8d 15 be
       0.20250115 0.39004114 0.25784385 -0.1460479
000360 15 e0 a7 3e b5 70 10 3e 14 1a 1d 3d 49 34 6f bd
       0.3278815 0.14105494 0.03835495 -0.058399472
000370 85 fe 94 3c f5 e3 93 bd e9 7e e4 bc 89 88 3d 3d
       0.01818777 -0.07221214 -0.027892547 0.04627279
000380 f5 5a e3 3d b4 f6 1e be 30 b1 12 be c6 72 21 bd
       0.11101333 -0.15523797 -0.14325404 -0.039416097
000390 05 da 24 bd 83 1a 27 3e 86 bb 91 be 1a 0a f2 3d
       -0.040246982 0.16318707 -0.28463382 0.11818333
0003a0 57 2f 8e 3e 44 3e 9d be e8 14 8b 3c b8 94 dd 3e
       0.27770492 -0.30711567 0.016977742 0.43277526
0003b0 8e e3 98 be ac 5d 8c 3d 92 78 bf be 9e 5b 1f be
       -0.2986111 0.06853804 -0.37396675 -0.15562293
0003c0 95 a8 b3 be 24 63 a6 3d b9 84 19 be 30 6d f3 3c
       -0.35089555 0.08124378 -0.14992036 0.02971515
0003d0 a5 bd 35 3d 8f 27 46 3e 09 5c 1b bd a4 65 45 be
       0.044370312 0.19351028 -0.03792957 -0.19277054
0003e0 96 e5 d8 3d 12 e1 48 be 26 b6 09 be 30 ff 26 bd
       0.10590665 -0.19617108 -0.1344839 -0.04077071
0003f0 c3 10 8a 3e 55 8b 36 be c6 aa 19 3b fb 4f 28 3e
       0.26965913 -0.17826588 0.0023447736 0.1643676

fc2.bias f4 [100]
000000 e3 6e 6d 3b 7d f2 b6 bc 9e b4 9a 3d 20 14 50 be
       0.0036229424 -0.022332424 0.07553981 -0.20320177
000010 b3 c2 2b 3e fd ef d3 bd 70 38 b6 3e 5d 80 77 bd
       0.1677349 -0.103485085 0.35589933 -0.06042515
000020 28 63 49 b7 33 a3 50 be ff 1e 2f 3d 44 90 7a 3e
       -1.200362e-05 -0.20374756 0.04275417 0.24469095
000030 d6 02 f4 bd b5 f2 01 be 7e be d4 bd 9c 95 30 3d
       -0.119146034 -0.12690242 -0.10387896 0.04311143
000040 42 fa 4d bd 1e 39 f2 bb 31 31 f8 bc dc d0 f0 3d
       -0.050287493 -0.007392063 -0.030296894 0.11758587
000050 e4 33 89 bd ee a8 af 3c 34 a8 36 be cb 37 fa bb
       -0.066993505 0.021442857 -0.17837602 -0.0076360456
000060 b0 ba d9 3d c3 a8 84 3c 87 5d 76 be 1a ff 4c bd
       0.10631311 0.016193753 -0.24059115 -0.05004797
000070 7e 2f 48 be 87 53 9b 3b d2 a9 a0 bb 16 39 91 3c
       -0.19549367 0.004740182 -0.0049030567 0.017727416
000080 ba a8 bb 3b b1 6d 53 3e a9 24 93 bc e6 3b a3 3d
       0.005726901 0.20647313 -0.017961817 0.07970409
000090 c6 50 b1 bd 2f f6 3b bd a3 b9 1d be a9 69 f4 bc
       -0.086579844 -0.045889076 -0.15402846 -0.029835539
0000a0 a1 b4 3e 3d 46 02 81 3d ac 9d 72 bd bf ae 00 bd
       0.04655898 0.06299262 -0.0592324 -0.03141665
0000b0 5e 47 9b 3d 65 4a 04 bd f8 26 b6 3d 3f af a0 be
       0.075819716 -0.03229751 0.088941514 -0.31383702
0000c0 17 b7 33 3e 76 2d 26 bd 7d 40 5b be 38 b5 13 be
       0.17550312 -0.0405707 -0.21411319 -0.14424598
0000d0 92 91 76 3e c9 13 86 be ef 7a 6a bd 8f 33 41 3e
       0.24078968 -0.2618697 -0.057246145 0.18867324
0000e0 1e e6 b4 3d ea b1 02 be 3a bc b7 ba be 8e da bd
       0.08832954 -0.12763181 -0.0014017888 -0.10671757
0000f0 f6 d6 b5 bd 5f c6 3f 3e ff 1b 82 be 65 4a f7 bb
       -0.08878891 0.18728016 -0.25411984 -0.0075467103
000100 3d 88 a7 bc 96 b5 fc 3d e9 80 dd 3d 7a a5 33 be
       -0.020450706 0.12339322 0.10815603 -0.17543593
000110 97 2f fa 3d 44 0a 22 bd aa 44 1e 3e dd 39 23 3e
       0.12216108 -0.03956057 0.15455881 0.15940042
000120 8c 59 95 3d dd 4c 5b 3e 6d 23 aa bc 5c db a9 3d
       0.0729247 0.2141604 -0.020768845 0.082937926
000130 91 e7 67 be fc d0 2d be 9e 2b f5 bd c6 9b b6 3d
       -0.2264693 -0.16974252 -0.1197121 0.0891643
000140 24 0f 10 3e 23 05 12 bd b8 b8 be 3b a8 c2 9e 3d
       0.14068276 -0.03564943 0.00582036 0.077519715
000150 66 02 ba 3d 38 8c e9 ba b7 23 35 3e dc 68 16 3d
       0.09082489 -0.0017818278 0.17689405 0.036721095
000160 6a c3 a0 3e 9c 92 85 bc 38 cd 04 3e f1 69 87 bd
       0.3139909 -0.01630526 0.1296891 -0.066120036
000170 6d f0 d1 3c be 11 4f bd 0e 46 1c be 8b 5d 98 3e
       0.02562734 -0.05055403 -0.15261099 0.29758868
000180 10 fb 24 bd 1f 66 d8 bd 10 32 07 be 60 6f a1 bd
       -0.040278494 -0.10566353 -0.13202691 -0.07882571

fc3.weight f4 [3, 100]
000000 46 18 6e 3d fe da 45 3e f0 64 cb 3c 11 80 3f be
       0.058128618 0.1932182 0.024828404 -0.18701197
000010 17 41 ed ba bd 80 f6 3d 34 f1 77 3e 3d f9 7f be
       -0.0018101063 0.12036274 0.24213105 -0.2499742
000020 ed a1 70 bc 7b 65 27 be 8f 08 93 bd 92 4e c9 3d
       -0.014687044 -0.16347305 -0.07179367 0.09829439
000030 6c 1a 16 be 03 6a bc bd 79 9f 0e 3d e7 e5 54 be
       -0.14658517 -0.09199908 0.034820054 -0.20790826
000040 4e fd 57 be 19 8c c0 3d 52 c0 c2 bb 48 96 e7 3c
       -0.21092722 0.094017215 -0.0059433365 0.028269902
000050 02 2c 51 3e 30 e0 6f bb 10 f7 b6 bd f4 e5 9c bc
       0.20426944 -0.0036602132 -0.08933842 -0.019152619
000060 72 28 bc bd 2f 15 4e be cf 16 18 3c de ab 06 3d
       -0.09187402 -0.20125268 0.009282782 0.03287875
000070 69 a1 37 bd d9 e5 e6 3d 5e fd 6d be b1 73 2f 3d
       -0.044831667 0.11274309 -0.23241183 0.04283494
000080 dc d6 83 3d fe 77 d4 3d a8 b6 bb 3d 92 d6 d1 3b
       0.064374655 0.10374449 0.09165698 0.0064037526
000090 c0 2b ba 3d 2d ab 4a be 04 84 04 be 95 49 e8 3c
       0.09090376 -0.19791861 -0.12940985 0.0283554
0000a0 d5 97 76 be 34 fe 53 bc 2c c8 40 bd 3d 9e 98 be
       -0.24081357 -0.012939025 -0.0470659 -0.29808226
0000b0 56 de 12 be 39 dd 5b bd a6 10 30 bd bd 9d 71 3b
       -0.14342627 -0.05367777 -0.042984627 0.00368677
0000c0 3d 85 a1 3b d6 be 60 3e 28 85 88 bd 5f 71 09 3e
       0.0049292133 0.21947798 -0.066660225 0.13422154
0000d0 51 0f 8c bd b3 b4 82 bd 2e 1d 25 be 0b 92 62 3d
       -0.06838859 -0.06382122 -0.16124412 0.05531506
0000e0 ad 46 82 3e 19 1c 16 be 53 8a 22 3e a3 33 eb ba
       0.25444546 -0.14659156 0.15873079 -0.0017944466
0000f0 cb 5e 2f 3d 69 86 71 3c f8 7e 83 be b1 e1 f7 bc
       0.04281501 0.014741519 -0.25682807 -0.030258985
000100 d2 1f b9 3c 02 8d 8e 3d b0 3d 03 3e d8 84 8b 3c
       0.02259818 0.06960489 0.128165 0.017031118
000110 5a 0d ea bc 73 32 8e bc e0 29 c7 3d 5d 24 ed bd
       -0.02857082 -0.01735804 0.09724784 -0.11579201
000120 8f 34 ec bc 02 a3 29 3e 78 6c f9 3d f2 4b 08 3e
       -0.028833656 0.16566089 0.12178892 0.13310221
000130 6c 96 17 3e 21 fc 1a be 81 c5 4c be 55 da 56 be
       0.14803475 -0.15135242 -0.19997217 -0.20981725
000140 c0 69 12 bd 14 12 5a 3d 53 6d 32 bd 78 cd 1f be
       -0.035745382 0.053239897 -0.04356129 -0.15605724
000150 6c 71 58 3c c1 fa 9b be fc 19 05 be e7 a1 96 3c
       0.013210636 -0.30464748 -0.12998194 0.018387748
000160 93 b2 8c bd e3 17 ff bd de 32 9f bd cd 02 a6 ba
       -0.06869998 -0.12455728 -0.07773374 -0.001266563
000170 e1 a0 a8 bd 4a 3b ce 3d 96 2c a6 bd f4 85 a1 3e
       -0.0823381 0.10069902 -0.08113973 0.3154751
000180 a5 75 84 3e 54 be 82 bd 00 7b 86 3d b6 1e 87 3d
       0.25871006 -0.063839585 0.06566429 0.065976545
000190 3d 36 1b be 5d 70 85 3d 6b 80 93 be 83 27 6a 3d
       -0.15157409 0.06515572 -0.28808913 0.057166588
0001a0 e4 ab 8a bc 85 68 8a bd 49 21 f4 3d f9 0d d1 bd
       -0.016927667 -0.06758217 0.11920411 -0.10207743
0001b0 ee b4 90 3d 30 92 21 3e ac af ae 3d 94 b3 3b 3e
       0.070657596 0.15778422 0.085296005 0.18330222
0001c0 d1 75 83 3e 4c ec 53 be 8b cb 39 bd 85 0d 51 be
       0.25675824 -0.20695609 -0.04536013 -0.20415314
0001d0 c0 6e 24 3e 99 24 44 3e a0 fc 41 bd 65 10 8c 3e
       0.16057873 0.19154586 -0.047360063 0.27356258
0001e0 e1 39 a3 bd 2f aa 44 3e 64 9c 3a be 71 dc f3 3b
       -0.07970024 0.19205545 -0.18223721 0.00744205
0001f0 24 43 92 bc bd 7c 59 be 22 7c 0b 3c 84 b0 98 3c
       -0.01785428 -0.2123899 0.008513482 0.018638857
000200 3a 64 4c be 97 69 65 3d 37 45 80 3e e1 61 4d 3e
       -0.19960108 0.0560089 0.25052807 0.20056869
000210 37 54 2c be bc 64 a2 bd 64 f0 8a 3a 48 8b 23 bb
       -0.16829 -0.0792937 0.0010600206 -0.0024954844
000220 45 87 94 bd 11 60 14 be 30 d3 37 be 89 44 75 be
       -0.07252363 -0.14489771 -0.17951655 -0.23951925
000230 db 08 4d 3d 06 ef 1d 3e 92 18 c1 3b 2d b8 4e bc
       0.050057273 0.15423211 0.0058928216 -0.012617153
000240 b5 87 14 be 59 11 ba bb 57 8f fe bd b8 f1 33 be
       -0.14504893 -0.0056783375 -0.12429684 -0.17572677
000250 d7 50 b6 3d a1 2e bd bd 12 7a 51 be 5b f6 3a 3e
       0.08902138 -0.092374094 -0.20456722 0.1825804
000260 fa 61 bb 3d d1 aa a2 be 61 41 0e 3e d2 ac 78 bd
       0.09149547 -0.31770948 0.13892128 -0.06071169
000270 31 19 91 bc 51 10 07 3e 3a 75 79 3b d7 e0 2f 3c
       -0.017712208 0.13189818 0.0038064257 0.010734758
000280 35 81 2b 3c 6e 07 59 bd f0 10 73 bd f6 17 86 bc
       0.010467817 -0.0529856 -0.059342325 -0.016368847
000290 02 c9 1f bb b7 03 62 3e 03 77 31 be c0 62 a4 3d
       -0.0024381285 0.2207173 -0.17330556 0.080266476
0002a0 46 80 19 bd 27 45 a3 bc 6d 2e 6c 3e 93 b0 a0 be
       -0.037475847 -0.019930435 0.23064585 -0.31384715
0002b0 a8 41 0f 3e 2c 15 11 be 1f 3d e6 bd f4 09 4f 3e
       0.1398989 -0.14168233 -0.11242127 0.2021864
0002c0 f4 35 29 3e 83 06 be bd a6 6a 5a 3d ff 09 a2 3e
       0.16524488 -0.09278586 0.053324364 0.3164825
0002d0 eb 98 2f bd f9 07 bb bd 52 7f 18 be 05 0e c3 bd
       -0.042870443 -0.0913238 -0.14892319 -0.095241584
0002e0 d9 8b 23 3d 95 96 94 3b 06 59 3b bd 60 f3 af 3d
       0.03992829 0.0045345523 -0.045739196 0.08591342
0002f0 4a d4 94 3e 26 49 24 be 37 66 f7 bd dd 52 32 3c
       0.29068214 -0.16043529 -0.12080043 0.010884014
000300 ab 9e 7c 3c cc 2e 27 bd ed 80 40 3e f0 85 8f bd
       0.015418689 -0.040816113 0.18799181 -0.070079684
000310 0b 46 94 3e 44 ae 8c bd 56 c5 1c be 27 03 5a 3e
       0.2895969 -0.06869176 -0.15309653 0.21290265
000320 6d 18 1e 3c 18 78 43 be 33 fd 8a 3d d0 f8 08 be
       0.009649378 -0.19088781 0.06786575 -0.13376164
000330 ce 8e 0e 3e 1c d5 c8 3c c2 5f 52 be 72 28 f4 bd
       0.13921663 0.024515681 -0.20544341 -0.11921777
000340 3c 2b d6 bc 0e 4a af bd 02 16 90 3d 8f ad a1 3d
       -0.026143663 -0.08559047 0.07035448 0.07894432
000350 b1 db 2f bd 72 44 82 3d 47 07 3e be bf 3a 5a 3d
       -0.042934123 0.06360711 -0.18557464 0.05327868
000360 dd fd b3 3d 90 37 45 3d 27 5f 51 bc 33 09 10 be
       0.08788655 0.04814869 -0.012779034 -0.14066009
000370 00 51 c7 bd 02 00 ab 3e 56 d9 89 bd 1e d5 0c bd
       -0.097322464 0.33398443 -0.06730907 -0.034382932
000380 94 e6 4b be 36 9b ba 3d 35 56 1d be 3f fd f0 3c
       -0.19912177 0.091116354 -0.15364917 0.029417632
000390 81 99 c2 3a 1f a6 08 3d ad 3d 26 be 74 9f 3c bd
       0.0014846773 0.03336155 -0.16234465 -0.046050504
0003a0 8f 8d a9 3d cc 27 2c 3e 49 4f b2 3b 47 d1 fc ba
       0.08278953 0.16812056 0.0054415804 -0.0019288444
0003b0 63 1a 36 be 05 01 73 be 42 c7 de 3d 04 1f 7b 3d
       -0.17783503 -0.23730858 0.10877849 0.061308876
0003c0 1b b9 c3 3d 9e 46 06 be 79 84 09 bd ff bc 87 3d
       0.095567904 -0.13112876 -0.0335736 0.06627845
0003d0 5b d2 43 3d b4 c4 9e 3d 22 9d 0a bd 27 aa 31 3e
       0.047808032 0.07752362 -0.03384126 0.17350064
0003e0 7b 9a 36 3e 8c b5 88 3d ec 3a 03 be 9b 6e b1 3d
       0.17832367 0.06675252 -0.12815446 0.086636744
0003f0 b0 07 9f 3e c6 26 a4 bb 90 bb 4f bd 9b 82 c0 3d
       0.31060553 -0.005009505 -0.050715983 0.09399911

fc3.bias f4 [3]
000000 b9 69 cb 3d e4 ac c3 3c 80 42 75 3d
       0.09932274 0.023886152 0.059877872

fc1.weight f4 [100, 11]
000000 04 47 64 be a5 65 45 3e 52 5f 05 3e 24 8f ae be
       -0.22292715 0.19277056 0.13024643 -0.34093583
000010 52 42 94 3c cf 97 1b 3d b7 1f 96 bd 40 94 7f 3e
       0.01809803 0.037986573 -0.07330268 0.24958897
000020 e3 09 e1 bd 54 52 5e bd f5 9e d1 3c df 2d a8 b9
       -0.10988214 -0.054277733 0.025588492 -0.00032077634
000030 53 33 5a be b8 7a 90 3e 1e 5e 62 3e 44 8e 22 3d
       -0.21308641 0.28218627 0.22106215 0.039686456
000040 4f 92 d2 bc db f1 49 bd 65 3a b5 bd 98 35 ee 3d
       -0.025704531 -0.049302917 -0.088490285 0.11631316
000050 c7 00 94 3e df da af 3d fd 9d 12 be c9 d3 92 3d
       0.28906843 0.08586668 -0.1431808 0.07169301
000060 77 30 68 be 62 2b 84 be 2f bb 99 3d 42 2e aa 3d
       -0.22674738 -0.25814348 0.075064056 0.08309604
000070 5a b2 06 be 77 ef b5 3e f6 e9 85 be 71 bf 26 be
       -0.13153973 0.3553426 -0.2615506 -0.16283967
000080 aa 54 0a 3d 6e eb ac ba 39 d3 c0 be fd 53 17 3e
       0.03377215 -0.0013192722 -0.3766115 0.14778133
000090 92 c6 31 3e 79 29 ef 3c 3b a4 e9 3b 17 55 7b 3e
       0.17360905 0.02919458 0.0071301735 0.24544178
0000a0 e3 85 15 3d 3f 10 b0 bd 5f 0c f5 3c b7 df 85 bd
       0.036504637 -0.08596849 0.029913126 -0.06536811
0000b0 5c f7 c3 be 2f 34 43 3e e5 64 a4 3c 5d fb b7 be
       -0.38274658 0.19062875 0.020067642 -0.35933962
0000c0 bf 43 0a be 35 c7 bc 3d 8e 0a 3d be 66 f3 39 3d
       -0.13502406 0.09217683 -0.18461058 0.04539814
0000d0 7b cf f0 3c 2a da 45 bd 92 56 5f 3d fa 34 86 be
       0.02939581 -0.04830376 0.05452592 -0.26212293
0000e0 04 a7 81 3e 7f 92 b9 3d 4e 0b 29 be 83 32 a4 bc
       0.25322735 0.09061145 -0.16508219 -0.020043617
0000f0 af f9 fd 3d 5d 24 81 be dc e1 88 3e ad 92 1c be
       0.12401139 -0.25223055 0.26734817 -0.15290327
000100 7f be 91 be a5 e1 85 bd 43 91 3a be 12 6b 79 bb
       -0.2846565 -0.06537179 -0.18219475 -0.0038058204
000110 1e 0a 69 3d 70 05 53 3e 12 98 3e be 6e e2 13 be
       0.056894414 0.20607543 -0.18612698 -0.14441845
000120 cc c5 1d 3e 55 57 cd bd d9 ec 2e 3e 02 c2 46 3e
       0.15407485 -0.10026423 0.17082538 0.19409946
000130 cb 38 b4 3d e9 b1 3d 3e 36 e5 62 3e 5d 34 4b bc
       0.08799895 0.18524899 0.2215775 -0.012402621
000140 06 ec 0f be a8 96 a2 bd 1f 84 78 3e 09 03 59 be
       -0.1405488 -0.07938892 0.2426915 -0.21192564
000150 2b a9 63 be 96 59 8a 3e ec da fe 3c 11 6a 6f 3e
       -0.22232501 0.27021474 0.03111025 0.23380305
000160 e6 05 fa bd a7 1c 8d bc 88 90 39 bd 40 ce 21 3e
       -0.12208156 -0.017225577 -0.04530385 0.15801334
000170 80 a5 69 3c 77 96 ad be c9 70 67 3e a5 c2 8c 3e
       0.01426065 -0.33903858 0.22601618 0.27492252
000180 09 1d 90 be f8 43 4a be f4 44 38 3e fd 4d 32 be
       -0.28147152 -0.1975249 0.17995054 -0.17412563
000190 98 24 83 3e 04 2f 4a be 19 ff 8a be 76 1d 16 be
       0.25613856 -0.19744498 -0.2714775 -0.14659676
0001a0 a3 97 d5 3d 93 bd 9a 3e ea 2f a3 3d 25 ba 22 be
       0.10429313 0.3022276 0.07968123 -0.15891321
0001b0 c0 e4 77 bb a4 46 e6 3d d1 57 51 3b d9 65 74 be
       -0.0037825555 0.112439424 0.0031943212 -0.23866977
0001c0 94 ed 17 3c 59 8d 46 3e f6 32 83 3e 4f fa 90 bd
       0.009272952 0.19389857 0.25624818 -0.070789926
0001d0 d2 33 9b bd 4a 08 01 bd 99 a1 f0 bd 70 e7 25 3d
       -0.07578243 -0.031502046 -0.11749572 0.04050392
0001e0 1f e2 15 bd c2 2b da 3c 15 a8 c3 bd 00 93 a1 3d
       -0.0365926 0.026632193 -0.095535435 0.07889366
0001f0 37 a6 9f bd 40 78 97 3e 74 c2 71 3e 8e a0 b8 3c
       -0.07795375 0.2958393 0.23609334 0.022537496
000200 9a 1c 8f be 00 ca 93 3e 27 9a ac 3e 11 d7 eb bd
       -0.2795151 0.2886505 0.3371136 -0.1151563
000210 b4 33 f5 bc 84 5e 08 3e ca 74 11 3e 37 a9 8f 3d
       -0.02993188 0.13317305 0.14204708 0.07014697
000220 d6 6f 52 3b 5d 17 7a bd 90 90 0e 3e e9 8f 3e be
       0.0032110116 -0.061057437 0.13922334 -0.18609585
000230 c1 39 82 3e 9f 7c f1 3d 9e bf 98 bc ec 8a 25 3e
       0.25434688 0.11791348 -0.018646058 0.16166276
000240 6a 13 53 bd d5 42 eb 3d 3f c3 89 3e 72 4b 3a 3e
       -0.051532187 0.114873566 0.26906773 0.18192843
000250 f1 5c 8b 3e 32 64 b4 3d 7e c8 06 be 29 71 83 3e
       0.27219346 0.08808173 -0.13162419 0.25672272
000260 4f 06 2e 3e df 5e a9 3d 45 a9 0c 3e ca 33 46 be
       0.16994594 0.08270048 0.13736446 -0.19355693
000270 8c 85 4b 3e e5 53 93 3e 54 c3 34 3e 0a bf 3b bd
       0.19875163 0.28774944 0.17652637 -0.045836486
000280 fe ae 08 be f4 b3 bc bd 60 47 c9 bd 2b 2c 12 be
       -0.13348004 -0.09214011 -0.09828067 -0.14274661
000290 14 88 14 be bb a9 15 3f 4e ff db be 99 a1 23 3e
       -0.14505035 0.58462113 -0.4296822 0.15979613
0002a0 2b a6 98 be 37 22 b7 be f6 e2 ae 3d 24 03 6b 3e
       -0.29814276 -0.3576829 0.08539383 0.22950417
0002b0 ee ac 8c 39 9c a3 f5 bd 4b 64 02 be 69 e1 0e 3e
       0.00026831724 -0.11994097 -0.12733571 0.13953175
0002c0 05 9e 36 be e2 22 bd bd 13 c3 06 3e 8a 5d 44 be
       -0.17833717 -0.09235169 0.13160352 -0.19176307
0002d0 b0 23 31 be 2f 59 9a bc dc 56 44 be b3 56 0b be
       -0.1729877 -0.018841354 -0.19173759 -0.13607292
0002e0 b1 53 cb bd d9 50 43 3d fd ff 15 3d 79 67 38 3e
       -0.09928072 0.047684524 0.036621083 0.18008222
0002f0 a3 77 74 3d 41 e0 11 be 05 a6 44 3a c7 06 35 bd
       0.059684407 -0.14245702 0.00075015455 -0.044195917
000300 f7 b2 47 3e d2 2e 34 3e 74 71 ad be 1d dc 2e 3e
       0.19501863 0.17595986 -0.3387562 0.17076154
000310 f3 93 4d 3e 0d 49 83 bd 22 29 2c bc fd 85 9f be
       0.2007597 -0.06410418 -0.010507854 -0.31156912
000320 5d f5 04 3e 0c d0 8f 3e bc 2a df 3d 55 46 10 3d
       0.12984224 0.28088415 0.10896823 0.035223324
000330 31 ba c4 bd c2 5e 6a b8 ff 4d 7a 3e c5 de 8d 3e
       -0.09605826 -5.5878198e-05 0.24443816 0.27709022
000340 06 ef b3 3d c0 81 15 3e be 2b b2 be 05 13 a8 bb
       0.087858245 0.14600277 -0.34798998 -0.0051292204
000350 f7 f3 3f 3e 7d 5f 08 3e 80 75 fc bd ec 39 d8 3e
       0.18745409 0.13317676 -0.12327099 0.4223169
000360 44 4f da be 45 d9 c1 3e 11 d7 a0 3e 7b 4f 1d 3e
       -0.426386 0.37861076 0.31414083 0.1536235
000370 23 ab 4c be 42 14 fe bc a1 19 a9 be 0f b7 79 3d
       -0.19987158 -0.031015519 -0.33027366 0.060965594
000380 d1 fc 2a be a8 6b 07 3e c2 92 87 3d 66 5b 31 3e
       -0.16698004 0.13224661 0.06619789 0.17320022
000390 dc ce 40 be 01 f1 94 be 8f bb fb bd 09 ef a7 3d
       -0.1882891 -0.2909012 -0.12291633 0.08199889
0003a0 48 16 5a bd 96 5e 42 bd a9 65 d4 3e 5b 53 1e 3e
       -0.053243905 -0.047453485 0.4148381 0.15461485
0003b0 a5 7b 4a be 85 a9 60 3e 0b bb b5 bd cd e2 88 bd
       -0.19773729 0.21939667 -0.08873566 -0.06683884
0003c0 8a 72 f9 bd bb dd c9 bd 96 49 bc bd fb d1 00 3e
       -0.1218005 -0.09856745 -0.09193723 0.12580101
0003d0 9b 52 35 be 23 59 66 be ff a1 54 bd bf 65 44 bc
       -0.17707293 -0.2249494 -0.051912304 -0.011987149
0003e0 a7 ee 0d be 5e 30 5b 3e 18 e8 1c be 66 2b a8 bd
       -0.1386057 0.2140517 -0.15322912 -0.082114026
0003f0 d0 64 27 bd 68 73 e0 3e c3 88 c0 be 2a 37 b5 3d
       -0.040867627 0.43838048 -0.3760434 0.08848412

fc1.bias f4 [100]
000000 64 2d 2e 3f 77 95 18 bf b6 bb 06 3f fb a4 b7 be
       0.6803801 -0.59603065 0.52630174 -0.35868058
000010 b2 4d ce be 21 0c 2a 3f 61 ba 02 bf df e9 0d bf
       -0.40293652 0.6642476 -0.5106564 -0.55434984
000020 20 c4 08 bf 54 9f 3c bf 7a ef 14 3f 65 ab 3c 3e
       -0.53424263 -0.73680615 0.5817791 0.18424757
000030 b9 33 91 3e 16 89 1b bf 94 e4 06 3f a3 5b dc bd
       0.28359774 -0.6075605 0.5269253 -0.10759666
000040 e4 af 26 bf 85 e8 1c bf ca 5d 25 bf 21 b3 21 bf
       -0.6511214 -0.61292297 -0.64596236 -0.63163954
000050 1d fa fd 3e 65 76 ce 3d 79 c8 0f 3f 98 cd 87 be
       0.49604884 0.10081176 0.5616527 -0.26524043
000060 e9 b1 0e 3f 37 90 e6 3e 28 4e 72 be 93 89 1e 3e
       0.5574022 0.45031902 -0.23662627 0.15482168
000070 82 3d ee 3e 69 06 28 3f 30 4f bc be 84 7d 26 bf
       0.46531302 0.6563478 -0.36779165 -0.6503527
000080 8b 22 d0 3e 9b 04 ca be d6 d2 49 bf 3f 77 11 3f
       0.40651354 -0.3945664 -0.78837335 0.5682258
000090 30 39 17 bf 93 52 23 3f 40 cc f7 3e 70 74 04 3f
       -0.59071636 0.63797873 0.48398018 0.5174017
0000a0 30 26 e3 3e 4a 9d 09 bf 01 b4 3a 3f 6a 8c 02 be
       0.44365072 -0.5375563 0.72930914 -0.12748876
0000b0 84 77 a6 be 7c e0 3b bf e6 1f 1e bf c0 49 07 bf
       -0.32513058 -0.7338941 -0.61767423 -0.5284691
0000c0 bf 38 10 bf fe f1 07 3f 9a 02 00 3f 54 d4 1b bf
       -0.5633659 0.53103626 0.5000397 -0.6087086
0000d0 92 6d 10 bc 54 fc f1 3d 74 af 00 bf da de 07 bf
       -0.008815186 0.11815706 -0.5026772 -0.5307442
0000e0 7f 81 24 3e 48 dc a7 be 84 95 3b bf 18 47 be be
       0.16065024 -0.3278525 -0.7327502 -0.37163615
0000f0 b9 1f e5 3e 14 e6 9b 3e e8 91 a0 be 5c be a2 be
       0.44750765 0.30448973 -0.31361318 -0.31785858
000100 c1 e8 8b 3e c8 45 20 bf 82 86 cb 3e f2 d9 2a bf
       0.27326015 -0.6260648 0.3975106 -0.6673881
000110 8b 10 28 3d 98 91 2f 3f 92 e7 a7 3e 72 cb 1b 3f
       0.0410314 0.68581533 0.32793862 0.6085731
000120 78 db a7 be b6 77 18 bf e4 53 bc be 69 14 14 bf
       -0.3278463 -0.59557664 -0.36782753 -0.57843643
000130 a3 53 16 bf 3e 45 6c be 5e f9 f9 3e 01 24 eb be
       -0.5872137 -0.23073289 0.48823065 -0.45925906
000140 82 d1 17 bf c7 4b f0 be 36 8e 06 bf f2 a2 cf 3e
       -0.5930406 -0.46932814 -0.52560747 0.40554005
000150 e4 b0 1d bf 8c 85 00 be 41 fd 2d bf dd 98 21 bf
       -0.6159804 -0.12550944 -0.6796456 -0.63123876
000160 bc 99 32 bf 05 fd 7e 3c 01 0f be 3e 1e 82 ef 3e
       -0.6976583 0.015563254 0.37120822 0.4677896
000170 90 0a 1a 3f 70 a4 13 bf c4 71 22 bf 9f bc 9e 3e
       0.6017237 -0.57672787 -0.6345484 0.3100328
000180 e0 a0 0e 3f 31 b1 0e bf 6b dd 17 bf 73 43 e1 be
       0.55714226 -0.5573912 -0.5932223 -0.43996772

fc2.weight f4 [100, 100]
000000 b7 6a 53 3e d5 e5 42 be 3d bb 51 3e 20 86 6e bd
       0.20646177 -0.19032986 0.20481582 -0.05823338
000010 45 f0 94 3b 66 c5 7a 3e a6 8a e6 bd ac 17 99 bd
       0.004545244 0.24489364 -0.11256914 -0.07475218
000020 76 bf db bd 41 29 c7 bd a3 61 ce 3c 6e b3 da bc
       -0.10729878 -0.097246654 0.025193041 -0.026696887
000030 74 cb bb bc 22 26 7e be 7f 25 e8 3d 3b 36 3e bd
       -0.022924162 -0.24819234 0.11335277 -0.046438437
000040 7c 7d 29 bd 02 06 b9 bd 2e dd 51 be 33 ce 99 be
       -0.041379437 -0.09034349 -0.2049453 -0.3004013
000050 e0 03 03 3e 2d 00 3a bd 44 90 30 3e 59 bd 47 be
       0.12794447 -0.045410324 0.17242533 -0.19505824
000060 46 60 4c 3e e9 1e 17 3e 86 56 79 be d3 c2 4e bd
       0.199586 0.14757885 -0.24349412 -0.050478768
000070 18 cc 40 3d 9f 1e 9c bd ce 94 1a be d1 5d 08 bd
       0.04706964 -0.07623028 -0.15095827 -0.033292595
000080 4f ef 6b 3d 3f a6 88 be fe 66 70 bd 67 09 91 3e
       0.05760127 -0.26689336 -0.05869197 0.28327486
000090 3a e0 b8 bd 07 8f ae 3d 6a 47 bb 3d a9 e3 a2 3c
       -0.09027143 0.08523374 0.091444805 0.019883947
0000a0 62 a1 08 3e d8 64 7f bd 92 f4 ad 3d 95 d3 0b be
       0.13342813 -0.06235203 0.08493914 -0.13654931
0000b0 b4 b7 33 bd ac 44 c1 bc be 00 f1 bd c9 4f 5b be
       -0.043876365 -0.023592316 -0.1176772 -0.21417154
0000c0 21 b1 3f bd 06 8d 10 3e 62 dc 1c 3e 56 62 4e be
       -0.046799783 0.14116296 0.15318444 -0.201547
0000d0 eb 16 95 3c d3 85 de bc 52 b1 10 bd 97 36 5d be
       0.018199405 -0.027163422 -0.035325356 -0.21602856
0000e0 81 42 62 bb 4b d4 c4 bd 52 c5 9d bd 95 ca 11 be
       -0.0034524503 -0.09610804 -0.077036515 -0.14237435
0000f0 fc 5e cf 3d 6b d2 df 3d 7f 56 ad bd 94 d2 1b be
       0.10125539 0.10928806 -0.084637634 -0.15217048
000100 4d 87 85 bd 03 f6 9d bd 79 ae cf 3b 39 24 34 be
       -0.06519947 -0.07712939 0.0063379374 -0.17591943
000110 8d 43 43 bd 93 f0 73 3d bc 46 57 3c a6 b9 70 3e
       -0.047671843 0.0595556 0.013139423 0.2350832
000120 c9 8c f9 bb b1 fd 82 bd 10 80 ed bd bb ba 53 be
       -0.00761566 -0.06396044 -0.115966916 -0.20676701
000130 9d c2 18 be f5 c3 04 bd 3a 64 8d bc 29 da 34 3b
       -0.14917989 -0.03241344 -0.017259706 0.0027595854
000140 0f cd 49 bd e4 23 cd 39 f0 0a 19 be 8c d9 f7 3c
       -0.049267825 0.00039127388 -0.14945579 0.030255102
000150 19 ad ae bc cf 26 d6 bc ca f2 02 be 4d 38 a0 bd
       -0.021322774 -0.026141552 -0.12787929 -0.078232385
000160 47 31 8f bd 21 93 59 bd a2 40 00 bd 0b 82 88 3d
       -0.06991821 -0.05311883 -0.03131164 0.06665429
000170 87 50 89 3d 2c 86 ec bd 6d de 98 bd 98 d0 9d 3c
       0.067048125 -0.11549029 -0.07464299 0.019264504
000180 c7 c6 17 3e 03 7c 08 be ce bb 09 be f8 cd 55 be
       0.14821921 -0.13328557 -0.13450548 -0.20879352
000190 7e c2 71 bd ab 7b ad 3d 9c 99 00 be 26 52 9b 3e
       -0.059023373 0.084708534 -0.12558597 0.30336112
0001a0 71 a1 65 be 05 70 67 be e4 92 4e 3d fe 03 fb bd
       -0.22424866 -0.22601326 0.050433055 -0.12256621
0001b0 79 ac 83 bd 2a d0 eb bd 32 89 f8 3d 6f 48 45 3e
       -0.06429381 -0.115143135 0.12135543 0.19265912
0001c0 c6 b9 98 3d 17 f7 c7 3d e7 52 a4 3d 39 57 a1 3d
       0.074573085 0.097639255 0.08023625 0.078779645
0001d0 ea ca 2c be f8 7c c3 3d ac 10 bc 3d 5e 88 e4 3e
       -0.1687428 0.0954532 0.091828674 0.4463529
0001e0 54 88 05 bd 4b 37 70 bd db a8 11 be 73 4c 97 3e
       -0.032600716 -0.05864648 -0.1422457 0.29550514
0001f0 9c 9e 9e be 0d 27 57 be ae ec af 3e 92 3d 0c 3e
       -0.30980384 -0.2101099 0.3436026 0.13695362
000200 9e bf c1 3e da aa 51 3e 7a fb 4a 3e 98 74 5a be
       0.37841505 0.20475331 0.19822493 -0.2133354
000210 8a 5b fd 3a 03 a4 fa 3e 30 cf 54 be 88 dd 7d be
       0.0019329649 0.48953256 -0.20782161 -0.24791539
000220 3a 60 6c 3c 60 6d 0e 3e 2a 16 ba 3e a5 aa 54 3e
       0.014427239 0.13908911 0.36345035 0.2076822
000230 0b 08 2b 3d f8 21 a7 be 8e 9c 8f 3e d2 2f d0 3e
       0.041755717 -0.32643104 0.2804913 0.40661484
000240 05 78 e7 3d 91 b9 66 3b 3d 47 8c bc 70 4b 2b 3d
       0.11302189 0.003520582 -0.017123813 0.04181999
000250 eb d2 b8 bd 66 b7 20 be ae ec 54 be 34 12 19 bd
       -0.090246044 -0.15694961 -0.20793411 -0.037370875
000260 09 82 78 3e 6d 5a 86 3e 4e 4e 34 3c e7 33 e4 3e
       0.24268354 0.26240864 0.011004997 0.44570848
000270 e6 3c c7 3d 3d 5e 0a be 10 07 4e be 0c 07 2e 3e
       0.09728412 -0.13512512 -0.20119882 0.16994876
000280 9e d5 bd bd 23 9e 5c 3d 6a 01 98 3d 87 6c e9 3d
       -0.0926926 0.05386175 0.07422145 0.11397653
000290 e3 44 86 3d e4 3c e6 bd 31 55 e5 3e 16 c7 81 3e
       0.06556108 -0.11242083 0.44791558 0.25347203
0002a0 c5 3a 8b 3d 13 0f ce 3e d5 1c d7 3d 97 08 da bd
       0.06798319 0.40245876 0.10503546 -0.1064617
0002b0 13 5a fb bd ed ff 61 be 83 df ca 3d 7b 58 2c 3d
       -0.1227304 -0.22070284 0.09905913 0.04207657
0002c0 9f 84 96 3e 33 21 9e bd f7 f2 8d 3c e4 0c c5 bd
       0.29398057 -0.07721176 0.017327769 -0.09621599
0002d0 c2 8d a7 3c 7d 25 7b be 1a ec 31 bd 9f e0 98 3d
       0.020453338 -0.2452602 -0.043438055 0.07464718
0002e0 66 b4 3f be 50 fb c3 3d 44 15 b2 bd 7c 89 d0 bd
       -0.1872116 0.095694184 -0.08695462 -0.10182473
0002f0 93 4c 27 3d 67 2e 1a 3e be 98 b5 3e 70 1b 06 be
       0.04084451 0.15056764 0.35468096 -0.13096404
000300 5e 4b f8 bd a2 75 c0 3d 3c 74 3f be 4e bf e6 bb
       -0.1212375 0.09397437 -0.18696684 -0.0070418483
000310 06 ba 4e be 77 bb c9 bc 49 47 b5 3d f8 14 1e 3e
       -0.2018815 -0.024625523 0.08851487 0.15437686
000320 8f b7 79 3e 8c f8 7c be fe 76 8a 3e c8 d5 ab bd
       0.24386428 -0.24704188 0.2704391 -0.08390385
000330 6c a3 38 3a 06 9c b7 3e 6a b3 16 be 08 6b 64 bd
       0.0007043395 0.35861224 -0.14716879 -0.055766135
000340 a1 45 81 bd 21 27 e7 bd 37 e0 64 3c 16 70 8b bd
       -0.06312109 -0.1128676 0.013969473 -0.06808488
000350 d2 3b b3 bd 95 58 8b be 18 86 94 3d 01 89 cc bd
       -0.08751644 -0.2721602 0.07252139 -0.09987069
000360 59 0c 7a bd e9 83 3d be 0f b9 8b be 7b 44 d9 be
       -0.061046932 -0.18507351 -0.27289626 -0.4243506
000370 09 e6 4a 3e 58 16 91 bd b5 e0 4a 3e 8e 49 6e be
       0.19814314 -0.0708434 0.19812281 -0.23270246
000380 a4 07 7f 3e 4e bf 2a 3e 00 74 c8 be 10 43 41 3c
       0.24905258 0.1667454 -0.39151 0.011795774
000390 73 fc 56 3c e9 35 10 be 81 10 79 be 01 dc b6 bc
       0.013121712 -0.14083065 -0.24322702 -0.022321703
0003a0 49 e1 5a 3c 33 7e a6 be d2 0a b7 bd 32 43 d7 3e
       0.013359376 -0.32518157 -0.08937611 0.42043453
0003b0 bb 11 02 be db 62 bd 3d 70 07 90 3d 6a 19 81 3c
       -0.12702076 0.09247371 0.070326686 0.015759189
0003c0 fe 6f 0f 3e 81 1d 99 bc a4 53 90 3d c1 65 68 be
       0.14007565 -0.018690826 0.07047203 -0.22695066
0003d0 1f 79 ac 3c 49 a3 c6 bd f9 ec 2f be 0b fd 58 be
       0.021053849 -0.09699113 -0.17180242 -0.21190278
0003e0 a0 a6 01 3d ce 3d 1e 3e a1 ff 37 3e cb b6 73 be
       0.031653047 0.15453264 0.17968608 -0.23800199
0003f0 5c 32 de bc 27 54 fc bd d3 27 cf bd 1c 0a c3 be
       -0.027123623 -0.12320738 -0.10115018 -0.3809365

fc2.bias f4 [100]
000000 44 6a 51 3e 95 69 1d 3e b1 06 54 3e 8a 9b 63 3e
       0.20450693 0.15372308 0.20705678 0.22227302
000010 fe ca 63 3e da 23 5c 3e b4 13 82 3e e4 25 26 be
       0.22245404 0.21498051 0.25405657 -0.16225392
000020 a7 a2 6d 3e 98 62 77 be b8 58 60 3e 08 db 57 3e
       0.23206578 -0.24158704 0.21908844 0.21079648
000030 dd e4 41 3e 45 6f 41 be 71 41 51 3e 4c 83 60 be
       0.1893496 -0.18890102 0.2043512 -0.21925086
000040 1e bc 56 3e 5d df 4d be 54 0b 34 be 6c 6b 7e 3e
       0.20970199 -0.20104738 -0.17582446 0.24845666
000050 e8 44 26 3e 37 a0 7d be 68 c2 5a 3e 00 4d 65 be
       0.16237223 -0.24768148 0.21363223 -0.22392654
000060 1b 15 49 be 12 66 54 be 63 17 58 3e 2a 3a 72 3e
       -0.19636957 -0.20742062 0.21102671 0.23655
000070 3d c3 60 3e 0f 67 78 be 62 f0 45 3e ff 8b 7a be
       0.21949477 -0.24258064 0.1932998 -0.24467467
000080 ac 6b 51 3e 0e 91 5c 3e d5 be 45 be 1c 62 e9 3d
       0.2045123 0.21539709 -0.19311078 0.11395666
000090 a7 4d 80 be 04 8c 45 3e 91 69 47 be 74 da 47 3e
       -0.25059244 0.19291693 -0.19473864 0.19516927
0000a0 e6 cd b6 bd f3 e6 29 be 5a 51 73 be 25 31 2f be
       -0.08925991 -0.16592006 -0.23761502 -0.17108591
0000b0 a7 fc 1c 3e e4 b4 6d 3e 9e 23 2e 3e 75 e8 78 be
       0.15330754 0.23213536 0.17005774 -0.24307425
0000c0 c1 c9 81 3e fd ce 54 3e f6 07 26 3e 8f e3 62 be
       0.2534924 0.20782085 0.16213974 -0.22157119
0000d0 88 a2 46 be 96 25 52 be a3 4a 60 3e 35 29 00 3e
       -0.19397938 -0.2052215 0.21903472 0.12515719
0000e0 5e 98 7e 3e 68 f4 7b be 18 08 73 3e 61 3a 61 be
       0.24862811 -0.24604952 0.23733556 -0.21994926
0000f0 e8 15 e3 3d 1f 45 5a be 3c 3b 61 3e e1 98 4b 3e
       0.11088163 -0.2131543 0.21995252 0.19882537
000100 b2 66 83 3e 14 f7 81 be 20 1d 44 be b6 b5 4d 3e
       0.25664288 -0.25383818 -0.19151735 0.20088848
000110 3f 61 61 be 8b 23 7d be 56 8b 72 3e 64 a3 73 be
       -0.22009753 -0.2472059 0.23685965 -0.23792797
000120 60 e5 43 3e 7f cf 25 be 85 78 59 be 08 e7 5b 3e
       0.19130468 -0.16192435 -0.21237381 0.2147485
000130 20 6b 78 be 24 a7 47 be 0c 53 18 3e 46 22 28 be
       -0.24259615 -0.19497353 0.1487543 -0.16419324
000140 77 58 3c be 12 d0 5d be 12 45 2d be 3a 9d 37 be
       -0.18393122 -0.21661404 -0.1692088 -0.17931071
000150 60 a7 71 be 9d 04 4a 3e 3d 60 68 be c7 eb 3c be
       -0.23599005 0.19728322 -0.22692962 -0.18449317
000160 ce 5c 69 3e d3 b2 cf bd 41 63 67 be 77 a7 28 be
       0.22789308 -0.1014153 -0.22596456 -0.16470133
000170 bd ce 51 be 00 3f 31 3e ec 88 5f bd 12 2e 50 3e
       -0.2048902 0.17309189 -0.05457394 0.20330074
000180 e6 44 63 be 02 74 57 be 9d 90 72 3e d0 29 49 be
       -0.22194251 -0.21040347 0.23687978 -0.19644856

fc3.weight f4 [1, 100]
000000 6e c8 4a 3f d4 e5 35 3f a7 26 58 3f 27 e3 5e 3f
       0.7921208 0.71053815 0.8443398 0.87065357
000010 f1 5f 5b 3f b3 5e 4a 3f 88 b2 57 3f 2e 44 4d bf
       0.8569327 0.7905075 0.8425679 -0.8018216
000020 75 f5 4c 3f 1d 59 4a bf 0e 80 48 3f fa 18 53 3f
       0.8006204 -0.79042226 0.78320396 0.82459986
000030 b2 e0 4d 3f 40 ff 47 bf ac b1 64 3f e5 4e 5a bf
       0.8042098 -0.78123856 0.89333606 -0.85276634
000040 27 e3 51 3f d6 ad 4d bf 98 e1 4a bf 65 8b 49 3f
       0.8198723 -0.8034338 -0.7925048 0.78728324
000050 34 cf 56 3f f1 51 4b bf ef bc 4b 3f 7b 3b 52 bf
       0.83909917 -0.7942191 0.79585165 -0.8212201
000060 f2 3b 49 bf fd bb 62 bf 51 d4 47 3f 32 56 4d 3f
       -0.78607094 -0.885681 0.78058344 0.8020965
000070 bb 94 4f 3f ae d2 59 bf ef fb 4a 3f ff 48 49 bf
       0.8108632 -0.85087097 0.7929067 -0.7862701
000080 43 12 4b 3f e4 09 4f 3f 81 ce 54 bf b7 95 6b 3f
       0.7932474 0.80874467 -0.831276 0.9202532
000090 1e 06 5a bf ad 17 4c 3f e6 29 55 bf 14 57 4b 3f
       -0.85165584 0.79723626 -0.83267057 0.79429746
0000a0 f3 f1 72 bf 73 28 4c bf f0 83 5c bf 26 e1 56 bf
       -0.94900435 -0.7974922 -0.8613882 -0.839373
0000b0 b2 03 56 3f 90 0e 4e 3f 31 c9 49 3f dc 56 49 bf
       0.8359939 0.8049097 0.7882262 -0.7864816
0000c0 11 7e 58 3f b8 67 57 3f 50 0d 4c 3f d1 5c 4c bf
       0.8456736 0.8414264 0.79707813 -0.79829127
0000d0 3f 06 50 bf 9b cc 5b bf c7 af 58 3f e8 ef 7f 3f
       -0.8125953 -0.8585908 0.84643215 0.9997544
0000e0 f7 e0 59 3f 16 ac 52 bf d4 64 57 3f 7d b2 51 bf
       0.85108894 -0.8229383 0.84138227 -0.81912977
0000f0 8a be 70 3f b9 31 4c bf b3 88 54 3f d8 95 4a 3f
       0.9404074 -0.7976337 0.83021086 0.79134893
000100 dd 14 4c 3f 71 07 56 bf d3 be 4b bf ff f2 53 3f
       0.79719335 -0.83605105 -0.7958805 0.8279266
000110 74 ff 46 bf 33 8a 47 bf 36 61 4d 3f ea 39 4b bf
       -0.7773354 -0.7794525 0.8022646 -0.79385245
000120 eb a7 4f 3f 18 d0 5f bf 29 ae 4e bf db 9e 5e 3f
       0.811156 -0.874269 -0.807345 0.86961144
000130 52 33 60 bf ea 52 54 bf 29 24 62 3f 5e e7 4d bf
       -0.8757831 -0.82939017 0.88336426 -0.80431163
000140 b7 23 47 bf 60 0a 45 bf 94 47 4d bf 42 1c 4e bf
       -0.7778887 -0.76968956 -0.80187345 -0.8051187
000150 a0 b7 49 bf d2 97 4a 3f 3d 31 49 bf aa 86 4d bf
       -0.78795815 0.7913791 -0.78590757 -0.80283606
000160 89 20 55 3f 1f 23 6f bf 96 5d 49 bf be ff 52 bf
       0.8325277 -0.93412966 -0.78658426 -0.8242148
000170 19 e4 57 bf 77 16 50 3f c2 f3 8b bf bb f9 54 3f
       -0.84332424 0.8128428 -1.0933764 0.8319356
000180 d8 da 50 bf 60 81 50 bf 81 89 49 3f dc c9 58 bf
       -0.8158393 -0.8144741 0.7872544 -0.8468301
