mujoco/gail/save_model/ckpt_502.pth.tar (torch, 144879 bytes, 16 tensors)

fc1.weight f4 [100, 11]
0	0x3dcae158	0.09906262
1	0xbe7e7767	-0.24850236
2	0x3e553c06	0.20823678
3	0xbe199281	-0.14997293
4	0xbc025de5	-0.0079569565
5	0x3bf70317	0.00753821
6	0xbe0a5880	-0.13510323
7	0x3e179798	0.14803922
8	0x3eb8ae42	0.36070448
9	0x3db6f6ee	0.08933817
10	0xbdba7efe	-0.09106253
11	0x3e5bc125	0.21460398
12	0xbdbfeabf	-0.09370946
13	0x3cff5263	0.031167215
14	0xbebd4789	-0.3696864
15	0x3d9513cb	0.07279166
16	0x3e111d46	0.14171323
17	0x3c50c3b8	0.0127419755
18	0x3e10ead8	0.14152086
19	0x3e1b2348	0.15150177
20	0x3e454fda	0.19268742
21	0x3e7615f1	0.24031807
22	0x3e5010f4	0.20318967
23	0xbdc45a39	-0.09587521
24	0xbe5c6f04	-0.21526724
25	0x3de8676e	0.11347853
26	0x3d5a3252	0.053270645
27	0xbe4deab9	-0.20109071
28	0xbcf5cdb3	-0.030005312
29	0x3ea97c9e	0.33102888
30	0x3d3fceae	0.046827964
31	0xbb3b47af	-0.0028576662
32	0x3e33cffc	0.17559808
33	0x3ec6e5f8	0.38847327
34	0xbebb496a	-0.36579448
35	0x3da4cbcc	0.08046684
36	0x3e42488e	0.1897299
37	0x3d936eaa	0.07198842
38	0x3ce26d26	0.027639937
39	0xbe4703c4	-0.1943503
40	0xbe077d88	-0.1323148
41	0xbe0c88a8	-0.13724005
42	0x3dd2a642	0.102856174
43	0xbe98bc94	-0.29831374
44	0x3d69d6fc	0.05708979
45	0x3e66996a	0.2251946
46	0x3e1eebf2	0.15519693
47	0xbe7e578b	-0.24838082
48	0xbdcd24df	-0.10016798
49	0x3df30d7c	0.11867806
50	0xbe4ffa73	-0.20310383
51	0x3d8debd2	0.06929745
52	0x3eae3a96	0.34029073
53	0x3dab34a9	0.083596535
54	0x3d1bd80f	0.038047846
55	0x3e8a1620	0.26970005
56	0xbe08814b	-0.13330571
57	0xbcc1d8b9	-0.023662912
58	0x3df17aa2	0.117909685
59	0x3e5a0572	0.2129114
60	0x3d6ffc76	0.058590375
61	0x3d84f512	0.06492056
62	0xbe23bb6c	-0.15989465
63	0xbcc59fc1	-0.024124028
64	0x3cb2a9a8	0.021809414
65	0x3d1c0ea3	0.038099896
66	0x3e4c7607	0.19966899
67	0xbec098fe	-0.37616724
68	0x3e4e819a	0.20166627
69	0xbe5defed	-0.21673556
70	0xbe3b09f1	-0.18265511
71	0xbe8a4db2	-0.27012402
72	0x3e0f18b5	0.13974269
73	0xbd4f66ae	-0.050635032
74	0x3c61ae0a	0.013774404
75	0xbe4c7ffb	-0.19970696
76	0xbe1b1f88	-0.15148747
77	0x3ddec498	0.10877341
78	0x3eab9a9b	0.33516392
79	0xbe9eee27	-0.3104107
80	0xbe1ea1e9	-0.15491451
81	0x3e8ae6eb	0.271293
82	0x3dcf063b	0.1010861
83	0x3e57c8bd	0.2107267
84	0xbd9874b8	-0.07444137
85	0xbeb83514	-0.35977995
86	0x3e849c5f	0.25900552
87	0x3e89e805	0.2693483
88	0xbd354b67	-0.044261362
89	0x3e365bab	0.17808406
90	0xbe623f76	-0.22094521
91	0xbec410aa	-0.38293964
92	0x3e846e92	0.25865608
93	0x3e9eb6b9	0.3099878
94	0x3dd97a42	0.10619022
95	0xbd3d751a	-0.046254255
96	0x3ea1b81b	0.31585774
97	0xbd5e8832	-0.054329105
98	0x3e468bf7	0.1938933
99	0x3d181f0f	0.037138995
100	0x3e2c3b00	0.16819382
101	0x3d35648e	0.04428535
102	0x3dc1e602	0.09467699
103	0x3e6a8e9c	0.22905964
104	0xbe92bb59	-0.2865856
105	0x3e0168aa	0.12637582
106	0x3e9c982b	0.30584845
107	0x3e920109	0.28516415
108	0x3d84d1a3	0.064852975
109	0xbdb10eb8	-0.086453855
110	0xbe929b17	-0.2863395
111	0xbd241369	-0.040057573
112	0xbceb78a8	-0.028744057
113	0xbe685af9	-0.22690953
114	0xbd827bba	-0.06371255
115	0x3e91562a	0.2838605
116	0xbe0446ce	-0.12917635
117	0x3e411741	0.18856527
118	0xbc4fd419	-0.012684845
119	0x3ea3ed27	0.3201687
120	0xbdffa4f4	-0.12482634
121	0xbdaebde4	-0.085323125
122	0x3c22a442	0.009926857
123	0x3df810b4	0.12112561
124	0x3d6f60b1	0.05844182
125	0x3ec7b0e2	0.39002138
126	0x3e91342b	0.28360114
127	0xbcb875d3	-0.02251712
128	0xbde452e4	-0.11148623
129	0xbdaf56e8	-0.08561498
130	0xbe1b576e	-0.1517007
131	0x3e57c22a	0.21070161
132	0xbdb69855	-0.08915774
133	0x3e9c77c2	0.30560118
134	0xbdf263f0	-0.11835468
135	0x3e23bc9e	0.1598992
136	0x3e35e634	0.17763597
137	0xbe0ceb22	-0.13761571
138	0x3b8a4649	0.0042198044
139	0xbda32a50	-0.07967055
140	0x3e75fffe	0.24023435
141	0xbd2e98bd	-0.04262613
142	0x3e01d251	0.12677886
143	0x3da608bf	0.08107137
144	0x3dff82f1	0.12476147
145	0xbda4dced	-0.08049951
146	0x3e75846f	0.239763
147	0xbdb9758f	-0.09055626
148	0xbdd4b155	-0.10385386
149	0x3cd9f0a7	0.02660401
150	0x3e5f8a1c	0.21830028
151	0x3e80d90c	0.25165594
152	0xbe21893e	-0.1577501
153	0xbcaa4a46	-0.02078737
154	0xbe38d628	-0.18050444
155	0xbe6f7e0f	-0.23387931
156	0x3e91ede9	0.28501824
157	0x3e99b96c	0.30024278
158	0x3d5374f7	0.05162522
159	0xbdf232a6	-0.11826067
160	0x3ea24dd0	0.3169999
161	0x3e8b0f5d	0.2716016
162	0x3e1671af	0.14691804
163	0xbcbcdb42	-0.023053769
164	0x3e47d43b	0.19514553
165	0xbd4c53bc	-0.049884543
166	0xbe0a59a2	-0.13510755
167	0x3e0fbbe8	0.14036524
168	0x3e1da8bc	0.15396398
169	0x3e93b13b	0.28846154
170	0x3d42c5de	0.047551982
171	0xbe0b4a59	-0.1360258
172	0xbddda7c6	-0.10823016
173	0x3e798098	0.24365461
174	0x3db2bb3b	0.08727118
175	0xbdc24ac1	-0.094869144
176	0x3e38f36c	0.18061608
177	0xbeac67b1	-0.3367286
178	0x3da65dff	0.08123397
179	0x3e2bb570	0.16768432
180	0x3e1da11e	0.15393493
181	0x3eacbeac	0.3373922
182	0xbe93b89a	-0.28851777
183	0x3eac847a	0.33694822
184	0x3e771c8a	0.2413198
185	0x3e49e772	0.19717196
186	0x3e5e434c	0.21705359
187	0xbbfa2979	-0.0076343385
188	0xbea501cd	-0.32227936
189	0x3d973c68	0.073845685
190	0xbe7216f4	-0.23641568
191	0xbcc83961	-0.024441423
192	0xbe919264	-0.28432
193	0x3df931ec	0.12167725
194	0x3d9999f7	0.075000696
195	0xbdceffad	-0.1010736
196	0xbe5b0cc8	-0.21391594
197	0xbdf3f9c9	-0.11912877
198	0x3e3bd56b	0.18343131
199	0x3e765bd7	0.24058472
200	0x3e5a265e	0.21303698
201	0xbd7d9419	-0.061908815
202	0xbe1af551	-0.15132643
203	0x3e0a986a	0.13534704
204	0x3ba3ff0a	0.0050047683
205	0x3dca30cb	0.09872588
206	0xbdd2f896	-0.1030132
207	0xbe8f68d0	-0.28009653
208	0x3eb654ee	0.3561167
209	0xbe528a87	-0.20560656
210	0x3ea771dd	0.32704058
211	0xbe926fd9	-0.28600958
212	0x3d0bd8a4	0.03414215
213	0x3ed2efad	0.41198483
214	0xbe4b837c	-0.19874376
215	0xbe6244e5	-0.22096594
216	0xbe414994	-0.18875724
217	0xbe320e5a	-0.17388287
218	0x3df59d34	0.11992875
219	0xbe325522	-0.17415288
220	0xbde0badb	-0.1097314
221	0xbe8abf98	-0.270993
222	0xbc9c6ab9	-0.019093858
223	0x3e609fff	0.21936034
224	0xbdcd0072	-0.100098506
225	0x3ca4739e	0.020074662
226	0xbd8c5ad1	-0.06853259
227	0xbda45974	-0.08024874
228	0x3d295605	0.0413418
229	0xbe206e63	-0.15667109
230	0xbe860c36	-0.2618119
231	0x3ea83849	0.32855442
232	0xbc453030	-0.012035415
233	0x3e4a141b	0.19734232
234	0x3e3e77eb	0.18600433
235	0x3e852f49	0.26012638
236	0xbebd613b	-0.36988243
237	0xbd464ffa	-0.048416115
238	0x3d0d5980	0.034509182
239	0x3ad3b445	0.0016151747
240	0x3e24f43e	0.16108796
241	0xbd3cfb18	-0.0461379
242	0x3d28803b	0.041137915
243	0xbeacf6f9	-0.33782175
244	0x3e003bea	0.12522855
245	0x3e16c830	0.14724803
246	0x3eaaa08d	0.33325616
247	0x3e7690ea	0.24078718
248	0xbdfc41d1	-0.12317241
249	0xbe24e786	-0.16103944
250	0xbe119f55	-0.14220937
251	0x3da8bd97	0.082392864
252	0xbea77b16	-0.32711095
253	0x3e476b7f	0.194746
254	0x3df1d9bd	0.118091084
255	0xbbcca18f	-0.006244845

fc1.bias f4 [100]
0	0xbe11a134	-0.1422165
1	0xbe95bcd0	-0.29245615
2	0xbe34f2a9	-0.17670693
3	0x3da700a6	0.081544206
4	0x3dbea616	0.09309022
5	0xbe558602	-0.20851901
6	0xbe610a98	-0.21976697
7	0x3da55ea3	0.08074691
8	0xbbb64173	-0.0055620014
9	0xbe984edd	-0.29747668
10	0x3d9e757f	0.07737254
11	0x3d94928d	0.07254515
12	0xbe115f78	-0.14196575
13	0x3de798e8	0.113084614
14	0x3dbdab56	0.09261195
15	0xbeac62a6	-0.33669013
16	0x3e3f754b	0.18697087
17	0x3e554235	0.20826037
18	0xbe3d4c6c	-0.18486184
19	0x3de4ec2f	0.11177861
20	0xbc1ecb03	-0.009691956
21	0xbe942064	-0.28930962
22	0x3cde5981	0.027142288
23	0xbe3a6453	-0.18202333
24	0x3c8ac770	0.016940802
25	0x3d9257d9	0.07145662
26	0xbe83e129	-0.2575772
27	0xbdc44864	-0.0958412
28	0x3e736213	0.23767881
29	0x3e158bee	0.1460416
30	0xbe3125f9	-0.17299642
31	0x3cca5e94	0.024703301
32	0x3e8b42dc	0.27199447
33	0x3e32bc9b	0.1745476
34	0xbec167e0	-0.37774563
35	0x3d0edb22	0.03487695
36	0x3e17f545	0.14839657
37	0x3df8db34	0.12151185
38	0xbe01d3e4	-0.12678486
39	0x3db04a51	0.08607925
40	0x3e3117f6	0.17294297
41	0x3e93e462	0.2888518
42	0x3d98d011	0.074615605
43	0xbe8c597d	-0.27412024
44	0x3d7cc7f8	0.061714143
45	0xbba624c6	-0.0050703017
46	0xbdd27f65	-0.10278205
47	0xbe5feaea	-0.21866956
48	0x3e028f85	0.12750061
49	0x3ea1e61d	0.31620875
50	0x3d88b49d	0.06675074
51	0x3ea49a63	0.32149038
52	0xbe69190d	-0.22763462
53	0xbe2350d0	-0.15948796
54	0xbd7d6c9e	-0.061871164
55	0x3e1f5942	0.15561393
56	0xbd3c7b95	-0.046016295
57	0x3e9b4417	0.30325386
58	0x3e79de5f	0.24401234
59	0x3e5190cb	0.2046539
60	0xbe11de68	-0.14244998
61	0x3e9e8284	0.3095895
62	0x3deca7a9	0.11555416
63	0x3d5f6846	0.054542802
64	0xbe028336	-0.12745366
65	0xbe8c4b1a	-0.27401048
66	0xbda10c48	-0.078636706
67	0xbe30618b	-0.1722471
68	0x3ca8877c	0.020572416
69	0x3d3ab91b	0.045586687
70	0x3e9873ef	0.2977595
71	0xbe0c0cf3	-0.13676815
72	0x3e220261	0.1582122
73	0xbd2dcd15	-0.04243191
74	0xbe5d9213	-0.21637754
75	0xbe6ce197	-0.2313293
76	0x3e095288	0.1341039
77	0x3e1d4574	0.15358526
78	0x3e8b234e	0.27175373
79	0x3e8c6226	0.2741863
80	0xbe800c68	-0.25009465
81	0xbe674d29	-0.22588028
82	0x3e2e65d6	0.17031035
83	0x3e26edc9	0.16301645
84	0x3ead9568	0.3390305
85	0xbe9b7ea6	-0.30370063
86	0xbdbb1622	-0.09135081
87	0x3e8089a4	0.2510501
88	0x3e7bee5a	0.24602643
89	0x3d4e8250	0.050417244
90	0x3e8ce06a	0.27514964
91	0x3e2ba4bd	0.16762061
92	0xbdb6801b	-0.08911153
93	0x3e6931f9	0.2277297
94	0xbe641406	-0.22273263
95	0x3e19be93	0.15014105
96	0x3e55728f	0.20844482
97	0x3cae9751	0.021312388
98	0x3e7954af	0.2434871
99	0x3e8424c9	0.25809315

fc2.weight f4 [100, 100]
0	0xbd047462	-0.032337554
1	0x3d06866f	0.03284305
2	0xbcb913a9	-0.022592383
3	0x3d313482	0.043262966
4	0x3db0ec7c	0.08638856
5	0xbd6ee6d6	-0.05832561
6	0xbd88e983	-0.06685164
7	0x3d6d01ea	0.057863154
8	0x3c200a0e	0.009768022
9	0xbdcf9a1d	-0.10136817
10	0x3d72d477	0.059284654
11	0xbc9e619c	-0.019333653
12	0xbbe06a64	-0.0068486203
13	0x3e0411f5	0.12897475
14	0x3da701b5	0.081546225
15	0x3cc8662a	0.024462778
16	0x3ce2d69d	0.027690226
17	0x3aac4216	0.0013142254
18	0x3c35d903	0.011099103
19	0x3dc008cb	0.09376677
20	0xbdd1715f	-0.10226702
21	0x3d86d8dd	0.06584332
22	0xbd1a5081	-0.03767443
23	0x3d9827e4	0.074294835
24	0xbd1d14b4	-0.038349822
25	0xbc7ca1fb	-0.0154194785
26	0xbd95ce9e	-0.073148
27	0xbd6e145a	-0.058124878
28	0xbcfa3eb8	-0.030547485
29	0xbc73042f	-0.01483254
30	0xbdccbe80	-0.099972725
31	0xbd0f725e	-0.03502118
32	0x3dffaec8	0.12484509
33	0xbd25f444	-0.040516153
34	0x3dd49e8f	0.10381805
35	0x3dc5a8a3	0.096513055
36	0xbdf869ca	-0.12129553
37	0x3dd80d26	0.10549383
38	0x3d887032	0.066620246
39	0xbd859e58	-0.06524342
40	0x3d1e91a0	0.038713098
41	0x3b3339c8	0.0027347673
42	0x3dd6f2e0	0.104955435
43	0xbccf122c	-0.02527722
44	0x3dd09d8d	0.101863004
45	0x3db87e69	0.09008486
46	0xbd292a02	-0.041299827
47	0x3bd84a83	0.0066006794
48	0xbe114127	-0.1418501
49	0xbd2337a5	-0.03984799
50	0xbd886c16	-0.06661241
51	0xbd65f8eb	-0.05614559
52	0x3dd4fcd2	0.10399784
53	0x3ca3df96	0.020004075
54	0xbd9e8c39	-0.07741589
55	0xbd623f27	-0.055236008
56	0x3d039f8b	0.032134574
57	0x3e1a0259	0.15039958
58	0x3d984bf0	0.07436359
59	0x3d38d47c	0.045124516
60	0x3d7d621c	0.061861143
61	0xbcea22cd	-0.028581047
62	0x3daa573b	0.08317419
63	0x3a01f18c	0.0004956953
64	0x3c310e38	0.010806613
65	0xbb623d81	-0.0034521522
66	0x3d5150e6	0.05110254
67	0xbd00b813	-0.031425547
68	0x3d81e590	0.06342614
69	0x3b2faae1	0.0026804733
70	0xbd0b70f1	-0.034043256
71	0xbd4bb860	-0.04973638
72	0x3d449384	0.047992244
73	0xbbb76e11	-0.0055978377
74	0x3cd5813f	0.026062606
75	0xbd7b4fbb	-0.061355334
76	0xbd9097f5	-0.070602335
77	0x3d8e9b9b	0.06963273
78	0x3c24d905	0.010061507
79	0x3d6b8dd8	0.05750832
80	0xbc95d827	-0.018291546
81	0xbd0c0f8a	-0.034194507
82	0xbd00e237	-0.031465735
83	0x3da4db66	0.080496594
84	0x3dea8e67	0.11452942
85	0xbb4f6d84	-0.003165097
86	0x3dcbe545	0.09955839
87	0xbd0c1323	-0.034197938
88	0xbdfb8496	-0.12281148
89	0x3dbb60f3	0.09149351
90	0x3b823128	0.003973145
91	0xbd0fd531	-0.035115425
92	0x3cc68ad2	0.024236117
93	0xbd87e29f	-0.066350214
94	0xbbc4b5b3	-0.0060031055
95	0x3c7d0418	0.015442871
96	0x3d0a4c7f	0.03376436
97	0xbd585348	-0.0528138
98	0xbc91bf67	-0.017791463
99	0x3d23fba1	0.040034894
100	0xbd999107	-0.07498365
101	0x3b7b6942	0.00383623
102	0x3dd79691	0.10526765
103	0x3d937c62	0.072014585
104	0xbd23ae9d	-0.039961446
105	0xbc9cc333	-0.019136047
106	0x3dec7d42	0.115473285
107	0x3e247d39	0.16063394
108	0x3d073696	0.03301104
109	0x3d28e0b4	0.04122992
110	0x3dd423aa	0.10358365
111	0xbd8144fa	-0.06311984
112	0xbd3ce378	-0.04611537
113	0x3d6e4a87	0.058176544
114	0x3da3dd8e	0.080012426
115	0x3d76e94b	0.06028108
116	0x3d3462ef	0.044039663
117	0x3e02f61c	0.12789196
118	0x3c9d646c	0.019212924
119	0xbe000cc7	-0.12504874
120	0xbe0a19b6	-0.1348637
121	0x3ce4043e	0.027834054
122	0x3da0d44c	0.078529924
123	0xbc8b48a3	-0.01700241
124	0xbd62e1f7	-0.055391278
125	0x3d37eff8	0.044906586
126	0xbdb0c4e2	-0.086313024
127	0xbd31a0c1	-0.043366197
128	0x3c148a24	0.009066138
129	0x3e0190ac	0.12652844
130	0xbdddba1f	-0.108265154
131	0xbd7e5f87	-0.06210282
132	0x3c5f0e82	0.013614299
133	0xbc8694e4	-0.016428418
134	0x3d9d788d	0.07689009
135	0xbcefd3ce	-0.029275801
136	0xbe02995d	-0.12753816
137	0x3e280003	0.16406254
138	0x3d8655a4	0.065593034
139	0xbc8f9ed8	-0.017531797
140	0xbd3522d1	-0.044222657
141	0xbe05e3f1	-0.13075234
142	0xbde6862b	-0.11256059
143	0x3dc99bf0	0.09844196
144	0xbdd5d5ac	-0.10441145
145	0xbe03d3e2	-0.12873796
146	0x3cb46e66	0.022025298
147	0xbd71665f	-0.05893552
148	0xbda657fc	-0.081222504
149	0x3cce2968	0.025166228
150	0xbdd66474	-0.10468379
151	0x3bb53c55	0.005530874
152	0x3e0f5ffe	0.14001462
153	0xbd79830e	-0.060916
154	0x3d6d849d	0.057987798
155	0x3d3c3dd4	0.0459574
156	0x3e0a8ac4	0.13529497
157	0x3b85f76a	0.004088332
158	0x3cb56758	0.022144005
159	0x3dd34918	0.10316676
160	0x3c71ee94	0.014766354
161	0xbcd1673d	-0.025561923
162	0xbd298db9	-0.041394923
163	0x3dbf3c13	0.0933763
164	0xbce8fa6e	-0.028439727
165	0xbdef998b	-0.11699208
166	0xbe116a8e	-0.14200804
167	0x3da1a62f	0.07893025
168	0x3da605e1	0.0810659
169	0x3dc1fcf6	0.094720766
170	0x3d827d38	0.0637154
171	0x3c7bd96b	0.015371661
172	0xbcc68af4	-0.02423618
173	0x3aedc46f	0.0018140207
174	0xbd23f723	-0.04003061
175	0xbdaa7dca	-0.083247736
176	0xbca2f30e	-0.019891288
177	0xbd02aa86	-0.031900905
178	0x3b08a164	0.002084815
179	0x3daed0f6	0.0853595
180	0xbd22273d	-0.0395882
181	0xbdddcb8f	-0.10829841
182	0xbdad0d77	-0.08449834
183	0xbe1f39d2	-0.155494
184	0x3d81deab	0.06341299
185	0x3dae6fb3	0.08517399
186	0x3d9f24f8	0.07770723
187	0xbd5c4196	-0.053773485
188	0xbdd580c2	-0.10424949
189	0x3e0882ae	0.133311
190	0x3d10c733	0.03534622
191	0xbcb12239	-0.021622764
192	0xbd0ea197	-0.034822073
193	0x3d6d7fbb	0.05798314
194	0xbd3961a8	-0.045259148
195	0x3b48bf42	0.0030631577
196	0xbd0e54b9	-0.034748767
197	0xbc66c135	-0.01408415
198	0xbc6e2694	-0.014535565
199	0xbe042b33	-0.12907104
200	0x3d80824d	0.06274853
201	0xbc815034	-0.015785314
202	0x3e069a60	0.13144827
203	0x3c6c351e	0.014416961
204	0xbd53767d	-0.05162667
205	0xbd525c00	-0.05135727
206	0x3d472ffe	0.048629753
207	0xbdc3f9a2	-0.09569098
208	0x3b658d36	0.0035026795
209	0x3d88db84	0.06682494
210	0xbd659bec	-0.0560569
211	0x3ddd99a5	0.10820321
212	0x3d5403f2	0.051761575
213	0x3d148b34	0.036265567
214	0x3dc22e5c	0.094814986
215	0xbdaf8240	-0.08569765
216	0x3db4265d	0.0879638
217	0x3da46713	0.08027472
218	0x3c9792c5	0.018502602
219	0x3da82ec1	0.082120426
220	0x3e02c277	0.12769495
221	0xbda376a1	-0.07981611
222	0x3d5d12ae	0.053972892
223	0xbc8e981e	-0.01740652
224	0xbd31386a	-0.04326669
225	0x3d8ec453	0.069710396
226	0xbd8e09d7	-0.069354706
227	0x3ca16b7b	0.019704571
228	0xbd7e335b	-0.062060695
229	0x3df7a197	0.12091368
230	0xbd716b1e	-0.058940046
231	0x3d2d97de	0.04238116
232	0x3d20cf2f	0.039260086
233	0xbd9682e3	-0.073491834
234	0x3cd38880	0.025821924
235	0x3da6465f	0.08118891
236	0xbda3de28	-0.08001357
237	0xbc1ff32f	-0.009762569
238	0xbd2d2153	-0.04226811
239	0xbce6721d	-0.028130585
240	0xbcedb981	-0.02901912
241	0xbd8c1da7	-0.06841593
242	0xbc8105af	-0.01574978
243	0x3df36f3c	0.11886451
244	0x3d493ca0	0.049130082
245	0x3d8a93c3	0.067664646
246	0x3d7ca7ca	0.061683454
247	0xbcfc9f4b	-0.030837676
248	0xbd79dce4	-0.061001673
249	0xbdc7e752	-0.09760918
250	0x3d0ef4ab	0.034901302
251	0xbd984a3e	-0.074360356
252	0x3cb14a5f	0.021641908
253	0x3d2800e8	0.04101649
254	0xbd5427d7	-0.051795807
255	0xbd469d74	-0.048490003

fc2.bias f4 [100]
0	0xbcd18b28	-0.02557905
1	0x3c9a3e05	0.018828401
2	0xbd89f5ef	-0.06736361
3	0xbdd3a4ee	-0.10334192
4	0xbcdb7483	-0.026788956
5	0xbc688085	-0.014190798
6	0x3e2ba4b2	0.16762045
7	0xbccd5878	-0.0250666
8	0xbb6439c6	-0.0034824475
9	0xbded8002	-0.11596681
10	0x3ce739dc	0.028225832
11	0x3dda1263	0.10648038
12	0xbd99387e	-0.07481478
13	0xbd955cdd	-0.07293103
14	0xbd0d5e5d	-0.03451382
15	0x39418163	0.00018454115
16	0xbe08183c	-0.13290495
17	0x3dba5864	0.090988904
18	0xbd28b6bf	-0.041189905
19	0x3d8323ca	0.064033106
20	0x3d8f3a95	0.069935955
21	0x3d07af86	0.033126377
22	0xbc1d789e	-0.009611277
23	0x3c647ef3	0.013946283
24	0xbd3febc0	-0.046855688
25	0x3db40c46	0.087914035
26	0xbd63dbf6	-0.055629693
27	0x3d91492c	0.070940346
28	0xbd95a1da	-0.07306261
29	0x3c55a31d	0.0130393775
30	0xbd04a720	-0.032385945
31	0x3aeb7682	0.0017964395
32	0xbd9f231b	-0.07770368
33	0x3d92bdd8	0.07165116
34	0x3d2493a6	0.04017987
35	0x3c892df0	0.016745538
36	0x3cc86305	0.024461279
37	0xbe08b4ac	-0.13350171
38	0xbdd8ff30	-0.10595548
39	0xbdb4e8eb	-0.08833488
40	0xbc92b542	-0.017908696
41	0x3d8b32f7	0.0679683
42	0x3b567a31	0.003272664
43	0xbcf884d1	-0.03033677
44	0x3d75c344	0.060000673
45	0xbdaef279	-0.08542342
46	0xbd54f487	-0.051991012
47	0xbe3cf3e5	-0.18452413
48	0x3d2dfc12	0.04247672
49	0x3d736ac0	0.059427977
50	0x3ca65e49	0.02030863
51	0xbe152b1d	-0.14567228
52	0x3dea4898	0.114396274
53	0xbdb21597	-0.08695524
54	0x3da0c206	0.07849507
55	0x3dcb4b25	0.09926442
56	0xbdce17a7	-0.10063105
57	0x3bcbb3b1	0.0062164892
58	0x3c9db71e	0.019252356
59	0xbc2915c7	-0.0103201335
60	0xbd71f10c	-0.05906777
61	0x3c5e134b	0.0135544045
62	0xbd77ccd8	-0.06049809
63	0x3d36d484	0.044636264
64	0xbda52874	-0.080643564
65	0x3c254f81	0.010089756
66	0xbcd78859	-0.026310133
67	0xbd1017c7	-0.035178926
68	0xbdb7b8f8	-0.08970827
69	0x3b665ed4	0.0035151737
70	0x3d527a82	0.051386364
71	0xbd5a105c	-0.053238258
72	0x3da74930	0.08168256
73	0x3d50c131	0.05096549
74	0xbdc4b206	-0.09604268
75	0x3d9122d4	0.07086721
76	0xbd1f2c71	-0.038860742
77	0xbba527b8	-0.0050401352
78	0xbd6e8065	-0.058227915
79	0xbd005701	-0.031332973
80	0x3c8bbf03	0.017058855
81	0xbd4e4c01	-0.05036545
82	0xbd9dddfe	-0.07708357
83	0x3cedc779	0.02902578
84	0x3dcf46dd	0.10120938
85	0xbacee048	-0.0015783394
86	0xbce71c95	-0.028211871
87	0xbcb4f57a	-0.022089709
88	0x3de60073	0.112305544
89	0x3da8ac1b	0.082359515
90	0x3c9465e7	0.018114997
91	0xbd159901	-0.03652287
92	0x3cd3129a	0.025765706
93	0xbd7a972c	-0.061179325
94	0xbcf73402	-0.030176166
95	0x3dbe5363	0.092932485
96	0x3dc2514a	0.09488161
97	0x3deb17fe	0.114791855
98	0xbd7ee2b1	-0.06222791
99	0xbdb806eb	-0.089856945

fc3.weight f4 [3, 100]
0	0x3c225bc4	0.009909574
1	0x3d3e7e4d	0.04650717
2	0x3d3e0833	0.046394538
3	0xbcaa32fe	-0.020776268
4	0xbc0ae8a0	-0.008478314
5	0x3d1248ee	0.035714082
6	0x3db7e2be	0.089787945
7	0xbe012f35	-0.12615664
8	0x3b558caa	0.0032585063
9	0xbd1aaaab	-0.037760418
10	0x3b391ced	0.0028246
11	0x3c6afc68	0.014342405
12	0xbc830254	-0.015992321
13	0xbd3e08d4	-0.046395138
14	0xbc118385	-0.008881454
15	0xbcb3d22d	-0.021950806
16	0xbd0fead2	-0.03513605
17	0x3d35264d	0.04422598
18	0xbc4d337e	-0.012524484
19	0x3d8f606f	0.07000815
20	0x3ced4844	0.028965123
21	0x3cc83113	0.024437463
22	0xbd412b0a	-0.047160186
23	0xbb601a68	-0.0034195427
24	0xbc6bc119	-0.0143893
25	0x3a9f3822	0.0012147466
26	0xbca3eb09	-0.020009534
27	0x3c3cb255	0.011517127
28	0xbc443566	-0.011975622
29	0x3cf67ecc	0.030089758
30	0xbd89b09f	-0.06723141
31	0xbd0a26db	-0.03372846
32	0x3d3bae71	0.045820657
33	0x3d060392	0.03271825
34	0x3c2be56f	0.010491713
35	0xb8f1d5b4	-0.00011531581
36	0x3c9dad62	0.019247714
37	0xbd539bf9	-0.05166242
38	0xbd94035f	-0.072272055
39	0x3d1737fe	0.036918633
40	0xbd4db7ab	-0.050223988
41	0x3c7714dc	0.015080657
42	0xbc7ec95b	-0.015550937
43	0xbd7c0cb4	-0.061535552
44	0x3c723cfc	0.014785048
45	0xbc00ae70	-0.007854089
46	0xbd229da5	-0.039701123
47	0xbd0258d6	-0.031823
48	0xbd425e2e	-0.047453098
49	0x3d7a43b5	0.061099727
50	0xbce62fb8	-0.028098926
51	0x3cf44959	0.029820131
52	0x3c75b211	0.014996068
53	0xbce0a2c7	-0.027421368
54	0xbd5bb72c	-0.053641483
55	0x3d82119c	0.06351015
56	0x3d3845a5	0.044988293
57	0xbd124166	-0.0357069
58	0x3d000d29	0.03126255
59	0x3d29e513	0.041478228
60	0xbc4e405b	-0.012588586
61	0xbbdfaff1	-0.006826394
62	0xbd39eb6d	-0.045390535
63	0x3b6a7f06	0.0035781278
64	0x3c419349	0.011814901
65	0xbca47b1e	-0.020078238
66	0x3a5db2e5	0.00084571383
67	0x3c6e9c56	0.014563641
68	0x3cadea24	0.021229811
69	0xbce90b46	-0.028447758
70	0x3cfbc4f3	0.030733561
71	0x3d4f7a82	0.050653942
72	0xbcb4a8d5	-0.022053162
73	0x3d60be3f	0.054868933
74	0x3d3b90b4	0.045792297
75	0x3cd6dc8a	0.026228208
76	0x3d84f5d3	0.064922
77	0xbc9c6821	-0.019092621
78	0xbd49cf7e	-0.049270146
79	0xbc2fb27b	-0.010723705
80	0xbc9e4f63	-0.019324964
81	0xbbc5d654	-0.006037513
82	0x3c94506c	0.018104754
83	0xbc068633	-0.0082107065
84	0xbc58d192	-0.013233559
85	0xbe10f729	-0.14156784
86	0x3d0e51f2	0.034746118
87	0x3c025968	0.007955886
88	0x3a1d5860	0.00060022436
89	0x3bbb5263	0.0057166084
90	0x3d42acf2	0.047528215
91	0xbcb3a0eb	-0.021927318
92	0xbccf4421	-0.025301041
93	0x3d352646	0.044225954
94	0xbd79a084	-0.060944095
95	0x3db69285	0.08914665
96	0x3dc1a08d	0.09454451
97	0x3d08f37a	0.033435322
98	0x3cac1a5a	0.02100866
99	0x3d3ecb5f	0.04658067
100	0xbb95cf4c	-0.004571831
101	0x3c191f70	0.009345874
102	0xbb8f91b2	-0.004381382
103	0x3b17bc79	0.002315311
104	0x3c3e03a9	0.011597552
105	0x3be28e34	0.0069139246
106	0xbc53c118	-0.012924455
107	0x3bae7b95	0.0053247907
108	0x3c85b02e	0.01631936
109	0xbc6fe175	-0.0146411555
110	0x3cf94203	0.030426985
111	0x3cfcacf3	0.030844187
112	0x3c8ef95d	0.01745289
113	0xbd77e4bc	-0.060520872
114	0xbc7b218d	-0.015327823
115	0xbcf92ac9	-0.03041591
116	0x3c112fa7	0.008861459
117	0x3d8f599e	0.06999515
118	0xbc24cff4	-0.0100593455
119	0x3d97e4b2	0.07416667
120	0xbd015481	-0.03157473
121	0x3dac80ea	0.08423026
122	0xbd2f0c25	-0.04273619
123	0x3ab2d00b	0.0013642324
124	0xbd323e07	-0.043516185
125	0xbd26bbba	-0.040706374
126	0xbb16466b	-0.0022930156
127	0xb9d7c424	-0.00041154132
128	0xbd64efbb	-0.055892687
129	0x3d334f08	0.043776542
130	0x3da8a85d	0.08235238
131	0x3cc4def4	0.024032094
132	0xbc15df19	-0.009147429
133	0xba7c9160	-0.00096346997
134	0x3930d4c2	0.00016863926
135	0x3c4304cc	0.011902999
136	0xbd262e3b	-0.040571433
137	0xbd796847	-0.060890462
138	0xbd5d3db9	-0.05401394
139	0x3c8f7690	0.01751259
140	0x3d02eac9	0.03196219
141	0x3bbe17a1	0.0058011566
142	0xbcef22a3	-0.02919132
143	0xbc0fc437	-0.008774809
144	0xbd346f12	-0.044051237
145	0xbb040f92	-0.0020150882
146	0xbd22cf67	-0.039748576
147	0xbd341292	-0.043963023
148	0x3d13474c	0.035956666
149	0x3bb9bcf3	0.0056682765
150	0xbd60ba50	-0.05486518
151	0x3cfeb7c8	0.031093493
152	0x3d00b0e5	0.0314187
153	0xbd15ac32	-0.03654117
154	0xbcb88672	-0.022525046
155	0x3cb458b3	0.022014951
156	0x3c33e7d1	0.010980562
157	0xbcae1ec0	-0.021254897
158	0xbc97b9c8	-0.018521205
159	0x3c97c3c9	0.018525975
160	0x3d0ef9df	0.034906264
161	0x3bab4fa0	0.005227998
162	0xbd2ab967	-0.04168072
163	0x3b529e79	0.0032137914
164	0x3d0f2de6	0.03495588
165	0x3d5fe4e8	0.05466166
166	0xbcde36a0	-0.027125657
167	0x3b4b4c53	0.0031020835
168	0x3c838cda	0.016058374
169	0x3bd8a17d	0.006611048
170	0x3cef4cc7	0.029211415
171	0xbafd5d74	-0.0019330219
172	0x3d99d846	0.07511954
173	0x3bfd81fa	0.0077364417
174	0x3ac80a0c	0.0015261783
175	0x3d2c6a31	0.04209346
176	0x3d928efc	0.07156178
177	0xbd043b88	-0.032283336
178	0x3ba1aa8d	0.0049336613
179	0x3d84e370	0.06488693
180	0xbae91a5c	-0.0017784345
181	0xba9ae0af	-0.0011816229
182	0xbbe9e5e6	-0.0071380017
183	0xbd1d209f	-0.038361188
184	0xbc9e5b79	-0.019330727
185	0x3c0ed931	0.008718775
186	0x3c423600	0.011853695
187	0xbd26cfc2	-0.040725477
188	0x3d4a3a01	0.049371723
189	0xbd3561e3	-0.044282805
190	0xbb0eebdf	-0.002180807
191	0x3b95f570	0.0045763776
192	0xbd00bd79	-0.031430695
193	0xba220206	-0.0006180111
194	0x3dacb28e	0.08432494
195	0x3d1b3768	0.037894636
196	0x3d923c47	0.07140403
197	0xbcd39ac0	-0.025830626
198	0xbc3892f3	-0.011265504
199	0x3d82c75a	0.063856795
200	0xbca974fa	-0.020685662
201	0xbd71016a	-0.05883924
202	0x3cb1865c	0.021670513
203	0xbc0ffb2d	-0.008787912
204	0x3d7dde65	0.06197967
205	0x3d244bd4	0.040111378
206	0xbdac385b	-0.084091865
207	0x3d3713ab	0.04469649
208	0x3d24992b	0.040185135
209	0xbd204e3b	-0.039137106
210	0x3d31e7a1	0.04343379
211	0x3d22c120	0.03973496
212	0x3d012459	0.031528804
213	0xbc90c65c	-0.01767271
214	0xbd72051c	-0.059086904
215	0x3d7796d8	0.06044659
216	0x3df2ee40	0.11861849
217	0x3d36688f	0.04453331
218	0xbd1ecb85	-0.03876831
219	0xbc3b1bef	-0.011420234
220	0xbd46534b	-0.048419278
221	0x3da7b8f8	0.08189577
222	0xbb9aa015	-0.0047187903
223	0xbc4aaf62	-0.012370916
224	0xbd6d2fb8	-0.057906836
225	0x3bcf2871	0.0063219597
226	0xbd569df2	-0.052396722
227	0x3c1d7ca7	0.009612239
228	0xbcf6deea	-0.03013559
229	0xbc56ab99	-0.0131024355
230	0xbd379d03	-0.044827472
231	0xbc9b993d	-0.018993968
232	0x3ce9cbb3	0.028539514
233	0x3c3fb59a	0.011701012
234	0x3c930765	0.017947862
235	0x3d47a308	0.048739463
236	0xbcc52068	-0.024063304
237	0xbd380963	-0.044930827
238	0x3d1d72b3	0.038439464
239	0x3d002e40	0.031294107
240	0x3db77449	0.089577265
241	0x3c3a2587	0.011361486
242	0xbd24ecef	-0.04026502
243	0x3db61557	0.08890789
244	0x3cd1bfc7	0.025604142
245	0x3d3c9703	0.046042453
246	0xbd1579d5	-0.03649314
247	0x3d8cc46f	0.06873404
248	0x3d3351dd	0.043779243
249	0x3d00af6b	0.03141729
250	0xbd125192	-0.035722323
251	0x3dbd902d	0.09256015
252	0x3d78c166	0.060731314
253	0xbd152d12	-0.036419936
254	0xbc757236	-0.014980843
255	0xbbf01c96	-0.0073276265

fc3.bias f4 [3]
0	0x3cf50e06	0.029913913
1	0x3d21c0cc	0.039490506
2	0x3b1ea641	0.0024207982

fc1.weight f4 [100, 11]
0	0xbe35d0a3	-0.1775537
1	0x3e38977a	0.18026534
2	0x3e0d3a44	0.13791758
3	0xbe2c294f	-0.16812633
4	0x3b51108e	0.0031900737
5	0x3b8984fb	0.0041967607
6	0x3d5f2ef7	0.05448815
7	0x3dcdca6e	0.10048376
8	0x3dbdcd9c	0.092677325
9	0x3dda6efe	0.10665701
10	0x3cb807d1	0.022464665
11	0xbd3ff3b4	-0.046863273
12	0xbe3ac61a	-0.18239632
13	0x3e448201	0.19190218
14	0x3d62227a	0.05520866
15	0x3aef2883	0.0018246326
16	0xbdf511f7	-0.11966317
17	0xbdef5d5d	-0.116877295
18	0xbcb15e21	-0.02165133
19	0xbc80e209	-0.015732782
20	0x3d924fc7	0.071441226
21	0x3d9b1483	0.07572272
22	0xbd8337ff	-0.06407165
23	0xbcb19846	-0.021679055
24	0xbe2d2275	-0.16907676
25	0xbdc0c86e	-0.09413229
26	0x3ded43b5	0.1158518
27	0x3d41cfc8	0.047317296
28	0xbdef1ac0	-0.11675024
29	0x3e4eff40	0.20214558
30	0xbda2cb25	-0.07948903
31	0x3cc6b0d4	0.02425424
32	0x3da44497	0.08020895
33	0x3cd07c43	0.025449878
34	0xbe82157f	-0.25407025
35	0x3e1526a1	0.14565517
36	0xbd09fa64	-0.033686057
37	0xbd226b2a	-0.03965298
38	0xbc836b0e	-0.016042259
39	0x3e0b0121	0.1357465
40	0x3e3eaf98	0.18621671
41	0xbe4b6f2d	-0.19866629
42	0x3d5a3d52	0.053281136
43	0xbd3811da	-0.0449389
44	0xbe0f2c55	-0.13981755
45	0x3d735ea4	0.05941643
46	0x3d9e8500	0.077402115
47	0xbe8bf844	-0.2733785
48	0xbe409cac	-0.18809766
49	0x3e2c0e29	0.16802277
50	0xbb86ddd5	-0.0041158
51	0x3d3af47e	0.045643322
52	0xbcfa4c59	-0.030553984
53	0xbd847ddb	-0.064693175
54	0xbd49a05a	-0.04922519
55	0xbe52b8a5	-0.20578249
56	0x3e24fc06	0.16111764
57	0x3dcb2fb9	0.09921212
58	0xbdce7a65	-0.10081939
59	0xbe513fd8	-0.2043451
60	0x3dced7be	0.10099743
61	0xbb828d67	-0.0039841416
62	0x3d9b2b54	0.075766236
63	0x3e07d5a4	0.13265091
64	0xbd6b013c	-0.057374224
65	0xbc612e2e	-0.01374392
66	0xbe65464f	-0.22390102
67	0x3d893e66	0.06701355
68	0x3e0e540d	0.1389925
69	0x3d609da1	0.054837827
70	0xbdb2a5d5	-0.08723036
71	0xbc55574a	-0.0130213
72	0x3e0cfb22	0.13767675
73	0xbe00361a	-0.12520638
74	0x3d3a1841	0.045433287
75	0x3db120b8	0.08648819
76	0xbd93d3cb	-0.07218131
77	0x3daf49d4	0.085590035
78	0x3e3cb6fc	0.18429178
79	0xbd5dcd83	-0.05415107
80	0xbe4e7624	-0.20162255
81	0xbdab4594	-0.0836288
82	0x3ddba546	0.10724883
83	0xbddf5f53	-0.109068535
84	0xbe4460a3	-0.19177489
85	0x3e3f70a1	0.18695308
86	0xbe0e6dfa	-0.1390914
87	0x3e253857	0.16134773
88	0xbe53984d	-0.20663567
89	0xbdb4feeb	-0.08837684
90	0xbe63256e	-0.22182247
91	0x3e110b85	0.1416455
92	0x3da66c34	0.08126107
93	0xbe1712cd	-0.14753266
94	0x3db71d86	0.08941178
95	0x3e5f751f	0.21822022
96	0xbe6e359b	-0.23262636
97	0xbdcacf74	-0.0990285
98	0x3d9b0b7a	0.07570548
99	0xbd60cd50	-0.0548833
100	0x3e3b8dde	0.18315837
101	0xbd970c01	-0.073753364
102	0xbd68cc8c	-0.056835696
103	0x3df7fc2e	0.12108646
104	0x3e386d19	0.18010367
105	0x3e3c4b29	0.18388046
106	0x3e53e8b7	0.20694242
107	0xbe1d370f	-0.15353034
108	0xbe0d7829	-0.13815369
109	0x3dcef427	0.10105162
110	0xbd704c5c	-0.058666572
111	0xbe30d9b6	-0.1727055
112	0xbc1352fc	-0.008991953
113	0x3e04136a	0.12898031
114	0x3e0cebc9	0.1376182
115	0x3ca0221f	0.01954752
116	0xbc839825	-0.01606376
117	0xbd4babd3	-0.04972441
118	0xbd8abf71	-0.06774796
119	0x3e1faaae	0.15592453
120	0x3c0e7485	0.008694773
121	0x3d0d939f	0.03456461
122	0xbc184e15	-0.00929596
123	0x3e307671	0.17232682
124	0x3d6ef3e5	0.058338065
125	0x3e3d9b4b	0.18516271
126	0x3dcba445	0.09943441
127	0xbd3de83c	-0.046364054
128	0xbd7bc85e	-0.061470382
129	0x3e3e5325	0.18586405
130	0x3e4908c5	0.19632252
131	0xbe509ea2	-0.20373014
132	0x3dcf1f49	0.10113389
133	0x3dfc4683	0.123181365
134	0x3e677530	0.22603297
135	0x3db51c41	0.0884328
136	0xbc452150	-0.012031868
137	0xbdc843a0	-0.097785234
138	0x3dc98ae7	0.09840947
139	0xbdc53920	-0.09630036
140	0x3df1d6bc	0.118085355
141	0x3ca26d40	0.019827485
142	0x3d6016f5	0.054709394
143	0x3e21b262	0.15790704
144	0xbcffc684	-0.03122259
145	0x3d5d18fe	0.053978913
146	0x3e1cd242	0.15314582
147	0x3dac48e7	0.084123425
148	0x3e804709	0.25054196
149	0x3d970c95	0.07375447
150	0x3d2eb7d7	0.042655792
151	0x3e238a2a	0.15970674
152	0x3d61f2b7	0.05516311
153	0x3e634634	0.22194749
154	0x3d6a8764	0.057258025
155	0xbe52b6e9	-0.20577587
156	0x3e71493a	0.2356309
157	0x3df7a7b3	0.12092533
158	0xbb96d18c	-0.0046026167
159	0xbdd7bd51	-0.10534156
160	0xbe037bb2	-0.12840155
161	0xbe3368ce	-0.17520449
162	0xbdd874d4	-0.10569158
163	0xbdb83b44	-0.08995679
164	0x3db1c43c	0.08680007
165	0x3d596987	0.053079154
166	0xbe60d6ea	-0.21956983
167	0x3e30e3af	0.17274354
168	0xbdb94f68	-0.09048349
169	0xbe7a1cf0	-0.24425101
170	0xbc89ff5e	-0.016845401
171	0x3e30aa2d	0.17252417
172	0x3e0f0025	0.13964899
173	0xbe60e4ec	-0.21962327
174	0xbd8e325e	-0.069432005
175	0x3aec3a73	0.001802279
176	0xbe21dd8b	-0.15807168
177	0xbd8d52ce	-0.06900559
178	0x3e5a5907	0.21323024
179	0xbe84e56c	-0.25956285
180	0xbe237341	-0.15961935
181	0xbcb3dd84	-0.021956213
182	0xbe051561	-0.12996437
183	0xbe2651bd	-0.16242118
184	0xbe350156	-0.17676291
185	0x3d48c3ee	0.049014978
186	0x3dbff969	0.09373743
187	0x3e1bf15d	0.15228792
188	0x3d91b718	0.071150005
189	0xbe16113c	-0.14655012
190	0x3c538ae6	0.012911534
191	0xbd99b47d	-0.075051285
192	0x3e30bcd0	0.17259526
193	0x3dca7409	0.09885413
194	0xbe39f3e7	-0.18159448
195	0xbc153129	-0.009105959
196	0x3dce94f7	0.100870065
197	0xbdf6fd9d	-0.12060092
198	0xbdbb77aa	-0.091536835
199	0xbe8b39aa	-0.27192432
200	0x3d3c746f	0.046009477
201	0x3dc1ad3a	0.094568685
202	0x3dbf99a4	0.093554765
203	0xbdcbd477	-0.09952634
204	0xbe0de8ea	-0.13858381
205	0x3d9d3a88	0.076771796
206	0x3e16153d	0.1465654
207	0x3d4d18d7	0.050072517
208	0x3d5079cb	0.0508974
209	0x3e0ad045	0.13556011
210	0xbe821466	-0.25406188
211	0xbb80cfd1	-0.0039310236
212	0x3e015769	0.12631
213	0x3e9f8c43	0.311617
214	0xbd84a569	-0.06476862
215	0x3e22e3e9	0.15907253
216	0xbe25742b	-0.16157596
217	0x3da4a998	0.0804016
218	0x3e42d3be	0.19026086
219	0x3e2afd78	0.16698253
220	0xbe0ed16e	-0.13947079
221	0xbe0b5c71	-0.13609482
222	0xbdf08f7e	-0.11746119
223	0x3df61d17	0.12017267
224	0xbde30459	-0.110848136
225	0x3e497f0d	0.19677372
226	0x3dc61b98	0.09673232
227	0xbb8aa9c1	-0.004231662
228	0xbbc79a90	-0.0060914233
229	0xbd96df2d	-0.07366786
230	0xbe4bfc8c	-0.19920558
231	0x3d9fb5b4	0.07798329
232	0xbd189b00	-0.037257195
233	0xbdcaed2e	-0.0990852
234	0x3e7eac81	0.24870493
235	0x3e52f182	0.2059994
236	0xbe7c17ec	-0.246185
237	0x3d25ee3c	0.0405104
238	0xbce52abb	-0.027974477
239	0xbd8f4ec3	-0.069974445
240	0xbde3ff09	-0.111326285
241	0xbd980393	-0.07422557
242	0xbd68b25c	-0.05681072
243	0x3d741c4b	0.059597295
244	0xbe07f38a	-0.13276497
245	0xbd8f22f7	-0.06989091
246	0xbc913dd0	-0.01772967
247	0xbd36a65e	-0.044592254
248	0xbd886381	-0.06659604
249	0x3d6e34d0	0.058155835
250	0x3bc6f5a2	0.006071762
251	0x3cca020e	0.024659183
252	0xbdb5e123	-0.08880832
253	0x3e8d8a7a	0.27644712
254	0xbe8f6ef0	-0.28014326
255	0xbcdd3aa1	-0.027005496

fc1.bias f4 [100]
0	0x3f0d79bb	0.5526387
1	0xbef4f254	-0.47841132
2	0x3ee9c7cf	0.45660254
3	0xbe974d4c	-0.2955116
4	0xbe9197f9	-0.28436258
5	0x3efaf050	0.4901147
6	0xbee195a3	-0.44059476
7	0xbecc99d3	-0.3996111
8	0xbf032786	-0.5123218
9	0xbf05af84	-0.5222094
10	0x3ebceffe	0.3690185
11	0x3e8b2258	0.2717464
12	0x3e8f6dd1	0.2801347
13	0xbee32892	-0.4436689
14	0x3ee1d088	0.4410441
15	0xbe5a4268	-0.21314394
16	0xbf0046f0	-0.5010824
17	0xbee895b8	-0.45426726
18	0xbf0aff9f	-0.54296297
19	0xbec2c527	-0.3804104
20	0x3edaaeda	0.42711526
21	0x3e168ba6	0.14701709
22	0x3eec57f8	0.46160865
23	0xbe8af405	-0.27139297
24	0x3ee3c95f	0.4448957
25	0x3e98da3f	0.2985401
26	0xbe78c0c7	-0.24292289
27	0x3e16fe28	0.1474539
28	0x3ec930b1	0.3929496
29	0x3efa772e	0.48919052
30	0xbe95e2e9	-0.2927468
31	0xbf0b4bc9	-0.54412514
32	0x3ea7a7ea	0.32745296
33	0xbe7711e6	-0.24127921
34	0xbf017822	-0.50573933
35	0x3ec7b1bd	0.3900279
36	0xbecee247	-0.4040701
37	0x3ee2d95a	0.4430645
38	0x3eb47d3b	0.35251793
39	0x3e889db1	0.2668281
40	0x3ea9d9fa	0.33174115
41	0xbee32cf7	-0.44370243
42	0x3f098150	0.5371294
43	0xbe2ecc1a	-0.17070046
44	0xbe0c5b6c	-0.1370675
45	0xbed86d64	-0.42270958
46	0xbf096dd1	-0.5368319
47	0xbef4a976	-0.47785538
48	0xbede599b	-0.4342774
49	0x3ee97b84	0.45602047
50	0x3f02cbf6	0.5109247
51	0xbeff71c3	-0.4989148
52	0x3e7cd87d	0.24691959
53	0x3e19c138	0.15015113
54	0xbea449ac	-0.32087457
55	0xbe9f106b	-0.31067213
56	0x3e817c83	0.25290307
57	0xbe8f4cb1	-0.27988198
58	0xbf075346	-0.5286144
59	0xbeb390c2	-0.3507138
60	0x3e970782	0.29497916
61	0x3eac6bb3	0.33675918
62	0xbe989dd6	-0.2980792
63	0xbe531841	-0.20614721
64	0x3e1fa51c	0.15590328
65	0xbf028142	-0.5097848
66	0x3e9b2438	0.3030107
67	0xbef6327c	-0.48085392
68	0xbe21dda1	-0.15807201
69	0x3eee810f	0.4658284
70	0x3eb7152a	0.35758334
71	0x3f0741b4	0.5283463
72	0xbe772b8a	-0.24137703
73	0xbed439d8	-0.4145038
74	0xbe8f8ad1	-0.28035596
75	0xbedcb6f8	-0.43108344
76	0xbeef7239	-0.46766832
77	0xbe9a5282	-0.30141073
78	0x3e8f247d	0.27957526
79	0xbec26929	-0.37970856
80	0xbee9c7b1	-0.45660165
81	0xbec4c9de	-0.38435262
82	0xbede314d	-0.4339699
83	0x3e9e7574	0.30948985
84	0xbee60abc	-0.44930065
85	0xbe7fbe68	-0.24974978
86	0xbf005d5d	-0.5014246
87	0xbef94048	-0.48681855
88	0xbf0285b5	-0.5098527
89	0x3c940435	0.018068412
90	0x3e9e6e7a	0.30943662
91	0x3ed323f8	0.4123838
92	0x3eda9a48	0.42695832
93	0xbe919db8	-0.28440642
94	0xbf00df66	-0.5034088
95	0x3ea7f9c4	0.32807744
96	0x3ef0329c	0.46913612
97	0xbec7bdbc	-0.39011943
98	0xbeecb906	-0.46234912
99	0xbeb00d1e	-0.34385008

fc2.weight f4 [100, 100]
0	0x3e30c626	0.17263088
1	0xbe292a7c	-0.16520113
2	0x3dde854d	0.10865269
3	0xbdb9ac16	-0.09066026
4	0xbd002951	-0.031289402
5	0x3e173888	0.14767659
6	0xbdc7f17d	-0.09762857
7	0xbda319dd	-0.079639174
8	0xbe04df6e	-0.12975857
9	0xbe1515b8	-0.14559066
10	0x3da2f725	0.07957295
11	0x3b548cd4	0.0032432573
12	0x3d8687a0	0.06568837
13	0xbe027454	-0.12739688
14	0x3db48df4	0.08816138
15	0xbccab9fa	-0.024746884
16	0xbdc5bc08	-0.09655005
17	0xbd9af51c	-0.07566282
18	0xbdfa65ae	-0.12226425
19	0xbe0ddb4a	-0.13853183
20	0x3e018c33	0.12651138
21	0x3b0ffadf	0.00219696
22	0x3e20a59c	0.15688175
23	0xbdbade64	-0.09124449
24	0x3e0819b0	0.13291049
25	0x3da20915	0.079118885
26	0xbd9c100f	-0.076202504
27	0xbc7f50e7	-0.015583253
28	0x3dc489b1	0.09596575
29	0x3daf761c	0.085674495
30	0xbe062849	-0.13101305
31	0xbe139af0	-0.14414573
32	0x3d8dc003	0.06921389
33	0xbd8eb55b	-0.069681846
34	0xbddc0fe7	-0.10745221
35	0x3e35f8a8	0.17770636
36	0xbe0be943	-0.13663201
37	0x3d2f1445	0.04274394
38	0x3dba4e40	0.09096956
39	0x3da986e7	0.08277684
40	0x3db2b335	0.08725587
41	0xbd4ecccb	-0.050488275
42	0x3dcde6cc	0.10053787
43	0xbd43f0f8	-0.047837228
44	0xb988ca05	-0.00026090458
45	0xbdbf1f64	-0.09332159
46	0xbe1d846c	-0.15382546
47	0xbde2dab4	-0.110768706
48	0xbda0bf9e	-0.07849048
49	0x3ddcf6b9	0.10789246
50	0x3ddff41d	0.10935233
51	0xbe18b055	-0.14911015
52	0x3d9e5508	0.07731062
53	0x3cece874	0.028919436
54	0xbd89ba91	-0.06725038
55	0xbdceeff6	-0.10104363
56	0x3d53369b	0.051565748
57	0xbd2b703a	-0.041855074
58	0xbdb10a93	-0.08644595
59	0xbe16f102	-0.14740375
60	0x3cd47682	0.025935415
61	0x3daca707	0.084302954
62	0xbd94f081	-0.07272435
63	0xbd673ac3	-0.056452524
64	0xbc67e78a	-0.014154324
65	0xbde148cf	-0.11000215
66	0x3d8d9bfb	0.069145165
67	0xbe3cc33c	-0.18433851
68	0xbccc1be5	-0.024915645
69	0x3ded42ff	0.11585044
70	0x3da2d30e	0.07950412
71	0x3e0598aa	0.13046518
72	0xbcfc4fec	-0.030799828
73	0xbd7d12a6	-0.061785363
74	0xbd75eb4c	-0.06003885
75	0xbdf90ed8	-0.12161034
76	0xbe482c43	-0.19548135
77	0xbd8a6e36	-0.06759302
78	0x3d7c1172	0.061540075
79	0xbd9c5a68	-0.07634431
80	0xbdeb8c76	-0.115014
81	0xbd926c1d	-0.07149527
82	0xbdb820ef	-0.089906566
83	0x3da0c7ef	0.07850634
84	0xbd898af9	-0.0671596
85	0xbc99782c	-0.01873406
86	0xbe175285	-0.14777572
87	0xbda1d73e	-0.07902382
88	0xbe317843	-0.17331032
89	0xbcf6ee9e	-0.030143078
90	0x3d675e25	0.056486268
91	0x3e2647dc	0.1623835
92	0x3dc46dd4	0.095912606
93	0xbd5c4c0f	-0.053783473
94	0xbda9a6b8	-0.08283752
95	0x3de59af6	0.11211197
96	0x3e0baa98	0.13639295
97	0xbdd6c12b	-0.104860626
98	0xbdcfa25e	-0.10138391
99	0xbe09a008	-0.13439953
100	0x3e05f9f2	0.13083628
101	0xbd88d3b2	-0.06681003
102	0x3d2d77de	0.042350642
103	0xbd68df7e	-0.056853764
104	0xbdcccc32	-0.09999885
105	0x3dba5c7c	0.09099671
106	0x3da5010d	0.08056841
107	0xbe992688	-0.2991221
108	0x3cda09f2	0.02661607
109	0xbd568e00	-0.052381516
110	0x3e11844a	0.1421062
111	0x3dd2c006	0.10290532
112	0x3d8e6633	0.06953087
113	0xbe22b6a1	-0.1588998
114	0x3dc70c5d	0.09719155
115	0xbdbf5dc7	-0.093440585
116	0xbe18cd41	-0.14922048
117	0xbdbdfca9	-0.09276707
118	0xbd3d8464	-0.046268836
119	0xbdf6db45	-0.12053541
120	0x3d748de8	0.059705645
121	0x3d4092cc	0.047014996
122	0x3dc79939	0.09746022
123	0xbdc56ff6	-0.096404955
124	0x3e2ee6cb	0.17080228
125	0x3e4da88c	0.20083827
126	0x3d4a4c64	0.049389258
127	0x3d8bc7d5	0.06825224
128	0x3e339ac7	0.17539512
129	0x3e8c6955	0.27424112
130	0xbd3f345c	-0.046680793
131	0xbe2b054b	-0.16701238
132	0xbd861f37	-0.065489225
133	0xbcd68b36	-0.026189428
134	0xbe95cf9e	-0.29259962
135	0x3d7fb18c	0.06242518
136	0xbd4a1630	-0.049337566
137	0x3dad76ef	0.084699504
138	0x3d7c3a19	0.061578844
139	0x3dd8ac34	0.1057972
140	0x3df93814	0.12168899
141	0xbe82f2bd	-0.2557582
142	0x3e644b51	0.22294356
143	0x3dd0f116	0.102022335
144	0xbe0d5a54	-0.13803989
145	0xbdc05192	-0.09390558
146	0xbd0b0558	-0.033940643
147	0xbdd57cca	-0.10424192
148	0xbe06251f	-0.13100098
149	0x3e430830	0.19046092
150	0x3e49a579	0.19692029
151	0xbd17b4a5	-0.03703751
152	0xbcaf6609	-0.021410959
153	0x3d559e5a	0.05215297
154	0xbd459fe4	-0.048248187
155	0xbd9e3217	-0.07724398
156	0xbcaf6a7a	-0.021413077
157	0xbd154cf1	-0.03645033
158	0xbe89c182	-0.26905447
159	0x3be4cc76	0.0069823815
160	0x3e790504	0.2431832
161	0x3dfdb9be	0.12388943
162	0x3daa8e60	0.08327937
163	0x3caadc50	0.020857006
164	0x3db8aec9	0.090177126
165	0xbdb246a9	-0.087048836
166	0x3dcdd196	0.10049741
167	0xbd7e5fa7	-0.06210294
168	0x3d9fe47b	0.07807251
169	0x3e36dcc0	0.17857647
170	0xbd272761	-0.04080904
171	0x3c11fb0c	0.008909952
172	0xbda607f3	-0.08106985
173	0xbe5aa9a0	-0.2135377
174	0xbe3b1baa	-0.18272272
175	0xbd52b504	-0.05144216
176	0xbd342cae	-0.043987922
177	0xbd469cd4	-0.048489407
178	0x3dac7fe1	0.084228285
179	0xbdede329	-0.11615593
180	0xbe80c216	-0.25148076
181	0xbe6f47b7	-0.23367201
182	0xbe3923d6	-0.18080077
183	0xbd67339c	-0.056445703
184	0xbe58c561	-0.21169044
185	0x3dee0621	0.11622263
186	0x3ccf2fc6	0.025291335
187	0xbdb30cfb	-0.0874271
188	0xbe55014a	-0.20801273
189	0x3dbb4326	0.09143667
190	0x3e4ad00d	0.19805928
191	0x3d30ef50	0.043196976
192	0x3e7cce21	0.24688007
193	0xbdc48e26	-0.09597425
194	0xbddee5ac	-0.1088365
195	0xbca628d0	-0.020283133
196	0x3e0793c3	0.1323996
197	0xbd4a86e4	-0.049445048
198	0xbdc7ca47	-0.09755378
199	0x3d18e83e	0.03733086
200	0x3e3d8d9e	0.18511054
201	0xbe2c4fb0	-0.16827273
202	0x3e1ac9de	0.15116069
203	0xbdc76173	-0.09735384
204	0x3c9f4ca6	0.019445729
205	0x3e65692a	0.22403398
206	0xbd8d80a7	-0.06909304
207	0xbd8e0819	-0.06935138
208	0xbdcb925b	-0.099400245
209	0xbda877a1	-0.082259424
210	0x3c255ad9	0.010092461
211	0xbb51ec14	-0.0032031583
212	0x3cb42e74	0.021994807
213	0xbe505db3	-0.20348243
214	0x3cc03cc9	0.023466485
215	0xbd6e9ff1	-0.058258
216	0xbd86f70c	-0.06590089
217	0xbdfba0cb	-0.12286528
218	0xbe578cbe	-0.21049783
219	0xbe41ff35	-0.1894501
220	0x3e3430c5	0.17596729
221	0xbd8105a2	-0.062999025
222	0x3e61bd4c	0.22044867
223	0xbe0626ff	-0.13100813
224	0x3e145243	0.14484505
225	0x3d886887	0.06660562
226	0xbdf7138c	-0.12064275
227	0xbd3502a6	-0.04419198
228	0x3ce7a402	0.028276447
229	0x3d22a079	0.03970382
230	0xbe1c221f	-0.15247391
231	0xbdf418c7	-0.119187884
232	0x3caeb935	0.021328548
233	0xbd6f07cb	-0.05835704
234	0xbd1d5e9d	-0.03842031
235	0x3e5796f3	0.21053676
236	0xbde360c4	-0.11102441
237	0x3d7570a3	0.059921872
238	0x3d09f1e7	0.03367796
239	0x3c8cca6a	0.017186362
240	0x3dcd2cc8	0.10018307
241	0xbd8b1bbe	-0.06792401
242	0x3cd38cc8	0.025823966
243	0xbd5cae62	-0.053877242
244	0x3cb4c62f	0.022067158
245	0xbda71ddc	-0.08159992
246	0xbdd672d3	-0.1047112
247	0xbdb20ae8	-0.086934865
248	0xbda5e196	-0.08099668
249	0x3e07f094	0.13275367
250	0x3de9db92	0.11418833
251	0xbe24ae73	-0.16082172
252	0xbbc1f622	-0.005919234
253	0xbca56a9d	-0.020192439
254	0xbd6c2050	-0.057648003
255	0xbe2188cf	-0.15774845

fc2.bias f4 [100]
0	0x3e765949	0.24057497
1	0x3dda2843	0.106522106
2	0x3e3c7d1e	0.18407103
3	0x3e5543a7	0.20826589
4	0x3e5bb119	0.21454276
5	0x3e0d6963	0.13809733
6	0x3e80fa6b	0.25191054
7	0xbdcbdb5e	-0.0995395
8	0x3e388d84	0.18022734
9	0xbe52c128	-0.20581496
10	0x3db87010	0.09005749
11	0x3e0a06e0	0.13479185
12	0x3e72ef91	0.237242
13	0xbdf6a5bd	-0.12043331
14	0x3e22cacd	0.15897675
15	0xbe4bbc24	-0.19895989
16	0x3e53c22b	0.20679538
17	0xbe265a19	-0.16245307
18	0xbe6c5771	-0.23080231
19	0x3e376d9c	0.17912906
20	0x3dfd72f5	0.12375442
21	0xbe343b98	-0.17600858
22	0x3e8552e5	0.26039806
23	0xbe661b2c	-0.22471303
24	0xbe86a1b5	-0.26295248
25	0xbe7d2c8b	-0.24724023
26	0x3dab03db	0.08350345
27	0x3e44d1f0	0.1922071
28	0x3e31113d	0.17291732
29	0xbe75af07	-0.23992549
30	0x3dd6b7eb	0.10484298
31	0xbe47171e	-0.19442412
32	0x3dda0f1c	0.10647413
33	0x3e5b5e47	0.21422683
34	0xbdbb7d87	-0.09154802
35	0x3e169b00	0.14707565
36	0xbe819463	-0.25308523
37	0x3e375f4f	0.17907451
38	0xbe37a5a2	-0.17934278
39	0x3e616464	0.22010952
40	0xbe2444d4	-0.16041881
41	0xbd8a6d9c	-0.067591876
42	0xbe6d8264	-0.23194271
43	0xbe2b0fb7	-0.16705213
44	0x3df553b0	0.11978853
45	0x3e424bab	0.18974178
46	0x3e3eb8e8	0.18625224
47	0xbe550b0e	-0.20804998
48	0x3e820f59	0.25402334
49	0x3e3dff83	0.18554501
50	0x3e3967f8	0.18106067
51	0xbe20bde7	-0.15697442
52	0xbdf14a78	-0.11781782
53	0xbe3eef7b	-0.18646042
54	0x3e751a07	0.2393571
55	0x3e75c8e9	0.24002422
56	0x3e86d15a	0.26331598
57	0xbe808bd7	-0.2510669
58	0x3e736ff5	0.23773177
59	0xbe492189	-0.19641699
60	0x3e51d8e5	0.20492895
61	0xbd99549e	-0.074868426
62	0x3e578823	0.21048026
63	0x3e7d525d	0.2473845
64	0x3e5f1076	0.21783623
65	0xbe8672ca	-0.26259452
66	0xbe0302a2	-0.12793973
67	0x3e0ac8bd	0.13553138
68	0xbe88cf44	-0.2672063
69	0xbe296bc4	-0.16545016
70	0x3e05fbe1	0.13084365
71	0xbe264609	-0.16237654
72	0x3e427d2d	0.18993063
73	0xbe575a1c	-0.21030468
74	0xbe0ab818	-0.13546789
75	0x3e408479	0.18800534
76	0xbe632ca3	-0.22184996
77	0xbe37bc38	-0.17942894
78	0x3dbe5c5c	0.0929496
79	0xbe37fdc8	-0.17967904
80	0xbd4d031c	-0.050051793
81	0xbdf5a27f	-0.11993884
82	0xbdb9971b	-0.09062024
83	0xbd83df08	-0.06439024
84	0xbe6526e0	-0.22378111
85	0x3e3bce8b	0.18340509
86	0xbe07e8f8	-0.13272464
87	0xbdb4900b	-0.088165365
88	0x3e67fbdc	0.2265467
89	0xbe08126f	-0.13288282
90	0xbe00153e	-0.12508103
91	0xbe074202	-0.13208774
92	0xbe40cb61	-0.18827583
93	0x3e563918	0.20920217
94	0xbdf4d9b9	-0.1195559
95	0x3e55c9b9	0.20877732
96	0xbe6da3b5	-0.2320698
97	0xbe802589	-0.25028637
98	0x3e4b1315	0.19831498
99	0xbe331510	-0.17488503

fc3.weight f4 [1, 100]
0	0x3ef19d64	0.47190392
1	0x3efb0c99	0.4903305
2	0x3ef35d85	0.47532287
3	0x3ef82e15	0.48472658
4	0x3ef98e79	0.4874151
5	0x3ef49b45	0.4777471
6	0x3ef3e4bd	0.4763545
7	0xbef676a9	-0.48137406
8	0x3ef77272	0.48329502
9	0xbef574f5	-0.47940794
10	0x3eeea756	0.46612042
11	0x3ef9f787	0.4882166
12	0x3ef5218c	0.47877157
13	0xbeef8a8a	-0.46785384
14	0x3ef9256c	0.48661363
15	0xbef85200	-0.4850006
16	0x3ef5c733	0.4800354
17	0xbef66573	-0.48124275
18	0xbef7887b	-0.48346314
19	0x3ef17a7f	0.4716377
20	0x3ef74977	0.48298237
21	0xbef4913b	-0.47767052
22	0x3ef7c1f6	0.48390168
23	0xbef44a31	-0.47712854
24	0xbef1c32c	-0.47219217
25	0xbeeec5d3	-0.46635303
26	0x3eed8269	0.46388558
27	0x3ef90648	0.48637605
28	0x3efa78b7	0.48920223
29	0xbef8a3f8	-0.48562598
30	0x3ef207ad	0.4727148
31	0xbef3644f	-0.47537467
32	0x3ef71064	0.48254693
33	0x3ef233cb	0.4730514
34	0xbef79ee8	-0.48363423
35	0x3ef80aaa	0.48445636
36	0xbefd5844	-0.49481404
37	0x3ef61908	0.48065972
38	0xbef4f480	-0.4784279
39	0x3ef69203	0.48158273
40	0xbef2fe60	-0.47459698
41	0xbef4a7e9	-0.47784355
42	0xbef7fd47	-0.48435423
43	0xbef91746	-0.4865057
44	0x3ef50462	0.47854906
45	0x3efb10cb	0.4903625
46	0x3ef28efb	0.4737471
47	0xbef3a07c	-0.47583377
48	0x3ef4a825	0.47784534
49	0x3ef4a6d6	0.47783536
50	0x3ef89972	0.4855457
51	0xbef68aa3	-0.48152646
52	0xbef6efdc	-0.48229873
53	0xbef7d866	-0.48407286
54	0x3ef50427	0.4785473
55	0x3ef6d59f	0.48209855
56	0x3ef78aa3	0.4834796
57	0xbeecf657	-0.46281692
58	0x3ef67cc6	0.4814207
59	0xbef23baf	-0.4731116
60	0x3ef5fe42	0.48045546
61	0xbef67cc5	-0.48142067
62	0x3ef28a50	0.4737115
63	0x3ef4acc8	0.47788072
64	0x3ef6bad5	0.48189417
65	0xbef86d26	-0.48520774
66	0xbef54570	-0.4790454
67	0x3ef88858	0.48541522
68	0xbeef40ec	-0.4672922
69	0xbeed3ba1	-0.46334556
70	0x3ef931b0	0.4867072
71	0xbef4082d	-0.47662488
72	0x3ef549ed	0.47907963
73	0xbef86cae	-0.48520416
74	0xbef9c20e	-0.48780864
75	0x3ef4a377	0.47780964
76	0xbef6d10a	-0.4820636
77	0xbefaef73	-0.4901081
78	0x3ef926dc	0.4866246
79	0xbefa1365	-0.48842922
80	0xbeebfa0f	-0.46089217
81	0xbee99a0b	-0.45625338
82	0xbef3c661	-0.4761229
83	0xbef84509	-0.4849017
84	0xbef46895	-0.4773604
85	0x3ef4580c	0.47723424
86	0xbef0d592	-0.4703794
87	0xbeee2b34	-0.46517336
88	0x3ef2fcd2	0.47458512
89	0xbef9d95a	-0.4879864
90	0xbef088db	-0.46979412
91	0xbeee6ec0	-0.4656887
92	0xbef8cf37	-0.48595592
93	0x3efb5679	0.4908941
94	0xbef63163	-0.48084554
95	0x3ef8ba82	0.48579794
96	0xbef71f95	-0.48266283
97	0xbefcfb52	-0.49410492
98	0x3eec29f9	0.46125773
99	0xbef40302	-0.47658545
