mujoco/gail/save_model/ckpt_1098.pth.tar (torch, 144879 bytes, 16 tensors)

fc1.weight f4 [100, 11]
-0.007959238 -0.29316598 0.24390554 -0.1071867 0.037722826 0.05932514 -0.19202308 0.23544464
0.29310948 0.22766855 0.14698587 0.48556048 -0.120970935 0.01744615 -0.28420427 0.24773923
0.08626658 0.04412827 0.102288276 0.19466288 0.12631835 0.5027783 0.43592587 -0.090622894
-0.124138914 0.20665507 0.18025993 -0.33678773 0.049421575 0.31601515 0.1580547 0.0145966755
0.14570905 0.2571815 -0.17292629 -0.09258525 0.17820357 0.04865893 0.20278466 -0.37718502
-0.15384728 -0.36577252 0.2520198 -0.35698834 0.11559239 0.300771 0.2641843 -0.37296817
-0.037595943 0.21704037 -0.2456745 -0.039513428 0.2181368 0.021255482 0.12471078 0.4118505
-0.06336045 -0.1912783 0.14551747 0.38531864 0.028967887 0.15740387 -0.24773721 0.043954495
-0.123005 0.08211354 0.37893 -0.3036898 0.35090932 -0.18639952 -0.11081806 -0.22598065
0.35984874 -0.07596682 0.05134415 -0.14237061 -0.0917803 0.017452264 0.36973432 -0.569223
-0.2400844 0.20657715 0.17025858 0.18773969 0.0021293913 -0.3489828 0.19990516 0.28018925
-0.1365653 0.24234337 -0.34380007 -0.38196462 0.23517278 0.27778605 0.13253433 -0.12330412
0.29825994 -0.2216382 0.118500516 -0.014677302 0.14930798 -0.12144225 -0.01581907 0.36325133
-0.115618415 0.1251851 0.30472136 0.16570714 0.2136441 -0.061405152 -0.37870193 -0.1147126
0.013884097 -0.4670421 -0.1680196 0.3383073 -0.13078171 0.23408395 0.016447753 0.23627013
-0.084745295 -0.2771832 -0.096233934 0.24185888 -0.06607127 0.17625794 0.4121546 -0.005700344
-0.073425114 -0.021643382 -0.23543575 0.22843638 0.011586271 0.22922233 0.14199494 0.2654757
0.10499427 -0.23986177 0.008045741 -0.076145984 0.40152818 0.00040529724 0.11603909 0.047799055
0.1441072 -0.05727672 0.29326013 -0.0836909 -0.14010072 -0.009146262 0.19719674 0.46364683
-0.33708727 0.059476234 -0.3617352 -0.07880259 0.3004505 0.2744365 0.020945298 -0.018709354
0.33063808 0.4534261 0.1378277 0.27594286 0.048054732 -0.09455589 -0.098144084 0.3971294
0.26766172 0.32445067 -0.02736193 -0.14835978 -0.0665699 0.38026166 0.054825418 0.023139168
0.26804376 -0.43195507 0.07641257 0.232582 0.13962393 0.29707474 -0.2272626 0.41047022
0.4765837 0.20503409 0.23945317 -0.008105173 -0.31653082 -0.021539552 -0.09199808 -0.08335912
-0.37843844 0.17063202 0.072550006 -0.20327885 -0.09633283 -0.242679 0.31259573 0.34751174
0.17646603 -0.27184337 -0.060662713 0.3405751 -0.011772848 0.007907913 -0.2485117 -0.26468092
0.16553341 -0.1555932 0.39266992 -0.5312513 0.016334487 0.30127802 -0.16600452 -0.27319893
-0.34630355 -0.328799 -0.026859744 -0.3039905 -0.3295767 -0.30833164 -0.023475844 0.324562
-0.15982239 -0.06292258 -0.17907144 -0.0387292 0.0069645843 -0.14010243 -0.29557768 0.36302572
0.048207764 0.27561945 0.2826406 0.47425625 -0.30792537 -0.033356383 0.024150304 -0.07295224
0.27685168 -0.097292006 0.11771732 -0.23036896 0.035929017 0.16651109 0.26644444 0.3786362
-0.1936461 -0.122343324 -0.3060256 0.11584964 -0.176875 0.06906491 0.15727134 -0.29071257
00000000: 7767 02bc da19 96be 60c2 793e b384 dbbd
00000010: 4083 1a3d ebfe 723d b3a1 44be 6618 713e
00000020: 7212 963e f221 693e 7783 163e 629b f83e
00000030: 9cbf f7bd 3aeb 8e3c 3983 91be 5aaf 7d3e
00000040: 88ac b03d d8bf 343d 847c d13d b555 473e
00000050: 9959 013e 14b6 003f ad31 df3e 7f98 b9bd
00000060: 8b3c febd 639d 533e 0f96 383e 716f acbe
00000070: 476e 4a3d bdcc a13e 17d9 213e e526 6f3c
00000080: c134 153e 4bad 833e 9713 31be 569d bdbd
00000090: ff7a 363e 964e 473d c8a6 4f3e 651e c1be
000000a0: 248a 1dbe 8946 bbbe bd08 813e 2dc7 b6be
000000b0: b4bb ec3d a8fe 993e 2a43 873e aff5 bebe
000000c0: 34fe 19bd d53f 5e3e 1992 7bbe d5d8 21bd
000000d0: 415f 5f3e fa1f ae3c 5e68 ff3d 12de d23e
000000e0: 20c3 81bd 75de 43be 8802 153e 7c48 c53e
000000f0: 104e ed3c 7b2e 213e d3ae 7dbe a109 343d
00000100: 0cea fbbd 252b a83d 1d03 c23e 3b7d 9bbe
00000110: 63aa b33e 84df 3ebe 94f4 e2bd 7967 67be
00000120: 183e b83e 7e94 9bbd 3e4e 523d 9ac9 11be
00000130: 4ff7 bbbd 0df8 8e3c d14d bd3e 99b8 11bf
00000140: afd8 75be f688 533e 4458 2e3e d53e 403e
00000150: 428d 0b3b e0ad b2be f0b3 4c3e f774 8f3e
00000160: c6d7 0bbe dc28 783e 9006 b0be de90 c3be
00000170: 22d1 703e f939 8e3e 14b7 073e df86 fcbd
00000180: 87b5 983e 20f5 62be 66b0 f23d 1179 70bc
00000190: 31e4 183e b7b6 f8bd ff96 81bc 14fc b93e
000001a0: 59c9 ecbd 8630 003e 7004 9c3e 22af 293e
000001b0: 85c5 5a3e f883 7bbd 38e5 c1be 71ee eabd
000001c0: 207a 633c 2420 efbe 540d 2cbe 9d36 ad3e
000001d0: a4eb 05be b4b3 6f3e 70bd 863c ccf0 713e
000001e0: f18e adbd f5ea 8dbe 4c16 c5bd dba9 773e
000001f0: 6050 87bd f67c 343e ed05 d33e f4c9 babb
00000200: e85f 96bd 764d b1bc 1216 71be 3aeb 693e
00000210: 58d4 3d3c 42b9 6a3e 1f67 113e 6eec 873e
00000220: 3c07 d73d 539e 75be 49d2 033c 6df2 9bbd
00000230: 1a95 cd3e 137e d439 e7a5 ed3d f1c8 433d
00000240: d690 133e fe9a 6abd 3126 963e 2266 abbd
00000250: 9076 0fbe 34da 15bc f1ed 493e 1e63 ed3e
00000260: b496 acbe 5a9d 733d 5b35 b9be 4163 a1bd
00000270: a6d4 993e f182 8c3e 7995 ab3c 5c44 99bc
00000280: 6549 a93e 7727 e83e b422 0d3e 6248 8d3e
00000290: 0ad5 443d 85a6 c1bd c4ff c8bd 8b54 cb3e
000002a0: f50a 893e 661e a63e 2026 e0bc a0eb 17be
000002b0: cd55 88bd a8b1 c23e 9e90 603d 5a8e bd3c
000002c0: 083d 893e 3729 ddbe 327e 9c3d fa29 6e3e
000002d0: 93f9 0e3e 2e1a 983e 87b7 68be 2729 d23e
000002e0: c702 f43e 75f4 513e 3633 753e 8fcb 04bc
000002f0: 5410 a2be b773 b0bc 7d69 bcbd 30b8 aabd
00000300: afc2 c1be 29ba 2e3e 1995 943d 5528 50be
00000310: 264a c5bd d880 78be 8c0c a03e 0fed b13e
00000320: 83b3 343e 0e2f 8bbe 7779 78bd dc5f ae3e
00000330: e7e2 40bc 3190 013c da79 7ebe 4284 87be
00000340: 9781 293e d353 1fbe 080c c93e 1600 08bf
00000350: e7cf 853c 1d41 9a3e 17fd 29be bbe0 8bbe
00000360: b34e b1be 5858 a8be f708 dcbc a5a4 9bbe
00000370: 47be a8be a5dd 9dbe 6a50 c0bc fe2c a63e
00000380: 7ba8 23be 8edd 80bd 815e 37be 82a2 1ebd
00000390: 2b37 e43b 0377 0fbe f555 97be 82de b93e
000003a0: 8175 453d fe1d 8d3e 45b6 903e b7d1 f23e
000003b0: 65a8 9dbe b4a0 08bd dcd6 c53c fc67 95bd
000003c0: 81bf 8d3e 0841 c7bd c715 f13d d7e5 6bbe
000003d0: 4e2a 133d e281 2a3e 686b 883e 9bdc c13e
000003e0: 2a4b 46be 238f fabd 63af 9cbe 9342 ed3d
000003f0: b81e 35be e771 8d3d bd0b 213e 47d8 94be

fc1.bias f4 [100]
-0.24806522 -0.2435219 -0.008633289 0.19502413 0.02449907 -0.2164436 -0.14389019 -0.07409936
-0.15216869 -0.3933919 0.05959421 0.23923975 -0.20053391 0.19652975 0.1548334 -0.2507495
0.27427214 0.27129033 -0.11733905 0.06946694 0.04183051 -0.21665262 0.17443669 -0.26105556
0.12700431 0.07892967 -0.27984354 -0.36180234 0.22975138 0.2585487 -0.14229928 0.09396789
0.17060432 0.16497117 -0.3901308 0.08639298 0.23310429 -0.07351153 -0.24593669 0.17755154
0.20469306 0.21790995 0.0005661074 -0.39477283 0.029350134 0.08442459 -0.3396456 -0.30338246
0.18588139 0.4288767 0.08531882 0.30831262 -0.29203978 -0.13505551 0.0017579967 0.24675694
-0.03401727 0.31475544 0.310419 0.29436144 -0.17205541 0.3030269 0.3628628 0.07001797
-0.1583465 -0.37273073 0.016760552 -0.119877934 0.010383993 0.01983503 0.32606274 -0.025121372
0.2725516 0.15956965 -0.19931696 -0.28320017 0.1578615 0.14078963 0.2764209 0.37104216
-0.29813334 -0.28331286 0.14577357 0.23641239 0.26376325 -0.41428337 -0.25529307 0.31377202
0.250526 -0.19036566 0.29934734 0.3337273 -0.03307835 0.36128503 -0.28263283 0.22648384
0.26299587 -0.18410125 0.2217361 0.29288465
00000000: cf04 7ebe ce5d 79be a372 0dbc 68b4 473e
00000010: 46b2 c83c 64a3 5dbe f357 13be 68c1 97bd
00000020: 1cd2 1bbe aa6a c9be 0f19 743d 44fb 743e
00000030: c358 4dbe 183f 493e a68c 1e3e 3d62 80be
00000040: 666d 8c3e 91e6 8a3e 754f f0bd af44 8e3d
00000050: 7856 2b3d 2fda 5dbe 889f 323e 13a9 85be
00000060: 6b0d 023e e1a5 a13d a747 8fbe 283e b9be
00000070: f243 6b3e 7f60 843e e7b6 11be 3d72 c03d
00000080: e6b2 2e3e 34ee 283e 39bf c7be cdee b03d
00000090: e4b2 6e3e 378d 96bd d4d6 7bbe 12d0 353e
000000a0: 0f9b 513e c923 5f3e d366 143a aa1f cabe
000000b0: b16f f03c cde6 ac3d 07e6 adbe f254 9bbe
000000c0: b157 3e3e ba95 db3e a2bb ae3d 27db 9d3e
000000d0: 3d86 95be fe4b 0abe 956c e63a daad 7c3e
000000e0: b155 0bbd a027 a13e 3def 9e3e 8bb6 963e
000000f0: 4b2f 30be 5826 9b3e 27c9 b93e 9565 8f3d
00000100: 9625 22be 90d6 bebe 6d4d 893c 9082 f5bd
00000110: a021 2a3c 137d a23c b2f1 a63e 56cb cdbc
00000120: e28b 8b3e 3a66 233e bf19 4cbe 9dff 90be
00000130: 72a6 213e 282b 103e 0a87 8d3e 3df9 bd3e
00000140: efa4 98be 620e 91be ab45 153e 1716 723e
00000150: fa0b 873e f31c d4be c6b5 82be baa6 a03e
00000160: f244 803e 37ef 42be 0e44 993e 4ede aa3e
00000170: 2a7d 07bd 5afa b83e 40b5 90be 61eb 673e
00000180: 65a7 863e 0a85 3cbe ca0e 633e faf4 953e

fc2.weight f4 [100, 100]
0.033118136 -0.008737487 0.002979728 0.029658696 0.04181854 -0.059294477 -0.050955404 -0.08626524
0.0083988495 -0.07855989 0.09293632 -0.04125648 0.13694514 0.20997293 0.118798435 0.18534657
-0.057694193 -0.07513544 -0.14530899 0.10713619 0.08526379 0.09175592 -0.010448252 -0.03236657
-0.09758837 -0.0054781176 -0.055333704 -0.11003793 -0.23038124 -0.09105709 0.050586734 -0.02611544
0.21350943 -0.009772829 0.2097684 0.16489764 -0.15742812 0.11913676 -0.051403746 -0.062837146
0.030567177 -0.052329313 0.13132615 0.12528476 -0.020981496 0.06777149 -0.094009146 0.0027088362
-0.04113044 -0.041301355 0.0058472846 -0.073724896 0.11598549 -0.031924132 -0.11031644 -0.010809194
0.017088434 0.22570424 0.08693817 0.01456398 0.017828027 0.0056697605 0.07178446 -0.11696366
0.1147207 0.066153646 0.13877365 0.044799563 -0.14584155 -0.22651649 -0.0691037 -0.04352474
0.07515109 0.043987516 0.26973397 -0.22605586 -0.10826987 0.27923465 -0.06253319 -0.17891462
-0.03495074 0.033519667 0.09669307 0.119609304 -0.09280237 -0.02097208 0.2241578 -0.061804652
-0.19412164 0.15563375 -0.0491943 -0.049514715 -0.122435376 -0.11749347 -0.09220689 0.00047991425
0.10187066 -0.11592812 0.019115116 0.08043772 -0.15109122 -0.10195897 0.108013645 0.16147342
-0.095599726 -0.0053302897 0.017164497 0.21480182 0.025036383 0.08798289 0.120351404 -0.17660576
-0.09037671 0.031362917 0.025618743 -0.019457767 0.13279465 0.09258782 -0.066709526 0.1126732
-0.0643538 0.06902933 0.1341364 0.042619653 -0.12593539 0.029536914 -0.063084595 -0.07007037
-0.028992899 0.206376 -0.20221998 -0.07675658 -0.0053572627 -0.005998436 -0.061869003 0.04402658
0.039659504 0.20790619 0.037144173 -0.068614624 -0.033378992 -0.14611274 -0.11696042 0.098811105
-0.049996316 -0.13203047 0.047241665 -0.028700264 0.0632237 0.013166092 0.06245208 -0.101329386
0.056505244 -0.016431633 0.065692134 0.13473763 0.058433995 -0.029088764 -0.03640182 -0.055447668
0.07012826 -0.002493097 -0.016193612 0.110257946 -0.20720121 -0.07938684 0.02657347 0.10856668
0.09966468 0.24687625 0.16801439 -0.16305757 0.026696991 -0.11165458 -0.06719005 -0.17705928
-0.031058045 -0.052906048 -0.022394177 0.2294772 -0.107829735 -0.07593283 -0.11954216 -0.11673093
0.05709844 0.03709731 0.10879487 -0.05878589 -0.089975536 0.08909109 0.15476345 0.010786407
-0.039484806 0.10966212 -0.0026709195 0.10953245 -0.022989754 -0.016292406 0.03136096 0.04617517
0.010251599 -0.14086829 0.058654457 -0.009199805 -0.030328553 -0.078953855 -0.099685095 -0.2217066
0.09088254 0.03969795 -0.07379192 0.22971804 0.033357535 0.28932256 0.16824938 -0.052474983
0.060790837 0.020073583 -0.025118785 0.024615016 0.27421442 -0.24790725 0.06050882 -0.17833954
-0.08658846 0.008804795 0.03734227 0.0602265 -0.07002674 0.11945598 -0.035746478 -0.056337673
0.16428313 -0.08195285 -0.042519312 0.14615455 -0.015079995 0.009547578 -0.2267865 0.013442209
0.13619909 -0.07614349 0.002499708 0.16954204 0.10207904 -0.03683424 0.079519376 -0.11195318
-0.056504592 -0.07092924 0.047345042 -0.026818257 -0.029330729 -0.020913 -0.09577821 -0.015938498
00000000: e2a6 073d ad27 0fbc 8a47 433b cbf6 f23c
00000010: eb49 2b3d c4de 72bd 9db6 50bd d5ab b0bd
00000020: 549b 093c 02e4 a0bd 6655 be3d 8efc 28bd
00000030: 593b 0c3e 2503 573e 984c f33d 7ecb 3d3e
00000040: bf50 6cbd 9ce0 99bd e1cb 14be 386a db3d
00000050: c89e ae3d 87ea bb3d 252f 2bbc cf92 04bd
00000060: 69dc c7bd c881 b3bb 98a5 62bd 915b e1bd
00000070: 0fe9 6bbe 247c babd 0934 4f3d 0cf0 d5bc
00000080: 37a2 5a3e 371e 20bc 87cd 563e edda 283e
00000090: d634 21be f9fd f33d bc8c 52bd c3b0 80bd
000000a0: 0468 fa3c 4357 56bd 5d7a 063e a64a 003e
000000b0: 63e1 abbc c7cb 8a3d de87 c0bd bb86 313b
000000c0: 6478 28bd 9c2b 29bd 949a bf3b 14fd 96bd
000000d0: cd89 ed3d e1c2 02bd 96ed e1bd 0c19 31bc
000000e0: 0bfd 8b3c 031f 673e a40c b23d c29d 6e3c
000000f0: 150c 923c 66c9 b93b bb03 933d a58a efbd
00000100: b0f2 ea3d 907b 873d ae1a 0e3e bf7f 373d
00000110: 7d57 15be f0f3 67be 3e86 8dbd ff46 32bd
00000120: d1e8 993d 412c 343d 921a 8a3e 307b 67be
00000130: 98bc ddbd d8f7 8e3e 6711 80bd 6535 37be
00000140: 8228 0fbd eb4b 093d 0407 c63d b9f5 f43d
00000150: 2b0f bebd a4cd abbc 9f89 653e e026 7dbd
00000160: d3c7 46be 745e 1f3e f67f 49bd f1cf 4abd
00000170: 66bf fabd 6ba0 f0bd f7d6 bcbd 009d fb39
00000180: 91a1 d03d b96b edbd 4e97 9c3c 88bc a43d
00000190: a8b7 1abe ddcf d0bd 4236 dd3d 4a59 253e
000001a0: cac9 c3bd b6a9 aebb 8f9c 8c3c 02f5 5b3e
000001b0: 1a19 cd3c 6030 b43d cc7a f63d 24d8 34be
000001c0: 6d17 b9bd 6776 003d 66de d13c e565 9fbc
000001d0: 52fb 073e af9e bd3d 019f 88bd 35c1 e63d
000001e0: edcb 83bd 405f 8d3d 0d5b 093e f291 2e3d
000001f0: 35f5 00be 66f7 f13c 7f32 81bd 0e81 8fbd
00000200: 8482 edbc 3b54 533e c112 4fbe 8e32 9dbd
00000210: fa8b afbb 878e c4bb 5a6a 7dbd 3755 343d
00000220: 0172 223d 5ce5 543e 7d24 183d d385 8cbd
00000230: 69b8 08bd 949e 15be f288 efbd 7a5d ca3d
00000240: f0c8 4cbd ff32 07be 7a80 413d d11c ebbc
00000250: 6d7b 813d 98b6 573c c1cd 7f3d c885 cfbd
00000260: 0b72 673d a29b 86bc 9989 863d a9f8 093e
00000270: 7c58 6f3d 8f4b eebc 131a 15bd 181d 63bd
00000280: 689f 8f3d 3a63 23bb 77a8 84bc ebce e13d
00000290: 8e2c 54be 9195 a2bd 9bb0 d93c 3558 de3d
000002a0: ff1c cc3d 21cd 7c3e f70b 2c3e 90f8 26be
000002b0: a6b3 da3c 28ab e4bd f09a 89bd 074f 35be
000002c0: 716d febc 03b4 58bd fe73 b7bc 12fc 6a3e
000002d0: d6d5 dcbd ac82 9bbd 85d2 f4bd a010 efbd
000002e0: 0ee0 693d 59f3 173d d8cf de3d 79c9 70bd
000002f0: 1845 b8bd 6475 b63d 4f7a 1e3e 78b9 303c
00000300: d2ba 21bd 8996 e03d 980a 2fbb 8d52 e03d
00000310: 0255 bcbc a777 85bc 5a74 003d 2d22 3d3d
00000320: 53f6 273c c73f 10be a83f 703d c7ba 16bc
00000330: 9673 f8bc 8fb2 a1bd b327 ccbd 0e07 63be
00000340: a020 ba3d 519a 223d 3820 97bd 353b 6b3e
00000350: e9a1 083d 1622 943e 9149 2c3e 02f0 56bd
00000360: d0ff 783d 5b71 a43c e9c5 cdbc 6ea5 c93c
00000370: d565 8c3e 66db 7dbe 19d8 773d a49e 36be
00000380: 4a55 b1bd fd41 103c 35f4 183d 10b0 763d
00000390: 2e6a 8fbd 56a5 f43d e66a 12bd 55c2 66bd
000003a0: d639 283e e5d6 a7bd bb28 2ebd 8aa9 153e
000003b0: 1512 77bc 726d 1c3c b83a 68be b63c 5c3c
000003c0: c677 0b3e 1ef1 9bbd 24d2 233b 6e9c 2d3e
000003d0: d10e d13d 80df 16bd 0edb a23d b547 e5bd
000003e0: 5c71 67bd 5943 91bd e0ec 413d f6b1 dbbc
000003f0: ff46 f0bc bd51 abbc 5e27 c4bd 7491 82bc

fc2.bias f4 [100]
-0.13036875 0.088366605 -0.006351475 -0.09017535 0.02320629 -0.09174318 0.074020185 -0.00030357568
0.04939591 -0.35926494 0.017045531 0.19376007 0.03189808 -0.16874786 0.029181182 -0.040891152
-0.17266126 0.28147578 -0.03039473 0.1705149 0.019232688 0.057820868 -0.12736918 -0.008535778
-0.047478568 0.20705883 -0.0048060017 0.056957755 -0.21995628 -0.025661794 0.047036223 0.034624685
0.039501093 0.14847048 0.012901423 0.1714212 0.04425499 -0.08454308 -0.16323188 -0.0056714304
-0.11894764 0.03024486 0.031369325 -0.008138486 0.09450892 0.051497538 -0.09251658 -0.03284245
-0.072552405 0.06870984 0.11681299 -0.090731 0.14455451 -0.22562593 0.14068085 0.10852617
-0.11581451 0.14897355 -0.034929484 -0.029632395 -0.100960776 0.0716476 0.0009980921 0.10190145
-0.07668114 0.15499203 0.033339523 -0.041092023 -0.021034975 0.040063217 0.15201867 0.03462382
0.06424222 0.09493358 0.029056558 0.06787945 -0.11096351 0.022724656 -0.119387865 -0.08702083
0.050476693 -0.22177628 -0.031566486 0.007123024 0.10136729 0.11776181 -0.03604496 -0.09051967
0.23836529 -0.019916778 -0.08992373 -0.012303676 0.112648495 0.058948398 -0.12855299 0.07196856
0.36469346 0.06992615 -0.054714184 0.0075005232
00000000: 637f 05be 8df9 b43d 0920 d0bb dbad b8bd
00000010: 1e1b be3c d9e3 bbbd e597 973d 3d29 9fb9
00000020: 5e53 4a3d 93f1 b7be 12a3 8b3c 0a69 463e
00000030: 90a7 023d 3dcc 2cbe 600d ef3c 7b7d 27bd
00000040: 1dce 30be 981d 903e 5efe f8bc 759b 2e3e
00000050: df8d 9d3c 93d5 6c3d 116d 02be a6d9 0bbc
00000060: e378 42bd 3b07 543e aa7b 9dbb 894c 693d
00000070: 383c 61be af38 d2bc 0ea9 403d 9dd2 0d3d
00000080: e6cb 213d a508 183e 7d60 533c 0a89 2f3e
00000090: b844 353d ec24 adbd 4226 27be 68d7 b9bb
000000a0: d29a f3bd 12c4 f73c 1f7d 003d 4957 05bc
000000b0: e58d c13d 15ef 523d 5579 bdbd ce85 06bd
000000c0: 5b96 94bd bfb7 8c3d a63b ef3d 2dd1 b9bd
000000d0: 1906 143e 7c0a 67be a40e 103e f842 de3d
000000e0: 2830 edbd 868c 183e 3812 0fbd a3bf f2bc
000000f0: 86c4 cebd fabb 923d 6ad2 823a b5b1 d03d
00000100: 000b 9dbd 3bb6 1e3e 068f 083d 1c50 28bd
00000110: 8a51 acbc 5419 243d c8aa 1b3e b5d1 0d3d
00000120: 6d91 833d 896c c23d 0508 ee3c 6204 8b3d
00000130: d640 e3bd 0f29 ba3c a081 f4bd fa37 b2bd
00000140: a6c0 4e3d 5219 63be dc4b 01bd 4268 e93b
00000150: a799 cf3d 1b2d f13d e1a3 13bd 6062 b9bd
00000160: 0816 743e 8328 a3bc ef29 b8bd 5c95 49bc
00000170: 41b4 e63d e073 713d 65a3 03be 4164 933d
00000180: 1ab9 ba3e 7135 8f3d fb1b 60bd f3c6 f53b

fc3.weight f4 [3, 100]
0.025861 0.09106365 -0.00825738 -0.15695757 0.13370426 0.060128164 0.114315376 -0.08518642
-0.008648991 -0.09427045 0.055496376 0.10708675 -0.054164134 0.009558397 0.019453224 -0.104778856
-0.003226209 0.12993032 -0.022318227 -0.04661294 0.11577863 0.06709763 -0.058151122 0.08160075
-0.022376264 0.0010733901 -0.062392578 -0.015652645 0.0038270662 -0.0031283724 -0.055311084 -0.12880014
0.15445483 0.031282023 -0.1139128 0.099642895 0.037916373 -0.08217201 -0.035725545 -0.05458283
-0.085341804 0.06662721 0.02428717 -0.07263841 0.09550254 0.10588618 -0.21703881 -0.033917464
-0.07185916 0.012639142 -0.038947012 0.070009775 0.064913325 -0.045844603 0.08658449 0.07689314
0.26352364 0.08972163 0.012896748 0.011017151 -0.02665904 0.08106261 -0.08902874 -0.008475696
-0.031978693 0.039506838 0.04740379 0.017369565 0.06044195 -0.032061715 -0.034712873 0.06196657
-0.12793785 0.09791807 0.124676526 0.14761436 0.06845824 -0.0067104804 0.024488818 -0.057603367
0.039346386 0.050753534 -0.018167501 0.16459703 -0.0077782017 -0.023199642 -0.07640803 0.09970709
-0.010247606 0.0008088711 0.09083946 0.07598172 0.036794882 0.20478803 0.0005631795 0.052522637
0.09988181 0.06846111 -0.05979728 -0.01429019 0.113216005 -0.064696185 0.20827682 -0.0011671849
-0.08262541 -0.07480519 -0.043111674 -0.07402463 -0.08340831 -0.18222213 0.015409154 0.07056175
-0.062483292 -0.13818568 -0.111134015 -0.10223843 -0.0013816945 0.09531994 0.06780578 0.14496581
0.073450394 0.024065046 -0.24604833 0.01036184 -0.0033494565 -0.09081234 -0.0939583 0.035552494
-0.13520952 0.2413573 0.086384065 0.13977253 -0.011233057 -0.081478454 -0.0007872814 0.094353974
-0.14407541 -0.0009448878 0.0043758135 0.042674474 0.05670687 -0.11486762 -0.1104013 0.029368123
-0.004311015 -0.030073384 -0.16887917 -0.014647502 0.085729554 0.026852857 -0.104527585 0.021493683
0.18153921 -0.11145677 0.0747389 -0.07062781 0.0854757 -0.104060754 0.0038515304 0.092977084
0.121518366 -0.11278541 -0.18834506 -0.102164306 0.0010110771 0.060795378 -0.13661456 -0.02933029
0.038029466 0.0522262 -0.062713616 -0.06277433 0.09285373 0.088902816 -0.15632324 -0.0793887
0.19762734 0.0014280669 0.05347481 0.057235282 -0.031491607 -0.070906185 -0.013116488 -0.15775342
-0.07895353 0.05737232 -0.03982024 -0.14305589 0.21110342 0.05123323 -0.16538449 0.036785506
-0.098334454 -0.06323009 0.121064015 -0.06079407 0.19898504 -0.14174868 0.012447847 0.19604056
-0.11487859 -0.027206318 0.069221735 0.013344926 -0.25693855 0.020822836 -0.30416834 -0.34062284
0.04798763 -0.2163269 0.15890229 -0.044627205 0.0028787174 -0.066087335 0.076738596 0.022217061
0.12692092 -0.0089137815 0.025269553 0.04472692 0.018501611 0.1637305 -0.10110256 -0.20825711
0.001588869 0.107976176 0.018845284 0.03487678 -0.07054083 -0.11751935 -0.14203013 -0.26752305
-0.043079734 0.26288787 -0.111546464 -0.09070979 -0.12184419 -0.08625316 -0.10864563 -0.035031036
-0.017832566 0.11208861 0.033678893 0.03441306 -0.03120388 0.00023544149 0.013540241 0.13645387
-0.028248426 -0.0034097258 0.15335646 0.12074917 0.10436638 0.079042956 0.06077495 0.028652921
00000000: 73da d33c 947f ba3d f649 07bc 7cb9 20be
00000010: c5e9 083e f348 763d 2e1e ea3d 3876 aebd
00000020: 7fb4 0dbc de10 c1bd 2b50 633d 4c50 db3d
00000030: 36db 5dbd d39a 1c3c 5e5c 9f3c 4c96 d6bd
00000040: ce6e 53bb 740c 053e b7d4 b6bc 36ed 3ebd
00000050: 591d ed3d 7b6a 893d df2f 6ebd 4b1e a73d
00000060: 6d4e b7bc ffb0 8c3a 5c8f 7fbd fa39 80bc
00000070: 84cf 7a3b 6105 4dbb e08d 62bd 2fe4 03be
00000080: 6829 1e3e 9421 003d 1d4b e9bd 9311 cc3d
00000090: 334e 1b3d cc49 a8bd f354 12bd 3f92 5fbd
000000a0: afc7 aebd d973 883d e3f5 c63c 72c3 94bd
000000b0: d696 c33d dbda d83d 6c3f 5ebe 0aed 0abd
000000c0: e52a 93bd 6714 4f3c e786 1fbd 4961 8f3d
000000d0: 47f1 843d 8dc7 3bbd 3653 b13d 277a 9d3d
000000e0: 92ec 863e f9bf b73d e24c 533c 4881 343c
000000f0: 0f64 dabc 2704 a63d b354 b6bd a5dd 0abc
00000100: 17fc 02bd ecd1 213d 7a2a 423d 9e4a 8e3c
00000110: fa91 773d 2553 03bd 162f 0ebd a8d0 7d3d
00000120: 2402 03be 4589 c83d 6856 ff3d 3828 173e
00000130: d533 8c3d 97e3 dbbb c69c c83c 82f1 6bbd
00000140: ad29 213d f0e2 4f3d 03d4 94bc 208c 283e
00000150: 49e0 febb 2d0d bebc d07b 9cbd 3b33 cc3d
00000160: 93e5 27bc 6c0a 543a 0a0a ba3d 4e9c 9b3d
00000170: 3bb6 163d f4b3 513e 56a2 133a fa21 573d
00000180: d68e cc3d 5735 8c3d feed 74bd 6721 6abc
00000190: cbdd e73d 6f7f 84bd 8546 553e 3afc 98ba
000001a0: 8337 a9bd 7733 99bd de95 30bd 3a9a 97bd
000001b0: fad1 aabd 7098 3abe ad76 7c3c ae82 903d
000001c0: 7bee 7fbd 8c80 0dbe 3b9a e3bd 6262 d1bd
000001d0: f919 b5ba 1a37 c33d c2dd 8a3d eb71 143e
000001e0: 296d 963d 0f24 c53c 18f4 7bbe b5c4 293c
000001f0: 8e82 5bbb d2fb b9bd 366d c0bd 7e9f 113d
00000200: 5d74 0abe 5e26 773e 21ea b03d 8820 0f3e
00000210: db0a 38bc 2dde a6bd 8f61 4eba a83c c13d
00000220: 8188 13be 59b2 77ba fc62 8f3b 6ecb 2e3d
00000230: 7745 683d b73f ebbd 141a e2bd 6b95 f03c
00000240: 6a43 8dbb 755c f6bc a9ee 2cbe 14fc 6fbc
00000250: fa92 af3d 86fa db3c 8f12 d6bd 8513 b03c
00000260: 6ae5 393e 7243 e4bd b510 993d 50a5 90bd
00000270: e20d af3d ce1d d5bd f569 7c3b c56a be3d
00000280: 9fde f83d 09fc e6bd 87dd 40be 853b d1bd
00000290: 1e86 843a 9304 793d b0e4 0bbe 1446 f0bc
000002a0: c9c4 1b3d 24eb 553d ff6f 80bd d48f 80bd
000002b0: 192a be3d ae12 b63d 3313 20be 8b96 a2bd
000002c0: d25e 4a3e f92d bb3a 6708 5b3d 8b6f 6a3d
000002d0: 58fd 00bd 4337 91bd 8ae6 56bc 1d8a 21be
000002e0: 63b2 a1bd 3dff 6a3d 8c1a 23bd 3e7d 12be
000002f0: 7f2b 583e efd9 513d 8d5a 29be 66ac 163d
00000300: 9363 c9bd c77e 81bd 69f0 f73d 3403 79bd
00000310: bcc2 4b3e 9126 11be 0ef2 4b3c dbbe 483e
00000320: 7745 ebbd c9df debc 20c4 8d3d ada4 5a3c
00000330: 738d 83be a794 aa3c f4bb 9bbe 1e66 aebe
00000340: ad8e 443d cd84 5dbe 48b7 223e 04cb 36bd
00000350: dda8 3c3b cc58 87bd 2029 9d3d 8e00 b63c
00000360: 8ff7 013e 1c0b 12bc 1802 cf3c 9333 373d
00000370: b190 973c f8a8 273e dc0e cfbd 5a41 55be
00000380: 9941 d03a 9d22 dd3d 6d61 9a3c f4da 0e3d
00000390: b677 90bd fcad f0bd 5970 11be c8f8 88be
000003a0: 6074 30bd 3d99 863e 7972 e4bd 0ec6 b9bd
000003b0: 7289 f9bd 7fa5 b0bd 9a81 debd b47c 0fbd
000003c0: 9a15 92bc b78e e53d e1f2 093d b5f4 0c3d
000003d0: 489f ffbc d8e0 7639 e3d7 5d3c 90ba 0b3e
000003e0: 3e69 e7bc b575 5fbb 7a09 1d3e 574b f73d
000003f0: 0abe d53d 46e1 a13d 27ef 783d 88b9 ea3c

fc3.bias f4 [3]
0.06788647 0.009684832 0.03719339
00000000: 1008 8b3d 21ad 1e3c 1958 183d

fc1.weight f4 [100, 11]
-0.24226591 0.19368652 -0.00074916607 -0.2867479 0.07696986 0.10761305 -0.055143066 0.14731027
-0.035428148 -0.036371633 0.011495902 0.017695908 -0.19909751 0.23072326 0.15149182 -0.060372133
-0.1747828 -0.10009607 -0.10219616 0.050023872 0.23517115 0.22719936 -0.12120127 0.09584587
-0.20853497 -0.24069402 0.105893366 0.20618428 -0.1348316 0.29771835 -0.19995739 -0.2141158
0.0060349302 0.11984211 -0.30498388 0.31812012 0.17802921 -0.03930106 -0.12349681 0.22866362
0.008071731 -0.025322178 0.19385804 -0.034961674 -0.4815424 -0.11660459 0.021763645 -0.61737776
-0.059045408 0.03397921 -0.027787568 0.10258451 -0.03381704 -0.018572632 -0.14419742 -0.25106132
0.16776505 -0.01912757 -0.24376114 -0.06151328 0.15314648 -0.12571256 0.19507836 -0.012662265
-0.16717646 -0.03042059 -0.7268501 0.15443549 0.08262528 -0.26792955 0.03291284 0.016040921
0.05538372 -0.088602535 0.10847385 0.14858614 -0.40074 0.19412063 0.09066774 -0.014737086
-0.23558924 -0.100231364 -0.048968837 -0.057592317 -0.21050385 0.28820443 -0.15806168 0.113754876
-0.20634902 -0.05058973 -0.3597809 0.20833229 0.21403696 -0.0885844 0.06748713 0.30808297
-0.27516752 -0.15301637 0.053580962 -0.02595465 0.2746104 -0.17583537 0.025786497 0.27914047
0.20862721 0.13208999 0.34943748 -0.26030385 -0.12604727 0.17224807 -0.053714253 -0.12935431
0.06999318 0.22525238 0.08619054 0.17227708 0.031359334 -0.14132299 -0.05310106 0.15877534
0.06939399 0.035554394 0.0021766822 0.25455406 0.21812354 0.24309164 0.11901772 0.099679574
-0.24042371 0.3047984 0.33103195 -0.061572094 0.0060413843 0.050803296 0.33760095 0.11227985
0.010486744 -0.04731121 0.13352746 -0.19278143 0.27366236 0.13202891 0.059489027 0.13750069
-0.08700787 0.12413566 0.26817375 0.045155752 0.14840595 0.084074385 -0.114060566 0.25479093
0.0993507 0.18159121 0.26387188 -0.24375685 0.33470535 0.3038066 -0.0009002462 -0.108863145
-0.12360468 -0.08787692 -0.019442687 -0.13799398 0.26730072 0.123074695 -0.37771177 0.43849793
-0.18341072 -0.20332722 -0.12150883 0.31247365 -0.018051272 -0.024916256 -0.0037187948 0.15543695
-0.21827927 -0.18089828 0.29507202 -0.2716976 -0.13148318 -0.18742397 -0.09598555 -0.1304638
-0.03843841 0.20621398 0.0019888033 0.2274994 0.012272658 -0.120379634 0.124975555 -0.08357909
0.03850081 0.1460713 -0.28915375 0.09907486 0.29214877 -0.11379174 -0.09091163 -0.2695922
0.040384416 0.15144937 0.071748294 -0.006181906 -0.19208737 0.043221675 0.19879268 0.1746814
0.27102417 0.10711236 -0.21810204 0.040970664 0.24430807 0.10516571 -0.07512335 0.22562188
-0.313742 0.17395762 0.2765579 0.15944389 -0.16857882 -0.08925308 -0.16373883 0.066800565
-0.06983126 0.32009596 0.04878869 0.07963331 -0.09029407 -0.23712392 -0.13144957 0.15474239
-0.07526642 0.1187323 0.50262934 0.015410684 -0.087494425 0.08296 -0.14345063 0.11869853
0.0054870914 -0.018183379 -0.12057405 0.11196512 -0.22240607 -0.21374683 0.023573657 0.089446165
-0.13204855 0.18216716 -0.10880265 -0.13872428 -0.105554536 0.26042017 -0.31088337 0.08376654
00000000: 8e14 78be c255 463e af63 44ba 9fd0 92be
00000010: 60a2 9d3d 3b64 dc3d b2dd 61bd 81d8 163e
00000020: 1b1d 11bd 6cfa 14bd 4f59 3c3c 02f7 903c
00000030: 38e0 4bbe b842 6c3e ac20 1b3e c548 77bd
00000040: 43fa 32be 2bff ccbd 384c d1bd d5e5 4c3d
00000050: b5d0 703e f3a6 683e 5f38 f8bd d74a c43d
00000060: 318a 55be 7e78 76be 9fde d83d f921 533e
00000070: 4c11 0abe 8a6e 983e a1c1 4cbe 2c41 5bbe
00000080: aac0 c53b c86f f53d d926 9cbe a4e0 a23e
00000090: 4a4d 363e 26fa 20bd e5eb fcbd cc26 6a3e
000000a0: 4b3f 043c 7570 cfbc b982 463e f933 0fbd
000000b0: ba8c f6be 63ce eebd ac49 b23c 780c 1ebf
000000c0: 99d9 71bd c92d 0b3d c1a2 e3bc d417 d23d
000000d0: bd83 0abd a225 98bc 7da8 13be 1c8b 80be
000000e0: 9aca 2b3e 6cb1 9cbc 859c 79be 59f5 7bbd
000000f0: 6ed2 1c3e cbba 00be 9fc2 473e 6475 4fbc
00000100: 4e30 2bbe 9a34 f9bc d912 3abf 5624 1e3e
00000110: 7137 a93d 102e 89be 9dcf 063d 4068 833c
00000120: 0ada 623d 3f75 b5bd 8a27 de3d f726 183e
00000130: cb2d cdbe 8fc7 463e 02b0 b93d d273 71bc
00000140: 4e3e 71be 1a46 cdbd 8c93 48bd ece5 6bbd
00000150: 528e 57be 888f 933e ecda 21be 51f8 e83d
00000160: 284d 53be 2d37 4fbd 3435 b8be 0f55 553e
00000170: 812c 5b3e bd6b b5bd b136 8a3d 0dbd 9d3e
00000180: c2e2 8cbe 53b0 1cbe b677 5b3d d99e d4bc
00000190: bc99 8c3e 300e 34be 343e d33c 80eb 8e3e
000001a0: 5fa2 553e 9942 073e 78e9 b23e 8c46 85be
000001b0: 8912 01be cc61 303e 7a03 5cbd 7575 04be
000001c0: 9658 8f3d 8fa8 663e aa84 b03d 6769 303e
000001d0: a572 003d f9b6 10be 7f80 59bd 0196 223e
000001e0: 701e 8e3d 7ca1 113d aba6 0e3b e954 823e
000001f0: c75b 5f3e 04ed 783e 90bf f33d ce24 cc3d
00000200: a231 76be 890e 9c3e 057d a93e 0533 7cbd
00000210: cef6 c53b 1e17 503d 08da ac3e faf2 e53d
00000220: 98d0 2b3c 66c9 41bd 6cbb 083e 7f68 45be
00000230: 791d 8c3e 9632 073e c4aa 733d fbcc 0c3e
00000240: 2f31 b2bd d63a fe3d 124e 893e 3df5 383d
00000250: bbf7 173e 312f ac3d 9698 e9bd f573 823e
00000260: 6178 cb3d 0cf3 393e 371a 873e 659b 79be
00000270: 805e ab3e 8a8c 9b3e 80fe 6bba a4f3 debd
00000280: 7324 fdbd d1f8 b3bd 4546 9fbc 4b4e 0dbe
00000290: a4db 883e 960e fc3d 7063 c1be cd82 e03e
000002a0: 05d0 3bbe 0335 50be 9fd9 f8bd 8cfc 9f3e
000002b0: 43e0 93bc 2d1d ccbc 06b7 73bb dd2a 1f3e
000002c0: 9a84 5fbe 663d 39be ae13 973e f31b 8bbe
000002d0: 87a3 06be 12ec 3fbe 1294 c4bd 4d98 05be
000002e0: 9871 1dbd c229 533e 9556 023b 9af5 683e
000002f0: 4213 493c 9989 f6bd 2ff3 ff3d 842b abbd
00000300: 06b3 1d3d b793 153e f60b 94be c3e7 ca3d
00000310: 8694 953e a50b e9bd e02f babd fd07 8abe
00000320: 216a 253d 8b15 1b3e c5f0 923d 9691 cabb
00000330: 8db2 44be 3609 313d 4f90 4b3e aedf 323e
00000340: aec3 8a3e ba5d db3d 2456 5fbe dbd0 273d
00000350: e52b 7a3e 1f61 d73d 45da 99bd 6c09 673e
00000360: cba2 a0be f221 323e ff98 8d3e 4245 233e
00000370: ed9f 2cbe 52ca b6bd 27ab 27be bcce 883d
00000380: b103 8fbd 9ee3 a33e a6d6 473d ca16 a33d
00000390: 19ec b8bd 9dd0 72be b79a 06be ca74 1e3e
000003a0: 4825 9abd ec29 f33d 51ac 003f 187d 7c3c
000003b0: 4730 b3bd efe6 a93d b9e4 12be 3718 f33d
000003c0: 0fcd b33b 4ff5 94bc 87ef f6bd f84d e53d
000003d0: 6bbe 63be 73e0 5abe 8b1d c13c 8d2f b73d
000003e0: bc37 07be 078a 3a3e ecd3 debd bd0d 0ebe
000003f0: fa2c d8bd cb55 853e 1b2c 9fbe cb8d ab3d

fc1.bias f4 [100]
0.73759204 -0.6157945 0.58777136 -0.4802811 -0.20954911 0.71105146 -0.5138973 -0.40364394
-0.6296863 -0.60876435 0.43533498 0.046565205 0.104205646 -0.63775307 0.5273237 -0.21696201
-0.4810385 -0.5829992 -0.7175686 -0.6420031 0.5005443 -0.49483803 0.5794172 -0.5101582
0.63211936 0.38223046 -0.41271645 -0.14527372 0.36376902 0.5309246 -0.52207595 -0.54925627
0.35270554 -0.2734855 -0.5956769 0.5761362 -0.5276055 0.38956445 0.43556023 0.27047083
0.3678461 -0.44302884 0.5933143 -0.4440686 0.058630846 -0.5109754 -0.5819057 -0.6045137
-0.62693506 0.5276012 0.6492882 -0.6377006 0.14658614 -0.038921054 -0.28273627 -0.56799084
0.030031092 0.21677971 -0.59190255 -0.52494407 0.28077608 0.20316826 -0.53014433 -0.3706934
-0.22549382 -0.62867785 0.109362505 -0.6510191 0.30786622 0.5377564 0.23855464 0.6795708
-0.11969821 -0.49081093 -0.3871051 -0.5826619 -0.6221663 -0.33079386 0.14008114 -0.37582198
-0.62212986 -0.44705346 -0.48373404 0.3753724 -0.50821567 -0.20379685 -0.6290054 -0.57837343
-0.49256647 -0.43806285 0.28475508 0.574292 0.5934867 -0.32215023 -0.51223767 0.45414323
0.7205503 -0.44740993 -0.5847094 -0.51681805
00000000: d5d2 3c3f b5a4 1dbf 2f78 163f 68e7 f5be
00000010: 0b94 56be 7807 363f c68e 03bf 6baa cebe
00000020: 1f33 21bf fbd7 1bbf 3ae4 de3e 28bb 3e3d
00000030: c569 d53d c943 23bf b0fe 063f 4a2b 5ebe
00000040: ae4a f6be 703f 15bf 93b2 37bf 515a 24bf
00000050: ac23 003f 695b fdbe b054 143f ba99 02bf
00000060: 93d2 213f b6b3 c33e 924f d3be a2c2 14be
00000070: ef3f ba3e adea 073f c5a6 05bf 0f9c 0cbf
00000080: d295 b43e 4b06 8cbe 487e 18bf a97d 133f
00000090: 2711 07bf fe74 c73e c001 df3e 277b 8a3e
000000a0: 5356 bc3e add4 e2be 72e3 173f f65c e3be
000000b0: e626 703d 49cf 02bf c6f7 14bf 69c1 1abf
000000c0: d17e 20bf df10 073f c037 263f 5940 23bf
000000d0: ad1a 163e af6b 1fbd cfc2 90be d967 11bf
000000e0: c403 f63c 80fb 5d3e ed86 17bf bc62 06bf
000000f0: e2c1 8f3e 570b 503e 8ab7 07bf 86cb bdbe
00000100: dae7 66be 08f1 20bf 73f9 df3d 30a9 26bf
00000110: a4a0 9d3e 67aa 093f ab47 743e 5af8 2d3f
00000120: 5624 f5bd 924b fbbe a432 c6be 5529 15bf
00000130: 4a46 1fbf d05d a9be 6e71 0f3e bd6b c0be
00000140: e743 1fbf 31e4 e4be fdab f7be d030 c03e
00000150: 6c1a 02bf 1fb0 50be 7f06 21bf 4810 14bf
00000160: ac31 fcbe c649 e0be 6bcb 913e cd04 133f
00000170: bfee 173f e0f0 a4be 0222 03bf 7685 e83e
00000180: fc75 383f ea12 e5be 84af 15bf 304e 04bf

fc2.weight f4 [100, 100]
0.10315243 -0.11205004 0.04490035 -0.07774263 -0.05213052 0.08401485 -0.0669898 -0.049909193
-0.17895865 -0.162877 0.09026421 0.053730287 0.0875701 -0.08902178 0.09489292 -0.035597395
-0.16520654 -0.08745956 -0.14309195 -0.058273375 0.04972616 -0.039592694 0.05156655 -0.03615094
0.10121347 0.0773977 -0.028175859 -0.042194936 0.11393015 0.122118145 -0.05200563 -0.1318068
0.07616077 -0.072892144 -0.1099451 0.050259843 -0.06295349 0.07733606 0.12425253 0.06540546
0.06367912 -0.13072333 0.14028269 -0.017490754 -0.06175503 -0.1087166 -0.07279175 -0.11168954
-0.14665587 0.1036901 0.17597574 -0.098325424 0.04230984 0.059476536 -0.03627939 -0.06709212
0.03287525 0.061141707 -0.13607894 -0.10549197 0.11892046 0.07608329 -0.10013248 -0.059972785
-0.006511262 -0.18151638 0.0778178 -0.109916896 0.08186326 0.13448693 0.072464995 0.07515428
-0.1134913 -0.14617512 -0.13728093 -0.08773484 -0.11343929 -0.12811552 0.10182318 -0.09028926
-0.17265981 -0.15708193 -0.099459834 0.07558757 -0.13079335 -0.07456415 -0.1270042 -0.0988748
-0.053327907 -0.0674985 0.12105411 0.06698981 0.15941954 -0.08245627 -0.15760428 0.09840556
0.09842048 -0.011034356 -0.10792961 -0.07747745 0.06836319 -0.06947638 0.028511986 -0.10267558
-0.111015484 0.050441556 -0.06433538 -0.08422437 -0.12336112 -0.15740016 0.0801241 0.036706816
0.0973377 -0.085717745 0.16065626 -0.13280669 -0.18711525 -0.12201234 -0.0831939 -0.04443934
0.054302853 0.0008512696 0.038214445 -0.05211711 0.13319056 0.10082732 0.014365989 -0.014694819
0.18842259 0.1590905 -0.025700485 -0.17030945 0.06735305 -0.13393179 -0.14158407 0.042293806
-0.055676457 0.121661484 0.12204074 0.09191268 0.111154355 -0.14709452 0.1475467 0.04766632
-0.081544 -0.16403003 -0.083119035 -0.11618116 -0.12254389 0.13691361 0.17176948 -0.08660712
0.046858422 -0.0054667946 -0.0664464 -0.07666966 0.0074162274 0.069748946 -0.20834003 -0.074263975
0.15129268 0.04535334 -0.015609468 0.035916943 -0.011497366 -0.12817958 0.10674578 -0.06981618
0.12800041 0.09985337 -0.028105635 0.057411313 -0.15383999 -0.15135452 -0.16611397 -0.04762003
-0.094811805 -0.10210061 0.17325413 -0.078191146 -0.17087999 -0.19639368 -0.12433362 0.071590096
-0.12611377 -0.040957134 -0.06344299 -0.05814311 -0.17311932 -0.064572774 0.17460339 0.050373845
0.17553364 -0.0873672 -0.19426434 0.044018026 0.07953792 -0.025934659 -0.09558449 -0.05510742
0.4051655 -0.31904265 0.37798733 -0.2866978 -0.030413568 0.34856 -0.13554935 -0.10629731
-0.07823575 -0.08967757 -0.0003191678 -0.090605505 -0.051639926 -0.3048611 0.10192312 -0.17716244
-0.11680752 -0.3160185 -0.27413192 -0.36548305 0.18341203 -0.22045128 0.47872105 -0.27995634
0.32429564 0.13433474 -0.24335566 0.04970728 0.07855031 0.13552025 -0.3606716 -0.035036452
0.066922285 0.016581835 -0.075952105 0.4085552 -0.18107197 0.10599718 0.03761453 0.015005581
0.12256517 -0.12739706 0.06509731 -0.30113554 0.11996281 -0.06216411 -0.27492166 -0.26391572
-0.18545482 0.19816965 0.25265312 -0.321927 -0.0014944805 -0.057116333 -0.078676976 -0.39167592
00000000: 9541 d33d 7e7a e5bd 6ee9 373d 8737 9fbd
00000010: d086 55bd fa0f ac3d f331 89bd 956d 4cbd
00000020: f040 37be 3ac9 26be 71dc b83d 4a14 5c3d
00000030: f457 b33d 0d51 b6bd 3857 c23d 93ce 11bd
00000040: e72b 29be ff1d b3bd b286 12be 10b0 6ebd
00000050: a8ad 4b3d f32b 22bd 7237 533d 0213 14bd
00000060: 0249 cf3d af82 9e3d 0fd1 e6bc 99d4 2cbd
00000070: 3654 e93d 1419 fa3d db03 55bd 5df8 06be
00000080: 2efa 9b3d 7a48 95bd e62a e1bd 44dd 4d3d
00000090: c2ed 80bd 5e62 9e3d 1c78 fe3d 4cf3 853d
000000a0: 336a 823d 56dc 05be 44a6 0f3e c548 8fbc
000000b0: d8f2 7cbd cfa6 debd d713 95bd 7cbd e4bd
000000c0: f52c 16be 7a5b d43d fc32 343e d75e c9bd
000000d0: 154d 2d3d ab9d 733d b399 14bd 9867 89bd
000000e0: 33a8 063d ba6f 7a3d 4758 0bbe 2d0c d8bd
000000f0: 928c f33d 8ed1 9b3d 4212 cdbd 06a6 75bd
00000100: 6d5c d5bb 6edf 39be f05e 9f3d 1c1c e1bd
00000110: eda7 a73d f1b6 093e 8768 943d 7dea 993d
00000120: 206e e8bd eeae 15be 5f93 0cbe 53ae b3bd
00000130: dc52 e8bd b730 03be ac88 d03d 93e9 b8bd
00000140: bccd 30be 16da 20be 99b1 cbbd a8cd 9a3d
00000150: b1ee 05be 17b5 98bd 640d 02be df7e cabd
00000160: 5d6e 5abd a73c 8abd 38eb f73d f431 893d
00000170: e03e 233e d5de a8bd 0463 21be db88 c93d
00000180: ad90 c93d 72c9 34bc 330a ddbd 7fac 9ebd
00000190: 0002 8c3d a249 8ebd f891 e93c 9347 d2bd
000001a0: 165c e3bd ce9b 4e3d 45c2 83bd d47d acbd
000001b0: c1a4 fcbd 822d 21be 1b18 a43d e359 163d
000001c0: fd58 c73d c98c afbd 1383 243e 7afe 07be
000001d0: 249b 3fbe 9be1 f9bd 9061 aabd 0606 36bd
000001e0: ab6c 5e3d bc27 5f3a c086 1c3d c078 55bd
000001f0: 1b63 083e 8e7e ce3d 535f 6b3c 8ac2 70bc
00000200: daf1 403e 9fe8 223e d389 d2bc 9a65 2ebe
00000210: 65f0 893d 6a25 09be 6afb 10be 453c 2d3d
00000220: ff0c 64bd a829 f93d 7ff0 f93d b73c bc3d
00000230: e5a4 e33d f29f 16be 7b16 173e c23d 433d
00000240: 8a00 a7bd 7df7 27be 503a aabd 63f0 edbd
00000250: 4af8 fabd 1533 0c3e 57e4 2f3e 135f b1bd
00000260: 9eee 3f3d cc22 b3bb 0d15 88bd fc04 9dbd
00000270: d303 f33b 89d8 8e3d 1757 55be b617 98bd
00000280: 78ec 1a3e 6dc4 393d dbbe 7fbc a51d 133d
00000290: 735f 3cbc 8241 03be 889d da3d c9fb 8ebd
000002a0: 8a12 033e ec7f cc3d ca3d e6bc 2028 6b3d
000002b0: 3b88 1dbe aefc 1abe c819 2abe 380d 43bd
000002c0: b12c c2bd 201a d1bd 8869 313e ae22 a0bd
000002d0: 2afb 2ebe 6d1b 49be a0a2 febd d49d 923d
000002e0: f823 01be abc2 27bd 66ee 81bd 7827 6ebd
000002f0: 3146 31be bb3e 84bd 3bcb 323e ce54 4e3d
00000300: 17bf 333e 93ed b2bd 3bed 46be 3f4c 343d
00000310: c7e4 a23d ec74 d4bc cdc1 c3bd 51b8 61bd
00000320: da71 cf3e 8f59 a3be 8e87 c13e 0eca 92be
00000330: e025 f9bc 7576 b23e 73cd 0abe 67b2 d9bd
00000340: 113a a0bd e0a8 b7bd fa55 a7b9 618f b9bd
00000350: 6384 53bd c116 9cbe 12bd d03d 126a 35be
00000360: c838 efbd 2dcd a1be 055b 8cbe 9820 bbbe
00000370: 5dd0 3b3e fbbd 61be ed1a f53e 7056 8fbe
00000380: 140a a63e 0c8f 093e 3a32 79be dc99 4b3d
00000390: fcde a03d d2c5 0a3e f3a9 b8be 6282 0fbd
000003a0: 8d0e 893d a1d6 873c c78c 9bbd 262e d13e
000003b0: ee6a 39be 0d15 d93d b211 1a3d f8d9 753c
000003c0: 7303 fb3d 6074 02be bd51 853d 702e 9abe
000003d0: 10af f53d cb9f 7ebd 88c2 8cbe f61f 87be
000003e0: dee7 3dbe fcec 4a3e c05b 813e 9ed3 a4be
000003f0: 72e2 c3ba d1f2 69bd 6521 a1bd bf89 c8be

fc2.bias f4 [100]
0.2679861 0.16704567 0.24392605 0.28590667 0.27155897 0.22851343 0.326032 -0.1582649
-0.08837811 -0.2797536 0.23097083 0.23369594 0.2020926 -0.11812066 0.18153311 -0.21834537
0.25181934 -0.14474198 -0.14189386 0.21394691 0.18741542 -0.2489189 0.2926843 -0.26714617
-0.28992325 -0.27784267 0.051675722 0.2505115 0.17577542 -0.31896666 0.25276038 -0.26904023
0.19050153 0.25528473 -0.22036225 0.22629893 -0.21700013 0.26208803 -0.25987688 0.26262215
-0.23852439 -0.17024036 -0.2938962 -0.25072747 0.20344967 0.17374986 0.17359887 -0.20964278
0.3068698 0.24108592 0.25772074 -0.24261454 -0.16049363 -0.27704328 0.27643743 0.3176274
0.29528987 -0.3347648 0.27026477 -0.12890543 0.25408563 -0.24789874 0.25222164 0.27369
0.27365893 -0.29773298 -0.18582417 0.21259005 -0.30234173 -0.26719874 0.26227713 -0.22663052
0.22812112 -0.2275232 -0.02791069 0.30927977 -0.3391267 -0.17521952 0.1902906 -0.23175246
0.11868479 -0.18275708 -0.13704507 -0.21291848 -0.27802715 0.23163395 -0.23282373 0.11144895
0.26030004 -0.20851098 -0.16784117 -0.20642234 -0.28202242 0.25378573 -0.19597544 0.25179872
-0.27282572 -0.2516729 0.25565955 -0.27264148
00000000: 7935 893e 050e 2b3e c0c7 793e 5c62 923e
00000010: c709 8b3e 6dff 693e abed a63e 3210 22be
00000020: 95ff b4bd dd3b 8fbe 9e83 6c3e fd4d 6f3e
00000030: 5df1 4e3e 3fe9 f1bd d1e3 393e ee95 5fbe
00000040: 77ee 803e 3e37 14be a04c 11be e614 5b3e
00000050: d4e9 3f3e 99e4 7ebe b7da 953e 62c7 88be
00000060: d270 94be 6541 8ebe eca9 533d 0b43 803e
00000070: 79fe 333e 994f a3be cf69 813e a4bf 89be
00000080: d512 433e aeb4 823e a4a6 61be e8ba 673e
00000090: 4835 5ebe 6730 863e 950e 85be 6976 863e
000000a0: bd3f 74be 7d53 2ebe 9079 96be 5a5f 80be
000000b0: 1c55 503e 7ceb 313e e7c3 313e 99ac 56be
000000c0: 0a1e 9d3e 3adf 763e f9f3 833e f26f 78be
000000d0: 7158 24be 9ed8 8dbe 3589 8d3e 0fa0 a23e
000000e0: 3c30 973e 4b66 abbe 2560 8a3e c9ff 03be
000000f0: 8317 823e 2bd9 7dbe 3223 813e 1821 8c3e
00000100: 061d 8c3e 7570 98be b148 3ebe 35b1 593e
00000110: 89cc 9abe 46ce 88be 3049 863e d511 68be
00000120: 9598 693e d7fb 68be f6a4 e4bc eb59 9e3e
00000130: 04a2 adbe bf6c 33be 8adb 423e 8450 6dbe
00000140: 0311 f33d ac24 3bbe 8b55 0cbe 4d07 5abe
00000150: 9359 8ebe 7331 6d3e 5869 6ebe 593f e43d
00000160: 0c46 853e e783 55be 8ede 2bbe 6160 53be
00000170: 3e65 90be 34f0 813e c9ad 48be c3eb 803e
00000180: d0af 8bbe 45db 80be cfe5 823e aa97 8bbe

fc3.weight f4 [1, 100]
0.8698117 0.8955906 0.89759725 0.91861784 0.91355413 0.8785705 0.9214628 -0.89279586
1.1559254 -0.9100304 0.8611973 0.8839802 0.88167703 -1.0652156 0.8889044 -0.8729092
0.91117126 -0.90301543 -0.8976652 0.8781074 0.9138009 -0.87476134 0.90889543 -0.88705987
-0.8940195 -0.8936503 0.89253175 0.8849985 0.8996885 -0.93115866 0.86774164 -0.8711379
0.87906444 0.88587356 -0.87747955 0.88256913 -0.9004451 0.93414634 -0.9217244 0.89474356
-0.88336027 -0.8774856 -0.9161049 -0.88208383 0.9202997 0.897773 0.9429353 -0.8867743
0.90451384 0.9066771 0.930633 -0.8791238 -0.88473237 -0.93108493 0.89927 0.9400274
0.9040979 -0.9154172 0.9005377 -0.84157676 0.896227 -0.8781255 0.8981622 0.87430346
0.8795379 -0.9045768 -0.88118696 0.87951833 -0.8789884 -0.85932314 0.93656 -0.8716103
0.8799654 -0.8815237 -0.9620805 0.9410915 -0.9430844 -0.90658516 0.89950633 -0.8818144
-1.028547 -0.8580651 -0.8828761 -0.8831544 -0.87274414 0.89480954 -0.8742767 -0.8973355
0.89591795 -0.90020365 -0.8727344 -0.8736999 -0.94085866 0.909985 -0.88259876 0.88571936
-0.8940988 -1.0141613 0.8592035 -0.9232868
00000000: fbab 5e3f 6d45 653f efc8 653f 8a2a 6b3f
00000010: afde 693f ffe9 603f fce4 6b3f 458e 64bf
00000020: 5df5 933f c1f7 68bf 6d77 5c3f 874c 623f
00000030: 96b5 613f fc58 88bf 3d8f 633f fa76 5fbf
00000040: 8542 693f 052c 67bf 63cd 65bf a6cb 603f
00000050: dbee 693f 5cf0 5fbf 5fad 683f 5b16 63bf
00000060: 76de 64bf 44c6 64bf f67c 643f 438f 623f
00000070: fc51 663f 6a60 6ebf 5124 5e3f e502 5fbf
00000080: 5e0a 613f 9cc8 623f 80a2 60bf 0df0 613f
00000090: 9283 66bf 3724 6f3f 21f6 6bbf ea0d 653f
000000a0: e623 62bf e5a2 60bf da85 6abf 3fd0 61bf
000000b0: c398 6b3f 74d4 653f 3564 713f a403 63bf
000000c0: 388e 673f fe1b 683f f73d 6e3f 420e 61bf
000000d0: d27d 62bf 955b 6ebf 8f36 663f a3a5 703f
000000e0: f672 673f c858 6abf a489 663f 9371 57bf
000000f0: 226f 653f d5cc 60bf f5ed 653f 5ad2 5f3f
00000100: 6529 613f 5892 67bf 7895 61bf 1d28 613f
00000110: 6205 61bf 9afc 5bbf 65c2 6f3f da21 5fbf
00000120: 6a45 613f 8aab 61bf e84a 76bf 5feb 703f
00000130: fb6d 71bf f715 68bf 0c46 663f 97be 61bf
00000140: 6ea7 83bf 28aa 5bbf 2b04 62bf 6816 62bf
00000150: 296c 5fbf 3d12 653f 99d0 5fbf c8b7 65bf
00000160: e15a 653f bf73 66bf 866b 5fbf ccaa 5fbf
00000170: 1ddc 70bf c7f4 683f fef1 61bf 81be 623f
00000180: a9e3 64bf 0ad0 81bf c3f4 5b3f 865c 6cbf

fc1.weight f4 [100, 14]
0.17224258 0.20103094 0.19118664 0.24818724 0.14774786 0.16319935 -0.11586148 -0.24064642
0.010473045 -0.043955155 0.08164899 0.19243999 -0.12113759 0.22185326 -0.15361862 -0.07322954
0.0026708986 0.123771355 0.11742364 -0.2694782 0.14118682 0.24380887 -0.127333 -0.12107349
-0.21533708 0.023729093 -0.22544792 -0.13445318 0.022393212 -0.012233588 -0.24732621 -0.01604334
-0.24808145 0.064685 0.11048939 0.22468007 0.25431147 0.002834577 0.09327344 0.2693802
-0.14908025 0.08342959 -0.0046544024 -0.22303592 -0.2420371 0.1472481 -0.07220768 0.09255718
0.17785467 0.23357569 -0.19585076 0.12595749 0.211136 -0.25357747 -0.20638591 0.17128156
-0.24992795 -0.101081796 0.04009278 -0.07760693 0.03704245 -0.15296796 -0.21486591 0.071419664
0.2196239 -0.09672834 0.17304914 -0.19822758 -0.30957207 -0.1012136 0.07277337 0.1730957
0.015828837 0.1900804 0.18457288 -0.24650198 0.10535082 0.27780303 -0.015696883 -0.13068272
-0.05331788 0.21790683 -0.21660385 -0.06300302 0.07340522 0.18195875 0.15800552 0.26083362
-0.07624986 -0.23902534 0.2414585 -0.044484507 0.08764375 0.095025994 0.13630114 -0.13054432
0.032211687 -0.19286829 -0.017104615 0.090716206 0.09248493 0.17949603 -0.2514611 -0.2052443
-0.19038625 -0.110973515 0.24552773 0.15827279 -0.015603188 0.052102096 -0.041017234 -0.059708297
0.21587558 -0.17850456 -0.024383802 0.0032491712 -0.13803169 0.07879236 -0.035092488 0.10926862
-0.16649719 0.16939381 0.0012109323 0.14003336 0.30362964 0.30217746 0.23602553 -0.0077349353
0.19444144 -0.13983169 0.23428078 0.23003745 -0.14135018 0.14717716 -0.028329745 -0.23896596
-0.16836183 0.20668341 -0.06355356 0.15542406 -0.10440568 0.22699717 -0.09990665 0.113620274
-0.22339812 0.23816265 0.29112852 -0.15316467 0.2614136 0.07119644 0.17662254 -0.05845402
0.13835815 -0.034267038 -0.0048236772 -0.15112065 -0.20048559 -0.024626834 -0.13428424 0.20748901
-0.22028919 -0.15549718 -0.06294984 0.13167349 0.19073807 -0.082722954 -0.25997785 -0.02612277
-0.10529633 0.27896634 -0.04868058 0.22069219 -0.032644868 0.27442282 0.2348646 0.112175934
-0.07711057 -0.11857511 -0.2045918 -0.19575188 0.21840881 -0.17856325 -0.23207527 -0.1973597
-0.089531 0.1655304 -0.083925925 -0.17719279 -0.2885119 0.07070929 -0.10652131 0.17020158
0.1617738 -0.19039404 -0.1817881 -0.042268675 -0.05714257 0.2536911 -0.29051226 0.056271747
-0.18483573 -0.14805512 -0.14785424 0.07264363 0.0039085248 -0.048436806 0.18094254 0.29399362
-0.19335318 0.20240173 -0.1699064 0.07421757 -0.0122715365 0.04627177 -0.03395891 -0.16787705
0.007572666 -0.20806654 -0.00014099083 0.083614096 0.019893825 -0.083123945 0.22341374 0.104978584
-0.033582974 0.044617966 0.08163559 -0.1434128 -0.029251628 0.016765358 -0.15930153 -0.20744754
-0.12025981 0.19716544 0.02928055 0.19677308 -0.057715613 -0.019557038 0.040497478 0.25607535
-0.31612644 0.14751194 -0.18645984 -0.09105103 0.07406864 0.018453414 0.27433285 -0.054219227
0.027298221 -0.23096703 -0.24063458 0.10154182 0.26389635 -0.15061022 -0.22928646 -0.06343647
00000000: 5c60 303e 0edb 4d3e 6ec6 433e cc24 7e3e
00000010: 374b 173e bb1d 273e c948 edbd 046c 76be
00000020: 2297 2b3c 520a 34bd 9637 a73d fd0e 453e
00000030: fc16 f8bd 802d 633e 334e 1dbe 5ef9 95bd
00000040: 3e0a 2f3b d67b fd3d ce7b f03d 0cf9 89be
00000050: 4793 103e 08a9 793e 9563 02be 61f5 f7bd
00000060: 5381 5cbe 8463 c23c d2db 66be 18ae 09be
00000070: f871 b73c 636f 48bc 1543 7dbe 536d 83bc
00000080: 1009 7ebe 9279 843d 4348 e23d 8812 663e
00000090: 1d35 823e 50c4 393b 2506 bf3d 34ec 893e
000000a0: 7ea8 18be 22dd aa3d f583 98bb 8763 64be
000000b0: 93d8 77be 35c8 163e 9fe1 93bd 9e8e bd3d
000000c0: 891f 363e 772e 6f3e 1a8d 48be 00fb 003e
000000d0: 0934 583e e8d4 81be d456 53be 6f64 2f3e
000000e0: 1ded 7fbe f903 cfbd 5438 243d 62f0 9ebd
000000f0: d3b9 173d a2a3 1cbe cf05 5cbe 7944 923d
00000100: 16e5 603e 8219 c6bd cb33 313e 2cfc 4abe
00000110: 3b80 9ebe 1349 cfbd 340a 953d 0040 313e
00000120: 7aab 813c 70a4 423e ac00 3d3e 046b 7cbe
00000130: 2cc2 d73d 333c 8e3e c096 80bc b1d1 05be
00000140: d963 5abd f822 5f3e 66cd 5dbe ba07 81bd
00000150: 7a55 963d 6553 3a3e 33cc 213e fc8b 853e
00000160: e328 9cbd 0fc3 74be e640 773e 6335 36bd
00000170: 917e b33d fd9c c23d 8792 0b3e 69ad 05be
00000180: 67f0 033d 447f 45be fa1e 8cbc 6bc9 b93d
00000190: bd68 bd3d cfcd 373e 82bf 80be 902b 52be
000001a0: 9df4 42be 1546 e3bd 9f6b 7b3e 4312 223e
000001b0: 84a4 7fbc 0269 553d b001 28bd b090 74bd
000001c0: 7d0e 5d3e e6c9 36be 8ac0 c7bc 0cf0 543b
000001d0: 2e58 0dbe e45d a13d 24bd 0fbd 3ac8 df3d
000001e0: 3d7e 2abe 9275 2d3e 25b8 9e3a e864 0f3e
000001f0: 5875 9b3e 01b7 9a3e adb0 713e 5775 fdbb
00000200: a81b 473e 0a30 0fbe 4de7 6f3e f08e 6b3e
00000210: 1abe 10be 9cb5 163e c813 e8bc 7eb3 74be
00000220: 0b67 2cbe d1a4 533e 5e28 82bd 7c27 1f3e
00000230: a5d2 d5bd f271 683e dc9b ccbd bfb1 e83d
00000240: 7ac2 64be e9e0 733e cc0e 953e 33d7 1cbe
00000250: 01d8 853e 70cf 913d 8adc 343e 7c6d 6fbd
00000260: c2ad 0d3e 985b 0cbd f00f 9ebb 5fbf 1abe
00000270: 184c 4dbe 37be c9bc cf81 09be 0078 543e
00000280: 7d93 61be a73a 1fbe d9eb 80bd 6ad5 063e
00000290: d750 433e a76a a9bd d11b 85be 6bff d5bc
000002a0: 9aa5 d7bd add4 8e3e 4a65 47bd 22fd 613e
000002b0: a0b6 05bd 2681 8c3e 5880 703e 7fbc e53d
000002c0: 26ec 9dbd 82d7 f2bd 8380 51be 2e73 48be
000002d0: 8fa6 5f3e 49d9 36be 24a5 6dbe a918 4abe
000002e0: 075c b7bd cd80 293e 5be1 abbd 0772 35be
000002f0: d5b7 93be 08d0 903d d827 dabd 5349 2e3e
00000300: 08a8 253e a8f6 42be a926 3abe eb21 2dbd
00000310: 540e 6abd cde3 813e 06be 94be 347d 663d
00000320: 9445 3dbe c39b 17be 1a67 17be 2fc6 943d
00000330: 1513 803b ac65 46bd 0049 393e 5586 963e
00000340: 60fe 45be 6642 4f3e f1fb 2dbe 62ff 973d
00000350: 8e0e 49bc 7887 3d3d 7f18 0bbd f6e7 2bbe
00000360: 2024 f83b 650f 55be f0d6 13b9 de3d ab3d
00000370: 60f8 a23c e33c aabd 92c6 643e 03ff d63d
00000380: 4d8e 09bd 54c1 363d 8f30 a73d ceda 12be
00000390: 1ca1 efbc 8157 893c f11f 23be 216d 54be
000003a0: c64a f6bd bde5 493e c4dd ef3c e27e 493e
000003b0: 3567 6cbd 1536 a0bc afe0 253d 4f1c 833e
000003c0: 53db a1be 5f0d 173e 54ef 3ebe f678 babd
000003d0: 4db1 973d 9d2b 973c 5b75 8c3e fb14 5ebd
000003e0: 85a0 df3c 9f82 6cbe e968 76be 28f5 cf3d
000003f0: 6c1d 873e 9139 1abe 12ca 6abe fbea 81bd
