mujoco/gail/save_model/ckpt_1114.pth.tar (torch, 144879 bytes, 16 tensors)

fc1.weight f4 [100, 11]
000000 ec cf 21 3e 6b 9b 79 be 4c 12 e7 3e e4 ad 64 be
       0.15801972 -0.24375694 0.45131147 -0.22331959
000010 a4 47 f3 bb 6f 48 e6 3b b4 9b 26 bd a0 1e bf 3d
       -0.0074243117 0.0070276777 -0.040675834 0.09332013
000020 ca 48 d3 3e 8b a4 db 3c 36 f9 4f 3d 76 f7 90 3e
       0.4126647 0.026811859 0.050774775 0.28313798
000030 c2 73 53 bd c5 c1 0a 3e 50 3f f3 be f4 1d 82 3d
       -0.051624067 0.1355048 -0.4750924 0.06353369
000040 ec b7 36 3e e0 82 ae 3c dd b1 05 3e e8 70 ca 3d
       0.17843598 0.02130264 0.1305613 0.098848164
000050 bb 4e 4d 3e fc 53 9b 3e 5b 87 89 3e fe b6 24 be
       0.20049565 0.30337512 0.2686108 -0.16085431
000060 cb 03 a4 be 88 20 80 3d 5b d9 92 3c 1f 05 b3 bd
       -0.32034144 0.06256205 0.017925909 -0.08741211
000070 5c 16 3c bc c9 2f c3 3e f3 64 01 3e 6f 48 d3 bc
       -0.01147994 0.38122395 0.12636165 -0.025791375
000080 39 7b 76 3e 06 a0 dd 3e ec 7a c4 be e9 82 c0 3d
       0.24070443 0.4328615 -0.38375032 0.09399969
000090 66 29 82 3e cc 50 dc 3d b8 a5 85 bc 82 6d 4b be
       0.2542221 0.10757598 -0.016314372 -0.19865993
0000a0 cf fc 29 be 70 9f f7 bd 31 1b 2a 3e df c1 af be
       -0.16600345 -0.12090957 0.16611935 -0.343276
0000b0 21 92 9f 3d 9e 45 70 3e c2 82 91 3e ed 39 8b be
       0.07791544 0.23464057 0.28420073 -0.2719263
0000c0 a1 81 cf bd 1a 66 39 3e 34 88 6a be 7f 84 ea 3d
       -0.101321466 0.18105355 -0.2290352 0.11451053
0000d0 a4 6f c0 3e a7 18 85 3d d2 4a 59 3d 5e 6c e8 3e
       0.37585175 0.06498843 0.05304987 0.45395178
0000e0 58 48 36 be f5 d6 67 3e f5 46 fc 3d 1e 43 80 3e
       -0.17801034 0.22640593 0.123182215 0.25051206
0000f0 00 00 1a 3d 69 13 03 3e 49 49 8c be ac 56 5c bd
       0.037597656 0.12800373 -0.27399662 -0.053793594
000100 60 fa 8d ba d1 d4 ac 3d 52 02 b3 3e ed a4 b7 be
       -0.0010832064 0.08439029 0.34962708 -0.35868016
000110 f0 2d da 3d b9 37 a8 bd 3f c5 5c be 03 1f 78 be
       0.10653293 -0.08213753 -0.21559618 -0.2423058
000120 b2 19 0a 3d 3f 10 0c bc 75 52 dd 3d c1 b9 0e be
       0.03371591 -0.008548795 0.10806743 -0.13938047
000130 2e 06 6b 3d 4d e4 16 3e f4 8e a2 3e 3c 86 fb be
       0.05737894 0.14735527 0.3174969 -0.4912585
000140 37 6c 3f be d2 0a 8b 3e 00 21 0a 3e 08 d8 3b 3e
       -0.18693624 0.27156693 0.13489151 0.18344128
000150 14 01 03 3d 48 ec 91 be 62 1e 8e 3e a0 46 7c 3e
       0.03198345 -0.2850058 0.27757555 0.24636316
000160 9d 22 21 3c f8 af 0d 3e dd 9f 82 be bb 0b f5 be
       0.009834913 0.13836658 -0.2551259 -0.47860512
000170 3d 64 97 3e 2b 87 b6 3e 35 c0 8c 3d af 4b c9 3c
       0.29568663 0.3565 0.06872598 0.024572222
000180 3b 0c 74 3e 80 56 1c 3d ed 9d 55 3e af b7 6d 3c
       0.2383279 0.03816843 0.20861025 0.014509126
000190 6d c6 58 3e 88 ec 47 3e 63 8e a0 bd ac 59 82 3e
       0.21169443 0.19523823 -0.07839658 0.2545904
0001a0 c5 3e 53 be a9 65 50 3e bd 4c b3 3e a1 c3 ab 3e
       -0.20629413 0.2035128 0.35019484 0.3354769
0001b0 0b 3c f0 3d ba ff 17 be bf 15 f0 be b9 22 25 3d
       0.11730202 -0.14843646 -0.4689159 0.040316317
0001c0 8a 6f c0 bd 47 e8 1a be 9c 52 ef 3b dd de 6f 3e
       -0.093962744 -0.1512767 0.007303549 0.2342486
0001d0 3f 3b 4a be 5c f4 9b 3e 86 f7 bf 3d d6 cd 8d 3e
       -0.19749163 0.3045987 0.09373383 0.27696103
0001e0 b4 be 5a be 79 03 5c bd 15 f2 ef bd de 30 2e 3e
       -0.2136181 -0.05371425 -0.11716095 0.17010829
0001f0 9d 7c c1 bd d9 ea 04 3f dc 83 9d 3e d9 76 2c 3d
       -0.09447596 0.5192085 0.30764663 0.04210553
000200 a4 e2 3d be 5d 02 94 be 4f cc ca bd e4 1d 36 3e
       -0.18543488 -0.28908053 -0.0990225 0.1778484
000210 6f ab b4 3c 69 a7 30 3e f2 6b 5b 3d eb 17 c4 3d
       0.022054402 0.17251362 0.05356974 0.095748745
000220 38 66 4a 3e 90 4e a5 bc 75 a3 5d 39 0a 56 05 be
       0.19765556 -0.020179063 0.00021137095 -0.13021103
000230 1d e7 53 3e 16 77 af bd 31 5f 90 3e ba 33 54 3d
       0.20693631 -0.08567636 0.28197625 0.051807143
000240 db 07 cf 3d 73 87 cc bd f8 f5 bf 3e 82 09 37 be
       0.1010892 -0.099867724 0.37492347 -0.1787472
000250 e8 61 d2 bd 94 99 5b 3d b3 1e 76 3e 13 f7 d8 3e
       -0.102725804 0.05361326 0.24035148 0.42376003
000260 b1 30 70 be f9 93 97 3d b8 d1 e9 bd a5 a4 64 be
       -0.23456074 0.074012704 -0.11416954 -0.22328432
000270 7d ec c6 3e 84 d7 8a 3e 03 1f ec 3d 11 a7 c9 bd
       0.388523 0.2711755 0.115293525 -0.098463185
000280 31 fd bb 3e 1c a7 58 3e 34 45 00 3e 06 95 87 bc
       0.36716607 0.21157497 0.12526399 -0.016550552
000290 f7 3c 82 3e 6d c9 75 bd b4 b8 07 be ca 4f ca 3e
       0.25437137 -0.060006548 -0.13254052 0.39514
0002a0 39 99 fb 3d 8c 89 8d 3e b0 c7 5a 3a 4d 6a dd bd
       0.12285084 0.27644002 0.0008345796 -0.10811291
0002b0 ee ec e5 bd 62 7d 7f 3e f4 7e 3e 3e cd e1 c4 bd
       -0.112268314 0.24950173 0.18603116 -0.096133806
0002c0 69 6d 8c 3e bf ad de be fc 87 6d 3e c8 ff ac 3d
       0.27427223 -0.43491933 0.23196405 0.08447224
0002d0 e5 55 80 3e ea 02 ae 3e 17 9f 6d be 7e 43 b9 3e
       0.25065532 0.33986598 -0.23205219 0.36184305
0002e0 f9 51 99 3e 51 03 7a 3e 2f 2b c7 3e a4 94 84 3d
       0.29945353 0.24415328 0.38900134 0.064736634
0002f0 1b 5e 3d be 3c 6f 00 be 4d b6 d8 bd 67 34 e4 3c
       -0.1849293 -0.12542433 -0.10581646 0.027857019
000300 86 72 a8 be 72 4e bb 3d 49 88 c1 3d c9 bb 3f bd
       -0.32899874 0.09145822 0.094498225 -0.046809945
000310 cc 82 43 be f6 41 00 be 9e 43 41 3e 3b 68 57 3e
       -0.19092864 -0.12525162 0.1887345 0.21035855
000320 ce cd 95 3e 1d e1 eb bd 72 05 3e be e2 e8 7a 3e
       0.2925858 -0.11517546 -0.18556765 0.245029
000330 6c 18 25 3c 76 be df 3d 04 48 1c be f9 75 aa be
       0.010076623 0.109249994 -0.15261847 -0.3329313
000340 5a 3d cc 3e fc e0 c2 bd 7e ab b8 3e f3 df c1 be
       0.39890558 -0.095155686 0.36068338 -0.37866172
000350 01 11 df bc d5 e3 ed 3e 43 dc 84 be d1 23 60 be
       -0.027229788 0.46462885 -0.25949296 -0.21888663
000360 9d 87 3e be d7 af 51 be bc d4 47 3e 73 4b 26 be
       -0.1860642 -0.20477234 0.19514745 -0.16239719
000370 90 d9 25 be f5 78 94 be d6 9e 6d bd 83 12 99 3e
       -0.16196275 -0.28998533 -0.058012806 0.29896936
000380 e2 81 cf bd 9c c9 1a bd 42 9b 55 bd 25 7b bd bd
       -0.10132195 -0.037789926 -0.05215002 -0.092520036
000390 dd 7e e2 3d f4 4c 4f be 70 8c 97 be b3 b5 8f 3e
       0.110593535 -0.20244199 -0.29599333 0.28068313
0003a0 3c dd 5b 3c 23 52 c8 3e 11 42 26 3e ff f2 cf 3e
       0.013419446 0.39125165 0.1623614 0.4061508
0003b0 ae 26 b2 be fb 35 23 bd f6 ee 18 bd 55 93 8c 3c
       -0.34795135 -0.0398464 -0.037337266 0.017160097
0003c0 46 ac f5 3d 9f 43 49 bd 8a 79 41 3d d0 dd db be
       0.11995749 -0.049136754 0.04723505 -0.42942667
0003d0 b5 11 63 3e 3f 7b 59 3e fa 01 ce 3e f6 74 1f 3e
       0.22174723 0.21238421 0.40235883 0.15571961
0003e0 a5 6a c5 bd 97 19 4e be 08 48 e4 bd 67 ea f9 3d
       -0.096394815 -0.20126949 -0.11146551 0.12202912
0003f0 fa 05 ca be 32 89 72 3e 4f 88 07 3e 2d c8 5c bc
       -0.39457685 0.23685148 0.13235591 -0.01347546

fc1.bias f4 [100]
000000 97 a5 23 be c2 b3 a5 be c7 e2 fc bd 73 88 2f 3e
       -0.15981136 -0.32363707 -0.12347942 0.17141895
000010 ab 89 b8 3d c8 2b 9b bd aa f8 5c be bf 0f a9 3d
       0.09010633 -0.0757671 -0.21579233 0.082549565
000020 49 8d 7e bd 73 13 b6 be 2b cd b0 3d ad c9 06 3e
       -0.06214646 -0.35561714 0.08632883 0.1316287
000030 e9 b0 05 be c4 8e d7 3d a8 c3 b0 3d 29 40 92 be
       -0.13055767 0.10525277 0.086310685 -0.28564575
000040 47 17 80 3e 47 0d 9b 3e f3 2e 73 be 04 5f b3 3d
       0.2501776 0.30283567 -0.23748378 0.08758357
000050 00 bc 57 39 07 22 56 be 55 72 97 3d ad 21 60 be
       0.00020574033 -0.20911418 0.07394854 -0.21887846
000060 16 dc 2d 3d 77 9d f7 3d 9d 89 ac be ca f0 18 be
       0.04244622 0.12090581 -0.3369874 -0.14935604
000070 49 74 60 3e a2 cc 4f 3e 2a 77 95 bd 25 7e d1 3d
       0.2191936 0.20292905 -0.07298119 0.10229138
000080 28 c0 92 3e 13 d5 24 3e c6 7c cb be cf f3 54 3e
       0.2866223 0.16096906 -0.39743632 0.2079613
000090 72 c8 0d 3e a3 11 38 3e 35 9e e7 bd f5 b9 8d 3d
       0.13845995 0.17975478 -0.113094725 0.06920234
0000a0 7c e3 a0 3d ea 2d c1 3e 39 b7 54 3c cd fc a3 be
       0.07855889 0.37730342 0.012983137 -0.3202881
0000b0 b9 c3 d1 3d 63 48 d2 bb f6 54 32 be 6a a2 a4 be
       0.10242409 -0.0064173206 -0.17415223 -0.32155162
0000c0 58 16 62 3e b2 d7 b0 3e d7 40 b2 3d 8e 3f 7b 3e
       0.22078836 0.34539562 0.087037735 0.24535963
0000d0 02 45 35 be 3b 88 7c be fd 04 28 3d 91 ae 91 3e
       -0.17702106 -0.24661343 0.041020382 0.28453496
0000e0 29 9e ff 3c 44 a1 a0 3e 41 d9 87 3e b8 31 85 3e
       0.031203346 0.31373036 0.2653294 0.26014495
0000f0 f4 74 36 be 45 25 8c 3e 6d 58 80 3e de 27 63 3d
       -0.17818052 0.27372184 0.25067464 0.055457942
000100 12 78 02 be f3 0d be be 70 f9 76 bd 99 a1 32 be
       -0.12741116 -0.37120017 -0.060296476 -0.17444457
000110 9d 98 1c be 29 be 13 3d 00 db c1 3e 13 8c e9 bd
       -0.15292592 0.036070023 0.37862396 -0.1140367
000120 5d c5 1f 3e a3 5f 39 be ce 24 62 be d9 41 86 be
       0.15602632 -0.18102889 -0.22084352 -0.26222113
000130 36 be 9d 3e 7b 93 2e 3e 59 66 a0 3e 7f c1 80 3e
       0.30809182 0.17048447 0.31328085 0.25147626
000140 95 e0 d7 be 46 c9 96 be ca 45 92 3e 47 b4 2c 3e
       -0.4216353 -0.29450434 0.2856887 0.16865645
000150 d8 8b a8 3e 02 96 ca be 78 fb 4c be b3 a5 a9 3e
       0.32919192 -0.39567572 -0.20017803 0.3313423
000160 34 14 73 3e 00 ab 3b 3d 2c 48 7d 3e ee d2 e3 3d
       0.23738176 0.045817375 0.24734563 0.11124216
000170 76 e2 84 bd ed 17 ab 3e 16 90 67 be de a0 5d 3e
       -0.064885065 0.3341669 -0.22613558 0.21643397
000180 97 40 76 3e bc ed c5 3d 44 1b 8d 3e 77 66 9b 3e
       0.24048077 0.09664485 0.27559865 0.30351612

fc2.weight f4 [100, 100]
000000 cb fb 28 bd 02 63 f0 bc 8a 8c 52 3c b3 b1 0d 3d
       -0.041255753 -0.029344086 0.01285089 0.034593295
000010 d7 d3 74 3d f5 25 00 be 90 31 9a bd 23 88 4d 3d
       0.05977234 -0.1251448 -0.075289845 0.05017866
000020 0d 22 2c 3d b9 18 9b bd f4 b9 93 3d d8 2f 19 bd
       0.04202466 -0.07573075 0.07213202 -0.037399143
000030 23 a6 20 bd 4c 81 24 3e d1 b5 5f 3d a5 2b 01 3d
       -0.03922094 0.16064948 0.054616753 0.031535763
000040 47 59 1e bd b1 da 1c 3d 42 77 c8 bd db 85 fa 3d
       -0.03865936 0.038294498 -0.097883716 0.12232562
000050 7b 4a 1b bd a6 01 a7 3c 69 04 ce bc 3c a3 4e 3c
       -0.037912827 0.020386528 -0.025148587 0.01261216
000060 49 64 e5 bd 9c 52 b1 bc 14 38 d4 bd 4e 72 79 bd
       -0.112007685 -0.021645837 -0.103622586 -0.060900025
000070 ec bc 91 bd 8f 0d 40 3d 44 b7 19 be 1f c7 25 bd
       -0.07116112 0.04688793 -0.15011317 -0.0404731
000080 72 a6 2d 3e 8f 56 8c bc 6a c9 53 3c 41 ab a8 3d
       0.16958025 -0.017131118 0.012926439 0.08235789
000090 80 43 aa bd 7b fb 0f 3e 55 22 65 bd 4a e2 a6 bd
       -0.08313656 0.14060776 -0.055940945 -0.0814863
0000a0 a2 39 91 3d 8d bf 99 bc fb dd e5 3d f9 5c 67 3c
       0.07091071 -0.018768096 0.1122398 0.0141212875
0000b0 30 eb da 3d 2a 95 45 3d 98 d0 55 bd 77 f0 29 3b
       0.1068939 0.048237957 -0.052200884 0.0025930682
0000c0 e9 54 79 bd 9d 04 b5 bd 0f 8d ab bc fd 2f b1 bd
       -0.060871992 -0.088387705 -0.020941285 -0.08651731
0000d0 f0 27 bf 3d 48 7c 60 3c 17 64 cf bd f4 9d 06 bd
       0.09333789 0.013701506 -0.101265125 -0.03286548
0000e0 f7 29 ed 3c 53 0b 46 3e 14 04 72 3d e1 02 44 3d
       0.028950674 0.19340257 0.05908592 0.047854308
0000f0 12 60 d9 3d 2f a5 52 bd e1 25 86 3d 67 db 31 3d
       0.10614027 -0.051427063 0.065501936 0.04342213
000100 b0 d8 c7 bb 4f 95 be bd 5b 43 0c 3e 63 82 eb 3b
       -0.006098829 -0.09305822 0.13697569 0.007187174
000110 a3 83 1b 3d 0c 0e 26 3d 7f 1d 9e 3b ee 9e fc bd
       0.037967335 0.04054074 0.0048252936 -0.12335001
000120 18 66 ad 3d 2f 2a 9a 3c 0c bd 92 bd 51 9f 4f be
       0.084667385 0.018818943 -0.07164964 -0.20275618
000130 0f 66 12 be 26 de f9 3d 39 5a d6 3c bd c0 c0 3d
       -0.14296745 0.122005746 0.026166068 0.09411762
000140 dd eb 37 bd ea ef 78 bc af 88 23 bb 05 2e 8f 3d
       -0.04490267 -0.015193919 -0.0024953296 0.069911994
000150 c6 dc f0 3c e9 2f 8a bd a0 24 12 3e 73 ae ab 3c
       0.029402148 -0.067474194 0.14271784 0.020957207
000160 b7 70 eb bd 3e 33 c8 3d fe 9b 92 3d 76 ef 93 3c
       -0.11496108 0.09775399 0.071586594 0.01805852
000170 c7 cd 72 bd e0 6e b1 bd 9a 0f f9 3c f5 76 8c 3c
       -0.059278276 -0.08663726 0.030402947 0.017146567
000180 29 fd e4 3d 6c e3 e1 bd 84 f0 47 3d 61 a1 6a 3d
       0.11181099 -0.110297054 0.048813358 0.05728281
000190 a7 e1 f3 bd c1 5f fc bd 4c 05 80 3d aa 68 76 3d
       -0.11908274 -0.12322951 0.0625101 0.06015841
0001a0 d9 96 c5 bd 2c c3 c3 bd ad ba c4 3d 1c ec ef 3d
       -0.096479125 -0.095587105 0.09605918 0.11714956
0001b0 4f 99 49 3d 14 55 8b bb 1e 81 30 3e 1f 06 a2 bd
       0.049218472 -0.0042520855 0.17236754 -0.07911324
0001c0 0d 6f 17 be d7 01 d2 3b 0b 11 e9 3c 88 a8 05 3d
       -0.14788456 0.0064089107 0.02845051 0.032631427
0001d0 c4 18 c5 bd 8c 23 3d 3e 55 cd 09 be ec 5b 98 bd
       -0.09623864 0.18470591 -0.13457234 -0.07439408
0001e0 71 95 29 3c e2 bc ad bd a4 5e d8 3d 9a 96 ec bd
       0.010350571 -0.08483292 0.10564926 -0.115521625
0001f0 02 89 6b be 81 26 fa 3d 2d 59 f3 bd 1f 22 09 bd
       -0.23001483 0.12214375 -0.11882243 -0.033479806
000200 08 2c 8f bd ca 40 58 3e 88 4b 1d be 3f d6 85 bd
       -0.0699082 0.21118465 -0.15360844 -0.06535005
000210 80 d4 c1 39 80 3c 9a 3d 81 36 18 bc 59 4a 0a be
       0.00036970153 0.07531071 -0.0092903385 -0.13504924
000220 63 00 77 bd ff 91 72 3e 3e 22 26 3d f6 30 4c b8
       -0.060303103 0.23688506 0.04056 -4.868299e-05
000230 cb 74 2a 3d bf 3a 59 be 3c cb 83 bd fe 13 42 3e
       0.04161529 -0.21213816 -0.06435248 0.18952939
000240 8f da e5 bd c0 1d 4a be 1b ba a2 3c a3 b3 54 bd
       -0.11223327 -0.19737911 0.019864133 -0.051929127
000250 b4 dd 4a 3c 7e 36 35 bd 5d 16 a2 bd 79 7f 6d bd
       0.01238196 -0.04424142 -0.07914422 -0.057982896
000260 f7 20 d5 3d 2e 98 13 bd 3c 85 f5 3b 7c d4 57 3d
       0.10406678 -0.0360338 0.0074926894 0.052692875
000270 94 e3 f4 3d e4 57 0b 3c ff 51 8c bc d0 c5 ba 3d
       0.119574696 0.0085048415 -0.017128943 0.09119761
000280 81 0a ed 3d 4c f7 d2 bc e5 b7 8d bd ee 0a 0f 3e
       0.11574269 -0.025752686 -0.06919841 0.13969013
000290 cb 40 23 bd eb 69 ff bd 9d 10 22 3c 0e e6 3b 3e
       -0.039856713 -0.12471374 0.009891656 0.18349478
0002a0 33 cd 23 3e e4 eb 12 3e 32 9d cb 3d 13 dd 8d bd
       0.15996246 0.14347798 0.09942092 -0.06926932
0002b0 de 2e 4a 3d 9b ce 7d 3d 7f 0f 06 be 8a c6 66 be
       0.049361102 0.061964612 -0.13091849 -0.22536674
0002c0 58 81 e4 bd e6 f4 67 3b 62 23 4e 3d 01 d7 2a 3e
       -0.11157483 0.0035393774 0.050326712 0.1668358
0002d0 52 2e 4a 3b fa 25 23 bd 38 a4 1b be ce 8d 36 be
       0.0030850363 -0.03983114 -0.15199363 -0.17827532
0002e0 9b 2a b0 3c 13 b5 3a 3d 54 a9 10 3e 13 d1 d7 3c
       0.02150469 0.045582842 0.14127094 0.026344812
0002f0 fe 0d 00 be 19 c6 34 3e ba 3e 57 3e 57 6c 68 bc
       -0.12505338 0.17653693 0.21020022 -0.0141859865
000300 77 8c fe bd cd 5f 62 3d c2 5d 38 3d 75 a0 06 bd
       -0.12429135 0.055267144 0.04501129 -0.032867867
000310 c3 55 1e 3d a2 2d f3 ba 99 2e 00 3e 9e a5 f6 bd
       0.038656007 -0.0018553028 0.12517776 -0.12043308
000320 a8 5f 80 3d ad 20 ed 3c 37 0d 9d 3e 72 f1 17 3e
       0.06268245 0.028946245 0.30674145 0.14838198
000330 87 44 9c bc ec 72 b2 3d 46 70 d2 3d 8c c2 76 bc
       -0.019075645 0.08713326 0.10275321 -0.015061032
000340 cf cc 74 3d f0 cf eb 3c e5 25 25 be 0b ce e3 3d
       0.059765633 0.028785676 -0.16127737 0.11123284
000350 8d 54 fa 3d 69 d4 b4 3d cd 8c eb 3d 49 12 03 be
       0.12223158 0.088295765 0.11501465 -0.12799944
000360 5d 6c 53 3e 3c ca bf 3d 62 7d 7c 3d c2 c7 92 3d
       0.20646806 0.09364745 0.061643012 0.07167007
000370 e2 27 52 3d 98 49 f7 ba 4f 06 69 3d 9e 02 a2 3d
       0.051307566 -0.0018866537 0.056890782 0.079106554
000380 b5 c6 75 3c 98 b7 17 3d cd 3e 17 be be 68 be bd
       0.015000989 0.037040323 -0.1477005 -0.09297322
000390 7b 61 4d bd 78 49 5d 3e da 5c d2 bd 7f 40 0c 3e
       -0.050141793 0.21610057 -0.10271616 0.13696478
0003a0 d3 5b fc 3d 9d c3 64 be 3d 67 7b 3d c5 47 51 3e
       0.123222016 -0.22340246 0.061377753 0.20437534
0003b0 91 15 44 be 3a c5 b4 3c e5 b7 e3 bd 09 cb ab bd
       -0.19148852 0.022066701 -0.111190595 -0.08388335
0003c0 f5 9c 23 be a2 e2 87 bd fc a3 3a be 6d 7f 57 3b
       -0.15977843 -0.06635024 -0.18226618 0.0032882348
0003d0 7b 58 9b 3c 5e b2 50 3e 2b c0 02 be 0c c8 b9 bd
       0.01896309 0.20380542 -0.12768619 -0.09071359
0003e0 0b 1c f9 3b 82 79 95 bd 71 ea 85 bd f4 03 80 bd
       0.00760222 -0.072985664 -0.06538857 -0.06250754
0003f0 bf 03 eb 3d 31 7c 5a bc 59 c5 28 3b be cc b1 3d
       0.11475324 -0.013335274 0.0025752394 0.086816296

fc2.bias f4 [100]
000000 33 a6 09 3d 5a d9 c4 3c 52 c1 b3 3b 10 5f 07 be
       0.033605766 0.024029423 0.005485692 -0.13219857
000010 ee 23 90 3d 3d df de bc 6f 54 9a 3e ee f9 fb bc
       0.07038103 -0.027206058 0.30142543 -0.030758824
000020 c6 33 10 bd 03 88 5f be 6e 34 c1 3a 21 ce 6c 3e
       -0.035205625 -0.21829228 0.0014740357 0.23125507
000030 49 d6 21 be 60 fc 25 be 5c 0e e3 bd 6d 72 5e bb
       -0.158044 -0.16209555 -0.11086723 -0.0033942715
000040 b0 97 d8 bd 27 ee 87 3d ec 8f 28 bd e4 d5 f0 3d
       -0.10575807 0.06637221 -0.04115288 0.117595464
000050 46 16 e3 ba 9b ac 26 3d 29 3e 09 be a9 db 02 3d
       -0.0017325364 0.040691953 -0.13402618 0.031947765
000060 4f ee 00 bc 21 ac 33 3c a6 7e bb bd c5 72 82 3c
       -0.007869317 0.010966332 -0.09155016 0.015923867
000070 1f 35 3a be 7e d3 c8 3d 17 0e 32 bd 58 d8 ee 3c
       -0.18184327 0.09805964 -0.04347047 0.029155895
000080 da 81 3e bd 20 06 3c 3e 9f e5 80 3b 62 14 3e 3d
       -0.046510555 0.18361712 0.003933623 0.046406157
000090 67 f4 29 bd 35 bb 52 be 0b 45 42 be 7a 02 c3 bd
       -0.041492846 -0.20579226 -0.1897165 -0.09521957
0000a0 1b 40 c7 3d a4 ee c2 3d ac 80 54 bd 36 3f 7c bd
       0.09729024 0.09518173 -0.051880524 -0.06158372
0000b0 1d d1 0e 3e ec 5c 8c bd 64 da 2a 38 3a ee 8b be
       0.13946958 -0.06853661 4.073455e-05 -0.2733019
0000c0 4a 91 b5 3d 94 52 d9 3d ad 19 2a be aa 78 48 be
       0.08865602 0.10611454 -0.16611357 -0.1957728
0000d0 c0 96 59 3e 28 49 45 be 51 4b 38 3d 9f 1c 48 3e
       0.21248913 -0.19266188 0.044993702 0.19542168
0000e0 18 06 28 bd 52 b5 c6 bd 0b ef 06 bd 84 e5 45 bd
       -0.041021436 -0.09702553 -0.032942813 -0.048314586
0000f0 a2 8c 93 bd 79 aa 9f 3d 6f 87 36 be 22 3f 53 bc
       -0.07204558 0.07796187 -0.17825101 -0.01289347
000100 84 a3 90 bd 38 5d eb 3d ad 6f 13 3c a0 c4 ad bd
       -0.07062438 0.114923894 0.008998794 -0.08484769
000110 f9 db cb 3c 58 c6 de ba 9c 4a 89 3d 4e b1 ca 3d
       0.024885165 -0.0016996367 0.06703684 0.098970994
000120 16 f1 94 3d 61 47 12 3e c2 c8 8d bd 99 6e 3d 3e
       0.07272546 0.14285041 -0.06923057 0.18499221
000130 af e2 14 be c4 24 c0 bd ed a1 c8 bd 07 59 1a 3b
       -0.14539598 -0.093820125 -0.0979651 0.00235516
000140 e1 8f 41 3d 14 aa db 3a ab e2 ff bc fa a3 e8 3d
       0.047256354 0.0016759061 -0.031236013 0.11359401
000150 26 0d ff 3d a7 d9 8a bc cc 55 b2 3d 28 1d 85 bc
       0.1245368 -0.016949488 0.08707771 -0.016249254
000160 16 60 1e 3e b8 c4 98 3d a5 03 2a 3c 86 7b ae bc
       0.15466341 0.07459396 0.0103768455 -0.021299135
000170 a4 17 46 3d e9 47 96 bc fb 65 a4 bd f6 cf 71 3e
       0.04836239 -0.018344836 -0.08027264 0.23614487
000180 10 6a 8f 3d 4c 4f 03 3d 0a 70 43 bd 6c ab 70 bd
       0.07002652 0.032058045 -0.04771427 -0.05875723

fc3.weight f4 [3, 100]
000000 7f 74 df 3c 6f 65 c1 3d 63 fb 57 3d da 7a 86 bd
       0.02727723 0.09443175 0.052729975 -0.06566401
000010 fe a2 90 3c a0 84 5f 3d b5 eb 31 3e 99 ea 32 be
       0.017655846 0.05456984 0.17375071 -0.17472304
000020 ca c6 0c bd d9 2b e2 bd 0b 60 26 bd fc 22 96 3d
       -0.034369268 -0.110435195 -0.040618937 0.073308915
000030 88 8d cc bd 01 2a 7c bd c1 03 15 3d 36 a3 bc bd
       -0.099879324 -0.061563496 0.036380533 -0.092108175
000040 79 df 23 be db 8a 65 3d af cc 06 3d e5 7f 53 3d
       -0.16003217 0.056040626 0.032910045 0.05163564
000050 3a 53 b3 3d 88 93 60 3c 75 27 c1 bd 6a bc 3b 3c
       0.087561086 0.013707049 -0.09431354 0.011458496
000060 42 98 bc bc a9 db 1c bd ef 73 06 bd 35 86 f9 3b
       -0.023021821 -0.03829542 -0.032825407 0.0076148757
000070 8e 83 75 bd d8 1d a1 3d c7 9a 23 be e7 ab 10 3d
       -0.059939913 0.0786702 -0.15977012 0.03532019
000080 88 2e c1 3d 86 57 0c 3d ec 35 80 3b 25 93 a5 3b
       0.09432703 0.034263156 0.003912678 0.0050529414
000090 08 0f 52 3d bb 41 b2 bd 53 ef bc bd 39 3f ce 3d
       0.051283866 -0.08703943 -0.09225335 0.100706525
0000a0 2c 88 06 be 7d c5 f7 bc 67 46 08 bd 3d 3b 4f be
       -0.13137883 -0.030245537 -0.033270266 -0.20237441
0000b0 ce f9 64 bd e5 14 2a ba 3e bc ca bd 1a 8b a7 bd
       -0.055902295 -0.0006488099 -0.098991856 -0.081808284
0000c0 0f 71 67 bc 1b 0d ad 3d 7f b0 aa bd 5c 0d 1c 3d
       -0.014126076 0.08449765 -0.08334445 0.038098678
0000d0 5d af 85 3b ff 9a 22 bc 27 79 a2 bd cb f2 98 3d
       0.004079743 -0.009924649 -0.07933264 0.07468184
0000e0 0e e0 c6 3d 62 b5 e7 bd ff cd 89 3d 02 31 ea ba
       0.09710704 -0.11313893 0.06728744 -0.0017867389
0000f0 3d 26 a0 bb b6 6b c9 3c c6 a5 38 be 3c 4e b4 bb
       -0.004887371 0.024587493 -0.18031988 -0.0055024903
000100 4d 52 03 3b 1f 32 31 3d 7b 80 1a 3d 09 b0 a8 bc
       0.0020038069 0.04326069 0.037720185 -0.020591753
000110 b4 e3 c9 3c 96 a0 ae bc 21 2a 07 3d 08 6f 18 bc
       0.02464471 -0.021316808 0.03299916 -0.009303816
000120 0a 96 b9 bc 44 43 ab 3d da fc 4a 3d 91 53 95 3d
       -0.022654552 0.08362439 0.049557544 0.0729133
000130 e3 2e 5c 3d fa 7b 53 bd 2d ed b3 bd 24 e0 d8 bd
       0.053755652 -0.051631905 -0.08785472 -0.105896264
000140 98 9a af 3b 8f 81 14 3d 6b 64 2b bd 5a a7 b4 bd
       0.005359005 0.03625637 -0.041843813 -0.08820982
000150 21 e9 7e bb 4f 24 4d be eb 9e 3f bc a8 15 fb bb
       -0.003889628 -0.20033382 -0.011695604 -0.0076624937
000160 d1 fd c8 bc 82 5e 6c bc f5 fb 95 3d 93 de 93 bb
       -0.024535092 -0.014426829 0.073234476 -0.004512617
000170 55 0f 0c bc f3 6a 49 3d 3c 72 3c bd 6a 7e 2f 3e
       -0.008548577 0.04917426 -0.04600738 0.17138067
000180 6d 98 d2 3d 54 d4 7a 3d 6e d0 88 3d 9f 6c d1 3c
       0.10282979 0.061237648 0.0668038 0.02556449
000190 b4 b9 13 3c 32 fb c4 3b 4c 18 88 bd 93 2d fd bb
       0.009016443 0.00601139 -0.06645259 -0.00772638
0001a0 50 56 56 3c 97 12 3c bc 9a 0c bd 3d 6d 47 fa bb
       0.013082102 -0.011479042 0.09230919 -0.007637909
0001b0 5e aa bc 3c 07 96 fb 3c 54 a1 b6 3c 87 a5 cf 3d
       0.023030456 0.030711187 0.022293724 0.10138994
0001c0 14 07 e0 3d fc 3a 07 be 06 ca 1b bd e1 e8 f6 bd
       0.1093885 -0.13206095 -0.03803446 -0.12056137
0001d0 0d 02 33 3d d4 a9 56 3e d2 e5 87 bc 4f 7e 36 3e
       0.043703128 0.20963222 -0.016589079 0.1782162
0001e0 ee a3 92 bd 12 2d 1c 3e f1 e4 e1 bd 3f 11 80 3c
       -0.07160173 0.15251568 -0.11029995 0.015633224
0001f0 b0 3a 7f bd c2 24 00 be 0d b2 5d 3d 27 23 e9 3b
       -0.062311828 -0.12514022 0.05412488 0.007114786
000200 44 e9 f3 bd 77 5b ef 3c 12 f0 82 3e 29 a2 f0 3d
       -0.11909726 0.029218419 0.25573784 0.117496796
000210 85 f5 03 be c1 5e 82 bc 90 bf 76 3c bc 57 96 ba
       -0.12886627 -0.015914323 0.0150603205 -0.0011470239
000220 8a 5a 9a bd 18 96 07 be d0 56 c0 bd 34 64 7e bd
       -0.075368 -0.1324085 -0.09391558 -0.06210728
000230 f0 9f 08 bd 81 83 24 3d 19 45 bf 3b b3 94 31 bd
       -0.033355653 0.040164474 0.0058370945 -0.0433547
000240 8c fb b2 bd b8 6e cd bb 37 9e dc bd fe e2 d9 bd
       -0.08739385 -0.006269302 -0.107723646 -0.106389984
000250 bb a9 59 3d e2 06 de bc 9a df f3 bd 93 7c 0c 3e
       0.053140383 -0.027102891 -0.11907883 0.13719396
000260 8a e6 9d 3d ef c4 2c be c3 45 3e 3d d2 ab 24 bd
       0.077099875 -0.16871999 0.04645325 -0.040202923
000270 00 c3 49 3b 2d 85 c7 3c b3 6c 2a bc c9 5e 7d 3c
       0.0030786395 0.024355495 -0.0104018925 0.015464493
000280 7a cd 3d 3c cf ca 56 bc be c7 8e bd d7 6e 2d bb
       0.011584634 -0.013109877 -0.069716915 -0.002646377
000290 b8 2b 11 bb 7c ca b3 3d 5f 1d bd bd 4c 2a 9c 3c
       -0.0022151303 0.08778855 -0.09234118 0.019063137
0002a0 1f 40 08 bd d3 5f 6c 3c f6 0c 89 3d e7 0f d5 bd
       -0.033264276 0.014427143 0.06691925 -0.10403424
0002b0 6b b2 a6 3d e5 bd 70 bc 3a b5 07 bd 63 1a ce 3d
       0.08139499 -0.014693712 -0.033131815 0.100636266
0002c0 bc f3 0d 3e 4f 90 01 bd d1 d0 22 3d 6f d9 7e 3e
       0.13862509 -0.031631764 0.039749924 0.24887632
0002d0 d3 eb fb bb db 4e b2 bc 6a 3c 4e bd 1c 49 0e be
       -0.0076880245 -0.021766117 -0.050350584 -0.13895077
0002e0 b5 d8 94 3b 83 1f 98 bb 3c 41 43 bd 52 c0 80 bc
       0.004542435 -0.0046424284 -0.047669634 -0.015716705
0002f0 18 be 25 3e 4e a3 3f bd b6 09 33 bd 0f c5 50 3c
       0.16185796 -0.0467866 -0.043710433 0.012742295
000300 21 8a 46 bc 8b a1 92 3b cd 16 da 3d 1f 39 2a bd
       -0.012117893 0.004474824 0.1064888 -0.04155838
000310 65 bb 48 3e 64 fe 30 bd 32 e0 4d bd fa 2b 2a 3e
       0.19602735 -0.043211356 -0.050262637 0.16618338
000320 00 a1 93 bc 27 5f a6 bd 2f fe 7a 3d ec 42 1d bc
       -0.018021107 -0.081236176 0.061277565 -0.009598475
000330 92 86 8c 3d a9 e5 74 bc c5 43 f8 bd 92 03 99 bd
       0.06861605 -0.014947333 -0.12122301 -0.07471384
000340 9b 3c 81 3c 1d c9 8d bc f5 87 f1 3c 66 3d 8b 3d
       0.01577597 -0.017307812 0.029483775 0.0679882
000350 0b 47 bf 3c b8 c2 97 3d e7 5d cd bd ff e1 c0 3d
       0.023349306 0.074101865 -0.10027676 0.09418105
000360 75 e8 e1 3d 77 fb 9e bc 95 b2 41 bd e2 02 ff bd
       0.11030666 -0.019407017 -0.04728945 -0.12451722
000370 4d ae e0 bd 2b 3c 40 3e e3 78 3c bd 24 45 aa bc
       -0.10970745 0.18772952 -0.046013724 -0.020784922
000380 2f c1 e0 bd b5 0e 7a 3d 5e b8 0b be 37 34 0f 3c
       -0.10974347 0.061049182 -0.13644549 0.008740476
000390 5b 69 2a 3d 56 41 b0 39 f3 d1 30 be 38 ab 8d bd
       0.04160438 0.00033618015 -0.1726759 -0.06917423
0003a0 c9 09 ae 3d 6a f3 31 3d da cb cc 3c 0b 04 40 3d
       0.0849796 0.04344503 0.024999548 0.046878856
0003b0 39 57 82 bd d4 4f bc bd 99 ec e6 3c 7d 28 fa 3c
       -0.06364293 -0.091949135 0.02818899 0.030536884
0003c0 2e 63 01 3e 76 6d 20 3c b2 9f 02 bd 4b f8 a9 3d
       0.1263549 0.0097917225 -0.03189058 0.08299311
0003d0 2b a2 93 3d 3b 00 9e 3d a1 be c2 bc 7b c4 18 3e
       0.072086655 0.07714888 -0.02377254 0.14918701
0003e0 5a 01 ce 3d b4 21 68 3d 29 87 01 bd 2b 7e d0 3d
       0.100588515 0.056672767 -0.03162304 0.10180315
0003f0 3e 3a 20 3e eb 65 c6 bb d2 82 fc bb e2 cd 3d 3d
       0.15647218 -0.00605463 -0.0077060247 0.046338923

fc3.bias f4 [3]
000000 20 3f c7 3d 07 52 25 3d 13 40 4c 3d
       0.09728837 0.04036143 0.049865793

fc1.weight f4 [100, 11]
000000 d8 9e 63 be f9 b0 55 3e ef 76 e1 3d 85 b4 8d be
       -0.22228563 0.20868291 0.11009013 -0.27676788
000010 be f4 37 3d 76 fe a4 3d 7e 2a 9b bc 6e 04 1f 3e
       0.04491114 0.08056347 -0.01894116 0.15529034
000020 d1 0e b7 bc 3b 84 92 bc d8 e3 20 3c 07 b0 27 bc
       -0.022345932 -0.017885318 0.009819947 -0.010234839
000030 0a 10 80 be 4a 66 82 3e 9a 99 07 3e c0 4b 5d bc
       -0.25012237 0.25468665 0.13242188 -0.01350683
000040 e9 4f de bd 0e 68 d0 bd c7 a9 5c bd 5d dc 53 3d
       -0.108550854 -0.10176097 -0.05387285 0.051723827
000050 6a 27 40 3e 64 fb d0 3d 2e 74 0b be ee 16 6b 3d
       0.18765035 0.10204199 -0.13618538 0.057394914
000060 50 5a 47 be a4 38 72 be 99 0e e5 3d e9 de 0a 3e
       -0.19468045 -0.23654419 0.11184425 0.13561596
000070 b5 78 bd bd 68 63 81 3e e9 d9 21 be eb ad 0b be
       -0.09251539 0.25271153 -0.15805782 -0.13640563
000080 d1 a6 6b 3c 0b b7 1d 3d 68 c5 af be 9a 0c 3b 3e
       0.014383034 0.03850464 -0.34330297 0.18266526
000090 bd 48 a1 3d 03 3f fe 3c 56 24 8c bd 44 6c 11 3e
       0.07875202 0.031035906 -0.06842868 0.14201456
0000a0 5e f0 e9 3d 46 3c 11 be ba 7e aa 3d fd 77 89 bd
       0.114227995 -0.14183149 0.083249524 -0.06712339
0000b0 b6 f7 8d be 29 0a 2c 3e 08 bb b1 3d 0b 26 7c be
       -0.2772805 0.16800751 0.086782515 -0.24623887
0000c0 e7 ed 6d be 2e e2 3d 3e c3 8f ac bc 68 f7 62 bc
       -0.23235284 0.18543312 -0.021064645 -0.013852932
0000d0 bd 4a 27 bd 8d 8c 7d bd 8c aa a9 bd 68 4c 5e be
       -0.04084276 -0.061901618 -0.08284482 -0.21708834
0000e0 38 15 4d 3e 76 0a 65 3d ec 78 52 be 89 01 d8 bd
       0.20027626 0.05591818 -0.2055394 -0.10547168
0000f0 62 f9 37 3e 8f 86 04 be fd af 2b 3e 3e 92 d5 bc
       0.17966226 -0.12941955 0.16766353 -0.02607071
000100 95 26 36 be 0e f8 d8 bc 23 f1 25 be 23 35 f8 b8
       -0.17788155 -0.02648547 -0.16205268 -0.00011835459
000110 21 50 97 3d 82 67 45 3e 6c 99 44 be f3 54 1d be
       0.0738833 0.19277766 -0.19199151 -0.15364437
000120 ab f3 16 3e 31 5e e0 bd 53 ba c7 3d a4 63 1d 3e
       0.1474139 -0.109554656 0.097523354 0.15370041
000130 4e 96 0f 3d 26 3d d7 3d 36 7d 34 3e 30 00 18 bd
       0.03505545 0.1050971 0.17625889 -0.037109554
000140 87 d8 71 bc 29 96 11 be d4 20 20 3e 5d 98 f1 bd
       -0.014761097 -0.14217438 0.15637523 -0.11796639
000150 3a 18 4b be a5 b0 92 3e 10 fc 95 bd 22 d5 72 3e
       -0.1983346 0.28650394 -0.07323468 0.23714116
000160 02 5f 36 be 8e 36 b1 bd 51 1e 89 be 20 ee 08 3e
       -0.1780968 -0.086529836 -0.26780942 0.13372087
000170 96 88 fa 3d 12 cb a6 be 04 09 07 3e 2b ee 93 3e
       0.12233083 -0.32576805 0.13187033 0.28892645
000180 87 5e 76 be 26 ab 3a be 1b 6d 17 3e 39 1a 45 be
       -0.24059497 -0.1822935 0.14787714 -0.19248284
000190 e4 9c 9a 3e 9c d7 17 be 4c eb 24 be da 82 08 be
       0.30197823 -0.14828342 -0.16105384 -0.13331166
0001a0 3d 48 29 3e dc 2c af 3e e0 6f a5 3d 8a 56 25 be
       0.16531463 0.34213912 0.08077979 -0.16146293
0001b0 e9 cc d1 bd 4e af a6 bd c6 ce f7 3c cd a3 73 be
       -0.10244162 -0.081389055 0.030249964 -0.23792954
0001c0 c2 14 5d 3d b3 e3 c1 3d 05 64 83 3e b2 79 b2 bc
       0.053974874 0.09467258 0.25662246 -0.021786544
0001d0 77 38 e5 bd b8 91 a7 bc 89 6d df bd 5f c7 c1 3d
       -0.111924104 -0.020455226 -0.10909564 0.09461855
0001e0 fd 7d 86 3d 90 fb 33 3d 07 d7 8c bd 68 d0 6f 3e
       0.06566999 0.04394108 -0.06876951 0.23419344
0001f0 50 bb c3 bd d9 29 50 3e d3 d3 1f 3e 20 a2 bb 3d
       -0.095572114 0.20328464 0.15608148 0.09161782
000200 6f 19 8d be be 99 84 3e 8d a5 8d 3e a3 9d 2d be
       -0.27558467 0.25898546 0.27665368 -0.16954665
000210 c5 1a 40 3d 3b df 00 3e 0d e2 8d 3e 7b 9b bc 3c
       0.04690053 0.12585156 0.27711526 0.023023358
000220 3e a6 b8 bc de 64 14 3d 53 a7 04 3e 66 ca ea bd
       -0.022540208 0.036229007 0.12954454 -0.11464386
000230 db 72 4c 3e e4 9e 3a 3e 13 55 41 3d c1 6a 1e 3e
       0.19965689 0.18224674 0.047200274 0.15470411
000240 c4 a9 ad bd 2c 52 ac 3d 38 32 60 3e 88 2c 83 3d
       -0.08479646 0.084141105 0.21894157 0.06404978
000250 7d a5 1b 3e 3f 81 d2 3d 21 96 b7 bd 69 0b 3a 3e
       0.15199848 0.10278558 -0.08964182 0.18168415
000260 e1 f1 c7 3d 6d 2e 0f 3e cf 15 29 3e 08 ad 75 be
       0.097629316 0.13982554 0.16512226 -0.23991787
000270 4c 79 5e 3e ec 86 1c 3e b7 74 36 3e 00 af 94 bd
       0.21725959 0.15285844 0.1781796 -0.07259941
000280 f5 71 4c be 1c 75 06 be c7 be a9 bd 4f 81 f5 bd
       -0.19965346 -0.13130611 -0.08288341 -0.11987554
000290 2c ac 25 3d 28 42 36 3e 72 ae b5 be b2 07 41 3e
       0.0404474 0.17798674 -0.35484654 0.18850592
0002a0 57 99 06 be 85 6e 53 be b0 4e 11 bd 65 fa 2b 3e
       -0.13144432 -0.20647629 -0.035475433 0.16794737
0002b0 20 eb b3 3d a8 34 07 be 97 32 0d be 22 5d 31 bd
       0.08785081 -0.1320368 -0.1378883 -0.04330171
0002c0 3c 18 1f be c9 5d cc bd d7 f0 1a 3e fa a0 0f be
       -0.15536588 -0.099788256 0.15130936 -0.14026251
0002d0 e0 a1 3b be 22 6f c0 bd 4d c4 20 be a0 32 0b be
       -0.18323469 -0.09396197 -0.15699883 -0.1359353
0002e0 cc 4b 1b be 40 69 4b 3d 75 26 03 3d e1 0d 0c 3e
       -0.15165633 0.04966092 0.032019097 0.1367717
0002f0 46 b9 50 3d 39 8a 02 be 7c b9 a5 3b 2a 98 1b be
       0.05095794 -0.1274804 0.005057512 -0.15194765
000300 d1 d5 12 3e 45 f7 46 3e 9f 43 79 be 6e 11 c2 3d
       0.14339377 0.19430263 -0.24342202 0.09475981
000310 9c f7 3d 3e 44 69 a2 bd 0a 5b 12 bd f8 8e ab be
       0.18551487 -0.07930234 -0.035731353 -0.33507514
000320 6b 94 bb 3d 27 a7 47 3e f0 d1 34 3d 9b 56 a9 bd
       0.09159168 0.19497357 0.044145525 -0.08268472
000330 5d 41 0c be ac 61 ca 3c 2b fc 3f 3e d4 b9 35 3e
       -0.13696809 0.024704777 0.18748538 0.17746669
000340 c1 f8 de 3d 5a 38 db 3d 4e ed 93 be c0 56 32 3d
       0.1088729 0.107041076 -0.28891987 0.043539762
000350 43 e7 62 3e 7b 92 44 3e d1 c4 1c be 6a dc 9f 3e
       0.22158532 0.19196503 -0.15309455 0.3122285
000360 d7 b1 a5 be 52 07 79 3e a6 ed 79 3e ac c3 fa 3d
       -0.32362244 0.24319199 0.24407062 0.12244353
000370 2a 30 2f be c1 df c9 bc 6f a3 57 be 11 be 6e 3d
       -0.17108217 -0.024642827 -0.21058439 0.05828673
000380 a7 c9 b1 bd b5 ed 84 3e c4 bd ac 3d 11 23 fc 3d
       -0.0868104 0.25962606 0.084346324 0.12311376
000390 ce 4f fa bd cf 1d 23 be 33 16 30 be 06 d2 9a 3d
       -0.12222253 -0.1592934 -0.17195968 0.0755959
0003a0 8f 3a af bd 41 f7 21 be 19 cc 85 3e b3 c6 7b 3e
       -0.08556091 -0.15816976 0.26132277 0.24587516
0003b0 9a ff 98 be f0 33 ec 3d 81 73 90 bc 2d 65 e0 bc
       -0.2988251 0.11533344 -0.017633202 -0.027391994
0003c0 46 60 c4 bd 54 11 41 bd a4 a0 d1 bd fb f9 08 3e
       -0.09588675 -0.047135666 -0.10235718 0.1337661
0003d0 db fe 33 be 13 c3 2b be 27 db 20 bc e5 be aa 3c
       -0.17577688 -0.16773634 -0.009817875 0.020842979
0003e0 07 f9 a8 bd 71 05 02 3e e2 69 8d bd d3 0b 89 bd
       -0.08250623 0.12697388 -0.06904961 -0.066917084
0003f0 dd 5e 95 bd 67 c7 aa 3e f8 a1 b0 be 20 7b ee 3c
       -0.07293484 0.33355257 -0.34498572 0.029111445

fc1.bias f4 [100]
000000 dd 44 29 3f 84 71 16 bf 02 87 05 3f ac b2 c5 be
       0.661207 -0.5876696 0.5215913 -0.38612878
000010 f7 53 a3 be dc 0f 2c 3f dc a7 ff be 8e a9 f3 be
       -0.31899998 0.672117 -0.49932754 -0.47590297
000020 d4 bd fb be 76 02 21 bf e5 72 fa 3e 6e 0a 1e 3e
       -0.49168265 -0.6289438 0.48915783 0.15433666
000030 4d 5f 7e 3e 6a fc 12 bf a1 3b e7 3e c8 18 4f be
       0.24841042 -0.57416403 0.4516268 -0.20224297
000040 56 c1 0a bf 24 70 0f bf 22 5f 2a bf cb b2 22 bf
       -0.5420126 -0.5603049 -0.6655141 -0.63554066
000050 e4 f4 08 3f 9c 2b 23 3d 6e 30 0b 3f a8 23 9e be
       0.53498673 0.03983651 0.5437077 -0.3088658
000060 33 5f 05 3f de 3f ae 3e c3 82 9b be aa cd 10 3e
       0.5209839 0.34033102 -0.303732 0.14140955
000070 fa 93 ab 3e 45 9f 0d 3f 24 81 c7 be dd 7a 0e bf
       0.33511335 0.5532115 -0.38965714 -0.55656224
000080 fd 09 a8 3e 56 a1 c5 be f0 92 2a bf 36 2b 0d 3f
       0.3282012 -0.38599652 -0.6663046 0.5514406
000090 4e d3 0b bf 6d 13 05 3f 94 89 fb 3e a7 4e e2 3e
       -0.546193 0.51982766 0.491284 0.44200632
0000a0 60 b5 cb 3e b9 8a f4 be a1 d2 1a 3f e0 c9 70 be
       0.39786816 -0.47762087 0.60477644 -0.23514509
0000b0 9b 5a 2c be f9 d1 19 bf 6d 71 17 bf 00 c1 02 bf
       -0.16831438 -0.6008602 -0.5915745 -0.51075745
0000c0 b5 dd fb be 42 0a 08 3f 4c c2 09 3f 26 c8 13 bf
       -0.49192587 0.5314065 0.538121 -0.5772728
0000d0 8c 1a 0a 3c 2a 22 a7 3d 54 ba df be 53 59 08 bf
       0.008429181 0.08160813 -0.43696845 -0.532613
0000e0 7f d3 08 3e 59 bd bc be 3d f2 1f bf 06 d4 d1 be
       0.1336193 -0.3686321 -0.62479 -0.40982074
0000f0 2c ec a0 3e 90 c6 87 3e d5 d9 9d be 74 bd 96 be
       0.31430185 0.2651868 -0.30830255 -0.29441416
000100 62 88 29 3e f3 e9 05 bf cf 4f a1 3e fe 3d 23 bf
       0.16555932 -0.52310103 0.31506202 -0.6376647
000110 6c e7 4b bd c1 f7 12 3f 80 30 7c 3e b7 c4 1f 3f
       -0.049781248 0.5740929 0.24627876 0.6240954
000120 92 0d 64 be 99 4e f2 be 46 55 88 be 9d 6c 09 bf
       -0.22270802 -0.4732559 -0.26627558 -0.53681356
000130 8a 5d 1e bf 84 12 64 be 32 87 ab 3e 2a 48 d5 be
       -0.6186148 -0.22272688 0.33501583 -0.4165662
000140 21 6b 03 bf c5 23 b3 be 2b 14 f0 be ba c8 b9 3e
       -0.5133534 -0.34988227 -0.46890387 0.36285955
000150 5c 87 06 bf 8e a4 49 be 7f 14 1b bf db b9 0c bf
       -0.5255029 -0.19691679 -0.6057815 -0.5497109
000160 0e 25 20 bf 08 62 c1 bc 8e 82 91 3e 35 ba f2 3e
       -0.6255654 -0.023606315 0.28419918 0.4740769
000170 36 b8 01 3f 5c aa e2 be 6c f1 02 bf 2a d5 a1 3e
       0.5067171 -0.442706 -0.5114963 0.31607944
000180 9b 8d 0b 3f b4 64 05 bf 69 17 07 bf 9b 55 e7 be
       0.5451295 -0.52106786 -0.52770096 -0.451825

fc2.weight f4 [100, 100]
000000 b2 81 9f 3e 61 72 75 be 76 e0 68 3e fc 3c fb bd
       0.31153637 -0.23969413 0.22741875 -0.12267491
000010 58 6d 44 3c 28 84 90 3e fd 3b c9 bd f0 3f 66 bd
       0.01198896 0.28225827 -0.09825895 -0.05621332
000020 ec 97 08 be 5c 57 e5 bd 02 2e 2e 3d 96 30 a6 bc
       -0.13339204 -0.11198303 0.042524345 -0.02028684
000030 b4 26 0a 3d a8 2b 6c be 76 79 04 3e d8 af f9 bc
       0.033728316 -0.23063529 0.12936959 -0.030479357
000040 6c a1 7e bd 34 6b 99 bd 1c c1 67 be 93 2f 93 be
       -0.062165663 -0.074911505 -0.22632259 -0.28747234
000050 e1 fc 2e 3e 5d 59 88 bc f0 36 a2 3e 0d 18 31 be
       0.17088653 -0.016644174 0.3168254 -0.17294331
000060 c3 57 5e 3e 9a d4 a2 3d e9 f6 5d be 97 f1 5b bd
       0.21713166 0.07950707 -0.2167622 -0.053697195
000070 01 97 80 3d aa ec 65 3d d0 62 4d be 55 42 45 bd
       0.06278802 0.056133904 -0.20057225 -0.048158962
000080 16 10 c5 3d 6a 92 82 be c8 e2 95 bd f7 65 8d 3e
       0.09622209 -0.2550233 -0.07318646 0.27616856
000090 fc 22 e3 bd 83 88 c9 3d 05 85 ac 3d 9c c6 eb 3c
       -0.11090657 0.09840491 0.08423809 0.028781228
0000a0 2f cf 9f 3d 7e d7 74 bd 0d 4e b7 3d e5 b0 15 be
       0.07803189 -0.059775822 0.08950434 -0.14618261
0000b0 a4 67 af bd 70 ae 4b bd 27 7d 0c be 5f d6 46 be
       -0.0856469 -0.049726903 -0.13719617 -0.19417714
0000c0 4d f0 c8 bd a2 ff 3d 3e 00 76 42 3e f3 e8 5e be
       -0.09811459 0.18554547 0.18990326 -0.2176855
0000d0 74 d8 b5 3c 6f 5e 99 3c 27 21 1c bd 08 99 84 be
       0.02219794 0.018721787 -0.038117554 -0.25898004
0000e0 09 6f d7 bc ce c3 c7 bd 9b d1 b8 bd ad d7 1e be
       -0.026298063 -0.09754144 -0.09024354 -0.15511961
0000f0 0e 96 d7 3d 1f 14 e3 3d e7 ff 6c bd 36 72 04 be
       0.105266675 0.11087822 -0.057861235 -0.12934193
000100 ae a2 7a bc 4a 6f 9a bd d2 b2 21 3d a5 52 92 be
       -0.015297575 -0.07540758 0.039477177 -0.28578678
000110 d7 82 b7 bc 73 ea a1 3d d6 43 30 3d 70 90 8d 3e
       -0.022401256 0.07906046 0.043033443 0.2764926
000120 01 29 18 bc 15 33 6b bd cc e4 d7 bd ec ef 31 be
       -0.00928712 -0.057421762 -0.105416864 -0.17376679
000130 4c db 79 be 5a eb 8e bc 4a 86 14 3d 5d a2 bc bb
       -0.24400061 -0.017446209 0.03626088 -0.00575666
000140 3e c9 1e be 6d 66 a0 bb f2 2d 59 be 56 19 49 3d
       -0.15506455 -0.0048950226 -0.21208933 0.049096428
000150 58 33 57 bd 7e 5a 8d bd 92 bc 15 be fb 2c f1 bd
       -0.0525392 -0.06902026 -0.14622715 -0.117761575
000160 1c 2c 3e bd 75 59 96 bd a8 e4 1f bc 68 f5 ff 3d
       -0.046428785 -0.07341281 -0.009759106 0.124979794
000170 37 cd 36 3e 64 34 07 be 3d 44 aa bd 97 b2 97 3c
       0.17851721 -0.13203579 -0.08313797 0.018517775
000180 45 bd 5e 3e 6b 55 ed bd 8d 84 4b be e7 99 56 be
       0.21751888 -0.11588558 -0.19874783 -0.20957147
000190 b2 96 33 be 66 d0 1d 3e 21 5a 89 be b5 c4 38 3e
       -0.17537954 0.15411529 -0.26826575 0.18043788
0001a0 ae 5e fb bd 73 dc 7d be 21 33 37 3e ba 0d bc bd
       -0.12273918 -0.24791126 0.17890598 -0.09182306
0001b0 ad 23 f7 3c c3 f2 03 3d ee 73 e9 bb ca c3 bd 3d
       0.030168379 0.032213937 -0.0071244156 0.092658594
0001c0 df 3b be 3d 32 a8 f8 3d c7 57 83 3c 24 0e 3e 3c
       0.09288763 0.12141456 0.016033066 0.011600051
0001d0 33 c3 f6 bd d4 06 28 3e dd 7b 06 3e e8 4c d6 3e
       -0.1204895 0.16408855 0.13133188 0.4185555
0001e0 97 61 12 be 68 00 dc 3b c2 0f 5d be 2e 70 84 3e
       -0.1429504 0.0067139156 -0.21588042 0.25866836
0001f0 6b b3 69 be 09 15 fe bd 5f 3b a6 3e 88 79 f2 3d
       -0.22822349 -0.12406356 0.32467172 0.118395865
000200 87 4b 3e 3e ac 57 53 3e 32 62 a7 3e e1 5a 4d bd
       0.18583499 0.20638913 0.32692105 -0.050135497
000210 e0 45 1e be 4f e8 fe 3e 50 fa b8 bd c5 a9 c0 be
       -0.15456343 0.49786612 -0.09032118 -0.37629524
000220 6b 7c b5 3d 00 3d ec 3c 83 a0 7d 3e a9 22 d8 3c
       0.088616215 0.02883768 0.24768262 0.026383715
000230 b7 44 7d bd 83 23 2e be 3f 81 b6 3d 4a ba f3 3e
       -0.06183311 -0.17005734 0.089113705 0.47603065
000240 85 54 38 bd 7a 89 f6 3d b8 33 cf 3d 68 1e 73 3d
       -0.04500248 0.1203794 0.101172864 0.05935517
000250 ab 4c dc ba 43 b3 9f bb 8a dc b7 bc 8b c6 c9 3d
       -0.0016807517 -0.0048736646 -0.022444028 0.09852322
000260 bc ef 09 bd 19 b3 f2 3d 11 2b b4 3d 0f 6b 0d 3f
       -0.033675894 0.118505664 0.08797277 0.55241483
000270 2d d1 5a bd 98 24 1a bd 06 22 bb bd 13 7d 07 3e
       -0.05342214 -0.037632555 -0.09137349 0.13231306
000280 67 c7 b3 3b d5 c0 92 bd f4 6c 98 3d 9f c7 6d 3e
       0.005486417 -0.07165686 0.07442656 0.2322068
000290 8a 39 fb 3d c5 85 0f bc d5 9d 57 3e 3a a7 96 3e
       0.12266834 -0.0087599205 0.21056302 0.2942446
0002a0 04 81 01 3e 65 0c 8b 3e e1 34 b0 bc 4e 3d 47 be
       0.12646872 0.27157894 -0.02150959 -0.1945698
0002b0 15 26 f2 bd 09 d9 79 bd 4c 09 cf 3d 76 9c 0a 3e
       -0.1182367 -0.060997996 0.10109195 0.13536248
0002c0 36 a9 80 3e 13 a1 81 bd 0b 5c 05 3e 1e b3 07 3d
       0.25129098 -0.063295506 0.13023393 0.033129804
0002d0 80 0d 8b bd 54 86 0f be 11 90 be 3d f3 34 1d bd
       -0.06789684 -0.14016086 0.09304822 -0.038380574
0002e0 db 1c f7 bd c6 3b 16 3e 6f bf c1 3d 54 37 43 3d
       -0.120660506 0.1467124 0.09460341 0.047660187
0002f0 1b 9b 82 3d 1d 7f 22 3e 70 cb 44 3e 5b 47 2c be
       0.0637724 0.15868802 0.1921823 -0.16824095
000300 41 05 ea 3d 90 36 8d 3d ef 88 46 bd ac e2 8b bd
       0.11426783 0.068951726 -0.048470434 -0.068303436
000310 c4 9a 75 be ad 1c 63 3d c4 d5 11 3e 8e 2d 5a 3e
       -0.2398482 0.05544727 0.14241701 0.2130644
000320 28 81 d6 3e 05 1c b0 be dd 7b b4 3e 3b 19 55 be
       0.41895413 -0.34396377 0.3525075 -0.20810406
000330 74 bd 33 3c 4f d2 df 3e c5 00 f9 bd 7e d7 82 bd
       0.010970462 0.4371514 -0.1215835 -0.06388758
000340 50 ff b4 bd be 8e f8 bd f3 4a f2 3c 08 9c 44 bd
       -0.088377595 -0.12136601 0.029576754 -0.048000365
000350 e9 61 dd bb 68 ca 9e be 8c 39 72 3d 94 99 a6 bd
       -0.0067560566 -0.310138 0.059136912 -0.081347615
000360 bf 06 c2 bd e0 e8 45 be af c9 b5 be 00 ce d8 be
       -0.09473943 -0.19327116 -0.35505435 -0.42344666
000370 15 83 7d 3e 37 7d 7a bd eb c1 ec 3e 15 6f 56 be
       0.24757035 -0.06115457 0.46241698 -0.20940812
000380 98 09 98 3e 94 b6 09 3e 1e 38 ab be 9b a8 84 bc
       0.2969482 0.13448554 -0.33441252 -0.016193679
000390 e3 a7 fe 3c 66 69 13 bb b5 89 a5 be 0e 26 84 bd
       0.031085914 -0.0022493242 -0.32331625 -0.06452571
0003a0 c0 a0 dd 3c fc 9b 90 be 39 5d d5 bd 29 18 e5 3e
       0.02705419 -0.28244007 -0.104181714 0.44744995
0003b0 95 ff 2c be 92 b4 bd 3d ca 95 7b 3d 70 c1 f3 3c
       -0.16894372 0.09262957 0.061422147 0.029755324
0003c0 65 f0 33 3e 0f eb b6 bd f9 88 9c 3d ff a8 6b be
       0.17572172 -0.089315526 0.07643313 -0.23013686
0003d0 b6 94 73 bc 36 32 13 be af 1a 31 be d3 58 53 be
       -0.014866998 -0.14374623 -0.17295335 -0.20639353
0003e0 4b 82 d9 bd 20 1d 52 3e 76 37 6c 3e 75 22 80 be
       -0.106205545 0.20518923 0.23068032 -0.2502629
0003f0 09 5f e3 bc 2d 2b 14 bd bf a9 ca bd d9 67 d1 be
       -0.027755277 -0.036173988 -0.09895658 -0.40899542

fc2.bias f4 [100]
000000 dc c4 64 3e d9 b3 a2 bb a7 cb 77 3e 92 1b 83 3e
       0.22340721 -0.004965287 0.24198781 0.25606972
000010 08 27 85 3e ed 78 24 3e 83 79 98 3e 76 8a 17 be
       0.2600634 0.16061755 0.29780206 -0.14798912
000020 29 87 63 3e 2f eb 4d be ab bb 2c 3e 36 26 37 3e
       0.22219528 -0.20109247 0.16868465 0.1788567
000030 74 0b 3b 3e 74 91 e5 bd 82 8b 5b 3e 81 0d 83 be
       0.18266088 -0.112093836 0.21439937 -0.2559624
000040 23 37 64 3e 8a 1d 29 be cf cb 6f be 14 d9 5a 3e
       0.22286658 -0.16515175 -0.2341759 0.21371871
000050 d1 21 33 3e 8c 19 5a be 45 2a 81 3e 65 bb 77 be
       0.17493369 -0.21298808 0.25227562 -0.24192579
000060 45 2a 71 be ea 61 63 be 7f 1d 27 3e aa ce 5d 3e
       -0.23551281 -0.2220532 0.16319846 0.21660867
000070 50 d0 53 3e e2 48 91 be 52 8f 2c 3e 64 6d 4a be
       0.20684934 -0.28375918 0.16851547 -0.19768292
000080 c7 73 17 3e 93 65 68 3e 57 40 0d be 50 3e 48 3d
       0.1479026 0.22694997 -0.13794075 0.04888755
000090 68 86 91 be a4 fc 48 3e 6d 26 5d be 66 37 5c 3e
       -0.28422856 0.19627625 -0.2159669 0.21505508
0000a0 45 99 1e bd 78 c9 cc bd 54 6d 8e be 36 43 be bd
       -0.038720388 -0.099993646 -0.27817786 -0.09290163
0000b0 3a fd 2c 3e 0d 2b 3f 3e 49 a4 3e 3e 35 77 55 be
       0.16893473 0.18668766 0.18617357 -0.20846255
0000c0 97 eb 98 3e a7 62 73 3e da 4d 53 3e 1d 19 4f be
       0.2986724 0.23768102 0.20635167 -0.20224424
0000d0 78 9c 2f be 05 c3 75 be bf 0c 2f 3e 76 d0 ee 3d
       -0.17149532 -0.24000175 0.17094706 0.116608545
0000e0 71 f9 95 3e 21 9b 92 be f7 11 8b 3e 40 f1 0b be
       0.2929187 -0.2863398 0.27162144 -0.13666248
0000f0 54 94 9b 3d ef 04 25 be 1a 50 7e 3e dc a8 69 3e
       0.07596651 -0.16115163 0.24835244 0.22818321
000100 ca 47 6d 3e 68 19 90 be c8 e2 b1 bd 55 d7 11 3e
       0.23171917 -0.28144383 -0.08685833 0.14242299
000110 bd cb 4a be bb 38 54 be 53 57 43 3e 50 39 53 be
       -0.19804282 -0.20724766 0.1907628 -0.20627332
000120 34 ff 02 3e 98 c9 e2 bd 18 19 39 be 9b 53 7f 3e
       0.12792665 -0.11073607 -0.18075979 0.24934237
000130 79 e6 91 be e6 88 51 be b7 30 2d 3e 8d 51 39 be
       -0.2849615 -0.20462379 0.16913114 -0.18097515
000140 b5 1d 06 be e6 e4 0d be f8 26 1a be ca 3c 14 be
       -0.1309727 -0.13856849 -0.15053928 -0.14476314
000150 0e 6d 54 be ab c9 4e 3e 2a 24 3b be b2 76 17 be
       -0.20744726 0.20194118 -0.18275514 -0.14791372
000160 32 00 85 3e 2d cc 42 bd 83 f8 3d be 14 43 3c be
       0.25976712 -0.047558 -0.18551831 -0.18384963
000170 05 fa 6c be 8d fd 05 3e 7a 9d 01 bd 75 b4 66 3e
       -0.2314225 0.13085003 -0.031644322 0.22529776
000180 06 db 71 be e2 00 6a be 5c 09 66 3e 05 44 6d be
       -0.23618707 -0.228519 0.22464508 -0.23170479

fc3.weight f4 [1, 100]
000000 8f cf 0e 3f e4 c4 1c 3f b8 43 18 3f 69 4c 1c 3f
       0.5578546 0.6123793 0.5947833 0.6105409
000010 f1 26 1b 3f 7f 94 0e 3f 05 48 18 3f eb 8d 10 bf
       0.60606295 0.5569534 0.59484893 -0.5646655
000020 a0 90 11 3f 31 f2 0e bf 2e 03 0d 3f 74 0f 13 3f
       0.56861305 -0.55838305 0.55082977 0.57445455
000030 dc ea 12 3f 7b 8a 0b bf 23 4e 12 3f f8 b1 1a bf
       0.57389617 -0.5450818 0.5715048 -0.6042781
000040 2e c0 14 3f c2 70 0f bf d1 9f 0f bf 8a 1a 0e 3f
       0.5810574 -0.5603143 -0.56103235 0.55509245
000050 90 4f 18 3f a5 f3 0f bf 5b 4e 10 3f 88 d9 14 bf
       0.594964 -0.5623115 0.5636956 -0.58144426
000060 58 0a 0d bf 07 39 0b bf 0d 4a 0c 3f 8f b6 11 3f
       -0.5509391 -0.5438389 0.5480049 0.5691919
000070 45 57 13 3f 8b 79 1a bf d5 2b 0f 3f be e5 0d bf
       0.5755504 -0.6034171 0.5592626 -0.55428684
000080 8c c7 0f 3f 35 5f 12 3f f1 c2 11 bf 4c 8b 13 3f
       0.5616386 0.57176524 -0.5693808 0.57634425
000090 2f b2 1b bf 29 c9 10 3f b4 b9 16 bf a2 6a 10 3f
       -0.6081876 0.56556946 -0.5887711 0.5641271
0000a0 f4 88 19 bf e4 fc 0b bf 87 35 1b bf 39 2a 24 bf
       -0.599746 -0.54682755 -0.6062855 -0.64126927
0000b0 61 23 17 3f c1 d3 11 3f 88 9b 0e 3f e5 1c 0e bf
       0.5903836 0.56963736 0.5570607 -0.5551284
0000c0 99 bf 18 3f 99 4f 18 3f f2 7a 11 3f 95 0a 11 bf
       0.59667355 0.59496456 0.56828225 -0.5665677
0000d0 4a 7d 11 bf 7e f0 1a bf 57 bc 20 3f e6 ff 44 3f
       -0.568318 -0.6052321 0.62787384 0.7695297
0000e0 3f bc 19 3f 73 db 13 bf 98 8f 18 3f f7 fb 0d bf
       0.60052866 -0.5775673 0.59594107 -0.5546259
0000f0 35 c9 44 3f 1e bf 10 bf ec 0c 16 3f a8 75 0f 3f
       0.7686952 -0.5654162 0.5861347 0.56038904
000100 25 a3 10 3f 66 1b 18 bf 10 41 0e bf 3c c4 0d 3f
       0.5649894 -0.59416807 -0.5556803 0.55377555
000110 12 31 0b bf ae 2f 0c bf d2 11 12 3f 76 02 10 bf
       -0.5437175 -0.54760253 0.5705844 -0.56253755
000120 12 26 0f 3f 12 b0 68 bf 06 cb 12 bf 9f 57 1b 3f
       0.55917466 -0.9089366 -0.5734104 0.60680574
000130 fa e8 1c bf 40 43 17 bf 83 8f 1e 3f 6d 29 12 bf
       -0.61292994 -0.5908699 0.6193773 -0.5709446
000140 4b ac 0b bf 15 33 09 bf 69 dc 0f bf ae e2 11 bf
       -0.54559773 -0.5359357 -0.56195694 -0.5698651
000150 db 5b 0e bf c9 8c 0f 3f 6e 9e 0d bf 48 5b 0d bf
       -0.5560891 0.56074196 -0.5531987 -0.5521741
000160 68 83 16 3f 0c b0 15 bf 12 ea 0d bf 85 5b 14 bf
       0.5879426 -0.5847175 -0.5543529 -0.5795215
000170 1e 74 19 bf 69 1d 1b 3f 87 33 50 bf 7b e3 16 3f
       -0.59942806 0.6059175 -0.81328624 0.5894086
000180 f2 22 14 bf 9f 4c 14 bf 7a 3b 0c 3f 3f a2 18 bf
       -0.5786582 -0.57929415 0.54778254 -0.5962257
