mujoco/gail/save_model/ckpt_1797.pth.tar (torch, 144879 bytes, 16 tensors)

fc1.weight f4 [100, 11]
0.11405652 -0.28061545 0.43810338 -0.2414422 0.02220352 -0.00830195 -0.032059707 0.13366124
0.4857913 0.030157214 0.057297308 0.2836625 -0.08367377 0.1200428 -0.5158443 0.0021225063
0.12006255 0.09655145 0.106388025 0.11189884 0.19304721 0.3019588 0.27019712 -0.15733822
-0.35425338 0.096913025 0.03125196 -0.10156598 -0.0034125734 0.42075914 0.17141028 -0.04155692
0.26010683 0.4407301 -0.36415303 0.11914202 0.265445 0.06990047 -0.0055551804 -0.20003769
-0.15673833 -0.07112711 0.17380653 -0.39026448 0.039304465 0.22320272 0.28939015 -0.29904026
-0.095200576 0.16349006 -0.22419846 0.17324147 0.5012531 0.04310295 0.04761714 0.49416286
-0.15116897 0.24789423 0.1466756 0.250788 0.029374074 0.10561159 -0.29141378 -0.006893976
-0.03072417 0.08005479 0.35662964 -0.36069852 0.15794744 -0.022322657 -0.17583197 -0.30382916
0.017693298 -0.021365084 0.15161455 -0.16944692 0.05677909 0.19911772 0.30769095 -0.5325861
-0.19189872 0.27903926 0.14817426 0.1659607 0.047413573 -0.25666866 0.28491616 0.24351332
0.004230328 0.14666468 -0.3067237 -0.487884 0.29150406 0.35731736 0.06904858 0.06250919
0.29104638 0.0195841 0.20954174 -0.00640273 0.2037095 0.19439562 -0.07255283 0.25123096
-0.20820779 0.19976361 0.3473358 0.30403095 0.14009392 -0.15481141 -0.4589069 -0.0034938902
-0.12573577 -0.17809196 -0.0058109597 0.2410672 -0.21476075 0.37103322 0.08200348 0.35383707
-0.21507438 -0.09494534 -0.08006522 0.09165742 -0.07735314 0.53694016 0.36389154 0.057498317
-0.15648168 -0.31366205 -0.0843835 0.14138986 0.045905326 0.17217112 0.08152098 0.11580501
0.21535547 -0.024827464 0.018157499 -0.11289588 0.25454766 -0.080587454 0.30867592 0.06429958
0.08047961 -0.080231816 0.42315483 -0.13114499 -0.1267303 0.03010574 0.2700379 0.546897
-0.23888846 0.08550568 -0.087843016 -0.25624567 0.44090018 0.2398523 0.13290225 -0.09115409
0.38796222 0.16975433 0.102650955 -0.029465985 0.25833908 -0.06910758 -0.12520519 0.4961586
0.117790714 0.27238762 0.023339381 -0.093230866 -0.131286 0.18233486 0.2093784 -0.08828313
0.26169285 -0.3771984 0.28479484 0.14160796 0.26793635 0.32978886 -0.2722483 0.39155135
0.3172451 0.24132276 0.4202005 0.048805274 -0.19113113 -0.22505867 -0.0497421 0.052785438
-0.35796648 0.0698877 0.129223 -0.0019114653 -0.2023563 -0.11973003 0.16448474 0.21411139
0.28603825 -0.1035419 -0.18181689 0.2063152 0.027501693 0.09084935 -0.16527183 -0.34664172
0.41453156 -0.055548176 0.35663888 -0.40046632 0.0022737202 0.42573816 -0.20994702 -0.24275866
-0.17732948 -0.24473417 0.23582746 -0.18077111 -0.15940383 -0.31398112 -0.0233508 0.28707263
-0.09173499 -0.03235794 -0.06317471 -0.09551732 0.13701187 -0.22700205 -0.30027834 0.26783612
0.037280686 0.43197 0.2128695 0.4079151 -0.3462702 -0.041926432 -0.050008055 -0.011960893
0.14969894 -0.050643265 0.046086196 -0.4258789 0.2352152 0.22328237 0.37875313 0.17557284
-0.09155652 -0.22021684 -0.13714539 0.12607427 -0.40406114 0.25326648 0.16398062 -0.013184542
00000000: 7796 e93d d4ac 8fbe 164f e03e a03c 77be
00000010: 28e4 b53c e704 08bc 0a51 03bd 7ede 083e
00000020: a3b9 f83e 430c f73c 95b0 6a3d 363c 913e
00000030: 275d abbd 00d9 f53d 5f0e 04bf bf19 0b3b
00000040: 5be3 f53d c4bc c53d f7e1 d93d 382b e53d
00000050: 2bae 453e 589a 9a3e 4757 8a3e 451d 21be
00000060: b360 b5be 567a c63d 0e02 003d d301 d0bd
00000070: 7ba5 5fbb be6d d73e 2d86 2f3e 9737 2abd
00000080: b92c 853e 60a7 e13e 4472 babe bb00 f43d
00000090: 68e8 873e fa27 8f3d 3b08 b6bb aed6 4cbe
000000a0: 0380 20be 17ab 91bd 57fa 313e bfd0 c7be
000000b0: b8fd 203d 418f 643e f22a 943e ce1b 99be
000000c0: 85f8 c2bd f069 273e 4894 65be 3666 313e
000000d0: 2052 003f b88c 303d 310a 433d ea02 fd3e
000000e0: 0acc 1abe fcd7 7d3e 2132 163e 4967 803e
000000f0: e6a1 f03c e44a d83d 3034 95be dde6 e1bb
00000100: 41b1 fbbc c4f3 a33d 2998 b63e 7aad b8be
00000110: f9bc 213e 01de b6bc 4c0d 34be 7f8f 9bbe
00000120: 89f1 903c d405 afbc d840 1b3e 7e83 2dbe
00000130: 3191 683d 84e5 4b3e ab89 9d3e 9057 08bf
00000140: 1981 44be 3cde 8e3e feba 173e 9af1 293e
00000150: bc34 423d 136a 83be 88e0 913e 8e5b 793e
00000160: 909e 8a3b 442f 163e e40a 9dbe efcb f9be
00000170: 0540 953e 4df2 b63e 5869 8d3d d104 803d
00000180: 0804 953e d66e a03c 1c92 563e fecd d1bb
00000190: 3999 503e a50f 473e 9496 94bd 58a1 803e
000001a0: 6c34 55be d58e 4c3e ffd5 b13e f2a9 9b3e
000001b0: c874 0f3e e286 1ebe d8f5 eabe c0f9 64bb
000001c0: e1c0 00be bd5d 36be dd69 bebb 52da 763e
000001d0: 3eea 5bbe 11f8 bd3e 71f1 a73d 222a b53e
000001e0: 753c 5cbe b472 c2bd 3cf9 a3bd e3b6 bb3d
000001f0: 536b 9ebd e974 093f fe4f ba3e 5b83 6b3d
00000200: bc3c 20be 5098 a0be 42d1 acbd 81c8 103e
00000210: 3907 3c3d a04d 303e 79f4 a63d 2d2b ed3d
00000220: 2586 5c3e f762 cbbc 09bf 943c f535 e7bd
00000230: 1254 823e 090b a5bd c50a 9e3e 80af 833d
00000240: 7ed2 a43d 9450 a4bd c0a7 d83e df4a 06be
00000250: 96c5 01be 50a0 f63c 6842 8a3e 7101 0c3f
00000260: 2d9f 74be 9a1d af3d 0ae7 b3bd a232 83be
00000270: abbd e13e d79b 753e 8717 083e ffae babd
00000280: fca2 c63e 14d4 2d3e aa3a d23d a662 f1bc
00000290: 0545 843e 4688 8dbd ca35 00be 8008 fe3e
000002a0: 423c f13d 6476 8b3e 3b32 bf3c d3ef bebd
000002b0: d66f 06be fdb5 3a3e 4b67 563e c9cd b4bd
000002c0: 9bfc 853e 2620 c1be a1d0 913e ad01 113e
000002d0: f42e 893e 16da a83e 2164 8bbe 6b79 c83e
000002e0: f36d a23e 501d 773e 8524 d73e 0ae8 473d
000002f0: e1b7 43be c875 66be 5fbe 4bbd 8b35 583d
00000300: 6247 b7be 4821 8f3d 0953 043e 228a faba
00000310: 7d36 4fbe 0535 f5bd b06e 283e 0440 5b3e
00000320: 9b73 923e c70d d4bd 352e 3abe 4b44 533e
00000330: 3b4b e13c 390f ba3d 053d 29be 067b b1be
00000340: 7b3d d43e 7c86 63bd 5f99 b63e ec09 cdbe
00000350: b202 153b 5afa d93e 5afc 56be ba95 78be
00000360: dc95 35be 989b 7abe c17c 713e 101c 39be
00000370: c23a 23be 22c2 a0be 2d4a bfbc 2ffb 923e
00000380: 8edf bbbd c289 04bd be61 81bd 969e c3bd
00000390: d74c 0c3e 3a73 68be 15be 99be d121 893e
000003a0: a2b3 183d 2c2b dd3e 76fa 593e 3fda d03e
000003b0: 544a b1be 0dbb 2bbd 3fd5 4cbd 9ff7 43bc
000003c0: ae4a 193e 506f 4fbd e1c4 3c3d cd0c dabe
000003d0: 41dc 703e 22a4 643e eeeb c13e 5ec9 333e
000003e0: fc81 bbbd 8680 61be d76f 0cbe 9d19 013e
000003f0: 1ae1 cebe 25ac 813e 89ea 273e fa03 58bc

fc1.bias f4 [100]
-0.17433879 -0.34729627 -0.11235917 0.19210127 0.0721513 -0.04566015 -0.21243618 0.089737035
-0.06994011 -0.3808816 0.046544418 0.1250741 -0.1519645 0.08097965 0.0902828 -0.26917642
0.2646656 0.2914386 -0.2803021 0.08049844 0.011504961 -0.19347176 0.09853589 -0.19952106
0.06642583 0.07830181 -0.3346063 -0.19685316 0.22734793 0.19415018 -0.09357628 0.13068183
0.27494806 0.12920408 -0.37899116 0.22591946 0.1300466 0.19944972 -0.10973132 0.053732064
0.03429022 0.38593975 0.00022521222 -0.3434975 0.09959915 -0.010518844 -0.21433198 -0.34528837
0.2600614 0.35041294 0.089529686 0.22831538 -0.19256452 -0.25314915 0.03397965 0.31956786
0.04949214 0.29043445 0.30341372 0.21744488 -0.18539444 0.27872103 0.22458877 0.057052232
-0.1269093 -0.38613525 -0.038397424 -0.19009629 -0.14324081 0.029093944 0.3969004 -0.14251617
0.15111886 -0.14684553 -0.18943903 -0.27002925 0.31140667 0.17870732 0.32178736 0.22606929
-0.38656452 -0.24317598 0.27531412 0.18518087 0.31812924 -0.429294 -0.19805834 0.33977535
0.25587046 0.030557375 0.23139274 0.10500473 -0.04852934 0.34127674 -0.2352698 0.20274912
0.23305814 0.07507149 0.28219914 0.3042778
00000000: de85 32be d1d0 b1be 911c e6bd 32b6 443e
00000010: 10c4 933d 2306 3bbd df88 59be 0dc8 b73d
00000020: c33c 8fbd ea02 c3be 5ca5 3e3d 6d13 003e
00000030: 959c 1bbe a9d8 a53d 30e6 b83d 7ed1 89be
00000040: 4082 873e 7137 953e c283 8fbe 5edc a43d
00000050: 4e7f 3c3c 761d 46be 2fcd c93d 404f 4cbe
00000060: 440a 883d b35c a03d 8451 abbe e093 49be
00000070: e5cd 683e 4ecf 463e eca4 bfbd 75d1 053e
00000080: fec5 8c3e 134e 043e 210b c2be 6e57 673e
00000090: f02a 053e 8c3c 4c3e d0ba e0bd 2716 5c3d
000000a0: e773 0c3d e599 c53e f226 6c39 e8de afbe
000000b0: a4fa cb3d 3b57 2cbc d879 5bbe a3c9 b0be
000000c0: c526 853e 5369 b33e 575b b73d 82cb 693e
000000d0: a22f 45be c49c 81be 3f2e 0b3d 669e a33e
000000e0: 45b8 4a3d d3b3 943e 0b59 9b3e dfa9 5e3e
000000f0: 0ad8 3dbe 86b4 8e3e 99fa 653e 9aaf 693d
00000100: 83f4 01be 85b3 c5be 9e46 1dbd 9aa8 42be
00000110: b8ad 12be 6c56 ee3c 8736 cb3e c2ef 11be
00000120: e7be 1a3e ad5e 16be 4efc 41be 4641 8abe
00000130: b270 9f3e 0dff 363e 50c1 a43e b57e 673e
00000140: c9eb c5be 2003 79be f9f5 8c3e 0ea0 3d3e
00000150: d6e1 a23e 6ccc dbbe cecf 4abe 09f7 ad3e
00000160: 7401 833e 7653 fa3c 38f2 6c3e b80c d73d
00000170: b4c6 46bd d3bb ae3e 91ea 70be 779d 4f3e
00000180: cba6 6e3e 15bf 993d 687c 903e 4dca 9b3e

fc2.weight f4 [100, 100]
-0.044109397 0.004801265 0.076201834 0.03621137 0.06117112 -0.081002295 -0.0408801 0.11175522
0.07314762 -0.08557348 0.025142819 -0.0026092299 0.021699982 0.2150793 0.09632453 0.018476948
-0.00037208508 0.046453394 -0.06601179 0.11223608 -0.04574921 0.05336844 -0.0380417 0.042090736
-0.12910677 -0.041821152 -0.13137197 -0.07687194 -0.073783055 0.099353105 -0.13848482 -0.028927932
0.18997936 -0.07587856 0.04803424 0.11269688 -0.1283332 0.22872339 -0.08022375 -0.1352817
0.05478526 -0.013423735 0.07012402 0.025411317 0.10847911 0.10777545 -0.06028145 0.0141243385
-0.06337644 -0.10438566 -0.0739046 -0.082899176 0.1367902 0.01416156 -0.0894814 -0.00019000375
0.08298448 0.1790468 0.058081258 0.076539785 0.09479392 -0.036047913 0.07060265 0.052563615
-0.014320484 -0.12741114 0.119028986 -0.011233796 -0.014654579 0.025906025 0.05177109 -0.09808689
0.08170771 0.018937532 -0.08278674 -0.20741297 -0.13319647 0.16800335 -0.018868513 0.06616874
-0.06570229 -0.09294608 0.010623239 0.03369097 0.037569717 -0.10261436 0.15877812 0.013275794
-0.12978478 0.03607184 0.049602393 0.025747275 -0.042169765 -0.0051337364 0.023001816 0.010604096
0.15747319 -0.07820483 0.07371471 0.054331634 -0.14825684 -0.097987466 0.10675369 0.10155878
-0.11769587 -0.06002108 0.1417179 0.12215569 0.024351435 -0.0077501857 0.14457928 -0.09515267
-0.18126391 0.029994182 0.0033753035 0.004967744 -0.07811384 0.20253152 -0.14595768 -0.06551241
0.03453279 -0.0641158 0.104758464 -0.08934276 -0.2497489 0.12282481 -0.18092729 -0.07204006
-0.08844227 0.24806975 -0.18298316 -0.015356921 -0.022278158 0.02055069 0.013144783 -0.15256643
-0.08100755 0.25976172 0.0115765985 -0.008877393 -0.025221072 -0.21594119 -0.10152812 0.14582583
-0.13895914 -0.16384935 0.0067065344 -0.03966559 0.04404389 -0.048107523 -0.08620733 -0.08910347
0.1431272 -0.030745115 -0.0030054527 0.070690036 0.18162435 0.009158458 -0.04105834 0.077818885
0.12185696 -0.0064103385 -0.096312895 0.1462056 -0.04943979 -0.16227423 0.023324223 0.20817639
0.14929926 0.13947865 0.11591473 -0.09382097 0.04559456 0.07808944 -0.12706837 -0.26594475
-0.12579413 0.036040653 0.068610884 0.18789372 0.014071987 -0.03307811 -0.1892948 -0.19198059
0.005149375 -0.0036077818 0.10558346 0.008839131 -0.14406039 0.15769875 0.19283651 -0.03626063
-0.12273581 0.08654182 0.04295008 -0.05659061 0.08809256 -0.002988339 0.18558852 -0.11917087
0.08142156 0.052130226 0.36566845 0.1350195 0.03095062 0.070189424 0.10881585 0.008212266
0.104748055 0.05614126 -0.15990831 0.120759636 0.17491469 0.19756505 0.16298828 -0.14760995
0.20601808 0.11256662 0.07793985 0.058196124 -0.0082719205 -0.012942505 0.036008425 0.080373265
0.051618636 -0.022885516 -0.1496416 -0.10026582 -0.0306677 0.19501144 -0.14190847 0.14311655
0.18357413 -0.25913072 0.055856243 0.29197308 -0.22532137 0.029643394 -0.20602565 -0.11843691
-0.210733 -0.02882334 -0.19526303 -0.0031443343 0.04354576 0.21962221 -0.12687151 -0.10887698
0.024696697 -0.090858035 -0.09895812 -0.030495806 0.17159262 -0.060067195 -0.023708792 0.10715702
00000000: 0eac 34bd ee53 9d3b b50f 9c3d 6052 143d
00000010: 918e 7a3d 88e4 a5bd e471 27bd ecdf e43d
00000020: 6bce 953d 2641 afbd 50f8 cd3c 9dff 2abb
00000030: 29c4 b13c bf3d 5c3e cc45 c53d f85c 973c
00000040: 6a14 c3b9 ea45 3e3d 3031 87bd 08dc e53d
00000050: 8663 3bbd de98 5a3d 9dd1 1bbd 5667 2c3d
00000060: 9134 04be a84c 2bbd 6086 06be 096f 9dbd
00000070: 921b 97bd a479 cb3d f7ce 0dbe 45fa ecbc
00000080: f389 423e 3866 9bbd 8dbf 443d 9fcd e63d
00000090: c769 03be 7736 6a3e 594c a4bd 4987 0abe
000000a0: 8266 603d 3aef 5bbc 2f9d 8f3d 652b d03c
000000b0: 4c2a de3d 60b9 dc3d afe9 76bd c569 673c
000000c0: 82cb 81bd 26c8 d5bd 4c5b 97bd 0bc7 a9bd
000000d0: bb12 0c3e e305 683c 0642 b7bd be3b 47b9
000000e0: c4f3 a93d 0b58 373e 9de6 6d3d e4c0 9c3d
000000f0: 5123 c23d faa6 13bd 1f98 903d f24c 573d
00000100: 77a0 6abc 1178 02be 78c5 f33d f50d 38bc
00000110: c219 70bc df38 d43c ec0d 543d c8e1 c8bd
00000120: 5f56 a73d e222 9b3c 188c a9bd 1164 54be
00000130: a864 08be 1209 2c3e 2492 9abc 7a83 873d
00000140: ec8e 86bd 845a bebd 180d 2e3c 8bff 093d
00000150: b4e2 193d 7a27 d2bd bb96 223e b782 593c
00000160: 4de6 04be 11c0 133d e12b 4b3d f3eb d23c
00000170: 34ba 2cbd e738 a8bb 4e6e bc3c cdbc 2d3c
00000180: a740 213e db29 a0bd bdf7 963d d98a 5e3d
00000190: a4d0 17be a7ad c8bd aea1 da3d 0dfe cf3d
000001a0: 880a f1bd aad8 75bd 7f1e 113e c32c fa3d
000001b0: a97c c73c 45f5 fdbb 970c 143e 67df c2bd
000001c0: 3f9d 39be 5cb6 f53c 3234 5d3b 75c8 a23b
000001d0: 26fa 9fbd 6c64 4f3e ee75 15be 5f2b 86bd
000001e0: 4172 0d3d 254f 83bd 9b8b d63d 56f9 b6bd
000001f0: 2dbe 7fbe 938b fb3d 0145 39be bd89 93bd
00000200: 3921 b5bd ff05 7e3e f05f 3bbe 989b 7bbc
00000210: af80 b6bc ec59 a83c 375d 573c 603a 1cbe
00000220: 49e7 a5bd 7dff 843e c6ab 3d3c 7c72 11bc
00000230: 6c9c cebc b01f 5dbe faed cfbd 5e53 153e
00000240: 4e4b 0ebe 20c8 27be 7dc2 db3b 6378 22bd
00000250: 5e67 343d 650c 45bd 788d b0bd e17b b6bd
00000260: f08f 123e 2edd fbbc 21f7 44bb f0c5 903d
00000270: bcfb 393e 5b0d 163c ca2c 28bd 825f 9f3d
00000280: 2490 f93d d10d d2bb b23f c5bd ecb6 153e
00000290: 6181 4abd 372b 26be 7112 bf3c 312c 553e
000002a0: e8e1 183e 7ed3 0e3e b464 ed3d 3525 c0bd
000002b0: 5dc1 3a3d 5bed 9f3d 361e 02be e929 88be
000002c0: 2dd0 00be 5d9f 133d dd83 8c3d 3667 403e
000002d0: 318e 663c ea7c 07bd 7fd6 41be 8f96 44be
000002e0: 17bc a83b 8970 6cbb 243c d83d 01d2 103c
000002f0: 9184 13be c87b 213e ef76 453e 0786 14bd
00000300: ea5c fbbd d63c b13d 6cec 2f3d 8ecb 67bd
00000310: df69 b43d 02d8 43bb eb0a 3e3e db0f f4bd
00000320: 59c0 a63d 8186 553d e538 bb3e 8d42 0a3e
00000330: 288c fd3c 79bf 8f3d d8da de3d bd8c 063c
00000340: 2686 d63d 61f4 653d 01bf 23be d450 f73d
00000350: d61c 333e 7e4e 4a3e 66e6 263e 1027 17be
00000360: 67f6 523e 5489 e63d ee9e 9f3d 0f5f 6e3d
00000370: f386 07bc cd0c 54bc 927d 133d bd9a a43d
00000380: 106e 533d 687a bbbc a63b 19be 2b58 cdbd
00000390: d43a fbbc 14b1 473e 7450 11be 258d 123e
000003a0: dbfa 3b3e c8ac 84be 84c9 643d 7f7d 953e
000003b0: a5ba 66be b4d6 f23c 63f8 52be 0d8f f2bd
000003c0: 64ca 57be ed1e ecbc 08f3 47be 2d11 4ebb
000003d0: 0a5d 323d a5e4 603e 9bea 01be e5fa debd
000003e0: ba50 ca3c c713 babd 8eaa cabd 57d2 f9bc
000003f0: fab5 2f3e 0509 76bd f138 c2bc 2475 db3d

fc2.bias f4 [100]
0.026667144 0.019410143 0.035400588 -0.1251723 0.0605669 -0.08341286 0.2926523 -0.012929273
-0.017128047 -0.22541691 0.037867945 0.22487399 -0.18382119 -0.17366242 -0.12306793 -0.021694291
-0.11671087 0.10753295 -0.047700018 0.1140045 -0.04166887 0.03304049 -0.18151866 0.025803266
-0.029778633 0.019984825 -0.08176139 0.021379586 -0.21127908 0.120159335 -0.071852915 0.005297971
-0.01938761 0.20793292 0.015284673 0.062231265 -0.06423457 -0.17805381 -0.21375643 -0.040385995
0.061267402 0.03133931 -0.06044301 -0.031148221 0.18098235 -0.07905254 0.012699457 -0.2820737
0.093338214 0.048050806 -0.16886942 -0.16545767 0.24525537 -0.13168599 0.010724033 0.18839507
-0.046869185 -0.11282585 -0.034502648 -0.06379662 -0.07994536 0.09194396 -0.28637466 -0.027275005
-0.05486645 0.14806783 -0.027819296 -0.108853206 0.015892431 0.0018730095 0.12806931 0.068577565
0.047646523 0.13021946 -0.053242087 0.19456597 -0.1426918 -0.12212856 -0.10414779 0.034593444
0.0735736 -0.009099856 -0.022193769 0.055774305 0.09306872 0.02266663 0.099631585 -0.023951251
0.19178751 0.012136572 0.01784026 -0.011555679 0.029330013 -0.050406724 -0.10582714 0.24877653
0.025884815 -0.009276076 -0.08425137 -0.03649135
00000000: 0e75 da3c 0502 9f3c 3500 113d 2b2d 00be
00000010: ff14 783d 5dd4 aabd 86d6 953e 4dd5 53bc
00000020: 1e50 8cbc b1d3 66be 6b1b 1b3d 5e45 663e
00000030: 9f3b 3cbe 90d4 31be 0a0b fcbd 3ab8 b1bc
00000040: 1c06 efbd 3c3a dc3d 1861 43bd 317b e93d
00000050: faac 2abd 7755 073d 07e0 39be 5f61 d33c
00000060: 52f2 f3bc 37b7 a33c 8472 a7bd 3e24 af3c
00000070: 8b59 58be 1916 f63d 9f27 93bd 9a9a ad3b
00000080: c4d2 9ebc 5eec 543e 916c 7a3c 36e6 7e3d
00000090: 6a8d 83bd bd53 36be f7e2 5abe c96b 25bd
000000a0: 87f3 7a3d a65d 003d 1793 77bd 8e2a ffbc
000000b0: 7053 393e 4ce6 a1bd 6211 503c f76b 90be
000000c0: 1b28 bf3d ecd0 443d 1bec 2cbe bc6d 29be
000000d0: 3924 7b3e b1d8 06be dbb3 2f3c a3ea 403e
000000e0: e7f9 3fbd 3d11 e7bd a652 0dbd cda7 82bd
000000f0: 65ba a3bd 1d4d bc3d b39f 92be d56f dfbc
00000100: a5bb 60bd 189f 173e 4be5 e3bc 6eee debd
00000110: d830 823c c57f f53a 9a24 033e 6572 8c3d
00000120: 0029 433d 4058 053e 6014 5abd 4d3c 473e
00000130: cd1d 12be 8a1e fabd 704b d5bd dbb1 0d3d
00000140: c1ad 963d 9017 15bc b5cf b5bc 9973 643d
00000150: d09a be3d 5eaf b93c a50b cc3d 6a35 c4bc
00000160: f263 443e 79d8 463c bd25 923c 0854 3dbc
00000170: 7f45 f03c 4877 4ebd e6bb d8bd 46bf 7e3e
00000180: 640c d43c affa 17bc fb8b acbd f477 15bd

fc3.weight f4 [3, 100]
0.020107139 0.073165864 0.052627273 -0.06966082 0.024694795 0.050331783 0.18597595 -0.17487687
-0.010961817 -0.0816106 -0.036632627 0.10450463 -0.1106026 -0.07751418 0.042814918 -0.14769013
-0.17882638 0.070197195 0.016716668 0.066492476 0.10717841 0.024432337 -0.120295055 -0.0054522194
-0.0308127 -0.06257484 -0.017678795 0.006914005 -0.06569174 0.06950914 -0.13509516 0.03660161
0.07951571 0.05198213 0.0015689692 -0.0032144438 0.07471884 -0.115062125 -0.07173318 0.079300046
-0.14970766 -0.019750096 -0.01693922 -0.21473694 -0.063229546 -0.020371692 -0.09429539 -0.069925025
-0.0018544521 0.11987153 -0.10381355 0.053027697 0.0202572 -0.023461184 -0.07311479 0.076523356
0.11307911 -0.07936308 0.101167314 -0.010465428 0.0031263062 0.035366476 -0.20445973 -0.059075564
-0.012646671 0.05645215 0.058256038 -0.020929301 0.022644948 -0.0043262937 -0.018502768 -0.014209977
-0.03865569 0.09638416 0.038347986 0.078714155 0.058919843 -0.057515386 -0.072357126 -0.15267107
0.02291228 0.031260774 -0.03677834 -0.11160522 0.010255269 -0.20842992 -0.030962843 -0.004521736
-0.044962708 -0.07250083 0.045263648 0.009787346 -0.00246045 0.06938685 -0.05447687 0.16525263
0.122402124 0.035316233 0.09433677 0.08164033 -0.046255637 0.016747676 -0.12998232 0.03546438
0.026826771 -0.034276158 0.04993303 -0.059984524 0.040662657 0.055717982 0.04142194 0.106111206
0.17497824 -0.12840949 -0.054693226 -0.16861399 0.08596858 0.19114134 -0.050560143 0.1848305
-0.08021148 0.13609011 -0.12154504 -0.00556977 -0.06596213 -0.15849903 0.06932975 0.02459902
-0.114357166 0.0047945757 0.2345403 0.13407966 -0.12503333 -0.0076132785 0.048565734 0.020644369
-0.06702962 -0.14636281 -0.10134849 -0.072888 -0.028579716 0.07848063 -0.0051865024 -0.055463392
-0.084719285 -0.0016698339 -0.13784114 -0.10765189 0.07012257 -0.037874322 -0.124603525 0.13658834
0.08582252 -0.2036195 0.053629 -0.05186054 0.0006796056 0.04771958 -0.025989156 -0.020764796
0.010586129 0.011386161 -0.05046848 -0.028466908 0.028103204 0.091442004 -0.10308411 0.019334354
-0.040295538 0.040035848 0.09948701 -0.18109341 0.1197312 -0.044212196 -0.052566543 0.10142407
0.17320518 -0.018922772 0.053767666 0.27904478 0.010479981 -0.05985948 -0.09443368 -0.14875875
0.029900916 -0.008069531 -0.037558824 -0.002368507 0.1666111 -0.08613376 -0.0903311 0.018213905
-0.03379787 0.0044600344 0.14520128 -0.065711394 0.21466261 -0.072698705 -0.0770981 0.19419667
-0.032439347 -0.11888371 0.04838142 -0.01980432 0.05179601 -0.0070775235 -0.14793994 -0.10786443
0.008883753 -0.019526025 0.06021118 0.07001449 0.010054804 0.07206828 -0.11970581 0.09379265
0.108904846 0.0056026196 -0.045433745 -0.14211425 -0.11167563 0.21825568 -0.082389615 -0.019752141
-0.16881901 0.06067935 -0.11836796 0.021276297 0.040372908 0.0533042 -0.17503975 -0.072382085
0.06844167 0.0592451 0.032224745 0.042273723 -0.07740692 -0.12636606 0.049426973 0.027845062
0.1132817 0.0048765065 -0.049979147 0.045712985 0.06816295 0.06733323 -0.008727778 0.14933631
0.11689369 0.0597383 -0.032313153 0.09733477 0.17266291 0.004990085 -0.0064468794 0.07542078
00000000: bab7 a43c fcd7 953d b28f 573d 55aa 8ebd
00000010: bd4c ca3c b328 4e3d 7b70 3e3e ec12 33be
00000020: 3199 33bc 7523 a7bd 180c 16bd 8606 d63d
00000030: 9e83 e2bd c1bf 9ebd b25e 2f3d 153c 17be
00000040: 431e 37be 8cc3 8f3d 65f1 883c 352d 883d
00000050: 5b80 db3d 5326 c83c 415d f6bd 88a8 b2bb
00000060: ea6a fcbc 3d27 80bd 1fd3 90bc e18e e23b
00000070: 6489 86bd cf5a 8e3d 6356 0abe 92eb 153d
00000080: 22d9 a23d 37eb 543d dfa5 cd3a 6ba9 52bb
00000090: 3106 993d b1a5 ebbd d8e8 92bd 1068 a23d
000000a0: f74c 19be f4ca a1bc 1ec4 8abc 00e4 5bbe
000000b0: 7e7e 81bd 89e2 a6bc f11d c1bd da34 8fbd
000000c0: 1611 f3ba 347f f53d 339c d4bd 9233 593d
000000d0: 6df2 a53c ab31 c0bc 35bd 95bd 47b8 9c3d
000000e0: 0596 e73d 1c89 a2bd cf30 cf3d 3077 2bbc
000000f0: b7e2 4c3b 70dc 103d e45d 51be 38f9 71bd
00000100: fc33 4fbc 5f3a 673d e29d 6e3d ed73 abbc
00000110: e681 b93c 95c3 8dbb 1e93 97bc f7d0 68bc
00000120: 6e55 1ebd 0f65 c53d c712 1d3d e334 a13d
00000130: ef55 713d 4195 6bbd f92f 94bd ce55 1cbe
00000140: 89b2 bb3c 4c0b 003d e2a4 16bd 4791 e4bd
00000150: b705 283c a76e 55be caa5 fdbc 122b 94bb
00000160: d12a 38bd 517b 94bd 6066 393d 1b5b 203c
00000170: 803f 21bb b11a 8e3d 2323 5fbd fc37 293e
00000180: f7ad fa3d c1a7 103d a333 c13d 0c33 a73d
00000190: 8d76 3dbd 6c32 893c 161a 05be 1943 113d
000001a0: d1c3 db3c 2865 0cbd 9486 4c3d 55b2 75bd
000001b0: e38d 263d 8a38 643d 0daa 293d d550 d93d
000001c0: 7f2d 333e c77d 03be 0106 60bd 25a9 2cbe
000001d0: 4b10 b03d 8eba 433e 2718 4fbd 3544 3d3e
000001e0: eb45 a4bd 355b 0b3e 9bec f8bd 9e82 b6bb
000001f0: 2717 87bd 924d 22be c2fc 8d3d e283 c93c
00000200: 1734 eabd d11b 9d3b 552b 703e 2e4c 093e
00000210: bd08 00be cf78 f9bb ddec 463d 611e a93c
00000220: d346 89bd 22e0 15be cc8f cfbd 4e46 95bd
00000230: 0220 eabc 74ba a03d 89f3 a9bb 952d 63bd
00000240: 4e81 adbd 54de daba 3a26 0dbe 9878 dcbd
00000250: 6c9c 8f3d 1b22 1bbd 2230 ffbd d0dd 0b3e
00000260: b8c3 af3d a181 50be 15aa 5b3d b86b 54bd
00000270: 8f27 323a 9b75 433d 36e7 d4bc ef1a aabc
00000280: 7171 2d3c 058d 3a3c 09b8 4ebd 6f33 e9bc
00000290: b138 e63c f245 bb3d c31d d3bd 1463 9e3c
000002a0: ef0c 25bd a1fc 233d d8bf cb3d 8d70 39be
000002b0: a235 f53d d917 35bd 0450 57bd 6cb7 cf3d
000002c0: b35c 313e ee03 9bbc 7c3b 5c3d f5de 8e3e
000002d0: 3ab4 2b3c 372f 75bd 7266 c1bd 3754 18be
000002e0: c4f2 f43c 1136 04bc 48d7 19bd f438 1bbb
000002f0: 1a9c 2a3e e666 b0bd 83ff b8bd 5435 953c
00000300: a36f 0abd 7b25 923b a5af 143e b293 86bd
00000310: 84d0 5b3e 0fe3 94bd 9ce5 9dbd 7edb 463e
00000320: 1fdf 04bd 4d79 f3bd 992b 463d ab3c a2bc
00000330: 0e28 543d 92ea e7bb 917d 17be 07e8 dcbd
00000340: 298d 113c 0bf5 9fbc 00a0 763d c263 8f3d
00000350: e8bc 243c 8998 933d 5228 f5bd 5c16 c03d
00000360: 8109 df3d 2e96 b73b bc18 3abd 6686 11be
00000370: 31b6 e4bd 6b7e 5f3e e3bb a8bd 3ecf a1bc
00000380: e4de 2cbe e98a 783d e76a f2bd a14b ae3c
00000390: 105e 253d 8155 5a3d 9f3d 33be 0f3d 94bd
000003a0: 252b 8c3d fdaa 723d 18fe 033d 3627 2d3d
000003b0: 8587 9ebd 1b66 01be f073 4a3d 541b e43c
000003c0: 3c00 e83d 1acb 9f3b efb6 4cbd 8a3d 3b3d
000003d0: 0499 8b3d 01e6 893d f4fe 0ebc 9eeb 183e
000003e0: f565 ef3d 26b0 743d cc5a 04bd 7457 c73d
000003f0: 8cce 303e de83 a33b 5840 d3bb 3676 9a3d

fc3.bias f4 [3]
0.098653354 0.04300128 0.069030054
00000000: c50a ca3d 1c22 303d a15f 8d3d

fc1.weight f4 [100, 11]
-0.20763479 0.20853703 0.101197615 -0.30216858 0.043634612 0.06872457 -0.057315778 0.19336703
-0.043808784 -0.04304542 0.0058752494 -0.015984304 -0.2608381 0.2733973 0.15167038 0.0016344948
-0.08870176 -0.088008635 -0.07654464 0.0668112 0.23579544 0.10915117 -0.13050583 0.071787156
-0.21102016 -0.26194718 0.09376182 0.10803306 -0.11590931 0.2929598 -0.18250006 -0.16371244
0.01575935 0.019910304 -0.35489982 0.19053787 0.11307721 0.030573532 -0.0771358 0.17452604
0.087169565 -0.10975569 0.108403794 -0.07481439 -0.28892255 0.13477741 0.059205174 -0.32831672
-0.18775171 0.19838975 -0.07105641 0.009915298 -0.00035138457 -0.027193459 0.028794719 -0.21489696
0.21102193 0.04520643 -0.20901033 -0.1120887 0.1489384 -0.16831847 0.20769338 -0.046413932
-0.2189777 -0.021459645 -0.13547277 -0.032561153 0.09537352 0.20346208 -0.19884166 -0.10701728
0.16590133 -0.116216116 0.13978475 0.22940053 0.065813564 0.11851617 0.20274077 -0.02795898
-0.0059767733 -0.0438526 0.24504311 -0.10263803 -0.24842644 0.27076098 -0.08907111 0.26570436
-0.10740902 -0.102280654 -0.13277656 0.18265736 0.08479509 -0.2672398 0.14832442 0.3197362
-0.24486223 -0.13728985 0.16193478 -0.20692985 0.28775007 -0.17342167 -0.18780535 -0.10114532
0.16607046 0.3559211 0.08345158 -0.13659504 -0.051681984 0.015167216 0.027027002 -0.23079962
0.08805757 0.12184587 0.18018441 -0.07852604 -0.10454211 -0.025012633 -0.1544127 0.07523567
-0.0065167313 0.032819893 -0.054151416 0.17652477 -0.13098733 0.22773756 0.1705256 0.09593051
-0.30150753 0.26420513 0.26560456 -0.17666143 0.07369454 0.16442883 0.24587691 0.012022259
0.0022469542 0.0060441233 0.12760492 -0.16196479 0.20553774 0.14840832 0.02500599 0.14195843
-0.089273036 0.100440204 0.24355173 0.087346114 0.17451753 0.12698637 -0.12967037 0.21234226
0.10319246 0.12698452 0.151926 -0.23237483 0.21866265 0.18520507 0.1309169 -0.12647997
-0.18854636 -0.14044255 -0.11488888 -0.17170121 -0.036459073 0.20017622 -0.41028503 0.26594505
-0.14408056 -0.29919615 0.026224101 0.24999757 0.088444196 -0.1631159 -0.12850997 0.010305631
-0.17032072 -0.120037675 0.10920513 -0.152449 -0.15853828 -0.05984046 -0.14792512 -0.15803342
-0.092998296 0.032994825 0.04789308 0.15977359 0.048339862 -0.13809274 0.027896393 -0.060821306
0.2110386 0.17135295 -0.2909631 0.095880486 0.21841219 -0.051626854 -0.031728413 -0.34916553
0.11058718 0.20719168 0.058762264 -0.05471722 -0.12818123 0.01568048 0.20880105 0.2311967
0.11789378 0.10045779 -0.2971282 0.03159652 0.22554265 0.20781092 -0.12830423 0.3458865
-0.35303107 0.28273898 0.27917656 0.0992822 -0.17684177 -0.007735937 -0.24269076 0.054814357
-0.12322123 0.21418852 0.07099824 0.1590949 -0.14368603 -0.19496725 -0.1699572 0.07425137
-0.08948314 -0.07472974 0.35758984 0.19260341 -0.27787113 0.17131516 -0.013943234 -0.040692575
-0.09094322 -0.039669298 -0.09260624 0.14569548 -0.19095759 -0.19333157 -0.015545286 0.011438065
-0.1121945 0.16841298 -0.090803444 -0.09179252 -0.07139889 0.35241643 -0.33831868 0.07540444
00000000: 379e 54be bb8a 553e b240 cf3d d7b5 9abe
00000010: 35ba 323d 78bf 8c3d f3c3 6abd 0202 463e
00000020: d770 33bd 6550 30bd 2a85 c03b 84f1 82bc
00000030: 928c 85be bbfa 8b3e 7b4f 1b3e 8b3c d63a
00000040: 45a9 b5bd df3d b4bd 70c3 9cbd 4fd4 883d
00000050: 5c74 713e a68a df3d 52a3 05be 2505 933d
00000060: ab15 58be f11d 86be 3206 c03d 7040 dd3d
00000070: dc61 edbd d4fe 953e 4ce1 3abe 3ca4 27be
00000080: c119 813c ef1a a33c 6eb5 b5be 5c1c 433e
00000090: 0695 e73d 5875 fa3c 60f9 9dbd f4b6 323e
000000a0: f585 b23d 97c7 e0bd cf02 de3d 4938 99bd
000000b0: a8ed 93be 1703 0a3e 2081 723d 2119 a8be
000000c0: fc41 40be af26 4b3e 0686 91bd c673 223c
000000d0: 0a3a b8b9 d1c4 debc e7e2 eb3c f30d 5cbe
000000e0: 2216 583e 612a 393d ce06 56be c38e e5bd
000000f0: 4f83 183e ad5b 2cbe 93ad 543e 891c 3ebd
00000100: b13b 60be 23cc afbc 60b9 0abe d85e 05bd
00000110: 3153 c33d 5d58 503e 269d 4bbe e02b dbbd
00000120: 0ae2 293e b702 eebd bc23 0f3e f9e7 6a3e
00000130: 43c9 863d 9bb8 f23d 479b 4f3e 3b0a e5bc
00000140: cfd8 c3bb c99e 33bd 95ec 7a3e e333 d2bd
00000150: 8063 7ebe 2fa1 8a3e ea6a b6bd 670a 883e
00000160: 43f9 dbbd 8578 d1bd 94f6 07be 880a 3b3e
00000170: 0ca9 ad3d a8d3 88be 5be2 173e 77b4 a33e
00000180: 2abd 7abe b695 0cbe 3bd2 253e 6be5 53be
00000190: fa53 933e 7395 31be 0c50 40be 4725 cfbd
000001a0: 600e 2a3e 4a3b b63e a9e8 aa3d 92df 0bbe
000001b0: 7db0 53bd ea7f 783c bb67 dd3c bc56 6cbe
000001c0: 8757 b43d 548a f93d 4382 383e 43d2 a0bd
000001d0: 2c1a d6bd 4be7 ccbc 5d1e 1ebe 2915 9a3d
000001e0: 4e8a d5bb 276e 063d e0cd 5dbd e9c2 343e
000001f0: 8b21 06be 0934 693e 439e 2e3e 3777 c43d
00000200: 325f 9abe e545 873e 52fd 873e bce6 34be
00000210: 2aed 963d 0860 283e 28c7 7b3e 02f9 443c
00000220: a341 133b c80d c63b ddaa 023e 19da 25be
00000230: 7c78 523e 5af8 173e 5dd9 cc3c 8d5d 113e
00000240: c8d4 b6bd 98b3 cd3d a065 793e 85e2 b23d
00000250: b9b4 323e b708 023e 4fc8 04be 4070 593e
00000260: 9256 d33d 3b08 023e 7d92 1b3e abf3 6dbe
00000270: 1ae9 5f3e 66a6 3d3e 140f 063e f783 01be
00000280: 4c12 41be 2cd0 0fbe dc4a ebbd 71d2 2fbe
00000290: 1c56 15bd fffa 4c3e e110 d2be f329 883e
000002a0: db89 13be 3d30 99be edd3 d63c 5dff 7f3e
000002b0: 3b22 b53d db07 27be 1e98 03be f3d8 283c
000002c0: 8e68 2ebe 50d6 f5bd f0a6 df3d 971b 1cbe
000002d0: dc57 22be 451b 75bd af79 17be 83d3 21be
000002e0: e475 bebd 9525 073d 892b 443d b09b 233e
000002f0: 0500 463d 2f68 0dbe fa86 e43c c31f 79bd
00000300: 811a 583e 2677 2f3e 1ef9 94be fd5c c43d
00000310: 72a7 5f3e ae76 53bd a7f5 01bd d3c5 b2be
00000320: 887b e23d 0e2a 543e b3b0 703d 2a1f 60bd
00000330: f141 03be 5a74 803c f1cf 553e d4be 6c3e
00000340: 4b72 f13d d0bc cd3d 3021 98be 5a6b 013d
00000350: a7f4 663e 63cc 543e 2f62 03be 0918 b13e
00000360: 7dc0 b4be 2ac3 903e 3bf0 8e3e 7754 cb3d
00000370: 0216 35be be7d fdbb ed83 78be 0585 603d
00000380: 6a5b fcbd 3c54 5b3e 8667 913d c6e9 223e
00000390: 6e22 13be 7fa5 47be 4309 2ebe 1a11 983d
000003a0: f042 b7bd e80b 99bd 0416 b73e d439 453e
000003b0: 2045 8ebe 3e6d 2f3e 2a72 64bc 42ad 26bd
000003c0: 7040 babd 467c 22bd 57a8 bdbd 3231 153e
000003d0: 638a 43be b6f8 45be a8b1 7ebc b966 3b3c
000003e0: 3bc6 e5bd 7474 2c3e 28f7 b9bd b7fd bbbd
000003f0: 9539 92bd ed6f b43e 1b38 adbe a56d 9a3d

fc1.bias f4 [100]
0.6639335 -0.5863942 0.5147558 -0.36635357 -0.38504097 0.66673964 -0.46560407 -0.53532964
-0.4721427 -0.70162684 0.5617709 0.13695875 0.26221725 -0.57908523 0.49721098 -0.16821204
-0.57612026 -0.58729786 -0.6569582 -0.6378704 0.524104 0.10246043 0.5375759 -0.2855484
0.52648723 0.39534247 -0.2801393 0.17243525 0.38072369 0.60717946 -0.36938906 -0.5962422
0.32340586 -0.4004653 -0.74931246 0.5532666 -0.55886734 0.5494233 0.5511264 0.50956005
0.40407214 -0.50100255 0.67533463 -0.19799115 -0.2407201 -0.699796 -0.5843566 -0.5069775
-0.5307062 0.55002475 0.528937 -0.5692048 -0.031982426 0.079627395 -0.49116907 -0.53562623
0.10835541 -0.39800233 -0.70014143 -0.37648764 0.37185484 0.27095863 -0.29273412 -0.29719377
0.24531576 -0.5571096 0.3633999 -0.6516495 0.0013501345 0.60946363 0.26602998 0.5995943
-0.25708184 -0.55853564 -0.2791358 -0.53943735 -0.6111738 -0.20883481 0.4200653 -0.46439683
-0.5331562 -0.37845516 -0.47947833 0.35594392 -0.5707679 -0.12416855 -0.61690784 -0.5739441
-0.6844082 0.030581877 0.31550968 0.4452048 0.5350144 -0.49365553 -0.5444725 0.2723795
0.545203 -0.5356999 -0.5407259 -0.44413733
00000000: 8cf7 293f ee1d 16bf 09c7 033f b292 bbbe
00000010: 1724 c5be 73af 2a3f a863 eebe 5d0b 09bf
00000020: b0bc f1be d19d 33bf 38d0 0f3f ea3e 0c3e
00000030: 5741 863e ee3e 14bf 7092 fe3e c73f 2cbe
00000040: 9e7c 13bf 2759 16bf 6a2e 28bf 794b 23bf
00000050: ae2b 063f c6d6 d13d 939e 093f 6633 92be
00000060: dec7 063f 546a ca3e 6b6e 8fbe de92 303e
00000070: 37ee c23e 1d70 1b3f 9020 bdbe 54a3 18bf
00000080: 7495 a53e ca09 cdbe f1d2 3fbf e1a2 0d3f
00000090: ee11 0fbf 01a7 0c3f 9f16 0d3f 8772 023f
000000a0: 8be2 ce3e b441 00bf bbe2 2c3f 31be 4abe
000000b0: 547f 76be d525 33bf 6598 15bf 47c9 01bf
000000c0: 5ddc 07bf 6cce 0c3f 6a68 073f 68b7 11bf
000000d0: 0100 03bd b013 a33d 837a fbbe cd1e 09bf
000000e0: 71e9 dd3d f6c6 cbbe 783c 33bf fdc2 c0be
000000f0: c263 be3e 17bb 8a3e 3fe1 95be c829 98be
00000100: 0e34 7b3e bc9e 0ebf 8d0f ba3e 80d2 26bf
00000110: fff6 b03a cf05 1c3f 1535 883e 037f 193f
00000120: 3ba0 83be 31fc 0ebf e3ea 8ebe 9118 0abf
00000130: e375 1cbf cbd8 55be cd12 d73e 6cc5 edbe
00000140: ed7c 08bf e0c4 c1be 2f7e f5be 483e b63e
00000150: d81d 12bf 154c febd aced 1dbf 00ee 12bf
00000160: 6035 2fbf d886 fa3c 7c8a a13e e2f1 e33e
00000170: b4f6 083f 6bc0 fcbe 8d62 0bbf 5375 8b3e
00000180: 6c92 0b3f a123 09bf 036d 0abf f865 e3be

fc2.weight f4 [100, 100]
0.28559706 -0.25441498 0.2763583 -0.12018722 0.015228708 0.28161618 -0.111753985 -0.049864653
-0.116616026 -0.10074682 0.025174666 -0.03772655 0.0033481787 -0.24179453 0.12100931 -0.051468216
-0.04755558 -0.074990526 -0.23574395 -0.350788 0.14199246 -0.026361741 0.299718 -0.19746222
0.2490307 0.117551796 -0.31018883 -0.050972678 0.04255475 -0.040702105 -0.22842179 -0.015531679
0.061227024 -0.31289393 -0.06080614 0.30760276 -0.10530737 0.08922346 0.08427867 0.018934675
0.09971312 -0.047307305 0.07919163 -0.20515034 -0.0786873 -0.027969157 -0.1349426 -0.23498484
-0.0961966 0.16636132 0.19369476 -0.23092121 0.018836252 -0.016014503 -0.036528535 -0.32747138
-0.02049797 -0.09745806 -0.080942124 -0.17394616 0.11063949 0.117508106 -0.06352145 -0.15550508
-0.03555413 -0.06417956 -0.010838151 -0.25918043 -0.035150874 0.07528386 0.002489175 0.28928977
0.0020729974 -0.046143997 -0.10427056 -0.17526487 -0.21522999 -0.013419434 0.008160946 0.01832601
-0.12849171 0.011459403 -0.1879675 0.03249732 -0.0202404 -0.046749596 -0.1482855 -0.103097744
-0.046410307 -0.08375554 -0.043250967 0.08699808 0.13876921 -0.11960827 -0.06942674 0.012697845
0.21878898 -0.13444468 -0.17283705 -0.23570569 -0.16684857 0.12751879 -0.2514003 0.32136846
-0.13399911 -0.31652144 0.19665499 -0.21181616 0.03440495 0.035777528 -0.0012452132 0.13925552
0.106867306 0.11180024 -0.023855414 0.014421035 -0.13816242 0.2165014 0.10325738 0.51312125
-0.109313704 0.012832475 -0.1974917 0.25661248 -0.27781972 -0.08861045 0.3224946 0.12094215
0.21144779 0.2100401 0.30796888 -0.08186022 -0.1510712 0.48563644 -0.08722008 -0.37836593
0.12556408 0.007931686 0.25439695 0.03390118 -0.014048294 -0.2176548 0.09318585 0.48325434
-0.09591795 0.13833275 0.13023381 0.015327482 -0.04111548 -0.0050767846 -0.03063877 0.089962535
-0.024200503 0.13965371 0.102710865 0.55082095 0.0042806673 -0.037414454 -0.077382915 0.14738214
0.08570251 0.011189916 0.05225155 0.19547842 0.16678977 -0.048354253 0.22259654 0.3113355
0.10786674 0.30224156 -0.053154852 -0.20966065 -0.12472295 -0.06445013 0.103806764 0.10013362
0.36447018 -0.08577926 0.16496672 -0.04091135 -0.016448382 -0.1804789 0.029178688 -0.07837508
-0.16526131 0.17914869 0.07460555 0.016688466 0.07899881 0.19886473 0.22682576 -0.22599284
0.09597487 0.03718065 -0.040401265 -0.05666296 -0.21062613 0.09775036 0.13588332 0.18272129
0.37151375 -0.32704338 0.3980293 -0.20257738 0.01706432 0.4296619 -0.14137748 -0.028974304
-0.06321868 -0.11648622 0.015481743 -0.08687499 -0.038700182 -0.30043778 0.061291862 -0.09130127
-0.06821087 -0.20263524 -0.34173164 -0.50173193 0.19769926 -0.0762144 0.39491317 -0.23402926
0.32132587 0.16384673 -0.44678825 -0.010172793 0.0041391714 -0.12490281 -0.3467889 -0.0077422145
-0.0015689261 -0.36230937 -0.09582465 0.47923034 -0.16677214 0.08939004 0.062084384 0.019075887
0.1630619 -0.06516571 0.07108625 -0.31512454 -0.0018344924 -0.12621886 -0.16934559 -0.22693643
-0.08777567 0.17902255 0.22099437 -0.26472425 -0.026053432 -0.07206513 -0.10613248 -0.4900931
00000000: c739 923e ae42 82be d67e 8d3e b824 f6bd
00000010: d581 793c ff2f 903e 46df e4bd e13e 4cbd
00000020: 62d4 eebd 5954 cebd 1a3b ce3c 2887 1abd
00000030: 1e6d 5b3b fc98 77be bbd3 f73d 56d0 52bd
00000040: a4c9 42bd a294 99bd dd66 71be 7c9a b3be
00000050: 7966 113e 94f4 d7bc a374 993e 8933 4abe
00000060: e701 7f3e ffbe f03d 12d1 9ebe bac8 50bd
00000070: e44d 2e3d 40b7 26bd 67e7 69be 9578 7ebc
00000080: 30c9 7a3d a233 a0be dc0f 79bd 1c7e 9d3e
00000090: 64ab d7bd caba b63d 4c9a ac3d e41c 9b3c
000000a0: 6436 cc3d 4ec5 41bd 392f a23d ee12 52be
000000b0: cf26 a1bd 931f e5bc 652e 0abe de9f 70be
000000c0: b902 c5bd 9f5a 2a3e eb57 463e 9c76 6cbe
000000d0: 7c4e 9a3c d930 83bc f29e 15bd 54aa a7be
000000e0: 5ceb a7bc 1798 c7bd fcc4 a5bd f11e 32be
000000f0: f596 e23d 17a8 f03d 8917 82bd b93c 1fbe
00000100: 35a1 11bd 9370 83bd 8092 31bc 4cb3 84be
00000110: 5dfa 0fbd 6d2e 9a3d 6d21 233b ca1d 943e
00000120: 20db 073b 7d01 3dbd ce8b d5bd a278 33be
00000130: 4065 5cbe 30dd 5bbc 7db5 053c 6e20 963c
00000140: 5593 03be 38c0 3b3c 8d7a 40be e91b 053d
00000150: 32cf a5bc 817c 3fbd 27d8 17be e924 d3bd
00000160: bc18 3ebd 0688 abbd ed27 31bd 0d2c b23d
00000170: 8419 0e3e 2ef5 f4bd 9b2f 8ebd 9f0a 503c
00000180: 380a 603e deab 09be 32fc 30be d55c 71be
00000190: 5ada 2abe 4994 023e 8ab7 80be 688a a43e
000001a0: 1037 09be 190f a2be ed5f 493e 56e6 58be
000001b0: 34ec 0c3d 758b 123d 6c36 a3ba 0099 0e3e
000001c0: 3fdd da3d 86f7 e43d 6e6c c3bc 3446 6c3c
000001d0: 737a 0dbe 8bb2 5d3e 9b78 d33d ea5b 033f
000001e0: dddf dfbd 4d3f 523c 443b 4abe b662 833e
000001f0: 633e 8ebe 6579 b5bd 031e a53e 85b0 f73d
00000200: c585 583e c114 573e 19ae 9d3e 55a6 a7bd
00000210: 69b2 1abe 57a5 f83e 71a0 b2bd 2eb9 c1be
00000220: df93 003e e7f3 013c 5140 823e f7db 0a3d
00000230: d12a 66bc e6e0 5ebe 39d8 be3d 1d6d f73e
00000240: a170 c4bd 1aa7 0d3e 035c 053e 1e20 7b3c
00000250: b568 28bd 285b a6bb 28fe fabc 473e b83d
00000260: 2240 c6bc 6201 0f3e 135a d23d 9a02 0d3f
00000270: d744 8c3b e63f 19bd ef7a 9ebd 58eb 163e
00000280: cc84 af3d e955 373c b905 563d 7f2b 483e
00000290: f0ca 2a3e 1c0f 46bd 59f0 633e 5e67 9f3e
000002a0: 3de9 dc3d 68bf 9a3e e7b8 59bd 48b1 56be
000002b0: bf6e ffbd 6efe 83bd a498 d43d db12 cd3d
000002c0: d69b ba3e 09ad afbd 09ed 283e a992 27bd
000002d0: c2be 86bc 76cf 38be 2508 ef3c 1d83 a0bd
000002e0: 433a 29be c172 373e cbca 983d 40b6 883c
000002f0: 21ca a13d 32a3 4b3e 0345 683e ab6a 67be
00000300: 798e c43d bd4a 183d cc7b 25bd 6c17 68bd
00000310: 60ae 57be 5731 c83d ff24 0b3e 4a1b 3b3e
00000320: 0d37 be3e 3b72 a7be 7fca cb3e 7270 4fbe
00000330: 79ca 8b3c a5fc db3e 42c5 10be 855b edbc
00000340: cc78 81bd 5490 eebd 23a7 7d3c 84eb b1bd
00000350: 1584 1ebd fbd2 99be 2d0d 7b3d 29fc babd
00000360: 24b2 8bbd 9d7f 4fbe 73f7 aebe 8171 00bf
00000370: ad71 4a3e 4c16 9cbd 0f32 ca3e 5ea5 6fbe
00000380: d384 a43e 70c7 273e 6ec1 e4be c9ab 26bc
00000390: e3a1 873b 0bcd ffbd 518e b1be 67b2 fdbb
000003a0: 6da4 cdba 9d80 b9be b73f c4bd ae5d f53e
000003b0: 51c6 2abe 2012 b73d 324c 7e3d 0945 9c3c
000003c0: b3f9 263e 9a75 85bd ab95 913d 0158 a1be
000003d0: 5a73 f0ba 843f 01be ee68 2dbe 0662 68be
000003e0: bbc3 b3bd b051 373e 594c 623e f089 87be
000003f0: 026e d5bc e296 93bd fc5b d9bd 7ced fabe

fc2.bias f4 [100]
0.2066568 0.005512159 0.21238069 0.24154814 0.23034972 0.1989626 0.26690158 -0.18571438
0.24482797 -0.22627081 0.20246331 0.22592795 0.227771 -0.17135254 0.2366574 -0.22576237
0.2106541 -0.1957622 -0.22827496 0.23557995 0.15573844 -0.23720765 0.24410063 -0.22818558
-0.2228927 -0.20081045 0.19731437 0.23858203 0.24051799 -0.25300607 0.19580847 -0.2245378
0.1816583 0.21776505 -0.19782437 0.06271072 -0.26223576 0.18816069 -0.19468161 0.20232561
-0.039008874 -0.15237395 -0.25100744 -0.08157526 0.14655659 0.2245295 0.17363544 -0.22948788
0.26694596 0.21186388 0.20085618 -0.2305705 -0.21225153 -0.21369168 0.2063496 0.108668305
0.2617423 -0.2584769 0.24617215 -0.15831846 0.09051452 -0.19386856 0.22606212 0.2131872
0.24880864 -0.26290175 -0.1460446 0.1972984 -0.2580282 -0.23137183 0.2178299 -0.23426063
0.15958248 -0.12285638 -0.2114599 0.23812751 -0.27324247 -0.19440283 0.15944137 -0.16432756
-0.17000589 -0.18093395 -0.18879624 -0.1749095 -0.23051196 0.19399305 -0.21015662 -0.19414386
0.23550488 -0.04735441 -0.21557453 -0.16179252 -0.21017657 0.082696445 0.0080467295 0.20538627
-0.22493121 -0.21049312 0.2595614 -0.20355175
00000000: d79d 533e 579f b43b 537a 593e 6558 773e
00000010: cce0 6b3e dabc 4b3e 53a7 883e e92b 3ebe
00000020: 2fb4 7a3e 89b3 67be 8b52 4f3e a859 673e
00000030: cd3c 693e 0a77 2fbe 5156 723e 402e 67be
00000040: b5b5 573e e375 48be e9c0 69be df3b 713e
00000050: e679 1f3e 90e6 72be 84f5 793e 7ba9 69be
00000060: fc3d 64be 41a1 4dbe c70c 4a3e d94e 743e
00000070: 594a 763e 038a 81be 0482 483e 3ded 65be
00000080: a204 3a3e cdfd 5e3e 7992 4abe 7a6e 803d
00000090: c443 86be 32ad 403e 9e5a 47be 722e 4f3e
000000a0: c5c7 1fbd eb07 1cbe 0c84 80be ee10 a7bd
000000b0: ee12 163e 10eb 653e 7dcd 313e dffe 6abe
000000c0: 24ad 883e d8f2 583e 3ead 4d3e ac1a 6cbe
000000d0: 7758 59be fed1 5abe 4f4d 533e 7d8d de3d
000000e0: 1603 863e 1657 84be 8d14 7c3e 3c1e 22be
000000f0: ad5f b93d 7b85 46be d47c 673e bf4d 5a3e
00000100: b1c7 7e3e 0f9b 86be b78c 15be 9708 4a3e
00000110: 461c 84be bdec 6cbe cd0e 5f3e 05e2 6fbe
00000120: 9769 233e 209c fbbd f288 58be b3d7 733e
00000130: 70e6 8bbe 8911 47be 9944 233e 7c45 28be
00000140: 0616 2ebe c046 39be cd53 41be 7a1b 33be
00000150: 540b 6cbe 1da6 463e 4c33 57be a6cd 46be
00000160: 3128 713e b3f6 41bd 92bf 5cbe f0ac 25be
00000170: 8738 57be c15c a93d 6ed6 033c c750 523e
00000180: 5e54 66be 828b 57be 3be5 843e df6f 50be

fc3.weight f4 [1, 100]
0.6235628 0.609357 0.6677352 0.68868226 0.6796955 0.6175394 0.6668585 -0.627023
0.6292655 -0.61907387 0.61148655 0.63821656 0.6348862 -0.6052625 0.6321471 -0.6766393
0.6487058 -0.62233204 -0.6228451 0.6157673 0.6653267 -0.6229407 0.6272822 -0.64952266
-0.6137453 -0.60671574 0.60869116 0.6298481 0.6365469 -0.67528343 0.6205589 -0.61501205
0.62232107 0.63867474 -0.63676524 0.6502525 -0.6779616 0.63037544 -0.65888226 0.6283358
-0.74909675 -0.6221148 -0.68246543 -0.73450255 0.6613049 0.6301 0.62164176 -0.6158578
0.66931003 0.66620004 0.6326529 -0.6271488 -0.6307392 -0.68017507 0.66492033 0.86833894
0.6740988 -0.6484451 0.6667142 -0.61424667 0.8496969 -0.62608695 0.65642786 0.62479097
0.6256681 -0.66331255 -0.61399597 0.6122359 -0.60214144 -0.6082699 0.63123703 -0.6230834
0.6181284 -0.8632329 -0.63389724 0.6855094 -0.6914668 -0.6583613 0.6986319 -0.63616616
-0.6060685 -0.59649104 -0.6251792 -0.63204175 -0.61675036 0.62522346 -0.6139015 -0.6166428
0.65841055 -0.6972771 -0.6149987 -0.6500339 -0.66943574 0.6538812 -0.9196279 0.6587491
-0.6455967 -0.64539635 0.60976887 -0.6696704
00000000: d0a1 1f3f d2fe 1b3f b2f0 2a3f 7b4d 303f
00000010: 8600 2e3f 1017 1e3f 3db7 2a3f 9484 20bf
00000020: 8b17 213f a07b 1ebf 628a 1c3f 2962 233f
00000030: e787 223f 7cf2 1abf 64d4 213f 3c38 2dbf
00000040: 9511 263f 2751 1fbf c772 1fbf eda2 1d3f
00000050: da52 2a3f 0b79 1fbf 9195 203f 1e47 26bf
00000060: 691e 1dbf b951 1bbf 2fd3 1b3f ba3d 213f
00000070: bdf4 223f 60df 2cbf f3dc 1e3f 6e71 1dbf
00000080: 6f50 1f3f 3080 233f 0c03 23bf f376 263f
00000090: e48e 2dbf 4960 213f 82ac 28bf 9dda 203f
000000a0: cec4 3fbf ea42 1fbf 0eb6 2ebf 5c08 3cbf
000000b0: 474b 293f 3c4e 213f ea23 1f3f dba8 1dbf
000000c0: e757 2b3f 168c 2a3f 8af5 213f d38c 20bf
000000d0: 2078 21bf f41f 2ebf 3838 2a3f 764b 5e3f
000000e0: bd91 2c3f 8000 26bf c8ad 2a3f 453f 1dbf
000000f0: bc85 593f 3c47 20bf a80b 283f 4df2 1f3f
00000100: c92b 203f dace 29bf d72e 1dbf 7ebb 1c3f
00000110: f125 1abf 93b7 1bbf c098 213f 6582 1fbf
00000120: aa3d 1e3f d5fc 5cbf 1747 22bf 8b7d 2f3f
00000130: f803 31bf 5e8a 28bf 8ad9 323f c9db 22bf
00000140: 4e27 1bbf a3b3 18bf be0b 20bf 7dcd 21bf
00000150: 5ae3 1dbf a50e 203f a628 1dbf 4ddc 1dbf
00000160: 988d 283f c180 32bf 8e70 1dbf 9f68 26bf
00000170: 2460 2bbf c264 273f bc6c 6bbf c8a3 283f
00000180: d345 25bf b238 25bf d019 1c3f 856f 2bbf

fc1.weight f4 [100, 14]
0.16948293 0.20775926 0.18355232 0.24786077 0.13634855 0.15898374 -0.11452739 -0.23427407
0.012376991 -0.053116553 0.092220165 0.21376285 -0.14846972 0.2132796 -0.16766594 -0.0547721
0.019185005 0.123413235 0.12136376 -0.25949863 0.15838794 0.27337724 -0.1839169 -0.12805124
-0.2242807 0.005809191 -0.21930645 -0.11840711 0.011101978 -0.010604495 -0.23541717 -0.015160959
-0.25253832 0.073504694 0.11695759 0.2235301 0.2630028 -0.005071966 0.112198055 0.2590531
-0.13219759 0.100754514 -0.024472306 -0.24161437 -0.22148733 0.1706295 -0.039931107 0.0765413
0.17482062 0.22771199 -0.20629695 0.12780647 0.19258812 -0.26027715 -0.16677815 0.19407152
-0.27733207 -0.10714548 0.044789974 -0.07817037 0.052508574 -0.15351167 -0.20470789 0.07242115
0.22666898 -0.12111162 0.17011447 -0.21150157 -0.30509278 -0.07717221 0.060867492 0.18675028
0.028614959 0.19331838 0.17435165 -0.2564773 0.099982224 0.26740012 -0.021235501 -0.139553
-0.06783786 0.20069297 -0.21550485 -0.055833206 0.059501123 0.21653911 0.14061508 0.2703785
-0.110059306 -0.25577345 0.22406143 -0.02410773 0.113211125 0.09679154 0.14952387 -0.106239505
0.00048571336 -0.2330464 -0.032224223 0.11133552 0.10235449 0.17472063 -0.26675946 -0.2055485
-0.1843577 -0.12256294 0.24077104 0.16587254 -0.040398527 0.037576865 -0.05652126 -0.06999755
0.23560767 -0.17921703 -0.027548127 0.00031426028 -0.15962821 0.06589485 -0.024827905 0.08849387
-0.1596432 0.18200278 -0.0006026579 0.15281406 0.3006265 0.26813528 0.28153285 -0.031517606
0.16503672 -0.12499474 0.23881374 0.2306463 -0.15489332 0.17801294 0.0013474216 -0.17769854
-0.13997799 0.18094955 -0.01666367 0.17180713 -0.081477724 0.27233306 -0.027800748 0.13540754
-0.2047798 0.22745492 0.31083444 -0.21036975 0.23338471 0.09766205 0.16602555 -0.063637465
0.16791488 -0.021641385 0.016886517 -0.19587076 -0.22194128 -0.00094408373 -0.10033246 0.18614717
-0.25849965 -0.13096684 -0.08542031 0.14188528 0.18346249 -0.11024351 -0.17794845 0.006102053
-0.093665734 0.30093962 -0.06443732 0.22823259 -0.026930988 0.30123177 0.24861747 0.12515944
-0.115534104 -0.09367175 -0.2339091 -0.21649419 0.21248582 -0.1853387 -0.23794892 -0.20293702
-0.07070338 0.15012561 -0.056416355 -0.16277811 -0.30646548 0.10763224 -0.12710118 0.18541698
0.1480304 -0.21362315 -0.16072935 -0.019453553 -0.06808639 0.26795477 -0.28025442 0.06435442
-0.17904744 -0.14368449 -0.14736493 0.06688838 -0.0014305175 -0.035924185 0.1611958 0.2736487
-0.17898265 0.2203874 -0.17491956 0.11335882 0.05338598 0.043027963 -0.050452475 -0.10694196
0.044760346 -0.2708117 -0.07081113 0.11791667 -0.006823832 -0.09307264 0.17807238 0.03904189
-0.006566857 0.024282565 0.05775456 -0.15023302 -0.031116167 0.03454902 -0.20643139 -0.16639905
-0.12695843 0.20131928 0.055290774 0.17875786 -0.05305931 0.005582223 0.023037964 0.28042933
-0.30941448 0.16028547 -0.18231273 -0.10150975 0.075870514 0.00940316 0.26436582 -0.0541165
-0.0089086965 -0.25213283 -0.22699918 0.10314442 0.24616493 -0.1465033 -0.23817165 -0.057797793
00000000: ef8c 2d3e d8be 543e 24f5 3b3e 37cf 7d3e
00000010: f49e 0b3e a2cc 223e 568d eabd 8be5 6fbe
00000020: ddc8 4a3c be90 59bd eddd bc3d a6e4 5a3e
00000030: 7208 18be f865 5a3e 9fb0 2bbe b658 60bd
00000040: df29 9d3c 14c0 fc3d 908d f83d 01dd 84be
00000050: 7330 223e 1af8 8b3e b654 3cbe dd1f 03be
00000060: d7a9 65be 075b be3b df91 60be 6d7f f2bd
00000070: 12e5 353c 7abe 2dbc 3311 71be ac65 78bc
00000080: b44c 81be a189 963d 7687 ef3d 13e5 643e
00000090: 4ea8 863e bc32 a6bb 18c8 e53d 9ca2 843e
000000a0: ce5e 07be 6258 ce3d 257a c8bc c269 77be
000000b0: 93cd 62be 80b9 2e3e cd8e 23bd afc1 9c3d
000000c0: 2d04 333e 552d 693e 823f 53be b3df 023e
000000d0: d235 453e 0c43 85be e4c7 2abe afba 463e
000000e0: 78fe 8dbe 176f dbbd b175 373d c917 a0bd
000000f0: 3b13 573d 2a32 1dbe f29e 51be 8a51 943d
00000100: ea1b 683e 5e09 f8bd 7d32 2e3e de93 58be
00000110: 1f35 9cbe 770c 9ebd 3150 793d 773b 3f3e
00000120: eb69 ea3c 41f5 453e 3d89 323e fe50 83be
00000130: 7bc3 cc3d abe8 883e 13f6 adbc fbe6 0ebe
00000140: 93ee 8abd 7582 4d3e 4ead 5cbe 5cb1 64bd
00000150: 73b7 733d 6ebc 5d3e 66fd 0f3e 0d6f 8a3e
00000160: c666 e1bd bdf4 82be 5c70 653e 937d c5bc
00000170: 3cdb e73d a53a c63d c91c 193e 1994 d9bd
00000180: 58a7 fe39 b7a3 6ebe 8cfd 03bd e103 e43d
00000190: 3b9f d13d f7e9 323e b294 88be 4e7b 52be
000001a0: 44c8 3cbe 4702 fbbd af8c 763e 7eda 293e
000001b0: ed78 25bd 33ea 193d d682 67bd e05a 8fbd
000001c0: 2343 713e ab84 37be 9cac e1bc 4dc3 a439
000001d0: 9475 23be e1f3 863d e463 cbbc 463c b53d
000001e0: 8279 23be f05e 3a3e b0fb 1dba 4a7b 1c3e
000001f0: b7eb 993e 0749 893e 1325 903e 9b18 01bd
00000200: 63ff 283e 3efd ffbd 978b 743e 8b2e 6c3e
00000210: 5b9c 1ebe 0649 363e f79b b03a 9bf6 35be
00000220: 6456 0fbe d74a 393e 4082 88bc 35ee 2f3e
00000230: cbdd a6bd 3d6f 8b3e 65be e3bc 46a8 0a3e
00000240: ccb1 51be f1e9 683e b125 9f3e 2b6b 57be
00000250: 67fc 6e3e 0a03 c83d 9a02 2a3e 5c54 82bd
00000260: e1f1 2b3e 4649 b1bc 9855 8a3c 5892 48be
00000270: 9344 63be 637c 77ba 1b7b cdbd 5d9d 3e3e
00000280: 115a 84be 2c1c 06be d8f0 aebd 604a 113e
00000290: 97dd 3b3e 59c7 e1bd 1e38 36be bbf3 c73b
000002a0: d2d3 bfbd c214 9a3e b7f7 83bd ceb5 693e
000002b0: 609e dcbc 0d3b 9a3e 9495 7e3e cc29 003e
000002c0: 259d ecbd f9d6 bfbd de85 6fbe a7b0 5dbe
000002d0: e295 593e 6ec9 3dbe e2a8 73be b9ce 4fbe
000002e0: efcc 90bd 87ba 193e d614 67bd 4eaf 26be
000002f0: 0be9 9cbe 4b6e dc3d d026 02be f3dd 3d3e
00000300: 4895 173e 07c0 5abe 3c96 24be 0f5d 9fbc
00000310: e170 8bbd 5e31 893e 827d 8fbe 40cc 833d
00000320: 3658 37be 0722 13be d5e6 16be c6fc 883d
00000330: 3480 bbba 3d25 13bd 8310 253e af1b 8c3e
00000340: 3a47 37be 3cad 613e 1d1e 33be ab28 e83d
00000350: 42ab 5a3d 173e 303d 41a7 4ebd 6304 dbbd
00000360: a056 373d d5a7 8abe 6d05 91bd 4c7e f13d
00000370: 749a dfbb de9c bebd 9b58 363e 64ea 1f3d
00000380: ca2e d7bb 3bec c63c 0c90 6c3d afd6 19be
00000390: 55e7 febc 4683 0d3d c062 53be 8364 2abe
000003a0: 6401 02be a426 4e3e 9478 623d 4d0c 373e
000003b0: b854 59bd 15eb b63b 1dba bc3c 6f94 8f3e
000003c0: 936b 9ebe e021 243e 30b0 3abe 58e4 cfbd
000003d0: 0062 9b3d b60f 1a3c f55a 873e 43a9 5dbd
000003e0: c8f5 11bc 8e17 81be 7972 68be 623d d33d
000003f0: a912 7c3e f604 16be 45e3 73be 61bd 6cbd
