mujoco/gail/save_model/ckpt_2061.pth.tar (torch, 144879 bytes, 16 tensors)

fc1.weight f4 [100, 11]
0	0x3d747093	0.05967767
1	0xbedc1f31	-0.42992547
2	0x3ec6ca41	0.38826182
3	0xbedf81be	-0.43653673
4	0x3de24942	0.11049129
5	0x3dfe4a77	0.12416547
6	0xbe0c135b	-0.13679259
7	0x3e32b169	0.17450489
8	0x3f035c91	0.5131312
9	0x39f165ea	0.00046043034
10	0x3d709afc	0.058741555
11	0x3e9cf08b	0.3065227
12	0xbe573cbd	-0.21019264
13	0x3da1a6d5	0.07893149
14	0xbf25a39e	-0.64702785
15	0xbe50edfb	-0.20403282
16	0x3eb420e6	0.3518135
17	0xbd536606	-0.05161097
18	0x3e4aa1a6	0.19788226
19	0x3da77a28	0.08177596
20	0x3e9df85b	0.30853543
21	0x3e9ffb45	0.3124639
22	0x3eeb49a4	0.4595462
23	0xbe8c4c84	-0.27402127
24	0xbea88f87	-0.32922003
25	0x3dcfd506	0.10148053
26	0x3e6922e2	0.22767213
27	0x3d98484d	0.07435665
28	0xbe373dd1	-0.17894675
29	0x3f0d9a2d	0.5531338
30	0x3e984ab6	0.297445
31	0x3d5368a9	0.051613484
32	0x3e864fec	0.2623285
33	0x3f0f892d	0.5606869
34	0xbed1633d	-0.40896025
35	0x3dfa8a2c	0.122333854
36	0x3eb01e7c	0.34398258
37	0x3de9006a	0.11377032
38	0xbe00c050	-0.12573361
39	0xbe20a1a4	-0.15686661
40	0xbdc1c1ca	-0.094607905
41	0x3d7b2565	0.06131496
42	0x3dfc1a33	0.123096846
43	0xbec7a732	-0.38994747
44	0x3c8258c6	0.015911471
45	0x3ded9d1f	0.11602234
46	0x3e60f9e9	0.21970333
47	0xbe9e672d	-0.30938092
48	0x3cd08ed2	0.025458727
49	0x3d97ad6b	0.07406124
50	0xbe9160f4	-0.28394282
51	0x3ec101a9	0.3769658
52	0x3f3b89eb	0.7325732
53	0x3d8121be	0.06305264
54	0x3c56261f	0.013070612
55	0x3f30da67	0.69083256
56	0xbeb51b41	-0.35372356
57	0x3ebb9050	0.3663354
58	0xbdb76495	-0.089547314
59	0x3e0e2084	0.13879591
60	0x3d8342cc	0.06409225
61	0x3e51eda4	0.20500809
62	0xbec636ee	-0.38713783
63	0xbd1ce95d	-0.03830849
64	0xbdbf6c4a	-0.093468264
65	0x3de991c4	0.11404756
66	0x3e8db1e1	0.27674773
67	0xbf0c1f95	-0.5473569
68	0x3e5e7961	0.2172599
69	0xbdc3b390	-0.09555733
70	0xbe8399d4	-0.257033
71	0xbea0d204	-0.3141023
72	0x3dce7bd0	0.10082209
73	0xbde0affa	-0.10971065
74	0x3e561714	0.20907241
75	0xbe8b0461	-0.27151778
76	0xbd8d075c	-0.06886169
77	0x3e595af8	0.21226108
78	0x3ec78411	0.38967946
79	0xbf09cc57	-0.5382742
80	0xbd3fea45	-0.046854276
81	0x3efad8ca	0.48993522
82	0x3dbb751f	0.091531985
83	0xbc970c73	-0.018438553
84	0x3d4b8c43	0.04969431
85	0xbe8812b4	-0.2657677
86	0x3ecdb15f	0.40174386
87	0x3e9852a3	0.29750547
88	0xbda84de5	-0.08217982
89	0x3e636940	0.22208118
90	0xbf05e53e	-0.5230292
91	0xbf18f11b	-0.597429
92	0x3e69dc5b	0.22837965
93	0x3e982138	0.29712844
94	0x3e04ac5a	0.12956372
95	0xbda564e6	-0.080758855
96	0x3e9ccf56	0.30626935
97	0xbe254642	-0.16140082
98	0x3e309825	0.17245539
99	0x3c0ccd1f	0.008593827
100	0x3e606812	0.219147
101	0x3e797388	0.24360478
102	0xbc986759	-0.018603968
103	0x3e392231	0.18079449
104	0xbdf1b74d	-0.1180254
105	0x3e4e8e4f	0.20171474
106	0x3ef52805	0.47882095
107	0x3e50104b	0.20318715
108	0x3ec06f0c	0.37584722
109	0xbe0da24c	-0.13831443
110	0xbf010218	-0.5039382
111	0xbdd76f0c	-0.105192274
112	0xbe452c3a	-0.19255152
113	0xbe61407a	-0.21997252
114	0x3deb169d	0.114789225
115	0x3ee59c53	0.44845828
116	0xbeb8e411	-0.361115
117	0x3ee70349	0.45119694
118	0x3ccb2cec	0.024801694
119	0x3f05ec5b	0.52313775
120	0xbe7aeec6	-0.24505147
121	0xbc736def	-0.014857753
122	0xbdba855f	-0.0910747
123	0xbdacb553	-0.08433022
124	0x3db2f2ce	0.087377176
125	0x3f3a7f95	0.72850925
126	0x3edcb0f7	0.43103763
127	0x3d461183	0.048356544
128	0xbe43c022	-0.19116262
129	0xbe9b693d	-0.30353728
130	0xbe25e471	-0.16200425
131	0x3e11920d	0.1421587
132	0xbaed3d07	-0.0018099853
133	0x3e52cfc4	0.20587069
134	0x3e969d19	0.2941673
135	0x3da30ab1	0.079610236
136	0x3e99add8	0.30015445
137	0xbe1a4bb6	-0.15067944
138	0x3d242010	0.04006964
139	0xbda64e4e	-0.08120404
140	0x3eaee0db	0.34155926
141	0xbe145d1e	-0.14488646
142	0x3ed33f2f	0.41259143
143	0x3dc02a9e	0.093831286
144	0x3e1c98ba	0.15292636
145	0xbe4eb12e	-0.20184776
146	0x3ea1373a	0.31487447
147	0xbe55af46	-0.20867643
148	0xbdfa64c8	-0.12226254
149	0x3e357c7a	0.17723265
150	0x3eed6434	0.4636551
151	0x3f91b755	1.1384073
152	0xbe33fa66	-0.17575988
153	0x3df3e460	0.119087934
154	0xbd85ca44	-0.0653272
155	0xbe41b9e7	-0.18918572
156	0x3f41ec43	0.7575113
157	0x3e9865a4	0.29765046
158	0x3e362316	0.17786822
159	0xbdad03a0	-0.08447957
160	0x3eeb72dc	0.45986068
161	0x3e8babea	0.27279598
162	0x3c8a8147	0.016907347
163	0x3cc1039a	0.023561288
164	0x3e900bea	0.2813409
165	0xbdc8ebb8	-0.09810585
166	0xbddd07ff	-0.10792541
167	0x3f30305b	0.68823785
168	0x3e4703df	0.1943507
169	0x3ec6ee05	0.3885347
170	0xbd909f64	-0.07061651
171	0xbcd0d870	-0.02549383
172	0xbda11e13	-0.07867064
173	0x3ded9d0f	0.11602222
174	0x3e9f5c5c	0.31125152
175	0xbdb18b43	-0.0866914
176	0x3e8af5a5	0.27140537
177	0xbe8c85bf	-0.2744579
178	0x3e93edfd	0.28892508
179	0x3e3fccbf	0.18730448
180	0x3ea11881	0.31464007
181	0x3ea93332	0.3304687
182	0xbecbc970	-0.39802122
183	0x3ef8f7f6	0.4862668
184	0x3eb85fd9	0.36010626
185	0x3e86e42e	0.26345962
186	0x3eda2b56	0.42611188
187	0x3dc3fab3	0.095693015
188	0xbec3bde8	-0.38230824
189	0xbeb69949	-0.35663822
190	0xbd7bf1d0	-0.061509907
191	0x3d4f0905	0.05054571
192	0xbeccfd41	-0.40036967
193	0x3d90e46e	0.070748195
194	0xbd2fd56f	-0.042928156
195	0xbdd17e6b	-0.102291904
196	0xbe89ab6b	-0.26888594
197	0xbd88a51f	-0.06672119
198	0x3d938630	0.072033286
199	0x3e485805	0.19564827
200	0x3ef0dea8	0.47044873
201	0xbdc51c19	-0.096245
202	0xbe9987fa	-0.29986554
203	0x3e4e2865	0.20132597
204	0x3dd2d994	0.10295406
205	0x3d613a55	0.05498727
206	0xbe508663	-0.20363764
207	0xbed38fd4	-0.4132067
208	0x3ec8d1f8	0.39222693
209	0x3c4eaaaf	0.012613936
210	0x3f0ce6f5	0.5503991
211	0xbf161fd9	-0.58642346
212	0x3de39b97	0.11113661
213	0x3ed2a46e	0.41141075
214	0xbe6faf5e	-0.23406741
215	0xbe545533	-0.20735626
216	0xbdf6847e	-0.1203699
217	0xbe673d67	-0.22582017
218	0x3e9c84ae	0.30569977
219	0xbe50ddeb	-0.20397155
220	0xbe5872e0	-0.21137571
221	0xbed39f24	-0.41332352
222	0xbd7230a5	-0.059128422
223	0x3e8775b0	0.26456976
224	0xbd22404a	-0.039612092
225	0xbdc8eb62	-0.09810521
226	0x3c1abc4e	0.009444309
227	0xbe729099	-0.23687972
228	0x3d765b0b	0.06014542
229	0xbe754491	-0.23951937
230	0xbeab003a	-0.3339861
231	0x3e68602c	0.22692937
232	0x3e4e9f76	0.20178017
233	0x3f271e60	0.65280724
234	0x3eadbf42	0.3393498
235	0x3ee94c8d	0.45566216
236	0xbec464cb	-0.3835815
237	0x3d837f68	0.06420785
238	0x3d722c29	0.059124146
239	0xbdb3bf9f	-0.08776783
240	0x3e1586f6	0.14602265
241	0xbdb1d63c	-0.0868344
242	0x3e1527fb	0.14566033
243	0xbedfb9fa	-0.43696576
244	0xbdcc0f88	-0.099639
245	0x3e695b4f	0.22788738
246	0x3f1176ea	0.56822073
247	0x3e01e1f6	0.12683854
248	0xbe1093b9	-0.14118852
249	0xbea78b51	-0.32723477
250	0xbdf36d08	-0.118860304
251	0x3e16f86a	0.147432
252	0xbeeaae57	-0.45836136
253	0x3ec8946e	0.39175743
254	0x3e94b0bd	0.2904109
255	0xbcb4fe64	-0.02209396

fc1.bias f4 [100]
0	0xbdaac1f4	-0.08337775
1	0xbe6feef4	-0.23430997
2	0x3d46b9fe	0.04851722
3	0x3e5a65e6	0.21327934
4	0x3dbba9b3	0.09163227
5	0x3e495adc	0.19663566
6	0xbe852e28	-0.26011777
7	0xbb422b45	-0.0029627841
8	0xbe0a263f	-0.13491152
9	0xbec27266	-0.37977904
10	0x3aca016e	0.0015411803
11	0x3dd96634	0.10615197
12	0xbe62e4b6	-0.22157559
13	0x3de6630e	0.11249362
14	0x3dccc531	0.09998549
15	0xbed670eb	-0.41883025
16	0x3e9c1f0c	0.30492437
17	0x3ea4d3e9	0.32192925
18	0xbe8fbf9d	-0.28075877
19	0x3e0305e9	0.12795223
20	0xbe019624	-0.1265493
21	0xbe7a7024	-0.24456841
22	0x3d568019	0.052368257
23	0xbe68ebf0	-0.22746253
24	0x3d5d019c	0.053956613
25	0x3e767006	0.24066171
26	0xbea1b387	-0.3158228
27	0xbd927fca	-0.0715328
28	0x3ebacf1a	0.3648613
29	0x3e2a0163	0.16602091
30	0xbe0a0082	-0.13476756
31	0x3d914fbc	0.07095286
32	0x3ea78124	0.32715714
33	0x3d910f51	0.070829995
34	0xbeed2e56	-0.46324414
35	0x3f01fafb	0.5077359
36	0x3e273d93	0.16332082
37	0x3e455ff1	0.1927488
38	0xbe21eeb4	-0.15813714
39	0x3dd95276	0.10611431
40	0xbd8a0a22	-0.06740214
41	0x3ee36d30	0.4441924
42	0xbda48d64	-0.080347806
43	0xbeca89d9	-0.39558294
44	0x3e287e5f	0.16454457
45	0x3e7ca048	0.24670517
46	0xbe169ec0	-0.14708996
47	0xbead69ac	-0.33869684
48	0x3e93d356	0.28872174
49	0x3ed1386c	0.4086336
50	0x3dec9bbb	0.11553141
51	0x3e7552f4	0.23957425
52	0xbe7c763a	-0.24654475
53	0xbe94391d	-0.28949824
54	0x3ec07ec6	0.3759672
55	0x3eec8838	0.46197677
56	0x3c20eccc	0.009822082
57	0x3ea48487	0.3213236
58	0x3eba9c62	0.36447436
59	0x3e77f2d0	0.2421372
60	0xbe3c5c90	-0.18394685
61	0x3e3bfbcd	0.18357773
62	0x3ecbd59e	0.39811414
63	0x3df5219f	0.11969303
64	0xbe06f2d6	-0.13178572
65	0xbec2c604	-0.380417
66	0xbdcc6a10	-0.09981167
67	0xbedba702	-0.42900854
68	0xbe145ff4	-0.14489728
69	0xbdba97ed	-0.09111009
70	0x3eca1660	0.39470196
71	0x3da4ca8c	0.08046445
72	0x3db98a78	0.09059614
73	0xbe262321	-0.16224338
74	0xbd373e33	-0.044737052
75	0xbe859ee4	-0.26097786
76	0x3ebae935	0.36506048
77	0x3e955049	0.29162815
78	0x3ee29ca8	0.44260144
79	0x3e2ddcf1	0.16978814
80	0xbedc5cb2	-0.4303947
81	0xbe2d2a80	-0.16910744
82	0x3f05aa12	0.5221263
83	0x3e6de47f	0.23231696
84	0x3ea146ef	0.3149943
85	0xbf0126c5	-0.5044978
86	0xbe733d20	-0.23753786
87	0x3ed3fd09	0.41403988
88	0x3ea24c86	0.31699008
89	0xbd704fcf	-0.05866986
90	0x3e823610	0.2543187
91	0x3dcece83	0.10097983
92	0xbb021363	-0.0019847981
93	0x3eee5953	0.46552524
94	0xbe6464de	-0.22304103
95	0x3eb60ead	0.35558072
96	0x3e9262a4	0.28590882
97	0x3df0b19e	0.11752628
98	0x3eb29bbe	0.34884447
99	0x3e9e5a62	0.30928332

fc2.weight f4 [100, 100]
0	0xbdfe8118	-0.124269664
1	0xbdcdb59e	-0.10044406
2	0x3e0502af	0.12989305
3	0xbe1f7410	-0.15571618
4	0xbd9ac969	-0.07557947
5	0xbe80191a	-0.2501915
6	0xbdb00ad9	-0.08595819
7	0x3e4963e2	0.19667009
8	0x3e0d6d06	0.1381112
9	0xbdab5838	-0.08366436
10	0xbd88986f	-0.066696994
11	0xbd306a04	-0.043069854
12	0xbde7b523	-0.11313846
13	0x3e7e6496	0.24843058
14	0xbe0de1f9	-0.13855733
15	0xbd8a1562	-0.0674236
16	0xbcb42fdc	-0.021995477
17	0x3c181ce5	0.009284233
18	0xbd925573	-0.071452044
19	0x3e4d0d41	0.20024587
20	0x3cb7500f	0.022377042
21	0xbc4a289a	-0.012338782
22	0xbe23514f	-0.15948986
23	0x3d5cf869	0.05394784
24	0xbeb88641	-0.36039928
25	0xbd4ba929	-0.04972187
26	0xbe7762ae	-0.24158737
27	0xbdf7f29a	-0.121068195
28	0xbe63036b	-0.22169273
29	0x3e912661	0.28349593
30	0xbe54a83f	-0.20767306
31	0xbdb52f88	-0.088469565
32	0x3dacfdda	0.08446856
33	0xbe5433c5	-0.20722874
34	0x3c65cab9	0.014025384
35	0x3e68152d	0.22664328
36	0xbca21ba8	-0.019788578
37	0x3ead3fe2	0.338378
38	0xbde9b39a	-0.114112094
39	0xbe411be9	-0.18858303
40	0xbdbd7c79	-0.09252257
41	0xbe3c4234	-0.1838463
42	0x3e56a368	0.20960772
43	0x3e961c2a	0.29318362
44	0xbb4dde80	-0.0031413138
45	0xbcb1817c	-0.021668188
46	0xbe07b320	-0.13251925
47	0x3dd5a289	0.10431392
48	0xbdae33d3	-0.085059784
49	0xbed2a85e	-0.4114408
50	0xbddf5fa6	-0.10906915
51	0x3d0ef52a	0.034901775
52	0x3e36489d	0.17801137
53	0x3df1dbbd	0.1180949
54	0xbe087c61	-0.13328697
55	0xbd466e20	-0.048444867
56	0x3ddab9cb	0.106799684
57	0x3e296a8b	0.16544549
58	0xbd187d93	-0.037229132
59	0x3d5240df	0.051331397
60	0x3e68aee5	0.22722967
61	0x3d8bd7bc	0.068282574
62	0x3d8537ec	0.06504807
63	0x3d2aa522	0.04166139
64	0xbe0410f8	-0.12897098
65	0xbe4939ae	-0.1965091
66	0x3e659c56	0.22422919
67	0x3da1d294	0.07901493
68	0xbd28b848	-0.04119137
69	0x3e2762bd	0.1634626
70	0x3da8830d	0.08228121
71	0xbe61f482	-0.22065929
72	0x3eaf08d3	0.3418642
73	0xbcfae4cb	-0.030626675
74	0xbe89666a	-0.26835948
75	0xbec251b5	-0.37952963
76	0xbe79c6b8	-0.24392211
77	0x3e156537	0.14589392
78	0xbe3973c6	-0.1811057
79	0x3e1cf841	0.15329076
80	0x3cf8e3c9	0.030382054
81	0xbde2ba3e	-0.11070679
82	0xbd340f99	-0.043960188
83	0xbe07cdc5	-0.13262089
84	0xbd3ec56b	-0.04657499
85	0xbd8e49a5	-0.0694764
86	0x3e4c9737	0.19979559
87	0xbe14271b	-0.14468043
88	0xbec76915	-0.3894736
89	0x3dba139f	0.09085774
90	0x3ddcbf9e	0.107787356
91	0x3d0e104b	0.034683507
92	0x3c8141ed	0.015778506
93	0x3e1ceafa	0.15324011
94	0x3dfc6ec7	0.123258166
95	0xbda57f2c	-0.08080897
96	0x3e809ca4	0.25119507
97	0xbde5fb9f	-0.112296335
98	0x3e98c704	0.29839337
99	0xbe352ce4	-0.17692906
100	0xbe551d26	-0.208119
101	0xbe784ca0	-0.2424798
102	0x3947cc99	0.00019054337
103	0xbe6cba8d	-0.23118038
104	0xbe36f11b	-0.17865412
105	0xbe823cb1	-0.2543693
106	0x3e1af41a	0.1513218
107	0x3de09f07	0.10967832
108	0xbd178144	-0.03698851
109	0x3d9f79fd	0.07786939
110	0x3d826c1f	0.06368279
111	0x3b57ac26	0.0032909005
112	0xbd4326cb	-0.047644418
113	0x3dcf437f	0.10120296
114	0xbd0ba172	-0.034089513
115	0x3debebee	0.115196094
116	0xbe2d7138	-0.16937721
117	0x3e61678f	0.2201216
118	0xbe3dd6f5	-0.18539031
119	0xbc87abf9	-0.016561495
120	0x3e984fc6	0.29748362
121	0xbac67dfe	-0.001514375
122	0x3e19bd81	0.15013696
123	0xbe509096	-0.20367655
124	0xbedcbd7d	-0.43113318
125	0x3df772a7	0.12082415
126	0xbdbbee44	-0.09176305
127	0x3d464ca5	0.048412938
128	0xbeae53c1	-0.34048274
129	0x3e7bbd67	0.2458397
130	0xbdd9bd65	-0.10631827
131	0xbe0f214a	-0.13977543
132	0xbdccfd16	-0.1000921
133	0x3d9381bc	0.07202479
134	0xbb1e2af1	-0.0024134482
135	0xbe7d8e11	-0.24761225
136	0x3d3d8ed2	0.046278782
137	0x3ecc5ad7	0.39913055
138	0xbd9a0942	-0.07521297
139	0x3dbc0020	0.09179711
140	0x3e2f0ae7	0.17094003
141	0xbed5b5ec	-0.41740358
142	0xbdf2fe00	-0.11864853
143	0x3f1392c4	0.5764582
144	0xbe467569	-0.19380726
145	0xbe95ec13	-0.29281673
146	0x3d9cc8ea	0.07655509
147	0x3dfcd6fb	0.12345692
148	0x3dc96c55	0.09835116
149	0xbe4e6b18	-0.2015804
150	0xbd3e2592	-0.04642255
151	0xbdeb4631	-0.11487997
152	0xbcbe26a3	-0.023211783
153	0x3d5051a5	0.050859112
154	0xbd9f5d56	-0.07781474
155	0xbd72e963	-0.059304606
156	0x3bab4f08	0.005227927
157	0xbdb2627e	-0.08710192
158	0x3dcbb6b2	0.09946956
159	0x3e1ececc	0.15508574
160	0x3da1f4c6	0.07908015
161	0xbd3a7cca	-0.045529164
162	0xbe396e02	-0.18108371
163	0x3df5ac08	0.11995703
164	0xbe1d7f0d	-0.15380497
165	0xbdbbb02e	-0.09164463
166	0x3e5814ca	0.2110168
167	0x3ea68625	0.3252422
168	0x3e054858	0.13015878
169	0x3e93410e	0.2876057
170	0x3df09a6f	0.11748206
171	0xbe7d85a6	-0.24758014
172	0x3e5d6ad2	0.2162278
173	0x3e5bb992	0.21457508
174	0xbde6b4a7	-0.112649255
175	0xbedc784c	-0.4306053
176	0xbea6cf0e	-0.32579845
177	0xbbad69da	-0.0052921595
178	0xbdd47c6c	-0.10375294
179	0x3e62fc89	0.22166647
180	0x3dbc5078	0.09195036
181	0xbd2ddb8a	-0.042445697
182	0xbe56747a	-0.2094287
183	0xbe89e4d1	-0.26932386
184	0xbae9ab29	-0.0017827499
185	0x3e3ffb2a	0.18748155
186	0x3e9b216b	0.30298933
187	0x3d60dc10	0.054897368
188	0xbdd9fc38	-0.1064381
189	0x3def7171	0.11691559
190	0x3e8fecd7	0.28110382
191	0x3cc73c4b	0.024320742
192	0xbdd5e25a	-0.10443564
193	0x3e3a7a71	0.1821077
194	0x3e5fe536	0.21864781
195	0xbda41d2f	-0.08013379
196	0x3e56e194	0.20984489
197	0xbd15fbef	-0.036617216
198	0x3e200065	0.1562515
199	0xbe120ba5	-0.14262255
200	0x3e9d54b3	0.30728683
201	0xbc793620	-0.015210658
202	0x3eecef42	0.4627629
203	0xbb542b5b	-0.0032374475
204	0x3e53c454	0.20680362
205	0xbcb85df4	-0.022505738
206	0x3e4f84f8	0.20265567
207	0xbd9c8def	-0.07644259
208	0x3e83a20c	0.2570957
209	0x3dd412b5	0.103551306
210	0xbe3b5944	-0.18295771
211	0x3e2c588c	0.16830653
212	0x3e3ef849	0.18649401
213	0x3e932db5	0.2874581
214	0x3e81ab66	0.2532608
215	0xbe3398fd	-0.17538829
216	0x3e6912ba	0.2276105
217	0x3e21828d	0.15772457
218	0x3d8f150d	0.06986437
219	0xbe3b6349	-0.18299593
220	0x3c77db59	0.01512798
221	0xbdd653d2	-0.10465206
222	0xbd49535b	-0.04915176
223	0xbd3daef5	-0.04630943
224	0x3dd87451	0.105690606
225	0xbdcb9b6c	-0.09941754
226	0xbd8cd91d	-0.068773486
227	0xbd1101f0	-0.03540224
228	0xbdb87252	-0.0900618
229	0x3e090fa9	0.1338488
230	0xbe9bbbcc	-0.30416715
231	0x3dfba46a	0.12287219
232	0x3edf7f96	0.43652028
233	0xbe9340bb	-0.28760323
234	0xbd7529ea	-0.059854425
235	0x3f11b260	0.56912804
236	0xbe406933	-0.1879013
237	0x3d831ea8	0.064023316
238	0xbecd6939	-0.4011934
239	0xbd61085b	-0.05493961
240	0xbe826b3b	-0.25472435
241	0x3df32582	0.118723884
242	0xbe4555da	-0.19271031
243	0x3d58bd53	0.05291493
244	0xbde95257	-0.11392658
245	0x3e1c0749	0.15237154
246	0xbd763e61	-0.060118083
247	0xbe6c3bd4	-0.23069698
248	0x3d318d54	0.04334767
249	0xbdfcee08	-0.12350088
250	0xbe28d3a1	-0.1648698
251	0x3da24910	0.07924092
252	0x3e780c78	0.24223506
253	0xbeccaf2c	-0.39977396
254	0x3af28947	0.0018504047
255	0x3e7b9cf5	0.24571593

fc2.bias f4 [100]
0	0xbd888855	-0.06666628
1	0xbe27abaa	-0.16374078
2	0x3e621039	0.22076501
3	0xbd965b88	-0.07341677
4	0x3de25609	0.11051566
5	0xbdd415e3	-0.10355737
6	0x3e905a68	0.28193974
7	0xbe436281	-0.19080545
8	0x3dca44aa	0.09876378
9	0xbe8485d7	-0.25883362
10	0x3da6f83b	0.08152815
11	0x3e01356a	0.12618032
12	0xbe1dd0b4	-0.15411645
13	0xbe876b01	-0.26448825
14	0xbd0d2cc4	-0.03446652
15	0x3e1dffec	0.15429658
16	0x3e057484	0.13032728
17	0xbce66f1b	-0.028129151
18	0xbdaea73b	-0.085279904
19	0x3e219390	0.15778947
20	0xbe540b37	-0.20707403
21	0xbd980fea	-0.0742491
22	0xbe221d00	-0.15831375
23	0xbbf4a8c6	-0.0074664084
24	0xbdb06c02	-0.08614351
25	0x3d98595f	0.07438921
26	0xbe3958d9	-0.18100299
27	0xbdd89a21	-0.10576273
28	0xbd1f94b6	-0.03896018
29	0x3c3dcbf8	0.0115842745
30	0xbb12952d	-0.0022366748
31	0x3df5943c	0.11991164
32	0x3d1bb026	0.038009785
33	0x3e3acc09	0.18241896
34	0x3c36261d	0.011117485
35	0x3db2a0f0	0.08722103
36	0xbe0d1571	-0.1377771
37	0xbdd9be56	-0.10632007
38	0xbdc24d99	-0.09487457
39	0x3d5314a2	0.05153335
40	0x3d87dc8d	0.066338636
41	0x3d761f85	0.060088653
42	0xbd995f67	-0.074889
43	0xbd193e7f	-0.037413117
44	0x3d321569	0.04347745
45	0xbdd5fa5b	-0.10448142
46	0x3dc6773c	0.09690711
47	0xbe6d4f9d	-0.23174901
48	0x3da97bd1	0.08275569
49	0xbd92be76	-0.07165234
50	0xbe5ffb57	-0.21873222
51	0xbe0491fa	-0.1294631
52	0x3e8e792c	0.27826822
53	0xbe6a008e	-0.22851774
54	0xbc3954f1	-0.0113117555
55	0x3e91e329	0.28493622
56	0x3e39fbc1	0.18162443
57	0xbe20593a	-0.15659037
58	0x3d1161b2	0.03549356
59	0xbde47560	-0.111552
60	0xbd7d08d7	-0.06177601
61	0x3e4c2168	0.19934618
62	0xbe80e55b	-0.25174984
63	0xbc90067d	-0.017581219
64	0x3b677de6	0.0035322844
65	0xbcac0c09	-0.021001833
66	0x3e42e51f	0.19032715
67	0xbe808d40	-0.25107765
68	0x3e0b73cb	0.1361839
69	0xbd27fdee	-0.04101365
70	0x3d159f89	0.036529098
71	0x3e028f5a	0.12749997
72	0x3e46cdcc	0.19414443
73	0x3e559320	0.20856905
74	0xbcff22cb	-0.03114452
75	0x3d9f14a5	0.077676095
76	0xbe994401	-0.29934695
77	0xbe0dd081	-0.13849069
78	0xbe69e4bf	-0.22841166
79	0x3dc1b7d3	0.0945889
80	0x3e63017f	0.2216854
81	0xbd0d0690	-0.034430087
82	0xbb0afce9	-0.0021207875
83	0xbd871657	-0.06596058
84	0x3b71994f	0.003686506
85	0xbd4be44e	-0.049778275
86	0x3e3e29c2	0.18570617
87	0xbd90a52c	-0.07062754
88	0x3e8f6b8a	0.28011733
89	0x3c988983	0.018620258
90	0x3e898231	0.2685714
91	0xbd9eee02	-0.0776024
92	0xbccb81fa	-0.024842251
93	0x3dbab4c8	0.091165125
94	0xbe507cc9	-0.20360102
95	0x3e9df0d9	0.30847815
96	0xbda0a6bf	-0.07844304
97	0xbdbaa7b7	-0.0911402
98	0xbdaea289	-0.08527095
99	0xbd416ab5	-0.047220904

fc3.weight f4 [3, 100]
0	0x3db5b63f	0.08872651
1	0x3e87683b	0.2644671
2	0x3d5eefc1	0.054427866
3	0xbe84ba73	-0.259235
4	0xb96b3fc7	-0.00022435105
5	0x3e84ea54	0.25960028
6	0x3ea34fa4	0.31896698
7	0xbe7a1981	-0.24423791
8	0xbd876056	-0.066101715
9	0xbdec5575	-0.11539737
10	0xbe2cefb1	-0.1688831
11	0x3e32d783	0.17465024
12	0xbdfaed07	-0.12252241
13	0xbda13f78	-0.07873434
14	0x3c4bcad5	0.012438496
15	0xbe58acce	-0.2115967
16	0xbe940792	-0.28912026
17	0x3dba8516	0.091074154
18	0xbdc7c847	-0.09754997
19	0x3e222a65	0.15836485
20	0x3e5a086e	0.21292278
21	0xbd9753c6	-0.073890254
22	0xbda6e1d6	-0.081485435
23	0xbac8abe0	-0.0015310012
24	0xbdef891f	-0.11696076
25	0xbe80f148	-0.25184083
26	0xbd04d304	-0.032427803
27	0x3dc9c0c8	0.09851223
28	0xbe55590a	-0.20834747
29	0x3e2bbbfa	0.16770926
30	0xbeb0af5d	-0.34508792
31	0x3c6c99bf	0.014440953
32	0x3e2136b1	0.1574352
33	0x3e061cf0	0.13096976
34	0x3e3a23f2	0.18177775
35	0xbcdeec87	-0.027212394
36	0x3e34efaa	0.1766955
37	0xbe6606a1	-0.22463466
38	0xbe045fea	-0.12927213
39	0x3dffe243	0.12494328
40	0xbeb0a369	-0.34499672
41	0x3dba7c1c	0.09105703
42	0xbe1cbcd7	-0.15306412
43	0xbee6cff4	-0.4508053
44	0xbe1baaa4	-0.15201813
45	0xbdef2459	-0.11676855
46	0xbc9311b1	-0.017952772
47	0x3d640e79	0.055677865
48	0x3cf2bcb5	0.029630998
49	0x3e8eeaf8	0.27913642
50	0xbdbe9087	-0.0930491
51	0x3e6ae489	0.22938742
52	0xbdd1189c	-0.10209772
53	0xbe344183	-0.17603116
54	0xbe647acf	-0.22312473
55	0xbca86e48	-0.020560399
56	0x3ee98b4a	0.45614082
57	0xbe878e4b	-0.26475748
58	0x3e856319	0.26052168
59	0xbc5f5fd5	-0.013633688
60	0x3cc632b7	0.024194105
61	0xbaa945ee	-0.0012914517
62	0xbe7c3b8e	-0.24632093
63	0xbd6a523b	-0.057207327
64	0x3d95e500	0.07319069
65	0x3dba5a2e	0.09099232
66	0x3e7ab429	0.24482788
67	0x3c9e7e49	0.019347327
68	0xbbf7a057	-0.007556956
69	0xbc1cc8dc	-0.009569373
70	0x3e513bf2	0.20433024
71	0xbd52bbcd	-0.051448632
72	0xbd6eef9e	-0.058333986
73	0x3e82fa49	0.25581577
74	0x3e598829	0.21243347
75	0x3e296b27	0.16544782
76	0x3e3a79d3	0.18210535
77	0xbe4ea952	-0.20181778
78	0xbe8cb9fa	-0.2748564
79	0xbea27242	-0.31727797
80	0x3d05675b	0.03256927
81	0x3d47d5f6	0.048788033
82	0xbd019343	-0.03163458
83	0xbe5faf08	-0.21844113
84	0x3c7e20a2	0.01551071
85	0xbeb33f69	-0.35009316
86	0xbeaaa005	-0.3332521
87	0x3d405423	0.04695524
88	0x3d3a4c88	0.045483142
89	0xbe4b001f	-0.19824265
90	0xbe55e344	-0.20887476
91	0x3d1dc39b	0.038516622
92	0xbdf0c92f	-0.11757123
93	0x3e704c14	0.23466522
94	0xbdb019b5	-0.08598653
95	0x3ee97f82	0.45605093
96	0x3ea455d3	0.3209673
97	0xbde74352	-0.11292137
98	0x3c70b020	0.014690429
99	0x3e002dce	0.12517473
100	0xbe3ce02b	-0.18444888
101	0x3da3a96f	0.07991301
102	0xbeadaf16	-0.33922642
103	0x3d9fef60	0.07809329
104	0xbc43f12b	-0.011959354
105	0xbe6b254b	-0.22963445
106	0x3d9fc277	0.07800763
107	0xbe5dde94	-0.21666938
108	0x3de6563a	0.11246915
109	0x3e22f55f	0.15913914
110	0x3dd729e9	0.105060406
111	0x3e6ab1c1	0.2291937
112	0x3eb6ea2e	0.3572554
113	0xbe84753c	-0.25870693
114	0xbd15a067	-0.036529925
115	0xbe605619	-0.21907844
116	0x3e759094	0.23980933
117	0x3e8061e1	0.25074676
118	0xbe0bb7e1	-0.13644363
119	0x3e962f70	0.29333067
120	0xbdd29575	-0.10282413
121	0x3e854aef	0.26033732
122	0xbe8efd74	-0.27927744
123	0x3c05ecf5	0.008174171
124	0x3d2c50d2	0.042069264
125	0xbe625b94	-0.22105247
126	0xbcaa03f9	-0.020753847
127	0x3da675ba	0.08127923
128	0xbe558ecc	-0.20855254
129	0x3c9e202f	0.019302456
130	0x3e7cbc3d	0.24681182
131	0x3e4fb3a4	0.20283371
132	0xbe6f91c8	-0.23395455
133	0xbe07d1c6	-0.13263616
134	0xbc52141c	-0.012822177
135	0x3d4e5510	0.05037409
136	0xbd7aaedd	-0.06120192
137	0xbd92db13	-0.07170691
138	0xbe076682	-0.13222697
139	0xbea9ce76	-0.3316533
140	0x3d6da4a1	0.05801833
141	0x3e521983	0.20517544
142	0x3d28e315	0.041232187
143	0xbd453e34	-0.048155025
144	0xbe446233	-0.19178085
145	0xbd704a01	-0.058664326
146	0xbe427689	-0.1899053
147	0xbe7a0123	-0.24414496
148	0x3d8452d4	0.06461111
149	0xbc98bfd0	-0.01864615
150	0xbe67794c	-0.22604865
151	0x3e5b1121	0.21393253
152	0x3e333c02	0.1750336
153	0xbed4bc22	-0.41549784
154	0x3e21bbc6	0.15794286
155	0xbc455eb8	-0.0120465085
156	0xbcb1076d	-0.021609986
157	0x3defa89c	0.117020816
158	0x3d29f3cf	0.04149228
159	0x3cebc2c8	0.028779402
160	0xbcda3457	-0.026636286
161	0xbd7c4e03	-0.061597835
162	0xbdb5e2c4	-0.08881143
163	0xbdcb7c3a	-0.09935804
164	0x3d409aa8	0.04702249
165	0x3e5d2228	0.21595061
166	0xbe57e564	-0.210836
167	0x3d2505d9	0.04028878
168	0xbdb64ac3	-0.089009784
169	0xbc76a8e4	-0.015054915
170	0x3ea3daa8	0.3200276
171	0xbeb80caf	-0.35947177
172	0x3e0a6fe4	0.13519245
173	0xbe46b22f	-0.19403909
174	0xbe24463a	-0.16042414
175	0x3e8907fa	0.26763898
176	0x3e357eaf	0.17724107
177	0xbe268506	-0.16261682
178	0x3d29ba90	0.041437685
179	0x3edc0881	0.42975238
180	0xbd758238	-0.05993864
181	0xbe6f4434	-0.23365861
182	0xbe5a8f92	-0.2134383
183	0xbe40f8eb	-0.18844955
184	0x3db7d39c	0.08975908
185	0x3d457e13	0.048215937
186	0x3c84e403	0.016222006
187	0x3e4a956f	0.19783567
188	0x3ec9ef38	0.39440322
189	0xbe5c855c	-0.21535248
190	0x3af73526	0.0018860444
191	0xbc0e304a	-0.008678505
192	0x3daeddb6	0.08538382
193	0x3ceac0fd	0.028656477
194	0x3e72fc39	0.23729028
195	0xbd715fda	-0.0589293
196	0x3e9eb393	0.3099638
197	0xbdd953a8	-0.10611659
198	0xbe691719	-0.22762717
199	0x3e9f9adf	0.31172845
200	0xbd8db559	-0.06919355
201	0xbe707338	-0.23481452
202	0x3de1ab3c	0.110189885
203	0xbe702d39	-0.23454751
204	0x3e717ef7	0.2358359
205	0x3dcf24bd	0.10114429
206	0xbe92e886	-0.28693026
207	0xbe8d8fac	-0.27648675
208	0xbd6b4108	-0.057435066
209	0xbe0e69b2	-0.13907507
210	0x3e18b3f9	0.14912404
211	0x3d7483a5	0.05969586
212	0xbd9ccc45	-0.07656149
213	0x3d31f56c	0.043446943
214	0xbe798ac1	-0.24369337
215	0x3bba17f0	0.005679123
216	0x3d710a29	0.05884758
217	0xbd1299c5	-0.035791177
218	0xbdb1ac0b	-0.08675393
219	0xbdc06b5b	-0.093954764
220	0xbe27ab10	-0.16373849
221	0x3eb8e78f	0.36114165
222	0xbd04df1c	-0.032439336
223	0xbd730884	-0.059334293
224	0xbe9b4c1a	-0.30331498
225	0x3e3b2f25	0.18279703
226	0xbe8ffd3e	-0.28122896
227	0x3d15e169	0.03659192
228	0x3cf6a705	0.030108938
229	0x3cf1ce8a	0.02951743
230	0xbe093794	-0.13400108
231	0xbd876db1	-0.06612719
232	0x3c9a9aeb	0.018872699
233	0x3e8c4568	0.27396703
234	0x3d836426	0.06415586
235	0x3caa05c3	0.0207547
236	0xbe878c2c	-0.2647413
237	0xbe9e9e5e	-0.309802
238	0x3e3c4f22	0.18389562
239	0x3db02d25	0.08602361
240	0x3d6f1852	0.058372803
241	0xbe4bff34	-0.19921571
242	0xbda357d3	-0.079757355
243	0x3d162440	0.036655664
244	0xbbc90a89	-0.006135289
245	0x3e1c2a7d	0.15250583
246	0xbc98c106	-0.018646728
247	0x3e38b761	0.18038704
248	0x3e620e11	0.22075678
249	0x3d9a3e18	0.07531375
250	0xbe1ab341	-0.15107442
251	0x3d939bc4	0.07207444
252	0x3ee75616	0.45182866
253	0xbc210795	-0.009828468
254	0xbca06ad0	-0.019582182
255	0x3e298042	0.16552833

fc3.bias f4 [3]
0	0x3d829cbb	0.0637755
1	0x3d853401	0.065040596
2	0x3dea29e6	0.11433773

fc1.weight f4 [100, 11]
0	0xbe81037e	-0.25197977
1	0x3e5d3b67	0.21604691
2	0x3dc850e1	0.097810514
3	0xbeaef69e	-0.3417253
4	0x3af08fb7	0.0018353377
5	0x3cb8fde4	0.022582002
6	0xbde6528e	-0.11246215
7	0x3e5cec84	0.21574599
8	0xbe0ed79e	-0.13949439
9	0xbd67ed4b	-0.056622785
10	0x3d09d5f8	0.033651322
11	0xbc90f310	-0.017694026
12	0xbe72d798	-0.23715055
13	0x3e850cd1	0.2598634
14	0x3e92260c	0.28544652
15	0x3d14239b	0.03616677
16	0xbc598e02	-0.013278486
17	0xbc97b32d	-0.018518055
18	0xbd9c2aa5	-0.07625321
19	0x3e2caf0f	0.16863655
20	0x3e7ab8a9	0.24484505
21	0x3d5e6f0c	0.05430512
22	0xbe552dab	-0.20818202
23	0x3d6c38b8	0.05767128
24	0xbe921077	-0.28528187
25	0xbe7a0bcf	-0.24418567
26	0x3db7f408	0.08982092
27	0x3e035e62	0.12828973
28	0xbe3b159f	-0.18269967
29	0x3ea43fc8	0.3207991
30	0xbea0e295	-0.31422868
31	0xbe2d2461	-0.16908409
32	0x3ccd557b	0.025065174
33	0xbddee7fa	-0.1088409
34	0xbedc87df	-0.4307241
35	0x3e27fb37	0.16404425
36	0x3e41a7b4	0.1891163
37	0x3d4d9822	0.050193913
38	0x3de39ece	0.11114274
39	0x3e81ad65	0.25327602
40	0x3d1270bc	0.035752043
41	0xbda5ac99	-0.08089561
42	0xbca453d6	-0.020059507
43	0xbdc8c593	-0.09803309
44	0xbeb43012	-0.35192925
45	0x3e6b16c0	0.22957897
46	0x3d8560be	0.06512593
47	0xbea2761e	-0.3173074
48	0xbd58dab7	-0.052942958
49	0x3d82a235	0.06378595
50	0xbe5816fc	-0.21102518
51	0x3d08d36b	0.03340475
52	0xbcdc106f	-0.026863305
53	0xbcbe3a43	-0.02322114
54	0x3d4769aa	0.048684753
55	0xbea812d4	-0.32826865
56	0x3e948806	0.29010028
57	0x3e1a011b	0.15039484
58	0xbe0604b0	-0.13087726
59	0x3c1ff380	0.009762645
60	0x3e451caa	0.19249216
61	0xbe881076	-0.2657506
62	0x3e8b0e49	0.27159336
63	0xbe730e01	-0.23735811
64	0xbe826446	-0.25467128
65	0xbd3b52e5	-0.04573335
66	0xbe2f880c	-0.17141742
67	0xbc44792c	-0.01199178
68	0x3bb3210d	0.0054665864
69	0x3e773161	0.2413993
70	0xbe24f0a3	-0.1610742
71	0xbe1c1e16	-0.15245852
72	0x3e082222	0.1329427
73	0xbc8d8f54	-0.017280258
74	0x3e3d2946	0.18472776
75	0x3e83ce41	0.25743297
76	0x3e009088	0.12555134
77	0x3e5ac3a0	0.21363688
78	0x3e90277a	0.28155118
79	0xbd596eb7	-0.0530841
80	0xbe27ae3a	-0.16375056
81	0xbd3cc92e	-0.046090297
82	0x3e8856e6	0.26628798
83	0xbe6c1a10	-0.23056817
84	0xbe6e81b3	-0.23291664
85	0x3e77a11b	0.2418255
86	0x3dc6e05c	0.09710762
87	0x3e99a82f	0.30011126
88	0xbe07eaa0	-0.13273096
89	0xbd92e4be	-0.07172535
90	0x3cc7e0ab	0.024399122
91	0x3e28cbb3	0.16483955
92	0x3dd395e7	0.10331326
93	0xbeb66e6e	-0.35631126
94	0x3e85376e	0.26018852
95	0x3e88fe57	0.26756546
96	0xbeaf1643	-0.34196672
97	0xbde608e3	-0.11232164
98	0x3e888607	0.26664755
99	0xbe3fa845	-0.18716533
100	0x3e29dda4	0.16588455
101	0xbe35438e	-0.17701551
102	0xbe871d9b	-0.26389775
103	0xbe0b4e29	-0.13604034
104	0x3e490bc3	0.19633393
105	0x3eacb32c	0.33730447
106	0x3dfef263	0.12448575
107	0xbe0dfcc2	-0.1386595
108	0xbc34653b	-0.011010463
109	0x3e0a42a2	0.13501981
110	0xbd76991c	-0.06020461
111	0xbe37b585	-0.17940338
112	0x3c575240	0.0131421685
113	0x3e400081	0.18750192
114	0x3e618e97	0.2202705
115	0xbdec5bf1	-0.11540974
116	0xbd866dd5	-0.065639175
117	0xbcaa291b	-0.020771554
118	0xbd2c664d	-0.04208975
119	0xb9ef6622	-0.00045661727
120	0xbd931d31	-0.07183302
121	0x3c8e3218	0.017357871
122	0xbd82869d	-0.06373332
123	0x3d39a1ea	0.04532043
124	0xbd69e501	-0.05710316
125	0x3ea673fb	0.3251036
126	0x3e6d71b5	0.23187907
127	0xbbf8ccfd	-0.007592796
128	0xbe9869e0	-0.29768276
129	0x3eb3c3b1	0.35110238
130	0x3e986a57	0.2976863
131	0xbe347ae4	-0.17625004
132	0x3b95f079	0.0045757857
133	0x3e34e5c0	0.17665768
134	0x3e1dddec	0.15416688
135	0x3de36eb9	0.11105103
136	0xbd9e20d4	-0.07721105
137	0xbe2b370d	-0.16720219
138	0x3e268151	0.16260268
139	0xbe2ce0fa	-0.16882697
140	0x3e9e058d	0.3086361
141	0x3d97d960	0.07414508
142	0xbcb271b7	-0.02178274
143	0x3dfd0ce0	0.12355971
144	0x3c720dfc	0.014773842
145	0x3d6eeac8	0.058329374
146	0x3ea0960f	0.31364486
147	0x3e43b1bc	0.19110769
148	0x3e7e7374	0.2484873
149	0x3e0f2e92	0.13982609
150	0xbe157608	-0.14595807
151	0x3e8f068d	0.27934685
152	0x3e15be69	0.14623417
153	0x3dba080b	0.09083565
154	0x3d645f05	0.05575468
155	0xbddcc43a	-0.10779615
156	0x3e2f8dcd	0.17143936
157	0x3eb75fe1	0.35815337
158	0x3de7e621	0.113231905
159	0xbe03f6ef	-0.12887166
160	0xbe0fb895	-0.14035256
161	0xbd8a4300	-0.067510605
162	0xbd83b8b6	-0.06431715
163	0xbe3cdff0	-0.184448
164	0xbe2d15a6	-0.1690279
165	0x3f22e363	0.63628215
166	0xbee3311c	-0.44373405
167	0x3d4d906f	0.05018657
168	0xbee18f42	-0.4405461
169	0xbea6c144	-0.32569325
170	0x3e377288	0.17914784
171	0x3e8b0b55	0.27157083
172	0xbd016e0d	-0.031599093
173	0xbda1c841	-0.078995235
174	0xbe490cb3	-0.1963375
175	0x3e7f0567	0.24904405
176	0xbe41f569	-0.18941273
177	0xbe0c8fa1	-0.13726665
178	0x3daa3c3c	0.0831227
179	0xbe34caba	-0.17655459
180	0xbdfb9186	-0.12283616
181	0x3c4c5a65	0.012472724
182	0xbe549568	-0.20760119
183	0xbe3e4f4d	-0.18584938
184	0xbe17f3fb	-0.14839165
185	0x3d4dc7a7	0.05023923
186	0x3b7f0f2b	0.0038918953
187	0x3e2e1c35	0.17002948
188	0x3dc6d82a	0.09709199
189	0xbe15e6ba	-0.14638796
190	0xbc4f96b5	-0.012670209
191	0x3cd463d1	0.025926502
192	0x3e8df1c1	0.27723506
193	0x3e5a1cd7	0.21300064
194	0xbea66e7e	-0.32506174
195	0x3e634485	0.22194107
196	0x3e38e0e7	0.18054543
197	0xbd9047f4	-0.07044974
198	0xbd3679a2	-0.04454959
199	0xbe9ab1d2	-0.3021379
200	0x3e1344e5	0.1438175
201	0x3eb6ab13	0.35677394
202	0x3d878bf9	0.066184945
203	0x3d144935	0.03620263
204	0xbd43a520	-0.047764897
205	0xbbd46a8f	-0.0064824293
206	0x3e951d8a	0.291241
207	0x3e5cd257	0.21564613
208	0x3d46c07f	0.048523422
209	0x3e601751	0.21883895
210	0xbeb531ab	-0.35389456
211	0xbd7b59d8	-0.06136498
212	0x3e094530	0.13405299
213	0x3dd68697	0.1047489
214	0xbe532ee1	-0.20623352
215	0x3ee0c2cf	0.43898627
216	0xbee8bd08	-0.4545672
217	0x3edf36e4	0.43596566
218	0x3e9a7085	0.3016397
219	0x3e104d6d	0.14092036
220	0xbe57d913	-0.21078901
221	0xbd974712	-0.073866025
222	0xbed4ba98	-0.4154861
223	0x3df07076	0.117402
224	0xbe0693e1	-0.13142349
225	0x3e389565	0.1802574
226	0xbd015def	-0.031583723
227	0x3e6226fc	0.22085184
228	0xbe60ca24	-0.2195211
229	0xbe89cc30	-0.26913595
230	0xbd63e180	-0.055634975
231	0xbd619a8b	-0.055079024
232	0x3d0abcd0	0.033871472
233	0xbde815a9	-0.11332256
234	0x3eceb9eb	0.4037622
235	0x3e500d62	0.20317605
236	0xbe680830	-0.22659373
237	0x3e76bdb0	0.24095798
238	0xbcea0846	-0.028568398
239	0x3b9d8b7e	0.0048078885
240	0xbe38eaed	-0.18058367
241	0xbe11b066	-0.14227447
242	0xbdb59684	-0.08866599
243	0x3e14747b	0.14497559
244	0xbe180f92	-0.1484969
245	0xbe8b260c	-0.27177465
246	0xbd89c12e	-0.06726299
247	0x3c12981c	0.0089473985
248	0xbe348735	-0.17629702
249	0x3e4df8bf	0.2011442
250	0xbe290d8e	-0.16509077
251	0xbda3eea2	-0.080045
252	0xbc583f9e	-0.013198761
253	0x3eb4e517	0.35331032
254	0xbebdd282	-0.37074667
255	0x3d89a9d1	0.06721843

fc1.bias f4 [100]
0	0x3f4010e7	0.7502579
1	0xbf2f2013	-0.68408316
2	0x3f124671	0.57138735
3	0xbeb2df52	-0.34936005
4	0xbef84602	-0.48490912
5	0x3f33bbf5	0.70208675
6	0xbf07a936	-0.5299257
7	0xbf1bcbf9	-0.6085811
8	0xbf0feb8a	-0.5621878
9	0xbf50b418	-0.815248
10	0x3f223ae1	0.6337109
11	0x3e2b13df	0.16706799
12	0x3e6534a0	0.22383356
13	0xbf334e87	-0.700417
14	0x3f06dec8	0.5268369
15	0x3c2489a8	0.010042585
16	0xbf2f8dc8	-0.68575716
17	0xbf267d3a	-0.6503483
18	0xbf413054	-0.7546437
19	0xbf2cf294	-0.67557645
20	0x3f0066d9	0.50156933
21	0x3e2da19a	0.16956177
22	0x3f22c89d	0.6358736
23	0xbea35d09	-0.31906918
24	0x3f1f4872	0.6221992
25	0x3f0a6d72	0.5407325
26	0xbe79d840	-0.24398899
27	0x3e0d95e6	0.13826713
28	0x3f02850f	0.5098428
29	0x3f2e3a4b	0.680577
30	0xbed3e020	-0.4138193
31	0xbf39c9e5	-0.7257369
32	0x3ef9d65d	0.4879636
33	0xbeef3a3a	-0.4672411
34	0xbf565617	-0.8372511
35	0x3f1e4b92	0.6183406
36	0xbf1bacf9	-0.6081081
37	0x3f294076	0.66113985
38	0x3f1cbeb7	0.6122851
39	0x3f116925	0.5680106
40	0x3f069e13	0.5258495
41	0xbf15f04d	-0.58569795
42	0x3f556c83	0.833687
43	0xbe10db54	-0.14146167
44	0xbee131ba	-0.4398325
45	0xbf4596d9	-0.771833
46	0xbf20738d	-0.62676316
47	0xbf1dc440	-0.6162758
48	0xbf18ecdf	-0.59736437
49	0x3f16fb90	0.58977604
50	0x3f0560b2	0.5210067
51	0xbf2cf86a	-0.6756655
52	0xbd0e909a	-0.03480587
53	0x3df9a075	0.12188808
54	0xbefb8005	-0.4912111
55	0xbf103fd0	-0.5634737
56	0x3e0f27ec	0.13980073
57	0xbeb03160	-0.3441267
58	0xbf4b94b5	-0.79523784
59	0xbeb51f24	-0.3537532
60	0x3f0c7e29	0.54880005
61	0x3edd7218	0.4325111
62	0xbec39955	-0.3820292
63	0xbecaaf27	-0.39586756
64	0x3e9e22df	0.3088598
65	0xbf2e6b19	-0.6813217
66	0x3edd7a36	0.43257302
67	0xbf37f1f2	-0.71853554
68	0x3d838ca1	0.06423307
69	0x3f380dd0	0.71896076
70	0x3ecd95b4	0.40153277
71	0x3f1ef4f9	0.6209255
72	0xbe9f59ec	-0.31123292
73	0xbf32352b	-0.6961238
74	0xbee150cd	-0.4400696
75	0xbf2521f0	-0.6450491
76	0xbf2b5488	-0.6692586
77	0xbe88cf3a	-0.267206
78	0x3eef625e	0.46754736
79	0xbefb7a7c	-0.49116886
80	0xbf234d79	-0.6379009
81	0xbf0770ec	-0.5290668
82	0xbf23f4f1	-0.64045626
83	0x3ec3a280	0.38209915
84	0xbf2c7cbe	-0.6737784
85	0xbdeff5e2	-0.1171682
86	0xbf3c1258	-0.7346549
87	0xbf265c4c	-0.64984584
88	0xbf459d36	-0.7719301
89	0x3cd2e557	0.025744123
90	0x3ec53c36	0.385225
91	0x3ef164cd	0.47147217
92	0x3f206f6d	0.6267002
93	0xbf1f48e0	-0.62220573
94	0xbf3775cd	-0.71664125
95	0x3eb000b1	0.34375528
96	0x3f1fccda	0.62421954
97	0xbf102527	-0.5630669
98	0xbf217877	-0.6307444
99	0xbf0098c2	-0.5023309

fc2.weight f4 [100, 100]
0	0x3e2d2010	0.16906762
1	0xbe306c18	-0.17228734
2	0x3e374150	0.17896008
3	0xbd9ae265	-0.075627126
4	0xbca77fc6	-0.02044667
5	0x3e1d366a	0.15352789
6	0xbddbd659	-0.10734243
7	0xbd65d6cc	-0.05611305
8	0xbdc8d7a6	-0.09806757
9	0xbd71b461	-0.059009913
10	0x3c4a3d62	0.012343736
11	0xbce033ae	-0.027368393
12	0xbc9e2a78	-0.01930736
13	0xbe7ebfb3	-0.24877815
14	0x3d8c89b8	0.06862205
15	0xbd363bf9	-0.044490788
16	0xbd6fea6f	-0.058573183
17	0xbda85267	-0.08218842
18	0xbe51d793	-0.20492391
19	0xbe441d7d	-0.19151874
20	0x3de77a0e	0.11302577
21	0xbd699b48	-0.057032853
22	0x3e2be5c6	0.1678687
23	0xbe2b093e	-0.16702744
24	0x3e4d2c62	0.20036462
25	0x3e236706	0.15957269
26	0xbe0b8948	-0.13626587
27	0xbd42ee21	-0.04759038
28	0x3d6da804	0.05802156
29	0xbd07cd3f	-0.033154722
30	0xbe035468	-0.12825167
31	0xbd7775eb	-0.06041519
32	0x3d6de7c2	0.05808235
33	0xbe23ddd3	-0.16002588
34	0xbd03abf3	-0.032146405
35	0x3e73dd66	0.23814926
36	0xbdaed210	-0.0853616
37	0x3d9f37ef	0.0777434
38	0x3dd1f92f	0.10252606
39	0x3d07ebb2	0.03318376
40	0x3e1adbcc	0.15122908
41	0xbd976282	-0.07391836
42	0x3d6d344d	0.057911206
43	0xbd7d4004	-0.06182863
44	0xbc3db867	-0.0115796095
45	0x3b9ac84a	0.0047235833
46	0xbddc8c69	-0.107689686
47	0xbe36eab3	-0.17862968
48	0xbdd4ab3d	-0.103842236
49	0x3db8dee1	0.09026886
50	0x3df039f3	0.11729803
51	0xbe3f33f3	-0.18672161
52	0x3d00ecfa	0.031476
53	0xbcd26b5e	-0.025685962
54	0xbc01fdd5	-0.007934053
55	0xbe02720d	-0.1273882
56	0x3c431a2d	0.011908096
57	0xbda7d008	-0.08193976
58	0xbd2cb7b5	-0.042167384
59	0xbe01d679	-0.12679471
60	0x3daee288	0.08539301
61	0x3da7411b	0.08166715
62	0xbdd3ec38	-0.103477895
63	0xbe1b72fe	-0.15180585
64	0xbd82821f	-0.06372475
65	0xbdaee713	-0.08540168
66	0x3c4bbb8a	0.0124348495
67	0xbe169128	-0.1470381
68	0xbca30798	-0.019901082
69	0x3d9ce194	0.07660213
70	0x3c4fd35b	0.012684668
71	0x3e2ff9ee	0.17185184
72	0x3c32c019	0.010910057
73	0xbd52c983	-0.051461708
74	0xbdbb107d	-0.09134004
75	0xbe4cd9a0	-0.20004892
76	0xbe2ca572	-0.16859987
77	0xbd61cb4a	-0.055125512
78	0xbc733db3	-0.014846253
79	0xbd093988	-0.03350213
80	0xbdb37dcb	-0.087642275
81	0xbc9a9a8b	-0.01887252
82	0xbdeb11a1	-0.11477972
83	0x3d1b3997	0.03789672
84	0xbd722b35	-0.059123237
85	0x3aec7658	0.001804064
86	0xbe0a8de8	-0.13530695
87	0xbdac64b3	-0.08417644
88	0xbd98d053	-0.0746161
89	0xbd22db78	-0.039760083
90	0x38744f22	5.824783e-05
91	0x3de4bc4c	0.11168727
92	0x3d619038	0.05506918
93	0xbe010b90	-0.12602067
94	0xbdb4111d	-0.087923266
95	0x3d3f4e3d	0.046705473
96	0x3e083115	0.13299973
97	0xbe033e90	-0.12816834
98	0xbdeb4a77	-0.114888124
99	0xbe280608	-0.1640855
100	0x3c87069b	0.016482642
101	0x3dc973e4	0.098365575
102	0xbd0a2457	-0.033726063
103	0x3e3778c2	0.17917159
104	0xbd1b28ae	-0.037880592
105	0xbdd831dc	-0.10556385
106	0xbb94c7d0	-0.004540421
107	0xbcf9d7cd	-0.03049841
108	0xbd9d4da7	-0.07680827
109	0xbe5668e0	-0.20938444
110	0x3e18f6b5	0.14937861
111	0x3dd914cb	0.10599669
112	0xbd5ad1c6	-0.05342271
113	0xbd62cd9c	-0.055371866
114	0x3e0e1b6b	0.13877647
115	0xbd4eab01	-0.05045605
116	0xbda8f2c0	-0.08249426
117	0xbe4e3049	-0.20135607
118	0x3de147cf	0.110000245
119	0x3e8d9635	0.2765366
120	0xbd939075	-0.07205287
121	0xbe2a798b	-0.16647927
122	0xbd44b454	-0.048023537
123	0x3e24c704	0.16091543
124	0xbcb89007	-0.022529615
125	0x3c9464dc	0.0181145
126	0x3e7e8144	0.24853998
127	0xbd846d07	-0.06466108
128	0x3eae8365	0.3408462
129	0x3d963077	0.07333463
130	0x3e000b38	0.1250428
131	0xbe3eb925	-0.18625315
132	0x3d5fd488	0.054646045
133	0x3e9c1b71	0.30489686
134	0xbe95a7d4	-0.29229605
135	0xbdddcc6f	-0.10830008
136	0xbdbd3cce	-0.09240113
137	0x3e543567	0.20723496
138	0x3e307b18	0.17234457
139	0x3ea10d6c	0.31455553
140	0x3e256a97	0.16153942
141	0xbec03ed1	-0.37547925
142	0x3eb503f6	0.35354584
143	0x3e8e501a	0.27795488
144	0x3e60565f	0.21907948
145	0xbe04ba7e	-0.12961766
146	0xbdc9ad04	-0.09847453
147	0x3c01ad9d	0.007914928
148	0xbe33eb40	-0.1757021
149	0xbe57927e	-0.21051976
150	0xbe39fd73	-0.1816309
151	0xbddfda0d	-0.10930262
152	0x3ec66e63	0.38756093
153	0x3ea8efdb	0.32995495
154	0xbdc4a22e	-0.09601246
155	0x3eaac014	0.3334967
156	0x3d88653c	0.06659934
157	0xbd90d693	-0.07072177
158	0xbe9759a6	-0.29560584
159	0x3e1568c1	0.14590742
160	0xbe0bcc14	-0.13652068
161	0x3caebe74	0.02133105
162	0x3d3f360f	0.046682414
163	0xbc370b66	-0.011172151
164	0x3d4cb98f	0.04998165
165	0xbd529fc7	-0.051421907
166	0x3f00fa04	0.50381494
167	0x3de13b90	0.10997689
168	0x3de3b0ee	0.11117731
169	0x3eba7e63	0.3642455
170	0x3df885f8	0.121349275
171	0xbcd204e7	-0.025637103
172	0x3a48f8cd	0.0007666469
173	0xbe8ccf27	-0.27501795
174	0x3ca98e24	0.02069766
175	0xbd0422a9	-0.032259617
176	0x3e10943d	0.14119048
177	0xbd4e02d0	-0.05029565
178	0xbe67c356	-0.22633108
179	0xbd18cfbf	-0.037307497
180	0x3d91a3c1	0.07111312
181	0xbe39e98e	-0.181555
182	0xbd81dc9d	-0.06340907
183	0x3e149731	0.145108
184	0xbe4cc0fa	-0.1999549
185	0x3d525ccf	0.05135804
186	0xbe06fd63	-0.13182597
187	0xbe0114ce	-0.12605593
188	0xbdebc1f6	-0.115116045
189	0x3dce24ff	0.1006565
190	0x3e6009cd	0.21878739
191	0xbdc7aaf8	-0.097494066
192	0xbe59df31	-0.21276547
193	0x3e3419c9	0.17587961
194	0xbe4e87e2	-0.20169023
195	0xbb7bcae0	-0.0038420483
196	0xbda57f53	-0.08080926
197	0xbdf723ed	-0.12067399
198	0xbdefd659	-0.117108054
199	0x3dc43a99	0.09581489
200	0x3e530c78	0.20610225
201	0xbe49e745	-0.19717129
202	0x3e4f9a70	0.20273757
203	0xbd3effc1	-0.046630625
204	0xbcd08a42	-0.025456551
205	0x3e6b4585	0.22975738
206	0xbe116b89	-0.14201178
207	0xbd90590f	-0.070482366
208	0xbd93b253	-0.07211747
209	0xbd8715bf	-0.065959446
210	0xba880d8c	-0.0010380014
211	0xbd5f9ccc	-0.054592893
212	0xbd6fa2eb	-0.05850498
213	0xbe8ce377	-0.27517292
214	0x3d43df36	0.047820292
215	0xbd860be5	-0.065452375
216	0xbd98326c	-0.07431492
217	0xbe1a5fb4	-0.1507557
218	0xbe7f85ae	-0.24953339
219	0xbe9477d4	-0.28997672
220	0x3e0e6caa	0.1390864
221	0xbda1fa5d	-0.07909081
222	0x3e301484	0.17195326
223	0xbe395a9f	-0.18100975
224	0x3e5681fe	0.20948026
225	0x3e2a61d0	0.16638875
226	0xbe7588ba	-0.23977938
227	0xbc201372	-0.009770261
228	0x3d32f0c1	0.043686632
229	0xbda4be10	-0.08044064
230	0xbe34112f	-0.1758468
231	0xbd5f23cf	-0.05447751
232	0x3d037b32	0.03209991
233	0xbe66a33d	-0.22523208
234	0xbd483c8d	-0.04888587
235	0x3e91b160	0.2845564
236	0xbddf18a7	-0.10893374
237	0x3db3fcf3	0.087884806
238	0x3dca0258	0.09863728
239	0x3d08eb88	0.033427745
240	0x3e3a1278	0.18171108
241	0xbd5aad42	-0.053387888
242	0x3d37eba7	0.04490247
243	0xbddd402d	-0.10803256
244	0x3cc2aac7	0.023763074
245	0xbd3bcceb	-0.045849722
246	0xbe1aa67e	-0.15102574
247	0xbe3d6036	-0.18493733
248	0xbd1c7fbd	-0.03820776
249	0x3dc1cda1	0.09463049
250	0x3df44d1a	0.119287685
251	0xbe658ab2	-0.2241619
252	0xbb04ef1a	-0.0020284117
253	0xbda52d66	-0.080653
254	0xbd41ce6f	-0.04731601
255	0xbe55f3aa	-0.20893732

fc2.bias f4 [100]
0	0x3e58ad0e	0.21159765
1	0x3e44a795	0.19204552
2	0x3e5f8133	0.2182663
3	0x3e69f6a0	0.22847986
4	0x3e6d46ee	0.23171589
5	0x3e6ca557	0.23109947
6	0x3e827d4a	0.25486213
7	0xbe567a24	-0.2094503
8	0x3e7c7479	0.24653806
9	0xbe7c17fb	-0.24618523
10	0x3e6e997d	0.23300739
11	0x3e85cb7c	0.2613181
12	0x3e24eeb6	0.16106686
13	0xbe62f888	-0.2216512
14	0x3e824217	0.25441048
15	0xbe691690	-0.22762513
16	0x3e59289a	0.21206895
17	0xbe888825	-0.2666637
18	0xbe4ffab7	-0.20310484
19	0x3e82bee5	0.25536266
20	0x3e353e97	0.17699657
21	0xbe8226e7	-0.25420305
22	0x3e741840	0.23837376
23	0xbe63c5d4	-0.22243434
24	0xbe32a4e9	-0.1744572
25	0xbe837d54	-0.25681555
26	0x3e6b8f52	0.23003891
27	0x3e816804	0.2527467
28	0x3e85c070	0.2612338
29	0xbe7addfe	-0.24498746
30	0x3e5fe68c	0.2186529
31	0xbe7c103d	-0.2461557
32	0x3e61606e	0.22009441
33	0x3e5c9b80	0.21543694
34	0xbe7c2d2d	-0.24626608
35	0x3e0d79de	0.1381602
36	0xbe7bce29	-0.24590363
37	0x3e4166ac	0.18886822
38	0xbe52be8c	-0.205805
39	0x3ddc0b93	0.10744395
40	0xbe0a8f77	-0.1353129
41	0xbe51d797	-0.20492397
42	0xbe7821e9	-0.24231686
43	0xbd681117	-0.056656923
44	0x3e333632	0.17501143
45	0x3e333a9c	0.17502826
46	0x3e33121f	0.17487381
47	0xbe73c304	-0.23804861
48	0x3e834b99	0.25643614
49	0x3e5f5ce1	0.21812774
50	0x3e3da250	0.18518949
51	0xbe81c485	-0.25345245
52	0xbe083599	-0.13301696
53	0xbe5f24e7	-0.21791421
54	0x3e0fa29c	0.14026874
55	0x3e088ddf	0.1333537
56	0x3e818f49	0.2530463
57	0xbe7e1060	-0.24810934
58	0x3e7455b5	0.2386082
59	0xbe6839dc	-0.22678322
60	0x3e25cea6	0.16192111
61	0xbe69b52b	-0.22823016
62	0x3e64eef2	0.22356775
63	0x3e464d8c	0.1936552
64	0x3e866b79	0.2625387
65	0xbe7c4b22	-0.24638036
66	0xbe580502	-0.2109566
67	0x3e689853	0.22714357
68	0xbe329193	-0.17438345
69	0xbe7e4deb	-0.24834411
70	0x3e783b6c	0.24241418
71	0xbe771896	-0.24130473
72	0x3e70d366	0.23518142
73	0xbe004b31	-0.12528683
74	0xbe73a780	-0.23794365
75	0x3e622b02	0.22086719
76	0xbe7b3b0a	-0.2453424
77	0xbe4c55c3	-0.1995459
78	0x3e290e72	0.16509417
79	0xbe369b0d	-0.17832585
80	0xbe57dbc0	-0.21079922
81	0xbdbc0564	-0.09180716
82	0xbe58be6b	-0.21166389
83	0xbe526ba8	-0.2054888
84	0xbe7c0003	-0.2460938
85	0x3e3f1ab6	0.18662533
86	0xbe72961c	-0.23690075
87	0xbe797fd5	-0.2436517
88	0x3e6d01bf	0.23145197
89	0xbdf0cfcc	-0.11758384
90	0xbe75bb2c	-0.23997182
91	0xbe3b9b02	-0.1832085
92	0xbe5828ff	-0.21109389
93	0x3df13895	0.1177837
94	0xbd14a8ad	-0.036293674
95	0x3e5ad68f	0.2137091
96	0xbe642b7c	-0.22282213
97	0xbe5c6f01	-0.2152672
98	0x3e86c8bf	0.26325032
99	0xbe580cc9	-0.21098627

fc3.weight f4 [1, 100]
0	0x3f6107f8	0.87902784
1	0x3f02816a	0.5097872
2	0x3f6f6fed	0.9353016
3	0x3f76f965	0.96474296
4	0x3f72b63a	0.94809306
5	0x3f69db1c	0.9134996
6	0x3f6ed8e5	0.93299705
7	0xbf5bdb69	-0.8588167
8	0x3f659943	0.89686984
9	0xbf62f42d	-0.8865383
10	0x3f612b7f	0.87956995
11	0x3f67e107	0.9057774
12	0x3f713839	0.94226414
13	0xbf5fe0ae	-0.8745221
14	0x3f809f6f	1.0048655
15	0xbf718655	-0.943456
16	0x3f6877fa	0.9080807
17	0xbf6f7cb1	-0.9354964
18	0xbf62b340	-0.88554764
19	0x3f622a7e	0.8834609
20	0x3f6dc182	0.92873394
21	0xbf6473a0	-0.8923893
22	0x3f6a2f3c	0.91478324
23	0xbf68e37d	-0.9097212
24	0xbf6a08b3	-0.91419524
25	0xbf82f3b9	-1.0230628
26	0x3f6083e0	0.87701225
27	0x3f6b8617	0.9200148
28	0x3f676104	0.9038241
29	0xbf70fa0e	-0.94131553
30	0x3f64518d	0.89186937
31	0xbf64ca85	-0.8937152
32	0x3f63d1bd	0.8899191
33	0x3f658512	0.89656174
34	0xbf6b6b77	-0.91960853
35	0x3f80fd70	1.0077343
36	0xbf70f45d	-0.9412287
37	0x3f621e9c	0.88327956
38	0xbf6c13cc	-0.9221771
39	0x3f666c08	0.9000859
40	0xbf84e199	-1.0381347
41	0xbf6a1bf3	-0.914489
42	0xbf741005	-0.95336944
43	0xbf6bd7a3	-0.9212591
44	0x3f6d0978	0.92592573
45	0x3f6e00fc	0.9297025
46	0x3f5fa92a	0.873675
47	0xbf61ff3c	-0.8828008
48	0x3f6fbbd6	0.9364599
49	0x3f6e7d7b	0.9316022
50	0x3f5fe76a	0.87462485
51	0xbf6d600c	-0.9272468
52	0xbf71954f	-0.9436845
53	0xbf734239	-0.9502292
54	0x3f896b34	1.0735841
55	0x3f857d8a	1.0428936
56	0x3f712e73	0.942115
57	0xbf69b3d1	-0.91290003
58	0x3f6e6808	0.9312749
59	0xbf6c5ba1	-0.92327315
60	0x3f6c0a0d	0.92202836
61	0xbf64da04	-0.89395165
62	0x3f6b718e	0.91970146
63	0x3f6040a3	0.8759863
64	0x3f646265	0.8921264
65	0xbf6cca06	-0.92495763
66	0xbf64ae0f	-0.8932809
67	0x3f771a14	0.9652417
68	0xbf65bc55	-0.89740497
69	0xbf62c12d	-0.8857601
70	0x3f67bc56	0.9052175
71	0xbf633b8c	-0.88762736
72	0x3f6a4598	0.9151244
73	0xbf585e05	-0.8451846
74	0xbf6752a8	-0.903605
75	0x3f771f59	0.9653221
76	0xbf78c2c8	-0.9717221
77	0xbf6ae680	-0.91757965
78	0x3f7ab599	0.97933346
79	0xbf643f5f	-0.89159197
80	0xbf5fc59d	-0.8741091
81	0xbf5042ea	-0.813521
82	0xbf5e16d3	-0.86753577
83	0xbf676aa5	-0.903971
84	0xbf626a6d	-0.8844364
85	0x3f6056cc	0.8763244
86	0xbf612007	-0.87939495
87	0xbf65c902	-0.8975984
88	0x3f6c17bf	0.92223734
89	0xbf8677c5	-1.0505301
90	0xbf621cea	-0.8832537
91	0xbf69f7a6	-0.91393507
92	0xbf6ed621	-0.93295485
93	0x3f8f043c	1.1173167
94	0xbf9a79ca	-1.2068417
95	0x3f6bcda1	0.9211064
96	0xbf675615	-0.90365726
97	0xbf66b7f4	-0.9012444
98	0x3f5f30aa	0.8718363
99	0xbf701c74	-0.93793416
