mujoco/gail/save_model/ckpt_1037.pth.tar (torch, 144879 bytes, 16 tensors)

fc1.weight f4 [100, 11]
0.002867331 -0.19317044 0.15120955 -0.13575317 0.12617308 0.0969825 -0.21799128 0.16635738
0.19977663 0.2024891 -0.03148367 0.26286483 -0.09189074 0.020618528 -0.30423418 0.10015909
0.092286125 -0.029812884 0.05275575 0.12059286 0.1450783 0.16734083 0.17826062 -0.059862707
-0.26594833 0.06290781 0.1307573 -0.21556501 -0.07227751 0.22977233 -0.058940355 -0.044688888
0.12335261 0.24490932 -0.18852012 0.06862834 0.19622472 0.107541755 0.1627341 -0.28222921
-0.057465196 -0.23462155 0.22766022 -0.29207835 0.08003378 0.25760528 0.19441146 -0.28870368
-0.05354256 0.093353495 -0.2270684 -0.023114996 0.24950619 0.058922444 0.09337109 0.27722374
-0.043484986 -0.013926405 0.12648758 0.39471632 0.11933803 0.10196305 -0.14285663 0.020477697
-0.059615187 -0.0129290065 0.24946402 -0.23360564 0.28412256 -0.22332108 -0.043371182 -0.23522805
0.26328483 -0.060120884 -0.035893057 -0.2101227 -0.15179244 0.015172616 0.35685393 -0.20518471
-0.16896792 0.27343634 0.18245003 0.19011071 0.028669707 -0.25631863 0.22752663 0.2517446
-0.07741422 0.076201215 -0.27461573 -0.27559537 0.20582944 0.23008458 0.10576388 -0.17194821
0.31404465 -0.2442445 0.19660658 -0.038893208 0.23213588 -0.07022781 0.1005375 0.24476843
-0.21188663 0.1516424 0.34268188 0.20974907 0.21171333 -0.032681398 -0.22899239 -0.08383339
0.08427557 -0.2704964 -0.083627634 0.25527757 -0.08610948 0.27093446 0.12928379 0.23413467
-0.0664669 -0.20930119 -0.03788402 0.022439571 -0.00051932986 0.31064805 0.33929226 -0.063756965
-0.061041314 -0.0730639 -0.17825013 0.2427597 -0.049595743 0.22835054 -0.16835044 0.17125355
0.16303605 -0.1301453 0.019037792 -0.08238608 0.22628026 0.023494111 0.112121224 0.07781131
0.091662124 -0.21177089 0.1951764 -0.08010509 -0.06667319 0.048060667 0.2627712 0.30037916
-0.13228686 0.024390597 -0.2701841 -0.08331627 0.17611481 0.2505832 -0.0123677645 0.005982474
0.27232733 0.30655557 -0.0060127582 0.10019326 0.1687685 -0.07548055 -0.0968372 0.06760513
0.16512184 0.2646735 0.096048586 -0.09205311 -0.04300089 0.23043224 0.13307653 -0.08296866
0.15549041 -0.28804967 0.07574396 0.20642918 0.1267238 0.3048145 -0.24198706 0.30611506
0.26928508 0.22117883 0.2030463 0.032654963 -0.29881734 0.057054043 -0.20839168 -0.018571664
-0.2890786 0.15017311 0.06633283 -0.0920647 -0.2184887 -0.16935186 0.24596898 0.3180099
0.19527525 -0.10877915 -0.07443708 0.17563336 -0.027476031 0.0077421116 -0.20375255 -0.2464384
0.21445398 -0.08067144 0.30397373 -0.28260788 0.10154133 0.19607867 -0.3156972 -0.23909454
-0.2552171 -0.14198105 0.12293923 -0.2533915 -0.1839358 -0.24967651 -0.05852594 0.22926852
-0.07127238 0.03273339 -0.094618544 -0.02746097 0.016538711 -0.12927589 -0.22061057 0.2103479
0.046972506 0.09068296 0.15366827 0.31677198 -0.22745803 -0.070168376 0.06463055 -0.13252781
0.25339532 -0.06535819 0.034450606 -0.23312163 0.17558849 0.20488824 0.2813551 0.27157718
-0.13708635 -0.0535828 -0.0857056 0.14690614 -0.27346903 0.14945294 0.12794088 -0.024773361
00000000: d5e9 3b3b 79ce 45be add6 1a3e e102 0bbe
00000010: 8433 013e c39e c63d 1b39 5fbe 9759 2a3e
00000020: 3f92 4c3e 4d59 4f3e 05f5 00bd 3896 863e
00000030: 3631 bcbd 30e8 a83c 95c4 9bbe 3520 cd3d
00000040: 8200 bd3d 263a f4bc 6a16 583d 64f9 f63d
00000050: 688f 143e 655b 2b3e f489 363e 9932 75bd
00000060: 612a 88be cfd5 803d 3ee5 053e 13bd 5cbe
00000070: 3b06 94bd 7049 6b3e 716b 71bd b20b 37bd
00000080: 4ba0 fc3d 82c9 7a3e 6b0b 41be 048d 8c3d
00000090: 22ef 483e da3e dc3d c5a3 263e 5980 90be
000000a0: a060 6bbd a240 70be c31f 693e 4b8b 95be
000000b0: c0e8 a33d d7e4 833e cc13 473e f8d0 93be
000000c0: 724f 5bbd 1e30 bf3d 9e84 68be a95b bdbc
000000d0: 8d7e 7f3e a958 713d 5839 bf3d 45f0 8d3e
000000e0: 501d 32bd 942b 64bc f685 013e 4218 ca3e
000000f0: 7f67 f43d 01d2 d03d 0249 12be d8c0 a73c
00000100: 0e2f 74bd 2fd4 53bc 7f73 7f3e 5136 6fbe
00000110: 8378 913e 48ae 64be fba5 31bd 9fdf 70be
00000120: 45cd 863e 5141 76bd 9904 13bd 682a 57be
00000130: 7a6f 1bbe 9096 783c 8fb5 b63e f11b 52be
00000140: ed05 2dbe d9ff 8b3e 2ed4 3a3e 62ac 423e
00000150: bcdc ea3c 323c 83be befc 683e abe4 803e
00000160: 598b 9ebd 620f 9c3d 6f9a 8cbe d61a 8dbe
00000170: f4c4 523e 4b9b 6b3e bc9a d83d 3113 30be
00000180: 76ca a03e 3b1b 7abe 3c53 493e 7c4e 1fbd
00000190: 07b5 6d3e 99d3 8fbd 9be6 cd3d 93a4 7a3e
000001a0: cff8 58be 2548 1b3e 0074 af3e 76c8 563e
000001b0: 61cb 583e eedc 05bd fb7c 6abe d7b0 abbd
000001c0: ac98 ac3d 817e 8abe f744 abbd beb3 823e
000001d0: 2b5a b0bd ecb7 8a3e f862 043e 00c1 6f3e
000001e0: cc1f 88bd 0d53 56be 462c 1bbd 31d3 b73c
000001f0: a323 08ba 430d 9f3e b7b7 ad3e 0393 82bd
00000200: 7506 7abd 87a2 95bd 3487 36be 0096 783e
00000210: e824 4bbd b9d4 693e 0f64 2cbe 175d 2f3e
00000220: ecf2 263e cf44 05be 25f5 9b3c 08ba a8bd
00000230: 03b6 673e b976 c03c d09f e53d 895b 9f3d
00000240: 5ab9 bb3d 78da 58be 52dc 473e 230e a4bd
00000250: f48b 88bd 43db 443d f289 863e 4ccb 993e
00000260: 3576 07be cace c73c 9255 8abe b8a1 aabd
00000270: 7157 343e 714c 803e 2aa2 4abc a108 c43b
00000280: 7d6e 8b3e daf4 9c3e ac06 c5bb 2032 cd3d
00000290: a6d1 2c3e 8c95 9abd 9552 c6bd 8f74 8a3d
000002a0: b315 293e 4983 873e 1fb5 c43d 5786 bcbd
000002b0: b421 30bd 6ef6 6b3e 3745 083e 79eb a9bd
000002c0: e138 1f3e 3f7b 93be a61f 9b3d 2c62 533e
000002d0: e2c3 013e a510 9c3e 75cb 77be 1dbb 9c3e
000002e0: bcdf 893e b47c 623e 5feb 4f3e 36c1 053d
000002f0: 96fe 98be 80b1 693d a164 55be 9a23 98bc
00000300: 1c02 94be fbc6 193e 82d9 873d 6b8c bcbd
00000310: 80bb 5fbe 936a 2dbe 4bdf 7b3e 32d2 a23e
00000320: 3cf6 473e 9ac7 debd 7872 98bd 3bd9 333e
00000330: 6a15 e1bc 8ab1 fd3b 82a4 50be 595a 7cbe
00000340: d399 5b3e 1137 a5bd 72a2 9b3e fbb1 90be
00000350: e7f4 cf3d d9c8 483e 10a3 a1be 33d5 74be
00000360: d1ab 82be 7b63 11be 90c7 fb3d 88bc 81be
00000370: ab59 3cbe 33ab 7fbe e5b8 6fbd 5ec5 6a3e
00000380: 41f7 91bd 7213 063d 5ec7 c1bd d4f5 e0bc
00000390: 317c 873c e660 04be bde7 61be 7165 573e
000003a0: 3e66 403d fdb7 b93d 375b 1d3e f02f a23e
000003b0: c2ea 68be 70b4 8fbd 065d 843d 5fb5 07be
000003c0: 08bd 813e 84da 85bd 141c 0d3d 70b7 6ebe
000003d0: 78cd 333e 39ce 513e c70d 903e 2a0c 8b3e
000003e0: 5d60 0cbe a379 5bbd 6b86 afbd 906e 163e
000003f0: 2204 8cbe 310a 193e ef02 033e 81f1 cabc

fc1.bias f4 [100]
-0.1782241 -0.30231857 -0.09838444 0.09974355 0.07801254 -0.105379395 -0.087439105 -0.0022745566
-0.010665936 -0.31645018 0.054785494 0.12524171 -0.15179972 0.15910472 0.16897571 -0.2811082
0.2097786 0.2586261 -0.15164533 0.08805514 0.03743686 -0.28326678 0.10219491 -0.21943617
0.032782968 0.13694885 -0.22274674 -0.17841046 0.2544049 0.1403688 -0.196313 0.059561964
0.21485516 0.23541106 -0.35380298 0.1004245 0.1611199 0.108951196 -0.18194877 0.14818509
0.1822691 0.25679812 0.0023231772 -0.30050266 0.066383265 0.04474177 -0.23386404 -0.26957455
0.15460555 0.3438647 0.13526751 0.280412 -0.28012958 -0.1840001 0.023899589 0.19202803
-0.05231437 0.26465842 0.2525985 0.2450372 -0.17068668 0.27193376 0.25487855 0.08976662
-0.11113222 -0.2733984 -0.015845247 -0.061674945 -0.047242768 0.030369908 0.34390178 -0.10866046
0.18243346 0.035127845 -0.27396733 -0.2647291 0.1868917 0.18953222 0.22529256 0.3194275
-0.3191822 -0.25468695 0.17693935 0.1914446 0.33512986 -0.30931234 -0.13463417 0.2540278
0.25753772 -0.07028072 0.31290624 0.22073777 0.008601839 0.24132127 -0.21044144 0.21940127
0.29843006 -0.016969768 0.17448664 0.2427516
00000000: 6180 36be 80c9 9abe c87d c9bd 5946 cc3d
00000010: 0ac5 9f3d 27d1 d7bd 4613 b3bd ba10 15bb
00000020: 2ec0 2ebc c205 a2be c166 603d 5d3f 003e
00000030: 6371 1bbe 59ec 223e f807 2d3e 6aed 8fbe
00000040: 34d0 563e a46a 843e ea48 1bbe 4156 b43d
00000050: 6557 193d 5808 91be 914b d13d e0b3 60be
00000060: 6f47 063d 523c 0c3e b917 64be 3bb1 36be
00000070: 5c41 823e d7bc 0f3e 4606 49be 3ff7 733d
00000080: fe02 5c3e 990f 713e aa25 b5be 5cab cd3d
00000090: 9dfc 243e ce21 df3d c750 3abe d5bd 173e
000000a0: c0a4 3a3e 0b7b 833e 7240 183b 7cdb 99be
000000b0: f3f3 873d 2543 373d 0e7a 6fbe ad05 8abe
000000c0: eb50 1e3e 090f b03e 9183 0a3e 2992 8f3e
000000d0: 256d 8fbe 866a 3cbe 12c9 c33c ffa2 443e
000000e0: 9847 56bd 4f81 873e 9754 813e 08eb 7a3e
000000f0: 7dc8 2ebe e73a 8b3e 717f 823e 90d7 b73d
00000100: 4a99 e3bd e0fa 8bbe e4cd 81bc de9e 7cbd
00000110: a281 41bd 50ca f83c e513 b03e 6089 debd
00000120: d6cf 3a3e 37e2 0f3d 7245 8cbe 938a 87be
00000130: 8a60 3f3e bc14 423e 18b3 663e 008c a33e
00000140: d96b a3be 5466 82be 972f 353e 0e0a 443e
00000150: 2496 ab3e 305e 9ebe 8add 09be ef0f 823e
00000160: fcdb 833e 57ef 8fbd 3f35 a03e 1509 623e
00000170: baee 0c3c ec1c 773e f67d 57be baaa 603e
00000180: d3cb 983e 2f04 8bbc a0ac 323e e093 783e

fc2.weight f4 [100, 100]
0.01756358 0.00016603069 -0.026842559 0.058165606 0.015862377 -0.04143547 -0.025243726 -0.00056124275
-0.030394299 -0.11547978 0.06417656 -0.033909105 -0.031598765 0.12377867 0.13459647 0.107545674
0.00786016 -0.050810467 -0.08341782 0.04067998 0.009864127 0.063784726 0.03794966 0.04073172
-0.020999946 -0.0044721267 -0.06309556 -0.07765033 -0.093425766 -0.03855081 -0.031920608 -0.018465202
0.10946993 -0.06928462 0.114592925 0.06992156 -0.15010898 0.07710116 0.067757495 -0.03669866
0.11445068 0.020219073 0.10831006 0.07243224 0.115791686 0.086550325 -0.05195167 -0.064437255
-0.084331855 -0.051360298 -0.023829876 -0.12543972 0.085806414 0.019592565 -0.08012123 -0.043708567
-0.010122595 0.10342842 -0.009895335 -0.013587362 0.017903566 -0.055662964 0.0695547 -3.809791e-05
0.04605207 0.091924205 0.10132614 0.017336683 0.06714718 -0.0555247 -0.07713644 -0.05169949
0.04972697 0.04182006 0.11704166 -0.08019429 -0.113797896 0.100122035 0.040290605 0.011994686
0.05136272 0.017444842 -0.026772548 0.076723665 0.05316491 0.02801607 0.11383019 0.007390085
-0.11659233 0.0826838 -0.03702827 -0.03680204 -0.08909531 -0.083425835 -0.0017755236 0.012805757
0.03600084 -0.092804044 0.03080813 0.052994635 -0.06864221 -0.084607735 0.07180122 0.104983196
-0.041400816 0.009887227 0.09672482 0.109232776 -0.0026844395 0.026739176 0.11963328 -0.06581519
-0.08377027 0.03230305 0.07158237 0.06486146 0.09697771 0.040965933 0.014035243 -0.08596243
-0.06393784 0.06892031 0.15365314 0.0018416474 -0.0066271815 0.023074992 -0.028287157 -0.053061537
0.014158079 0.121677466 -0.1379492 -0.061655425 -0.02917395 -0.002245226 0.036967255 -0.05643876
-0.050527792 0.06748194 0.077265844 0.008293383 -0.02292433 -0.06512604 -0.07797329 0.092355005
-0.057133947 -0.102236114 0.03093963 -0.074917726 -0.030862337 0.08419295 0.05614336 -0.045468643
0.07310263 -0.059147794 0.08102949 0.09007733 0.037971977 -0.021190086 -0.021023491 0.0060479143
-0.026573112 -0.028712614 0.0036573727 0.1322595 -0.059165884 -0.08664611 -0.073122345 0.030593082
0.11451042 0.14824575 0.062993005 -0.04958377 -0.0030514318 -0.03471295 -0.051334012 -0.064559184
0.042078484 -0.11055135 0.037739158 0.122441724 -0.008592973 -0.07748425 -0.099445544 -0.08586053
0.07032853 0.06546763 0.046532623 -0.040511664 -0.065782286 0.09899051 0.0490336 -0.00475334
-0.042073674 0.04054456 -0.08439315 0.062930785 -0.10213762 -0.014799517 0.0021360663 -0.044709727
0.104309775 -0.034016628 0.08290114 0.029315261 -0.01439218 -0.05999496 0.014798847 -0.066144004
-0.0331478 0.055966888 -0.04338831 0.09804293 -0.020402158 0.07160886 0.10735734 -0.0789376
0.068604134 0.011792064 -0.038973477 0.048476744 0.12688242 -0.11480528 0.09750554 0.031046415
-0.0038053037 0.011875681 -0.08940918 0.007823291 -0.037394356 0.06994738 -0.07070522 0.068469584
0.051870666 -0.049263533 0.023570485 0.04179875 -0.10734333 -0.048244454 -0.056966618 -0.025899889
0.07066662 -0.07472687 0.022383016 0.12151389 0.06693839 0.009761333 0.06858374 -0.07526699
-0.05192405 -0.07462326 0.042347677 -0.09321429 0.05895284 -0.023304308 -0.08125743 -0.053404022
00000000: 7fe1 8f3c 8618 2e39 ede4 dbbc 0f3f 6e3d
00000010: d1f1 813c 3db8 29bd eecb cebc 5d20 13ba
00000020: 77fd f8bc aa80 ecbd 006f 833d 46e4 0abd
00000030: b56d 01bd ac7f fd3d a8d3 093e e840 dc3d
00000040: e7c7 003c a31e 50bd f6d6 aabd 0da0 263d
00000050: 269d 213c 91a1 823d 1a71 1b3d 4ed6 263d
00000060: 1408 acbc eb8a 92bb 3f38 81bd 2307 9fbd
00000070: 0256 bfbd 74e7 1dbd 2fbf 02bd 5644 97bc
00000080: c531 e03d 18e5 8dbd b2af ea3d 0933 8f3d
00000090: 2bb6 19be 37e7 9d3d 71c4 8a3d 5651 16bd
000000a0: 1e65 ea3d 78a2 a53c aad1 dd3d 5b57 943d
000000b0: 3124 ed3d 4c41 b13d 46cb 54bd aef7 83bd
000000c0: 2eb6 acbd 2d5f 52bd df36 c3bc 4573 00be
000000d0: 46bb af3d 9680 a03c 9916 a4bd c107 33bd
000000e0: 3ed9 25bc 48d2 d33d 0b20 22bc 879d 5ebc
000000f0: 80aa 923c d9fe 63bd b272 8e3d 52cb 1fb8
00000100: 18a1 3c3d c242 bc3d 1484 cf3d a905 8e3c
00000110: 7684 893d de6d 63bd b6f9 9dbd d8c2 53bd
00000120: 82ae 4b3d 834b 2b3d 8ab3 ef3d e73c a4bd
00000130: df0e e9bd c80c cd3d c307 253d 5c85 443c
00000140: b761 523d 7ce8 8e3c 1a52 dbbc 4c21 9d3d
00000150: 73c3 593d f581 e53c cd1f e93d 8728 f23b
00000160: f6c7 eebd 2056 a93d f5aa 17bd bcbd 16bd
00000170: 9a77 b6bd 2adb aabd b0b8 e8ba 3dcf 513c
00000180: 9e75 133d 0c10 bebd 5561 fc3c e710 593d
00000190: 4994 8cbd d246 adbd 850c 933d 6e01 d73d
000001a0: e793 29bd 09fe 213c aa17 c63d 6fb5 df3d
000001b0: 6ced 2fbb 1e0c db3c 4b02 f53d 1dca 86bd
000001c0: bf8f abbd 3450 043d c799 923d 16d6 843d
000001d0: 409c c63d e5cb 273d 13f4 653c 120d b0bd
000001e0: d8f1 82bd 1726 8d3d 4057 1d3e 6f63 f13a
000001f0: d428 d9bb c407 bd3c 78ba e7bc 0e57 59bd
00000200: 4af7 673c 0932 f93d 8e42 0dbe 668a 7cbd
00000210: 35fe eebc a424 13bb fa6a 173d 542c 67bd
00000220: 3bf6 4ebd f933 8a3d 8e3d 9e3d f8e0 073c
00000230: cecb bbbc cd60 85bd 76b0 9fbd 9f24 bd3d
00000240: 4905 6abd 2b61 d1bd 1b75 fd3c 776e 99bd
00000250: 03d3 fcbc 5a6d ac3d 94f6 653d 543d 3abd
00000260: d5b6 953d f544 72bd caf2 a53d 777a b83d
00000270: 8188 1b3d d596 adbc 7539 acbc 952d c63b
00000280: dbaf d9bc b736 ebbc 88b0 6f3b 096f 073e
00000290: ed57 72bd 8473 b1bd 2bc1 95bd 589e fa3c
000002a0: 7084 ea3d bccd 173e 7a02 813d 5a18 4bbd
000002b0: 88fa 47bb 2b2f 0ebd 9d43 52bd 9b37 84bd
000002c0: 7d5a 2c3d bf68 e2bd 6094 1a3d bac2 fa3d
000002d0: 8bc9 0cbc 10b0 9ebd 1baa cbbd a5d7 afbd
000002e0: 6808 903d e513 863d fe98 3e3d 8fef 25bd
000002f0: ddb8 86bd 89bb ca3d 75d7 483d e8c1 9bbb
00000300: 7255 2cbd 0d12 263d 51d6 acbd dbe1 803d
00000310: 872d d1bd ac79 72bc 3ffd 0b3b 8c21 37bd
00000320: 5da0 d53d 0555 0bbd 13c8 a93d 8f26 f03c
00000330: 2ecd 6bbc 46bd 75bd dd76 723c 8276 87bd
00000340: fdc5 07bd 893d 653d f1b7 31bd bbca c83d
00000350: 6d22 a7bc aaa7 923d 2ade db3d 09aa a1bd
00000360: 5380 8c3d 8033 413c a7a2 1fbd 8d8f 463d
00000370: 77ed 013e 081f ebbd fcb0 c73d 0d55 fe3c
00000380: 6762 79bb 3792 423c 291c b7bd 432d 003c
00000390: d32a 19bd 9240 8f3d e6cd 90bd c839 8c3d
000003a0: 5676 543d 8fc8 49bd e416 c13c 2b35 2b3d
000003b0: d2d6 dbbd fa9b 45bd d455 69bd 012c d4bc
000003c0: a9b9 903d 670a 99bd 965c b73c 46dc f83d
000003d0: ff16 893d 00ee 1f3c a275 8c3d 9425 9abd
000003e0: 50ae 54bd 14d4 98bd c274 2d3d 22e7 bebd
000003f0: 8878 713d ade8 bebc 4c6a a6bd 2dbe 5abd

fc2.bias f4 [100]
-0.07124519 0.050372217 -0.06936203 -0.075482234 0.016779672 0.0118876295 0.17178753 0.0048445016
0.03411938 -0.20924431 0.0153569 0.11822762 -0.04364351 -0.04935337 -0.032206286 -0.034506578
-0.13570045 0.108472414 -0.07571388 0.08555427 0.053295236 0.025010468 0.013451649 0.0050792624
-0.026822127 0.07814037 -0.04987303 0.051065657 -0.08361098 0.07567487 0.029551882 0.06995888
-0.05435782 0.023062784 0.061546873 0.068544134 0.049699903 -0.11813167 -0.06688968 -0.04194738
-0.010051031 0.0833584 0.008903261 0.00564293 0.049781013 -0.050995808 -0.062704384 -0.080590166
0.017816152 0.03425549 0.04059398 -0.083059944 0.111846216 -0.11788757 0.03553391 0.059541978
-0.06571109 0.014661176 -0.03564776 -0.0129900165 -0.06657133 0.034746476 -0.07582854 0.012075436
-0.05644799 -0.013998956 0.01884407 -0.030220713 -0.07151164 0.016330514 0.053026825 -0.011127973
0.02806089 0.09794125 -0.08889723 0.0772832 -0.015404766 0.025510356 -0.06680803 -0.05968459
0.019193634 -0.11516304 4.872108e-05 -0.053285103 0.08776514 0.03307926 0.008512328 -0.046101063
0.07267242 0.13058339 0.03891995 -0.038136203 0.010002642 -0.023705406 -0.085248314 0.070631534
0.1738604 0.10010736 -0.027903901 -0.06991
00000000: 00e9 91bd 1953 4e3d ae0d 8ebd 6e96 9abd
00000010: 8675 893c 55c4 423c 12e9 2f3e a0be 9e3b
00000020: c3c0 0b3d 2444 56be 829b 7b3c 5321 f23d
00000030: 8ac3 32bd c226 4abd bdea 03bd c556 0dbd
00000040: 0ff5 0abe c926 de3d e10f 9bbd 1437 af3d
00000050: 1b4c 5a3d c1e2 cc3c 4e64 5c3c f16f a63b
00000060: 14ba dbbc 0f08 a03d aa47 4cbd 392a 513d
00000070: 3c3c abbd 6dfb 9a3d ca16 f23c 9a46 8f3d
00000080: 4ea6 5ebd 2aee bc3c 9318 7c3d de60 8c3d
00000090: 2092 4b3d 04ef f1bd 75fd 88bd 04d1 2bbd
000000a0: 14ad 24bc cfb7 aa3d fcde 113c 54e8 b83b
000000b0: 2de7 4b3d fbe0 50bd 286b 80bd 750c a5bd
000000c0: 2ef3 913c 7c4f 0c3d e045 263d 551b aabd
000000d0: a10f e53d 0a6f f1bd 018c 113d 4ae2 733d
000000e0: 8993 86bd 6e35 703c 6303 12bd 14d4 54bc
000000f0: 8d56 88bd 5252 0e3d fe4b 9bbd 0dd8 453c
00000100: 0236 67bd e15b 65bc e15e 9a3c 6e91 f7bc
00000110: b274 92bd 92c7 853c a832 593d 1a52 36bc
00000120: f4df e53c 6c95 c83d c00f b6bd a846 9e3d
00000130: 4664 7cbc 18fb d03c a6d2 88bd d477 74bd
00000140: f83b 9d3c 9ada ebbd dc59 4c38 7b41 5abd
00000150: 36be b33d 1e7e 073d 4b77 0b3c 78d4 3cbd
00000160: 47d5 943d a7b7 053e 876a 1f3d b534 1cbd
00000170: 1fe2 233c d731 c2bc ab96 aebd 44a7 903d
00000180: 7608 323e 1605 cd3d b996 e4bc f92c 8fbd

fc3.weight f4 [3, 100]
-5.2986532e-05 0.012183445 -0.008555784 -0.008019152 0.01606474 0.041691042 0.031948496 -0.04907076
0.013617468 -0.08706014 0.014371064 0.0073996885 -0.0049422304 0.0061230105 0.008512747 0.016576622
-0.022417057 0.054824 -0.012187737 0.01788128 0.00461127 -0.005351368 0.006386683 -0.013633422
0.010213446 0.012483761 -0.007795448 -0.0068339063 -0.025661247 -0.042590488 -0.069063164 -0.058180287
0.046056714 0.007706154 0.0039847866 0.015468303 0.021486646 -0.055837557 -0.0009274666 0.0004580488
-0.009896458 0.069071546 -0.019372845 -0.0399516 0.017815687 0.01692756 -0.0993999 -0.010119218
-0.0376836 -0.0009896826 -0.015421326 0.011911754 0.019436108 -0.012656872 -0.008976211 0.018237587
0.074783534 -0.012026696 -0.0071480502 0.010728673 0.006374078 0.04254906 -0.044978406 0.025139159
0.00054323825 0.010414227 0.026345348 -0.01975319 -0.0029749759 0.0028879563 0.005095248 0.001802426
-0.021792604 0.05297676 0.07282013 0.05603182 0.035247106 -0.01627432 -0.03720238 -0.020130493
0.0037381654 -0.00037353692 0.0134972315 0.045403622 0.032707796 -0.0571689 0.011136963 0.0047270185
-0.018412849 -0.008564079 0.03287627 0.0025675157 0.018458746 0.042648964 -0.025692986 0.04583015
0.041069273 0.025510194 0.020664757 0.038714793 0.06377633 -0.006940131 0.049036935 -0.017712282
0.004914128 -0.008063827 -0.024961391 0.012111597 -0.043129854 -0.09148302 0.036763594 0.015440374
-0.02086918 -0.052131273 -0.035161626 -0.02512361 0.021019932 0.020865612 0.0091609685 0.060699083
0.005099754 0.041881472 -0.04183819 0.023883155 -0.009620098 -0.03145695 -0.034550518 -0.005447129
-0.053744067 0.045367204 0.0374524 0.032473236 0.01945164 0.019213205 -0.027927168 0.006533173
-0.04136582 -0.03175619 -0.03543166 -0.009166855 0.017322682 -0.050106253 -0.055980776 0.017948037
0.013002718 0.002319431 -0.06945161 -0.009774998 0.0051549724 0.036733463 -0.051360767 0.035120387
0.06200626 -0.0055765803 0.055914868 0.0023860082 -0.005744137 -0.067653336 0.006115505 0.02500068
0.027978435 -0.034300033 -0.06378522 0.004170454 0.0069009727 0.04059468 -0.047228668 0.014109124
0.015476277 0.006175765 0.009487387 -0.011979604 0.01730409 0.044258054 -0.04062905 -0.0789379
0.066673025 -0.018376673 0.049004275 0.023324564 -0.0024335943 0.002430521 -0.025614383 -0.02363447
-0.053134836 0.003078477 -0.022617523 -0.050144963 0.04488375 -0.030232633 -0.052658908 0.036611777
-0.023636488 0.0026392757 0.030205503 -0.0072039813 0.077891834 -0.027392121 -0.01968857 0.083874814
-0.00758812 -0.025321009 0.02359482 -0.0144238435 -0.011496558 -0.029486023 -0.08092473 -0.041712023
0.046947725 -0.019717619 0.053050812 -0.023071898 0.0025093919 -0.044118077 0.020988144 0.0020628811
0.049470957 -0.02057389 0.02797008 -0.0058771344 0.043711677 0.057990875 -0.02922278 -0.03682437
0.022179497 -0.0051982054 -0.0004052403 0.009830142 0.006068228 -0.024598623 -0.03313343 -0.10723018
-0.008396986 0.07858002 -0.050158095 -0.047793765 -0.06211351 -0.039938584 -0.0042429664 -0.03179517
0.0042326013 0.014424709 -0.012163424 0.04655244 -0.0038666597 -0.03344083 0.005464799 0.03217715
0.04154409 -0.008548967 0.040924042 0.05383902 0.024809081 0.030412579 0.024984064 -0.008242793
00000000: db3d 5eb8 129d 473c 8f2d 0cbc c362 03bc
00000010: 349a 833c 3ac4 2a3d 6ddc 023d 6cfe 48bd
00000020: cd1b 5f3c 964c b2bd 9c74 6b3c 1679 f23b
00000030: 6ff2 a1bb 89a3 c83b 0c79 0b3c b2cb 873c
00000040: faa3 b7bc 218f 603d 13af 47bc c37b 923c
00000050: 231a 973b 875a afbb 6147 d13b b75e 5fbc
00000060: 4c56 273c b088 4c3c f570 ffbb f6ee dfbb
00000070: 8937 d2bc 5d73 2ebd fd70 8dbd 744e 6ebd
00000080: f7a5 3c3d e883 fc3b d092 823b c46e 7d3c
00000090: c304 b03c ecb5 64bd 3b21 73ba 4526 f039
000000a0: c124 22bc 6275 8d3d cdb3 9ebc 4aa4 23bd
000000b0: 34f2 913c abab 8a3c 2d92 cbbd 14cb 25bc
000000c0: 1e5a 1abd 3db8 81ba bba9 7cbc 8429 433c
000000d0: 7938 9f3c c55e 4fbc f510 13bc fe66 953c
000000e0: 1c28 993d 9e0b 45bc 313a eabb 51c7 2f3c
000000f0: a4dd d03b ec47 2e3d 473b 38bd a3f0 cd3c
00000100: 1a68 0e3a 6fa0 2a3c 33d2 d73c 71d1 a1bc
00000110: d0f7 42bb de43 3d3b 0af6 a63b 613f ec3a
00000120: 6786 b2bc 29fe 583d b822 953d 9f81 653d
00000130: 455f 103d b951 85bc 8661 18bd b4e8 a4bc
00000140: 02fc 743b 47d7 c3b9 7e23 5d3c 26f9 393d
00000150: 9cf8 053d f029 6abd cf77 363c 1be5 9a3b
00000160: 8bd6 96bc 5a50 0cbc 45a9 063d c443 283b
00000170: cc36 973c aeb0 2e3d 197a d2bc 65b8 3b3d
00000180: 4138 283d c1fa d03c 2349 a93c 6793 1e3d
00000190: 2a9d 823d 0a6a e3bb f4da 483d 5919 91bc
000001a0: b206 a13b 241e 04bc d57b ccbc b86f 463c
000001b0: eea8 30bd 735b bbbd 6c95 163d 9ff9 7c3c
000001c0: d8f5 aabc 9a87 55bd a305 10bd 07d0 cdbc
000001d0: fe31 ac3c 5cee aa3c e317 163c 9a9f 783d
000001e0: d61b a73b e88b 2b3d 865e 2bbd 9ba6 c33c
000001f0: 9e9d 1dbc 01d9 00bd d884 0dbd d47d b2bb
00000200: bd22 5cbd f6d2 393d b067 193d a802 053d
00000210: 0c59 9f3c 0365 9d3c 84c7 e4bc 3a14 d63b
00000220: 356f 29bd c712 02bd ca20 11bd 9430 16bc
00000230: 4ce8 8d3c 373c 4dbd 194c 65bd c307 933c
00000240: 5a09 553c 9801 183b a53c 8ebd 5027 20bc
00000250: 0beb a83b d475 163d ab5f 52bd 65da 0f3d
00000260: 47fa 7d3d bfbb b6bb fd06 653d 935e 1c3b
00000270: 5039 bcbb d58d 8abd 9364 c83b 3ace cc3c
00000280: 0833 e53c 317e 0cbd d3a1 82bd 4ea8 883b
00000290: 8e21 e23b 9b46 263d d972 41bd f529 673c
000002a0: 3690 7d3c 125e ca3b fc70 1b3c 1a46 44bc
000002b0: 4fc1 8d3c ef47 353d a66a 26bd 32aa a1bd
000002c0: de8b 883d ad8a 96bc b5b8 483d 2813 bf3c
000002d0: f07c 1fbb 6049 1f3b 41d5 d1bc 139d c1bc
000002e0: eaa3 59bd 46c0 493b 6248 b9bc ce64 4dbd
000002f0: 06d8 373d 6daa f7bc deb0 57bd 3bf6 153d
00000300: 4fa1 c1bc b3f7 2c3b 8871 f73c 600f ecbb
00000310: c185 9f3d 7165 e0bc ed49 a1bc 8fc6 ab3d
00000320: c4a5 f8bb 016e cfbc ed49 c13c fc51 6cbc
00000330: 0f5c 3cbc ac8c f1bc ddbb a5bd 3ada 2abd
00000340: 424c 403d d886 a1bc cf4b 593d 4701 bdbc
00000350: 9c74 243b 28b5 34bd 54ef ab3c 6731 073b
00000360: 0fa2 4a3d 938a a8bc 8221 e53c fa94 c0bb
00000370: 040b 333d d787 6d3d 9d64 efbc 27d5 16bd
00000380: c7b1 b53c b555 aabb 6f76 d4b9 9b0e 213c
00000390: fcd7 c63b 0d83 c9bc ebb6 07bd 7f9b dbbd
000003a0: 8393 09bc 90ee a03d 9372 4dbd 65c3 43bd
000003b0: bc6a 7ebd a496 23bd 9508 8bbb a73b 02bd
000003c0: a2b1 8a3b 9d55 6c3c 1949 47bc c5ad 3e3d
000003d0: c967 7dbb 40f9 08bd 0e12 b33b 30cc 033d
000003e0: 232a 2a3d f710 0cbc f89f 273d 4e86 5c3d
000003f0: 6a3c cb3c cd23 f93c 61ab cc3c c80c 07bc

fc3.bias f4 [3]
0.021446701 -3.7777747e-05 -0.0138348
00000000: feb0 af3c 8c73 1eb8 5bab 62bc

fc1.weight f4 [100, 11]
-0.18390903 0.16070512 0.14328569 -0.08853222 -0.012516118 0.025637647 0.039214246 0.070606045
0.14631087 0.13428019 0.051339325 -0.052068707 -0.13353668 0.13530931 -0.038114168 -0.019182539
-0.09592153 -0.18332444 0.00063185534 -0.09627382 0.06616106 0.10931353 -0.022355067 -0.045318324
-0.117461 -0.027084382 0.1423755 0.08430714 -0.14363989 0.235093 -0.033258673 0.076906376
0.14419986 0.037745375 -0.2222758 0.10535084 -0.0761423 -0.02911301 -0.0015879568 0.13946979
0.25238064 -0.19306566 0.046363376 -0.055866413 -0.23270445 0.02131604 0.09186479 -0.29996687
-0.08984715 0.091343254 0.049054913 0.11755376 0.0038738754 -0.03645699 -0.0663396 -0.21697761
0.16940935 0.1361531 -0.025561098 -0.21584946 0.08110295 -0.03538241 0.08537726 0.21250969
-0.011252066 0.02355895 -0.31420544 0.102679886 0.13400824 -0.008318962 -0.11549606 -0.023668997
0.14590093 -0.11591796 0.019305944 0.09254377 -0.034619853 0.1309435 0.18724746 -0.06779367
-0.2505925 -0.08126282 0.021318968 -0.09938 -0.17523985 0.26716816 -0.21946335 0.1370729
-0.3162723 -0.05948065 -0.27163905 0.14077108 0.1549565 -0.16680488 0.071962714 0.26183048
-0.26377895 -0.12908211 0.11454618 -0.078476176 0.16677451 -0.07283826 -0.12521003 0.23349456
0.19567506 0.23582973 0.22079767 -0.20827225 -0.13019045 0.0855138 -0.08644099 -0.16936834
0.021685522 0.20301007 0.12355729 0.069965824 -0.01775205 -0.08078349 -0.09820163 0.17728712
0.009695259 0.04662692 -0.015222985 0.22484182 0.16023019 0.27737373 0.12823361 -0.07186715
-0.10355012 0.19730093 0.23957083 -0.20954025 0.13110326 0.12422663 0.32668284 0.18742265
-0.057157353 -0.111518055 0.06353079 -0.12987748 0.1566679 -0.019014364 0.05372213 0.16901174
-0.019220388 0.031513743 0.058820665 0.098835364 0.26726985 0.1324072 0.1362484 0.17832485
0.0894916 0.21106431 0.024842681 -0.17085445 0.26310346 0.16283806 -0.042361643 -0.09546299
-0.20045216 -0.16114081 -0.10317063 -0.07626977 0.08631929 0.04795301 -0.2211381 0.14794046
-0.15063979 -0.1965855 -0.03153585 0.1714835 0.18229634 -0.20837694 -0.10280712 0.039455824
-0.2327752 -0.07655344 0.258205 -0.27957052 -0.12286346 -0.08422436 -0.11304734 -0.10446801
-0.18058388 0.09861409 0.10060824 0.2076651 0.06490746 -0.20093106 -0.039165866 -0.03316041
0.13375361 0.13847743 -0.17772083 -0.010103545 0.117068715 -0.15841112 -0.14224061 -0.23169832
-0.012467739 0.00465678 0.1497169 -0.04814011 -0.2099537 0.14272225 0.11691765 0.044156563
0.06098092 0.13264945 -0.26568362 -0.10034284 0.05956226 0.2968813 0.013498616 0.16258289
-0.14358917 0.015442694 0.18445556 0.17309485 -0.1372673 -0.17319597 -0.063906014 0.22493757
-0.08587798 0.1751713 0.097184196 -0.03252719 0.055398896 -0.059703518 -0.182064 0.13370226
-0.07813022 -0.04655747 0.26419723 0.14180733 -0.20430209 0.025420386 -0.031066708 -0.06912817
-0.086226895 -0.048885886 -0.049026664 0.021295896 -0.08735666 0.018871859 -0.0049650464 -0.06539622
-0.10386947 0.018501958 0.045384586 0.02723849 -0.085552536 0.22093527 -0.2479729 -0.045899287
00000000: a652 3cbe e28f 243e 7cb9 123e 6150 b5bd
00000010: 6710 4dbc 0b06 d23c 1e9f 203d e799 903d
00000020: 84d2 153e bf80 093e 2f49 523d ff45 55bd
00000030: d7bd 08be 868e 0a3e 9a1d 1cbd b324 9dbc
00000040: 8272 c4bd 67b9 3bbe 18a3 253a 352b c5bd
00000050: 737f 873d c6df df3d f921 b7bc b59f 39bd
00000060: 658f f0bd 11e0 ddbc e2ca 113e 39a9 ac3d
00000070: 5616 13be 38bc 703e 3f3a 08bd 1781 9d3d
00000080: 21a9 133e e59a 1a3d 449c 63be 2ec2 d73d
00000090: 7ff0 9bbd 687e eebc fd22 d0ba 2bd1 0e3e
000000a0: 0938 813e 01b3 45be 86e7 3d3d 2ed4 64bd
000000b0: 134a 6ebe fa9e ae3c 9b23 bc3d 4295 99be
000000c0: c801 b8bd 2c12 bb3d ceed 483d 07c0 f03d
000000d0: d8e0 7d3b ed53 15bd 0edd 87bd 612f 5ebe
000000e0: a579 2d3e b86b 0b3e 8265 d1bc a407 5dbe
000000f0: 4e19 a63d 25ed 10bd 46da ae3d 249c 593e
00000100: 965a 38bc b3fe c03c 89df a0be d549 d23d
00000110: 7539 093e 414c 08bc 3389 ecbd 7ce5 c1bc
00000120: 0e67 153e 6566 edbd 8027 9e3c 9787 bd3d
00000130: 8ccd 0dbd 0e16 063e ccbd 3f3e 68d7 8abd
00000140: a94d 80be 1f6d a6bd 1ea5 ae3c be87 cbbd
00000150: 1372 33be 44ca 883e 00bb 60be d75c 0c3e
00000160: 71ee a1be fba1 73bd 4614 8bbe 4b26 103e
00000170: ebac 1e3e e6ce 2abe 3061 933d a50e 863e
00000180: 090e 87be 1a2e 04be 3097 ea3d 1eb8 a0bd
00000190: f0c6 2a3e 3a2c 95bd 0f37 00be 3319 6f3e
000001a0: 0b5f 483e 597d 713e c918 623e 5245 55be
000001b0: a550 05be dc21 af3d f907 b1bd e56e 2dbe
000001c0: d6a5 b13c dfe1 4f3e 9b0b fd3d 3e4a 8f3d
000001d0: bf6c 91bc d071 a5bd f01d c9bd c18a 353e
000001e0: ddd8 1e3c dffb 3e3d d469 79bc ef3c 663e
000001f0: 6213 243e ee03 8e3e ac4f 033e 162f 93bd
00000200: 1612 d4bd 4109 4a3e 0e52 753e b891 56be
00000210: ef3f 063e 886a fe3d f942 a73e b9eb 3f3e
00000220: d41d 6abd 9463 e4bd 6e1c 823d 9afe 04be
00000230: 8d6d 203e 03c4 9bbc bc0b 5c3d 6a11 2d3e
00000240: 1374 9dbc 8e14 013d f0ed 703d 326a ca3d
00000250: 98d7 883e c195 073e b384 0b3e ca9a 363e
00000260: 5f47 b73d 3e21 583e e182 cb3c 78f4 2ebe
00000270: 7fb5 863e 05bf 263e 6783 2dbd 1a82 c3bd
00000280: 5543 4dbe 1902 25be 204b d3bd 5333 9cbd
00000290: 2bc8 b03d 606a 443d 0772 62be b47d 173e
000002a0: 5141 1abe b64d 49be bc2b 01bd 5f99 2f3e
000002b0: e4ab 3a3e c460 55be 8a8c d2bd 6e9c 213d
000002c0: 9f5c 6ebe 0dc8 9cbd 7233 843e de23 8fbe
000002d0: d69f fbbd d27d acbd 5d85 e7bd 53f3 d5bd
000002e0: fbea 38be 2ff6 c93d b10b ce3d 29a6 543e
000002f0: 34ee 843d dfc0 4dbe 636c 20bd 36d3 07bd
00000300: b5f6 083e 07cd 0d3e 73fc 35be 5789 25bc
00000310: b9c1 ef3d 8636 22be 86a7 11be 5342 6dbe
00000320: 7d45 4cbc e797 983b 634f 193e 902e 45bd
00000330: 1afe 56be c825 123e 8572 ef3d 83dd 343d
00000340: 21c7 793d 42d5 073e af07 88be 8c80 cdbd
00000350: 8ef7 733d d300 983e 4d29 5d3c 217c 263e
00000360: 0a09 13be 5a03 7d3c ebe1 3c3e c73f 313e
00000370: cd8f 0cbe 495a 31be 28e1 82bd 0956 663e
00000380: cbe0 afbd 1b60 333e 8208 c73d 3b3b 05bd
00000390: f4e9 623d ad8b 74bd fc6e 3abe 3fe9 083e
000003a0: bd02 a0bd 0cb3 3ebd dc44 873e f135 113e
000003b0: 9134 51be 6a3e d03c 9c7f febc 1293 8dbd
000003c0: ba97 b0bd 913c 48bd 2fd0 48bd bb74 ae3c
000003d0: 0ce8 b2bd 2899 9a3c d4b1 a2bb 74ee 85bd
000003e0: 84b9 d4bd 6b91 973c 30e5 393d 4123 df3c
000003f0: 2b36 afbd db3c 623e 9cec 7dbe e400 3cbd

fc1.bias f4 [100]
0.51106375 -0.42568427 0.4020371 -0.26012173 -0.22533102 0.4247976 -0.39635956 -0.33071727
-0.465078 -0.46506235 0.3185228 0.18472439 0.21972817 -0.3941139 0.38672882 -0.16078374
-0.47194767 -0.38850746 -0.483572 -0.30345175 0.36547753 -0.15103073 0.41809213 -0.22632608
0.43076235 0.23826408 -0.21678685 -0.050135802 0.31211123 0.44588843 -0.25637034 -0.48296538
0.28522998 -0.14816865 -0.4341962 0.32491666 -0.35878628 0.378102 0.29869688 0.1748271
0.26536974 -0.34883335 0.4565718 -0.15171112 -0.08373049 -0.3351219 -0.49407905 -0.43581012
-0.39464498 0.37542537 0.46167502 -0.45971772 0.2062695 0.10540726 -0.26419753 -0.21894667
0.21465658 0.06448147 -0.45584023 -0.3128548 0.20535377 0.27392107 -0.28277373 -0.17342265
0.03783044 -0.43832663 0.24441002 -0.43512928 0.2325114 0.42971906 0.29206333 0.48543847
-0.18296735 -0.33098775 -0.21956953 -0.39175776 -0.4009291 -0.24658148 0.24363299 -0.3236221
-0.38631606 -0.34352493 -0.38484138 0.27429834 -0.38476107 -0.22398564 -0.46372285 -0.46169272
-0.44949916 -0.15653463 0.22611915 0.3500601 0.38500172 -0.20132962 -0.42955863 0.28552648
0.4279767 -0.2874434 -0.41176572 -0.30724782
00000000: 13d5 023f 4af3 d9be cfd7 cd3e ad2e 85be
00000010: 2dbd 66be 127f d93e a4ef cabe c653 a9be
00000020: b41e eebe a71c eebe 6c15 a33e 6428 3d3e
00000030: 6c00 613e 4cc9 c9be 5201 c63e 7ea4 24be
00000040: 20a3 f1be 73ea c6be c096 f7be 075e 9bbe
00000050: df1f bb3e cda7 1abe 2c10 d63e 06c2 67be
00000060: e28c dc3e 80fb 733e 5ffd 5dbe 335b 4dbd
00000070: 0bcd 9f3e 7d4b e43e f942 83be 3d47 f7be
00000080: aa09 923e 86b9 17be f74e debe 7a5b a63e
00000090: d6b2 b7be 9696 c13e ccee 983e e005 333e
000000a0: 8bde 873e 499a b2be c7c3 e93e 295a 1bbe
000000b0: e47a abbd 1995 abbe eef7 fcbe 8122 dfbe
000000c0: e80e cabe c137 c03e ab60 ec3e 1f60 ebbe
000000d0: 5038 533e c3df d73d e644 87be 8e33 60be
000000e0: efce 5b3e dc0e 843d e463 e9be 812e a0be
000000f0: 4248 523e 623f 8c3e b8c7 90be b595 31be
00000100: 17f4 1a3d 596c e0be 9f46 7a3e 44c9 debe
00000110: 7817 6e3e 2304 dc3e 5389 953e 648b f83e
00000120: cb5b 3bbe 3a77 a9be d6d6 60be 7994 c8be
00000130: 9446 cdbe db7f 7cbe ed7a 793e ccb1 a5be
00000140: 38cb c5be 80e2 afbe ee09 c5be d570 8c3e
00000150: 67ff c4be 7e5c 65be 156d edbe fd62 ecbe
00000160: c124 e6be 9d4a 20be c78b 673e 143b b33e
00000170: f21e c53e 5a29 4ebe 1cef dbbe 8730 923e
00000180: c31f db3e c82b 93be f5d2 d2be 964f 9dbe

fc2.weight f4 [100, 100]
0.09589375 -0.12340387 0.0024946383 -0.06655773 -0.100692816 0.058051497 -0.044993784 -0.16939445
-0.13589376 -0.1963511 0.14078167 0.03756424 0.12999877 -0.0630924 0.13456988 -0.040322065
-0.16373011 -0.016203616 -0.04627497 -0.035006173 0.10762571 0.05818675 0.0946005 -0.010328184
0.059472267 0.09907365 -0.00862989 -0.035131983 0.1574388 0.15099463 -0.0430918 -0.18006837
0.057083942 -0.028522342 -0.18125448 0.06263669 -0.101708636 0.02976285 0.17222093 0.1320181
0.07929997 -0.06542131 0.123980835 0.042089265 -0.056337506 -0.11559764 -0.13248648 -0.11101305
-0.04853921 0.12920624 0.14517473 -0.06437622 0.095617846 0.04831009 -0.010545791 0.019797286
0.0866241 -0.017743642 -0.118142255 -0.07418536 0.061732527 0.10263501 -0.06848617 -0.052819304
0.002507927 -0.12975661 0.1680363 -0.1437207 0.047913115 0.15353128 0.09466181 0.020577887
-0.112893865 -0.08126416 -0.062278505 -0.030933721 -0.11514978 -0.123017244 0.14622904 -0.11184274
-0.16754568 -0.12556832 -0.042451892 0.10404354 -0.08309731 -0.004534041 -0.10998081 -0.07560009
-0.1731749 0.0038634632 0.114667706 0.11211982 0.14366674 -0.07426195 -0.12849395 0.08553701
0.07971146 -0.03058561 -0.08590256 -0.10911225 0.048589785 -0.0021837319 0.017067129 -0.0030940322
-0.09410596 0.0025208793 -0.0072532035 -0.256475 -0.062850915 -0.118807584 0.20170659 0.18221007
0.079753354 -0.11585742 0.21831003 0.028993601 -0.048080623 -0.11507976 -0.023605406 0.0043048654
0.02118992 0.033742838 0.058397226 -0.06063749 0.12686208 0.13394916 0.09276466 -0.11313733
0.17637227 0.17180495 0.019836904 -0.18677533 0.036661632 -0.084705636 -0.3466358 0.0073016905
-0.07492219 0.12136027 0.049120683 0.14022 0.14136702 -0.25085866 0.27879417 0.14306328
-0.10384919 -0.13980263 -0.09959152 -0.10259762 -0.011261481 0.09846715 0.039933853 -0.06836909
0.08313013 0.11788813 -0.1230825 0.052875064 0.043357167 0.071174435 -0.33455616 0.026249316
0.21337916 0.15750246 0.07330657 0.11328872 0.017719517 -0.07456662 0.11259593 0.04494031
0.14197084 0.060783334 0.048254468 -0.022776684 -0.13156885 -0.30547464 -0.123919085 -0.010681333
0.08481154 -0.08084541 0.058911934 -0.12865886 -0.14502034 -0.16148189 -0.1530367 0.004091353
-0.13901038 -0.012259063 -0.038592786 -0.09154988 -0.19654219 0.14514795 0.19527528 -0.03752132
0.14322457 -0.0725755 -0.23493592 0.031499423 0.014542419 -0.05914314 -0.0971928 0.01591509
0.08324637 -0.0993238 0.11689675 -0.07999237 -0.07276422 0.13554037 -0.06710487 -0.13887729
-0.14675336 -0.14888552 0.06490153 0.04197575 0.08171764 -0.1543122 0.09457149 -0.05120114
-0.16307703 -0.122611724 -0.16660173 -0.06869623 0.17191839 -0.016222144 0.18664546 -0.011906551
0.113671035 0.07383179 -0.08898514 -0.030541396 0.10180006 0.122255415 -0.028650597 -0.123838075
0.050844267 -0.011456911 -0.13110277 0.10993692 -0.10597902 0.0969808 0.11906441 0.068928085
0.10008844 -0.15407595 0.06376037 -0.012071269 0.026608756 -0.10916373 -0.11716822 -0.11525966
-0.10362228 0.094541214 0.16851108 -0.14006715 0.02234085 0.03320757 -0.062242147 -0.038888358
00000000: f163 c43d 2bbb fcbd 167d 233b 6b4f 88bd
00000010: 0938 cebd 68c7 6d3d 674b 38bd bd75 2dbe
00000020: bc27 0bbe 4310 49be 1229 103e f6dc 193d
00000030: 661e 053e 9736 81bd b0cc 093e c028 25bd
00000040: dea8 27be 72bd 84bc d38a 3dbd a262 0fbd
00000050: de6a dc3d 3b55 6e3d e8bd c13d 8b37 29bc
00000060: 3199 733d 20e7 ca3d 6264 0dbc 8ee6 0fbd
00000070: a337 213e 569e 1a3e 0781 30bd d863 38be
00000080: dad0 693d b0a7 e9bc c69a 39be aa47 803d
00000090: 9e4c d0bd 38d1 f33c af5a 303e c12f 073e
000000a0: 0668 a23d 9cfb 85bd aae9 fd3d cb65 2c3d
000000b0: 28c2 66bd 75be ecbd 89aa 07be cf5a e3bd
000000c0: 0dd1 46bd a44e 043e afa8 143e aed7 83bd
000000d0: 4ad3 c33d cde0 453d 41c8 2cbc eb2d a23c
000000e0: fa67 b13d 1d5b 91bc 91f4 f1bd 7eee 97bd
000000f0: 3fdb 7c3d 4e32 d23d 7a42 8cbd 0e59 58bd
00000100: 085c 243b ebde 04be b511 2c3e 852b 13be
00000110: 8b40 443d 4e37 1d3e 0dde c13d f592 a83c
00000120: e634 e7bd d36d a6bd bf17 7fbd b768 fdbc
00000130: a6d3 ebbd 77f0 fbbd 11bd 153e ce0d e5bd
00000140: 1891 2bbe fb94 00be 09e2 2dbd c814 d53d
00000150: ec2e aabd 4b92 94bb 9e3d e1bd 38d4 9abd
00000160: c354 31be 2832 7d3b e7d6 ea3d 149f e53d
00000170: 601d 133e a616 98bd eb93 03be 072e af3d
00000180: c33f a33d ac8e fabc aeed afbd 3e76 dfbd
00000190: 1506 473d f11c 0fbb 5dd0 8b3c 3fc5 4abb
000001a0: a0ba c0bd 5635 253b 48ac edbb b150 83be
000001b0: fbb7 80bd 6451 f3bd 2c8c 4e3e 4795 3a3e
000001c0: ba55 a33d a846 edbd aa8c 5f3e fd83 ed3c
000001d0: 30f0 44bd f0ae ebbd 2060 c1bc d40f 8d3b
000001e0: 7c96 ad3c ee35 0a3d ee31 6f3d 045f 78bd
000001f0: 22e8 013e f829 093e 66fb bd3d 8bb4 e7bd
00000200: ef9a 343e a3ed 2f3e 0181 a23c 0842 3fbe
00000210: 822a 163d 267a adbd 3f7a b1be 0543 ef3b
00000220: ce70 99bd bc8b f83d c532 493d d595 0f3e
00000230: 84c2 103e 8c70 80be 1cbe 8e3e 2e7f 123e
00000240: e2ae d4bd 6c28 0fbe a4f6 cbbd b31e d2bd
00000250: 1382 38bc 25a9 c93d ae91 233d 1805 8cbd
00000260: 2140 aa3d 556f f13d ae12 fcbd 8693 583d
00000270: 4997 313d e7c3 913d f24a abbe ce08 d73c
00000280: 1180 5a3e 5348 213e c121 963d eb03 e83d
00000290: 8528 913c 62b6 98bd b298 e63d 5513 383d
000002a0: ce60 113e f2f7 783d 7aa6 453d 2b96 babc
000002b0: fcb9 06be 2c67 9cbe 4ac9 fdbd c200 2fbc
000002c0: acb1 ad3d 4792 a5bd a44d 713d 26bf 03be
000002d0: 3680 14be 825b 25be a7b5 1cbe c210 863b
000002e0: bd58 0ebe 3dda 48bc 7813 1ebd 817e bbbd
000002f0: 5b42 49be aaa1 143e 3ef6 473e f5af 19bd
00000300: 76a9 123e 77a2 94bd 0b93 70be 8a05 013d
00000310: 5443 6e3c 1440 72bd 050d c7bd 5d60 823c
00000320: 137d aa3d 476a cbbd 9067 ef3d 0ad3 a3bd
00000330: 6805 95bd 18cb 0a3e 476e 89bd d935 0ebe
00000340: 8346 16be 7275 18be 18eb 843d c4ee 2b3d
00000350: 945b a73d 0404 1ebe b3ae c13d 49b8 51bd
00000360: aafd 26be db1b fbbd a599 2abe 9cb0 8cbd
00000370: 600b 303e 4de4 84bc fd1f 3f3e b213 43bc
00000380: 5ccc e83d 1f35 973d d73d b6bd f331 fabc
00000390: 8d7c d03d 0c61 fa3d a8b4 eabc d19e fdbd
000003a0: 1442 503d c5b5 3bbc ce3f 06be 9c26 e13d
000003b0: 870b d9bd df9d c63d 0bd8 f33d 2b2a 8d3d
000003c0: 2bfb cc3d 16c6 1dbe cc94 823d 92c6 45bc
000003d0: 9bfa d93c 3c91 dfbd e4f5 efbd 420d ecbd
000003e0: eb37 d4bd d39e c13d 2b8e 2c3e c36d 0fbe
000003f0: 2904 b73c a904 083d 9ff1 7ebd 6649 1fbd

fc2.bias f4 [100]
0.17569911 0.06606194 0.17940459 0.21306585 0.2078484 0.07103123 0.25495872 -0.07378478
0.12367241 -0.21349403 0.053437807 0.121513955 0.17598346 -0.07617211 0.12961599 -0.19081517
0.19062571 -0.12855043 -0.11777053 0.20604545 0.09895277 -0.17225005 0.2432412 -0.20483865
-0.24767171 -0.22593006 0.06543062 0.21023886 0.13839243 -0.2333171 0.13027683 -0.18764026
0.10132005 0.19698088 -0.04265722 0.086466044 -0.24854317 0.1555943 -0.15982586 0.19545822
-0.1554834 0.011389697 -0.22958699 -0.13518512 0.095507234 0.13657013 0.15503974 -0.14786185
0.25778612 0.18297447 0.15595207 -0.114086606 -0.10955131 -0.18114762 0.22480214 0.22037846
0.25832623 -0.24993837 0.22860776 -0.14802893 0.1966131 -0.052056845 0.19488314 0.20546055
0.21444246 -0.25399324 -0.11782302 0.097379 -0.24804898 -0.17128237 0.15839422 -0.15096973
0.18945093 -0.19693178 -0.109058484 0.204288 -0.25106868 -0.1547321 0.10449714 -0.13022739
-0.0030400758 -0.13334848 -0.06876853 -0.0030135782 -0.22535251 0.15281731 -0.15032366 -0.030285332
0.21356842 -0.11958501 -0.13483879 -0.107284054 -0.18239973 0.18655488 -0.08709081 0.15953192
-0.21312511 -0.22492774 0.22104555 -0.1729119
00000000: 78ea 333e 7b4b 873d d6b5 373e ef2d 5a3e
00000010: 36d6 543e d278 913d f389 823e 7a1c 97bd
00000020: f647 fd3d 2e9e 5abe 9ae1 5a3d 4fdc f83d
00000030: 0235 343e 2000 9cbd 0eba 043e 0d65 43be
00000040: 6333 433e b9a2 03be ad31 f1bd 94fd 523e
00000050: c0a7 ca3d 5162 30be 3914 793e 39c1 51be
00000060: a79d 7dbe 365a 67be 7d00 863d db48 573e
00000070: bfb6 0d3e aeea 6ebe 4a67 053e c524 40be
00000080: e380 cf3d 5bb5 493e 56b9 2ebd 1c15 b13d
00000090: 1a82 7ebe 1d54 1f3e 64a9 23be 3326 483e
000000a0: 0a37 1fbe da9b 3a3c da18 6bbe f86d 0abe
000000b0: 4c99 c33d 0ad9 0b3e bdc2 1e3e 1969 17be
000000c0: 8bfc 833e a95d 3b3e e6b1 1f3e 3da6 e9bd
000000d0: 705c e0bd c37e 39be 8832 663e e4aa 613e
000000e0: 5643 843e d8ef 7fbe 2718 6a3e e594 17be
000000f0: f254 493e 8f39 55bd 728f 473e 4064 523e
00000100: ce96 5b3e 670b 82be 324d f1bd a46e c73d
00000110: 8d00 7ebe a564 2fbe 1832 223e cf97 1abe
00000120: 6dff 413e 7ca8 49be 0e5a dfbd e030 513e
00000130: 138c 80be 1772 1ebe 9902 d63d 545a 05be
00000140: 023c 47bb 818c 08be 84d6 8cbd 747f 45bb
00000150: cfc2 66be 247c 1c3e 72ee 19be f218 f8bc
00000160: aeb1 5a3e fce8 f4bd 2e13 0abe beb7 dbbd
00000170: ffc6 3abe 3e08 3f3e ab5c b2bd 565c 233e
00000180: 783d 5abe 7553 66be c459 623e d10f 31be

fc3.weight f4 [1, 100]
0.36401203 0.3814626 0.36644882 0.37686738 0.37856582 0.37001893 0.3677586 -0.37370527
0.37213537 -0.37103698 0.35732314 0.37808448 0.36996454 -0.35944918 0.3769521 -0.37056923
0.37248808 -0.37330234 -0.37569785 0.36341164 0.37567124 -0.36832887 0.3761562 -0.36874524
-0.3645306 -0.3572459 0.35584903 0.3777317 0.37951115 -0.37686077 0.36196253 -0.36655784
0.37502033 0.36639127 -0.37234882 0.37489787 -0.3864505 0.372248 -0.37074715 0.3745474
-0.3662638 -0.36484274 -0.37250715 -0.3788445 0.37085307 0.38144264 0.3652645 -0.36834878
0.3679973 0.37695074 0.37798747 -0.37229964 -0.37139267 -0.37556416 0.37239206 0.37484086
0.37465224 -0.3562904 0.37283918 -0.36431664 0.37253353 -0.37352875 0.3664621 0.37024096
0.3731048 -0.37626022 -0.37004918 0.37785625 -0.3617586 -0.3564619 0.37921256 -0.36577886
0.37185445 -0.37643346 -0.37773576 0.36870533 -0.37273592 -0.38149458 0.37629148 -0.37895975
-0.3541647 -0.3462812 -0.3665825 -0.37455973 -0.36924222 0.37267077 -0.3620416 -0.35650635
0.36722726 -0.38062227 -0.35974672 -0.35648194 -0.37496716 0.3835559 -0.37570593 0.3780384
-0.3754438 -0.38708755 0.35075364 -0.36782646
00000000: c95f ba3e 114f c33e 2e9f bb3e c3f4 c03e
00000010: 61d3 c13e 1f73 bd3e db4a bc3e 4c56 bfbe
00000020: 8788 be3e 8ff8 bdbe 0ff3 b63e 4a94 c13e
00000030: fe6b bd3e b909 b8be deff c03e 40bb bdbe
00000040: c2b6 be3e 7c21 bfbe 785b c0be 1711 ba3e
00000050: fb57 c03e 9a95 bcbe 8c97 c03e 2dcc bcbe
00000060: c1a3 babe efe8 b6be d831 b63e 0d66 c13e
00000070: 494f c23e e5f3 c0be 2753 b93e 78ad bbbe
00000080: aa02 c03e a397 bb3e 81a4 bebe 9df2 bf3e
00000090: d7dc c5be 4a97 be3e 92d2 bdbe adc4 bf3e
000000a0: ee86 bbbe abcc babe 42b9 bebe e8f7 c1be
000000b0: 74e0 bd3e 734c c33e f303 bb3e 3698 bcbe
000000c0: 246a bc3e b0ff c03e 9387 c13e 0f9e bebe
000000d0: 2e27 bebe f249 c0be 2caa be3e 24eb bf3e
000000e0: 6bd2 bf3e b26b b6be c7e4 be3e b687 babe
000000f0: b7bc be3e 293f bfbe eca0 bb3e 3990 bd3e
00000100: 9807 bf3e 2ea5 c0be 1677 bdbe 6076 c13e
00000110: 6c38 b9be 2d82 b6be 2628 c23e 5e47 bbbe
00000120: b563 be3e e3bb c0be 9566 c1be f2c6 bc3e
00000130: 3ed7 bebe 4253 c3be 47a9 c03e 0307 c2be
00000140: 1355 b5be c54b b1be b4b0 bbbe 4bc6 bfbe
00000150: 510d bdbe b4ce be3e 845d b9be 0088 b6be
00000160: 3605 bc3e ece0 c2be b930 b8be cd84 b6be
00000170: b2fb bfbe 7061 c43e 875c c0be 408e c13e
00000180: 2b3a c0be 5730 c6be fb95 b33e c053 bcbe

fc1.weight f4 [100, 14]
0.20223527 0.16685547 0.13763471 0.24453592 0.12996739 0.15880904 -0.13948973 -0.18479814
0.0620024 -0.06873395 0.13066566 0.19638622 -0.1251935 0.26452678 -0.15499972 -0.07144007
0.052467458 0.11737197 0.10308312 -0.2628619 0.16889583 0.27247107 -0.11008069 -0.084593706
-0.16050865 0.012941157 -0.23628989 -0.101889044 0.0222594 0.0071127224 -0.1961447 -0.0019961263
-0.23153917 0.06412161 0.13397154 0.17317109 0.21106862 0.040695492 0.11437081 0.2704587
-0.17263187 0.087868445 -0.036266044 -0.21868762 -0.20013401 0.14074561 -0.053886697 0.10411869
0.19463553 0.22046717 -0.22384988 0.17407295 0.22283055 -0.22639534 -0.22449571 0.17102845
-0.27411902 -0.075093724 0.08590155 -0.07825624 0.019321332 -0.15611386 -0.15665568 0.036921185
0.19364946 -0.08354647 0.13381593 -0.19562675 -0.287245 -0.11068514 0.06205198 0.18899542
0.062227767 0.18655938 0.19064441 -0.23152249 0.11792365 0.23502015 -0.03640382 -0.110645555
-0.053048525 0.20294139 -0.22956577 -0.065019645 0.082664914 0.19044302 0.17247486 0.24921702
-0.088960044 -0.22312681 0.21532167 -0.046149924 0.08925054 0.10605638 0.15835741 -0.14879377
0.03403175 -0.20228587 -0.02843056 0.11513563 0.13489895 0.17835955 -0.26223332 -0.19424565
-0.14781076 -0.15075977 0.21711971 0.14779009 -0.031320017 0.031672288 -0.0431988 -0.076003
0.22840697 -0.19856507 -0.060467567 0.0027340143 -0.13001952 0.08806089 -0.048260733 0.07087743
-0.14651717 0.12763569 -0.047893032 0.14767472 0.2811661 0.27180386 0.26636294 -0.032424983
0.15197918 -0.1261367 0.21546236 0.22355771 -0.1758406 0.19418018 0.008771924 -0.1922877
-0.13713694 0.19570082 -0.04119803 0.18673345 -0.08549235 0.25005007 -0.07515816 0.12499813
-0.20895426 0.23887391 0.2734621 -0.17946863 0.23466904 0.078669034 0.18840761 -0.07434869
0.1591403 -0.0157949 -0.009742392 -0.15832067 -0.23083791 -0.019591827 -0.12172089 0.18463427
-0.24841718 -0.13833664 -0.06164591 0.1066432 0.19262165 -0.07026059 -0.2502995 -0.04355196
-0.095590055 0.2867778 -0.040688843 0.22689287 -0.020030456 0.2659421 0.2289089 0.10827723
-0.06397451 -0.11625483 -0.19288525 -0.20529118 0.22250865 -0.16706443 -0.24696651 -0.1640015
-0.036302637 0.17496409 -0.06752126 -0.1694888 -0.2624607 0.09901452 -0.13662453 0.21872513
0.11635927 -0.19591635 -0.18078072 -0.036773473 -0.06304731 0.26732153 -0.23826231 0.050619505
-0.19522981 -0.14543849 -0.09635679 0.029031377 -0.007911183 -0.048250847 0.18739648 0.28438422
-0.1888542 0.20974144 -0.15930873 0.08742047 0.00514672 0.044781912 -0.053468216 -0.1340635
0.017702468 -0.23121378 -0.019663397 0.074458465 0.0037016056 -0.101951584 0.21355236 0.07644239
-0.030781103 0.04096521 0.08819692 -0.16302505 -0.04504322 0.036644258 -0.1691242 -0.18740404
-0.1055023 0.18210717 0.0597984 0.18751366 -0.06444294 -0.019138198 0.011675175 0.2624943
-0.2701388 0.13513562 -0.17640874 -0.087507404 0.12431337 -0.024497593 0.24806553 -0.056333568
-0.009378875 -0.230572 -0.25434044 0.09057498 0.23819968 -0.13734327 -0.18377396 -0.05355847
00000000: c316 4f3e 29dc 2a3e 1df0 0c3e a067 7a3e
00000010: 2c16 053e d69e 223e 65d6 0ebe b93b 3dbe
00000020: 3bf6 7d3d 63c4 8cbd 38cd 053e 7819 493e
00000030: ba32 00be 0e70 873e 3fb8 1ebe 2c4f 92bd
00000040: 1ee8 563d b760 f03d 3e1d d33d d695 86be
00000050: 07f3 2c3e 5481 8b3e fc71 e1bd 773f adbd
00000060: 615c 24be 2607 543c faf5 71be 34ab d0bd
00000070: 5859 b63c d711 e93b 28da 48be 71d1 02bb
00000080: 9b18 6dbe 3152 833d d62f 093e c353 313e
00000090: 5f22 583e 51b0 263d 3e3b ea3d 9079 8a3e
000000a0: 69c6 30be 5ff4 b33d b48b 14bd a6ef 5fbe
000000b0: eeef 4cbe 9e1f 103e 4cb8 5cbd 2e3c d53d
000000c0: 894e 473e 25c2 613e e738 65be 2e40 323e
000000d0: b12d 643e 2ed4 67be 34e2 65be 1522 2f3e
000000e0: 5459 8cbe bdca 99bd 27ed af3d cf44 a0bd
000000f0: c547 9e3c 50dc 1fbe 596a 20be ab3a 173d
00000100: 0b4c 463e 691a abbd 0b07 093e 6152 48be
00000110: c711 93be e4ae e2bd 382a 7e3d 0488 413e
00000120: 8be2 7e3d 6c09 3f3e 4a38 433e 3b14 6dbe
00000130: f481 f13d 1fa9 703e 2c1c 15bd 239a e2bd
00000140: 6949 59bd decf 4f3e 4a13 6bbe 0529 85bd
00000150: 394c a93d 7f03 433e 409d 303e bf32 7f3e
00000160: af30 b6bd 5b7b 64be 497d 5c3e b407 3dbd
00000170: fdc8 b63d 1634 d93d 7228 223e 655d 18be
00000180: e064 0b3d 0724 4fbe 35e7 e8bc 3bcc eb3d
00000190: f322 0a3e e3a3 363e 7243 86be 55e8 46be
000001a0: b45b 17be c560 1abe a154 5e3e 4956 173e
000001b0: 6b49 00bd cdba 013d 3af1 30bd 76a7 9bbd
000001c0: 84e3 693e a454 4bbe d7ac 77bd 262d 333b
000001d0: d623 05be 4559 b43d 0cad 45bd 3028 913d
000001e0: 9908 16be eeb2 023e 7c2b 44bd 0b38 173e
000001f0: 01f5 8f3e e029 8b3e b960 883e 0fd0 04bd
00000200: 6ea0 1b3e fb29 01be 2aa2 5c3e 50ec 643e
00000210: 8f0f 34be 2bd7 463e 1eb8 0f3c 11e7 44be
00000220: a06d 0cbe cc65 483e 44bf 28bd 0e37 3f3e
00000230: 9d16 afbd 9006 803e 85ec 99bd 05ff ff3d
00000240: 1bf8 55be 5d9b 743e 3903 8c3e a0c6 37be
00000250: 154d 703e 3b1d a13d eded 403e 2044 98bd
00000260: adf5 223e 4e64 81bc 8e9e 1fbc d01e 22be
00000270: c660 6cbe 0a7f a0bc cd48 f9bd c410 3d3e
00000280: 1361 7ebe 1fa8 0dbe 6c80 7cbd c067 da3d
00000290: 9c3e 453e c9e4 8fbd 4227 80be 8a63 32bd
000002a0: b8c4 c3bd 8ad4 923e 58a9 26bd 9b56 683e
000002b0: e916 a4bc 9029 883e 1867 6a3e 74c0 dd3d
000002c0: 1105 83bd 0317 eebd b683 45be da37 52be
000002d0: 4fd9 633e f012 2bbe cae4 7cbe 02f0 27be
000002e0: 13b2 14bd c929 333e 9648 8abd 798e 2dbe
000002f0: 4061 86be 20c8 ca3d 4de7 0bbe 7bf9 5f3e
00000300: c54d ee3d 4c9e 48be 951e 39be c89f 16bd
00000310: f31e 81bd 5ede 883e 09fb 73be 6656 4f3d
00000320: 53ea 47be d4ed 14be b556 c5bd 36d3 ed3c
00000330: e89d 01bc aea2 45bd dde4 3f3e cf9a 913e
00000340: ff62 41be 76c6 563e d421 23be 8109 b33d
00000350: d1a5 a83b 3d6d 373d 7d01 5bbd f147 09be
00000360: c404 913c 4ec3 6cbe 2215 a1bc ae7d 983d
00000370: a396 723b fecb d0bd 78ad 5a3e d48d 9c3d
00000380: a728 fcbc 23cb 273d 96a0 b43d 0af0 26be
00000390: 3d7f 38bd 4a18 163d e52e 2dbe d8e6 3fbe
000003a0: 9711 d8bd 4d7a 3a3e 2bef 743d 9503 403e
000003b0: a9fa 83bd b6c7 9cbc 3c49 3f3c a765 863e
000003c0: a24f 8abe fe60 0a3e 7ea4 34be 1537 b3bd
000003d0: 0298 fe3d 2daf c8bc e404 7e3e 07be 66bd
000003e0: daa9 19bc 111b 6cbe e938 82be 607f b93d
000003f0: 9eea 733e b7a3 0cbe 3e2f 3cbe 2060 5bbd
