mujoco/gail/save_model/ckpt_1613.pth.tar (torch, 144879 bytes, 16 tensors)

fc1.weight f4 [100, 11]
0.07510164 -0.30067283 0.4725661 -0.3768677 -0.024211686 0.12464619 -0.018398013 0.16704664
0.4574125 0.015791543 -0.0034436584 0.29259926 -0.07569158 0.0629577 -0.53479105 -0.07964437
0.26938066 0.012446739 0.17434911 0.022400562 0.31485388 0.323141 0.32399437 -0.23510513
-0.3162296 0.07279632 0.11092463 0.010884903 0.030148048 0.510451 0.19780621 0.07747118
0.2626696 0.51347965 -0.36768 0.09135379 0.28485706 0.08597995 -0.04241446 -0.19100522
-0.18398169 -0.057495482 0.175176 -0.3914266 0.02566437 0.164753 0.33324447 -0.40251955
-0.12139402 0.186279 -0.15859488 0.13002723 0.49468234 0.02353336 -0.0503169 0.53948814
-0.13994804 0.29883757 0.028019015 0.20858213 0.025903584 0.16817334 -0.45179513 -0.14406721
-0.08610144 0.06235917 0.320161 -0.49740723 0.19646692 -0.079808116 -0.13452742 -0.2468459
-0.03444287 -0.027374657 0.20233707 -0.2328782 -0.00841504 0.19725999 0.34885907 -0.5588446
-0.16037236 0.33370346 0.16079322 0.13142596 0.07927452 -0.23308374 0.2905598 0.27416882
0.0009120263 0.17877357 -0.41006655 -0.51846313 0.23898579 0.3667762 0.1370936 0.007649235
0.2581493 -0.053237125 0.21166869 -0.03488413 0.25401884 0.19621778 -0.051933233 0.15403722
-0.15528683 0.26383397 0.37005648 0.22021493 0.23894614 -0.16251005 -0.47064453 -0.057211135
-0.12693208 -0.19044428 -0.017015418 0.34077984 -0.17853324 0.3755202 0.019669414 0.5028737
-0.26604444 -0.022289876 -0.07773966 -0.015583284 0.06028235 0.61509216 0.37793666 0.067518026
-0.17067237 -0.35931072 -0.04474254 0.13546112 0.02222817 0.16799878 0.29866633 0.01841221
0.21928747 -0.11892153 0.093130864 -0.1890413 0.23414625 -0.17117555 0.36350903 0.0062858737
0.08149079 -0.05446774 0.23773974 -0.16748907 -0.09674432 0.07371485 0.5119944 0.9039562
-0.13595554 0.08149202 -0.09957502 -0.23467925 0.64414746 0.23510538 0.116624445 -0.09268091
0.41668555 0.20797372 0.029357834 0.025022933 0.28058374 -0.094742715 -0.07846753 0.5962566
0.18259987 0.32032704 0.013369782 -0.042818207 -0.08489028 0.13490233 0.25843507 -0.079521
0.19324347 -0.2321597 0.4100326 0.20570065 0.3404116 0.33118123 -0.33370635 0.4681015
0.3134966 0.2678109 0.4346412 0.10130375 -0.272397 -0.20774646 -0.064901695 0.07885469
-0.38268796 0.039078634 0.068082 -0.023515033 -0.19605805 -0.112353064 0.15124215 0.19339673
0.3544527 -0.09157402 -0.16928995 0.23235409 -0.018314138 0.0883886 -0.20007956 -0.37095565
0.4515152 -0.028190613 0.40635312 -0.53548455 0.100206636 0.36597207 -0.25158972 -0.15252008
-0.20728576 -0.261744 0.27980497 -0.19493042 -0.17462401 -0.39401287 -0.06871853 0.2662782
-0.033587586 -0.09156106 -0.049585722 -0.18361028 0.10984753 -0.21850856 -0.32571372 0.23813137
0.13183963 0.60810465 0.23445863 0.38273165 -0.31788644 0.0404711 -0.014683468 -0.096607186
0.17656548 -0.08700655 0.07715515 -0.4483951 0.08363296 0.21459633 0.41726014 0.19753557
-0.08602997 -0.25404721 -0.13784705 0.14414947 -0.47309786 0.22320533 0.28513217 -0.028193735
00000000: e3ce 993d caf1 99be 2ff4 f13e cef4 c0be
00000010: 9657 c6bc 8046 ff3d 6eb7 96bc 460e 2b3e
00000020: f931 ea3e 445d 813c 00af 61bb 92cf 953e
00000030: 3004 9bbd f7ef 803d 11e8 08bf 961c a3bd
00000040: 43ec 893e 68ed 4b3c 9388 323e 6281 b73c
00000050: 8734 a13e bd72 a53e 97e2 a53e 66bf 70be
00000060: d9e8 a1be 3d16 953d 742c e33d 9856 323c
00000070: 0af9 f63c ebac 023f b68d 4a3e 36a9 9e3d
00000080: a17c 863e 6773 033f 8e40 bcbe b217 bb3d
00000090: c9d8 913e 4216 b03d c9ba 2dbd df96 43be
000000a0: b265 3cbe 6280 6bbd 5661 333e 1169 c8be
000000b0: 163e d23c 03b5 283e 059f aa3e 0b17 cebe
000000c0: 6e9d f8bd ecbf 3e3e b266 22be dc25 053e
000000d0: 0147 fd3e 08c9 c03c 1819 4ebd e51b 0a3f
000000e0: 8a4e 0fbe 3d01 993e 2288 e53c 8e96 553e
000000f0: c133 d43c a235 2c3e b151 e7be 5b86 13be
00000100: f455 b0bd 546c 7f3d 25ec a33e 29ac febe
00000110: a02e 493e 7072 a3bd 8ec1 09be 2cc5 7cbe
00000120: f813 0dbd d140 e0bc 7331 4f3e 9f77 6ebe
00000130: 3cdf 09bc 86fe 493e a89d b23e 7110 0fbf
00000140: a738 24be 2edb aa3e faa6 243e 8794 063e
00000150: ae5a a23d 81ad 6ebe 41c4 943e db5f 8c3e
00000160: 0d15 6f3a 6b10 373e 3ef4 d1be 00ba 04bf
00000170: b1b8 743e 17ca bb3e 4462 0c3e 6fa6 fa3b
00000180: 252c 843e 2c0f 5abd adbf 583e a9e2 0ebd
00000190: c20e 823e 50ed 483e f1b7 54bd efbb 1d3e
000001a0: 8303 1fbe 3f15 873e 0b78 bd3e 0680 613e
000001b0: 4cae 743e 0969 26be 52f8 f0be 3956 6abd
000001c0: 7cfa 01be d303 43be eb63 8bbc b27a ae3e
000001d0: 6bd1 36be 2f44 c03e c021 a13c 55bc 003f
000001e0: fa36 88be 4299 b6bc f935 9fbd 0851 7fbc
000001f0: a0ea 763d ae76 1d3f ea80 c13e e446 8a3d
00000200: bdc4 2ebe 93f7 b7be f443 37bd 52b6 0a3e
00000210: da17 b63c df07 2c3e cbea 983e 34d5 963c
00000220: e58c 603e 228d f3bd 65bb be3d 0b94 41be
00000230: 09c4 6f3e a548 2fbe db1d ba3e bbf9 cd3b
00000240: a5e4 a63d 9119 5fbd 0c72 733e 4182 2bbe
00000250: e321 c6bd d0f7 963d 1112 033f ac69 673f
00000260: ee37 0bbe 4ae5 a63d fded cbbd c24f 70be
00000270: d9e6 243f 77bf 703e ccd8 ee3d 7dcf bdbd
00000280: cf57 d53e 10f7 543e d77f f03c e5fc cc3c
00000290: aca8 8f3e 7808 c2bd 96b3 a0bd 46a4 183f
000002a0: 76fb 3a3e e801 a43e ee0c 5b3c 2562 2fbd
000002b0: f5da adbd d623 0a3e 9a51 843e e8db a2bd
000002c0: 9ee1 453e 46bb 6dbe cbef d13e 31a3 523e
000002d0: 6e4a ae3e 9690 a93e 8fdb aabe 00ab ef3e
000002e0: a082 a03e 831e 893e 4b89 de3e 5778 cf3d
000002f0: 9f77 8bbe 7dbb 54be 2eeb 84bd 917e a13d
00000300: adef c3be eb10 203d 936e 8b3d 99a2 c0bc
00000310: 71c3 48be 5d19 e6bd 39df 1a3e cb09 463e
00000320: d37a b53e 298b bbbd 585a 2dbe 3bee 6d3e
00000330: 8807 96bc 1505 b53d a8e1 4cbe e6ed bdbe
00000340: 002d e73e 00f0 e6bc 840d d03e 8415 09bf
00000350: 2339 cd3d b160 bb3e 5ed0 80be 392e 1cbe
00000360: b842 54be 4f03 86be 9942 8f3e d79b 47be
00000370: a3d0 32be 0ebc c9be 4dbc 8cbd 9e55 883e
00000380: 2393 09bd 5d84 bbbd 661a 4bbd 5504 3cbe
00000390: bef7 e03d b5c0 5fbe f3c3 a6be b6d8 733e
000003a0: f800 073e bfac 1b3f ec15 703e 67f5 c33e
000003b0: 03c2 a2be 06c5 253d ee92 70bc fdd9 c5bd
000003c0: 95cd 343e 7d30 b2bd 8503 9e3d 0b94 e5be
000003d0: c247 ab3d 24bf 5b3e 1fa3 d53e c446 4a3e
000003e0: 7b30 b0bd 7a12 82be c727 0dbe eb9b 133e
000003f0: e239 f2be f08f 643e d8fc 913e 8cf6 e6bc

fc1.bias f4 [100]
-0.10772232 -0.31572482 -0.005736048 0.2246994 0.09352294 0.06364725 -0.1729275 0.04939848
-0.12240013 -0.40683696 0.010373738 0.13727093 -0.11885404 0.121554784 0.13915662 -0.31191984
0.21853097 0.3235838 -0.24481468 0.0950408 -0.04002111 -0.15134838 0.13976555 -0.2746217
0.10111716 0.18268155 -0.30313575 -0.13856053 0.2942946 0.18812326 -0.11727561 0.12337682
0.35387525 0.024180874 -0.38847837 0.35131684 0.054027032 0.20225516 -0.12544228 0.06259826
-0.0051009343 0.47760996 -0.08313752 -0.38968337 0.12556142 0.06630566 -0.26458952 -0.3602101
0.3055288 0.34809783 0.044249732 0.23204124 -0.18083309 -0.27079105 0.11688607 0.42439595
0.05345895 0.27078044 0.32534543 0.32245976 -0.21409243 0.20350198 0.27738127 0.096173406
-0.11612862 -0.37678146 -0.10272944 -0.29090723 -0.16453743 -0.041488122 0.41229963 -0.06372338
0.08889544 -0.24941468 -0.11670871 -0.26489955 0.44290015 0.22371751 0.33848172 0.2150349
-0.44377774 -0.2430273 0.3288795 0.20437519 0.34061345 -0.49396855 -0.19022049 0.3564946
0.28023174 -0.03982036 0.21081403 0.10613855 -0.010561217 0.4502121 -0.22709648 0.2581898
0.23450449 0.15791214 0.26993802 0.3229183
00000000: 859d dcbd afa6 a1be 75f5 bbbb 9917 663e
00000010: f588 bf3d 7d59 823d e813 31be 1056 4a3d
00000020: ebac fabd ef4c d0be 9cf6 293c c090 0c3e
00000030: bf69 f3bd b7f1 f83d 137f 0e3e f5b3 9fbe
00000040: 95c6 5f3e c7ac a53e b3b0 7abe c0a4 c23d
00000050: 2ded 23bd 12fb 1abe b31e 0f3e 379b 8cbe
00000060: 8316 cf3d df10 3b3e 9c34 9bbe d0e2 0dbe
00000070: c8ad 963e 62a3 403e 322e f0bd fcac fc3d
00000080: 232f b53e f816 c63c a3e6 c6be cddf b33e
00000090: 734b 5d3d fa1b 4f3e f173 00be 8433 803d
000000a0: bd25 a7bb 4b89 f43e 0144 aabd 9484 c7be
000000b0: 2c93 003e 43cb 873d 4778 87be 756d b8be
000000c0: 456e 9c3e e139 b23e 353f 353d 389c 6d3e
000000d0: 4f2c 39be 20a5 8abe f761 ef3d 6d4a d93e
000000e0: c6f7 5a3d bca3 8a3e ad93 a63e 7219 a53e
000000f0: 0c3b 5bbe d362 503e eb04 8e3e 90f6 c43d
00000100: d8d4 edbd 80e9 c0be d063 d2bd cbf1 94be
00000110: 807c 28be 73ef 29bd f018 d33e 6781 82bd
00000120: d00e b63d 9066 7fbe fa04 efbd eaa0 87be
00000130: cfc3 e23e 3416 653e 7a4d ad3e 1c32 5c3e
00000140: d636 e3be 26dc 78be e562 a83e bb47 513e
00000150: e364 ae3e 72e9 fcbe 29c9 42be 7686 b63e
00000160: 897a 8f3e ac1a 23bd a2df 573e 2b5f d93d
00000170: f408 2dbc 3382 e63e fb8b 68be 7431 843e
00000180: f221 703e b8b3 213e 5135 8a3e 8c55 a53e

fc2.weight f4 [100, 100]
-0.056994777 -0.015790539 0.15701368 0.034389384 -0.054000054 -0.11698072 0.01797255 0.11449305
0.026863806 -0.087465 0.040486466 -0.06653371 -0.079478875 0.2613206 0.045003098 -0.00983922
0.03031066 0.15456603 -0.15244566 0.153698 -0.01695188 0.055551644 -0.056781754 0.06779526
-0.19622403 -0.067911476 -0.23361562 -0.21641979 -0.1353868 0.22350834 -0.17851953 0.10349647
0.12512545 -0.079293475 0.04325671 0.09500059 -0.11289303 0.21225442 -0.09955978 -0.1403018
0.029676015 -0.028879367 0.04584932 -0.02473233 -0.01846875 0.11805895 -0.16194928 0.0038771026
0.0018955242 -0.107401356 -0.07302132 -0.14623208 0.162926 0.023245586 -0.08055651 0.05241542
0.21910995 0.27699482 -0.07571165 0.08459166 0.15756334 0.07941923 0.084725976 0.12363462
-0.018545523 -0.20497835 0.19189964 0.072779216 0.016407024 0.014794296 0.06404664 -0.1617215
0.060330965 0.00013538194 -0.06584585 -0.32679632 -0.1977811 0.32491043 0.015218735 0.10335991
-0.021190843 -0.0102787735 0.03853196 0.035980437 -0.06524112 -0.21283568 0.06384699 0.026961396
-0.19672152 0.010023562 0.024637006 -0.02664087 -0.033969585 -0.035644185 0.020728214 -0.017767306
0.30113137 -0.12601283 0.24187754 0.02475021 -0.16253923 -0.15240668 0.07516041 -0.04330533
-0.1711655 -0.15779191 0.11182368 0.10914684 0.047390174 0.09075612 0.17228241 -0.0656522
-0.10998846 0.040918626 -0.0033493382 0.022337388 -0.13950998 0.28178188 -0.26897836 -0.03819704
0.13226509 -0.058068704 0.14573315 -0.13612956 -0.34166682 0.12877473 -0.18644856 0.02037183
-0.17538375 0.20968364 -0.24220616 -0.057260722 -0.033642173 0.06833672 -0.13056554 -0.21220358
-0.05800144 0.30703083 -0.055321846 0.015561705 0.06670914 -0.23861924 -0.084752604 0.3100905
-0.13762186 -0.23184423 0.07538241 0.0008735676 0.15002981 -0.19263224 -0.08460351 -0.17027979
0.0810869 -0.008711906 -0.046047647 0.034495804 0.10505624 -0.032916803 -0.0010936022 0.15846121
0.09335387 -0.05654566 -0.12802261 0.17665473 -0.06960064 -0.14190142 0.06950525 0.2832377
0.14280695 0.20887928 0.093709245 -0.1888242 0.053773805 0.16409624 -0.16310945 -0.41269597
-0.2967851 0.064286314 0.02650879 0.21128792 0.07902987 -0.025172338 -0.19054805 -0.2297283
0.0035265225 0.0623349 0.21054055 0.064764395 -0.08218407 0.17488058 0.26407948 0.04297347
-0.1418314 0.08326266 0.2063703 -0.07735954 0.22816199 -0.07703836 0.16512628 -0.08008588
0.21785174 0.11132165 0.4921405 0.0543002 0.10021312 -0.018063327 0.14988536 0.013591697
0.18688245 0.1760773 -0.16375418 0.085931614 0.20852017 0.36371908 0.2959043 -0.117334604
0.3286231 0.13680881 0.045969874 -0.060132436 -0.031694718 -0.04187694 -0.02945435 0.07868902
0.16068052 -0.1629641 -0.13006409 -0.0642819 0.00393238 0.1533245 -0.2701275 0.13174221
0.27482146 -0.2943131 0.032847572 0.42657965 -0.34897783 0.009828592 -0.31628904 -0.15161397
-0.31927744 0.10138183 -0.1706206 -0.012017162 0.0566171 0.24917474 -0.087270804 -0.18727368
0.085765176 -0.17029674 -0.14687683 -0.05191708 0.25466835 -0.16393846 0.011199141 0.15227816
00000000: 5b73 69bd 295b 81bc 32c8 203e e2db 0c3d
00000010: 292f 5dbd 9693 efbd 2b3b 933c 557b ea3d
00000020: 7c11 dc3c da20 b3bd 23d5 253d d342 88bd
00000030: d2c5 a2bd d0cb 853e 2b55 383d ae34 21bc
00000040: 104e f83c 8f46 1e3e b71a 1cbe 0263 1d3e
00000050: abde 8abc 1f8a 633d fc93 68bd 3ed8 8a3d
00000060: f4ee 48be 2c15 8bbd ef38 6fbe 269d 5dbe
00000070: d6a2 0abe 5fdf 643e d3cd 36be f5f5 d33d
00000080: e320 003e 9e64 a2bd f32d 313d ab8f c23d
00000090: 7634 e7bd 3959 593e ffe5 cbbd 46ab 0fbe
000000a0: 1d1b f33c 6c94 ecbc 7fcc 3b3d 759b cabc
000000b0: c74b 97bc e4c8 f13d 08d6 25be fd16 7e3b
000000c0: 3d73 f83a 3ef5 dbbd 348c 95bd ddbd 15be
000000d0: 13d6 263e 876d be3c d0fa a4bd 8db1 563d
000000e0: 5c5e 603e 44d2 8d3e b60e 9bbd 643e ad3d
000000f0: 4958 213e 8da6 a23d d084 ad3d 2634 fd3d
00000100: c8ec 97bc d8e5 51be 5781 443e 450d 953d
00000110: 0668 863c c663 723c e32a 833d 529a 25be
00000120: 9a1d 773d 50f5 0d39 30da 86bd d951 a7be
00000130: 2187 4abe a95a a63e 0058 793c 5cae d33d
00000140: 6b98 adbc 4d68 28bc b0d3 1d3d 3960 133d
00000150: 239d 85bd 99f1 59be 36c2 823d 25de dc3c
00000160: 5e71 49be de39 243c 8cd3 c93c f43d dabc
00000170: b123 0bbd a3ff 11bd 37ce a93c be8c 91bc
00000180: e42d 9a3e 8209 01be bfae 773e f4c0 ca3c
00000190: af70 26be 7f10 1cbe b3ed 993d ee60 31bd
000001a0: 0246 2fbe 3494 21be d003 e53d 6188 df3d
000001b0: 331c 423d 58de b93d cd6a 303e a974 86bd
000001c0: a141 e1bd 4a9a 273d 9280 5bbb e6fc b63c
000001d0: b4db 0ebe b745 903e 88b7 89be 8074 1cbd
000001e0: 8070 073e 73d9 6dbd 123b 153e 8c65 0bbe
000001f0: f4ee aebe 86dd 033e 5fec 3ebe d3e2 a63c
00000200: cc97 33be 4fb7 563e e404 78be 388a 6abd
00000210: 60cc 09bd 1ff4 8b3d f9b2 05be e54b 59be
00000220: eb92 6dbd 2533 9d3e 2999 62bd 86f6 7e3c
00000230: cd9e 883d 9a58 74be c692 adbd 2fc4 9e3e
00000240: bfec 0cbe 9368 6dbe 1862 9a3d 2100 653a
00000250: 6aa1 193e 6341 45be 9b44 adbd d35d 2ebe
00000260: e310 a63d 62bc 0ebc 759c 3cbd 794b 0d3d
00000270: ba27 d73d c5d3 06bd 3357 8fba a843 223e
00000280: 5030 bf3d 6c9c 67bd 5c18 03be fae4 343e
00000290: c88a 8ebd 9b4e 11be c558 8e3d 8804 913e
000002a0: fc3b 123e 73e4 553e a2ea bf3d 225b 41be
000002b0: ec41 5c3d d808 283e 2a06 27be e34c d3be
000002c0: 37f4 97be 8ba8 833d f628 d93c dc5b 583e
000002d0: 6ada a13d 3836 cebc 071f 43be e53d 6bbe
000002e0: 3b1d 673b e152 7f3d f197 573e 32a3 843d
000002f0: 1f50 a8bd e513 333e 6d35 873e f304 303d
00000300: 403c 11be 9d85 aa3d bc52 533e ae6e 9ebd
00000310: 4ca3 693e 4ac6 9dbd dd16 293e 1104 a4bd
00000320: 8714 5f3e 9bfc e33d d7f9 fb3e e369 5e3d
00000330: 893c cd3d 8bf9 93bc 8c7b 193e b6af 5e3c
00000340: 1d5e 3f3e 9c4d 343e 2daf 27be eafc af3d
00000350: 5086 553e 6339 ba3e c580 973e 204d f0bd
00000360: 4941 a83e 9c17 0c3e e84a 3c3d 6e4d 76bd
00000370: 52d2 01bd 2787 2bbd 404a f1bc b527 a13d
00000380: 6f89 243e 10e0 26be 852f 05be 3ba6 83bd
00000390: 32db 803b 1901 1d3e 274e 8abe 6ee7 063e
000003a0: 66b5 8c3e 35b0 96be 2d8b 063d a668 da3e
000003b0: 39ad b2be 1a08 213c a3f0 a1be b140 1bbe
000003c0: 5578 a3be 47a1 cf3d 2bb7 2ebe a1e3 44bc
000003d0: 55e7 673d aa27 7f3e 09bb b2bd acc4 3fbe
000003e0: a7a5 af3d 4562 2ebe e166 16be 01a7 54bd
000003f0: e463 823e 7cdf 27be 9a7c 373c ceee 1b3e

fc2.bias f4 [100]
0.027204053 -0.009810967 0.0817139 -0.17306158 0.12521811 -0.110140815 0.3625476 -0.07178867
-0.023963254 -0.22000341 0.028434044 0.22263363 -0.09360918 -0.16665748 -0.0850468 0.06341639
-0.06498201 -0.0027187404 -0.032309406 0.09901617 -0.07730599 0.06797839 -0.19953832 0.0020356574
0.054068938 0.044635233 -0.18799394 -0.014756888 -0.18546984 0.043713227 -0.02951308 0.034627996
0.035029463 0.20947066 -0.014924726 0.09125721 -0.0735834 -0.08124433 -0.1784982 -0.041844945
0.0875595 0.030817317 -0.06711894 -0.00786578 0.15274349 -0.034282155 0.1226754 -0.29543006
0.12351415 -0.03764092 -0.20893018 -0.16030017 0.21326883 -0.25170904 0.008624575 0.20264646
0.05920243 -0.14066738 -0.043000028 -0.10304181 -0.09418635 0.1507438 -0.2823249 -0.031411633
-0.02735994 0.15746367 0.06510063 -0.14834267 0.12423828 -0.053952258 0.17276713 0.1801331
0.04785999 0.17334089 -0.05340094 0.112535305 -0.22996333 -0.15291782 -0.0785031 0.07576227
0.10946549 -0.002399106 0.019000968 0.055240225 0.11237069 0.007645552 0.15237212 -0.013341905
0.26037085 -0.0039649475 0.13500166 -0.06024901 0.015100232 -0.050753027 -0.13229682 0.30422598
-0.044438165 -0.108549304 -0.13911405 -0.08500813
00000000: 09db de3c 2ebe 20bc 9e59 a73d 0e37 31be
00000010: 2d39 003e 8291 e1bd d79f b93e f005 93bd
00000020: 964e c4bc 9348 61be 83ee e83c 12fa 633e
00000030: 2bb6 bfbd 42a8 2abe 042d aebd 74e0 813d
00000040: 4a15 85bd e52c 32bb de56 04bd fdc8 ca3d
00000050: 9a52 9ebd 4138 8b3d c653 4cbe aa68 053b
00000060: 6477 5d3d 6fd3 363d 7c81 40be e0c6 71bc
00000070: ceeb 3dbe a40c 333d 6ac5 f1bc 16d6 0d3d
00000080: 0e7b 0f3d 7a7f 563e d786 74bc 0fe5 ba3d
00000090: e5b2 96bd 6d63 a6bd 3bc8 36be 9b65 2bbd
000000a0: 6552 b33d 9974 fc3c a875 89bd 79df 00bc
000000b0: ca68 1c3e 726b 0cbd 3d3d fb3d 9c42 97be
000000c0: fdf4 fc3d 5e2d 1abd cbf1 55be ba25 24be
000000d0: 2563 5a3e 02e0 80be 174e 0d3c 8e82 4f3e
000000e0: 3f7e 723d 1c0b 10be cc20 30bd 9607 d3bd
000000f0: c6e4 c0bd 955c 1a3e e48c 90be 7ca9 00bd
00000100: f421 e0bc 283e 213e 7b53 853d 24e7 17be
00000110: a470 fe3d 0bfd 5cbd dee9 303e d074 383e
00000120: d608 443d 4680 313e f2ba 5abd e978 e63d
00000130: 827b 6bbe 7d96 1cbe 3cc6 a0bd 4029 9b3d
00000140: 712f e03d 523a 1dbb eba7 9b3c 9343 623d
00000150: 9b22 e63d 8a87 fa3b 7007 1c3e 0198 5abc
00000160: 544f 853e 64ec 81bb e03d 0a3e aac7 76bd
00000170: f766 773c 68e2 4fbd d178 07be 82c3 9b3e
00000180: cb04 36bd 194f debd ea73 0ebe be18 aebd

fc3.weight f4 [3, 100]
0.03675478 0.16950446 0.050283503 -0.17925102 -0.003992342 0.09682184 0.21528776 -0.22644752
-0.026502946 -0.107558854 -0.09438116 0.1005105 -0.13478196 -0.11840638 0.034562327 -0.1916552
-0.20743005 0.09116164 -0.0017614308 0.06880171 0.1430111 0.023448912 -0.10261903 -0.04625708
-0.09370641 -0.18876086 -0.0030030273 0.024394862 -0.06450133 0.10325699 -0.20420955 0.06614424
0.077883825 0.07355522 0.066322416 0.011258481 0.0932441 -0.116652906 -0.1204477 0.054578744
-0.22860722 0.00015713286 -0.036136467 -0.30120802 -0.0910247 -0.060986955 -0.03783926 0.007131587
-0.005393082 0.20385766 -0.108238675 0.11022713 -0.037568 -0.0856291 -0.13497314 0.06824168
0.235706 -0.12612538 0.14291 -0.017762497 0.024070213 0.014162088 -0.23080331 -0.006272014
0.0024085834 0.07047582 0.11580394 -0.012213157 -0.009409644 -0.019717243 0.07175807 -0.086182885
-0.056957528 0.13686462 0.105267204 0.11280066 0.13600415 -0.13814132 -0.17669006 -0.2037287
-0.036024388 0.041222174 -0.030562231 -0.1584191 0.0012883873 -0.2986226 -0.10092614 0.020114638
-0.06470456 -0.10969726 -0.043738797 -0.021536382 -0.04423482 0.09516111 -0.08242688 0.27586898
0.20823516 -0.031347767 0.08114516 0.064984664 -0.14438224 0.050251033 -0.2716082 0.07081809
-0.01196454 -0.10054902 0.13171335 -0.09447902 0.05776816 0.15858561 0.051388744 0.16752963
0.22121692 -0.18744098 -0.02820131 -0.20821631 0.17591785 0.14831692 -0.067511745 0.23585501
-0.059813812 0.18506306 -0.16092783 0.00056486594 -0.00950345 -0.19143148 0.0018488835 0.01920371
-0.18436593 0.023451779 0.22143248 0.18854184 -0.1370281 -0.015329062 0.034534823 -0.038691025
-0.07505235 -0.19223604 -0.17288554 -0.20381142 0.040870667 0.16429058 0.0065366016 -0.011381457
-0.12418432 -0.002061109 -0.09665756 -0.16461769 0.06350552 -0.08797716 -0.18157858 0.16759512
0.08484193 -0.2859835 0.12019939 -0.070567444 -0.03550184 0.12336023 -0.0025505233 0.0068841605
-0.008933199 -0.04838392 -0.04830379 0.009400053 0.013107097 0.18039086 -0.14856692 0.07912541
-0.040283136 -0.023326715 0.22371873 -0.28465325 0.097962104 -0.15321597 -0.0916885 0.17442769
0.1623679 -0.06022516 0.04486357 0.34394622 -0.04919726 -0.08968974 -0.12814093 -0.111257955
0.03810629 0.0057212096 -0.060738206 0.061415225 0.27045214 -0.15126562 -0.0987402 -0.017379845
-0.0073872083 -0.052384477 0.19019237 -0.09813202 0.28323835 -0.074 -0.13913344 0.24223422
0.012441344 -0.20213482 0.07873173 -0.12327614 0.103337295 0.0234765 -0.17875336 -0.120706275
-0.004425158 -0.043887816 0.063696675 0.089603305 -0.034439955 0.03345005 -0.19230977 0.06517918
0.1390236 0.05543017 -0.022339294 -0.14564659 -0.125394 0.30498916 -0.11423801 -0.023397971
-0.19518971 0.064808525 -0.1368904 0.03677506 0.009754371 0.048994284 -0.17743956 -0.040255826
0.08085575 0.13464423 0.03582946 -0.026499933 -0.14714606 -0.23454599 0.07265103 0.045605257
0.09446533 -0.10990865 -0.024105735 0.094765544 0.05519722 0.065991 -0.030590571 0.18097964
0.15549454 0.0637072 -0.09495529 0.10775469 0.28682673 0.008301469 -0.0019256357 0.08151516
00000000: 2e8c 163d 9492 2d3e 13f6 4d3d 948d 37be
00000010: 31d2 82bb 874a c63d 6574 5c3e dce1 67be
00000020: b51c d9bc d147 dcbd e94a c1bd 73d8 cd3d
00000030: 4804 0abe 0b7f f2bd 3a91 0d3d 4341 44be
00000040: 8b68 54be f4b2 ba3d cfdf e6ba e9e7 8c3d
00000050: 8071 123e ef17 c03c ed29 d2bd 1078 3dbd
00000060: 25e9 bfbd 874a 41be 70ce 44bb bcd7 c73c
00000070: 4619 84bd 6778 d33d 4f1c 51be a276 873d
00000080: 8e81 9f3d 1fa4 963d 0cd4 873d 7e75 383c
00000090: c3f6 be3d b8e7 eebd 49ad f6bd f68d 5f3d
000000a0: 0318 6abe 08c4 2439 d503 14bd f037 9abe
000000b0: 286b babd 75cd 79bd 57fd 1abd 16b0 e93b
000000c0: 73b8 b0bb 10c0 503e 3dac ddbd c3be e13d
000000d0: e7e0 19bd 4f5e afbd 6636 0abe 4bc2 8b3d
000000e0: ea5c 713e 0327 01be 0057 123e a882 91bc
000000f0: e52e c53c 1a08 683c b457 6cbe 7885 cdbb
00000100: 53d9 1d3b a055 903d 9e2a ed3d b119 48bc
00000110: e82a 1abc 0e86 a1bc e5f5 923d a780 b0bd
00000120: 4c4c 69bd 3d26 0c3e 5596 d73d 0804 e73d
00000130: ac44 0b3e eb74 0dbe 3dee 34be 429e 50be
00000140: 4f8e 13bd 95d8 283d a55d fabc 9e38 22be
00000150: 1bdf a83a 10e5 98be 5db2 cebd 74c7 a43c
00000160: d383 84bd f5a8 e0bd 7427 33bd 116d b0bc
00000170: 922f 35bd d4e3 c23d 6dcf a8bd b33e 8d3e
00000180: 993b 553e 8466 00bd 6f2f a63d ae16 853d
00000190: f0d8 13be 07d4 4d3d 3b10 8bbe 1309 913d
000001a0: eb06 44bc a5ec cdbd dddf 063e 377e c1bd
000001b0: 4e9e 6c3d 4464 223e 017d 523d e38c 2b3e
000001c0: b086 623e 87f0 3fbe 6f06 e7bc a836 55be
000001d0: cf23 343e 64e0 173e 9943 8abd fa83 713e
000001e0: 54ff 74bd 2c81 3d3e 44ca 24be 8313 143a
000001f0: 5cb4 1bbc 9d06 44be 3c56 f23a 1951 9d3c
00000200: 6cca 3cbe f21d c03c 32bf 623e 1d11 413e
00000210: 1851 0cbe bf26 7bbc 6374 0d3d 7b7a 1ebd
00000220: 0cb5 99bd 86d9 44be e808 31be f1b3 50be
00000230: 0068 273d ca3b 283e fd30 d63b 4a79 3abc
00000240: 5954 febd ac13 07bb 66f4 c5bd 8a91 28be
00000250: 2f0f 823d 5f2d b4bd bcef 39be 0e9e 2b3e
00000260: 9bc1 ad3d 6e6c 92be 192b f63d aa85 90bd
00000270: 616a 11bd 4aa4 fc3d ae26 27bb 8694 e13b
00000280: 8d5c 12bc 382e 46bd 32da 45bd ae02 1a3c
00000290: 26bf 563c 62b8 383e ed21 18be 810c a23d
000002a0: eeff 24bd ab17 bfbc 8616 653e 12be 91be
000002b0: 5ba0 c83d a6e4 1cbe 2ec7 bbbd 2c9d 323e
000002c0: c543 263e a8ae 76bd ddc2 373d b819 b03e
000002d0: 1183 49bd 41af b7bd 6037 03be 36db e3bd
000002e0: 5715 1c3d fc78 bb3b a0c8 78bd 888e 7b3d
000002f0: b478 8a3e 60e5 1abe 4d38 cabd 2d60 8ebc
00000300: 6510 f2bb 1b91 56bd cac1 423e 71f9 c8bd
00000310: 9e04 913e 508d 97bd ff78 0ebe 3f0c 783e
00000320: c7d6 4b3c 6efc 4ebe 1a3e a13d 3378 fcbd
00000330: 81a2 d33d ca51 c03c 1f0b 37be da34 f7bd
00000340: ea00 91bb b6c3 33bd 6773 823d f081 b73d
00000350: e910 0dbd eb02 093d daec 44be a97c 853d
00000360: 345c 0e3e bf0a 633d e500 b7bc 6124 15be
00000370: 4967 00be 8a27 9c3e 9ef5 e9bd 1aad bfbc
00000380: d0df 47be 55ba 843d ff2c 0cbe 72a1 163d
00000390: ccd0 1f3c 3bae 483d b7b2 35be 4be3 24bd
000003a0: b397 a53d 2de0 093e e9c1 123d 6316 d9bc
000003b0: 75ad 16be d32c 70be 10ca 943d 94cc 3a3d
000003c0: 0a77 c13d c917 e1bd 6479 c5bc 7014 c23d
000003d0: 7b16 623d 4a26 873d 1499 fabc ba52 393e
000003e0: f639 1f3e ec78 823d eb77 c2bd 7eae dc3d
000003f0: f4da 923e e202 083c 9d65 fcba 6cf1 a63d

fc3.bias f4 [3]
0.11148803 0.029685033 0.056686528
00000000: d653 e43d 072e f33c 2230 683d

fc1.weight f4 [100, 11]
-0.21771154 0.19831033 0.121874236 -0.33711737 0.0175073 0.04703619 -0.048522487 0.24269994
-0.104139686 -0.051284786 0.01609655 -0.0050848997 -0.23297669 0.2775506 0.20570235 0.031016791
-0.03967045 -0.07813687 -0.09884226 0.11481669 0.26729664 0.09613241 -0.14738385 0.07510783
-0.22733784 -0.2685249 0.062204752 0.081963815 -0.10063662 0.351623 -0.24693443 -0.1512761
0.029836891 -0.004258008 -0.41114014 0.13614371 0.15885466 0.03090884 -0.0042516137 0.20317858
0.03529879 -0.07850421 0.013676255 -0.06659228 -0.36676088 0.18415256 0.030192599 -0.39030796
-0.13581434 0.136256 -0.17157856 0.049611438 0.0139393825 0.003050469 0.07667489 -0.27087882
0.25576425 0.076349586 -0.16534044 -0.04169415 0.10852161 -0.22555062 0.26489812 -0.13121694
-0.25545642 -0.052473042 -0.18332848 0.0030018906 0.07779678 0.20212068 -0.19337885 -0.1439375
0.13016532 -0.08602043 0.19740218 0.18640985 0.09320582 0.15338151 0.20494169 -0.0024390037
-0.13588414 -0.0884226 0.21317875 -0.20117436 -0.22482954 0.2796761 0.0307937 0.2491546
-0.11075164 0.002914302 -0.061668508 0.17289601 0.009495033 -0.3080782 0.20142902 0.29386428
-0.23758589 -0.18679398 0.18780169 -0.19755013 0.25609016 -0.1975643 -0.27350056 -0.118773684
0.10638277 0.26273122 0.10107766 -0.12807627 -0.00531731 0.12487384 0.026093842 -0.22960238
0.0081302235 0.19224998 0.23567641 -0.06025842 -0.048233386 -0.059793502 -0.15077709 0.014236542
-0.05358818 0.02011679 -0.07966864 0.085116595 -0.07842696 0.28769168 0.21332496 0.054720927
-0.31363252 0.24905746 0.29125473 -0.1652641 0.027786199 0.1542261 0.15426134 0.07580417
0.04431944 -0.034687463 0.13451274 -0.16988821 0.23756443 0.120417655 -0.030477397 0.14856021
-0.07125328 0.10466779 0.25632328 0.16486414 0.23986754 0.061499294 -0.16074784 0.2417713
0.16174535 0.110560924 0.14751478 -0.20039727 0.17856675 0.29594895 0.16008443 -0.063900515
-0.12824634 -0.10520363 -0.11949766 -0.15084203 -0.13302512 0.4622095 -0.44758514 0.19598539
-0.2836315 -0.34006447 0.10858354 0.2175522 0.012306146 -0.11737027 -0.13551116 0.06533454
-0.19761398 -0.09900284 0.16976014 -0.20212728 -0.18233985 0.0032828525 -0.19216178 -0.13909644
-0.09477345 0.052934054 0.057155456 0.16444495 0.035143346 -0.14490044 -0.01407513 -0.056472126
0.18398981 0.14988191 -0.3531918 0.13177678 0.2136861 -0.06735638 -0.014682998 -0.33881506
0.11638588 0.2583181 0.089941256 0.015422928 -0.11677299 -0.028262291 0.22903591 0.25745863
0.09433778 0.15995908 -0.36125854 0.0044076564 0.1803505 0.14377373 -0.089692034 0.42926946
-0.431965 0.3487912 0.2750374 0.11739698 -0.19538467 -0.027168166 -0.31463796 0.059210777
-0.1636122 0.14147772 0.09481403 0.16929077 -0.16660161 -0.29241452 -0.13951051 0.08622455
-0.06713101 -0.06315985 0.44121423 0.18252236 -0.22318652 0.1744557 -0.051174864 -0.04088913
-0.13104545 -0.032075226 -0.08679568 0.13635194 -0.18316975 -0.22427987 -0.055520225 0.00010108101
-0.10245098 0.21490741 -0.14739373 -0.073832065 -0.05265459 0.39662477 -0.3920909 0.05855571
00000000: c6ef 5ebe dd11 4b3e 3399 f93d a69a acbe
00000010: 786b 8f3c 05a9 403d 84bf 46bd 5586 783e
00000020: 3047 d5bd ff0f 52bd e9dc 833c 3b9f a6bb
00000030: 7191 6ebe 1d1b 8e3e a3a3 523e ed16 fe3c
00000040: 7b7d 22bd 3906 a0bd d06d cabd 0325 eb3d
00000050: 1bdb 883e 12e1 c43d cbeb 16be 22d2 993d
00000060: 40cb 68be 187c 89be 69ca 7e3d a5dc a73d
00000070: 921a cebd ee07 b43e 61dc 7cbe 1fe8 1abe
00000080: 7f6c f43c c386 8bbb f680 d2be 4269 0b3e
00000090: ccaa 223e 8934 fd3c 1f51 8bbb 0c0e 503e
000000a0: 7795 103d d1c6 a0bd 5f12 603c 8961 88bd
000000b0: 15c8 bbbe 7d92 3c3e 7856 f73c 72d6 c7be
000000c0: ea12 0bbe b186 0b3e 4ab2 2fbe 5d35 4b3d
000000d0: 0262 643c 61ea 473b ba07 9d3d a1b0 8abe
000000e0: 88f3 823e 2c5d 9c3d 014f 29be 7cc7 2abd
000000f0: 9440 de3d bef6 66be baa0 873e bc5d 06be
00000100: 2fcb 82be f9ed 56bd 76ba 3bbe 5ebb 443b
00000110: eb53 9f3d b9f8 4e3e 1b05 46be 5a64 13be
00000120: 0f4a 053e 7b2b b0bd cc23 4a3e 39e2 3e3e
00000130: b1e2 be3d 0b10 1d3e 3cdc 513e b1d7 1fbb
00000140: 3625 0bbe e816 b5bd 884b 5a3e a700 4ebe
00000150: b739 66be b531 8f3e 1243 fc3c 6222 7f3e
00000160: c1d1 e2bd e0fd 3e3b 1e98 7cbd a70b 313e
00000170: 0e91 1b3c 6dbc 9dbe 6943 4e3e 6175 963e
00000180: b749 73be ec46 3fbe 164f 403e 954a 4abe
00000190: 401e 833e 4c4e 4abe 4408 8cbe 9e3f f3bd
000001a0: 36df d93d b584 863e ce01 cf3d 6d26 03be
000001b0: d43c aebb dbbd ff3d c1c2 d53c e31c 6bbe
000001c0: a134 053c 2edd 443e 2855 713e 88d1 76bd
000001d0: 5f90 45bd 08ea 74bd 4f65 1abe 6340 693c
000001e0: 487f 5bbd f7cb a43c 5029 a3bd 9c51 ae3d
000001f0: 509e a0bd 534c 933e dc71 5a3e 0d23 603d
00000200: 7194 a0be eb08 7f3e 571f 953e fe3a 29be
00000210: e29f e33c 72ed 1d3e aff6 1d3e 373f 9b3d
00000220: 4d88 353d 7114 0ebd b5bd 093e 2df7 2dbe
00000230: 1744 733e 889d f63d bcab f9bc 2b20 183e
00000240: 3ded 91bd 115c d63d ce3c 833e 25d2 283e
00000250: d69f 753e afe6 7b3d 159b 24be e592 773e
00000260: 93a0 253e c46d e23d 1d0e 173e f134 4dbe
00000270: 34da 363e 9f86 973e 2ced 233e 46de 82bd
00000280: 0253 03be 0075 d7bd 30bb f4bd 5576 1abe
00000290: bd37 08be b9a6 ec3e e129 e5be 65b0 483e
000002a0: 2638 91be ee1c aebe 0c61 de3d 01c6 5e3e
000002b0: b89f 493c d35f f0bd 70c3 0abe 1ece 853d
000002c0: 525b 4abe 00c2 cabd 9ad5 2d3e 74fa 4ebe
000002d0: 4cb7 3abe 2025 573b 0fc6 44be 4c6f 0ebe
000002e0: 9518 c2bd 61d1 583d d71b 6a3d 4264 283e
000002f0: 78f2 0f3d c860 14be 609b 66bc 514f 67bd
00000300: d367 3c3e a57a 193e 8ed5 b4be 7ef0 063e
00000310: 87d0 5a3e 24f2 89bd f590 70bc 2b79 adbe
00000320: b85b ee3d 4542 843e 1f33 b83d 73b0 7c3c
00000330: ad26 efbd 5286 e7bc 6488 6a3e 9ed1 833e
00000340: 2a34 c13d 50cc 233e e1f6 b8be 1a6e 903b
00000350: cdad 383e 6c39 133e 75b0 b7bd 35c9 db3e
00000360: 842a ddbe c394 b23e b4d1 8c3e d46d f03d
00000370: eb12 48be c68f debc 3a18 a1be 0087 723d
00000380: f589 27be 89df 103e dc2d c23d 8f5a 2d3e
00000390: 9d99 2abe 5bb7 95be d8db 0ebe 7f96 b03d
000003a0: fc7b 89bd f459 81bd d5e6 e13e 24e7 3a3e
000003b0: 028b 64be 84a4 323e bc9c 51bd 5c7b 27bd
000003c0: c730 06be 5061 03bd efc1 b1bd d89f 0b3e
000003d0: da90 3bbe 9fa9 65be 2d69 63bd 74fb d338
000003e0: d2d1 d1bd b010 5c3e 62ee 16be 4435 97bd
000003f0: 57ac 57bd 6712 cb3e 23c0 c8be 1dd8 6f3d

fc1.bias f4 [100]
0.6872204 -0.60135305 0.5342598 -0.36339784 -0.39632496 0.6679201 -0.4993102 -0.56961775
-0.52455676 -0.7417903 0.5878924 0.16181321 0.28540367 -0.6038501 0.52045035 -0.09467524
-0.6226305 -0.621983 -0.65270114 -0.63253343 0.5105321 0.10490871 0.5673087 -0.25486737
0.5524627 0.43854004 -0.2482081 0.17460275 0.46064103 0.64382964 -0.373289 -0.6400049
0.37141103 -0.40512127 -0.78798306 0.5753571 -0.61444193 0.6149189 0.49923283 0.52291095
0.43108144 -0.54136884 0.7288253 -0.14365208 -0.32264894 -0.7421675 -0.60924697 -0.53262013
-0.57023436 0.5686535 0.51449007 -0.61341834 -0.043019097 0.11642074 -0.49532405 -0.5363135
0.15227331 -0.33188674 -0.7339764 -0.374556 0.4455246 0.291243 -0.32127073 -0.32390502
0.27654052 -0.61616933 0.39888117 -0.6735262 0.027248684 0.6708063 0.32089728 0.61709887
-0.31829745 -0.6092999 -0.35052544 -0.5828331 -0.6033889 -0.2437436 0.47732028 -0.4713155
-0.59184945 -0.43999285 -0.51625943 0.38948184 -0.6152729 -0.12245976 -0.6850086 -0.6177949
-0.71966934 0.020210652 0.37740692 0.46799317 0.59626544 -0.5200239 -0.60265094 0.29929432
0.5677549 -0.5638364 -0.5868511 -0.44353372
00000000: aded 2f3f 46f2 19bf 40c5 083f 480f babe
00000010: 1beb cabe d0fc 2a3f 96a5 ffbe 78d2 11bf
00000020: 5a49 06bf f8e5 3dbf 1e80 163f 5db2 253e
00000030: 6e20 923e ec95 1abf 3c3c 053f 18e5 c1bd
00000040: b664 1fbf 473a 1fbf 6c17 27bf b6ed 21bf
00000050: 3bb2 023f 61da d63d 253b 113f fa7d 82be
00000060: 326e 0d3f 5288 e03e 442a 7ebe 10cb 323e
00000070: 24d9 eb3e 05d2 243f bc1f bfbe 5cd7 23bf
00000080: 9629 be3e 0e6c cfbe 42b9 49bf 9a4a 133f
00000090: 114c 1dbf 536b 1d3f 729b ff3e 7edd 053f
000000a0: b5b6 dc3e 2697 0abf 4b94 3a3f 8819 13be
000000b0: 3e32 a5be b0fe 3dbf 9cf7 1bbf cb59 08bf
000000c0: e1fa 11bf 4793 113f 9fb5 033f fc08 1dbf
000000d0: cb34 30bd ff6d ee3d 1d9b fdbe d74b 09bf
000000e0: 89ed 1b3e 0fed a9be e1e5 3bbf cec5 bfbe
000000f0: cd1b e43e cd1d 953e 997d a4be e1d6 a5be
00000100: b896 8d3e 46bd 1dbf 273a cc3e 376c 2cbf
00000110: a238 df3c f6b9 2b3f a64c a43e 31fa 1d3f
00000120: e2f7 a2be 14fb 1bbf 1278 b3be 8d34 15bf
00000130: b277 1abf ec97 79be 5363 f43e 4450 f1be
00000140: 7283 17bf be46 e1be 9429 04bf 2a6a c73e
00000150: 8682 1dbf 2fcc fabd b95c 2fbf ce27 1ebf
00000160: 403c 38bf cf90 a53c 7b3b c13e cd9c ef3e
00000170: daa4 183f 4920 05bf 5547 1abf 1b3d 993e
00000180: 6358 113f 9557 10bf e03b 16bf da16 e3be

fc2.weight f4 [100, 100]
0.216497 -0.20923446 0.19560784 -0.024064515 0.0045589185 0.23785116 -0.10455718 -0.09460855
-0.097448 -0.080622464 0.021046344 -0.02907199 0.002890035 -0.2501768 0.10228826 -0.035476502
-0.04695781 -0.08491843 -0.22269104 -0.27341697 0.15188575 -0.027730834 0.1636544 -0.18539792
0.1966486 0.15548745 -0.24093364 -0.046078224 0.048529234 -0.04933025 -0.14557323 -0.02693616
0.060671262 -0.26426432 -0.044595134 0.25955698 -0.07293993 0.07843004 0.08476279 0.017877588
0.14697905 -0.083139 0.073174655 -0.123292096 -0.0750197 -0.006401439 -0.114643574 -0.2353249
-0.079833634 0.15538147 0.1545269 -0.19360179 8.301715e-05 -0.012898168 -0.022058336 -0.21681742
-0.010668805 -0.10110361 -0.06266853 -0.12560044 0.12226603 0.13391991 -0.08689911 -0.15054874
-0.02925832 -0.07540888 0.015566487 -0.18772313 -0.029273894 0.057763547 0.022737818 0.22798611
-0.002110702 -0.050040405 -0.12272553 -0.20381793 -0.13970378 -0.014917155 0.009081717 -0.006233473
-0.06422597 4.7169284e-05 -0.17676239 0.024696615 -0.052606445 -0.01636387 -0.11797595 -0.08645816
-0.05030728 -0.04785457 -0.019699002 0.049869724 0.081760906 -0.13612425 -0.07011181 0.0040770224
0.18163972 -0.107218556 -0.16601469 -0.21786493 -0.10860693 0.10193487 -0.16446897 0.4019235
-0.23373511 -0.2599269 0.08390497 -0.19822088 -0.013904593 -0.051254734 0.1217375 0.19244714
0.08764997 0.13385186 0.08814494 0.063967854 -0.1842786 0.15802743 0.11777111 0.5155404
-0.006633877 0.014415462 -0.18951128 0.30833742 -0.4122811 -0.2194084 0.35596856 0.19477817
0.3239065 0.21701229 0.23797731 -0.2090534 -0.009302952 0.5480259 -0.17192182 -0.3060564
0.044777017 0.10147392 0.3034708 0.16707456 0.041244403 -0.22791095 0.20973685 0.43663388
0.029478591 0.054396424 0.015858877 0.041813735 0.015669787 -0.085273005 -0.17158169 0.026263492
0.12484555 0.16874993 0.019714458 0.45241377 0.097946875 -0.12113059 -0.17035304 0.20643592
-0.028303195 0.072010055 0.08703879 0.1608265 0.124389976 -0.109306246 0.3450346 0.30589923
0.121815145 0.3650016 0.07343871 -0.14021899 -0.15998667 -0.1553983 0.1433469 0.07185588
0.3679225 -0.036734052 0.09177668 -0.12446528 0.027956225 -0.25738594 -0.0245718 0.049430594
-0.13669237 0.14942102 -0.029140476 -0.07878331 0.09749931 0.19634925 0.29335943 -0.18208021
-0.069847964 0.049037006 -0.16917051 -0.05451883 -0.21426906 -0.00084743346 0.083132215 0.15376437
0.25969484 -0.27864093 0.2595406 -0.06825231 -0.0050348346 0.33689332 -0.14686632 -0.080010414
-0.067364864 -0.101314016 0.014922588 -0.05634672 -0.04399835 -0.27880296 0.057100568 -0.07926566
-0.079065025 -0.16155261 -0.30584523 -0.37513384 0.22642583 -0.061614234 0.20176922 -0.21180005
0.24158372 0.1626525 -0.36558586 0.014260378 0.023996262 -0.09484923 -0.24556318 -0.030082222
0.026489047 -0.29597712 -0.0814895 0.39015484 -0.11022804 0.08894905 0.078051955 0.02405151
0.15013655 -0.05547146 0.06676218 -0.1972092 -0.0065429294 -0.083846435 -0.17900169 -0.23261522
-0.029841445 0.15876524 0.17300685 -0.23693156 -0.034613162 -0.093788154 -0.0855657 -0.35640305
00000000: 64b1 5d3e 8f41 56be 6c4d 483e f222 c5bc
00000010: fb62 953b 418f 733e 1322 d6bd 21c2 c1bd
00000020: d192 c7bd 641d a5bd 6269 ac3c 6228 eebc
00000030: be66 3d3b 2c17 80be 827c d13d cf4f 11bd
00000040: d556 40bd b7e9 adbd 1f09 64be 4ffd 8bbe
00000050: f087 1b3e c62b e3bc 0595 273e f4d8 3dbe
00000060: 405e 493e 1a38 1f3e 4fb7 76be 85bc 3cbd
00000070: 97c6 463d 840e 4abd 2611 15be 39a9 dcbc
00000080: 6e82 783d a74d 87be 63a9 36bd a7e4 843e
00000090: 8861 95bd ee9f a03d 1d98 ad3d 0574 923c
000000a0: ad81 163e c844 aabd 98dc 953d 9180 fcbd
000000b0: eea3 99bd 2ac3 d1bb 40ca eabd 03f9 70be
000000c0: d17f a3bd 521c 1f3e 4d3c 1e3e 8c3f 46be
000000d0: 7e19 ae38 d652 53bc afb3 b4bc 6305 5ebe
000000e0: 36cc 2ebc 690f cfbd 5c58 80bd 679d 00be
000000f0: 9d66 fa3d 4d22 093e 29f8 b1bd 7329 1abe
00000100: 25af efbc f96f 9abd 940a 7f3c 7e3a 40be
00000110: cecf efbc 7899 6c3d a944 ba3c 3175 693e
00000120: b453 0abb 2bf7 4cbd 8657 fbbd a6b5 50be
00000130: 820e 0fbe 1567 74bc 7bcb 143c 2942 ccbb
00000140: e888 83bd a2d7 4538 3301 35be 8e50 ca3c
00000150: db79 57bd 860d 86bc 609d f1bd fa10 b1bd
00000160: 020f 4ebd 2703 44bd cd5f a1bc 3244 4c3d
00000170: 4372 a73d 2864 0bbe c896 8fbd 8b98 853b
00000180: c3ff 393e 6795 dbbd c1ff 29be fc17 5fbe
00000190: 4f6d debd 3bc3 d03d 8e6a 28be ebc8 cd3e
000001a0: 4258 6fbe 2315 85be 5ed6 ab3d 6afa 4abe
000001b0: 17d0 63bc 7cf0 51bd 8351 f93d dd10 453e
000001c0: d481 b33d 7610 093e 5685 b43d 9401 833d
000001d0: 88b3 3cbe f1d1 213e fb31 f13d 75fa 033f
000001e0: fe60 d9bb d42e 6c3c 3f0f 42be 67de 9d3e
000001f0: 8216 d3be 98ac 60be 8341 b63e ee73 473e
00000200: 13d7 a53e 7838 5e3e 53b0 733e 1812 56be
00000210: 696b 18bc 6d4b 0c3f 460c 30be 6db3 9cbe
00000220: 1b68 373d 8fd1 cf3d 8660 9b3e 9815 2b3e
00000230: e4ef 283d 7d61 69be 42c5 563e 7a8e df3e
00000240: 167d f13c c9ce 5e3d 7aea 813c e144 2b3d
00000250: ed5d 803c 9da3 aebd 1cb3 2fbe 8926 d73c
00000260: 06af ff3d c8cc 2c3e 3780 a13c c7a2 e73e
00000270: 5f98 c83d 5113 f8bd 0771 2ebe f063 533e
00000280: 1adc e7bc 027a 933d 6541 b23d b4af 243e
00000290: 2cc0 fe3d f4db dfbd 60a8 b03e d39e 9c3e
000002a0: 387a f93d 7de1 ba3e 0967 963d 9195 0fbe
000002b0: 8cd3 23be bb20 1fbe 88c9 123e 2d29 933d
000002c0: 5760 bc3e 7276 16bd 69f5 bb3d a7e7 febd
000002d0: 7404 e53c 17c8 83be cd4a c9bc bc77 4a3d
000002e0: 16f9 0bbe d301 193e 02b8 eebc 2559 a1bd
000002f0: b8ad c73d c70f 493e 3533 963e 3c73 3abe
00000300: 730c 8fbd 07db 483d 093b 2dbe 234f 5fbd
00000310: 5969 5bbe 4c26 5eba 3941 aa3d 6874 1d3e
00000320: b9f6 843e 06aa 8ebe 81e2 843e dec7 8bbd
00000330: 41fb a4bb 487d ac3e 2064 16be 80dc a3bd
00000340: 97f6 89bd b97d cfbd df7d 743c d1cb 66bd
00000350: 9d37 34bd 43bf 8ebe 49e2 693d 0956 a2bd
00000360: d8ec a1bd 0c6e 25be bf97 9cbe 8b11 c0be
00000370: 2cdc 673e 355f 7cbd 979c 4e3e 1de2 58be
00000380: b961 773e 618e 263e 122e bbbe 5ca4 693c
00000390: cf93 c43c 5040 c2bd ea74 7bbe fe6e f6bc
000003a0: 8fff d83c 508a 97be f8e3 a6bd 60c2 c73e
000003b0: 3dbf e1bd eb2a b63d b4d9 9f3d ac07 c53c
000003c0: 65bd 193e 0b36 63bd 9cba 883d 35f1 49be
000003d0: 1266 d6bb aeb7 abbd 384c 37be af32 6ebe
000003e0: 0c76 f4bc 5b93 223e b528 313e 309e 72be
000003f0: 88c6 0dbd 0114 c0bd 123d afbd 767a b6be

fc2.bias f4 [100]
0.19658947 0.10839008 0.21506453 0.2311639 0.23002096 0.21336657 0.26192752 -0.19761829
0.23301439 -0.23181951 0.20985352 0.2344594 0.1823935 -0.18208803 0.20932235 -0.2267418
0.20304376 -0.21355766 -0.19318727 0.23702487 0.16371733 -0.23677586 0.23998326 -0.21955499
-0.22934033 -0.18996225 0.20594552 0.24071911 0.23680651 -0.25044653 0.19743323 -0.22985834
0.19802517 0.20826915 -0.21610144 0.08893364 -0.25371686 0.18929252 -0.19722766 0.19743814
-0.078651294 -0.18553245 -0.24626668 -0.14731757 0.15611498 0.23526879 0.17070697 -0.2318724
0.2617016 0.21310459 0.2084675 -0.23419549 -0.2249164 -0.21309458 0.21564473 0.13489754
0.25701395 -0.25269762 0.24167092 -0.18568064 0.11038808 -0.20294209 0.22290264 0.20211957
0.24625187 -0.2524804 -0.18405081 0.22092071 -0.21270624 -0.23301613 0.22335039 -0.23372552
0.16840497 -0.14505544 -0.21247232 0.22496745 -0.2542483 -0.18903616 0.15919277 -0.16201642
-0.18455362 -0.19156836 -0.2017877 -0.1886231 -0.23296106 0.19589604 -0.21558549 -0.20700517
0.23217514 -0.07190802 -0.21917552 -0.1686881 -0.20727357 0.14527333 -0.038484808 0.2038064
-0.21603589 -0.19758755 0.26292694 -0.20416468
00000000: c04e 493e 9efb dd3d e039 5c3e 3bb6 6c3e
00000010: 9d8a 6b3e c47c 5a3e 5d1b 863e 735c 4abe
00000020: 539b 6e3e 1862 6dbe d7e3 563e 2016 703e
00000030: 5dc5 3a3e 4975 3abe 9958 563e 012f 68be
00000040: b4ea 4f3e dcae 5abe e2d2 45be a6b6 723e
00000050: 84a5 273e 5f75 72be 2cbe 753e 06d3 60be
00000060: 31d8 6abe 7785 42be 62e3 523e 127f 763e
00000070: 687d 723e 873a 80be f02b 4a3e fc5f 6bbe
00000080: 1cc7 4a3e 8244 553e b249 5dbe d722 b63d
00000090: 2de7 81be e6d5 413e 0cf6 49be 392d 4a3e
000000a0: ee13 a1bd 38fc 3dbe 552d 7cbe 6bda 16be
000000b0: 9bdc 1f3e 4dea 703e cfcd 2e3e f56f 6dbe
000000c0: c1fd 853e 1738 5a3e 8178 553e f1d0 6fbe
000000d0: 7c50 66be 7735 5abe f9d1 5c3e 9522 0a3e
000000e0: 5597 833e 9561 81be 9578 773e 1123 3ebe
000000f0: 2513 e23d 0dd0 4fbe 9740 643e 6ff8 4e3e
00000100: 7329 7c3e 1c45 81be d177 3cbe 0a39 623e
00000110: aacf 59be c89b 6ebe f7b5 643e be55 6fbe
00000120: 5a72 2c3e 6a89 14be 5892 59be de5d 663e
00000130: d52c 82be b292 41be 6e03 233e a2e7 25be
00000140: a0fb 3cbe 7f2a 44be 6fa1 4ebe 6a26 41be
00000150: 588d 6ebe f998 483e 71c2 5cbe 2af9 53be
00000160: 52bf 6d3e 8344 93bd 8c6f 60be 93bc 2cbe
00000170: 863f 54be 88c2 143e 3fa2 1dbd a0b2 503e
00000180: 8338 5dbe 6454 4abe 5c9e 863e 8c10 51be

fc3.weight f4 [1, 100]
0.7581986 0.7383058 0.8070927 0.83047706 0.81937385 0.7577506 0.8058155 -0.76191825
0.7677273 -0.75813454 0.75070626 0.7799131 0.7385578 -0.745259 0.76963156 -0.81574625
0.7852067 -0.75297576 -0.75894886 0.7550405 0.8032837 -0.7619774 0.759614 -0.78630394
-0.7489903 -0.7367511 0.7477603 0.76949257 0.7741891 -0.81409705 0.7589249 -0.75424653
0.7610609 0.7743942 -0.78540194 0.7735198 -0.81589824 0.7641001 -0.7967803 0.7614654
-0.8164091 -0.7607264 -0.82289624 -0.8025735 0.79969597 0.7711553 0.7549609 -0.75440973
0.8085112 0.8049294 0.76622856 -0.76515436 -0.7698295 -0.8203577 0.8046684 0.9752936
0.81364834 -0.7867111 0.8051863 -0.7816623 0.9189629 -0.76528406 0.7943941 0.7580637
0.7648684 -0.80073595 -0.7573178 0.7664959 -0.741985 -0.7474541 0.77030903 -0.7613714
0.7710786 -0.90258914 -0.77338797 0.82842314 -0.8345258 -0.7947088 0.84154695 -0.77037764
-0.7446334 -0.737377 -0.76104593 -0.77050465 -0.7553567 0.75871825 -0.7534805 -0.7589801
0.7965104 -0.78339785 -0.75398076 -0.78812194 -0.8075146 0.75365293 -1.075222 0.7962985
-0.78142065 -0.78075045 0.74812084 -0.8092857
00000000: 4e19 423f 9c01 3d3f a19d 4e3f 259a 543f
00000010: 7cc2 513f f1fb 413f ed49 4e3f 130d 43bf
00000020: c789 443f 1b15 42bf 492e 403f 63a8 473f
00000030: 2012 3d3f 4bc9 3ebf 9306 453f bfd4 50bf
00000040: 4e03 493f 05c3 40bf 794a 42bf 564a 413f
00000050: 00a4 4d3f f310 43bf 1076 423f 374b 49bf
00000060: d4bd 3fbf b89b 3cbf 386d 3f3f 77fd 443f
00000070: 4231 463f aa68 50bf e748 423f 4d16 41bf
00000080: e3d4 423f b33e 463f 1a10 49bf 6505 463f
00000090: b5de 50bf 109c 433f cbf9 4bbf 65ef 423f
000000a0: 3000 51bf f7be 42bf 54a9 52bf 7575 4dbf
000000b0: e0b8 4c3f 6f6a 453f 1e45 413f ff20 41bf
000000c0: 97fa 4e3f da0f 4e3f 8e27 443f 28e1 43bf
000000d0: 8c13 45bf f602 52bf c0fe 4d3f d7ac 793f
000000e0: 424b 503f e665 49bf b020 4e3f 051b 48bf
000000f0: 2741 6b3f a8e9 43bf 695d 4b3f 7610 423f
00000100: 6ace 433f 08fd 4cbf 94df 41bf 1339 443f
00000110: bbf2 3dbf 2759 3fbf f932 453f 3ce9 42bf
00000120: 6865 453f 1510 67bf c1fc 45bf 8a13 543f
00000130: 7ca3 55bf 0972 4bbf 9f6f 573f 7837 45bf
00000140: 4ba0 3ebf bdc4 3cbf e8d3 42bf cb3f 45bf
00000150: 0f5f 41bf 5c3b 423f 19e4 40bf 854c 42bf
00000160: 1be8 4b3f c38c 48bf e204 41bf 5cc2 49bf
00000170: 47b9 4ebf 66ef 403f e0a0 89bf 38da 4b3f
00000180: 2f0b 48bf 43df 47bf d984 3f3f 592d 4fbf

fc1.weight f4 [100, 14]
0.16948293 0.20775926 0.18355232 0.24786077 0.13634855 0.15898374 -0.11452739 -0.23427407
0.012376991 -0.053116553 0.092220165 0.21376285 -0.14846972 0.2132796 -0.16766594 -0.0547721
0.019185005 0.123413235 0.12136376 -0.25949863 0.15838794 0.27337724 -0.1839169 -0.12805124
-0.2242807 0.005809191 -0.21930645 -0.11840711 0.011101978 -0.010604495 -0.23541717 -0.015160959
-0.25253832 0.073504694 0.11695759 0.2235301 0.2630028 -0.005071966 0.112198055 0.2590531
-0.13219759 0.100754514 -0.024472306 -0.24161437 -0.22148733 0.1706295 -0.039931107 0.0765413
0.17482062 0.22771199 -0.20629695 0.12780647 0.19258812 -0.26027715 -0.16677815 0.19407152
-0.27733207 -0.10714548 0.044789974 -0.07817037 0.052508574 -0.15351167 -0.20470789 0.07242115
0.22666898 -0.12111162 0.17011447 -0.21150157 -0.30509278 -0.07717221 0.060867492 0.18675028
0.028614959 0.19331838 0.17435165 -0.2564773 0.099982224 0.26740012 -0.021235501 -0.139553
-0.06783786 0.20069297 -0.21550485 -0.055833206 0.059501123 0.21653911 0.14061508 0.2703785
-0.110059306 -0.25577345 0.22406143 -0.02410773 0.113211125 0.09679154 0.14952387 -0.106239505
0.00048571336 -0.2330464 -0.032224223 0.11133552 0.10235449 0.17472063 -0.26675946 -0.2055485
-0.1843577 -0.12256294 0.24077104 0.16587254 -0.040398527 0.037576865 -0.05652126 -0.06999755
0.23560767 -0.17921703 -0.027548127 0.00031426028 -0.15962821 0.06589485 -0.024827905 0.08849387
-0.1596432 0.18200278 -0.0006026579 0.15281406 0.3006265 0.26813528 0.28153285 -0.031517606
0.16503672 -0.12499474 0.23881374 0.2306463 -0.15489332 0.17801294 0.0013474216 -0.17769854
-0.13997799 0.18094955 -0.01666367 0.17180713 -0.081477724 0.27233306 -0.027800748 0.13540754
-0.2047798 0.22745492 0.31083444 -0.21036975 0.23338471 0.09766205 0.16602555 -0.063637465
0.16791488 -0.021641385 0.016886517 -0.19587076 -0.22194128 -0.00094408373 -0.10033246 0.18614717
-0.25849965 -0.13096684 -0.08542031 0.14188528 0.18346249 -0.11024351 -0.17794845 0.006102053
-0.093665734 0.30093962 -0.06443732 0.22823259 -0.026930988 0.30123177 0.24861747 0.12515944
-0.115534104 -0.09367175 -0.2339091 -0.21649419 0.21248582 -0.1853387 -0.23794892 -0.20293702
-0.07070338 0.15012561 -0.056416355 -0.16277811 -0.30646548 0.10763224 -0.12710118 0.18541698
0.1480304 -0.21362315 -0.16072935 -0.019453553 -0.06808639 0.26795477 -0.28025442 0.06435442
-0.17904744 -0.14368449 -0.14736493 0.06688838 -0.0014305175 -0.035924185 0.1611958 0.2736487
-0.17898265 0.2203874 -0.17491956 0.11335882 0.05338598 0.043027963 -0.050452475 -0.10694196
0.044760346 -0.2708117 -0.07081113 0.11791667 -0.006823832 -0.09307264 0.17807238 0.03904189
-0.006566857 0.024282565 0.05775456 -0.15023302 -0.031116167 0.03454902 -0.20643139 -0.16639905
-0.12695843 0.20131928 0.055290774 0.17875786 -0.05305931 0.005582223 0.023037964 0.28042933
-0.30941448 0.16028547 -0.18231273 -0.10150975 0.075870514 0.00940316 0.26436582 -0.0541165
-0.0089086965 -0.25213283 -0.22699918 0.10314442 0.24616493 -0.1465033 -0.23817165 -0.057797793
00000000: ef8c 2d3e d8be 543e 24f5 3b3e 37cf 7d3e
00000010: f49e 0b3e a2cc 223e 568d eabd 8be5 6fbe
00000020: ddc8 4a3c be90 59bd eddd bc3d a6e4 5a3e
00000030: 7208 18be f865 5a3e 9fb0 2bbe b658 60bd
00000040: df29 9d3c 14c0 fc3d 908d f83d 01dd 84be
00000050: 7330 223e 1af8 8b3e b654 3cbe dd1f 03be
00000060: d7a9 65be 075b be3b df91 60be 6d7f f2bd
00000070: 12e5 353c 7abe 2dbc 3311 71be ac65 78bc
00000080: b44c 81be a189 963d 7687 ef3d 13e5 643e
00000090: 4ea8 863e bc32 a6bb 18c8 e53d 9ca2 843e
000000a0: ce5e 07be 6258 ce3d 257a c8bc c269 77be
000000b0: 93cd 62be 80b9 2e3e cd8e 23bd afc1 9c3d
000000c0: 2d04 333e 552d 693e 823f 53be b3df 023e
000000d0: d235 453e 0c43 85be e4c7 2abe afba 463e
000000e0: 78fe 8dbe 176f dbbd b175 373d c917 a0bd
000000f0: 3b13 573d 2a32 1dbe f29e 51be 8a51 943d
00000100: ea1b 683e 5e09 f8bd 7d32 2e3e de93 58be
00000110: 1f35 9cbe 770c 9ebd 3150 793d 773b 3f3e
00000120: eb69 ea3c 41f5 453e 3d89 323e fe50 83be
00000130: 7bc3 cc3d abe8 883e 13f6 adbc fbe6 0ebe
00000140: 93ee 8abd 7582 4d3e 4ead 5cbe 5cb1 64bd
00000150: 73b7 733d 6ebc 5d3e 66fd 0f3e 0d6f 8a3e
00000160: c666 e1bd bdf4 82be 5c70 653e 937d c5bc
00000170: 3cdb e73d a53a c63d c91c 193e 1994 d9bd
00000180: 58a7 fe39 b7a3 6ebe 8cfd 03bd e103 e43d
00000190: 3b9f d13d f7e9 323e b294 88be 4e7b 52be
000001a0: 44c8 3cbe 4702 fbbd af8c 763e 7eda 293e
000001b0: ed78 25bd 33ea 193d d682 67bd e05a 8fbd
000001c0: 2343 713e ab84 37be 9cac e1bc 4dc3 a439
000001d0: 9475 23be e1f3 863d e463 cbbc 463c b53d
000001e0: 8279 23be f05e 3a3e b0fb 1dba 4a7b 1c3e
000001f0: b7eb 993e 0749 893e 1325 903e 9b18 01bd
00000200: 63ff 283e 3efd ffbd 978b 743e 8b2e 6c3e
00000210: 5b9c 1ebe 0649 363e f79b b03a 9bf6 35be
00000220: 6456 0fbe d74a 393e 4082 88bc 35ee 2f3e
00000230: cbdd a6bd 3d6f 8b3e 65be e3bc 46a8 0a3e
00000240: ccb1 51be f1e9 683e b125 9f3e 2b6b 57be
00000250: 67fc 6e3e 0a03 c83d 9a02 2a3e 5c54 82bd
00000260: e1f1 2b3e 4649 b1bc 9855 8a3c 5892 48be
00000270: 9344 63be 637c 77ba 1b7b cdbd 5d9d 3e3e
00000280: 115a 84be 2c1c 06be d8f0 aebd 604a 113e
00000290: 97dd 3b3e 59c7 e1bd 1e38 36be bbf3 c73b
000002a0: d2d3 bfbd c214 9a3e b7f7 83bd ceb5 693e
000002b0: 609e dcbc 0d3b 9a3e 9495 7e3e cc29 003e
000002c0: 259d ecbd f9d6 bfbd de85 6fbe a7b0 5dbe
000002d0: e295 593e 6ec9 3dbe e2a8 73be b9ce 4fbe
000002e0: efcc 90bd 87ba 193e d614 67bd 4eaf 26be
000002f0: 0be9 9cbe 4b6e dc3d d026 02be f3dd 3d3e
00000300: 4895 173e 07c0 5abe 3c96 24be 0f5d 9fbc
00000310: e170 8bbd 5e31 893e 827d 8fbe 40cc 833d
00000320: 3658 37be 0722 13be d5e6 16be c6fc 883d
00000330: 3480 bbba 3d25 13bd 8310 253e af1b 8c3e
00000340: 3a47 37be 3cad 613e 1d1e 33be ab28 e83d
00000350: 42ab 5a3d 173e 303d 41a7 4ebd 6304 dbbd
00000360: a056 373d d5a7 8abe 6d05 91bd 4c7e f13d
00000370: 749a dfbb de9c bebd 9b58 363e 64ea 1f3d
00000380: ca2e d7bb 3bec c63c 0c90 6c3d afd6 19be
00000390: 55e7 febc 4683 0d3d c062 53be 8364 2abe
000003a0: 6401 02be a426 4e3e 9478 623d 4d0c 373e
000003b0: b854 59bd 15eb b63b 1dba bc3c 6f94 8f3e
000003c0: 936b 9ebe e021 243e 30b0 3abe 58e4 cfbd
000003d0: 0062 9b3d b60f 1a3c f55a 873e 43a9 5dbd
000003e0: c8f5 11bc 8e17 81be 7972 68be 623d d33d
000003f0: a912 7c3e f604 16be 45e3 73be 61bd 6cbd
