mujoco/gail/save_model/ckpt_664.pth.tar (torch, 144879 bytes, 16 tensors)

fc1.weight f4 [100, 11]
-0.0048237056 -0.26506037 0.23284513 -0.076378554 0.035930246 0.08596646 -0.15464975 0.25378585
0.28629744 0.25211427 0.12375806 0.4560308 -0.121528305 0.0011267373 -0.2673316 0.22188161
0.05216099 0.037846263 0.09400503 0.20928341 0.13010539 0.43047282 0.40257186 -0.111796625
-0.16060928 0.16921858 0.13912207 -0.3081943 0.04800718 0.31877425 0.16666771 0.014550332
0.1517481 0.25450632 -0.1819504 -0.083242476 0.18115392 0.0804282 0.22542532 -0.3945505
-0.104712084 -0.3255079 0.25978273 -0.348289 0.09674162 0.29553524 0.2886935 -0.38260996
-0.03555599 0.22433382 -0.24827729 -0.009684515 0.21516274 0.04880128 0.08933438 0.38513017
-0.06278724 -0.15655331 0.15494412 0.39085826 0.060084812 0.12856291 -0.19435924 0.07715745
-0.11158513 0.061092928 0.4007978 -0.31859362 0.3985548 -0.1775408 -0.09804627 -0.2278848
0.32576212 -0.04388657 0.061933722 -0.12993705 -0.09233384 -0.021623202 0.3744753 -0.50683796
-0.22023326 0.23917836 0.16762637 0.18531014 0.019599495 -0.31236967 0.19416147 0.24166237
-0.18177167 0.22233953 -0.2883161 -0.36868212 0.2539752 0.27668214 0.088442564 -0.11595702
0.3045856 -0.24475607 0.10393568 -0.0688249 0.14003593 -0.074093856 -0.034205537 0.3506151
-0.11771295 0.12876311 0.30067512 0.16404642 0.18913865 -0.079479136 -0.3479561 -0.10903331
0.044854246 -0.44896027 -0.12375756 0.3399806 -0.1290971 0.21856306 0.01600248 0.22817704
-0.11035306 -0.26257357 -0.076392464 0.1847343 -0.04979535 0.18296422 0.40489605 -0.041593228
-0.05095371 -0.012291611 -0.18401253 0.21624012 0.0073008686 0.19128895 0.10645642 0.24318582
0.069165796 -0.21403252 0.01597449 -0.08799814 0.3844616 -0.0013395848 0.13243069 0.041558217
0.11330354 -0.10634854 0.26543188 -0.13618125 -0.14612508 0.024065033 0.19643967 0.44484687
-0.3196025 0.08449362 -0.3398797 -0.1267637 0.25452802 0.27085695 0.02740035 -0.02315039
0.3159745 0.4406758 0.1200986 0.25490493 0.10667757 -0.10965927 -0.10580625 0.36767542
0.24995638 0.309105 0.014493267 -0.17186366 -0.063333474 0.35562187 0.05700842 0.020316679
0.29329306 -0.42988762 0.048916403 0.24582161 0.14192793 0.26812273 -0.20142609 0.35892454
0.43689564 0.19059244 0.26133934 0.03328336 -0.28861183 -0.048474476 -0.11319998 -0.07353532
-0.3887684 0.15529865 0.054575756 -0.19444983 -0.117315024 -0.21760792 0.28283277 0.3456312
0.18491964 -0.27417287 -0.07780825 0.3173109 -0.016022045 -0.027127106 -0.29697725 -0.2521358
0.13601235 -0.130336 0.3936195 -0.46491706 0.03374017 0.28409007 -0.2146849 -0.26090428
-0.38000455 -0.301951 -0.0447537 -0.26196235 -0.27331147 -0.30962062 -0.04682401 0.30241853
-0.1567002 -0.0278498 -0.15010338 -0.052806552 -0.009395673 -0.14783347 -0.2630804 0.33149078
0.05516566 0.24048676 0.28416863 0.4377325 -0.31474108 -0.030221006 0.053214308 -0.073745534
0.30429578 -0.09318819 0.052135263 -0.24234188 0.049721178 0.18075944 0.30881447 0.40970734
-0.23339444 -0.07419148 -0.2450514 0.11135392 -0.22946331 0.069157735 0.13886178 -0.23835173
00000000: 2d10 9ebb feb5 87be f46e 6e3e 5c6c 9cbd
00000010: 982b 133d 2f0f b03d 815c 1ebe 38f0 813e
00000020: 9495 923e 1f15 813e de74 fd3d de7c e93e
00000030: d5e3 f8bd 08af 933a b0df 88be ef34 633e
00000040: c3a6 553d af04 1b3d b685 c03d 644e 563e
00000050: 593a 053e ef66 dc3e e61d ce3e a1f5 e4bd
00000060: c276 24be a347 2d3e 0476 0e3e a5cb 9dbe
00000070: 2da3 443d 6136 a33e f1aa 2a3e 8464 6e3c
00000080: db63 1b3e a74e 823e 3551 3abe 087b aabd
00000090: 6a80 393e 8ab7 a43d e5d5 663e 8602 cabe
000000a0: 4a73 d6bd f9a8 a6be 3e02 853e f052 b2be
000000b0: 7820 c63d 6550 973e a2cf 933e 74e5 c3be
000000c0: 28a3 11bd c4b7 653e 673c 7ebe cdab 1ebc
000000d0: 9f53 5c3e dae3 473d f2f4 b63d c82f c53e
000000e0: 9996 80bd 834f 20be aca9 1e3e 931e c83e
000000f0: 7e1b 763d ffa5 033e 1c06 47be ba04 9e3d
00000100: bf86 e4bd 943c 7a3d 5f35 cd3e b41e a3be
00000110: 600f cc3e 41cd 35be 7ccc c8bd a25a 69be
00000120: 4bca a63e 67c2 33bd 37ae 7d3d 380e 05be
00000130: 8619 bdbd 2423 b1bc 3abb bf3e 22c0 01bf
00000140: d484 61be 2ceb 743e 3fa6 2b3e f1c1 3d3e
00000150: 1f8f a03c ebee 9fbe 44d2 463e 5776 773e
00000160: 5a22 3abe f9ac 633e 2b9e 93be e7c3 bcbe
00000170: 0a09 823e 48a9 8d3e 6021 b53d e07a edbd
00000180: a5f2 9b3e 56a1 7abe 3bdc d43d 12f4 8cbd
00000190: 9465 0f3e 85be 97bd 1b1b 0cbd d383 b33e
000001a0: 7d13 f1bd 7ada 033e 17f2 993e c9fb 273e
000001b0: 90ad 413e f5c5 a2bd 4d27 b2be db4c dfbd
000001c0: 16b9 373d 1fde e5be 9b74 fdbd f011 ae3e
000001d0: 0832 04be ffce 5f3e a217 833c 3ea7 693e
000001e0: c900 e2bd 0b70 86be a773 9cbd fd2a 3d3e
000001f0: 35f6 4bbd f95a 3b3e 894e cf3e a95d 2abd
00000200: d6b4 50bd c162 49bc c86d 3cbe 0d6e 5d3e
00000210: 203c ef3b 40e1 433e d305 da3d b405 793e
00000220: cca6 8d3d 572b 5bbe efdc 823c 5e38 b4bd
00000230: 27d8 c43e 0295 afba e99b 073e f338 2a3d
00000240: b00b e83d 43cd d9bd b0e6 873e 1973 0bbe
00000250: d0a1 15be 0824 c53c 7b27 493e f8c2 e33e
00000260: f0a2 a3be fe0a ad3d b604 aebe 58ce 01be
00000270: 7f51 823e c3ad 8a3e b376 e03c e3a5 bdbc
00000280: 69c7 a13e 42a0 e13e 41f6 f53d e682 823e
00000290: c579 da3d 0a95 e0bd f2b0 d8bd f43f bc3e
000002a0: 91f4 7f3e 0343 9e3e 2b75 6d3c 07fd 2fbe
000002b0: fbb4 81bd 1214 b63e a981 693d 2a6f a63c
000002c0: 822a 963e 3b1a dcbe 915c 483d a9b8 7b3e
000002d0: 8e55 113e 6247 893e a442 4ebe f5c4 b73e
000002e0: c9b0 df3e aa2a 433e 45ce 853e 2254 083d
000002f0: eec4 93be 2c8d 46bd 64d5 e7bd b099 96bd
00000300: a70c c7be 9c06 1f3e d48a 5f3d db1d 47be
00000310: dc42 f0bd 9cd4 5ebe 75cf 903e 93f6 b03e
00000320: 935b 3d3e 6360 8cbe ef59 9fbd 9376 a23e
00000330: aa40 83bc aa39 debc 670d 98be f217 81be
00000340: d246 0b3e cd76 05be 7f88 c93e 9c09 eebe
00000350: 2233 0a3d 4174 913e 5cd6 5bbe 3f95 85be
00000360: f58f c2be 5299 9abe a84f 37bd ee1f 86be
00000370: 7bef 8bbe 9886 9ebe 88ca 3fbd 9ad6 9a3e
00000380: 0476 20be 4425 e4bc b3b4 19be af4b 58bd
00000390: 4ff0 19bc a861 17be 79b2 86be 29b9 a93e
000003a0: 63f5 613d 2942 763e 8d7e 913e 791e e03e
000003b0: be25 a1be 0b92 f7bc 3ff7 593d e607 97bd
000003c0: a8cc 9b3e 73d9 bebd c98b 553d 7828 78be
000003d0: 6fa8 4b3d 0119 393e ee1c 9e3e 29c5 d13e
000003e0: f4fe 6ebe b4f1 97bd c1ee 7abe 860d e43d
000003f0: 6ef8 6abe 92a2 8d3d c831 0e3e 7a12 74be

fc1.bias f4 [100]
-0.20978409 -0.23703162 -0.017623851 0.17479482 0.009563298 -0.20251861 -0.13862525 -0.067044914
-0.16637431 -0.37004268 0.08444359 0.23379903 -0.19528581 0.19295476 0.16211084 -0.2452406
0.28490293 0.28686115 -0.15944292 0.06538487 0.05644208 -0.21268539 0.17698638 -0.25796518
0.112425864 0.10252869 -0.26376212 -0.33723062 0.20267835 0.22684029 -0.16450965 0.0959847
0.20998015 0.17318915 -0.3742894 0.10174574 0.20799293 -0.046791323 -0.22758123 0.16820441
0.23226325 0.23941417 0.011576615 -0.35869268 0.04509367 0.0803683 -0.3222297 -0.301184
0.19276057 0.40746418 0.07035247 0.25449076 -0.25890487 -0.13053016 0.018266246 0.25125456
-0.025530938 0.3051699 0.28574562 0.32043707 -0.19272289 0.30886337 0.36239153 0.08652728
-0.14562775 -0.35246858 0.0010327017 -0.07725406 0.0056596524 0.017457023 0.32492486 0.009125916
0.27007735 0.16895786 -0.1898403 -0.29949653 0.10486191 0.17548665 0.27985764 0.36504164
-0.29285523 -0.25996006 0.15107156 0.23639248 0.24029881 -0.38421857 -0.21548246 0.31357569
0.21849422 -0.17228939 0.27542156 0.31467876 -0.055839363 0.3418986 -0.28699762 0.20618594
0.29822809 -0.16249111 0.22763942 0.2998372
00000000: a4d1 56be 6bb8 72be e55f 90bc 6afd 323e
00000010: 61af 1c3c 0a61 4fbe c7f3 0dbe d84e 89bd
00000020: 075e 2abe 3c76 bdbe c3f0 ac3d 0369 6f3e
00000030: 01f9 47be ef95 453e 6200 263e 5a20 7bbe
00000040: ccde 913e 77df 923e 0145 23be 81e8 853d
00000050: cf2f 673d 33ca 59be eb3b 353e 0314 84be
00000060: 883f e63d 90fa d13d d40b 87be 7ea9 acbe
00000070: ea8a 4f3e d248 683e 3875 28be a093 c43d
00000080: 0905 573e 7f58 313e dca2 bfbe 1260 d03d
00000090: 19fc 543e 42a8 3fbd 0e0b 69be c73d 2c3e
000000a0: 6bd6 6d3e fd28 753e d8ab 3d3c 91a6 b7be
000000b0: 24b4 383d 2398 a43d 4bfb a4be ca34 9abe
000000c0: 0763 453e 259f d03e f514 903d 9d4c 823e
000000d0: 2e8f 84be b3a9 05be 18a3 953c 70a4 803e
000000e0: 4226 d1bc 3b3f 9c3e 404d 923e 5410 a43e
000000f0: 2659 45be 5723 9e3e 628b b93e 3735 b13d
00000100: 711f 15be c376 b4be b85b 873a 6037 9ebd
00000110: 9b74 b93b 0802 8f3c 8d5c a63e de84 153c
00000120: 9447 8a3e 4a03 2d3e 7f65 42be 9c57 99be
00000130: d7c1 d63d c6b2 333e 8049 8f3e bde6 ba3e
00000140: 1ff1 95be 7c19 85be 81b2 1a3e df10 723e
00000150: e410 763e 4cb8 c4be 6fa7 5cbe fe8c a03e
00000160: f3bc 5f3e a16c 30be 0e04 8d3e 931d a13e
00000170: d1b7 64bd 550d af3e 5af1 92be 6822 533e
00000180: 5ab1 983e 1264 26be 4f1a 693e 4384 993e

fc2.weight f4 [100, 100]
-0.0045979177 -0.027558383 0.02987351 0.0364398 -0.013431954 -0.043743186 -0.020980556 -0.114135176
-0.031859037 -0.14863001 0.0535506 -0.03521684 0.13116437 0.24542679 0.15031284 0.15929617
-0.02937409 -0.0037694678 -0.16849042 0.085319236 0.089503966 0.08710165 -0.0025072896 -0.08535883
-0.053094093 -0.014346708 -0.083007336 -0.1431725 -0.20554453 -0.07246525 0.01247007 0.008719711
0.19418342 -0.056177046 0.18448403 0.13145784 -0.1552893 0.13127753 -0.057522014 -0.006285964
0.06360726 -0.021277528 0.09245553 0.086462185 -0.004394193 0.1307042 -0.13728426 -0.076616414
-0.007904199 0.024219071 -0.0153883025 -0.055434756 0.054348595 4.836926e-05 -0.12969264 -0.004368931
0.044528544 0.22915548 0.11139498 0.07158962 -0.015295358 0.0404959 0.084200904 -0.07830159
0.13846242 0.02652861 0.10869802 0.015965683 -0.14009847 -0.22042437 -0.04283852 -0.0488408
0.085118264 0.06675894 0.28947237 -0.26835388 -0.098856166 0.27461207 0.025010902 -0.14695837
-0.008130503 -0.018156728 0.08216182 0.15197103 -0.08806171 -0.07416424 0.16953696 0.030681387
-0.17060076 0.09627397 -0.046008397 -0.0030310592 -0.10978604 -0.05714147 -0.13037416 -0.02714687
0.15784335 -0.09691839 0.080984965 0.13233249 -0.14321867 -0.084903665 0.11510964 0.12780738
-0.09979238 -0.01677486 0.0244839 0.18012086 0.030473758 0.10850112 0.12376482 -0.15810865
-0.05241919 0.08299529 0.059413865 0.006849525 0.1166794 0.11370063 -0.085432105 0.07930085
-0.057758726 0.05791699 0.11365982 0.006451757 -0.11627195 0.022502787 -0.065093644 -0.05576663
-0.04740424 0.18491173 -0.1928328 -0.07616225 0.006803375 -0.009456664 -0.030873455 0.05312852
0.008672458 0.17617555 0.007545097 -0.063999705 -0.016111532 -0.13415925 -0.10873243 0.095048904
-0.054020636 -0.13524157 0.050477333 -0.018298654 0.053740196 0.016478017 0.038417652 -0.08475267
0.0633412 -0.02155473 0.051907856 0.13502544 0.063975066 -0.01995441 -0.02155836 -0.013587646
0.036947355 0.01931294 -0.030807931 0.10392477 -0.15048747 -0.088191114 -0.0052270633 0.07658285
0.08334766 0.20538591 0.11125574 -0.13415365 0.030564688 -0.06352956 -0.051854104 -0.1954169
-0.062764056 -0.01028348 -0.0012187926 0.18431345 -0.09598875 -0.08138045 -0.09753722 -0.10837956
0.052727267 0.049583178 0.095716566 -0.043623183 -0.101799235 0.08810635 0.12717037 0.048966028
-0.04357264 0.10690696 -0.0050020637 0.08850172 -0.011576574 -0.035843734 0.044058915 0.023130868
0.02621082 -0.09189339 0.070348494 -0.031111876 -0.024622995 -0.07194996 -0.07042691 -0.15010466
0.09674291 0.014859644 -0.059620854 0.24686757 -0.004492478 0.27024537 0.1766549 -0.11313295
0.10389569 0.010043873 0.022823762 -0.047714267 0.20527685 -0.2815739 0.04157365 -0.14409068
-0.06230114 0.07761941 -0.016682358 0.05679607 -0.112124 0.18195769 -0.06275872 -0.044231072
0.21474147 -0.08012848 -0.00934284 0.16000229 -0.058953445 0.06678342 -0.18280494 -0.039989486
0.19749811 -0.079873346 -0.034598023 0.16861215 0.08734173 -0.012345766 0.038782742 -0.10095018
-0.1146416 -0.053413104 -0.016348662 -0.003756116 0.03280297 -0.0955571 -0.07662066 -0.029110096
00000000: 21aa 96bb 1ec2 e1bc 4bb9 f43c e641 153d
00000010: b311 5cbc 0e2c 33bd 6adf abbc b4bf e9bd
00000020: 9f7e 02bd 7732 18be e057 5b3d 893f 10bd
00000030: f44f 063e 2951 7b3e 9ceb 193e 891e 233e
00000040: eea1 f0bc 2d09 77bb c188 2cbe dabb ae3d
00000050: db4d b73d 5a62 b23d 5751 24bb 9cd0 aebd
00000060: 3179 59bd 740e 6bbc c0ff a9bd d09b 12be
00000070: 447a 52be a968 94bd 444f 4c3c 1edd 0e3c
00000080: 05d8 463e e719 66bd 62e9 3c3e e29c 063e
00000090: 2904 1fbe 9e6d 063e 349c 6bbd 7dfa cdbb
000000a0: 8644 823d 364e aebc 5359 bd3d 1613 b13d
000000b0: 2afd 8fbb 52d7 053e 3f94 0cbe 11e9 9cbd
000000c0: 9d80 01bc 1367 c63c 381f 7cbc 8e0f 63bd
000000d0: a29c 5e3d 19e0 4a38 26ce 04be 4029 8fbb
000000e0: 9063 363d bca7 6a3e 0d23 e43d 949d 923d
000000f0: 6299 7abc 07df 253d 8671 ac3d 965c a0bd
00000100: 18c9 0d3e 8752 d93c 119d de3d 77ca 823c
00000110: f975 0fbe edb6 61be 7277 2fbd 4a0d 48bd
00000120: 7c52 ae3d e9b8 883d b935 943e ae65 89be
00000130: 1a75 cabd f499 8c3e aae3 cc3c 417c 16be
00000140: cd35 05bc 6bbd 94bc 7544 a83d 4b9e 1b3e
00000150: b359 b4bd 6ce3 97bd 199b 2d3e 8857 fb3c
00000160: f7b1 2ebe 4a2b c53d 4d73 3cbd bca4 46bb
00000170: 81d7 e0bd 2d0d 6abd ce80 05be 1d63 debc
00000180: b0a1 213e 267d c6bd 72db a53d 2b82 073e
00000190: eaa7 12be f9e1 adbd 9abe eb3d f0df 023e
000001a0: f35f ccbd 6e6b 89bc 7692 c83c 9a71 383e
000001b0: 1aa4 f93c d635 de3d 6978 fd3d 3ce7 21be
000001c0: 81b5 56bd 6ff9 a93d f45b 733d fb71 e03b
000001d0: 9cf5 ee3d e0db e83d 07f7 aebd 7c68 a23d
000001e0: 6a94 6cbd 5e3a 6d3d 7bc6 e83d 4369 d33b
000001f0: fd1f eebd c457 b83c d14f 85bd 8d6b 64bd
00000200: f32a 42bd 8059 3d3e f675 45be f4fa 9bbd
00000210: d9ee de3b 20f0 1abc 54ea fcbc 4a9d 593d
00000220: ed16 0e3c 5d67 343e dc3c f73b 4712 83bd
00000230: 55fc 83bc 0b61 09be 1caf debd 00a9 c23d
00000240: be44 5dbd c47c 0abe 52c1 4e3d 0fe7 95bc
00000250: ae1e 5c3d e8fc 863c d45b 1d3d cf92 adbd
00000260: 08b9 813d 8c93 b0bc 559d 543d 1c44 0a3e
00000270: 5c05 833d 6e77 a3bc 289b b0bc b89e 5ebc
00000280: 1c56 173d 2c36 9e3c ea60 fcbc 83d6 d43d
00000290: 6319 1abe 8b9d b4bd c947 abbb 78d7 9c3d
000002a0: 2eb2 aa3d af50 523e 0dda e33d 935f 09be
000002b0: cc62 fa3c c91b 82bd f864 54bd 5e1b 48be
000002c0: 718a 80bd 0b7c 28bc e5bf 9fba aabc 3c3e
000002d0: c095 c4bd cbaa a6bd 98c1 c7bd 1af6 ddbd
000002e0: 8cf8 573d bb17 4b3d 0c07 c43d 39ae 32bd
000002f0: 1e7c d0bd 1a71 b43d f338 023e 9a90 483d
00000300: 3979 32bd 09f2 da3d 5ae8 a3bb 6440 b53d
00000310: acab 3dbc e1d0 12bd 1f77 343d f27c bd3c
00000320: 13b8 d63c 9a32 bcbd df12 903d 55de febc
00000330: 2ab6 c9bc 805a 93bd fc3b 90bd 09b5 19be
00000340: 2621 c63d dd75 733c ff34 74bd daca 7c3e
00000350: a335 93bb 9a5d 8a3e 06e5 343e 40b2 e7bd
00000360: 43c7 d43d 0f8f 243c e6f8 ba3c 0970 43bd
00000370: 1834 523e 742a 90be 2249 2a3d 828c 13be
00000380: 7b2f 7fbd edf6 9e3d 71a9 88bc ffa2 683d
00000390: 45a1 e5bd 1e53 3a3e a587 80bd a42b 35bd
000003a0: 30e5 5b3e 671a a4bd b612 19bc a4d7 233e
000003b0: 2b79 71bd bfc5 883d 3831 3bbe 04cc 23bd
000003c0: f23c 4a3e a394 a3bd a8b6 0dbd aaa8 2c3e
000003d0: 39e0 b23d e545 4abc a7da 1e3d f8be cebd
000003e0: 37c9 eabd b3c7 5abd a1ed 85bc 2b29 76bb
000003f0: 685c 063d 71b3 c3bd 4beb 9cbd 4c78 eebc

fc2.bias f4 [100]
-0.06734703 0.08753098 -0.0019600845 -0.0925519 0.0008443996 -0.0730888 0.048718322 -0.062154777
0.023168515 -0.33265692 0.06885993 0.17083609 -0.025219895 -0.14684626 -0.021723136 -0.008987703
-0.19676602 0.25934938 -0.037956573 0.13921101 0.02133141 0.06931215 -0.14837953 -0.00089151773
-0.05811592 0.14780167 -0.050896853 0.04819049 -0.16547084 -0.037992503 0.04713595 0.0026787175
0.008911392 0.13486353 -0.0071569444 0.16920064 0.04346573 -0.07454855 -0.14355539 0.004058441
-0.077247776 0.019815238 0.010182067 -0.012527355 0.09689509 0.03505993 -0.12701374 -0.08836579
-0.097159944 0.07037618 0.11541138 -0.093984485 0.16508056 -0.22231649 0.12620479 0.0774327
-0.12554674 0.08219092 -0.02699228 -0.016576212 -0.08113876 0.055155493 0.030482706 0.0946357
-0.10257653 0.07858915 0.07157858 -0.074483566 -0.014520208 -0.020545945 0.16671765 0.062024474
0.035279125 0.13714886 -0.008796264 0.08911066 -0.10025494 0.00051459187 -0.07014339 -0.087467454
0.04370356 -0.24469596 -0.053566575 -0.053032015 0.09003049 0.12524357 -0.033293787 -0.080753334
0.2031021 -0.0037078026 -0.07446807 -0.021655004 0.10268072 0.06163997 -0.13965179 0.10928721
0.316968 0.10544565 -0.061242897 -0.049517587
00000000: 3ded 89bd 7143 b33d c374 00bb da8b bdbd
00000010: b35a 5d3a 95af 95bd dd8c 473d 0296 7ebd
00000020: e6cb bd3c 0252 aabe 6f06 8d3d a8ef 2e3e
00000030: f499 cebc de5e 16be b8f4 b1bc 2941 13bc
00000040: 087d 49be 71c9 843e 5a78 1bbd 558d 0e3e
00000050: 36bf ae3c 87f3 8d3d cef0 17be beb4 69ba
00000060: f50a 6ebd 5259 173e 3879 50bd 6463 453d
00000070: 3071 29be 079e 1bbd a011 413d 6c8d 2f3b
00000080: 1601 123c aa19 0a3e cd84 eabb ef42 2d3e
00000090: 1f09 323d e9ac 98bd 2f00 13be acfc 843b
000000a0: 1534 9ebd 9153 a23c afd2 263c 893f 4dbc
000000b0: ef70 c63d 009b 0f3d e40f 02be 20f9 b4bd
000000c0: cbfb c6bd 6321 903d cd5c ec3d f07a c0bd
000000d0: e10a 293e efa6 63be d43b 013e 0995 9e3d
000000e0: 538f 00be b753 a83d ea1e ddbc d6ca 87bc
000000f0: 142c a6bd baea 613d deb6 f93c 5dd0 c13d
00000100: a513 d2bd 59f3 a03d ca97 923d d78a 98bd
00000110: 2be6 6dbc f84f a8bc 08b8 2a3e 600d 7e3d
00000120: d880 103d c070 0c3e 351e 10bc a67f b63d
00000130: 7652 cdbd ade5 063a 56a7 8fbd 2322 b3bd
00000140: 8102 333d 9491 7abe a068 5bbd 1938 59bd
00000150: e861 b83d da3f 003e 115f 08bd 0162 a5bd
00000160: fff9 4f3e 9bfe 72bb b782 98bd d665 b1bc
00000170: 454a d23d 317a 7c3d e100 0fbe f9d1 df3d
00000180: a149 a23e e4f3 d73d d5d9 7abd f4d2 4abd

fc3.weight f4 [3, 100]
0.030696794 0.09392617 0.00028207514 -0.15605254 0.12677799 0.04781521 0.1321387 -0.066383414
-0.0147917 -0.10033791 0.04348713 0.07981367 -0.025655419 -0.02372049 0.009441817 -0.073846444
0.0016731174 0.13356866 -0.009113576 -0.028614866 0.10075421 0.04710673 -0.03637413 0.10300649
-0.028184453 -0.003627281 -0.05751819 -0.051888805 0.0035979385 -0.008421634 -0.07748083 -0.12702505
0.16321154 0.029649815 -0.11739076 0.081696965 0.048125856 -0.11551087 -0.03270425 -0.033250786
-0.08629042 0.0597932 0.012601782 -0.06680464 0.08784373 0.088457815 -0.1909552 -0.05975208
-0.07392265 0.027918154 -0.044224612 0.08826209 0.0257678 -0.04672595 0.08549437 0.09129907
0.26270196 0.07841098 0.048960377 0.022103246 -0.0063952003 0.08480752 -0.105716825 -0.009756809
-0.04963177 0.04152307 0.045712467 0.021689475 0.06300099 -0.051341955 -0.040044732 0.04441498
-0.107801676 0.11959405 0.12610407 0.12558852 0.08957794 -0.03241429 0.011080163 -0.04894224
0.056126613 0.024105165 -0.030049851 0.12861353 -0.009027402 -0.02975348 -0.092158504 0.09007297
-0.000280103 0.0026816227 0.06949495 0.06769181 0.05030736 0.14703745 -0.012677048 0.04507153
0.07682546 0.045063905 -0.04847642 -0.018224034 0.119528934 -0.032720543 0.23676722 -0.006236723
-0.05169372 -0.035280235 -0.06365341 -0.047572143 -0.0915693 -0.18710981 0.031036291 0.045297865
-0.04301322 -0.118700266 -0.105452366 -0.101820506 0.0104520675 0.097447015 0.037386086 0.14094584
0.076528676 0.013203665 -0.21102726 0.021231592 -0.012626945 -0.094621755 -0.063699745 0.012989154
-0.12178155 0.24713531 0.0698103 0.1433999 0.022900395 -0.052990973 -0.0063570295 0.06252028
-0.09859553 -0.014143342 -0.0076802066 0.022884673 0.034993608 -0.07951027 -0.11554866 0.020056248
0.022383679 -0.007233707 -0.1715098 -0.039651193 0.08257361 0.06467637 -0.09586772 0.011440927
0.15864597 -0.07818525 0.0990124 -0.01534145 0.09261432 -0.077935785 0.026587866 0.09670472
0.14515351 -0.08886011 -0.15509614 -0.070421144 -0.026064983 0.05662833 -0.113763444 -0.016236603
0.042940818 0.012821013 -0.036134604 0.00069641066 0.064327724 0.090869516 -0.14290793 -0.1100934
0.16753823 -0.015002717 0.070321456 0.065249264 -0.0334196 -0.055559527 -0.03763162 -0.17573181
-0.094195545 0.008249673 -0.0471665 -0.13976724 0.20486555 0.026549825 -0.12520173 0.031535305
-0.1187872 -0.046050023 0.11309726 -0.04656507 0.16105255 -0.08049479 0.025072182 0.17130433
-0.12211494 0.012068151 0.05382222 0.008949609 -0.24246733 -0.008802076 -0.2557471 -0.33003676
0.032649446 -0.15435168 0.16127096 -0.023774555 0.0051837293 -0.049717505 0.040704057 0.015751509
0.120817445 -0.02110836 0.0011333948 0.013474771 0.036086652 0.16199629 -0.09963663 -0.15789491
-0.021099081 0.10344607 0.0046887044 0.006387664 -0.056721162 -0.10846127 -0.13923518 -0.22141242
-0.048461065 0.22426975 -0.114235476 -0.0838373 -0.11252689 -0.08110169 -0.081129685 -0.02831519
-0.056910865 0.110945895 0.02627227 0.008136637 -0.0045403186 0.041628532 0.010477983 0.10554241
-0.023341278 0.014459248 0.13702463 0.0944833 0.10205006 0.05658763 0.061042484 0.011563128
00000000: d877 fb3c 5d5c c03d 7ce3 9339 3dcc 1fbe
00000010: 17d2 013e e2d9 433d 5e4f 073e 07f4 87bd
00000020: e358 72bc f67d cdbd 901f 323d 5975 a33d
00000030: 502b d2bc 7951 c2bc dab1 1a3c ce3c 97bd
00000040: 814c db3a 39c6 083e 1c51 15bc b969 eabc
00000050: 3958 ce3d fdf2 403d 0afd 14bd 11f5 d23d
00000060: 15e3 e6bc adb7 6dbb 3298 6bbd 5b89 54bd
00000070: 64cb 6b3b e5fa 09bc 45ae 9ebd db12 02be
00000080: ed20 273e 2be4 f23c 916a f0bd bd50 a73d
00000090: 9e1f 453d f790 ecbd e4f4 05bd fa31 08bd
000000a0: 08b9 b0bd b7e9 743d b477 4e3c dfd0 88bd
000000b0: 6ae7 b33d 5f29 b53d c389 43be 99be 74bd
000000c0: c264 97bd 9db4 e43c de24 35bd c1c2 b43d
000000d0: fe16 d33c b663 3fbd ac17 af3d 02fb ba3d
000000e0: df80 863e f095 a03d ad8a 483d de11 b53c
000000f0: d48e d1bb 91af ad3d 1082 d8bd 06db 1fbc
00000100: af4a 4bbd 1814 2a3d ff3c 3b3d 20ae b13c
00000110: aa06 813d f14b 52bd f205 24bd 7bec 353d
00000120: 20c7 dcbd baed f43d 6d21 013e 479a 003e
00000130: a474 b73d d9c4 04bd 9289 353c a977 48bd
00000140: 05e5 653d 3278 c53c 1b2b f6bc 44b3 033e
00000150: abe7 13bc 92bd f3bc 99bd bcbd 2d78 b83d
00000160: cada 92b9 2abe 2f3b 5e53 8e3d 01a2 8a3d
00000170: 170f 4e3d fc90 163e 65b3 4fbc ed9c 383d
00000180: ab56 9d3d ee94 383d 368f 46bd 924a 95bc
00000190: 96cb f43d fa05 06bd 1b73 723e 6d5d ccbb
000001a0: cbbc 53bd 0282 10bd b85c 82bd 02db 42bd
000001b0: af88 bbbd b799 3fbe d23f fe3c 418a 393d
000001c0: a12e 30bd 2019 f3bd 69f7 d7bd 4587 d0bd
000001d0: 263f 2b3c 4d92 c73d 2722 193d 1b54 103e
000001e0: 11bb 9c3d 2f54 583c 8817 58be e0ed ad3c
000001f0: 3fe1 4ebc 0dc9 c1bd 0375 82bd 76d0 543c
00000200: 9b68 f9bd 0a11 7d3e b4f8 8e3d 6cd7 123e
00000210: 9c99 bb3c 100d 59bd a14e d0bb a20a 803d
00000220: 74ec c9bd 7ab9 67bc 3eaa fbbb a378 bb3c
00000230: 7555 0f3d 48d6 a2bd c7a4 ecbd 004d a43c
00000240: fa5d b73c bb08 edbb 44a0 2fbe 4a69 22bd
00000250: 5a1c a93d 0b75 843d 4c56 c4bd ba72 3b3c
00000260: 1774 223e 971f a0bd 03c7 ca3d b55a 7bbc
00000270: 94ac bd3d cc9c 9fbd ccce d93c 200d c63d
00000280: 1fa3 143e 4afc b5bd 86d1 1ebe f638 90bd
00000290: 3b86 d5bc 1cf3 673d cffc e8bd a002 85bc
000002a0: b6e2 2f3d 3a0f 523c e101 14bd 548f 363a
000002b0: 41be 833d cc19 ba3d 7556 12be a678 e1bd
000002c0: 248f 2b3e f5cd 75bc b204 903d 68a1 853d
000002d0: fee2 08bd 6392 63bd 9d23 1abd 0af3 33be
000002e0: 98e9 c0bd a329 073c a931 41bd 251f 0fbe
000002f0: 46c8 513e 057f d93c e234 00be 2a2b 013d
00000300: b446 f3bd f39e 3cbd 899f e73d 04bb 3ebd
00000310: f6ea 243e 74da a4bd 2d64 cd3c 676a 2f3e
00000320: 6617 fabd 7eb9 453c b074 5c3d 61a1 123c
00000330: 5b49 78be 9536 10bc 49f1 82be 94fa a8be
00000340: 6dbb 053d 5e0e 1ebe 3724 253e dbc2 c2bc
00000350: 46dc a93b 95a4 4bbd 4cb9 263d 4f09 813c
00000360: 236f f73d 70eb acbc 6b8e 943a 49c5 5c3c
00000370: 99cf 133d 5be2 253e 4a0e ccbd 34af 21be
00000380: fbd7 acbc 88db d33d b4a3 993b 9c4f d13b
00000390: 7354 68bd f120 debd ab93 0ebe f0b9 62be
000003a0: 1c7f 46bd f8a6 653e 4af4 e9bd e4b2 abbd
000003b0: 8074 e6bd a518 a6bd 5227 a6bd 42f5 e7bc
000003c0: 5e1b 69bd 9a37 e33d f238 d73c 874f 053c
000003d0: f4c6 94bb ae82 2a3d d9ab 2b3c 9e26 d83d
000003e0: 3536 bfbc 7be6 6c3c 2f50 0c3e 7680 c13d
000003f0: 9fff d03d 6ec8 673d af07 7a3d 4673 3d3c

fc3.bias f4 [3]
0.06740655 0.0066339364 0.013079914
00000000: 720c 8a3d 7e61 d93b 234d 563c

fc1.weight f4 [100, 11]
-0.25516436 0.20431195 0.023964986 -0.29237455 0.080924794 0.08910408 -0.04861311 0.10985107
-0.0013866042 -0.0049529057 0.025872245 0.019994095 -0.21544906 0.222904 0.16926046 -0.058761925
-0.1591154 -0.12634753 -0.056999892 0.014785833 0.19704781 0.19620362 -0.13321266 0.100703806
-0.20657235 -0.25884113 0.11757158 0.20033176 -0.1314149 0.26555094 -0.1546919 -0.16997291
0.036253665 0.1230342 -0.31951496 0.29601133 0.17398255 -0.058758188 -0.09560608 0.21308008
0.06542038 -0.06463899 0.15900674 -0.05502288 -0.47981212 -0.11815707 0.080370545 -0.583997
-0.06092174 0.026200784 0.10652381 0.123798065 -0.04891822 -0.051518977 -0.13122226 -0.25961456
0.1757184 -0.0019741447 -0.25576386 -0.053893164 0.13649094 -0.10765161 0.15434194 0.028605476
-0.11810696 -0.009299108 -0.65711606 0.10803178 0.117838 -0.22093025 -0.028927686 -0.020881988
0.12820806 -0.08961714 0.09957285 0.10830316 -0.299916 0.23178598 0.1037 -0.06918218
-0.23367685 -0.09865429 -0.042317417 -0.09459511 -0.19370383 0.2838746 -0.16578841 0.11210108
-0.2236512 -0.031056628 -0.4294573 0.22847368 0.17254786 -0.08576553 0.07792 0.2972575
-0.2744502 -0.12951645 0.06590495 -0.025784357 0.2973848 -0.2300677 0.050173696 0.2692344
0.19675091 0.08811739 0.28685862 -0.24581598 -0.14424168 0.16084205 -0.09004005 -0.13291353
0.13349737 0.22691685 0.0734109 0.14212173 -0.00017971381 -0.12460154 -0.07584479 0.14150491
0.05522781 0.048644412 -0.022316895 0.26872256 0.24421674 0.23954788 0.13035206 0.058916688
-0.22172268 0.26292032 0.26179668 -0.088361874 0.028952027 0.040932126 0.40779793 0.15703133
-0.006400568 -0.09682127 0.08417856 -0.1670194 0.22271389 0.09281119 0.058721326 0.1652019
-0.09313886 0.097494796 0.2745291 0.034136117 0.17320748 0.072254665 -0.0558939 0.2495709
0.09545155 0.169008 0.22976151 -0.2321093 0.30736864 0.26175958 0.0060623516 -0.09782587
-0.17246036 -0.11656242 -0.054145742 -0.09115969 0.2622283 0.1131483 -0.39374465 0.41703856
-0.18026021 -0.20522726 -0.07236797 0.30899405 0.01946243 -0.06455369 -0.06266272 0.13380952
-0.22660169 -0.16704533 0.26261184 -0.2608875 -0.14801288 -0.15431927 -0.05818337 -0.1075787
-0.08698519 0.17447492 0.018562702 0.25011486 -0.0055975704 -0.13924664 0.12314051 -0.08529882
0.055203132 0.14007045 -0.25155622 0.061700627 0.25703123 -0.13797075 -0.08147934 -0.28683996
0.03208694 0.18140635 0.07757589 -0.019786306 -0.23542212 0.06464796 0.16373643 0.14220992
0.22905889 0.116354175 -0.22998314 0.030700922 0.2594586 0.08973211 -0.05194435 0.19672012
-0.26884553 0.13304016 0.2389473 0.14056662 -0.1919618 -0.08779713 -0.1563709 0.06363159
-0.064352654 0.29995728 0.076958284 0.030761834 -0.036041163 -0.19828698 -0.14247164 0.1845446
-0.09639406 0.119832225 0.5123486 -0.014421082 -0.07847675 0.055865463 -0.09920564 0.08797291
-0.014539268 -0.020340316 -0.13012123 0.120777376 -0.20467517 -0.22337054 0.034838133 0.07053865
-0.11988907 0.14218698 -0.06854266 -0.10288446 -0.091629036 0.27157778 -0.32287627 0.05599099
00000000: e7a4 82be 2737 513e 3852 c43c 1eb2 95be
00000010: e6bb a53d 337c b63d 8a1e 47bd 99f9 e03d
00000020: b7be b5ba fc4b a2bb 08f2 d33c a8ca a33c
00000030: ae9e 5cbe f240 643e 9d52 2d3e 58b0 70bd
00000040: 26ef 22be 3f61 01be b878 69bd 4740 723c
00000050: e7c6 493e 9ae9 483e e668 08be cc3d ce3d
00000060: b487 53be d386 84be 5ec9 f03d c523 4d3e
00000070: a191 06be 4bf6 873e 8e67 1ebe 610d 2ebe
00000080: b97e 143d 5bf9 fb3d 7797 a3be cc8e 973e
00000090: 7b28 323e 6dac 70bd 1fcd c3bd aa31 5a3e
000000a0: 1ffb 853d 7261 84bd aad2 223e ac5f 61bd
000000b0: efa9 f5be 55fc f1bd 5099 a43d d480 15bf
000000c0: 1389 79bd 07a3 d63c 2829 da3d d789 fd3d
000000d0: 795e 48bd 9005 53bd 215f 06be 33ec 84be
000000e0: 86ef 333e a760 01bb 7bf3 82be 14bf 5cbd
000000f0: 48c4 0b3e 7378 dcbd d00b 1e3e 0856 ea3c
00000100: 10e2 f1bd 495b 18bc c238 28bf c43f dd3d
00000110: 0d55 f13d 8a3b 62be c1f9 ecbc b410 abbc
00000120: f948 033e 3189 b7bd daec cb3d 0cce dd3d
00000130: 978e 99be 4e59 6d3e aa60 d43d 63af 8dbd
00000140: fc48 6fbe 430b cabd 0755 2dbd 15bb c1bd
00000150: 4c5a 46be 0358 913e 70c4 29be 4095 e53d
00000160: d204 65be 786a febc d4e1 dbbe 01f5 693e
00000170: 63b0 303e d7a5 afbd 8594 9f3d 2332 983e
00000180: bd84 8cbe f69f 04be 2df9 863d b739 d3bc
00000190: d242 983e de96 6bbe ef82 4d3d 17d9 893e
000001a0: 1279 493e e476 b43d 22df 923e 2fb7 7bbe
000001b0: 17b4 13be c7b3 243e eb66 b8bd 7c1a 08be
000001c0: 89b3 083e e45c 683e 7458 963d 5c88 113e
000001d0: 8f71 3cb9 182f ffbd 8354 9bbd aae6 103e
000001e0: 8e36 623d 5d3f 473d ecd1 b6bc 0196 893e
000001f0: f413 7a3e 0a4c 753e 037b 053e a052 713d
00000200: 450b 63be 7e9d 863e 370a 863e 12f7 b4bd
00000210: cd2c ed3c 72a8 273d e4ca d03e d2cc 203e
00000220: dbbb d1bb 3b4a c6bd cf65 ac3d 2207 2bbe
00000230: 1c0f 643e cb13 be3d c685 703d b02a 293e
00000240: 96bf bebd 5aab c73d 148f 8c3e 50d2 0b3d
00000250: 4d5d 313e 41fa 933d 01f1 64bd 848f 7f3e
00000260: 1a7c c33d 6f10 2d3e 9a46 6b3e 0fae 6dbe
00000270: 6c5f 9d3e 5a05 863e b1a6 c63b ee58 c8bd
00000280: 7399 30be 47b8 eebd edc7 5dbd eeb1 babd
00000290: ca42 863e 4cba e73d e698 c9be 1486 d53e
000002a0: 2296 38be 1827 52be a935 94bd 7834 9e3e
000002b0: ad6f 9f3c ba34 84bd 5055 80bd 5d05 093e
000002c0: 460a 68be ee0d 2bbe 0f75 863e 0c93 85be
000002d0: b090 17be df05 1ebe af51 6ebd 3952 dcbd
000002e0: 4b25 b2bd 8ea9 323e cf10 983c 0e0f 803e
000002f0: d36b b7bb ac96 0ebe 1731 fc3d 26b1 aebd
00000300: ae1c 623d a16e 0f3e facb 80be ccb9 7c3d
00000310: 9999 833e 3448 0dbe a4de a6bd b0dc 92be
00000320: 986d 033d 96c2 393e 1ce0 9e3d e416 a2bc
00000330: 7f12 71be 2666 843d 86aa 273e 7a9f 113e
00000340: 6a8e 6a3e 194b ee3d b380 6bbe 8080 fb3c
00000350: c2d7 843e 78c5 b73d 99c3 54bd 0071 493e
00000360: 1fa6 89be ae3b 083e 9aae 743e b2f0 0f3e
00000370: a291 44be fbce b3bd b11f 20be 4751 823d
00000380: 53cb 83bd 0094 993e 4e9c 9d3d 3e00 fc3c
00000390: e69f 13bd be0b 4bbe 16e4 11be 42f9 3c3e
000003a0: 406a c5bd 996a f53d 4729 033f 6746 6cbc
000003b0: 6bb8 a0bd 2fd3 643d 542c cbbd 242b b43d
000003c0: 1c36 6ebc bca0 a6bc 803e 05be 215a f73d
000003d0: 5e96 51be 3fbb 64be 6eb2 0e3d 9176 903d
000003e0: 6788 f5bd 7799 113e 1860 8cbd 16b5 d2bd
000003f0: 01a8 bbbd 3e0c 8b3e 0a50 a5be cf56 653d

fc1.bias f4 [100]
0.71123016 -0.59154576 0.56129766 -0.46529868 -0.2078227 0.6869415 -0.4926856 -0.359927
-0.59198695 -0.57540005 0.4074824 0.07151542 0.12067812 -0.60386896 0.48944956 -0.22482839
-0.48674542 -0.5506215 -0.67602867 -0.6193073 0.46977475 -0.4456928 0.5560107 -0.49325484
0.6084381 0.32895663 -0.38364965 -0.12993686 0.36273238 0.50749385 -0.49074015 -0.48708996
0.3275336 -0.2953121 -0.5555631 0.55288225 -0.47793138 0.39433178 0.41049284 0.30275825
0.28710696 -0.4075649 0.5330211 -0.40929443 0.04896113 -0.42977038 -0.56252927 -0.5749479
-0.5865854 0.49606293 0.60959095 -0.6117382 0.13582261 -0.033890016 -0.3027691 -0.5320794
0.07288137 0.18483274 -0.5483086 -0.49699724 0.26207265 0.20052767 -0.46789035 -0.33296394
-0.17745337 -0.56125367 0.11324613 -0.6280185 0.29701188 0.5159074 0.21099223 0.64987236
-0.1326044 -0.43844327 -0.34765682 -0.53906167 -0.5996297 -0.30346572 0.18897223 -0.34397474
-0.5808739 -0.42723477 -0.4567996 0.33835348 -0.46513987 -0.2035623 -0.58975476 -0.54207647
-0.4643526 -0.40258223 0.28789416 0.54858446 0.5640534 -0.28896374 -0.4781106 0.42721745
0.6903554 -0.41805997 -0.53979915 -0.47869506
00000000: 2e13 363f 8b6f 17bf 34b1 0f3f a13b eebe
00000010: 79cf 54be 66db 2f3f 4941 fcbe 5a48 b8be
00000020: 758c 17bf 6b4d 13bf 88a1 d03e ad76 923d
00000030: 1726 f73d 2897 1abf 2299 fa3e 6a39 66be
00000040: b236 f9be 88f5 0cbf 3710 2dbf ec8a 1ebf
00000050: 5186 f03e d931 e4be b856 0e3f e68b fcbe
00000060: 99c2 1b3f 016d a83e ba6d c4be 2b0e 05be
00000070: 0fb8 b93e 1eeb 013f 4b42 fbbe db63 f9be
00000080: 7cb2 a73e 2633 97be 6239 0ebf b189 0d3f
00000090: 6cb3 f4be dbe5 c93e 1e2c d23e 2103 9b3e
000000a0: afff 923e 59ac d0be 1274 083f 0a8f d1be
000000b0: 778b 483d dd0a dcbe eb01 10bf c92f 13bf
000000c0: 762a 16bf f6fb fd3e 270e 1c3f e09a 1cbf
000000d0: 1515 0b3e 42d0 0abd 8d04 9bbe 5b36 08bf
000000e0: d442 953d cb44 3d3e f45d 0cbf 6c76 febe
000000f0: 632e 863e 2057 4d3e 538f efbe 407a aabe
00000100: 56b6 35be 52ae 0fbf 96ed e73d d2c5 20bf
00000110: f111 983e 8212 043f 590e 583e 095e 263f
00000120: 73c9 07be a37b e0be 1300 b2be f2ff 09bf
00000130: 5581 19bf dc5f 9bbe f081 413e 751d b0be
00000140: 27b4 14bf 84be dabe a3e1 e9be ab3c ad3e
00000150: d026 eebe a372 50be 2bfa 16bf 86c5 0abf
00000160: a0bf edbe 421f cebe dd66 933e 0870 0c3f
00000170: ce65 103f 0ef3 93be eaca f4be 3fbc da3e
00000180: 22bb 303f f50b d6be 4730 0abf 8517 f5be

fc2.weight f4 [100, 100]
0.09851173 -0.08715285 0.028697316 -0.047763724 -0.03474399 0.059352033 -0.065303765 -0.030538756
-0.1767281 -0.15163869 0.069158025 0.0515817 0.082933865 -0.065070495 0.09296434 -0.008038457
-0.11736383 -0.062007077 -0.09990059 -0.030110799 0.008216688 -0.045940764 0.03494015 -0.039104257
0.08687327 0.06459646 -0.01840222 -0.08251606 0.11777516 0.054643482 -0.050809626 -0.10551749
0.070722744 -0.050230794 -0.09675857 0.020779258 -0.054648772 0.06535921 0.09004666 0.076480225
0.063938804 -0.14929786 0.14819314 -0.014712451 -0.060765967 -0.084419265 -0.0376524 -0.10674258
-0.14755988 0.05693352 0.12051074 -0.09230753 0.05053765 0.10491985 -0.01725874 -0.047149256
0.053974014 0.089492455 -0.1199637 -0.09585649 0.12029351 0.09778572 -0.09903566 -0.06608422
-0.01280321 -0.1726542 0.10836322 -0.08817024 0.09789888 0.107439734 0.10771405 0.06395324
-0.10577915 -0.16208693 -0.13654359 -0.07747629 -0.08941273 -0.15977456 0.040996686 -0.08175372
-0.12721391 -0.11296131 -0.1052727 0.038788874 -0.14082086 -0.0916483 -0.106451534 -0.07781391
-0.048824735 -0.048524138 0.122265995 0.058046732 0.09518199 -0.10895141 -0.13544838 0.09743434
0.0726051 0.011218173 -0.09156699 -0.062120337 0.07574557 -0.06438928 0.028973248 -0.07641607
-0.119055085 0.048381403 -0.07602898 -0.09562652 -0.14859217 -0.18905634 0.07323277 0.083252646
0.101714775 -0.087689176 0.16001326 -0.09825529 -0.15929994 -0.093782514 -0.06285145 -0.028902778
0.06489818 -0.007220131 0.04142775 -0.032271072 0.1123262 0.07747172 -0.0007449152 -0.06676586
0.17930323 0.13891277 -0.033355337 -0.15841472 0.069783606 -0.102343865 -0.18778321 0.02408067
-0.06333671 0.1296 0.14192851 0.10055537 0.08206553 -0.18795687 0.19855829 0.050007783
-0.09422294 -0.12369628 -0.09723877 -0.1302554 -0.13790552 0.10711379 0.1290958 -0.108072974
0.07662492 0.028229866 -0.08105065 -0.04345718 0.05934478 0.05709549 -0.21377608 -0.081922784
0.17702866 0.08824333 -0.026444364 0.014855912 0.008311294 -0.14835885 0.114163786 -0.060025685
0.12058843 0.11357429 -0.0028517593 0.062077317 -0.16738379 -0.20637155 -0.14195515 -0.05646168
-0.05600173 -0.13383883 0.11271416 -0.0946206 -0.14109062 -0.17608686 -0.123151444 0.089148305
-0.15008566 -0.059016094 -0.09041271 -0.0825308 -0.16019906 -0.02423118 0.17586017 0.03728452
0.16247483 -0.10913317 -0.22426198 0.08488895 0.073260896 -0.012867822 -0.10320468 -0.061047927
0.38467282 -0.26136202 0.3273212 -0.27774987 -0.029410152 0.31177592 -0.13014655 -0.08374674
-0.0958482 -0.09166315 0.005364197 -0.06977301 -0.024714122 -0.27491012 0.1000202 -0.16971108
-0.109344855 -0.27904817 -0.2338607 -0.29482967 0.12871964 -0.20866293 0.420666 -0.27222732
0.29497913 0.11167467 -0.20229982 0.04470555 0.07190642 0.1417909 -0.33241686 -0.036068156
0.06657441 0.015526726 -0.075618036 0.3504495 -0.17157589 0.09931437 0.047716722 0.011626591
0.102551244 -0.12157006 0.07112208 -0.27598003 0.107655846 -0.062216412 -0.20028675 -0.21142177
-0.19586918 0.19290781 0.22690168 -0.28737032 -0.004913058 -0.03742504 -0.06135814 -0.33937532
00000000: 85c0 c93d 327d b2bd a216 eb3c e5a3 43bd
00000010: b74f 0ebd 1e1b 733d fbbd 85bd 6a2c fabc
00000020: 36f8 34be 2c47 1bbe b9a2 8d3d 5547 533d
00000030: 3bd9 a93d ae43 85bd 1664 be3d bbb3 03bc
00000040: 735c f0bd 22fb 7dbd ae98 ccbd ecaa f6bc
00000050: 4a9f 063c 622c 3cbd 671d 0f3d c92b 20bd
00000060: 9dea b13d 264b 843d 41c0 96bc 2efe a8bd
00000070: 1a34 f13d d8d1 5f3d c11d 50bd 8e19 d8bd
00000080: 16d7 903d cebe 4dbd 5b29 c6bd 4339 aa3c
00000090: 64d7 5fbd 0ddb 853d 626a b83d aaa1 9c3d
000000a0: 59f2 823d 8ae1 18be f1bf 173e 7e0c 71bc
000000b0: bce5 78bd 02e4 acbd 6739 1abd db9b dabd
000000c0: f019 17be 1f33 693d 56ce f63d bb0b bdbd
000000d0: 9100 4f3d 38e0 d63d 3362 8dbc 941f 41bd
000000e0: db13 5d3d d247 b73d 87af f5bd 6850 c4bd
000000f0: 725c f63d e143 c83d 35d3 cabd 2a57 87bd
00000100: 8ec4 51bc 43cc 30be 89ed dd3d 9992 b4bd
00000110: 357f c83d 5d09 dc3d 2f99 dc3d ebf9 823d
00000120: bda2 d8bd 1efa 25be 15d2 0bbe e4ab 9ebd
00000130: 051e b7bd f19b 23be 24ec 273d 7f6e a7bd
00000140: 5d44 02be 4258 e7bd 3799 d7bd 15e1 1e3d
00000150: 5833 10be 1bb2 bbbd 4303 dabd e65c 9fbd
00000160: 72fc 47bd 3fc1 46bd 9866 fa3d 69c2 6d3d
00000170: c6ee c23d eb21 dfbd fbb2 0abe a88b c73d
00000180: fcb1 943d 6ecc 373c 7987 bbbd e571 7ebd
00000190: 7e20 9b3d 87de 83bd 4e59 ed3c 0780 9cbd
000001a0: 27d3 f3bd 942b 463d 15b5 9bbd d6d7 c3bd
000001b0: 8c28 18be fc97 41be 10fb 953d 5d80 aa3d
000001c0: d64f d03d 6296 b3bd 84da 233e 123a c9bd
000001d0: 861f 23be 0c11 c0bd 43b8 80bd 85c5 ecbc
000001e0: 56e9 843d d996 ecbb 25b0 293d ac2e 04bd
000001f0: 470b e63d 7ea9 9e3d 6a46 43ba 8abc 88bd
00000200: 449b 373e 263f 0e3e 9b9f 08bd 7837 22be
00000210: b5ea 8e3d a999 d1bd 3e4a 40be d344 c53c
00000220: adb6 81bd ddb5 043e b555 113e f9ef cd3d
00000230: f911 a83d c477 40be dd52 4b3e f6d4 4c3d
00000240: f5f7 c0bd 7a54 fdbd 1f25 c7bd ac61 05be
00000250: 1b37 0dbe 7a5e db3d b031 043e 5d55 ddbd
00000260: 87ed 9c3d 5242 e73c e2fd a5bd 2800 32bd
00000270: 8313 733d f6dc 693d 1ee8 5abe 22c7 a7bd
00000280: 0047 353e ebb8 b43d daa1 d8bc 3666 733c
00000290: 182c 083c 62eb 17be b4ce e93d 7edd 75bd
000002a0: 11f7 f63d a399 e83d 95e4 3abb c944 7e3d
000002b0: a866 2bbe 1053 53be b15c 11be 5d44 67bd
000002c0: 1262 65bd 0c0d 09be aed6 e63d 72c8 c1bd
000002d0: 0f7a 10be 1d50 34be d336 fcbd 6393 b63d
000002e0: 0eb0 19be dcba 71bd 4d2a b9bd e805 a9bd
000002f0: 390b 24be 7880 c6bc b014 343e a7b7 183d
00000300: cd5f 263e 3681 dfbd efa4 65be 42da ad3d
00000310: cf09 963d 8fd3 52bc fa5c d3bd 640d 7abd
00000320: d6f3 c43e 3ed1 85be a596 a73e 3b35 8ebe
00000330: 8fed f0bc 18a1 9f3e 2345 05be 6983 abbd
00000340: 104c c4bd e4b9 bbbd 25c6 af3b 27e5 8ebd
00000350: 4575 cabc 05c1 8cbe 64d7 cc3d bec8 2dbe
00000360: 32f0 dfbd 67df 8ebe 2e79 6fbe eaf3 96be
00000370: 15cf 033e bcab 55be 8961 d73e 6161 8bbe
00000380: 8107 973e b0b5 e43d af27 4fbe 2b1d 373d
00000390: ac43 933d a231 113e 8b32 aabe 34bc 13bd
000003a0: 2a58 883d cf63 7e3c a1dd 9abd 1e6e b33e
000003b0: 97b1 2fbe 5565 cb3d 9c72 433d 757d 3e3c
000003c0: 6306 d23d b9f9 f8bd 74a8 913d 414d 8dbe
000003d0: ab7a dc3d a3d6 7ebd f817 4dbe f37e 58be
000003e0: ee91 48be a089 453e ea58 683e 3422 93be
000003f0: b8fd a0bb 004b 19bd ac52 7bbd 9ac2 adbe

fc2.bias f4 [100]
0.23479971 0.1759983 0.24030598 0.27543867 0.263511 0.1842428 0.3182382 -0.16003919
-0.053146575 -0.2715416 0.19409935 0.18790667 0.21434528 -0.07249385 0.19305198 -0.23293594
0.25223532 -0.1644145 -0.08854349 0.22925596 0.1834298 -0.21008332 0.283892 -0.24670453
-0.28394985 -0.27332363 0.015815046 0.22602357 0.13556874 -0.3028281 0.21322621 -0.23608468
0.20474872 0.238831 -0.18070978 0.18512174 -0.2580414 0.24250501 -0.2491759 0.23863564
-0.21414359 -0.14561363 -0.2947242 -0.20969006 0.19042656 0.1713001 0.15565711 -0.20666818
0.3030814 0.23688984 0.23889929 -0.20505121 -0.17022344 -0.26750392 0.26811907 0.30470583
0.29211572 -0.32112476 0.25656852 -0.094875954 0.24250148 -0.20685342 0.21390353 0.24333592
0.24253534 -0.29258105 -0.19588134 0.19562532 -0.26745126 -0.23226811 0.25310832 -0.20051394
0.21641073 -0.22993673 -0.021177802 0.29700094 -0.32934302 -0.19246037 0.17317674 -0.21123612
0.13822423 -0.18739948 -0.1358592 -0.16864568 -0.2520445 0.21144234 -0.17003018 0.094926804
0.24967003 -0.18867935 -0.18284768 -0.18697326 -0.26198012 0.24125786 -0.18958808 0.21827401
-0.24279587 -0.22312897 0.24249783 -0.26008514
00000000: 566f 703e e638 343e c512 763e 4c06 8d3e
00000010: eaea 863e 25aa 3c3e 1ef0 a23e 50e1 23be
00000020: 39b0 59bd 8007 8bbe fbc1 463e 9b6a 403e
00000030: 547d 5b3e a877 94bd 6baf 453e c286 6ebe
00000040: fd24 813e 465c 28be 4a56 b5bd 13c2 6a3e
00000050: 06d5 3b3e 1520 57be 4b5a 913e 1da0 7cbe
00000060: e061 91be 13f1 8bbe 8e8e 813c b972 673e
00000070: 88d2 0a3e 490c 9bbe f957 5a3e 2fc0 71be
00000080: a6a9 513e 1d90 743e fc0b 39be 8e90 3d3e
00000090: 011e 84be 3c53 783e f827 7fbe e75c 743e
000000a0: 7548 5bbe bd1b 15be 17e6 96be feb8 56be
000000b0: 2eff 423e 4b69 2f3e 9464 1f3e d3a0 53be
000000c0: 7c2d 9b3e 4093 723e 04a2 743e f2f8 51be
000000d0: 0e4f 2ebe 46f6 88be e746 893e 6702 9c3e
000000e0: 3190 953e 776a a4be f35c 833e 534e c2bd
000000f0: 4f52 783e 62d1 53be 8709 5b3e 0d2d 793e
00000100: 2f5b 783e 2fcd 95be 1e95 48be 0152 483e
00000110: 5fef 88be b1d7 6dbe 6a97 813e 8753 4dbe
00000120: c69a 5d3e 8974 6bbe 127d adbc 8210 983e
00000130: a69f a8be 5514 45be 3e55 313e 484e 58be
00000140: a78a 0d3e a6e5 3fbe ad1e 0bbe 74b1 2cbe
00000150: fa0b 81be 5784 583e 641c 2ebe fc68 c23d
00000160: 80a9 7f3e 2935 41be 6c3c 3bbe eb75 3fbe
00000170: 4222 86be 4d0c 773e 6123 42be 3983 5f3e
00000180: 7b9f 78be ec7b 64be 5a51 783e e129 85be

fc3.weight f4 [1, 100]
0.7499971 0.7754378 0.77266914 0.7925105 0.7883038 0.75874317 0.7948753 -0.7687851
1.0902307 -0.784541 0.74133354 0.7641757 0.7603687 -0.8972998 0.76861227 -0.7517546
0.7855236 -0.76878226 -0.78423214 0.757545 0.7883424 -0.75496274 0.7837678 -0.7640692
-0.76968753 -0.7684395 0.81677574 0.76517135 0.7775807 -0.8033944 0.74792194 -0.751364
0.75888854 0.7627867 -0.75762165 0.76273996 -0.7772029 0.80581343 -0.79503995 0.77157634
-0.7604743 -0.7575543 -0.7900475 -0.7622735 0.7935914 0.7724066 0.7738504 -0.76341754
0.7793455 0.7819471 0.8030617 -0.75929844 -0.763712 -0.8044684 0.77500445 0.81228745
0.77934366 -0.7881061 0.7764348 -0.745695 0.77251726 -0.7583279 0.78215057 0.75455785
0.75974137 -0.78003097 -0.7602137 0.75961673 -0.75578487 -0.73952484 0.8099461 -0.7517346
0.75736386 -0.76003134 -0.8192033 0.81323415 -0.8156027 -0.7792096 0.7758609 -0.7626164
-0.9116342 -0.73757195 -0.759639 -0.7633119 -0.75302947 0.771492 -0.7565692 -0.82524717
0.77149 -0.7770551 -0.75192374 -0.75065696 -0.81221884 0.7856345 -0.7625928 0.76590425
-0.7711778 -0.851923 0.7393165 -0.79625195
00000000: cfff 3f3f 1783 463f a5cd 453f f8e1 4a3f
00000010: 47ce 493f fe3c 423f f37c 4b3f 1acf 44bf
00000020: ae8c 8b3f aed7 48bf 09c8 3d3f 05a1 433f
00000030: 86a7 423f 71b5 65bf c6c3 443f fd72 40bf
00000040: 1318 493f eace 44bf 70c3 48bf 78ee 413f
00000050: cfd0 493f 3d45 41bf 02a5 483f 0a9a 43bf
00000060: 3e0a 45bf 73b8 44bf 3718 513f 45e2 433f
00000070: 870f 473f 41ab 4dbf d077 3f3f 6459 40bf
00000080: 8546 423f fd45 433f 7ef3 41bf ed42 433f
00000090: c5f6 46bf ca49 4e3f bd87 4bbf 0786 453f
000000a0: 72ae 42bf 14ef 41bf 8e40 4abf 5b24 43bf
000000b0: ce28 4b3f 70bc 453f 0f1b 463f 556f 43bf
000000c0: 3083 473f af2d 483f 7495 4d3f 6261 42bf
000000d0: a182 43bf a4f1 4dbf b166 463f 12f2 4f3f
000000e0: 1183 473f 52c1 49bf 6ec4 463f dee5 3ebf
000000f0: b1c3 453f c721 42bf 053b 483f b42a 413f
00000100: 697e 423f 1cb0 47bf 5d9d 42bf 3e76 423f
00000110: 1e7b 41bf 8051 3dbf a158 4f3f ae71 40bf
00000120: 99e2 413f 6a91 42bf 4fb7 51bf 1d30 503f
00000130: 57cb 50bf 487a 47bf d29e 463f d43a 43bf
00000140: dc60 69bf 84d1 3cbf b477 42bf 6968 43bf
00000150: 8ac6 40bf 8080 453f 85ae 41bf 6643 53bf
00000160: 5e80 453f 15ed 46bf 137e 40bf 0e2b 40bf
00000170: 93ed 4fbf 581f 493f 4839 43bf 4d12 443f
00000180: e96b 45bf a017 5abf d943 3d3f 2bd7 4bbf

fc1.weight f4 [100, 14]
0.17224258 0.20103094 0.19118664 0.24818724 0.14774786 0.16319935 -0.11586148 -0.24064642
0.010473045 -0.043955155 0.08164899 0.19243999 -0.12113759 0.22185326 -0.15361862 -0.07322954
0.0026708986 0.123771355 0.11742364 -0.2694782 0.14118682 0.24380887 -0.127333 -0.12107349
-0.21533708 0.023729093 -0.22544792 -0.13445318 0.022393212 -0.012233588 -0.24732621 -0.01604334
-0.24808145 0.064685 0.11048939 0.22468007 0.25431147 0.002834577 0.09327344 0.2693802
-0.14908025 0.08342959 -0.0046544024 -0.22303592 -0.2420371 0.1472481 -0.07220768 0.09255718
0.17785467 0.23357569 -0.19585076 0.12595749 0.211136 -0.25357747 -0.20638591 0.17128156
-0.24992795 -0.101081796 0.04009278 -0.07760693 0.03704245 -0.15296796 -0.21486591 0.071419664
0.2196239 -0.09672834 0.17304914 -0.19822758 -0.30957207 -0.1012136 0.07277337 0.1730957
0.015828837 0.1900804 0.18457288 -0.24650198 0.10535082 0.27780303 -0.015696883 -0.13068272
-0.05331788 0.21790683 -0.21660385 -0.06300302 0.07340522 0.18195875 0.15800552 0.26083362
-0.07624986 -0.23902534 0.2414585 -0.044484507 0.08764375 0.095025994 0.13630114 -0.13054432
0.032211687 -0.19286829 -0.017104615 0.090716206 0.09248493 0.17949603 -0.2514611 -0.2052443
-0.19038625 -0.110973515 0.24552773 0.15827279 -0.015603188 0.052102096 -0.041017234 -0.059708297
0.21587558 -0.17850456 -0.024383802 0.0032491712 -0.13803169 0.07879236 -0.035092488 0.10926862
-0.16649719 0.16939381 0.0012109323 0.14003336 0.30362964 0.30217746 0.23602553 -0.0077349353
0.19444144 -0.13983169 0.23428078 0.23003745 -0.14135018 0.14717716 -0.028329745 -0.23896596
-0.16836183 0.20668341 -0.06355356 0.15542406 -0.10440568 0.22699717 -0.09990665 0.113620274
-0.22339812 0.23816265 0.29112852 -0.15316467 0.2614136 0.07119644 0.17662254 -0.05845402
0.13835815 -0.034267038 -0.0048236772 -0.15112065 -0.20048559 -0.024626834 -0.13428424 0.20748901
-0.22028919 -0.15549718 -0.06294984 0.13167349 0.19073807 -0.082722954 -0.25997785 -0.02612277
-0.10529633 0.27896634 -0.04868058 0.22069219 -0.032644868 0.27442282 0.2348646 0.112175934
-0.07711057 -0.11857511 -0.2045918 -0.19575188 0.21840881 -0.17856325 -0.23207527 -0.1973597
-0.089531 0.1655304 -0.083925925 -0.17719279 -0.2885119 0.07070929 -0.10652131 0.17020158
0.1617738 -0.19039404 -0.1817881 -0.042268675 -0.05714257 0.2536911 -0.29051226 0.056271747
-0.18483573 -0.14805512 -0.14785424 0.07264363 0.0039085248 -0.048436806 0.18094254 0.29399362
-0.19335318 0.20240173 -0.1699064 0.07421757 -0.0122715365 0.04627177 -0.03395891 -0.16787705
0.007572666 -0.20806654 -0.00014099083 0.083614096 0.019893825 -0.083123945 0.22341374 0.104978584
-0.033582974 0.044617966 0.08163559 -0.1434128 -0.029251628 0.016765358 -0.15930153 -0.20744754
-0.12025981 0.19716544 0.02928055 0.19677308 -0.057715613 -0.019557038 0.040497478 0.25607535
-0.31612644 0.14751194 -0.18645984 -0.09105103 0.07406864 0.018453414 0.27433285 -0.054219227
0.027298221 -0.23096703 -0.24063458 0.10154182 0.26389635 -0.15061022 -0.22928646 -0.06343647
00000000: 5c60 303e 0edb 4d3e 6ec6 433e cc24 7e3e
00000010: 374b 173e bb1d 273e c948 edbd 046c 76be
00000020: 2297 2b3c 520a 34bd 9637 a73d fd0e 453e
00000030: fc16 f8bd 802d 633e 334e 1dbe 5ef9 95bd
00000040: 3e0a 2f3b d67b fd3d ce7b f03d 0cf9 89be
00000050: 4793 103e 08a9 793e 9563 02be 61f5 f7bd
00000060: 5381 5cbe 8463 c23c d2db 66be 18ae 09be
00000070: f871 b73c 636f 48bc 1543 7dbe 536d 83bc
00000080: 1009 7ebe 9279 843d 4348 e23d 8812 663e
00000090: 1d35 823e 50c4 393b 2506 bf3d 34ec 893e
000000a0: 7ea8 18be 22dd aa3d f583 98bb 8763 64be
000000b0: 93d8 77be 35c8 163e 9fe1 93bd 9e8e bd3d
000000c0: 891f 363e 772e 6f3e 1a8d 48be 00fb 003e
000000d0: 0934 583e e8d4 81be d456 53be 6f64 2f3e
000000e0: 1ded 7fbe f903 cfbd 5438 243d 62f0 9ebd
000000f0: d3b9 173d a2a3 1cbe cf05 5cbe 7944 923d
00000100: 16e5 603e 8219 c6bd cb33 313e 2cfc 4abe
00000110: 3b80 9ebe 1349 cfbd 340a 953d 0040 313e
00000120: 7aab 813c 70a4 423e ac00 3d3e 046b 7cbe
00000130: 2cc2 d73d 333c 8e3e c096 80bc b1d1 05be
00000140: d963 5abd f822 5f3e 66cd 5dbe ba07 81bd
00000150: 7a55 963d 6553 3a3e 33cc 213e fc8b 853e
00000160: e328 9cbd 0fc3 74be e640 773e 6335 36bd
00000170: 917e b33d fd9c c23d 8792 0b3e 69ad 05be
00000180: 67f0 033d 447f 45be fa1e 8cbc 6bc9 b93d
00000190: bd68 bd3d cfcd 373e 82bf 80be 902b 52be
000001a0: 9df4 42be 1546 e3bd 9f6b 7b3e 4312 223e
000001b0: 84a4 7fbc 0269 553d b001 28bd b090 74bd
000001c0: 7d0e 5d3e e6c9 36be 8ac0 c7bc 0cf0 543b
000001d0: 2e58 0dbe e45d a13d 24bd 0fbd 3ac8 df3d
000001e0: 3d7e 2abe 9275 2d3e 25b8 9e3a e864 0f3e
000001f0: 5875 9b3e 01b7 9a3e adb0 713e 5775 fdbb
00000200: a81b 473e 0a30 0fbe 4de7 6f3e f08e 6b3e
00000210: 1abe 10be 9cb5 163e c813 e8bc 7eb3 74be
00000220: 0b67 2cbe d1a4 533e 5e28 82bd 7c27 1f3e
00000230: a5d2 d5bd f271 683e dc9b ccbd bfb1 e83d
00000240: 7ac2 64be e9e0 733e cc0e 953e 33d7 1cbe
00000250: 01d8 853e 70cf 913d 8adc 343e 7c6d 6fbd
00000260: c2ad 0d3e 985b 0cbd f00f 9ebb 5fbf 1abe
00000270: 184c 4dbe 37be c9bc cf81 09be 0078 543e
00000280: 7d93 61be a73a 1fbe d9eb 80bd 6ad5 063e
00000290: d750 433e a76a a9bd d11b 85be 6bff d5bc
000002a0: 9aa5 d7bd add4 8e3e 4a65 47bd 22fd 613e
000002b0: a0b6 05bd 2681 8c3e 5880 703e 7fbc e53d
000002c0: 26ec 9dbd 82d7 f2bd 8380 51be 2e73 48be
000002d0: 8fa6 5f3e 49d9 36be 24a5 6dbe a918 4abe
000002e0: 075c b7bd cd80 293e 5be1 abbd 0772 35be
000002f0: d5b7 93be 08d0 903d d827 dabd 5349 2e3e
00000300: 08a8 253e a8f6 42be a926 3abe eb21 2dbd
00000310: 540e 6abd cde3 813e 06be 94be 347d 663d
00000320: 9445 3dbe c39b 17be 1a67 17be 2fc6 943d
00000330: 1513 803b ac65 46bd 0049 393e 5586 963e
00000340: 60fe 45be 6642 4f3e f1fb 2dbe 62ff 973d
00000350: 8e0e 49bc 7887 3d3d 7f18 0bbd f6e7 2bbe
00000360: 2024 f83b 650f 55be f0d6 13b9 de3d ab3d
00000370: 60f8 a23c e33c aabd 92c6 643e 03ff d63d
00000380: 4d8e 09bd 54c1 363d 8f30 a73d ceda 12be
00000390: 1ca1 efbc 8157 893c f11f 23be 216d 54be
000003a0: c64a f6bd bde5 493e c4dd ef3c e27e 493e
000003b0: 3567 6cbd 1536 a0bc afe0 253d 4f1c 833e
000003c0: 53db a1be 5f0d 173e 54ef 3ebe f678 babd
000003d0: 4db1 973d 9d2b 973c 5b75 8c3e fb14 5ebd
000003e0: 85a0 df3c 9f82 6cbe e968 76be 28f5 cf3d
000003f0: 6c1d 873e 9139 1abe 12ca 6abe fbea 81bd
