mujoco/gail/save_model/ckpt_516.pth.tar (torch, 144879 bytes, 16 tensors)

fc1.weight f4 [100, 11]
-0.03489356 -0.22102559 0.124256626 -0.11743903 0.11188689 0.08239357 -0.27851725 0.16324276
0.16348293 0.24733129 0.004074525 0.29931825 -0.09522706 0.057314392 -0.28217864 0.1308858
0.07185738 -0.023578936 0.08691468 0.14408177 0.15447992 0.16598284 0.18533765 -0.080735855
-0.26928633 0.068989426 0.1253831 -0.2216853 -0.07964727 0.24868508 -0.047666624 -0.03495371
0.12973295 0.19932297 -0.1635458 0.029239532 0.18172741 0.070221774 0.20923698 -0.3057198
-0.056989685 -0.26348472 0.27154583 -0.3260696 0.08540105 0.25915682 0.19603944 -0.2969943
-0.064559564 0.11149632 -0.22209702 -0.034527175 0.24439853 0.060953442 0.096079335 0.27620772
-0.07910855 -0.010262007 0.093345426 0.41655385 0.15295702 0.10341824 -0.14242432 -0.00675646
-0.05143292 -0.010948244 0.25643924 -0.23552887 0.30791113 -0.24312422 -0.0070718094 -0.2180942
0.26991817 -0.052060228 -0.04533313 -0.21221475 -0.14578694 0.03142646 0.37185964 -0.21397547
-0.15056051 0.23198302 0.16452166 0.20318246 -0.014042994 -0.29104087 0.22592628 0.2638523
-0.057472482 0.098753355 -0.26406282 -0.25958544 0.21185917 0.22950493 0.09328583 -0.17610297
0.32305503 -0.27494356 0.20404613 -0.05860423 0.20237505 -0.06344088 0.060449306 0.27154675
-0.20770557 0.18982562 0.38449767 0.23998453 0.24010439 -0.04013614 -0.26724562 -0.071778074
0.06342972 -0.26714292 -0.1489046 0.23630278 -0.11000632 0.2188393 0.10649352 0.20975858
-0.07630268 -0.23709512 -0.052746285 0.01029337 0.008482304 0.25809342 0.33959916 -0.0917883
-0.08011919 -0.06988166 -0.19842026 0.24343729 -0.008865643 0.2169555 -0.1458153 0.18409917
0.1536587 -0.15717621 0.05284967 -0.06361883 0.2517552 0.032877024 0.11113676 0.06614094
0.119172685 -0.21828698 0.22080202 -0.069998235 -0.10881083 0.027600823 0.26155493 0.34542298
-0.16755937 0.042024255 -0.28431678 -0.07681866 0.15410955 0.25603658 -0.030776806 0.003361415
0.28101635 0.3012114 -0.0040003336 0.13141644 0.15507591 -0.09278144 -0.13617213 0.061570402
0.16787638 0.2766522 0.07906776 -0.090670876 -0.01883333 0.23642205 0.14538002 -0.06570827
0.11544971 -0.29989243 0.09401086 0.18340927 0.11436583 0.3037609 -0.29051566 0.3003858
0.24824692 0.23534948 0.21317181 0.033451486 -0.30015364 0.0566775 -0.2251332 -0.0065143276
-0.28607062 0.14120634 0.056117974 -0.099714026 -0.24426454 -0.17177582 0.2688786 0.30071157
0.18959585 -0.12584393 -0.09725005 0.21009195 -0.030683653 -0.0036916398 -0.22190784 -0.24760514
0.2055502 -0.06414223 0.30793434 -0.26319358 0.09046521 0.20596077 -0.30799866 -0.22182935
-0.23579794 -0.12309954 0.1198615 -0.27418557 -0.20086052 -0.24729766 -0.05706722 0.24448964
-0.07335472 0.026139606 -0.09602509 -0.0429728 0.009117045 -0.14254443 -0.22033861 0.19603996
0.035860736 0.106076375 0.111906566 0.3377409 -0.22429493 -0.043880124 0.07796326 -0.11952742
0.2502162 -0.068431385 0.025495708 -0.2292627 0.16601816 0.18139021 0.2634756 0.2787259
-0.1301467 -0.08350703 -0.10599756 0.12404806 -0.28936434 0.13444993 0.10744959 -0.015297684
00000000: 8dec 0ebd 8854 62be 427a fe3d e083 f0bd
00000010: f424 e53d f6bd a83d d099 8ebe 1c29 273e
00000020: 1268 273e 6a44 7d3e 9883 853b 3e40 993e
00000030: 6806 c3bd 7fc2 6a3d b879 90be ed06 063e
00000040: f629 933d 9d28 c1bc 5300 b23d 2c8a 133e
00000050: fc2f 1e3e 68f7 293e 27c9 3d3e d758 a5bd
00000060: e6df 89be 544a 8d3d 6d64 003e 7901 63be
00000070: 1c1e a3bd 4da7 7e3e 143e 43bd 9f2b 0fbd
00000080: b7d8 043e 521b 4c3e 8d78 27be be87 ef3c
00000090: c016 3a3e 6fd0 8f3d 3842 563e 4e87 9cbe
000000a0: 046e 69bd 78e7 86be 0e08 8b3e 98f2 a6be
000000b0: bfe6 ae3d 34b0 843e 90be 483e a30f 98be
000000c0: ce37 84bd 2f58 e43d 676d 63be 5e6c 0dbd
000000d0: 9c43 7a3e 51aa 793d 3ec5 c43d 196b 8d3e
000000e0: aa03 a2bd fa21 28bc e32b bf3d 8c46 d53e
000000f0: c4a0 1c3e f1cc d33d aed7 11be 4b65 ddbb
00000100: 53ab 52bd 4360 33bc 014c 833e 7b2e 71be
00000110: 87a6 9d3e 8ef5 78be a3ba e7bb 1654 5fbe
00000120: b732 8a3e 1b3d 55bd 3baf 39bd d34e 59be
00000130: 2c49 15be 08b9 003d 6364 be3e 631c 5bbe
00000140: 892c 1abe f58c 6d3e 5e78 283e 100f 503e
00000150: 9614 66bc 4f03 95be 3859 673e a617 873e
00000160: 4468 6bbd 333f ca3d 3e33 87be 62e8 84be
00000170: 9cf1 583e 5703 6b3e a40c bf3d 5654 34be
00000180: 7867 a53e 67c5 8cbe 78f1 503e fd0a 70bd
00000190: 683b 4f3e 4bed 81bd b199 773d 2d08 8b3e
000001a0: c5b0 54be a661 423e e1dc c43e 81be 753e
000001b0: eddd 753e cb65 24bd 6bd4 88be 6200 93bd
000001c0: 71e7 813d f5c6 88be 737a 18be 5bf9 713e
000001d0: fe4a e1bd 6917 603e 4619 da3d f4ca 563e
000001e0: 9444 9cbd 10c9 72be 7d0c 58bd 86a5 283c
000001f0: 5df9 0a3c d224 843e f1df ad3e 81fb bbbd
00000200: 8815 a4bd 1e1e 8fbd ae2e 4bbe a047 793e
00000210: 3441 11bc 9529 5e3e 9b50 15be 7e84 3c3e
00000220: b558 1d3e cdf2 20be e578 583d 974a 82bd
00000230: 0fe6 803e 0faa 063d ab9b e33d e774 873d
00000240: cf10 f43d 9f86 5fbe ed19 623e 3c5b 8fbd
00000250: 36d8 debd 1f1b e23c 87ea 853e 48db b03e
00000260: af94 2bbe a021 2c3d f891 91be 1a53 9dbd
00000270: e5ce 1d3e 3a17 833e a41f fcbc 2f4b 5c3b
00000280: 60e1 8f3e 6138 9a3e 3b15 83bb 0892 063e
00000290: 38cc 1e3e 3204 bebd b570 0bbe 3f31 7c3d
000002a0: c9e7 2b3e 5ba5 8d3e 47ee a13d a7b1 b9bd
000002b0: 5b48 9abc 9f18 723e 80de 143e 0f92 86bd
000002c0: e670 ec3d 808b 99be c488 c03d a4cf 3b3e
000002d0: a238 ea3d 8c86 9b3e 78be 94be 2bcc 993e
000002e0: 7134 7e3e 74ff 703e b649 5a3e 6d04 093d
000002f0: bdad 99be ab26 683d 5189 66be 2476 d5bb
00000300: d977 92be 6598 103e f6db 653d de36 ccbd
00000310: 7c20 7abe 00e6 2fbe 75aa 893e def6 993e
00000320: 6a25 423e 3bdd 00be 092b c7bd 5822 573e
00000330: 495c fbbc 70ef 71bb cf3b 63be 348c 7dbe
00000340: c07b 523e 005d 83bd 92a9 9d3e 4fc1 86be
00000350: d345 b93d 61e7 523e 00b2 9dbe 3c27 63be
00000360: 0475 71be 9d1b fcbd f279 f53d 0d62 8cbe
00000370: 61ae 4dbe 993b 7dbe 51bf 69bd 7e5b 7a3e
00000380: 003b 96bd ba22 d63c cda8 c4bd 3f04 30bd
00000390: a95f 153c 2bf7 11be 72a0 61be b3be 483e
000003a0: b5e2 123d 923e d93d 452f e53d 60ec ac3e
000003b0: 92ad 65be a5bb 33bd 34ab 9f3d cbca f4bd
000003c0: 561c 803e c125 8cbd 60dc d03c d7c3 6abe
000003d0: aa00 2a3e 5bbe 393e 46e6 863e 29b5 8e3e
000003e0: 2d45 05be bc05 abbd 4015 d9bd e90c fe3d
000003f0: 9027 94be 3ead 093e 880e dc3d 23a3 7abc

fc1.bias f4 [100]
-0.187136 -0.2989086 -0.0922991 0.106812075 0.0796138 -0.10980009 -0.09547007 -0.0003622353
-0.019469373 -0.30737075 0.048854485 0.13541107 -0.14334318 0.18210366 0.18054609 -0.28218338
0.21162789 0.2419594 -0.1421263 0.0776929 0.020231325 -0.29609016 0.105927505 -0.20406082
0.032707896 0.13129486 -0.23028561 -0.18173125 0.25762123 0.14125489 -0.18944547 0.059336126
0.2088274 0.22168094 -0.35086578 0.0990255 0.1427341 0.0948733 -0.20202714 0.1381754
0.1951394 0.23108475 -0.014378533 -0.27977732 0.08130075 0.04027136 -0.24125695 -0.27108985
0.12901609 0.3358455 0.119647205 0.2887811 -0.2587176 -0.18471278 0.028345875 0.17673387
-0.04872698 0.26357034 0.26179817 0.24604613 -0.19100934 0.29914647 0.26678556 0.08303124
-0.12102454 -0.2813504 -0.018301263 -0.075011656 -0.053051278 0.025433926 0.32747164 -0.094024606
0.21424925 0.040040247 -0.2691632 -0.26744863 0.18811156 0.18617785 0.21933542 0.31374416
-0.32918048 -0.24992217 0.16589633 0.18378173 0.34092373 -0.30006015 -0.1320547 0.23868914
0.24716504 -0.055684485 0.311267 0.23806465 -0.00069422985 0.24980944 -0.21763292 0.22328752
0.29174784 -0.011310847 0.17728618 0.22893205
00000000: 94a0 3fbe 8c0a 99be 4f07 bdbd 4ac0 da3d
00000010: 8f0c a33d dfde e0bd d085 c3bd 66ea bdb9
00000020: 3c7e 9fbc b35f 9dbe a41b 483d 33a9 0a3e
00000030: 8ec8 12be 6279 3a3e 13e1 383e 577a 90be
00000040: fbb4 583e 34c4 773e 8f89 11be 751d 9f3d
00000050: 2abc a53c 2199 97be 85f0 d83d 52f5 50be
00000060: b7f8 053d 2972 063e fecf 6bbe c217 3abe
00000070: eee6 833e 1fa5 103e fefd 41be 700a 733d
00000080: dad6 553e 5400 633e aea4 b3be e2cd ca3d
00000090: e328 123e ef4c c23d 34e0 4ebe da7d 0d3e
000000a0: 9fd2 473e 7ba1 6c3e f093 6bbc f93e 8fbe
000000b0: 0281 a63d 95f3 243d 100c 77be 4acc 8abe
000000c0: cb1c 043e f1f3 ab3e 9809 f53d 1edb 933e
000000d0: a276 84be 5925 3dbe 9c35 e83c b9f9 343e
000000e0: f195 47bd b1f2 863e 690a 863e 84f3 7b3e
000000f0: f497 43be ba29 993e 1e98 883e 480c aa3d
00000100: b7db f7bd 290d 90be 88ec 95bc b69f 99bd
00000110: 4c4c 59bd cf5a d03c 5daa a73e f98f c0bd
00000120: 2864 5b3e 3e01 243d c2cf 89be 07ef 88be
00000130: 51a0 403e 68a5 3e3e 7799 603e 13a3 a03e
00000140: 588a a8be 99eb 7fbe bae0 293e 4731 3c3e
00000150: 8e8d ae3e 7ca1 99be 5939 07be ed6a 743e
00000160: d518 7d3e 6a15 64bd 635e 9f3e 38c7 733e
00000170: fafc 35ba 0cce 7f3e 2adb 5ebe 7ca5 643e
00000180: f95f 953e 2151 39bc 828a 353e 2a6d 6a3e

fc2.weight f4 [100, 100]
0.025345538 -0.02115135 -0.010355508 0.06576107 0.0055989036 -0.045625474 -0.056622002 0.0040555866
-0.03073176 -0.12106316 0.0640747 -0.017000563 -0.0038100714 0.13475145 0.14254534 0.11598995
0.012376519 -0.048880517 -0.118375815 0.072452106 0.02690951 0.07571949 0.036040142 0.023710087
-0.01688247 -0.0053339116 -0.056216 -0.09560566 -0.091093384 -0.015018899 -0.026373887 -0.008971426
0.116911806 -0.05603084 0.12198727 0.067472994 -0.1446402 0.09656913 0.050283466 -0.04373542
0.11841249 -0.0026291015 0.11013421 0.07609063 0.12784009 0.1114665 -0.06740903 -0.04548119
-0.051387392 -0.04873413 0.009907837 -0.13426726 0.06531343 0.039823245 -0.05844552 -0.03630836
-0.00340735 0.12690455 -0.0025103563 0.001901359 0.0003085043 -0.048533183 0.09112573 0.01054533
0.033228457 0.08769127 0.12479804 0.019629292 0.05227144 -0.08547499 -0.046677276 -0.068279915
0.06562187 0.044686038 0.13481016 -0.097500496 -0.1068741 0.13266055 0.033675805 0.00334668
0.041678272 0.0150489705 0.016602265 0.07744403 0.037184052 0.016038021 0.11537843 0.028153038
-0.114004634 0.060527887 -0.026880533 -0.035007305 -0.08398335 -0.08724027 -0.010704802 0.03561373
0.051700428 -0.11245793 0.035505008 0.04067385 -0.075020656 -0.06996993 0.0687354 0.104358055
-0.033571955 0.0117453355 0.09904212 0.11678271 0.011857854 0.024750859 0.1259941 -0.05955643
-0.0876806 0.012324745 0.07190984 0.061724085 0.09669966 0.047265865 0.024467962 -0.101091474
-0.06420406 0.06356588 0.14814773 0.0020041585 -0.019647302 0.03222632 -0.027237985 -0.039602987
0.012235509 0.13191932 -0.11569577 -0.066854015 -0.013216723 0.004377367 0.039016068 -0.047265403
-0.059249338 0.06366965 0.09005683 0.0072319983 -0.013207577 -0.057658028 -0.07784994 0.09397082
-0.071159944 -0.11257016 0.045341842 -0.08050026 -0.050149187 0.08486301 0.04457137 -0.038885802
0.07942315 -0.07050382 0.08553471 0.08636979 0.03921032 -0.017623857 -0.0076512024 0.012901811
-0.0031529465 -0.031787768 0.009471503 0.13630259 -0.05298847 -0.08206138 -0.051265534 0.032141794
0.1186224 0.14094302 0.054512482 -0.059505332 -0.012000645 -0.033190083 -0.04218463 -0.062308386
0.036686286 -0.10758262 0.031138996 0.11878278 -0.001845642 -0.07642125 -0.107635304 -0.08536487
0.07708329 0.07211098 0.06860781 -0.044708524 -0.063938454 0.11030143 0.038294483 -0.019109132
-0.05098598 0.043684993 -0.07914567 0.061347917 -0.10291417 -0.0077066515 0.004533292 -0.043376245
0.100721724 -0.06957189 0.07142734 0.024431903 -0.0062498422 -0.071733385 0.018775873 -0.090713635
-0.040347654 0.042655855 -0.04694832 0.096840516 -0.012068846 0.09499511 0.09797625 -0.088953316
0.056709822 0.031188559 -0.05876241 0.07512717 0.14577976 -0.12791131 0.08759804 -0.009657211
0.004039875 0.0039231563 -0.08600372 -0.0034941018 -0.024117261 0.058154378 -0.087539285 0.077030405
0.050720043 -0.044377983 0.0014853692 0.033838622 -0.07674413 -0.048350014 -0.08436235 0.0040299096
0.063907646 -0.08232073 0.022610316 0.111664586 0.065873235 0.018227711 0.060846254 -0.08405279
-0.03828115 -0.062688954 0.078860074 -0.06940323 0.026328001 -0.015722075 -0.08848624 -0.061585832
00000000: 72a1 cf3c 9945 adbc 26aa 29bc bdad 863d
00000010: 0277 b73b c7e1 3abd 79ec 67bd bae4 843b
00000020: 2cc1 fbbc f6ef f7bd 9939 833d c444 8bbc
00000030: 64b2 79bb 49fc 093e 68f7 113e 248c ed3d
00000040: e2c6 4a3c f036 48bd 056f f2bd c561 943d
00000050: 5571 dc3c d212 9b3d d49e 133d a83b c23c
00000060: 1b4d 8abc 18c8 aebb c042 66bd e6cc c3bd
00000070: 2b8f babd d411 76bc 0d0e d8bc e3fc 12bc
00000080: 756f ef3d 9880 65bd 76d4 f93d 482f 8a3d
00000090: 901c 14be 09c6 c53d 09f6 4d3d e923 33bd
000000a0: 3f82 f23d 014d 2cbb 0b8e e13d 67d5 9b3d
000000b0: 83e8 023e 8c48 e43d bf0d 8abd 7c4a 3abd
000000c0: 967b 52bd 709d 47bd 7b54 223c 5b7d 09be
000000d0: 0cc3 853d b31d 233d 9264 6fbd 13b8 14bd
000000e0: d94d 5fbb 44f3 013e ca84 24bb 0537 f93a
000000f0: bfbe a139 bbca 46bd 20a0 ba3d 52c6 2c3c
00000100: 901a 083d 7b97 b33d 1d96 ff3d 9ccd a03c
00000110: 941a 563d 830d afbd ac30 3fbd 57d6 8bbd
00000120: c264 863d b508 373d ad0b 0a3e 57ae c7bd
00000130: cfe0 dabd 2bd8 073e a4ef 093d f953 5b3b
00000140: d6b6 2a3d f58f 763c 7901 883c fa9a 9e3d
00000150: 4e4e 183d 2b62 833c 874b ec3d 33a1 e63c
00000160: 437b e9bd 17ec 773d 9034 dcbc d263 0fbd
00000170: 76ff abbd 07ab b2bd 3263 2fbc b4df 113d
00000180: d4c3 533d 5850 e6bd b36d 113d 9f99 263d
00000190: 6ea4 99bd 654c 8fbd 25c5 8c3d adb9 d53d
000001a0: bf82 09bd 826f 403c 98d6 ca3d c62b ef3d
000001b0: 7247 423c 50c2 ca3c 9904 013e 71f1 73bd
000001c0: e391 b3bd baed 493c 7745 933d 65d2 7c3d
000001d0: 790a c63d da99 413d 0971 c83c 0c09 cfbd
000001e0: 6b7d 83bd d42e 823d 0ab4 173e 3358 033b
000001f0: 61f3 a0bc bfff 033d 3222 dfbc be36 22bd
00000200: 7277 483c dc15 073e e7f1 ecbd c2ea 88bd
00000210: f48a 58bc 0470 8f3b 50cf 1f3d 5e99 41bd
00000220: 6faf 72bd 3c65 823d b76f b83d 66fa ec3b
00000230: 9864 58bc d32a 6cbd ca6f 9fbd c673 c03d
00000240: 4ebc 91bd 2f8b e6bd 5eb8 393d 52dd a4bd
00000250: 3c69 4dbd a8cc ad3d 7890 363d b846 1fbd
00000260: 9ba8 a23d 4f64 90bd d22c af3d a5e2 b03d
00000270: 009b 203d e85f 90bc f0b6 fabb 1e62 533c
00000280: aaa1 4ebb e433 02bd 5d2e 1b3c e892 0b3e
00000290: 700a 59bd cc0f a8bd cffb 51bd 1da7 033d
000002a0: 4df0 f23d 5e53 103e 7b48 5f3d ddbb 73bd
000002b0: 5a9e 44bc 53f2 07bd cac9 2cbd 1437 7fbd
000002c0: 5c44 163d 4754 dcbd 3517 ff3c 6344 f33d
000002d0: 78e9 f1ba bf82 9cbd e66f dcbd c7d3 aebd
000002e0: d8dd 9d3d ecae 933d 4082 8c3d 4920 37bd
000002f0: 2af2 82bd b7e5 e13d adda 1c3d c18a 9cbc
00000300: add6 50bd 09ef 323d 2017 a2bd f447 7b3d
00000310: aac4 d2bd 1488 fcbb 028c 943b 4aab 31bd
00000320: 3147 ce3d b57b 8ebd 7f48 923d 6a25 c83c
00000330: 7acb ccbb f4e8 92bd dccf 993c 12c8 b9bd
00000340: 9543 25bd e8b7 2e3d e24c 40bd 5254 c63d
00000350: 69bc 45bc cc8c c23d c6a7 c83d 282d b6bd
00000360: 8f48 683d 267f ff3c dab0 70bd 46dc 993d
00000370: 4a47 153e 2ffb 02be 9a66 b33d 4739 1ebc
00000380: ee60 843b d28d 803b b822 b0bd 4dfd 64bb
00000390: 9091 c5bc 4933 6e3d cc47 b3bd 1ec2 9d3d
000003a0: d2bf 4f3d b0c5 35bd b8b0 c23a 5e9a 0a3d
000003b0: 072c 9dbd aa0a 46bd 2bc6 acbd 550d 843b
000003c0: 03e2 823d c597 a8bd 4539 b93c 67b0 e43d
000003d0: 8ce8 863d 4852 953c ec39 793d df23 acbd
000003e0: b2cc 1cbd 1163 80bd 6481 a13d 4823 8ebd
000003f0: d2ad d73c 95cb 80bc 4638 b5bd 6d41 7cbd

fc2.bias f4 [100]
-0.05896863 0.04758722 -0.050676618 -0.06710172 0.00015665354 0.003909503 0.19389893 -0.0120597435
0.023573887 -0.19738881 0.007830834 0.1214635 -0.038627278 -0.047702562 -0.038323037 -0.055277526
-0.14891353 0.10306175 -0.06936796 0.07230913 0.041320447 0.016579304 0.013305037 0.015946949
-0.035706297 0.0710594 -0.050813075 0.05077147 -0.07921525 0.1003007 0.05089738 0.06161134
-0.045405418 0.0066140858 0.071391754 0.07162437 0.05509729 -0.11410474 -0.07359134 -0.040985808
-0.0050560655 0.06666952 0.010819871 0.022403535 0.044407126 -0.048791762 -0.07732223 -0.08646193
0.02270099 0.03322568 0.04727956 -0.06599452 0.113624886 -0.11851255 0.035110787 0.05254431
-0.074312 0.025877986 -0.03245359 -0.010658091 -0.06569542 0.026691841 -0.063013345 -0.0018535717
-0.06181139 -0.018252896 0.009834217 -0.020212762 -0.07114932 -0.0025832118 0.042689726 -0.015366409
0.031028353 0.11665971 -0.092824854 0.07808128 -0.0146721145 0.039164532 -0.06292451 -0.05420004
0.01979244 -0.12146564 -0.004805339 -0.05258796 0.08306445 0.03842615 -0.0038479464 -0.048059367
0.10777652 0.1584494 0.00890969 -0.035507265 0.013499941 -0.034469835 -0.07973891 0.055729404
0.18482985 0.09988305 -0.011427711 -0.07229791
00000000: 1789 71bd d1ea 423d 4992 4fbd a06c 89bd
00000010: 5d43 2439 4a1b 803b 718d 463e 3b96 45bc
00000020: 061e c13c 4b20 4abe e64c 003c dbc1 f83d
00000030: a337 1ebd c363 43bd 9ef8 1cbd b06a 62bd
00000040: ca7c 18be 0a12 d33d ca10 8ebd cf16 943d
00000050: a13f 293d 52d1 873c 5ffd 593c 2da3 823c
00000060: c440 12bd 9787 913d 5f21 50bd bff5 4f3d
00000070: 9b3b a2bd 746a cd3d c579 503d 2c5c 7c3d
00000080: 08fb 39bd f9ba d83b d735 923d ccaf 923d
00000090: b2ad 613d bfaf e9bd 0eb7 96bd bce0 27bd
000000a0: 5aad a5bb 088a 883d d445 313c 9e87 b73c
000000b0: 3fe4 353d dfd9 47bd 1e5b 9ebd f412 b1bd
000000c0: 6df7 b93c a717 083d 36a8 413d 2328 87bd
000000d0: 2ab4 e83d b5b6 f2bd 54d0 0f3d b438 573d
000000e0: e430 98bd 12fe d33c 0eee 04bd 469f 2ebc
000000f0: 528b 86bd d9a8 da3c 240d 81bd 8cf3 f2ba
00000100: f12d 7dbd 1987 95bc b21f 213c 3c95 a5bc
00000110: bcb6 91bd 1a4b 29bb 6cdb 2e3d 64c3 7bbc
00000120: 2c2f fe3c 49eb ee3d f51a bebd 14e9 9f3d
00000130: 4f63 70bc fd6a 203d 91de 80bd dc00 5ebd
00000140: c123 a23c fac2 f8bd 1b76 9dbb 7966 57bd
00000150: b21d aa3d bd64 1d3d d42d 7cbb e6d9 44bd
00000160: f0b9 dc3d 8f40 223e f3f9 113c 1170 11bd
00000170: db2e 5d3c 3e30 0dbd 274e a3bd 8444 643d
00000180: 0944 3d3e 7c8f cc3d 4b3b 3bbc ed10 94bd

fc3.weight f4 [3, 100]
0.0044348957 0.01062323 -0.005476586 -0.007923895 0.02819104 0.040725004 0.03472718 -0.06469158
0.018422276 -0.085105345 0.025313731 0.009473976 -0.013794667 -0.0002475726 -0.014048946 0.012891754
-0.017409118 0.05248038 -0.013039482 0.0160713 0.010926102 0.0024943869 -0.010048764 0.0011207145
0.021733496 0.006927838 -0.014861539 -0.005689292 -0.024999531 -0.049632102 -0.08300137 -0.071184576
0.05140738 0.013656152 -0.0034345456 0.013307107 0.019202998 -0.052550837 -0.0010728965 -0.0070595895
-0.007542184 0.077306114 -0.019203648 -0.041257564 0.016283546 0.0142115075 -0.099217646 -0.020914285
-0.04517029 0.0063373926 -0.010877762 0.009442748 0.013762363 -0.02279322 0.0063182274 0.03129325
0.09560043 -0.0077453353 0.0007913711 0.018498532 0.021699509 0.029855153 -0.037419062 0.026056787
0.012214827 0.012615701 0.020727955 -0.015857598 0.0052869604 0.0011318879 0.006982801 0.000163279
-0.017655596 0.05057028 0.08296431 0.04183972 0.02721578 -0.01808996 -0.03856354 -0.009827975
0.002847492 -0.0047345688 0.004879539 0.050035726 0.031948127 -0.066508844 0.0062627555 -0.0076812934
-0.01465447 -0.025449004 0.026124323 0.017019771 0.025731405 0.05194927 -0.01977737 0.048573505
0.034887195 0.02758659 0.010845979 0.032932397 0.06560984 -0.01974363 0.05777898 -0.020210136
0.014070072 -0.013630942 -0.037951235 0.008160539 -0.043570943 -0.11194428 0.03797989 0.028047848
-0.005479488 -0.053122047 -0.022779943 -0.011701494 0.031115698 0.029311111 0.01846314 0.0775749
0.015667694 0.043502226 -0.03645895 0.023888176 -0.012359438 -0.036187053 -0.026707562 -0.0017063647
-0.07467712 0.06377828 0.049857713 0.023121255 0.028623018 0.016707106 -0.033877812 0.0029611767
-0.05261396 -0.036416423 -0.024233127 -0.0053974185 0.019983415 -0.058362365 -0.062604226 0.029582508
-0.010246702 -0.0028404896 -0.08321323 0.003330117 0.015729235 0.033407252 -0.058043342 0.040757816
0.06653679 -0.0053181667 0.04012285 -0.0038296129 -0.0030279828 -0.070222065 0.00018803668 0.01774371
0.041621193 -0.022034924 -0.07369793 -0.0027595293 0.013206007 0.04663359 -0.048682015 0.004811812
0.01816016 0.0016304019 0.0067729596 0.0019492024 0.029082227 0.053298663 -0.036434487 -0.072930574
0.06914607 -0.01259993 0.050389327 0.032084417 -0.010866323 -0.003156132 -0.018104855 -0.012832129
-0.07030988 0.010961738 -0.0076051876 -0.040484402 0.04618719 -0.009557778 -0.056773994 0.025867905
-0.0165314 -0.0049507977 0.031811234 -0.016746065 0.09986316 -0.051875047 -0.011951012 0.09204086
-0.018508814 -0.015572534 0.020896783 -0.0074931094 -0.026547253 -0.030581951 -0.09701077 -0.060291603
0.05396559 -0.025732435 0.063125364 -0.030734362 -0.013073787 -0.04070012 0.02230484 0.004629803
0.054649144 -0.014118197 0.042681232 -0.0053232084 0.05462245 0.07824141 -0.034294046 -0.05791021
0.028471678 -0.0031069734 0.00015558816 0.00030730714 0.006041761 -0.02270734 -0.03129273 -0.14786638
-0.0006497059 0.09326838 -0.05832003 -0.054400083 -0.066565186 -0.0495815 -0.0143532725 -0.018746607
0.0114342645 0.028177004 -0.0036926903 0.04553499 0.0041782847 -0.02557224 0.012753592 0.036328197
0.038512226 -0.012696445 0.03693181 0.07101038 0.021679211 0.042959787 0.031116236 0.0008996303
00000000: 9a52 913b 0e0d 2e3c ef74 b3bb 39d3 01bc
00000010: e5f0 e63c 43cf 263d 163e 0e3d 057d 84bd
00000020: 50ea 963c b64b aebd be5e cf3c bc38 1b3c
00000030: 0703 62bc a2cc 81b9 8d2d 66bc ef37 533c
00000040: 919d 8ebc abf5 563d 8da3 55bc f5a7 833c
00000050: 6503 333c de78 233b 92a3 24bc f0e4 923a
00000060: 720a b23c eb02 e33b d07d 73bc 3e6d babb
00000070: d1cb ccbc 084b 4bbd 9ffc a9bd 38c9 91bd
00000080: 8b90 523d 0ebe 5f3c 1d16 61bb 0d06 5a3c
00000090: 9b4f 9d3c 8c3f 57bd 6fa0 8cba 2154 e7bb
000000a0: 6d24 f7bb ab52 9e3d f850 9dbc b1fd 28bd
000000b0: 1265 853c 62d7 683c 9f32 cbbd 6f54 abbc
000000c0: 7b04 39bd e7a9 cf3b a438 32bc c1b5 1a3c
000000d0: 897b 613c d9b8 babc 2209 cf3b 5a2d 003d
000000e0: 29ca c33d 95cc fdbb 0474 4f3a 3c8a 973c
000000f0: 2bc3 b13c cb92 f43c bb44 19bd 0b75 d53c
00000100: b320 483c 16b2 4e3c accd a93c cbe7 81bc
00000110: 3d3e ad3b db5b 943a fbcf e43b df35 2b39
00000120: 78a2 90bc c822 4f3d 31e9 a93d 2060 2b3d
00000130: a1f3 de3c 6531 94bc cdf4 1dbd 8405 21bc
00000140: fd9c 3a3b 7124 9bbb 8ae4 9f3b 43f2 4c3d
00000150: 0adc 023d ca35 88bd cd37 cd3b 5cb3 fbbb
00000160: 4d19 70bc 6e7a d0bc ad02 d63c 0c6d 8b3c
00000170: abca d23c c2c8 543d 2704 a2bc 03f5 463d
00000180: e0e5 0e3d 46fd e13c 55b3 313c 1fe4 063d
00000190: 745e 863d 65bd a1bc a7a9 6c3d ba8f a5bc
000001a0: 2986 663c 5154 5fbc c172 1bbd c8b3 053c
000001b0: 7277 32bd 0b43 e5bd cd90 1b3d 9ac4 e53c
000001c0: 478d b3bb 8196 59bd 019d babc a0b7 3fbc
000001d0: 59e6 fe3c db1d f03c 0340 973c 97df 9e3d
000001e0: 8959 803c 642f 323d fb55 15bd 23b1 c33c
000001f0: 3e7f 4abc e038 14bd d1c9 dabc 19a8 dfba
00000200: 51f0 98bd 309e 823d 9a37 4c3d c968 bd3c
00000210: d27a ea3c 57dd 883c 76c3 0abd 4d10 423b
00000220: bc81 57bd 6329 15bd 8d84 c6bc d4dc b0bb
00000230: 42b4 a33c 600d 6fbd a536 80bd 0457 f23c
00000240: c8e1 27bc 8227 3abb b36b aabd 183e 5a3b
00000250: 99da 803c 0bd6 083d dbbe 6dbd abf1 263d
00000260: 7144 883d 0444 aebb dc57 243d 3efa 7abb
00000270: 1f71 46bb 96d0 8fbd b62b 4539 425b 913c
00000280: fc7a 2a3d 9682 b4bc f1ee 96bd 38d9 34bb
00000290: 025e 583c dd02 3f3d cb66 47bd 68ac 9d3b
000002a0: 9ec4 943c 36b3 d53a b4ef dd3b 617c ff3a
000002b0: da3d ee3c b34f 5a3d 543c 15bd a05c 95bd
000002c0: 749c 8d3d f06f 4ebc 0a65 4e3d f36a 033d
000002d0: a908 32bc 1cd7 4ebb a250 94bc da3d 52bc
000002e0: a0fe 8fbd dd98 333c f034 f9bb f9d2 25bd
000002f0: c72e 3d3d 3a98 1cbc d98b 68bd eee8 d33c
00000300: dc6c 87bc 4d3a a2bb 7f4c 023d 0b2f 89bc
00000310: 0e85 cc3d ee7a 54bd 2dce 43bc eb7f bc3d
00000320: cc9f 97bc f123 7fbc bb2f ab3c c288 f5bb
00000330: a079 d9bc 0087 fabc 95ad c6bd 54f4 76bd
00000340: 060b 5d3d d4cc d2bc df47 813d a1c6 fbbc
00000350: 7033 56bc 2bb5 26bd a4b8 b63c 9ab5 973b
00000360: c8d7 5f3d 0350 67bc 84d2 2e3d 4f6e aebb
00000370: cabb 5f3d 083d a03d ea77 0cbd 4233 6dbd
00000380: 703d e93c 5d9e 4bbb 6125 2339 111e a139
00000390: f7f9 c53b be04 babc ce2c 00bd 496a 17be
000003a0: 0651 2aba 7e03 bf3d fce0 6ebd 9fd2 5ebd
000003b0: 5453 88bd f915 4bbd fd29 6bbc 7c92 99bc
000003c0: c856 3b3c 76d3 e63c 1001 72bb e682 3a3d
000003d0: fee9 883b e07c d1bc 71f4 503c e0cc 143d
000003e0: ffbe 1d3d c004 50bc cf45 173d e46d 913d
000003f0: 9a98 b13c 9af6 2f3d 7ae7 fe3c 2bd5 6b3a

fc3.bias f4 [3]
0.01139213 0.004760677 -0.019388327
00000000: 0ea6 3a3c 74ff 9b3b 45d4 9ebc

fc1.weight f4 [100, 11]
-0.23059726 0.15456273 0.14684972 -0.12779784 0.010715221 0.05760521 0.036233973 0.07533044
0.13767435 0.12687026 0.03571167 -0.021834308 -0.117902935 0.13518637 -0.011370077 -0.032567706
-0.13173392 -0.1926706 -0.008532016 -0.08098107 0.05578992 0.12342265 -0.06902256 -0.048687927
-0.108497344 -0.048269875 0.16094323 0.11729668 -0.14866108 0.24395409 -0.038232684 0.07890483
0.1257351 0.06488062 -0.21431929 0.09955194 -0.0506558 -0.045248456 -0.033170573 0.12409432
0.2227063 -0.19412433 0.02335163 -0.037851356 -0.18399256 0.044526357 0.08359106 -0.27147728
-0.12332311 0.07512558 0.068982504 0.119382314 0.018844495 -0.030381676 -0.07184278 -0.26946846
0.15492748 0.13820551 -0.06542327 -0.18458787 0.11442994 -0.03610088 0.0930396 0.2025177
-0.010214161 0.008412762 -0.29602417 0.13165008 0.13344172 0.0039049198 -0.11950587 -0.045000944
0.14533141 -0.11710558 0.051322483 0.076415025 -0.03633484 0.14863954 0.20407638 -0.07377086
-0.24080327 -0.10110545 -0.0037526393 -0.09937425 -0.18563312 0.28074586 -0.23249836 0.12948304
-0.30491653 -0.048671234 -0.28698912 0.14567696 0.14049129 -0.1941296 0.04807126 0.24732089
-0.24895719 -0.14825302 0.12104494 -0.06822228 0.18819286 -0.074923515 -0.115043595 0.21798739
0.1715325 0.22469176 0.2115975 -0.17818534 -0.14712073 0.082926944 -0.10262081 -0.18294695
0.02209582 0.20037149 0.1320513 0.09598637 -0.022363143 -0.0713747 -0.12353247 0.19031578
0.011826718 0.041647222 -0.039676614 0.23415072 0.16211233 0.3005224 0.13771282 -0.06616249
-0.10123417 0.16791132 0.251651 -0.17781927 0.10428068 0.10702382 0.3530133 0.17317691
-0.023130652 -0.082305364 0.07854074 -0.111805856 0.15056968 -0.0017930885 0.03978525 0.19301681
-0.00043540244 0.02159144 0.07724397 0.070471816 0.23930629 0.13600837 0.11252481 0.18455331
0.06865851 0.20652476 0.011820404 -0.20081867 0.26219574 0.1560962 -0.016218912 -0.08256588
-0.20835966 -0.15520874 -0.1313476 -0.056739762 0.115861855 0.07189853 -0.20717172 0.14886825
-0.14165224 -0.20545143 -0.0607581 0.17568102 0.1635232 -0.19014373 -0.12025642 0.04053965
-0.20232178 -0.055018097 0.22641334 -0.25482893 -0.16341148 -0.104575485 -0.113718964 -0.11818619
-0.17287987 0.08648201 0.10878612 0.24122326 0.08747996 -0.20213743 -0.021313338 -0.051074427
0.11152386 0.17027289 -0.19471066 -0.0007413528 0.098481655 -0.16384359 -0.12026107 -0.21333219
-0.020476367 0.029930241 0.13538091 -0.06922016 -0.21767955 0.13651541 0.12616393 0.04078297
0.06784854 0.17686057 -0.24610934 -0.10883665 0.097917356 0.2484428 -0.022702264 0.12564823
-0.17072666 0.00014954628 0.16766761 0.19908254 -0.16573153 -0.18462655 -0.06236371 0.20913313
-0.070755035 0.2149107 0.10902559 -0.01572633 0.036031257 -0.03892828 -0.20282672 0.13575986
-0.105828226 -0.04349703 0.27466232 0.15435581 -0.21162875 -0.022065515 -0.043731797 -0.07049935
-0.0943286 0.01052248 -0.08285098 0.010920127 -0.07806275 0.00088622485 0.017824326 -0.025978003
-0.09117031 0.04527464 0.04257432 0.047841042 -0.10213252 0.2662486 -0.23616238 -0.061228674
00000000: b021 6cbe b145 1e3e c65f 163e 70dd 02be
00000010: e58e 2f3c 71f3 6b3d 136a 143d d946 9a3d
00000020: 81fa 0c3e 47ea 013e 6646 123d dddd b2bc
00000030: 1877 f1bd 4c6e 0a3e 8f49 3abc b765 05bd
00000040: 42e5 06be 714b 45be dec9 0bbc 67d9 a5bd
00000050: f983 643d 04c5 fc3d b35b 8dbd fe6c 47bd
00000060: db33 debd a2b6 45bd 4dce 243e 3e39 f03d
00000070: 9c3a 18be 1acf 793e e099 1cbd db98 a13d
00000080: b4c0 003e 21e0 843d 8476 5bbe e3e1 cb3d
00000090: 757c 4fbd 7256 39bd dedd 07bd 2a25 fe3d
000000a0: 1f0d 643e 87c8 46be eb4b bf3c 060a 1bbd
000000b0: 8c68 3cbe 4561 363d ca31 ab3d 12ff 8abe
000000c0: d490 fcbd 71db 993d b346 8d3d b77e f43d
000000d0: c55f 9a3c fee2 f8bc 4f22 93bd c5f7 89be
000000e0: 4fa5 1e3e bf85 0d3e a3fc 85bd 9a04 3dbe
000000f0: 3f5a ea3d 84de 13bd 8c8b be3d cd60 4f3e
00000100: 4c59 27bc aed5 093c 7b90 97be 47cf 063e
00000110: f2a4 083e afe9 7f3b 7ebf f4bd e952 38bd
00000120: c2d1 143e 0dd5 efbd 8637 523d 7b7f 9c3d
00000130: d7d3 14bd f734 183e 66f9 503e 2d15 97bd
00000140: 2295 76be 6010 cfbd d7ee 75bb ba84 cbbd
00000150: 9c16 3ebe ecbd 8f3e 0d14 6ebe 3497 043e
00000160: 051e 9cbe 7d5b 47bd 3df0 92be 572c 153e
00000170: f3dc 0f3e e9c9 46be 5fe6 443d b041 7d3e
00000180: a2ee 7ebe a4cf 17be 69e6 f73d 1fb8 8bbd
00000190: a1b5 403e 8071 99bd fa9b ebbd 1638 5f3e
000001a0: 37a6 2f3e 9915 663e 04ad 583e 3876 36be
000001b0: d1a6 16be 9ad5 a93d dc2a d2bd 7256 3bbe
000001c0: 4b02 b53c 2f2e 4d3e 7538 073e 8194 c43d
000001d0: e932 b7bc e62c 92bd 97fe fcbd 24e2 423e
000001e0: dac4 413c 4796 2a3d f283 22bd 35c5 6f3e
000001f0: c600 263e 12de 993e 9704 0d3e 3380 87bd
00000200: dc53 cfbd f2f0 2b3e 66d8 803e 4116 36be
00000210: 1c91 d53d 4e2f db3d 29be b43e 4a55 313e
00000220: 7e7c bdbc b78f a8bd f8d9 a03d 78fa e4bd
00000230: f02e 1a3e 1106 ebba dcf5 223d 33a6 453e
00000240: ba46 e4b9 88e0 b03c 1632 9e3d 8753 903d
00000250: b50c 753e c745 0b3e 6873 e63d 8bfb 3c3e
00000260: d59c 8c3d 3a7b 533e 5eaa 413c 69a3 4dbe
00000270: 853e 863e afd7 1f3e 86dd 84bc 4d18 a9bd
00000280: 3c5c 55be 0aef 1ebe fc7f 06be f467 68bd
00000290: fb48 ed3d 893f 933d d324 54be eb70 183e
000002a0: 490d 11be dc61 52be 7cdd 78bd bae5 333e
000002b0: a072 273e 0ab5 42be ff48 f6bd e70c 263d
000002c0: 712d 4fbe a85a 61bd e6d8 673e f078 82be
000002d0: 5755 27be ac2b d6bd 7de5 e8bd 9a0b f2bd
000002e0: 6c07 31be 7b1d b13d 42cb de3d 3b03 773e
000002f0: b128 b33d 1dfd 4ebe 4f99 aebc 6b33 51bd
00000300: 9f66 e43d 045c 2e3e 3b62 47be 5857 42ba
00000310: c0b0 c93d 9dc6 27be 704b f6bd c173 5abe
00000320: 0ebe a7bc 4430 f53c 4ba1 0a3e 4dc3 8dbd
00000330: 63e7 5ebe b2ca 0b3e 1e31 013e 0b0c 273d
00000340: 2df4 8a3d f01a 353e 1604 7cbe c0e5 debd
00000350: e588 c83d ca67 7e3e 19fa b9bc eea9 003e
00000360: f8d2 2ebe 86cf 1c39 0fb1 2b3e 4bdc 4b3e
00000370: 87b5 29be be0e 3dbe 1771 7fbd ff26 563e
00000380: 04e8 90bd 8d11 5c3e cf48 df3d 81d4 80bc
00000390: 8395 133d 4373 1fbd cfb1 4fbe a204 0b3e
000003a0: 78bc d8bd f129 32bd 8aa0 8c3e 730f 1e3e
000003b0: 35b5 58be bdc2 b4bc 1d20 33bd f761 90bd
000003c0: 5a2f c1bd 7b66 2c3c c6ad a9bd 55ea 323c
000003d0: 5ddf 9fbd 8b51 683a 5204 923c d2cf d4bc
000003e0: 80b7 babd e771 393d 6962 2e3d f8f4 433d
000003f0: db2a d1bd bd51 883e 8dd4 71be ebca 7abd

fc1.bias f4 [100]
0.5345203 -0.45971563 0.42485946 -0.28684503 -0.2459425 0.4543446 -0.41831437 -0.34714332
-0.4858342 -0.48692974 0.32889128 0.1951788 0.24100034 -0.4155565 0.39788812 -0.17315911
-0.498647 -0.40204045 -0.5178167 -0.3395653 0.39000046 -0.16632746 0.43922946 -0.2549551
0.45027047 0.25252518 -0.26024315 -0.04479656 0.33301532 0.4593833 -0.29165334 -0.48513705
0.29035977 -0.16311736 -0.4431626 0.35632637 -0.36412075 0.3895777 0.31826815 0.19034526
0.2751341 -0.36177915 0.4671867 -0.17087652 -0.104976445 -0.3415798 -0.51297307 -0.46804038
-0.41546178 0.39070347 0.4745233 -0.48080954 0.2241159 0.12708743 -0.27280182 -0.25286067
0.23335116 0.067820415 -0.45496315 -0.3351645 0.22698702 0.28197828 -0.31255195 -0.21430393
0.04669143 -0.4531362 0.26296818 -0.45523542 0.23919259 0.45431635 0.3030802 0.51027477
-0.1967271 -0.33209604 -0.22862731 -0.41682073 -0.42953277 -0.2635814 0.26741078 -0.32958943
-0.40101227 -0.36896724 -0.40559897 0.29841447 -0.3987026 -0.24339856 -0.48206508 -0.48741344
-0.47641042 -0.16935928 0.2389243 0.37555823 0.40424496 -0.22271255 -0.42599022 0.30884632
0.4582352 -0.300357 -0.42574576 -0.33329767
00000000: 53d6 083f d95f ebbe 2e87 d93e 5add 92be
00000010: 5ad8 7bbe db9f e83e 4d2d d6be c5bc b1be
00000020: 43bf f8be db4e f9be 7064 a83e f4dc 473e
00000030: cbc8 763e d2c3 d4be feb7 cb3e 9f50 31be
00000040: a94e ffbe 3fd8 cdbe a38f 04bf 81db adbe
00000050: 24ae c73e bf51 2abe afe2 e03e 7a89 82be
00000060: da89 e63e fb4a 813e 973e 85be 997c 37bd
00000070: fc80 aa3e 4a34 eb3e 9653 95be e263 f8be
00000080: 09aa 943e 3d08 27be 35e6 e2be 6970 b63e
00000090: 096e babe ba76 c73e 0bf4 a23e dee9 423e
000000a0: 60de 8c3e 1e3b b9be 1833 ef3e 41fa 2ebe
000000b0: e4fd d6bd 8ce3 aebe 3452 03bf fda2 efbe
000000c0: 68b7 d4be 490a c83e b8f4 f23e ab2c f6be
000000d0: a37e 653e 3523 023e aeac 8bbe f476 81be
000000e0: 9bf3 6e3e 6ee5 8a3d eef0 e8be ae9a abbe
000000f0: 496f 683e 755f 903e cf06 a0be 7d72 5bbe
00000100: 833f 3f3d 7801 e8be c4a3 863e 9e14 e9be
00000110: e7ee 743e 279c e83e 542d 9b3e 5ea1 023f
00000120: d472 49be 7e08 aabe 471d 6abe 8769 d5be
00000130: b8eb dbbe 24f4 86be 11ea 883e f2bf a8be
00000140: 7b51 cdbe 46e9 bcbe abaa cfbe c8c9 983e
00000150: bf22 ccbe 793d 79be 3cd1 f6be 418e f9be
00000160: 11ec f3be 856c 2dbe 92a8 743e 2b49 c03e
00000170: 32f9 ce3e c20e 64be 641b dabe 1b21 9e3e
00000180: ce9d ea3e 65c8 99be 59fb d9be fea5 aabe

fc2.weight f4 [100, 100]
0.10912024 -0.13515994 0.006367914 -0.018619204 -0.089766264 0.060647897 -0.059451528 -0.18936808
-0.15849783 -0.17273954 0.15644142 0.07823537 0.13321088 -0.057289947 0.13181731 -0.0011235166
-0.15458411 -0.033190344 -0.07492459 -0.014715428 0.11546046 0.054587312 0.086562306 -0.013632469
0.04791884 0.108898476 -0.020056369 -0.04672267 0.16281769 0.15070353 -0.043048248 -0.20035869
0.092882514 -0.03648903 -0.1723902 0.055588827 -0.106417984 0.037169356 0.15424725 0.113065325
0.10187506 -0.095938645 0.16159987 0.0370207 -0.05703104 -0.11522583 -0.1262514 -0.12504792
-0.059381958 0.119230494 0.12108084 -0.056107234 0.10530945 0.08866503 -0.0068437546 0.021634007
0.102747776 -0.0044983444 -0.12822233 -0.047601495 0.07517627 0.14686732 -0.0783237 -0.06984351
-0.0037812518 -0.18379536 0.17045526 -0.14179936 0.04094296 0.15528013 0.13230129 0.020700127
-0.11610586 -0.099966034 -0.07620151 -0.044121973 -0.098465435 -0.1494877 0.13178606 -0.14040086
-0.14644179 -0.13878116 -0.07006768 0.08864645 -0.12983514 -0.03276726 -0.11701281 -0.10853247
-0.15968417 0.011673257 0.11696093 0.10744344 0.119768925 -0.087056346 -0.14729905 0.08982882
0.095941536 -0.042919375 -0.09967559 -0.101779215 0.0108432565 0.055955064 0.037360292 -0.002941323
-0.11208784 -0.03512444 -0.012885094 -0.25763297 -0.015147945 -0.11275737 0.22869585 0.17892519
0.04512957 -0.08032842 0.24076942 -0.016410746 -0.007199356 -0.14802425 0.030020244 0.054568492
-0.026878176 0.0797115 0.022742273 -0.09276894 0.14185639 0.13691182 0.12783895 -0.134916
0.16454877 0.1361921 0.053342346 -0.15362245 0.06203258 -0.09656182 -0.4007514 0.0019196261
-0.101366505 0.1298967 0.042929467 0.17357995 0.1209424 -0.21439049 0.31019452 0.16490276
-0.056841884 -0.18227352 -0.06645464 -0.049823258 0.018816495 0.055542078 0.02309865 -0.03877598
0.117041275 0.07914335 -0.18310927 0.07145007 0.052397974 0.053329688 -0.3891136 0.07458207
0.16768834 0.10485282 0.117138326 0.13356228 0.006085775 -0.026558874 0.10709977 0.07076117
0.16463181 0.036086373 0.0029454543 -0.07316377 -0.13547814 -0.3234707 -0.0896594 0.043778937
0.09771015 -0.020649847 0.037942078 -0.11970986 -0.11938648 -0.11242937 -0.106698446 -0.009072863
-0.10531995 -0.013223794 -0.019367173 -0.055237878 -0.21062952 0.1422356 0.18384425 -0.026999874
0.1173698 -0.005810365 -0.25153437 0.010139678 -0.030931378 -0.09176977 -0.068047926 0.07230308
0.11533153 -0.10865371 0.1401253 -0.068997 -0.03337674 0.15905231 -0.073161945 -0.14946057
-0.13480744 -0.12468222 0.08945456 0.057356756 0.056514066 -0.1562287 0.094201185 -0.057507157
-0.13750598 -0.14634927 -0.15531081 -0.081741214 0.17959467 -0.044189937 0.19433206 -0.058434635
0.121224396 0.088245094 -0.084736794 -0.031345997 0.06951034 0.12083895 -0.059246026 -0.13071154
0.059394 -0.022506196 -0.13692006 0.119036205 -0.12935646 0.06425907 0.09774362 0.059802182
0.10850328 -0.13004743 0.057294577 -0.044056777 0.038933836 -0.103097945 -0.12518802 -0.1203335
-0.11517121 0.098165706 0.14492403 -0.1450184 0.032611452 0.020939613 -0.07479347 -0.06152063
00000000: 6f7a df3d 5e67 0abe efa9 d03b 4d87 98bc
00000010: 60d7 b7bd ee69 783d 7283 73bd b5e9 41be
00000020: 414d 22be a2e2 30be 2e32 203e de39 a03d
00000030: 6f68 083e dda8 6abd 1efb 063e f642 93ba
00000040: 4c4b 1ebe 99f2 07bd 1072 99bd fb18 71bc
00000050: 8976 ec3d f296 5f3d 9447 b13d b85a 5fbc
00000060: 8c46 443d 2a06 df3d 414d a4bc 4560 3fbd
00000070: aeb9 263e 0752 1a3e 5c53 30bd d42a 4dbe
00000080: 3039 be3d 8575 15bd 0e87 30be 1cb1 633d
00000090: acf1 d9bd e53e 183d fef2 1d3e cb8e e73d
000000a0: dfa3 d03d 7b7b c4bd 707a 253e 04a3 173d
000000b0: 6199 69bd 85fb ebbd 0c48 01be 900c 00be
000000c0: 7f3a 73bd 1e2f f43d 3bf9 f73d b3d0 65bd
000000d0: 7bac d73d 0396 b53d 9341 e0bb cd39 b13c
000000e0: 6d6d d23d d966 93bb b74c 03be c9f9 42bd
000000f0: 04f6 993d 6364 163e 2d68 a0bd 1d0a 8fbd
00000100: e1ce 77bb da34 3cbe d38b 2e3e da33 11be
00000110: ceb3 273d c101 1f3e fd79 073e 5093 a93c
00000120: e9c8 edbd feba ccbd 8a0f 9cbd 3eb9 34bd
00000130: 3fa8 c9bd 4e13 19be edf2 063e 3ec5 0fbe
00000140: d6f4 15be a61c 0ebe a57f 8fbd 458c b53d
00000150: 81f3 04be f636 06bd 6aa4 efbd 4646 debd
00000160: 3f84 23be 3041 3f3c 3689 ef3d 4e0b dc3d
00000170: 6949 f53d 994a b2bd 90d5 16be 2cf8 b73d
00000180: ff7c c43d 3acc 2fbd b722 ccbd 9f71 d0bd
00000190: eaa7 313c 2331 653d 1b07 193d 36c3 40bb
000001a0: 4f8e e5bd a5de 0fbd 001c 53bc 78e8 83be
000001b0: 162f 78bc 56ed e6bd 3f2f 6a3e 2a38 373e
000001c0: c9d9 383d 3a83 a4bd 428c 763e d46f 86bc
000001d0: 93e8 ebbb ab93 17be 04ed f53c 3683 5f3d
000001e0: 9f2f dcbc c83f a33d 014e ba3c a4fd bdbd
000001f0: cd42 113e 9d32 0c3e 37e8 023e 6b27 0abe
00000200: 797f 283e f175 0b3e 817d 5a3d 344f 1dbe
00000210: e015 7e3d 34c2 c5bd 4a2f cdbe f79b fb3a
00000220: 3e99 cfbd a403 053e cfd6 2f3d f1be 313e
00000230: a6b0 f73d 2e89 5bbe d1d1 9e3e 45dc 283e
00000240: 09d3 68bd e9a5 3abe 5f19 88bd 7913 4cbd
00000250: 0d25 9a3c 1780 633d 6139 bd3c 90d3 1ebd
00000260: 56b3 ef3d e915 a23d ff80 3bbe 6a54 923d
00000270: 429f 563d 3b70 5a3d e639 c7be 7cbe 983d
00000280: 7eb6 2b3e 13bd d63d 38e6 ef3d 8dc4 083e
00000290: 2e6b c73b ff91 d9bc 2057 db3d 3beb 903d
000002a0: 3e95 283e 4ecf 133d 8608 413b e3d6 95bd
000002b0: c8ba 0abe f49d a5be 599f b7bd 8b51 333d
000002c0: 421c c83d de29 a9bc 2769 1b3d 712a f5bd
000002d0: e680 f4bd 5f41 e6bd b784 dabd 58a6 14bc
000002e0: fcb1 d7bd 9da8 58bc e8a7 9ebc 1d41 62bd
000002f0: 44af 57be 36a6 113e ab41 3c3e d72e ddbc
00000300: 945f f03d e064 bebb 1dc9 80be e420 263c
00000310: cd63 fdbc caf1 bbbd b65c 8bbd a313 943d
00000320: f032 ec3d d685 debd 027d 0f3e 4d4e 8dbd
00000330: 0cb6 08bd 9cde 223e eed5 95bd 310c 19be
00000340: f60a 0abe 6459 ffbd f433 b73d ebee 6a3d
00000350: 4b7b 673d 6bfa 1fbe 8dec c03d a08c 6bbd
00000360: 5ece 0cbe 95dc 15be cc09 1fbe f067 a7bd
00000370: aae7 373e 8200 35bd fcfe 463e 2859 6fbd
00000380: 7f44 f83d d8b9 b43d 7c8a adbd a964 00bd
00000390: 705b 8e3d 697a f73d f6ab 72bd 3fd9 05be
000003a0: 1f47 733d ea5e b8bc c634 0cbe 41c9 f33d
000003b0: 0576 04be 429a 833d cf2d c83d 22f3 743d
000003c0: f836 de3d 272b 05be b8ad 6a3d e174 34bd
000003d0: 1679 1f3d 0425 d3bd 4a31 00be 6971 f6bd
000003e0: e2de ebbd 1a0b c93d f766 143e b47f 14be
000003f0: 9693 053d 8d89 ab3c 522d 99bd 0efd 7bbd

fc2.bias f4 [100]
0.18451509 0.023811417 0.19666316 0.22446397 0.22209735 0.087114334 0.26771635 -0.06666747
0.08376583 -0.22679761 0.0713529 0.13144675 0.17540295 -0.09172805 0.13002649 -0.21037327
0.20760024 -0.13055557 -0.07975685 0.21162593 0.116155215 -0.17338197 0.25803426 -0.22091211
-0.26102933 -0.24117148 0.083295904 0.21960856 0.11829631 -0.24895744 0.14889657 -0.20127079
0.121670164 0.21562079 -0.042212117 0.09391751 -0.26411045 0.17333664 -0.17594711 0.21271856
-0.17517565 0.047074135 -0.24156435 -0.15072373 0.114843115 0.10593707 0.17482108 -0.12392842
0.2664098 0.20242305 0.17415519 -0.11883947 -0.11215251 -0.19631621 0.24106549 0.2355285
0.27057424 -0.25811443 0.24252445 -0.16143647 0.20655209 -0.06991726 0.2090051 0.21816239
0.21957605 -0.26500943 -0.13513355 0.05686105 -0.25990954 -0.17897907 0.17197318 -0.15700874
0.20612033 -0.2158768 -0.12752467 0.21560468 -0.26025856 -0.17371084 0.11899913 -0.13887195
-0.010524564 -0.14793465 -0.070136145 0.03474068 -0.24174136 0.16856992 -0.16925459 -0.03445556
0.22791584 -0.14180459 -0.14283322 -0.12576926 -0.19840167 0.2049782 -0.10748776 0.17390242
-0.2305865 -0.24300663 0.23289658 -0.18556905
00000000: 86f1 3c3e 2910 c33c 1162 493e e2d9 653e
00000010: 7d6d 633e 0069 b23d 1e12 893e f488 88bd
00000020: 6b8d ab3d a23d 68be 7821 923d fa99 063e
00000030: d59c 333e eadb bbbd aa25 053e 176c 57be
00000040: 2895 543e 5cb0 05be 8f57 a3bd 78b4 583e
00000050: c9e2 ed3d 0b8b 31be 111d 843e c936 62be
00000060: a3a5 85be a8f5 76be 0b97 aa3d 11e1 603e
00000070: 5645 f23d b3ee 7ebe 5878 183e ee19 4ebe
00000080: 352e f93d b2cb 5c3e 9de6 2cbd d357 c03d
00000090: 7c39 87be 297f 313e 7b2b 34be e5d2 593e
000000a0: 3f61 33be cfd0 403d a55c 77be 5257 1abe
000000b0: de32 eb3d 89f5 d83d 4c04 333e 2fce fdbd
000000c0: de66 883e fd47 4f3e bd55 323e 1c62 f3bd
000000d0: 37b0 e5bd 1e07 49be dfd9 763e 622e 713e
000000e0: b588 8a3e 9327 84be 5458 783e 9a4f 25be
000000f0: 6482 533e c830 8fbd 6f05 563e f665 5f3e
00000100: 8bd8 603e 51af 87be 7360 0abe 22e7 683d
00000110: dd12 85be 4a46 37be bd19 303e e6c6 20be
00000120: 3511 533e cf0e 5dbe d495 02be 79c7 5c3e
00000130: 9c40 85be 41e1 31be d1b5 f33d 7334 0ebe
00000140: 396f 2cbc 2e7c 17be 8aa3 8fbd 3e4c 0e3d
00000150: 0c8b 77be 989d 2c3e 1351 2dbe 4621 0dbd
00000160: c562 693e 3935 11be df42 12be a8c9 00be
00000170: cf29 4bbe cee5 513e 8b22 dcbd 7a13 323e
00000180: de1e 6cbe bbd6 78be 717c 6e3e d005 3ebe

fc3.weight f4 [1, 100]
0.43056533 0.44948125 0.43289256 0.443327 0.44500437 0.43686566 0.43420076 -0.44037655
0.43990105 -0.43748185 0.42408466 0.4447956 0.43670872 -0.42624244 0.44353563 -0.43700886
0.43894228 -0.4398527 -0.44324383 0.42993882 0.44212887 -0.43488693 0.44259143 -0.43518123
-0.43097636 -0.4236992 0.42257237 0.44415733 0.44637653 -0.4432729 0.42837957 -0.43300387
0.4414644 0.43282282 -0.43935147 0.44158506 -0.4529035 0.43870124 -0.43719137 0.44097862
-0.43270516 -0.4328938 -0.4389563 -0.4452801 0.43731463 0.4482874 0.4317038 -0.43520853
0.43445438 0.4433908 0.4444257 -0.4390481 -0.43795887 -0.44200775 0.43882295 0.44126177
0.44111705 -0.42276338 0.43928602 -0.43114755 0.4389906 -0.44030792 0.43289047 0.43665355
0.43970364 -0.44269726 -0.43647635 0.44516855 -0.42821762 -0.42307848 0.44567272 -0.43250138
0.4382833 -0.44284675 -0.44467923 0.4351719 -0.439198 -0.44792 0.44275877 -0.44546697
-0.42118642 -0.41277045 -0.43317288 -0.44236585 -0.43568343 0.43913114 -0.4284689 -0.423591
0.4336868 -0.44705653 -0.42619962 -0.42294008 -0.44142658 0.44997755 -0.44212955 0.4444721
-0.44187495 -0.4535152 0.4171651 -0.43429503
00000000: 0f73 dc3e 6822 e63e 18a4 dd3e c2fb e23e
00000010: 9dd7 e33e dbac df3e 904f de3e 0979 e1be
00000020: b63a e13e 9ffd dfbe a021 d93e 40bc e33e
00000030: 4998 df3e 733c dabe 1a17 e33e a0bf dfbe
00000040: 0bbd e03e 6034 e1be dbf0 e2be f120 dc3e
00000050: b75e e23e 80a9 debe 589b e23e 13d0 debe
00000060: efa8 dcbe 1aef d8be 685b d83e 9768 e33e
00000070: 778b e43e aaf4 e2be 9154 db3e afb2 ddbe
00000080: 9f07 e23e f49a dd3e adf2 e0be 7017 e23e
00000090: f8e2 e7be 739d e03e 8cd7 dfbe f3c7 e13e
000000a0: 888b ddbe 42a4 ddbe e1be e0be c1fb e3be
000000b0: b4e7 df3e ed85 e53e 4808 dd3e a7d3 debe
000000c0: ce70 de3e 1e04 e33e c48b e33e eaca e0be
000000d0: 253c e0be d74e e2be 67ad e03e 10ed e13e
000000e0: 18da e13e 7174 d8be 19ea e03e 5fbf dcbe
000000f0: 60c3 e03e 0a70 e1be d2a3 dd3e 0e91 df3e
00000100: d620 e13e 37a9 e2be d479 dfbe 22ed e33e
00000110: 573f dbbe be9d d8be 372f e43e d270 ddbe
00000120: ab66 e03e cfbc e2be ffac e3be dace de3e
00000130: 8fde e0be c555 e5be 47b1 e23e 3f14 e4be
00000140: bfa5 d7be a656 d3be d6c8 ddbe c77d e2be
00000150: e611 dfbe ccd5 e03e 4760 dbbe ebe0 d8be
00000160: 320c de3e 98e4 e4be d636 dabe 9a8b d8be
00000170: aa02 e2be 7563 e63e ce5e e2be d991 e33e
00000180: 6f3d e2be 2533 e8be aa96 d53e eb5b debe

fc1.weight f4 [100, 14]
0.201823 0.16916235 0.14325817 0.23865773 0.13545415 0.16457516 -0.1426026 -0.1899884
0.05566308 -0.07261969 0.1260702 0.19106224 -0.1280228 0.25859198 -0.1586159 -0.07032975
0.046342537 0.12366785 0.09782146 -0.26962203 0.17074217 0.2704818 -0.103194654 -0.08295526
-0.16284698 0.019392869 -0.22946686 -0.105659805 0.019261591 0.006113615 -0.20183536 0.0036129283
-0.23732826 0.05776346 0.13263462 0.179535 0.21818972 0.044557426 0.117382415 0.2764378
-0.16531585 0.08689149 -0.037333317 -0.21852346 -0.20094512 0.14323488 -0.05639557 0.10078321
0.18959776 0.22344455 -0.21874276 0.17141728 0.22723208 -0.22583456 -0.2211039 0.17157236
-0.27352476 -0.078419395 0.08070741 -0.07284333 0.014981056 -0.1616209 -0.16241086 0.04197647
0.19989237 -0.07824686 0.1404146 -0.1907942 -0.28613693 -0.106452435 0.059107393 0.18765096
0.056412436 0.1927081 0.18502913 -0.2381289 0.12068977 0.24088164 -0.029308565 -0.10595525
-0.04637295 0.20917375 -0.22360972 -0.06440714 0.081189215 0.18832013 0.16822654 0.2537924
-0.0940893 -0.22738087 0.2206386 -0.043672614 0.09301213 0.110514656 0.15365057 -0.14419544
0.036096636 -0.1988677 -0.031430993 0.11141437 0.12791541 0.18552561 -0.26743844 -0.20190121
-0.15392269 -0.14435814 0.22492027 0.15497129 -0.023557698 0.039176773 -0.03916855 -0.070521235
0.22828458 -0.19687356 -0.0553426 -0.002765121 -0.12532692 0.09363137 -0.05163537 0.074944586
-0.1526439 0.12887248 -0.043153577 0.14256802 0.27983853 0.27532735 0.26314458 -0.02726145
0.1585227 -0.13264135 0.22083798 0.23043776 -0.1697214 0.18728533 0.0014611883 -0.19917515
-0.14336841 0.1890931 -0.049017783 0.17884624 -0.09038764 0.24594936 -0.082996346 0.13114887
-0.2160396 0.2310253 0.28019607 -0.17188555 0.24234366 0.08616129 0.19484782 -0.06636519
0.15585098 -0.01924622 -0.006972048 -0.15674199 -0.22691253 -0.023282008 -0.11907342 0.1890869
-0.24711639 -0.13845314 -0.0626699 0.10780821 0.19092943 -0.07279796 -0.25413394 -0.040861763
-0.0962139 0.28844443 -0.044161424 0.23240149 -0.02519844 0.2608657 0.23340942 0.11270198
-0.06529587 -0.110771075 -0.197569 -0.20023993 0.22378221 -0.17061426 -0.24700522 -0.17101428
-0.043135613 0.18094735 -0.07421115 -0.17704584 -0.25648263 0.09247116 -0.12889051 0.21468443
0.12396618 -0.18850094 -0.17566705 -0.033158906 -0.06712235 0.26621646 -0.24488851 0.056937832
-0.1996019 -0.15209466 -0.10377339 0.03580004 -0.0007632169 -0.041834373 0.1866599 0.29065943
-0.18266436 0.20744835 -0.16116884 0.08402327 0.0014798644 0.045968328 -0.05420251 -0.13725865
0.01405439 -0.22681637 -0.01577132 0.07718949 0.009166648 -0.10050423 0.21580628 0.07983004
-0.030618588 0.042150635 0.084290415 -0.15853597 -0.048582356 0.03254184 -0.16669689 -0.1853407
-0.10151062 0.18549584 0.057088174 0.19127852 -0.063467704 -0.02095082 0.011031098 0.2626307
-0.2758183 0.14185992 -0.18181738 -0.09420428 0.11706451 -0.017877271 0.25549963 -0.0499931
-0.005076332 -0.22440387 -0.24688368 0.094433606 0.23822106 -0.13864483 -0.18173592 -0.056604076
00000000: b0aa 4e3e e538 2d3e 45b2 123e b162 743e
00000010: 7eb4 0a3e 6486 283e 6a06 12be 528c 42be
00000020: f8fe 633d a2b9 94bd 8c18 013e d2a5 433e
00000030: 6918 03be 2b66 843e 356c 22be 0b09 90bd
00000040: acd1 3d3d 9245 fd3d 9e56 c83d e60b 8abe
00000050: 09d7 2e3e 977c 8a3e b857 d3bd 73e4 a9bd
00000060: 5cc1 26be cbdd 9e3c 5cf9 6abe 2b64 d8bd
00000070: 7cca 9d3c b854 c83b eead 4ebe e1c6 6c3b
00000080: 2e06 73be 6199 6c3d 5fd1 073e 06d8 373e
00000090: 206d 5f3e d981 363d 3166 f03d 4189 8d3e
000000a0: 8f48 29be 2af4 b13d d2ea 18bd 9dc4 5fbe
000000b0: 8fc4 4dbe 2aac 123e 0bff 66bd 6d67 ce3d
000000c0: ea25 423e a6ce 643e 1afe 5fbe 0388 2f3e
000000d0: 87af 683e 2d41 67be 1069 62be aab0 2f3e
000000e0: 700b 8cbe 599a a0bd ed49 a53d e22e 95bd
000000f0: 1a73 753c f37f 25be 084f 26be 85ef 2b3d
00000100: 96b0 4c3e e43f a0bd d8c8 0f3e 8e5f 43be
00000110: 8a80 92be bc03 dabd 981a 723d 9327 403e
00000120: ba10 673d 4655 453e 4778 3d3e 10d8 73be
00000130: 332c f73d ada9 763e 8418 f0bc 11ff d8bd
00000140: 90f1 3dbd a531 563e f2f9 64be e4e7 83bd
00000150: 8846 a63d fed6 403e 9443 2c3e 14f1 813e
00000160: e4b1 c0bd 88d6 68be 16ef 613e 0ee2 32bd
00000170: 257d be3d 8255 e23d 9356 1d3e f8a7 13be
00000180: 11da 133d f9a3 4bbe c9bd 00bd 382d e43d
00000190: 42fc 023e 6dfa 3d3e b1ed 88be 31bf 4ebe
000001a0: e99d 1dbe 9fd2 13be 8051 663e cbb0 1e3e
000001b0: 13fc c0bc d377 203d 346f 20bd 706d 90bd
000001c0: 6fc3 693e 3999 49be ecae 62bd 0837 35bb
000001d0: b355 00be cec1 bf3d 9c7f 53bd 8c7c 993d
000001e0: af4e 1cbe 26f7 033e cec1 30bd 5afd 113e
000001f0: ff46 8f3e b5f7 8c3e e3ba 863e 6853 dfbc
00000200: c653 223e 22d3 07be 5a23 623e e0f7 6b3e
00000210: 72cb 2dbe bac7 3f3e 5885 bf3a 92f4 4bbe
00000220: 2bcf 12be 9fa1 413e dfc6 48bd 7823 373e
00000230: 281d b9bd 26da 7b3e fdf9 a9bd e44b 063e
00000240: 7c39 5dbe e591 6c3e dc75 8f3e c402 30be
00000250: f028 783e 5575 b03d 3086 473e 79ea 87bd
00000260: 6697 1f3e 40aa 9dbc c775 e4bb f980 20be
00000270: c25b 68be e9b9 bebc c4dc f3bd ff9f 413e
00000280: 140c 7dbe a9c6 0dbe 1459 80bd 8dca dc3d
00000290: 0183 433e 1917 95bd d81d 82be aa5e 27bd
000002a0: cb0b c5bd fdae 933e 9ce2 34bd a8fa 6d3e
000002b0: f56c cebc 3090 853e e102 6f3e 4cd0 e63d
000002c0: d7b9 85bd f2db e2bd 874f 4abe b20b 4dbe
000002d0: 2a27 653e 81b5 2ebe f0ee 7cbe 5e1e 2fbe
000002e0: f8ae 30bd 434a 393e 04fc 97bd 814b 35be
000002f0: b151 83be 8561 bd3d e0fb 03be 3cd6 5b3e
00000300: fbe1 fd3d 6406 41be 10e2 33be a2d1 07bd
00000310: 7177 89bd 864d 883e 0ec4 7abe a537 693d
00000320: 7164 4cbe b4be 1bbe 2587 d4bd 10a3 123d
00000330: 9f12 48ba 855a 2bbd c623 3f3e 50d1 943e
00000340: 5e0c 3bbe 576d 543e 7209 25be 6414 ac3d
00000350: 02f8 c13a 4949 3c3d 7303 5ebd 888d 0cbe
00000360: 6244 663c 8d42 68be db32 81bc 8615 9e3d
00000370: b52f 163c 29d5 cdbd 52fc 5c3e ef7d a33d
00000380: d5d3 fabc 25a6 2c3d 74a0 ac3d 4157 22be
00000390: 4bfe 46bd 984a 053d 97b2 2abe f4c9 3dbe
000003a0: cde4 cfbd 9ff2 3d3e 4ad5 693d 84de 433e
000003b0: 5bfb 81bd 0ea1 abbc c7bb 343c 8877 863e
000003c0: 0e38 8dbe ba43 113e 562e 3abe 2cee c0bd
000003d0: 85bf ef3d 5b73 92bc d9d0 823e 91c5 4cbd
000003e0: 5c57 a6bb 21ca 65be 13cf 7cbe 6866 c13d
000003f0: 39f0 733e e9f8 0dbe fb18 3abe add9 67bd
