mujoco/gail/save_model/ckpt_493.pth.tar (torch, 144879 bytes, 16 tensors)

fc1.weight f4 [100, 11]
000000 14 ca 8e bc ef 23 62 be 78 64 de 3d 20 18 ab bd
       -0.017430343 -0.2208402 0.10859007 -0.08354211
000010 ef c6 b6 3d f9 21 cf 3d a4 f7 8d be 65 9a 53 3e
       0.08924662 0.10113902 -0.27727997 0.20664366
000020 c0 9a 43 3e f1 21 8e 3e 26 ac e9 3b ea 92 af 3e
       0.19102001 0.2776027 0.0071311174 0.34291774
000030 09 2c f2 bd 7d ba 15 3d d8 10 86 be 22 c9 f9 3d
       -0.11824805 0.036554802 -0.26184726 0.12196566
000040 56 78 8c 3d 61 1a 9d bb a6 1a ab 3d a7 29 13 3e
       0.0685889 -0.0047944044 0.08354692 0.14371358
000050 11 c8 23 3e da eb 6b 3e 89 b4 48 3e a4 05 d6 bd
       0.15994288 0.23039189 0.19600119 -0.104502946
000060 e5 54 8d be 87 60 a7 3d 11 21 05 3e 3a e5 52 be
       -0.27603832 0.08172708 0.13000895 -0.20595255
000070 69 b8 3e bd 52 a8 84 3e 40 cf 35 bd e0 6d a3 bc
       -0.046562586 0.25909668 -0.044387102 -0.019949853
000080 08 33 06 3e de 14 54 3e 76 d0 1d be 36 20 d6 3b
       0.13105404 0.20711085 -0.15411553 0.0065346016
000090 10 b4 39 3e f1 b9 1b 3d 49 8c 57 3e 33 eb 9d be
       0.18135095 0.038019124 0.21049608 -0.30843505
0000a0 e2 77 54 bd 3d cb 90 be ff 24 92 3e 6d 49 b4 be
       -0.05187214 -0.28280059 0.2854385 -0.3521227
0000b0 05 73 a6 3d b7 7a 8b 3e 95 57 56 3e 1f 85 9a be
       0.08127407 0.27242061 0.20931847 -0.30179688
0000c0 13 94 41 bd 3f 72 f4 3d 16 16 5e be ad 53 b9 bc
       -0.047260355 0.11935853 -0.21688113 -0.022622908
0000d0 27 e5 7b 3e b1 9c a0 3d 5c cb c7 3d 6f f6 89 3e
       0.24599133 0.078423865 0.097555846 0.26945826
0000e0 a4 5a 9e bd da 46 3c bd 6c a6 dc 3d c6 07 da 3e
       -0.07732132 -0.045966007 0.1077393 0.42584056
0000f0 c8 ec 1c 3e e9 f2 a6 3d 02 dd 22 be da b8 66 bd
       0.153247 0.081518 -0.1590462 -0.056328632
000100 0e 3f 34 bd 95 9d f3 3c e6 31 85 3e 36 35 72 be
       -0.044005446 0.029738227 0.26014632 -0.23653111
000110 2a 99 a0 3e f6 dd 81 be 13 28 b5 bb 48 9a 4d be
       0.31366855 -0.25364655 -0.005528459 -0.20078385
000120 bb 8c 95 3e 4e 2f 30 bd 40 9f 84 bd 5c 5d 4a be
       0.2920893 -0.043013863 -0.06475687 -0.19762176
000130 94 2c 0c be c6 9d 82 3c 9b 5e c0 3e dc 65 62 be
       -0.1368888 0.015944373 0.37572178 -0.22109169
000140 0c 20 39 be 28 cb 6b 3e 54 d0 38 3e 1a 43 3e 3e
       -0.18078631 0.23026717 0.18048221 0.18580285
000150 d3 85 ee bc ab 0c 9a be 15 f0 5b 3e d3 07 67 3e
       -0.029116547 -0.3008779 0.21478303 0.22561578
000160 3f 99 c6 bd 6e 60 02 3e 4c 4c 8c be ba 56 88 be
       -0.09697198 0.12732098 -0.2740196 -0.26628667
000170 49 b6 71 3e 89 a3 66 3e 74 49 af 3d 6b 18 20 be
       0.23604693 0.22523321 0.08558932 -0.15634315
000180 7e 6d ae 3e ab 25 77 be b7 78 40 3e 8f ee 8d bd
       0.3406791 -0.24135463 0.18796049 -0.06930267
000190 fa 26 3a 3e 17 e7 c2 bd ee af 67 3d a8 f7 8e 3e
       0.18178931 -0.09516733 0.056564264 0.27923322
0001a0 24 05 51 be 69 74 37 3e b7 5f b8 3e ab 55 68 3e
       -0.20412117 0.179155 0.36010525 0.2268893
0001b0 78 9d 81 3e bc e3 b6 bd 84 20 a3 be b3 2c 90 bd
       0.25315452 -0.08930156 -0.31860745 -0.07039776
0001c0 c4 74 81 3d 74 dd a4 be 02 ab 14 be 7c 1e 56 3e
       0.063210994 -0.32200205 -0.1451836 0.20910066
0001d0 14 07 b3 bd c1 4b 56 3e f1 69 e3 3d c9 bc 45 3e
       -0.087415844 0.20927335 0.11104191 0.19310297
0001e0 fc 06 88 bd cd 0f 95 be 14 65 3c bd 2a 45 49 bc
       -0.06641957 -0.29113618 -0.045994833 -0.012284556
0001f0 70 e9 6d bc 7d 8c 82 3e 50 9f a4 3e 20 ce d2 bd
       -0.014520988 0.2549781 0.32152796 -0.102932215
000200 1d 71 71 bd 77 fd 7f bd 54 4b 28 be e8 85 75 3e
       -0.058945764 -0.062497582 -0.16434985 0.23976862
000210 66 0a 10 bd ba e1 43 3e 13 f8 06 be b6 cd 3b 3e
       -0.035166167 0.19129077 -0.1318057 0.18340191
000220 f4 9f 0f 3e f0 ee 11 be e8 eb 5f 3c 99 a7 98 bd
       0.14025861 -0.14251304 0.013667084 -0.07453842
000230 e6 09 88 3e c1 a6 c3 3c 34 73 99 3d 7c fa 43 3d
       0.26570052 0.023883225 0.074926764 0.047846302
000240 fb 91 bb 3d 00 c3 35 be f7 f0 56 3e 68 0d 8b bd
       0.09158703 -0.17750168 0.20990358 -0.067896664
000250 10 ed d7 bd a2 2c ff 3c 7c 26 80 3e 0e 46 bf 3e
       -0.10543263 0.031149212 0.2502936 0.37358135
000260 84 80 4c be 2d de 9a 3c 07 17 8b be ed 00 c6 bd
       -0.199709 0.01890477 -0.27166006 -0.09668145
000270 a0 28 3e 3e d6 66 83 3e 81 24 ee bc 79 57 b2 bc
       0.18570185 0.25664395 -0.02907014 -0.021770226
000280 81 16 a2 3e 77 03 9e 3e 4e c4 d5 3c 31 f6 2d 3e
       0.31657794 0.30862018 0.026094582 0.16988446
000290 e7 1b 06 3e 45 10 03 be 7f fd 04 be b9 7d 79 3d
       0.13096581 -0.12799175 -0.12987326 0.060910914
0002a0 1f 14 3d 3e 0f fa 93 3e 21 b7 ba 3d 85 a3 ed bd
       0.18464707 0.28901717 0.0911696 -0.116034545
0002b0 f2 31 26 bb d6 48 8a 3e 08 5b 09 3e 14 68 6c bd
       -0.002535936 0.27008694 0.13413632 -0.057716444
0002c0 ac 08 eb 3d 3b 3e aa be cc f5 89 3d 63 cc 43 3e
       0.114762634 -0.33250603 0.06736335 0.19120936
0002d0 37 28 1b 3e a7 2b 8c 3e fc e0 a2 be 8e db 90 3e
       0.1515206 0.27377054 -0.31812274 0.28292507
0002e0 a0 5e 72 3e 31 29 59 3e 32 3b 7e 3e 8d b7 5f 3d
       0.23668909 0.2120712 0.24827269 0.054618407
0002f0 88 f3 95 be a0 7c 30 3d 51 86 49 be cf 47 33 bd
       -0.29287362 0.0430876 -0.19680144 -0.043769654
000300 f0 64 97 be 89 8a 27 3e 89 5b 6a 3d 54 94 07 be
       -0.29569197 0.1636144 0.0572162 -0.13240176
000310 bc df 55 be c6 e3 3b be c0 49 82 3e 36 00 9a 3e
       -0.20886129 -0.18348607 0.25446892 0.30078286
000320 bc d1 4c 3e ac 6c 15 be 7a 9c bb bd 9a ac 67 3e
       0.20001882 -0.14592236 -0.09160705 0.22624436
000330 e2 59 c0 bc 9a 97 6b bc 9d c2 87 be 5b 3e 63 be
       -0.02348036 -0.014379406 -0.26515666 -0.22191755
000340 6c f2 63 3e 2b b3 1e bd b3 1d a3 3e 1b f8 8d be
       0.22260445 -0.038745087 0.31858596 -0.27728352
000350 db ca d5 3d ab ca 5e 3e cb 8a a0 be e4 dc 81 be
       0.10439082 0.21756999 -0.3135589 -0.2536384
000360 a0 ba 83 be da a0 00 be 7b b7 c9 3d bf 9a 86 be
       -0.2572832 -0.1256136 0.09849449 -0.26289937
000370 c1 4a 70 be d3 04 82 be 44 b3 79 bd 06 ee 73 3e
       -0.23466016 -0.25394306 -0.060961977 0.23821267
000380 83 c8 b6 bd 66 96 6a 3c fd 6a eb bd f2 76 0d bd
       -0.08924963 0.014318084 -0.11495016 -0.034537263
000390 a8 45 d4 3b b1 78 14 be 09 aa 6d be 56 ad 4c 3e
       0.0064780302 -0.14499165 -0.23209395 0.19987997
0003a0 6f 01 46 3d 7d 28 b8 3d 90 8b 18 3e f4 fb ba 3e
       0.04834121 0.089920975 0.14896989 0.3652035
0003b0 20 6d 65 be a2 14 28 bc 0f 9e 9f 3d 7a 17 0d be
       -0.22404909 -0.0102588255 0.07793819 -0.13778487
0003c0 93 2c 87 3e 9c 0f 3b bd 0b 12 eb 3c ec 51 63 be
       0.26401195 -0.045669183 0.028695127 -0.2219922
0003d0 92 ac 04 3e 2f 5f 36 3e fd 39 7e 3e be 39 95 3e
       0.12956455 0.17809747 0.24826808 0.29145616
0003e0 7c d0 13 be 50 b2 86 bd 60 ac ea bd 80 9f 0a 3e
       -0.14434999 -0.06576979 -0.11458659 0.13537407
0003f0 6d 13 86 be f2 f0 e5 3d 08 b9 04 3e 4d bd 06 bc
       -0.26186696 0.11227597 0.12961209 -0.008223844

fc1.bias f4 [100]
000000 03 6a 63 be e5 b6 8d be 3e 4e 9f bd fe a7 d5 3d
       -0.22208409 -0.276786 -0.077785954 0.104324326
000010 fe a5 b3 3d 36 14 fa bd c5 ce c4 bd ba 9c 31 ba
       0.08771895 -0.12210886 -0.09609751 -0.0006775368
000020 17 18 fc bc cf f6 9a be 15 d8 7e 3d af 27 df 3d
       -0.030773206 -0.30266425 0.06221779 0.10896241
000030 80 ad 10 be 32 a8 52 3e 1a af 52 3e e0 b9 94 be
       -0.14128685 0.20571974 0.20574608 -0.2904806
000040 95 4f 57 3e e2 d1 6c 3e 43 bd 08 be 74 5c 7c 3d
       0.21026452 0.23126939 -0.13353448 0.061611608
000050 a6 93 b4 3b 5e 43 99 be d7 7c f1 3d 17 51 48 be
       0.005510765 -0.2993421 0.117913894 -0.19562183
000060 15 b0 43 3d 61 7c ef 3d bf e1 6a be e5 65 30 be
       0.047775347 0.11693645 -0.22937678 -0.1722637
000070 ad 77 87 3e 9a 7d 01 3e ad b7 55 be e2 3f 73 3d
       0.26458493 0.1264557 -0.20870848 0.059387095
000080 5f 44 4d 3e 69 b1 70 3e 9a 20 b6 be 6f fc a5 3d
       0.20045613 0.23505177 -0.35571748 0.081047885
000090 8a 0b 0d 3e 75 09 19 3d a5 78 58 be 37 33 1a 3e
       0.13773933 0.037362535 -0.21139772 0.150586
0000a0 b9 56 49 3e 38 57 71 3e b7 1b db 3b b1 7f 8d be
       0.19661988 0.23568428 0.0066866535 -0.27636483
0000b0 94 83 e0 3d 7e 00 01 3d 73 e4 67 be eb 15 8d be
       0.109625965 0.03149461 -0.2264574 -0.27555785
0000c0 00 f5 02 3e 22 fd ae 3e d8 b9 c1 3d e8 73 8f 3e
       0.12788773 0.341775 0.09459275 0.28018117
0000d0 11 64 79 be a0 46 38 be ed 72 74 3c 59 8c 3e 3e
       -0.24354579 -0.17995691 0.014919979 0.18608226
0000e0 b0 d9 60 bd bd cc 85 3e 3e f7 6d 3e 11 b8 78 3e
       -0.054895103 0.26132765 0.23238847 0.24288966
0000f0 6a cd 55 be 4a 75 aa 3e 17 08 86 3e 34 93 cb 3d
       -0.2087914 0.3329261 0.26178047 0.09940186
000100 bb e5 07 be 79 8d 8c be 98 6d 78 bd b4 c9 d1 bd
       -0.13271229 -0.27451685 -0.06065139 -0.1024355
000110 86 33 1a bd 26 07 0e 3d ae 8f a1 3e 44 53 5b bd
       -0.037646793 0.034674786 0.3155493 -0.053546205
000120 52 10 5e 3e 75 9b a9 3c d8 11 8a be d7 ca 84 be
       0.21685913 0.02070401 -0.2696674 -0.25936005
000130 1e 18 42 3e d2 c6 23 3e 97 09 76 3e a9 7c a7 3e
       0.18954512 0.15993813 0.24027096 0.32712296
000140 7b dd a3 be c7 15 81 be 12 9a 15 3e ea a3 50 3e
       -0.32004914 -0.25211927 0.14609554 0.20375028
000150 15 6b af 3e 87 aa 97 be e3 9f 11 be 9d 56 70 3e
       0.34261385 -0.2962229 -0.14221148 0.2347054
000160 63 7c 85 3e 18 77 4c bd 97 03 99 3e bf f7 87 3e
       0.26071462 -0.049918264 0.2988555 0.26556203
000170 62 3e 97 3b 96 59 95 3e d5 a6 68 be 22 e1 60 3e
       0.004615591 0.2916991 -0.22719891 0.21960881
000180 08 c8 8b 3e 4f 98 0f bd a4 6a 39 3e 9b 0c 72 3e
       0.2730105 -0.035057362 0.18107086 0.23637621

fc2.weight f4 [100, 100]
000000 ed a9 ea 3c a8 ef 1d bd 0b 7a d1 bc ae 5a 4c 3d
       0.02864548 -0.038558632 -0.02557089 0.049891166
000010 20 81 42 3c e5 e9 4a bd d8 b7 46 bd ad db 88 bc
       0.011871606 -0.049539465 -0.04851517 -0.016706312
000020 ba 93 94 ba 9a 27 ee bd 70 bd 9e 3d 47 4e 72 3c
       -0.001133553 -0.11628647 0.07750976 0.014789171
000030 8f fa 87 bb ad 17 1c 3e 94 83 21 3e 95 22 03 3e
       -0.004149742 0.15243407 0.1577285 0.12806161
000040 d3 9a f5 bb 0f 5f 28 bd f9 65 07 be 72 45 78 3d
       -0.007495263 -0.04110628 -0.13222493 0.060613103
000050 76 c3 3e 3d 28 14 56 3d 25 9b ea 3c 2c 91 f7 b9
       0.046573125 0.052265316 0.028638432 -0.00047219673
000060 5c 31 2f bd 40 8f 3d 3c 71 04 1a bd 7a 21 a3 bd
       -0.042771682 0.011569798 -0.037601892 -0.079653695
000070 e4 05 cd bd 08 7f d4 bb 16 30 2d 3b 50 5b 02 bd
       -0.10010889 -0.00648487 0.0026426367 -0.031825364
000080 3e b1 11 3e 65 f3 5a bd 3d 52 d7 3d 9f a3 93 3d
       0.14227769 -0.053454775 0.105137326 0.072089426
000090 42 4d 19 be e8 e4 d0 3d 23 d9 cb 3c 2f 58 15 bd
       -0.14970878 0.101999104 0.024883812 -0.03646105
0000a0 26 e3 03 3e c2 51 05 39 02 86 bf 3d fe 8c a9 3d
       0.12879619 0.00012714326 0.09351732 0.08278845
0000b0 5f b3 f8 3d ac 6b eb 3d 7d df 92 bd ba 48 2a bd
       0.12143587 0.11495146 -0.07171533 -0.041573264
0000c0 e7 7b 25 bd 80 3b 5a bd 8c ce ce bb 5b 07 03 be
       -0.040401366 -0.0532794 -0.0063112434 -0.12795775
0000d0 1b e2 86 3d 13 1c db 3c 9a e3 3f bd 2a 99 c2 bc
       0.06586095 0.026746785 -0.046847917 -0.023754675
0000e0 f8 25 bd 3c b9 3d 07 3e 04 ba 97 3c e0 15 7a 3c
       0.023089394 0.13207139 0.018521316 0.0152640045
0000f0 6e 68 6d bc b3 4b 86 bd 2c f8 cd 3d 3d 5c 94 3b
       -0.01449023 -0.06557407 0.10057101 0.004527597
000100 cc 5d 02 3d 2b 6b 99 3d af ff e9 3d 1c 5e c6 3c
       0.031827733 0.07491144 0.11425721 0.024214797
000110 fc 96 32 3d 07 63 d4 bd 7e 3e 1e bd 07 10 51 bd
       0.04360102 -0.103704505 -0.038633816 -0.051040675
000120 ff 9f 65 3d c0 87 86 3d 9d 24 f3 3d db 1e ec bd
       0.056060787 0.06568861 0.11872218 -0.11529323
000130 80 01 f0 bd 40 b1 1c 3e f2 3c 02 3d 84 a1 74 3b
       -0.11719036 0.1530199 0.031796403 0.0037327716
000140 73 9f ad 3c 5e 54 5b 3c 00 40 94 3c a9 06 a0 3d
       0.021194195 0.013386814 0.018096924 0.0781377
000150 2c 99 28 3d b7 d1 a6 3c 74 69 0e 3e b1 17 ed 3c
       0.0411617 0.020363672 0.13907415 0.028941961
000160 42 a9 d5 bd 6b b5 9b 3d 8a 2f 00 3c be f2 01 bd
       -0.10432674 0.07602962 0.007823834 -0.031725638
000170 62 18 ce bd 53 f4 b3 bd 4f b9 81 bb 86 10 28 3d
       -0.100632444 -0.087868355 -0.003958858 0.041031383
000180 85 6f 81 3d 60 bd df bd 74 15 9e 3c df 26 12 3d
       0.06320099 -0.10924792 0.019297339 0.0356816
000190 58 bc b7 bd d8 33 9b bd a9 ef c2 3d c0 b8 d9 3d
       -0.089714706 -0.07578248 0.09518368 0.106309414
0001a0 5c fa f2 bc 5a df e5 3a c4 49 a9 3d 1d 0c 17 3e
       -0.029660396 0.0017537877 0.08266023 0.14750715
0001b0 d7 40 89 3c 9d 72 1a 3d f7 2d f2 3d 1b 42 97 bd
       0.01675455 0.03770696 0.11825173 -0.073856555
0001c0 04 45 9e bd 99 07 96 3c ab cf 30 3d ad 15 1e 3d
       -0.077280074 0.01831417 0.043166798 0.03859489
0001d0 93 0a b5 3d 2e 18 4f 3d 86 6a c4 3c 99 a4 76 bd
       0.088399075 0.05056017 0.023976576 -0.060215566
0001e0 0d 39 90 bd ef f4 79 3d 5d 07 0e 3e 0e 55 f5 3b
       -0.070421316 0.061024603 0.13869996 0.007486946
0001f0 c1 9e 19 bd 32 2a e6 3c d7 f2 25 bd ca 8f 4b bd
       -0.037504915 0.028096292 -0.040514793 -0.049697675
000200 06 b2 43 3c 9b 5c 16 3e a9 37 0d be 35 30 8d bd
       0.0119443 0.14683764 -0.13790764 -0.068939604
000210 d4 9d 53 bc 9f 89 6d 3b 6b 17 be 3c 6c aa d5 bc
       -0.012916047 0.0036245359 0.023204526 -0.02608224
000220 8c ee 3a bd 80 18 a2 3d 69 c4 98 3d a9 62 76 bc
       -0.045637652 0.07914829 0.07459337 -0.015038171
000230 00 22 b8 bc be 2c 7d bd 78 cb ad bd 08 6d c8 3d
       -0.02247715 -0.061810248 -0.08486074 0.09786421
000240 b1 98 81 bd 7f 4b 00 be 7e bb 1b 3d c5 44 62 bd
       -0.06327952 -0.125288 0.038020603 -0.055241365
000250 73 d2 28 bd c8 65 b4 3d ce dc 48 3d 4c 5f dd bc
       -0.041216325 0.08808476 0.0490387 -0.02702298
000260 aa b8 94 3d 95 6b 77 bd 66 3a 9f 3d 1f 41 ba 3d
       0.072617844 -0.060405333 0.077748105 0.09094452
000270 88 07 27 3d 3a 20 0a bc ec 44 c8 bb 93 db 6f 3c
       0.040778667 -0.008430535 -0.0061117318 0.014639753
000280 33 c7 8b 3c 30 72 83 bc 1c 77 06 3b 9d 5b ec 3d
       0.017062759 -0.01604566 0.0020517772 0.11540911
000290 26 87 a7 bd a0 01 b6 bd f2 7b 24 bd 67 17 e5 3c
       -0.081800744 -0.08887029 -0.040157266 0.02796526
0002a0 23 50 de 3d 59 49 20 3e de e5 86 3d 4e 7a a8 bd
       0.108551286 0.1565298 0.065868124 -0.08226453
0002b0 4b b6 5b 3b ed ef 6d bd 16 65 4a bd b4 98 7e bd
       0.0033525403 -0.05809014 -0.04941281 -0.062157348
0002c0 18 f7 07 3d a0 e3 cb bd 90 be f3 3b 9c 96 0a 3e
       0.03319463 -0.099555254 0.0074384883 0.13534015
0002d0 cb b8 eb bc b6 d5 9d bd 7a 2d d8 bd ec 58 a6 bd
       -0.02877464 -0.07706778 -0.10555549 -0.08122429
0002e0 87 b8 ae 3d 02 f8 87 3d 9c fe 81 3d 2b e5 5a bd
       0.085312895 0.066391006 0.06347391 -0.053441208
0002f0 bd 50 89 bd d9 cb e8 3d f7 dc 5d 3d ec 46 50 bb
       -0.06704853 0.11367006 0.054165807 -0.0031780554
000300 bd 4d 09 bd ec 1d 56 3d 4e 8b a4 bd 93 c5 6e 3d
       -0.033521403 0.05227463 -0.08034383 0.05829389
000310 fb f1 c0 bd 07 25 91 bc c0 eb 2a 3b 20 4e 40 bd
       -0.09421154 -0.017717851 0.002608046 -0.046949506
000320 3b 42 e5 3d 47 22 96 bd 9f 51 89 3d 1c 1f ff 3c
       0.11194273 -0.07330757 0.06705021 0.031142764
000330 2c 52 55 bc e9 4e 90 bd 6c c3 f0 3c 58 60 0a be
       -0.01302008 -0.07046301 0.02939006 -0.13513315
000340 6f 8a 23 bd 09 bf 2e 3d 16 bd 2b bd f9 c9 d5 3d
       -0.039926942 0.042662654 -0.041928373 0.10438914
000350 e5 52 88 bc dc 7f de 3d 0c a6 fd 3d fe 7d 88 bd
       -0.01664109 0.10864231 0.123851866 -0.06664656
000360 65 2c 84 3d 8a 48 25 3d e7 cd a5 bd ee c6 4d 3d
       0.0645378 0.04035238 -0.080959134 0.050238542
000370 91 0d 2c 3e 88 eb 07 be 40 65 bb 3d 12 7b b1 bc
       0.1680205 -0.13273442 0.09150171 -0.02166513
000380 f8 e1 f8 3b 7b 37 e6 3b e5 d6 a1 bd ac cd 69 bb
       0.007595297 0.0070256568 -0.07902316 -0.0035675569
000390 7f 05 27 bd 2c ff 52 3d 16 6d ac bd 01 b4 b0 3d
       -0.040776726 0.051512882 -0.08419244 0.08628083
0003a0 e6 cc 79 3d 07 85 3d bd 78 9d b0 ba 84 5a ce 3c
       0.060986422 -0.046269443 -0.0013474664 0.025189646
0003b0 9b ac af bd 5f db 40 bd 3b a8 d4 bd 30 c9 84 3c
       -0.08577844 -0.04708421 -0.1038365 0.016209215
0003c0 4a 43 95 3d 98 5a 8d bd f4 50 06 3c 29 f2 d7 3d
       0.07288225 -0.06902045 0.008198012 0.10544235
0003d0 e5 77 64 3d b3 e5 c1 3c 86 b3 60 3d df 43 e2 bd
       0.055778403 0.0236691 0.054858707 -0.11048102
0003e0 f7 a8 8c bc 35 f9 58 bd 5c 7b 74 3d 43 c6 90 bd
       -0.017170412 -0.052972037 0.059687957 -0.070690654
0003f0 bd 72 d2 3c 0a a2 ec bc 1c bb ab bd 24 27 27 bd
       0.025689477 -0.02888586 -0.08385298 -0.04080881

fc2.bias f4 [100]
000000 2d b2 4e bd 12 ec 63 3d a8 b3 2d bd e0 dc 8c bd
       -0.05046289 0.055645056 -0.04240766 -0.06878066
000010 7e f1 16 bd e4 ce 03 3d b1 9b 49 3e 96 7c f2 bc
       -0.0368514 0.03217973 0.19688298 -0.029600423
000020 04 0d 7f 3c ba 3e 68 be f5 a2 63 3c c6 f7 07 3e
       0.015567068 -0.22680178 0.013893832 0.13278112
000030 17 72 1a bd 25 77 e5 bc 7b 12 14 bd 47 d3 3e bd
       -0.03770646 -0.028010914 -0.036150437 -0.04658821
000040 2b 70 1e be 25 13 da 3d 21 8a 95 bd ab 73 99 3d
       -0.15472476 0.10648183 -0.073017366 0.07492765
000050 6c c9 05 3d 7f 8c c6 3c 1c e2 99 3c 61 91 7e 3c
       0.032662794 0.024236916 0.018784575 0.015537591
000060 88 e3 2a bd 5f dd 90 3d a3 39 61 bd 9d 59 50 3d
       -0.041720897 0.07073473 -0.054986607 0.050866712
000070 bd f0 8e bd 95 77 a5 3d 52 31 ff 3c 18 ad 72 3d
       -0.06979511 0.08079449 0.031151447 0.059247106
000080 71 03 19 bd a6 bf ac bb 33 fa 97 3d 72 9f bf 3d
       -0.037356798 -0.0052718697 0.074207686 0.09356584
000090 10 77 67 3d 97 bd 95 bd a9 8f 98 bd d4 19 19 bd
       0.05651003 -0.07311552 -0.07449276 -0.037378147
0000a0 55 14 62 bc 80 4d b8 3d 9c fe d1 3a 67 e5 51 3c
       -0.013798793 0.08999157 0.0016021314 0.012811041
0000b0 09 1e 74 3d 89 db 1d bd f8 be aa bd 6f ba 9d bd
       0.059598956 -0.038539443 -0.08337206 -0.07701575
0000c0 d9 ee 9f 3b 08 08 dd 3c 08 fd 00 3d ab 0b 18 bd
       0.004880768 0.026981369 0.03149131 -0.037120502
0000d0 04 2c ff 3d 4d aa ff bd 58 64 1f 3d 84 75 69 3d
       0.12459567 -0.12483654 0.038914055 0.056996837
0000e0 8d 7a 05 be fd 9c c1 3c 73 d5 54 bd dd e1 ad bc
       -0.1303503 0.023634428 -0.051961374 -0.021225864
0000f0 00 4b 7c bd 5e 46 25 3d 25 33 b0 bd 8d 3a 7f bb
       -0.061594963 0.04035031 -0.08603505 -0.003894481
000100 0c 60 84 bd 48 50 57 bc 6c bb 60 3c f4 78 65 bc
       -0.06463632 -0.013141699 0.01371656 -0.014005888
000110 7f 22 90 bd 23 e6 b1 bb 66 5c 0c 3d 06 84 a9 bb
       -0.070378296 -0.0054290458 0.034267806 -0.005173209
000120 d6 9b c9 3c b7 06 f7 3d 94 ec b2 bd bc d9 c6 3d
       0.024610441 0.12061828 -0.0873653 0.09709498
000130 69 be 12 3b 2c 89 37 3d e4 93 70 bd d7 4d 51 bd
       0.0022391325 0.04480855 -0.05873479 -0.051099624
000140 cf c2 f0 3c 8f 5b 0f be 19 65 fa bb 38 78 4b bd
       0.029389767 -0.1399977 -0.0076414463 -0.049675196
000150 a9 fe a8 3d 02 9f 62 3d d6 ed b0 bb 28 8e 1d bd
       0.082516976 0.055327423 -0.005399446 -0.03846565
000160 25 cd d9 3d 4d 2f 20 3e 44 c5 12 3b f9 22 eb bc
       0.10634831 0.15643044 0.0022395412 -0.0287032
000170 91 e2 1f 3d 95 30 db bc b5 9c b5 bd da e7 79 3d
       0.03903443 -0.026756564 -0.0886778 0.061012127
000180 f7 97 45 3e 0d 6f de 3d 7c 5f 1f b9 40 89 9f bd
       0.19296251 0.10861025 -0.00015198992 -0.0778985

fc3.weight f4 [3, 100]
000000 fa 3e af 3a 1a 51 d2 3c e2 8f 8f 3a 05 34 f8 bc
       0.0013370209 0.025673438 0.0010952915 -0.030298242
000010 d4 ec 8b 3d 40 5d 36 3d e7 f0 cd 3c 88 1d a0 bd
       0.06832281 0.044522524 0.025139285 -0.07818133
000020 4e 53 24 bb 87 a4 b4 bd 67 c5 c5 3c 65 ba ab 3c
       -0.0025074068 -0.088204436 0.02414198 0.020962903
000030 cc ed dd bb 29 c3 7a bc 7e bf 34 3b 03 8b 75 bc
       -0.0067727324 -0.015305319 0.0027579959 -0.014986756
000040 9b 34 9f bc 63 91 51 3d f0 18 f3 bc f6 79 63 bb
       -0.019434264 0.051164042 -0.029674977 -0.0034710146
000050 f2 89 76 3c 44 ef 81 3c e4 d6 16 bc d2 a1 fc 3c
       0.015047537 0.015861161 -0.009206507 0.03083888
000060 ee db 36 ba a5 f5 cb 3b 79 3e 80 bc b5 dc c9 bc
       -0.0006975521 0.0062243515 -0.01565479 -0.024641374
000070 d0 f8 5d bc 26 c9 44 bd 85 49 9b bd 2b b8 ca bd
       -0.013548091 -0.048043393 -0.07582382 -0.098984085
000080 67 1a 96 3d 1c 6f e1 3c bc 2d 2c bc 15 0e de 3c
       0.073292546 0.027518801 -0.010508951 0.027106324
000090 73 0b 71 3c 26 33 59 bd be d6 d2 39 34 79 9d bb
       0.014712202 -0.053027295 0.00040214317 -0.0048057083
0000a0 74 2f 98 bc bd 2c 9b 3d 3b 8c df bb 2a 06 5c bd
       -0.018577315 0.075768925 -0.0068221367 -0.053716816
0000b0 21 d6 e4 3c b8 fb 01 3d d0 59 c8 bd 10 d9 6b bc
       0.027934136 0.0317342 -0.097827554 -0.014395013
0000c0 e6 71 52 bd 61 be 05 3b 99 8d c8 ba 2f c4 b8 3c
       -0.051378153 0.0020407664 -0.0015300988 0.022554485
0000d0 92 be 0e 3c cb 20 02 bd 99 ec 21 3c fe 32 14 3d
       0.008712428 -0.031769555 0.009883069 0.036181442
0000e0 65 c6 02 3e 69 24 7e ba 8e a0 1f 3c 42 b4 ae 3c
       0.12770994 -0.00096947566 0.009742869 0.021326188
0000f0 60 12 24 3c c3 fb 2d 3d f6 c3 3b bd 1f 6d 40 3c
       0.010014147 0.042476427 -0.04584118 0.0117447665
000100 91 28 83 bc fd 52 04 3c 29 85 05 3d de d1 39 3c
       -0.016010555 0.008076427 0.032597695 0.01134154
000110 75 5f 9a 3c d8 e0 05 bd c5 0c 25 bc 1a 6b cf 3c
       0.018844346 -0.03268513 -0.010073845 0.025319625
000120 e6 c2 bf bc 3f d2 51 3d ce 7c ac 3d f6 37 8c 3d
       -0.023408365 0.051225897 0.08422242 0.06846611
000130 45 a5 06 3d 68 49 65 bc 31 5e e7 bc 3f b9 78 bc
       0.032872457 -0.013994552 -0.028243156 -0.015180885
000140 88 58 73 3c 50 f4 83 39 6e a6 d6 bb 9c 9a 8a 3d
       0.01485265 0.00025168294 -0.0065506017 0.06767771
000150 2f 82 e4 3c fe c9 6c bd 83 df 3f bc d4 5b 41 bb
       0.027894108 -0.057809822 -0.011711004 -0.0029504197
000160 1f 90 9a bb 64 0a 2f bc 9d 66 21 3d fb d7 88 3c
       -0.0047168876 -0.01068363 0.0394045 0.01670455
000170 1b 2b 2b 3d 40 87 8e 3d 1d a7 59 bc f3 a3 ea 3c
       0.041789155 0.06959391 -0.013284472 0.02864263
000180 5b 5f f0 3c 16 30 f5 3c e5 22 a7 bb 0b 34 b9 3c
       0.029342344 0.029930156 -0.0051005953 0.022607824
000190 dc 62 86 3d 8f dd 3c bc 94 94 86 3d ae 0f a3 bc
       0.06561825 -0.011527433 0.06571308 -0.019904938
0001a0 f9 51 84 3c 10 45 42 bc ef b0 4d bd c0 0c 6e bc
       0.016152369 -0.011857286 -0.050217565 -0.014529407
0001b0 55 74 34 bd ec 3d e8 bd b9 b5 5c 3d ea e5 a1 3c
       -0.044056255 -0.11339936 0.05388424 0.019762952
0001c0 39 5b 73 bc 23 4c 4c bd 00 6a e1 bc f2 5b 5c bc
       -0.014853292 -0.049877297 -0.027516365 -0.013449656
0001d0 4e ab 20 3d 74 18 01 3d ca b5 56 3c c4 80 a2 3d
       0.03922587 0.03151746 0.013104865 0.07934716
0001e0 e2 1e f2 3c dc 10 48 3d da 34 51 bd b9 0a 4b 3c
       0.029555742 0.048844203 -0.051075794 0.012392693
0001f0 12 84 d8 bb 9a 29 1c bd 07 97 f3 bc 76 d2 e1 ba
       -0.006607541 -0.03812561 -0.029735101 -0.001722886
000200 25 11 a2 bd 80 9e 93 3d ac 25 40 3d 76 22 5f 3c
       -0.07913426 0.07207966 0.046910927 0.013619056
000210 b7 cf e7 3c 7d 7f 04 3d 74 5e 26 bd cb ce cf bb
       0.028297288 0.032348145 -0.04061742 -0.0063417903
000220 1d 25 99 bd 40 73 cf bc 21 10 83 bc 83 3d 29 bc
       -0.07477782 -0.02532351 -0.015998902 -0.010329607
000230 9f b5 96 3c e2 04 64 bd 13 9e 7c bd 29 08 f1 3c
       0.01839715 -0.05566872 -0.06167419 0.029422836
000240 8f be c7 3a f7 77 bc bb b7 9c 95 bd 7f 4f 2d bc
       0.0015239286 -0.0057516056 -0.073052816 -0.010578035
000250 c1 0f 8c 3c 1c 33 f3 3c d0 60 4a bd 64 be 0d 3d
       0.017097356 0.029687457 -0.049408734 0.0346054
000260 04 2c 90 3d 3f 53 04 bc 7f cc 32 3d 9d 02 c6 3b
       0.07039645 -0.008076488 0.043652054 0.006042792
000270 8d 63 9a 3c 53 ca 80 bd 2e a0 b2 ba c5 c9 10 3d
       0.018846298 -0.0628859 -0.001362806 0.035348672
000280 0a 94 40 3d 47 eb ec bc 56 57 a6 bd c8 05 21 3c
       0.04701618 -0.028920783 -0.08122127 0.0098280385
000290 8f 84 73 3c 02 94 2c 3d d0 ca 52 bd e3 11 93 bb
       0.014863147 0.04213334 -0.05146295 -0.0044882162
0002a0 55 ae 35 3c 2b 05 aa 3b 26 4a b5 3c 6e 47 3a 3b
       0.011088927 0.0051886044 0.022130083 0.0028423923
0002b0 56 64 20 3d 87 b4 6b 3d 5f 59 20 bd 4a 95 ae bd
       0.039158188 0.05754521 -0.03914773 -0.085245684
0002c0 c7 03 90 3d e4 63 bb bc 6c c8 2a 3d 54 8b 1a 3d
       0.070319705 -0.02287478 0.041695043 0.03773053
0002d0 fc 26 4f bb ea fb bc 3b aa ac 97 bc 5d f2 9e bc
       -0.003160893 0.005767335 -0.01851495 -0.019402677
0002e0 28 ee 7b bd d6 ec 77 bb 9a fd 56 3b 5e 3c 88 bd
       -0.06150642 -0.0037830374 0.0032804967 -0.06652139
0002f0 78 de 67 3d f1 d9 88 bc c7 7e 8d bd 23 f8 e6 3c
       0.056608647 -0.016705485 -0.069089465 0.028194493
000300 d6 c7 6c bc f0 d1 5d ba c2 94 13 3d 24 dc cf bb
       -0.0144519415 -0.0008461764 0.03603054 -0.0063433815
000310 d2 f5 d9 3d 4f 63 71 bd 1d 2e a4 bc ad 1b d1 3d
       0.1064259 -0.0589326 -0.02004152 0.10210357
000320 83 54 ca bc 8f a0 96 bb 26 a7 56 3c 5d 59 bf 3a
       -0.024698501 -0.004596777 0.013101375 0.0014598776
000330 e6 61 1e bd 99 f7 a2 bb 8f 90 dc bd 0b da cc bd
       -0.038667582 -0.0049733636 -0.1076976 -0.10002526
000340 b8 37 35 3d 39 a0 02 bd 16 26 a0 3d ed 35 cc bc
       0.04424259 -0.03189108 0.07819764 -0.024928058
000350 fb ce 49 bc 09 fc 6d bd 0a dd a6 3c 48 89 a5 3b
       -0.012317414 -0.058101688 0.020369072 0.0050517656
000360 4e bb 82 3d e8 1e 84 bc d7 3a fe 3c 5f 76 63 3c
       0.06383382 -0.016128018 0.031033916 0.013883202
000370 c1 4c 57 3d 66 d3 b5 3d df 9a 0c bd fe d0 62 bd
       0.052563433 0.08878212 -0.034327384 -0.05537509
000380 37 8f e9 3c 9b 9c 99 3b ed 59 6e bb 6b f9 ed bb
       0.028510673 0.0046878583 -0.0036369518 -0.007262399
000390 e2 1d 4b bc aa 85 01 bd 02 98 25 bd ba 58 2c be
       -0.012397261 -0.031621613 -0.04042817 -0.16830721
0003a0 80 28 1b 3b a0 60 ca 3d 61 59 9a bd 3c c0 47 bd
       0.0023675263 0.09881711 -0.07536579 -0.048767313
0003b0 6e ec 7a bd c8 e7 62 bd 4b 9b cd bc 3d 5b 55 bc
       -0.061260633 -0.055396825 -0.025098464 -0.013022241
0003c0 99 0e 18 3b 2a 6c 2a 3d 4e 8f ec bb cf 28 bc 3c
       0.002320206 0.04160706 -0.0072192317 0.022968678
0003d0 7c af f6 3c 6b f7 0a bc 7f 91 e5 3c 98 78 46 3d
       0.030112974 -0.008481841 0.02802348 0.04845485
0003e0 75 6d b5 3b 28 92 f3 3b 73 86 e0 3c 93 67 b7 3d
       0.00553673 0.0074331947 0.02740786 0.08955302
0003f0 29 c5 32 3d 33 9a 2b 3d c1 67 3c 3d f3 d6 c3 bb
       0.043645058 0.041895103 0.045997385 -0.0059765517

fc3.bias f4 [3]
000000 2a 29 b4 3c 41 bd 3b b9 fe 49 9a bc
       0.021992285 -0.00017904212 -0.01883411

fc1.weight f4 [100, 11]
000000 72 10 7b be 21 50 2e 3e ac a9 da 3d 99 da 2f be
       -0.24517992 0.17022754 0.106768936 -0.17173232
000010 52 c2 23 3d 45 0d dc 3d ce 25 fb 3c 9e 0e 72 3d
       0.03998024 0.107447185 0.030657675 0.05909597
000020 5a f8 bb 3d 58 a5 b4 3d 1a 2e 3f 3d 28 fd ff bc
       0.09178229 0.08820599 0.046674825 -0.031248644
000030 cd 12 05 be c2 f0 1c 3e e6 e8 e6 3b 61 75 2e bd
       -0.12995453 0.15326217 0.0070468066 -0.04259241
000040 08 08 1e be ee 3a 46 be e1 5f 65 3b 1c 1d 98 bd
       -0.15432751 -0.19358417 0.0034999775 -0.07427427
000050 45 bf c7 3d c7 a8 c8 3d ec 67 b7 bd ce 42 ca bc
       0.09753279 0.09797817 -0.089553684 -0.024690058
000060 d2 f0 04 be 51 7d ad bd 86 e9 34 3e 80 26 2c 3e
       -0.1298249 -0.08471168 0.17667207 0.16811562
000070 fa 8d 08 be ad ef 64 3e 10 38 6e bd 94 80 82 3c
       -0.1333541 0.22357054 -0.058158934 0.015930451
000080 f0 7f 0d 3e 5a 68 c4 3d 31 28 62 be 63 65 07 3e
       0.13818336 0.09590216 -0.22085644 0.1322227
000090 05 de 1d 3d 18 5a a2 bd 98 8d a7 bd 65 13 03 3e
       0.038541812 -0.0792734 -0.08181304 0.12800367
0000a0 af 81 67 3e bf 3d 18 be e0 59 8d 3d 22 89 91 bd
       0.22608064 -0.14867304 0.06901908 -0.07106234
0000b0 a1 b9 70 be 8b bf 39 3d 37 17 c4 3d 81 ba 9e be
       -0.23508312 0.045348685 0.095747404 -0.31001666
0000c0 92 e4 c0 bd 21 70 98 3c 7f ae 4b 3d 0a 86 d6 3d
       -0.09418596 0.018608155 0.04972696 0.10474785
0000d0 30 f7 40 b6 a1 c4 a2 39 13 cf fd bc 5e ca 8c be
       -2.8754112e-06 0.00031045548 -0.03098253 -0.27498144
0000e0 4e 34 19 3e af c3 bd 3d d8 3c e7 bd 34 1b 0f be
       0.14961359 0.09265839 -0.11290902 -0.13975221
0000f0 d2 12 1e 3e 41 cb 0d bd db 7a 9d 3d 1e 60 19 3e
       0.15436867 -0.034617666 0.076894484 0.14978072
000100 3b 71 21 bd 58 26 eb 3c 69 c6 a5 be 9f 2b 0f 3e
       -0.039414626 0.028704807 -0.32377937 0.13981484
000110 fb 85 1e 3e 51 2a 6a bc 35 cc e3 bd 07 24 5d bd
       0.15480797 -0.014292316 -0.11122934 -0.053989436
000120 04 94 ec 3d 07 bc bd bd ca 3c 80 3d db 46 e7 3d
       0.11551669 -0.09264379 0.062615946 0.112928115
000130 ca 38 6d bd 15 bf e3 3d 23 0f 3a 3e cc 5b 4c bd
       -0.057915486 0.111204304 0.18169837 -0.04989223
000140 ca d9 8b be 33 f8 b5 bd b0 b6 f2 bc a7 ac f8 bd
       -0.27314597 -0.08885231 -0.029628128 -0.12142306
000150 22 41 43 be ba 2a 93 3e 97 0a 5a be eb de 09 3e
       -0.19067815 0.28743535 -0.21293102 0.13463943
000160 64 4a a9 be 43 34 89 bd 37 4b 92 be 9d 12 07 3e
       -0.33064568 -0.06699421 -0.2857301 0.13190694
000170 e9 79 34 3e 68 de 4c be dc f8 a7 3c 5e 04 81 3e
       0.1762463 -0.20006716 0.020504408 0.25198644
000180 f0 83 7f be 3d d8 f8 bd 36 e6 e6 3d 8d 78 ed bd
       -0.24952674 -0.12150619 0.11274378 -0.11595259
000190 57 e8 44 3e 2a 19 92 bd 4a 0c 13 be eb 34 74 3e
       0.19229256 -0.07133706 -0.14360157 0.23848312
0001a0 62 20 27 3e 53 a1 3f 3e 9c 88 66 3e 25 26 47 be
       0.16320947 0.18713884 0.2251305 -0.19448145
0001b0 39 bc ed bd c6 70 a0 3d 5c af 86 bd 23 4b 37 be
       -0.11608166 0.0783401 -0.06576416 -0.17899756
0001c0 93 69 a5 bb 04 54 65 3e 01 1b fd 3d c4 61 00 3e
       -0.005047986 0.2239533 0.12358666 0.12537295
0001d0 84 81 d7 ba cf 7c a5 bd 62 6d 0a be 34 49 23 3e
       -0.0016441797 -0.08080446 -0.13518289 0.15945894
0001e0 29 20 dc 3b 99 08 a1 3d e2 83 60 bc 45 0c 61 3e
       0.006717701 0.07862968 -0.013703318 0.21977337
0001f0 11 a2 53 3e 2c 1f 8f 3e e9 69 0c 3e 94 22 fb bc
       0.20667292 0.2795347 0.13712277 -0.030656137
000200 f7 76 ba bd 26 11 37 3e bd 7b 76 3e a3 df 26 be
       -0.09104722 0.17877635 0.2407064 -0.16296248
000210 7a 01 07 3e 3c fc dd 3d 4c 88 b3 3e e9 de 4e 3e
       0.13184157 0.108391255 0.35064924 0.20202221
000220 8c a0 fa bc f9 cb 4a bd 09 c3 9f 3d b8 59 c7 bd
       -0.030594133 -0.04951093 0.07800872 -0.09733909
000230 23 04 28 3e d4 f8 c9 bc 7d 5e 1b 3d 4d a5 51 3e
       0.16407828 -0.024654783 0.037931908 0.20473213
000240 1b 48 d4 bc 61 fc 65 3d 25 5b c9 3d f3 15 16 3d
       -0.025913289 0.05614889 0.098318376 0.036642026
000250 78 c1 44 3e 4c ad fd 3d 45 bb 06 3e 31 2e 50 3e
       0.19214427 0.123865694 0.13157375 0.2033012
000260 62 93 17 3e c0 66 47 3e 2b f7 7b 3d 77 b0 47 be
       0.14802316 0.1947279 0.061515015 -0.1950091
000270 40 b7 81 3e 4a 42 42 3e 12 66 06 bd b8 53 91 bd
       0.2533512 0.189706 -0.032812186 -0.07096046
000280 03 04 2c be c6 c8 11 be 71 f2 e4 bd 54 b4 88 bd
       -0.16798405 -0.14236745 -0.111790545 -0.0667502
000290 96 48 e4 3d 01 8e 0e 3d 37 ce 71 be c5 64 49 3e
       0.11146657 0.034803394 -0.23613821 0.19667347
0002a0 c0 ec fb bd b1 46 34 be d0 ef 21 be bb 34 25 3e
       -0.12301016 -0.17605092 -0.15814137 0.16133396
0002b0 56 d8 27 3e ab 1c 16 be 80 a1 be bd d0 63 8c 3d
       0.1639112 -0.14659373 -0.093081474 0.06854975
0002c0 94 1d 6d be 94 79 9d bd 0d 69 7a 3e 25 17 93 be
       -0.23155814 -0.07689205 0.24454136 -0.28728595
0002d0 03 75 15 be 0a 94 05 be f3 c6 fa bd 0f 4c dd bd
       -0.14595418 -0.13044754 -0.12244978 -0.10805523
0002e0 49 dc 1f be bb ce e7 3d 12 3c e3 3d 59 3c 67 3e
       -0.15611376 0.113187276 0.11095442 0.22581615
0002f0 19 74 a7 3d a0 4b 40 be 92 09 75 bc 14 db 9b bd
       0.08176441 -0.18778849 -0.014955895 -0.07610145
000300 de fe 72 3d ec 96 16 3e 1c dd 4b be 66 a8 b2 ba
       0.05932509 0.1470601 -0.19908565 -0.0013630509
000310 01 5c 0f 3e 4f c5 1d be 66 82 08 be 91 21 67 be
       0.1399994 -0.15407299 -0.13330993 -0.22571398
000320 7d 2c 4e bc d3 f1 3b 3d 3c c7 10 3e 55 f0 c5 bd
       -0.012583849 0.04588492 0.14138502 -0.0966498
000330 1a 8b 60 be 55 f0 0a 3e 21 35 e3 3d 21 e6 9d 3d
       -0.21928063 0.13568242 0.11094118 0.07709909
000340 34 7f 81 3d 26 34 34 3e 83 0c 5c be 55 ec a8 bd
       0.0632309 0.17598018 -0.21489148 -0.08248202
000350 fe f3 18 3e 5f 5b 2f 3e 72 c4 a3 bc f4 26 f4 3d
       0.14936826 0.17124699 -0.019991133 0.11921492
000360 75 cf 03 be 2f 83 14 3d 94 28 67 3e 9d 63 10 3e
       -0.12872107 0.03625792 0.22574073 0.141005
000370 47 92 17 be 35 d3 46 be ec a3 da bd fa ce 49 3e
       -0.14801894 -0.19416507 -0.10675797 0.19707862
000380 81 4e 8d bd c9 75 82 3e 40 30 e2 3d e1 1e 05 bd
       -0.06899739 0.25480488 0.11044359 -0.03250015
000390 64 13 af 3c 47 42 b8 bd 13 cd 2b be 52 f0 50 3e
       0.02137155 -0.089970164 -0.16777448 0.20404175
0003a0 2d 18 ab bd 9a ff d8 3c 78 2e bc 3e cc 60 8f 3d
       -0.083542205 0.026489068 0.36754203 0.070008844
0003b0 c5 af 0c be 6e 19 63 bb 8a b8 62 3c de 90 01 3b
       -0.13738926 -0.0034652608 0.013837943 0.0019770185
0003c0 35 5f bb bd d1 9e 9b bd dd f8 a1 bd 2c fe c9 3c
       -0.09149019 -0.07598651 -0.07908795 0.024657331
0003d0 19 8d de bd 95 66 8a bc 25 ca f8 3c c0 33 58 3c
       -0.10866756 -0.016894618 0.030369828 0.013195932
0003e0 f1 55 a1 bd f5 f5 fe 3c 9a a6 7c 3c 32 82 0a ba
       -0.0787772 0.03112314 0.01542058 -0.0005283683
0003f0 91 6b a9 bd 3f a1 8f 3e 7f 47 81 be 08 30 05 bd
       -0.0827247 0.28052709 -0.2524986 -0.03251651

fc1.bias f4 [100]
000000 5c 0f 0d 3f 65 ab ea be ec b7 dd 3e 5f db a4 be
       0.5510156 -0.4583389 0.43304384 -0.32198617
000010 28 bc 79 be 63 60 f5 3e cd 90 d0 be 2a b4 aa be
       -0.24388182 0.479251 -0.40735474 -0.3334058
000020 a6 8f ef be c3 ec f9 be 34 db a6 3e 4a 3a 32 3e
       -0.46789283 -0.48813447 0.32589114 0.17405048
000030 89 b4 6e 3e 32 f4 d2 be a6 cb c7 3e 43 e1 3a be
       0.23311056 -0.4120193 0.3902256 -0.18249993
000040 94 41 f0 be 30 07 d7 be 2d 5f 05 bf e6 f8 c4 be
       -0.46925032 -0.4199767 -0.5209835 -0.38471144
000050 5d 95 c4 3e 65 ec 3b be 04 6a e4 3e 56 a2 94 be
       0.38395205 -0.18351896 0.44612134 -0.29030102
000060 84 3c ee 3e 0a c0 80 3e 75 2b 9f be 1b 86 20 bd
       0.46530545 0.25146514 -0.31087843 -0.039190393
000070 8d e9 a0 3e a7 e3 e4 3e de 82 a7 be 2a f7 f1 be
       0.31428185 0.44704935 -0.3271703 -0.47258884
000080 73 f1 8f 3e 67 dc 2c be 16 5f e3 be 2c 5e c2 3e
       0.281139 -0.16880952 -0.44408482 0.37962472
000090 20 9d c4 be 19 f6 c2 3e d9 6e a7 3e 15 55 3e 3e
       -0.38401127 0.38078383 0.32701758 0.18587144
0000a0 5d 94 91 3e ba 00 b3 be 96 a5 ef 3e bc 16 4c be
       0.28433505 -0.34961492 0.4680602 -0.19930547
0000b0 e1 aa be bd b0 c2 b5 be 5e 17 00 bf 74 24 ec be
       -0.09309936 -0.35500097 -0.50035655 -0.46121562
0000c0 d3 f1 d6 be d2 10 c4 3e 46 40 f4 3e fa 44 00 bf
       -0.41981372 0.38294083 0.47705287 -0.5010525
0000d0 78 96 65 3e b7 a5 f1 3d bb 61 8c be 99 a9 97 be
       0.2242068 0.11799186 -0.27418312 -0.2962158
0000e0 ff e7 5e 3e 38 6d 95 3d f7 52 e6 be 55 41 bd be
       0.21768187 0.072962224 -0.44985172 -0.36963907
0000f0 e3 65 62 3e 4f 68 87 3e 3a 47 9e be 64 e4 59 be
       0.22109179 0.2644677 -0.30913717 -0.2127853
000100 84 d9 a0 3c ec e4 dd be c6 ba 80 3e 21 80 f1 be
       0.01963497 -0.43338716 0.25142497 -0.47168067
000110 b3 37 70 3e 05 68 e2 3e f3 98 93 3e c3 f3 07 3f
       0.23458748 0.44219986 0.28827628 0.53106326
000120 a7 d0 3d be ce b6 ae be 6c 26 5b be c3 1c ce be
       -0.18536626 -0.34123844 -0.21401376 -0.40256318
000130 9e 91 e0 be 23 8b 86 be f2 e1 89 3e 1a c4 a1 be
       -0.43861097 -0.26278028 0.26930195 -0.31594926
000140 16 e0 cc be ae 89 b1 be 43 c5 d5 be 98 fc 93 3e
       -0.40014714 -0.34675354 -0.4175206 0.2890365
000150 f6 52 ca be 85 53 6b be 3e ac fc be 3b ae f1 be
       -0.3951642 -0.22981079 -0.4935016 -0.4720324
000160 f7 b8 f9 be 04 f7 47 be cb f4 64 3e a2 a8 c6 3e
       -0.4877393 -0.19527823 0.22359006 0.38800532
000170 3b b6 ce 3e 6a 33 62 be 66 c8 ce be 8f 12 a2 3e
       0.40373406 -0.22089925 -0.40387267 0.31654784
000180 f1 f0 f5 3e c5 9d 98 be 19 b6 d8 be 68 39 ac be
       0.48035386 -0.2980787 -0.4232643 -0.33637547

fc2.weight f4 [100, 100]
000000 34 9f ad 3d 3f e1 eb bd a1 7e fa bb 8a de 48 3a
       0.08477631 -0.11517572 -0.00764449 0.00076625554
000010 d6 e0 d1 bd 1a 26 2c 3d b7 34 33 bd cd ab 1e be
       -0.10247962 0.042028524 -0.043751445 -0.15495224
000020 0e 56 22 be 20 73 26 be 93 fd eb 3d 04 bb 80 3d
       -0.1585314 -0.16254854 0.11522975 0.062856704
000030 9e da 0f 3e 91 e0 01 bd 71 9c e6 3d f3 63 aa 3c
       0.1404824 -0.031708304 0.112603076 0.020799613
000040 73 76 25 be 90 4e ae bc 77 c5 87 bd 22 04 3e 3b
       -0.16158466 -0.021277696 -0.0662946 0.0028994163
000050 c2 b1 cb 3d df 31 94 3d a1 6b 66 3d f3 c6 03 3c
       0.09946014 0.07236075 0.056254987 0.008043039
000060 3e 5c b4 3c a9 81 b0 3d 44 15 50 bc ec c3 e6 bc
       0.02201664 0.08618481 -0.012700383 -0.028169595
000070 3e fe 33 3e 36 cf cf 3d 62 1c 90 bc c5 69 3d be
       0.17577454 0.10146944 -0.017591659 -0.18497379
000080 13 99 b3 3d 02 1a ba 3b 58 75 16 be a8 1f 11 3d
       0.08769431 0.00567937 -0.146932 0.03543058
000090 74 6a bc bd bf c9 35 3d 6f 51 1e 3e 4b 0b dc 3d
       -0.09199992 0.044381853 0.15460752 0.107443415
0000a0 0e e4 b3 3d 71 96 cd bd 34 5b 09 3e f5 a3 50 3d
       0.08783732 -0.1003846 0.13413697 0.05093761
0000b0 a1 6d 87 bd 96 e4 c9 bd 49 87 ef bd 5d 04 df bd
       -0.06612707 -0.098580524 -0.116957255 -0.10889504
0000c0 71 86 cf bc 6c 09 b6 3d 55 60 ea 3d ca 07 19 bd
       -0.025332661 0.08888516 0.11444155 -0.037360944
0000d0 e8 34 b0 3d d4 4c c1 3d 5d d0 8c bb 96 9c 12 3d
       0.08603841 0.09438482 -0.0042973 0.035793863
0000e0 87 c9 c3 3d 84 c4 83 3a 87 09 e6 bd 3b d6 3b bd
       0.09559923 0.0010053073 -0.11232286 -0.045858603
0000f0 1c 53 ad 3d e1 1a 09 3e d4 ed 91 bd 66 d9 37 bd
       0.084631175 0.1338916 -0.0712544 -0.04488506
000100 5d b6 c4 3b 32 0b 3b be 07 21 3b 3e 3c 2b a5 bd
       0.0060031847 -0.1826599 0.18274318 -0.08064887
000110 36 a9 2a 3d 74 64 18 3e e6 f1 0d 3e 02 b2 46 3c
       0.04166528 0.1488207 0.13861808 0.012127401
000120 85 6d 07 be 51 72 a4 bd b1 8b 8e bd b7 d8 e5 bc
       -0.13225372 -0.080296166 -0.06960238 -0.02805744
000130 aa 31 88 bd 18 33 0e be 4f 6d 0a 3e b2 39 f8 bd
       -0.06650098 -0.13886678 0.1351826 -0.121203795
000140 a7 0e 12 be b1 85 0f be 9e 23 53 bd 9e 6f d4 3d
       -0.14263402 -0.14015843 -0.05154764 0.10372852
000150 d1 a9 c9 bd e5 b8 bd bc 65 54 cb bd 85 75 b6 bd
       -0.09846843 -0.023159454 -0.09928206 -0.08909134
000160 cf 10 f1 bd 3b 0e 80 3c 79 09 fe 3d 78 12 b6 3d
       -0.11770784 0.015631786 0.124041505 0.088902414
000170 a3 72 e1 3d 53 16 ab bd a6 95 1d be e5 ec 95 3d
       0.11008193 -0.083538674 -0.15389118 0.07320575
000180 3e 96 91 3d 72 66 21 bd f4 86 b8 bd 80 5f ba bd
       0.071087345 -0.03940434 -0.09010115 -0.091002464
000190 67 04 30 3c 57 4a 2f 3b 87 f9 8c 3b 30 49 d4 3c
       0.010743237 0.002674719 0.004302207 0.025913805
0001a0 19 23 20 be 49 6f ee bc c4 4d fc bc 5b 4d a2 be
       -0.15638389 -0.0291058 -0.0307988 -0.31699643
0001b0 fc cc 8b bd ea d2 23 be f1 e9 6d 3e e8 7f 73 3e
       -0.06826207 -0.15998426 0.23233773 0.23779261
0001c0 ff 1a e3 3d 57 b4 5e bd 61 30 4a 3e 5b 24 c2 bc
       0.110891335 -0.054371204 0.19745018 -0.023698976
0001d0 89 0b ec bd f7 d2 ab bd b5 e8 af bc b0 8e 05 3d
       -0.11525638 -0.08389848 -0.021473268 0.03260678
0001e0 a7 58 25 3d 1e 70 bb 3d 01 cf fa 3c 45 a8 d4 bc
       0.04036775 0.09152244 0.030616285 -0.025959143
0001f0 09 a2 82 3d 89 88 11 3e 65 c0 78 3d e7 88 22 bd
       0.06378562 0.1421224 0.060730357 -0.03968134
000200 53 5d 6e 3e 46 45 7a 3e 9b 1c 61 3d 3f 76 3d be
       0.23277788 0.24440488 0.05495892 -0.18502139
000210 bf 3c b2 3d ee 90 72 bd f6 ec ab be 63 52 2d bd
       0.08702993 -0.059220247 -0.33579224 -0.0423149
000220 b4 e7 46 bd e3 05 22 3e c2 ce 05 3e 88 0d da 3d
       -0.048560813 0.15822558 0.13067153 0.10647112
000230 3b 05 d4 3d 9e ec 7b be 25 c5 9c 3e e3 4a 30 3e
       0.1035256 -0.24601981 0.3061916 0.17216067
000240 27 2b 04 be 53 69 e3 bd 63 bc d9 bd 60 47 bc bd
       -0.12907086 -0.111040734 -0.10631635 -0.09193301
000250 61 db 7c 3c 4a 89 eb 3d 3c 89 af 3d bd e5 39 bd
       0.015433163 0.11500795 0.08571097 -0.04538511
000260 64 5d e7 3d c4 7b ca 3d 87 ce 05 be 46 f5 a8 3d
       0.1129711 0.09886888 -0.13067065 0.08249907
000270 0a f2 ac 3d 3a 77 e5 bb 6c 40 ae be 2f 93 a0 3c
       0.08444603 -0.0070027383 -0.34033525 0.019601433
000280 6e 26 71 3e 9e da 13 3e 61 b7 92 3d 39 47 a6 3d
       0.23549816 0.14438865 0.07163883 0.081190534
000290 52 7c 79 3d 92 97 af bd 28 7b 15 3e e2 52 64 3d
       0.060909577 -0.085738316 0.14597762 0.055743106
0002a0 87 97 be 3d 26 df f8 3d 65 7c ad 3b 14 85 2a bd
       0.09306245 0.12151937 0.00529437 -0.04163082
0002b0 b1 6c 4d be 61 fc 89 be 90 4a e4 bd 1a 30 11 3d
       -0.20060994 -0.26950362 -0.11147034 0.035446264
0002c0 cd 52 0d 3e 1b ea 84 bd fe be ec 3d 77 0e 1a be
       0.13801117 -0.064899646 0.11559866 -0.1504458
0002d0 d1 75 11 be e0 b3 58 be 43 8a f6 bd 25 7d 92 3d
       -0.142051 -0.21162367 -0.1203809 0.07152776
0002e0 1d 65 16 be de ed 0e bd 9a c0 84 bd 57 d7 d2 bd
       -0.14687009 -0.034894817 -0.06482048 -0.10294979
0002f0 26 dd 38 be d6 bd 25 3e 3f fe 65 3e c4 97 5c bd
       -0.18053111 0.16185698 0.22460268 -0.053855672
000300 fd 88 32 3e e2 04 3e bd 16 7c 93 be 96 d1 67 3d
       0.1743507 -0.046391375 -0.28805608 0.05659636
000310 98 d2 60 bc 69 c3 3e bd ac ea 92 bd 04 a6 fa 3b
       -0.013722084 -0.046573076 -0.07173666 0.007649185
000320 d1 ba da 3d bc 4e ef bd 5d d7 1e 3e cc f9 b3 bd
       0.10680164 -0.11684939 0.15511842 -0.08787879
000330 13 dc 00 bd 45 c8 01 3e e2 c6 ea bd 42 86 d0 bd
       -0.03145988 0.12674053 -0.11463715 -0.10181858
000340 50 52 01 be 8d bf ba bd de d0 9a 3d 6e 44 01 3c
       -0.12629056 -0.09118567 0.075593695 0.00788985
000350 10 45 cf 3c a7 c2 12 be bb 10 c7 3d b9 f2 a7 bc
       0.025301486 -0.14332066 0.09719988 -0.020501481
000360 3a c7 f0 bd ea 46 12 be e5 95 23 be bd 76 6a bd
       -0.117567495 -0.14284864 -0.15975149 -0.057242144
000370 8d 3d 28 3e 99 89 80 bd 68 83 1d 3e a6 e3 92 bd
       0.1642973 -0.06276245 0.15382159 -0.07172327
000380 48 79 ca 3d 22 2f 23 3d c8 d0 96 bd 4b 22 25 3d
       0.09886414 0.03983987 -0.073640406 0.040315907
000390 74 e4 97 3d 4c 3a 63 3d 71 cc e3 bd 10 b1 f7 bd
       0.07416621 0.055475518 -0.111229785 -0.12094319
0003a0 4c 7f 17 3e ab 19 81 3d fd 2a d3 bd 16 54 00 3e
       0.14794654 0.06303724 -0.10310934 0.12532076
0003b0 ec 2e 19 be 52 07 99 3d e1 2a 65 3d 5f fe f7 3c
       -0.14959306 0.07472099 0.055949096 0.03027266
0003c0 29 b6 be 3d 9d 59 e2 bd c4 72 38 3d 71 01 ac bd
       0.09312088 -0.110522486 0.045031324 -0.083987124
0003d0 f2 bd 8e 3d 29 61 89 bd 32 17 16 be ed 75 d4 bd
       0.06969823 -0.06707985 -0.14657286 -0.10374055
0003e0 06 b9 82 bd 31 72 98 3d 7c ac ef 3d 03 1f 07 be
       -0.06382947 0.07443655 0.11702821 -0.13195424
0003f0 ce d7 80 3c 4a d8 0a bc 17 e3 ce bd 0d de 0c be
       0.015727904 -0.008474419 -0.10101908 -0.1375658

fc2.bias f4 [100]
000000 78 4b 27 3e 7e 12 47 3d c8 e2 55 3e 12 b8 69 3e
       0.16337383 0.04860162 0.20887291 0.22824124
000010 4a 7b 6a 3e 1e f5 4e 3d 01 e4 89 3e 91 3d 9f bd
       0.22898594 0.05052673 0.26931766 -0.07775415
000020 00 7d f7 3c 3e 3f 6d be d8 f6 24 3d 8a 85 dd 3d
       0.030210972 -0.23168656 0.04027447 0.10816486
000030 9c 74 0e 3e ee 4c 9f bd ca da dd 3d a2 0c 62 be
       0.1391167 -0.07778345 0.10832746 -0.22075132
000040 ab 53 63 3e b6 a4 cb bd 9f be 8f bd 90 66 4a 3e
       0.22199886 -0.099435255 -0.0701878 0.19765687
000050 61 a6 0c 3e 47 f7 1d be 8b 7f 84 3e 87 df 69 be
       0.13735344 -0.1542636 0.25878558 -0.22839175
000060 d5 ea 88 be fd 3a 81 be 11 86 89 3d 23 23 4a 3e
       -0.26741663 -0.25240317 0.06715024 0.19739966
000070 87 d9 b1 3d 1a d1 78 be d0 5e 16 3e 2d 50 42 be
       0.08684068 -0.24298516 0.14684606 -0.18975897
000080 63 b2 11 3e e1 a9 68 3e e2 df 4a bc b7 ae 77 3d
       0.14228205 0.22721054 -0.012382479 0.060469355
000090 2a 67 85 be 73 20 2d 3e f5 90 3c be 12 2f 69 3e
       -0.2605527 0.1690691 -0.18414672 0.22771862
0000a0 21 fd 45 be 2a b2 cf 3c fa bb 7d be b0 5c 10 be
       -0.19334842 0.02535351 -0.24778739 -0.14097857
0000b0 e5 bb 07 3e fe 3c d7 3d 0f 8f 39 3e 93 f9 14 be
       0.1325527 0.1050968 0.18120979 -0.1454833
0000c0 31 e6 8c 3e 91 91 57 3e 41 0b 37 3e 71 08 b3 bd
       0.27519372 0.21051623 0.17875387 -0.087418444
0000d0 67 5e aa bd 5f 67 4d be 5a c0 7d 3e 0b dc 66 3e
       -0.08318787 -0.20058964 0.24780408 0.22544877
0000e0 7c b4 8f 3e f3 6c 84 be f5 b7 83 3e a6 70 12 be
       0.28067386 -0.25864372 0.25726286 -0.14300784
0000f0 c5 cc 61 3e c7 01 61 bd 16 b8 62 3e 11 b6 50 3e
       0.2205077 -0.054933336 0.22140536 0.20381953
000100 69 9e 55 3e ca 60 86 be ae 77 19 be 38 3b 6f 3d
       0.2086121 -0.2624572 -0.1498706 0.058406085
000110 56 f6 87 be ac 2a 2b be 8b 8f 33 3e fd e9 0a be
       -0.26555127 -0.16715497 0.17535226 -0.13565822
000120 a4 2a 5b 3e 1a 54 53 be 68 78 cb bd 47 ae 52 3e
       0.21402985 -0.20637551 -0.09935075 0.20574294
000130 db d4 7b be cd fb 26 be 76 20 12 3e 35 4d 01 be
       -0.24592917 -0.16306992 0.14270195 -0.12627108
000140 19 f3 6e 3d c5 37 0d be 4b 63 31 bd a6 af a7 3c
       0.058337305 -0.13790806 -0.043307584 0.020469498
000150 18 36 7b be 9c 95 42 3e 32 a6 38 be 76 8a 86 ba
       -0.24532354 0.19002384 -0.18032148 -0.0010264653
000160 1e c5 70 3e 11 58 24 be 5e b8 eb bd 00 f3 13 be
       0.23512694 -0.1604922 -0.115097746 -0.14448166
000170 75 54 3b be 47 14 57 3e d0 b5 fc bd a8 da 23 3e
       -0.18293937 0.21003829 -0.123393655 0.1600138
000180 13 81 78 be 7c e6 79 be b9 aa 5b 3e 09 1e 42 be
       -0.24267988 -0.24404329 0.21451844 -0.1895677

fc3.weight f4 [1, 100]
000000 7d 53 06 3f 6d 21 0c 3f 41 8f 06 3f 3e 43 09 3f
       0.52471143 0.54738504 0.5256234 0.5361823
000010 e0 ac 09 3f 3b 59 08 3f 1c e9 06 3f 81 44 09 bf
       0.5377941 0.53261155 0.52699447 -0.53620154
000020 5c 5f 0b 3f ac c2 07 bf b8 ea 04 3f 91 09 0a 3f
       0.5444238 -0.5303142 0.5192065 0.5392085
000030 7e 7e 08 3f d4 33 05 bf 10 10 0a 3f c3 9c 07 bf
       0.5331801 -0.5203221 0.5393076 -0.52973574
000040 75 18 08 3f cc 06 09 bf 69 b8 0a bf 92 e4 05 3f
       0.5316232 -0.53525996 -0.5418764 0.52301896
000050 7f e9 08 3f d7 6a 07 bf 1b 0f 09 3f 36 26 07 bf
       0.53481287 -0.528974 0.53538674 -0.5279268
000060 72 11 06 bf c6 31 04 bf 19 56 04 3f 58 b9 09 3f
       -0.5237037 -0.5163845 0.51693875 0.5379844
000070 02 48 0b 3f 03 48 09 bf 8d 87 05 3f 7f d5 06 bf
       0.5440675 -0.53625506 0.5215996 -0.5266952
000080 c4 bf 08 3f 48 88 06 3f 5b 8a 09 bf 68 66 09 3f
       0.5341761 0.525517 -0.5372674 0.53671885
000090 10 b4 0b bf c1 31 08 3f a3 b0 07 bf e4 9d 08 3f
       -0.5457163 0.5320092 -0.530039 0.5336592
0000a0 80 81 06 bf 07 f1 07 bf 78 1f 08 bf 7c 06 0a bf
       -0.5254135 -0.53102154 -0.5317302 -0.53916144
0000b0 42 b3 07 3f 50 6f 0b 3f 35 45 06 3f 87 f5 07 bf
       0.530079 0.54466724 0.5244935 -0.5310902
0000c0 5c f4 06 3f ce 40 09 3f 57 8e 09 3f 5f de 08 bf
       0.5271661 0.5361451 0.5373282 -0.5346431
0000d0 4b 6d 08 bf a6 f0 08 bf 73 15 08 3f ff 01 09 3f
       -0.5329177 -0.534922 0.5315773 0.5351867
0000e0 90 a6 08 3f bf 04 04 bf ef 2b 08 3f 7d 81 06 bf
       0.53379154 -0.5156974 0.5319204 -0.52541333
0000f0 fe 1d 08 3f f5 d7 08 bf f7 8d 06 3f 28 ce 07 3f
       0.53170764 -0.53454524 0.5256037 0.53048944
000100 80 9c 08 3f 84 1a 09 bf 07 7c 07 bf 55 04 0b 3f
       0.533638 -0.53556085 -0.52923626 0.54303485
000110 f6 5b 05 bf 96 5c 04 bf b7 eb 09 3f 56 de 06 bf
       -0.52093446 -0.51703775 0.538753 -0.5268301
000120 c2 ed 07 3f 32 41 09 bf d6 07 0a bf cf a4 07 3f
       0.53097165 -0.53615105 -0.53918207 0.5298585
000130 c0 a5 08 bf 89 97 0a bf fd 11 09 3f ee 1a 0a bf
       -0.53377914 -0.54137474 0.5354307 -0.5394734
000140 1f 51 05 bf 53 97 01 bf 7f 64 07 bf 60 49 0a bf
       -0.52076906 -0.5062153 -0.5288772 -0.5401821
000150 66 49 07 bf 15 25 08 3f 8f 6b 05 bf 3e 6d 05 bf
       -0.5284637 0.5318158 -0.52117246 -0.52119815
000160 ca c0 06 3f 0c 2d 0a bf 70 57 05 bf 1c 06 04 bf
       0.5263792 -0.53974986 -0.52086544 -0.5157182
000170 3c 16 09 bf 9c f3 0a 3f 79 ed 08 bf 82 c7 09 3f
       -0.5354955 0.5427797 -0.53487355 0.5382005
000180 35 d6 08 bf 51 d9 0b bf c0 cd 02 3f da fa 06 bf
       -0.53451854 -0.54628474 0.510952 -0.5272652
