mujoco/vail/save_model/ckpt_72.pth.tar (torch, 110947 bytes, 20 tensors)

fc1.weight f4 [100, 11]
00000000: 72d4 c03c ccc9 60be 1529 413e 82be ecbd
00000010: ddb7 9b3d 727c 7d3d c420 59be 4cc7 ff3d
00000020: 2cb0 3f3e b27a 3b3e 3d23 90bc b235 793e
00000030: a08a 0abe bb14 0b3d 4f08 91be 2632 983d
00000040: 2018 c33d d852 853b 4f87 893d 55d7 143e
00000050: fff1 2f3e bc28 613e f648 3e3e 6926 f1bd
00000060: 4132 8ebe 2562 923d dc2e a83d d5fe 43be
00000070: be14 90bd 8374 3f3e eb0c ebbd a069 e1bc
00000080: 6f27 0f3e a2f9 853e 8648 98be 5f29 213d
00000090: 98ef 7d3e d85a 6f3d 7874 da3d 7b55 86be
000000a0: 1ca5 54bd 5f42 25be 84ed 453e 9eb2 8ebe
000000b0: aab0 f03d 2ea1 643e b998 3d3e b9c1 83be
000000c0: f40b 94bd 37f0 c03d b36f 5dbe d4c0 c2bc
000000d0: 5c3a 8a3e a1a4 8b3d a179 ac3d 044f 753e
000000e0: 7922 f6bd f7e2 5dbd b338 263e 0890 9a3e
000000f0: 9d24 ac3d 618a 7b3d 05ee 30be e697 27bb
00000100: e82b 60bd a8fd 133d 3fc1 773e 2362 62be
00000110: 86a8 853e 20b6 54be a1b3 ecbd 154c 7dbe
00000120: e9ca 593e 8011 ccbc 825e e2bb e6b8 1fbe
00000130: 64d5 30be f264 703d 9070 803e 9d4b 27be
00000140: 5ec9 2abe e7cb 803e c3e4 b03d b067 873e
00000150: 6830 5e3a a024 53be 2e14 543e 5241 8c3e
00000160: 4e37 bebb fd88 923d 535f 4bbe d192 9ebe
00000170: b402 603e 352d 5d3e 8c3a 2a3e 9b00 43be
00000180: ea94 8a3e 4160 20be 6fc8 303e 1f03 96bc
00000190: 2a62 373e 5b35 ddbc e5f4 f33d 782e 753e
000001a0: f5d9 81be 47b1 363e ab1a 963e 475e 533e
000001b0: b5d5 1a3e 42eb 98bd 516e 5ebe 6f4b 91bd
000001c0: 8e30 6abd f681 77be dc50 78bd 70eb 803e
000001d0: fe04 0abe 9a75 7a3e 0327 e83d 1804 5a3e
000001e0: a604 6abd a1b9 cabd 852c e8bc 64c5 023e
000001f0: e707 583d 15c9 943e fdff 873e de0b a53c
00000200: 7bbe 58bd c804 51bd e9a9 c5bd 1cd4 1e3e
00000210: 7e5e 60bd bcd3 733e d90b 2dbe a953 293e
00000220: eb08 343e 0b71 f8bd f0c3 4d3a 0f2e eabd
00000230: 1b39 3c3e ed3f bd3c 422e d53d 6599 eb3d
00000240: 8056 dc3d 44e1 20be ada6 2d3e 7d91 a9bd
00000250: 0f6d a2bd c865 9d3c 1975 573e 7b5d 673e
00000260: bfee 06be b331 6e3c 5744 80be 488b 37be
00000270: a1ca 443e 4f48 a43e fd6d a7bc 1108 e5bd
00000280: 3c70 893e 9f24 683e b51e c0bb 12a1 cf3c
00000290: c136 1d3e d6af adbd 44b2 f8bd 6b05 e13d
000002a0: 501c 093e 63ae 573e b53b a03d cc3a 40be
000002b0: 1423 70bd 7495 5a3e a95d f63d c4ba 86bd
000002c0: f75f 3c3e 7b2b 93be 2a36 be3d 7031 693e
000002d0: 4f65 e53d d4d7 833e 7b79 4dbe 72cd 903e
000002e0: 7d0e 863e 369e 4b3e 96d4 873e d880 a7bb
000002f0: 3a8f 85be 1547 8f3d 0669 a3be 2296 db3b
00000300: 5849 73be 4ebd 2b3e f04e 133e 0528 87bd
00000310: 0e45 3cbe 5e98 15be cbab 873e d41e 613e
00000320: 1b96 5a3e 4f24 9bbd dd0e a5bd ba19 0a3e
00000330: 1877 2ebc b82e a13b e137 41be 339e 86be
00000340: b2b5 8e3e d966 e6bd 49ef 7f3e 7878 8ebe
00000350: 66e6 663c 247c a43e df84 90be a8f7 69be
00000360: aace 62be 4ef1 73bd 4337 af3d 1390 99be
00000370: bc99 25be d2c4 5fbe ef14 abbd 2bd4 4e3e
00000380: 3c70 51bd 9ad2 df3c b34e c7bd 4823 d2bc
00000390: f61b a93c 03a5 03be 0cf5 72be 84e0 823e
000003a0: 5c07 073d 615e 323e 10fd 5d3e a109 893e
000003b0: c27b 76be e976 e2bd 1e91 b13d 2817 77bd
000003c0: 216e 3d3e 3538 c6bc 1fea 1d3d f215 92be
000003d0: cabe 523e e506 2e3e 2f34 863e 3eab 633e
000003e0: 3c7e 16be 606c cdbd ce2f 9abd bd12 a23d
000003f0: acad 90be 76f5 373e 6549 4d3d 2f0a 073d
0.023538802 -0.2195198 0.18863328 -0.11559774 0.076034285 0.06188626 -0.21203905 0.12489185
0.18719548 0.18308523 -0.017594928 0.2433689 -0.13529444 0.033955317 -0.2832665 0.0743144
0.09526086 0.0040687136 0.06715261 0.14535268 0.17182158 0.21988195 0.1858252 -0.11774904
-0.27772716 0.07147626 0.08212063 -0.1914018 -0.07035206 0.1869679 -0.11477073 -0.027516186
0.13979886 0.26167017 -0.2974283 0.039346095 0.24798429 0.058436245 0.10666746 -0.2623709
-0.051915273 -0.161386 0.19328886 -0.2787065 0.11752446 0.2232711 0.1851529 -0.25733736
-0.072288424 0.09420817 -0.21624641 -0.023773588 0.2699765 0.0681851 0.084216364 0.23955923
-0.12018294 -0.05417153 0.16232567 0.30188012 0.08405421 0.061411265 -0.17278297 -0.0025572716
-0.054729372 0.036130577 0.24194811 -0.22107749 0.26105136 -0.207726 -0.11557699 -0.24736054
0.2126881 -0.024910688 -0.006908239 -0.15597877 -0.17268902 0.05869002 0.25085878 -0.16337438
-0.16678378 0.25155565 0.08637383 0.26446295 0.0008475841 -0.2061944 0.20710823 0.27393585
-0.0058049327 0.07155035 -0.19860582 -0.30971387 0.21876031 0.21599276 0.16623896 -0.190432
0.27066737 -0.15661718 0.1726396 -0.018312035 0.1790854 -0.027002981 0.11911944 0.23943508
-0.253616 0.17841063 0.2931722 0.20641433 0.15120585 -0.07466747 -0.2172177 -0.07094466
-0.05717521 -0.2417067 -0.06062399 0.25179625 -0.13478467 0.24458924 0.11335566 0.21290624
-0.05713334 -0.09898687 -0.028341541 0.12770611 0.05274191 0.29059663 0.2656249 0.02014726
-0.05291603 -0.05102995 -0.096515484 0.15510601 -0.054777615 0.23811239 -0.16899051 0.1653582
0.17581527 -0.12130936 0.00078493264 -0.11434566 0.18381159 0.023101771 0.104092136 0.11503867
0.10758686 -0.15710932 0.16958113 -0.08279703 -0.079309575 0.019213572 0.21040763 0.22594254
-0.13177012 0.014538216 -0.2505214 -0.17924225 0.19217922 0.32086417 -0.020438189 -0.11183179
0.2684344 0.2267022 -0.0058630356 0.025345359 0.15352918 -0.08480804 -0.121433765 0.109873615
0.13389707 0.21062617 0.07823888 -0.18772429 -0.058627203 0.21346074 0.12029583 -0.065785915
0.18395983 -0.2874411 0.09287675 0.22772765 0.11200964 0.257506 -0.20065872 0.28281742
0.2618293 0.19884571 0.26529378 -0.005111795 -0.26085836 0.0699598 -0.31916064 0.006701247
-0.23758447 0.16771433 0.14385581 -0.0659943 -0.18385717 -0.14608905 0.26498255 0.21984416
0.21346323 -0.07575285 -0.080594756 0.13486376 -0.010648511 0.0049188994 -0.18868972 -0.2629257
0.27872998 -0.112500854 0.24993624 -0.27826285 0.014093017 0.32125962 -0.28226373 -0.2284838
-0.22149149 -0.059556298 0.08555462 -0.29992732 -0.16171926 -0.21852425 -0.08353602 0.20198123
-0.051132426 0.027322102 -0.097318076 -0.025651589 0.020643216 -0.12855916 -0.2372629 0.25561917
0.032966003 0.17418815 0.21678567 0.2676516 -0.24070647 -0.110578366 0.08670257 -0.060324818
0.18499042 -0.024196723 0.038553353 -0.28532368 0.20580593 0.16994818 0.26211688 0.22233292
-0.14696592 -0.100304365 -0.07528649 0.0791373 -0.282575 0.1796473 0.050118823 0.032968696

fc1.bias f4 [100]
00000000: 4ff8 f0bd 273a 94be 2be3 f3bd b11c d63d
00000010: b3b5 c23d 6a71 43be f2a5 95bd 67c8 623b
00000020: 1813 91bd eefa a0be f054 a73d bd26 583d
00000030: c005 33be 5eed 303e 8ec0 003e 0a7b 8cbe
00000040: 9a20 4f3e 4a82 8f3e 4255 5abe ab66 df3d
00000050: d932 263b b0b1 88be 2936 b63d ed73 4abe
00000060: 98e9 ad3d b99c e13d 87d3 86be 9436 3cbe
00000070: e457 7d3e 9e06 133e a45a 38be ae65 953d
00000080: 183f 643e 9b7b 793e 2aa2 a5be 556d 313d
00000090: 88f5 153e 9c09 b93d cf67 22be 4c8d e43d
000000a0: 71de 353e 2153 953e 42a7 c4bb 5622 97be
000000b0: a803 693d 968f b6bb e050 81be 2721 72be
000000c0: 97fc 243e 7b82 a83e 3bce ba3d 9786 8f3e
000000d0: 9f7d 5fbe 225b 47be 474c 513c 0bf3 3b3e
000000e0: 49fe 143c 8f7d 9c3e 1363 6a3e 3174 823e
000000f0: a027 54be 3788 8a3e ef20 663e 3527 af3d
00000100: 06da 31bd 0ed0 84be 87bd 52bc 1683 7fbd
00000110: a4d2 6f3c c668 acbc b8d5 a53e e044 e8bd
00000120: 3bb5 063e e4fc 663d 553f 80be a909 76be
00000130: 9b51 333e 9b91 253e 4c1e 8a3e 83d3 a23e
00000140: 8f14 86be 216b 6cbe 602f 813e 6dcb 1d3e
00000150: d4e6 993e d29c 9abe bb72 29be 5226 813e
00000160: 8a9c 623e 9856 553c adb1 7f3e 40d2 6c3e
00000170: e655 02bd f3de 4e3e 93d3 35be 8666 473e
00000180: 48ee 963e 6145 cebc a538 4f3e cfb7 933e
-0.11766111 -0.28950617 -0.11908563 0.10454691 0.095073126 -0.19086233 -0.07307042 0.0034604312
-0.0708372 -0.31441444 0.081704974 0.05277132 -0.17482662 0.17278048 0.12573454 -0.2743762
0.2022728 0.2802909 -0.21321586 0.10908254 0.0025359897 -0.26698065 0.08897049 -0.19770785
0.0849182 0.110162206 -0.26333258 -0.18380195 0.24740559 0.14357993 -0.18003327 0.072947845
0.22289693 0.24363558 -0.32350284 0.043317158 0.14644444 0.09035036 -0.15859912 0.11159763
0.17760636 0.29164985 -0.006001384 -0.29518384 0.056888252 -0.005571316 -0.25257015 -0.23645459
0.1611198 0.3291205 0.091213666 0.2803237 -0.21825264 -0.19468358 0.012774534 0.18354432
0.009093829 0.30564544 0.22889356 0.25479272 -0.2071824 0.2705705 0.224735 0.085524
-0.043420814 -0.25939983 -0.01286257 -0.062380873 0.014637623 -0.021046054 0.32389617 -0.11341262
0.13155071 0.05639352 -0.25048319 -0.24027123 0.17511599 0.16168825 0.2697624 0.31801996
-0.2618756 -0.23087741 0.25231457 0.15409632 0.3005892 -0.3019777 -0.16547672 0.2522455
0.22130027 0.013021134 0.24970122 0.23127079 -0.0318202 0.20202236 -0.1775649 0.19472703
0.2947867 -0.025179567 0.20236452 0.28851172

fc2.weight f4 [100, 100]
00000000: e536 adbc 54eb 8bbb 7dfd d5bc 6251 7a3d
00000010: 8cd6 063d 3647 7a3a 557e ddbc 9cf7 253c
00000020: f09e 3dbc 67e5 d1bd a213 2d3d 66fc febc
00000030: c1c9 28bd c27f aa3d b9b5 6a3d 8d26 ad3d
00000040: 79ae 94bc 79a1 b2bc c2c3 acbc b77e ac3d
00000050: 7c47 1bbd 72be b93d ca9d 843d c1f9 b43c
00000060: b122 80bd 432d 93bc 7e9b 35bd 7cbf 81bd
00000070: 782c 5fbd e479 77bd dd2c 2fbd 147a 2dbd
00000080: 39c5 ad3d 8720 a9bd 60a5 913d 3d74 553d
00000090: 2eb5 b4bd 1caa e03d ae5a 963d 0727 32bd
000000a0: d3bc f23c 0bc0 2c3d a31c 723d 1c0c 543c
000000b0: 19a6 c93d fee0 a73d 641c 6abd cb44 3abd
000000c0: e945 cfbd 4e12 4abd d5dd d6bc f115 dabd
000000d0: fa52 463d df12 ca3c e0b0 8fbd fd5f 8fbc
000000e0: 0919 0c3d 13e3 a03d d9c8 303d e3a6 4d3c
000000f0: cf84 bb3c d644 69bd 02bd be3d 9a1a 8dbb
00000100: 875a 653c 75a1 083d f19b 913d 69f4 cf3c
00000110: 4345 dd3d 0b48 e33c 1303 4dbd 14cf 9bbd
00000120: f6a5 3e3c 7a13 423d de43 803d 60ee 8abd
00000130: 107c bdbd d9b1 373d 1e6e 793d 5900 693d
00000140: f625 403c 060f a6bb f853 66bd 6842 a33d
00000150: 0d51 be3d 34f3 d93c 9a7a b73d 8a36 47bc
00000160: dbc3 7dbd da61 a53d 18e7 cabb a3aa 3dbd
00000170: df86 bbbc e6e0 6bbd ed87 4e3c 4932 103d
00000180: e821 933c 9f76 3cbd 0920 e8bc f110 cb3d
00000190: 2029 a0bd 7f49 94bd 2933 c23d d3cf bd3d
000001a0: 891b 13bd 7880 a2bc f35e c83d efbf 8d3d
000001b0: dcb1 16bb 3b69 3f3d e0ab c73d faec b1bd
000001c0: 908c 84bd 6eae 673d 1e2b ab3d 5f38 353d
000001d0: 0229 b33d aa90 843d 9d50 8a3b 40d3 e2bd
000001e0: 83fb adbd 88c0 9d3d 7989 e53d cc40 d3bc
000001f0: 77e3 1abd e3c9 e03c 173f 33bd 6b28 98bd
00000200: 5af6 423c 0f80 8c3d 8446 d4bd 0b18 4ebd
00000210: 8e79 a4bc 79e3 97bb a033 1b3d 34fb 27bd
00000220: 242b 7fbd 78ca a83d 9a2f 623d 3a8a 763c
00000230: dbb0 fdbc 8b57 b3bd 8fc1 bdbd a45b ad3d
00000240: fbc6 a5bd 25d5 cbbd de54 a03c 2a08 cabd
00000250: b54a 17bd 6ed9 963d dd45 093d f13d 76ba
00000260: dd51 5a3d e3ee 18bd 830f 343d 573f 723d
00000270: d9dc 8b3d 934c 4ebc cd04 f83c 3942 533d
00000280: c2d5 66bd 2cce f2bc a322 0fbd 0ed6 b13d
00000290: 1862 b6bc 1796 08be 9bac aabd 84fd 493d
000002a0: 9ac8 c13d ed7c da3d e89b 223d 20a2 34bd
000002b0: 80ff 89bc 5a2f b33c 53a6 b03b a531 cabd
000002c0: 8007 f93c 10a3 a4bd a3b2 5b3d 6ed6 e93d
000002d0: f47d 02bd 261e d2bd 6173 c2bd 57b6 babd
000002e0: 0ca2 7a3d a37e 743d a09d 353d 89e3 32bd
000002f0: 20e4 52bd 65c8 c23d 1e8d 5c3d 8272 223c
00000300: 265b 23bd a7f9 793d 4c95 9cbd fe9d fbba
00000310: 9ee6 87bd bbac 10bd ddee 89bc 1d46 15bd
00000320: 5703 743d f0eb c4bc ae38 b23d 87d9 113c
00000330: a5ff 8c3b afc2 9ebc a011 1e3d 8d0d 71bd
00000340: 988c 24bd ada9 553d fedd b6bd 00a3 8e3d
00000350: 5f92 acbc d5f9 143c 616f 6e3d d818 d8bd
00000360: f739 ad3c c310 8f3d 9af8 dc3c 7b76 973d
00000370: 6c85 bd3d e84d afbd c019 c83d b5da 103d
00000380: 4d1b efbb b975 c13c a35b 84bd 340c a73c
00000390: 766a 23bc e551 703d 7fab 92bd 98fe 893d
000003a0: d817 47bc 277e 95bd 0ef6 a53c fd28 87bc
000003b0: d14b 0cbd 3e0e a3bc fa2a 1bbb 2648 8dbc
000003c0: e998 9fbc 3fd6 51bd d784 37bd 4d8e 9a3d
000003d0: 7ddb fa3c 0df8 d03c 3ec5 363d 8d40 80bd
000003e0: 8858 b0bd 6128 78bd f9ce 6c3d f45c 94bd
000003f0: 73ee a83b 6f67 913b de5d 91bd 0b88 92bd
-0.02114434 -0.0042699967 -0.02612185 0.06111277 0.03291945 0.00095473544 -0.027037779 0.010129835
-0.011573538 -0.10248833 0.04225505 -0.031126212 -0.041208033 0.08325149 0.05730221 0.084546186
-0.018149601 -0.021805512 -0.021089438 0.084226064 -0.03790997 0.09069528 0.064754084 0.022091748
-0.06256617 -0.017965918 -0.044337742 -0.06335351 -0.054485768 -0.06041898 -0.042767394 -0.04235275
0.08484883 -0.08258157 0.07111621 0.052112807 -0.0882362 0.10969946 0.073415145 -0.04349425
0.029631054 0.042175334 0.05910934 0.01294234 0.09846134 0.08197211 -0.05715598 -0.045475762
-0.10120756 -0.049333863 -0.026228825 -0.10648716 0.048418976 0.024667202 -0.07016158 -0.017501825
0.034203563 0.07855811 0.043160293 0.012551996 0.022890477 -0.056950413 0.09313394 -0.0043061497
0.013998634 0.033357102 0.071098216 0.025385099 0.10804226 0.027744314 -0.05005176 -0.076078564
0.011636248 0.047381856 0.06262945 -0.06783748 -0.09252179 0.044847343 0.06089603 0.056885097
0.011727801 -0.005067709 -0.056232423 0.0797165 0.09292803 0.026605226 0.08958931 -0.012158999
-0.06195436 0.08075304 -0.0061920993 -0.04630531 -0.02289146 -0.057587527 0.012605649 0.035204206
0.017960504 -0.046011563 -0.028335588 0.09915341 -0.07820344 -0.07240581 0.09482414 0.09268155
-0.03591493 -0.01983665 0.09783735 0.06921374 -0.0022994196 0.046731215 0.097495794 -0.08687778
-0.06472123 0.056562833 0.08357833 0.044243213 0.08748056 0.06472905 0.0042210356 -0.11075449
-0.08495238 0.07702738 0.112078615 -0.025787733 -0.037814584 0.027440017 -0.04376134 -0.07429584
0.011899555 0.06860363 -0.10365012 -0.050315898 -0.020077493 -0.004635271 0.03789103 -0.04101105
-0.062297 0.08241743 0.055221178 0.015047604 -0.03096812 -0.08756932 -0.09265434 0.08464745
-0.08094593 -0.099527635 0.019571718 -0.098648384 -0.03693648 0.0736569 0.033513892 -0.0009393385
0.053300727 -0.037337195 0.043960106 0.059142437 0.06829233 -0.012591499 0.030275727 0.051576827
-0.0563562 -0.029639326 -0.03494514 0.08683406 -0.022263572 -0.13338505 -0.08333703 0.049314037
0.0946209 0.10668359 0.039699465 -0.044099927 -0.016845465 0.021873165 0.005390921 -0.0987275
0.030399084 -0.08038914 0.053637158 0.11417852 -0.0318584 -0.102596566 -0.09494663 -0.0911681
0.061189696 0.059691083 0.044339776 -0.043674026 -0.05148709 0.095108785 0.053845517 0.009914996
-0.039881848 0.061029103 -0.076456636 -0.0019196866 -0.066357836 -0.03532098 -0.016837532 -0.03644382
0.059573498 -0.024038285 0.08702217 0.00890196 0.004302936 -0.019379942 0.038591027 -0.058850814
-0.040173143 0.05216377 -0.089290604 0.069646835 -0.021065889 0.009092768 0.058211688 -0.105516136
0.021145804 0.06985619 0.026974011 0.07395645 0.09253964 -0.08559781 0.097705364 0.035364825
-0.0072969557 0.023615705 -0.06462791 0.020391561 -0.009974113 0.05867185 -0.071616165 0.06738013
-0.012151681 -0.07299452 0.02025893 -0.016499037 -0.03425199 -0.019904252 -0.002367674 -0.017246317
-0.019482093 -0.05122971 -0.04480442 0.07546673 0.030622238 0.025508905 0.0446217 -0.06262312
-0.08610636 -0.060585383 0.057814572 -0.07244292 0.0051553785 0.004437379 -0.07097982 -0.071548544

fc2.bias f4 [100]
00000000: 6415 1fbd 4acd 3c3d 1a62 91bd a266 cebd
00000010: d84b 9c3b 7ce6 7f3c 2009 e33d cff7 daba
00000020: 809a 643c 4306 d0bd 46b3 0f3d 87d5 f13d
00000030: 2b71 87bd 9845 8cbd 97c7 90bd e937 4fbd
00000040: b257 a9bd 1a66 c63d 658c 88bd 9829 5d3d
00000050: 6b0f 8c3d 1acf 593d bf15 bdbb 19df b838
00000060: 317d ffbc daa1 a03d d241 9dbd 1c1d 843d
00000070: 5531 a2bd 50d2 7b3d 7618 48bc 8714 193d
00000080: f45d 5bbd b514 883d e1e0 513d c2af 443d
00000090: fb06 df3c 1341 f1bd c9de c5bd b10b 70bd
000000a0: 92fc 713b ab13 b23d ed83 93bc 890b 003c
000000b0: b993 693d 582e 86bd da27 2dbd 39d1 a8bd
000000c0: 8717 2c3d 082a 9e3d 66be eb3c cfe3 91bd
000000d0: 1da2 f43d 9584 d6bd fca8 773d f8db 9c3d
000000e0: 9004 7bbd e5ce 073c aeca f7ba bd8a 35bc
000000f0: 30ed 33bd 4783 7b3c f0b6 48bd 7f03 2c3d
00000100: 3e36 2dbd 576c 9ebb 6ff4 49bc 2125 49bd
00000110: 66f1 5abd d6ca 2f3d 1d43 833d 0bac 26bd
00000120: 2ebc 3e3d 5fe9 803d 169a aebd 08dd 833d
00000130: e3cf 28bd 60bc 8cbb 3b0b 9bbd 8223 61bd
00000140: 7e75 143d 3ae3 c1bd cfbc 32bd 2eac 17bd
00000150: 11d5 9f3d 44d7 113d 70ef 9d3c 87b6 71bd
00000160: e8c5 a93d 384a 8c3d e975 b63c 9631 91bc
00000170: da74 4e3c 6400 2cbd a31b 7abd 84eb cd3d
00000180: cf47 e53d b744 923d 16b2 3bbd 4e1d 8fbd
-0.03883876 0.046094216 -0.070987895 -0.100781694 0.0047697835 0.015618917 0.11085725 -0.0016705933
0.013952851 -0.10157444 0.035083078 0.11808305 -0.06613382 -0.068492115 -0.07069319 -0.05059043
-0.0826868 0.09687443 -0.06667403 0.053994745 0.06838878 0.053176023 -0.0057704146 8.815359e-05
-0.031187626 0.07843371 -0.0767857 0.06450865 -0.079195656 0.061479867 -0.012212863 0.037373092
-0.053556398 0.066445746 0.05123985 0.04801918 0.027225008 -0.1177999 -0.096616335 -0.0586049
0.0036924225 0.086951576 -0.018007243 0.00781525 0.057025645 -0.06551808 -0.042274334 -0.08243031
0.042014625 0.077228606 0.028777312 -0.07123529 0.11944983 -0.10474507 0.06046389 0.07659143
-0.061283648 0.008289074 -0.0018905008 -0.011080441 -0.04392737 0.015351123 -0.049002588 0.04199552
-0.042288058 -0.0048346925 -0.012326344 -0.049107675 -0.05345287 0.04291805 0.06409285 -0.040691417
0.04656618 0.06294512 -0.08525483 0.06438643 -0.04121388 -0.004294917 -0.075705014 -0.054965504
0.03624486 -0.09467168 -0.043637093 -0.037029438 0.07804311 0.035605684 0.019279212 -0.059011962
0.08289701 0.068500936 0.02227302 -0.01772384 0.012601102 -0.04199256 -0.061061513 0.10054687
0.11195337 0.071420126 -0.045824133 -0.06988011

fc3.weight f4 [3, 100]
00000000: 08d6 ce3b d503 d63c 9459 82bb 94b6 bbbc
00000010: 63d5 df3c 87b9 f83c 8680 c93c 48c2 70bc
00000020: ed20 ee3b f2bb 19bd e8d0 963c 6f92 903c
00000030: 2ffc a0bc cfaa 71bb 7c6d 24bc 2398 403c
00000040: 5429 b5bc 6f07 163d 82c9 5b3b 68ef fb3c
00000050: 7c1a 783b ec96 2dbb 4f15 69bc 50f4 3ebc
00000060: b538 09bc 8d6b ca3c fccc c7bc 1072 51bc
00000070: b930 05bd 2068 17bc 3acd 02bd e129 d1bc
00000080: 300b 053d aaf7 123c 9336 6d3b d57a f93c
00000090: 9ad9 d3bc 0ac0 b9bc c903 82bc 131f 003d
000000a0: ae82 60bc 6340 ac3c b700 7fbc ca50 00bd
000000b0: b53a 993c 8264 fd3c c26d 0dbd d8bd e7bb
000000c0: 53e6 5cbc fa96 af3c a4e1 c5bc 4dbd 7239
000000d0: 06e2 c83c 8731 fdbc 5de7 9b3c 58e8 953c
000000e0: abe1 bf3c 24ef e5bc 1c79 873b 9de0 3b3c
000000f0: 2667 473c 33d2 bd3c 87d9 2cbd e6ca e43a
00000100: 10d9 d63b 09d0 283c 913b a63a ff2e 47bc
00000110: 9386 8c3c 15de 3e3c 189f 6b3c f7e4 1abc
00000120: a727 80bc 08cd b93c 0e4e aa3c df94 603c
00000130: 26cd fd3c 939a ecbc f05b 25bc b7a0 28bc
00000140: 3302 543c 76f5 fcbb d01f 5bbc 5197 d33c
00000150: 2226 7d3b 4018 04bd fbcd a43c 4d3a 233b
00000160: fe8e f63a 977e 65bc 1201 da3c 95fe 9f3b
00000170: efb5 73bb eb81 0b3d 4415 82bc 049b 003d
00000180: 19da 8d3c e1bf 743b b451 c73c 4fe0 863c
00000190: 385a 21bc cb9b bc3c 742c fb3b 768f fdbc
000001a0: 1499 dbbb c098 883b 4a46 e6b9 c4cf 0a3c
000001b0: d8c4 87bb 4495 8dbc 1920 543c 75a7 c43c
000001c0: 41c8 21bc 482d 1cbd e0c3 33bc 9e61 b4bc
000001d0: 2820 8ebb 7472 d43c 2c9c 033d a062 c93c
000001e0: 91c0 26bc a6cb 933c 5b2c c6bc 50c1 cabb
000001f0: 2ddd 80bb 58fc d8bb d966 00bc 46fd 013d
00000200: 3090 babc dbc4 023d 0652 e73c 1e6b dab8
00000210: 217d b4ba f26c aa3c f321 2dbb d3d4 02bc
00000220: fd07 bfbc c5d8 fcbc a88e babc a0dc 803c
00000230: bdeb 0bbc 5335 dcbc 12f3 10bb a2ee 9eba
00000240: 4a9d 4fbc 8b2b f2bb 7344 97bc 2008 6abc
00000250: 8093 d43b 92f5 863c 7232 e5bc 4429 b9bb
00000260: bce8 b03c 95b0 8ebc 4600 2d3c 2f95 a53c
00000270: 5403 8f3b 3f7f f8bc 800d 0238 69ed f03c
00000280: a921 323c a0f3 ecbb 26aa a2bc b4dd ab3b
00000290: 11bf 8e3b d197 7d3c 15c1 77bc 5014 8eb9
000002a0: 17c7 e83b 517b 953c aad1 6bbb cdb4 c8ba
000002b0: 33a2 2a3c f946 a13c 1cf4 afbb b1eb ee3b
000002c0: 09c6 e13c 31b1 f1bc 505c 49bb 6ed3 143c
000002d0: 776d 38bc cb92 ab3b d052 c0bc ce32 99bc
000002e0: 0ff4 a53b fe5b 94b9 7772 ee3a 71ce d0bc
000002f0: 709c 9e3c c215 bbbc b884 85bc 385d f33a
00000300: ac70 96bc 4ffe c9bc b56e 1a3d 30f4 003c
00000310: 0008 993c 8780 e83b d82d 4c3c 770e b93c
00000320: 19ae 9cbb 28cf b7bc e167 6dbc f301 aebc
00000330: bf5b 413c ee9a 22bc 3f97 5fbc e4bf 3c3c
00000340: d665 8e3c 7c75 61bb 72d8 b63c c94d 0c3c
00000350: 8cbe 043c c694 00bc af0b 61bc 3c02 d43b
00000360: 3581 b93c ceda d1bb 9def 5c3c a742 383c
00000370: a30e 47bc 1d71 dd3c f1b0 a1ba 8908 b43b
00000380: e546 2bbc 1774 1c3c ca86 d2bb 1bc2 5b3b
00000390: 2b42 fc3b a35f adbc 71b7 ffbb 3c65 16bd
000003a0: 61ee 693b 0860 6a3c 4f61 85bc ff53 c9bb
000003b0: 66a1 adbc 5a9f c8bb ac9e cfbc 0cf1 ce3b
000003c0: 5f4c 7a3c fc5a 003a 85e8 9f3c e231 f83b
000003d0: 729c 2eba 2d04 cf3b dfbc ccbb 47cb 963c
000003e0: 4e17 f23c afdb a83b 9f06 0f3b 71a0 3b3c
000003f0: 9341 04bc d819 18bc cb29 c8bc 0380 023c
0.0063121356 0.026124874 -0.0039779637 -0.022914208 0.02732343 0.030361904 0.024597418 -0.014694758
0.0072671087 -0.037532754 0.018410161 0.01764795 -0.0196515 -0.0036875491 -0.010035869 0.011755022
-0.022114433 0.036628183 0.0033536856 0.030753806 0.0037857583 -0.0026487662 -0.014226272 -0.011654928
-0.008375336 0.024709487 -0.024389736 -0.012783542 -0.03251717 -0.009241134 -0.031934 -0.025532665
0.032481372 0.0089701805 0.003619586 0.030454079 -0.025860596 -0.02267458 -0.015870946 0.031279635
-0.013703031 0.021026796 -0.015564135 -0.031327046 0.018704752 0.030931715 -0.0345285 -0.0070721917
-0.013482648 0.021434296 -0.024155445 0.00023149438 0.024521839 -0.030907406 0.019031221 0.018299267
0.023423037 -0.028068133 0.0041343104 0.011467126 0.012170589 0.02317152 -0.042199638 0.0017455488
0.0065566376 0.010303506 0.0012682547 -0.012157201 0.017154014 0.011649628 0.014381193 -0.009454004
-0.015643908 0.022680774 0.020789173 0.013707369 0.030981611 -0.0288823 -0.01009272 -0.010292224
0.012939977 -0.007719691 -0.013374284 0.02582899 0.0038627465 -0.03224969 0.02011775 0.0024906576
0.0018810926 -0.014007232 0.026611838 0.0048826435 -0.0037187298 0.034059446 -0.01587928 0.031397834
0.017315911 0.0037345814 0.024330951 0.01646438 -0.00984817 0.023023507 0.0076652113 -0.030952197
-0.006701598 0.0041686 -0.00043921388 0.008472387 -0.0041433387 -0.01728309 0.012947106 0.024005631
-0.009874404 -0.03812912 -0.010971993 -0.022019204 -0.0043373294 0.025933482 0.03213136 0.02458316
-0.010177747 0.018041443 -0.024191072 -0.0061875954 -0.003932616 -0.0066218786 -0.007837021 0.03173568
-0.022773832 0.031926017 0.028237354 -0.00010415002 -0.0013770201 0.020803902 -0.002641794 -0.007985312
-0.023319239 -0.030865083 -0.022773102 0.015730202 -0.008540091 -0.026880896 -0.0022117537 -0.0012125561
-0.012671778 -0.0073904446 -0.018465256 -0.014284164 0.00648731 0.016474519 -0.027978156 -0.005650671
0.021595351 -0.017418185 0.010559147 0.020212738 0.0043644104 -0.030334113 3.1006988e-05 0.029410081
0.010872283 -0.007231191 -0.019856524 0.005244935 0.004356273 0.01547809 -0.015121718 -0.00027099485
0.0071038115 0.018247278 -0.0035983124 -0.0015312672 0.010414648 0.019687163 -0.0053696763 0.00729128
0.02756025 -0.029503437 -0.0030725189 0.009083612 -0.011256567 0.005236005 -0.023476988 -0.018700983
0.0050644944 -0.000282973 0.0018192072 -0.025489064 0.019361705 -0.022837523 -0.016298637 0.001856721
-0.018364273 -0.024657397 0.037703235 0.007870719 0.018680573 0.0070954 0.012462102 0.022589905
-0.0047814962 -0.022437647 -0.014490099 -0.021241164 0.011801659 -0.009924633 -0.0136469 0.01152036
0.017382544 -0.0034402302 0.022320006 0.008563467 0.008102071 -0.00784797 -0.013735696 0.006469993
0.022644619 -0.0064042574 0.013484863 0.01124636 -0.012149486 0.027031476 -0.0012336058 0.0054941815
-0.010453914 0.009549162 -0.0064247595 0.0033532444 0.0076983175 -0.021163767 -0.0078038503 -0.03671764
0.0035695063 0.014305122 -0.016281752 -0.0061440463 -0.021195125 -0.006122512 -0.025344215 0.006315356
0.015276997 0.000489637 0.019520054 0.007574306 -0.00066608854 0.0063176365 -0.006248101 0.018407477
0.029552128 0.0051531415 0.0021824015 0.011451826 -0.008072275 -0.009283505 -0.024433991 0.007965091

fc3.bias f4 [3]
00000000: 1de4 c63c 9c41 893c 009b c537
0.024278695 0.016754918 2.3556408e-05

fc1.weight f4 [100, 11]
00000000: 9595 4cbe 3dad 203e 30e4 2f3e 8774 39be
00000010: f3c2 813c e15f b43d ba6f e63d 7d3d 293e
00000020: e676 4f3e 925f 293e aec4 a73d 5614 00bb
00000030: 22b0 42be 7b5b 443e f4b1 e33c cb92 ffbc
00000040: 2011 28be 49f0 60be 2c71 8b3c 6e17 73bd
00000050: 6f0f 033e 2fe7 f73d 8716 4abd 3446 8bbd
00000060: cd30 4bbe f325 1bbe 4f02 2f3e 3834 463e
00000070: 8e53 11be f778 873e a786 50bd 742d 3e3d
00000080: 0f1b 133e 3d49 6a3d 0b58 8abe 7760 1b3e
00000090: fad0 36bd b2eb 9cbc 26ba 80bd b252 103e
000000a0: 00f9 833e 9e82 57be 1e67 b03d c62d 48bd
000000b0: 1130 88be a168 9c3c 2147 123e 364c 5dbe
000000c0: ac5e 9dbd 179b 363d 6f4d 1a3d bcdb 013e
000000d0: 6e57 b93c 8608 2e3b 37d2 01be 10d1 87be
000000e0: c571 283e 6b5c fb3d 6882 89bd cf36 62be
000000f0: 1917 243e 37e7 9c3c feea 123e b9b7 8c3e
00000100: b028 2abd b3c9 e73c e1a3 95be 2e72 ac3d
00000110: 8e80 473e bb13 b83d 885b 4bbe 0c48 e1bd
00000120: b8de 573e d71a 1ebe c11e 2e3d e579 073e
00000130: 40a1 70bd d1b4 1f3e 5aa2 1f3e 9421 66bd
00000140: 71b1 43be 9323 5fbd 1aab 5bbd 08c3 05be
00000150: 5186 7dbe 1c45 883e 81b4 8bbe c5a5 363e
00000160: 0349 86be fbc4 abbd 0995 84be 2b28 5c3e
00000170: 4973 563d 8fe0 71be 2381 ba3d c4ad 643e
00000180: 7cb3 97be 6a0f dcbd 8c12 063e faf4 c2bd
00000190: 2529 173e 5c17 87bd 1cd1 bebd ff93 8d3e
000001a0: 88c2 593e 7eca 893e 271f 893e abb5 30be
000001b0: e731 b5bd cdce 6c3d b341 eebd 9491 06be
000001c0: b165 3bbc da9a 153e fc62 063e eeb8 113e
000001d0: 2b7c 9abb 5790 69bd f8f7 00be 05de 4a3e
000001e0: a3d0 bf3c f278 953c a25e bd3c d757 3a3e
000001f0: 0b0a 873d 83eb 7c3e 5624 833e de49 cebd
00000200: 52ad 49bd 50cf 563e 0d46 823e 8a74 81be
00000210: 33d6 d43d 89cd 483e d0e9 643e 3eeb c43d
00000220: ffb3 0dbe 865e 3b3b a9da aa3d b409 fcbd
00000230: dfac 1f3e 052f 6abd 4f79 c23d 0d5c 603e
00000240: a549 47bd daca de3d fb9f 403e c234 bd3d
00000250: 2c92 4f3e 72ea d83d e69c 3c3e a15a 7f3e
00000260: 68d0 1b3e 261e 893e f6d1 f73c 18b9 17be
00000270: ce7e 803e 2642 013e 5f72 cfbd c066 a2bd
00000280: dfe7 6dbe 139f 85be e410 38be f495 3bbe
00000290: f220 233e a3f2 b03d 16a6 82be 7683 463e
000002a0: 6559 95bd 4e20 69be eb75 b9bd 5067 4a3e
000002b0: d030 713e c459 59be 53c4 67bd af03 9a3d
000002c0: 63e7 85be dd68 05be 90ad 913e 95a2 91be
000002d0: 0c1e dbbd 0e06 15be 2793 56be 2145 33be
000002e0: 52d7 7dbe 772e 013e ab2f f53d 40f3 5a3e
000002f0: 909d e93c 4e26 58be d239 ce3c 2449 29bd
00000300: 31c2 ab3d d0bf e63d 6c2d 70be 4cb0 8ebd
00000310: 345a 1d3e 08e6 72be 22ec ecbd 6e7f 9dbe
00000320: 7ad7 a73c 38a9 3b3d 80ff 1d3e 533d b4bd
00000330: 9e4e 96be 8e66 483e 38d3 323e 7827 c33d
00000340: 9d66 b43d cdd5 513e 99bf 8abe 110e bdbc
00000350: c2db c03d 53b4 953e ca83 9cbd 5035 263e
00000360: 6c93 28be 6699 de3c 2771 753e d98a 453e
00000370: 93f7 50be 3e48 15be c382 2cbe 1517 3c3e
00000380: a6c6 05be 8015 8a3e bcff d13d 4c39 8cbc
00000390: 713a f13c 47e7 d5bd 93f1 63be 0647 513e
000003a0: da3a 233d 4e86 63be d353 693e 806a 1e3e
000003b0: f797 1ebe 807e d63d 1be3 04be e719 2ebe
000003c0: 1ce0 83be 698c b6bd d710 ddbd 9461 213d
000003d0: 4ce3 3ebe b38e 8abd c1d2 b5bc 0d3e 0e3d
000003e0: d027 e2bd 346e 053d 9190 a23c 97f1 883b
000003f0: 20dd fbbd f36f 793e 6a0c 8dbe 69ef 93bc
-0.19978936 0.15691085 0.1717689 -0.18110858 0.01584003 0.0880735 0.11251779 0.16527362
0.202602 0.16540363 0.081918105 -0.001954337 -0.19012502 0.19175522 0.027794816 -0.031197926
-0.16412783 -0.21966662 0.017021738 -0.059348516 0.12798856 0.12104642 -0.04933789 -0.068004996
-0.19842835 -0.15151195 0.17090724 0.19355857 -0.1419203 0.26459476 -0.050909664 0.046430066
0.14365791 0.05719875 -0.27020296 0.15173517 -0.04463289 -0.019155357 -0.06285505 0.14094046
0.2577591 -0.2104592 0.08613418 -0.048871778 -0.26599172 0.01909286 0.14284946 -0.21611103
-0.07684073 0.0445815 0.037671503 0.12681478 0.022624698 0.0026555373 -0.12677847 -0.2652669
0.1644965 0.12273487 -0.06714326 -0.2209122 0.16024436 0.01915322 0.14347455 0.2748392
-0.04154271 0.02829442 -0.29226592 0.084202155 0.19482633 0.08988138 -0.19859135 -0.1100007
0.21081054 -0.15439926 0.042509798 0.13230093 -0.05874753 0.1559632 0.15589276 -0.056184366
-0.19110657 -0.054477286 -0.053629972 -0.1306268 -0.24758269 0.26615226 -0.2728615 0.17836674
-0.2622758 -0.083871804 -0.25894955 0.21499698 0.05235604 -0.23620819 0.09106662 0.22331911
-0.29629123 -0.107451275 0.13093013 -0.09519382 0.14761789 -0.06596252 -0.09317228 0.27651975
0.21265614 0.26912302 0.2678158 -0.17256801 -0.08847409 0.057814408 -0.11633625 -0.13141471
-0.011437819 0.14609852 0.13123697 0.14230701 -0.004714509 -0.05702242 -0.12594593 0.19811256
0.023414915 0.018246148 0.023116414 0.1819757 0.065937124 0.24699216 0.2561366 -0.10072683
-0.049237557 0.20977521 0.2544407 -0.25284225 0.10392418 0.19609655 0.22354817 0.096151814
-0.13838194 0.0028590276 0.08342487 -0.12306538 0.15593289 -0.057173748 0.09495794 0.21910115
-0.048654217 0.108785346 0.18811028 0.092385784 0.20270604 0.10591592 0.18419227 0.24936916
0.1521622 0.26780814 0.030251484 -0.14816701 0.25096744 0.1262289 -0.101292364 -0.07929754
-0.23232983 -0.26097926 -0.17975193 -0.18318921 0.15930536 0.08640029 -0.2551734 0.19386086
-0.07292441 -0.2276623 -0.09055694 0.19765973 0.23553777 -0.21225649 -0.056583714 0.07520234
-0.26153097 -0.13028283 0.2845273 -0.28444353 -0.1069909 -0.14553091 -0.20954572 -0.1750684
-0.2478917 0.12615381 0.119719826 0.21381855 0.028517514 -0.21108362 0.025174055 -0.041329518
0.083866484 0.11267054 -0.23454827 -0.0696722 0.15366441 -0.23720562 -0.11568476 -0.30761284
0.02048849 0.045815676 0.15429497 -0.08800759 -0.29356855 0.19570372 0.17463386 0.095290124
0.088086344 0.20491715 -0.27099302 -0.023077996 0.094169155 0.2923914 -0.07642324 0.16231275
-0.16462487 0.027172755 0.23968945 0.19291247 -0.20406942 -0.1457834 -0.16846757 0.1836818
-0.1306406 0.26969528 0.102538556 -0.017117165 0.029446812 -0.10444503 -0.22260122 0.2043725
0.039851047 -0.22219202 0.22785883 0.15470314 -0.15487657 0.10473347 -0.12977259 -0.17002068
-0.2575692 -0.089135 -0.107942276 0.0393997 -0.18641394 -0.06765499 -0.022195222 0.034727145
-0.1104275 0.0325758 0.019844325 0.0041791904 -0.122980356 0.24359111 -0.27548534 -0.018058496

fc1.bias f4 [100]
00000000: 59e2 b83e ec67 8cbe 5c20 853e 2596 cebd
00000010: 63d4 07bd fd5e 873e 2069 84be 73b7 53be
00000020: 7154 a4be d00c abbe 7a67 3c3e d9db a63d
00000030: 2f50 e43d e4cc 70be 1ca2 6d3e c28b 463d
00000040: ccd5 a7be c181 80be 0080 afbe 39cc 0dbe
00000050: d732 673e 5c46 50bc 42bd 8f3e ef8b abbd
00000060: 5344 913e c202 c43d 628f 48bd 6804 353c
00000070: 41c8 513e 0484 a43e d49d dbbd 3b2d b7be
00000080: 88bb 1c3e 2a04 9dbc 50a3 9dbe 167b 223e
00000090: b96a 44be f0cf 823e 213f 173e f404 b33d
000000a0: 7029 013e 7508 88be 7eb7 b43e 0d39 833c
000000b0: b269 913d 8687 45be 01e9 b7be bb82 90be
000000c0: e1c7 81be e08e 7f3e e020 ab3e 6843 9abe
000000d0: 2ea1 863d cf04 c43b 2c06 fabd e334 fe3c
000000e0: f47b 9e3d aa72 14bd ec84 aabe d0a6 17be
000000f0: f16b bc3d 37d3 243e 867b f1bd f6b7 18bc
00000100: eea2 9abc ef17 abbe 00d4 113e 6e00 8fbe
00000110: 94a6 3a3d 244c 8b3e 8664 463e 3eed a53e
00000120: b19d e8bc 21f1 6dbe 8f0e c6bd 9eae 67be
00000130: f249 84be 157c f7bd 5b2c d53d 7e69 48be
00000140: fea8 89be de20 52be 6bd8 86be b87b f83d
00000150: 4f5d 8bbe 1e32 a4bd 6b7b a3be feed 9ebe
00000160: 9c23 a7be b8eb d33c c0f7 e33d b008 4b3e
00000170: a44c 813e 4af0 6bbd 9241 a4be 6009 003e
00000180: 0128 8a3e 7622 14be 3cc6 93be cf27 25be
0.3611019 -0.27423036 0.2600125 -0.100872315 -0.033161532 0.26439658 -0.25861454 -0.20675449
-0.32095674 -0.33408213 0.18398848 0.08147401 0.11148106 -0.2351566 0.23206371 0.048473127
-0.32780302 -0.25098994 -0.34277344 -0.13847436 0.22577988 -0.0127120875 0.2807408 -0.083762996
0.2837244 0.095708385 -0.048964866 0.011048414 0.20486547 0.3213197 -0.10723463 -0.35776696
0.15305912 -0.019167025 -0.3078866 0.15867266 -0.19181336 0.2554927 0.14770176 0.08741179
0.12613463 -0.26568952 0.35296243 0.016018415 0.07100238 -0.1928998 -0.35919955 -0.2822474
-0.25347808 0.24956846 0.3342352 -0.30129552 0.06573711 0.0059820185 -0.122082084 0.031031078
0.07738486 -0.036242165 -0.33304536 -0.14809728 0.09200276 0.16096197 -0.11791138 -0.009321203
-0.018876519 -0.33416697 0.14241028 -0.27930015 0.045569018 0.27206528 0.19374284 0.32407564
-0.028395506 -0.23236515 -0.096707456 -0.22625205 -0.25837666 -0.12084214 0.10408851 -0.19571492
-0.26886743 -0.2052035 -0.2633699 0.121329725 -0.27219626 -0.080173716 -0.31930098 -0.3104095
-0.32644355 0.025869235 0.11131239 0.19827533 0.25253785 -0.057602204 -0.32081276 0.12503576
0.26983646 -0.14466271 -0.28862178 -0.16128467

fc2.weight f4 [100, 100]
00000000: fcf3 a33d 4e4a f6bd f01c 28bd a226 57bd
00000010: 55ae 703c 6c15 053d 2409 243c f37a 03be
00000020: ed9b e6bd 3f95 b8bd 5b40 e33d f93b a43b
00000030: c398 eb3d 4ff5 573d c934 c33d 54b9 ccbb
00000040: 369f dfbd 8199 223d 20e0 1b3b debc fdb9
00000050: 6c12 703d fcad 713d 13d2 113d b9ac bf3b
00000060: 14ea 29bb c72b f23d 1843 023c 9f08 01bd
00000070: f97e de3d 27d6 d23d ff35 89bd 226a 1bbe
00000080: 4acd e03d ae4f 9ebc 0f95 bfbd 0293 6c3d
00000090: bb5f b8bd eafd 08bd fbcf d73d b951 873d
000000a0: 101d 643d 445a 313d 7fd0 1c3d b9d3 5b3c
000000b0: 315f 9dbc b98c adbd e616 d0bd b07a babd
000000c0: 07c5 fb3b 6605 ec3d 4169 b03d bc9a 18bd
000000d0: 280c b53d 29ec 5a3c 54a9 113d 962c 8e3c
000000e0: b0b9 9c3d 596a 2cbd 5daf b3bc b18e 17bd
000000f0: 36b5 9ebc bdd1 e23d b8d8 57bd ac7f a6bd
00000100: cc89 83bd 44f2 b9bd b468 f43d 593c 15be
00000110: 3503 44bd c612 023e ce90 b53d e19d 1fbd
00000120: 83e9 15bd ccab 483c 8dd7 01bd cb0b 173d
00000130: a4b4 e7bd 0d62 acbd 4862 b03d d71c c4bd
00000140: c1d2 10be 6222 6fbd 5a17 e5bc ddc1 6f3d
00000150: cdc3 f83c 9cd2 fa3c ac2b 75bd c1a8 0b3c
00000160: 5ffa 07be 223d 40bd c45f 923d 0f27 f73d
00000170: a909 663d 7d26 80bc 2dc0 83bd d731 083d
00000180: 373a 8e3d 86a6 20bd 28e5 ecbc 8640 b3bd
00000190: 3c05 9d3d dcf2 fdbc e51c e1bb 5c38 49bd
000001a0: ab12 823d 6a91 1e3d 187b 183d 3958 08be
000001b0: d8e4 34bd f76e 083d e8ac 713d 2d84 cc3d
000001c0: baf4 6f3c 9d63 88bd b51e 993d cfb0 933d
000001d0: 7637 3cbb 16b8 cdbc f167 29bd 4c55 e8bc
000001e0: 5565 8fbc 3d0f cabd 1c24 593d 4195 8cbd
000001f0: 9761 f13d 60a5 233d e25e 893d 7143 ddbc
00000200: 80e8 a63c f9b0 d73d 3be8 a8bd 69d3 89bd
00000210: a1a3 b0bc 075e 743c 0f75 1cbe 39d6 123d
00000220: f5cd 443d 00c3 903d b227 2dbd 51b5 293d
00000230: 2e3d 3cbb 1b17 02be 97e1 0c3e 982e 963d
00000240: f38f 9fbc e003 293d 9551 b3bd 52f2 05be
00000250: 90cf 51bb 6102 d53c ea3d 0fbd 96e4 dabd
00000260: 25ad 9b3d 0be4 843d 94cf 9abd ec5b 5cbd
00000270: e545 b1b9 40ad aa3d 86bc 19be 704d 56bb
00000280: 8e00 f63d 379e a53d b7fa 763d 4a84 923d
00000290: 5558 cabc 91c2 913c 30e6 4abd 23df 2e3d
000002a0: a2bf 1a3c af00 923d f545 0abd 9f56 7dbc
000002b0: 966c 4c3d 61f9 e1bd 360a d6bd bb24 5fbc
000002c0: eb59 1b3d 7d3e 14bb 8854 5bbd 6bb1 e93c
000002d0: be7d 06be c934 10be de24 00be 6082 5abd
000002e0: 05cc d5bc c0f3 f53c d5a0 2fbd 79bd d5bd
000002f0: a3ca c9bd 058a b53d 55d9 033e 3e1a 9fbc
00000300: 810c f93d e1d1 223d 9edd 98bd 1134 8c3d
00000310: c902 c13c 276f 7dbc 78a3 e33c f49e 963c
00000320: e42a 1dbb 2a71 83bc 3248 be3d ef81 7ebc
00000330: f73b e23b b809 d03d 4c19 21bc 224e adbd
00000340: fc38 c4bd 074e 29bd e611 02bd eb78 903c
00000350: 7998 803d 6629 65bd 9870 673d e3c6 4f3c
00000360: 8d34 e0bd cfd5 f5bd 081b 11be c5c1 b23c
00000370: 64ea fc3d c0f4 c83b acbc 083e e633 343d
00000380: 360a 253d d808 853d 06fa 1dbd 1db1 2fbd
00000390: 1aa9 7d3d 0efc a03c 9ac3 613d 3acd 8abd
000003a0: 662d 933d 8d11 723d 242f 0ebd 705e 9d3d
000003b0: 0213 82bd 6b1e c53d 7d5e 463c c9b1 6e3d
000003c0: ae84 dd3d 350c 06be c9dd ddbc 079d a63c
000003d0: 7e60 cb3d 6b8b dfbd fec8 3bbd dbe7 3abd
000003e0: c869 55bd 42ce 183c da3d ec3d abb3 d0bd
000003f0: f82a 13bd eb57 f23c 0c62 5cbd 896c 613c
0.08005521 -0.12025891 -0.041043222 -0.052527077 0.0146900015 0.032491133 0.010011945 -0.1283987
-0.11260209 -0.090128414 0.11096259 0.005012032 0.11503746 0.05272418 0.09531552 -0.006247679
-0.10919039 0.039697174 0.0023784712 -0.00048396637 0.05861132 0.059003815 0.035600733 0.0058494476
-0.0025926875 0.11824756 0.007950567 -0.031502362 0.10864062 0.102947526 -0.06699752 -0.15177205
0.10976656 -0.019325104 -0.093546025 0.057757385 -0.09002634 -0.033445276 0.10537716 0.06607384
0.05569178 0.043298975 0.038284775 0.013417178 -0.01921043 -0.08474106 -0.101606175 -0.09105432
0.0076833996 0.11524467 0.086138256 -0.03725694 0.08840209 0.013361969 0.035561875 0.017355245
0.076526046 -0.04209361 -0.021934206 -0.037001316 -0.019373517 0.11075161 -0.052696913 -0.0812982
-0.06422767 -0.090794116 0.11934033 -0.14573802 -0.04785462 0.12702474 0.0886551 -0.038968924
-0.036599647 0.012247991 -0.031699706 0.03687648 -0.11313751 -0.08417139 0.08612496 -0.09575813
-0.14142896 -0.0583824 -0.027965236 0.05853449 0.030366803 0.030618005 -0.059856102 0.008524121
-0.13279103 -0.0469333 0.07147172 0.12067997 0.056161556 -0.015643353 -0.06433139 0.033250656
0.06944697 -0.03922131 -0.028917864 -0.08752541 0.07667014 -0.030999593 -0.0068698996 -0.049126014
0.06351217 0.038712896 0.037226766 -0.13314904 -0.044163555 0.03330895 0.059002787 0.09986148
0.01464575 -0.06659625 0.0747656 0.07211458 -0.002871958 -0.025112193 -0.041358892 -0.028360985
-0.017504374 -0.09866188 0.053012952 -0.068644054 0.11786192 0.039952636 0.067075506 -0.027009698
0.020374537 0.10531802 -0.082474194 -0.067297764 -0.0215624 0.014914996 -0.1527903 0.03584883
0.04804798 0.07068443 -0.042274185 0.041432682 -0.002872299 -0.12704127 0.1375793 0.07333106
-0.01947782 0.04126346 -0.08755795 -0.13080719 -0.0032014586 0.02600211 -0.034971155 -0.106881306
0.07601384 0.06488808 -0.07559124 -0.0537986 -0.00033812146 0.08333826 -0.15013322 -0.0032699965
0.120118245 0.08086818 0.060297694 0.071541384 -0.024700323 0.017792972 -0.04953593 0.04269327
0.009445103 0.07129037 -0.033758122 -0.015462547 0.049908243 -0.110338934 -0.10451166 -0.013619597
0.03792755 -0.0022620254 -0.053547412 0.028526982 -0.13133904 -0.14082636 -0.12514064 -0.05334699
-0.02609826 0.030023456 -0.04287799 -0.1043653 -0.09853103 0.08864216 0.12875874 -0.019421693
0.12160588 0.039750937 -0.07464145 0.068458684 0.023560898 -0.015468395 0.027787909 0.018386342
-0.0023981864 -0.016045172 0.09291114 -0.015533908 0.006904121 0.10158104 -0.009832691 -0.08462168
-0.095811814 -0.04133418 -0.03175535 0.017635783 0.06279082 -0.055947684 0.056503862 0.012681696
-0.10947523 -0.120036714 -0.14170468 0.021820912 0.12349394 0.006132692 0.13353223 0.043994807
0.04029294 0.064958274 -0.03856852 -0.042893518 0.061928846 0.019651439 0.05511818 -0.06777425
0.071863934 0.05909877 -0.034712926 0.07684028 -0.06351282 0.096249424 0.012107489 0.058275018
0.10816322 -0.13090594 -0.027083294 0.020338548 0.09930514 -0.10915264 -0.045845978 -0.04563127
-0.052102834 0.009326519 0.11535235 -0.10190519 -0.03592965 0.029582938 -0.053804442 0.013758787

fc2.bias f4 [100]
00000000: d2e0 d53d d10d 333d 1082 713d cf17 de3d
00000010: f9cb d63d e1d2 c33c a839 1c3e cdd3 87bc
00000020: e7bd db3d f655 d9bd 9741 7ebc c4e1 6f3d
00000030: a114 163e f4ae eb3b c36d a83d a135 adbd
00000040: 19aa a13d 382f 8ebd c533 e6bd 8d42 b13d
00000050: 7dde f8bc 94fb c6bd 0d69 153e 5735 c9bd
00000060: e73d 11be f775 e9bd 30a0 c5bc 68a7 ee3d
00000070: 5e88 e43d 196e 07be dd6a 333c 8958 c5bd
00000080: 702b 9bbc 395f a23d 9070 7fbb 7054 e6bd
00000090: caaa 1bbe 7d11 e13c 5d47 1abd 9280 b43d
000000a0: 8a56 05bd 8e80 073d 39bc e23b 6cd2 12bd
000000b0: 46ea 29bd babb ca3d 7ebd 133d 9a39 debd
000000c0: 2527 1f3e 7bf4 1cbd c8ee 1c3d 679f 99bd
000000d0: c10e 00bd a04e 8cbd d5dc fc3d b674 f03d
000000e0: 31c0 213e 48b2 04be 860d 023e 821c b5bd
000000f0: f459 a43d 6146 e63c 9f3e adbc d4ae f83d
00000100: f51c 1d3e 3b3f 1fbe 3582 51ba eef0 973d
00000110: 1cbe 04be b53c 9bbd e0b3 243d 4064 b1bd
00000120: d67b a53d ed2e c9bd c39a 6bbd 7dfe b43d
00000130: 369a 17be eb10 31bd b601 ddbc 2711 09bd
00000140: e83c 633d 1be7 10ba d605 973a ed25 f63c
00000150: 89e9 fabd dcd6 1a3d b13f e9bc 88c9 2e3c
00000160: 04a4 ce3d f8fe f8ba d9a0 c8bc 3d74 d43c
00000170: c146 7cbd 41e4 9f3d f630 023d 90d8 a23d
00000180: 9fbc d8bd 8a26 07be 4b9c 053e e1b6 48bd
0.10443272 0.04371435 0.058961928 0.10844385 0.104881234 0.023904266 0.15256369 -0.016580487
0.107295804 -0.10612099 -0.0155185675 0.058564916 0.14656307 0.007192487 0.082240604 -0.084574945
0.07893772 -0.069426 -0.11240343 0.08655272 -0.030379528 -0.097159535 0.14590855 -0.09824627
-0.1418377 -0.11399453 -0.024124235 0.11653024 0.111588225 -0.13225593 0.010950771 -0.09636027
-0.018941611 0.079283185 -0.0038977005 -0.11246574 -0.1520187 0.02747416 -0.037665714 0.08813585
-0.032553233 0.033081584 0.0069194105 -0.035845205 -0.041483186 0.09899087 0.036069386 -0.108508304
0.15542276 -0.038319092 0.038313657 -0.07501107 -0.03126407 -0.06850934 0.12346808 0.11741011
0.15795971 -0.12958634 0.12700471 -0.08843328 0.0802497 0.028109731 -0.021148024 0.12142721
0.15343077 -0.15551464 -0.00079921196 0.074190006 -0.12963146 -0.07579938 0.040210605 -0.08661699
0.080802605 -0.098234035 -0.05752064 0.08837602 -0.1480492 -0.043229025 -0.026978355 -0.033463623
0.055478007 -0.00055276015 0.0011522125 0.030047381 -0.122515745 0.037802562 -0.028472753 0.010668166
0.10089877 -0.0018996885 -0.02449076 0.025934333 -0.061590914 0.07807208 0.031784974 0.07951462
-0.105828516 -0.13198295 0.13047902 -0.049002532

fc3.weight f4 [1, 100]
00000000: 7725 403d a218 753d 1776 483d 1555 603d
00000010: dbdc 7c3d 999c 563d f666 493d 9e28 5dbd
00000020: b5bb 5c3d a1ca 64bd 5dab 033d 78f0 763d
00000030: 271f 5e3d 6714 3abd b40f 6c3d 1faa 5fbd
00000040: a362 573d 60b8 55bd 8a48 6dbd f1c0 2a3d
00000050: 9aef 6c3d ce72 5abd 2f9e 743d 8f04 52bd
00000060: 415e 3cbd d0d5 0fbd 473a 073d 4ce7 6e3d
00000070: cf12 723d e094 55bd 7695 3e3d a286 4bbd
00000080: 8057 643d adfe 2b3d 857b 53bd 6d80 44bd
00000090: b2eb 84bd ff5e 393d bbce 56bd f310 673d
000000a0: 6b5d 40bd 2c41 4ebd 44b8 303d 3b0e 7dbd
000000b0: 2fb6 3c3d dc0f 823d 2f31 2f3d 0e71 3cbd
000000c0: 2feb 5c3d 716f 02bd a634 6a3d d1d3 59bd
000000d0: 13d9 5dbd 0c12 6bbd 9ac3 543d ba21 633d
000000e0: 9cef 583d 9bc3 e0bc 2473 593d f408 49bd
000000f0: ed82 563d 7aad 5fbd 55ec 3cbd 88f5 593d
00000100: d897 5c3d 3e02 61bd 12b6 5cbd 7806 633d
00000110: 9f08 f8bc 7b25 03bd 6c89 6d3d 2f89 43bd
00000120: bd96 553d 895b 75bd 8c5d 79bd a953 4f3d
00000130: 0209 5ebd 9712 82bd c173 643d 98a3 63bd
00000140: b0db fabc 594a e3bc b243 43bd eda9 5dbd
00000150: b893 45bd 1c39 463d e722 32bd 3246 0bbd
00000160: 440c 453d a347 78bd 5cb9 2ebd aa2f 16bd
00000170: 24b3 51bd eb79 823d 507c 5abd 5f9b 7c3d
00000180: 93ae 5ebd 400e 8bbd e470 003d 1bde 4fbd
0.04691073 0.059837945 0.048940744 0.05476864 0.06173406 0.052395437 0.049170457 -0.053993814
0.05388995 -0.055857304 0.032145847 0.060287923 0.054228928 -0.045429613 0.057632163 -0.0546056
0.0525843 -0.052177787 -0.057930507 0.04168791 0.05784569 -0.053332143 0.059721168 -0.05127388
-0.045988325 -0.035116017 0.033014562 0.05832605 0.05909997 -0.05214393 0.046529256 -0.049688943
0.05574751 0.041990925 -0.05163147 -0.04797404 -0.06490268 0.04525661 -0.052443247 0.05641265
-0.04696409 -0.05035512 0.04314448 -0.06178115 0.04607218 0.06350681 0.042771515 -0.046006255
0.053935226 -0.03184456 0.057179116 -0.05318052 -0.054162096 -0.057390258 0.051944353 0.055452086
0.052962884 -0.027437022 0.053088322 -0.049080804 0.052370954 -0.0546088 -0.04612382 0.053212672
0.053855747 -0.05493378 -0.053884573 0.05542609 -0.030277548 -0.032018166 0.057992384 -0.04773825
0.05214571 -0.059901748 -0.06088023 0.050616894 -0.05420781 -0.06351202 0.055774454 -0.055575937
-0.030622333 -0.027745413 -0.04767198 -0.054117132 -0.04823658 0.048394307 -0.043490317 -0.03400249
0.0481074 -0.060615193 -0.04265724 -0.03666655 -0.051196232 0.0637091 -0.05334121 0.06167161
-0.054365706 -0.06789827 0.03135766 -0.050748926

fc1.weight f4 [100, 14]
00000000: 6748 473e 5c9a 393e 7083 f23d c5e3 803e
00000010: 5bdd ed3d ca2f 173e 5934 ffbd 6b0c 2bbe
00000020: 54e4 ac3d ff56 86bd 9760 0c3e 5358 5f3e
00000030: 7ada 0fbe d75f 813e 51e0 10be d03a babd
00000040: 447e 943d 1080 e73d 7809 da3d 4918 83be
00000050: 8b29 283e e995 883e ebbc e2bd b290 a1bd
00000060: db60 18be 9084 2cbc d3ec 64be 821e a7bd
00000070: 292b 253d a170 7bbc 09ff 30be dfe7 6fbb
00000080: f072 5dbe 034a 993d 57cd 013e e513 183e
00000090: 6d7b 423e b5d4 3e3d f452 fe3d 97b8 7e3e
000000a0: e538 22be 0707 e53d 8314 adbc 1cb6 70be
000000b0: a818 3ebe be17 113e 9690 40bd e59b e83d
000000c0: f087 3f3e 151a 503e ffe8 79be 75e0 3f3e
000000d0: 5453 5e3e 6f05 7bbe e649 5abe 01d2 3f3e
000000e0: 3482 88be 547a b3bd d48a d43d 9ccf a7bd
000000f0: e6fa b33c ecb5 17be a046 1dbe 2975 a83c
00000100: c52a 2b3e f6ac bfbd f603 f23d 027f 5ebe
00000110: 574d 8abe 2305 c8bd baad a43d 89a5 2b3e
00000120: 44ad b13d 8af5 3a3e 771a 543e 529d 58be
00000130: c810 c43d e63c 5a3e b110 6abd fff9 d8bd
00000140: 72a7 77bd 6c31 373e ff3a 59be ac41 31bd
00000150: b2ff 983d 755b 4b3e d98b 283e e13b 873e
00000160: 8bff b9bd f0d6 78be 60e5 503e c5b8 26bd
00000170: c1e6 d43d 0b9e da3d 103e 163e 008c 10be
00000180: 7c4a e73c 1678 55be 4495 4dbc 86d6 c83d
00000190: 57dc 1f3e 7ee7 273e 8af8 80be 605d 32be
000001a0: b679 1bbe 7bc3 2cbe 4a05 4e3e 13f1 083e
000001b0: 2a86 3fbd 4254 ee3b b2da dabc 4f5b 76bd
000001c0: 8df0 5d3e f418 37be 8f53 aabd 5b1d 213c
000001d0: b5b5 11be e40d a63d 4fd9 e5bc ddf8 9c3d
000001e0: 53c8 03be 30e2 fa3d 41ed 92bd d8c5 303e
000001f0: 9243 843e a9d3 7d3e bfd8 823e 9629 2ebc
00000200: 0a32 003e ffbb e0bd a8c5 5a3e 3bb6 583e
00000210: 8410 3fbe a4d2 5f3e 42f7 1c3d 53c8 2dbe
00000220: 2570 16be ccd8 5f3e a4ec 60bd 2182 383e
00000230: dee1 9abd be68 6d3e b1c8 65bd 3ac0 ff3d
00000240: dfba 4bbe d1ad 813e af8b 813e fca4 30be
00000250: 5f53 7d3e cb5b 873d 4272 453e b476 c5bd
00000260: e0d5 373e 9d19 f53a df90 ef3b e447 35be
00000270: e769 58be f8dd a4bc 662e 08be 011e 463e
00000280: b0f3 68be 1800 28be e000 adbd d276 c03d
00000290: c124 353e 14b7 babd 0500 6cbe 2250 dbbc
000002a0: 3d6b 9ebd cfe8 853e 0c97 91bc c2d6 5f3e
000002b0: bdbf 1cbc 6802 883e d45c 513e 0f84 ad3d
000002c0: 232d 30bd 5339 0ebe 3697 29be 5f4a 6abe
000002d0: be8a 7b3e f264 10be 08a0 84be e783 19be
000002e0: 3060 1abd 29fb 273e bab6 81bd 71b1 21be
000002f0: 3727 87be ed79 d43d 4897 1cbe 1972 583e
00000300: 0c22 d93d 5310 4dbe 77d9 3ebe 66d6 3bbd
00000310: c564 62bd 640e 823e 51da 64be 466b 603d
00000320: 5f40 44be ca44 13be 60a8 c3bd 34ae 583c
00000330: ab6d c4bc 41df 59bd 7773 4e3e dcb4 853e
00000340: e595 38be e4e5 653e f007 28be 62d2 c63d
00000350: 6e11 6abb b536 363d 35e6 4fbd 7281 08be
00000360: 5438 6c3c 8b9f 62be dddb 1bbc 9412 8d3d
00000370: 1821 53bc 5cf6 aebd 8812 583e 90d5 8b3d
00000380: d64c bbbc adda c93c cc47 dd3d 4e87 25be
00000390: 93f1 1bbd 0533 2e3d e740 41be f508 4fbe
000003a0: 911c 00be e844 323e 0df9 8d3d 9a38 293e
000003b0: 4d19 40bd 94b8 e4b9 c3aa b53c 195f 793e
000003c0: d7d7 80be eb48 023e 5bd1 2cbe d37e abbd
000003d0: 0a60 093e 93a5 31bd a210 703e 0fa4 84bd
000003e0: 3c65 0dbc b7b6 81be 972f 7bbe 91c9 db3d
000003f0: 7b4a 723e d40e 05be 1651 43be f383 6fbd
0.19461213 0.1812529 0.11841476 0.25173774 0.11614486 0.14764324 -0.124611564 -0.16703956
0.08441988 -0.06559562 0.13708721 0.21811037 -0.14048186 0.25268432 -0.1414807 -0.09093249
0.07250646 0.11303723 0.10646337 -0.25604466 0.16422097 0.26676872 -0.110711895 -0.078889266
-0.14880697 -0.010529652 -0.22355966 -0.08160116 0.040324364 -0.015346677 -0.17284788 -0.0036606712
-0.21625876 0.0748482 0.12675987 0.14851339 0.18992396 0.046589572 0.12418166 0.24875103
-0.15842016 0.11182981 -0.021127945 -0.23506969 -0.18564093 0.14169213 -0.047012888 0.113578595
0.187042 0.2032245 -0.24405287 0.18737967 0.21711475 -0.24513792 -0.21317253 0.18732454
-0.26661837 -0.087635666 0.10378042 -0.08193895 0.021970224 -0.14815491 -0.15358973 0.020563679
0.16715534 -0.093591616 0.11817162 -0.21728137 -0.2701213 -0.09766605 0.08040948 0.16762365
0.08675626 0.18257728 0.2071322 -0.21153763 0.09573513 0.21312293 -0.057144824 -0.10594558
-0.060462423 0.17889947 -0.21213911 -0.04327552 0.07470645 0.19859107 0.16459598 0.2641287
-0.09081944 -0.24300742 0.204 -0.040703554 0.10395575 0.106746756 0.14672112 -0.14115906
0.02823376 -0.2084659 -0.012547795 0.09806542 0.15611397 0.16396901 -0.2518962 -0.17418432
-0.15183148 -0.16871445 0.20119205 0.13373213 -0.04675881 0.007273228 -0.02671561 -0.060145672
0.21673794 -0.17880613 -0.08316719 0.009833659 -0.14229472 0.08108118 -0.028057722 0.076646544
-0.12869386 0.12250173 -0.07174159 0.17262971 0.25832802 0.24787773 0.2555599 -0.010630032
0.12519088 -0.109733574 0.21364462 0.21163265 -0.18658644 0.21857697 0.03832174 -0.16970949
-0.14691217 0.21860045 -0.054913178 0.1801839 -0.07562612 0.23184487 -0.056099597 0.12487836
-0.19895504 0.25327924 0.25301883 -0.17250437 0.24738835 0.06609305 0.19281867 -0.096417814
0.1795268 0.001869965 0.007310971 -0.17703205 -0.21134149 -0.020125374 -0.1329895 0.19347383
-0.2274921 -0.16406286 -0.084474325 0.09397663 0.17689802 -0.09116951 -0.23046882 -0.026771609
-0.07735298 0.2615418 -0.01777222 0.21859267 -0.009567198 0.26564336 0.20445567 0.08472454
-0.043011796 -0.13889055 -0.16561589 -0.22879933 0.24564645 -0.14101008 -0.25903344 -0.14991723
-0.037689388 0.16404404 -0.063336805 -0.15790345 -0.26397106 0.10374818 -0.15292084 0.21137275
0.10602197 -0.20025758 -0.18637644 -0.045858763 -0.055271883 0.25401604 -0.22348906 0.054789804
-0.1916518 -0.1438171 -0.09553599 0.013225127 -0.023978075 -0.053191427 0.20161234 0.26114547
-0.1802593 0.22450978 -0.16409278 0.09708096 -0.0035715955 0.044485766 -0.050756652 -0.1333063
0.014417727 -0.22131173 -0.009512869 0.06888309 -0.012886308 -0.08543083 0.21100819 0.06827843
-0.022863787 0.024640406 0.1080471 -0.16164896 -0.03807218 0.042529125 -0.18872415 -0.2021826
-0.12510897 0.17409098 0.06932268 0.16525498 -0.04689913 -0.0004362507 0.022176152 0.24352683
-0.25164673 0.12723128 -0.16876738 -0.08373799 0.13415542 -0.043370795 0.23443845 -0.06476604
-0.008630093 -0.25334713 -0.24529873 0.10731805 0.23661225 -0.12993938 -0.190739 -0.058475446
