mujoco/vail/save_model/ckpt_65.pth.tar (torch, 110883 bytes, 20 tensors)

fc1.weight f4 [100, 11]
000000 83 f2 27 3d 30 c4 31 be a4 91 35 3e af 7b f0 bd
       0.04100276 -0.17359996 0.17731339 -0.11742341
000010 60 aa 95 3d cc 2e bd 3d cd 30 59 be f0 92 13 3e
       0.07307887 0.092374414 -0.21210022 0.14411521
000020 f3 e7 26 3e 3e ed 6a 3e 2e cc d1 bc 3c 7a 7a 3e
       0.16299419 0.22942063 -0.025610056 0.24460691
000030 90 4e e4 bd 15 b8 11 3d df 75 94 be 94 04 8a 3d
       -0.11147797 0.035575945 -0.28996179 0.067391545
000040 b3 36 af 3d 0a 94 69 bc 5f fb a0 3d 53 d8 1c 3e
       0.08555355 -0.014256487 0.07860445 0.15316896
000050 a4 87 37 3e 32 44 66 3e 59 60 45 3e 51 70 01 be
       0.17922837 0.22486952 0.19275035 -0.12640502
000060 cd 06 8e be fb 33 a7 3d 3a c0 8e 3d 90 cd 59 be
       -0.27739564 0.08164211 0.06970258 -0.21269822
000070 16 51 7b bd e6 02 4c 3e 0b 58 cf bd dd b3 42 bc
       -0.061356626 0.1992298 -0.10124215 -0.011883703
000080 7f fe 16 3e 81 b6 8b 3e 1d ad 90 be df ed 65 3d
       0.1474552 0.27287677 -0.28257075 0.056135055
000090 cc 2a 6e 3e 33 e8 b0 3d bd 94 ba 3d c1 9b 81 be
       0.23258513 0.086380385 0.09110401 -0.25314143
0000a0 39 2e 97 bd 29 06 41 be 49 c1 44 3e 6f 64 85 be
       -0.07381863 -0.18850006 0.19214357 -0.26053187
0000b0 bc 70 f5 3d 9b 4c 48 3e 19 23 39 3e 4b 8a 83 be
       0.11984393 0.19560473 0.18079795 -0.25691447
0000c0 d3 da 81 bd bd b3 cd 3d 92 46 3c be a5 64 1b bd
       -0.063405655 0.10044048 -0.18386295 -0.03793778
0000d0 1b 8b 81 3e b7 f9 8c 3d f9 10 93 3d 04 f2 67 3e
       0.25301442 0.06883567 0.07180972 0.22650915
0000e0 63 45 f5 bd 76 ac 8a bd 16 25 21 3e 50 da 9c 3e
       -0.11976125 -0.067711756 0.15736803 0.3063531
0000f0 31 c2 a6 3d 3a 8a 92 3d a6 5f 27 be bf af e5 bb
       0.08142508 0.07155271 -0.1634508 -0.007009476
000100 96 74 a3 bc 37 a0 01 3d 90 e1 4e 3e 95 0f 84 be
       -0.019953053 0.031646933 0.20203233 -0.25793138
000110 04 4d 79 3e c9 f7 5a be c6 d7 04 be 9d e1 89 be
       0.24345785 -0.21383585 -0.12972936 -0.26929942
000120 4b 88 7d 3e ab 4c fb bc 0a 08 1d ba 45 30 21 be
       0.24759023 -0.030676207 -0.00059902726 -0.1574107
000130 dc 29 28 be 5f 59 8e 3d 59 c8 7c 3e 5d 66 31 be
       -0.16422218 0.0695064 0.24685802 -0.17324205
000140 3a d2 21 be 47 9e 7a 3e 21 3d 7e 3d ee 94 91 3e
       -0.15802851 0.2447444 0.062070016 0.28433937
000150 e1 00 26 bc 25 f8 60 be bc ef 63 3e ed 1e 98 3e
       -0.0101320455 -0.2196966 0.2225942 0.29711094
000160 27 d0 22 3b 11 eb 9c 3d 1b fd 47 be 4c 53 98 be
       0.0024843307 0.07662023 -0.19530146 -0.2975105
000170 31 84 82 3e 32 fc 56 3e 88 bc 17 3e af b0 46 be
       0.2549148 0.20994642 0.14818013 -0.19403337
000180 0f 8f 8d 3e c9 bf 33 be a7 aa 30 3e b8 c5 85 bc
       0.27648208 -0.17553629 0.17252599 -0.016329631
000190 6b d3 36 3e 61 70 63 bc e2 ef ea 3d 5e 98 84 3e
       0.17854087 -0.013881774 0.11471535 0.25897497
0001a0 32 aa 75 be 30 bc 29 3e c7 4b a2 3e cc 32 5f 3e
       -0.23990706 0.16575694 0.3169844 0.21796721
0001b0 b8 62 26 3e 52 25 63 bd 2b 2d 5a be 8f e7 3c bd
       0.16248596 -0.055455513 -0.21306293 -0.04611927
0001c0 bb 68 38 bd fd 69 90 be 94 f9 28 bd c5 9f 90 3e
       -0.045021754 -0.28205863 -0.04125364 0.28246894
0001d0 67 c1 06 be c2 e5 5f 3e 82 23 ad 3d ac 17 46 3e
       -0.13159715 0.2186499 0.08454038 0.19344968
0001e0 62 b9 68 bd 7c 9f de bd 2c 12 67 bd c9 c2 f2 3d
       -0.05681742 -0.10870263 -0.056413814 0.118535586
0001f0 3a 58 97 3d 63 a0 88 3e 69 0e 84 3e bb 19 5a 3d
       0.07389875 0.26684865 0.25792244 0.053247195
000200 96 ae 7c bd cd fd 64 bd f3 00 be bd 4b fb 1a 3e
       -0.061689936 -0.055906106 -0.09277525 0.15134923
000210 d5 f2 9f bd 4b 45 70 3e 50 f2 26 be 46 c9 19 3e
       -0.078099884 0.23463933 -0.16303372 0.15018186
000220 a4 53 41 3e 5f 85 e4 bd 20 9e 25 bc 2d 67 c4 bd
       0.18879563 -0.11158251 -0.010108501 -0.09589992
000230 6c ae 4e 3e 66 35 a5 3c 86 b0 cf 3d 3e 68 ea 3d
       0.20183724 0.020167064 0.10141091 0.11445664
000240 9e 08 07 3e 8a b2 1e be 61 fd 3a 3e e5 a9 8b bd
       0.13186881 -0.15497795 0.18260719 -0.06819514
000250 cd a5 36 bd 41 0d cd 3c cf d8 67 3e 24 e8 6c 3e
       -0.044591714 0.025030734 0.226413 0.2313543
000260 36 19 01 be 5f ef 79 3c 7f 75 73 be ca 1c 20 be
       -0.12607273 0.015254824 -0.2377529 -0.15635982
000270 eb 6a 52 3e 56 b9 9b 3e 44 4b 75 3b d7 1a c8 bd
       0.20548598 0.30414838 0.0037428895 -0.09770744
000280 32 64 90 3e 94 0d 7c 3e 0d f5 c1 3c 73 cd 5e 3c
       0.28201443 0.24614555 0.02367642 0.013598788
000290 58 15 16 3e 1f f4 85 bd b7 03 ea bd a1 64 0b 3e
       0.1465658 -0.06540703 -0.1142649 0.13612606
0002a0 8e f0 0c 3e e1 1a 48 3e ad 49 9a 3d 94 85 2e be
       0.1376364 0.19541503 0.07533584 -0.17043144
0002b0 5a 5a 49 bd 9a 1a 63 3e b8 f3 05 3e 27 09 9e bd
       -0.04915843 0.22178116 0.13081253 -0.077165894
0002c0 57 9f 37 3e db 5f 89 be f8 08 67 3d 90 df 73 3e
       0.17931877 -0.26830944 0.056405038 0.23815751
0002d0 d2 19 09 3e 0e 85 99 3e 8a 56 48 be 24 51 91 3e
       0.13388756 0.29984325 -0.19564262 0.28382218
0002e0 ff 2c 83 3e c0 5e 40 3e ac f7 8b 3e 25 4e a8 bb
       0.25620267 0.18786144 0.27337396 -0.0051362687
0002f0 1c 72 96 be b3 99 40 3d 14 20 8e be 03 74 04 bc
       -0.29383934 0.04702158 -0.2775885 -0.0080843
000300 bc ca 81 be 65 91 39 3e 20 0f 00 3e 18 73 78 bd
       -0.25349987 0.1812187 0.1250577 -0.060656637
000310 6d f7 5f be fc 6c 24 be a1 b8 83 3e d4 4b 85 3e
       -0.21871729 -0.16057199 0.25726798 0.26034415
000320 0c a5 5c 3e a9 95 8f bd fb 1f 29 bd c7 87 28 3e
       0.21547335 -0.07010967 -0.041290265 0.16458045
000330 ae 82 f1 bc 06 2c 48 3d b0 e3 1d be a3 20 7a be
       -0.029481258 0.04887011 -0.15418887 -0.24426512
000340 b6 49 8b 3e e4 9c e0 bd b5 e1 89 3e 64 fb 90 be
       0.27204674 -0.109674245 0.26930013 -0.28316796
000350 be b9 f7 3c 51 20 a8 3e 46 4c 93 be 2f 53 68 be
       0.030239936 0.32837155 -0.2876913 -0.22687982
000360 72 89 6a be 78 66 92 bd 20 aa b7 3d f9 fb 8c be
       -0.22903994 -0.071484506 0.08967996 -0.2753599
000370 20 a2 1d be b1 69 6f be 54 c7 94 bd e3 1d 5d 3e
       -0.15393877 -0.23380162 -0.07264581 0.21593432
000380 05 07 bb bd 04 45 d8 ba 5e 8e f0 bd ff 8b ff bc
       -0.09132198 -0.001650006 -0.117459044 -0.031194685
000390 7f 82 13 3d a2 20 0f be 44 2a 85 be 72 46 82 3e
       0.036013123 -0.13977292 -0.2600881 0.2544437
0003a0 45 7c 1f 3d 8b dd 28 3e 82 80 57 3e d9 f2 8b 3e
       0.038936872 0.16490762 0.21045116 0.27333716
0003b0 31 7a 74 be 2a 64 ed bd ca fa 9a 3d 4a 11 a8 bd
       -0.23874737 -0.115913704 0.075673655 -0.082064226
0003c0 d2 37 4a 3e c6 6e ef bc 92 80 a1 3c 74 d8 8b be
       0.19747856 -0.029227626 0.019714627 -0.27313578
0003d0 8d 9a 5e 3e 2c a9 3f 3e e9 3d 85 3e 0a 5d 57 3e
       0.21738644 0.18716878 0.26023796 0.21031585
0003e0 19 bb 1a be 4e 47 c0 bd 91 09 82 bd de e6 aa 3d
       -0.15110435 -0.093886 -0.06349481 0.08344816
0003f0 00 10 90 be ca bc 47 3e 05 b1 a4 3d 20 71 e6 3c
       -0.28137207 0.19505611 0.08041576 0.028130114

fc1.bias f4 [100]
000000 dd 55 f7 bd eb 00 8f be a3 df f6 bd 74 de e6 3d
       -0.12076924 -0.27930388 -0.12054374 0.11272898
000010 66 22 ac 3d 4f 1b 31 be 28 a1 5a bd 3b 3a ef 3c
       0.084049985 -0.17295574 -0.053376347 0.029202571
000020 ee ff 9a bd 20 09 a0 be 05 1d 95 3d f5 2e 8a 3d
       -0.07568346 -0.31256962 0.07280926 0.067472376
000030 b4 14 31 be 93 28 34 3e 80 4c 0c 3e 2c 36 8a be
       -0.17293054 0.17593603 0.13701057 -0.26994455
000040 22 ce 5d 3e 97 14 8c 3e 80 1a 4d be bb a5 ea 3d
       0.21660665 0.2735946 -0.2002964 0.11457392
000050 8c 6e b4 ba d1 5d 86 be ba 24 a5 3d 97 a9 40 be
       -0.0013765856 -0.2624345 0.08063646 -0.18814693
000060 5a c1 6e 3d dd 1e f4 3d dc 1d 88 be 6a 36 4c be
       0.058289863 0.11919949 -0.2658528 -0.19942632
000070 11 e4 86 3e cc 0a 0c 3e 1d f0 29 be 5c eb a0 3d
       0.26345876 0.13675994 -0.16595502 0.07857391
000080 4b 12 66 3e e7 b1 69 3e 6b 0f a4 be 46 c6 31 3d
       0.22467916 0.2282177 -0.32043013 0.04340198
000090 e6 67 0d 3e 2b 4e cf 3d 8c 37 1b be 0e 78 bf 3d
       0.13809165 0.10122331 -0.15157908 0.093490705
0000a0 64 81 50 3e 6e 34 97 3e c6 8c 68 bb 16 fd 9b be
       0.20361859 0.29532188 -0.0035484298 -0.30466527
0000b0 89 06 6a 3d 67 e9 8f 3b 4a 58 83 be 91 57 7f be
       0.05713514 0.0043918374 -0.25653297 -0.24935748
0000c0 f7 63 2f 3e 76 b1 9f 3e 3f e2 b0 3d b3 dc 8c 3e
       0.17127977 0.3119008 0.08636903 0.2751213
0000d0 f5 19 6f be d8 40 47 be 8b b0 56 3c 96 f4 46 3e
       -0.23349746 -0.1945833 0.013103615 0.1942924
0000e0 e0 bf c1 3b 2c 7d 97 3e c1 c3 5d 3e ae 3a 6f 3e
       0.005912766 0.29587686 0.21656705 0.23362228
0000f0 13 f8 46 be ca 21 86 3e db ab 59 3e 95 0d c0 3d
       -0.1943057 0.26197654 0.21256964 0.093775906
000100 1a 9d 25 bd 63 3a 87 be 8d 01 ec bb 96 b0 8f bd
       -0.040433027 -0.26411733 -0.0072023333 -0.07016103
000110 2f 1d c6 3c 3d 47 52 bb 71 a4 a5 3e 52 ec fd bd
       0.024183838 -0.0032085918 0.3235202 -0.1239859
000120 00 89 04 3e 2a 0b 5b 3d e9 cf 83 be fe b6 85 be
       0.12942886 0.053477444 -0.2574456 -0.26116174
000130 f8 d7 28 3e 29 9a 34 3e ad 4f 88 3e 2b a3 a1 3e
       0.16488636 0.17636932 0.26623288 0.315698
000140 80 11 91 be 73 ab 6f be 89 7c 78 3e 2a bd 00 3e
       -0.28333664 -0.23405246 0.24266256 0.1257216
000150 8b 28 99 3e ce 67 9f be d5 00 2c be 15 37 92 3e
       0.29913744 -0.31133884 -0.16797192 0.2855765
000160 9d d2 6e 3e 61 86 6a bc 52 46 88 3e ae b1 77 3e
       0.2332253 -0.014314265 0.2661615 0.24188873
000170 a7 47 b0 bc c0 6c 56 3e 4d 53 29 be 51 a6 43 3e
       -0.021518541 0.20939922 -0.16535683 0.19106413
000180 d9 d5 a1 3e 45 85 02 bd 05 14 57 3e c2 9c 92 3e
       0.31608465 -0.031865377 0.2100373 0.28635222

fc2.weight f4 [100, 100]
000000 fb 25 ca bc 49 3c a9 ba 0c 23 b7 bc 1b 2c 44 3d
       -0.024676314 -0.0012911643 -0.022355579 0.047893625
000010 43 20 2c 3d 2d 41 6d bc 58 a7 1d bd 74 76 f0 3c
       0.042022955 -0.014480871 -0.03848967 0.029353358
000020 37 7a 65 bc bf 86 b9 bd c9 68 82 3d f8 8c 1d bd
       -0.014006189 -0.09058904 0.063676424 -0.038464516
000030 d3 94 91 bc e4 2a b7 3d 46 28 7a 3d 8c dd 9e 3d
       -0.01777116 0.089437276 0.061073564 0.077571005
000040 e5 98 f1 bc d6 41 d8 bc 8d 65 a5 bc 44 7c de 3d
       -0.029491851 -0.02639858 -0.020190025 0.108635455
000050 ed cf 65 bd 3d 3e d4 3d a9 14 29 3d f9 97 0c 3d
       -0.056106497 0.103634335 0.04127947 0.03432462
000060 b7 38 64 bd 2d f2 00 bd 18 4e 18 bd ee b4 6f bd
       -0.05571815 -0.031480957 -0.03718385 -0.058522157
000070 83 1c 27 bd 51 42 79 bd e4 39 29 bd 2e 79 1e bd
       -0.040798675 -0.06085426 -0.041314974 -0.038689785
000080 ee 19 a2 3d a3 93 37 bd 48 0f 94 3d 72 1e 62 3d
       0.07915102 -0.04481853 0.07229477 0.055204816
000090 68 89 bf bd 80 27 c5 3d ad df 93 3d 2d 5e 52 bd
       -0.0935238 0.09626675 0.07220397 -0.051359344
0000a0 f7 c5 c1 3c 32 f9 2b 3d 00 ab 81 3d a5 13 cb 3b
       0.023653967 0.041985698 0.06331444 0.00619741
0000b0 ea 2f c7 3d e8 af c2 3d dc aa 75 bd 9b 26 93 bc
       0.09725936 0.09506208 -0.059977397 -0.017962744
0000c0 ba 0a c4 bd 4d 2d 37 bd 26 b6 bc bc cf 8c ca bd
       -0.095723584 -0.044720937 -0.023036074 -0.09890138
0000d0 4a 7d 26 3d c7 bd 13 3d f9 eb a0 bd b6 d6 b2 bc
       0.04064683 0.036069658 -0.07857508 -0.021830898
0000e0 0f 94 c8 3c b1 19 ab 3d da e1 59 3d 9d a4 3f 3c
       0.024484662 0.083545096 0.053193904 0.011696962
0000f0 f5 9f a0 3c e3 ed 65 bd 68 9c ad 3d 96 a4 c5 3b
       0.019607523 -0.05613507 0.08477098 0.006031583
000100 dc 10 ac 3b 4f 09 2f 3d 17 df 83 3d 12 42 db 3c
       0.005251033 0.042733487 0.064390354 0.026764903
000110 a6 1e db 3d 6e ca 1b 3d d3 d5 4d bd 13 30 a9 bd
       0.10699205 0.03803485 -0.050252747 -0.082611226
000120 bd 8c 9b 3c 31 53 0c 3d 8c 38 9a 3d ad 69 82 bd
       0.018988008 0.034259025 0.07530317 -0.06367812
000130 c1 d4 b5 bd 3f 4b 5b 3d e5 58 35 3d e2 cc 80 3d
       -0.0887847 0.053538557 0.04427423 0.06289078
000140 3f df 83 b9 02 43 19 bc 6a de 30 bd 2a 1f 90 3d
       -0.00025152598 -0.009354355 -0.04318086 0.07037194
000150 65 5d b7 3d e2 5c d7 3c fd 8d b5 3d 25 cb 8f bc
       0.089533605 0.026289407 0.08864973 -0.017552922
000160 0d 48 89 bd a9 25 ae 3d 3e 15 1c 3b da 23 3e bd
       -0.06703196 0.08503277 0.0023816372 -0.04642091
000170 4c 26 b9 bc a7 47 5a bd 85 98 94 3b 1d 8c 1d 3d
       -0.02260127 -0.05329099 0.0045347833 0.0384637
000180 92 39 44 3c 30 26 81 bd 94 6a ee bc ea 95 ae 3d
       0.011976616 -0.06306112 -0.029103555 0.085246876
000190 fc 5b b0 bd 14 06 8a bd 58 8b 9b 3d aa 34 a3 3d
       -0.086112946 -0.067394406 0.07594937 0.07969029
0001a0 d7 ad 08 bd f3 8a 2e bc 8a 8a a6 3d 16 89 ad 3d
       -0.03336891 -0.010653245 0.08131893 0.08473413
0001b0 68 25 41 bc 8b a6 83 3d 78 af e1 3d ff 13 92 bd
       -0.0117887035 0.0642825 0.11019796 -0.0713272
0001c0 ee c0 97 bc 79 3f 82 3d 87 89 b8 3d 0e fa 87 3d
       -0.018524613 0.06359763 0.09010606 0.06639491
0001d0 47 be a7 3d de 64 5f 3d 19 85 ca 3b b0 df af bd
       0.081905894 0.054539554 0.0061804173 -0.08587587
0001e0 31 2e cc bd db 1e c6 3d 69 d8 e8 3d 56 da 99 bb
       -0.09969748 0.09673854 0.11369402 -0.004695217
0001f0 18 37 0a bd 63 f5 25 3c 3e 9b 07 bd 1a d2 70 bd
       -0.033743948 0.0101293055 -0.033107035 -0.05879412
000200 fa a8 bc 3c 1d f3 a8 3d 31 ed b9 bd e8 a8 5a bd
       0.023029793 0.08249495 -0.09078444 -0.053383738
000210 36 ba 04 bd 07 4c 40 3c 0d 1b 4a 3d ec f1 32 bd
       -0.032404147 0.011736876 0.049342204 -0.043687746
000220 52 f7 a9 bd db 28 a9 3d fe 83 75 3d a1 4b 94 b8
       -0.08299126 0.08259746 0.05994033 -7.071277e-05
000230 77 9a 25 bd 82 02 ae bd 35 f3 b4 bd 81 30 ae 3d
       -0.040430512 -0.08496572 -0.088354506 0.08505345
000240 c4 7c 98 bd 4d 9e ad bd e9 46 d9 3c 1f 8e 70 bd
       -0.07445672 -0.08477459 0.02652307 -0.058729287
000250 4a a7 15 bd d3 40 90 3d f2 ef 4a 3d 90 38 e0 3a
       -0.036536492 0.07043614 0.049545236 0.0017106701
000260 36 d9 44 3d 94 a5 b5 bc 7e 00 1d 3d d1 32 44 3d
       0.04805871 -0.02217368 0.038330548 0.047900025
000270 71 e9 56 3d 79 9a 1c bd ef 57 5c 3d a7 dd 4e 3d
       0.05246872 -0.038233254 0.053794798 0.050504353
000280 34 35 74 bd 38 25 0d bd ba ce 29 bd 3d 9d c5 3d
       -0.05962105 -0.034459323 -0.041456915 0.096491314
000290 b9 77 d1 bc cd 88 ea bd a1 d3 ac bd 06 70 2e 3d
       -0.025569784 -0.11451874 -0.084388025 0.042587303
0002a0 a2 20 ae 3d 7d ad d9 3d c1 5d 0e 3d 82 06 05 bd
       0.08502318 0.106287934 0.03475738 -0.03247691
0002b0 68 86 4b bc 91 83 b2 3c 19 3f 8c 3c a9 1d c0 bd
       -0.012422182 0.021791251 0.017119931 -0.09380657
0002c0 ae 9c 11 3d 60 65 ab bd 52 c8 ae 3c 0d a6 d0 3d
       0.035549812 -0.08368945 0.021335755 0.10187922
0002d0 cb e7 20 bd ee 68 cf bd 96 fa a9 bd 7f 7b c8 bd
       -0.039283555 -0.101274356 -0.082997486 -0.0978918
0002e0 2e 26 88 3d 21 94 9b 3d c3 b6 13 3d 06 c9 36 bd
       0.06647907 0.07596613 0.036062967 -0.044625305
0002f0 67 1c 02 bd 24 b7 be 3d bd 93 84 3d d9 cd a8 3c
       -0.031765368 0.09312275 0.06473491 0.020605968
000300 55 1f 10 bd 81 3b 91 3d 3e c1 b8 bd 60 9f 94 3c
       -0.03518613 0.070914276 -0.09021233 0.018142402
000310 54 78 94 bd db b5 2f bd 0f c5 0f bd 1b 52 50 bd
       -0.07249513 -0.04289804 -0.03510004 -0.050859552
000320 f5 b1 7f 3d bd 69 e5 bc d0 48 a6 3d 66 fd 98 bb
       0.062425572 -0.028004522 0.08119357 -0.0046688793
000330 92 4d 9f bb ee 25 33 bc 4f f2 08 3d d1 8c 8d bd
       -0.004861542 -0.010934336 0.03343421 -0.06911624
000340 68 cb 1d bd 93 90 7c 3d 45 7d b6 bd 03 bd a9 3d
       -0.03852406 0.061661314 -0.08910612 0.08288004
000350 e1 d8 c4 3b 63 96 03 3c 4a c0 7b 3d ed b2 a2 bd
       0.0060072993 0.00803146 0.061462678 -0.07944284
000360 79 79 db 3c 65 e7 8d 3d 95 c3 5c 3c 13 ee af 3d
       0.026791321 0.06928901 0.013474365 0.08590331
000370 7d 26 cf 3d aa 65 8d bd 8d b1 e5 3d 76 8d 11 3d
       0.10114763 -0.069041565 0.11215506 0.0355353
000380 af b0 03 3b 56 ed cf 3c d8 b5 92 bd 46 37 22 3d
       0.0020094325 0.025381725 -0.0716359 0.039603494
000390 47 f8 dc bb bc b4 9a 3d 26 cf 79 bd bb 9c 82 3d
       -0.006743464 0.075540036 -0.060988568 0.0637755
0003a0 97 53 f0 bb 42 25 a0 bd 17 e2 02 3d c1 85 8e bc
       -0.0073341834 -0.07819606 0.031953897 -0.017397763
0003b0 b3 a0 4b bd e3 b1 d9 bb 54 40 84 3a c7 a0 b9 bc
       -0.0497138 -0.00664352 0.0010089972 -0.022659672
0003c0 e8 99 a4 bc ee ef 53 bd f7 5c 11 bd ab 36 a9 3d
       -0.02009292 -0.051742487 -0.03548905 0.0826238
0003d0 2a 71 2f 3d 30 34 02 3d 8b 50 3c 3d 1b 35 2f bd
       0.04283253 0.03178805 0.04597525 -0.042775255
0003e0 25 60 a0 bd 85 8a 98 bd bc e4 a5 3d ca 18 a2 bd
       -0.07830838 -0.074482955 0.08100268 -0.079148844
0003f0 9b a7 63 bb 91 ce 64 3c 2e 57 89 bd 60 68 a6 bd
       -0.0034737352 0.013965265 -0.06706081 -0.08125377

fc2.bias f4 [100]
000000 63 20 32 bd cf c8 fc 3c c7 79 aa bd a2 16 c2 bd
       -0.043487918 0.030857472 -0.083240084 -0.09476973
000010 78 e1 79 3c dc 2e 5b 3c 32 a2 d4 3d f2 0d ea bb
       0.01525151 0.013377871 0.10382499 -0.0071427757
000020 dd db ba 3c f4 20 f9 bd 5a ba 2d 3d 64 d7 de 3d
       0.022809917 -0.121644884 0.042414047 0.10880926
000030 23 20 7e bd 87 48 73 bd c1 c7 9b bd ed 4a 36 bd
       -0.062042367 -0.05939534 -0.076064594 -0.04450505
000040 13 6b 93 bd 6e e2 cf 3d af 78 8e bd 45 c0 4c 3d
       -0.07198157 0.1015061 -0.06956612 0.04998805
000050 8e 30 9c 3d 18 ef 70 3d d0 68 93 bb 57 a2 fe 3b
       0.076264486 0.058821768 -0.0044985786 0.0077708173
000060 2e b1 1a bd eb 41 ab 3d a5 9c a6 bd 56 b3 58 3d
       -0.037766628 0.08362182 -0.08135346 0.052905403
000070 09 c1 99 bd 69 f4 4a 3d 26 37 a7 bc b9 e8 1f 3d
       -0.07507522 0.049549494 -0.020412039 0.0390403
000080 07 e5 46 bd f5 4e 7f 3d 7f de 1c 3d 7c 3c 3f 3d
       -0.04855826 0.06233116 0.038298126 0.04668854
000090 61 75 13 3d f2 f3 eb bd 82 80 c8 bd 12 08 65 bd
       0.036000613 -0.11521138 -0.09790136 -0.0559159
0000a0 51 ac 6d 3c 81 9e c7 3d 3e c1 0d bc 99 fc 2a 3c
       0.014506415 0.09747029 -0.00865203 0.010436201
0000b0 82 94 92 3d d3 67 5b bd 04 ba 35 bd b2 4a 91 bd
       0.07157232 -0.05356581 -0.04436685 -0.07094325
0000c0 64 7f 40 3d cd 70 92 3d 5b 77 f8 3c 9f c2 80 bd
       0.04699649 0.07150421 0.03033035 -0.06287121
0000d0 e9 42 f9 3d 9f fb cf bd 5f cd 58 3d e3 ff a8 3d
       0.12170965 -0.10155415 0.052930232 0.082519315
0000e0 16 c7 8b bd 2b 53 82 3c f1 ef b9 3b 1b 07 8e bc
       -0.06825082 0.015908798 0.005674355 -0.017337373
0000f0 78 d0 66 bd de 7d b8 3c 7a 5f 73 bd b8 15 37 3d
       -0.056351155 0.022520956 -0.059417225 0.044698447
000100 26 02 62 bd 39 9d 3c bb 3f 6e 8e bc 3b 6a 4c bd
       -0.05517783 -0.0028780235 -0.017386554 -0.049905997
000110 12 a3 5c bd 38 36 4b 3d ee f0 98 3d d7 2d 04 bd
       -0.053866453 0.049612254 0.07467829 -0.03227028
000120 58 a8 1e 3d 95 41 79 3d 15 41 a0 bd d1 c6 87 3d
       0.038734764 0.06085356 -0.078249134 0.06629718
000130 3a 8e 1f bd 5d f5 f7 3a 4d 20 80 bd 8e 32 78 bd
       -0.038953997 0.0018917728 -0.06256161 -0.060595088
000140 45 82 44 3d 2b ba c4 bd 78 25 0e bd ea 20 f5 bc
       0.047975797 -0.09605821 -0.0347037 -0.029922921
000150 67 07 aa 3d e2 3c 1d 3d 82 13 9f 3c be 63 63 bd
       0.08302193 0.03838814 0.019418482 -0.055515043
000160 74 ff 5a 3d 76 4f 94 3d bd 31 de 3c 10 a1 ea bc
       0.053466275 0.072417185 0.027123326 -0.028641254
000170 de aa d8 3c 9b 92 1d bd 03 2b 99 bd 08 e2 cd 3d
       0.026448663 -0.038469892 -0.07478907 0.10052878
000180 92 7c d6 3d 13 73 98 3d 8f d3 74 bd 34 2a 99 bd
       0.10472979 0.07443824 -0.05977207 -0.07478753

fc3.weight f4 [3, 100]
000000 d2 c8 5e ba 59 fa c4 3c 0b d7 3d bc b8 ea de bc
       -0.00084985525 0.024045156 -0.011586915 -0.027211532
000010 e2 f5 05 3d e1 26 38 3d 5c af f5 3c 3e 44 c7 bc
       0.032705195 0.044958953 0.029990844 -0.024324533
000020 7c bb 39 bb b4 d5 33 bd cb 0e d8 3c 8c b3 b8 3c
       -0.002834051 -0.043904975 0.026374241 0.022546552
000030 ca fa cb bc 71 60 2c bb a1 82 4c bc d0 b5 84 3b
       -0.024899859 -0.00263026 -0.012482316 0.004049994
000040 33 15 f1 bc 98 b8 28 3d b5 3c 0a 3c af 9f c5 3c
       -0.029429054 0.041191667 0.008437325 0.024123995
000050 52 5c b5 bb 88 60 0c bc 46 e3 d1 bc 15 70 e7 bb
       -0.005534687 -0.008567937 -0.025621068 -0.0070629218
000060 40 37 57 bc 66 b8 df 3c 71 2d 08 bc 66 70 22 bc
       -0.013135731 0.027309608 -0.008311615 -0.009914493
000070 28 b5 d1 bc 0a 2c 28 bc 64 fc f4 bc e5 2e e7 bc
       -0.025599077 -0.010264406 -0.029905505 -0.028220603
000080 fd ec bf 3c 33 58 73 3b 22 5d 9f 3b b5 d5 bf 3c
       0.023428435 0.0037131428 0.004863397 0.023417333
000090 63 b7 bb bc 92 70 99 bc 5f 58 5b bc 09 95 c6 3c
       -0.022914594 -0.018730436 -0.0133877685 0.024240987
0000a0 f0 f4 07 bc ca d6 93 3c da ef ae bb 90 9b f0 bc
       -0.008298144 0.018046755 -0.005338651 -0.029371053
0000b0 7d a7 80 3c 3e 55 fc 3c 3a 9d 04 bd e7 63 06 bb
       0.015704865 0.030802365 -0.032376505 -0.0020506324
0000c0 a6 9f 28 bc f4 32 eb 3c 29 f3 b0 bc ce 63 f9 3b
       -0.010291969 0.02871082 -0.021600323 0.0076107746
0000d0 8d e0 db 3c 61 16 d3 bc 7b 1c 85 3c 6c 01 e8 3c
       0.026840473 -0.025767507 0.016248932 0.02832099
0000e0 02 65 d0 3c b6 45 9d bc ba 2a 77 3c 03 17 9c 3c
       0.02543879 -0.01919828 0.01508587 0.019053942
0000f0 78 7c 17 3c 6b 38 a8 3c 28 64 27 bd d9 72 a6 3c
       0.009245984 0.020534715 -0.040867 0.020318436
000100 54 12 6e bb 37 f6 03 3c 60 47 cc 3b 8f 25 71 bc
       -0.0036326842 0.008054308 0.0062340945 -0.014718427
000110 ab 76 2c 3c a0 0c b4 3c 62 9d 11 3b 3b f2 7e bc
       0.0105263395 0.021978676 0.0022219052 -0.015560682
000120 f1 af 00 bc 0a 2b c3 3c 38 51 80 3c 64 cd b8 3c
       -0.007854448 0.023824234 0.015663728 0.022558875
000130 82 e0 ff 3c 31 31 06 bd 4b bd 62 bc cd a2 55 bc
       0.031234983 -0.032761756 -0.013839076 -0.013039303
000140 9a 25 3a 3c 4f f8 20 bc 73 7e 16 bc 87 8b d6 3c
       0.011361504 -0.009824826 -0.009185421 0.026189579
000150 79 ff 9c ba 83 c7 fd bc 5e eb b4 3c a7 09 12 bb
       -0.0011977992 -0.030978924 0.022084888 -0.0022283585
000160 89 b6 e2 bb 67 c0 95 bc c8 e8 c5 3c f6 bb 1b 3c
       -0.0069187325 -0.018280221 0.02415885 0.009505263
000170 b9 26 98 3b 9e d6 c0 3c 3b 2a 05 bc e5 8c bd 3c
       0.004643288 0.023539837 -0.008127744 0.023138473
000180 59 ef 7b 3c 81 a0 71 3c af 64 90 3c d6 97 80 3c
       0.015376889 0.01474774 0.017626135 0.015697401
000190 86 18 09 bc 80 da 04 3c b3 a5 0d 3d cc a4 94 bc
       -0.008367663 0.008108735 0.03458185 -0.018144988
0001a0 6a 85 20 bb fa 1a 8d ba 8d 09 df bb 67 0b 24 3b
       -0.0024493583 -0.0010765486 -0.0068065585 0.002503121
0001b0 9b 70 4d 3c cd 08 08 bd 59 ae 38 3c 58 bb 84 3c
       0.012539054 -0.033211518 0.0112720365 0.016202614
0001c0 ee 86 16 bc e4 6d d4 bc cd 6a f5 bb 68 a1 b6 bc
       -0.009187443 -0.025931306 -0.0074895383 -0.022293761
0001d0 f2 64 17 3c 42 17 31 3d 5f 81 6d 3c b1 2b bb 3c
       0.009240376 0.04323507 0.0144961765 0.022847982
0001e0 27 d6 6a bc 4f 2b e9 3c ac 52 ba bc 8f 5a 2c bc
       -0.014333284 0.028463034 -0.0227445 -0.010519638
0001f0 59 c8 4e 3b e8 ed 8f bc b6 75 1b bc 62 7b e2 3c
       0.0031552522 -0.017569497 -0.009488514 0.027646724
000200 bb c1 d5 bc 94 7f 23 3d 1f 13 00 3d fe 12 37 3c
       -0.026093354 0.03991659 0.031268235 0.011173962
000210 b6 74 4c 3c 33 ae 37 3c 52 c7 fb 3b d7 14 86 bc
       0.012478998 0.011210966 0.007683673 -0.01636736
000220 5a 62 a6 bc 4a 5a fa bc 87 2c f3 ba e8 dc 9f 3c
       -0.02031057 -0.030560631 -0.0018552699 0.019514516
000230 bf 47 34 3b 68 06 f9 bc e7 ec de bb 13 a3 c5 bb
       0.0027508584 -0.030398563 -0.0068031433 -0.006031403
000240 15 e2 53 bc f5 77 b9 bb f9 f6 bc bc e3 04 ae bc
       -0.01293232 -0.005660052 -0.023066984 -0.021242565
000250 1b 51 24 3c f0 de 8b 3c c4 cd ff bc 13 a3 70 bc
       0.010029103 0.017074078 -0.031226046 -0.014687317
000260 74 3f b4 3c 28 34 76 bc 05 ee c4 3b 22 94 a3 3c
       0.022002913 -0.015027083 0.0060098195 0.019968096
000270 67 ea bd 3b 7d 47 90 bc b2 e5 11 bc 1a 24 bc 3c
       0.005795765 -0.017612213 -0.008904861 0.022966433
000280 fc 09 d7 3c d2 a7 40 bc 66 36 0a bd 4a c1 80 3a
       0.026249878 -0.0117587615 -0.033743285 0.000982323
000290 29 c8 22 3c ba 38 c9 3c e9 e4 ad bc 15 01 34 3c
       0.009935417 0.024563182 -0.021227317 0.010986586
0002a0 c9 5f a4 3b 3b 65 98 3c 01 b7 2a bb 0c 68 5e ba
       0.0050163013 0.018602958 -0.002604902 -0.0008484132
0002b0 6d c6 47 3c 7f 32 d6 3c 5f 67 69 ba e4 3d 99 3a
       0.0121933045 0.026147125 -0.0008903648 0.0011691418
0002c0 28 48 1a 3d fb 27 13 bd 35 37 11 3c d4 fd ae 3c
       0.03766647 -0.0359268 0.00886326 0.021361269
0002d0 7a 90 a7 bc f9 fb 17 3c 3c c0 94 bc 19 71 e2 bc
       -0.020454634 0.009276384 -0.01815807 -0.02764182
0002e0 a0 44 1d 3c 61 c5 f9 3a de f4 87 bb 34 2c d2 bc
       0.009598881 0.0019056016 -0.0041490635 -0.025655843
0002f0 0c 39 b3 3c 1a 38 5d bc 1a b4 de bc 0f 2d 0c 3b
       0.021877788 -0.013502145 -0.027185488 0.0021389162
000300 09 37 89 bc ea 26 02 bd 81 2b 17 3d f3 56 a4 3a
       -0.016749876 -0.031775393 0.036906723 0.001253812
000310 21 1a 4d 3b e7 4d b9 ba 2d 22 42 3c fb 3f b0 3c
       0.0031296092 -0.0014137597 0.011848968 0.021514883
000320 4f d3 da bb ed ac 68 bc 56 81 94 bc a2 bf 6f bc
       -0.006678022 -0.014201385 -0.018128078 -0.014633091
000330 ad c3 8e 3c dd e6 a0 bc be 10 4e bc f2 aa 44 3c
       0.01742729 -0.019641334 -0.012577234 0.012003647
000340 1a 35 9b 3c 26 06 91 ba 95 5b 9b 3c 06 4d c6 3b
       0.01894622 -0.0011064454 0.018964568 0.0060516624
000350 ec 23 13 3c 54 77 df bc 53 14 35 bc 30 eb 13 3c
       0.008980732 -0.02727858 -0.011052209 0.009028241
000360 13 d6 a3 3c 4b fc db 3a 93 5a 09 3b f7 26 b6 3c
       0.01999954 0.0016783563 0.0020958527 0.022235377
000370 31 af ff 3a f8 c7 de 3c b1 68 36 bb 13 6d 2d 3b
       0.0019507167 0.027194962 -0.0027833397 0.0026462718
000380 cd 9c 73 bc 8b b0 90 3b b6 c7 be bc 10 82 fa bb
       -0.014868927 0.004415577 -0.023288589 -0.007644899
000390 78 87 b9 ba 75 75 33 bc 8d 71 e3 ba 56 e8 e7 bc
       -0.0014154753 -0.010953297 -0.0017352566 -0.028309029
0003a0 27 1b 92 3c 03 9d a1 3c 9f 3d cb bc 6c fe 8d bb
       0.017835213 0.01972819 -0.024809657 -0.004333308
0003b0 88 b5 59 ba a2 d4 aa bc 11 ea 25 bd 68 97 d1 3b
       -0.00083049433 -0.020853344 -0.040506426 0.006396223
0003c0 4e 6d 51 3c df 20 65 3b 09 cd 1a 3c 70 3e 06 3b
       0.012782408 0.003496222 0.009448298 0.0020483993
0003d0 47 31 90 3c 60 fb fb 3a 4e 33 94 bc 34 fc 89 3c
       0.017601622 0.0019224696 -0.01809087 0.016843893
0003e0 35 a4 a2 3c 67 d6 0d 3c 07 f0 aa bb b3 29 93 3a
       0.01985369 0.0086570745 -0.005216602 0.0011227637
0003f0 f0 75 b3 3a 2e 3e 07 bc fb 9b 46 bc d4 30 8b ba
       0.0013691764 -0.008254571 -0.01212215 -0.001061941

fc3.bias f4 [3]
000000 0a b6 b9 3c 02 86 f2 3b 5a 55 27 3c
       0.02266981 0.007401229 0.0102132205

fc1.weight f4 [100, 11]
000000 c7 4b 4b be 28 55 23 3e fc d1 41 3e d2 88 43 be
       -0.19853126 0.15950453 0.18927759 -0.19095162
000010 2c 9b c5 3b 78 5f af 3d e4 8f de 3d b5 2d 25 3e
       0.006030461 0.08563131 0.10867289 0.16130717
000020 d4 6e 4f 3e d0 9f 25 3e 0a de 93 3d 44 87 47 3c
       0.20257121 0.16174245 0.07220085 0.012178246
000030 11 8e 42 be 2a 2e 46 3e 13 9c 3a 3d 10 29 f0 bc
       -0.18999507 0.19353548 0.045559 -0.029316455
000040 81 9f 31 be a9 8b 59 be 86 e1 8f 3c ef 8f 69 bd
       -0.17346002 -0.21244682 0.017563593 -0.05702203
000050 4e d2 02 3e 2a 4f fc 3d 8c a1 51 bd 3f e6 8d bd
       0.12775537 0.12319787 -0.051179454 -0.069286816
000060 1c 31 50 be 5b 86 23 be 6a f1 23 3e a4 53 51 3e
       -0.20331234 -0.15969221 0.16010061 0.20442063
000070 ba 1e 15 be be e6 86 3e 61 49 5c bd 8d 45 2e 3d
       -0.14562503 0.26347917 -0.053780917 0.042546798
000080 d8 7d 0d 3e 59 30 83 3d 03 27 8d be 77 de 13 3e
       0.13817537 0.06405706 -0.27568826 0.14440332
000090 45 6b c4 bc ff c7 c5 bc 30 87 8b bd 79 87 1c 3e
       -0.023976931 -0.024143217 -0.06812894 0.15286054
0000a0 33 14 86 3e bb 9a 52 be 5e 0f b6 3d 9b b0 35 bd
       0.26187286 -0.20566837 0.0888965 -0.044357877
0000b0 6c c8 8b be 3d 70 9b 3c c4 4a f7 3d 41 03 55 be
       -0.27301347 0.018974418 0.12074807 -0.20802023
0000c0 3a 09 96 bd 9a d3 2b 3d 00 6a 02 3d 10 6d 02 3e
       -0.073259786 0.041949846 0.03183937 0.12736917
0000d0 a6 02 c7 3c ce 9e 21 bc 96 f1 01 be a0 d7 89 be
       0.024293255 -0.009864522 -0.12689814 -0.2692232
0000e0 db 5d 2a 3e b8 da 0a 3e 63 10 b1 bd c8 46 5f be
       0.16637366 0.13559997 -0.08645704 -0.21804345
0000f0 57 4e 26 3e de 0d 4d 3c cf 86 10 3e f0 97 8a 3e
       0.16240822 0.012515513 0.14113925 0.27069044
000100 dd 04 2f bd 0f d4 a8 3c f0 d7 8d be 96 2e ae 3d
       -0.042729247 0.02060893 -0.2770381 0.08504979
000110 0a be 45 3e fb 5a ce 3d 85 89 43 be 32 1d ed bd
       0.19310775 0.10075947 -0.19095428 -0.11577834
000120 17 54 5d 3e fc 82 1b be 81 40 4e 3d f6 93 05 3e
       0.21614109 -0.15186685 0.050354484 0.13044724
000130 48 bb 56 bd f4 c2 21 3e 28 97 22 3e 4d 52 94 bd
       -0.0524247 0.15797025 0.15877974 -0.0724226
000140 db 22 3f be 96 5d 6a bd e3 16 5c bd b3 c3 03 be
       -0.1866564 -0.057218157 -0.053732764 -0.12867622
000150 29 02 7b be d6 d8 8b 3e f1 03 8c be bd c3 3d 3e
       -0.24512543 0.2731387 -0.27346757 0.185317
000160 a6 14 82 be c5 fd ab bd ff 9a 91 be 97 13 62 3e
       -0.25406379 -0.08398012 -0.28438565 0.22077785
000170 f0 3a 69 3d 4e 33 72 be ad 3b c5 3d a2 51 68 3e
       0.056940973 -0.23652384 0.09630523 0.2268739
000180 59 f3 95 be 4f 4d dd bd ab c6 01 3e 78 34 b8 bd
       -0.29287222 -0.10805761 0.12673442 -0.089943826
000190 1c 90 18 3e 52 6e 9f bd 41 4b 95 bd 08 6a 89 3e
       0.14898723 -0.07784714 -0.07289744 0.26838708
0001a0 b4 45 58 3e 11 a1 8a 3e 29 0e 8b 3e 1c 44 2c be
       0.2112034 0.2707601 0.2715924 -0.16822857
0001b0 ec 64 b8 bd bf d5 97 3d dd 86 ee bd 6b 28 09 be
       -0.09003624 0.07413816 -0.11646817 -0.13394324
0001c0 2f b3 4d 39 52 64 0c 3e eb e5 07 3e 3c 3a 14 3e
       0.00019617075 0.13710144 0.132713 0.1447534
0001d0 7e 61 31 bc f3 84 72 bd 2a fe 05 be fb fd 48 3e
       -0.010826467 -0.05920882 -0.13085237 0.19628136
0001e0 a8 fe 83 3c 4b 01 4a 3c 63 ea b3 3c a4 39 4b 3e
       0.01611264 0.01232941 0.02196235 0.19846207
0001f0 d2 91 4f 3d c3 47 6f 3e 76 77 81 3e 74 e8 e2 bd
       0.050676174 0.23367219 0.25286454 -0.11079493
000200 94 54 62 bd df 7b 54 3e ab 91 80 3e 00 0d 7d be
       -0.05525644 0.20750378 0.25111136 -0.2471199
000210 53 50 d9 3d d4 4b 4f 3e 04 57 77 3e 4d 77 94 3d
       0.10611024 0.2024377 0.24154288 0.07249317
000220 d6 f0 18 be af f1 23 3c 65 50 9f 3d a1 68 fb bd
       -0.14935622 0.010006352 0.07779006 -0.12275816
000230 8e 5f 28 3e a3 db 6a bd e0 a3 a2 3d 42 3f 63 3e
       0.16442701 -0.05733837 0.07941413 0.221921
000240 30 3f 47 bd 96 77 b5 3d 36 41 48 3e f8 f8 b1 3d
       -0.048644245 0.088607 0.19556126 0.08690065
000250 2d 56 4f 3e 8f 7e ed 3d e6 e9 3e 3e a9 da 81 3e
       0.20247717 0.11596405 0.18643913 0.25362137
000260 a5 9e 1d 3e f1 a5 85 3e 38 a4 94 3c 00 b6 15 be
       0.1539255 0.26103166 0.018144712 -0.14620209
000270 0f 34 85 3e d5 bc d3 3d 44 70 ba bd 29 bb 93 bd
       0.2601628 0.10338751 -0.09103444 -0.07213432
000280 d3 5e 72 be f3 c4 85 be 09 43 3c be 2c 6d 37 be
       -0.23668985 -0.26126823 -0.18384947 -0.1791274
000290 82 7e 19 3e 9a 70 ae 3d c5 fc 8c be f3 47 41 3e
       0.14989665 0.08517571 -0.27536598 0.18875103
0002a0 aa 2e a1 bd 79 77 77 be 9d b3 d4 bd 9e 4b 46 3e
       -0.078702286 -0.24166669 -0.10385821 0.19364783
0002b0 79 12 5f 3e 77 90 69 be 4d 37 96 bd 27 ab 85 3d
       0.2178439 -0.22809015 -0.073347665 0.06526785
0002c0 f5 d7 82 be 72 91 07 be 23 e7 8e 3e f4 44 8d be
       -0.25555387 -0.13239077 0.27910718 -0.2759167
0002d0 c8 66 c0 bd 97 24 19 be d6 b9 5b be 01 14 33 be
       -0.09394604 -0.14955364 -0.2145761 -0.174881
0002e0 a3 86 83 be 0e 7f 00 3e 21 81 f7 3d 0d aa 5d 3e
       -0.25688657 0.12548468 0.12085176 0.216469
0002f0 5a 6c d9 3c 6a 5b 71 be 35 2f 1d 3d 46 82 35 bd
       0.026540924 -0.23570028 0.0383751 -0.04431369
000300 29 97 ae 3d 0a 5a f5 3d 7c 28 70 be e6 04 8d bd
       0.08524925 0.11980064 -0.23452944 -0.068857
000310 3e 44 1d 3e 50 3a 6b be 4f af e5 bd c3 a3 9e be
       0.15358064 -0.22971463 -0.11215078 -0.30984315
000320 80 fc 91 3b fc 66 5c 3d 15 64 1a 3e 1a 0b b7 bd
       0.004455149 0.05380915 0.15077241 -0.08937664
000330 07 aa 90 be 58 e4 48 3e 26 0e 35 3e 18 26 c1 3d
       -0.2825472 0.19618356 0.17681178 0.09431094
000340 58 8e b3 3d e8 2d 5b 3e 7d c2 89 be 3b 89 fd bc
       0.08767384 0.2140423 -0.26906195 -0.030949226
000350 1d 4c e6 3d 83 69 96 3e 50 e0 9a bd b3 29 30 3e
       0.11244986 0.29377374 -0.075623155 0.17203407
000360 04 80 23 be 10 f5 16 3d 55 8e 73 3e 9b 82 4d 3e
       -0.15966803 0.036854804 0.23784764 0.20069353
000370 5b c6 62 be b3 39 13 be a8 b8 2a be bc 19 2a 3e
       -0.22145979 -0.1437748 -0.16672003 0.1661138
000380 d3 70 fd bd 29 9d 90 3e 20 0e c8 3d d1 57 80 bc
       -0.12375035 0.28244904 0.09768319 -0.015666874
000390 91 e6 e7 3c eb bd d7 bd 83 df 69 be bc 8b 4a 3e
       0.028308185 -0.10534271 -0.22839169 0.19779867
0003a0 5f 99 26 3d 2a cd 70 be bb 2a 65 3e 86 91 2f 3e
       0.04067361 -0.23515764 0.22379582 0.17145357
0003b0 97 a6 15 be 22 5c ed 3d 7c 28 fe bd e5 16 28 be
       -0.1461433 0.115898386 -0.124100655 -0.16414984
0003c0 95 fb 82 be a0 e6 98 bd 2b 80 ea bd 18 66 20 3d
       -0.25582567 -0.07465863 -0.11450227 0.039159864
0003d0 a7 67 3b be ba 13 aa bd 27 ab b2 bc 15 38 23 3d
       -0.18301259 -0.08304544 -0.021810127 0.039848406
0003e0 f5 af f0 bd b7 ae 03 3d e1 84 93 3c ed fe 71 3b
       -0.11752311 0.032149043 0.018007698 0.003692563
0003f0 e5 88 04 be e2 14 6f 3e 3c fc 8d be f1 35 a3 bc
       -0.12942846 0.2334781 -0.27731502 -0.019923182

fc1.bias f4 [100]
000000 c1 d9 b8 3e 46 c2 8c be 46 b6 85 3e a3 e3 d4 bd
       0.36103633 -0.2749197 0.26115626 -0.10394981
000010 6e 82 70 bd 1d 8a 87 3e ab c6 84 be 15 de 54 be
       -0.058718137 0.2647256 -0.25932822 -0.20787843
000020 4c d4 a4 be bb 1c ab be df eb 3d 3e f8 8a ac 3d
       -0.3219322 -0.33420357 0.18547009 0.08424944
000030 88 df eb 3d a1 9e 6c be 06 5f 68 3e 23 fe bd 38
       0.115172446 -0.23107387 0.22692499 9.059559e-05
000040 0f 27 a8 be ba 7a 80 be c1 08 b0 be ae 5f 11 be
       -0.328423 -0.25093633 -0.3438168 -0.14196655
000050 a7 f9 62 3e 9a da 92 bc f4 ae 8f 3e fc 33 b5 bd
       0.22165547 -0.017926503 0.28063166 -0.08847806
000060 46 f2 91 3e a3 25 c7 3d cc 78 4f bd b9 55 84 3c
       0.28505152 0.097239755 -0.05065231 0.016154157
000070 b5 d0 51 3e f6 d1 a4 3e d4 74 f0 bd 20 17 b7 be
       0.20489772 0.32191437 -0.11741033 -0.3575983
000080 d6 c5 1c 3e 9a eb 30 ba c3 c7 9e be 54 f4 0a 3e
       0.15309843 -0.00067489746 -0.3101178 0.13569766
000090 1d ca 3f be 79 38 83 3e b7 f8 15 3e b5 cf a3 3d
       -0.18729444 0.25629023 0.14645658 0.07998601
0000a0 55 40 f6 3d 17 3d 88 be 72 10 b5 3e da 63 cd 3b
       0.12023989 -0.26609108 0.3536411 0.0062680067
0000b0 79 f3 25 3d 8a d0 44 be 8f 54 b8 be c8 88 91 be
       0.040515397 -0.19220176 -0.36002013 -0.28424668
0000c0 f7 57 82 be c2 00 80 3e bc 3b aa 3e a1 6f 9a be
       -0.25457737 0.25000578 0.332487 -0.3016329
0000d0 c3 45 89 3d c9 0b bf 3b 0b 45 f4 bd 27 ca 4a 3b
       0.06702759 0.0058302623 -0.119272314 0.0030943246
0000e0 09 0d a1 3d 8c 62 2b bc 2b 0c ac be 8d b1 12 be
       0.078638144 -0.010460507 -0.33603033 -0.14325543
0000f0 fa 9c bc 3d e6 7e 24 3e d3 dc f3 bd d4 ec f9 bb
       0.092096284 0.16064033 -0.11907353 -0.007627109
000100 3f 5b 95 bc 8d 87 ab be ed 01 13 3e 44 88 8e be
       -0.018231986 -0.33501855 0.14356203 -0.27838337
000110 a3 00 c1 3d 7f f6 8b 3e 0c 4e 45 3e 0e a0 a6 3e
       0.094239496 0.273365 0.19268054 0.32543987
000120 af e6 b2 bc 8d 6f 6f be a2 14 c3 bd 3f 7f 67 be
       -0.021838514 -0.23382397 -0.0952542 -0.22607134
000130 7b 32 84 be e0 45 fc bd ea 52 d3 3d 85 92 49 be
       -0.25819764 -0.12318015 0.10318549 -0.19684799
000140 14 8d 8a be ad 60 51 be 89 20 87 be 82 ad f4 3d
       -0.2706076 -0.20447035 -0.2639201 0.119471565
000150 1e 27 8b be 75 ea a8 bd 29 8d a3 be ad 17 a0 be
       -0.27178282 -0.08247844 -0.31943634 -0.31268063
000160 20 c8 a7 be 75 1c 27 3c f9 ec e2 3d 9b 0a 36 3e
       -0.3276987 0.010199656 0.11080355 0.17777483
000170 8d eb 81 3e aa 80 86 bd d5 88 a4 be 82 62 00 3e
       0.25375023 -0.065675095 -0.32135645 0.12537578
000180 27 d7 8a 3e 92 3b 01 be b3 eb 92 be 09 d0 27 be
       0.27117273 -0.1262038 -0.2869545 -0.16387953

fc2.weight f4 [100, 100]
000000 0f f6 a4 3d d3 c3 fa bd d7 c2 1b bd ce da 68 bd
       0.080547445 -0.12244382 -0.03802761 -0.056849293
000010 a8 be 91 3c fb 5a 01 3d da d2 f2 3b ea de 05 be
       0.017791107 0.031580906 0.0074103894 -0.13073316
000020 68 41 eb bd 05 d9 b2 bd 42 c4 ec 3d 10 41 c5 3b
       -0.114870846 -0.087327994 0.11560871 0.006019719
000030 66 9e eb 3d c2 f9 64 3d 32 8e be 3d 2b c2 7d bc
       0.115048215 0.05590225 0.09304465 -0.015488188
000040 b3 79 d8 bd ca d8 21 3d e0 e3 e5 3a 3b 18 2f bb
       -0.10570087 0.039513387 0.0017539226 -0.0026717323
000050 71 3f 6d 3d 20 98 63 3d 7a 05 17 3d cb d6 a7 ba
       0.05792183 0.055565 0.036870457 -0.0012805102
000060 9c bb e4 ba ab 89 f5 3d 40 82 88 3b c1 5f 19 bd
       -0.0017450931 0.11989149 0.0041659176 -0.037444834
000070 a4 18 d3 3d f8 2f d0 3d 54 88 97 bd 33 78 1e be
       0.10307434 0.10165399 -0.073990494 -0.1547554
000080 07 b5 e7 3d 97 df b2 bc 6a 31 b7 bd a3 23 4a 3d
       0.11313825 -0.021835132 -0.08944972 0.049350392
000090 4d 2c bc bd 77 6b 07 bd 29 82 da 3d a5 b8 68 3d
       -0.09188137 -0.03306147 0.10669357 0.056816716
0000a0 8a 22 65 3d 4d c2 43 3d 3b 07 24 3d 89 f8 13 3c
       0.055941142 0.04779272 0.040045958 0.009031423
0000b0 18 aa e0 bc 85 e2 b5 bd 93 19 ce bd 04 99 bc bd
       -0.027424857 -0.08881096 -0.10063472 -0.09208873
0000c0 74 f4 e9 3b a3 b6 f0 3d dd 1e b0 3d 14 15 1a bd
       0.007139737 0.11753585 0.08599637 -0.037617758
0000d0 f8 68 b1 3d eb c7 5d 3c 95 69 0c 3d 1d 75 d1 3b
       0.08662599 0.013536434 0.03428038 0.006392135
0000e0 6a da 96 3d c2 82 14 bd f0 68 be bc 43 32 3a bd
       0.07365878 -0.036257513 -0.023243397 -0.04545809
0000f0 98 21 bd bc bb eb e6 3d 55 3c 60 bd 4a b5 a3 bd
       -0.023087308 0.11275431 -0.054745037 -0.079935625
000100 6a f0 86 bd 30 c0 b9 bd 2c 8b f1 3d 07 62 17 be
       -0.06588824 -0.0906986 0.11794123 -0.14783488
000110 56 0c 0e bd 2a 95 fe 3d 11 9d bc 3d 84 e1 1e bd
       -0.034679733 0.124307945 0.092096455 -0.038789287
000120 e0 28 09 bd 5a fd 40 3c 72 6c 09 bd ce 7a 28 3d
       -0.033486247 0.011779154 -0.033550687 0.04113274
000130 35 9d f5 bd 8a 58 c2 bd 74 0d ba 3d 9a 2d c9 bd
       -0.119928755 -0.09489544 0.09084597 -0.09823151
000140 bd bc 0c be 2e 6f 6a bd 87 be ef bc 8b 01 44 3d
       -0.13743873 -0.057234935 -0.029265655 0.047853034
000150 b4 83 03 3d 29 98 ac 3c 09 42 77 bd 78 fc f7 3b
       0.032108024 0.02106865 -0.06036571 0.0075679384
000160 86 d2 0a be 76 b5 60 bd d8 f4 7e 3d bc 94 fc 3d
       -0.13556871 -0.054860555 0.06224522 0.12333056
000170 42 cf 57 3d aa be f7 bc d5 a3 80 bd 21 5e 16 3d
       0.05268789 -0.030242283 -0.062812485 0.036710862
000180 70 b6 98 3d 1e 75 1f bd 6f 70 db bc 8a 74 bd bd
       0.07456672 -0.03893005 -0.026787011 -0.09250744
000190 75 2c 9c 3d da 1b fd bc 0e 12 ca bb e5 10 5c bd
       0.07625667 -0.03089707 -0.006166703 -0.05372705
0001a0 78 83 7e 3d 60 d7 18 3d b5 26 11 3d 8c 8c 0a be
       0.062137097 0.037314773 0.035437305 -0.13530177
0001b0 7c 17 3a bd 2e e4 02 3d 6b f4 7d 3d 8a ae cb 3d
       -0.045432553 0.03195589 0.062000673 0.099454
0001c0 77 73 7e 3c 13 72 83 bd e9 64 9c 3d 49 ee 8a 3d
       0.015530459 -0.06418242 0.076364346 0.067837305
0001d0 ac ec f4 37 22 b2 cf bc d3 0b 2c bd b2 62 f6 bc
       2.9197276e-05 -0.025353495 -0.042003464 -0.030076358
0001e0 d3 87 a4 bc e8 90 d5 bd 1b a7 5e 3d 4f 14 96 bd
       -0.020084297 -0.10428029 0.054358583 -0.07328092
0001f0 bc f3 f4 3d 3e 82 22 3d ac fe 88 3d a7 e6 0a bd
       0.11960551 0.03967499 0.066892 -0.033911373
000200 d0 7e 86 3c 53 19 d7 3d 01 4e b3 bd 1c 81 8c bd
       0.01641789 0.10502877 -0.087551124 -0.06860563
000210 cd 99 9c bc 03 27 4c 3c 7c 76 18 be 3c 16 be 3c
       -0.019116307 0.012460473 -0.14888948 0.023203962
000220 33 1e 49 3d 4f 27 95 3d 8a cf 1f bd bf dc 1c 3d
       0.049101066 0.07282888 -0.039016284 0.038296457
000230 38 57 8e ba 92 82 fe bd 54 94 0f 3e 90 3c 8f 3d
       -0.0010859733 -0.12427248 0.14021426 0.06993973
000240 fc ce d6 bc 37 a2 12 3d 62 09 b1 bd 82 8b 05 be
       -0.026221745 0.03579923 -0.08644368 -0.130415
000250 f1 a3 47 bb 16 83 dc 3c 03 0a 0e bd 43 0b dc bd
       -0.0030462707 0.026917975 -0.034677517 -0.107443355
000260 f8 f9 8e 3d 30 a6 86 3d 1b ea 94 bd 32 b2 66 bd
       0.069812715 0.065746665 -0.072712146 -0.056322284
000270 3d 1c c0 bb f2 00 c1 3d e4 f6 16 be 0b 8f 0a bc
       -0.0058627413 0.094240084 -0.14742619 -0.008456956
000280 63 07 f0 3d c3 f1 a4 3d 66 1a 7a 3d 45 e1 98 3d
       0.11720159 0.08053925 0.06106033 0.07464842
000290 a5 53 d8 bc f9 e9 95 3c f3 08 36 bd fb 27 28 3d
       -0.026407072 0.018300043 -0.04444213 0.041053753
0002a0 bf 36 b1 3c ef 10 8d 3d 18 b9 d8 bc 3c b7 79 bc
       0.02163255 0.068879955 -0.026455447 -0.01524144
0002b0 79 55 34 3d d2 50 e7 bd 4f 66 db bd 80 d1 1a bc
       0.044026826 -0.11294712 -0.10712873 -0.009449363
0002c0 6c 7d 05 3d 13 70 0b bc 7a 00 45 bd ea 03 e3 3c
       0.032590315 -0.008510607 -0.048096158 0.027711827
0002d0 9f 4f 04 be fc b5 0f be c6 7c 00 be 31 05 77 bd
       -0.12920998 -0.14034265 -0.12547597 -0.060307685
0002e0 e1 33 d7 bc 27 db a1 3c a0 69 31 bd 90 d9 d5 bd
       -0.026269855 0.01975782 -0.043313622 -0.104418874
0002f0 46 91 ce bd 6a 9e af 3d 25 44 f5 3d 00 4b ae bc
       -0.100863025 0.08575137 0.11975888 -0.021275997
000300 19 2a f6 3d b6 53 f6 3c 38 94 96 bd 05 50 87 3d
       0.12019748 0.030069213 -0.07352489 0.066070594
000310 05 d9 bc 3c 19 9d 75 bc 77 9f f4 3c 98 f5 93 3c
       0.023052702 -0.014991068 0.029861195 0.018061444
000320 37 37 39 bb 6e 5f 88 bc 19 02 c1 3d 55 0c 97 bc
       -0.002826167 -0.016647067 0.09424228 -0.018438498
000330 d1 35 3f 3c d3 d5 ce 3d c8 29 2a bc 5a 52 b1 bd
       0.011670546 0.100993775 -0.010385938 -0.086582854
000340 c3 de c6 bd 75 5f 2f bd b6 1b e8 bc 6b 7e 91 3c
       -0.09710457 -0.042815644 -0.028333526 0.017760476
000350 ff 41 8a 3d aa 85 5c bd f3 f0 5c 3d 0e c9 d5 3b
       0.06750869 -0.05383841 0.053940725 0.0065242117
000360 b1 f3 d8 bd a2 e3 f6 bd 6f 48 12 be e7 a6 9c 3c
       -0.105933554 -0.12055136 -0.14285444 0.019122554
000370 cd ea fb 3d 74 42 f3 ba 12 e1 08 3e 31 ec 23 3d
       0.12300644 -0.0018559233 0.13367108 0.04002017
000380 04 d5 2c 3d 3f 60 86 3d 38 36 23 bd 0a 93 5b bd
       0.042195335 0.06561326 -0.03984663 -0.053607024
000390 e8 53 55 3d d1 2c 94 3c 41 23 56 3d a6 f7 8d bd
       0.052081972 0.018087776 0.052279714 -0.06932001
0003a0 d9 cc 96 3d 9a 0d 6d 3d dd f9 15 bd 7a 42 87 3d
       0.0736329 0.0578743 -0.03661524 0.06604476
0003b0 0b c2 7f bd f3 50 c4 3d d5 2b 93 3c 52 02 61 3d
       -0.062440913 0.09585752 0.017965237 0.054933853
0003c0 0c 16 e2 3d af 49 02 be f8 87 d8 bc 69 d9 8b 3c
       0.11039361 -0.1272342 -0.026432022 0.017071443
0003d0 2a 9c b0 3d 50 0b e7 bd 14 23 36 bd 71 ac 3b bd
       0.08623536 -0.112814546 -0.044467047 -0.04581875
0003e0 7f 1d 54 bd 7c db 50 3c 2b 5e eb 3d 68 d9 d1 bd
       -0.051785942 0.012747642 0.114925705 -0.10246545
0003f0 49 cc 19 bd ad 1b 13 3d a4 c5 59 bd 70 b5 8c 3b
       -0.037548337 0.035915066 -0.053167 0.00429409

fc2.bias f4 [100]
000000 77 ea d7 3d fe d5 36 3d 24 d5 73 3d ba 0e ce 3a
       0.105427675 0.044637673 0.05952944 0.0015720942
000010 28 ce d7 3d 2a ab c5 3c 05 23 1d 3e b8 45 87 bc
       0.10537368 0.024129469 0.1534539 -0.016512737
000020 d9 8a dd 3d 07 92 da bd 3c 19 5e bc e3 b0 73 3d
       0.10817499 -0.10672384 -0.013555821 0.059494864
000030 98 df 16 3e ef d2 0a 3c 3d f7 a8 3d 32 9c ad bd
       0.14733732 0.008473142 0.08250282 -0.084770575
000040 e7 98 9f 3d cd a5 8b bd be ef e6 bd d8 ee b2 3d
       0.07792836 -0.06818733 -0.11276196 0.08736962
000050 b7 9d f8 bc ab 36 c8 bd dd 26 16 3e e8 63 ca bd
       -0.030348642 -0.09776052 0.14663263 -0.09882337
000060 76 4a 12 be b2 46 e8 bd 43 3a d9 bc 8d ab ef 3d
       -0.14286217 -0.11341609 -0.02651704 0.117026426
000070 85 1f e6 3d 2f 98 07 be 01 98 47 3c 5e 04 c6 bd
       0.112364806 -0.13241647 0.012182237 -0.09668802
000080 c9 3a 93 bc 2c 94 9d 3d b9 2a 7c bb 24 ff e6 bd
       -0.017972367 0.07694277 -0.0038477613 -0.11279133
000090 ae 50 1c be 5f 4e e3 3c 1b 21 1d bd 21 80 b5 3d
       -0.15265152 0.027747331 -0.03836165 0.08862329
0000a0 e4 3d 08 bd 83 3d 01 3d 73 84 23 3b d7 84 2f bd
       -0.03326215 0.031552803 0.0024950772 -0.042851295
0000b0 a1 c9 2a bd 29 d8 cb 3d 9a 28 18 3d 20 7a d9 bd
       -0.041696195 0.09953339 0.037148096 -0.106189966
0000c0 1e b6 1f 3e dd 14 15 bd d3 58 1d 3d 83 62 9a bd
       0.15596816 -0.03639685 0.038414788 -0.07538321
0000d0 a0 0f 03 bd 27 68 8d bd 3b 92 fe 3d 32 73 f2 3d
       -0.031997323 -0.06904631 0.12430235 0.11838378
0000e0 27 2c 26 3e f7 cb 0a be c8 e8 02 3e 1f d6 b5 bd
       0.1622778 -0.13554369 0.12784111 -0.08878731
0000f0 6c 9b a5 3d 1b 49 d9 3c 1d 82 59 3d 2d 05 fa 3d
       0.08086285 0.026524117 0.0531026 0.122080185
000100 f7 b8 1d 3e 2d 02 20 be 6e ee d7 ba bd 18 90 3d
       0.1540259 -0.1562583 -0.0016474256 0.070359685
000110 23 42 03 be 61 5f 9b bd 10 e4 27 3d c7 0f b4 bd
       -0.12818198 -0.075865515 0.04098898 -0.08792072
000120 b7 c2 a6 3d 75 d2 c7 bd c6 81 6c bd 8f 6f b6 3d
       0.08142608 -0.09756938 -0.05774095 0.08907997
000130 3b 72 18 be c7 84 32 bd 6b 2d 25 be 44 9c 0a bd
       -0.14887325 -0.043583658 -0.16130607 -0.033840433
000140 d5 a6 62 3d d2 70 31 3a 88 47 10 3a 37 28 f7 3c
       0.055334885 0.00067688257 0.0005503823 0.030170543
000150 e8 0c fb bd d7 6d 17 3d 9a 97 e7 bc c0 6e 8c 3c
       -0.12258321 0.036969986 -0.028270531 0.017142653
000160 04 30 cf 3d ce ac 21 bb ac 0b d1 bc 43 24 d2 3c
       0.1011658 -0.002466965 -0.02551826 0.025652057
000170 92 38 80 bd 7b 09 a1 3d c7 33 05 3d 8a 0d a5 3d
       -0.0626079 0.078631364 0.03252008 0.08059223
000180 09 91 da bd 9e 18 08 be 50 c7 06 3e 45 38 4a bd
       -0.106721945 -0.1329064 0.13161969 -0.04937007

fc3.weight f4 [1, 100]
000000 95 29 42 3d eb 64 71 3d 50 eb 48 3d 79 4a 97 bc
       0.047402937 0.058934133 0.049052536 -0.018468129
000010 09 d2 7f 3d 44 25 55 3d 25 08 4c 3d fd f1 5a bd
       0.062456165 0.052037492 0.049812455 -0.053453434
000020 5e e5 5c 3d ec 95 65 bd 28 0c 09 3d 96 30 7b 3d
       0.05392968 -0.05605118 0.03345886 0.061325632
000030 2f 5a 61 3d b5 d4 31 bd 97 9b 69 3d 48 3f 55 bd
       0.055017646 -0.043415744 0.057033148 -0.052062303
000040 c2 d8 58 3d 8d 9d 4e bd fa 2d 6f bd e9 0b 26 3d
       0.05294109 -0.05044322 -0.058393456 0.040538702
000050 34 90 60 3d 1b 58 5b bd 2c bc 7a 3d 90 29 54 bd
       0.054825023 -0.05355082 0.06121461 -0.05179745
000060 fe f6 3a bd 1e 9e 13 bd b5 b4 fb 3c 8c 32 70 3d
       -0.045645706 -0.036039464 0.030725816 0.058641955
000070 d5 d4 73 3d 1e f8 56 bd 16 93 41 3d 25 cc 4d bd
       0.059529144 -0.052482717 0.047259413 -0.050243516
000080 4e 19 58 3d 74 7f 28 3d 00 95 59 bd 40 48 48 bd
       0.052758507 0.041137174 -0.053120613 -0.048897028
000090 42 45 86 bd 01 33 3d 3d 6d 51 58 bd c2 a3 6b 3d
       -0.06556179 0.04619122 -0.05281203 0.05752922
0000a0 4d 3a 3e bd c6 e3 4d bd 42 6b 37 3d 2b 97 6d bd
       -0.04644232 -0.05026605 0.044780023 -0.058005493
0000b0 2c 10 36 3d 25 bd 82 3d 66 a3 2e 3d 06 fe 3a bd
       0.044449016 0.06383733 0.042636298 -0.045652412
0000c0 1f ed 5e 3d cb aa f8 bc 52 7f 73 3d 1c a0 5c bd
       0.054425355 -0.030354878 0.059447594 -0.05386363
0000d0 d0 e7 5e bd ca e1 6c bd 7d c0 57 3d 01 7a 65 3d
       -0.054420292 -0.057832517 0.052673806 0.056024555
0000e0 50 33 55 3d 4d f2 08 bd c2 92 60 3d 13 d1 47 bd
       0.05205089 -0.0334342 0.05482746 -0.048783373
0000f0 a6 ac 51 3d b7 71 63 bd 7c cf 96 3c 65 5d 5b 3d
       0.05119004 -0.05552837 0.018409483 0.053555865
000100 2d 79 60 3d 59 6b 64 bd 26 1b 57 bd ac 34 6a 3d
       0.054803062 -0.055766437 -0.052516125 0.057179138
000110 c9 06 ec bc 25 15 08 bd 11 4c 73 3d 5c 84 47 bd
       -0.02881183 -0.03322329 0.059398714 -0.048710212
000120 3c 9d 54 3d bd 62 76 bd 66 02 7c bd 5e d3 51 3d
       0.051907763 -0.060152758 -0.061525725 0.051226966
000130 96 12 5e bd e6 2f 83 bd 44 93 47 bd 38 52 6a bd
       -0.054216944 -0.0640562 -0.048724428 -0.057207316
000140 21 bf f6 bc 5f 3a cc bc e7 7b 43 bd 87 72 53 bd
       -0.030120434 -0.024930177 -0.047725584 -0.051622894
000150 68 50 3e bd 97 f3 44 3d d8 d0 30 bd 83 4c df bc
       -0.0464634 0.048083868 -0.04316792 -0.027258163
000160 a1 10 3d 3d 12 2d 7b bd 32 0e 2b bd 9b 36 16 bd
       0.046158437 -0.06132228 -0.041761585 -0.03667317
000170 b3 16 5a bd d3 ec 83 3d 6e fe 54 bd 28 d6 78 3d
       -0.053244304 0.06441655 -0.052000456 0.06075111
000180 f8 9c 61 bd e5 85 89 bd 53 22 05 3d 12 4a 51 bd
       -0.055081338 -0.067149915 0.032503437 -0.05109603
