mujoco/vail/save_model/ckpt_32.pth.tar (torch, 110947 bytes, 20 tensors)

fc1.weight f4 [100, 11]
0	0x3d19513a	0.03743098
1	0xbe6a4cbc	-0.22880834
2	0x3e3f3821	0.18673755
3	0xbde352b4	-0.11099759
4	0x3d9209ee	0.071308
5	0x3d7c0a09	0.061533008
6	0xbe60a92b	-0.21939532
7	0x3e01403d	0.12622161
8	0x3e3d4a03	0.18485264
9	0x3e3e18d0	0.18564153
10	0xbbb004d3	-0.005371669
11	0x3e7d3db0	0.24730563
12	0xbe102ea4	-0.14080292
13	0x3d1b8dbe	0.037976973
14	0xbe8d8657	-0.27641556
15	0x3d8ad58e	0.067790136
16	0x3daffd94	0.08593288
17	0xbc0aad2f	-0.008464142
18	0x3d82f259	0.063938804
19	0x3e141960	0.14462805
20	0x3e2b7d3b	0.1674699
21	0x3e68de94	0.22741157
22	0x3e415f84	0.18884093
23	0xbdfaa68b	-0.12238797
24	0xbe8ea152	-0.27857453
25	0x3da77b3c	0.08177802
26	0x3d8b7473	0.0680932
27	0xbe49872b	-0.19680469
28	0xbd7c71ff	-0.061632153
29	0x3e404e92	0.18779972
30	0xbde7579e	-0.112960085
31	0xbccf43b7	-0.025300844
32	0x3e134aa3	0.1438394
33	0x3e8b7e42	0.27244765
34	0xbe932bee	-0.28744453
35	0x3d84e384	0.06488708
36	0x3e6e3c62	0.23265222
37	0x3d787478	0.06065795
38	0x3dbbed71	0.09176148
39	0xbe84d5b1	-0.25944284
40	0xbd562e6f	-0.052290376
41	0xbe1db8b3	-0.15402488
42	0x3e420489	0.18947043
43	0xbe8fd31f	-0.2809076
44	0x3debbdd2	0.11510815
45	0x3e5573e9	0.20844997
46	0x3e340da9	0.17583336
47	0xbe842ac6	-0.25813884
48	0xbd957b20	-0.07298875
49	0x3dc619b8	0.09672874
50	0xbe5b19ad	-0.21396513
51	0xbced6810	-0.028980285
52	0x3e85cf91	0.26134923
53	0x3d9da753	0.0769793
54	0x3d8afaa4	0.06786087
55	0x3e702714	0.23452407
56	0xbdfa0f09	-0.12209899
57	0xbd8103a9	-0.06299526
58	0x3e29f8b2	0.16598776
59	0x3e976a0c	0.29573095
60	0x3db25581	0.08707715
61	0x3d8dd69f	0.06925701
62	0xbe313767	-0.1730629
63	0xbbc0b568	-0.0058810003
64	0xbd535291	-0.051592413
65	0x3d1ad7b8	0.03780338
66	0x3e5b7722	0.21432164
67	0xbe69e0a0	-0.22839594
68	0x3e6d59b1	0.23178746
69	0xbe5f9bd0	-0.21836782
70	0xbdd6f87d	-0.10496614
71	0xbe7607e0	-0.24026442
72	0x3e6eaef7	0.23308931
73	0xbd02aff0	-0.03190607
74	0xbc879ba2	-0.016553704
75	0xbe1c4682	-0.15261272
76	0xbe3aa5e0	-0.18227339
77	0x3d6d79b0	0.05797738
78	0x3e81c99f	0.25349137
79	0xbe343a3e	-0.17600343
80	0xbe1a0e59	-0.15044536
81	0x3e6d33c7	0.23164283
82	0x3da4386b	0.080185734
83	0x3e8a3e2f	0.27000567
84	0x3a816226	0.000987117
85	0xbe5286d4	-0.20559245
86	0x3e5bad99	0.21452941
87	0x3e8aa698	0.27080226
88	0xbaaf9651	-0.0013396238
89	0x3d9928f7	0.074785165
90	0xbe4872f8	-0.19575107
91	0xbe983f08	-0.2973559
92	0x3e548948	0.20755494
93	0x3e5abaaa	0.21360269
94	0x3e2bb990	0.16770005
95	0xbe3ee197	-0.18640743
96	0x3e924ae8	0.28572774
97	0xbe2ec2f5	-0.17066558
98	0x3e2cacb7	0.1686276
99	0xbc7bcc89	-0.015368589
100	0x3e2f990e	0.1714823
101	0xbcd584fe	-0.026064392
102	0x3e037dd6	0.12840971
103	0x3e76ceeb	0.2410237
104	0xbe812b0e	-0.2522816
105	0x3e333b76	0.17503151
106	0x3e99227b	0.2990912
107	0x3e560fca	0.2090446
108	0x3e20e043	0.15710549
109	0xbd8d0bf6	-0.06887047
110	0xbe54591d	-0.20737119
111	0xbd81a394	-0.06330028
112	0xbd30ac5b	-0.04313312
113	0xbe83c502	-0.25736243
114	0xbd30b659	-0.04314265
115	0x3e81440f	0.25247237
116	0xbe03d8e3	-0.12875704
117	0x3e7be6f9	0.24599828
118	0x3dee357d	0.11631296
119	0x3e546ea1	0.20745327
120	0xbd755a60	-0.05990064
121	0xbdd46bf2	-0.103721514
122	0xbcf47d88	-0.029845014
123	0x3dd20ce4	0.10256365
124	0x3d586399	0.05282936
125	0x3e950d94	0.29111922
126	0x3e8df4ad	0.27725735
127	0x3d0c9d5f	0.03432977
128	0xbd3ea5c9	-0.046544824
129	0xbd3e6658	-0.04648432
130	0xbdb9c93f	-0.09071588
131	0x3e0ea162	0.1392875
132	0xbd67458a	-0.056462802
133	0x3e71297d	0.23550983
134	0xbe2aabfa	-0.16667166
135	0x3e33edca	0.17571178
136	0x3e31d140	0.17364979
137	0xbdfd1ee5	-0.12359408
138	0xbbc7b565	-0.006094622
139	0xbe016759	-0.1263708
140	0x3e3004f9	0.17189397
141	0x3c8d36e6	0.017238092
142	0x3ddbe3ff	0.10736846
143	0x3e07488c	0.13211268
144	0x3dedb9c8	0.116077006
145	0xbe1b3f50	-0.1516087
146	0x3e275212	0.16339901
147	0xbda8a583	-0.08234694
148	0xbd996e55	-0.07491747
149	0x3ccb2548	0.02479805
150	0x3e593472	0.21211413
151	0x3e6498b4	0.22323877
152	0xbe0011c3	-0.12506776
153	0x3c35032e	0.011048121
154	0xbe79c031	-0.24389721
155	0xbe28526f	-0.16437696
156	0x3e530ba6	0.20609912
157	0x3e9e4d7e	0.30918497
158	0xbba0205d	-0.0048866705
159	0xbdcfca36	-0.101459906
160	0x3e907e49	0.28221348
161	0x3e700330	0.23438716
162	0x3ab35341	0.0013681428
163	0x3cc9249b	0.024553588
164	0x3e1e4e76	0.15459618
165	0xbd962348	-0.07330948
166	0xbe0bc903	-0.13650899
167	0x3de8fd97	0.113764934
168	0x3e0b4892	0.13601902
169	0x3e50fffd	0.20410152
170	0x3d9ae7b9	0.07563729
171	0xbe37cf2f	-0.17950128
172	0xbd80f96f	-0.06297576
173	0x3e513d83	0.20433621
174	0x3e04fc87	0.12986957
175	0xbd8af38c	-0.06784734
176	0x3e3c998e	0.18417951
177	0xbe9200e4	-0.28516304
178	0x3da05120	0.07827973
179	0x3e6be076	0.23034844
180	0x3de79aaf	0.113088004
181	0x3e8680cb	0.26270136
182	0xbe4be928	-0.19913161
183	0x3e9250c4	0.28577244
184	0x3e8376e7	0.25676653
185	0x3e53a70d	0.20669194
186	0x3e8d090f	0.27545974
187	0xbc2c6706	-0.01052261
188	0xbe81e223	-0.2536784
189	0x3da9a82a	0.08284028
190	0xbea4c2e8	-0.32179952
191	0x3c8922fd	0.016740317
192	0xbe7866ad	-0.24257918
193	0x3e25b5de	0.16182658
194	0x3e0a7c81	0.13524057
195	0xbd919c0d	-0.071098424
196	0xbe469897	-0.19394146
197	0xbe15a05e	-0.14611956
198	0x3e82f608	0.25578332
199	0x3e69aa49	0.22818865
200	0x3e5b25bf	0.21401118
201	0xbd9735bf	-0.07383298
202	0xbdac6b37	-0.08418887
203	0x3e0f6314	0.14002639
204	0xbcda5006	-0.026649486
205	0x3c4a0ac9	0.012331673
206	0xbe3c89c7	-0.18411933
207	0xbe834950	-0.2564187
208	0x3e8d74f5	0.27628294
209	0xbddac2fb	-0.10681721
210	0x3e7b14bd	0.2451963
211	0xbe8a7df3	-0.27049217
212	0x3cc57b8b	0.024106761
213	0x3e9c29fb	0.3050078
214	0xbe995bc6	-0.2995283
215	0xbe797dda	-0.24364415
216	0xbe69a633	-0.22817306
217	0xbd764b24	-0.060130253
218	0x3d9d2388	0.07672793
219	0xbe965a07	-0.2936556
220	0xbe28b848	-0.16476548
221	0xbe4ff9af	-0.2031009
222	0xbd9e10d5	-0.07718054
223	0x3e4ec788	0.20193303
224	0xbd3eef20	-0.046614766
225	0x3d038023	0.032104623
226	0xbdc367fb	-0.09541317
227	0xbcd24382	-0.025666956
228	0x3c9ef83c	0.019405477
229	0xbe01ef0c	-0.12688845
230	0xbe7f9821	-0.24960376
231	0x3e807af0	0.25093794
232	0x3cb37424	0.021905966
233	0x3e257ea2	0.16161588
234	0x3e58dcdc	0.21178001
235	0x3e875329	0.26430634
236	0xbe7ca77d	-0.24673267
237	0xbdeed602	-0.116619125
238	0x3da2a09b	0.07940789
239	0xbd8aaba5	-0.0677102
240	0x3e3b3783	0.18282895
241	0xbc797eb4	-0.015227962
242	0x3ccadb07	0.024762644
243	0xbe906ab0	-0.28206396
244	0x3e4091a9	0.18805565
245	0x3e32d330	0.17463374
246	0x3e82039b	0.25393376
247	0x3e65e04d	0.22448845
248	0xbe148917	-0.1450542
249	0xbdbb9bc5	-0.0916057
250	0xbd8f3c72	-0.06993951
251	0x3db8c23a	0.09021421
252	0xbe934610	-0.2876439
253	0x3e412a72	0.18863848
254	0x3d653927	0.055962708
255	0x3caeb586	0.021326791

fc1.bias f4 [100]
0	0xbde7af23	-0.113127016
1	0xbe938986	-0.2881586
2	0xbded22a9	-0.115788765
3	0x3dcc1d60	0.0996654
4	0x3dbbbef4	0.09167281
5	0xbe359055	-0.1773084
6	0xbd851f67	-0.0650013
7	0x3c4f8539	0.01266604
8	0xbd83b907	-0.064317755
9	0xbe991725	-0.2990047
10	0x3d929549	0.0715738
11	0x3d609b0a	0.054835357
12	0xbe2d1641	-0.1690302
13	0x3e2c3c0e	0.16819784
14	0x3e001231	0.1250694
15	0xbe89a9f3	-0.26887473
16	0x3e5426d7	0.20717941
17	0x3e8e38c0	0.27777672
18	0xbe522245	-0.20520885
19	0x3ddbf9aa	0.10740979
20	0x3acc3d8c	0.0015582307
21	0xbe8a91f6	-0.27064484
22	0x3db968c5	0.09053186
23	0xbe44d862	-0.19223168
24	0x3d913590	0.07090294
25	0x3ddab9eb	0.10679992
26	0xbe7bfb21	-0.24607517
27	0xbe3314da	-0.17488423
28	0x3e800be2	0.25009066
29	0x3e0fa2f2	0.14027002
30	0xbe3bf937	-0.18356787
31	0x3d8b5b2c	0.06804499
32	0x3e62744c	0.22114676
33	0x3e7157fd	0.23568721
34	0xbea3620e	-0.31910747
35	0x3d7c440e	0.06158834
36	0x3e072dda	0.13201085
37	0x3db73e26	0.08947401
38	0xbe206110	-0.15662026
39	0x3dd254d8	0.10270089
40	0x3e333ed5	0.17504437
41	0x3e92d5c3	0.28678712
42	0x3a00d337	0.0004914286
43	0xbe97b0cb	-0.2962707
44	0x3d833b0e	0.06407748
45	0xbb368464	-0.0027849907
46	0xbe75a203	-0.23987584
47	0xbe6fb019	-0.2340702
48	0x3e201327	0.15632306
49	0x3ea400ed	0.32031956
50	0x3db2a285	0.087224044
51	0x3e912846	0.2835104
52	0xbe5f80f3	-0.21826534
53	0xbe41b0a9	-0.18915047
54	0x3c32f9f4	0.010923851
55	0x3e36f584	0.17867094
56	0x3a3c7054	0.0007188369
57	0x3e99bc4a	0.30026466
58	0x3e6a36f2	0.22872522
59	0x3e81ca93	0.25349864
60	0xbe49ddec	-0.19713563
61	0x3e86fdeb	0.263656
62	0x3e60ea08	0.21964276
63	0x3dabebd8	0.08394593
64	0xbd2a9bb2	-0.04165239
65	0xbe7d54e9	-0.24739422
66	0xbcb02637	-0.021502597
67	0xbda5a37e	-0.08087824
68	0x3cb6a592	0.022295747
69	0xbcb5e76e	-0.02220508
70	0x3ea51a4e	0.3224663
71	0xbde3e40c	-0.11127481
72	0x3e0a0b95	0.1348098
73	0x3d5b447f	0.05353212
74	0xbe761b6a	-0.24033895
75	0xbe6cbd97	-0.23119198
76	0x3e2bcdfd	0.16777797
77	0x3e2e36bd	0.17013068
78	0x3e886e05	0.26646438
79	0x3ea08eaa	0.31358844
80	0xbe8a12aa	-0.26967365
81	0xbe6b0ea3	-0.22954802
82	0x3e7d5313	0.24738722
83	0x3e16743c	0.14692777
84	0x3e98d33a	0.29848653
85	0xbe98a21e	-0.29811186
86	0xbe21d7aa	-0.15804926
87	0x3e814f58	0.25255847
88	0x3e621f0b	0.22082154
89	0x3b878c31	0.004136585
90	0x3e812e4a	0.25230628
91	0x3e64743f	0.2230997
92	0xbcf9cbc8	-0.030492678
93	0x3e4d2257	0.20032631
94	0xbe3791db	-0.17926733
95	0x3e4585d5	0.19289334
96	0x3e9577f3	0.29193076
97	0xbd016029	-0.031585846
98	0x3e4e29a7	0.20133077
99	0x3e91db6b	0.28487715

fc2.weight f4 [100, 100]
0	0xbcbb060d	-0.022830034
1	0xbb472d40	-0.0030391961
2	0xbca1a419	-0.019731568
3	0x3d4e79d2	0.050409146
4	0x3d100ae7	0.035166647
5	0xbc16906a	-0.009189704
6	0xbcff7d10	-0.031187564
7	0x3b3c7652	0.0028757048
8	0xbc355248	-0.011066981
9	0xbdca8ae0	-0.098897696
10	0x3d5438a7	0.05181184
11	0xbd3395ca	-0.04384402
12	0xbd31c37c	-0.04339932
13	0x3db716f8	0.08939928
14	0x3d77f819	0.06053934
15	0x3da5831b	0.08081647
16	0xbc92c522	-0.017916266
17	0xbc82f3d6	-0.01598541
18	0xbce3ff23	-0.02783162
19	0x3db63161	0.08896137
20	0xbd08c07e	-0.0333867
21	0x3dab46ea	0.08363135
22	0x3d5c2b31	0.053752128
23	0x3c6fbe24	0.014632735
24	0xbd794baf	-0.060863193
25	0xbcb517bb	-0.022106042
26	0xbd4f8d6b	-0.050671976
27	0xbd823a9c	-0.06358835
28	0xbd68c6ea	-0.056830324
29	0xbd5ef388	-0.05443147
30	0xbd3479a4	-0.044061318
31	0xbd1c338d	-0.0381351
32	0x3dbc0abc	0.09181735
33	0xbda33032	-0.07968177
34	0x3d908d43	0.070581935
35	0x3d5a7707	0.05333617
36	0xbdb4adb9	-0.088221975
37	0x3dd81a5b	0.10551902
38	0x3d8e252a	0.06940682
39	0xbd33fecc	-0.043944165
40	0x3d091ae5	0.033472914
41	0x3d3180ef	0.04333585
42	0x3d81d1b8	0.06338829
43	0x3c345183	0.011005762
44	0x3dcb1346	0.099157855
45	0x3da05d86	0.07830338
46	0xbd7361d7	-0.05941948
47	0xbd2a6483	-0.04159976
48	0xbdc88e62	-0.09792782
49	0xbd489d6a	-0.048978247
50	0xbcd60260	-0.02612418
51	0xbdc24292	-0.094853535
52	0x3d4bfc50	0.04980117
53	0x3cb2deaa	0.02183469
54	0xbd915c35	-0.07097665
55	0xbc4f6286	-0.012657767
56	0x3cfe286b	0.031025132
57	0x3daea4fc	0.08527562
58	0x3d368b36	0.044566356
59	0x3c6a931d	0.014317301
60	0x3cf7a315	0.03022913
61	0xbd62e3b7	-0.055392947
62	0x3dbbda1d	0.09172461
63	0xbb640171	-0.0034790898
64	0x3c6f0d1a	0.014590526
65	0x3d0c52b3	0.034258556
66	0x3d9d84c6	0.0769134
67	0x3cc5ce96	0.02414636
68	0x3dccc252	0.09998001
69	0x3cdfb9b8	0.027310237
70	0xbd39538c	-0.045245692
71	0xbdb025ed	-0.08600984
72	0x3c8f7ffc	0.017517082
73	0x3d3ecd52	0.046582527
74	0x3d87a503	0.0662327
75	0xbd8ffc61	-0.07030559
76	0xbdbcb718	-0.0921461
77	0x3d4b02f1	0.049563352
78	0x3d5f1360	0.054461837
79	0x3d734484	0.059391513
80	0x3be71206	0.007051709
81	0xbb77f5e2	-0.0037835767
82	0xbd447efa	-0.047972657
83	0x3da227aa	0.079177216
84	0x3db89295	0.09012333
85	0x3cc07e63	0.023497766
86	0x3dbf1a5f	0.09331202
87	0xbc264416	-0.010148069
88	0xbd959914	-0.07304588
89	0x3da7df06	0.08196835
90	0xbc3790c7	-0.011203951
91	0xbd483311	-0.048876826
92	0xbd10d46a	-0.035358824
93	0xbd682f7e	-0.056685917
94	0x3bd083d3	0.006363371
95	0x3cfe5514	0.031046428
96	0x3c870da4	0.016485997
97	0xbd56e865	-0.052467722
98	0xbcb27053	-0.021782076
99	0x3db7301e	0.089447245
100	0xbda8f143	-0.08249142
101	0xbd8eeb9c	-0.06978533
102	0x3dba861f	0.09107613
103	0x3daab9f0	0.08336246
104	0xbd0a285e	-0.033729903
105	0xbca40bea	-0.020025212
106	0x3daf6eac	0.08566031
107	0x3d87d96b	0.06633266
108	0xbbc39103	-0.0059682145
109	0x3d72cf25	0.05927958
110	0x3dcf203c	0.1011357
111	0xbdb09193	-0.08621516
112	0xbd6574e8	-0.056019694
113	0x3d7d6378	0.06186244
114	0x3db254d2	0.087075844
115	0x3d51c069	0.051208887
116	0x3da6f378	0.08151907
117	0x3d8c9a22	0.06865336
118	0xbb06e242	-0.0020581638
119	0xbdcebf3f	-0.10095071
120	0xbdae5096	-0.08511464
121	0x3dadae68	0.08480531
122	0x3dd7f24a	0.1054426
123	0xbccc3617	-0.024928136
124	0xbd15322a	-0.036424793
125	0x3ca7aa72	0.020467017
126	0xbd2f93b1	-0.04286546
127	0xbd96831b	-0.07349225
128	0x3c142e75	0.009044279
129	0x3d9ec6cf	0.077527635
130	0xbdca648a	-0.098824576
131	0xbd4cedd1	-0.050031487
132	0xbcaa1540	-0.020762086
133	0xbbe1b23c	-0.0068877023
134	0x3d43d181	0.04780722
135	0xbd480df6	-0.04884144
136	0xbd9031e2	-0.070407644
137	0x3d9b2282	0.07574941
138	0x3d6b8b74	0.05750604
139	0x3c04f28f	0.008114471
140	0xbd0f6104	-0.03500463
141	0xbdaca08e	-0.08429061
142	0xbdb7ad6b	-0.08968624
143	0x3db18053	0.08667054
144	0xbd9d303b	-0.07675215
145	0xbdcd52c7	-0.10025554
146	0x3cdc8109	0.026916998
147	0xbda60f9a	-0.081084445
148	0xbd0adaa7	-0.03389993
149	0x3d8c0824	0.0683749
150	0x3d0c3bba	0.034236647
151	0x3a3f4c6d	0.000729746
152	0x3d666972	0.056252904
153	0xbd0332f0	-0.032031
154	0x3d175190	0.03694302
155	0x3d6cddc0	0.057828665
156	0x3d812072	0.063050166
157	0xbc993bcf	-0.018705277
158	0x3d1613a7	0.036639836
159	0x3d771f44	0.06033255
160	0xbd53b77e	-0.051688664
161	0xbcd66a76	-0.026173811
162	0xbd25e3e4	-0.040500537
163	0x3db3508a	0.08755596
164	0xbcfdd74f	-0.030986456
165	0xbdf98498	-0.121834934
166	0xbda11658	-0.0786559
167	0x3d278147	0.040894773
168	0x3db5b5e0	0.088725805
169	0x3ddb81fb	0.10718151
170	0x3d080990	0.033212245
171	0xbd2dcb47	-0.04243019
172	0xbc42f5d6	-0.011899432
173	0x3ca34e84	0.0199349
174	0x3c5ab798	0.013349436
175	0xbdc253cc	-0.09488639
176	0x3d1939f0	0.03740877
177	0xbd9e5d22	-0.077326074
178	0x3d37ffbb	0.044921618
179	0x3ddb1265	0.10696868
180	0xbceebbd6	-0.029142302
181	0xbdc40e62	-0.09573056
182	0xbdb24bb1	-0.08705843
183	0xbdb48b02	-0.08815576
184	0x3d8622d6	0.06549613
185	0x3d8f5066	0.06997757
186	0x3d2a08f3	0.04151244
187	0xbd4eae32	-0.050459094
188	0xbd64647c	-0.055759892
189	0x3dbee9b0	0.09321916
190	0x3d707c9a	0.05871258
191	0x3c08d620	0.008351833
192	0xbd2f57f4	-0.042808488
193	0x3d830452	0.063973084
194	0xbda24d88	-0.07924944
195	0x3c4b9876	0.012426486
196	0xbd9745a5	-0.073863305
197	0xbd259fde	-0.040435664
198	0xbc9f665e	-0.019457992
199	0xbd3de224	-0.046358243
200	0x3d770565	0.06030788
201	0xbce5373d	-0.027980441
202	0x3d9fd7c8	0.07804829
203	0x3ba53053	0.005041161
204	0x3b2d23b1	0.0026418979
205	0xbcbaee08	-0.02281858
206	0x3d0262e8	0.031832606
207	0xbd798e74	-0.06092687
208	0xbd334d4a	-0.04377488
209	0x3d64e165	0.055879015
210	0xbdb1e67a	-0.08686538
211	0x3d903452	0.07041229
212	0xbcae9937	-0.021313293
213	0x3c438f60	0.011936039
214	0x3d6db0eb	0.05803005
215	0xbdd153f2	-0.102210894
216	0x3c655d4a	0.013999293
217	0x3d978f1a	0.07400341
218	0x3c8af561	0.016962709
219	0x3daa1892	0.08305468
220	0x3dc2fcf5	0.09520904
221	0xbda419b8	-0.08012718
222	0x3dcd76f1	0.10032452
223	0x3ceb723d	0.028740996
224	0xbbb39c4f	-0.00548128
225	0x3ca35cdc	0.01994174
226	0xbd8ef781	-0.069808014
227	0x3ca6f992	0.020382676
228	0xbbe79daa	-0.0070683556
229	0x3d73481f	0.059394952
230	0xbd96495e	-0.073382124
231	0x3d851663	0.064984106
232	0xbc4fdb1a	-0.012686515
233	0xbd8bd75e	-0.068281874
234	0x3cb7234d	0.0223557
235	0xbcb2ee13	-0.021842038
236	0xbd0fad8f	-0.035077628
237	0xbcd94a62	-0.026524726
238	0xbad256f8	-0.0016047647
239	0xbc78424b	-0.015152524
240	0xbc9397d6	-0.018016737
241	0xbd432f5f	-0.0476526
242	0xbd139f9d	-0.03604089
243	0x3d9895e8	0.07450467
244	0x3d1510ed	0.036393095
245	0x3cb8655a	0.022509266
246	0x3d4bf3ba	0.049792983
247	0xbd6d03b1	-0.05786485
248	0xbdab25af	-0.08356797
249	0xbd826556	-0.063669845
250	0x3d7bf471	0.061512414
251	0xbd90725d	-0.07053063
252	0x3b73a290	0.0037175752
253	0x3bf0f211	0.0073530753
254	0xbd9866de	-0.07441495
255	0xbd96d4e4	-0.073648244

fc2.bias f4 [100]
0	0xbd1c7428	-0.038196713
1	0x3d1acc31	0.03779239
2	0xbd9298e7	-0.0715807
3	0xbdbf3fa7	-0.093383126
4	0x3ac117df	0.0014731846
5	0x3c36bcf8	0.011153452
6	0x3ddfd02b	0.10928377
7	0x3a7a19b4	0.0009540573
8	0x3c48244f	0.012215688
9	0xbdc4cb27	-0.09609061
10	0x3cee3809	0.029079454
11	0x3de59932	0.1121086
12	0xbd7d5198	-0.061845392
13	0xbd827cbb	-0.06371447
14	0xbd869dc9	-0.06573064
15	0xbd531a2a	-0.051538624
16	0xbda132d2	-0.07871021
17	0x3db66061	0.089051016
18	0xbd930325	-0.07178334
19	0x3d3d9c35	0.04629155
20	0x3d944a2b	0.07240709
21	0x3d55a83f	0.052162405
22	0x3ad696d5	0.0016371856
23	0x3bf9f44f	0.007628001
24	0xbcf09321	-0.029367032
25	0x3d99acb4	0.07503644
26	0xbd911826	-0.07084684
27	0x3d80b3e6	0.06284313
28	0xbd8ac799	-0.067763515
29	0x3d69a402	0.057041176
30	0xbc18f281	-0.009335161
31	0x3d35ab31	0.044352714
32	0xbd69f005	-0.057113666
33	0x3d76401b	0.06011973
34	0x3d474de8	0.04865828
35	0x3d415a0c	0.047205016
36	0x3d10b1f9	0.035325978
37	0xbde26c59	-0.11055822
38	0xbdbde351	-0.09271873
39	0xbd8331ea	-0.06406005
40	0x3c0cdd0d	0.0085976245
41	0x3daeb5ef	0.08530795
42	0xbc60f564	-0.013730381
43	0x3c5eef5e	0.013606874
44	0x3d65d0c8	0.056107312
45	0xbd8bc48d	-0.068245985
46	0xbd08f1ca	-0.033433713
47	0xbda6d43e	-0.08145951
48	0x3d35034f	0.04419261
49	0x3d8f622a	0.07001145
50	0x3d1403bd	0.036136378
51	0xbd94beb6	-0.07262938
52	0x3de6dabd	0.1127219
53	0xbdcc8730	-0.099867225
54	0x3d6ed396	0.058307253
55	0x3d8d91be	0.06912564
56	0xbd86144b	-0.06546839
57	0x3c833375	0.016015748
58	0xbb20f83b	-0.002456202
59	0xbc810bce	-0.0157527
60	0xbd4bf6b0	-0.049795806
61	0x3c433c3d	0.011916217
62	0xbd2be67b	-0.04196785
63	0x3d2ef0a3	0.042709958
64	0xbd3dde09	-0.046354327
65	0xbc28031a	-0.010254646
66	0xbc2d0e9f	-0.010562568
67	0xbd43b642	-0.047781236
68	0xbd6e3547	-0.058156278
69	0x3d2252e4	0.039629832
70	0x3d75d8f3	0.060021352
71	0xbd1f3771	-0.038871232
72	0x3d4563d0	0.04819089
73	0x3d612bf5	0.05497356
74	0xbdbc00df	-0.09179854
75	0x3d6c3cab	0.057675045
76	0xbd404207	-0.04693797
77	0x3b0aaa9e	0.0021158825
78	0xbd93760e	-0.072002515
79	0xbd69f0ee	-0.057114534
80	0x3d172e3e	0.036909334
81	0xbdbea724	-0.09309223
82	0xbd13badc	-0.036066875
83	0xbd189ac7	-0.037256982
84	0x3d922d23	0.071375154
85	0x3d257a40	0.04039979
86	0x3c6d2d40	0.0144761205
87	0xbd62cd55	-0.0553716
88	0x3d9cb4c7	0.07651668
89	0x3d9a07ab	0.07520994
90	0x3cad888e	0.021183278
91	0xbcba19e3	-0.022717422
92	0x3c872673	0.016497826
93	0xbd25b1b4	-0.040452674
94	0xbd85c030	-0.065307975
95	0x3dc22023	0.09478786
96	0x3dd7e1fa	0.105411485
97	0x3d91aac6	0.071126506
98	0xbd607349	-0.054797444
99	0xbd9a3dcc	-0.07531318

fc3.weight f4 [3, 100]
0	0x3afaba84	0.0019129072
1	0x3ccf6d4a	0.025320668
2	0xb8e153a0	-0.000107444124
3	0xbcc1f21f	-0.023675023
4	0x3cc85ca5	0.024458239
5	0x3cd1d98e	0.025616433
6	0x3c9e8a91	0.019353183
7	0xbc73b017	-0.014873526
8	0x3ba72f6b	0.005102088
9	0xbd08a5b1	-0.03336114
10	0x3ca1cbf3	0.01975057
11	0x3ca6ebd8	0.020376131
12	0xbc7f13e3	-0.015568706
13	0xbb8dad3f	-0.004323631
14	0xbc20dc9f	-0.009818225
15	0x3bdd74e3	0.0067583187
16	0xbc91ab5c	-0.017781906
17	0x3cfe1382	0.031015161
18	0x3bcce64c	0.0062530395
19	0x3cd83191	0.026390823
20	0xbafbb045	-0.0019202313
21	0x3a87dc3f	0.0010365321
22	0xbc55280e	-0.013010038
23	0xbc3d8919	-0.011568331
24	0xbc084776	-0.008317819
25	0x3cbd8b9a	0.023137856
26	0xbcbc25d5	-0.022967258
27	0xbc09cdce	-0.008410884
28	0xbcc418bb	-0.023937574
29	0xbbc5cbfb	-0.0060362793
30	0xbce1f87d	-0.027584309
31	0xbcc1f947	-0.023678435
32	0x3cd54315	0.026032964
33	0x3c294e25	0.0103335725
34	0x3ba774e0	0.005110368
35	0x3cd8695b	0.026417425
36	0xbcb19f41	-0.021682383
37	0xbcac3df9	-0.021025645
38	0xbc75f24c	-0.015011381
39	0x3c93d9d6	0.018048208
40	0xbc616c95	-0.013758798
41	0x3c9fabbe	0.019491073
42	0xbc174460	-0.00923261
43	0xbcd37f40	-0.025817513
44	0x3c8a5820	0.016887724
45	0x3cd38c7a	0.02582382
46	0xbcf12a02	-0.029438976
47	0xbb6fd072	-0.003659275
48	0xbc0daedf	-0.00864765
49	0x3c94c3a5	0.018159697
50	0xbcae9412	-0.02131084
51	0x3a961186	0.0011449314
52	0x3cb21b94	0.021741666
53	0xbcd321f8	-0.025773033
54	0x3c67fc7c	0.014159318
55	0x3c8b15d1	0.016978176
56	0x3ca9e2ad	0.02073797
57	0xbcc1deae	-0.023665752
58	0x3be883b7	0.0070957798
59	0x3bf1066e	0.007355503
60	0x3be4f540	0.006987244
61	0x3caea772	0.021320079
62	0xbd09ffb0	-0.03369111
63	0xbb03a528	-0.0020087454
64	0x3b8e9a0d	0.0043518604
65	0x3bb49f95	0.0055121877
66	0x38f42a52	0.000116427094
67	0xbc0d89fc	-0.008638855
68	0x3c97b1e5	0.018517444
69	0x3c2f529a	0.010700846
70	0x3c6f648a	0.014611373
71	0xbc192212	-0.009346502
72	0xbc6e2e4f	-0.014537408
73	0x3cab9e14	0.020949401
74	0x3c7b0263	0.015320393
75	0x3c40a749	0.011758634
76	0x3cee377f	0.029079197
77	0xbcc0166c	-0.023448192
78	0xbc24c7b1	-0.010057376
79	0xbc046786	-0.008081323
80	0x3c3b1525	0.0114186155
81	0xbc005ce8	-0.007834651
82	0xbc213c69	-0.009841063
83	0x3cbc157f	0.022959469
84	0x3b78df7a	0.0037975
85	0xbcda9b40	-0.026685357
86	0x3c99d6a0	0.018779099
87	0xb9093562	-0.00013085225
88	0x3b031e28	0.0020006988
89	0xbc4c5bf4	-0.012473095
90	0x3ccc3964	0.02492971
91	0x3c05c073	0.008163559
92	0xbb994adb	-0.004678113
93	0x3cd7eeaf	0.02635893
94	0xbc534639	-0.01289516
95	0x3cdce1ab	0.026963076
96	0x3c717113	0.014736432
97	0x3b144321	0.002262302
98	0x3cb76293	0.022385871
99	0x3c6f91c2	0.014622154
100	0xbbf56ae8	-0.007489551
101	0x3c65230a	0.013985405
102	0x3c7831d3	0.015148598
103	0xbce21aed	-0.02760073
104	0xbb8ba900	-0.0042620897
105	0x3b587439	0.0033028258
106	0xba0badf8	-0.00053283526
107	0x3c00909d	0.0078469785
108	0xbb84c72d	-0.004052064
109	0xbc86d45d	-0.016458685
110	0x3c40f0f9	0.011776202
111	0x3c8b7fa2	0.017028634
112	0xbbc75d41	-0.006084115
113	0xbcee83d0	-0.029115587
114	0xbc4f1269	-0.012638667
115	0xbcb295bf	-0.02179992
116	0xbbdaba15	-0.0066750147
117	0x3cd6a523	0.02620179
118	0x3cdce5d7	0.026965065
119	0x3c8f29bb	0.017475953
120	0xbc65ecae	-0.01403348
121	0x3c548001	0.012969972
122	0xbca103ca	-0.019655127
123	0xbbc8930f	-0.0061210464
124	0xbb4be833	-0.0031113743
125	0xbbca8497	-0.0061803567
126	0xbb9de00d	-0.0048179687
127	0x3cfdaf62	0.030967418
128	0xbc92ccf4	-0.017919995
129	0x3cebff1d	0.02880817
130	0x3cbe96a0	0.023265183
131	0xbb181bcc	-0.0023209928
132	0xbb003afb	-0.0019566405
133	0x3c821cf8	0.015882954
134	0x3c002f70	0.00782381
135	0xbc35c19e	-0.011093525
136	0xbcc2b1de	-0.023766454
137	0xbce10b3c	-0.027471177
138	0xbc4f93ec	-0.012669545
139	0x3c45ff69	0.01208482
140	0xbbacc7b9	-0.0052728322
141	0xbcd2349a	-0.025659848
142	0xbb93d403	-0.0045113578
143	0xba881e8d	-0.0010385081
144	0xbc656f00	-0.014003515
145	0xbbec01bc	-0.007202355
146	0xbc4d7310	-0.01253964
147	0xbc6efd0a	-0.014586696
148	0x3c3e840d	0.011628163
149	0x3c6788f6	0.014131775
150	0xbccc443e	-0.024934884
151	0xbbf286fa	-0.0074013444
152	0x3c858fb4	0.016303875
153	0xbc6a97a4	-0.0143183805
154	0x3bb2bf94	0.005454967
155	0x3c99740d	0.018732095
156	0x3b1be750	0.0023788996
157	0xbccae44f	-0.02476707
158	0xbbb4259c	-0.0054976474
159	0x3cfe53b1	0.031045767
160	0x3c446cc8	0.011988826
161	0xbbb405b4	-0.005493844
162	0xbca47041	-0.020073058
163	0x3ba8745f	0.0051408256
164	0x3bca6e62	0.0061777094
165	0x3c5de852	0.013544159
166	0xbc47ebea	-0.012202242
167	0x3b9d694c	0.004803812
168	0x3bc32ffb	0.0059566475
169	0x3c97bd06	0.01852275
170	0xbbc455e0	-0.0059916824
171	0x39a52779	0.00031500662
172	0x3c5e562f	0.013570352
173	0x3c911ea0	0.017714798
174	0xbba36c45	-0.004987272
175	0x3c00a1b9	0.007851058
176	0x3cb4afc4	0.022056468
177	0xbcf8c283	-0.030366188
178	0xbbe1516a	-0.0068761604
179	0x3c452c35	0.012034466
180	0xbc8b3bf2	-0.016996358
181	0x3b23e2ac	0.0025006933
182	0xbcbb9559	-0.022898363
183	0xbca0661c	-0.01957994
184	0x3a90e7b5	0.0011055382
185	0x3b4e3c90	0.0031469204
186	0x3a496d05	0.00076837867
187	0xbcb5fe9d	-0.022216136
188	0x3c8c9724	0.017161913
189	0xbc6c4a72	-0.014422046
190	0xbc8dadab	-0.017294725
191	0xb98cbab9	-0.00026842
192	0xbcb793fb	-0.02240943
193	0xbcb3492d	-0.021885479
194	0x3d0eec65	0.034893412
195	0x3bacd6cf	0.0052746306
196	0x3c5b569f	0.013387351
197	0x3b2ae788	0.0026077945
198	0x3bf58068	0.007492114
199	0x3c9f6b9f	0.019460497
200	0xbc20fe3c	-0.009826239
201	0xbc6b9f85	-0.014381294
202	0xbc83b268	-0.016076282
203	0xbc8d08aa	-0.017216045
204	0x3c0ab9c1	0.008467139
205	0xbc224a01	-0.009905339
206	0xbc41c875	-0.011827578
207	0x3be58f6e	0.0070056235
208	0x3c0d783f	0.008634626
209	0xbb24d425	-0.0025150862
210	0x3c65c3cb	0.014023731
211	0x3b9f63a2	0.004864172
212	0x3b81b447	0.0039582583
213	0xbc225447	-0.009907789
214	0xbc02b080	-0.007976651
215	0x3c1b8a4a	0.00949342
216	0x3c7bcc07	0.015368468
217	0xbbb693cd	-0.0055718184
218	0x3c44ce47	0.012012071
219	0x3c599ae5	0.013281559
220	0xbbb3ae71	-0.0054834415
221	0x3cd91069	0.026497083
222	0xbb8646b6	-0.004097785
223	0x3bd462c2	0.0064814994
224	0xbbf11afe	-0.007357954
225	0x3b8cd292	0.004297563
226	0xbba2dbf4	-0.004970068
227	0x3b8f6cd2	0.004376986
228	0x3be85864	0.007090615
229	0xbc87d683	-0.01658178
230	0xbb59c7c2	-0.0033230637
231	0xbce58d34	-0.028021432
232	0x3b8e90ba	0.004350749
233	0x3c8b235d	0.016984636
234	0xbc677675	-0.014127363
235	0xbbe9e443	-0.0071378066
236	0xbc3c0638	-0.011476092
237	0xbc00c24f	-0.007858827
238	0xbcb9fbb4	-0.02270303
239	0x3bff560e	0.007792241
240	0x3c6c80c9	0.014435002
241	0x3bb2252b	0.0054365597
242	0x3c275146	0.010212248
243	0x3be53670	0.006995015
244	0x3b8a5759	0.0042218384
245	0x3b7c3ecc	0.0038489578
246	0xbbae9e3a	-0.0053289207
247	0x3c937677	0.018000824
248	0x3c6ff5de	0.014646022
249	0x3b0e6c00	0.0021731853
250	0x3b85d8ac	0.004084667
251	0x3c28b0af	0.010296031
252	0xbb57808f	-0.0032883023
253	0xbbc93629	-0.0061404896
254	0xbc8b3340	-0.016992211
255	0x3a458849	0.00075352617

fc3.bias f4 [3]
0	0x3ca162c5	0.019700417
1	0x3c4794e5	0.012181495
2	0x3996a7d8	0.00028735283

fc1.weight f4 [100, 11]
0	0xbe5495c5	-0.20760258
1	0x3e18b5cf	0.14913104
2	0x3e3c0808	0.18362439
3	0xbe47a417	-0.19496189
4	0x3c2acff9	0.010425561
5	0x3dac11ea	0.08401854
6	0x3de64930	0.11244428
7	0x3e2a20af	0.1661403
8	0x3e5a6f3c	0.21331495
9	0x3e26ebc4	0.16300875
10	0x3daa1b66	0.08306007
11	0x3bc6355f	0.006048843
12	0xbe3a2bb5	-0.18180735
13	0x3e4bb622	0.19893697
14	0x3d28218e	0.041047625
15	0xbceb2248	-0.02870287
16	0xbe26456e	-0.16237423
17	0xbe61229d	-0.2198586
18	0x3caca5f4	0.021075226
19	0xbd682b28	-0.056681782
20	0x3e0a9195	0.13532098
21	0x3e0674e6	0.1313053
22	0xbd71176e	-0.058860235
23	0xbd9f872b	-0.07789453
24	0xbe52efa8	-0.20599234
25	0xbe28cdcb	-0.16484754
26	0x3e2d6a61	0.16935112
27	0x3e457b62	0.19285348
28	0xbe172266	-0.14759216
29	0x3e864284	0.26222622
30	0xbd5f259b	-0.054479223
31	0x3d2b5ffd	0.04183959
32	0x3e10aebf	0.1412916
33	0x3d81f389	0.06345279
34	0xbe864107	-0.26221487
35	0x3e1aac37	0.15104757
36	0xbd000e63	-0.03126372
37	0xbc6d5039	-0.014484459
38	0xbd6f91bc	-0.058488593
39	0x3e18880f	0.14895652
40	0x3e8758bb	0.26434883
41	0xbe525866	-0.20541534
42	0x3dc13cca	0.09435423
43	0xbd2f6314	-0.042819098
44	0xbe8b9fe6	-0.2727043
45	0x3ce1dd58	0.027571365
46	0x3e0c2ff8	0.13690174
47	0xbe58b74f	-0.21163677
48	0xbd90f4bb	-0.07077929
49	0x3d510801	0.051033024
50	0x3d350b2c	0.044200107
51	0x3e07e7a2	0.13271955
52	0x3ccdd2aa	0.025124867
53	0x3c01fcb2	0.007933782
54	0xbe0604af	-0.13087724
55	0xbe8b9f61	-0.27270034
56	0x3e20d089	0.1570455
57	0x3e081c6e	0.13292095
58	0xbda288f8	-0.07936281
59	0xbe67e74d	-0.22646828
60	0x3e208bf2	0.15678385
61	0x3c88b50c	0.016687892
62	0x3e1268dd	0.14297815
63	0x3e91096f	0.2832751
64	0xbd39dad3	-0.045374703
65	0x3cc57e21	0.024107995
66	0xbe963b3a	-0.2934206
67	0x3dc07a76	0.093983576
68	0x3e4a97d3	0.19784479
69	0x3dd5c3f3	0.10437765
70	0xbe4ac25e	-0.19800708
71	0xbdda8c72	-0.10671319
72	0x3e620dee	0.22075626
73	0xbe194801	-0.14968874
74	0x3d462236	0.04837247
75	0x3e0e563c	0.13900083
76	0xbd687b71	-0.056758348
77	0x3e21a32d	0.15784903
78	0x3e28e384	0.1649304
79	0xbd7e6faa	-0.06211821
80	0xbe3b5bf8	-0.18296802
81	0xbd49bf1f	-0.049254533
82	0xbd46ea46	-0.048563264
83	0xbe02d3cb	-0.12776105
84	0xbe792977	-0.24332224
85	0x3e8bf5ee	0.27336067
86	0xbe8d935f	-0.27651498
87	0x3e3c63f2	0.18397501
88	0xbe875d14	-0.264382
89	0xbd99a54f	-0.07502233
90	0xbe899db2	-0.26878124
91	0x3e6b0769	0.22952046
92	0x3d6bc873	0.05756421
93	0xbe6d214c	-0.23157233
94	0x3dca1e7a	0.09869094
95	0x3e696d39	0.22795571
96	0xbe967252	-0.29384094
97	0xbdd326e7	-0.103101544
98	0x3e0c9bdd	0.13731332
99	0xbdd125fe	-0.102123246
100	0x3e227a5a	0.15866986
101	0xbd8bcd98	-0.06826323
102	0xbdaea4b3	-0.08527508
103	0x3e92770b	0.28606448
104	0x3e63431d	0.2219357
105	0x3e8e49b2	0.277906
106	0x3e8d6c16	0.27621526
107	0xbe27eb32	-0.16398314
108	0xbdadf81a	-0.08494587
109	0x3d6a169e	0.057150476
110	0xbdf360ed	-0.118837215
111	0xbe103140	-0.14081287
112	0xbc11704c	-0.008876871
113	0x3e0d30bc	0.13788122
114	0x3e01cde1	0.12676193
115	0x3e0ce879	0.13760556
116	0xbc4e1147	-0.012577361
117	0xbd80a54b	-0.06281527
118	0xbe093f25	-0.13402994
119	0x3e49c14a	0.1970264
120	0x3cd857e4	0.026409097
121	0x3c987954	0.018612541
122	0x3c5c1192	0.013431923
123	0x3e414523	0.1887403
124	0x3d5ab541	0.053395513
125	0x3e7a85c9	0.24465097
126	0x3e8103ae	0.2519812
127	0xbdde6f58	-0.10861081
128	0xbd60f0a1	-0.05491698
129	0x3e53e0b5	0.20691188
130	0x3e806650	0.25078058
131	0xbe85c35b	-0.26125607
132	0x3dc4578a	0.09587009
133	0x3e40e5b3	0.18837623
134	0x3e6ae8a5	0.2294031
135	0x3da7200c	0.08160409
136	0xbe134ea5	-0.1438547
137	0xba685944	-0.0008863399
138	0x3da0950f	0.07840931
139	0xbe020d6a	-0.1270043
140	0x3e21d356	0.15803275
141	0xbd8569a0	-0.06514287
142	0x3dc3223e	0.095280156
143	0x3e7416e7	0.23836862
144	0xbd20082c	-0.039070293
145	0x3ddf60b6	0.10907118
146	0x3e50fe5f	0.20409535
147	0x3dc7fda4	0.09765175
148	0x3e56cb20	0.20975924
149	0x3de9dde2	0.11419274
150	0x3e46435c	0.19361633
151	0x3e85a33e	0.26101106
152	0x3e27bcf6	0.16380677
153	0x3e8bf453	0.27334842
154	0x3cddc47c	0.02707123
155	0xbe22fcd2	-0.15916756
156	0x3e7f6be4	0.24943501
157	0x3df76e75	0.12081615
158	0xbddfbc84	-0.109246284
159	0xbdb32b77	-0.08748525
160	0xbe7a2f8a	-0.24432197
161	0xbe8a708f	-0.27039
162	0xbe438f78	-0.19097698
163	0xbe40fb3b	-0.18845837
164	0x3e27a87e	0.16372868
165	0x3dbbce68	0.09170228
166	0xbe88bf43	-0.2670842
167	0x3e46df31	0.19421078
168	0xbd9c3f6d	-0.07629285
169	0xbe73f72e	-0.2382476
170	0xbdce6a01	-0.100788124
171	0x3e4d7f06	0.20067987
172	0x3e6b78db	0.22995321
173	0xbe67925a	-0.22614422
174	0xbd8399b8	-0.06425804
175	0x3dacb38d	0.08432684
176	0xbe88a303	-0.26686868
177	0xbdf89272	-0.12137307
178	0x3e957594	0.29191267
179	0xbe8ec198	-0.27882075
180	0xbdd1b63a	-0.10239835
181	0xbe12e19e	-0.14343879
182	0xbe5b1844	-0.21395975
183	0xbe372161	-0.17883827
184	0xbe8679a6	-0.26264685
185	0x3e03e8e6	0.12881812
186	0x3e06f34a	0.13178745
187	0x3e5b49ee	0.2141492
188	0x3d1ccb01	0.038279537
189	0xbe5fe484	-0.21864516
190	0x3d205d57	0.039151516
191	0xbd110be9	-0.03541175
192	0x3db84837	0.08998149
193	0x3df1368f	0.11777984
194	0xbe6b5c06	-0.22984323
195	0xbd8a4239	-0.06750912
196	0x3e256dd0	0.16155171
197	0xbe78d060	-0.24298239
198	0xbdf1c48f	-0.11805069
199	0xbe996eff	-0.29967496
200	0x3c9743e1	0.018464984
201	0x3d623755	0.05522855
202	0x3e25a442	0.1617594
203	0xbda65d1a	-0.081232265
204	0xbe97d3b3	-0.296537
205	0x3e503b05	0.20335014
206	0x3e3b0da2	0.1826692
207	0x3dd10e8f	0.10207855
208	0x3dc5e238	0.096622884
209	0x3e570b7b	0.21000473
210	0xbe86a6d3	-0.26299152
211	0xbd029bdd	-0.031886924
212	0x3ddf23ee	0.10895525
213	0x3e98680f	0.2976689
214	0xbd92fac5	-0.07176737
215	0x3e2d2818	0.16909826
216	0xbe2454d7	-0.16047989
217	0x3cfea7b8	0.031085834
218	0x3e7be98d	0.24600811
219	0x3e4a950c	0.1978342
220	0xbe5dab60	-0.21647406
221	0xbe1fa182	-0.15588954
222	0xbe3473e4	-0.17622334
223	0x3e2f42e7	0.17115365
224	0xbe0a3fe2	-0.13500932
225	0x3e88a4f5	0.26688352
226	0x3dc59d2d	0.096491195
227	0xbcaeaa6d	-0.0213215
228	0x3ce1cd4c	0.027563713
229	0xbde6e688	-0.11274439
230	0xbe6c73db	-0.2309107
231	0x3e56e867	0.20987092
232	0x3d4f6d08	0.05064109
233	0xbe6da3c1	-0.23206998
234	0x3e7b6bb3	0.24552803
235	0x3e2614f7	0.16218935
236	0xbe1957eb	-0.14974944
237	0x3de7f74b	0.11326464
238	0xbdfeb5d6	-0.12437026
239	0xbe28eeec	-0.16497391
240	0xbe8668e5	-0.26251903
241	0xbdc34201	-0.095340736
242	0xbdf53481	-0.11972905
243	0x3cf7a0b0	0.030227989
244	0xbe4317c8	-0.1905204
245	0xbda4bab6	-0.08043425
246	0xbcd9b1a5	-0.026573965
247	0x3d005064	0.031326666
248	0xbdf5c085	-0.11999611
249	0x3ce460c6	0.027878176
250	0x3c752a85	0.014963751
251	0xbb0ade2f	-0.002118956
252	0xbe0590ca	-0.13043514
253	0x3e7baf46	0.2457858
254	0xbe88be4d	-0.26707688
255	0xbc8424b4	-0.016130783

fc1.bias f4 [100]
0	0x3eb1a296	0.34694356
1	0xbe8544cb	-0.26029047
2	0x3e7be530	0.24599147
3	0xbdb0160e	-0.085979566
4	0xbcb5a62b	-0.022173962
5	0x3e802a53	0.2503229
6	0xbe7a4e90	-0.24444032
7	0xbe45c3ba	-0.19312945
8	0xbe9d27b4	-0.30694354
9	0xbea46dfa	-0.32115155
10	0x3e2e558d	0.17024823
11	0x3d89c7d0	0.06727564
12	0x3dc5835f	0.09644198
13	0xbe6311b6	-0.22174725
14	0x3e618d89	0.22026648
15	0x3d3c49a9	0.045968685
16	0xbea0abfd	-0.31381217
17	0xbe7254ba	-0.23665133
18	0xbea88fd8	-0.32922244
19	0xbdfdaa89	-0.123860426
20	0x3e589720	0.211514
21	0x3aecc074	0.0018062727
22	0x3e889eba	0.266836
23	0xbd9011ee	-0.0703467
24	0x3e8a0a5b	0.26961026
25	0x3da59411	0.08084882
26	0xbd0d9314	-0.034564093
27	0xbaa203f7	-0.0012360801
28	0x3e43f052	0.19134644
29	0x3e9d6f4a	0.3074897
30	0xbdbd62a7	-0.09247332
31	0xbeafebcb	-0.34359583
32	0x3e0e7cc9	0.1391479
33	0xbba7ec38	-0.005124595
34	0xbe96bb69	-0.29439858
35	0x3e142c8a	0.14470115
36	0xbe35b9ce	-0.1774666
37	0x3e77a934	0.2418564
38	0x3e08eba2	0.13371137
39	0x3d9ba97e	0.076006874
40	0x3de49963	0.11162069
41	0xbe80fdaa	-0.2519353
42	0x3eadb684	0.3392831
43	0x3cf0df5e	0.029403385
44	0x3d9d0a91	0.07668031
45	0xbe36f489	-0.1786672
46	0xbeb0d806	-0.34539813
47	0xbe8951d9	-0.26820257
48	0xbe7493f8	-0.2388457
49	0x3e711762	0.23544076
50	0x3ea40f3a	0.32042867
51	0xbe9319cf	-0.28730628
52	0x3d52c7bb	0.05146001
53	0xbbe8ace5	-0.0071006888
54	0xbddc6484	-0.10761359
55	0x3c989cfc	0.018629543
56	0x3d8184f8	0.0632419
57	0xbd41337a	-0.047168233
58	0xbea39f18	-0.31957316
59	0xbe08a46e	-0.13343975
60	0x3d9e9943	0.07744076
61	0x3e165603	0.14681248
62	0xbdd552db	-0.10416194
63	0x3bb654f7	0.005564328
64	0xbd083e7b	-0.03326271
65	0xbea417da	-0.32049447
66	0x3e042c9a	0.12907639
67	0xbe8795c8	-0.26481462
68	0x3d1a3d7b	0.03765629
69	0x3e83e279	0.25758722
70	0x3e394444	0.18092448
71	0x3e9ea5cb	0.30985865
72	0xbcfb8fc3	-0.0307082
73	0xbe600201	-0.21875764
74	0xbda7d932	-0.081957236
75	0xbe5957cc	-0.21224898
76	0xbe7a2ab5	-0.24430354
77	0xbddb32fa	-0.107030824
78	0x3db66b14	0.08907142
79	0xbe3a4abc	-0.18192571
80	0xbe829e8d	-0.2551159
81	0xbe43ae1a	-0.19109383
82	0xbe7f2ecd	-0.24920197
83	0x3ddbc189	0.10730273
84	0xbe845d65	-0.25852504
85	0xbd8b243e	-0.06794022
86	0xbe9c74d3	-0.3055788
87	0xbe97d869	-0.29657295
88	0xbea01aa2	-0.3127032
89	0x3c962d9f	0.0183323
90	0x3dc6aa62	0.09700467
91	0x3e3caf1b	0.18426172
92	0x3e743713	0.23849134
93	0xbd464673	-0.04840703
94	0xbe9cfe5d	-0.30662814
95	0x3de2eb6e	0.11080061
96	0x3e82f456	0.2557704
97	0xbe05db89	-0.13072027
98	0xbe8c802b	-0.27441534
99	0xbe16e32e	-0.147351

fc2.weight f4 [100, 100]
0	0x3d926c88	0.07149607
1	0xbde2754b	-0.11057528
2	0xbd4d3936	-0.05010339
3	0xbd2b0498	-0.041752428
4	0x3cc7c810	0.02438739
5	0x3cc34b03	0.02383948
6	0x3caebd2c	0.021330439
7	0xbdf8b8f7	-0.12144654
8	0xbdd20516	-0.10254876
9	0xbda14a76	-0.078755304
10	0x3dd21319	0.10257549
11	0x3a21e8a1	0.0006176327
12	0x3dd70db7	0.10500663
13	0x3d810b52	0.06300987
14	0x3db14c92	0.08657183
15	0xbb3d7e36	-0.002891434
16	0xbdcc5f04	-0.0997906
17	0x3d4e410f	0.050355013
18	0x3c8ea5d6	0.017413061
19	0x3c0ef60f	0.008725657
20	0x3d481bfb	0.04885481
21	0x3d7141de	0.058900706
22	0x3cc7f39b	0.024408152
23	0x3c55a157	0.013038955
24	0xbc81437b	-0.015779248
25	0x3de6a270	0.11261451
26	0x3c4a4f86	0.012348061
27	0xbd1069fd	-0.03525733
28	0x3dbe1186	0.09280686
29	0x3dbb17b7	0.091353826
30	0xbd76709e	-0.060165994
31	0xbe1132da	-0.14179555
32	0x3dcdf308	0.1005612
33	0xbc8791dd	-0.016549045
34	0xbda4e596	-0.080516025
35	0x3d4a745e	0.049427383
36	0xbda6d5ca	-0.08146246
37	0xbd435365	-0.047686953
38	0x3dc56e89	0.096402235
39	0x3d867bde	0.065665945
40	0x3d4f1e42	0.050565965
41	0x3d684bab	0.056712788
42	0x3cd29f20	0.025710642
43	0x3c73ddc5	0.014884417
44	0xbcc10a83	-0.023564583
45	0xbd97cb1c	-0.07411787
46	0xbdb9b749	-0.09068162
47	0xbda9da66	-0.08293609
48	0x3c8d73cf	0.017267136
49	0x3dd14ad1	0.10219348
50	0x3d9667e0	0.07344031
51	0xbce385b7	-0.027773721
52	0x3daddd4c	0.08489475
53	0x3c3f64af	0.01168172
54	0x3d347640	0.044058084
55	0x3c93f1f0	0.0180597
56	0x3d96b749	0.073591776
57	0xbd28ea8e	-0.041239314
58	0xbbf2096b	-0.0073863766
59	0xbcd3f54f	-0.025873808
60	0xbce31fa1	-0.027725043
61	0x3dd82e18	0.10555667
62	0xbd489e2c	-0.04897897
63	0xbda16ee9	-0.078824826
64	0xbd85493a	-0.065081075
65	0xbda639ec	-0.081165165
66	0x3ddbfed5	0.10741965
67	0xbe0aaa6f	-0.13541578
68	0xbd6bce1c	-0.057569608
69	0x3df2f537	0.11863177
70	0x3d9dcec2	0.077054515
71	0xbd4b26a6	-0.049597405
72	0xbd0ad4f7	-0.033894505
73	0x3ccba60b	0.024859449
74	0xbc800c8e	-0.015630987
75	0x3d4dbb16	0.050227247
76	0xbdce43f6	-0.10071556
77	0xbd9f80dd	-0.077882506
78	0x3d9ac238	0.075565755
79	0xbdb56444	-0.08857015
80	0xbe02b83f	-0.12765597
81	0xbd3f7a74	-0.04674764
82	0xbca5084d	-0.02014556
83	0x3d4a4942	0.04938627
84	0x3d3d53c7	0.046222474
85	0x3d2a1539	0.041524146
86	0xbd48c38b	-0.04901461
87	0x3cb474ea	0.022028405
88	0xbdff6ae9	-0.12471563
89	0xbd454b7d	-0.048167694
90	0x3d7fc943	0.062447798
91	0x3de6e9ec	0.11275086
92	0x3d2f4921	0.04279435
93	0xbc8fc256	-0.017548721
94	0xbd5aeb99	-0.05344734
95	0x3ccb8cbd	0.024847383
96	0x3d76c434	0.060245708
97	0xbd094f80	-0.033523083
98	0xbc90d086	-0.017677557
99	0xbda0f123	-0.07858493
100	0x3d898d00	0.06716347
101	0xbca206cd	-0.019778633
102	0xbc86218f	-0.016373424
103	0xbd1a9da8	-0.03774801
104	0x3d881ebb	0.06646486
105	0x3ced3230	0.028954595
106	0x3d483466	0.048878096
107	0xbdfe3e8f	-0.12414276
108	0xbd082aa3	-0.033243787
109	0x3d3219fc	0.043481812
110	0x3d4a56b4	0.049399093
111	0x3dbee64c	0.093212694
112	0x3b7f653c	0.0038970252
113	0xbd6ec9d3	-0.058297943
114	0x3d9563c6	0.07294421
115	0x3da10f88	0.078642905
116	0x3c0379a2	0.008024605
117	0xbc77148e	-0.015080584
118	0xbce10210	-0.027466804
119	0xbc91e07c	-0.017807238
120	0xbcf0a653	-0.029376185
121	0xbdcc3638	-0.09971279
122	0x3d290f73	0.0412745
123	0xbd7b0dfa	-0.061292626
124	0x3dd76b6d	0.10518537
125	0x3d036d96	0.03208693
126	0x3d9a9566	0.07548027
127	0xbd17b503	-0.03703786
128	0x3b850c37	0.004060294
129	0x3dbfe2f5	0.093694605
130	0xbd98454f	-0.074350946
131	0xbd65ee27	-0.056135323
132	0xbd052d62	-0.032513984
133	0x3c9843b4	0.01858697
134	0xbe0ff456	-0.1405805
135	0x3ceac227	0.028657032
136	0x3d606ad5	0.054789383
137	0x3d6f135b	0.05836807
138	0xbd5d03f4	-0.053958848
139	0x3d3b79cc	0.04577045
140	0xbc29670e	-0.010339512
141	0xbdebf2c5	-0.11520914
142	0x3e0154ca	0.1263
143	0x3d9d1714	0.076704174
144	0xbc8d143b	-0.01722156
145	0x3d550136	0.052003108
146	0xbd9ba1d2	-0.07599224
147	0xbdf813a3	-0.121131204
148	0x3bdfad96	0.006826113
149	0x3c47adfb	0.012187476
150	0xbd454044	-0.04815699
151	0xbdc79dab	-0.0974687
152	0x3d92c454	0.07166353
153	0x3d844e69	0.06460268
154	0xbd8ae143	-0.067812465
155	0xbd549abc	-0.05190538
156	0xbbcfddac	-0.006343564
157	0x3db922d4	0.09039846
158	0xbe0c9749	-0.13729586
159	0x3c1d42ea	0.009598473
160	0x3de38ed3	0.11111226
161	0x3d94bef2	0.072629824
162	0x3d8c584e	0.0685278
163	0x3da06ac9	0.07832868
164	0xbcf5e8f8	-0.030018315
165	0x3cec00bb	0.028808942
166	0xbd765a48	-0.060144693
167	0x3d5dbff4	0.05413814
168	0x3c3f7eb4	0.011687923
169	0x3d7c155b	0.061543804
170	0xbd25c41c	-0.040470228
171	0xbcd8aabc	-0.0264486
172	0x3d628b74	0.055308774
173	0xbdcd4792	-0.100234166
174	0xbdb8d239	-0.09024472
175	0xbb73b9e8	-0.0037189666
176	0x3d52967d	0.051413048
177	0x3c088476	0.008332362
178	0xbd88f1ce	-0.066867456
179	0x3d1b19e0	0.037866473
180	0xbdf0be0f	-0.11755001
181	0xbe041cae	-0.12901565
182	0xbdee6420	-0.11640191
183	0xbd885890	-0.06657517
184	0xbc46be8c	-0.012130391
185	0x3d1b32c7	0.037890222
186	0xbd01ce55	-0.031690914
187	0xbdbb664f	-0.09150373
188	0xbdb6535d	-0.08902619
189	0x3dbc64de	0.091989264
190	0x3df3de9e	0.11907695
191	0xbcf138d7	-0.029446049
192	0x3ddef98a	0.108874395
193	0x3d33c0ed	0.04388516
194	0xbd824fe1	-0.06362892
195	0x3d719ecd	0.058989335
196	0x3c523a8f	0.012831344
197	0xbc0d38ba	-0.008619482
198	0x3d21e579	0.039525483
199	0x3cfe1af3	0.03101871
200	0xbc409870	-0.011755094
201	0xbbb29b71	-0.005450659
202	0x3dac34b2	0.08408488
203	0xbb9dba65	-0.0048134797
204	0x3c5f032c	0.013611596
205	0x3dbecf17	0.09316843
206	0x3a887756	0.0010411541
207	0xbd998a65	-0.074971
208	0xbdae6478	-0.08515257
209	0xbd1591e8	-0.0365161
210	0xbd2d60d8	-0.042328686
211	0x3c2439c3	0.010023537
212	0x3d618840	0.05506158
213	0xbd4c97fb	-0.049949627
214	0x3d69a4ce	0.057041936
215	0x3c9d853e	0.019228574
216	0xbdcbae6f	-0.0994538
217	0xbde61a0e	-0.11235438
218	0xbe038e62	-0.12847283
219	0x3d02adc6	0.031904005
220	0x3de837ad	0.11338744
221	0x3b930121	0.0044862186
222	0x3dfb6e47	0.12276893
223	0x3d57dac0	0.05269885
224	0x3ce6c626	0.028170656
225	0x3d6a7394	0.05723913
226	0xbcf8c21c	-0.030365996
227	0xbd4eca11	-0.050485674
228	0x3d3c697e	0.045999043
229	0x3bf33baf	0.0074228863
230	0x3d834554	0.06409708
231	0xbd69d785	-0.0570903
232	0x3d7ec58d	0.062200118
233	0x3d849f64	0.06475714
234	0xbcb413b2	-0.021982048
235	0x3d98def5	0.07464401
236	0xbd6752df	-0.056475516
237	0x3dabce61	0.08388973
238	0x3afe3d62	0.0019396956
239	0x3d845e74	0.06463328
240	0x3dd2b211	0.1028787
241	0xbdf45fc6	-0.1193233
242	0xbd239aa2	-0.03994239
243	0x3cd22708	0.025653377
244	0x3dc43adf	0.09581541
245	0xbdcdacba	-0.100427106
246	0xbd0dd49c	-0.03462659
247	0xbd135a17	-0.03597459
248	0xbd2de359	-0.042453144
249	0xbb996f46	-0.0046824543
250	0x3dd36872	0.10322656
251	0xbdbe6a09	-0.09297568
252	0xbd2fc53a	-0.0429127
253	0x3d014828	0.031562954
254	0xbd3e4d02	-0.04646016
255	0x3c8b6ad4	0.017018713

fc2.bias f4 [100]
0	0x3dbd1f8d	0.092345335
1	0x3d016797	0.03159293
2	0x3d4028ee	0.046914034
3	0x3dc4b34e	0.09604512
4	0x3dbff8ec	0.0937365
5	0x3c3e6c5d	0.0116225155
6	0x3e1002b1	0.14063527
7	0xbb7d8f8b	-0.0038690295
8	0x3dc38469	0.095467396
9	0xbdc20f95	-0.09475628
10	0xbcf12449	-0.029436247
11	0x3d40d6f3	0.04707999
12	0x3e0a4503	0.13502888
13	0x3ca9730c	0.020684741
14	0x3d8fd3e9	0.070228405
15	0xbd931afb	-0.071828805
16	0x3d877b59	0.066153236
17	0xbd67e021	-0.05661023
18	0xbdcf5648	-0.10123879
19	0x3d979042	0.07400562
20	0xbd2d05b8	-0.042241782
21	0xbdb02e55	-0.08602587
22	0x3e0a12f3	0.13483791
23	0xbdb0c791	-0.08631814
24	0xbe048166	-0.12939987
25	0xbdce3c02	-0.10070039
26	0xbd18a928	-0.037270695
27	0x3dd6b7ad	0.10484252
28	0x3dcbaf6f	0.09945571
29	0xbdf55e8e	-0.119809255
30	0xbb06d4b4	-0.0020573558
31	0xbdad4763	-0.084608816
32	0xbcfe53a6	-0.031045746
33	0x3d86d9a2	0.06584479
34	0x3c0a5657	0.008443437
35	0xbdcbaa67	-0.09944611
36	0xbe100027	-0.14062558
37	0x3c67a9e6	0.014139628
38	0xbcd1b9c1	-0.02560127
39	0x3d9b17ef	0.07572924
40	0xbca1443d	-0.019685859
41	0x3d3c0355	0.045901615
42	0xbbd75e4a	-0.0065725194
43	0xbcc20eb2	-0.023688648
44	0xbd619ffe	-0.05508422
45	0x3db3e3e1	0.08783699
46	0x3cbadeb7	0.022811277
47	0xbdc3a50e	-0.09552966
48	0x3e130b1b	0.14359705
49	0xbcc6a673	-0.024249291
50	0x3cd5f0ec	0.026115857
51	0xbd807e10	-0.062740445
52	0xbc9d9036	-0.019233804
53	0xbd69d1f8	-0.057085007
54	0x3de41484	0.111367255
55	0x3dd9224f	0.10602247
56	0x3e151d91	0.1456206
57	0xbdec8594	-0.115489155
58	0x3dea9636	0.11454432
59	0xbd9d2564	-0.07673147
60	0x3d8b6e69	0.068081684
61	0x3d261280	0.040544987
62	0xbbf68f44	-0.007524403
63	0x3de0db5d	0.1097934
64	0x3e1108e9	0.14163555
65	0xbe132777	-0.14370523
66	0x3c3af96b	0.011412005
67	0x3d7c8468	0.06164971
68	0xbded2cb6	-0.115807936
69	0xbd7d368c	-0.061819598
70	0x3ce6fb30	0.028195947
71	0xbd96b79e	-0.07359241
72	0x3d8dc258	0.06921834
73	0xbdb077ac	-0.086165756
74	0xbd3aec2e	-0.045635395
75	0x3d9c8f67	0.07644539
76	0xbe0bebd4	-0.1366418
77	0xbd01ec46	-0.03171947
78	0xbd2226c7	-0.039587762
79	0xbcaae528	-0.020861223
80	0x3d8ddd96	0.0692703
81	0x3c4a57ce	0.012350036
82	0x3c5a203c	0.013313349
83	0x3d2c58c7	0.042076852
84	0xbde0442d	-0.109505035
85	0x3cc95eec	0.024581395
86	0xbc754f43	-0.014972511
87	0x3ccb099d	0.024784857
88	0x3db5b34e	0.0887209
89	0x3c1ca2ac	0.009560268
90	0xbc36ef36	-0.011165431
91	0x3d214457	0.039371815
92	0xbd47488b	-0.048653167
93	0x3d87f118	0.06637782
94	0x3d3737f2	0.044731088
95	0x3d8b04c8	0.06788021
96	0xbdbed734	-0.093183905
97	0xbdf72f7c	-0.12069604
98	0x3df04a1c	0.11732885
99	0xbd1887fa	-0.037239052

fc3.weight f4 [1, 100]
0	0x3d113f5c	0.035460815
1	0x3d433706	0.047659896
2	0x3d16bbc4	0.03680016
3	0x3d2cf4ae	0.042225532
4	0x3d4bc54a	0.049748696
5	0x3d23b55a	0.039967872
6	0x3d1b01bc	0.03784345
7	0xbd286648	-0.041113168
8	0x3d2ee8e9	0.04270259
9	0xbd351a2d	-0.044214416
10	0x3c9491c3	0.01813591
11	0x3d45b82f	0.048271354
12	0x3d2deaca	0.04246024
13	0xbd0136cc	-0.0315464
14	0x3d3ae29a	0.04562626
15	0xbd28b7d4	-0.041190937
16	0x3d224eb4	0.03962584
17	0xbd21f50e	-0.039540343
18	0xbd3dd7c5	-0.046348352
19	0x3cf917f1	0.030406924
20	0x3d3b0248	0.045656472
21	0xbd2c961d	-0.042135347
22	0x3d434c6c	0.047680303
23	0xbd222271	-0.039583627
24	0xbd0c345f	-0.034229632
25	0xbcb2f558	-0.021845505
26	0x3ca33336	0.01992188
27	0x3d3cb2e2	0.046069033
28	0x3d3d30cb	0.04618911
29	0xbd23afda	-0.039962627
30	0x3d0dbccd	0.034603883
31	0xbd1d464c	-0.03839712
32	0x3d326340	0.043551683
33	0x3ce9344c	0.02846732
34	0xbd217bee	-0.03942483
35	0xbd0fed41	-0.035138372
36	0xbd5649e3	-0.052316558
37	0x3cff3ff3	0.031158423
38	0xbd25f2d5	-0.040514786
39	0x3d33354b	0.043751996
40	0xbd0f2d85	-0.03495552
41	0xbd1c68b7	-0.0381858
42	0x3cf86b83	0.030324703
43	0xbd48476a	-0.04889623
44	0x3d05a1aa	0.032624878
45	0x3d52b662	0.051443465
46	0x3cef64cd	0.02922287
47	0xbd0530cc	-0.03251724
48	0x3d2c91f5	0.042131383
49	0xbc9bbd33	-0.019011116
50	0x3d38dc6a	0.04513208
51	0xbd25d192	-0.040483065
52	0xbd2d213c	-0.042268023
53	0xbd3ac12b	-0.045594376
54	0x3d20bf56	0.039244972
55	0x3d32811a	0.043580152
56	0x3d22f741	0.03978658
57	0xbc72c48b	-0.014817367
58	0x3d2372de	0.039904468
59	0xbd19e6c9	-0.03757361
60	0x3d26e8ae	0.040749244
61	0xbd2cab81	-0.042155746
62	0xbd0374bf	-0.03209376
63	0x3d29590a	0.04134468
64	0x3d2b1875	0.04177137
65	0xbd2edcc6	-0.042691015
66	0xbd2c355c	-0.042043075
67	0x3d2efc45	0.04272105
68	0xbc8754fb	-0.016520014
69	0xbca0744f	-0.01958671
70	0x3d3b3d06	0.045712493
71	0xbd11cf89	-0.03559831
72	0x3d2721ab	0.040803593
73	0xbd404876	-0.046944104
74	0xbd45a1b3	-0.04824991
75	0x3d1f2ea0	0.038862824
76	0xbd2ece02	-0.042676933
77	0xbd52092c	-0.05127828
78	0x3d3006e8	0.042975336
79	0xbd2dcea7	-0.042433407
80	0xbc8f753f	-0.017511962
81	0xbc8a6693	-0.016894614
82	0xbd142a47	-0.03617313
83	0xbd2d29ae	-0.042276077
84	0xbd108573	-0.035283517
85	0x3d116178	0.035493344
86	0xbcfb9101	-0.030708792
87	0xbca9b774	-0.02071736
88	0x3d14639a	0.0362278
89	0xbd4691b1	-0.048478786
90	0xbcfcfa64	-0.030881114
91	0xbcc66fab	-0.02422317
92	0xbd1ae233	-0.037813377
93	0x3d525c9d	0.051357854
94	0xbd25e435	-0.04050084
95	0x3d48a45b	0.048984867
96	0xbd271f8b	-0.040801566
97	0xbd624b34	-0.0552475
98	0x3ca4d27e	0.020119902
99	0xbd211e69	-0.039335642
