mujoco/vail/save_model/ckpt_150.pth.tar (torch, 110947 bytes, 20 tensors)

fc1.weight f4 [100, 11]
0.029270383 -0.1702178 0.17580356 -0.114733614 0.07357869 0.10535855 -0.19499214 0.15730232
0.1672385 0.23728742 -0.031839088 0.26693755 -0.106983475 0.055788513 -0.28728873 0.048568845
0.09006932 0.0048954072 0.07513808 0.15062745 0.18806635 0.21206594 0.19423102 -0.11130971
-0.26578176 0.093225844 0.061818123 -0.20193692 -0.0655749 0.20314944 -0.10041691 -0.012051186
0.13868739 0.27026907 -0.27574044 0.066412225 0.2034443 0.11148959 0.10977457 -0.27088958
-0.05373391 -0.16819227 0.19768776 -0.2631514 0.122783005 0.19692205 0.19077694 -0.23411685
-0.055548716 0.11567226 -0.18406133 -0.0041321344 0.27600786 0.08901464 0.08697953 0.22954075
-0.10459023 -0.055689786 0.14745513 0.31071922 0.09792061 0.048929635 -0.17162417 -0.023024894
-0.025412627 0.027494907 0.24455291 -0.2608874 0.32053503 -0.17151262 -0.14028531 -0.33342442
0.2356233 -0.06317951 -0.017701158 -0.16396412 -0.15833332 0.07991229 0.2516715 -0.1757933
-0.15022714 0.24388085 0.09481692 0.29246977 0.010232459 -0.19937466 0.22594579 0.30262053
-0.019500002 0.09411693 -0.23040786 -0.3273136 0.26291063 0.2447809 0.103972025 -0.1823923
0.2666872 -0.16260295 0.17175965 -0.017952878 0.20244366 -0.025798079 0.12529975 0.25761372
-0.21476124 0.17624441 0.31806305 0.20260337 0.16644453 -0.056248896 -0.24328117 -0.031804487
-0.08225936 -0.2981568 -0.02948093 0.3047666 -0.13179739 0.23166263 0.08837114 0.20715402
-0.051321395 -0.106272325 -0.08636432 0.14353663 0.087068744 0.25169024 0.2527095 0.048379116
-0.069780834 -0.072199866 -0.0859163 0.19031727 -0.07544071 0.25861412 -0.15273042 0.16491075
0.1793474 -0.09675557 -0.0039890986 -0.086696886 0.2002666 0.030095896 0.08538343 0.10449148
0.12233813 -0.15939952 0.17341071 -0.06683587 -0.05813554 0.01748592 0.2185542 0.22789572
-0.12757765 0.02579405 -0.22385813 -0.18295741 0.23415925 0.31203142 0.00278499 -0.13279022
0.29235724 0.22574751 0.017505055 0.004761637 0.15468605 -0.08823245 -0.10784676 0.1268537
0.13775213 0.19926274 0.09992815 -0.16834874 -0.02411882 0.22804672 0.14990613 -0.07714995
0.16443229 -0.27808788 0.052445564 0.21317606 0.15147191 0.2911025 -0.22159943 0.27719533
0.2462601 0.19098328 0.28544936 -0.014234553 -0.29238746 0.04135404 -0.26862758 -0.005893303
-0.2684355 0.14865363 0.12431755 -0.062297195 -0.21951687 -0.1503964 0.28837886 0.2529931
0.23043153 -0.05312754 -0.06371122 0.19749795 -0.030588116 0.06997123 -0.1366272 -0.23307206
0.26047435 -0.1125996 0.29345056 -0.2849539 0.019215113 0.32905036 -0.26917186 -0.23798682
-0.21968573 -0.064689875 0.089472465 -0.2615141 -0.17147589 -0.2232034 -0.07405509 0.20998654
-0.08202891 -0.009433833 -0.14240491 -0.027961748 0.028181715 -0.12798347 -0.25252604 0.2442703
0.034694802 0.16226774 0.19982173 0.2799857 -0.2089224 -0.12386721 0.09571264 -0.06983204
0.21094733 -0.032981414 0.01539414 -0.31554747 0.2387497 0.17236286 0.25680035 0.21333756
-0.160927 -0.09930977 -0.07017281 0.083860494 -0.25841704 0.19343925 0.063847736 0.030682879
00000000: 71c8 ef3c 934d 2ebe d905 343e 75f9 eabd
00000010: 6db0 963d 39c6 d73d 05ac 47be dc13 213e
00000020: 9240 2b3e 79fb 723e b469 02bd 0aac 883e
00000030: 271a dbbd 7f82 643d 8217 93be 20f0 463d
00000040: 4376 b83d a769 a03b fee1 993d 153e 1a3e
00000050: 7794 403e d027 593e 7fe4 463e 58f6 e3bd
00000060: 8c14 88be 31ed be3d 0035 7d3d 8dc8 4ebe
00000070: 224c 86bd 6806 503e 62a7 cdbd 5672 45bc
00000080: 1104 0e3e b560 8a3e da2d 8dbe 2203 883d
00000090: b453 503e a754 e43d 7dd1 e03d 0ab2 8abe
000000a0: 1718 5cbd 983a 2cbe a96e 4a3e c8bb 86be
000000b0: a875 fb3d efa5 493e 085b 433e 54bc 6fbe
000000c0: 0d87 63bd 94e5 ec3d 937a 3cbe db66 87bb
000000d0: e750 8d3e 4f4d b63d 5322 b23d bb0c 6b3e
000000e0: 6733 d6bd f91a 64bd 7afe 163e 9716 9f3e
000000f0: 9a8a c83d 716a 483d 3fbe 2fbe b49e bcbc
00000100: 242e d0bc 003d e13c 146c 7a3e 0993 85be
00000110: 2b1d a43e 01a1 2fbe f4a6 0fbe 9bb6 aabe
00000120: 3c47 713e 4264 81bd 0502 91bc 36e6 27be
00000130: 2122 22be 0ea9 a33d 16db 803e 2903 34be
00000140: 25d5 19be e7bb 793e 602f c23d 99be 953e
00000150: 0ba6 273c df28 4cbe 555e 673e 14f1 9a3e
00000160: 78be 9fbc 61c0 c03d 0af0 6bbe a695 a7be
00000170: 399c 863e d8a7 7a3e 49ef d43d 0cc5 3abe
00000180: 3a8b 883e 6381 26be c3e1 2f3e ea11 93bc
00000190: 644d 4f3e 7e56 d3bc 944e 003e f2e5 833e
000001a0: 5fea 5bbe 6a79 343e 29d9 a23e 4277 4f3e
000001b0: 6f70 2a3e 3e65 66bd b31e 79be 6c45 02bd
000001c0: 9877 a8bd 02a8 98be fe81 f1bc 5e0a 9c3e
000001d0: e5f5 06be f838 6d3e eefb b43d 2f20 543e
000001e0: 6236 52bd 4ea5 d9bd c7df b0bd 44fb 123e
000001f0: 1951 b23d 8bdd 803e 2463 813e 2e29 463d
00000200: 41e9 8ebd 86dd 93bd e3f4 afbd 88e2 423e
00000210: a980 9abd 1269 843e 5d65 1cbe 5dde 283e
00000220: d8a6 373e c927 c6bd fcb6 82bb 238e b1bd
00000230: b012 4d3e ab8b f63c 82dd ae3d a1ff d53d
00000240: 6a8c fa3d a139 23be 9492 313e 3fe1 88bd
00000250: 881f 6ebd a23e 8f3c accc 5f3e 7f5d 693e
00000260: b7a3 02be 0b4e d33c 113b 65be 3059 3bbe
00000270: 71c7 6f3e 95c2 9f3e 6184 363b 29fa 07be
00000280: d9af 953e 5b2a 673e c366 8f3c 8207 9c3b
00000290: 0566 1e3e 37b3 b4bd c3de dcbd f0e5 013e
000002a0: e50e 0d3e 880b 4c3e 21a7 cc3d 9d63 2cbe
000002b0: d594 c5bc 1485 693e fe80 193e cb00 9ebd
000002c0: f060 283e 8961 8ebe 29d1 563d d34a 5a3e
000002d0: 741b 1b3e 630b 953e f6ea 62be 8cec 8d3e
000002e0: 9c2b 7c3e 1f91 433e 6b26 923e 0b38 69bc
000002f0: cfb3 95be db62 293d 8e89 89be 9c1c c1bb
00000300: 6170 89be a838 183e 339a fe3d 582b 7fbd
00000310: 08c9 60be 8401 1abe 65a6 933e 5088 813e
00000320: 3ef6 6b3e 439c 59bd 077b 82bd e73c 4a3e
00000330: ee93 fabc 144d 8f3d 00e8 0bbe 71aa 6ebe
00000340: e55c 853e 9e9a e6bd 273f 963e 7ae5 91be
00000350: 0369 9d3c 4a79 a83e e5d0 89be d1b2 73be
00000360: 4cf5 60be 207c 84bd 573d b73d 2de5 85be
00000370: 6097 2fbe 6f8f 64be 32aa 97bd b606 573e
00000380: c6fe a7bd 5d90 1abc 98d2 11be 0910 e5bc
00000390: 57dd e63c 190e 03be 184b 81be fe21 7a3e
000003a0: 231c 0e3d 8429 263e 119e 4c3e 495a 8f3e
000003b0: c1ef 55be 17ae fdbd fd04 c43d 1a04 8fbd
000003c0: 9402 583e 8517 07bd b437 7c3c 708f a1be
000003d0: cd7a 743e e47f 303e 567b 833e 2975 5a3e
000003e0: 0cca 24be ec62 cbbd c3b6 8fbd 0dbf ab3d
000003f0: 3d4f 84be f014 463e 9ac2 823d a95a fb3c

fc1.bias f4 [100]
-0.1227988 -0.28172797 -0.122839265 0.108689226 0.09108052 -0.16946118 -0.063817956 0.049527407
-0.060260393 -0.30256945 0.0897775 0.056132995 -0.17200662 0.17654294 0.14265521 -0.25581497
0.22164772 0.26988629 -0.20225258 0.10962469 0.005222089 -0.25845152 0.07527752 -0.19103938
0.04338897 0.10455423 -0.24788406 -0.18499348 0.2649131 0.13160974 -0.15141067 0.090097114
0.22195175 0.23276938 -0.3307 0.05153511 0.15264513 0.09046274 -0.1405389 0.09645443
0.19613522 0.2939827 0.028367478 -0.31886247 0.059539348 -0.0023615824 -0.2303918 -0.24260958
0.17678994 0.3171515 0.07793507 0.28022707 -0.2391757 -0.2000243 -0.012819614 0.20535114
-0.020749897 0.29249504 0.20202984 0.23330992 -0.19943191 0.2570347 0.20290083 0.09021131
-0.04857229 -0.24535342 -0.03167541 -0.1136623 0.01912806 -0.00786355 0.31992474 -0.11233647
0.13410738 0.064071 -0.27284676 -0.24874312 0.16301344 0.17460358 0.26563 0.31524345
-0.28835887 -0.24496046 0.23613338 0.105434716 0.30142748 -0.3064058 -0.14362322 0.28944552
0.23743367 -0.012243277 0.25718573 0.24932288 -0.018370267 0.20177668 -0.17110981 0.19375107
0.31214458 -0.029800937 0.21469592 0.28527054
00000000: f07d fbbd a63e 90be 2793 fbbd 7598 de3d
00000010: 6c88 ba3d 3b87 2dbe fdb2 82bd 40dd 4a3d
00000020: 9ad3 76bd 62ea 9abe 44dd b73d b6eb 653d
00000030: 8122 30be acc7 343e 3514 123e 2efa 82be
00000040: 9ff7 623e 892e 8a3e 4d1b 4fbe e982 e03d
00000050: 0f1e ab3b c253 84be 1a2b 9a3d d49f 43be
00000060: a2b8 313d 8720 d63d 52d5 7dbe ee6e 3dbe
00000070: b1a2 873e b4c4 063e 660b 1bbe d684 b83d
00000080: 5247 633e 195b 6e3e 8351 a9be 7b16 533d
00000090: 014f 1c3e 8744 b93d 6ee9 0fbe e689 c53d
000000a0: acd7 483e e784 963e ea62 e83c f141 a3be
000000b0: 88df 733d c7c4 1abb d4eb 6bbe a56e 78be
000000c0: 6c08 353e ae61 a23e 6c9c 9f3d ec79 8f3e
000000d0: 7aea 74be 2cd3 4cbe 5c09 52bc 9247 523e
000000e0: b0fb a9bc e9c1 953e e9e0 4e3e cce8 6e3e
000000f0: e137 4cbe 0d9a 833e 3cc5 4f3e b5c0 b83d
00000100: bdf3 46bd ed3d 7bbe 13be 01bd c8c7 e8bd
00000110: 73b2 9c3c 1fd6 00bc 2dcd a33e aa10 e6bd
00000120: 7253 093e a837 833d 92b2 8bbe 84b6 7ebe
00000130: ffec 263e 48cb 323e a800 883e 9767 a13e
00000140: c6a3 93be ead6 7abe f3cc 713e 28ee d73d
00000150: b454 9a3e 39e1 9cbe f711 13be 3432 943e
00000160: d021 733e 0798 48bc d9ad 833e 7f4e 7f3e
00000170: 3e7d 96bc 8c9e 4e3e 6937 2fbe ae66 463e
00000180: 6ad1 9f3e 1821 f4bc 3fd9 5b3e fb0e 923e

fc2.weight f4 [100, 100]
-0.046267174 -0.0015419335 -0.035282675 0.058573257 0.04495919 -0.013279227 -0.04294384 0.019035527
-0.013480805 -0.09061459 0.07111613 -0.05064407 -0.024367753 0.11299389 0.058021747 0.06364038
-0.026983047 -0.027779121 0.0069444715 0.0937108 -0.055587683 0.105190545 0.046808466 0.04347095
-0.047481395 -0.05092775 -0.041593432 -0.06104143 -0.039353184 -0.078121856 -0.057859123 -0.042004168
0.08289543 -0.04332144 0.071687736 0.061370168 -0.09093627 0.093707554 0.057747558 -0.05274855
0.0062732664 0.05193442 0.08311181 -0.0005739019 0.109428845 0.08766263 -0.051526304 -0.029240824
-0.11641103 -0.050783575 -0.02658477 -0.079017356 0.043133862 0.027260482 -0.096011154 -0.01751839
0.004000341 0.061955333 0.055299066 0.010638789 -0.008064477 -0.048139643 0.07457523 -0.0070658056
-0.00040076047 0.04870512 0.05712473 0.020826237 0.10894779 0.05248323 -0.055777464 -0.0887395
0.0214365 0.024428817 0.07546425 -0.05232662 -0.066543795 0.029326169 0.04024117 0.063836746
-0.005592771 -0.024492113 -0.047919925 0.073413774 0.1048933 0.035281997 0.091038354 -0.031547103
-0.054866225 0.09353433 0.0005515305 -0.038008675 -0.007912582 -0.033267576 0.01645617 0.035405193
-0.0019076918 -0.05610384 -0.03151919 0.10120163 -0.058075625 -0.045743387 0.082998805 0.08871742
-0.03052602 -0.008185922 0.0688224 0.08436207 -0.01474655 0.053825453 0.120811865 -0.05801288
-0.053237453 0.044104703 0.090683766 0.07898767 0.09275237 0.06082867 0.0073601613 -0.10807802
-0.09652862 0.09296761 0.13312352 -0.009273719 -0.029027654 0.02150188 -0.05320513 -0.056520168
0.016418954 0.093065135 -0.08358502 -0.0397436 -0.023234492 0.007433754 0.05954805 -0.049831253
-0.08310596 0.07393101 0.08021845 0.012720035 -0.021253392 -0.0828967 -0.0923681 0.07833395
-0.09453543 -0.06742626 0.025816178 -0.06996856 -0.04259547 0.082279004 0.02484709 -0.010819113
0.06454793 -0.050413776 0.049422145 0.04350067 0.062507056 -0.025565365 0.054970756 0.0680907
-0.054831006 -0.029478777 -0.031125173 0.10177592 -0.027297769 -0.1153265 -0.095449574 0.04403138
0.07992249 0.08409554 0.028100932 -0.013508071 -0.037131034 0.026263474 0.020336147 -0.09325815
0.035702515 -0.08490905 0.030475633 0.08317284 -0.026121618 -0.0982854 -0.0758683 -0.09705103
0.062418103 0.07867728 0.033211235 -0.03525967 -0.035729527 0.089806974 0.039329443 0.0067245895
-0.045378827 0.040033974 -0.09867311 0.026446555 -0.078160234 -0.02218949 -0.032376885 -0.060735628
0.08554541 -0.023259312 0.085758746 -0.008273003 -0.0044343206 -0.018661171 0.037579406 -0.06833387
-0.04766333 0.044620097 -0.09662343 0.09799597 -0.011081322 -0.010843074 0.07182645 -0.06479321
0.034903448 0.061280046 0.0024088414 0.07678568 0.10414872 -0.07576159 0.11137913 0.033074934
0.00087682344 0.0499734 -0.064695224 0.0351481 -0.011493149 0.101890475 -0.041746024 0.07177045
-0.008806715 -0.0768965 0.054063883 -0.020051567 -0.05110437 -0.0017087406 0.023819001 -0.011265985
0.011365896 -0.0661313 -0.042462874 0.0869384 0.024326565 0.037284568 0.04639176 -0.046837293
-0.079213865 -0.054433 0.086401395 -0.09299636 0.005339376 0.009137396 -0.046852984 -0.10032548
00000000: a682 3dbd b41a caba 9184 10bd 83ea 6f3d
00000010: 2127 383d 1d91 59bc e1e5 2fbd 65f0 9b3c
00000020: 98de 5cbc 2494 b9bd 55a5 913d 2870 4fbd
00000030: e29e c7bc 5769 e73d 36a8 6d3d e355 823d
00000040: 8d0b ddbc 0a91 e3bc 738e e33b 73eb bf3d
00000050: e9af 63bd 246e d73d 3cba 3f3d 980e 323d
00000060: da7b 42bd 9e99 50bd e05d 2abd 9406 7abd
00000070: ce30 21bd 5afe 9fbd b0fd 6cbd 900c 2cbd
00000080: 14c5 a93d d371 31bd 05d1 923d 495f 7b3d
00000090: cc3c babd bfe9 bf3d b488 6c3d dd0e 58bd
000000a0: f98f cd3b 30b9 543d 8636 aa3d e871 16ba
000000b0: 3b1c e03d 7788 b33d 3f0d 53bd 748a efbc
000000c0: e868 eebd 7002 50bd 4ec8 d9bc dad3 a1bd
000000d0: 22ad 303d 6051 df3c 7fa1 c4bd ba82 8fbc
000000e0: 4b15 833b e0c4 7d3d 4681 623d 514e 2e3c
000000f0: de20 04bc 132e 45bd e6ba 983d 4688 e7bb
00000100: 291d d2b9 057f 473d 9ffb 693d c99b aa3c
00000110: 0520 df3d a8f8 563d e976 64bd 0ebd b5bd
00000120: 999b af3c f11e c83c 008d 9a3d 7054 56bd
00000130: 1d48 88bd 6f3d f03c edd3 243d d7bc 823d
00000140: 9043 b7bb afa3 c8bc af47 44bd f659 963d
00000150: 4cd2 d63d db83 103d 5172 ba3d 8937 01bd
00000160: 68bb 60bd ed8e bf3d 9694 103a fcae 1bbd
00000170: c6a3 01bc 9543 08bd 17cf 863c 0905 113d
00000180: 840b faba 24cd 65bd 441a 01bd cd42 cf3d
00000190: b5e0 6dbd 6b5d 3bbd 47fb a93d 7bb1 b53d
000001a0: b411 fabc 3f1e 06bc c2f2 8c3d 05c6 ac3d
000001b0: 839b 71bc 1478 5c3d 366c f73d ea9e 6dbd
000001c0: 840f 5abd 22a7 343d 69b8 b93d 4ac4 a13d
000001d0: f4f4 bd3d 7c27 793d 822d f13b 0258 ddbd
000001e0: ccb0 c5bd cd65 be3d 8851 083e ccf0 17bc
000001f0: 67cb edbc b624 b03c 9fed 59bd b181 67bd
00000200: 0b81 863c ef98 be3d 9f2e abbd 2fca 22bd
00000210: 4356 bebc d996 f33b a8e8 733d db1b 4cbd
00000220: 7533 aabd 2469 973d 9249 a43d b267 503c
00000230: 981b aebc bfc5 a9bd 7d2b bdbd 8d6d a03d
00000240: cb9b c1bd c716 8abd 737c d33c ad4b 8fbd
00000250: 9678 2ebd e581 a83d 208c cb3c a642 31bc
00000260: b531 843d ad7e 4ebd e06e 4a3d c22d 323d
00000270: b303 803d 756e d1bc 0429 613d 2373 8b3d
00000280: 7a96 60bd 7a7d f1bc 38fa febc e56f d03d
00000290: 929f dfbc 4d30 ecbd 117b c3bd 405a 343d
000002a0: 67ae a33d 483a ac3d ed33 e63c f550 5dbc
000002b0: b616 18bd 7f26 d73c fe97 a63c 21fe bebd
000002c0: cd3c 123d cce4 adbd 09a8 f93c 8656 aa3d
000002d0: 01fd d5bc db49 c9bd d760 9bbd b1c2 c6bd
000002e0: 20aa 7f3d 8e21 a13d 8108 083d 726c 10bd
000002f0: 2059 12bd b8ec b73d e917 213d f259 dc3b
00000300: 26df 39bd aafa 233d 2115 cabd 72a6 d83c
00000310: 7912 a0bd bcc6 b5bc a09d 04bd ecc5 78bd
00000320: 6f32 af3d 508a bebc 48a2 af3d 7d8b 07bc
00000330: c74d 91bb 50df 98bc ddec 193d a1f2 8bbd
00000340: a03a 43bd 90c3 363d 81e2 c5bd 1cb2 c83d
00000350: 6f8e 35bc 26a7 31bc bf19 933d 4db2 84bd
00000360: ebf6 0e3d c900 7b3d a7dd 1d3b d041 9d3d
00000370: ed4b d53d e428 9bbd be1a e43d 9579 073d
00000380: a0da 653a e8b0 4c3d ee7e 84bd 74f7 0f3d
00000390: c34d 3cbc f4ab d03d e1fd 2abd 63fc 923d
000003a0: 0a4a 10bc ea7b 9dbd 1772 5d3d 2f43 a4bc
000003b0: d152 51bd d2f7 dfba 1120 c33c f794 38bc
000003c0: 0638 3a3c d96f 87bd 8ded 2dbd c30c b23d
000003d0: 8148 c73c b4b7 183d 4905 3e3d 76d8 3fbd
000003e0: e13a a2bd 23f5 5ebd 37f3 b03d e074 bebd
000003f0: eff5 ae3b 04b5 153c eae8 3fbd 7277 cdbd

fc2.bias f4 [100]
-0.03751681 0.026275955 -0.09508498 -0.10110763 -0.0023804833 0.0031353943 0.10770128 2.7574715e-05
0.028408248 -0.118114196 0.05343327 0.10605906 -0.056809474 -0.06203868 -0.07645008 -0.035343476
-0.07721498 0.11657956 -0.06007401 0.059026003 0.084472306 0.05315117 -0.007921304 0.008431672
-0.041839812 0.09641283 -0.089699544 0.0485844 -0.08906207 0.03915997 -0.03026405 0.03217155
-0.052466094 0.07303105 0.033333633 0.048037898 0.036009025 -0.1226164 -0.10925107 -0.05235841
0.019533623 0.09241522 -0.012632048 0.019291844 0.07657667 -0.06777392 -0.052479286 -0.057603892
0.052510668 0.07527717 0.025111604 -0.051630568 0.1167101 -0.10323336 0.05088193 0.083766595
-0.07440799 0.012423221 0.013987245 -0.014788009 -0.066593334 0.03547991 -0.064139694 0.051364355
-0.07084443 0.0013900613 -0.023070192 -0.047522847 -0.050611068 0.05300329 0.088354796 -0.025434433
0.04031841 0.065266155 -0.07480861 0.07024627 -0.024956407 0.0032679331 -0.05672883 -0.06744626
0.05743638 -0.09305981 -0.038034726 -0.022222618 0.09294556 0.05142653 0.013128679 -0.05272276
0.041689426 0.06827969 0.018897993 -0.03273938 0.026480978 -0.059720024 -0.08566995 0.1082349
0.11887912 0.085320845 -0.06534247 -0.063721284
00000000: 3aab 19bd ac40 d73c eabb c2bd 8411 cfbd
00000010: e201 1cbb 307b 4d3b 7d92 dc3d 4050 e737
00000020: 6ab8 e83c dbe5 f1bd d8dc 5a3d 7e35 d93d
00000030: 0db1 68bd 451c 7ebd dc91 9cbd 52c4 10bd
00000040: e322 9ebd 44c1 ee3d 2a10 76bd 40c5 713d
00000050: d1ff ac3d 0bb5 593d 5bc8 01bc ff24 0a3c
00000060: 3960 2bbd 1774 c53d 65b4 b7bd 7000 473d
00000070: 2d66 b6bd 3466 203d 50ec f7bc 51c6 033d
00000080: b0e6 56bd 4e91 953d d988 083d 63c3 443d
00000090: 337e 133d 4f1e fbbd 06bf dfbd c675 56bd
000000a0: fa04 a03c 3144 bd3d a6f6 4ebc ee09 9e3c
000000b0: 3bd4 9c3d 0ecd 8abd 85f4 56bd 0ff2 6bbd
000000c0: 6d15 573d eb2a 9a3d dab6 cd3c 937a 53bd
000000d0: b405 ef3d 036c d3bd 9269 503d d28d ab3d
000000e0: 3763 98bd c48a 4b3c c22a 653c 6849 72bc
000000f0: 1662 88bd 6253 113d ac5b 83bd 6e63 523d
00000100: e216 91bd b832 b63a b3fd bcbc 51a7 42bd
00000110: 8d4d 4fbd fa19 593d 5cf3 b43d df5b d0bc
00000120: eb24 253d 43aa 853d 4235 99bd 47dd 8f3d
00000130: 6171 ccbc d22a 563b 7d5c 68bd 4421 8abd
00000140: 6942 6b3d 2496 bebd 4dca 1bbd 350c b6bc
00000150: 3e5a be3d a0a4 523d ac19 573c d2f3 57bd
00000160: 88c2 2a3d 39d6 8b3d f7cf 9a3c ba19 06bd
00000170: a3ee d83c fc9c 74bd ba73 afbd 42aa dd3d
00000180: e576 f33d b2bc ae3d 46d2 85bd 4e80 82bd

fc3.weight f4 [3, 100]
-0.0006304195 0.012000133 -0.007848347 -0.02877906 0.033038676 0.04640221 0.023941735 -0.024294801
-0.004564678 -0.049171824 0.039054725 0.024229813 -0.025248786 -0.0003404682 -0.012347217 0.015732642
-0.029492645 0.056860693 0.01644302 0.03609781 -0.0050477227 -0.009269397 -0.02149044 -0.018525612
-0.0059406664 0.02869738 -0.0078011183 -0.015593627 -0.040777575 -0.021013489 -0.037093222 -0.035260733
0.029267063 0.0087749325 0.008643139 0.00981765 -0.028222455 -0.032580663 -0.021145336 0.011256137
-0.0032647932 0.025279138 -0.014992724 -0.034942154 0.01622676 0.036722537 -0.040477917 0.0005323012
-0.01716552 0.027891316 -0.033198748 0.0037461324 0.033178024 -0.01995749 0.0023074325 0.0252441
0.03122987 -0.030215953 0.013547515 0.011033923 0.010726241 0.01900775 -0.05050241 0.010411446
0.005241179 0.016759295 0.0038496978 -0.010808569 0.0120902145 0.017719632 0.00871069 -0.01820215
-0.015982594 0.029376771 0.020684361 0.02447823 0.043165196 -0.032861903 -0.02337929 -0.012775344
0.0057392055 -0.0050789346 -0.0052003777 0.030584551 -0.0056790872 -0.027814455 0.021089723 -0.0058168536
-0.013982538 -0.0289327 0.02798669 -0.0025057818 -0.0041931234 0.030960985 -0.008282109 0.03356857
0.02347 0.022612438 0.0077840807 0.020973487 -0.014840219 -0.006785607 0.039952777 -0.02155266
-0.0016165619 -0.00086427905 -0.009250342 0.004651483 -0.0023080213 -0.037697803 0.010135517 0.022636384
-0.00231315 -0.032634716 0.010904578 -0.03306027 0.011868312 0.05041566 -0.0015645646 0.028866528
-0.009840877 0.034680486 -0.02220273 -0.016424948 -0.0029202541 -0.02050996 -0.017663805 0.028981492
-0.027412644 0.05378156 0.03943528 0.02866407 0.030594172 0.018425222 0.007207596 -0.025505047
-0.030877324 -0.0351338 0.0052723805 0.029831845 0.0074746083 -0.01239947 -0.013478419 -0.004830403
-0.0075933943 -0.0067051635 -0.023837643 -0.011524896 0.0033591508 0.014750926 -0.03462613 -0.016525602
0.024744429 -0.015740445 -0.005618547 0.018875524 0.009740154 -0.021503162 -0.008857888 0.029781755
0.03434282 -0.02120148 -0.03752615 0.0030155852 0.0077051106 0.039206948 -0.03420466 0.01607805
0.02273836 0.02028877 0.0044070277 0.014133397 0.013814956 0.029898731 -0.0054982407 -0.014425768
0.044042796 -0.02684573 0.0060669854 0.031837333 -0.03533448 0.022708448 -0.022405332 -0.03634727
0.011558316 0.006143626 0.025132721 -0.028217245 0.02220706 -0.021022532 -0.041369554 -0.0031297184
-0.01147249 -0.038838085 0.03990829 0.00030513725 0.004292947 -0.011363681 0.012318117 0.03712696
0.010254646 -0.013180078 -0.024300775 -0.0075031067 0.042251084 -0.027236028 -0.003676478 0.012180979
0.0052327933 -0.030158414 0.022683272 -0.0057917763 0.0017665994 -0.010205559 -0.0004840164 0.022748044
0.009021553 0.00601527 0.023732053 0.008446909 0.02096886 0.025466153 -0.0010518368 -0.002962823
-0.0168988 0.0036368505 -0.01831987 -0.013389179 -0.0001870867 -0.0060740476 -0.00984091 -0.020119317
0.016032662 0.018596573 -0.024443047 -0.001204744 -0.017123422 -0.015980044 -0.041735075 -0.005808284
0.010353918 0.00031002166 -0.021551685 0.024235705 0.012455967 0.0058356356 -0.007999405 0.026133161
0.03883113 0.0059072524 -0.0009998321 0.009559042 0.02450751 -0.004179442 0.012499297 -0.00039908531
00000000: bd42 25ba 359c 443c 5a96 00bc 10c2 ebbc
00000010: 9053 073d 3e10 3e3d 7521 c43c e405 c7bc
00000020: 4b93 95bb 6568 49bd d9f7 1f3d 9a7d c63c
00000030: 8bd6 cebc de80 b2b9 fb4b 4abc bee1 803c
00000040: 8f9a f1bc c2e6 683d 83b3 863c 4cdb 133d
00000050: 5e67 a5bb abde 17bc b80c b0bc 06c3 97bc
00000060: eca9 c2bb c516 eb3c 86a0 ffbb 697c 7fbc
00000070: 6306 27bd 7b24 acbc 10ef 17bd 8f6d 10bd
00000080: 7bc1 ef3c bcc4 0f3c f49b 0d3c 35da 203c
00000090: c732 e7bc 4d73 05bd fc38 adbc a96b 383c
000000a0: 24f6 55bb 3216 cf3c 0ba4 75bc 811f 0fbd
000000b0: fbed 843c 5f6a 163d 2ccc 25bd 218a 0b3a
000000c0: b49e 8cbc 547c e43c 69fb 07bd ac81 753b
000000d0: aee5 073d e47d a3bc 4b38 173b b7cc ce3c
000000e0: c9d5 ff3c 7287 f7bc 65f6 5d3c a1c7 343c
000000f0: 1ebd 2f3c 24b6 9b3c 9ddb 4ebd c594 2a3c
00000100: 32be ab3b ca4a 893c 364b 7c3b 6d16 31bc
00000110: 0916 463c c328 913c 48b7 0e3c ad1c 95bc
00000120: eeed 82bc 8ea7 f03c 4072 a93c 9286 c83c
00000130: fdcd 303d 349a 06bd ed85 bfbc ad4f 51bc
00000140: f20f bc3b 316d a6bb ee67 aabb 748c fa3c
00000150: a317 babb 24db e3bc 5bc4 ac3c 4e9b bebb
00000160: 0417 65bc 4504 edbc 5844 e53c 0b38 24bb
00000170: 7866 89bb e4a1 fd3c afb1 07bc 327f 093d
00000180: 2844 c03c b83d b93c 9a11 ff3b 97d0 ab3c
00000190: 6424 73bc cc59 debb 86a5 233d 348f b0bc
000001a0: d1e2 d3ba c990 62ba bf8e 17bc 786b 983b
000001b0: 2c42 17bb 0369 1abd 710f 263c f06f b93c
000001c0: 3898 17bb fbab 05bd 1da9 323c 356a 07bd
000001d0: 4f73 423c a780 4e3d 1412 cdba 7f79 ec3c
000001e0: a13b 21bc 200d 0e3d 80e2 b5bc 9d8d 86bc
000001f0: bc61 3fbb 8104 a8bc afb3 90bc 986a ed3c
00000200: 7b90 e0bc 0e4a 5c3d e386 213d e9d0 ea3c
00000210: a1a0 fa3c 7ef0 963c b32d ec3b f6ef d0bc
00000220: 71f2 fcbc 76e8 0fbd efc3 ac3b ea61 f43c
00000230: 8fed f43b 2627 4bbc 96d4 5cbc 5b48 9ebb
00000240: 02d2 f8bb fdb6 dbbb 2947 c3bc ebd2 3cbc
00000250: 3325 5c3b dead 713c 21d4 0dbd b360 87bc
00000260: d4b4 ca3c 1bf2 80bc ca1b b8bb d8a0 9a3c
00000270: 2b95 1f3c 6627 b0bc ad20 11bc def8 f33c
00000280: 0fab 0c3d baae adbc 05b5 19bd 20a1 453b
00000290: 277b fc3b 7797 203d 301a 0cbd 1db6 833c
000002a0: cc45 ba3c a234 a63c d468 903b c38f 673c
000002b0: 2058 623c 2fee f43c 962a b4bb 0e5a 6cbc
000002c0: 3866 343d 94eb dbbc 90cd c63b dd67 023d
000002d0: e3ba 10bd 1107 ba3c 638b b7bc e0e0 14bd
000002e0: 175f 3d3c 7850 c93b 23e3 cd3c da27 e7bc
000002f0: 95eb b53c 7237 acbc 1f73 29bd f61b 4dbb
00000300: 1cf7 3bbc af14 1fbd e076 233d d4fa 9f39
00000310: d9ab 8c3b bc2e 3abc edd1 493c 7012 183d
00000320: 1a03 283c 41f1 57bc 6b12 c7bc 9fdc f5bb
00000330: 790f 2d3d 171e dfbc 11f1 70bb bb92 473c
00000340: da77 ab3b c70e f7bc 45d2 b93c f1c8 bdbb
00000350: 3d8d e73a 3835 27bc 95c3 fdb9 1b5a ba3c
00000360: 23cf 133c be1b c53b b969 c23c e764 0a3c
00000370: e3c6 ab3c 659e d03c c9dd 89ba ec2b 42bb
00000380: 5a6f 8abc 3a58 6e3b 8d13 96bc 495e 5bbc
00000390: b42c 44b9 ce08 c7bb c53b 21bc 44d1 a4bc
000003a0: ee56 833c d757 983c c93c c8bc 80e8 9dba
000003b0: 6b46 8cbc 95e8 82bc 66f2 2abd 6b53 bebb
000003c0: 7ba3 293c 678a a239 298d b0bc f589 c63c
000003d0: 1d14 4c3c dc38 bf3b f00f 03bc 3615 d63c
000003e0: 640d 1f3d a091 c13b cc0c 83ba 879d 1c3c
000003f0: f9c3 c83c b3f3 88bb dac9 4c3c 533c d1b9

fc3.bias f4 [3]
0.02488352 0.004873498 0.022117665
00000000: 86d8 cb3c ddb1 9f3b 1b30 b53c

fc1.weight f4 [100, 11]
-0.18218672 0.15463765 0.1815509 -0.1729457 0.012935663 0.06589732 0.097070515 0.12058303
0.1742708 0.13786802 0.07654878 -0.0015915249 -0.18515721 0.17460677 0.028569698 -0.03131745
-0.15324102 -0.19831705 0.018779108 -0.05673354 0.12360072 0.09834665 -0.020127172 -0.062041137
-0.1744096 -0.12175329 0.14079566 0.17118247 -0.12084583 0.25464493 -0.05309951 0.041661173
0.14983748 0.059314005 -0.27200437 0.13557528 -0.034471422 -0.033147424 -0.06725244 0.12934321
0.2535062 -0.21031256 0.0786262 -0.057709523 -0.26829287 0.021147592 0.12132678 -0.21441673
-0.08812777 0.038501725 0.01982428 0.124531046 0.02346269 -0.011289178 -0.12452042 -0.25859493
0.16126372 0.12827982 -0.07985136 -0.19945605 0.1554077 0.009844508 0.11533874 0.23823445
-0.04928962 0.03426435 -0.26719397 0.07663518 0.17481232 0.07625909 -0.17212065 -0.10602204
0.1816271 -0.15561752 0.044789106 0.116238624 -0.06815881 0.15988511 0.1544531 -0.06578062
-0.18433793 -0.07271413 -0.05195543 -0.12903287 -0.23990273 0.26708525 -0.2445686 0.16543043
-0.23331867 -0.07956607 -0.27568743 0.21269205 0.044931557 -0.23086375 0.07878747 0.22966535
-0.28752688 -0.102265775 0.100670256 -0.07576125 0.1387048 -0.07088859 -0.054532025 0.22357854
0.17910655 0.25851557 0.25998786 -0.17627068 -0.08318486 0.07056563 -0.118764974 -0.12907745
0.00286241 0.13414812 0.14749236 0.14254154 -0.005400641 -0.055339575 -0.116477914 0.17658338
0.022816956 -0.0012333785 0.024138995 0.19231929 0.053309437 0.23406747 0.24452037 -0.09409617
-0.054660596 0.20927298 0.235649 -0.22070682 0.118344165 0.20474584 0.25818032 0.08862316
-0.12974654 0.009468578 0.088718385 -0.11987703 0.16329809 -0.052184008 0.092527 0.18698718
-0.05365011 0.062326714 0.15655446 0.081064306 0.19567592 0.09133699 0.16218963 0.22360295
0.13307486 0.22664495 0.015524604 -0.13114536 0.2660309 0.09879441 -0.05981808 -0.049629983
-0.21273115 -0.23836362 -0.1625488 -0.16877335 0.14191176 0.06970871 -0.27289528 0.17258504
-0.091790564 -0.24541287 -0.10292855 0.16410987 0.21088105 -0.22265202 -0.07588455 0.042382218
-0.23661214 -0.12717308 0.276323 -0.272041 -0.09730176 -0.13080113 -0.19507042 -0.14493689
-0.2217311 0.12939855 0.096676216 0.20940049 0.020674402 -0.23158853 0.025763245 -0.063041374
0.07666217 0.109660484 -0.23175074 -0.055218663 0.14152652 -0.21514164 -0.10047411 -0.30025584
0.0059599695 0.06158807 0.12749667 -0.09415976 -0.26649567 0.18292023 0.1584836 0.09267726
0.06853685 0.20946696 -0.26619527 -0.028299503 0.10016706 0.27919826 -0.07485218 0.15799578
-0.1591498 0.03741244 0.23231521 0.17868152 -0.20082535 -0.13717544 -0.14319634 0.17674083
-0.108796775 0.2722882 0.10346328 -0.015017497 0.031497274 -0.10661757 -0.19740435 0.18773547
0.032542787 -0.22931717 0.20688263 0.14876498 -0.14941163 0.102743186 -0.1255898 -0.16936986
-0.23146647 -0.07672289 -0.08787634 0.04329279 -0.15954162 -0.054602005 -0.018716047 0.027825052
-0.09207701 0.032829694 0.02245329 0.005434287 -0.10060614 0.20645492 -0.27603534 -0.031499133
00000000: 288f 3abe 5559 1e3e 7be8 393e ad18 31be
00000010: 1af0 533c 2df5 863d e8cc c63d 3cf4 f63d
00000020: 0b74 323e 462d 0d3e 9bc5 9c3d b79a d0ba
00000030: da99 3dbe 1ecc 323e 000b ea3c ba46 00bd
00000040: 37eb 1cbe a013 4bbe a5d6 993c 6e61 68bd
00000050: 6022 fd3d f869 c93d bde1 a4bc d91e 7ebd
00000060: 6e98 32be ca59 f9bd bd2c 103e 754a 2f3e
00000070: 057e f7bd d260 823e df7e 59bd e8a4 2a3d
00000080: ff6e 193e 3ef3 723d 2844 8bbe 3fd4 0a3e
00000090: e831 0dbd 98c5 07bd a6bb 89bd 8c72 043e
000000a0: 91cb 813e 2d5c 57be c606 a13d d260 6cbd
000000b0: af5d 89be b73d ad3c 2d7a f83d 0f90 5bbe
000000c0: 557c b4bd fcb3 1d3d 8766 a23c 220a ff3d
000000d0: d434 c03c 3ff6 38bc 9004 ffbd 8e66 84be
000000e0: 5122 253e c95b 033e 1c89 a3bd 353e 4cbe
000000f0: 3223 1f3e dc4a 213c b836 ec3d bbf3 733e
00000100: eae3 49bd c658 0c3d a6cd 88be e8f2 9c3d
00000110: 0002 333e ba2d 9c3d 6540 30be 1522 d9bd
00000120: 74fc 393e 335a 1fbe c874 373d 840e ee3d
00000130: d996 8bbd ecb8 233e f428 1e3e fdb7 86bd
00000140: 15c3 3cbe 25eb 94bd 38cf 54bd 3121 04be
00000150: 10a9 75be 66bf 883e 3170 7abe 9866 293e
00000160: 17eb 6ebe 89f3 a2bd e726 8dbe f2cb 593e
00000170: 270a 383d 8c67 6cbe 535b a13d 652d 6b3e
00000180: b936 93be b870 d1bd 352c ce3d b728 9bbd
00000190: a208 0e3e 092e 91bd f95c 5fbd c6f1 643e
000001a0: b567 373e 275c 843e 211d 853e 4d80 34be
000001b0: d35c aabd b784 903d 0d3b f3bd e12c 04be
000001c0: 4597 3b3b 205e 093e 3d08 173e 69f6 113e
000001d0: dcf7 b0bb c0ab 62bd f98b eebd 46d2 343e
000001e0: a0ea ba3c 51a9 a1ba 24bf c53c 59ef 443e
000001f0: ff5a 5a3d 62af 6f3e 8c63 7a3e 7eb5 c0bd
00000200: cae3 5fbd a84b 563e f94d 713e f800 62be
00000210: 6d5e f23d e5a8 513e 3630 843e 0f80 b53d
00000220: 47dc 04be 1822 1b3c fcb1 b53d 1782 f5bd
00000230: 9d37 273e e6be 55bd cc7e bd3d 9179 3f3e
00000240: 38c0 5bbd 4c4a 7f3d d04f 203e 0b05 a63d
00000250: 455f 483e e30e bb3d 0a15 263e 2cf8 643e
00000260: c744 083e 9d15 683e e95a 7e3c f84a 06be
00000270: 3435 883e b954 ca3d ce03 75bd cf48 4bbd
00000280: 32d6 59be 9815 74be 3173 26be ecd2 2cbe
00000290: 5151 113e 71c3 8e3d eeb8 8bbe 22ba 303e
000002a0: b1fc bbbd 834d 7bbe 34cc d2bd 6b0c 283e
000002b0: 34f1 573e e4fe 63be 5c69 9bbd fa98 2d3d
000002c0: 744a 72be a939 02be 357a 8d3e f548 8bbe
000002d0: 2546 c7bd bbf0 05be 8ac0 47be 566a 14be
000002e0: 7a0d 63be 0e81 043e 2efe c53d 156d 563e
000002f0: 5d5d a93c 8b25 6dbe 710d d33c d61b 81bd
00000300: 0e01 9d3d ad95 e03d 1150 6dbe f72c 62bd
00000310: 54ec 103e 174e 5cbe 5fc5 cdbd 22bb 99be
00000320: d94b c33b c643 7c3d 7d8e 023e d5d6 c0bd
00000330: 1f72 88be 714f 3b3e 8649 223e 93cd bd3d
00000340: 0c5d 8c3d 827e 563e bf4a 88be 5cd4 e7bc
00000350: 6324 cd3d 13f3 8e3e 1a4c 99bd a5c9 213e
00000360: 2af8 22be c93d 193d 0ae4 6d3e 4af8 363e
00000370: 29a5 4dbe b877 0cbe 10a2 12be 8cfb 343e
00000380: d8d0 debd 5c69 8b3e 8ee4 d33d f30b 76bc
00000390: 4903 013d 505a dabd 5e24 4abe ba3d 403e
000003a0: 964b 053d 1fd2 6abe 0ad9 533e d955 183e
000003b0: 5dff 18be 056b d23d 9d9a 00be 4b6f 2dbe
000003c0: 8c05 6dbe e420 9dbd 83f8 b3bd c853 313d
000003d0: e15e 23be 5aa6 5fbd 6552 99bc 5df1 e33c
000003e0: df92 bcbd 6e78 063d f6ef b73c 1a12 b23b
000003f0: 980a cebd eb68 533e 8154 8dbe 3c05 01bd

fc1.bias f4 [100]
0.4077096 -0.31952876 0.30674186 -0.15162186 -0.102285296 0.3114709 -0.30379844 -0.25172794
-0.36682603 -0.37884036 0.23003736 0.13056615 0.1622929 -0.2817326 0.27726877 -0.048970003
-0.37382153 -0.29752696 -0.38764033 -0.18895097 0.2672489 -0.068076424 0.32420248 -0.1345048
0.33054927 0.1460009 -0.09779322 0.052005958 0.24750589 0.36620563 -0.1649129 -0.40225253
0.19870198 -0.050167162 -0.35396302 0.18605213 -0.2401008 0.30019635 0.19204067 0.08431345
0.1689978 -0.30901575 0.39665836 -0.042442765 -0.0033543734 -0.2393896 -0.40382183 -0.3306958
-0.3012776 0.29538226 0.3765101 -0.3483378 0.11368575 0.047528554 -0.16855174 -0.0029632084
0.12493664 0.04378433 -0.3799084 -0.19009449 0.13761874 0.20725523 -0.16538575 -0.05629695
0.025037251 -0.37874174 0.18620795 -0.32507193 0.14455159 0.31937644 0.23677029 0.37181544
-0.07567464 -0.2774472 -0.1431221 -0.2747044 -0.30366993 -0.16991994 0.14968783 -0.24151334
-0.31592426 -0.24983288 -0.30963275 0.16850115 -0.31605318 -0.13077909 -0.3638046 -0.35678068
-0.37109667 -0.039325703 0.15639633 0.2239526 0.29869667 -0.1154657 -0.36644697 0.17147787
0.3156259 -0.17635633 -0.3324311 -0.20875716
00000000: 50bf d03e 4699 a3be 450d 9d3e c342 1bbe
00000010: f47a d1bd 1d79 9f3e 788b 9bbe 7ce2 80be
00000020: 9fd0 bbbe 5df7 c1be ea8e 6b3e 22b3 053e
00000030: 1c30 263e 413f 90be 2cf6 8d3e c594 48bd
00000040: 8965 bfbe 7455 98be cb78 c6be 5d7c 41be
00000050: d9d4 883e a76b 8bbd defd a53e a0bb 09be
00000060: c13d a93e 4381 153e d047 c8bd 3304 553d
00000070: 2f72 7d3e 4e7f bb3e edde 28be 0bf4 cdbe
00000080: 8878 4b3e 157c 4dbd a43a b5be 7384 3e3e
00000090: fcdc 75be 56b3 993e 4fa6 443e 88ac ac3d
000000a0: c20d 2d3e 5037 9ebe ce16 cb3e 77d8 2dbd
000000b0: 0cd5 5bbb 8c22 75be bcc1 cebe f650 a9be
000000c0: 0f41 9abe 583c 973e efc5 c03e 5559 b2be
000000d0: 13d4 e83d 4dad 423d d498 2cbe 6332 42bb
000000e0: c8de ff3d 3357 333d 5b83 c2be 21a8 42be
000000f0: edeb 0c3e b73a 543e e25a 29be a197 66bd
00000100: ec1a cd3c 70ea c1be 4cad 3e3e d46f a6be
00000110: 5505 143e 4f85 a33e e973 723e 985e be3e
00000120: 4efb 9abd 8f0d 8ebe 9a8e 12be 0ea6 8cbe
00000130: a07a 9bbe 7eff 2dbe c447 193e 464f 77be
00000140: d3c0 a1be 31d4 7fbe 2f88 9ebe 918b 2c3e
00000150: b9d1 a1be f4ea 05be 9944 babe f5ab b6be
00000160: 6200 bebe fd13 21bd 5c26 203e d553 653e
00000170: c5ee 983e 4879 ecbd f09e bbbe e597 2f3e
00000180: b899 a13e c196 34be 6934 aabe 70c4 55be

fc2.weight f4 [100, 100]
0.10453894 -0.15060091 -0.0020397364 -0.090178505 -0.011840232 0.054975096 -0.034420606 -0.15022546
-0.14032091 -0.124029085 0.1487322 0.012348999 0.13161096 0.01078392 0.1315079 -0.021989862
-0.13181233 0.006023521 -0.032367792 -0.026753163 0.09554586 0.04702174 0.07468561 -0.02046538
0.04022054 0.13981344 0.006269692 -0.0351987 0.13596627 0.12888588 -0.09748881 -0.18775289
0.14669555 -0.02608042 -0.13078682 0.08478108 -0.12995867 0.001932152 0.12319138 0.07957314
0.08167939 0.018246282 0.07515431 0.0046102204 -0.017028822 -0.12368227 -0.13671342 -0.114874326
-0.0192736 0.14600882 0.12446209 -0.06547514 0.10779926 0.022876536 -0.005202223 0.0079261195
0.09270338 -0.02122444 -0.06854173 -0.07632277 -0.00992109 0.12982689 -0.0653347 -0.07171024
-0.06370749 -0.115692206 0.14191923 -0.1735816 0.0072282203 0.14190729 0.12325014 -0.0069604875
-0.043048862 -0.020931095 -0.06563771 -0.0051310635 -0.15399382 -0.11338965 0.10421729 -0.12546982
-0.17046924 -0.09153925 -0.050218776 0.08439788 -0.0016938284 -0.007145385 -0.09086758 -0.028341617
-0.16385703 -0.061781067 0.08767754 0.1514692 0.08087113 -0.03902455 -0.097332984 0.06934067
0.1039249 -0.065145515 -0.056702808 -0.1208718 0.10243663 -0.065450974 0.030387696 -0.09187211
0.030345287 0.06320652 -0.008471065 -0.16267686 -0.07421941 -0.008518088 0.10057403 0.11305418
0.04048696 -0.10796543 0.115336455 0.04850793 -0.03217013 -0.057232816 -0.077355675 -0.05903528
0.022745995 -0.1056093 0.09338193 -0.089102775 0.16099077 0.06540075 0.054687407 -0.0071532563
0.05570906 0.1357396 -0.11557273 -0.10655309 0.024914768 0.007571058 -0.19006763 0.054439332
0.0052933763 0.10639342 -0.009398713 0.048005257 0.029499264 -0.15179951 0.17407218 0.06821824
-0.034672488 -0.0033197263 -0.1240168 -0.15685071 -0.029863669 0.062131952 0.006974219 -0.13456962
0.085093506 0.071842335 -0.10860886 -0.04625497 0.018014088 0.09714455 -0.19082333 -0.048281025
0.1338943 0.10701038 0.0412378 0.065587945 -0.01465583 -0.011883005 -0.012175582 0.009056121
0.058085863 0.092634596 0.010328763 0.01710566 0.020000368 -0.14251666 -0.13867775 -0.05637345
-0.00834021 -0.034971178 -0.017675668 -0.006659703 -0.16505793 -0.17642789 -0.14913575 -0.013635924
-0.05986493 -0.0077536628 -0.07526233 -0.14001687 -0.1327622 0.07111982 0.1448433 0.019556643
0.15068369 0.005189519 -0.10885876 0.099596284 0.059163004 -0.04259708 -0.0021636842 -0.01903294
0.02239098 -0.049189396 0.12597995 -0.05640425 -0.01580443 0.12118717 -0.050670262 -0.11408349
-0.12365731 -0.081055 0.012157711 0.03483517 0.08490979 -0.094236165 0.088351615 -0.014876757
-0.1342135 -0.14768031 -0.17474619 -0.007008362 0.15845065 -0.003682108 0.16903217 0.013531884
0.08471888 0.09012999 -0.049231958 -0.046141382 0.08780965 0.04853705 0.021218343 -0.10530343
0.11002301 0.04565446 -0.081278 0.08853509 -0.10238126 0.1274056 0.041739535 0.054777004
0.13526876 -0.15166533 0.010724655 0.0024602537 0.08947486 -0.1464626 -0.081569076 -0.07209348
-0.07689167 0.04831384 0.15387467 -0.12723504 -0.00732823 0.036339518 -0.08659814 0.0029526923
00000000: 8318 d63d 2037 1abe 19ad 05bb 82af b8bd
00000010: 88fd 41bc 912d 613d 9ffc 0cbd b4d4 19be
00000020: 49b0 0fbe f602 febd 414d 183e 7553 4a3c
00000030: 06c5 063e 0aaf 303c 02aa 063e 1524 b4bc
00000040: d0f9 06be f560 c53b 1794 04bd 7329 dbbc
00000050: 8cad c33d de99 403d c5f4 983d 03a7 a7bc
00000060: 4bbe 243d 412b 0f3e fd71 cd3b 832c 10bd
00000070: be3a 0b3e a9fa 033e 37a8 c7bd 4b42 40be
00000080: 5c37 163e 9ba6 d5bc fbec 05be b4a1 ad3d
00000090: e313 05be 4340 fd3a c34b fc3d 3ef7 a23d
000000a0: 8647 a73d 3a79 953c 81ea 993d 5511 973b
000000b0: 0780 8bbc 214d fdbd 9afe 0bbe 3b43 ebbd
000000c0: abe3 9dbc 5683 153e fbe5 fe3d d517 86bd
000000d0: dcc5 dc3d 9367 bb3c 6977 aabb 8edc 013c
000000e0: 45db bd3d e0de adbc 9b5f 8cbd 1d4f 9cbd
000000f0: 118c 22bc 57f1 043e 33ce 85bd d1dc 92bd
00000100: 1379 82bd 09f0 ecbd 4653 113e 60bf 31be
00000110: b5da ec3b 2550 113e 926a fc3d cd14 e4bb
00000120: 0154 30bd b077 abbc 106d 86bd 7b22 a8bb
00000130: 8eb0 1dbe d538 e8bd e06f d53d 297b 00be
00000140: 7d8f 2ebe ee78 bbbd 34b2 4dbd ccd8 ac3d
00000150: 7303 deba d523 eabb c818 babd ae2c e8bc
00000160: 23ca 27be 250e 7dbd 4890 b33d be1a 1b3e
00000170: c39f a53d 35d8 1fbd 8456 c7bd 7b02 8e3d
00000180: 94d6 d43d 036b 85bd 3441 68bd a28b f7bd
00000190: 4cca d13d 290b 86bd 9eef f83c 7227 bcbd
000001a0: ae96 f83c 6c72 813d 39ca 0abc c394 26be
000001b0: 5900 98bd 738f 0bbc c2f9 cd3d f388 e73d
000001c0: a8d5 253d fb1c ddbd 8535 ec3d 40b0 463d
000001d0: d4c4 03bd f56c 6abd a76c 9ebd face 71bd
000001e0: cf55 ba3c b049 d8bd 063f bf3d 847b b6bd
000001f0: c4da 243e d4f0 853d e7ff 5f3d dd65 eabb
00000200: 2f2f 643d 52ff 0a3e 65b1 ecbd 8238 dabd
00000210: 0e1a cc3c a316 f83b 17a1 42be c7fb 5e3d
00000220: 0f74 ad3b cbe4 d93d 0ffd 19bc 29a1 443d
00000230: 71a8 f13c 5571 1bbe fa3f 323e 01b6 8b3d
00000240: bd04 0ebd c48f 59bb 85fc fdbd 799d 20be
00000250: a7a4 f4bc 137e 7e3d fd87 e43b 9ecc 09be
00000260: 8145 ae3d 1322 933d 526e debd da75 3dbd
00000270: 4892 933c b9f3 c63d 3167 43be 53c2 45bd
00000280: 961b 093e 4228 db3d f8e8 283d f952 863d
00000290: 021f 70bc efb0 42bc 187c 47bc 2060 143c
000002a0: 71eb 6d3d 35b7 bd3d f939 293c 2b21 8c3c
000002b0: d0d7 a33c e3ef 11be 8a01 0ebe d9e7 66bd
000002c0: 60a5 08bc f03d 0fbd 90cc 90bc a339 dabb
000002d0: f204 29be 83a9 34be 0bb7 18be 3669 5fbc
000002e0: ee34 75bd 7012 febb 2323 9abd 9560 0fbe
000002f0: d0f2 07be 45a7 913d cd51 143e 4135 a03c
00000300: d34c 1a3e d70c aa3b 57f1 debd 23f9 cb3d
00000310: e854 723d 477a 2ebd 99cc 0dbb f8ea 9bbc
00000320: 4a6d b73c d27a 49bd e300 013e 2508 67bd
00000330: 4b78 81bc fb30 f83d 9f8b 4fbd 9ba4 e9bd
00000340: 0b40 fdbd 2a00 a6bd 2331 473c 53af 0e3d
00000350: 2fe5 ad3d e4fe c0bd b1f1 b43d a4bd 73bc
00000360: 446f 09be 8239 17be aaf0 32be 67a6 e5bb
00000370: e340 223e 854f 71bb c516 2d3e d6b4 5d3c
00000380: 1881 ad3d 1296 b83d 73a7 49bd bffe 3cbd
00000390: 8cd5 b33d c9ce 463d 17d2 ad3c 53a9 d7bd
000003a0: be53 e13d 2c00 3b3d 1475 a6bd e351 b53d
000003b0: 44ad d1bd 9d76 023e 13f7 2a3d da5d 603d
000003c0: e583 0a3e 284e 1bbe 77b6 2f3c 353c 213b
000003d0: 983e b73d 4bfa 15be b00d a7bd bfa5 93bd
000003e0: 6179 9dbd bce4 453d 5291 1d3e e749 02be
000003f0: a621 f0bb bfd8 143d 5e5a b1bd f581 413b

fc2.bias f4 [100]
0.14077473 0.0807953 0.095144935 -0.04673034 0.13863492 0.06055616 0.18982919 -0.053742867
0.1439243 -0.1412154 0.029043792 0.0943914 0.18084538 -0.031589944 0.11900889 -0.12147427
0.11552852 -0.10577423 -0.14545976 0.12774955 0.0065492233 -0.13208306 0.17957726 -0.13324676
-0.18039897 -0.15558459 0.016992187 0.15286614 0.1472478 -0.16898468 0.050119694 -0.1326003
0.01960513 0.11744687 -0.041050103 -0.15043636 -0.18708868 0.0667016 -0.0736325 0.1241566
-0.07168326 -0.0057836156 0.041824277 -0.077820756 -0.0026151189 0.1332121 0.076230615 -0.14387602
0.19080524 -0.079896316 0.07461545 -0.11223294 -0.067695625 -0.10398567 0.15964587 0.1533647
0.19921729 -0.17740208 0.16473907 -0.12454521 0.11840033 -0.009491492 0.101474784 0.15610711
0.18959096 -0.1905316 -0.038877275 0.106060535 -0.17208835 -0.117301725 0.077148 -0.12519132
0.1181761 -0.13219832 -0.09282852 0.12576394 -0.18478239 -0.0775123 -0.19820507 -0.069688156
0.012456755 -0.04520365 -0.037549812 -0.007170475 -0.16086061 0.07536181 -0.06749884 -0.026948748
0.13929784 -0.03720524 -0.065127715 -0.014727825 -0.099577166 0.11374576 -0.0051873345 0.11473044
-0.1430435 -0.16619925 0.1717523 -0.085393935
00000000: 4027 103e 0278 a53d 59db c23d 5068 3fbd
00000010: 50f6 0d3e bc09 783d 9562 423e 7b21 5cbd
00000020: e460 133e c59a 10be 3fed ed3c 4750 c13d
00000030: 882f 393e 7564 01bd efba f33d 81c7 f8bd
00000040: 379a ec3d 29a0 d8bd 67f3 14be c7d0 023e
00000050: de9a d63b c840 07be 1ae3 373e d771 08be
00000060: 82ba 38be 9151 1fbe 3333 8b3c f188 1c3e
00000070: 21c8 163e 520a 2dbe 4f4a 4d3d 5fc8 07be
00000080: f09a a03c fc87 f03d 2724 28bd fd0b 1abe
00000090: 2d94 3fbe d99a 883d a3cc 96bd d145 fe3d
000000a0: acce 92bd 7c84 bdbb ef4f 2b3d 7d60 9fbd
000000b0: 6a62 2bbb c168 083e cc1e 9c3d 3c54 13be
000000c0: 7362 433e aea0 a3bd fccf 983d 62da e5bd
000000d0: 01a4 8abd 70f6 d4bd 357a 233e a30b 1d3e
000000e0: 9eff 4b3e e4a8 35be 5cb1 283e 8f11 ffbd
000000f0: df7b f23d 3482 1bbc 03d2 cf3d 8bda 1f3e
00000100: 2224 423e b71a 43be c73d 1fbd 4436 d93d
00000110: ee37 30be e33b f0bd c5ff 9d3d 2732 00be
00000120: 5006 f23d ff5e 07be e11c bebd 43c8 003e
00000130: 9837 3dbe c5be 9ebd 45f6 4abe aab8 8ebd
00000140: 6b17 4c3c 7627 39bd d5cd 19bd 4ef6 eabb
00000150: a5b8 24be 4b57 9a3d d53c 8abd 9fc3 dcbc
00000160: 18a4 0e3e 8664 18bd ae61 85bd fa4c 71bc
00000170: 1def cbbd 89f3 e83d 84fa a9bb cbf7 ea3d
00000180: ff79 12be 2330 2abe d6df 2f3e 04e3 aebd

fc3.weight f4 [1, 100]
0.09026023 0.10383223 0.09267883 -0.06727873 0.10626789 0.09646193 0.09282274 -0.098846324
0.09773923 -0.099513695 0.08181229 0.10576173 0.09836229 -0.09033983 0.10144525 -0.098687805
0.09878492 -0.09613162 -0.10150197 0.085116245 0.09970656 -0.09620183 0.10513946 -0.09491628
-0.08932941 -0.082285136 0.07821145 0.10323722 0.104427546 -0.0970488 0.091756545 -0.09292855
0.09779621 0.08852203 -0.09856972 -0.09397647 -0.11027187 0.09282642 -0.09639897 0.10243052
-0.09045159 -0.09447846 0.08975427 -0.102944076 0.09092502 0.10782482 0.08933563 -0.09308114
0.09814026 -0.07796551 0.10407346 -0.09844365 -0.0982516 -0.10140118 0.09734086 0.09975167
0.097324625 -0.081361204 0.10005728 -0.09164923 0.096221976 -0.09990056 0.07024759 0.09697618
0.09845213 -0.09955077 -0.09722712 0.10209614 -0.07886439 -0.08033525 0.10388926 -0.09335385
0.0953418 -0.10508318 -0.10659719 0.09455394 -0.09777774 -0.10839484 -0.09392138 -0.10332203
-0.07942633 -0.071113884 -0.09066059 -0.09639651 -0.09256202 0.09339882 -0.08900484 -0.07516338
0.09123208 -0.105297126 -0.085922435 -0.08292926 -0.09918294 0.10942896 -0.09777799 0.10520925
-0.10138402 -0.11211987 0.076739736 -0.09379915
00000000: 5bda b83d fea5 d43d 66ce bd3d 6ec9 89bd
00000010: fba2 d93d d58d c53d d919 be3d f16f cabd
00000020: 812b c83d d6cd cbbd 348d a73d 9b99 d83d
00000030: 2b72 c93d 1704 b9bd 87c2 cf3d d51c cabd
00000040: c04f ca3d a8e0 c4bd 44e0 cfbd 6d51 ae3d
00000050: f432 cc3d 7705 c5bd 5b53 d73d 7763 c2bd
00000060: 56f2 b6bd 1c85 a8bd 532d a03d 096e d33d
00000070: 1cde d53d 85c1 c6bd dbea bb3d 5351 bebd
00000080: 6149 c83d 0a4b b53d ecde c9bd bc76 c0bd
00000090: 38d6 e1bd c71b be3d d36c c5bd 18c7 d13d
000000a0: af3e b9bd ec7d c1bd 16d1 b73d 58d4 d2bd
000000b0: e636 ba3d 42d3 dc3d 99f5 b63d 53a1 bebd
000000c0: c3fd c83d 62ac 9fbd 7724 d53d d39c c9bd
000000d0: 2338 c9bd 6cab cfbd a55a c73d 9b4a cc3d
000000e0: 2252 c73d b4a0 a6bd d5ea cc3d 97b2 bbbd
000000f0: 0710 c53d aa98 ccbd f8dd 8f3d 739b c63d
00000100: 45a1 c93d 46e1 cbbd 031f c7bd c817 d13d
00000110: a783 a1bd cf86 a4bd e4c3 d43d 4e30 bfbd
00000120: 9042 c33d da35 d7bd a14f dabd 7fa5 c13d
00000130: b23f c8bd 1dfe ddbd da59 c0bd 809a d3bd
00000140: 46aa a2bd 28a4 91bd 42ac b9bd 896b c5bd
00000150: 2891 bdbd e147 bf3d 2b48 b6bd 42ef 99bd
00000160: e2d7 ba3d 05a6 d7bd 1af8 afbd d1d6 a9bd
00000170: 6d20 cbbd 4a1c e03d d43f c8bd f277 d73d
00000180: 6da2 cfbd 1a9f e5bd b929 9d3d c519 c0bd

fc1.weight f4 [100, 14]
0.19847167 0.17723925 0.12213345 0.25046107 0.11563139 0.14383304 -0.12785852 -0.17092735
0.08084095 -0.063213065 0.13825727 0.21408552 -0.13690431 0.25649273 -0.140998 -0.09136925
0.0724586 0.11422042 0.10363014 -0.25828224 0.16732843 0.26568344 -0.11233464 -0.07758771
-0.14850287 -0.0118993735 -0.22445445 -0.082008205 0.036784988 -0.011546934 -0.17604949 -0.0066578416
-0.2125012 0.07880994 0.12690847 0.15229662 0.19382149 0.04590692 0.12328544 0.25269186
-0.16163737 0.10845454 -0.017189743 -0.2389265 -0.18190876 0.14341544 -0.05086955 0.10936295
0.1845455 0.19991569 -0.24629343 0.18696517 0.21462403 -0.24975544 -0.20951061 0.19102941
-0.26671022 -0.087501265 0.10391396 -0.08069204 0.020022877 -0.14955921 -0.15130977 0.02017178
0.16551189 -0.09289552 0.11819912 -0.21797074 -0.2703187 -0.0981073 0.07707077 0.17122655
0.08378313 0.17982058 0.21016404 -0.20819393 0.09738001 0.21677391 -0.05435865 -0.10684074
-0.058659967 0.18256676 -0.21501303 -0.04632259 0.07076046 0.20262298 0.16067098 0.26758486
-0.089572236 -0.2429134 0.20787007 -0.03675596 0.10333346 0.10659669 0.14667892 -0.13718481
0.024269894 -0.21241157 -0.008510176 0.09411088 0.16018489 0.16085242 -0.25448966 -0.17554972
-0.15201277 -0.17264396 0.19930731 0.13108845 -0.04582186 0.0033590859 -0.022689546 -0.056121115
0.2207039 -0.18281265 -0.07932022 0.009291931 -0.14633535 0.076584965 -0.030654503 0.07287349
-0.13090932 0.12121022 -0.06866313 0.16872658 0.26218453 0.25152445 0.25220147 -0.0068503134
0.122209825 -0.109014995 0.21754418 0.21432261 -0.18859145 0.22216983 0.041889783 -0.1662003
-0.14418378 0.22167493 -0.057093587 0.1798488 -0.07165125 0.22788666 -0.052131895 0.12870583
-0.20086277 0.24912077 0.25091523 -0.17634322 0.24859676 0.068320304 0.19215025 -0.100177616
0.1834633 0.0057812817 0.011144656 -0.1810265 -0.20756064 -0.020886011 -0.1367705 0.1915782
-0.22364809 -0.16801722 -0.08769764 0.091396764 0.17380819 -0.095163494 -0.22689833 -0.023342604
-0.07333806 0.2574811 -0.0137622235 0.2201143 -0.013276382 0.2608574 0.20228142 0.08072122
-0.039636087 -0.14270468 -0.16284738 -0.2326442 0.2496195 -0.13704942 -0.26301953 -0.14601405
-0.041639246 0.15995787 -0.06378986 -0.15382212 -0.26036724 0.10778018 -0.15354422 0.20761997
0.10794213 -0.19638973 -0.19029514 -0.049739752 -0.059305612 0.25803828 -0.22751902 0.054806586
-0.18763283 -0.13965033 -0.09720599 0.0172069 -0.022491409 -0.050880633 0.19870041 0.26485196
-0.18423569 0.22051199 -0.16008803 0.0930528 0.0003732495 0.046535354 -0.054021142 -0.13602664
0.014406284 -0.22525322 -0.012601965 0.067627415 -0.016175196 -0.08939755 0.21479142 0.07211028
-0.026892435 0.028609062 0.10395585 -0.16286136 -0.034285553 0.046746917 -0.18583317 -0.19823991
-0.121765696 0.1774549 0.073258236 0.16918103 -0.05094369 -0.0044531324 0.018170228 0.24746451
-0.2556983 0.12956995 -0.16390009 -0.07926644 0.13055651 -0.03939552 0.2378896 -0.0612389
-0.009690093 -0.24935193 -0.2493732 0.10334235 0.2406053 -0.13389435 -0.18668205 -0.058320124
00000000: 283c 4b3e 357e 353e 1a21 fa3d 6f3c 803e
00000010: 26d0 ec3d f848 133e 58ed 02be 9407 2fbe
00000020: f18f a53d da75 81bd 5093 0d3e 3c39 5b3e
00000030: a530 0cbe 0453 833e c861 10be cd1f bbbd
00000040: 2d65 943d 65ec e93d 0a3c d43d 923d 84be
00000050: 2558 2b3e a907 883e b40f e6bd 4ee6 9ebd
00000060: 2311 18be 97f5 42bc 63d7 65be ebf3 a7bd
00000070: dbab 163d 5a2f 3dbc 5146 34be 062a dabb
00000080: ea99 59be 1b67 a13d 4bf4 013e a5f3 1b3e
00000090: 2479 463e e508 3c3d 147d fc3d d460 813e
000000a0: 4484 25be 6a1d de3d 81d1 8cbc 26a9 74be
000000b0: 4a46 3abe 7fdb 123e 975c 50bd aff9 df3d
000000c0: 7ff9 3c3e b3b6 4c3e 5834 7cbe cc73 3f3e
000000d0: 67c6 5b3e e4bf 7fbe f389 56be 379d 433e
000000e0: 3e8e 88be dd33 b3bd d8d0 d43d de41 a5bd
000000f0: 0407 a43c 0d26 19be f3f0 1abe 4a3f a53c
00000100: f37b 293e 0240 bebd 6112 f23d b933 5fbe
00000110: 3667 8abe 7bec c8bd 48d7 9d3d 0356 2f3e
00000120: 7d96 ab3d e322 383e 3e35 573e ca30 55be
00000130: 2c6f c73d fbf9 5d3e 2da7 5ebd 51cf dabd
00000140: 6f45 70bd c8f2 3a3e 602c 5cbe c2bc 3dbd
00000150: dcea 903d 667c 4f3e ef86 243e e200 893e
00000160: a671 b7bd 4abe 78be e4db 543e 6b8d 16bd
00000170: 7ea0 d33d 5e4f da3d 0033 163e 2d7a 0cbe
00000180: a8d1 c63c 6b82 59be 446e 0bbc 34bd c03d
00000190: 8207 243e 7fb6 243e 784c 82be 4ec3 33be
000001a0: 3ca9 1bbe 94c9 30be 3717 4c3e 0d3c 063e
000001b0: b4af 3bbd 1c24 5c3b 6ddf b9bc 41df 65bd
000001c0: 3400 623e 3d33 3bbe a472 a2bd 2f3d 183c
000001d0: efd8 15be 94d8 9c3d 271f fbbc b23e 953d
000001e0: 180d 06be 103d f83d 419f 8cbd a9c6 2c3e
000001f0: 0d3d 863e d0c7 803e 8d20 813e 9878 e0bb
00000200: 2549 fa3d 4143 dfbd e7c3 5e3e 6377 5b3e
00000210: 1e1e 41be 7d80 633e 9f94 2b3d 6930 2abe
00000220: eaa4 13be c1fe 623e f7da 69bd 492a 383e
00000230: e4bd 92bd 1f5b 693e 4188 55bd 76cb 033e
00000240: f8ae 4dbe 8419 7f3e f677 803e 5193 34be
00000250: 2690 7e3e 84eb 8b3d 09c3 443e ec29 cdbd
00000260: cedd 3b3e e870 bd3b 1398 363c 035f 39be
00000270: c78a 54be 2419 abbc 910d 0cbe 132d 443e
00000280: 0104 65be b50c 2cbe d29a b3bd 3a2e bb3d
00000290: c6fa 313e 14e5 c2bd 0958 68be fd38 bfbc
000002a0: 4432 96bd 90d4 833e f37a 61bc a565 613e
000002b0: 2f85 59bc 1a8f 853e dc22 4f3e 2b51 a53d
000002c0: 7359 22bd 2d21 12be 77c1 26be 483a 6ebe
000002d0: 419c 7f3e af56 0cbe 7faa 86be b584 15be
000002e0: ea8d 2abd ffcb 233e 42a4 82bd 8c83 1dbe
000002f0: db4e 85be dbbb dc3d b23a 1dbe 549a 543e
00000300: c310 dd3d 641a 49be bbdc 42be e9bb 4bbd
00000310: 71ea 72bd 981d 843e bffa 68be df7c 603d
00000320: d222 40be 7f00 0fbe ef13 c7bd 7cf5 8c3c
00000330: e73f b8bc 3668 50bd 1f78 4b3e ad9a 873e
00000340: 48a8 3cbe e5cd 613e 1eee 23be 7792 be3d
00000350: b3b0 c339 db9b 3e3d 4645 5dbd 914a 0bbe
00000360: 5608 6c3c c8a8 66be 7978 4ebc 3e80 8a3d
00000370: d881 84bc 1016 b7bd 48f2 5b3e 8eae 933d
00000380: 864d dcbc 8d5d ea3c cee6 d43d 21c5 26be
00000390: 026f 0cbd b279 3f3d 0d4b 3ebe 67ff 4abe
000003a0: 4b60 f9bd bdb6 353e 6a08 963d cb3d 2d3e
000003b0: 55aa 50bd 95eb 91bb bbd9 943c 5667 7d3e
000003c0: e3ea 82be fcad 043e 6dd5 27be 7156 a2bd
000003d0: 9bb0 053e 325d 21bd 5599 733e a4d5 7abd
000003e0: 32c3 1ebc 1d56 7fbe b05b 7fbe 27a5 d33d
000003f0: 3c61 763e 9a1b 09be 9429 3fbe 15e1 6ebd
