mujoco/vail/save_model/ckpt_238.pth.tar (torch, 110947 bytes, 20 tensors)

fc1.weight f4 [100, 11]
000000 0d fe 36 3d 3d eb 63 be 27 40 22 3e 11 8d b9 bd
       0.044675875 -0.22257705 0.15844785 -0.090601094
000010 94 c8 41 3d 97 aa b3 3d ee 9f 52 be d3 ff 2f 3e
       0.047310427 0.08772772 -0.20568821 0.17187433
000020 3d f2 5d 3e 21 4d 58 3e c6 f1 d0 bc 48 02 9d 3e
       0.21674438 0.21123172 -0.025505912 0.30665803
000030 b3 99 d4 bd 47 20 3c 3d e8 69 84 be b3 87 82 3d
       -0.10380878 0.04592922 -0.2586205 0.06373539
000040 79 5d 8e 3d 25 f6 e5 3c 17 6a 90 3d ff ce 10 3e
       0.06951422 0.028071472 0.07051485 0.14141463
000050 1d c3 47 3e 35 ea 51 3e af a9 4f 3e 4f 6a c5 bd
       0.19508024 0.20499499 0.20279573 -0.096394174
000060 a5 ed 8f be af 9c 6f 3d 16 26 9f 3d d5 c6 54 be
       -0.28110996 0.058499034 0.07770936 -0.20778973
000070 52 ca 93 bd e5 06 5e 3e 1d 24 b0 bd dc 46 a2 bb
       -0.07216324 0.21682318 -0.08600638 -0.0049522948
000080 fa 4c 0e 3e 07 ff 7f 3e 1f e2 a1 be 02 ad 5f 3d
       0.13896552 0.24999629 -0.3161783 0.054608352
000090 5e 54 86 3e 95 cd 62 3d 68 85 a9 3d 21 8a 84 be
       0.26236242 0.05537184 0.08277398 -0.25886634
0000a0 50 ed a0 bd 7e a9 27 be ab 56 29 3e 8e da 70 be
       -0.07857764 -0.1637325 0.16536967 -0.23520872
0000b0 4f 5e 10 3e ae ab 41 3e 62 c7 56 3e 34 6c 88 be
       0.14098476 0.18913147 0.20974496 -0.26645052
0000c0 7a f5 ab bd 89 7b e5 3d 4a c7 57 be 77 53 46 bd
       -0.0839643 0.11205203 -0.21072116 -0.048419442
0000d0 25 52 65 3e d8 10 8f 3d 0b 71 81 3d d6 55 53 3e
       0.22394617 0.069856346 0.06320389 0.20638213
0000e0 46 b8 b0 bd e8 5c 2d bd a4 97 1b 3e dd e8 a9 3e
       -0.08628897 -0.04232493 0.15194565 0.33185473
0000f0 cb 65 da 3d 8f bd a3 3d 65 99 13 be 7c 9b 29 3b
       0.10663947 0.0799514 -0.14413984 0.002588003
000100 83 59 a9 bc 4c 8d 5c 3c 2f 4f 4f 3e 31 40 73 be
       -0.020672565 0.013461422 0.2024505 -0.23754956
000110 84 b4 6d 3e 11 93 73 be df de cc bd 78 b0 4f be
       0.23213392 -0.2378657 -0.10003447 -0.20282161
000120 e5 13 5b 3e 13 a7 35 bc 1c 80 d6 3c 21 c0 37 be
       0.21394308 -0.011087197 0.026184134 -0.17944385
000130 03 3b 32 be 3a 85 25 3d 04 b4 82 3e 24 a4 34 be
       -0.17405324 0.040410258 0.25527966 -0.1764074
000140 18 2d 2e be 66 de 8c 3e 1a fe 55 3d d4 41 a1 3e
       -0.1700939 0.27513427 0.052244283 0.31495535
000150 17 6b 0c bd fe ab 6b be aa 12 42 3e 90 9b 93 3e
       -0.034281816 -0.23014829 0.18952432 0.28829622
000160 26 be 08 bc 40 54 f5 3d be 0a 20 be 4a be b8 be
       -0.008346116 0.1197896 -0.15629098 -0.3608268
000170 d9 62 83 3e 99 c2 74 3e 63 06 3d 3e 31 81 39 be
       0.25661352 0.23902358 0.18459468 -0.18115689
000180 13 55 83 3e 53 22 0b be 77 57 1b 3e 83 37 2c bd
       0.25650844 -0.13587312 0.15170084 -0.042045128
000190 89 86 3b 3e 68 fb 32 bd 00 dd c4 3d ee 35 89 3e
       0.1831304 -0.04369679 0.09612465 0.26798958
0001a0 7f bd 87 be 58 7f 36 3e f7 fa 9d 3e e7 73 5a 3e
       -0.26511762 0.17822015 0.30855533 0.21333276
0001b0 c0 eb 11 3e 19 02 b4 bd b2 22 6b be de b8 60 bd
       0.14250088 -0.087894626 -0.22962454 -0.054863803
0001c0 ca 3b d4 bd b0 a0 5a be c4 fa 54 bd 0e 93 88 3e
       -0.10362966 -0.2135036 -0.05199696 0.26674694
0001d0 a7 ac f8 bd 79 1a 89 3e c8 90 06 3e a7 5c 66 3e
       -0.12142306 0.2677801 0.13141167 0.22496282
0001e0 7d f0 8d bd 4a 0d bd bd 8b f3 b0 bd c6 07 03 3e
       -0.06930635 -0.0923105 -0.08640202 0.12795934
0001f0 a0 a4 9f 3c ae 64 a2 3e fa 56 97 3e ca 78 15 3d
       0.019487679 0.31717438 0.29558545 0.036492147
000200 cf 4f 9e bd 4c 33 a0 bd 7d de ea bd 46 12 39 3e
       -0.07730066 -0.07822284 -0.114682175 0.18073377
000210 91 a2 40 bd c6 1d 7d 3e b8 5d 25 be eb 8f 0f 3e
       -0.047030035 0.24718389 -0.16149032 0.14019744
000220 a2 c1 4c 3e 49 86 01 be 36 a6 19 3c 12 d6 ed bd
       0.1999574 -0.12648882 0.009378007 -0.11613096
000230 61 1e 41 3e ae 60 d4 3b e4 cf 9d 3d 80 c0 2c 3e
       0.18859245 0.0064812517 0.077056676 0.16870308
000240 c0 ac cb 3d d8 c5 28 be 08 60 5a 3e fa 9b 09 be
       0.09945059 -0.16481721 0.21325696 -0.13438407
000250 e0 fe ab bd 79 63 ef 3c 74 bd 4e 3e be 41 56 3e
       -0.08398223 0.029222237 0.20189458 0.20923516
000260 8f d5 dc bd 88 7a 94 3c b9 b9 8f be 68 0e 50 be
       -0.107829206 0.018124834 -0.28071383 -0.20317996
000270 bf e1 3b 3e 5e 46 93 3e ff 9d 0c 3d 83 e4 ac bd
       0.18347834 0.28764623 0.034330364 -0.08442023
000280 9e 93 83 3e 40 ad 6d 3e 76 42 78 3c af de 0a 3b
       0.2569856 0.23210621 0.015152564 0.0021189859
000290 0a 28 32 3e 9a 0c 4a bd 05 67 fb bd 43 31 df 3d
       0.17398086 -0.049328424 -0.12275509 0.10898068
0002a0 f1 ef 23 3e 71 69 3b 3e 78 2e 46 3d a1 86 1b be
       0.16009499 0.18301941 0.04838416 -0.15188076
0002b0 ea 2c 67 bd 46 d5 63 3e 92 f7 06 3e bc c8 d8 bd
       -0.056439318 0.22249326 0.13180378 -0.10585162
0002c0 19 3d 27 3e 1f 81 93 be 93 29 da 3d 8e 49 82 3e
       0.163319 -0.2880945 0.10652461 0.25446743
0002d0 a5 6d 01 3e 1e 4e 84 3e 20 50 28 be 3e 74 8d 3e
       0.12639482 0.2584085 -0.16436815 0.27627748
0002e0 1f 10 8c 3e 82 96 34 3e 0b 91 90 3e a4 f7 7f bc
       0.2735605 0.17635539 0.2823566 -0.015623007
0002f0 8f c5 92 be c4 61 e2 3d b4 8d 9a be 0f 2b 17 3c
       -0.2866635 0.110538036 -0.30186236 0.009226575
000300 54 93 7b be ca 8a 28 3e 9b b6 d1 3d 47 d2 ba bd
       -0.2456792 0.16459194 0.10239907 -0.091221385
000310 48 1f 5c be 2e 23 0d be 74 20 9b 3e 5d 86 65 3e
       -0.21496308 -0.13782951 0.30298197 0.22414537
000320 32 cf 6f 3e 2a 7a f9 bd ad ec c3 bd 36 0a 1d 3e
       0.23418882 -0.12181504 -0.09566627 0.15335926
000330 21 59 12 bb 47 f8 bc 3c 83 65 3b be 45 b1 69 be
       -0.0022330957 0.023067607 -0.18300442 -0.22821529
000340 2b a3 7e 3e 44 11 a9 bd 8e 73 89 3e b2 34 79 be
       0.24866931 -0.08255246 0.26845974 -0.24336508
000350 d5 9a e1 3c ee 6c ad 3e 94 d9 99 be 55 ba 55 be
       0.02753965 0.3387217 -0.3004881 -0.20871861
000360 dc 0c 4f be 3c b1 47 bd 7a 93 fb 3d 92 45 a1 be
       -0.20219749 -0.04875301 0.12283988 -0.3149839
000370 d6 20 4d be 4d b6 43 be 24 1d c3 bd 5f 4e 65 3e
       -0.20032057 -0.19112511 -0.095270425 0.22393177
000380 88 5d 39 bd ae 88 61 3d 4c b7 06 be f8 5c 95 bc
       -0.045255214 0.05506199 -0.1315586 -0.018232808
000390 3a 35 f1 3c 3a 5d 0e be f6 c4 82 be 73 94 6c 3e
       0.029444326 -0.1390275 -0.25540894 0.23103504
0003a0 ad 0d 20 3d 6a e6 24 3e 31 f9 57 3e 24 94 94 3e
       0.039075542 0.16103521 0.21091153 0.29019272
0003b0 b5 a0 8b be a5 1b 03 be 57 44 8d 3d 0b 0f 8d bd
       -0.27271047 -0.12803514 0.068978004 -0.06887635
0003c0 8b a2 34 3e 8c 22 88 3c ab f9 67 3c 05 51 8d be
       0.1764013 0.016618036 0.014158647 -0.27600875
0003d0 de 47 2e 3e ad 9b 1a 3e 6a 7b 95 3e 83 67 81 3e
       0.17019603 0.15098448 0.2919572 0.25274286
0003e0 75 e5 0d be 8a 80 7b bd e1 49 15 bd a3 5e ca 3d
       -0.13857062 -0.06140188 -0.03644741 0.09881332
0003f0 53 90 7e be 87 fd 33 3e d0 ea 91 3d e9 52 72 3c
       -0.24859743 0.17577182 0.07124865 0.014790275

fc1.bias f4 [100]
000000 d9 99 f8 bd 29 42 95 be 7e d4 ee bd 17 c9 ae 3d
       -0.12138719 -0.2915204 -0.116616234 0.085344486
000010 97 d2 82 3d 12 e1 36 be 54 6d e8 bc 6b b6 9b bc
       0.06387823 -0.17859295 -0.028372444 -0.019007882
000020 16 cb 99 bd 7e d0 9e be b7 de c1 3d f9 2d 4b 3d
       -0.07509439 -0.31018442 0.094663076 0.04960439
000030 83 22 52 be d5 a3 2e 3e 53 15 fb 3d d3 fe 8f be
       -0.20520978 0.17054684 0.12259927 -0.28124103
000040 f6 49 3e 3e 7c fb 87 3e f4 89 54 be 34 4b c4 3d
       0.18582901 0.26559055 -0.2075575 0.09584656
000050 1f c7 45 3c cd 45 89 be a9 8c df 3d 9d 58 4a be
       0.0120714 -0.26811066 0.10915501 -0.19760366
000060 b0 07 ae 3d 74 bb f2 3d ac 1a 8f be 94 c9 33 be
       0.0849756 0.1185216 -0.27950037 -0.17557365
000070 0f 6a 78 3e 04 2a ef 3d e8 0a 32 be 08 ce 45 3d
       0.24259208 0.11677936 -0.17386973 0.04829219
000080 3d f7 55 3e 8d 9f 55 3e 71 fb ab be e8 85 4a 3d
       0.20895095 0.20861645 -0.33590272 0.04944411
000090 c9 ac 0f 3e 20 e5 c4 3d 54 f3 10 be 9d b5 08 3e
       0.14030756 0.096140146 -0.14155322 0.1335053
0000a0 9d c7 40 3e 3f 3b 9d 3e ae db 87 3c 4d e1 a0 be
       0.18826146 0.30709264 0.016584244 -0.3142189
0000b0 96 8a 58 3d 2b 41 4c 3c f6 2a 68 be f3 7b 81 be
       0.05286654 0.012466709 -0.22672638 -0.25289878
0000c0 22 f1 27 3e d6 e1 a8 3e c2 07 c6 3d 80 25 96 3e
       0.16400579 0.329848 0.096694484 0.29325485
0000d0 9d c8 79 be 9e 41 34 be 7c dd 97 bc 5f 55 37 3e
       -0.24392934 -0.17603156 -0.01853823 0.1790366
0000e0 14 ec 94 3b 1a bc 9f 3e b6 20 63 3e 67 8d 73 3e
       0.0045447443 0.31198198 0.22180447 0.2378441
0000f0 55 82 4e be 6b c2 83 3e 7f 6c 4e 3e f7 ba c7 3d
       -0.20166905 0.25734267 0.20158575 0.097524576
000100 12 e4 81 bd 73 b6 75 be 26 67 12 bd 65 95 93 bd
       -0.06342329 -0.2399538 -0.0357429 -0.07206229
000110 82 92 8a 3c 40 2a 59 bd 4d 68 a0 3e c3 36 a2 bd
       0.016915563 -0.05301881 0.31329575 -0.07920601
000120 90 2e 0e 3e 78 ef 9d 3d f2 05 98 be e6 50 80 be
       0.1388495 0.07711691 -0.29692036 -0.2506172
000130 32 b1 2c 3e 3a cd 2c 3e 67 e0 95 3e 66 3e 9f 3e
       0.1686447 0.16875163 0.29272768 0.31102294
000140 8e a1 8d be db 52 74 be c2 a1 6d 3e 68 f0 24 3e
       -0.2766232 -0.23859732 0.23206237 0.16107333
000150 e5 83 99 3e 64 34 99 be 08 59 0d be 96 1c 89 3e
       0.2998344 -0.29922783 -0.13803494 0.26779622
000160 ec d5 6f 3e 90 2f 21 3a 98 c4 81 3e d1 89 82 3e
       0.23421448 0.000614875 0.25345302 0.2549577
000170 ea f5 13 bc b5 0d 53 3e 1d e1 42 be d6 22 46 3e
       -0.009030798 0.20610698 -0.19031186 0.19349226
000180 2a 1d 94 3e 9a 23 e4 bc 5c c3 4d 3e 96 23 94 3e
       0.289285 -0.027849007 0.20094055 0.289334

fc2.weight f4 [100, 100]
000000 94 eb 46 bd d8 05 9c 3c 01 d1 4c bc 42 47 31 3d
       -0.04856451 0.019045755 -0.012501002 0.043280847
000010 eb 2d 13 3d 7f ba 2f bc 32 ea d5 bc 52 fa 2f 3d
       0.035932463 -0.0107256165 -0.02611265 0.042963333
000020 f3 82 d1 bb 02 8e ac bd 45 e7 81 3d 2f 9f 14 bd
       -0.006393784 -0.08425523 0.06342939 -0.03628462
000030 bd 2d ee bc 75 73 aa 3d 84 7e 9a 3d f5 d8 77 3d
       -0.029074544 0.08322803 0.07543662 0.06050964
000040 69 44 e5 bc 9b cf 86 bc 49 63 54 bc 65 c0 bf 3d
       -0.027986722 -0.016456416 -0.012963125 0.09362868
000050 c2 24 94 bd d7 a4 d4 3d c7 15 4b 3d 5d 0f f1 3c
       -0.072335735 0.10383003 0.049581315 0.029426271
000060 99 65 34 bd db 28 af bc e6 d0 1a bd 48 00 07 bd
       -0.044042204 -0.021381786 -0.037796877 -0.032959253
000070 9c 23 43 bd 32 8a 70 bd 57 9e cf bc 4e ec 1c bd
       -0.04764138 -0.058725543 -0.025344057 -0.038311295
000080 da e7 ba 3d b5 20 6a bd 50 94 9e 3d 02 97 84 3d
       0.091262534 -0.057160098 0.07743132 0.06474115
000090 08 56 ce bd c2 60 fa 3d 3e b6 88 3d ec 0d 7e bd
       -0.10075003 0.12225486 0.06675385 -0.062024996
0000a0 16 be be 3c a8 a3 62 3d 91 10 5c 3d 02 cc 1d bc
       0.023284 0.055331856 0.053726736 -0.009631159
0000b0 09 d1 e4 3d 80 85 c0 3d 4c 1d 80 bd 18 c6 d2 bc
       0.11172683 0.09400463 -0.06255588 -0.025729224
0000c0 29 38 b7 bd 16 a4 40 bd ee e6 b5 bc 33 41 b5 bd
       -0.089462586 -0.047031485 -0.022204842 -0.088503264
0000d0 49 2e 48 3d b5 0f 2d 3d 6c 01 b1 bd 76 0d c8 bc
       0.048872266 0.042251308 -0.08642849 -0.024420481
0000e0 dd 27 22 3d 3f 77 93 3d 62 42 a7 3d f8 03 6b 3b
       0.039588798 0.07200479 0.081669584 0.003586052
0000f0 ea 96 5a 3c 32 03 8c bd e4 f2 bc 3d 4c ce e7 3b
       0.013341645 -0.06836547 0.09226015 0.007074153
000100 7d 74 15 3c 4a ac c0 3c a4 f7 8b 3d 6f cd d8 3c
       0.009122011 0.023519654 0.06834343 0.026465146
000110 e9 85 be 3d 49 5c 35 3d 35 b0 29 bd 23 9c 8f bd
       0.09302885 0.044277463 -0.04142781 -0.070122026
000120 d9 b4 8c 3a e7 f0 4a 3d 3e 71 78 3d b3 2c 76 bd
       0.0010735049 0.04954615 0.06065487 -0.060101222
000130 f9 12 f3 bd f8 3d 3c 3d a7 d5 64 3d 3d 8f 9e 3d
       -0.11868853 0.045957536 0.055867817 0.07742164
000140 da 13 d1 bb f5 d9 65 bc 71 f5 25 bd 88 36 7d 3d
       -0.0063805403 -0.014029016 -0.040517274 0.061819583
000150 a0 4f c9 3d d6 6a 06 3d d4 9b ab 3d 35 87 36 bb
       0.098296404 0.03281673 0.08379331 -0.0027851586
000160 30 99 86 bd e1 e7 99 3d 28 e4 40 bc ea bb 52 bd
       -0.06572187 0.075149305 -0.011773147 -0.05144874
000170 00 14 cc bc 82 51 0b bd b1 99 ec 3c 8b 57 0a 3d
       -0.02491188 -0.03401328 0.02888188 0.033774894
000180 de 14 e9 3c c6 25 8b bd 19 76 bf bc 20 85 dc 3d
       0.028452333 -0.06794314 -0.023371743 0.10767579
000190 a2 c1 9c bd 4e 7b 8a bd cc c5 b9 3d 36 99 a2 3d
       -0.0765412 -0.067618 0.0907093 0.07939379
0001a0 6b 7a 21 bd 14 b0 8c bc 97 7c b9 3d 30 cf 93 3d
       -0.039423387 -0.017173804 0.09056967 0.07217252
0001b0 61 ca 12 bb 42 05 46 3d dc 9c cd 3d 89 61 97 bd
       -0.002239846 0.048344858 0.10039684 -0.0739165
0001c0 42 e2 5c bd 4e 1e 3b 3d bd 3d e2 3d 6c ba 6f 3d
       -0.053926714 0.045683198 0.11046932 0.058527395
0001d0 f9 7d b4 3d 4c 6f 57 3d 9e 67 dd 3a a1 43 e7 bd
       0.0881309 0.052596375 0.0016891842 -0.11292196
0001e0 b6 9b c6 bd 5a 15 aa 3d 80 02 ea 3d 6a 4f 16 bc
       -0.09697668 0.08304854 0.11426258 -0.009174207
0001f0 d6 6d 05 bd 6f 63 f9 3c 4e 76 3e bd 0f 05 97 bd
       -0.03257545 0.030442921 -0.046499543 -0.07374012
000200 d1 7b 93 3c 00 28 c5 3d 7b a8 a6 bd 32 97 41 bd
       0.018003376 0.0962677 -0.08137604 -0.04726333
000210 a5 2a dd 3a aa 29 fc 3b e9 c3 34 3d 14 5f 36 bd
       0.0016873671 0.0076953964 0.044132147 -0.044524267
000220 85 97 ba bd 34 9f a5 3d 55 8c 86 3d e5 a6 0a 3c
       -0.09110931 0.08087006 0.06569735 0.008462642
000230 84 f4 21 bc b5 c6 a3 bd ea 92 b3 bd 7d 30 92 3d
       -0.009884957 -0.07996885 -0.08768256 0.07138155
000240 93 16 90 bd 08 b5 8f bd 0d 19 dd 3c 40 33 a2 bd
       -0.07035556 -0.07016951 0.026989484 -0.079199314
000250 e0 f6 f0 bc 6c aa a8 3d a7 63 fa 3c 95 49 ad bc
       -0.029414594 0.082356304 0.030565096 -0.02115325
000260 be e9 48 3d 26 5b d7 bc 0f 59 8f 3d d4 9e 4d 3d
       0.04905104 -0.02628858 0.069994085 0.0502003
000270 6b 76 80 3d 77 04 c2 3b 37 00 16 3d 6f 1b 4e 3d
       0.062725864 0.0059209424 0.0366213 0.05031913
000280 68 95 28 bd 59 11 bc bc 4c 98 af bc ca 00 dd 3d
       -0.04115811 -0.02295749 -0.021434925 0.10791166
000290 d5 09 5d bc 17 cc e7 bd 49 82 b0 bd df ef 46 3d
       -0.013491114 -0.11318224 -0.086186 0.048568603
0002a0 0e 62 a2 3d b8 b9 a1 3d b9 1d 21 3d 57 95 ae bc
       0.07928859 0.07896751 0.039334986 -0.021311445
0002b0 09 fd 45 bb 86 33 0a 3c 64 17 a6 3b 47 8d bf bd
       -0.0030210635 0.008435136 0.0050687063 -0.093531184
0002c0 8e ba e9 3c a0 5b 8f bd d3 4c 13 3d 16 97 c4 3d
       0.028531339 -0.06999898 0.035961937 0.0959913
0002d0 10 ed 39 bd 59 63 bb bd 2c 63 82 bd 33 be b3 bd
       -0.045392096 -0.091498084 -0.06366572 -0.08776512
0002e0 bd c8 78 3d a9 6f 89 3d 0d ba 3f 3d 5c 9c c5 bc
       0.060738314 0.067107506 0.04680829 -0.02412241
0002f0 cf 67 76 bd ea 86 a0 3d a7 a1 5a 3d 4f 16 68 3c
       -0.060157593 0.07838233 0.05337682 0.014165475
000300 f9 45 ff bc 61 81 86 3d 4c 4c a1 bd 23 0f 91 3c
       -0.031161295 0.06567646 -0.078758806 0.017707413
000310 67 b1 93 bd 45 22 ca bc 0a 7d 79 bc 3b 62 96 bd
       -0.07211571 -0.024674544 -0.015227566 -0.07342955
000320 83 ca ae 3d 1a a4 82 bc 22 7a 93 3d 50 1f 8c 3c
       0.0853472 -0.01594739 0.07201029 0.017104775
000330 11 46 58 3c 64 54 b7 bc ea fb 12 3d e9 43 8e bd
       0.013200299 -0.022379108 0.035884775 -0.069465466
000340 ae f8 01 bd a8 31 df 3c d1 e4 bf bd 98 55 c2 3d
       -0.0317313 0.027245358 -0.09369815 0.09488982
000350 29 07 3c bd de 91 b2 bc 8b 20 2d 3d 90 77 dc bd
       -0.045905266 -0.02179807 0.042267364 -0.10764992
000360 74 bc cc 3c df 1a 94 3d c9 34 10 3d a6 f8 71 3d
       0.024992205 0.07231688 0.03520659 0.05907502
000370 67 9c b9 3d be ad d4 bd de b4 d4 3d 36 17 3d 3d
       0.090630345 -0.10384701 0.1038606 0.046164714
000380 25 6a 45 bc 23 d2 1e 3d b8 15 96 bd 16 83 be 3b
       -0.012049233 0.03877462 -0.07328361 0.0058139665
000390 09 67 c5 bb fe 75 78 3d b0 ab 57 bd 35 63 52 3d
       -0.0060242456 0.0606594 -0.05265397 0.051364142
0003a0 10 78 84 3b 59 c4 97 bd 27 65 99 3c 91 21 a4 bc
       0.004042633 -0.07410497 0.018724991 -0.020035537
0003b0 c2 eb f1 bc 16 72 c6 bc 73 37 0e 3b b5 3d dd 39
       -0.029531363 -0.024224322 0.002170053 0.0004219838
0003c0 25 bb 24 bc aa 2f 2f bd 54 d7 14 bd c0 41 81 3d
       -0.010054384 -0.042770065 -0.036338165 0.06311369
0003d0 af 58 d1 3c 14 52 c6 3c 22 4f 49 3d 4a c2 7e bd
       0.025554983 0.02420906 0.049147733 -0.062197007
0003e0 33 ee f7 bd aa e6 5f bd c0 5c 78 3d 54 1a 82 bd
       -0.1210598 -0.054663338 0.06063533 -0.06352678
0003f0 ae 51 ee 3b 6f fe a2 bc 2e b9 5f bd 48 b0 a3 bd
       0.0072729206 -0.019896714 -0.05461996 -0.07992607

fc2.bias f4 [100]
000000 76 e0 20 bd eb 6b 3e 3d d9 af 8e bd 23 37 da bd
       -0.039276563 0.046489637 -0.06967134 -0.10655048
000010 8f 90 f0 bb e6 4e 61 3c 4f a2 e1 3d c2 5b 04 bb
       -0.0073414515 0.013751721 0.11017286 -0.0020196293
000020 be 28 ac 3b b2 97 cd bd 85 ff 0e 3d 03 e9 ed 3d
       0.0052538803 -0.10038699 0.03491165 0.11616709
000030 32 d1 98 bd 64 a5 8a bd ee c1 a3 bd 4e ea 86 bd
       -0.07461776 -0.06769827 -0.079959735 -0.06587659
000040 b2 fb ad bd db 29 d3 3d ec 38 9a bd 27 b6 a6 3d
       -0.08495273 0.10310718 -0.07530388 0.081402116
000050 3b 18 94 3d 38 bb 77 3d 76 3e b7 bc 53 a1 8f bb
       0.07231184 0.06048128 -0.02236865 -0.004383245
000060 c0 bd b4 bc b6 3a 9d 3d b8 62 93 bd 37 ed 8e 3d
       -0.022063136 0.07677214 -0.071965635 0.06978839
000070 dc c8 b1 bd 23 04 a3 3d e0 84 c6 bb 88 53 ff 3c
       -0.08680889 0.079597734 -0.0060583204 0.03116776
000080 0a b2 61 bd 60 33 9e 3d f3 d1 71 3d a3 5c 34 3d
       -0.055101432 0.07724643 0.059038114 0.044033658
000090 e7 6c b7 3c c2 26 f8 bd c4 7c cc bd 70 c9 43 bd
       0.022390796 -0.121167675 -0.09984735 -0.047799528
0000a0 a2 7b 96 bb 61 19 a8 3d 01 b5 90 bc 8b 10 44 3c
       -0.004592375 0.08207966 -0.017664434 0.011966835
0000b0 e5 46 59 3d 55 e7 54 bd 79 88 6a bd 33 a2 ba bd
       0.053046126 -0.051978428 -0.057259057 -0.09112968
0000c0 dc 1d 12 3d 88 ac a7 3d 95 cd aa 3c 76 40 9c bd
       0.035673007 0.081872046 0.020849982 -0.076294824
0000d0 84 eb fa 3d a4 f4 e0 bd a1 6e 93 3d 65 a3 be 3d
       0.12251952 -0.109841615 0.07198835 0.09308509
0000e0 82 58 93 bd 50 d2 ad bb a4 9a 5f bc 3f 8b e4 3b
       -0.07194616 -0.005304612 -0.013647709 0.0069746072
0000f0 fe df 5b bd 12 14 99 3b 89 2d 6d bd ae ae 33 3d
       -0.053680412 0.004671582 -0.057904754 0.04386776
000100 c3 de 26 bd 30 f5 8f bb fd 48 93 bc 0c 09 37 bd
       -0.040739786 -0.0043932423 -0.01797914 -0.044686362
000110 db e1 44 bd c6 ac 36 3d e5 c3 79 3d bd e5 14 bd
       -0.048066955 0.044598363 0.060977835 -0.036351908
000120 b4 74 61 3d 7e c2 70 3d 11 15 a3 bd 34 30 64 3d
       0.055042937 0.058779232 -0.079630025 0.055710033
000130 7c 3e e4 bc 87 21 36 bc 9d fe 94 bd e1 1b 3a bd
       -0.027861826 -0.011116392 -0.07275126 -0.045436744
000140 d5 cf 47 3d 2f 0e 9f bd b2 f6 4a bd 16 44 18 bd
       0.04878219 -0.07766377 -0.049551673 -0.037174307
000150 55 4e b3 3d 1f f9 1f 3d a1 9d 68 3c 39 71 5d bd
       0.08755175 0.03905594 0.014197738 -0.054063056
000160 1a 15 d7 3d ad e8 5c 3d b2 b3 b9 3c 41 c1 84 bc
       0.10502072 0.053932834 0.022668693 -0.016205432
000170 5e e0 8b 3c 22 94 51 bd 82 e1 8b bd 52 ef 08 3e
       0.01707476 -0.05116666 -0.068301216 0.13372543
000180 41 cc 05 3e 68 7a b6 3d 22 f6 48 bd 70 53 3d bd
       0.13066198 0.08910066 -0.049062856 -0.04622215

fc3.weight f4 [3, 100]
000000 72 6d 90 3b c3 42 a8 3a 2e 24 27 bc cd 66 25 bd
       0.004407578 0.0012837279 -0.010201497 -0.04038124
000010 17 29 f5 3c 2a b6 4e 3d 31 92 7a 3c a2 07 f4 bc
       0.02992682 0.050466694 0.015293644 -0.029788796
000020 cb 6f 1c bc 61 db 2b bd 93 df 4d 3c c6 48 8e 3c
       -0.009548138 -0.041957263 0.012565511 0.017368685
000030 cb a9 a5 bc 9d 85 bd bb 06 bd f8 bb e5 87 a2 ba
       -0.020222565 -0.00578375 -0.0075908927 -0.0012400119
000040 94 3c e1 bc f7 73 81 3d ad a5 0a 3c 77 8a 02 3d
       -0.027494706 0.06320947 0.008462352 0.03187033
000050 e9 ef 0f 3c 31 15 ed 3b 38 41 8c bc b8 67 3b bc
       0.008785226 0.007235192 -0.017120942 -0.011438303
000060 9f 66 c0 bc 89 1c 5b 3c 2c 6b ad bc 7d fa 0e bc
       -0.023486434 0.0133735025 -0.021169268 -0.008726713
000070 2b ee 11 bd 31 5b fd 3a f3 cb bf bc 33 6f ed bc
       -0.035627525 0.0019329545 -0.02341268 -0.028983688
000080 d0 93 04 3d 2b 58 76 3c 24 16 06 3c 27 eb bf 3c
       0.032367527 0.015035669 0.00818399 0.023427559
000090 d0 56 9d bc fa e4 0a bd 7e f5 c9 bc d7 18 c4 3c
       -0.019206434 -0.033909775 -0.024653193 0.023937626
0000a0 26 2a 0c bb 1d 32 09 3d 80 60 3f bc 78 e8 fd bb
       -0.0021387427 0.033495057 -0.011680722 -0.0077486597
0000b0 d5 72 ae 3c 2d 76 2e 3d 73 2b 38 bd 2a 86 4a bc
       0.02129499 0.04259317 -0.04496331 -0.012361089
0000c0 61 da b2 bc d8 b7 ae 3c bb 8e 0e bd 8f 7b e7 3b
       -0.021832647 0.021327898 -0.034804087 0.00706429
0000d0 3c b6 96 3c 4f e7 02 bd 35 ec 7a bb a2 13 97 3c
       0.018397443 -0.031958874 -0.0038287763 0.018441979
0000e0 45 86 2d 3d 42 cc 0d bd 37 77 93 3c c5 30 7c 3c
       0.042364378 -0.034618624 0.018001182 0.015392487
0000f0 0b a6 84 3b f3 70 9e 3c aa 45 7e bd 10 da ab 3b
       0.004048114 0.019340968 -0.062078156 0.005244501
000100 1c 5b c2 bb 0e dc 37 3b ba 0d 26 3c 2c 16 2d bc
       -0.0059312712 0.0028054747 0.010135109 -0.010564368
000110 6d 22 02 3d 35 b5 74 3b aa b6 e7 3b c3 d7 84 bc
       0.031771112 0.0037339453 0.007071336 -0.016216164
000120 69 d4 02 bd 08 97 b9 3c 2a bb 99 3c ee 1d 97 3c
       -0.03194085 0.022655025 0.018766005 0.018446889
000130 3a 59 20 3d 78 68 83 bc 29 89 5f bc 0a 74 a0 3b
       0.039147593 -0.016041026 -0.013643541 0.0048966454
000140 71 a0 b7 3b 2f 41 58 ba 18 11 79 bc ab d0 86 3c
       0.005603843 -0.0008249459 -0.015201829 0.016456923
000150 31 dd be 3b bf 9d 24 bd a5 df 1f 3d 45 0c 29 3a
       0.005824708 -0.0401895 0.039031643 0.00064486667
000160 01 ce bb 3b e4 55 77 bc 70 3a da 3c f0 7b 20 3b
       0.0057313447 -0.0150961615 0.026639193 0.0024487935
000170 3c 1a 33 39 42 1f 45 3d 96 50 a7 bc fc 42 1e 3d
       0.00017080543 0.048125513 -0.020424169 0.0386381
000180 7f 62 d3 3c b0 c3 d3 3a e8 10 81 3c 76 24 02 3d
       0.025803803 0.0016156342 0.015755132 0.031773053
000190 88 a3 80 bc e5 80 7b bb 04 53 16 3c e6 37 1d bd
       -0.015702978 -0.0038376388 0.009175066 -0.038383387
0001a0 07 fe ff 3b 40 1b b3 bc 50 60 1a 3b 7b b0 60 3c
       0.007812265 -0.02186358 0.0023555942 0.013713951
0001b0 b7 27 79 bc b5 cf 26 bc 0a 6a 3a 3c 18 9c 8f 3c
       -0.015207223 -0.010181357 0.011377821 0.017530486
0001c0 75 57 17 bc e2 11 86 bd 44 7a 38 bd b9 3a 11 bd
       -0.00923716 -0.065463796 -0.045038477 -0.035456393
0001d0 21 00 2e bc 0a 18 50 3d a9 3d 57 bb 21 44 50 3d
       -0.010620148 0.050804175 -0.0032843149 0.050846223
0001e0 b1 96 07 bd 9c f3 6c 3c 1b 02 04 bd dc 63 56 bc
       -0.033102695 0.014462378 -0.03222857 -0.013085332
0001f0 d0 07 51 3b c9 2e f6 bb d6 e2 36 bc 99 a4 b1 3c
       0.0031895526 -0.0075129014 -0.01116248 0.021684932
000200 ab dc d9 bc 8f a8 18 3d ae 36 06 3d e5 68 11 3a
       -0.02659448 0.037270125 0.03276699 0.00055469415
000210 1f d8 4a 3c 42 9d 6b 3c 85 b6 6a 3c fe c4 17 bc
       0.012380629 0.014380755 0.014325743 -0.009263275
000220 13 c0 fa bc fa 46 0d bd 0f 35 42 bd 91 4a 15 3c
       -0.030609166 -0.034491517 -0.047413882 0.009112016
000230 b6 cc ac bc 7a d1 26 bd c6 c7 28 3b 62 f0 1a bc
       -0.021093708 -0.040727116 0.002575384 -0.009456726
000240 b3 2f bd bb 62 75 5c 3c 94 49 e6 bc 65 23 fd bc
       -0.0057735085 0.013455721 -0.028111257 -0.030900666
000250 88 56 28 3c 20 02 31 3c 89 4b 1c bd 68 a2 b9 bc
       0.010274537 0.010803729 -0.038157973 -0.02266045
000260 d1 52 a9 3c 43 34 1c bd d1 84 0d 3c 9c 5d ac 3c
       0.020669373 -0.03813578 0.008637623 0.02104073
000270 b8 df 7b bb 41 ed 22 bd 63 07 00 bc 60 eb 73 3d
       -0.0038432907 -0.039777044 -0.007814261 0.059550643
000280 73 9b 5e bc d6 a0 e0 bb 7c 64 2f bd 13 6c cb 3b
       -0.013586867 -0.0068551106 -0.04282044 0.006207952
000290 bb 1f 8d 3c 45 a5 31 bb d9 59 b8 bc 0b 3a 76 3c
       0.017227044 -0.0027106565 -0.02250378 0.015028487
0002a0 85 ab d2 3c 0b ed f9 3c eb fa c8 bb dd e2 5b bb
       0.025716553 0.030508539 -0.0061334274 -0.003355197
0002b0 4b 11 06 3c 52 a1 dc 3b 0f 36 16 bc 07 0f c9 3a
       0.008182834 0.006733098 -0.009168162 0.0015339562
0002c0 44 00 37 3d 77 06 66 bd 55 35 2d 3c 92 6e 14 3d
       0.044677988 -0.05615851 0.010571797 0.03623826
0002d0 90 b2 b8 3c 62 24 2c 3c 7b 07 12 bd 83 c8 d4 bc
       0.022546083 0.010506721 -0.035651665 -0.025974518
0002e0 e2 8d 5e 3a 1e c7 82 ba 10 e1 ed 3a 52 2a 1c bd
       0.000848977 -0.0009977554 0.0018148739 -0.038126297
0002f0 ed 2f 11 3d 45 3d 01 bd 5d 45 35 bd 44 a8 43 bc
       0.035446096 -0.03155257 -0.044255603 -0.011941973
000300 5d ba 2d bd f5 e1 8b bc 30 5a 22 3d 72 9f c1 3b
       -0.042414058 -0.017075518 0.03963679 0.0059089
000310 1a 31 aa 3c 42 d8 0f 3d 63 74 6f 3c dd bd 07 3d
       0.020775367 0.03511835 0.014615151 0.033140052
000320 70 b8 19 3b e8 dd b8 bb 8a 1b 60 bc 5e 00 25 bb
       0.002345588 -0.0056416877 -0.013678441 -0.002517722
000330 cb 44 12 3d 12 79 cf bc ff f0 79 bc 5d 79 ba 3c
       0.035710137 -0.025326286 -0.015255212 0.022762949
000340 54 71 10 3d 05 12 4a 3c f7 02 b2 3c 46 4f ab b9
       0.035264328 0.012333398 0.02172993 -0.00032674725
000350 6f 1d b2 3c 9d 98 d2 bb a8 0b bf 38 60 0c 15 3d
       0.02174255 -0.0064268843 9.109761e-05 0.036388755
000360 18 00 44 3d e5 d6 00 bc 9c 72 e8 3c 09 bf 14 3c
       0.047851652 -0.007863735 0.028374963 0.009078749
000370 4b 8c 53 bc e0 6a 49 3d 4a 15 77 3c 4e e4 e3 bb
       -0.012911866 0.04917419 0.015080759 -0.0069547063
000380 16 de 6e bc 62 fa 82 bb 8f 80 14 bd ad 4f 08 bd
       -0.014579317 -0.003997133 -0.036255416 -0.03327911
000390 fa 16 9b ba 8b 89 2d bd c2 ac 76 bc 65 66 3e bc
       -0.0011832409 -0.0423675 -0.015055837 -0.011621092
0003a0 df 71 98 3c e8 61 93 3c 74 b4 6b bd 60 9c d8 bb
       0.018608985 0.017991021 -0.05754514 -0.006610438
0003b0 8a 52 8c bc 87 00 eb ba 0b 98 23 bd 2a 55 ee 3b
       -0.017129201 -0.0017929234 -0.03993992 0.007273336
0003c0 85 8c 9c 3c 3d c9 d1 3c de 0d da bb 21 90 17 3c
       0.019109974 0.025608653 -0.006654485 0.009250672
0003d0 65 7a fb 3b aa c5 8c 3c b1 ff 9e bc c4 c2 27 3d
       0.0076745027 0.017184097 -0.019409033 0.040957227
0003e0 2b 1e ff 3c 8f fe 07 bc b2 25 64 3b f1 29 12 3d
       0.031142315 -0.008300438 0.0034812507 0.03568453
0003f0 df 1f 1d bb 21 02 78 3c 42 14 eb bc ca 8c dc bb
       -0.0023975295 0.015137226 -0.028696183 -0.0067306506

fc3.bias f4 [3]
000000 f2 b5 e6 3c 18 0f b6 3c 4f 59 1b bb
       0.02816293 0.022223994 -0.0023704355

fc1.weight f4 [100, 11]
000000 47 0b 26 be 39 f7 1e 3e a4 ae 0e 3e f0 f7 3b be
       -0.1621524 0.15523995 0.13933808 -0.183563
000010 07 11 7d bc 5e 9d 95 3d 04 b4 f1 3d 3f b8 02 3e
       -0.015445954 0.07305406 0.118019134 0.12765597
000020 e9 7f 31 3e ec 3c 31 3e ba aa 61 3d d1 12 e6 bc
       0.1733395 0.17308396 0.05509446 -0.028085144
000030 7e e5 3b be db dd 36 3e a4 a0 98 3c 3d 3b d6 bb
       -0.18349263 0.17858069 0.018631287 -0.0065378235
000040 55 0a 10 be cb 80 43 be 7d 5d b5 3c b1 6b 55 bd
       -0.14066441 -0.190921 0.022139305 -0.052104656
000050 b4 51 c9 3d ff ce de 3d 99 79 91 bc 54 88 5d bd
       0.09830037 0.10879325 -0.017758178 -0.05408509
000060 61 94 37 be f0 b7 0d be 8f da 07 3e bc 0c 2c 3e
       -0.17927696 -0.13839698 0.13266967 0.16801733
000070 23 ea e3 bd 73 62 7a 3e 6c b7 63 bd 7d cc 5c 3d
       -0.111286424 0.24451618 -0.055594847 0.053905953
000080 12 f9 f3 3d b1 d8 10 3d 85 20 8b be 56 18 27 3e
       0.11912741 0.035362903 -0.27173248 0.16317877
000090 3c 36 0b bd 0e 74 ea bb f1 e0 54 bd 4c 67 dc 3d
       -0.03398727 -0.007154948 -0.051972333 0.1076189
0000a0 fb 21 86 3e 9e 76 4e be 95 04 76 3d ca 81 c9 bc
       0.261978 -0.20162436 0.060062964 -0.024598021
0000b0 f0 a9 8f be a5 ea 7f 3c 1a 2d 12 3e 85 4f 65 be
       -0.2805934 0.015619908 0.14275017 -0.22393616
0000c0 29 ba 84 bd c1 88 6b 3d cb 0f 7d bc f4 c8 03 3e
       -0.0648082 0.057503466 -0.01544566 0.12869626
0000d0 e5 36 b4 3c 2a cf 07 bd 19 c3 c5 bd b6 67 6b be
       0.021998832 -0.03315655 -0.096563525 -0.22988781
0000e0 d0 ca 24 3e 89 d8 b5 3d 10 1a b2 bd 36 32 6a be
       0.16092992 0.088791914 -0.08696377 -0.22870716
0000f0 36 0e 1a 3e 1d 59 09 3d 24 7c e9 3d cb 94 76 3e
       0.15044484 0.03353225 0.11400631 0.24080198
000100 3c 7c a2 bc 87 8f 03 3c 83 07 97 be 35 aa 92 3d
       -0.01983463 0.008029825 -0.29497918 0.07161371
000110 63 a9 3f 3e 5a 9a bd 3d 13 18 09 be 33 5c c5 bd
       0.1871696 0.09257956 -0.1338809 -0.09636726
000120 0d 9b 2a 3e bf 9c 12 be 9d 4e 5b 3d ed 80 d9 3d
       0.1666071 -0.14317606 0.05354177 0.10620294
000130 e7 9e 86 bc 16 d1 ea 3d 22 f5 1a 3e 34 5a 2e bd
       -0.016433192 0.11465661 0.15132573 -0.042566493
000140 86 5a 46 be fe 49 38 bd 84 88 11 bd 60 5d 17 be
       -0.1937047 -0.04499244 -0.035530582 -0.14781713
000150 82 b2 70 be 64 e0 81 3e a7 d6 82 be 45 3c 38 3e
       -0.23505595 0.2536651 -0.25554392 0.17991741
000160 db 81 6a be fd da b3 bd 96 82 75 be 98 f2 4b 3e
       -0.22901098 -0.08782003 -0.23975596 0.19916761
000170 97 82 62 3d e6 28 64 be c0 43 6f 3d 53 74 73 3e
       0.05530032 -0.22281227 0.05841422 0.23774843
000180 8a d8 8f be c3 06 f7 bd c5 e7 db 3d 57 1a b2 bd
       -0.28094894 -0.120618366 0.10737566 -0.0869643
000190 cd 84 07 3e 7e 2a 14 bd 98 be 8e bd 31 ea 7a 3e
       0.13234253 -0.036173336 -0.069699466 0.245034
0001a0 b7 23 49 3e 88 c3 6b 3e 6d c7 85 3e ed 9b 2c be
       0.1964253 0.23023808 0.26128712 -0.16856356
0001b0 64 e5 e9 bd 9f 85 cc 3d 82 5b af bd ba b1 fb bd
       -0.11420706 0.09986424 -0.085623756 -0.12289758
0001c0 8f 78 c4 bc a5 93 0d 3e a2 c4 ef 3d e9 e9 06 3e
       -0.023983268 0.13825853 0.117074266 0.13175167
0001d0 1f d7 af 3c f4 ba 84 bd a4 35 ef bd 79 35 4a 3e
       0.021464882 -0.06480971 -0.11680153 0.1974696
0001e0 58 a2 15 3c 94 93 12 3d 35 89 db 3c b1 23 21 3e
       0.009132944 0.035785273 0.026798824 0.15736271
0001f0 eb f1 82 3d 2d 11 52 3e a4 37 74 3e 6a 96 92 bd
       0.063937984 0.20514365 0.2384935 -0.071575955
000200 95 91 6f bd 11 39 55 3e 47 d8 89 3e bd b6 81 be
       -0.058488447 0.2082255 0.2692282 -0.2533473
000210 7d 20 0f 3e a6 86 53 3e f6 a8 6d 3e f0 e2 b5 3d
       0.13977237 0.20656833 0.23208985 0.088811755
000220 10 20 10 be c2 d0 df bb e9 a3 d7 3d e5 20 00 be
       -0.14074731 -0.006830306 0.1052931 -0.12512548
000230 02 46 22 3e 69 e8 10 bd d2 a0 8e 3d da b7 31 3e
       0.15847018 -0.035377894 0.06964268 0.1735529
000240 19 70 69 bd 56 d5 ac 3d 7d 78 1d 3e 33 18 c2 3d
       -0.05699167 0.08439128 0.15377994 0.09477272
000250 6d a5 57 3e 0a 2a a0 3d 52 a6 25 3e f6 3a 59 3e
       0.21059199 0.07820518 0.16176727 0.21213898
000260 14 75 ee 3d ff 5b 76 3e 73 22 6c 3d 3a c8 0c be
       0.11643425 0.24058531 0.05765004 -0.13748255
000270 d4 4d 6b 3e 3c 4d ed 3d aa fa bb bd aa bf a0 bd
       0.22978908 0.11586997 -0.0917867 -0.07849057
000280 06 0f 44 be 05 4a 81 be f4 d4 2e be ee 87 1b be
       -0.19146356 -0.25251785 -0.17073423 -0.15188572
000290 2e 6d f6 3d 94 3e 79 3d db dd 8e be 2f 49 48 3e
       0.12032543 0.060850695 -0.27903637 0.19559167
0002a0 ca b0 b7 bd 12 9e 64 be 3c 24 b5 bd 1f 0a 12 3e
       -0.08969267 -0.22325924 -0.08844802 0.14261673
0002b0 3a 19 59 3e 9c ba 6c be 75 16 ba bd cb ba 83 3d
       0.2120103 -0.23118061 -0.090863146 0.06432112
0002c0 63 aa 84 be cd c5 fe bd 3b d1 8f 3e fa bf 8f be
       -0.25911245 -0.12440071 0.28089318 -0.28076154
0002d0 b2 10 99 bd a7 fb f6 bd c4 af 46 be d5 a9 1c be
       -0.074738875 -0.120597176 -0.19402987 -0.15299161
0002e0 51 4e 5f be 60 41 c2 3d 98 c0 07 3e 24 b6 3f 3e
       -0.21807219 0.094851255 0.13257062 0.18721825
0002f0 ef af b5 3c 20 2e 3f be 56 43 27 3d 0b 3a 46 bd
       0.022178618 -0.18669939 0.0408357 -0.048395198
000300 a7 96 ae 3d 15 20 b6 3d 64 a0 66 be f9 d4 57 bd
       0.085248284 0.08892838 -0.22522122 -0.05269334
000310 42 92 02 3e 7e 72 3e be f4 c1 d0 bd e7 08 99 be
       0.12751105 -0.18598363 -0.101932436 -0.29889604
000320 89 3e b3 3c 46 cd 1a 3d bd 8d 07 3e 00 57 a7 bd
       0.021880405 0.03779342 0.13237663 -0.08170891
000330 3d 70 85 be a3 76 39 3e 28 50 1a 3e 19 cc 95 3d
       -0.26062194 0.18111663 0.1506964 0.07314319
000340 7b b4 82 3d ce 83 34 3e 7c 81 88 be 05 8b 22 3c
       0.0638208 0.17628404 -0.2666129 0.00992084
000350 32 60 c7 3d 56 e2 9c 3e cb d9 84 bd 0a 40 08 3e
       0.09735145 0.3064143 -0.06486853 0.13305679
000360 4c 8d 19 be 61 df 3e 3d 44 d9 54 3e 6c 9f 45 3e
       -0.14995307 0.04659975 0.20786005 0.19299096
000370 4b 18 25 be fc 26 0b be 6a 02 0e be 4f c9 3a 3e
       -0.16122548 -0.1358909 -0.13868108 0.18240856
000380 07 4a 06 be 9d 0d 83 3e 27 8c ed 3d 66 5a ab bc
       -0.13114177 0.25596324 0.115989976 -0.020917129
000390 c4 23 01 3d 92 28 b0 bd 78 fe 64 be 67 9e 33 3e
       0.03152825 -0.08601488 -0.22362697 0.17540894
0003a0 58 9e d8 3c 11 ee 46 be 61 4b 61 3e be 08 2d 3e
       0.026442692 -0.19426753 0.22001411 0.16897866
0003b0 db 6e 13 be 9e 31 b7 3d 68 95 e7 bd db d8 1c be
       -0.14397757 0.089450106 -0.11307794 -0.15317099
0003c0 48 17 87 be 49 12 49 bd 20 66 8c bd 19 6c 45 3d
       -0.2638495 -0.049089704 -0.06855416 0.048198793
0003d0 96 b8 28 be 3c 93 7f bd c2 08 32 bd cc bc 89 3c
       -0.16476664 -0.062396273 -0.043465383 0.016813658
0003e0 32 b2 a5 bd 57 35 d6 3c 56 cf cb 3c e3 e8 a5 3c
       -0.08090629 0.026148481 0.024879139 0.02025265
0003f0 48 5c e8 bd d9 e5 61 3e ce 6c 8f be 32 e4 b8 bc
       -0.11345726 0.22060336 -0.280127 -0.02256975

fc1.bias f4 [100]
000000 03 b3 d9 3e 66 fa ac be 90 7e a5 3e 49 17 2c be
       0.42519388 -0.3378479 0.32323122 -0.16805758
000010 a6 b6 f5 bd 5f ee a8 3e 88 c3 a4 be da b8 89 be
       -0.11997728 0.32994363 -0.32180429 -0.26898843
000020 06 01 c5 be 38 70 ca be 2b 10 7c 3e 97 bd 17 3e
       -0.38477343 -0.3953874 0.24615543 0.14818417
000030 da 3e 39 3e 9e b2 9c be e7 46 98 3e 0a 8d 8f bd
       0.18090382 -0.30605024 0.29741594 -0.07009323
000040 60 8a c8 be ba 82 a1 be f9 6e cf be df 4e 56 be
       -0.39168072 -0.3154505 -0.40514353 -0.20928524
000050 17 47 93 3e 84 6c b1 bd 89 12 af 3e f8 18 1a be
       0.28765175 -0.08663276 0.3419383 -0.15048587
000060 47 9a b1 3e f3 08 27 3e 71 51 f3 bd f2 d4 9d 3d
       0.34688017 0.16312008 -0.11880768 0.07706632
000070 57 3a 88 3e 4d d5 c4 3e ec ee 38 be cf 9c d6 be
       0.2660701 0.38443986 -0.18059891 -0.4191651
000080 7b e9 5c 3e ee 1c 87 bd 05 b2 bc be 05 0d 56 3e
       0.2157344 -0.06597315 -0.36854568 0.20903404
000090 08 ac 86 be 83 5b a2 3e 25 ab 59 3e 6a 66 ed 3d
       -0.26303124 0.31710443 0.21256693 0.115917996
0000a0 11 cb 40 3e 29 dc a7 be 9e 34 d4 3e b7 1c 6e bd
       0.18827464 -0.32785156 0.41446394 -0.058132853
0000b0 5d 16 9d bc 9e 68 84 be 90 7f d7 be ad 5b b1 be
       -0.019175703 -0.25861067 -0.4208951 -0.34640256
0000c0 26 ae a2 be c5 14 a0 3e f9 72 ca 3e 9a 37 bb be
       -0.3177349 0.31265846 0.39540842 -0.36565858
0000d0 a4 1e 01 3e f0 d2 84 3d 37 28 3f be 57 f9 b9 3d
       0.12609345 0.06485546 -0.18667684 0.09080761
0000e0 23 0a 0e 3e 1c 2e aa bd c0 f8 c9 be fb 26 59 be
       0.13871054 -0.08309576 -0.39447594 -0.21206276
0000f0 13 eb 1f 3e 5a 14 65 3e 84 a7 3b be ca ce 9c bd
       0.15617017 0.22371045 -0.18325621 -0.076566294
000100 85 a7 3a 3d 93 85 ca be 8f 7d 50 3e 4c d3 b0 be
       0.045569915 -0.39555034 0.20360397 -0.34536207
000110 d7 d1 1e 3e 6d 33 ac 3e c3 3c 83 3e c4 4a c7 3e
       0.15509735 0.33632985 0.25632295 0.3892423
000120 19 25 a4 bd 60 0b 97 be b7 27 24 be 8b 86 96 be
       -0.08014888 -0.29500866 -0.16030775 -0.29399523
000130 9d db a4 be c6 ac 41 be a7 11 2e 3e 33 0b 84 be
       -0.32198802 -0.18913564 0.16998921 -0.25789794
000140 cc e6 a9 be 31 29 88 be a9 b5 a6 be 07 76 3e 3e
       -0.33183897 -0.26593927 -0.3256047 0.18599711
000150 98 86 ab be 63 d5 18 be 1b 07 c3 be c4 8a bf be
       -0.33501124 -0.1492515 -0.3809136 -0.37410557
000160 89 b6 c6 be 96 66 d0 3d 33 b7 31 3e 35 98 86 3e
       -0.38811138 0.10175817 0.17355041 0.26288
000170 9e bf a1 3e d8 a2 0e be 47 98 c4 be 8f 8b 42 3e
       0.31591505 -0.13929307 -0.38397428 0.1899855
000180 8b 6c ab 3e 62 0c 55 be d9 34 b3 be 71 64 66 be
       0.3348125 -0.20805505 -0.35001257 -0.22499253

fc2.weight f4 [100, 100]
000000 7a 0e f1 3d 58 f7 21 be d7 d8 ba 3b b5 97 cc bd
       0.11770339 -0.1581701 0.005702119 -0.09989873
000010 02 0a 33 bd d9 89 89 3d dd e2 29 bd 3f f5 1c be
       -0.043710716 0.067157455 -0.04147612 -0.15327929
000020 07 72 1d be fb 4b 16 be 78 85 19 3e 21 e4 2e 3c
       -0.15375529 -0.14677422 0.1499232 0.010674507
000030 9e f2 10 3e ad 93 6b 3b 53 25 17 3e c2 46 a3 bc
       0.14155051 0.0035946176 0.14760332 -0.0199312
000040 5a 70 10 be 62 99 19 bc c9 3f 2c bd 97 cb 1f bd
       -0.14105359 -0.009374948 -0.042053018 -0.039012518
000050 82 36 ca 3d 90 db 30 3d 9b 5f b0 3d fc af c3 bc
       0.09873678 0.04317814 0.08611985 -0.023887627
000060 79 43 67 3d 03 64 11 3e 07 9e 4e ba 87 c5 84 bc
       0.05646083 0.14198308 -0.0007881824 -0.01620747
000070 50 d6 1a 3e e6 c4 0d 3e ba 77 d1 bd 35 08 48 be
       0.15120816 0.13844642 -0.10227914 -0.1953438
000080 7b b4 15 3e 1e 58 b2 bc 68 41 12 be ec 35 c5 3d
       0.14619629 -0.021770533 -0.14282763 0.096294254
000090 b8 ae 08 be 93 87 55 3c 38 b8 08 3e ed f0 be 3d
       -0.133479 0.013032812 0.13351524 0.09323297
0000a0 3e 66 ae 3d 1f db 2d bb d1 d8 b5 3d 72 aa 6e 3c
       0.08515595 -0.0026528311 0.08879245 0.0145670045
0000b0 42 ec 7f bc 77 df 05 be f1 1d 15 be 42 08 01 be
       -0.015620293 -0.13073526 -0.14562203 -0.12600806
0000c0 33 5e 11 bd c0 d0 1c 3e f4 fd 09 3e c5 04 9f bd
       -0.035490226 0.15314007 0.13475782 -0.077645816
0000d0 b2 26 d6 3d 24 7f 1b 3d e6 e8 c2 bb 61 d1 23 3d
       0.10456599 0.037963048 -0.005948174 0.0399946
0000e0 35 40 bf 3d bc 0f 46 bd 7d e6 a3 bd 84 be a4 bd
       0.093384184 -0.04835485 -0.080029465 -0.080441505
0000f0 9a 67 9c b9 9c f7 03 3e 57 24 9d bd d1 e9 af bd
       -0.00029831828 0.12887424 -0.07672947 -0.08589519
000100 89 ea 3e bd 84 4e 04 be f0 d4 1d 3e f2 2f 3a be
       -0.04661039 -0.12920576 0.1541326 -0.18182352
000110 25 26 b6 3b 56 c2 19 3e c9 1f 1a 3e dd f8 f7 3b
       0.0055587464 0.1501554 0.15051188 0.0075675086
000120 ec 7c 3f bd 02 3c 20 bd 4d 2e 89 bd a4 96 93 bc
       -0.046749994 -0.039119728 -0.06698284 -0.018016167
000130 08 60 25 be 20 7b 02 be 15 5d dd 3d d6 df 05 be
       -0.16149914 -0.12742281 0.108087696 -0.13073668
000140 b4 62 3e be 8e ff ca bd 17 6d 72 bd 31 43 bd 3d
       -0.1859234 -0.099120244 -0.059186067 0.09241331
000150 e1 2d a0 bc 4e 93 58 bc 1f b2 d0 bd 0b ad 1f bd
       -0.019553127 -0.013218714 -0.10190224 -0.038983386
000160 a7 81 2e be 80 58 2e bc e8 18 d6 3d c9 be 2a 3e
       -0.17041646 -0.010641217 0.10453969 0.16674341
000170 80 4c bf 3d d0 7d 44 bd 2b f7 df bd d5 96 9d 3d
       0.09340763 -0.047971547 -0.109358154 0.076947846
000180 42 ab e4 3d b8 39 8c bd fe 50 8f bd 32 8a 04 be
       0.11165477 -0.068469465 -0.0699787 -0.12943342
000190 b8 2f ec 3d fe da 9f bd 3d 7a 13 3d ee dd d2 bd
       0.11532539 -0.07805441 0.036005247 -0.10296236
0001a0 a4 75 9b bb fe 14 9d 3d 7c a4 79 bc 1f e1 2f be
       -0.0047442485 0.076700196 -0.01523697 -0.1717572
0001b0 e3 27 b8 bd 98 58 09 bd 69 09 db 3d 0d 7c e9 3d
       -0.08991983 -0.033531755 0.10695154 0.11400614
0001c0 13 0e 60 3d 6e 91 fb bd be 6b ef 3d 57 7f 28 3d
       0.054700922 -0.12283598 0.11690472 0.041137066
0001d0 76 e8 35 bd 5d fa 65 bd 20 a0 b8 bd f6 0e 98 bd
       -0.044411145 -0.05614697 -0.090149164 -0.074247286
0001e0 95 b4 16 3d 00 af b3 bd 94 9d d9 3d cb 1a b1 bd
       0.03679331 -0.08773613 0.10625759 -0.086476885
0001f0 43 6f 33 3e 1c ac 8f 3d 11 7f 2e 3d 5e f6 e9 3b
       0.17522912 0.07015249 0.04260165 0.007139965
000200 40 2c 95 3d 70 d1 16 3e 35 72 fb bd d5 a5 f6 bd
       0.07283831 0.14728332 -0.12277643 -0.12043349
000210 a2 c5 de 3c 8a d6 bd 3c 25 4e 4e be 27 54 8d 3d
       0.027193848 0.02317359 -0.20146997 0.069008164
000220 6c 9f 26 3c 4e 58 e8 3d 34 a0 41 3b 13 e9 5f 3d
       0.010169845 0.11344968 0.0029544951 0.054665636
000230 e1 31 fe 3c a5 3a 2c be 2b 46 3d 3e d0 90 ab 3d
       0.031029643 -0.16819246 0.18483798 0.0837723
000240 59 e1 26 bd 18 17 d7 3b bf ad 0b be e7 08 30 be
       -0.040742252 0.0065640323 -0.13640498 -0.17190896
000250 2d b5 37 bd 27 e9 9a 3d aa d5 a0 3c 93 59 14 be
       -0.044850517 0.075640015 0.019633133 -0.14487295
000260 e6 60 a0 3d 57 4e 9a 3d 27 85 b8 bd e1 6c 8b bc
       0.07830982 0.075344734 -0.09009772 -0.017019691
000270 a5 43 9b 3c 45 cf 51 3d d1 d7 4e be 4b 08 53 bd
       0.018953154 0.05122306 -0.20199515 -0.05152158
000280 a7 a0 11 3e 8a b4 f0 3d 86 8a ba 3c 4c 64 38 3d
       0.1422144 0.11753185 0.022771131 0.045017526
000290 c0 e0 65 3b 70 fa e9 bc 6c de 2a 39 c6 51 2f bb
       0.0035076588 -0.0285618 0.00016295322 -0.0026751622
0002a0 27 40 0e 3d bc c3 d2 3d 65 27 2b 3d 22 72 05 3d
       0.03472915 0.102912396 0.041785616 0.03257955
0002b0 62 85 81 3c 1b 05 1e be de df 12 be 34 34 93 bd
       0.015810672 -0.15431635 -0.14343211 -0.07187691
0002c0 20 17 b0 bc 24 1a 67 bd ca 6d 11 bc 5d 7b 95 bc
       -0.021495402 -0.056421414 -0.008876273 -0.0182473
0002d0 92 0d 3b be cf 52 40 be 00 f4 22 be 92 aa 38 ba
       -0.18266895 -0.18781589 -0.15913391 -0.000704446
0002e0 ed 40 9e bd e8 33 29 bc be 27 b4 bd 21 de 1b be
       -0.07727227 -0.010327317 -0.08796643 -0.15221454
0002f0 ad 4c 10 be 05 66 0a 3e 99 90 23 3e fd 19 24 3d
       -0.1409175 0.1351548 0.15973128 0.040063847
000300 7d fe 27 3e 47 66 a1 bc c0 b8 f6 bd ec 85 e3 3d
       0.16405673 -0.01970209 -0.12046957 0.11109528
000310 96 fe 97 3d cb f6 d4 bc bd 9f 87 bc f9 84 0d bd
       0.07421605 -0.025996586 -0.016555661 -0.03455064
000320 b7 46 17 3d f1 3d 71 bd 84 8c 06 3e 02 dd 88 bd
       0.036932673 -0.058896963 0.1313954 -0.06682779
000330 1c 41 38 bd 52 7e 07 3e b1 aa 69 bd 4a 60 f8 bd
       -0.04498397 0.13231781 -0.05704755 -0.12127741
000340 6e f9 0b be c1 53 df bd 25 a0 97 3c e5 8a 25 3d
       -0.13669369 -0.10904647 0.01850898 0.040415663
000350 7f 94 c2 3d 8f a1 da bd 05 17 b4 3d 03 5a 9f bc
       0.0950098 -0.10675346 0.08793453 -0.0194521
000360 6a bb 12 be 69 45 1a be db c8 3a be 4a 25 b0 bc
       -0.14329305 -0.1506554 -0.18240683 -0.021502156
000370 d9 71 2a 3e 32 85 a6 ba 65 00 38 3e ea 22 cf 3b
       0.16644992 -0.001270449 0.179689 0.0063213008
000380 4b 6e cc 3d 41 65 c8 3d 9f 79 63 bd 87 f4 fb bc
       0.09981974 0.09784938 -0.05553591 -0.030756248
000390 d1 18 db 3d 15 3a 78 3d d4 99 6c 3c 3a cf f0 bd
       0.10698093 0.060602266 0.014440972 -0.11758275
0003a0 45 2a e2 3d 70 2b 32 3d cc a8 bb bd 01 12 c6 3d
       0.110432185 0.043498456 -0.09163055 0.09671403
0003b0 bb 10 e3 bd 67 27 09 3e b6 45 5a 3d c1 13 7a 3d
       -0.110871755 0.13393937 0.053289138 0.061053995
0003c0 11 4d 10 3e eb 63 2c be f1 8f c4 3c c7 f4 de 3b
       0.14091899 -0.1683499 0.023994418 0.006804082
0003d0 b9 c3 b1 3d fd 0f 16 be b8 b0 bc bd a1 d4 ab bd
       0.08679909 -0.14654537 -0.09213394 -0.08390165
0003e0 9e bf ba bd 6c be 79 3d 95 e7 26 3e dd 1e 0c be
       -0.09118579 0.060972616 0.16299279 -0.13683648
0003f0 96 22 3e bc 29 1d 29 3d 24 10 a0 bd cb 77 0d 3d
       -0.011604926 0.041287575 -0.078155786 0.03453807

fc2.bias f4 [100]
000000 9f ee 1c 3e e4 54 c0 3d ab d5 da 3d 1c 16 eb 3d
       0.15325402 0.093911916 0.10685285 0.114788264
000010 39 44 1a 3e f3 03 97 3d a1 93 4e 3e 9e b8 89 bd
       0.15065087 0.073738 0.20173503 -0.06724666
000020 17 e8 20 3e 58 84 1d be f8 31 36 3d ac 25 db 3d
       0.15713535 -0.15382516 0.044481248 0.10700545
000030 ba 4c 45 3e f2 42 36 bd f7 c5 07 3e 32 e4 06 be
       0.1926755 -0.044497438 0.13259111 -0.13172987
000040 78 2b 04 3e d1 72 f3 bd 6a 0e 21 be 76 c7 11 3e
       0.12907207 -0.11887134 -0.15728155 0.14236245
000050 30 26 ad 3c 9e 5c 14 be b1 ba 43 3e ce 1c 14 be
       0.021136373 -0.14488456 0.19114186 -0.14464113
000060 2e 75 45 be 38 7e 2f be 22 0d 09 3d 07 58 2a 3e
       -0.19282982 -0.17137992 0.03345979 0.16635142
000070 f2 bd 21 3e 5b 9a 3a be 7d e1 82 3d ad 1d 15 be
       0.15795115 -0.18222944 0.06390665 -0.14562102
000080 53 8b 01 3d 79 b5 06 3e 3f e3 5e bd 99 95 26 be
       0.03162701 0.13155164 -0.054415938 -0.16268004
000090 7a 34 4b be b0 17 a3 3d d7 b2 ae bd a5 91 0b 3e
       -0.19844237 0.079635024 -0.08530205 0.13629778
0000a0 34 5e ab bd 68 d8 94 bc d6 89 63 3d e4 3c b6 bd
       -0.08367577 -0.018169597 0.055551372 -0.08898333
0000b0 ca 0f 2e 3c 6c 76 15 3e 90 d4 b7 3d 04 92 23 be
       0.010623882 0.14595956 0.0897609 -0.1597367
0000c0 c9 16 50 3e 79 0c c8 bd 6f ef b2 3d b4 3f ff bd
       0.20321192 -0.09768004 0.087370746 -0.12463322
0000d0 f9 94 a4 bd 64 fd ec bd 36 10 2f 3e ee 59 29 3e
       -0.08036227 -0.11571768 0.17096028 0.16538212
0000e0 83 41 57 3e b1 67 46 be 08 94 34 3e 74 4e 0c be
       0.21021084 -0.19375493 0.17634594 -0.13701802
0000f0 cc 88 07 3e 50 4c bc bc 29 20 8d bd 57 ce 2b 3e
       0.13235778 -0.022985607 -0.068909 0.16777931
000100 65 b8 4e 3e 43 9f 4e be 87 46 57 bd 19 62 f3 3d
       0.20187528 -0.20177941 -0.052557494 0.11883945
000110 17 af 45 be bb 6a 08 be 78 f6 b7 3d 1d 5f 0c be
       -0.19305073 -0.13321964 0.08982557 -0.13708158
000120 e3 14 06 3e be 9c 13 be 13 9d d7 bd 55 5c 0d 3e
       0.13093905 -0.14415261 -0.105280064 0.13804753
000130 c9 f2 49 be 55 df b7 bd 4f 26 59 be 60 98 a8 bd
       -0.19721521 -0.08978144 -0.2120602 -0.08232188
000140 32 70 7b bb 4a 6a 82 bd 11 42 50 bd 09 e0 b2 bc
       -0.0038366434 -0.06367929 -0.050844256 -0.021835344
000150 8f 5d 32 be e4 cc b5 3d 7a 49 a6 bd 17 99 32 bd
       -0.17418502 0.088769704 -0.08119483 -0.04360303
000160 c2 e0 1c 3e 4e 74 45 bd c3 7a a0 bd ac 1d ef bc
       0.15320113 -0.04820662 -0.07835915 -0.029188953
000170 ee 71 e4 bd 4e b9 01 3e 33 5d 9a bc e4 e5 00 3e
       -0.11154543 0.12668344 -0.018843269 0.12587696
000180 25 cb 1e be 0e 78 35 be 6e ab 3e 3e e0 a0 c8 bd
       -0.15507181 -0.17721578 0.18620083 -0.097963095

fc3.weight f4 [1, 100]
000000 af b6 e3 3d f8 da 02 3e 84 47 e9 3d 6f 54 ad 3d
       0.111188285 0.12778842 0.11390594 0.0846337
000010 8d 70 02 3e a4 53 f3 3d d3 a3 e9 3d a4 5b f8 bd
       0.12738247 0.118811876 0.114082 -0.12126854
000020 48 34 f5 3d 51 05 f9 bd b1 f3 d9 3d fc e5 01 3e
       0.119728625 -0.12159217 0.106421836 0.12685388
000030 20 5c f3 3d f9 a1 e1 bd d5 13 ff 3d 72 f5 f7 bd
       0.11882806 -0.11017222 0.124549545 -0.12107362
000040 78 e8 f7 3d 3e f7 f9 bd a0 79 fb bd a8 db e0 3d
       0.12104887 -0.12205361 -0.122790575 0.10979396
000050 28 a3 fd 3d 55 7a f1 bd df 03 01 3e 33 89 ed bd
       0.12384635 -0.11790911 0.12599133 -0.11598434
000060 74 30 e5 bd 65 97 d7 bd 86 d5 d3 3d bf 7c 00 3e
       -0.11190882 -0.10526923 0.10343461 0.12547587
000070 b1 f8 01 3e 5d f4 f1 bd 76 2d e8 3d 8b 1b e9 bd
       0.12692524 -0.11814187 0.11336796 -0.113822065
000080 30 71 fc 3d 24 14 e0 3d 00 0e f8 bd f0 82 ec bd
       0.12326276 0.109413415 -0.12112045 -0.11548412
000090 e9 0f 07 be fd f9 e2 3d 00 f0 f1 bd d8 b8 fb 3d
       -0.13189663 0.11082838 -0.118133545 0.122911155
0000a0 86 f2 e8 bd 3f 45 ef bd 44 3d e6 3d 03 1d 00 be
       -0.11374383 -0.116831295 0.11242154 -0.12511067
0000b0 6e 1d e7 3d 84 08 04 3e 34 60 e7 3d 98 c0 f3 bd
       0.1128491 0.12893873 0.11297646 -0.11901969
0000c0 7e 60 f3 3d e3 88 d0 bd f5 45 00 3e 80 69 f8 bd
       0.11883639 -0.10182359 0.12526686 -0.121294975
0000d0 1c d1 f4 bd a1 41 fb bd 09 17 f4 3d c1 d5 f7 3d
       -0.11953947 -0.12268377 0.11918456 0.12101317
0000e0 28 3e f6 3d 6a 60 dc bd 02 2e f8 3d ad 18 e8 bd
       0.12023574 -0.10760577 0.1211815 -0.113328315
0000f0 9d fe f7 3d de ab f6 bd c6 48 d1 bd 82 a3 f2 3d
       0.121091105 -0.120445 -0.102189586 0.11847593
000100 60 18 f6 3d 59 21 f8 bd 1b e1 f7 bd a6 df ff 3d
       0.12016368 -0.121157356 -0.12103482 0.124938294
000110 cc d0 dc bd 39 5c d3 bd 9d db ff 3d 29 9f ed bd
       -0.10782012 -0.103203245 0.1249306 -0.11602623
000120 aa c9 f0 3d 4f ef 01 be c0 e8 02 be 1a 6b ed 3d
       0.11757214 -0.12688945 -0.127841 0.115926936
000130 3b 71 f5 bd 3b d5 04 be fe 5e ee bd d2 2a 00 be
       -0.119844876 -0.12971966 -0.11639212 -0.12516335
000140 3e a8 d4 bd 95 d2 c4 bd 9e 7d e6 bd f3 fa f8 bd
       -0.10383652 -0.09610478 -0.11254428 -0.1215724
000150 40 f9 ef bd cc 38 eb 3d 48 5e e3 bd cd bb ca bd
       -0.117174625 0.114854425 -0.11101967 -0.098991014
000160 f2 fe eb 3d 4d 36 02 be e4 21 e0 bd 0f a8 d7 bd
       0.11523236 -0.12716027 -0.10943964 -0.105301015
000170 be 51 f6 bd 1e a5 05 3e 93 15 f5 bd 7b 99 02 3e
       -0.1202731 0.13051268 -0.119670056 0.1275386
000180 1c dd fc bd 1d 20 0a be 69 fd c9 3d a1 69 ec bd
       -0.12346861 -0.13488813 0.09862787 -0.115435846
