mujoco/vail/save_model/ckpt_304.pth.tar (torch, 110947 bytes, 20 tensors)

fc1.weight f4 [100, 11]
0.055062726 -0.2030955 0.18759799 -0.12232044 0.062366396 0.029421816 -0.20813988 0.11784321
0.19188242 0.18169111 -0.018020878 0.29108894 -0.11814217 0.04526484 -0.28752273 0.06536736
0.05230296 -0.014202735 0.05115459 0.13401298 0.17704296 0.21905124 0.19503312 -0.097049735
-0.2774249 0.046857465 0.09963471 -0.19010124 -0.05471158 0.21679713 -0.07192958 -0.02782411
0.14440142 0.24366848 -0.29085913 0.06672683 0.19623128 0.06405293 0.111609876 -0.29180348
-0.066209204 -0.18570738 0.20164305 -0.29293898 0.10721368 0.20417988 0.23182751 -0.2891074
-0.04254104 0.09100581 -0.19799978 -0.05220464 0.23703252 0.07119403 0.0575285 0.22777405
-0.09517473 -0.08981825 0.15513445 0.30918416 0.11573262 0.07506826 -0.16062936 -0.019800272
-0.021855636 0.037509933 0.24053867 -0.35465902 0.24908857 -0.18511957 -0.17440633 -0.34391317
0.27824983 0.0024975655 0.07862392 -0.20059198 -0.17574528 0.033915352 0.3240384 -0.21520571
-0.163298 0.2891402 0.16602539 0.2528218 -0.0039846357 -0.24747178 0.22857824 0.2672173
0.0162225 0.08617737 -0.19162121 -0.31568322 0.24459843 0.21871045 0.16230449 -0.2125928
0.2511503 -0.18235365 0.18550685 0.02467766 0.1779898 -0.007657967 0.14803995 0.22625768
-0.29243252 0.15084846 0.3179413 0.25274378 0.15543097 -0.06819986 -0.19754007 -0.066747874
-0.05988748 -0.2541962 -0.052389972 0.23054528 -0.14333682 0.25648332 0.12839215 0.21964301
-0.070562154 -0.1576546 -0.08874443 0.10775354 0.0866092 0.27389 0.28045064 0.009065626
-0.102603905 -0.10151645 -0.13863884 0.13970451 -0.018643035 0.24631137 -0.15625674 0.17406099
0.17607136 -0.12206567 -0.01667658 -0.109793544 0.19394065 0.020855935 0.10698654 0.12636861
0.109877154 -0.16398638 0.21446356 -0.10968373 -0.055984393 -0.0005289488 0.19832581 0.19852339
-0.1381314 0.011841922 -0.24421285 -0.21095894 0.25202015 0.272136 -0.022579838 -0.14082329
0.27276954 0.20004366 -0.023393406 0.012795461 0.16121997 -0.07616326 -0.1164259 0.07908929
0.14758335 0.20180804 0.067585975 -0.1665042 -0.057235967 0.20328167 0.14818606 -0.093863934
0.20184699 -0.2888488 0.084651 0.18378171 0.12138378 0.2758499 -0.26374686 0.24643418
0.20443694 0.19161178 0.28496927 0.017869134 -0.31984732 0.063288555 -0.30121005 0.010005958
-0.24867384 0.18321896 0.124493964 -0.061655242 -0.23998007 -0.14562827 0.2803055 0.25810087
0.26325542 -0.055075955 -0.111130975 0.13541996 -0.06984447 0.022907425 -0.1834733 -0.23219308
0.284003 -0.057559155 0.25435248 -0.28265846 0.05853938 0.27826837 -0.34122738 -0.2360792
-0.25532734 -0.0722008 0.07520568 -0.22873706 -0.18311521 -0.22389837 -0.12641983 0.20744406
-0.059736405 0.055679437 -0.097331405 0.013454313 0.06512095 -0.13013253 -0.25903842 0.21127737
0.05590345 0.15195826 0.18459284 0.26105076 -0.26434633 -0.15483563 0.08637593 -0.06907633
0.22732912 -0.024665248 0.02619116 -0.2764734 0.24821898 0.17490637 0.2737707 0.24600518
-0.15394393 -0.07892083 -0.05684065 0.0797737 -0.27079412 0.20393503 0.09013548 0.04073917
00000000: 7489 613d 44f8 4fbe b019 403e 2483 fabd
00000010: e873 7f3d 0506 f13c 9f22 55be c857 f13d
00000020: d37c 443e 3c0d 3a3e 85a0 93bc 9c09 953e
00000030: 86f4 f1bd a067 393d 2e36 93be 53df 853d
00000040: a13b 563d 97b2 68bc 7a87 513d b33a 093e
00000050: c04a 353e f84e 603e c3b6 473e 03c2 c6bd
00000060: a30a 8ebe 9ded 3f3d 480d cc3d e6a9 42be
00000070: 4019 60bd 1100 5e3e d14f 93bd 63ef e3bc
00000080: f7dd 133e 3b84 793e 7deb 94be 14a8 883d
00000090: daf0 483e 2f2e 833d b893 e43d 4467 95be
000000a0: b198 87bd 132a 3ebe 847b 4e3e 19fc 95be
000000b0: d992 db3d 8814 513e 3164 6d3e e305 94be
000000c0: 833f 2ebd 4161 ba3d 74c0 4abe 88d4 55bd
000000d0: a7b8 723e 2dce 913d 01a3 6b3d 9a3d 693e
000000e0: f8ea c2bd a1f2 b7bd 91db 1e3e 634d 9e3e
000000f0: 3905 ed3d 63bd 993d 067c 24be 2e34 a2bc
00000100: 970a b3bc 04a4 193d c54f 763e de95 b5be
00000110: 1311 7f3e fc8f 3dbe 9397 32be 6315 b0be
00000120: c376 8e3e 32ae 233b 9405 a13d fc67 4dbe
00000130: 92f6 33be d3ea 0a3d 5ce8 a53e e35e 5cbe
00000140: 9737 27be 2f0a 943e 8f02 2a3e dc71 813e
00000150: 8c91 82bb 3e69 7dbe 6a10 6a3e b5d0 883e
00000160: 0ce5 843c c37d b03d 5a38 44be 3ba1 a1be
00000170: 0378 7a3e a2f5 5f3e 2633 263e edb1 59be
00000180: c696 803e eaba 3abe 82f5 3d3e ce28 ca3c
00000190: f542 363e afef fabb c997 173e 18b0 673e
000001a0: b7b9 95be 0578 1a3e 34c9 a23e a267 813e
000001b0: 4c29 1f3e 5eac 8bbd f247 4abe 1cb3 88bd
000001c0: 934c 75bd 0126 82be de96 56bd 1014 6c3e
000001d0: e3c6 12be c851 833e 3b79 033e 19ea 603e
000001e0: e482 90bd 3570 21be a4bf b5bd e3ad dc3d
000001f0: 2a60 b13d 4f3b 8c3e 3a97 8f3e fe87 143c
00000200: ff21 d2bd dbe7 cfbd 57f7 0dbe b30e 0f3e
00000210: 47b9 98bc 0c39 7c3e c401 20be 0b3d 323e
00000220: 0d4c 343e 91fd f9bd 539d 88bc 70db e0bd
00000230: 6198 463e 11da aa3c c21b db3d c666 013e
00000240: 4607 e13d 0cec 27be 569c 5b3e dda1 e0bd
00000250: e44f 65bd 27a9 0aba ec15 4b3e b749 4b3e
00000260: 5172 0dbe 9f04 423c ef12 7abe 9f05 58be
00000270: c908 813e 6955 8b3e 5af9 b8bc fb33 10be
00000280: 73a8 8b3e 3fd8 4c3e 87a3 bfbc 0ea4 513c
00000290: d916 253e 7cfb 9bbd b470 eebd 91f9 a13d
000002a0: 1720 173e c4a6 4e3e 846a 8a3d 1480 2abe
000002b0: 4370 6abd 1229 503e 16be 173e bc3b c0bd
000002c0: fab0 4e3e fde3 93be 815d ad3d 4631 3c3e
000002d0: 0f98 f83d 333c 8d3e d409 87be 3e59 7c3e
000002e0: eb57 513e e135 443e 7ee7 913e 4a62 923c
000002f0: 07c3 a3be 6e9d 813d 3438 9abe 08f0 233c
00000300: 5ba4 7ebe c09d 3b3e b1f6 fe3d 358a 7cbd
00000310: 56bd 75be 941f 15be 3484 8f3e cc25 843e
00000320: 6ac9 863e 5397 61bd a398 e3bd 88ab 0a3e
00000330: 9e0a 8fbd 5aa8 bb3c 6de0 3bbe 06c4 6dbe
00000340: d768 913e 26c3 6bbd 7d3a 823e 9cb8 90be
00000350: fdc6 6f3d 3179 8e3e 5bb5 aebe bfbe 71be
00000360: 44ba 82be 03de 93bd 7005 9a3d 0c3a 6abe
00000370: 8e82 3bbe 9d45 65be 3374 01be 376c 543e
00000380: 29ae 74bd 1f10 643d b055 c7bd 7b6f 5c3c
00000390: 225e 853d 7641 05be afa0 84be 1859 583e
000003a0: 04fb 643d f29a 1b3e e805 3d3e 72a8 853e
000003b0: 6758 87be 3b8d 1ebe dde5 b03d e477 8dbd
000003c0: f7c8 683e c60e cabc d88e d63c ec8d 8dbe
000003d0: 1e2d 7e3e a81a 333e ac2b 8c3e c8e8 7b3e
000003e0: 7aa3 1dbe 3ea1 a1bd bed1 68bd 6560 a33d
000003f0: 87a5 8abe 58d4 503e f398 b83d 1ede 263d

fc1.bias f4 [100]
-0.120826885 -0.29106024 -0.11918987 0.072444886 0.08958198 -0.19253597 -0.11731649 0.037607074
-0.037878238 -0.31204268 0.035889488 0.06288386 -0.18438019 0.19605272 0.13210146 -0.25751606
0.18729088 0.24952874 -0.22037192 0.10452899 -0.0061736796 -0.2652129 0.097549304 -0.19834319
0.064023905 0.12206751 -0.2749132 -0.15474986 0.25819883 0.15241268 -0.18433452 0.087764144
0.2431406 0.23582092 -0.33938688 0.020209087 0.12589371 0.09168696 -0.17359988 0.10295695
0.19554582 0.27101228 -0.01805867 -0.3033712 0.04901354 0.004802583 -0.26255476 -0.22842652
0.16960078 0.32353786 0.09263938 0.27441853 -0.20451696 -0.19625583 0.0023683524 0.17842308
0.020131083 0.3106616 0.24158399 0.2321989 -0.21315156 0.25604436 0.22409017 0.086697794
-0.10341486 -0.25620973 -0.0048393207 -0.060111318 -0.0032481165 -0.031145705 0.3341034 -0.12900317
0.16568682 0.040983595 -0.24320464 -0.26054958 0.15879597 0.19082043 0.28203356 0.30807292
-0.2911854 -0.22290249 0.23909347 0.13047215 0.30824545 -0.3085218 -0.123046674 0.27148026
0.22580533 -0.009267868 0.24825223 0.2271285 -0.037737064 0.21316347 -0.19197938 0.21357085
0.3149033 -0.051086377 0.19543007 0.28624472
00000000: 1674 f7bd d905 95be d219 f4bd fc5d 943d
00000010: c276 b73d 2628 45be a143 f0bd e009 1a3d
00000020: 3626 1bbd 0fc4 9fbe db00 133d 41c9 803d
00000030: 29ce 3cbe 0bc2 483e 9b45 073e 25d9 83be
00000040: 2ec9 3f3e 7684 7f3e 2da9 61be 4c13 d63d
00000050: 944c cabb fcc9 87be eec7 c73d 7a1a 4bbe
00000060: f71e 833d 88fe f93d 6cc1 8cbe bf76 1ebe
00000070: a332 843e 1212 1c3e 30c2 3cbe b0bd b33d
00000080: d9f9 783e 0a7b 713e 1ec4 adbe 878d a53c
00000090: 48ea 003e 5fc6 bb3d 2bc4 31be 18db d23d
000000a0: 2a3d 483e 1fc2 8a3e c7ef 93bc 7853 9bbe
000000b0: 6cc2 483d fc5e 9d3b 946d 86be a4e8 69be
000000c0: d4ab 2d3e c1a6 a53e b7b9 bd3d 9680 8c3e
000000d0: e56c 51be 4af7 48be 5c36 1b3b 8ab4 363e
000000e0: f1e9 a43c 0a0f 9f3e cb61 773e 8cc5 6d3e
000000f0: 6744 5abe 3f18 833e e577 653e 9d8e b13d
00000100: 2ccb d3bd ec2d 83be 2a93 9ebb 4937 76bd
00000110: 5ade 54bb 4725 ffbc 9a0f ab3e 6819 04be
00000120: cea9 293e 6ade 273d a30a 79be c166 85be
00000130: 699b 223e 6e66 433e b466 903e bcbb 9d3e
00000140: 4116 95be 8d40 64be ebd4 743e 7e9a 053e
00000150: 59d2 9d3e 92f6 9dbe e5ff fbbd 76ff 8a3e
00000160: 8339 673e 41d8 17bc d535 7e3e 6094 683e
00000170: 2e92 1abd 8647 5a3e 3e96 44be 51b2 5a3e
00000180: 013b a13e f33f 51bd d21e 483e ab8e 923e

fc2.weight f4 [100, 100]
-0.03498677 0.005683344 -0.010670667 0.035373844 0.05937962 -0.03507453 -0.071499325 0.05633748
-0.0020940644 -0.059768595 0.07310432 -0.06498972 0.006677279 0.09871114 0.047954455 0.07840669
-0.029424056 -0.034747384 -0.02898093 0.12300778 -0.07955103 0.11898959 0.008136815 0.037070476
-0.0565551 -0.06772944 -0.041179087 -0.053453322 -0.028868243 -0.07257859 -0.06475543 -0.024936134
0.07242723 -0.04831943 0.07723234 0.060251128 -0.082309 0.098229624 0.06298427 -0.07220532
-0.028128615 0.03463296 0.070744604 -0.014327869 0.106422834 0.07449709 -0.06764431 0.013668234
-0.08424874 -0.05392551 -0.026360013 -0.08013127 0.04409138 0.06683191 -0.10080012 -0.045473456
0.02270351 0.07799227 0.0620081 -0.009156485 0.043830857 -0.06423207 0.047725275 -0.022414427
0.003569898 0.043576654 0.078576826 0.003146412 0.102505565 0.042242263 -0.057881184 -0.094506435
0.012774721 0.021920657 0.06805497 -0.0796821 -0.11914414 0.06734888 0.021389948 0.06194831
-0.010563823 0.007844609 -0.05099051 0.055372577 0.06942062 0.020091876 0.085074775 -0.05166895
-0.09154671 0.09782669 -0.028208738 -0.036522157 -0.023438368 -0.060311828 0.009023309 0.008668518
0.01484634 -0.091945365 -0.04288467 0.07383306 -0.058523886 -0.06404488 0.07712089 0.098731555
-0.03131147 -0.009716761 0.07406884 0.0646976 -0.027520636 0.030696187 0.07985668 -0.06774766
-0.07147684 0.07752079 0.13112897 0.06825863 0.104238726 0.05857917 0.035076592 -0.12111455
-0.09366015 0.08700022 0.13606708 -0.0057432675 -0.008363832 0.016840816 -0.04291145 -0.082976386
0.028887207 0.11035662 -0.08547865 -0.03939883 -0.007548823 -0.00033684997 0.058512855 -0.055314437
-0.0788221 0.06897462 0.060224332 0.016946638 -0.008699593 -0.08995842 -0.09049973 0.08056513
-0.07466549 -0.073811576 0.03849079 -0.08879329 -0.06142757 0.09003756 0.06298682 -0.004996428
0.04684598 -0.06630337 0.04595156 0.04667863 0.04231224 -0.026259597 0.0408384 0.067677855
-0.08571627 -0.0078289015 -0.0040304568 0.10920295 -0.043420915 -0.10855176 -0.1012892 0.05056631
0.09132032 0.08220095 0.046892595 -0.009591156 -0.011813912 0.025153121 0.018525809 -0.0794334
0.073875956 -0.09915273 0.06092444 0.08323825 -0.026445232 -0.12638871 -0.086974114 -0.06848919
0.07851683 0.07805716 0.038761944 -0.019477319 -0.023945974 0.06807359 0.05510188 0.010434516
-0.020694107 0.054890063 -0.098889954 0.04043954 -0.0816129 -0.030993901 -0.029518962 -0.040886212
0.06644143 -0.02656543 0.06726167 -0.00642987 -0.0044704205 0.0034174048 0.04161013 -0.094393514
-0.038404454 0.047037505 -0.09233326 0.10461785 -0.009763697 0.027746128 0.07431637 -0.077632815
0.051860116 0.04779437 0.042552922 0.06331713 0.11723142 -0.083251186 0.13845097 0.03584102
-0.0023175715 0.030829735 -0.05528553 0.025404675 -0.006223706 0.09421518 -0.069902316 0.029760178
0.01935216 -0.08377079 0.027579961 -0.010065732 -0.063753635 -0.015421496 -0.003906296 -0.0113677345
0.018875362 -0.063326485 -0.02593941 0.10826978 0.04182889 0.024100587 0.07204056 -0.06075527
-0.106119104 -0.072968595 0.06807432 -0.09114221 0.009356089 -0.018018212 -0.068259515 -0.06042722
00000000: 4a4e 0fbd 583b ba3b 05d4 2ebc 2ae4 103d
00000010: 0b38 733d 4faa 0fbd 3d6e 92bd 21c2 663d
00000020: 923c 09bb eacf 74bd b8b7 953d 5519 85bd
00000030: 13cd da3b 1129 ca3d e46b 443d b093 a03d
00000040: b80a f1bc 4653 0ebd 6a69 edbc 81eb fb3d
00000050: a7eb a2bd d0b0 f33d 4750 053c 36d7 173d
00000060: 52a6 67bd bcb5 8abd 67ab 28bd dff1 5abd
00000070: 187d ecbc 15a4 94bd 7f9e 84bd dd46 ccbc
00000080: ba54 943d 98ea 45bd fd2b 9e3d e3c9 763d
00000090: 9f91 a8bd 9d2c c93d e6fd 803d 62e0 93bd
000000a0: fb6d e6bc 4adb 0d3d 8ce2 903d 70bf 6abc
000000b0: 37f4 d93d ee91 983d 1a89 8abd bbf0 5f3c
000000c0: 9a8a acbd ffe0 5cbd f4f0 d7bc dd1b a4bd
000000d0: 2a99 343d 2bdf 883d 4b70 cebd 6042 3abd
000000e0: b6fc b93c 69ba 9f3d 35fc 7d3d 1505 16bc
000000f0: fc87 333d 1b8c 83bd 947b 433d 769e b7bc
00000100: f3f4 693b 6f7d 323d e3ec a03d 0934 4e3b
00000110: 70ee d13d 3906 2d3d d214 6dbd 978c c1bd
00000120: 104d 513c f392 b33c 6760 8b3d 5e30 a3bd
00000130: d801 f4bd 36ee 893d f939 af3c 83bd 7d3d
00000140: e313 2dbc ad86 003c 6ddb 50bd 5bce 623d
00000150: 662c 8e3d b897 a43c af3b ae3d d2a2 53bd
00000160: d77c bbbd 5c59 c83d 0316 e7bc 4298 15bd
00000170: d201 c0bc 8909 77bd 80d6 133c 6606 0e3c
00000180: 103e 733c da4d bcbd d6a7 2fbd ca35 973d
00000190: beb6 6fbd f629 83bd 8ff1 9d3d c533 ca3d
000001a0: 7540 00bd 0d33 1fbc 67b1 973d 2d80 843d
000001b0: f572 e1bc 9276 fb3c e68b a33d 49bf 8abd
000001c0: 7362 92bd 38c3 9e3d ac46 063e 2ecb 8b3d
000001d0: 1d7b d53d b6f0 6f3d 79ac 0f3d e80a f8bd
000001e0: e5d0 bfbd 2c2d b23d 2b55 0b3e 0532 bcbb
000001f0: 7408 09bc c0f5 893c ebc3 2fbd 86ef a9bd
00000200: dda4 ec3c a702 e23d 6e0f afbd ab60 21bd
00000210: 1e5c f7bb 3d9b b0b9 2dab 6f3d 6491 62bd
00000220: 7b6d a1bd 9142 8d3d caad 763d add3 8a3c
00000230: bd88 0ebc 1f3c b8bd ec57 b9bd 55ff a43d
00000240: 38ea 98bd 862a 97bd 85a8 1d3d 42d9 b5bd
00000250: 7a9b 7bbd 9d65 b83d 3cff 803d 13b9 a3bb
00000260: 92e1 3f3d 10ca 87bd b437 3c3d 1732 3f3d
00000270: 994f 2d3d 5e1e d7bc 2b46 273d b09a 8a3d
00000280: 038c afbd cb44 00bc ec11 84bb cca5 df3d
00000290: 21da 31bd 6350 debd b670 cfbd 9e1e 4f3d
000002a0: 2606 bb3d f958 a83d 7312 403d 3924 1dbc
000002b0: 238f 41bc eb0d ce3c 70c3 973c faad a2bd
000002c0: 474c 973d 9610 cbbd e88b 793d d178 aa3d
000002d0: aca3 d8bc 0b6c 01be 7c1f b2bd 0f44 8cbd
000002e0: 6fcd a03d 6fdc 9f3d d8c4 1e3d e68e 9fbc
000002f0: 592a c4bc 2b6a 8b3d 82b2 613d 88f5 2a3c
00000300: b086 a9bc 67d4 603d d186 cabd eea3 253d
00000310: aa24 a7bd ece6 fdbc c0d1 f1bc 4d78 27bd
00000320: 7212 883d bf9f d9bc 7dc0 893d a9b1 d2bb
00000330: 9b7c 92bb 8af6 5f3b 626f 2a3d 6351 c1bd
00000340: fd4d 1dbd 66aa 403d 3819 bdbd e241 d63d
00000350: eaf7 1fbc d94b e33c 2e33 983d f4fd 9ebd
00000360: 466b 543d 08c4 433d f94b 2e3d 69ac 813d
00000370: 0717 f03d 997f aabd 17c6 0d3e 09ce 123d
00000380: 66e2 17bb a48e fc3c 1473 62bd 771d d03c
00000390: 3bf0 cbbb e3f3 c03d f228 8fbd 9ecb f33c
000003a0: 6c88 9e3c 0590 abbd 5fef e13c bdea 24bc
000003b0: 4491 82bd 71aa 7cbc 6300 80bb bc3f 3abc
000003c0: 81a0 9a3c 51b1 81bd e37e d4bc 8cbc dd3d
000003d0: c554 2b3d 986e c53c 008a 933d 85da 78bd
000003e0: f954 d9bd 8f70 95bd 8d6a 8b3d c4a8 babd
000003f0: 484a 193c ee9a 93bc a5cb 8bbd 8882 77bd

fc2.bias f4 [100]
-0.046475224 0.043738343 -0.07330151 -0.10899919 -0.008415052 0.013044603 0.12133094 0.00052730285
0.012176584 -0.09209158 0.034522045 0.11403504 -0.07679724 -0.069674864 -0.074614115 -0.051524233
-0.07974743 0.088268295 -0.062658995 0.05914318 0.062358357 0.041541602 -0.01158624 0.004281789
-0.036775414 0.065041296 -0.08599275 0.061588258 -0.064853795 0.068840906 -0.015044115 0.030606043
-0.043406554 0.076432265 0.052954946 0.043892294 0.020061808 -0.11939603 -0.11133467 -0.053600874
0.0053615524 0.082991116 -0.017544677 0.011807175 0.06017777 -0.06590251 -0.050945595 -0.090248056
0.05122948 0.07455259 0.031206217 -0.06082203 0.11777703 -0.105296046 0.05377456 0.07599475
-0.07131395 0.0059855753 -0.000114876435 -0.004736831 -0.043015648 0.011080916 -0.043587927 0.057387482
-0.047781207 0.0025491056 -0.018964684 -0.048627406 -0.045649037 0.04803799 0.0914567 -0.041788958
0.056277897 0.06245076 -0.08312414 0.06229633 -0.02990568 -0.0044849934 -0.07678974 -0.04288544
0.033105716 -0.074801594 -0.042561714 -0.05940811 0.093381934 0.03041784 0.021262182 -0.06794585
0.08549995 0.053717915 0.014621572 -0.019620243 0.015591619 -0.06828127 -0.047123514 0.116775565
0.12921365 0.07366973 -0.051988557 -0.060367867
00000000: ce5c 3ebd fa26 333d 1a1f 96bd f83a dfbd
00000010: 49df 09bc 08b9 553c 5b7c f83d b23a 0a3a
00000020: 4c80 473c 839a bcbd fd66 0d3d 348b e93d
00000030: df47 9dbd b2b1 8ebd 49cf 98bd 130b 53bd
00000040: 9f52 a3bd 02c6 b43d 5c53 80bd 1e40 723d
00000050: 7a6b 7f3d 8727 2a3d 36d4 3dbc 404e 8c3b
00000060: d1a1 16bd 5f34 853d f81c b0bd f843 7c3d
00000070: 11d2 84bd 76fc 8c3d 977b 76bc 86b9 fa3c
00000080: 12cb 31bd 8588 9c3d 49e7 583d 68c8 333d
00000090: a958 a43c e885 f4bd 6e03 e4bd 978c 5bbd
000000a0: f6af af3b 3ff7 a93d dbb9 8fbc e272 413c
000000b0: f77c 763d e5f7 86bd 54ac 50bd f9d3 b8bd
000000c0: 01d6 513d 07af 983d 2ea4 ff3c 8520 79bd
000000d0: 1535 f13d 74a5 d7bd b742 5c3d 23a3 9b3d
000000e0: 0c0d 92bd a522 c43b d1e9 f0b8 6b37 9bbb
000000f0: 2d31 30bd bb8c 353c 4189 32bd 230f 6b3d
00000100: 3ab6 43bd e50e 273b d35b 9bbc 882d 47bd
00000110: 7cfa 3abd 7cc3 443d a64d bb3d e62a 2bbd
00000120: a783 663d 5ecc 7f3d fd3c aabd 702a 7f3d
00000130: c2fc f4bc daf6 92bb f043 9dbd a5a8 2fbd
00000140: dc99 073d 9431 99bd 3155 2ebd eb55 73bd
00000150: 073f bf3d d62e f93c 072e ae3c 3227 8bbd
00000160: 991a af3d 5107 5c3d 518f 6f3c a2ba a0bc
00000170: fd73 7f3c 0dd7 8bbd 9604 41bd 0728 ef3d
00000180: 9550 043e 28e0 963d f4f1 54bd 4c44 77bd

fc3.weight f4 [3, 100]
-0.025568984 0.01169444 -0.0022449715 -0.038107615 0.020134985 0.04356079 0.027164424 -0.033381168
-0.0055938074 -0.048355248 0.042730674 0.038801804 0.0024512953 -0.019907461 0.013555629 -0.004293436
-0.027867362 0.05292813 0.0049044397 0.03615816 -0.0072855647 0.0062049003 0.0117733395 -0.041144963
-0.027058631 0.021573508 0.00010680425 -0.0013168254 -0.041455112 0.00047928878 -0.013876146 -0.046902876
0.040738944 0.016449 0.011848403 0.0265416 -0.033683013 -0.045451388 -0.043656565 0.04915812
0.0009996127 0.014610584 -0.030561037 -0.040536772 0.0034478144 0.02332173 -0.049799737 0.0016257489
-0.012242895 0.024296224 -0.040550433 0.021658652 0.020709934 -0.031806413 0.00016049802 0.022685431
0.03608909 -0.04162147 -0.002694022 0.035295237 0.037515607 0.025364343 -0.05726637 -0.019498186
0.0018835953 0.0265639 0.0052333344 -0.034136247 0.027559072 0.016327275 -0.011911631 0.0009293362
-0.024980864 0.026511744 0.041687537 0.027928216 0.052696194 -0.0224934 -0.017323216 -0.0042196503
0.029681573 -0.017998047 -0.028067116 0.032311067 -0.028566428 -0.045294616 0.047324415 -0.0020271635
-0.021930408 -0.007692769 0.028124968 0.011992 -0.021972144 0.024484744 -0.015621281 0.049867876
0.041329492 0.0030046704 0.039966833 0.03904842 -0.023356741 0.041188456 0.044416428 -0.027381096
0.0035254848 0.0049495785 -0.008612723 0.0031814605 -0.0057412586 -0.025835358 0.017277177 0.031356264
-0.02318003 -0.038723677 -0.03741189 -0.020438874 0.0014770163 0.04574415 0.02446275 0.039298538
-0.031260177 0.008063885 -0.04539426 -0.01123907 -0.0048195594 -0.011829515 -0.03256922 0.019708093
-0.04012196 0.05428278 0.038675208 0.01481708 0.013573555 -0.0019993947 0.030248703 0.012546875
-0.02832705 -0.03827985 -0.00980155 0.029948028 -0.0141316885 -0.024337161 -0.01569949 -0.01942104
-0.008485485 0.0139996195 -0.027003255 -0.03170849 0.006580461 0.023662437 -0.05357725 -0.028215311
0.038591873 -0.042438157 0.013359086 0.021190489 -0.0007884296 -0.025939735 -0.0007184911 0.045737796
0.03670398 0.002543538 -0.03506793 0.009339776 0.015145856 0.03649396 -0.012425943 -0.00068216707
0.021336738 0.02340885 0.021361606 0.0075680627 -0.0014615919 0.034261085 -0.001436547 0.023048418
0.04331153 -0.047495972 -0.016254598 0.03137783 -0.017881831 0.0024738603 -0.020702833 -0.028510137
0.0058603967 -0.010980625 0.0060662036 -0.04704773 0.04382625 -0.014644606 -0.022463582 0.012515775
-0.0337815 -0.023961576 0.043515187 0.007609854 0.01352196 0.0106216865 0.043126434 0.024652435
-0.0068264925 -0.024160868 -0.022055447 -0.01590243 0.01117583 -0.008012654 -0.053403735 0.009083161
0.0066120634 0.0012235625 -0.018622985 -0.0104942955 -0.029770441 -0.026076805 -0.005725208 0.012652883
0.04587576 -0.0023606303 0.025846343 0.018769506 -0.0035924553 0.059098624 -0.023503456 0.010563998
-0.00093655405 -0.0035258692 -0.043264214 -0.00361128 0.0055738157 0.002337986 -0.008409048 -0.01459623
0.028408702 0.04364007 -0.036512293 -0.025682472 -0.011585848 -0.017059105 -0.0410716 0.017393714
0.031338397 0.026220292 -0.0028724927 0.029584482 0.041263867 0.013076469 -0.012376144 0.016695032
0.021531202 -0.008988872 -0.0062071984 0.013555927 0.022706512 0.00632896 -0.020753123 -0.004039796
00000000: 0c76 d1bc 099a 3f3c 5f20 13bb bb16 1cbd
00000010: 20f2 a43c cd6c 323d ed87 de3c b1ba 08bd
00000020: 424c b7bb 2710 46bd 5c06 2f3d a4ee 1e3d
00000030: e9a5 203b f914 a3bc 6e18 5e3c f4af 8cbb
00000040: 184a e4bc 2bcb 583d 6cb5 a03b 941a 143d
00000050: bfbb eebb 7a52 cb3b f7e4 403c 9f87 28bd
00000060: 10aa ddbc edba b03c 18fc df38 5499 acba
00000070: d6cc 29bd 0d49 fb39 c658 63bc 3b1d 40bd
00000080: e1dd 263d 0ec0 863c ce1f 423c c56d d93c
00000090: 33f7 09bd 3c2b 3abd 3ad1 32bd 065a 493d
000000a0: 7005 833a 3b61 6f3c 245b fabc e309 26bd
000000b0: baf4 613b 360d bf3c cffa 4bbd 1517 d53a
000000c0: 6c96 48bc e008 c73c 3618 26bd 7c6d b13c
000000d0: e1a7 a93c 7147 02bd 5c4b 2839 ccd6 b93c
000000e0: 27d2 133d 467b 2abd 308e 30bb bd91 103d
000000f0: f7a9 193d e2c8 cf3c 2490 6abd a9ba 9fbc
00000100: f8e2 f63a 899c d93c 647c ab3b 73d2 0bbd
00000110: 90c3 e13c c7c0 853c 0029 43bc b29e 733a
00000120: aba4 ccbc 282f d93c 8dc0 2a3d b7c9 e43c
00000130: f7d7 573d 1444 b8bc 6be9 8dbc fe44 8abb
00000140: c526 f33c a470 93bc 02ed e5bc 9c58 043d
00000150: 2404 eabc d986 39bd 3fd7 413d 29da 04bb
00000160: 66a7 b3bc a013 fcbb 5566 e63c 187a 443c
00000170: edfe b3bc 3b94 c83c 67f0 7fbc 4242 4c3d
00000180: 1d49 293d 01ea 443b 43b4 233d 3cf1 1f3d
00000190: a356 bfbc 3ab5 283d 00ee 353d 524e e0bc
000001a0: d20b 673b 1330 a23b 611c 0dbc 0d80 503b
000001b0: 2b21 bcbb aca4 d3bc de88 8d3c 6d6f 003d
000001c0: 0ce4 bdbc b89c 1ebd 363d 19bd 6d6f a7bc
000001d0: 7198 c13a 385e 3b3d 1b66 c83c 81f7 203d
000001e0: ac0a 00bd 631e 043c 55ef 39bd 1424 38bc
000001f0: 65ed 9dbb 95d0 41bc 4d67 05bd de72 a13c
00000200: ed56 24bd 9f57 5e3d e569 1e3d 57c3 723c
00000210: 9e63 5e3c 4708 03bb 21cc f73c 6891 4d3c
00000220: 210e e8bc 55cb 1cbd ae96 20bc 9155 f53c
00000230: 9988 67bc ba5e c7bc 389c 80bc df18 9fbc
00000240: b406 0bbc a95e 653c ee35 ddbc c3e0 01bd
00000250: e8a0 d73b bad7 c13c d273 5bbd cc23 e7bc
00000260: 8312 1e3d a2d3 2dbd 11e0 5a3c ad97 ad3c
00000270: 9dae 4eba 917f d4bc 1f59 3cba 8e57 3b3d
00000280: ea56 163d 7db1 263b 64a3 0fbd dc05 193c
00000290: 5326 783c b17a 153d 2f96 4bbc 75d3 32ba
000002a0: 62ca ae3c ebc3 bf3c 89fe ae3c 83fd f73b
000002b0: e392 bfba 5a55 0c3d 854a bcba 09d0 bc3c
000002c0: 6e67 313d 238b 42bd 5d28 85bc 0a86 003d
000002d0: eb7c 92bc 7d20 223b fd98 a9bc 178e e9bc
000002e0: 9208 c03b 14e8 33bc 01c7 c63b 1fb5 40bd
000002f0: 2783 333d eeef 6fbc 8c05 b8bc f70e 4d3c
00000300: 785e 0abd 114b c4bc fb3c 323d 155c f93b
00000310: 368b 5d3c 9506 2e3c 58a5 303d e7f3 c93c
00000320: c5b0 dfbb 03ed c5bc a0ad b4bc d045 82bc
00000330: d41a 373c 8247 03bc e0bd 5abd 8ad1 143c
00000340: 02aa d83b f25f a03a 3b8f 98bc 44f0 2bbc
00000350: 24e1 f3bc 069f d5bc 879a bbbb 0a4e 4f3c
00000360: 39e8 3b3d ceb4 1abb b6bb d33c 82c2 993c
00000370: 666f 6bbb 6611 723d 528a c0bc 9e14 2d3c
00000380: 1483 75ba 4512 67bb d135 31bd 39ab 6cbb
00000390: 8ea4 b63b e538 193b 1bc6 09bc 0725 6fbc
000003a0: 5eb9 e83c eebf 323d ea8d 15bd 0c64 d2bc
000003b0: 92d2 3dbc 89bf 8bbc b23a 28bd 437d 8e3c
000003c0: b15c 003d f0cb d63c 6e40 3cbb 285b f23c
000003d0: 4d04 293d b03e 563c 4fc5 4abc 05c4 883c
000003e0: 3462 b03c 1046 13bc c165 cbbb ae19 5e3c
000003f0: 0203 ba3c 2a63 cf3b 7402 aabc 4460 84bb

fc3.bias f4 [3]
0.022186842 0.022089267 0.011666596
00000000: 2ec1 b53c 8df4 b43c 4025 3f3c

fc1.weight f4 [100, 11]
-0.1813775 0.19911043 0.16326532 -0.17163135 0.0038685414 0.05359346 0.09612663 0.11022124
0.16073507 0.15136358 0.068692945 -0.019088024 -0.22401868 0.16611809 0.038375687 -0.030620493
-0.13138779 -0.17872785 0.023478078 -0.057100765 0.10628134 0.08955414 -0.012446717 -0.020497931
-0.16954035 -0.12322334 0.12795852 0.14052068 -0.1121786 0.24135248 -0.0451939 0.051183566
0.13436188 0.032705646 -0.31265828 0.13006425 -0.033682663 -0.026211701 -0.043780036 0.124573074
0.25170907 -0.21585631 0.05792543 -0.059938192 -0.24198209 -0.04168581 0.12592988 -0.23858352
-0.07410532 0.04101895 0.021976441 0.11592151 0.014996698 -0.03389223 -0.11680578 -0.25656402
0.20402518 0.116605654 -0.07926939 -0.20876035 0.13651732 -0.0014305486 0.09748576 0.22339284
-0.032236416 0.02613454 -0.2763816 0.038114022 0.17931956 0.07910353 -0.15254594 -0.09325646
0.17493764 -0.14728767 0.043725118 0.11358128 -0.04645665 0.13829477 0.12156724 -0.06428651
-0.19707593 -0.06730753 -0.03594578 -0.12308626 -0.24057807 0.25295004 -0.26227266 0.15934868
-0.23332347 -0.12129312 -0.26767752 0.20575535 0.030438317 -0.21335192 0.080343634 0.23291557
-0.28511888 -0.11307938 0.099473745 -0.0800952 0.10112762 -0.057533536 -0.093999885 0.21470128
0.19168718 0.2391985 0.26278028 -0.17183782 -0.09389069 0.082016535 -0.09724461 -0.09089028
0.0094011165 0.14001395 0.14106552 0.1182519 -0.010539697 -0.05982099 -0.10925317 0.1922632
0.023581346 0.017100155 0.06389414 0.17779751 0.06790732 0.2312098 0.23701993 -0.08962759
-0.061912272 0.2024815 0.25669664 -0.22548106 0.13920546 0.24477343 0.26849332 0.09579722
-0.11159933 -0.017404681 0.08622361 -0.12079502 0.16764724 -0.035127915 0.094660595 0.18433863
-0.09171882 0.06824529 0.15753475 0.10597965 0.21656021 0.10049545 0.13758361 0.19136117
0.11303985 0.22482926 0.029095812 -0.09309078 0.25259113 0.11391805 -0.059191205 -0.067690365
-0.21232723 -0.24006748 -0.15807778 -0.15705594 0.13222298 0.06098639 -0.2528856 0.15895197
-0.043497328 -0.2293606 -0.06729998 0.15350701 0.21273449 -0.16639136 -0.044674624 0.032354433
-0.24164604 -0.16631933 0.27448368 -0.28223303 -0.100772426 -0.12524341 -0.16526088 -0.14458151
-0.2082929 0.09992925 0.08527006 0.21261142 -0.01695825 -0.20149216 0.020726832 -0.069935836
0.08575579 0.10641687 -0.2163812 -0.03816531 0.13104035 -0.2098694 -0.09630839 -0.33162645
0.018799847 0.059630804 0.10822798 -0.0886467 -0.2304371 0.17653687 0.15622626 0.07078068
0.057895664 0.18956749 -0.30710584 -0.030839492 0.096544504 0.29386625 -0.054774303 0.15603258
-0.15515368 0.03355289 0.20386806 0.17012487 -0.1785715 -0.10570984 -0.13118963 0.17354526
-0.11191121 0.24429284 0.09885386 -0.01956413 0.038295854 -0.093102925 -0.19330753 0.19662873
-0.009174288 -0.23025051 0.21565141 0.15819359 -0.14513794 0.10367035 -0.12430811 -0.17081873
-0.26316658 -0.08053616 -0.06972841 0.07745833 -0.15241684 -0.06285381 -0.03929015 0.0024581566
-0.09202404 0.02819106 0.030794304 0.014984264 -0.09621241 0.19126615 -0.31807002 -0.046459265
00000000: 06bb 39be 9be3 4b3e 062f 273e 21c0 2fbe
00000010: 5b87 7d3b d184 5b3d 0ade c43d acbb e13d
00000020: bc97 243e 0eff 1a3e e3ae 8c3d 7d5e 9cbc
00000030: 2765 65be dc1a 2a3e d32f 1d3d d4d7 fabc
00000040: 858a 06be 6f04 37be 1955 c03c 7ee2 69bd
00000050: 08aa d93d 2968 b73d 51ed 4bbc 47eb a7bc
00000060: fc9b 2dbe 855c fcbd 8f07 033e a7e4 0f3e
00000070: e5bd e5bd 1b25 773e 3d1d 39bd dca5 513d
00000080: 2996 093e 5bf6 053d bf14 a0be 902f 053e
00000090: d5f6 09bd ecb9 d6bc b252 33bd 2b20 ff3d
000000a0: 03e0 803e 7009 5dbe 3743 6d3d c081 75bd
000000b0: 27ca 77be bdbe 2abd c3f3 003e 3d4f 74be
000000c0: 88c4 97bd 7d03 283d f007 b43c 4268 ed3d
000000d0: b6b4 753c 94d2 0abd de37 efbd 5c5c 83be
000000e0: faeb 503e f2ce ee3d fd57 a2bd 46c5 55be
000000f0: 32cb 0b3e 3f81 bbba 9da6 c73d 18c1 643e
00000100: 550a 04bd 1a18 d63c e481 8dbe 731d 1c3d
00000110: 8c9f 373e 0801 a23d 0135 1cbe 3efd bebd
00000120: da22 333e 94d2 16be 1c19 333d 4d9d e83d
00000130: 5449 3ebd 259d 0d3e 3ff8 f83d a5a8 83bd
00000140: 46ce 49be 88d8 89bd e23b 13bd a614 fcbd
00000150: 195a 76be ab82 813e 9a48 86be 4d2c 233e
00000160: 59ec 6ebe 8768 f8bd 070d 89be 88b1 523e
00000170: c759 f93c ed78 5abe 348b a43d 6b81 6e3e
00000180: 1afb 91be 2996 e7bd e4b8 cb3d f408 a4bd
00000190: ff1b cf3d 49a8 6bbd 0383 c0bd a7da 5b3e
000001a0: a549 443e 74f0 743e 238b 863e 41f6 2fbe
000001b0: c349 c0bd 49f8 a73d 2f28 c7bd af24 babd
000001c0: 2407 1a3c d15f 0f3e 7b73 103e 0d2e f23d
000001d0: b1ae 2cbc db06 75bd 20c0 dfbd a5e0 443e
000001e0: ab2d c13c a015 8c3c eeda 823d 8d10 363e
000001f0: fe12 8b3d 43c2 6c3e 5ab5 723e ab8e b7bd
00000200: b997 7dbd 4f57 4f3e be6d 833e 82e4 66be
00000210: e08b 0e3e e3a5 7a3e f577 893e 5531 c43d
00000220: 318e e4bd 4394 8ebc 0196 b03d 6163 f7bd
00000230: b8ab 2b3e 4ae2 0fbd 6add c13d 44c3 3c3e
00000240: 14d7 bbbd 30c4 8b3d ca50 213e dc0b d93d
00000250: f6c1 5d3e 8fd0 cd3d b8e2 0c3e 2ff4 433e
00000260: 7081 e73d a439 663e 575a ee3c 61a6 bebd
00000270: a053 813e de4d e93d 7a72 72bd 3fa1 8abd
00000280: 4f6c 59be 40d4 75be 24df 21be 46d3 20be
00000290: 7665 073e ddcc 793d 397a 81be 4ec4 223e
000002a0: 412a 32bd 81dd 6abe 92d4 89bd f130 1d3e
000002b0: 12d7 593e 7f62 2abe bdfc 36bd 1586 043d
000002c0: 0f72 77be 9d4f 2abe 2089 8c3e d980 90be
000002d0: c661 cebd cf3f 00be 263a 29be 2d0d 14be
000002e0: bc4a 55be b5a7 cc3d 12a2 ae3d cfb6 593e
000002f0: 07ec 8abc f653 4ebe 51cb a93c 853a 8fbd
00000300: bba0 af3d 17f1 d93d 0993 5dbe 3a53 1cbd
00000310: 712f 063e 01e8 56be 553d c5bd f1ca a9be
00000320: 2302 9a3c 6e3f 743d a2a6 dd3d 678c b5bd
00000330: b4f7 6bbe 15c6 343e c7f9 1f3e 76f5 903d
00000340: 0124 6d3d fb1d 423e fa3c 9dbe 1aa3 fcbc
00000350: 20b9 c53d a375 963e 055b 60bd 01c7 1f3e
00000360: 9be0 1ebe c16e 093d cac2 503e 3735 2e3e
00000370: 73db 36be 677e d8bd 9356 06be d9b5 313e
00000380: b431 e5bd e727 7a3e e473 ca3d f444 a0bc
00000390: 1ddc 1c3d bfac bebd 69f2 45be 0b59 493e
000003a0: c14f 16bc cac6 6bbe b9d3 5c3e 80fd 213e
000003b0: 0a9f 14be 1f51 d43d 4095 febd 1beb 2ebe
000003c0: c5bd 86be 24f0 a4bd c5cd 8ebd 79a2 9e3d
000003d0: 2913 1cbe 80b9 80bd b5ee 20bd 0619 213b
000003e0: 1a77 bcbd f0f0 e63c 5644 fc3c 8f80 753c
000003f0: 030b c5bd 46db 433e 13da a2be 124c 3ebd

fc1.bias f4 [100]
0.43253076 -0.34357762 0.33142108 -0.17932975 -0.12451184 0.3373701 -0.32856667 -0.27586928
-0.39145222 -0.40514708 0.2541549 0.15589873 0.19061914 -0.3123792 0.3071123 -0.01099365
-0.3972319 -0.32412094 -0.41347644 -0.21500666 0.29536998 -0.09444422 0.34822553 -0.16072261
0.3507904 0.16863413 -0.1291436 0.082786486 0.27221236 0.39112633 -0.18670598 -0.42519757
0.22449821 -0.099740416 -0.37912488 0.21080548 -0.2692654 0.32472834 0.22087274 0.049239833
0.19322908 -0.333949 0.42176777 -0.062141206 -0.023509586 -0.2672987 -0.42889556 -0.35540703
-0.3254748 0.32065472 0.40015766 -0.3735597 0.13189998 0.07116797 -0.15420961 0.10688405
0.14534159 0.08405576 -0.40778694 -0.2205597 0.1620439 0.23132566 -0.19054675 -0.08519183
0.05408469 -0.40268552 0.21083632 -0.34780622 0.13523391 0.34380448 0.26269114 0.39755023
0.007896451 -0.30265513 -0.17116587 -0.30110615 -0.32800892 -0.19779213 0.18290639 -0.26413897
-0.34009796 -0.27176413 -0.33486718 0.19450177 -0.3433603 -0.15890144 -0.38843533 -0.3832678
-0.39374515 0.11885889 0.18086202 0.2524672 0.32264227 -0.14818083 -0.39357907 0.19580191
0.33922976 -0.20307446 -0.35941556 -0.23390006
00000000: ac74 dd3e 68e9 afbe 06b0 a93e 38a2 37be
00000010: 1000 ffbd c6bb ac3e e439 a8be bd3e 8dbe
00000020: 6d6c c8be 706f cfbe 9720 823e eba3 1f3e
00000030: aa31 433e 2bf0 9fbe d33d 9d3e b61e 34bc
00000040: fb61 cbbe 2ef3 a5be 2fb3 d3be b52a 5cbe
00000050: bc3a 973e f96b c1bd 9e4a b23e 7894 24be
00000060: cd9a b33e 6dae 2c3e 383e 04be f68b a93d
00000070: 6b5f 8b3e b641 c83e da2f 3fbe 7fb3 d9be
00000080: dce2 653e b444 ccbd a81c c2be 64dd 573e
00000090: 28dd 89be cb42 a63e 772c 623e b5af 493d
000000a0: d8dd 453e 5dfb aabe f2f1 d73e c787 7ebd
000000b0: 2d97 c0bc 60db 88be 3398 dbbe e9f7 b5be
000000c0: a2a4 a6be db2c a43e 77e1 cc3e 3843 bfbe
000000d0: ca10 073e 83c0 913d 20e9 1dbe 06e6 da3d
000000e0: 6dd4 143e 6d25 ac3d 73c9 d0be 67da 61be
000000f0: d6ee 253e a2e0 6c3e b01e 43be 0e79 aebd
00000100: e887 5d3d cc2c cebe 7ae5 573e a813 b2be
00000110: c27a 0a3e 2407 b03e 747f 863e b48b cb3e
00000120: 1e60 013c 9df5 9abe 1b46 2fbe 962a 9abe
00000130: c9f0 a7be 058a 4abe d04b 3b3e 393d 87be
00000140: 5221 aebe ab24 8bbe b673 abbe 792b 473e
00000150: eccc afbe 0fb7 22be ffe0 c6be ad3b c4be
00000160: f798 c9be 4a6c f33d e533 393e 6143 813e
00000170: 5e31 a53e b7bc 17be 3283 c9be 4c80 483e
00000180: 86af ad3e c0f2 4fbe 5105 b8be 7f83 6fbe

fc2.weight f4 [100, 100]
0.12529843 -0.17124636 0.0234294 -0.1157514 -0.02661167 0.075973384 -0.061452176 -0.14150009
-0.15911998 -0.14509076 0.1470625 0.0088237 0.14334904 -0.014367889 0.14882053 -0.009195835
-0.14478478 -0.015778031 -0.05540314 -0.052999336 0.085121624 0.031270675 0.0988198 -0.046599213
0.06758117 0.14941657 -0.012718414 -0.022362152 0.13868628 0.13619195 -0.1209979 -0.19243899
0.14018108 -0.0572475 -0.14519356 0.10269216 -0.14241824 0.022493085 0.13272955 0.08164816
0.09755515 0.00025826372 0.09735974 0.0014327725 -0.021531118 -0.1402293 -0.1522298 -0.13486218
-0.046029016 0.1511962 0.14452778 -0.08659845 0.104296125 0.040207744 -0.00906943 0.045848396
0.08773756 0.008335207 -0.090379 -0.112531625 0.0018174637 0.12803881 -0.07746558 -0.09189848
-0.04067553 -0.12460697 0.14585426 -0.1901005 0.013538458 0.15586123 0.13739574 0.01747729
-0.03357537 -0.043182775 -0.08825706 -0.03242805 -0.17634113 -0.14057186 0.1144713 -0.12340236
-0.19214593 -0.09637192 -0.06744273 0.080047555 -0.018391326 -0.032633916 -0.10935621 -0.043113086
-0.17866954 -0.009843731 0.10387176 0.17043115 0.09785412 -0.057442028 -0.11135442 0.09589967
0.12518728 -0.06961695 -0.06684755 -0.13170907 0.12221667 -0.08934517 0.051232036 -0.11797145
0.005808999 0.08425881 -0.03612006 -0.16917735 -0.09189435 -0.029457763 0.108374916 0.11908582
0.054426756 -0.12787925 0.11972906 0.052331965 -0.05070559 -0.07228941 -0.09917776 -0.08437793
0.037158813 -0.10137093 0.117684506 -0.103555076 0.18347341 0.08168742 0.034935426 0.0129080955
0.06730594 0.14933197 -0.1380548 -0.121750966 0.031156331 -0.02049814 -0.20040298 0.068004794
0.00395932 0.123532064 0.004327625 0.040861197 0.041252397 -0.16621621 0.19386476 0.07654883
-0.04386716 -0.0163538 -0.14308222 -0.17585608 -0.054001976 0.07733765 0.030275745 -0.15239935
0.06999939 0.08353793 -0.07871763 -0.010144821 0.018148685 0.115399174 -0.20377524 -0.08025262
0.14630999 0.11672557 0.024013264 0.037069667 0.007983247 -0.025840865 -0.0040427474 -0.01198432
0.042492535 0.11053908 0.028409144 0.039785467 0.03007354 -0.16091621 -0.14835733 -0.07879433
-0.034102615 -0.056585588 -0.0064446814 -0.01879923 -0.1865421 -0.1898496 -0.16485927 0.0005737277
-0.07666033 -0.025615104 -0.09398184 -0.15657887 -0.15108374 0.12936516 0.16121615 0.041412108
0.16895926 -0.016675454 -0.1250997 0.12395453 0.085064895 -0.030111158 -0.015689136 -0.039291095
0.04251293 -0.07239219 0.14435689 -0.079837054 -0.033229817 0.13856888 -0.076523244 -0.12021408
-0.13916077 -0.10314389 0.023952756 0.044514686 0.0943659 -0.11557119 0.09634537 -0.014466583
-0.14972107 -0.15957323 -0.19263789 -0.030521296 0.1632444 -0.004137789 0.18961541 -0.011218576
0.107624136 0.10623567 -0.062038194 -0.02664191 0.09568142 0.061076194 -0.0046419534 -0.1209437
0.11036776 0.019274605 -0.09100362 0.097790845 -0.11164614 0.14211868 0.051096696 0.04797231
0.15107425 -0.16472326 0.03192316 -0.0032388829 0.078869596 -0.16043167 -0.099532545 -0.09079802
-0.09883541 0.060296748 0.17313899 -0.14191464 -0.0076784994 0.046362862 -0.0718611 0.042259328
00000000: 3b4e 003e 355b 2fbe 03ef bf3c 120f edbd
00000010: b800 dabc ef97 9b3d 47b5 7bbd 66e5 10be
00000020: 59f0 22be ac92 14be 8d97 163e 4891 103c
00000030: 17ca 123e 4b67 6bbc 6964 183e 21aa 16bc
00000040: 7642 14be ee40 81bc 67ee 62bd d515 59bd
00000050: 3f54 ae3d ae15 003d 0962 ca3d d1de 3ebd
00000060: ff67 8a3d a800 193e e560 50bc d530 b7bc
00000070: c703 0e3e e775 0b3e bfcd f7bd ba0e 45be
00000080: a18b 0f3e 5b7c 6abd 9fad 14be 4450 d23d
00000090: 16d6 11be 6b43 b83c 41ea 073e 2737 a73d
000000a0: ffca c73d 9267 8739 8b64 c73d decb bb3a
000000b0: 0762 b0bc 4598 0fbe 21e2 1bbe 5019 0abe
000000c0: ec88 3cbd 2dd3 1a3e 17ff 133e 875a b1bd
000000d0: 3599 d53d e0b0 243d f297 14bc 87cb 3b3d
000000e0: c0af b33d 6490 083c a018 b9bd fb76 e6bd
000000f0: f637 ee3a 9b1c 033e 46a6 9ebd 4535 bcbd
00000100: 629b 26bd f031 ffbd d25a 153e b5a9 42be
00000110: 69d0 5d3c 169a 1f3e 78b1 0c3e 892c 8f3c
00000120: 5486 09bd 6ce0 30bd 1ec0 b4bd 46d3 04bd
00000130: c592 34be 12f2 0fbe ee6f ea3d 60ba fcbd
00000140: e7c1 44be a45e c5bd 6a1f 8abd f9ef a33d
00000150: 68a9 96bc 24ab 05bd 26f6 dfbd 5997 30bd
00000160: 26f5 36be 9a47 21bc b8ba d43d 8185 2e3e
00000170: be67 c83d 5548 6bbd c90d e4bd 0c67 c43d
00000180: 1831 003e 5593 8ebd 5ee7 88bd bede 06be
00000190: bc4c fa3d 9afa b6bd afd8 513d 049b f1bd
000001a0: 6a59 be3b e28f ac3d a1f2 13bd d43c 2dbe
000001b0: 1b33 bcbd 6851 f1bc abf3 dd3d 44e3 f33d
000001c0: 97ee 5e3d c7f2 02be 8234 f53d 0b5a 563d
000001d0: aab0 4fbd 780c 94bd b61d cbbd 56ce acbd
000001e0: d733 183d 909b cfbd 9304 f13d af14 d4bd
000001f0: 74e0 3b3e bc4b a73d 7318 0f3d 7a7c 533c
00000200: b2d7 893d 7bea 183e 3d5e 0dbe 9258 f9bd
00000210: 903b ff3c b7eb a7bc 7036 4dbe 1946 8b3d
00000220: 2fbd 813b 61fe fc3d c0ce 8d3b 125e 273d
00000230: 46f8 283d 9534 2abe 7c84 463e a2c5 9c3d
00000240: 0dae 33bd 68f8 85bc 2584 12be 9e13 34be
00000250: 2d31 5dbd 3463 9e3d d704 f83c 930e 1cbe
00000260: d75b 8f3d ef15 ab3d b536 a1bd 7736 26bc
00000270: 8dac 943c 6756 ec3d 75aa 50be 7c5b a4bd
00000280: 49d2 153e d10d ef3d 77b7 c43c 5dd6 173d
00000290: 2acc 023c 39b0 d3bc 0679 84bb e259 44bc
000002a0: a70c 2e3d 5062 e23d 4bba e83c 16f6 223d
000002b0: c95c f63c 38c7 24be fcea 17be ec5e a1bd
000002c0: 2faf 0bbd 4ac6 67bd e82d d3bb d800 9abc
000002d0: e404 3fbe ef67 42be ded0 28be 3766 163a
000002e0: 1700 9dbd c4d6 d1bc 8d79 c0bd 3656 20be
000002f0: b2b5 1abe 4d78 043e d915 253e be9f 293d
00000300: a803 2d3e f69a 88bc 231a 00be dfdb fd3d
00000310: 8136 ae3d adab f6bc 8186 80bc b3ef 20bd
00000320: 0a22 2e3d 5b42 94bd 4bd2 133e 9c81 a3bd
00000330: fd1b 08bd 00e5 0d3e 38b8 9cbd cd32 f6bd
00000340: 2980 0ebe 1b3d d3bd 9238 c43c 0855 363d
00000350: e942 c13d 97b0 ecbd b950 c53d 3f05 6dbc
00000360: 7b50 19be 2a67 23be de42 45be cc07 fabc
00000370: 8a29 273e 4a96 87bb 8b2a 423e 1ece 37bc
00000380: 0b6a dc3d 1692 d93d c31b 7ebd 2340 dabc
00000390: 9ff4 c33d 082b 7a3d 871b 98bb 55b1 f7bd
000003a0: 7e08 e23d c7e5 9d3c 1b60 babd 9146 c83d
000003b0: bba6 e4bd 8f87 113e c54a 513d 9d7e 443d
000003c0: 35b3 1a3e 37ad 28be dcc1 023d 7043 54bb
000003d0: 6286 a13d 3348 24be b8d7 cbbd 50f4 b9bd
000003e0: 386a cabd b9f9 763d 594b 313e 1252 11be
000003f0: ec9b fbbb fce6 3d3d ea2b 93bd 1e18 2d3d

fc2.bias f4 [100]
0.16115776 0.10131659 0.11420458 0.11068098 0.15699752 0.07969756 0.20772745 -0.07337361
0.16403121 -0.15991329 0.048754536 0.112977244 0.19820732 -0.051769976 0.1393487 -0.137009
0.13352634 -0.12515143 -0.1648788 0.1477015 0.02687278 -0.15066852 0.1968963 -0.15157892
-0.20011696 -0.17632462 0.039586917 0.17314273 0.16730148 -0.18938941 0.07042396 -0.15279791
0.037777692 0.13720168 -0.06162796 -0.1688013 -0.20565893 0.085255146 -0.09274398 0.14272764
-0.09079632 -0.024972789 0.06238983 -0.09289364 0.013544087 0.15284878 0.09679612 -0.16508222
0.20878118 -0.10580617 0.0953321 -0.131743 -0.08639032 -0.12211189 0.17794442 0.17151584
0.21614508 -0.19779588 0.18405096 -0.14404821 0.14048791 -0.028874805 -0.08004898 0.17544295
0.2080773 -0.2093527 -0.060246963 0.12895378 -0.19841658 -0.13960175 0.096117534 -0.14412284
0.13825086 -0.15053341 -0.111869335 0.1439817 -0.2032036 -0.096621394 -0.21895795 -0.089105666
-0.011253697 -0.06959043 -0.05888707 -0.03009819 -0.18029478 0.092207745 -0.087434344 -0.053105384
0.15888739 -0.055925295 -0.08536044 -0.035316795 -0.11766457 0.1337508 -0.024040384 0.13305084
-0.16030268 -0.18448591 0.19208546 -0.10509723
00000000: 8a06 253e 137f cf3d 17e4 e93d b6ac e23d
00000010: f5c3 203e 7938 a33d 81b6 543e e744 96bd
00000020: ccf7 273e 4fc0 23be d6b2 473d 9d60 e73d
00000030: dcf6 4a3e c10c 54bd 6db1 0e3e 164c 0cbe
00000040: 21bb 083e b227 00be fdd5 28be 103f 173e
00000050: 4e24 dc3c d948 1abe 2f9f 493e 8137 1bbe
00000060: 76eb 4cbe 718e 34be e425 223d 544c 313e
00000070: 1451 2b3e 4cef 41be 703a 903d 0e77 1cbe
00000080: c8bc 1a3d 997e 0c3e 9a6d 7cbd 3fda 2cbe
00000090: 4198 52be 409a ae3d 8ef0 bdbd 3227 123e
000000a0: 6cf3 b9bd bc93 ccbc 7a8c 7f3d 053f bebd
000000b0: 05e8 5d3c 6484 1c3e 0b3d c63d 500b 29be
000000c0: bcca 553e e8b0 d8bd 7a3d c33d a3e7 06be
000000d0: 68ed b0bd cc15 fabd 1037 363e d9a1 2f3e
000000e0: 2355 5d3e 018b 4abe db77 3c3e 6081 13be
000000f0: 10dc 0f3e db8a ecbc b8f0 a3bd 51a7 333e
00000100: 3712 553e 8e60 56be 85c5 76bd 760c 043e
00000110: b72d 4bbe c3f3 0ebe 45d9 c43d f094 13be
00000120: a291 0d3e 6e25 1abe c01b e5bd f06f 133e
00000130: 9b14 50be 70e1 c5bd 8336 60be 087d b6bd
00000140: 6d61 38bc 6d85 8ebd 9133 71bd 7b90 f6bc
00000150: 329f 38be 6ad7 bc3d c710 b3bd 0885 59bd
00000160: 60b3 223e ec11 65bd 74d1 aebd 58a8 10bd
00000170: 1ffa f0bd f8f5 083e 57f0 c4bc 7b3e 083e
00000180: 6326 24be e0e9 3cbe 0db2 443e 373d d7bd

fc3.weight f4 [1, 100]
0.12336569 0.13786942 0.12589161 0.08993603 0.14006762 0.13192824 0.12616913 -0.13293824
0.13185245 -0.13421299 0.11279486 0.13979295 0.13214394 -0.121507294 0.13651556 -0.13141468
0.13231884 -0.13200186 -0.13572891 0.120587654 0.13603942 -0.1304686 0.13871098 -0.12848577
-0.12369313 -0.11526772 0.11172498 0.13811047 0.13743584 -0.13073902 0.12576601 -0.1265648
0.13542576 0.1214503 -0.13338669 -0.12785956 -0.14422588 0.120768644 -0.1303011 0.13492574
-0.12546279 -0.12871265 0.12508096 -0.13785838 0.119959444 0.14216389 0.12301666 -0.12782398
0.13161394 -0.11388994 0.13588186 -0.13378082 -0.13221467 -0.13521346 0.12987593 0.1331133
0.12906687 -0.11708117 0.13110851 -0.12591954 0.1310322 -0.13311669 -0.12013831 0.13079688
0.13213538 -0.1331267 -0.13137059 0.13661106 -0.11764848 -0.115031034 0.13749088 -0.12783554
0.12943465 -0.1386161 -0.14172873 0.12754634 -0.13153599 -0.14236353 -0.12931302 -0.13549562
-0.112001486 -0.108404756 -0.12425042 -0.1318521 -0.12788142 0.12615138 -0.12279551 -0.1171976
0.12710102 -0.13940631 -0.12105106 -0.116526395 -0.12993701 0.1436382 -0.13158138 0.13862519
-0.13169926 -0.14678337 0.110206656 -0.12747206
00000000: 27a7 fc3d a42d 0d3e bbe9 003e 6230 b83d
00000010: e36d 0f3e 3218 073e 7b32 013e f620 08be
00000020: 5404 073e 216f 09be fe00 e73d e225 0f3e
00000030: be50 073e d1d8 f8bd bcca 0b3e 9291 06be
00000040: 977e 073e 7f2b 07be 85fc 0abe a9f6 f63d
00000050: eb4d 0b3e 9099 05be 400a 0e3e c691 03be
00000060: d352 fdbd 7b11 ecbd 11d0 e43d d56c 0d3e
00000070: fbbb 0c3e 73e0 05be cec8 003e 349a 01be
00000080: 0dad 0a3e efba f83d 8596 08be 9eed 02be
00000090: f3af 13be 8d55 f73d a76d 05be f929 0a3e
000000a0: 5179 00be 40cd 03be 3915 003e bf2a 0dbe
000000b0: 4cad f53d 6993 113e 29f0 fb3d 4ae4 02be
000000c0: cec5 063e 213f e9bd 9d24 0b3e d7fd 08be
000000d0: 4863 07be 6675 0abe 32fe 043e da4e 083e
000000e0: 1b2a 043e 41c8 efbd 4f41 063e 0df1 00be
000000f0: 4e2d 063e be4f 08be 130b f6bd 9eef 053e
00000100: 7f4e 073e 5e52 08be 0386 06be c5e3 0b3e
00000110: b0f1 f0bd 6495 ebbd 69ca 0c3e 52e7 02be
00000120: 848a 043e 61f1 0dbe 5621 11be 829b 023e
00000130: 5fb1 06be bfc7 11be a26a 04be 5dbf 0abe
00000140: 0961 e5bd 5003 debd 0177 febd 3d04 07be
00000150: 59f3 02be d42d 013e 367c fbbd 4c05 f0bd
00000160: c526 023e 87c0 0ebe 9ee9 f7bd 64a5 eebd
00000170: 350e 05be e415 133e 45bd 06be c3f3 0d3e
00000180: 2cdc 06be 614e 16be 07b4 e13d 0988 02be

fc1.weight f4 [100, 14]
0.20113833 0.1739862 0.12523308 0.24540313 0.11996494 0.14709109 -0.131266 -0.17402752
0.07831678 -0.06580257 0.1436709 0.21077728 -0.13427848 0.2596783 -0.14014561 -0.09367679
0.073243484 0.11075324 0.10108894 -0.26086912 0.16881347 0.26351628 -0.11322359 -0.079295434
-0.14670776 -0.015173212 -0.2248169 -0.08103039 0.03375581 -0.008476593 -0.1792255 0.0021081585
-0.2136917 0.07905418 0.13169472 0.15548426 0.19739832 0.052055817 0.11750273 0.2559972
-0.16462922 0.10501001 -0.014308985 -0.24206765 -0.17873612 0.13526787 -0.047250796 0.111841716
0.18132065 0.1966514 -0.25010034 0.18112211 0.2211982 -0.2525729 -0.20634761 0.19410917
-0.26562318 -0.08992442 0.10557546 -0.08258431 0.018380143 -0.15056781 -0.1481766 0.018287128
0.16323976 -0.09469071 0.11451554 -0.22057241 -0.26909885 -0.097998716 0.074164264 0.17442529
0.08058628 0.18828455 0.20454542 -0.21070807 0.1023301 0.21995232 -0.05135831 -0.10119618
-0.06581545 0.18595551 -0.2180032 -0.049747728 0.0677188 0.20597425 0.15732168 0.27135456
-0.09249846 -0.24680917 0.21105024 -0.033648062 0.1016377 0.11228993 0.14033942 -0.13378745
0.021079509 -0.21569319 -0.0054017124 0.09084295 0.16348206 0.1568304 -0.25200266 -0.17027181
-0.15676194 -0.175746 0.19706902 0.12783876 -0.04117528 5.1707233e-05 -0.019467426 -0.052884378
0.22371137 -0.18592048 -0.076003954 0.002961281 -0.14668252 0.0778707 -0.03444692 0.0697388
-0.13503306 0.116556294 -0.06473863 0.16530783 0.2655043 0.2550241 0.2533554 -0.00415915
0.12142723 -0.10654186 0.21683137 0.2130457 -0.18701783 0.2245496 0.044802167 -0.16326387
-0.14384407 0.22489552 -0.05646876 0.18184613 -0.0684908 0.22457817 -0.04881892 0.12529083
-0.19311185 0.25380886 0.24663246 -0.17961082 0.25182205 0.061865047 0.19789876 -0.103609145
0.18677837 0.009189047 0.013734635 -0.18431334 -0.20457973 -0.026486272 -0.13686708 0.19491541
-0.22232968 -0.17114164 -0.09057621 0.08755676 0.17622851 -0.09847837 -0.22420305 -0.02040681
-0.070462726 0.25413707 -0.010647566 0.21211095 -0.012367086 0.26025465 0.19801427 0.077562094
-0.03669295 -0.146121 -0.15894476 -0.2362243 0.2526461 -0.13386385 -0.26629338 -0.14270903
-0.045066856 0.16853422 -0.06992857 -0.15866962 -0.25671697 0.10953584 -0.15442415 0.20453566
0.10383107 -0.1930135 -0.19366157 -0.053181782 -0.062393375 0.26134872 -0.23075384 0.061665192
-0.18873647 -0.14167447 -0.092762865 0.020390127 -0.022656787 -0.046767052 0.19448963 0.26850045
-0.18732491 0.21721496 -0.15727621 0.089716345 0.0035114747 0.03828649 -0.051356453 -0.13270178
0.009446774 -0.22846413 -0.01565461 0.06273168 -0.00781214 -0.0928109 0.2176807 0.0753993
-0.029800648 0.03190153 0.100711785 -0.15466073 -0.037793484 0.04322437 -0.18228014 -0.19509831
-0.12133806 0.18088578 0.06591057 0.17253698 -0.054158192 -0.0077045467 0.015095727 0.25085652
-0.25889957 0.13450827 -0.16202347 -0.080352046 0.12805195 -0.036200657 0.23965329 -0.057888452
-0.015193095 -0.24596074 -0.25242528 0.099881016 0.24381697 -0.13723692 -0.18335404 -0.065545425
00000000: 35f7 4d3e 7029 323e 1a3d 003e f54a 7b3e
00000010: 2eb0 f53d 0c9f 163e 986a 06be 4534 32be
00000020: 8c64 a03d 7fc3 86bd 771e 133e 00d6 573e
00000030: 4c80 09be 8ef4 843e 5582 0fbe 9ed9 bfbd
00000040: ae00 963d 98d2 e23d b807 cf3d a390 85be
00000050: 70dd 2c3e 9beb 863e c5e1 e7bd a565 a2bd
00000060: 8f3a 16be 1099 78bc 6736 66be 43f3 a5bd
00000070: 8843 0a3d 68e1 0abc e486 37be 0829 0a3b
00000080: ffd1 5abe 28e7 a13d fbda 063e 4437 1f3e
00000090: c922 4a3e 7b38 553d 45a5 f03d 1112 833e
000000a0: 9094 28be 7d0f d73d 3c70 6abc 95e0 77be
000000b0: 9a06 37be a983 0a3e 0d8a 41bd 450d e53d
000000c0: 1fac 393e fc5e 493e 270d 80be 1378 393e
000000d0: c881 623e 3c51 81be ca4c 53be 8ec4 463e
000000e0: c3ff 87be 4b2a b8bd f237 d83d f621 a9bd
000000f0: f491 963c 732e 1abe 9bbb 17be e3ce 953c
00000100: 5328 273e 34ed c1bd 2087 ea3d bcdd 61be
00000110: 53c7 89be 8db3 c8bd 6fe3 973d 8b9c 323e
00000120: 6b0a a53d aacd 403e 5b74 513e dbc3 57be
00000130: 7292 d13d 2e3b 613e 175d 52bd f13f cfbd
00000140: 40ca 86bd 1f6b 3e3e 3b3c 5fbe 46c4 4bbd
00000150: 27b0 8a3d eaea 523e ef18 213e fcee 8a3e
00000160: d56f bdbd 8bbb 7cbe 8e1d 583e 8dd2 09bd
00000170: 6d27 d03d 43f8 e53d 23b5 0f3e 94ff 08be
00000180: efae ac3c adde 5cbe d900 b1bb de0b ba3d
00000190: d767 273e 2698 203e 7e06 81be bc5b 2ebe
000001a0: 3486 20be c2f6 33be 76cc 493e 2ae8 023e
000001b0: 69a7 28bd 38e0 5838 277a 9fbc 4a9d 58bd
000001c0: 9814 653e f061 3ebe f6a7 9bbd 0d12 423b
000001d0: f133 16be ac7a 9f3d 3718 0dbd 37d3 8e3d
000001e0: 1b46 0abe 11b5 ee3d b095 84bd 7546 293e
000001f0: 2ef0 873e 8592 823e cdb7 813e 7b49 88bb
00000200: d7ae f83d 9e32 dabd 0b09 5e3e a728 5a3e
00000210: 9a81 3fbe 55f0 653e 7a82 373d a52e 27be
00000220: dc4b 13be 034b 663e c94b 67bd df35 3a3e
00000230: e844 8cbd d2f7 653e 59f6 47bd 3d4c 003e
00000240: 1dbf 45be 3cf3 813e 388d 7c3e e6eb 37be
00000250: d2ee 803e 3466 7d3d f9a5 4a3e 0831 d4bd
00000260: d442 3f3e a88d 163c 3c07 613c a3bc 3cbe
00000270: 597d 51be bdf9 d8bc e226 0cbe e897 473e
00000280: 64aa 63be c13f 2fbe 0580 b9bd f550 b33d
00000290: 3f75 343e 07af c9bd 7c95 65be 2f2c a7bc
000002a0: c34e 90bd 411e 823e 2173 2ebc 9d33 593e
000002b0: 519f 4abc 1940 853e 41c4 4a3e e0d8 9e3d
000002c0: 594b 16bd bea0 15be 6ac2 22be c8e4 71be
000002d0: d45a 813e 9b13 09be 9b57 88be 5122 12be
000002e0: 0698 38bd 3c94 2c3e b636 8fbd 4a7a 22be
000002f0: 6870 83be 5454 e03d 5d21 1ebe cc71 513e
00000300: 62a5 d43d 55a5 45be 384f 46be 24d5 59bd
00000310: 3290 7fbd 80cf 853e bc4a 6cbe a494 7c3d
00000320: 2244 41be 1d13 11be 75fa bdbd 3209 a73c
00000330: ba9a b9bc cf8e 3fbd 4a28 473e e478 893e
00000340: 1ad2 3fbe 996d 5e3e 040d 21be 34bd b73d
00000350: c520 663b 4bd2 1c3d 255b 52bd fae2 07be
00000360: a4c6 1a3c 80f2 69be 193e 80bc 7879 803d
00000370: fbfc ffbb a413 bebd b0e7 5e3e f36a 9a3d
00000380: 7d20 f4bc 2eab 023d fb41 ce3d 625f 1ebe
00000390: 57cd 1abd 090c 313d a5a7 3abe dac7 47be
000003a0: 1780 f8bd 1f3a 393e 1ffc 863d 89ad 303e
000003b0: fbd4 5dbd 6c76 fcbb 1154 773c 4470 803e
000003c0: 7c8e 84be 89bc 093e 7be9 25be 9d8f a4bd
000003d0: 0d20 033e 2447 14bd ac67 753e 711c 6dbd
000003e0: 76ec 78bc 22dd 7bbe e33d 81be 6b8e cc3d
000003f0: 28ab 793e d687 0cbe 29c1 3bbe ae3c 86bd
