mujoco/vail/save_model/ckpt_189.pth.tar (torch, 110947 bytes, 20 tensors)

fc1.weight f4 [100, 11]
00000000: 6859 263d 0677 24be a136 4a3e b021 d9bd
00000010: 9d27 8b3d f790 c03d 7616 3abe 1bee 143e
00000020: 9156 233e 8613 783e f297 84bc e81d 8c3e
00000030: 4416 c1bd ded5 903d c7a1 8cbe 4055 4d3d
00000040: 9e90 a93d 6abe 8e3b 8174 943d 7870 1a3e
00000050: 8df0 3f3e f1cb 613e b823 443e 8840 e0bd
00000060: e951 89be 0e85 b73d 6bc5 833d f185 50be
00000070: 7750 91bd 0622 533e 159c d1bd ff86 c939
00000080: caf6 133e 7f57 8b3e 92db 86be eb08 af3d
00000090: f7be 493e 3d29 fa3d b58f ea3d a1ce 8bbe
000000a0: 64a9 3dbd 931d 23be 8233 4f3e 0648 86be
000000b0: f6e0 093e c844 503e 8cfc 4a3e 8523 60be
000000c0: d6b1 89bd a936 dd3d 7777 37be 8f7b 41bc
000000d0: 1056 8a3e c7b8 c03d 4cf0 a83d b6b7 673e
000000e0: c21c cbbd 527c 64bd e33e 143e bf5d a63e
000000f0: 4442 d53d 7e75 353d 7507 23be 108c 95bc
00000100: 3406 51bc e828 083d ca71 7d3e 7f54 89be
00000110: 932b 9e3e 707b 23be 2eed 14be fda3 acbe
00000120: 0ee5 6e3e e180 8dbd f0d4 79bc 0079 3abe
00000130: 8697 36be 419a 803d 1ad9 873e 6633 3cbe
00000140: 942d 2cbe 7d56 833e 5cfa e03d 99d0 8a3e
00000150: 2867 b93c 72c6 41be fda6 653e a7ae 983e
00000160: 2e84 17bd 542e c23d 4a71 6bbe 11de b3be
00000170: 1bb1 803e 637e 763e ea7b cc3d 8e3c 3dbe
00000180: 9216 853e b94c 17be bec9 323e 3f11 a6bc
00000190: 64e2 503e f552 7cbc 297b 003e 68b8 843e
000001a0: cdd5 62be aa53 343e 5438 a13e 0138 523e
000001b0: 2ab0 253e 66e2 56bd d938 76be 948c 05bd
000001c0: a158 83bd 36e2 9bbe ab70 7ebc c2a4 9d3e
000001d0: 8b48 00be b72a 713e c508 a93d dcd6 693e
000001e0: cfa8 2ebd cbc7 d2bd a97e aebd 11c2 153e
000001f0: 3be6 a33d 7af1 7f3e 1c21 843e 7fb7 743d
00000200: 795d 93bd b47d 8fbd 7946 bbbd e7ce 3f3e
00000210: 08d3 b6bd 7d37 843e a107 25be 7389 203e
00000220: f67d 3d3e f59b c7bd 045f 54bc aded b3bd
00000230: c0a5 473e 9ff0 ef3c 82a8 bb3d cad6 df3d
00000240: 24a3 f53d c883 20be ea6a 333e b2bf 8ebd
00000250: 1932 6cbd 1a33 b63c 67b2 5b3e e11b 663e
00000260: 5dd4 05be 7d05 923c 9407 5bbe 6bea 45be
00000270: a672 753e 3705 a43e 82e0 3bbb b5e3 09be
00000280: 0fb5 9b3e bbe7 613e da83 553c 5e35 973a
00000290: 6803 183e 9e1a b2bd 32c3 c7bd 3a20 0b3e
000002a0: 9bbc 0e3e a3ed 483e 4517 c23d bb97 2dbe
000002b0: c1c9 efbc d562 653e a2e9 193e d10b 8dbd
000002c0: aeac 233e a735 8fbe 795f 3f3d 4c41 533e
000002d0: 74f0 1d3e d2fe 983e f0f6 5abe cdbf 8c3e
000002e0: 62fe 7c3e f10c 393e 63f3 8f3e 2556 63bc
000002f0: fd90 97be d0ff 0d3d 197c 88be 06ac abbb
00000300: 6b58 86be 6b48 1c3e 03a0 073e 51e9 69bd
00000310: ae40 5dbe a9da 24be c5b7 8f3e 5615 883e
00000320: 0446 773e fb7d 81bd cce1 6dbd 8fc3 4f3e
00000330: dc6a 3cbd 03bc a23d 25af 04be 7977 68be
00000340: 93f3 873e 26f9 e0bd 1088 953e 63b0 93be
00000350: aee7 e83c e8ee a93e b8a7 8bbe 2c2f 6ebe
00000360: 7690 5abe 5913 6dbd 677a c93d c0a5 84be
00000370: b7f5 2cbe 45c3 6fbe 85da b4bd a038 583e
00000380: 60c1 a6bd 096e c2bb 0386 0abe e78a f2bc
00000390: b9d0 ab3c 1dd9 f9bd 01d4 82be 0e77 7d3e
000003a0: 8ea1 273d 1b46 383e 49e4 443e 2cbe 933e
000003b0: 5f04 51be b6c8 f8bd 477c c23d 3c6a 95bd
000003c0: f0a0 593e fd71 fcbc dd97 b13c 27d9 a0be
000003d0: 591f 7e3e 444e 293e 7206 823e ca9a 5c3e
000003e0: f6c5 1bbe 3ec6 c9bd d970 81bd 48cf a63d
000003f0: afea 86be 4fa4 4d3e 8493 7f3d 3ef6 493d
0.04061261 -0.16061029 0.19747402 -0.106021285 0.06794665 0.0940265 -0.1817263 0.14543955
0.15950991 0.24226198 -0.016185734 0.27366567 -0.09428075 0.07072042 -0.27467176 0.05013013
0.08279537 0.004356195 0.07248784 0.15081966 0.18744107 0.22050454 0.1915425 -0.10949808
-0.26820305 0.08960925 0.06434139 -0.20363595 -0.070954256 0.20618448 -0.102348484 0.00038438287
0.14449611 0.27215192 -0.26339394 0.08546623 0.19701754 0.12214897 0.11453191 -0.27306083
-0.04630412 -0.1592925 0.20234492 -0.26226825 0.13464722 0.20338738 0.19822901 -0.2188855
-0.06723373 0.10801441 -0.17916666 -0.011809244 0.27018785 0.094102435 0.08248958 0.22628674
-0.099175945 -0.055782624 0.14477114 0.32493398 0.1041303 0.044301502 -0.15920813 -0.018255264
-0.012757827 0.033242136 0.24750438 -0.26822278 0.3089262 -0.15965056 -0.14543602 -0.33718863
0.23329565 -0.06909347 -0.015248522 -0.1821022 -0.17831239 0.062794216 0.26532823 -0.18378982
-0.16814262 0.25651923 0.10985252 0.27112272 0.022632197 -0.18923357 0.22426982 0.2982075
-0.03699129 0.09481493 -0.22992435 -0.3513036 0.2513512 0.2407165 0.09984572 -0.18480131
0.25993782 -0.14775361 0.17459771 -0.020271895 0.20398861 -0.015400638 0.12546982 0.2592194
-0.22151871 0.1761004 0.31488287 0.20529176 0.16180483 -0.052462004 -0.24045123 -0.03260477
-0.06413389 -0.30446023 -0.015529792 0.30789763 -0.12527673 0.2355145 0.08253626 0.22835869
-0.042641457 -0.10292014 -0.08520252 0.14624812 0.08002897 0.2499446 0.2580651 0.059745308
-0.07195563 -0.07006398 -0.09144301 0.1873127 -0.0892697 0.25823584 -0.16116191 0.15677433
0.18505082 -0.09746543 -0.012962107 -0.087855674 0.19496822 0.029289542 0.09163 0.1092964
0.11994007 -0.1567527 0.17521253 -0.06970157 -0.057664964 0.022241164 0.21454774 0.22471572
-0.13069291 0.017824883 -0.2138961 -0.19327705 0.23969516 0.3203523 -0.0028667753 -0.1346577
0.30411574 0.22061054 0.013031924 0.001153629 0.1484505 -0.08696483 -0.097540274 0.13586512
0.13939135 0.19621901 0.094770946 -0.16952412 -0.029271008 0.22400983 0.1503053 -0.068870194
0.15983841 -0.2797062 0.04672191 0.20630378 0.15423757 0.29881912 -0.21383262 0.27490082
0.24706414 0.18071343 0.28115377 -0.013875519 -0.29602805 0.03466779 -0.2665718 -0.0052390127
-0.26239333 0.15262 0.13244633 -0.057107273 -0.21606705 -0.16099037 0.28069893 0.26578778
0.24147803 -0.06322857 -0.058076665 0.20289443 -0.046000347 0.07946017 -0.12957437 -0.22701825
0.2655302 -0.10985021 0.2920537 -0.2884551 0.028430786 0.33190084 -0.27276397 -0.23260182
-0.2134417 -0.05787978 0.098377995 -0.25907707 -0.16890608 -0.23414333 -0.08830742 0.2111535
-0.08142352 -0.0059335274 -0.13527684 -0.02960725 0.02097355 -0.12199614 -0.2555237 0.24752447
0.040925555 0.17995493 0.19227709 0.28856027 -0.20411824 -0.121476576 0.0949636 -0.07295653
0.21252799 -0.030816073 0.02167886 -0.31415674 0.24816646 0.16533762 0.25395542 0.21543422
-0.15212235 -0.09852265 -0.06320352 0.081450045 -0.26350924 0.2008221 0.06239654 0.0493071

fc1.bias f4 [100]
00000000: 3d12 fcbd 1edc 8fbe e6b4 e9bd 12ee ed3d
00000010: fef1 b73d f537 29be a98d 86bd 790f 703d
00000020: 61dd 8fbd ea5d 9abe 6ff6 c23d d091 833d
00000030: 9677 31be ba4f 323e e398 103e fbbe 83be
00000040: 8ccc 633e 8b04 8c3e 2acb 4dbe d746 dc3d
00000050: a828 0a3c 9a1a 82be e13a a83d b442 48be
00000060: 16fc 373d c760 e33d e9ff 80be abd1 3fbe
00000070: 3c67 853e d8f7 0a3e 944e 13be 4cf4 d53d
00000080: c014 5f3e 2585 6a3e c502 a9be 3963 233d
00000090: 08cb 1e3e a63b cc3d 2101 04be ce7c c33d
000000a0: 81ae 4d3e e414 953e 82bf da3c 6d95 a1be
000000b0: 54ec 7a3d 6dfd 8cbb 3959 6bbe 71a4 82be
000000c0: 7de7 343e 684a a03e 1abf ab3d 4917 8d3e
000000d0: eba7 72be 1555 48be 1ef9 cdbb 647d 553e
000000e0: 9275 bfbc e662 953e 1098 4e3e 1428 6f3e
000000f0: 12b4 40be f9e3 833e dd73 583e 00ec c53d
00000100: fd28 4bbd c33a 7dbe 2a35 12bd 8166 eebd
00000110: ba48 9f3c a66f 5bbc 3552 a73e 1454 e9bd
00000120: 744f 023e 10ed 893d a948 8abe c5a8 80be
00000130: 36ad 273e 98c7 333e 7223 8d3e a303 a13e
00000140: 7c0a 92be 9569 77be 27f5 733e 58d0 c53d
00000150: c888 9b3e 922b 9dbe d941 1bbe f103 963e
00000160: d0fd 6d3e d476 a3bc e5e8 833e 4566 813e
00000170: 7330 a6bc 8812 4c3e 429e 2fbe 172d 493e
00000180: da57 9f3e 2662 b8bc ed41 5b3e b295 913e
-0.12308166 -0.28097624 -0.11411457 0.11617674 0.08981703 -0.16525252 -0.06569988 0.058608506
-0.070246466 -0.30149776 0.0951966 0.06424296 -0.17330775 0.17413226 0.14120822 -0.25731644
0.22245997 0.27347216 -0.20097032 0.10755699 0.008432545 -0.2541092 0.08214355 -0.19556695
0.044918142 0.11102443 -0.25195244 -0.18732326 0.26055324 0.13571107 -0.14385444 0.104469866
0.21785259 0.22902353 -0.33009925 0.039889548 0.15507138 0.099723145 -0.12891056 0.09545289
0.20086099 0.291175 0.026702646 -0.31559315 0.061260536 -0.0043026716 -0.22983254 -0.25516084
0.17666431 0.31306767 0.08386059 0.27556828 -0.23696868 -0.19563706 -0.0062858006 0.20848614
-0.023371492 0.29177016 0.20175195 0.23355132 -0.18818691 0.25759867 0.21137948 0.09664154
-0.049599636 -0.24729447 -0.035695232 -0.11640645 0.019443858 -0.013393318 0.32679906 -0.1139299
0.12725621 0.06734669 -0.2700856 -0.2512876 0.16374668 0.17556608 0.27566105 0.31448087
-0.28523624 -0.2416137 0.23823987 0.09658879 0.30377793 -0.30697304 -0.15161838 0.29299882
0.23241353 -0.019954123 0.25763622 0.25273338 -0.020286774 0.19928944 -0.17150214 0.19646107
0.31121713 -0.022507738 0.21411867 0.2843452

fc2.weight f4 [100, 100]
00000000: 2bb8 30bd 3aef 1bbc 6a28 f3bc a827 753d
00000010: 0c57 3a3d 2475 31bc 21fd 38bd cfa2 753c
00000020: 9dc9 2dbc 7a32 adbd fe0e a13d 369f 4bbd
00000030: 4a50 5ebc ac55 ec3d b9f0 883d 580f 963d
00000040: e026 a6bc 834f 11bd 9cb2 863b b9a0 ae3d
00000050: db6b 32bd 1c87 e93d 6b07 643d bf7f 3e3d
00000060: 02b9 20bd 8575 77bd 8667 0bbd 280a 61bd
00000070: e728 39bd 69f8 8fbd 49f4 69bd 54f7 30bd
00000080: d672 ad3d 6bf4 29bd 8808 983d b47f 893d
00000090: d468 b1bd 0b35 c83d e965 623d 575d 79bd
000000a0: c862 9eb8 854c 4b3d df61 b13d 244f fd3b
000000b0: 9125 ea3d 3055 bf3d 4c61 4fbd 68a0 d6bc
000000c0: 0875 dfbd ae77 7abd ee88 a4bc a39b a9bd
000000d0: 5b1a 463d 2814 dd3c c6f8 a5bd d188 ddbb
000000e0: f0fc e63a 629f 6f3d e6a7 473d 4d51 e93b
000000f0: e40f 52bc 07bb 5abd a993 9f3d f14b 07bc
00000100: 1ff2 4c3a e6b2 423d a160 7f3d 7ff5 c13c
00000110: 3fb0 d53d eae9 793d 7b33 48bd 492f b9bd
00000120: 05dd c33c 5c70 f93c b929 993d aee5 55bd
00000130: c31e 87bd 95c4 903c bdc0 113d e3b6 653d
00000140: 36ef 973b 3e39 c2bc 59e8 2abd 9f15 923d
00000150: 3bdd bf3d 1ea2 0d3d 37f6 be3d 0ea4 02bd
00000160: 0e26 74bd d0ed b43d da92 06bb b1b9 1dbd
00000170: a13b 29bc 5760 0bbd 470b d73c 8166 163d
00000180: 47d0 12bc f216 69bd 6478 00bd 68ec ce3d
00000190: bd66 6bbd 81d2 34bd ccf1 9a3d 2c49 b33d
000001a0: e701 ebbc 8530 18bc 1a96 883d 670e af3d
000001b0: 7dbc 45bc 445a 4d3d 760f fe3d 6ca1 6dbd
000001c0: 8725 66bd fa80 323d 5b1b b13d 0d6c 983d
000001d0: c34b ba3d 98b3 803d 25d4 a13c 1c42 e8bd
000001e0: b79f cdbd bc3b c13d 0907 093e a265 edbb
000001f0: 4c50 ddbc 058c ab3c a921 6dbd 181b 5abd
00000200: c41e 9c3c ede3 af3d 93a4 adbd f9e6 1ebd
00000210: 32b7 b4bc 696f 633c a304 743d fd60 4dbd
00000220: 612e acbd b9a1 893d c1b5 a03d f60e 7f3c
00000230: c718 b7bc a03e a4bd 8d68 b6bd c92d 933d
00000240: 4edf c1bd 568b 8ebd b2ed da3c 397a 90bd
00000250: be05 50bd 0bbe ad3d 858c c03c a5e1 fabb
00000260: 9d41 893d 4c7e 55bd fb57 393d 2686 213d
00000270: 5087 793d 5e6a c0bc 2aa7 5e3d 868e 903d
00000280: fa45 64bd f004 ecbc 9ab0 f0bc 72cc d13d
00000290: 2de3 e8bc 8192 e6bd 1826 cbbd a9c2 353d
000002a0: 0576 ac3d c535 b03d 6527 cd3c 97e5 2dbc
000002b0: caf5 26bd 71dc e33c 96e0 8b3c 73d6 b1bd
000002c0: 8d01 233d f95e b2bd 4f70 0e3d 9443 b43d
000002d0: 3c8a edbc 8b14 bebd 56f5 99bd 8848 c6bd
000002e0: 4c53 913d f44b ac3d a3f0 013d ebce 1cbd
000002f0: 7271 00bd 47f1 c23d 4356 273d 6541 9d3b
00000300: 0c78 29bd a95a 213d c00d d2bd 9871 e83c
00000310: 5b04 abbd c415 aebc b009 10bd c7cb 7bbd
00000320: 3107 af3d a847 72bc bcb3 a13d 5e0a 4fbc
00000330: f87f 13ba cfd7 c2bc d2ce 1a3d 5a0e 82bd
00000340: ae4e 45bd e6f5 253d 5f05 d2bd b484 ca3d
00000350: eeb6 a0bc e4c3 4fbc 49b7 803d f0cc 91bd
00000360: a2f3 ee3c e7d8 873d 98df 9e3b 105a ae3d
00000370: 560a bc3d 7791 adbd 7ab3 cf3d fccf e53c
00000380: f59a febb 27bb 6b3d 3cd2 89bd 31c1 043d
00000390: 59e1 b4bb 27ba c63d c395 24bd 13dd 8e3d
000003a0: 7ed4 00bc aedb 9fbd 78c5 503d e2fc b2bc
000003b0: 2bba 63bd afd6 b0bb 5e5a cd3c 10d1 52bb
000003c0: e7c4 843c 01f0 84bd 4ed2 33bd 1240 a53d
000003d0: 27ef 883c d066 f53c 1d83 413d bcd5 46bd
000003e0: d878 b8bd 5684 40bd f780 a43d 73b7 aebd
000003f0: f785 8e3b 127e a83b d508 76bd 39b1 e7bd
-0.043144386 -0.009517485 -0.029682357 0.059852272 0.04549317 -0.010831151 -0.045163278 0.01499243
-0.01060715 -0.08456893 0.07864188 -0.049712382 -0.013568947 0.11539778 0.06686539 0.07327145
-0.020282209 -0.03547622 0.0041106474 0.08526749 -0.04355989 0.11402723 0.055671137 0.046508547
-0.039238937 -0.06041481 -0.034034275 -0.054941326 -0.045205023 -0.07029802 -0.057117734 -0.04320462
0.08469169 -0.04149286 0.07423502 0.067138106 -0.086625725 0.09775742 0.05527297 -0.06088003
-7.5524265e-05 0.04963352 0.086612456 0.0077303816 0.114329465 0.0934242 -0.0506299 -0.026199535
-0.10910994 -0.06114929 -0.020084824 -0.082816385 0.04836498 0.02698715 -0.081040904 -0.0067606946
0.0017622989 0.05850161 0.048744105 0.0071202875 -0.012821171 -0.05340102 0.07791836 -0.008257852
0.0007818061 0.047533892 0.062348012 0.023676632 0.10434007 0.061014093 -0.04887722 -0.09042222
0.023909101 0.030449085 0.07478661 -0.052220993 -0.06597664 0.017671863 0.0355842 0.056082617
0.0046366705 -0.023708936 -0.04172549 0.0713303 0.09368368 0.034578435 0.093243055 -0.031894736
-0.059606604 0.08834422 -0.0020534308 -0.038507167 -0.010329158 -0.034027424 0.026250495 0.03671885
-0.00896079 -0.056906648 -0.031364813 0.10103685 -0.057471026 -0.044146065 0.0756565 0.08754191
-0.02868743 -0.009288912 0.066692546 0.08547669 -0.012068865 0.050134912 0.12405293 -0.058015272
-0.056188133 0.043580033 0.08647796 0.07442484 0.09096482 0.06284255 0.019754479 -0.11340734
-0.10040229 0.094352216 0.1338159 -0.0072447816 -0.027015828 0.02094079 -0.05789343 -0.053248495
0.019057639 0.08588395 -0.08478656 -0.03879449 -0.02206001 0.013881543 0.059574734 -0.050141323
-0.084072836 0.06720299 0.07847167 0.015567532 -0.022350682 -0.08019757 -0.0890666 0.07186467
-0.0946642 -0.0696017 0.02672467 -0.07054562 -0.050786726 0.084835134 0.023504505 -0.0076562935
0.06701968 -0.0521224 0.04524992 0.039434575 0.06092006 -0.02348822 0.05435864 0.07058434
-0.055730797 -0.028810948 -0.029381085 0.10244073 -0.028428638 -0.11258412 -0.09919375 0.044375096
0.08420948 0.08604006 0.025043199 -0.0106138205 -0.040761746 0.027815076 0.017074864 -0.08683481
0.0397964 -0.08709521 0.034775075 0.08801952 -0.02899658 -0.09281262 -0.07517497 -0.09681803
0.07095966 0.084129244 0.03172363 -0.03828327 -0.03135819 0.09518676 0.04085375 0.0047990554
-0.04137425 0.0393931 -0.10256529 0.028374478 -0.0835044 -0.021250613 -0.03516549 -0.061473634
0.085462935 -0.014787592 0.0789561 -0.012636749 -0.0005626674 -0.023784546 0.037794895 -0.063503936
-0.048170738 0.04051771 -0.10254931 0.09888592 -0.019618478 -0.012680981 0.06284959 -0.07119167
0.029168908 0.06633168 0.004848432 0.08513272 0.09181659 -0.08475011 0.10141654 0.028053276
-0.007769937 0.05755153 -0.06729552 0.032410804 -0.0055200276 0.097034745 -0.040181886 0.0697576
-0.007863162 -0.078055725 0.05096957 -0.0218491 -0.055597465 -0.005396686 0.025067504 -0.0032168068
0.016207172 -0.064910896 -0.043901734 0.08068861 0.0167156 0.029956251 0.04724418 -0.048543677
-0.09007424 -0.047001205 0.080324106 -0.08531084 0.004349466 0.005141982 -0.060067017 -0.113130994

fc2.bias f4 [100]
00000000: 1cab 1ebd c66c da3c 5daf bfbd 7861 cabd
00000010: da97 97bb d176 633b c5d6 dd3d 2842 123b
00000020: da6a eb3c db14 f4bd 72f9 523d 6c19 d93d
00000030: dece 5ebd b9df 73bd 0ff0 98bd 28e7 1fbd
00000040: 0101 a1bd 3c2f f03d 5029 84bd 04cd 723d
00000050: 9924 af3d b692 563d 097a 68bb c76e 413c
00000060: 3efe 19bd 951f c63d aa02 b5bd 3f9c 463d
00000070: c0a9 babd 747b 323d 7eba efbc 132a 103d
00000080: 0cfd 58bd 5abe 8f3d 55c5 133d 1775 403d
00000090: 58de 203d bb6f f9bd fbb6 dabd b6a5 57bd
000000a0: 888f 9c3c 9bb9 bd3d 1aee d0bb 8f79 a63c
000000b0: ebec 9b3d a2fe 87bd 4d06 64bd 0240 6bbd
000000c0: 902a 443d 30f4 943d 6d93 c03c 4a82 57bd
000000d0: abde ec3d 4ebb cbbd 923e 463d 5e7a a53d
000000e0: ba31 91bd bed0 4f3c 7dc8 803c 93e0 5cbc
000000f0: 2ae8 89bd 7eb9 0c3d e7d6 84bd fa43 3f3d
00000100: 37c3 8abd 5309 07b9 6fac c7bc f95f 3abd
00000110: 393c 40bd 715a 483d 7419 ae3d 586f bebc
00000120: cb2b 273d fa98 873d 608d 98bd a5c9 893d
00000130: 5f09 bebc 83d4 eb3b afcb 61bd 46d4 89bd
00000140: 68a7 6a3d f71f c1bd 4103 0ebd 7e49 cbbc
00000150: 9344 b93d 508e 4c3d c068 563c ee97 4dbd
00000160: f5ad 303d 8649 8b3d 5076 b23c 249b 02bd
00000170: aef0 fd3c 24a8 69bd cde1 acbd 863f e63d
00000180: 9d5c ed3d 8be3 b23d cb53 82bd d8ea 76bd
-0.0387374 0.026663195 -0.0935962 -0.09881872 -0.0046262564 0.0034708271 0.1083198 0.0022317264
0.028737474 -0.1191804 0.05150742 0.10600552 -0.054396503 -0.05953953 -0.074676625 -0.039038807
-0.078615196 0.11727759 -0.06453192 0.05927755 0.08551902 0.05238601 -0.003547313 0.0118061965
-0.03759598 0.096739925 -0.08838399 0.04848885 -0.091144085 0.043574765 -0.029263731 0.035196375
-0.0529757 0.070187286 0.036076862 0.046986666 0.039274544 -0.12179514 -0.10679432 -0.05264827
0.01911141 0.09263917 -0.00637604 0.020321636 0.07613548 -0.06640364 -0.05567007 -0.05743409
0.047892153 0.072731376 0.023507798 -0.052614488 0.11565908 -0.09947835 0.048399515 0.0807998
-0.07089563 0.012684045 0.0157206 -0.013481277 -0.06733735 0.034356587 -0.06486302 0.046695687
-0.067755155 -0.00012878077 -0.024374215 -0.045501683 -0.046932433 0.048914377 0.085009485 -0.023246452
0.04081325 0.06620975 -0.0744884 0.06727914 -0.023197828 0.007196964 -0.05512589 -0.06729941
0.057288557 -0.09429925 -0.034671072 -0.024815317 0.090462826 0.049940407 0.013086498 -0.05019372
0.04313465 0.06801133 0.021784931 -0.031886235 0.030998554 -0.057045117 -0.084415056 0.11242585
0.1158993 0.087348066 -0.063636385 -0.06028256

fc3.weight f4 [3, 100]
00000000: 41e3 ce3b 6771 7a3c 3a14 eabb 37f0 c6bc
00000010: 4a09 043d 4277 403d 6663 e03c ae01 c5bc
00000020: a8d9 edba 5539 55bd 1c84 163d d6a7 a83c
00000030: 965e aabc 6dab 90bb e95e 93bc dade 6d3c
00000040: 001e 01bd 2dca 773d b1f4 983c 97b2 1c3d
00000050: 769b 0abc 5f55 4fbc 90ae adbc 84c5 a6bc
00000060: 2bb5 b5ba 5612 ed3c f5ad dabb d73f 87bc
00000070: d40f 3fbd c373 abbc daec 14bd 6208 21bd
00000080: 0add e73c ca31 c73b d86a 3c3c bea8 303c
00000090: a5d3 d5bc 3fac 0abd 99da b7bc af99 7a3c
000000a0: 2ef0 28bc 7767 a73c e50a 4cbc a7a1 28bd
000000b0: 9db5 733c bdef 153d c606 2fbd 75df c9bb
000000c0: 8233 9bbc f6b4 db3c ed98 17bd 4ee0 fe3a
000000d0: 1f41 133d c51f 98bc 33fa c13b 6e17 dc3c
000000e0: 435d 0d3d 32c9 07bd 2a31 143c 7e71 203c
000000f0: 26da 273c a8bf 513c 5c6c 58bd f21a f53b
00000100: 41cd 1e3c 9bf9 713c b252 dc3b 1acf c8bb
00000110: e400 f63b 4198 8a3c 5be6 c43b f53e 66bc
00000120: a11d 7dbc 1b34 f53c 7e9b d03c 248f ec3c
00000130: 902d 373d f3b2 17bd 9b7b b1bc d9ea 3cbc
00000140: 777f d83b a11a cbbb 56e7 12bc b631 e53c
00000150: 27c3 d9bb a355 e2bc c4ff 833c efca 05bc
00000160: b8e9 49bc 1f84 dabc f25d ec3c b5a8 043c
00000170: fb12 aabb 84e9 e83c ca99 edbb bb80 1f3d
00000180: 039c be3c fd00 d13c f105 5a3c bae1 a93c
00000190: 066d 07bc de40 05bc 89f5 393d 1565 b0bc
000001a0: 5d34 2dba 70fb b3bb 35b2 1ebc f13e a13b
000001b0: 76b3 383b e9f1 1bbd c706 113c 3be7 b73c
000001c0: bf0a 253b df78 26bd 42dc 193c 0304 22bd
000001d0: 9ada 603c 9f72 583d 984f 6aba ca08 fe3c
000001e0: 0865 32bc e149 1b3d 78c0 a5bc b766 99bc
000001f0: 58cb a5bb 2b75 b9bc c920 a4bc 1195 c63c
00000200: a3f4 f9bc 6437 703d e0ff 3d3d dbef fe3c
00000210: 6e7c 0c3d b793 9f3c 8dd7 a33b f9cc fdbc
00000220: f26d e8bc 169d 12bd d4f9 9f3b eb52 0b3d
00000230: 2d56 5e3b 1e31 5bbc ab30 28bc 14f1 6bbb
00000240: b27b 0dbc 26fa 3fbb ccb6 d8bc 627d 93bc
00000250: f055 f93a d9cd 933c fdbe 11bd 5362 9cbc
00000260: e970 ca3c 8dd8 70bc 3122 87ba 8917 893c
00000270: 7d4e cc3b 21ba c0bc 3042 2dbc 7219 1b3d
00000280: 2240 153d 47bd c7bc 6288 22bd e69f e43a
00000290: 8463 033c 2e37 1c3d 15fb 11bd 82c5 a33c
000002a0: 1663 e13c c26c 933c e1e2 0b3c 0443 993c
000002b0: cece 3d3c f097 f03c 2bb3 afbb 9fa3 a6bc
000002c0: 39d6 3b3d c4e5 eebc adf9 0f3c aa46 ff3c
000002d0: f710 0ebd 3b4d d03c 6a86 e1bc 3a55 37bd
000002e0: 0118 443c 185d c43b f444 bc3c 349e c8bc
000002f0: 1945 c93c 99bc b8bc 2f9e 2cbd b381 e639
00000300: 7350 85bc cec7 20bd 8183 373d 7b15 ca3a
00000310: e41f 363b 1732 59bc 3c9a fb3b 58ce 1a3d
00000320: 6270 193c 418c 60bc aa54 8cbc 9e5d f2ba
00000330: e2c5 483d 2ddf 06bd 407a 1cbc dc14 713c
00000340: d1e4 213c dcfc 04bd 9c86 e03c 9e20 69bb
00000350: 18ef 4f3b cf57 22bc adf0 8cbb bc80 e53c
00000360: 549a 7b3c fe3b 213b 5442 ec3c b4dc 343c
00000370: a9c6 9c3c 1b8a ea3c df95 1cb9 0947 07bc
00000380: 8f2f 59bc c777 14bb 898b cbbc d2f8 61bc
00000390: 2655 bc39 d373 7dbb 8df4 23bc c598 57bc
000003a0: 8419 c13c 8fde ba3c 6c52 d8bc 9ac8 8ebb
000003b0: bcc8 bcbc 30a3 adbc 7561 25bd a612 adbb
000003c0: 76e3 e43b 203d 6b3b 89d9 e7bc a9b3 e13c
000003d0: 7767 803c f908 d13b 61e8 dbbb 9ecf ec3c
000003e0: b5e1 133d 57a8 c53a d564 8dbb ac1b 4039
000003f0: ad71 f03c 763d 1bbb d3de 623c 2a74 63bb
0.006313712 0.015285826 -0.0071435245 -0.024284465 0.03223542 0.046988733 0.027391147 -0.024048652
-0.0018146532 -0.05205663 0.036747083 0.020587843 -0.020797055 -0.004414967 -0.017989593 0.014518464
-0.03152275 0.060495544 0.018671365 0.038256254 -0.008459916 -0.012654631 -0.021201402 -0.020357855
-0.0013863196 0.028939407 -0.0066735693 -0.016509933 -0.046645954 -0.020929223 -0.03635869 -0.039314635
0.028303642 0.0060789334 0.011500083 0.010782419 -0.026101897 -0.033855673 -0.022443103 0.01529543
-0.01031117 0.020435078 -0.012453769 -0.04116979 0.014874843 0.036605585 -0.04273107 -0.0061606714
-0.01894546 0.026819687 -0.037011076 0.001944551 0.035950776 -0.018569836 0.0059197186 0.02686664
0.03451277 -0.03315086 0.009044925 0.009792684 0.010244882 0.012802042 -0.052837715 0.007480019
0.009692491 0.014768983 0.0067237252 -0.006128204 0.0075074304 0.016918303 0.006008906 -0.014053096
-0.015448959 0.029932072 0.02546477 0.028876849 0.044721186 -0.037035894 -0.021665385 -0.011530601
0.006606992 -0.006198243 -0.008966288 0.027977806 -0.0066455784 -0.027628725 0.01611317 -0.008166059
-0.012323789 -0.026674328 0.02885339 0.0080968635 -0.005190251 0.028431661 -0.007250999 0.038941126
0.023267752 0.025513167 0.013307081 0.020737518 -0.008265739 -0.008133141 0.045400176 -0.021532575
-0.0006607229 -0.00549262 -0.009686043 0.0049208333 0.002818314 -0.0380725 0.0088517135 0.022449126
0.0025183407 -0.040642615 0.009390892 -0.039554607 0.013723994 0.052843686 -0.0008938252 0.03101005
-0.010888346 0.037912253 -0.020233378 -0.018725736 -0.005059641 -0.022638878 -0.020035164 0.024241002
-0.03051216 0.058646575 0.0463866 0.031120231 0.034298353 0.019479616 0.005000061 -0.030981528
-0.028372739 -0.03579434 0.0048820768 0.034014624 0.0033925876 -0.01337841 -0.01026551 -0.0036001848
-0.008635448 -0.0029293387 -0.026454352 -0.018004123 0.0019022804 0.018042492 -0.03558253 -0.019089853
0.024712043 -0.014700067 -0.0010309872 0.016734855 0.0062349425 -0.023526253 -0.010574862 0.037866063
0.036438115 -0.024382247 -0.039680846 0.0017442673 0.008019332 0.03813856 -0.03563984 0.01999164
0.027513068 0.017996196 0.008537979 0.018708713 0.011584951 0.029369324 -0.0053619347 -0.020341692
0.045858596 -0.029162295 0.008787555 0.031161625 -0.034684148 0.025427451 -0.027529914 -0.044759013
0.011968614 0.005992543 0.022982098 -0.0244895 0.024569081 -0.022550868 -0.042143043 0.00043965652
-0.016273713 -0.03925305 0.044803146 0.0015417779 0.0027790004 -0.013256571 0.0076782983 0.03779444
0.009365173 -0.013705314 -0.017130215 -0.0018491035 0.04901684 -0.03292768 -0.009550631 0.014714446
0.009881214 -0.032467708 0.027407937 -0.003557242 0.0031728204 -0.0099086305 -0.0043011517 0.028015487
0.015356619 0.0024602409 0.028840221 0.011038948 0.019137697 0.028630307 -0.0001493315 -0.008256682
-0.013255968 -0.00226544 -0.024846809 -0.013792234 0.00035921595 -0.0038673773 -0.010007036 -0.013158982
0.023571737 0.022811202 -0.02640649 -0.0043574097 -0.023044936 -0.021195978 -0.040376145 -0.005281764
0.0069851233 0.0035894588 -0.028301971 0.027551489 0.015674336 0.0063792435 -0.0067110513 0.028907593
0.036103923 0.0015080076 -0.0043149986 0.00018320855 0.02935108 -0.0023687757 0.013847071 -0.003470669

fc3.bias f4 [3]
00000000: 66f5 b63c 17c7 553b 24ba a03c
0.022333812 0.0032619887 0.019620009

fc1.weight f4 [100, 11]
00000000: 4c40 38be 8725 1d3e 9e87 373e c407 2cbe
00000010: 8a6f 6c3c c0a8 703d e43b bc3d 8d3e f73d
00000020: 469e 343e 5c06 0e3e 277c 8b3d 4565 f1bb
00000030: 3dd0 3cbe 31fc 2c3e a2e9 b83c 1305 f6bc
00000040: f1cc 14be 868d 47be fb5f 7d3c 399b 78bd
00000050: 227d ef3d 630a d53d 3849 3abc 12b2 7dbd
00000060: bc4b 2abe 5e14 e9bd 7600 0a3e 2588 253e
00000070: d6d2 f0bd aa62 833e d27a 43bd 2ef8 373d
00000080: 6b1a 123e a0c1 5a3d ec83 8bbe 55d7 043e
00000090: d602 26bd 839a 01bd 5d02 77bd 0716 023e
000000a0: 1744 7f3e 327a 5bbe 489b 913d e98c 4dbd
000000b0: 823a 89be eafe 933c efd5 f53d 7251 60be
000000c0: 5b9c b1bd 0271 363d 6be5 bf3c fe3d f63d
000000d0: d7bd 973c 5a3f 8bbc a681 e8bd 9a84 83be
000000e0: b47a 253e fd67 033e 89ce 9bbd b516 4bbe
000000f0: 8d36 193e c0ab d53b eaff ed3d c855 753e
00000100: 3097 3cbd dba0 db3c 804b 88be f42c 943d
00000110: 523e 2d3e fb2b 923d 77fc 2bbe 2c36 cbbd
00000120: da56 373e 7a01 22be 9dca 293d 5378 e03d
00000130: eedf 82bd 9668 243e 2272 1a3e 9930 8abd
00000140: 6813 40be c391 97bd 89f4 39bd 79eb 02be
00000150: 66b8 76be 837d 863e d680 78be af12 2d3e
00000160: 3c09 70be 69c4 a1bd 8535 8ebe a3f3 543e
00000170: 7fc5 2e3d b2d4 64be 69e3 973d 7a3e 693e
00000180: 1851 94be a4cc d9bd 7caa d13d 9467 94bd
00000190: fefe 093e 0542 8bbd 40e6 54bd 613a 5a3e
000001a0: ab43 373e bc64 833e d292 833e 3e05 36be
000001b0: b2a6 abbd cb5c 9a3d 6147 f1bd 0ad4 00be
000001c0: a87f bf3b 1880 0c3e 8520 183e 0bec 0a3e
000001d0: 8ba1 dbbb 9c8d 57bd bd6a e2bd e28d 333e
000001e0: 3bea 833c a5f8 56bb 5abb d33c 8720 443e
000001f0: ef50 653d b471 6f3e d206 723e 1318 bdbd
00000200: 6c16 5cbd 6c79 593e 6951 6f3e 7847 66be
00000210: aa50 fd3d 973f 523e 5f52 873e 53aa bc3d
00000220: 8da9 02be 6184 763b f115 ae3d f7d4 edbd
00000230: e8ca 2b3e 3319 48bd 54d9 ad3d 75ca 363e
00000240: d786 5bbd 7bad 5d3d 33e9 153e 8bc5 ae3d
00000250: 2548 513e 6e91 ae3d 3b20 1d3e 514e 5b3e
00000260: f37b f83d a025 6d3e 4500 833c 1439 02be
00000270: 273c 893e 9571 cc3d 4920 5dbd f82f 62bd
00000280: 0449 5bbe 7a1b 6dbe b6e8 1fbe b1d8 25be
00000290: dc10 063e dfd4 7d3d 987f 8bbe dea3 293e
000002a0: dd61 c7bd b585 79be bdb4 c2bd fdd8 243e
000002b0: af2c 543e 9280 67be eaa6 a2bd 5364 473d
000002c0: c62a 6fbe 2148 04be da17 8c3e 2673 8cbe
000002d0: bdaf c1bd def1 fdbd f439 41be a74c 13be
000002e0: ab16 63be 0cbc 023e 624c d13d 77ac 533e
000002f0: 3c64 a23c cbcb 6bbe 9a30 ad3c edc8 85bd
00000300: 7a80 a93d c96a e23d bd0e 6fbe 42fe 6abd
00000310: a176 0b3e 09c8 50be a8d0 c9bd 5822 99be
00000320: 2048 fe3b 4439 7b3d 58ba fa3d 21fd b7bd
00000330: 4724 83be 33a1 353e 883f 1c3e 39c7 b33d
00000340: 876f 9a3d 87fb 543e d107 89be 8b1a fabc
00000350: 0d99 c03d c57c 903e 90cc 8ebd 4aa9 213e
00000360: 1855 25be 581a 113d a1dd 653e eaec 3b3e
00000370: 4e76 49be 5c63 0abe 1df7 0bbe 0764 373e
00000380: 51d3 dabd e1e4 873e da78 d03d cadc 40bc
00000390: 5f9e 123d a873 d0bd 0054 50be 2620 423e
000003a0: dd03 f43c 4b0a 69be e45f 503e 5b3e 173e
000003b0: 6494 13be 5984 d43d 27a0 02be 45fb 30be
000003c0: c371 6dbe 1386 8dbd 6bff a5bd b735 343d
000003d0: 8845 1cbe 63f5 42bd aed7 adbc 34da a43c
000003e0: 7d2f b3bd 55e0 123d 11d8 df3c c59a 273c
000003f0: a4a5 d6bd fb24 493e c3a3 8cbe 862e 1dbd
-0.17993277 0.15346347 0.17922828 -0.16799837 0.01443089 0.058754683 0.09191111 0.120724775
0.17638502 0.13869613 0.068107896 -0.0073668086 -0.18438812 0.16893078 0.022572342 -0.030031716
-0.14531304 -0.1948758 0.015464778 -0.060694907 0.11693789 0.10402372 -0.011369996 -0.0619374
-0.16630453 -0.11380838 0.13476738 0.16165216 -0.11758964 0.25661212 -0.047724552 0.044914417
0.1426789 0.05340731 -0.27249086 0.12972768 -0.04053005 -0.031641494 -0.06030499 0.12703715
0.24928318 -0.21433333 0.07109696 -0.05018321 -0.2680245 0.018065888 0.12003695 -0.21906069
-0.086724006 0.044541366 0.023424825 0.12023543 0.01852314 -0.016997982 -0.113528535 -0.25687104
0.16160089 0.12832637 -0.07607753 -0.19832881 0.14962216 0.0065207183 0.11621077 0.23958504
-0.04604262 0.0268101 -0.26620102 0.07235137 0.16918305 0.07137295 -0.16795526 -0.09922442
0.17904225 -0.15820876 0.041452993 0.1096045 -0.063903674 0.16055521 0.150826 -0.067475505
-0.18757403 -0.07400849 -0.045399223 -0.12785138 -0.2409378 0.26267633 -0.24267897 0.16901658
-0.23441023 -0.078987904 -0.27775207 0.20796065 0.042668816 -0.22346762 0.07416422 0.22777739
-0.2896812 -0.10634735 0.102375954 -0.072463185 0.13476178 -0.067997016 -0.051977396 0.21311332
0.17896907 0.25662792 0.25697953 -0.17775437 -0.08381404 0.0753723 -0.117811926 -0.12580886
0.005844075 0.13720739 0.14856155 0.13566606 -0.006702607 -0.052625284 -0.11055515 0.17534593
0.0161029 -0.0032802012 0.025846172 0.19153033 0.055985387 0.23383218 0.23635414 -0.092331074
-0.05373232 0.21237725 0.233709 -0.224882 0.12368901 0.2053207 0.26430032 0.09212174
-0.12759991 0.0037615525 0.08500279 -0.116128854 0.16776621 -0.048852157 0.08488718 0.17850669
-0.05359539 0.054120522 0.1463974 0.08533772 0.20437677 0.08523832 0.15344326 0.21416594
0.121330164 0.23158884 0.01599134 -0.12717086 0.26803705 0.099826016 -0.053985868 -0.055221528
-0.21414572 -0.23155013 -0.15616116 -0.16195942 0.13092369 0.061970588 -0.27245784 0.16566417
-0.09735463 -0.24367411 -0.09507129 0.160984 0.2072017 -0.2260764 -0.079419926 0.04867966
-0.2335616 -0.1291814 0.27361947 -0.274316 -0.094573475 -0.12399648 -0.18869764 -0.1438471
-0.22176616 0.12767047 0.10219647 0.20671259 0.019823186 -0.2302696 0.02114134 -0.06532464
0.08276458 0.11055524 -0.23345466 -0.057371385 0.13619472 -0.20388807 -0.09854251 -0.29909015
0.007760063 0.06133391 0.122425735 -0.089838274 -0.25613615 0.17737274 0.1525861 0.08778233
0.075408034 0.20799075 -0.26763776 -0.030530235 0.09404192 0.28220192 -0.06972611 0.15787235
-0.16145742 0.035425514 0.22447826 0.18352094 -0.19674036 -0.13514465 -0.13668485 0.17909251
-0.10684837 0.26541808 0.101793006 -0.01177139 0.035795566 -0.1017831 -0.20344543 0.18957576
0.029786998 -0.22757833 0.2034908 0.1476988 -0.14412075 0.10376806 -0.12756406 -0.17283352
-0.23187928 -0.06910338 -0.08105358 0.04399654 -0.15260899 -0.0475973 -0.021221008 0.020123579
-0.08749292 0.03585847 0.027324708 0.010229771 -0.10480812 0.19643013 -0.2746869 -0.038374446

fc1.bias f4 [100]
00000000: 7049 d53e 8b22 a8be 75b3 a13e 367f 24be
00000010: 41a3 e8bd ecee a33e a93a a0be 9554 85be
00000020: 6440 c0be 6ca9 c6be 09d7 743e 62f6 0e3e
00000030: 6a2d 2f3e c4c9 95be cbdf 933e 97f1 6abd
00000040: 95f2 c3be 8e1a 9dbe ee15 cbbe 39e2 49be
00000050: 4cbb 8d3e 8950 9bbd 8e55 aa3e 1ecd 11be
00000060: 63cc ad3e f1ee 1e3e 69a7 d8bd 3673 7e3d
00000070: 0a1e 833e ee02 c03e 4f2f 32be 47aa d2be
00000080: 9354 553e dd0b 6dbd 26de b9be 9fe3 493e
00000090: e36c 80be e94b 9e3e 2bad 4d3e 361d c83d
000000a0: e140 373e 425d a2be 65bd cf3e 58ec 4fbd
000000b0: ee3d 24bc 07ed 7ebe 5761 d3be 80fa adbe
000000c0: 2eb7 9ebe 9af0 9b3e 2f37 c53e 1bed b6be
000000d0: b786 fc3d 9d6b 613d bdf9 36be 6de7 fe3b
000000e0: 4406 0a3e 81a4 553d 9b6f c7be 75aa 4bbe
000000f0: c6d3 153e fce5 5d3e 0c7f 32be aabf 83bd
00000100: d172 033d 182f c6be 53f6 463e caed aabe
00000110: e36d 1e3e 0008 a83e 1e96 7b3e 60ea c23e
00000120: 82a1 b2bd c386 92be a754 1cbe 67ea 91be
00000130: d7da 9fbe a140 37be a6de 223e 2d45 80be
00000140: 6f31 a6be 2db1 84be 7522 a3be ff98 373e
00000150: 7453 a6be efdd 0fbe 1ec6 bebe 335c bbbe
00000160: aa37 c2be bd92 49bd dda6 293e db4a 6e3e
00000170: 2667 9d3e 44ca ffbd 878b c0be 7b3e 393e
00000180: 0d19 a63e c5d4 3ebe 15e4 aebe 44ff 5ebe
0.4165759 -0.32838854 0.31582227 -0.16064152 -0.11359263 0.3201822 -0.31294754 -0.26041093
-0.37549126 -0.38801134 0.23910154 0.13961175 0.17107168 -0.29255497 0.28881678 -0.057359304
-0.38271013 -0.30684322 -0.3966517 -0.19715203 0.2768196 -0.0758372 0.33268398 -0.14238402
0.33944997 0.15520836 -0.10578806 0.062121592 0.25608855 0.37502235 -0.1740086 -0.41145536
0.20833044 -0.05787264 -0.36302298 0.19715737 -0.25083074 0.3091729 0.2008559 0.097711965
0.17895843 -0.31711775 0.40574184 -0.050762504 -0.010024531 -0.24895106 -0.41285202 -0.3398018
-0.3099913 0.30457002 0.38518664 -0.35727772 0.12330382 0.05503427 -0.17868705 0.007779053
0.13478953 0.052158836 -0.38952336 -0.19889243 0.14631566 0.21669763 -0.17431277 -0.064330414
0.03209192 -0.38707805 0.19429903 -0.33384544 0.15471606 0.32818604 0.24568984 0.3806944
-0.087222114 -0.2861844 -0.15266667 -0.28499147 -0.3122165 -0.17895748 0.15905246 -0.25052777
-0.3245959 -0.25916424 -0.31862226 0.17929457 -0.32485545 -0.14049505 -0.37260526 -0.3659378
-0.37933093 -0.049212206 0.1656756 0.23270743 0.3074276 -0.12489751 -0.3760645 0.1809024
0.32440987 -0.18635853 -0.34158388 -0.21777064

fc2.weight f4 [100, 100]
00000000: 179f e23d 716c 20be 9027 893b f140 c4bd
00000010: 6832 7bbc 6c50 7c3d e8c5 27bd 99ef 1fbe
00000020: ac09 16be f0ad 05be 5f55 1d3e 5474 933c
00000030: 5066 0b3e 987a 133b a3c3 0b3e 3a6f d2bc
00000040: f573 0dbe c548 5fba 89ba 20bd 0e45 12bd
00000050: 747a d23d de0e 2b3d 80b3 a83d 4957 afbc
00000060: 6012 443d 7718 153e c1e1 fb3a 4208 03bd
00000070: 121f 0f3e 05aa 0a3e 7267 cebd 9e7a 46be
00000080: 1ab9 173e cebd 01bd 6f03 0dbe f8f3 b63d
00000090: 9ce1 09be 8de3 fb3b e425 033e 6c44 a63d
000000a0: 97ca b63d 1ce7 473c 60e0 a63d f7b4 463b
000000b0: 19e8 afbc 1aab 04be 98b9 12be 5d4e f9bd
000000c0: 3b47 d5bc 91a1 1d3e a6bd 063e 6826 92bd
000000d0: 6eee dd3d 524a d83c 27fd 2ebc bf59 343c
000000e0: abbb c33d 8e34 7bbc 0211 9abd 1ef9 a8bd
000000f0: 9ab7 76bb 91d5 093e ef0c 90bd a3da 8ebd
00000100: 0eda 6cbd 392a fabd 3f2d 153e 3f3b 37be
00000110: aa2c 5a3c 74bd 153e 78ff 013e 4607 5b39
00000120: 7c4d 4cbd ef62 e9bc 11b1 91bd 7487 38bc
00000130: 43dc 22be 8f79 f8bd c98c df3d e39f 06be
00000140: 208a 35be fbf2 c9bd bafa 65bd 9296 b63d
00000150: 0d27 11bc 9aeb 33bc 440c c5bd 1111 0abd
00000160: 0efc 2ebe 4c61 7cbd 18f9 bc3d 85aa 1e3e
00000170: 0ea9 b23d 866f 44bd 98c8 d3bd cdf3 983d
00000180: 96f5 e13d 46a1 8fbd 0484 81bd 5498 03be
00000190: ff25 de3d 699f 93bd aed0 133d 9fd4 c9bd
000001a0: e08c d03c fdbe 8e3d 8cb9 7ebc 48c2 2cbe
000001b0: c6d8 a5bd d44f 87bc 5a3b d93d f28b f13d
000001c0: 4182 3f3d 6326 eebd b8eb f83d a4ea 333d
000001d0: 1547 20bd 70b2 82bd 8ed1 abbd f255 8abd
000001e0: b967 f83c 567a ddbd b914 cf3d d47d b3bd
000001f0: 8cd5 2c3e f1e4 923d 423e 483d 9c4a 73ba
00000200: 036c 7a3d 6696 113e 0f12 f3bd 3d9c e7bd
00000210: acfc e43c 96dc 013b 2407 4abe cbad 763d
00000220: 2a88 62ba 485e e53d bc3f 10bb 4aa5 493d
00000230: 8a33 1b3d 7308 21be e8a4 383e edd3 8b3d
00000240: e638 27bd 9b27 29bc 8f00 06be 8e70 27be
00000250: 3378 14bd 44d0 8f3d 2df7 6f3c 26b4 0fbe
00000260: d653 aa3d 536c 9a3d 1b3f e6bd 2407 27bd
00000270: f906 b23c 08dc cb3d b629 4abe a1db 66bd
00000280: 6d59 0e3e 61fe e53d 64ce 0f3d 71cf 853d
00000290: f9a7 0abc 20e7 9abc 4244 c8bb b3ea 213b
000002a0: 13ab 813d 8df4 c73d 95c7 823c 8964 c53c
000002b0: 08d0 383c cb2b 19be 1e51 13be ff52 80bd
000002c0: 0284 75bc eb18 33bd e7d9 29bc e43d 58bc
000002d0: fc88 30be a66c 3bbe f202 1ebe e2bb cebb
000002e0: 4fc7 88bd 89cc 45bc 34f2 a5bd 668e 14be
000002f0: da4b 0fbe 243c 8f3d 001c 193e f041 d03c
00000300: c1b0 203e 316b 85bb f8c3 ebbd 414f d83d
00000310: 73c2 863d 54f9 43bd 95d1 10bc 74c7 e0bc
00000320: 4828 ea3c 542a 64bd dd9e 063e bc02 7ebd
00000330: e7b2 a6bc a686 013e 69e7 6bbd ac5e f7bd
00000340: fba6 04be e313 b5bd ea7f 9b3c 7ef4 263d
00000350: d7b8 b63d 1487 cfbd d1e3 be3d 6e32 a5bc
00000360: d8fc 0fbe 67f7 1cbe bf2f 38be 7974 73bc
00000370: 03ba 283e 3dc3 dbbb cc1d 343e 609f 3f3c
00000380: 47fd bd3d a466 c63d bd1a 5bbd 13e1 29bd
00000390: 9c72 bd3d c2b2 613d a957 843c 89ee e4bd
000003a0: 2e8d e73d d058 223d f39f b6bd 9ae4 bb3d
000003b0: 5d60 dcbd 0ee0 063e a60b 433d 74ec 5f3d
000003c0: 71a7 113e 7377 20be 7cc3 903c 6452 0eba
000003d0: 02dc ab3d 2bed 1bbe b37d b5bd b8d5 a1bd
000003e0: 4155 aabd d0f9 643d 109e 243e a691 07be
000003f0: 5bbf 21bb d0a4 213d 4bc5 bbbd 6ad0 d63b
0.110655 -0.15666367 0.0041856244 -0.09582699 -0.015331842 0.061600134 -0.040960222 -0.15618743
-0.14652127 -0.13054633 0.15364598 0.017999806 0.13613248 0.0022503491 0.13648848 -0.025687803
-0.13813765 -0.00085176184 -0.039240394 -0.035710387 0.10277262 0.041762225 0.08237362 -0.021403925
0.047869086 0.14560114 0.001921706 -0.031990297 0.13976696 0.1354142 -0.100783244 -0.19382712
0.14816704 -0.031675152 -0.13770841 0.08933252 -0.1346497 0.0076870383 0.12807423 0.08118519
0.0892536 0.012201097 0.08148265 0.0030320266 -0.021472977 -0.12955895 -0.14328611 -0.1217315
-0.026034942 0.15393664 0.13158283 -0.07136232 0.108364925 0.026402626 -0.010680473 0.011007725
0.09557279 -0.015332354 -0.07522775 -0.0825064 -0.0037646056 0.13460375 -0.07033717 -0.069752954
-0.05782514 -0.122150846 0.14568041 -0.17893694 0.013316313 0.14623052 0.1269511 0.00020888177
-0.049878582 -0.028489558 -0.07113851 -0.011262763 -0.15904336 -0.121325605 0.109155245 -0.1314693
-0.17728472 -0.09860798 -0.056147315 0.08915438 -0.008859408 -0.010981465 -0.0962148 -0.033707682
-0.17088339 -0.061616227 0.09227198 0.15494736 0.08723651 -0.04795792 -0.103409946 0.07468376
0.1103317 -0.07013182 -0.06324008 -0.12851077 0.10847091 -0.072081394 0.036087684 -0.098550074
0.0254578 0.06970022 -0.0155471675 -0.16870987 -0.08097987 -0.016517557 0.106070235 0.117942706
0.04675508 -0.116284154 0.12154335 0.043924943 -0.03913029 -0.063816905 -0.08389579 -0.06754674
0.030322896 -0.10814349 0.101113744 -0.08764234 0.16878337 0.07172573 0.0488875 -0.0009280832
0.061138164 0.14217529 -0.11868679 -0.11309097 0.027952515 0.0019815317 -0.19729286 0.060224336
-0.0008641506 0.11199623 -0.0022010645 0.049229898 0.03789095 -0.1572588 0.18031657 0.06827531
-0.040825747 -0.010324384 -0.1308615 -0.1635153 -0.036247443 0.070221454 0.014646334 -0.14033565
0.08316772 0.075401925 -0.11242505 -0.040778294 0.02173184 0.09954077 -0.19742474 -0.0563618
0.139013 0.112301596 0.03510894 0.06533707 -0.008462899 -0.018909037 -0.0061116526 0.0024706542
0.06331458 0.09763441 0.015964309 0.02409579 0.011280067 -0.14958112 -0.14386413 -0.0626583
-0.014985086 -0.043724936 -0.010366893 -0.01319835 -0.17239755 -0.18303165 -0.15430811 -0.0063090185
-0.0667864 -0.012072691 -0.08102837 -0.14507446 -0.13993779 0.06993893 0.14952087 0.025422066
0.15692426 -0.004071616 -0.115119874 0.105619915 0.06580057 -0.0478452 -0.008839031 -0.027438857
0.02858366 -0.05570443 0.13146539 -0.062014326 -0.02034898 0.1264902 -0.057593737 -0.12078604
-0.12954323 -0.08841684 0.018981893 0.04076051 0.08921974 -0.10133186 0.09320796 -0.020165648
-0.14061296 -0.15328752 -0.17986964 -0.014859312 0.16477208 -0.006706624 0.17589492 0.011695713
0.092768244 0.09687546 -0.053492296 -0.041474413 0.09250376 0.055102117 0.01615508 -0.111783095
0.11306225 0.03963548 -0.08917227 0.09174462 -0.10760567 0.13171408 0.04761853 0.05466886
0.1422403 -0.15670566 0.01767134 -0.0005429147 0.083915725 -0.15227191 -0.08861866 -0.07902092
-0.08317042 0.055902302 0.16075921 -0.13239154 -0.0024680707 0.039463818 -0.0916849 0.0065556066

fc2.bias f4 [100]
00000000: 98f3 163e 5366 b33d d7b2 d03d e304 64bd
00000010: 1a6a 143e 0087 8a3d 7010 493e c99e 78bd
00000020: ce44 1a3e 465e 17be be64 163d 99c2 ce3d
00000030: 1daf 3f3e c337 21bd 9adc 003e dd62 03be
00000040: d2f3 fa3d 2714 e7bd 3666 1bbe ea66 0a3e
00000050: d554 5e3c c5d3 0dbe eb4f 3e3e 3cfa 0ebe
00000060: 3207 40be 7649 27be 773f cf3c e3b6 233e
00000070: ca77 1d3e 2635 34be df36 6b3d a8dd 0ebe
00000080: 78f4 da3c b7fd ff3d d11c 46bd 2603 21be
00000090: ca92 46be ec8e 973d de29 a4bd a500 063e
000000a0: 0e94 a1bd 4907 4ebc c9cf 4a3d 4bea acbd
000000b0: 6de9 963b 7f53 0f3e 2954 ab3d b07e 1abe
000000c0: 192a 4a3e f3c5 b3bd 2d26 a73d 6f43 f4bd
000000d0: 8154 98bd b460 e2bd fb35 2a3e 11ba 233e
000000e0: c7bc 523e f083 3dbe 6da4 2f3e 36be 06be
000000f0: db8e 003e a787 84bc 8557 e13d 0e84 263e
00000100: 19ed 483e 0186 49be efa2 3cbd 6e85 e73d
00000110: 39a6 38be f71e 00be 3ca2 ab3d 804d 07be
00000120: 4161 003e 501b 0ebe 7193 ccbd 299c 073e
00000130: 2a0e 44be eb74 acbd 765f 52be 211f 9dbd
00000140: cea3 803b adbc 5cbd e421 37bd f544 6fbc
00000150: d2dc 2bbe 7df5 a83d b147 99bd d87b 10bd
00000160: e22a 163e b8d0 33bd c268 94bd 59aa b7bc
00000170: 01a4 dabd 9b24 f73d 6474 46bc d604 f83d
00000180: 4f4b 19be f0be 30be 2946 373e 49bc bcbd
0.14741361 0.08759751 0.10190361 -0.055668723 0.144936 0.067640305 0.19635177 -0.060698304
0.1506531 -0.14782056 0.03671717 0.1009571 0.18719144 -0.03935982 0.12584153 -0.12830682
0.12253536 -0.11283141 -0.15175709 0.13515821 0.01357003 -0.13850315 0.18585174 -0.13962644
-0.18752745 -0.16336617 0.025298817 0.15987734 0.15377727 -0.175984 0.057425376 -0.13951743
0.0267279 0.12499564 -0.048367325 -0.15723857 -0.19391933 0.07400307 -0.08015798 0.13086183
-0.07889567 -0.012574979 0.049514566 -0.08443125 0.0046054632 0.13996695 0.08365662 -0.1508739
0.19742621 -0.0877799 0.08161578 -0.119269244 -0.07437993 -0.11053601 0.16622154 0.15988947
0.20579825 -0.18507361 0.17152567 -0.13158497 0.12554495 -0.016177965 0.11003021 0.16261312
0.19621696 -0.19680025 -0.046053823 0.113047466 -0.18032159 -0.12511812 0.08380553 -0.13213158
0.125371 -0.13877606 -0.0998906 0.13243164 -0.19146028 -0.08420738 -0.20544228 -0.07671953
0.003925777 -0.053890873 -0.044710055 -0.014603843 -0.16783455 0.08249948 -0.07484377 -0.035274357
0.14664796 -0.04390022 -0.072465435 -0.022420095 -0.106758125 0.12067529 -0.012112711 0.121102974
-0.14970134 -0.17260337 0.17897858 -0.092156

fc3.weight f4 [1, 100]
00000000: a3c0 ce3d be44 eb3d f4d2 d33d 02f5 a1bd
00000010: 1ad0 ef3d 1ce5 db3d a13c d43d ba1b e1bd
00000020: 0496 de3d e6f9 e1bd 55fd be3d c519 ef3d
00000030: 0c6e df3d 75f2 cfbd 3862 e63d 9ce7 e0bd
00000040: f221 e13d 9497 dbbd b8d2 e5bd a54f c53d
00000050: 0feb e23d a9fe dabd d97f ed3d 6e51 d8bd
00000060: cb38 cdbd e1c5 bfbd 9fc7 b73d 8aff e93d
00000070: 963f ec3d 0636 ddbd cf55 d23d 3042 d4bd
00000080: 0dec de3d 7880 cc3d 3dab e0bd e1ff d6bd
00000090: 9a46 f8bd 9ae8 d43d 6489 dbbd 0b38 e83d
000000a0: 588d cfbd d1ce d7bd 2864 ce3d 0b24 e9bd
000000b0: 0501 d13d 4c08 f33d 6dd7 cd3d 2d9e d5bd
000000c0: d924 df3d b425 b7bd f5aa eb3d b525 e0bd
000000d0: a775 dfbd 61e5 e5bd 13aa dd3d 5b8c e23d
000000e0: 30e6 dd3d bbfd bdbd ad79 e33d 59a6 d1bd
000000f0: 11e2 db3d cfea e2bd fb6f a83d 639f dc3d
00000100: 83dd df3d 9e07 e2bd e3ac ddbd 7087 e73d
00000110: 0d8b b9bd 2bb0 bbbd 285a eb3d 65a4 d5bd
00000120: fe97 d93d 8695 edbd e1c9 f0bd fbd5 d73d
00000130: eba3 debd 8a43 f4bd bbdc d6bd 4342 eabd
00000140: f927 babd 3e73 a9bd f1dd cfbd ce15 dcbd
00000150: cc7a d4bd d8df d53d ea02 cdbd 1657 b1bd
00000160: 0aa5 d13d 5fec edbd 1b5c c6bd 639c c0bd
00000170: a4c5 e1bd 19bb f63d ddf8 debd 96bd ed3d
00000180: b563 e6bd d10c fcbd 8bae b33d ec10 d6bd
0.10095336 0.11487721 0.103429705 -0.0790806 0.11709614 0.107370585 0.103631265 -0.109916165
0.10868457 -0.110339925 0.09325663 0.11674837 0.10909662 -0.10153667 0.112492025 -0.10981676
0.10992803 -0.107222706 -0.11221832 0.096343316 0.1107999 -0.10693104 0.11596651 -0.105624065
-0.10020598 -0.09363914 0.089736216 0.11425693 0.115355656 -0.1080132 0.10270273 -0.10364187
0.10884867 0.09985441 -0.10970161 -0.10498024 -0.12122841 0.10395928 -0.107195646 0.11338814
-0.10134381 -0.10537494 0.10077697 -0.11383828 0.102052726 0.11866817 0.10050855 -0.1043056
0.108957 -0.08942738 0.11507217 -0.10944692 -0.10911112 -0.11225391 0.10823455 0.11061927
0.108349204 -0.09276911 0.11107192 -0.102368064 0.10736478 -0.110799424 0.082244836 0.10772588
0.10930922 -0.11036609 -0.10823991 0.113051295 -0.09059725 -0.09164461 0.11491805 -0.104317464
0.10624693 -0.11600785 -0.11757255 0.105388604 -0.108711086 -0.119269446 -0.1049132 -0.1143842
-0.090896554 -0.08273934 -0.10149754 -0.107463464 -0.10374984 0.104430854 -0.100103214 -0.086591884
0.10236557 -0.1161735 -0.096855365 -0.094048284 -0.11024025 0.12047405 -0.10887311 0.11608426
-0.11249486 -0.12307132 0.08773526 -0.10452446

fc1.weight f4 [100, 14]
00000000: a94c 4c3e 1673 343e cd3e fc3d db1c 803e
00000010: 727e ec3d 808b 123e aca9 03be ff09 30be
00000020: 24f2 a33d 3af5 7ebd 9571 0e3e 8219 5a3e
00000030: e32d 0bbe a4d8 833e 77a3 0fbe 0992 bcbd
00000040: a966 953d fca0 eb3d ea3d d23d 18b7 84be
00000050: 1259 2c3e 3e96 873e bad1 e6bd 5f67 9dbd
00000060: b4aa 17be 2f7e 51bc d8bd 65be dd1c a7bd
00000070: 8a42 123d b5d3 2bbc e25f 35be 5972 fbbb
00000080: 8b8c 58be af8b a33d 7014 013e cf0b 1d3e
00000090: db4a 473e bb99 383d 2a8d fa3d 3bf1 813e
000000a0: 6398 26be 2ff2 db3d 7712 84bc 3cb3 75be
000000b0: 962d 39be b8ad 133e 7d93 54bd 8004 de3d
000000c0: 0e06 3d3e f4b2 4b3e f26d 7cbe 8894 3f3e
000000d0: 9230 5b3e 426d 80be 3874 55be 90a2 443e
000000e0: 733d 88be 5c68 b4bd 1612 d63d 5a18 a4bd
000000f0: aa44 9d3c 83d3 19be bdf1 19be f213 9f3c
00000100: 8cac 283e 9a69 bebd 9d17 f13d df27 60be
00000110: 0c2d 8abe cf73 c8bd 4ba6 9b3d 546d 303e
00000120: 4e69 a93d 9a1a 373e 5921 583e f34c 54be
00000130: f25f c73d f00d 5f3e 1947 5cbd 328b dcbd
00000140: 201d 70bd d913 3c3e 063d 5dbe a107 42bd
00000150: 97c7 8e3d 3d8e 503e 5272 233e fe83 893e
00000160: d8c1 b6bd 942e 79be 53dd 553e 3b78 12bd
00000170: ca58 d23d 8f22 d93d 9e5b 153e 425b 0bbe
00000180: 3022 be3c 1d97 5abe d47c f3bb 9a97 be3d
00000190: 3725 253e 4ae5 233e 1ac8 82be 5cd7 33be
000001a0: 7a18 1bbe 90d4 31be 02d2 4b3e 5950 063e
000001b0: b5dc 39bd 8adf 133b baf7 b0bc b084 61bd
000001c0: 671b 633e a745 3cbe c336 a0bd 8b82 1d3c
000001d0: a0e8 16be 2dcf 9a3d 512a fdbc 882e 933d
000001e0: 4b7c 06be 1397 f93d b168 8abd 92a4 2b3e
000001f0: d3cc 863e 2855 813e 13ad 803e d4bd c4bb
00000200: 6c8e f83d 252d e0bd 20ce 5f3e b95f 5c3e
00000210: 81f1 41be fd6e 643e dc30 2f3d 0452 29be
00000220: 9fc8 12be 7bf7 633e 848d 6bbd 0f5d 383e
00000230: 1682 90bd f540 683e 5510 51bd eedc 043e
00000240: 0a4c 4ebe e219 7e3e 1c95 803e 73ab 35be
00000250: ea49 7f3e 12d4 8d3d 3e97 453e 7c6a cfbd
00000260: 25fa 3c3e 3904 e13b d027 473c 1265 3abe
00000270: e481 53be 05bd a8bc 0b14 0dbe 4083 433e
00000280: c6ed 63be b412 2dbe ab19 b5bd 332f ba3d
00000290: bd5a 313e 0018 c5bd eb65 67be 7648 b8bc
000002a0: dcfd 93bd 5c48 833e c7eb 4fbc 774e 623e
000002b0: 7446 6abc eb04 853e 1553 4f3e 4c2d a33d
000002c0: b72a 1ebd 32f8 12be 6ac1 25be 6d56 6fbe
000002d0: da56 803e 0f40 0bbe 0b3a 87be 5170 14be
000002e0: cd10 2fbd 50b8 223e 9987 82bd 0b9b 1cbe
000002f0: 92eb 84be 028d de3d 53c2 1dbe 667c 533e
00000300: ff44 dc3d b8f7 47be 92fc 43be 8531 50bd
00000310: cc54 77bd 7da7 843e a015 6abe 726f 5e3d
00000320: 4819 3fbe aa08 0ebe 1200 c9bd fb64 953c
00000330: 8c5a babc 7551 51bd 8e68 4a3e 2729 883e
00000340: 69bf 3dbe b2b6 603e e1d3 22be 4e6a bc3d
00000350: 717b be3a ab63 423d 4649 61bd 5b21 0cbe
00000360: e90e 783c fdb2 67be a39c 52bc b395 8b3d
00000370: 593e 87bc ab56 b9bd 0801 5d3e dad1 953d
00000380: ec1e e5bc 5dd1 f23c 4fad d23d 836f 27be
00000390: 9775 08bd d6fd 423d 13e6 3dbe 1bf4 49be
000003a0: 0939 f8bd aa01 363e a6d0 973d d35c 2e3e
000003b0: 8f13 55bd a686 b4bb cdee 8b3c 997e 7e3e
000003c0: 2a79 83be c0e8 043e c1be 26be a147 a0bd
000003d0: 7898 043e 390d 1dbd 7360 743e 92f9 79bd
000003e0: d46f 26bc 0036 7ebe 273e 80be a36c d13d
000003f0: bd80 773e b236 0abe db0a 3ebe 1c09 6cbd
0.19951119 0.17622027 0.12316666 0.25022015 0.11547555 0.14311028 -0.12857693 -0.17191313
0.08005169 -0.062245585 0.13910516 0.21298793 -0.13591723 0.2575122 -0.140272 -0.092075415
0.072949715 0.11505315 0.102657154 -0.2592094 0.16830853 0.26481813 -0.11270471 -0.07685732
-0.14811212 -0.012786432 -0.22435701 -0.08159802 0.035707988 -0.010487487 -0.17712358 -0.0076735434
-0.21147363 0.07985627 0.12605453 0.15336536 0.19462149 0.045068484 0.12233956 0.25379357
-0.16269068 0.10739552 -0.016122086 -0.23994154 -0.18083796 0.14421737 -0.05189847 0.10840702
0.18459341 0.19892484 -0.24651316 0.18709004 0.21405247 -0.25083357 -0.20845115 0.19202638
-0.26609382 -0.088089675 0.10452668 -0.08012457 0.01919778 -0.15022092 -0.15033622 0.01941869
0.16472071 -0.09297486 0.11772082 -0.2189021 -0.26987493 -0.09787714 0.07600077 0.17229205
0.082720384 0.17881241 0.21106471 -0.20732479 0.09735097 0.2178266 -0.05377874 -0.10768737
-0.058621526 0.18366946 -0.2160531 -0.047370557 0.069716625 0.2036676 0.15961578 0.26858515
-0.089236915 -0.24334174 0.2088521 -0.035759192 0.102708414 0.10602295 0.1458573 -0.13609031
0.023209661 -0.21346708 -0.007430652 0.093062595 0.16127478 0.16005436 -0.2554329 -0.17562622
-0.15146056 -0.17366242 0.1990433 0.13116588 -0.0453765 0.002256366 -0.0216025 -0.05505818
0.22178422 -0.18385945 -0.07822945 0.009613643 -0.14737177 0.07559047 -0.030903967 0.071866095
-0.13133352 0.12187018 -0.067582496 0.16761997 0.26328143 0.25260282 0.25132045 -0.0060040746
0.1213654 -0.10946111 0.21855974 0.2152089 -0.18939783 0.22307964 0.042771205 -0.16535193
-0.14334343 0.22262375 -0.057508007 0.18004249 -0.07056062 0.22681029 -0.051040966 0.12974903
-0.20146194 0.24814561 0.2511376 -0.17741184 0.2493054 0.06925215 0.19295976 -0.10127732
0.18454798 0.0068669585 0.012155488 -0.18202618 -0.20655018 -0.020597944 -0.13777177 0.19093037
-0.22258672 -0.16901666 -0.088427864 0.09091034 0.1731977 -0.09623718 -0.22597472 -0.02249549
-0.07226154 0.25641143 -0.012690491 0.22100244 -0.014299024 0.25980315 0.20246537 0.07967624
-0.038614955 -0.14352491 -0.16187063 -0.23372813 0.25066262 -0.13598655 -0.2641147 -0.1449597
-0.04274063 0.15890622 -0.063735195 -0.15293519 -0.25960976 0.10866739 -0.1540616 0.20652923
0.107553475 -0.19528091 -0.19139317 -0.050828476 -0.060383603 0.25909033 -0.22859812 0.0543055
-0.18661988 -0.13870493 -0.098144665 0.018236628 -0.022748254 -0.051103074 0.19766447 0.26593897
-0.18530048 0.21944693 -0.15901138 0.091999635 0.0014532638 0.047458332 -0.05500152 -0.13684599
0.015140274 -0.22626872 -0.012854728 0.06815662 -0.016509222 -0.09049734 0.21582425 0.07315417
-0.027968846 0.029640848 0.10286962 -0.16351132 -0.033315267 0.047605358 -0.18544798 -0.19722025
-0.121202536 0.17774072 0.074128434 0.17027597 -0.052020606 -0.0055092154 0.017081643 0.2485298
-0.25678378 0.12979412 -0.16283704 -0.07826162 0.12948787 -0.03834269 0.23864917 -0.061029024
-0.010158498 -0.24825287 -0.25047418 0.10225799 0.24170204 -0.13497427 -0.18558829 -0.057625875
